cloud-detection-code/tests/test_artifacts/test_convert_two_step_conv_block/test_save_two_step_conv_block.pt (torch, 226939 bytes, 12 tensors)

0.weight f4 [32]
1.0 1.0 1.0 1.0 1.0 1.0 1.0 1.0
1.0 1.0 1.0 1.0 1.0 1.0 1.0 1.0
1.0 1.0 1.0 1.0 1.0 1.0 1.0 1.0
1.0 1.0 1.0 1.0 1.0 1.0 1.0 1.0
00000000: 0000 803f 0000 803f 0000 803f 0000 803f
00000010: 0000 803f 0000 803f 0000 803f 0000 803f
00000020: 0000 803f 0000 803f 0000 803f 0000 803f
00000030: 0000 803f 0000 803f 0000 803f 0000 803f
00000040: 0000 803f 0000 803f 0000 803f 0000 803f
00000050: 0000 803f 0000 803f 0000 803f 0000 803f
00000060: 0000 803f 0000 803f 0000 803f 0000 803f
00000070: 0000 803f 0000 803f 0000 803f 0000 803f

0.bias f4 [32]
0.0 0.0 0.0 0.0 0.0 0.0 0.0 0.0
0.0 0.0 0.0 0.0 0.0 0.0 0.0 0.0
0.0 0.0 0.0 0.0 0.0 0.0 0.0 0.0
0.0 0.0 0.0 0.0 0.0 0.0 0.0 0.0
00000000: 0000 0000 0000 0000 0000 0000 0000 0000
00000010: 0000 0000 0000 0000 0000 0000 0000 0000
00000020: 0000 0000 0000 0000 0000 0000 0000 0000
00000030: 0000 0000 0000 0000 0000 0000 0000 0000
00000040: 0000 0000 0000 0000 0000 0000 0000 0000
00000050: 0000 0000 0000 0000 0000 0000 0000 0000
00000060: 0000 0000 0000 0000 0000 0000 0000 0000
00000070: 0000 0000 0000 0000 0000 0000 0000 0000

0.running_mean f4 [32]
0.0 0.0 0.0 0.0 0.0 0.0 0.0 0.0
0.0 0.0 0.0 0.0 0.0 0.0 0.0 0.0
0.0 0.0 0.0 0.0 0.0 0.0 0.0 0.0
0.0 0.0 0.0 0.0 0.0 0.0 0.0 0.0
00000000: 0000 0000 0000 0000 0000 0000 0000 0000
00000010: 0000 0000 0000 0000 0000 0000 0000 0000
00000020: 0000 0000 0000 0000 0000 0000 0000 0000
00000030: 0000 0000 0000 0000 0000 0000 0000 0000
00000040: 0000 0000 0000 0000 0000 0000 0000 0000
00000050: 0000 0000 0000 0000 0000 0000 0000 0000
00000060: 0000 0000 0000 0000 0000 0000 0000 0000
00000070: 0000 0000 0000 0000 0000 0000 0000 0000

0.running_var f4 [32]
1.0 1.0 1.0 1.0 1.0 1.0 1.0 1.0
1.0 1.0 1.0 1.0 1.0 1.0 1.0 1.0
1.0 1.0 1.0 1.0 1.0 1.0 1.0 1.0
1.0 1.0 1.0 1.0 1.0 1.0 1.0 1.0
00000000: 0000 803f 0000 803f 0000 803f 0000 803f
00000010: 0000 803f 0000 803f 0000 803f 0000 803f
00000020: 0000 803f 0000 803f 0000 803f 0000 803f
00000030: 0000 803f 0000 803f 0000 803f 0000 803f
00000040: 0000 803f 0000 803f 0000 803f 0000 803f
00000050: 0000 803f 0000 803f 0000 803f 0000 803f
00000060: 0000 803f 0000 803f 0000 803f 0000 803f
00000070: 0000 803f 0000 803f 0000 803f 0000 803f

2.weight f4 [64, 32, 3, 3]
-0.07010795 -0.063574366 -0.024250386 -0.1675563 0.054456804 0.056655433 -0.032560527 0.14054751
0.10707159 -0.09461097 -0.08021089 0.022493953 -0.008868695 0.049788345 -0.01596317 0.08665058
0.06779405 -0.03632357 -0.01569402 -0.07929427 -0.09307286 -0.021787584 -0.010832127 -0.10391832
0.02834718 0.13210933 0.037779503 -0.02754589 -0.019637132 -0.014934496 -0.021147024 -0.027324848
-0.053900532 0.029485213 0.054994516 -0.010223092 -0.057071786 -0.042188857 -0.042689964 0.0021315897
0.15381378 -0.14793782 0.13012406 0.22552173 -0.008409691 -0.0060043656 0.056947973 -0.026021538
-0.0646161 0.061896496 -0.15099919 0.017473422 0.07571447 -0.03397386 0.024892295 0.0013556594
-0.0014775408 -0.018798925 -0.11246248 0.044491664 -0.07923525 -0.12333389 -0.000505288 -0.041103918
0.04263646 0.06865219 -0.021675121 -0.0771815 0.009185978 0.034515373 -0.009028602 -0.049709447
0.03686659 -0.03118209 -0.054804247 0.047266968 0.049255345 -0.0817507 -0.036909074 -0.116937965
-0.05197416 0.08300041 0.139725 0.0039788634 -0.0043814136 0.012400248 -0.039684862 -0.043321177
-0.009926849 0.006493951 -0.020459222 0.09884595 0.019586317 -0.14447246 -0.0374057 -0.084384605
-0.03341129 0.03081148 -0.023746315 0.059804585 0.08857194 0.03764255 0.04797673 -0.06779091
0.057095706 -0.017003529 -0.03441659 0.0127026215 0.023597598 -0.048380908 -0.051594663 0.1010604
-0.051981855 -0.1276216 0.015432496 -0.115023956 -0.098563164 0.03819801 -0.028164977 -0.052701887
0.055619456 -0.019596418 -0.018906267 0.008054869 0.044189446 0.037299853 0.01303477 -0.023868866
-0.008520562 0.0047600353 -0.09564352 0.037359804 -0.043028086 -0.07469144 0.005496945 0.027221737
-0.14621685 -0.08922579 0.0748624 0.01849522 0.07355918 -0.020807244 0.017882584 0.09456214
-0.00078013114 -0.015697092 0.00082765665 0.00036173695 0.0060774437 0.02770327 -0.013969022 -0.024126705
0.007042752 0.03679411 0.01650794 0.01489841 0.093765505 -0.011932417 0.001996967 0.0049716756
-0.0992586 -0.04905245 -0.03232558 -0.011112172 0.004696974 -0.08004277 0.056872707 0.0016835538
-0.03522537 -0.025898585 -0.004635986 0.04205649 -0.029804867 -0.08012127 -0.03464958 0.061695557
-0.0077627664 -0.06316457 0.038074967 0.08125657 0.037441336 0.03281004 -0.06010584 0.0078756595
0.042761892 -0.19344208 -0.019232279 -0.06969536 -0.08823464 -0.03891323 -0.01278603 0.026227608
-0.015785431 0.027422182 0.012715242 0.029146602 0.02277132 -0.012415733 -0.114210844 -0.122985594
0.04193112 -0.105451494 0.036668207 0.1683247 -0.0073857475 0.03156652 0.06296651 0.006033106
0.06487941 0.033303637 -0.09660513 0.057310328 0.055951945 -0.07512136 -0.044682164 0.02381814
0.016549194 0.09511528 -0.005382446 -0.11469629 -0.015324949 -0.0378322 -0.03765214 0.093967006
0.04786891 -0.012913081 -0.054682396 -0.037688464 -0.004399832 0.06585251 -0.041251652 -0.004485051
-0.011264565 -0.010197056 -0.01599038 0.026138065 -0.005753716 -0.049978044 -0.013457032 -0.05664138
0.01697239 0.074415356 0.0012231692 0.0011704402 -0.03141239 0.011148299 0.053810555 0.09639847
0.03140557 0.00071807025 -0.07903259 -0.027795369 -0.057066426 0.060782738 0.054292306 -0.16715205
00000000: c294 8fbd 4733 82bd bfa8 c6bc e193 2bbe
00000010: 190e 5f3d 870f 683d 305e 05bd b0eb 0f3e
00000020: 5a48 db3d 65c3 c1bd 9b45 a4bd 3d45 b83c
00000030: 014e 11bc ddee 4b3d 32c5 82bc dc75 b13d
00000040: 9bd7 8a3d 06c8 14bd bf90 80bc 0965 a2bd
00000050: fc9c bebd e07b b2bc 3c79 31bc 21d3 d4bd
00000060: 5838 e83c ab47 073e aebe 1a3d eba7 e1bc
00000070: 0dde a0bc d1af 74bc 863c adbc 5cd8 dfbc
00000080: cec6 5cbd f98a f13c ee41 613d c17e 27bc
00000090: 1bc4 69bd 39ce 2cbd acdb 2ebd 24b2 0b3b
000000a0: 5c81 1d3e 037d 17be 3e3f 053e 2bef 663e
000000b0: cdc8 09bc 45c0 c4bb 4742 693d 1f2b d5bc
000000c0: 7255 84bd 2e87 7d3d 889f 1abe 6c24 8f3c
000000d0: 3010 9b3d 2d28 0bbd edea cb3c 62b0 b13a
000000e0: 0baa c1ba 3400 9abc bb52 e6bd e43c 363d
000000f0: 1746 a2bd 7b96 fcbd 4e75 04ba 955c 28bd
00000100: 92a3 2e3d 8599 8c3d 0690 b1bc 5611 9ebd
00000110: c980 163c fe5f 0d3d b4ec 13bc 229c 4bbd
00000120: 6c01 173d 9571 ffbc 6b7a 60bd 029b 413d
00000130: f9bf 493d e96c a7bd f82d 17bd 2c7d efbd
00000140: dbe2 54bd 1efc a93d 1214 0f3e 2061 823b
00000150: f691 8fbb 692a 4b3c 988c 22bd 8c71 31bd
00000160: 39a4 22bc 36cb d43b 199a a7bc bf6f ca3d
00000170: 7c73 a03c 97f0 13be b836 19bd d6d1 acbd
00000180: 47da 08bd 5b68 fc3c a287 c2bc a7f5 743d
00000190: 3565 b53d 132f 1a3d 3f83 443d f6d5 8abd
000001a0: 30dd 693d fc4a 8bbc 69f8 0cbd a81e 503c
000001b0: c04f c13c 0f2b 46bd ed54 53bd c1f8 ce3d
000001c0: edea 54bd 3daf 02be 94d8 7c3c ae91 ebbd
000001d0: 7cdb c9bd 8475 1c3d 3dba e6bc efdd 57bd
000001e0: 3ad1 633d ab88 a0bc 51e1 9abc 92f8 033c
000001f0: feff 343d bbc7 183d ca8f 553c a488 c3bc
00000200: d499 0bbc 12fa 9b3b c0e0 c3bd 9806 193d
00000210: 383e 30bd d3f7 98bd b81f b43b 1f00 df3c
00000220: dfb9 15be 03bc b6bd 7551 993d 4a83 973c
00000230: 32a6 963d f473 aabc 7f7e 923c cca9 c13d
00000240: b781 4cba 3097 80bc 19f7 583a 83a7 bd39
00000250: 4b25 c73b f8f1 e23c 53de 64bc 5ea5 c5bc
00000260: e3c6 e63b 6cb5 163d a93b 873c 7618 743c
00000270: 2108 c03d 2f80 43bc 8cdf 023b 70e9 a23b
00000280: 1848 cbbd 39eb 48bd d467 04bd d40f 36bc
00000290: 13e9 993b 77ed a3bd 5bf3 683d b1aa dc3a
000002a0: 7a48 10bd 4529 d4bc 78e9 97bb 6d43 2c3d
000002b0: 5629 f4bc 9f16 a4bd b8ec 0dbd 7bb4 7c3d
000002c0: ce5e febb 6d5c 81bd 7ff4 1b3d d869 a63d
000002d0: 165c 193d d263 063d 8b31 76bd e908 013c
000002e0: 1827 2f3d ae15 46be 038d 9dbc 71bc 8ebd
000002f0: 5db4 b4bd 7b63 1fbd 7f7c 51bc 48db d63c
00000300: 7350 81bc 7ca4 e03c 9753 503c dbc4 ee3c
00000310: eb8a ba3c 5c6b 4bbc 60e7 e9bd dfdf fbbd
00000320: f7bf 2b3d f4f6 d7bd 6731 163d 4f5d 2c3e
00000330: 2404 f2bb e54b 013d 96f4 803d 5cb1 c53b
00000340: 7fdf 843d 6569 083d e9d8 c5bd 3cbe 6a3d
00000350: de2d 653d 3ad9 99bd a504 37bd 431e c33c
00000360: 2d92 873c cdcb c23d 3b5f b0bb e3e5 eabd
00000370: 7f15 7bbc f0f5 1abd 2139 1abd c671 c03d
00000380: 3112 443d 6391 53bc a6fa 5fbd 385f 1abd
00000390: 772c 90bb aedd 863d 7ef7 28bd 56f7 92bb
000003a0: 038f 38bc 8e11 27bc 42fe 82bc 7f1f d63c
000003b0: ab89 bcbb c7b5 4cbd e27a 5cbc cb00 68bd
000003c0: ae09 8b3c 1467 983d bf52 a03a 7569 993a
000003d0: 47aa 00bd 5ba7 363c 7568 5c3d 906c c53d
000003e0: 21a3 003d e13c 3c3a d7db a1bd 1db3 e3bc
000003f0: 7cbe 69bd 52f7 783d 9c61 5e3d e829 2bbe

2.bias f4 [64]
0.0 0.0 0.0 0.0 0.0 0.0 0.0 0.0
0.0 0.0 0.0 0.0 0.0 0.0 0.0 0.0
0.0 0.0 0.0 0.0 0.0 0.0 0.0 0.0
0.0 0.0 0.0 0.0 0.0 0.0 0.0 0.0
0.0 0.0 0.0 0.0 0.0 0.0 0.0 0.0
0.0 0.0 0.0 0.0 0.0 0.0 0.0 0.0
0.0 0.0 0.0 0.0 0.0 0.0 0.0 0.0
0.0 0.0 0.0 0.0 0.0 0.0 0.0 0.0
00000000: 0000 0000 0000 0000 0000 0000 0000 0000
00000010: 0000 0000 0000 0000 0000 0000 0000 0000
00000020: 0000 0000 0000 0000 0000 0000 0000 0000
00000030: 0000 0000 0000 0000 0000 0000 0000 0000
00000040: 0000 0000 0000 0000 0000 0000 0000 0000
00000050: 0000 0000 0000 0000 0000 0000 0000 0000
00000060: 0000 0000 0000 0000 0000 0000 0000 0000
00000070: 0000 0000 0000 0000 0000 0000 0000 0000
00000080: 0000 0000 0000 0000 0000 0000 0000 0000
00000090: 0000 0000 0000 0000 0000 0000 0000 0000
000000a0: 0000 0000 0000 0000 0000 0000 0000 0000
000000b0: 0000 0000 0000 0000 0000 0000 0000 0000
000000c0: 0000 0000 0000 0000 0000 0000 0000 0000
000000d0: 0000 0000 0000 0000 0000 0000 0000 0000
000000e0: 0000 0000 0000 0000 0000 0000 0000 0000
000000f0: 0000 0000 0000 0000 0000 0000 0000 0000

3.weight f4 [64]
1.0 1.0 1.0 1.0 1.0 1.0 1.0 1.0
1.0 1.0 1.0 1.0 1.0 1.0 1.0 1.0
1.0 1.0 1.0 1.0 1.0 1.0 1.0 1.0
1.0 1.0 1.0 1.0 1.0 1.0 1.0 1.0
1.0 1.0 1.0 1.0 1.0 1.0 1.0 1.0
1.0 1.0 1.0 1.0 1.0 1.0 1.0 1.0
1.0 1.0 1.0 1.0 1.0 1.0 1.0 1.0
1.0 1.0 1.0 1.0 1.0 1.0 1.0 1.0
00000000: 0000 803f 0000 803f 0000 803f 0000 803f
00000010: 0000 803f 0000 803f 0000 803f 0000 803f
00000020: 0000 803f 0000 803f 0000 803f 0000 803f
00000030: 0000 803f 0000 803f 0000 803f 0000 803f
00000040: 0000 803f 0000 803f 0000 803f 0000 803f
00000050: 0000 803f 0000 803f 0000 803f 0000 803f
00000060: 0000 803f 0000 803f 0000 803f 0000 803f
00000070: 0000 803f 0000 803f 0000 803f 0000 803f
00000080: 0000 803f 0000 803f 0000 803f 0000 803f
00000090: 0000 803f 0000 803f 0000 803f 0000 803f
000000a0: 0000 803f 0000 803f 0000 803f 0000 803f
000000b0: 0000 803f 0000 803f 0000 803f 0000 803f
000000c0: 0000 803f 0000 803f 0000 803f 0000 803f
000000d0: 0000 803f 0000 803f 0000 803f 0000 803f
000000e0: 0000 803f 0000 803f 0000 803f 0000 803f
000000f0: 0000 803f 0000 803f 0000 803f 0000 803f

3.bias f4 [64]
0.0 0.0 0.0 0.0 0.0 0.0 0.0 0.0
0.0 0.0 0.0 0.0 0.0 0.0 0.0 0.0
0.0 0.0 0.0 0.0 0.0 0.0 0.0 0.0
0.0 0.0 0.0 0.0 0.0 0.0 0.0 0.0
0.0 0.0 0.0 0.0 0.0 0.0 0.0 0.0
0.0 0.0 0.0 0.0 0.0 0.0 0.0 0.0
0.0 0.0 0.0 0.0 0.0 0.0 0.0 0.0
0.0 0.0 0.0 0.0 0.0 0.0 0.0 0.0
00000000: 0000 0000 0000 0000 0000 0000 0000 0000
00000010: 0000 0000 0000 0000 0000 0000 0000 0000
00000020: 0000 0000 0000 0000 0000 0000 0000 0000
00000030: 0000 0000 0000 0000 0000 0000 0000 0000
00000040: 0000 0000 0000 0000 0000 0000 0000 0000
00000050: 0000 0000 0000 0000 0000 0000 0000 0000
00000060: 0000 0000 0000 0000 0000 0000 0000 0000
00000070: 0000 0000 0000 0000 0000 0000 0000 0000
00000080: 0000 0000 0000 0000 0000 0000 0000 0000
00000090: 0000 0000 0000 0000 0000 0000 0000 0000
000000a0: 0000 0000 0000 0000 0000 0000 0000 0000
000000b0: 0000 0000 0000 0000 0000 0000 0000 0000
000000c0: 0000 0000 0000 0000 0000 0000 0000 0000
000000d0: 0000 0000 0000 0000 0000 0000 0000 0000
000000e0: 0000 0000 0000 0000 0000 0000 0000 0000
000000f0: 0000 0000 0000 0000 0000 0000 0000 0000

3.running_mean f4 [64]
0.0 0.0 0.0 0.0 0.0 0.0 0.0 0.0
0.0 0.0 0.0 0.0 0.0 0.0 0.0 0.0
0.0 0.0 0.0 0.0 0.0 0.0 0.0 0.0
0.0 0.0 0.0 0.0 0.0 0.0 0.0 0.0
0.0 0.0 0.0 0.0 0.0 0.0 0.0 0.0
0.0 0.0 0.0 0.0 0.0 0.0 0.0 0.0
0.0 0.0 0.0 0.0 0.0 0.0 0.0 0.0
0.0 0.0 0.0 0.0 0.0 0.0 0.0 0.0
00000000: 0000 0000 0000 0000 0000 0000 0000 0000
00000010: 0000 0000 0000 0000 0000 0000 0000 0000
00000020: 0000 0000 0000 0000 0000 0000 0000 0000
00000030: 0000 0000 0000 0000 0000 0000 0000 0000
00000040: 0000 0000 0000 0000 0000 0000 0000 0000
00000050: 0000 0000 0000 0000 0000 0000 0000 0000
00000060: 0000 0000 0000 0000 0000 0000 0000 0000
00000070: 0000 0000 0000 0000 0000 0000 0000 0000
00000080: 0000 0000 0000 0000 0000 0000 0000 0000
00000090: 0000 0000 0000 0000 0000 0000 0000 0000
000000a0: 0000 0000 0000 0000 0000 0000 0000 0000
000000b0: 0000 0000 0000 0000 0000 0000 0000 0000
000000c0: 0000 0000 0000 0000 0000 0000 0000 0000
000000d0: 0000 0000 0000 0000 0000 0000 0000 0000
000000e0: 0000 0000 0000 0000 0000 0000 0000 0000
000000f0: 0000 0000 0000 0000 0000 0000 0000 0000

3.running_var f4 [64]
1.0 1.0 1.0 1.0 1.0 1.0 1.0 1.0
1.0 1.0 1.0 1.0 1.0 1.0 1.0 1.0
1.0 1.0 1.0 1.0 1.0 1.0 1.0 1.0
1.0 1.0 1.0 1.0 1.0 1.0 1.0 1.0
1.0 1.0 1.0 1.0 1.0 1.0 1.0 1.0
1.0 1.0 1.0 1.0 1.0 1.0 1.0 1.0
1.0 1.0 1.0 1.0 1.0 1.0 1.0 1.0
1.0 1.0 1.0 1.0 1.0 1.0 1.0 1.0
00000000: 0000 803f 0000 803f 0000 803f 0000 803f
00000010: 0000 803f 0000 803f 0000 803f 0000 803f
00000020: 0000 803f 0000 803f 0000 803f 0000 803f
00000030: 0000 803f 0000 803f 0000 803f 0000 803f
00000040: 0000 803f 0000 803f 0000 803f 0000 803f
00000050: 0000 803f 0000 803f 0000 803f 0000 803f
00000060: 0000 803f 0000 803f 0000 803f 0000 803f
00000070: 0000 803f 0000 803f 0000 803f 0000 803f
00000080: 0000 803f 0000 803f 0000 803f 0000 803f
00000090: 0000 803f 0000 803f 0000 803f 0000 803f
000000a0: 0000 803f 0000 803f 0000 803f 0000 803f
000000b0: 0000 803f 0000 803f 0000 803f 0000 803f
000000c0: 0000 803f 0000 803f 0000 803f 0000 803f
000000d0: 0000 803f 0000 803f 0000 803f 0000 803f
000000e0: 0000 803f 0000 803f 0000 803f 0000 803f
000000f0: 0000 803f 0000 803f 0000 803f 0000 803f

5.weight f4 [64, 64, 3, 3]
0.016341707 0.0067036357 0.02166453 0.039268177 -0.014712393 0.053290963 -0.008075527 -0.05117051
-0.0017973462 0.05594152 0.12960039 0.037047353 0.025947498 0.0060207946 -0.02033246 0.003161601
0.001401242 -0.016231483 0.02487765 0.0013745184 -0.033908907 -0.003957431 0.02022354 -0.02598865
-0.02112102 0.01025817 0.019439183 -0.023871915 0.039867967 0.03177798 -0.018494744 0.054451358
-0.011221778 0.051727705 0.09536965 0.0020947165 -0.01375958 0.030321456 0.007525848 -0.038209867
-0.024544798 -0.04350603 0.009955686 0.030899465 -0.01571124 0.0037237334 0.0652442 0.033080537
-0.0101664215 -0.010688626 0.0017543259 0.024401657 0.056183662 0.004906858 0.0035201416 -0.03839759
-0.031119056 0.03209312 0.016646527 -0.03820432 0.009394694 -0.010752567 -0.014122963 0.039727602
-0.0151127875 -0.026165677 0.06935902 0.03559392 0.027960759 0.011657945 0.034928024 0.043302596
-0.009328501 0.047484193 0.026565818 0.020428825 0.02776137 -0.06236155 0.05492334 0.033248458
-0.049463194 -0.04915931 -0.06255383 0.0047189896 -0.016082078 0.012082718 0.025165461 0.023519779
0.024144825 0.003765427 -0.021644082 -0.003131537 0.036644742 0.017545134 -0.019029899 0.06331033
0.040989187 0.05313644 0.020561785 -0.024369108 -0.027014293 0.016394904 0.03199082 0.05588778
0.03201883 0.053576384 0.06290039 0.012835552 0.057539217 0.025751691 -0.04002406 0.03889871
0.04040073 -0.05729666 -0.026973214 -0.0388931 -0.008992068 -0.045513283 -0.021931006 0.049402907
-0.0123229185 0.012626479 0.07125202 0.016598804 -0.017660363 -0.009176096 0.004829407 0.009522775
-0.014342366 -0.0176314 -0.051247463 -0.014820062 0.0035863824 0.055677067 0.025083967 -0.050058827
-0.019039977 0.02814336 -0.08937198 0.027330682 0.088244155 -0.009657484 0.067192174 0.059081607
-0.026983557 0.0025211463 0.048817225 -0.028894829 -0.063361816 0.08809736 -0.00996404 -0.022591056
0.01102246 0.021760989 -0.08033474 -0.06177349 0.09763126 0.00675241 -0.029494196 0.035016794
0.02653143 0.013380763 -0.02868946 -0.0071976334 0.024176428 -0.057999596 0.011101491 0.04810278
-0.028563134 -0.028593777 0.0063491357 0.04784116 0.050794095 0.018973587 0.037987247 0.067574784
0.03531148 -0.033391118 -0.07847399 -0.0067371917 0.0069538835 -0.06456801 -0.033916365 -0.008528349
-0.09645961 0.056650158 -0.04972539 -0.037608016 0.045066833 -0.024427313 0.014074298 0.029964939
-0.057443563 0.026058072 0.0277776 -0.025708593 -0.035295945 -0.009597638 0.0051802914 0.029388845
0.0032807789 -0.05452874 -0.011279187 -0.028359583 -0.06050968 -0.09865623 -0.036960524 0.015021602
0.011976657 0.034688696 0.04513939 0.013140812 0.06951026 -0.006699977 -0.063710086 -0.0062051346
0.078614 0.12164216 0.0046926085 0.052367646 -0.025029222 -0.031206742 0.018920869 0.07246475
0.02370143 -0.014053814 0.026789114 0.036852565 -0.022725824 -0.01302599 0.033321142 -8.496481e-05
-0.00646083 -0.0046238694 0.01815695 0.05217395 -0.0004021397 -0.019305225 -0.0075599365 -0.020921905
0.0036811635 0.060428683 0.020902777 -0.064015806 -0.050091404 0.0073547177 -0.06745094 -0.047189083
0.019760486 0.01706142 0.06058607 0.017840622 -0.020923272 0.04905769 0.041205805 -0.012839279
00000000: 0bdf 853c 2caa db3b d079 b13c abd7 203d
00000010: 400c 71bc a047 5a3d 374f 04bc 2b98 51bd
00000020: ee94 ebba ef22 653d f7b5 043e f7be 173d
00000030: d98f d43c 164a c53b 4290 a6bc dd32 4f3b
00000040: e1a9 b73a e3f7 84bc 37cc cb3c 2f29 b43a
00000050: 11e4 0abd 56ad 81bb d6ab a53c 26e6 d4bc
00000060: fd05 adbc e211 283c ec3e 9f3c 098f c3bc
00000070: 984c 233d a129 023d 4a82 97bc 6308 5f3d
00000080: 8cdb 37bc 6ee0 533d 2a51 c33d 8347 093b
00000090: dd6f 61bc b464 f83c 649b f63b f381 1cbd
000000a0: 2c12 c9bc 6133 32bd 2c1d 233c e020 fd3c
000000b0: dcb4 80bc e109 743b c09e 853d 757f 073d
000000c0: 1091 26bc 591f 2fbc 69f1 e53a fce5 c73c
000000d0: d720 663d b5c9 a03b 2db2 663b cb46 1dbd
000000e0: 64ed febc 1374 033d 4c5e 883c 227c 1cbd
000000f0: 34ec 193c 892b 30bc 0064 67bc 69b9 223d
00000100: a09b 77bc 6759 d6bc 1a0c 8e3d eeca 113d
00000110: f60d e53c f700 3f3c b010 0f3d 105e 313d
00000120: 92d6 18bc c97e 423d 8fa0 d93c 5a5a a73c
00000130: d06b e33c d36e 7fbd 4cf7 603d 892f 083d
00000140: eb99 4abd 465b 49bd 391c 80bd c1a1 9a3b
00000150: 90be 83bc 98f6 453c cc27 ce3c 8dac c03c
00000160: 5ecb c53c 62c5 763b ee4e b1bc 793a 4dbb
00000170: cc18 163d d0ba 8f3c 97e4 9bbc d9a8 813d
00000180: 47e4 273d 99a5 593d 3071 a83c b9a1 c7bc
00000190: 144d ddbc 9b4e 863c ce08 033d 96ea 643d
000001a0: 2d26 033d e972 5b3d ebd1 803d 354c 523c
000001b0: 3eae 6b3d 36f5 d23c 45f0 23bd 4154 1f3d
000001c0: 3c7b 253d e7af 6abd eef6 dcbc 5f4e 1fbd
000001d0: 7753 13bc 236c 3abd a7a8 b3bc b45a 4a3d
000001e0: 11e6 49bc 4bdf 4e3c 94ec 913d 37fa 873c
000001f0: 77ac 90bc 5657 16bc 0140 9e3b 6a05 1c3c
00000200: 3efc 6abc ba6f 90bc dce8 51bd d8cf 72bc
00000210: 8309 6b3b a30d 643d e47c cd3c 7c0a 4dbd
00000220: baf9 9bbc e78c e63c a808 b7bd 98e4 df3c
00000230: 5ab9 b43d 6c3a 1ebc 0d9c 893d 8eff 713d
00000240: 9f0c ddbc d139 253b 92f4 473d d9b4 ecbc
00000250: d7c3 81bd 646c b43d 3640 23bc e110 b9bc
00000260: 8c97 343c 1a44 b23c 8a86 a4bd 3306 7dbd
00000270: e6f2 c73d 5243 dd3b d09d f1bc c56d 0f3d
00000280: 7158 d93c fd3a 5b3c 2906 ebbc 20da ebbb
00000290: a50d c63c fc90 6dbd 07e3 353c 6c07 453d
000002a0: 3cfd e9bc 7f3d eabc 690c d03b 18f5 433d
000002b0: 780d 503d 7f6e 9b3c 8498 1b3d a664 8a3d
000002c0: c5a2 103d 20c5 08bd f9b6 a0bd a9c3 dcbb
000002d0: 67dd e33b 3c3c 84bd e3eb 0abd 7dba 0bbc
000002e0: 9e8c c5bd ff09 683d daac 4bbd dd0a 1abd
000002f0: 0098 383d ca1b c8bc e297 663c 0879 f53c
00000300: f149 6bbd bd77 d53c d98d e33c d49a d2bc
00000310: 7b92 10bd 693f 1dbc 6fbf a93b e0c0 f03c
00000320: 5602 573b 8759 5fbd 57cc 38bc 5b52 e8bc
00000330: 00d9 77bd 470c cabd eb63 17bd 2a1d 763c
00000340: be39 443c bc15 0e3d 15e4 383d 8f4c 573c
00000350: 655b 8e3d 7b8b dbbb 6f7a 82bd 7154 cbbb
00000360: 6000 a13d 861f f93d 74c4 993b 757f 563d
00000370: 150a cdbc 48a5 ffbc f0ff 9a3c 6668 943d
00000380: 8029 c23c f841 66bc d874 db3c b7f2 163d
00000390: 822b babc f66a 55bc c07b 083d 232f b2b8
000003a0: 5fb5 d3bb d483 97bb e2bd 943c 5ab4 553d
000003b0: 47d6 d2b9 fe25 9ebc 58b9 f7bb 6a64 abbc
000003c0: ad3f 713b 1184 773d 4d3c ab3c b81a 83bd
000003d0: a52c 4dbd d8ff f03b b823 8abd 5749 41bd
000003e0: bee0 a13c 64c4 8b3c 1929 783d 7f26 923c
000003f0: 4867 abbc b7f0 483d 6bc7 283d d75b 52bc

5.bias f4 [64]
0.0 0.0 0.0 0.0 0.0 0.0 0.0 0.0
0.0 0.0 0.0 0.0 0.0 0.0 0.0 0.0
0.0 0.0 0.0 0.0 0.0 0.0 0.0 0.0
0.0 0.0 0.0 0.0 0.0 0.0 0.0 0.0
0.0 0.0 0.0 0.0 0.0 0.0 0.0 0.0
0.0 0.0 0.0 0.0 0.0 0.0 0.0 0.0
0.0 0.0 0.0 0.0 0.0 0.0 0.0 0.0
0.0 0.0 0.0 0.0 0.0 0.0 0.0 0.0
00000000: 0000 0000 0000 0000 0000 0000 0000 0000
00000010: 0000 0000 0000 0000 0000 0000 0000 0000
00000020: 0000 0000 0000 0000 0000 0000 0000 0000
00000030: 0000 0000 0000 0000 0000 0000 0000 0000
00000040: 0000 0000 0000 0000 0000 0000 0000 0000
00000050: 0000 0000 0000 0000 0000 0000 0000 0000
00000060: 0000 0000 0000 0000 0000 0000 0000 0000
00000070: 0000 0000 0000 0000 0000 0000 0000 0000
00000080: 0000 0000 0000 0000 0000 0000 0000 0000
00000090: 0000 0000 0000 0000 0000 0000 0000 0000
000000a0: 0000 0000 0000 0000 0000 0000 0000 0000
000000b0: 0000 0000 0000 0000 0000 0000 0000 0000
000000c0: 0000 0000 0000 0000 0000 0000 0000 0000
000000d0: 0000 0000 0000 0000 0000 0000 0000 0000
000000e0: 0000 0000 0000 0000 0000 0000 0000 0000
000000f0: 0000 0000 0000 0000 0000 0000 0000 0000
