cloud-detection-code/tests/test_artifacts/test_cross_entropy_loss/model_checkpoint_2.pt (torch, 439769 bytes, 347 tensors)

input_conv_block.0.weight f4 [3]
000000 1e 01 80 3f dc 05 80 3f 09 f4 7f 3f
       1.0000341 1.0001788 0.99981743

input_conv_block.0.bias f4 [3]
000000 aa 6b 50 b9 2e 2e 99 b8 9a 6d 45 b9
       -0.00019876534 -7.30421e-05 -0.00018828214

input_conv_block.0.running_mean f4 [3]
000000 f2 5e 08 3e b9 1a d0 3d bb f8 aa 3d
       0.13317469 0.10161347 0.08348223

input_conv_block.0.running_var f4 [3]
000000 b4 63 4f 3f 36 60 4f 3f 06 5e 4f 3f
       0.8101151 0.8100618 0.81002843

input_conv_block.2.weight f4 [2, 3, 1, 1]
000000 83 47 76 be 2b 71 e3 bc ec 13 b2 bd 24 6f 3a 3b
       -0.24050717 -0.027763924 -0.08695206 0.0028447593
000010 9c 76 94 3d 44 55 06 be
       0.072491854 -0.13118464

conv_block_1.0.weight f4 [2]
000000 e6 f2 7f 3f 8d 06 80 3f
       0.9998001 1.0001999

conv_block_1.0.bias f4 [2]
000000 1e 1d 4f b9 d1 6a 50 39
       -0.00019751905 0.00019876218

conv_block_1.0.running_mean f4 [2]
000000 95 92 c9 bc c2 b8 86 bb
       -0.024606029 -0.0041113803

conv_block_1.0.running_var f4 [2]
000000 ef ae 50 3f 98 75 4f 3f
       0.8151693 0.8103881

conv_block_1.2.weight f4 [2, 2, 3, 3]
000000 9c 75 26 bd 00 1b d8 3c d4 73 66 3e 28 1a 4a be
       -0.040639505 0.026380062 0.22505122 -0.1973654
000010 76 2b 0b 3d 4f 77 f4 bd 14 7e 1c be 80 67 04 3e
       0.033976994 -0.11936819 -0.1528247 0.12930107
000020 b2 da 41 3e 93 30 2f be 3a 4e 39 3e 3a 24 49 3e
       0.18931082 -0.17108373 0.18096247 0.19642726
000030 ab cd 21 3e 80 42 39 bc c1 dc fc bd 00 ee 24 be
       0.15801112 -0.011307359 -0.12346793 -0.16106415
000040 5b e5 40 be f6 e9 32 3e 13 21 dd bd eb aa 22 be
       -0.18837492 0.17472062 -0.10797324 -0.15885513
000050 8e aa 40 be 06 6b eb 3d e3 00 b9 bd 23 99 1a be
       -0.18815061 0.114950225 -0.09033372 -0.1509748
000060 b9 c8 69 bd c0 71 dd 3d 9f 99 08 bb 2d 03 6b 3e
       -0.05707619 0.10812712 -0.0020843518 0.2295043
000070 aa b7 fd 3d 95 79 1b be 94 f4 3b 3e 5f 37 1c bd
       0.12388547 -0.15183099 0.18355018 -0.038138743
000080 38 fc 3f bd 10 18 29 3e fd 5b a7 3d df cf 29 3e
       -0.046871394 0.16513085 0.08171842 0.16583203

conv_block_1.2.bias f4 [2]
000000 a3 6c 0f be 25 f8 59 3c
       -0.14006285 0.013303791

conv_block_1.3.weight f4 [2]
000000 38 06 80 3f 8f f3 7f 3f
       1.0001898 0.99981016

conv_block_1.3.bias f4 [2]
000000 8c 6c 39 39 5e 84 4d b9
       0.00017683412 -0.00019599634

conv_block_1.3.running_mean f4 [2]
000000 88 ff 7d bc 5e 83 3a 3c
       -0.015502818 0.011383859

conv_block_1.3.running_var f4 [2]
000000 59 d8 4f 3f 1e 70 52 3f
       0.81189495 0.8220233

conv_block_1.5.weight f4 [2, 2, 3, 3]
000000 4f f5 68 3e 00 2f 94 bd 53 03 02 3e d5 99 51 3e
       0.22749828 -0.07235527 0.1269658 0.20468839
000010 a6 81 04 3e 29 55 14 be a6 0e b3 bd 39 9e a2 bd
       0.12940082 -0.14485611 -0.08743028 -0.07940335
000020 61 cb 49 3c e5 7b 55 be ef 79 ba bd fd 26 a8 bd
       0.012316556 -0.20848043 -0.09105288 -0.082105614
000030 a2 43 6c bd 7d 6c 6c be 81 cc 1d 3e 3d 15 0a 3e
       -0.057681687 -0.2308826 0.15410043 0.13484664
000040 cf 4c 62 be 79 81 1b bd 60 b1 15 3e f6 81 ae 3d
       -0.22099613 -0.03796527 0.14618444 0.08520882
000050 85 c0 63 3e 09 fe e6 3d 20 7f 19 bc 03 69 37 3e
       0.22241409 0.11278922 -0.009368688 0.17911153
000060 39 d8 5d 3e 68 aa d1 bc af 8d e8 bb a7 d1 43 bd
       0.21664514 -0.025593951 -0.007096968 -0.047807362
000070 4c 16 37 bd 98 6a e4 3b 5d 1e fb bd af 27 5a 3e
       -0.044699 0.006970715 -0.12261651 0.213042
000080 12 d9 3a 3e 3d 5f 33 be 2c e6 26 3e de 68 39 be
       0.18246868 -0.175168 0.16298741 -0.1810641

conv_block_1.5.bias f4 [2]
000000 ac 33 10 bd 55 1e 24 3e
       -0.03520553 0.16027196

conv_block_2.0.weight f4 [2]
000000 8d 06 80 3f e6 f2 7f 3f
       1.0001999 0.9998001

conv_block_2.0.bias f4 [2]
000000 ec e7 50 b9 3e 91 4f b9
       -0.00019922823 -0.00019795165

conv_block_2.0.running_mean f4 [2]
000000 68 07 0b 3c 01 4c 02 3e
       0.0084856525 0.12724306

conv_block_2.0.running_var f4 [2]
000000 dd 80 57 3f 12 93 55 3f
       0.84181005 0.83427536

conv_block_2.2.weight f4 [4, 2, 3, 3]
000000 39 dd f9 3d 0d 3a 2a be 6e 2b 5f 3e 4a 7e 69 be
       0.12200398 -0.16623707 0.21793911 -0.22802082
000010 e1 ee 18 be ab d1 58 be 7f a7 31 3e 6a 4d d0 bd
       -0.14934875 -0.21173732 0.17349051 -0.101710156
000020 85 15 37 be b9 da ed 3d 24 61 1d be d4 76 ef bc
       -0.17879303 0.11613984 -0.15369087 -0.029231466
000030 da 68 72 bc 36 98 95 3d 86 d4 de 3b bd 13 a6 bd
       -0.014795506 0.073044226 0.006800237 -0.081092335
000040 da fb 2e 3d 87 e0 bd 3d f9 5b b6 3d 08 45 48 bc
       0.042720653 0.09271341 0.08904261 -0.01222349
000050 16 51 17 3e 41 a7 9d bc cf af 55 be 77 7d c4 3d
       0.14777026 -0.019244792 -0.20867847 0.09594243
000060 39 3d 3b 3e b5 1b ad 3d 60 57 f4 bc 63 01 9d bd
       0.18285073 0.0845255 -0.02982682 -0.0766628
000070 73 0e 8d 3c bf ce 51 3e af de 53 be 6c a6 48 3e
       0.017218804 0.20489024 -0.20690416 0.19594735
000080 11 59 59 be 35 98 62 be 93 ba 4c 3e 31 79 5d 3e
       -0.21225382 -0.22128375 0.19993047 0.21628262
000090 73 65 52 be c4 b3 25 3d 33 48 94 bd 08 22 7b 37
       -0.20546512 0.04045464 -0.072403334 1.4968689e-05
0000a0 ba ed 07 3d f1 4f 61 3d 73 1a ea 3d 97 b1 81 bd
       0.033185698 0.05500788 0.11430826 -0.06332701
0000b0 76 3b 33 be 59 24 d1 3d f9 05 10 3e 85 e5 34 3e
       -0.17503151 0.10212011 0.14064778 0.1766568
0000c0 a2 19 51 3d 38 73 2c 3e 3d dd dc 3d 70 e9 37 be
       0.051049836 0.16840827 0.10784385 -0.17960143
0000d0 3b b1 e6 3d ad 8a e3 bd 5d f1 fc bd 6a 34 4e be
       0.11264273 -0.11110435 -0.12350724 -0.20137182
0000e0 ad 52 2c 3e 47 ea 5c bc 90 56 cd 3d d5 a9 41 be
       0.16828413 -0.01348359 0.10026276 -0.18912442
0000f0 ed 79 36 be b2 da b6 bc cf d2 bf 3d 5b 87 24 3e
       -0.17819948 -0.022321079 0.093663804 0.16067259
000100 97 47 42 3e b5 5e c2 bd c0 8a 10 3e 37 a8 8c 3d
       0.18972622 -0.0949072 0.14115429 0.06868022
000110 0a a9 3f 3d a9 66 26 be d4 68 8f 3d a5 71 95 bd
       0.046792068 -0.16250099 0.07002416 -0.072970666

conv_block_2.2.bias f4 [4]
000000 e2 4b 56 3e b5 6f 4d be 65 e0 3f 3b fd e7 27 be
       0.20927384 -0.20062144 0.0029278037 -0.1639709

conv_block_2.3.weight f4 [4]
000000 a6 fa 7f 3f b9 05 80 3f f5 f2 7f 3f 81 05 80 3f
       0.99991834 1.0001746 0.999801 1.000168

conv_block_2.3.bias f4 [4]
000000 1a 88 a5 b8 14 4e 35 b9 52 10 50 b9 0e 5a f8 38
       -7.893164e-05 -0.00017290591 -0.00019842506 0.000118423355

conv_block_2.3.running_mean f4 [4]
000000 f1 98 3e 3c 31 ab 30 bc 1a b0 c6 3c b3 7e e5 bc
       0.011633144 -0.010783003 0.024253894 -0.028014516

conv_block_2.3.running_var f4 [4]
000000 9b c0 51 3f c3 a0 53 3f 98 ea 54 3f 18 35 52 3f
       0.8193452 0.8266718 0.8317046 0.82112265

conv_block_2.5.weight f4 [4, 4, 3, 3]
000000 28 9d 21 3e 65 63 8f bd 7d f8 25 3e a6 ec 44 bd
       0.15782607 -0.0700138 0.16208072 -0.048077248
000010 2c cb 18 be 55 8a a4 bd 89 ae f6 bc c6 fc e3 bd
       -0.14921254 -0.08034197 -0.030112522 -0.11132197
000020 12 3a f6 3d 92 12 ad 3d 98 96 0c be a7 03 07 bc
       0.12022795 0.08450808 -0.13729322 -0.008240617
000030 38 fa 14 3e ca ef 89 bd 12 2e 99 bd d2 8f 00 3e
       0.14548576 -0.06735189 -0.0747949 0.12554863
000040 31 e4 ec 3c 74 bf b7 bd 30 88 a7 bd 7f 03 1d be
       0.028917404 -0.08972064 -0.081802726 -0.15333365
000050 68 80 bb bd d0 95 91 3d d5 e6 00 be 9e 2e f4 bc
       -0.09155351 0.071086526 -0.12588055 -0.029807385
000060 1a 3a e6 b9 99 d2 99 3d 92 ea 0b be d2 2c e9 bc
       -0.00043912308 0.075108714 -0.136637 -0.028463755
000070 f7 64 e8 bd 38 20 80 bc 6a bf 1a 3e e1 0a 0d bd
       -0.113473825 -0.015640363 0.15112081 -0.034434203
000080 41 a8 4b 3d ff a2 be bd 61 5c 0a be 3f 7c d7 b9
       0.049721006 -0.09308433 -0.13511802 -0.00041100566
000090 57 27 17 3b 01 25 67 3d 3f 33 16 3d 01 94 0f 3b
       0.002306422 0.056431774 0.036669966 0.0021908286
0000a0 a9 47 65 bd a5 44 54 bd 49 e0 db 3d 69 5d 0f be
       -0.055976544 -0.051823277 0.107361384 -0.14000477
0000b0 b1 c3 20 3d 44 7b b3 3c 8e 3b b1 3d 6d 54 fc bd
       0.039249126 0.021909364 0.08653937 -0.123207904
0000c0 a0 fd c4 3d 34 6a 11 be 32 60 e3 3d 1a 1a 28 bd
       0.09618688 -0.1420067 0.11102332 -0.041040517
0000d0 4c 67 28 3e 6a 22 00 be 69 06 f8 bd 86 0c 09 3e
       0.16445655 -0.12513128 -0.12110598 0.13383684
0000e0 c7 7d 87 bd 12 20 07 3e c6 6b ac 3d 90 b8 79 3d
       -0.06615787 0.13195828 0.08418994 0.06096703
0000f0 d0 bb 18 3e 64 28 07 3e f9 f8 09 be 44 e4 1f 3e
       0.14915395 0.13199002 -0.13473882 0.1561442
000100 91 29 37 3d 97 6a 94 3c 2d 0f 8c 3d ca 55 1b be
       0.044717375 0.018117232 0.06838832 -0.15169445
000110 d6 65 c2 bc a3 50 cf bd a0 cc c5 3d 85 3f 93 bd
       -0.0237302 -0.10122802 0.0965817 -0.0718985
000120 ab e0 59 bd d4 cc 33 bd 3e 1d f8 bc 94 75 0f 3d
       -0.053192776 -0.04389651 -0.030287381 0.03502424
000130 50 ef bc bc 05 09 36 3d f1 ca 4c bd ac 15 0d be
       -0.023063332 0.044442195 -0.049998228 -0.13777798
000140 f7 ba 04 3e 4d af 69 3d fe 7a bd 3d a6 3c 29 3d
       0.12961946 0.057051945 0.092519745 0.041317604
000150 08 14 b7 bc d4 f9 27 be 03 b8 11 3e 0b da e8 3d
       -0.022348419 -0.16403896 0.14230351 0.113697134
000160 97 a1 40 bd 2a aa df bd 70 91 4f 3d c4 9f 21 3e
       -0.047029104 -0.10921128 0.05067581 0.15783602
000170 21 4b ec bc 09 ef 29 3e 40 5d fe bb 02 0b 59 3c
       -0.028844418 0.16595091 -0.007762581 0.013247253
000180 94 2c 60 3d 42 87 04 be 62 7a c2 3d b1 b0 3d 3c
       0.054730013 -0.12942222 0.09495999 0.011577771
000190 d0 fd 28 3e ac f0 70 bd e9 45 4f 3c e4 2e c9 bd
       0.16503072 -0.058823273 0.012650945 -0.09823397
0001a0 0f 61 11 3e 62 8c ca bd eb 48 5b bd 8f 30 41 3d
       0.14197181 -0.09890057 -0.053536337 0.04716545
0001b0 b7 4b 7e bd 55 78 b9 bd 12 64 5c bc 68 d1 c6 3c
       -0.062083926 -0.09056155 -0.013451593 0.024269775
0001c0 52 6e ea 3c ec d4 56 3b 93 e9 0b be 54 f3 e6 bd
       0.028617058 0.003278072 -0.1366332 -0.1127688
0001d0 e1 15 0b 3e ba 1a 27 3e 4b e1 de 3d d3 3e e1 bd
       0.13582565 0.16318789 0.10882815 -0.10998311
0001e0 f8 e6 e3 bc 76 6d 13 be 6a 89 00 be 78 af 0f 3e
       -0.027820095 -0.14397225 -0.1255242 0.1403178
0001f0 c6 52 6f bd 82 57 af 3d 5e 13 83 bd 9c 59 7d 3d
       -0.05842855 0.08561613 -0.064001784 0.061853036
000200 a3 f6 15 bd ba 9f 74 bd 45 79 14 be b5 a1 14 be
       -0.036612164 -0.05972264 -0.14499386 -0.14514811
000210 32 00 8f bd e5 20 c3 3d c7 db 13 bd b5 d4 52 bd
       -0.06982459 0.095277585 -0.036098268 -0.051472384
000220 3d 95 bb 3d 35 21 95 3b ba 21 5c 3d 16 f2 18 3e
       0.09159324 0.0045510777 0.0537431 0.14936098
000230 23 cc a4 3d e2 09 db bd 3e 67 1e 3d 6e f6 03 b9
       0.080467485 -0.10695244 0.03867268 -0.00012584936

conv_block_2.5.bias f4 [4]
000000 1b 6b fd 3c e6 82 94 bc 96 4c 04 bd fa 51 8e bd
       0.03093486 -0.018128823 -0.0322996 -0.069492295

conv_block_3.0.weight f4 [4]
000000 1f fd 7f 3f e3 f2 7f 3f 75 06 80 3f 68 05 80 3f
       0.9999561 0.9997999 1.000197 1.000165

conv_block_3.0.bias f4 [4]
000000 94 17 48 b9 72 a0 51 b9 64 d9 4c 39 7b bc 39 39
       -0.0001908227 -0.00019991564 0.0001953594 0.0001771319

conv_block_3.0.running_mean f4 [4]
000000 50 48 9c 39 6b 1d 6a 3d 41 05 50 3d fe 15 6f bb
       0.00029808516 0.05715696 0.05078626 -0.0036481614

conv_block_3.0.running_var f4 [4]
000000 41 ed 52 3f 3d 75 57 3f 10 69 58 3f 77 03 51 3f
       0.8239327 0.84163266 0.8453531 0.8164591

conv_block_3.2.weight f4 [8, 4, 3, 3]
000000 17 5b 1b 3e 9f 41 fe bc a4 eb 6c 3d 3f 5e 10 be
       0.15171467 -0.03103715 0.057841912 -0.14098452
000010 38 e6 fb bd 41 92 f5 bc af e8 ee 3d 4a 61 10 be
       -0.1229977 -0.029976966 0.116654746 -0.14099613
000020 00 af 13 be 11 a2 86 3d 75 3c 1e 3e 84 0b 10 3e
       -0.14422226 0.065738805 0.1545275 0.14066893
000030 33 8c 29 be 06 52 fe bc eb a2 84 bd 04 d8 08 3e
       -0.16557388 -0.031044971 -0.06476387 0.13363653
000040 b0 6f c0 bc 07 4a 92 bd 6a 8e 81 3d 47 09 8d bc
       -0.023490757 -0.07143026 0.063259915 -0.017216338
000050 1e cb 0e 3e f1 da 87 bd 44 e2 22 3d 1c 5f cf bc
       0.1394467 -0.06633557 0.039766565 -0.025313906
000060 28 df 2b bd 71 2f 9b 3c 16 2b e7 bd 9f 85 7d 3c
       -0.041960865 0.01894352 -0.11287515 0.015473752
000070 63 19 0c 3e 21 36 af 3c 3b 19 9a bc 7a 25 1c be
       0.1368156 0.021388115 -0.018810859 -0.15248671
000080 b0 63 2a be 9b 0a 15 bd 89 b3 c6 bd 14 49 e5 3d
       -0.1663959 -0.036387067 -0.09702212 0.11195579
000090 4e ca 60 3c 37 d1 80 bd 1e 80 84 3d 1d 9d 6a 3c
       0.013720108 -0.062899046 0.06469749 0.014319685
0000a0 ec 17 7b bc 7a 5f 86 bd a6 2b 60 3d fb 8f 1f 3d
       -0.015325528 -0.065611795 0.054729126 0.03895567
0000b0 4b a6 08 3e 62 48 17 3d e3 5b 18 3e c5 92 bc bd
       0.13344686 0.036934264 0.14878802 -0.092076816
0000c0 ac cd 99 bd 1c 6d fd 3d 29 0b 0d 3e 9f 9f 2a 3e
       -0.07509932 0.123743266 0.13773789 0.16662453
0000d0 e6 57 b9 bc bd 92 45 3c df a2 89 3d 62 b2 d3 bc
       -0.022624921 0.012058911 0.06720518 -0.025841895
0000e0 c5 fa 0c be a3 33 e1 3d 67 f8 0c be a3 8c 22 be
       -0.13767536 0.10996177 -0.13766633 -0.15873961
0000f0 bf a4 5c bd f5 c5 fc 3d 03 62 d8 bd fb 81 33 3d
       -0.05386805 0.12342445 -0.10565569 0.04382513
000100 e6 67 08 3e 44 16 14 3d e2 50 8e bd b2 cd 22 bd
       0.13320884 0.036154047 -0.06949021 -0.039746948
000110 9f 45 77 bc d9 3a 1d 3d cc 06 a0 3c d9 18 76 bd
       -0.015092283 0.0383862 0.019534491 -0.06008229
000120 68 5a 25 bc fe cc 4b bd bb 3a d7 3c 8b fb 0e bd
       -0.010092355 -0.049756043 0.026273122 -0.03490786
000130 d2 c5 56 bd df eb 99 3d 80 cc 3f bd 07 73 99 3c
       -0.05243475 0.07515692 -0.046825886 0.018731607
000140 60 dc f9 bd 2f ef 24 3e 9c c2 0e 3e 15 95 25 3e
       -0.12200236 0.16106866 0.13941425 0.16170152
000150 2e f6 90 3d 0e 85 8f 3b 6f 47 30 bd 60 d9 a1 3c
       0.07078205 0.004379875 -0.043036874 0.019756973
000160 a3 79 33 3c be cb 48 bd 30 bd b6 bc a2 63 85 3d
       0.010954293 -0.04902243 -0.022307009 0.06513144
000170 38 88 0a bd 09 0c 1f be b6 20 d7 3d 3d f6 69 3c
       -0.033821315 -0.15531935 0.10504286 0.014279899
000180 a4 db 70 bd 7e 46 df bd cf ef 31 bd ed 2a e8 bd
       -0.058803216 -0.10902117 -0.04344159 -0.113363124
000190 90 b4 31 3d cb 8a 81 bd e2 08 75 ba fc 19 80 3d
       0.04338509 -0.06325301 -0.0009347332 0.06254956
0001a0 3b 53 d5 3d fa a9 a9 bd eb 2b 80 bb e0 32 9d bd
       0.104162656 -0.082843736 -0.0039114854 -0.07675719
0001b0 f8 bf de bd 13 85 8b 3d f5 43 83 3d ef d7 04 be
       -0.10876459 0.06812491 0.06409446 -0.12972997
0001c0 cd 35 94 3d a4 dc b1 bd 62 6d 1e be e2 cf c4 bd
       0.07236824 -0.08684662 -0.15471414 -0.09609963
0001d0 c1 8c 85 bd f6 6a 27 be 4e d1 03 3e 28 88 05 be
       -0.06520987 -0.16349396 0.12872812 -0.1304022
0001e0 d0 7d 7d 3d d0 c7 b0 bd 80 ea e8 bd 84 74 7c bd
       0.061887562 -0.08631861 -0.11372852 -0.061634555
0001f0 5e 4a 4f 3d 03 61 a8 3d 97 8e 1a be 7a 1e 6a 3c
       0.05060803 0.082216285 -0.15093456 0.014289493
000200 19 42 15 3e 29 43 a0 3d d8 c2 00 bd 45 67 03 bd
       0.14575996 0.0782531 -0.031435817 -0.032080907
000210 2e 86 1d 3e 69 93 0e 3e 99 2c e3 3b f1 1c 5b 3c
       0.15383217 0.1392342 0.0069328067 0.013373599
000220 5b ff f8 bd 76 75 05 3e 0a 87 83 3d 8d 07 5b 3d
       -0.1215808 0.13033089 0.06422241 0.053473998
000230 8b 82 3f 3d f2 37 15 3e 63 d0 05 be 30 4d e0 bd
       0.046755355 0.14572123 -0.13067774 -0.10952222
000240 8c 17 6c 3d 6d dc 20 3e 14 84 07 3d 8f d6 f8 bc
       0.057639644 0.15709086 0.033084944 -0.030375747
000250 5d 73 9d bd a0 be 70 3d 22 95 22 3d 76 db 7a 3b
       -0.076880194 0.058775544 0.039693005 0.0038277782
000260 a7 87 1e be ac de 18 3e ce d0 26 3e f0 17 6e 3d
       -0.15481435 0.14928693 0.1629059 0.058128297
000270 04 2a 48 3d c5 13 b9 3c 48 1c 65 ba 9b 05 0f 3e
       0.048868194 0.022592435 -0.0008739871 0.13966982
000280 a3 29 e2 3c b4 31 41 bd 0f 22 1f bd 06 49 86 3d
       0.027607745 -0.04716654 -0.03885084 0.06556897
000290 07 d4 98 bd 7d 97 12 be e7 7e 77 bc 62 32 15 3d
       -0.07462316 -0.143156 -0.0151059395 0.036425002
0002a0 e9 ab 4a bd 57 ea d1 3d d9 c9 06 3e b1 65 c0 bd
       -0.049480353 0.10249775 0.13162936 -0.09394396
0002b0 6c 1c 82 bd 65 8f f2 3d 52 d1 28 3e f8 5f 20 be
       -0.06353077 0.118437566 0.164861 -0.15661609
0002c0 c0 f2 1f bd 3e 48 07 be 64 04 66 3d e1 d8 08 be
       -0.039049864 -0.13211152 0.05615653 -0.13363983
0002d0 d7 7b 36 3d 5e eb 1a be db bc ec 3d 08 7f 32 3d
       0.044551697 -0.15128848 0.11559459 0.043578178
0002e0 ae 4f 78 bd 9a 60 12 be 29 a3 4e 3d 30 d2 78 bc
       -0.060622863 -0.14294663 0.05044857 -0.015186831
0002f0 b8 92 eb bd be 5a 30 bd de b0 fe 3d 55 60 32 3d
       -0.11502594 -0.04305529 0.124360785 0.0435489
000300 b7 74 e1 3b 32 4c 5f bb af 2a eb 3c 25 10 de bd
       0.0068803686 -0.0034072516 0.028706877 -0.10842923
000310 2a 9e 65 bd 62 3f d7 3d f8 cd 49 bd 6c e0 c0 bd
       -0.05605904 0.10510136 -0.049268693 -0.09417805
000320 81 71 d6 3d 2d 0f 13 be 13 ce 07 be b9 dd 07 3e
       0.10470868 -0.14361258 -0.13262205 0.13268174
000330 85 49 a0 3d f4 c0 41 3d 1c 5b 0f 3e 47 b5 cf bc
       0.07826523 0.047303155 0.13999599 -0.025354994
000340 3e 79 dc bd 07 0d 08 be 19 8f 16 3c ae 63 4e 3d
       -0.107653126 -0.1328622 0.009189391 0.05038803
000350 b8 a3 33 bd dd c3 fd 3d 8e 3e 89 3c f9 d5 eb 3c
       -0.043857306 0.123908736 0.016753461 0.028788554
000360 bf b2 27 3e 6b 61 fc 3d 26 d8 18 be 84 05 cb 3c
       0.1637678 0.123232685 -0.14926204 0.024782903
000370 a6 c3 bc bd b5 fd d1 3d c4 83 d9 bd fc 80 f8 3d
       -0.092170045 0.10253469 -0.106208354 0.12133977
000380 d3 d7 d7 3d c9 b3 f9 bc 70 9d 95 3d 9c 4c 8f 3d
       0.10539212 -0.030481236 0.073054194 0.06997034
000390 0c 3f 6c bd 97 c6 af 3d e5 46 b0 bd 8a 21 b9 bd
       -0.057677314 0.085828 -0.08607272 -0.090396
0003a0 59 3e 26 3e 43 a6 10 be ad dc fd 3d 57 76 34 3b
       0.16234721 -0.14125924 0.12395606 0.0027536356
0003b0 a1 2e 18 be 6c 5a 9e 3c fc 3c 69 bc c1 09 76 3c
       -0.14861538 0.019330226 -0.014235731 0.015016974
0003c0 af fb fb bd a2 55 30 3d f3 78 4b bd 3c e1 2c bd
       -0.12303864 0.043050416 -0.049675893 -0.042206988
0003d0 74 a1 0c 3d 4a 81 09 3d 37 e3 00 3e 9d 5d d2 bd
       0.03433366 0.033570565 0.12586676 -0.102717616
0003e0 69 3c 98 3c 65 3d 6c bd ff b6 24 be e6 c5 f5 bb
       0.018583493 -0.057675738 -0.16085432 -0.007500398
0003f0 58 35 6e bd 7b 8a ec bd bb e7 01 bd d1 30 43 3d
       -0.05815634 -0.115498506 -0.031715136 0.047653977

conv_block_3.2.bias f4 [8]
000000 4e 93 07 be 38 15 08 be 52 0e ff bd bb b9 1e 3e
       -0.13239786 -0.13289344 -0.12453903 0.15500538
000010 1d 01 ef bd 38 9c 91 3d 6f 18 ec 3d fc 3f a7 bd
       -0.11670134 0.071098745 0.11528098 -0.08166501

conv_block_3.3.weight f4 [8]
000000 07 05 80 3f f0 fd 7f 3f e5 f3 7f 3f 07 f3 7f 3f
       1.0001534 0.9999685 0.9998153 0.99980205
000010 ea f2 7f 3f b2 05 80 3f 43 fb 7f 3f 6e 05 80 3f
       0.9998003 1.0001738 0.9999277 1.0001657

conv_block_3.3.bias f4 [8]
000000 d6 09 20 b9 17 a5 25 39 31 0c 51 39 c0 ee 20 b8
       -0.00015262453 0.00015797127 0.00019936335 -3.8369326e-05
000010 ba c0 4d b9 e8 c4 ee 38 82 61 4f b9 77 7a 02 b9
       -0.0001962212 0.00011385401 -0.00019777383 -0.00012443388

conv_block_3.3.running_mean f4 [8]
000000 c2 83 3b bd 45 4f 07 b9 7e 0b d6 bc 9c a3 99 3c
       -0.04577995 -0.00012904133 -0.026128527 0.018754773
000010 1d 6c 3e 3b 67 11 95 3b 22 07 9d 3c 1e 13 16 3d
       0.002905614 0.0045491937 0.01916844 0.036639325

conv_block_3.3.running_var f4 [8]
000000 75 30 55 3f 9d b5 54 3f 63 f4 53 3f 37 ea 52 3f
       0.83277065 0.8308962 0.8279478 0.82388633
000010 08 24 54 3f 36 c3 53 3f 01 a2 51 3f e7 ac 59 3f
       0.8286748 0.82719743 0.81887823 0.85029453

conv_block_3.5.weight f4 [8, 8, 3, 3]
000000 c0 fd a2 bd 4f 6d c0 b9 9f f2 92 3d ce 08 8a bd
       -0.07958555 -0.00036702535 0.071751826 -0.067399606
000010 1c ff 37 bd 07 c0 d3 3d 04 21 af bd 1e 38 a6 3d
       -0.044921026 0.10339361 -0.08551219 0.08116172
000020 2b eb c6 bd da e6 2c bd 83 b2 a0 3c 1c ff 73 bc
       -0.097128235 -0.042212345 0.019616371 -0.014892366
000030 70 16 92 bd 74 7f ce 3c ab c5 b3 3d ed d7 39 3d
       -0.07133186 0.025207259 0.087779365 0.04537194
000040 46 cb c2 bd 3e 22 89 bd 23 d6 d8 3d a5 b6 ef bd
       -0.095114276 -0.06695984 0.10587718 -0.117047586
000050 ab 40 83 3c d3 86 c8 bc 63 d5 9b bd 93 23 d8 bd
       0.016022047 -0.024478352 -0.0760906 -0.1055366
000060 e3 04 9d bb a4 c8 21 3d c6 f8 f1 bc 37 1e f0 bc
       -0.0047918423 0.039497986 -0.02953757 -0.029311283
000070 03 e6 8a 3b b1 7a cb 3d 2c 90 78 bd ce 7c 8d bd
       0.0042388453 0.09935511 -0.060684368 -0.0690857
000080 eb ba 5c bc 5a 05 e0 bc 5a 92 96 3a ba 7e a3 3d
       -0.013472299 -0.027346302 0.0011487708 0.079831555
000090 c8 c9 29 3d 90 e0 c5 bd 89 99 ac bd c2 0b f7 bc
       0.0414522 -0.096619725 -0.08427722 -0.030156974
0000a0 f4 be b4 3d 7b 48 af bd d5 4b 84 3d d3 0a 04 bd
       0.08825484 -0.085587464 0.06459776 -0.032236885
0000b0 3c 02 a3 bd ce be f5 bc 4e 34 56 3d d2 3a 81 3d
       -0.079594105 -0.02999821 0.052295975 0.06310047
0000c0 fd e7 e6 3d dc 66 87 bc 97 80 e1 bb 86 df 8c 3d
       0.11274717 -0.01652854 -0.006881784 0.06878571
0000d0 04 c3 b0 bd 8d e1 43 bc aa 56 62 3d b5 8e 08 3d
       -0.08630946 -0.011955631 0.05525843 0.03333922
0000e0 16 c2 ca 3c d8 c8 83 3d 46 78 4d bd 98 d3 ad bd
       0.02475075 0.06434792 -0.05016353 -0.08487624
0000f0 67 6e 26 bd ea 58 e4 bd ff b7 b3 3d 2c 40 8f bd
       -0.04063263 -0.111497715 0.08775329 -0.06994662
000100 3a b9 b7 bb 48 be 8d bd 61 da a3 3d 7b 96 d4 bd
       -0.0056067975 -0.06921059 0.08000637 -0.10380264
000110 ae 2f b8 3d 3f 9a e3 bd 52 10 ee 3c 9c a1 eb 3d
       0.08993469 -0.111134045 0.029060517 0.11505434
000120 3a 26 a1 3d 7e ac 8d bc 4c 0f 33 3d ae e4 d7 3c
       0.07868619 -0.017294165 0.04371576 0.02635416
000130 41 aa 27 bc 4a fa cb 3c 80 08 83 3d a2 d3 dc 3b
       -0.010233463 0.02489962 0.063981056 0.006739096
000140 7b 3c 97 bc 3c d8 55 bd b9 3f 8c 3d 5c f2 19 bd
       -0.018461457 -0.05220817 0.06848092 -0.037584648
000150 8f ce 9c 3d 6e c2 e0 bc a7 83 a9 bd 08 53 d3 3d
       0.076565854 -0.027436461 -0.08277064 0.10318571
000160 16 68 80 3d 9e b2 5d bd 57 b2 9e 3d dd b2 8d bd
       0.06269853 -0.05412542 0.077488594 -0.06918881
000170 d8 4e cb 3d 93 be f5 bc e4 e9 c3 bb ff c7 25 3d
       0.099271476 -0.0299981 -0.0059788097 0.040473934
000180 f4 5a 85 bd cd 87 1a 3d ac bc 30 3a c0 06 a5 bd
       -0.065114886 0.037727166 0.00067419815 -0.08057928
000190 ea b8 b0 3d 1a 53 8b bd 52 a3 a8 bc 76 25 9b 3c
       0.086290196 -0.0680296 -0.02058569 0.018938761
0001a0 71 7f 5d 3c 1f 95 93 3d 4a f3 85 bd 57 6f bb 3c
       0.013519154 0.07206177 -0.06540544 0.02288024
0001b0 a7 2a d6 bd 43 6e bc bd 55 3f b1 3c 92 fc d2 bd
       -0.10457354 -0.09200718 0.021636644 -0.1030208
0001c0 fc 87 47 3d 2a 62 81 bd 9b a2 e8 3c 25 8c be bc
       0.04871367 -0.063175514 0.028397849 -0.023260185
0001d0 0f 0f ae 3d 4d f5 54 3d 09 06 04 bc be b7 84 3d
       0.08498966 0.05199175 -0.0080580795 0.064803585
0001e0 ce 76 8b bc a1 4b 26 bd 49 a1 e8 3d 27 f0 a8 bd
       -0.017024424 -0.04059947 0.11358888 -0.082489304
0001f0 0f 2c da 3d 1a 57 12 3c 76 fe 1e bb 9c 3a dc bd
       0.10652935 0.008931899 -0.0024260557 -0.10753366
000200 df ec d9 bd d4 fd db 3d 55 9c d6 3d 48 77 73 bb
       -0.10640883 0.10741773 0.10479037 -0.0037149955
000210 b9 89 34 3d 70 5b c6 3d 70 db 3a 3d 4c 70 89 bd
       0.044076655 0.09685409 0.04561943 -0.06710872
000220 08 ef 95 3c 94 e9 10 bd 00 87 e2 3d f6 79 52 3d
       0.018302456 -0.035379007 0.110609055 0.051385842
000230 55 25 d4 3c ee 83 8a 3d 47 67 a3 bd 92 e6 5b 3c
       0.025896708 0.06763445 -0.07978683 0.013421671
000240 2f 7b a4 bd c5 a7 eb 3d 01 e1 41 3c 41 f5 0f bd
       -0.08031308 0.11506609 0.01183343 -0.035146
000250 3c cf 1d 3d 33 0f 7a bb f3 62 da bd 3b 55 21 3c
       0.038527712 -0.0038156032 -0.10663404 0.009846981
000260 8d 53 87 bd bf c6 af bd 24 e4 e8 3d 7a 30 70 3b
       -0.06607733 -0.0858283 0.11371639 0.0036649988
000270 88 70 d2 bc 5c f5 d1 bd 3e 32 41 3d 2f 28 0a 3c
       -0.025688425 -0.10251877 0.047167055 0.008432432
000280 e7 90 91 3d 81 e4 3f 3d 68 33 eb bd e0 a6 8b bc
       0.07107716 0.046848778 -0.11484414 -0.017047346
000290 e0 c1 40 bc 39 5f 4d bd df ef e8 bc b5 28 83 3d
       -0.011764973 -0.05013964 -0.028434692 0.064042486
0002a0 f0 77 c6 bd 79 7e df bd 93 99 bf 3d 9b c0 7d 3d
       -0.09690845 -0.109127946 0.09355464 0.06195126
0002b0 09 70 d9 bc 9d 60 d4 3d 16 4d 8f 3c 52 0e 45 3d
       -0.02654268 0.1036999 0.017492812 0.04810936
0002c0 6a 4d 9a bd 51 6e 9f bc af 72 38 bd 84 c1 9e 3d
       -0.07534297 -0.019461783 -0.045031246 0.07751754
0002d0 39 37 74 3c ba 8e e1 3d 8a 61 ee 3d 09 52 ba 3c
       0.014905744 0.11013551 0.11639698 0.022744196
0002e0 fb 7c 57 3d 77 1f 8f bd 30 6c 45 bd 70 e1 b5 bd
       0.052609425 -0.06988423 -0.04819888 -0.088808894
0002f0 0d 13 74 3d e6 13 fe 3c 93 c8 71 3d 19 50 b6 bc
       0.05958848 0.031015348 0.059029173 -0.02225499
000300 4a 41 fc bc a7 1e a1 3d e7 19 9e 3d 39 7a 3c 3d
       -0.030792851 0.078671746 0.07719784 0.046014998
000310 e4 04 c2 bd c2 06 8d bd f3 18 a8 3d 5e f8 b8 3d
       -0.09473589 -0.068860546 0.08207884 0.09031747
000320 0f 10 e0 3d 2d 1a 1e 3d 8e 31 b6 bd 6c d9 41 bd
       0.10940563 0.038599182 -0.088961706 -0.04732649
000330 10 8b 4b bc e3 35 b7 3c 22 7e aa bd d6 fa ac bd
       -0.012423292 0.022364562 -0.08324839 -0.08446281
000340 84 f1 b7 bc c1 d4 c7 3d 13 fb b7 3d 63 c7 e7 bd
       -0.02245403 0.097573765 0.089834355 -0.11317327
000350 9b 89 88 3d 12 e4 97 bd 4f 5a 91 bd a7 40 88 3d
       0.06666871 -0.07416548 -0.07097303 0.066529565
000360 aa 8f 59 bc 23 f3 ba 3d 34 93 d1 3d a2 8e a8 3c
       -0.013278881 0.09128406 0.10233155 0.020575825
000370 fb d4 8a 3d 15 10 99 3d d7 f6 80 bd 27 d8 b4 3d
       0.06778904 0.074737705 -0.06297081 0.0883029
000380 3c e6 d9 bc 06 89 1e bd f6 5e 23 bd 06 c3 9b bb
       -0.026599042 -0.038704894 -0.039885484 -0.004753473
000390 dd b2 53 bd 2a 13 99 bd d9 ba 90 3d 69 92 92 bb
       -0.05168425 -0.074743584 0.07066888 -0.00447302
0003a0 a5 a5 e1 3c 95 a9 ed 3d 5c 77 40 3d e6 90 49 3c
       0.027544806 0.11604611 0.04698883 0.012302613
0003b0 c9 d5 e3 3d 8a 92 58 bd f4 cc 5d bc b9 8f d6 3d
       0.11124761 -0.052874126 -0.013537634 0.10476632
0003c0 4e cd e1 bd 85 bc ee 3d ef 09 3f bd 20 08 1e bc
       -0.11025487 0.11657051 -0.046640333 -0.009645492
0003d0 5c ba 3f 3d af 83 b3 3c b1 ac c1 3c 52 c5 8d bd
       0.046808586 0.021913378 0.023641916 -0.069224015
0003e0 39 aa 81 bd 30 19 c5 bd 32 0a bf bd 96 59 87 3c
       -0.063312955 -0.09623945 -0.093281165 0.01652221
0003f0 3d a0 a6 bd ef 2a 3d bc 5f a1 89 bd 15 12 65 3d
       -0.08136032 -0.011545881 -0.06720232 0.055925447

conv_block_3.5.bias f4 [8]
000000 4b d6 c1 bd 60 d2 cf bd 32 ef b8 bd a3 5f de 3d
       -0.09464701 -0.10147548 -0.09029998 0.10858085
000010 5b 66 32 bd e5 27 8d 3d 01 eb 84 bc f3 40 e0 bc
       -0.043554645 0.06892375 -0.01622534 -0.02737472

conv_block_4.0.weight f4 [8]
000000 53 06 80 3f d3 fb 7f 3f 3f f3 7f 3f 87 06 80 3f
       1.000193 0.9999363 0.9998054 1.0001992
000010 05 f6 7f 3f 7a 06 80 3f cf 03 80 3f e2 f2 7f 3f
       0.9998477 1.0001976 1.0001162 0.99979985

conv_block_4.0.bias f4 [8]
000000 70 28 8b b8 72 c0 41 b9 d8 5f e3 37 c0 d2 4f 39
       -6.6355686e-05 -0.00018477606 2.710514e-05 0.00019819569
000010 ee 41 2b b9 1d 40 ca b8 42 08 4e b9 80 4b 2c b9
       -0.00016332392 -9.6440526e-05 -0.00019648767 -0.00016431324

conv_block_4.0.running_mean f4 [8]
000000 6c 3c 35 bc cd 42 76 3d 50 d8 09 3d 10 aa 49 3d
       -0.011061769 0.0601223 0.033653557 0.04923445
000010 76 6d 5c bc 6c 51 38 3c a0 b1 3a 3d a9 a1 2e 3d
       -0.013453832 0.011249881 0.045579553 0.04263464

conv_block_4.0.running_var f4 [8]
000000 f0 8d 50 3f f9 11 52 3f d6 5b 52 3f da cb 51 3f
       0.8146658 0.82058674 0.8217138 0.8195168
000010 f5 8a 54 3f ca 7b 53 3f be 77 51 3f 6d 78 51 3f
       0.8302453 0.8261076 0.8182334 0.8182438

conv_block_4.2.weight f4 [16, 8, 3, 3]
000000 ce 87 a6 bb 78 59 a2 bd d4 a7 f3 3b 45 56 8f 3d
       -0.005082107 -0.07927221 0.007435778 0.069988765
000010 d6 d5 c4 3d ae 93 c3 3c 8e a9 9b bd 45 5c b5 3d
       0.096110985 0.02387413 -0.07600699 0.0885549
000020 f2 7d c2 3d e6 21 ce bd da 5f 81 bc e6 57 e8 bd
       0.094966784 -0.10065059 -0.015792776 -0.1134489
000030 34 db 6b 3d 22 fa dd bd 52 1e d6 3d d3 80 b3 bd
       0.057582095 -0.10838725 0.10455002 -0.08764806
000040 da c3 f9 bc 12 7b 6b bc ee 35 a7 bc c0 07 ac bc
       -0.030488897 -0.014372604 -0.020411458 -0.02099979
000050 d8 a5 72 bc 7e dd 1e bd 49 f7 32 bd e5 86 d3 bb
       -0.014810048 -0.03878545 -0.04369286 -0.0064552897
000060 50 c6 c4 bc db 63 23 3d 81 e6 8b 3c b3 37 b6 3d
       -0.024020344 0.03989015 0.017077686 0.088973425
000070 55 ef b7 3d 86 05 6c 3d 8a 06 ad 3d 1a 1f b3 bd
       0.08981196 0.057622455 0.08448513 -0.087461665
000080 bb 42 b1 bc f3 27 9c 3d 74 91 ea bc 73 c1 3f 3d
       -0.021638265 0.07624807 -0.02863381 0.046815347
000090 84 2f 93 ba b8 1b a2 3d 26 cb cb 3d d3 70 c6 bd
       -0.0011229371 0.07915443 0.09950857 -0.09689488
0000a0 83 ed 06 bd aa 21 7b 3d 5e 9a dd 3d 08 ab ae 3d
       -0.032941353 0.0613114 0.10820459 0.08528715
0000b0 c3 e1 c9 3c fd 0d e1 bd cf 44 90 bd 15 7e 4d 3d
       0.024643784 -0.10988996 -0.07044374 0.05016907
0000c0 da 1a 82 3c a9 bf 22 bd f4 ae e4 bb dd 94 92 3d
       0.015881944 -0.039733563 -0.006978864 0.071573
0000d0 2f 2f 62 bc c1 b7 e6 3d 69 d1 94 bd 9c 69 5e 3d
       -0.013805195 0.11265517 -0.07266504 0.054299936
0000e0 e8 a8 bc bb 09 8d dd 3c f7 d0 8e bd ca 48 d9 bd
       -0.00575744 0.02704479 -0.06973451 -0.106095865
0000f0 a2 39 03 3d e6 28 22 3d 6c 5c c0 bd 06 0d cb 3d
       0.032037385 0.039589785 -0.09392628 0.099145934
000100 7c 6b 87 3d ac ff 73 bc fc dc cb bd 25 6d f0 bd
       0.06612298 -0.0148925 -0.09954259 -0.11739568
000110 c9 0f 4e 3d 07 24 96 bd 33 dc cf 3d 93 af 9e bd
       0.050308023 -0.073310904 0.101494215 -0.07748332
000120 29 43 dc bd 53 b4 ea bc 8e b4 98 bb b5 42 ad 3d
       -0.10754997 -0.028650438 -0.0046601957 0.08459989
000130 44 57 20 bc 44 f9 35 3b 93 f1 d6 3d 9a 57 bc bd
       -0.009786431 0.0027766982 0.104952954 -0.09196396
000140 fd 9e 51 bd 54 12 8f 3d 57 39 a7 bd 35 06 4f bc
       -0.051177014 0.06985918 -0.081652336 -0.012635757
000150 1d f6 a5 3d fa 62 b8 3c 74 f3 c2 3d 49 80 40 bd
       0.08103583 0.022508133 0.09519091 -0.046997342
000160 b1 cf d5 bd d2 c2 c8 3d b1 cb b0 3d 2a ef 8a bd
       -0.104400046 0.09802784 0.08632601 -0.06783898
000170 2d 18 39 bd e0 cc 8e 3d 86 e2 42 3d 8e 01 86 bd
       -0.04518907 0.069726706 0.04757931 -0.06543265
000180 4a 10 97 bd 2c a1 85 bc 7b 8d a2 3d be 69 82 bd
       -0.07376154 -0.016312204 0.079371415 -0.06367825
000190 17 62 ba 3a fd 4d 72 3d 1d c1 f5 bc 22 ec b7 3d
       0.0014219907 0.059156407 -0.02999931 0.08980586
0001a0 e7 bf 88 3d 2e 69 f1 3d 00 d8 87 bd 57 83 71 bd
       0.066772275 0.117876396 -0.066329956 -0.058963146
0001b0 48 a2 ea 3d f4 33 d4 3c fd b1 b1 bb e2 8a a8 bd
       0.11456734 0.02590368 -0.005422829 -0.08229615
0001c0 98 b7 c0 3d ac e8 0b 3d 68 0c 6d bd f7 a4 d6 bd
       0.09410018 0.03415744 -0.05787316 -0.10480683
0001d0 4c b6 b0 bd 1b 54 af 3d 0a a7 fc bc b5 5f 83 3d
       -0.0862852 0.08560964 -0.03084137 0.06414739
0001e0 77 5f ac 3c 69 21 f1 bd f5 fd c3 bd d6 66 ad 3c
       0.021041615 -0.117739506 -0.09569923 0.0211672
0001f0 9c 13 ca bd 1d 11 56 bd 0c db 63 3d e8 95 98 3d
       -0.098670214 -0.052262414 0.05562882 0.07450467
000200 b0 27 2f 3c 8a fb 5b 3b 8f 64 cb bb 42 df 8c 3d
       0.010690615 0.0033566677 -0.006207056 0.068785205
000210 1e cc c8 3c b7 99 c7 3c 79 df a5 3d 2c 0e de 3d
       0.024511393 0.02436529 0.08099265 0.10842547
000220 f0 67 0e bd 65 95 c6 bd 6b 53 b0 bd e4 7a 7d bd
       -0.03476709 -0.096964635 -0.08609661 -0.061884776
000230 59 58 7e 3a ec bd 3d bc d4 eb c3 bd 43 eb d4 bd
       0.0009702496 -0.011580925 -0.09566465 -0.10396435
000240 7b 68 c5 3d 30 c6 ae 3d 07 37 c1 3d 4a 55 76 bc
       0.09639069 0.08533895 0.09434324 -0.015034983
000250 69 58 40 bd e3 cc ef bd e5 d5 e7 bd 79 ab 0f bd
       -0.046959314 -0.11709001 -0.11320094 -0.03507564
000260 b9 45 bd 3d b5 8b 89 bd 7c 7b 8e 3a fb 9b 14 3d
       0.09241814 -0.067161 0.0010870541 0.036281567
000270 ee dc b6 3d 7f 13 10 3d 5a 2e 94 bd 6e 1d 6d 3d
       0.08928858 0.035174843 -0.07235403 0.057889394
000280 56 29 32 3d ed 2e 2a bd 1f d8 83 bc d8 c2 26 bc
       0.043496452 -0.04154866 -0.016094266 -0.01017829
000290 31 6f e3 3a de 94 89 3d e3 10 96 3d 6a 86 b1 bd
       0.0017351863 0.06717847 0.0732744 -0.086682156
0002a0 ce 8d c3 3d b7 19 71 3d 84 72 b4 3d 9d 29 c7 bd
       0.095485315 0.058862414 0.088109046 -0.09724734
0002b0 e8 77 9e bb 84 62 0f 3b fb fe 82 3d ef 9c b5 bc
       -0.0048360713 0.0021878788 0.0639629 -0.022169558
0002c0 f8 8a 62 bd 21 6a e2 3c 4e 43 e0 bd d6 c4 3b bd
       -0.055308312 0.027638497 -0.10950337 -0.045842014
0002d0 89 a3 b4 3d 49 45 04 3d f7 32 8d bd 46 23 ee 3d
       0.08820254 0.032292638 -0.068944864 0.116278216
0002e0 d4 d9 dc bd cf 1b 94 bd f1 4a c4 3c 36 ce 82 bd
       -0.10783735 -0.072318666 0.023961516 -0.06386988
0002f0 be 5e e1 bc d5 ff c8 3d 15 96 2a 3d 29 c0 13 bd
       -0.027510997 0.09814421 0.041647036 -0.03607193
000300 48 49 c1 bd 41 14 2b 3d 1e df bc bd 91 50 e6 3c
       -0.094378054 0.041767363 -0.09222244 0.028114589
000310 aa 8f 13 bd 10 93 4f bd e9 b5 3d 3d 70 32 ad bc
       -0.03602568 -0.05067736 0.04631606 -0.021142215
000320 0b 6e a8 bd 89 b5 95 bd 04 3e 93 bc 6c e2 ab bc
       -0.08224114 -0.07310016 -0.017973907 -0.02098199
000330 c2 97 d3 bd 84 e8 e6 bc 98 03 04 3c e3 05 07 bd
       -0.1033168 -0.028187044 0.008057497 -0.0329646
000340 80 d9 32 bd a0 ec 8c bd a2 f1 1c 3d 57 d8 df 3d
       -0.043664455 -0.0688107 0.038316377 0.109299354
000350 a2 d4 66 bd 18 1a b8 bd ff 9c a9 3c 68 87 d2 3c
       -0.056355126 -0.08989352 0.020704744 0.025699332
000360 a0 d6 d1 bd 74 4e cf 3d 2a d8 c8 bd 78 fd e5 3d
       -0.102460146 0.101223856 -0.09806855 0.11229986
000370 62 36 27 3d 0c d2 bd 3b d4 45 81 bd 1f 23 16 3c
       0.040823348 0.005792862 -0.06312147 0.009163647
000380 0f 65 ae 3d 8e a0 5a bd fc 71 3a bd d5 c4 b9 3d
       0.08515369 -0.053375773 -0.04551886 0.09070746
000390 57 60 44 bd 46 e3 c8 bd 0b a3 1d 3c b2 37 af bd
       -0.04794344 -0.09808974 0.009621392 -0.08555545
0003a0 25 26 dd bd 02 23 ad bd c7 22 76 3c 26 ef 48 bd
       -0.10798291 -0.08453943 0.01502294 -0.049056195
0003b0 47 86 b6 3c f1 33 ef 3d b3 86 01 bd 27 3e 22 3d
       0.022280825 0.11679829 -0.0316226 0.039610054
0003c0 a3 67 ac bd 47 f7 85 3c 81 82 22 3d 88 b0 50 bd
       -0.08418205 0.016353263 0.03967524 -0.050949603
0003d0 11 55 37 bd 93 85 26 3d 65 13 65 3d bf f8 09 3d
       -0.04475886 0.04065473 0.0559267 0.03368449
0003e0 9a 12 66 3d f3 9f c2 3d cf 0b eb 3d 5c 1c cb bd
       0.056170084 0.09503164 0.11476862 -0.099175185
0003f0 6a aa 91 bd 36 68 98 3c df c5 ed 3d ff 9e 12 3c
       -0.07112582 0.01860438 0.116100065 0.00894904

conv_block_4.2.bias f4 [16]
000000 b0 3b 4d bd b9 2a 61 bd 9b 6d cd 3d ba 2e e2 bd
       -0.05010575 -0.054972384 0.10030671 -0.11044069
000010 12 da 89 bc d2 31 d1 bd 4a db 7b bd 42 c4 8f 3d
       -0.016827617 -0.102145806 -0.061488427 0.07019855
000020 56 bd df 3d 97 6a f6 bb 16 43 41 3d 2b a7 99 3c
       0.10924785 -0.0075200307 0.04718312 0.01875647
000030 7d 58 49 3d 61 6d 9c bd 51 85 c5 bb 4b cd e2 bc
       0.049156655 -0.0763805 -0.0060278554 -0.027685782

conv_block_4.3.weight f4 [16]
000000 f8 01 80 3f 4b f4 7f 3f b9 f4 7f 3f eb 02 80 3f
       1.0000601 0.99982136 0.9998279 1.000089
000010 25 f4 7f 3f 32 f4 7f 3f 90 03 80 3f 52 fa 7f 3f
       0.9998191 0.9998199 1.0001087 0.99991333
000020 ff 05 80 3f 55 06 80 3f 30 f5 7f 3f 78 03 80 3f
       1.000183 1.0001932 0.999835 1.0001059
000030 c5 05 80 3f 71 06 80 3f da 03 80 3f f0 f2 7f 3f
       1.0001761 1.0001966 1.0001175 0.9998007

conv_block_4.3.bias f4 [16]
000000 b4 64 00 38 fc 29 14 b9 3e a2 4c b9 cc 1d 42 b9
       3.0611365e-05 -0.0001413002 -0.00019515396 -0.00018512382
000010 9d 48 f0 b8 94 c0 02 38 f8 68 1e 39 79 77 76 b8
       -0.00011457617 3.1173768e-05 0.00015107158 -5.8762238e-05
000020 76 5e 37 39 0b b5 06 39 d0 a6 30 b9 17 eb 4d b9
       0.0001748743 0.0001284668 -0.0001684681 -0.00019637901
000030 5d c3 13 39 d6 a5 4e 39 bd d3 cc b8 07 2a 50 b9
       0.00014091791 0.0001970747 -9.766917e-05 -0.00019852082

conv_block_4.3.running_mean f4 [16]
000000 20 64 3f bb e8 e1 e2 bc 12 da b0 bb 2f a5 b3 bc
       -0.0029203966 -0.027695611 -0.0053970898 -0.021929352
000010 9e e2 e7 3a d3 26 c4 bc ad aa 45 3c 5a 7b 5e bd
       0.0017691439 -0.023944294 0.012064618 -0.054316856
000020 46 f4 8a bb af 3a 4d 3d 1d 4f 70 3c c5 fc 9c bb
       -0.0042405454 0.050104793 0.0146673 -0.0047908747
000030 66 30 8e 3d 19 3e c4 3c a3 68 2c ba 96 d7 a1 3b
       0.06942825 0.023955392 -0.00065768714 0.00493903

conv_block_4.3.running_var f4 [16]
000000 42 73 55 3f 68 06 53 3f 8a d1 53 3f bc 40 53 3f
       0.83378994 0.8243165 0.82741606 0.8252065
000010 36 d4 53 3f 70 ac 54 3f f6 20 53 3f 7e 87 53 3f
       0.82745683 0.8307562 0.8247217 0.8262862
000020 cd 82 54 3f f2 c8 5a 3f 9f ee 53 3f 60 37 53 3f
       0.83012086 0.8546287 0.8278598 0.8250637
000030 5f 21 54 3f 9e f1 53 3f 16 11 56 3f 8b ff 51 3f
       0.8286342 0.82790554 0.8361982 0.8203055

conv_block_4.5.weight f4 [16, 16, 3, 3]
000000 ea d5 64 3a 95 00 51 3d b2 3a b2 3c 5d f9 1d bd
       0.00087293854 0.051025946 0.021756504 -0.03856789
000010 e7 99 86 bd ac 36 4c 3d 2d c7 8c 3b b3 b1 85 bd
       -0.06572323 0.049856827 0.0042962045 -0.06528034
000020 a5 18 35 bd 97 d4 84 3d 13 7a fc 3c ac 5d 87 bd
       -0.044212956 0.06485861 0.030819928 -0.06609663
000030 5a 7d 83 bd 0c 5c 42 bd 5d fe a4 3c 17 6c a2 bd
       -0.06420393 -0.047451064 0.020140821 -0.07930773
000040 e7 b7 88 bc a7 e2 93 bd 6d c9 ca 3c e4 4a 7d 3d
       -0.016689254 -0.07220965 0.02475425 0.061839
000050 d1 78 0f bd b8 f6 07 3d 08 5a 46 bd a4 d7 5a 3c
       -0.03502733 0.033194274 -0.048425704 0.013357077
000060 97 4b 92 3d 28 25 83 bd 38 37 c4 bc 2f b7 32 3d
       0.07143324 -0.06403571 -0.023952112 0.04363173
000070 6f e3 f2 3c b9 3e 62 bd 32 bd 82 bc 89 af 82 bd
       0.029649464 -0.0552356 -0.015959356 -0.06381137
000080 55 ab 6d bb ab b8 2f 3d 87 03 b7 bb 3d 17 95 bd
       -0.0036265452 0.042900722 -0.0055851373 -0.07279823
000090 9d 52 8f 3d da 19 19 bc 19 c5 ac bb c0 26 73 bd
       0.06998179 -0.009344542 -0.0052725193 -0.059363127
0000a0 15 b6 93 3d 11 7c 43 3d 1d 5a 9c 3c d3 4d 88 3d
       0.07212464 0.04772574 0.019085938 0.06655469
0000b0 5d 9d a8 3d 4c aa 1c bd 05 b3 93 bd 16 18 37 3d
       0.0823314 -0.038248345 -0.0721188 0.044700705
0000c0 e3 e0 da 3c b7 d2 7f bd 8e fa 76 3d b3 c0 6f 3d
       0.026718562 -0.062456813 0.06029754 0.05853338
0000d0 db 9f 0b 3d b5 1a 94 bd 46 64 6b 3d 35 4e 1d 3d
       0.034087997 -0.072316565 0.057468675 0.038404662
0000e0 69 c2 0c bd d8 56 3a bd 5f c7 0a bd db a0 a8 3b
       -0.03436509 -0.045492977 -0.03388154 0.0051461286
0000f0 c7 e4 70 bd 3e 55 95 bd d9 d3 f7 3c 19 12 59 3d
       -0.05881193 -0.07291649 0.030252384 0.052995775
000100 38 06 67 bd a7 01 36 bd 49 9e 22 bd 2b bb 25 bd
       -0.056402415 -0.04443517 -0.039701734 -0.0404617
000110 f5 68 a3 3d d1 56 a3 bd b0 78 28 bd f9 17 15 3c
       0.07979003 -0.07975543 -0.04113072 0.009099954
000120 99 d3 0e bd c2 ee 89 bd 03 cc 8f 3c e5 f0 01 bd
       -0.034869764 -0.067349926 0.017553335 -0.031723876
000130 ca d2 28 bd b1 f8 f8 3a ce 39 8e 3d 20 1d 76 3b
       -0.04121665 0.0018995014 0.06944619 0.003755398
000140 9d 16 4d bd 7c 9a 96 bc 77 a8 8c 3d b5 f2 a0 bd
       -0.050070394 -0.01838421 0.068680696 -0.07858793
000150 dd 24 8e bc 7e 3e 7a bd 3c 44 07 3c 59 51 0f 3c
       -0.017351562 -0.061094753 0.008256014 0.008747422
000160 de f8 a9 3d 87 92 d3 bc 5f fc 8c 3d 2c f6 a9 bd
       0.08299421 -0.025826706 0.068840735 -0.08298907
000170 fa 98 40 bd 37 2c 2a 3d e1 0f 9a bd af 0c 84 3d
       -0.04702089 0.041546073 -0.0752256 0.06447732
000180 9d f9 69 bd 10 1d 1a 3b 7a 9e 81 bd 44 5d 8e 3d
       -0.057122815 0.0023515858 -0.06329055 0.06951383
000190 0d 17 a7 3d 8f 52 8b bd 7b eb 82 bc a9 77 92 bc
       0.081586935 -0.06802856 -0.015981426 -0.017879324
0001a0 e0 cc 12 3c 6e a6 a3 3d ff 41 f4 3c 9e 3d 81 3c
       0.008959979 0.07990728 0.029816626 0.015776452
0001b0 3a 22 15 bd 85 c6 66 bd c2 f1 a9 3d 20 ef 82 3d
       -0.036409594 -0.056341667 0.08298065 0.06393266
0001c0 ee 3e 2d 3d 2e 9b 4b 3d 08 8e 50 3d 19 d9 df bc
       0.042296343 0.049708538 0.0509167 -0.0273252
0001d0 e8 ad 96 bd f2 3d 80 3b 33 bb 84 3b a1 64 61 bd
       -0.07357389 0.0039136345 0.004050636 -0.055027608
0001e0 c7 cd 82 bd ad 6f 26 3d 0f 64 92 bd 61 65 66 3d
       -0.06386905 0.040633846 -0.07147991 0.056249026
0001f0 e2 ed 9c bd 84 00 75 bd 18 bb 96 3d 77 e8 4a bd
       -0.0766256 -0.059814945 0.07359904 -0.049538102
000200 6c cf 73 3d a7 30 ad bc 93 a7 38 3d 34 75 9e bd
       0.059523985 -0.021141363 0.045081686 -0.077371985
000210 1a e4 45 bd 9e b8 71 bd c4 b3 2a bd 88 19 19 bd
       -0.048313238 -0.059013955 -0.041675344 -0.037377864
000220 79 4f 80 3d 82 ae 9b 3d 73 7d 1d bc 31 c2 b3 bc
       0.06265158 0.07601644 -0.009612429 -0.021943184
000230 c6 97 a6 3d e5 6c f4 bc da 1b 40 bb ce 19 e5 3c
       0.08134417 -0.029837081 -0.0029313476 0.027966406
000240 d8 ad 21 3d 7d 3f 64 3d 85 fc 95 bc 34 56 33 3d
       0.03947243 0.05572461 -0.018308887 0.04378338
000250 15 20 e4 3c d4 8c be bc 6a 9c 0f bd de bb 8e bd
       0.02784733 -0.023260511 -0.035061277 -0.069694266
000260 b4 f0 16 3d 5c 75 55 bc fc ba 30 bd 63 54 34 bc
       0.036850646 -0.013028469 -0.043147072 -0.0110064475
000270 bb de 9c bd e5 fb 4c 3d 7d 88 86 bd 67 87 59 bc
       -0.0765967 0.050044913 -0.06569002 -0.013276911
000280 80 f2 f2 bc 68 50 5e bd 4f af 92 bc ea a4 63 3d
       -0.029656649 -0.0542759 -0.01790586 0.055577196
000290 02 3c a0 3d d0 77 dc 3c 9e 41 a2 3d 2b d0 88 3d
       0.078239456 0.0269126 0.07922672 0.0668033
0002a0 4f 94 05 bd 17 6c 30 3c 1b ee 37 3d a7 22 92 3d
       -0.03261214 0.010767958 0.04490481 0.07135516
0002b0 f0 22 89 3b 31 0a 7a bc a5 7b 75 bd 7d 57 a7 ba
       0.004185073 -0.015261219 -0.05993237 -0.0012767162
0002c0 5b 2a 72 3d a2 17 1a 3d ab 9f 0a bd fc 8d bd 3b
       0.059122425 0.037620194 -0.033843677 0.005784748
0002d0 d3 78 09 bd 1f 4a 70 3d 8e ff 56 bd ea b5 26 3d
       -0.033562493 0.058664437 -0.05248981 0.04070083
0002e0 c7 08 90 3d 76 e8 d3 3c f1 d5 5f bd 59 2a 87 3d
       0.07032924 0.025867682 -0.05464739 0.06599874
0002f0 94 dc 87 bd 15 e1 cf 3b aa 36 41 3b e9 44 8f 3d
       -0.06633869 0.0063439705 0.0029482045 0.069955654
000300 68 c0 4f bd c5 d3 61 bd c9 40 17 3d 0c a3 a9 3b
       -0.050720602 -0.0551336 0.03692702 0.0051769074
000310 75 0f 1a 3d f1 cd a7 3d 35 06 9c 3d 9e 67 74 3d
       0.037612397 0.08193577 0.076183714 0.05966913
000320 d3 97 62 bd d5 69 0b bc c9 c3 44 3d 67 98 8c 3d
       -0.055320572 -0.008509119 0.048038278 0.06865006
000330 d2 1a 83 bd be 92 04 bd 01 28 f3 3b eb 32 8b 3d
       -0.064016 -0.032366507 0.0074205403 0.06796821
000340 8e f7 88 bb cb da 97 bd 36 e5 f2 bc 8d 93 7f bd
       -0.0041799014 -0.07414778 -0.029650312 -0.062396575
000350 8a d7 24 bc 1c f8 87 bd 89 b1 8d bd dc f6 db bc
       -0.010061154 -0.0663912 -0.06918628 -0.02685111
000360 78 cd a4 3c ed 80 a4 bc 6e 67 98 bd 83 3d 2d bd
       0.020117506 -0.020081008 -0.07441603 -0.04229499
000370 5f 25 81 3b 87 da 43 bc 6e bd 29 bc 0f 60 c8 bc
       0.0039412226 -0.011953956 -0.010360105 -0.024459867
000380 9c b6 3a 3d 43 63 53 3d ad d8 76 bd 72 e5 8d bd
       0.045584306 0.051608335 -0.060265232 -0.06928529
000390 b6 01 a7 bd f5 3e c9 bc 25 f9 a9 bd cc e2 5a 3d
       -0.08154623 -0.024566153 -0.08299474 0.053438947
0003a0 b8 3a 6b 3d 5a e6 1c 3d ed 0c 9f bc d9 52 05 3d
       0.057429045 0.038305618 -0.019415343 0.032549713
0003b0 26 d3 f1 3c 28 f8 51 3d 3b 4f 7b 3d ee cf 99 bd
       0.029519629 0.05126205 0.061354857 -0.075103626
0003c0 c1 a1 a4 3d ad 4e a6 3d f5 63 18 bd f4 f6 6b bd
       0.080386646 0.08120475 -0.0372047 -0.05760856
0003d0 8d 3b c5 bc f9 c1 0d bd 6f 81 88 3d 07 68 8e 3d
       -0.024076248 -0.034608815 0.066653125 0.069534354
0003e0 22 49 af 3c d9 fc 9b 3d c2 c1 5b bd f7 05 52 3d
       0.021397177 0.07616586 -0.05365158 0.05127522
0003f0 8e b5 99 bd e6 3a 33 bd 03 92 88 3d 22 a9 44 3d
       -0.07505332 -0.04375734 0.066684745 0.04801286

conv_block_4.5.bias f4 [16]
000000 24 05 38 bd 6e 78 91 bd b0 a5 e4 3c f3 71 ba 3c
       -0.044926777 -0.07103048 0.027911037 0.022759413
000010 03 70 a3 bd 64 85 7c 3d ab 84 fb bc 2c 1d a0 bd
       -0.07980349 0.06165065 -0.03070291 -0.07818064
000020 28 49 08 bc b6 dd c8 bc ae 12 2e 3d 38 a9 5d bd
       -0.008318223 -0.024519783 0.042498283 -0.054116458
000030 31 f9 31 bd 45 23 26 3c a7 cd af bc 67 34 00 bb
       -0.043450538 0.010140245 -0.021460367 -0.0019562484

conv_block_5.0.weight f4 [16]
000000 c9 fa 7f 3f 03 02 80 3f 57 06 80 3f 03 f3 7f 3f
       0.9999204 1.0000614 1.0001935 0.9998018
000010 3c 05 80 3f e6 f2 7f 3f fd 05 80 3f c5 04 80 3f
       1.0001597 0.9998001 1.0001827 1.0001456
000020 15 fa 7f 3f aa fc 7f 3f fe fc 7f 3f 42 f3 7f 3f
       0.9999097 0.9999491 0.9999541 0.99980557
000030 aa f5 7f 3f 8b 06 80 3f 27 05 80 3f 79 04 80 3f
       0.9998423 1.0001997 1.0001572 1.0001365

conv_block_5.0.bias f4 [16]
000000 38 55 07 b9 06 62 4e b9 1b 40 48 39 e6 9a 50 b9
       -0.0001290635 -0.00019682207 0.00019097367 -0.0001989413
000010 fd ea 23 39 2e 53 45 b9 f9 4a 3f 39 31 57 3d b9
       0.00015632431 -0.00018818371 0.00018243109 -0.00018056926
000020 9e 2f 4d b9 3f 98 51 b9 1e 69 3b 39 bf 0a 50 39
       -0.00019568062 -0.0001998851 0.00017872869 0.00019840429
000030 b6 66 30 b9 a4 51 53 38 c3 e8 41 39 40 76 fe 38
       -0.00016822931 5.0382354e-05 0.00018492625 0.000121336896

conv_block_5.0.running_mean f4 [16]
000000 3e 06 db 3b 65 68 41 3d d8 0e 0c 3e 75 0f 10 3c
       0.0066840937 0.0472187 0.13677537 0.008792748
000010 ef d7 0e bd 6f ef 93 3d 02 05 5b 3d 02 e1 21 bd
       -0.0348739 0.07223403 0.053471573 -0.039521225
000020 d8 27 7e 3d 54 23 11 3d 0a 68 a9 3d 08 5a b3 bc
       0.062049717 0.035434082 0.08271797 -0.021893516
000030 69 ed 0e bc 33 e8 4c 3d 32 e6 9d 3c 9f 80 a5 bc
       -0.008723595 0.05002613 0.019274805 -0.020202933

conv_block_5.0.running_var f4 [16]
000000 47 e7 50 3f 4f 59 55 3f 20 8b 54 3f ec 53 50 3f
       0.816029 0.833394 0.8302479 0.81378055
000010 e2 83 52 3f d0 dd 50 3f 72 66 54 3f 20 fd 50 3f
       0.8223249 0.8158846 0.8296882 0.8163624
000020 c6 fe 50 3f 9d ce 51 3f c8 36 51 3f fb 63 50 3f
       0.81638753 0.8195589 0.81724215 0.8140256
000030 0c 4f 50 3f 44 44 51 3f 4a 2d 52 3f 3d 7d 50 3f
       0.81370616 0.8174479 0.82100356 0.814411
