cloud-detection-code/tests/test_artifacts/test_cross_entropy_loss/model_checkpoint_5.pt (torch, 439769 bytes, 347 tensors)

input_conv_block.0.weight f4 [3]
00000000: f9f5 7f3f 1505 803f 5ef6 7f3f
0.999847 1.0001551 0.999853

input_conv_block.0.bias f4 [3]
00000000: 5cbd c3b9 8959 2938 142e 96b9
-0.00037334382 4.0376126e-05 -0.0002864456

input_conv_block.0.running_mean f4 [3]
00000000: 0b5b 933e 40ca 603e b64c 383e
0.28780398 0.21952152 0.17998013

input_conv_block.0.running_var f4 [3]
00000000: fa3a 173f 0f33 173f 192e 173f
0.59074366 0.59062284 0.59054714

input_conv_block.2.weight f4 [2, 3, 1, 1]
00000000: 0210 76be 5d81 e4bc ac83 b2bd 9b92 3a3b
00000010: 2d69 943d f85a 06be
-0.24029544 -0.027893716 -0.08716521 0.0028468731 0.07246623 -0.1312064

conv_block_1.0.weight f4 [2]
00000000: 0ee2 7f3f f80e 803f
0.9995431 1.0004568

conv_block_1.0.bias f4 [2]
00000000: 7f56 ffb9 9554 e539
-0.00048701835 0.00043741302

conv_block_1.0.running_mean f4 [2]
00000000: 3965 57bd 275d 0fbc
-0.052586768 -0.008750237

conv_block_1.0.running_var f4 [2]
00000000: a7ee 193f 425b 173f
0.6012978 0.59123623

conv_block_1.2.weight f4 [2, 2, 3, 3]
00000000: b9de 26bd 1f3e d73c be51 663e 4131 4abe
00000010: a0ab 0a3d 34ae f4bd 87a5 1cbe d838 043e
00000020: eead 413e 7d32 2fbe 3869 393e bc4b 493e
00000030: 5ad2 213e 1c7b 39bc 3ab5 fcbd 16f9 24be
00000040: d4d9 40be c913 333e cf8d dcbd 6264 22be
00000050: 1961 40be 11d8 eb3d 2e80 b8bd 474c 1abe
00000060: 3dfc 68bd 75fe dd3d f932 eeba ee38 6b3e
00000070: 03ed fd3d fca7 1bbe d52e 3c3e d8a1 1cbd
00000080: c2b9 3fbd f62a 293e 6c02 a73d a108 2a3e
-0.04073975 0.026274739 0.2249212 -0.19745351 0.03385508 -0.11947289 -0.15297519 0.12912309
0.18914005 -0.17109104 0.18106544 0.19657797 0.15802899 -0.0113208555 -0.12339254 -0.16110644
-0.18833095 0.17488016 -0.10769235 -0.15858606 -0.1878704 0.11515821 -0.09008823 -0.1506816
-0.05688118 0.108395495 -0.001817315 0.22970936 0.12398722 -0.152008 0.1837724 -0.038240284
-0.04680801 0.16520295 0.08154759 0.16604854

conv_block_1.2.bias f4 [2]
00000000: 9745 0fbe 5a7d 583c
-0.1399139 0.01321348

conv_block_1.3.weight f4 [2]
00000000: 4008 803f 7fef 7f3f
1.0002518 0.9997482

conv_block_1.3.bias f4 [2]
00000000: 346f c639 322b f2b9
0.00037848356 -0.0004619002

conv_block_1.3.running_mean f4 [2]
00000000: 0d11 09bd 0b59 d73c
-0.033463527 0.026287576

conv_block_1.3.running_var f4 [2]
00000000: 4249 183f 1b9f 1d3f
0.5948678 0.615709

conv_block_1.5.weight f4 [2, 2, 3, 3]
00000000: 95fa 683e 6c17 94bd 4cde 013e a7de 513e
00000010: a988 043e 1f84 14be 2d14 b3bd 72e7 a2bd
00000020: 975a 493c aa3e 55be 2b12 babd f2b2 a7bd
00000030: 1543 6bbd af2a 6cbe 0e07 1e3e 4b54 0a3e
00000040: 5e10 62be 3c7c 1abd 1e90 153e 5f10 ae3d
00000050: 8adf 633e 0d7d e63d 9b14 16bc d57f 373e
00000060: f5bf 5d3e 0bb9 d0bc 3885 e1bb 054c 43bd
00000070: 4993 36bd 7118 e93b d501 fbbd 6f43 5a3e
00000080: 23f1 3a3e ab48 33be 6a08 273e 3a4e 39be
0.2275184 -0.0723103 0.12682456 0.20495091 0.12942757 -0.14503525 -0.087440826 -0.07954301
0.012289665 -0.20824686 -0.090854965 -0.08188428 -0.05743702 -0.23063157 0.15432379 0.13508718
-0.22076556 -0.037716135 0.14605758 0.08499216 0.22253242 0.1125432 -0.009160186 0.17919858
0.21655257 -0.02547886 -0.006882336 -0.04767992 -0.044574056 0.0071135093 -0.12256209 0.21314786
0.18256049 -0.1750819 0.16311803 -0.18096247

conv_block_1.5.bias f4 [2]
00000000: 69d9 0fbd c816 243e
-0.035119448 0.16024315

conv_block_2.0.weight f4 [2]
00000000: 4a06 803f 6ef3 7f3f
1.0001919 0.9998082

conv_block_2.0.bias f4 [2]
00000000: e9fe e4b9 af29 8ab9
-0.00043677472 -0.00026352468

conv_block_2.0.running_mean f4 [2]
00000000: f799 9e3c 5ccc 8b3e
0.019360526 0.2730435

conv_block_2.0.running_var f4 [2]
00000000: 2873 283f 143b 253f
0.65800714 0.6454327

conv_block_2.2.weight f4 [4, 2, 3, 3]
00000000: 6005 fa3d a307 2abe bc69 5f3e 4b7b 69be
00000010: a7bd 18be 698f 58be bdb7 313e 81fe cfbd
00000020: 59ce 36be b0d8 ed3d f398 1dbe c9b8 f0bc
00000030: 94b2 73bc 0f35 953d 52bb d83b 3946 a6bd
00000040: 0463 2e3d 00b1 bd3d fd30 b63d 7ceb 49bc
00000050: 671a 173e 2c90 9ebc aec0 55be e372 c43d
00000060: 1f48 3b3e 28ea ac3d 9600 f5bc b100 9dbd
00000070: 8680 8c3c 3df4 513e ade5 53be 74ba 483e
00000080: 3130 59be a39d 62be 96c8 4c3e ed6c 5d3e
00000090: 4a63 52be 0cdb 253d d226 94bd 98b2 13b9
000000a0: 5cd5 073d b0d0 613d 72c0 e93d 2f14 82bd
000000b0: 324f 33be 79d9 d03d a0ff 0f3e f1d7 343e
000000c0: d11a 503d 473b 2c3e 2520 dd3d 8f2e 38be
000000d0: 4729 e63d 1fcf e3bd f051 fdbd 2f79 4ebe
000000e0: e135 2c3e 5e2a 5fbc c8d3 cc3d f5e1 41be
000000f0: 825b 36be 3939 b8bc 8743 bf3d f882 243e
00000100: 8736 423e 4f7d c2bd 7ba0 103e d252 8c3d
00000110: 67e7 3e3d 2a50 26be 7a6d 8f3d 67ab 95bd
0.122080564 -0.16604476 0.21817678 -0.22800939 -0.14916097 -0.21148457 0.17355247 -0.10155965
-0.17852153 0.116135955 -0.15390377 -0.029384987 -0.014874119 0.07285511 0.006614127 -0.08118863
0.042574897 0.09262276 0.088960625 -0.01232421 0.14756165 -0.019355856 -0.20874283 0.095922254
0.18289231 0.08443099 -0.029907506 -0.076661475 0.017151129 0.20503326 -0.20693083 0.19602376
-0.2120979 -0.22130446 0.19998392 0.21623583 -0.20545688 0.040492103 -0.07233967 -0.00014085544
0.03316246 0.05513066 0.11413659 -0.06351506 -0.1751068 0.101977296 0.14062357 0.176605
0.050806824 0.16819488 0.10797147 -0.1798651 0.11238342 -0.111234896 -0.12369144 -0.20163415
0.16817428 -0.013620941 0.100013316 -0.18933852 -0.17808345 -0.022488223 0.09339052 0.16065586
0.18966113 -0.09496557 0.14123718 0.06851734 0.0466074 -0.16241518 0.07003303 -0.07308083

conv_block_2.2.bias f4 [4]
00000000: a56b 563e 2499 4dbe 4915 3f3b 20d9 27be
0.209395 -0.2007795 0.0029156974 -0.1639142

conv_block_2.3.weight f4 [4]
00000000: 0902 803f df04 803f b1e9 7f3f 4a0c 803f
1.0000621 1.0001487 0.9996596 1.000375

conv_block_2.3.bias f4 [4]
00000000: 6964 e7b8 d273 abb9 1af3 92b9 e806 c036
-0.00011033641 -0.00032701954 -0.00028028415 5.72285e-06

conv_block_2.3.running_mean f4 [4]
00000000: ab96 da3c 3baa ccbc 54a9 583d 6095 72bd
0.026683172 -0.024983516 0.05289586 -0.059224486

conv_block_2.3.running_var f4 [4]
00000000: 5a81 1c3f e4ee 203f 5442 233f 7762 1d3f
0.61134875 0.6286452 0.63773084 0.6147837

conv_block_2.5.weight f4 [4, 4, 3, 3]
00000000: 4da7 213e e644 8fbd 7f15 263e a6a4 44bd
00000010: abbc 18be 1571 a4bd 1b38 f6bc 07fd e3bd
00000020: af48 f63d e138 ad3d 1684 0cbe 2421 05bc
00000030: 5810 153e 9ebd 89bd aad8 98bd a3a0 003e
00000040: 5e68 ed3c 738b b7bd 4277 a7bd d8f7 1cbe
00000050: 2971 bbbd d599 913d bde1 00be 6fdc f3bc
00000060: c949 cab9 dafc 993d 6ebf 0bbe 6e20 e8bc
00000070: 2934 e8bd 6a42 7fbc 9bca 1a3e 4d9f 0cbd
00000080: fd03 4c3d ef9c bebd 094f 0abe 21cd 71b9
00000090: 36ef 1a3b ed12 683d 7155 173d 5709 113b
000000a0: f003 65bd ae4b 53bd 03eb db3d 125c 0fbe
000000b0: 46f2 203d 2ba7 b43c c48f b13d 8315 fcbd
000000c0: 1240 c53d 933e 11be 66bf e33d 72c8 28bd
000000d0: d151 283e 44d7 ffbd 62b2 f7bd bd33 093e
000000e0: 217e 87bd 9956 073e 53cc ac3d 2264 7a3d
000000f0: 009b 183e 8c33 073e 1bbb 09be 9312 203e
00000100: 8af0 373d 32ee 953c bf57 8c3d 0e1f 1bbe
00000110: c185 c0bc 6891 cfbd 86cb c53d 29bc 92bd
00000120: 0c21 59bd 8d39 33bd 37f1 f6bc 2b8a 103d
00000130: 508f bbbc f46d 363d e327 4cbd 27f3 0cbe
00000140: 3bd8 043e 020a 693d 264e bd3d abef 283d
00000150: 95c7 b7bc 4af7 27be eaa8 113e 8e9f e83d
00000160: ef46 40bd 9892 dfbd 6bbd 4f3d ce98 213e
00000170: c8b1 ecbc 0de4 293e 9667 f9bb 15b7 5c3c
00000180: 000f 603d ce61 04be df0c c33d 757e 3d3c
00000190: 771b 293e 8628 70bd da57 4d3c a309 c9bd
000001a0: c4ae 113e bbc5 cabd 6f51 5bbd 5f4d 423d
000001b0: 41c7 7dbd 615d b9bd 3df2 5bbc 2a6b c83c
000001c0: 7185 eb3c dfc9 663b 690f 0cbe dfac e6bd
000001d0: f654 0b3e 2f26 273e 73f4 de3d 4834 e1bd
000001e0: 4bb0 e3bc f063 13be e792 00be ce94 0f3e
000001f0: dbc2 6fbd 6ae3 ae3d 37bd 82bd 6f43 7e3d
00000200: 4b01 15bd e3da 73bd 1f50 14be d886 14be
00000210: 5e8f 8ebd e86d c33d 3d6b 13bd 430f 53bd
00000220: 49ca bb3d e882 9c3b ec8f 5c3d 6c1b 193e
00000230: b819 a53d 56ad dabd e62d 1f3d afd7 1738
0.15786476 -0.06995563 0.16219138 -0.048008583 -0.14915721 -0.08029381 -0.03005605 -0.111322455
0.12025582 0.084581144 -0.13722262 -0.008125577 0.14557016 -0.0672562 -0.074632004 0.12561278
0.02898043 -0.08962145 -0.081770435 -0.1532892 -0.09152443 0.07109419 -0.12586112 -0.029768197
-0.00038583417 0.07518931 -0.13647243 -0.028335776 -0.11338074 -0.015579799 0.1511635 -0.03433161
0.04980849 -0.093072765 -0.13506712 -0.00023059967 0.0023641116 0.056658674 0.036946718 0.002213081
-0.05591196 -0.051585846 0.10738184 -0.13999966 0.03929355 0.022052368 0.08669999 -0.123087905
0.09631361 -0.14184026 0.11120491 -0.041206785 0.1643746 -0.124922305 -0.12094571 0.13398643
-0.06615854 0.13216628 0.08437409 0.06113065 0.14902878 0.13203257 -0.13450281 0.15632086
0.04490713 0.018302057 0.06852674 -0.15148565 -0.023501279 -0.10135156 0.0965796 -0.07164795
-0.05301003 -0.043756057 -0.030144317 0.035288017 -0.022895485 0.044538453 -0.049842726 -0.1376463
0.1297311 0.05689431 0.09243421 0.04124419 -0.022434035 -0.16402927 0.14224592 0.11358558
-0.046942648 -0.109166324 0.050717752 0.15780947 -0.028893366 0.165909 -0.0076112254 0.0134713845
0.054701805 -0.12927935 0.09523939 0.011565794 0.16514383 -0.058632396 0.0125331525 -0.09816291
0.14226824 -0.09900995 -0.053544458 0.047437068 -0.0619576 -0.09051014 -0.013424453 0.024465162
0.028750153 0.003521554 -0.13677754 -0.11263441 0.13606629 0.1632316 0.10886469 -0.109963
-0.027794024 -0.14393592 -0.12556039 0.14021608 -0.058535438 0.085394695 -0.06383746 0.06207603
-0.036378186 -0.05953492 -0.14483689 -0.14504564 -0.06960939 0.09542447 -0.035990942 -0.051528227
0.09169442 0.0047763474 0.053848192 0.14951867 0.08061546 -0.106775925 0.03886213 3.6202076e-05

conv_block_2.5.bias f4 [4]
00000000: 0cbd fd3c eb7a 95bc 1140 04bd ae2e 8ebd
0.030973934 -0.018247088 -0.03228766 -0.06942497

conv_block_3.0.weight f4 [4]
00000000: 27fb 7f3f 56e3 7f3f b10e 803f 140c 803f
0.99992603 0.9995626 1.0004483 1.0003686

conv_block_3.0.bias f4 [4]
00000000: 65f0 9fb9 0f08 d9b9 aed5 a539 78e6 ad39
-0.0003050595 -0.0004139547 0.00031630456 0.00033168844

conv_block_3.0.running_mean f4 [4]
00000000: ac50 d23a 1e88 fb3d 8969 e03d 8efa 17bc
0.0016045771 0.12281822 0.10957629 -0.0092760455

conv_block_3.0.running_var f4 [4]
00000000: 6289 1e3f bd10 293f 80dc 2a3f c698 1a3f
0.6192838 0.66041166 0.66742706 0.60389364

conv_block_3.2.weight f4 [8, 4, 3, 3]
00000000: 1236 1b3e 9261 ffbc 7940 6c3d 7a74 10be
00000010: 2bd4 fbbd beb4 f6bc 7da8 ee3d dc70 10be
00000020: 45d2 13be 0b97 863d b933 1e3e 2ef1 0f3e
00000030: e679 29be 7f0e febc b019 85bd f4d0 083e
00000040: 986d bfbc f987 92bd ac83 813d f416 8dbc
00000050: 7ed5 0e3e ccc6 87bd bb6e 223d 4263 d0bc
00000060: 7c95 2bbd 19c9 9a3c 257b e7bd b04e 7d3c
00000070: bbfb 0b3e 1f6c ad3c 6961 98bc ad31 1cbe
00000080: 87a8 2abe f8a3 14bd aa8a c6bd f1d4 e43d
00000090: c13c 603c 2249 81bd 4712 843d 9b52 6f3c
000000a0: 7b9c 7abc eeaa 86bd 7927 613d eff9 1f3d
000000b0: 06c0 083e 745e 173d f027 183e f1e0 bcbd
000000c0: 3cb8 99bd 4212 fd3d 6ad4 0c3e b7a5 2a3e
000000d0: 54be b9bc 0bd9 423c e97a 893d 52ac d5bc
000000e0: 5f27 0dbe 3310 e13d fe39 0dbe e3c3 22be
000000f0: 732e 5dbd b256 fc3d 74e4 d8bd f87e 333d
00000100: 4231 083e b327 133d cd0c 8ebd 213c 23bd
00000110: e93a 7abc 2cdf 1d3d 0775 a23c 987a 76bd
00000120: 5365 27bc c022 4bbd aa46 d63c 61be 0fbd
00000130: 0ca6 56bd db81 993d d4d7 3fbd 3ff7 993c
00000140: 5d1b fabd 64ee 243e 50bf 0e3e f1d1 253e
00000150: 42e9 903d 9ec2 8f3b 7f4f 2fbd d202 a13c
00000160: fcbe 333c b2b4 48bd 17f8 b6bc 4e99 853d
00000170: 7ed6 09bd 180a 1fbe 9343 d73d 67c0 6d3c
00000180: 8a2a 71bd f139 dfbd 8184 31bd bd06 e8bd
00000190: f46d 313d 0638 81bd b5dd 77ba c2ba 7f3d
000001a0: 135d d53d 06e5 a9bd 1528 83bb 31b4 9dbd
000001b0: 518d debd 361d 8b3d 5433 833d 55b5 04be
000001c0: 39f8 933d 1dd1 b1bd 7762 1ebe c6e9 c4bd
000001d0: e22f 85bd 9c3b 27be 5cc9 033e 8aa3 05be
000001e0: d04e 7e3d 1fe6 b0bd f540 e9bd 489e 7bbd
000001f0: 8bd5 4f3d 5e24 a83d 5a5d 1abe d11f 6b3c
00000200: 9440 153e 1184 a03d 484f 01bd 3c3d 04bd
00000210: 4bca 1d3e 5a84 0e3e 4cf9 dd3b 8823 5b3c
00000220: 36f9 f8bd 0e42 053e acc7 833d b427 5b3d
00000230: 1e2c 3f3d 4858 153e 15d2 05be 5645 e0bd
00000240: 2bc6 6b3d 7a1e 213e 2a0d 083d f5a9 f8bc
00000250: 761b 9dbd 6b8a 703d d897 223d 38e5 833b
00000260: 14be 1ebe 2ea0 183e efac 263e 7516 6e3d
00000270: 1910 473d e0e4 b63c ea32 66ba 8bc8 0e3e
00000280: 1351 e03c f328 42bd 85e1 1fbd f43a 863d
00000290: 88ca 98bd 2fde 12be 484c 7abc 6bee 153d
000002a0: 00c4 4bbd 3c5a d13d 18b5 063e 96c8 c0bd
000002b0: fef3 81bd 8b0e f33d a38d 283e dd94 20be
000002c0: fa74 1fbd ee82 07be b32d 653d e108 09be
000002d0: 4ad5 363d 26ce 1abe 07d4 ec3d 8a64 333d
000002e0: 36ba 77bd c03e 12be 2310 4f3d 9367 79bc
000002f0: 606c ebbd e075 30bd bc7f fe3d 6d54 323d
00000300: 49b0 e53b b1cb 67bb 718d ea3c eaa9 ddbd
00000310: 2119 66bd 091a d73d 68cd 49bd 61c4 c0bd
00000320: e26d d63d ac1c 13be c9f3 07be e5d5 073e
00000330: 498b a03d be73 413d 695c 0f3e e7f6 cebc
00000340: 932a dcbd 39d9 07be 391a 1a3c 60ff 4d3d
00000350: 38c6 33bd 9950 fe3d f638 883c b80d ec3c
00000360: 2aa2 273e b04d fc3d 32e5 18be 806d ca3c
00000370: 2200 bdbd 68fe d13d dec2 d9bd f33a f83d
00000380: 87cc d73d 4ce3 f7bc 3d03 963d 7c99 8f3d
00000390: 703e 6bbd 311e b03d 8204 b0bd f1a2 b8bd
000003a0: 4a6b 263e fb63 10be 8943 fe3d 2855 3f3b
000003b0: c00b 18be 13d8 9f3c c30f 67bc f5a3 773c
000003c0: 6380 fbbd 80f5 303d 8cfc 4abd d328 2dbd
000003d0: 3ec9 0c3d a272 0a3d 12e9 003e 995f d2bd
000003e0: 6d23 993c 4164 6cbd d1d4 24be a314 f4bb
000003f0: 9379 6ebd ae05 edbd 01a0 02bd add7 423d
0.15157345 -0.031174455 0.057678673 -0.14106932 -0.12296327 -0.030115481 0.1165323 -0.14105552
-0.1443568 0.06571778 0.15449418 0.14056846 -0.16550407 -0.031012772 -0.0649904 0.1336096
-0.023367688 -0.07154841 0.063239425 -0.017222859 0.13948628 -0.06629714 0.039656382 -0.025437955
-0.041890606 0.018894719 -0.11302785 0.015460655 0.13670246 0.02116972 -0.018601136 -0.15253325
-0.1666585 -0.036289185 -0.09694417 0.11173428 0.01368636 -0.06312777 0.064487986 0.014607097
-0.015296097 -0.06575571 0.054969285 0.039056715 0.13354501 0.036955312 0.14858985 -0.09222592
-0.07505843 0.12356998 0.13752905 0.16664778 -0.022673763 0.011892567 0.067128964 -0.026083145
-0.1378455 0.10989418 -0.13791654 -0.15895037 -0.053999376 0.12321223 -0.10590449 0.04382226
0.1330004 0.035926532 -0.06936035 -0.039852265 -0.015272834 0.03854291 0.019831194 -0.06017551
-0.010217029 -0.049593687 0.026156742 -0.03509367 -0.05240445 0.07495471 -0.04683669 0.018794654
-0.122122504 0.16106564 0.13940167 0.16193368 0.070757404 0.004387214 -0.042800423 0.019654665
0.010970827 -0.04900045 -0.022335095 0.06523381 -0.03365182 -0.15531194 0.10510936 0.014511204
-0.05887846 -0.10899723 -0.043339256 -0.1132941 0.04331775 -0.06309514 -0.0009455339 0.062433966
0.10418143 -0.08295636 -0.004002581 -0.077003844 -0.10866798 0.06792681 0.064062744 -0.12959798
0.07225079 -0.08682463 -0.15467249 -0.09614901 -0.065032735 -0.16331333 0.12869781 -0.13050666
0.06208688 -0.08637642 -0.11389343 -0.061430246 0.05074076 0.082100615 -0.15074673 0.014350847
0.14575416 0.0783769 -0.03156975 -0.03228496 0.154092 0.13917676 0.0067741033 0.0133751705
-0.12156908 0.13013479 0.06434569 0.05350466 0.046672933 0.14584458 -0.13068421 -0.10950725
0.057562035 0.15734282 0.03321568 -0.03035448 -0.076712534 0.058725756 0.03969559 0.0040251277
-0.15502197 0.14904854 0.16276906 0.058126885 0.048599336 0.022325933 -0.00087813905 0.13943689
0.02738241 -0.047402333 -0.03903343 0.06554213 -0.07460505 -0.14342569 -0.015276976 0.036604326
-0.049747467 0.10222289 0.1315502 -0.09413259 -0.06345366 0.11868008 0.1646028 -0.15681787
-0.038929917 -0.1323354 0.055951785 -0.13382293 0.044637002 -0.15117702 0.115638785 0.043797053
-0.06048032 -0.1428175 0.0505525 -0.015222448 -0.1149528 -0.043081164 0.12426707 0.043537546
0.00700954 -0.0035369212 0.028631898 -0.10823424 -0.05617631 0.10503013 -0.049268156 -0.09412456
0.10470177 -0.14366406 -0.1327659 0.13265188 0.078390665 0.04722952 0.14000095 -0.025264217
-0.10750308 -0.13266458 0.009405666 0.050292373 -0.043890208 0.124177165 0.016628724 0.028815135
0.16370454 0.12319505 -0.14931181 0.024710417 -0.09228541 0.10253602 -0.10632871 0.12120619
0.10537057 -0.03025975 0.073248364 0.07011697 -0.057432592 0.085995086 -0.0859461 -0.090154536
0.16251865 -0.1410064 0.12415225 0.0029195044 -0.14848232 0.019512212 -0.014102879 0.015114774
-0.12280347 0.043202877 -0.049557254 -0.04227526 0.034371607 0.03380073 0.1258891 -0.1027214
0.01869365 -0.057712797 -0.16096808 -0.007448749 -0.05822141 -0.11573349 -0.031890873 0.047568966

conv_block_3.2.bias f4 [8]
00000000: 6ca1 07be 7714 08be 7423 ffbd f8bd 1e3e
00000010: 530e efbd 76a5 913d 4b19 ec3d 162d a7bd
-0.13245171 -0.13289057 -0.12457934 0.15502155 -0.11672654 0.07111637 0.11528262 -0.08162896

conv_block_3.3.weight f4 [8]
00000000: f408 803f 57f5 7f3f 12fb 7f3f aff4 7f3f
00000010: 50e0 7f3f f90a 803f 74ff 7f3f 4108 803f
1.0002732 0.99983734 0.9999248 0.9998273 0.9995165 1.0003349 0.99999166 1.0002519

conv_block_3.3.bias f4 [8]
00000000: 6477 8bb9 991a 0e39 5ab9 ff39 8857 22b9
00000010: edb5 d3b9 74ba 7138 efb7 18b9 4874 eab7
-0.000266011 0.00013552084 0.00048775488 -0.00015482132 -0.000403806 5.7632526e-05 -0.0001456437 -2.7949121e-05

conv_block_3.3.running_mean f4 [8]
00000000: f484 c7bd 3fe1 77ba 5ccb 65bd 12de 263d
00000010: 1e5f 003c a260 303c a9fa 283d 9ff0 9c3d
-0.09742156 -0.00094558665 -0.05610214 0.040739127 0.007835178 0.010765227 0.041254673 0.07663082

conv_block_3.3.running_var f4 [8]
00000000: a0c0 233f 7eb6 223f 18fc 203f 0b0f 1f3f
00000010: 3ed4 203f f9b4 203f 7854 1c3f 3ed9 2c3f
0.639658 0.6355971 0.62884665 0.6213233 0.62823856 0.6277614 0.6106639 0.67518985

conv_block_3.5.weight f4 [8, 8, 3, 3]
00000000: d59c a2bd 8af6 8cb9 e9c1 923d 8f97 89bd
00000010: 4f94 37bd b9aa d33d 76a1 aebd 2f80 a63d
00000020: 4c5c c6bd a6d2 2bbd 758b a23c 27b1 70bc
00000030: 1f95 91bd 6628 d03c 9a3b b43d b8c6 3a3d
00000040: 7c7a c2bd 45b9 88bd 5652 d93d 0839 efbd
00000050: 88ad 843c eeae c6bc 7a74 9bbd ffaa d7bd
00000060: 96ca 95bb 7cc0 223d b2f3 efbc 4de2 edbc
00000070: f2eb 903b 47f5 cb3d e599 77bd ae11 8dbd
00000080: 143b 59bc 6165 debc d67e b13a e7e6 a33d
00000090: 53e0 2a3d 7568 c5bd a71a acbd 8b0c f5bc
000000a0: 9e30 b53d 3ad7 aebd 6db2 843d df2d 03bd
000000b0: b598 a2bd a6d3 f3bc 1556 573d 97b5 813d
000000c0: cb62 e73d 9463 85bc 29ae d9bb 584d 8d3d
000000d0: f74d b0bd a48c 40bc 7459 633d e37e 083d
000000e0: d1bb ca3c 6ec3 833d 36f0 4cbd 00fa adbd
000000f0: 5310 27bd 4c54 e4bd 73bd b33d 9eb2 8ebd
00000100: 86c5 b0bb f24f 8dbd bd5a a43d 5b2e d4bd
00000110: 91b0 b83d 2427 e3bd a44c ef3c 721a ec3d
00000120: 1ea3 a13d b44f 8bbc 9010 343d 53a9 d83c
00000130: 9531 26bc 05e5 cd3c ed90 823d 90ef d53b
00000140: 8c20 99bc 94a2 56bd 96bf 8b3d 2be2 1abd
00000150: e562 9c3d e4be e2bc 88f5 a9bd bb29 d33d
00000160: 97d3 7f3d 27a8 5ebd 23ab 9e3d 252c 8dbd
00000170: 35b7 cb3d b19e f6bc b36d c5bb b7c8 253d
00000180: 33c5 85bd ffc3 193d c17b 1a3a 27e8 a4bd
00000190: 326f b03d 1245 8bbd 40ed a8bc e55e 993c
000001a0: 8259 5b3c 0169 933d 593c 86bd 7e5b ba3c
000001b0: e15e d6bd b7bd bcbd 6fce b13c d438 d3bd
000001c0: 9a00 473d 2d93 81bd c428 e73c 98a6 bfbc
000001d0: 2ed3 ad3d f429 543d 2f0a 07bc 8485 843d
000001e0: 072f 8dbc 5dd7 26bd 0be1 e83d 054e a9bd
000001f0: 4d63 da3d 08c5 143c b1fb 23bb aa20 dcbd
00000200: 6ef9 d9bd 6511 dc3d 5472 d63d d3f9 80bb
00000210: ce2a 343d 3a13 c63d 6611 3a3d c4e8 89bd
00000220: e0e3 933c 12f5 11bd d80a e23d 346f 513d
00000230: 6922 d23c 8c0b 8a3d cfe8 a3bd ce56 573c
00000240: 89af a4bd ddac eb3d e7c9 433c 618e 10bd
00000250: 3624 1d3d 4b88 83bb 8cbc dabd 1cc6 1d3c
00000260: 0da5 87bd 9f1f b0bd 1784 e83d 3992 633b
00000270: 4689 d3bc 0649 d2bd a8b4 403d 00fe 083c
00000280: 6236 913d 807b 3f3d 3876 ebbd 1861 8cbc
00000290: 1bc8 41bc 0532 4ebd d7de eabc 7eba 823d
000002a0: 75c9 c6bd 64e4 dfbd 0a44 bf3d a554 7d3d
000002b0: b122 d9bc 8903 d43d 4808 8e3c d29d 443d
000002c0: 90ea 99bd b470 a0bc 635d 38bd e528 9f3d
000002d0: c57d 713c 9941 e13d b832 ee3d f430 b93c
000002e0: 47a4 563d fe68 8fbd e10b 46bd 7b3c b6bd
000002f0: fc64 733d 3074 fd3c f8b2 713d 515f b5bc
00000300: 6f4f fcbc bd87 a13d f67e 9e3d dfeb 3c3d
00000310: 6a88 c1bd 8e93 8cbd 95fb a73d bedb b83d
00000320: 251f e03d 0d94 1d3d bb54 b6bd ea46 42bd
00000330: f464 4dbc af15 b63c 98d1 aabd d73c adbd
00000340: 306d b9bc c578 c73d cfdb b73d d7f3 e7bd
00000350: eb45 883d 8dd3 97bd 9d46 91bd 033c 883d
00000360: 77bc 5cbc 0d75 ba3d 4384 d13d bb1e a73c
00000370: 3665 8a3d b6a5 983d a804 81bd 74ab b43d
00000380: 684c dbbc 624d 1fbd 05cb 23bd 9c19 99bb
00000390: 4553 54bd abd5 98bd 4829 913d 5bb1 96bb
000003a0: c2d5 e23c 3c3a ee3d 02cf 3f3d 77a3 453c
000003b0: d1a2 e33d c11b 59bd bbe7 5fbc 2037 d63d
000003c0: 7b75 e1bd acfa ee3d 2525 3ebd 3bfd 1ebc
000003d0: f0b3 403d 63a7 b43c f210 c03c 1305 8ebd
000003e0: 1666 81bd af9e c5bd 0b73 bfbd de23 883c
000003f0: 65cf a6bd 0b20 3bbc 9f52 89bd afff 643d
-0.079400696 -0.00026886567 0.07165892 -0.06718361 -0.044819172 0.10335297 -0.0852689 0.08129918
-0.09685573 -0.041948937 0.019841889 -0.014690674 -0.07108521 0.025409888 0.088004306 0.04559967
-0.09496018 -0.06675962 0.106114075 -0.116808 0.016196027 -0.024253335 -0.075905755 -0.10530662
-0.0045712693 0.03973435 -0.029291008 -0.029038573 0.004422658 0.09958892 -0.0604495 -0.06888138
-0.013258714 -0.02714795 0.0013541828 0.080030255 0.04171784 -0.09639064 -0.08403521 -0.029913208
0.088471636 -0.08537145 0.064793445 -0.032026168 -0.07939283 -0.029764008 0.05257233 0.06333464
0.1129814 -0.016282834 -0.006643076 0.06899518 -0.086086206 -0.011752281 0.05550523 0.033324134
0.024747761 0.0643376 -0.05003377 -0.08494949 -0.040787052 -0.11148891 0.08776369 -0.06967662
-0.0053946404 -0.06900014 0.080251195 -0.10360404 0.09018052 -0.1109145 0.02921135 0.115284815
0.0789244 -0.017005779 0.043961108 0.026447928 -0.010143657 0.02513362 0.06375299 0.006528802
-0.018692277 -0.05240114 0.068236515 -0.037813347 0.0763605 -0.027678914 -0.082987845 0.10310694
0.062457647 -0.05435958 0.077474855 -0.068931855 0.09947053 -0.030104967 -0.00602504 0.04047462
-0.065317534 0.037540432 0.00058930746 -0.08052092 0.08614959 -0.068002835 -0.020620942 0.018722007
0.01338804 0.07197762 -0.06554479 0.022748705 -0.104673155 -0.09215873 0.02170488 -0.103135735
0.048584558 -0.063269 0.02821768 -0.023394868 0.08487545 0.051797822 -0.008242174 0.064707786
-0.017234338 -0.04073273 0.113710485 -0.08266834 0.10663471 0.009080179 -0.0025021846 -0.10748418
-0.10643278 0.10745505 0.10471025 -0.0039360314 0.043986134 0.09671636 0.04542675 -0.0673385
0.018052995 -0.035634108 0.110372245 0.051131442 0.025651174 0.06740484 -0.08003389 0.013143254
-0.08041293 0.115075804 0.011949993 -0.035292033 0.03836461 -0.00401405 -0.10680494 0.0096297525
-0.06623278 -0.08599781 0.11353319 0.0034724607 -0.025822293 -0.10267834 0.047047287 0.00836134
0.07090451 0.04674864 -0.11497158 -0.017136142 -0.011827494 -0.05034067 -0.028670711 0.06383227
-0.09706394 -0.10932234 0.09339149 0.0618483 -0.0265058 0.10352237 0.017337933 0.04800207
-0.07515442 -0.019584991 -0.045010936 0.07771472 0.014739458 0.1099884 0.116307676 0.02260635
0.05240276 -0.070024475 -0.048351172 -0.088982545 0.059422478 0.030939192 0.05900857 -0.022140177
-0.030799596 0.07887218 0.077390596 0.04612338 -0.09449847 -0.06864081 0.08202282 0.090262875
0.1094344 0.03847127 -0.0890288 -0.04743091 -0.012536276 0.022227136 -0.08340758 -0.0845887
-0.022635072 0.09739832 0.08977472 -0.11325806 0.06653961 -0.07413397 -0.070935465 0.06652071
-0.013472668 0.09104357 0.10230305 0.020400396 0.06757586 0.07453482 -0.06299716 0.088217646
-0.026769832 -0.038892157 -0.039988536 -0.0046722423 -0.051837225 -0.07462629 0.07087952 -0.004598779
0.027689818 0.11632201 0.046828277 0.012062899 0.11115039 -0.053004984 -0.013666089 0.10459733
-0.11008736 0.116689056 -0.046422143 -0.00970393 0.0470466 0.022052472 0.02344558 -0.069345616
-0.063182995 -0.09649407 -0.093481146 0.016618665 -0.08145026 -0.011421214 -0.06705212 0.0559079

conv_block_3.5.bias f4 [8]
00000000: 1ef4 c1bd 95c9 cfbd 7a04 b9bd e147 de3d
00000010: 6db9 32bd 9a69 8d3d 9046 85bc b78f e0bc
-0.0947039 -0.101458706 -0.09034057 0.108535536 -0.043633867 0.069049075 -0.016268998 -0.027412279

conv_block_4.0.weight f4 [8]
00000000: 8e0d 803f d502 803f 2be2 7f3f bf04 803f
00000010: 01ee 7f3f 3210 803f 0c08 803f b4e8 7f3f
1.0004137 1.0000864 0.9995448 1.0001448 0.9997254 1.0004942 1.0002456 0.9996445

conv_block_4.0.bias f4 [8]
00000000: bc6d 5db7 32ae c3b9 7626 45b9 919c be39
00000010: 8ca3 76b9 2a87 9b38 8b03 d4b9 67ea a9b9
-1.3198176e-05 -0.00037323084 -0.00018801712 0.00036356275 -0.00023521314 7.416152e-05 -0.0004043843 -0.00032408835

conv_block_4.0.running_mean f4 [8]
00000000: 03a5 cabc e3a5 023e 53a9 8c3d 3e4c dc3d
00000010: cc98 f3bc e4d5 c13c 3c6a c93d eeb3 bc3d
-0.024736887 0.12758593 0.068682335 0.107567295 -0.029735945 0.023661561 0.09834716 0.09214006

conv_block_4.0.running_var f4 [8]
00000000: 33b4 193f a02b 1d3f faf7 1c3f b021 1c3f
00000010: 25c3 213f bb7b 1f3f 80e4 1b3f 5112 1c3f
0.6004059 0.6139469 0.6131588 0.60988903 0.6318839 0.6229817 0.6089554 0.6096545

conv_block_4.2.weight f4 [16, 8, 3, 3]
00000000: 1ba6 a0bb ea40 a2bd 0cff f03b ad3e 8f3d
00000010: 468f c43d f217 c33c c2fc 9bbd a718 b53d
00000020: c3e5 c23d 842e cebd 2964 80bc 6f2f e8bd
00000030: c892 6c3d f7b5 ddbd 953f d63d ecf7 b2bd
00000040: 831c fabc 3fd8 6dbc 32e3 a5bc 939a adbc
00000050: f993 71bc 9d22 1ebd 6fa1 33bd 3099 d6bb
00000060: 28f7 c3bc f6eb 223d 1599 8b3c 9bc7 b53d
00000070: 037a b73d b973 6c3d 4449 ad3d 1b88 b3bd
00000080: abbd b1bc e768 9c3d 4e8a ebbc d49c 3f3d
00000090: 8798 a4ba 908c a23d ba01 cc3d 20ab c6bd
000000a0: 4755 06bd 4366 7b3d fb33 dd3d 0768 ae3d
000000b0: 520e c83c 8e8e e0bd d101 90bd 7a34 4e3d
000000c0: 1604 813c 55f0 21bd da3a dcbb 5f30 923d
000000d0: 6dae 62bc 69f3 e63d 4063 95bd 4a44 5d3d
000000e0: 6f40 c5bb bc3d de3c 4bb8 8ebd 6eb2 d9bd
000000f0: 7cab 033d cc80 223d 27cc c0bd 903d cb3d
00000100: d485 873d 09ed 74bc 728d cbbd 9b68 f0bd
00000110: 56a3 4d3d 145d 96bd 4fa8 cf3d d7ce 9ebd
00000120: 1829 dcbd f99c eabc 9224 9bbb b775 ad3d
00000130: 63cc 1ebc e6a9 353b 3ef6 d63d 891e bcbd
00000140: 97f5 51bd c554 8f3d 8f68 a7bd b4e2 4bbc
00000150: ad4f a63d 0f37 b93c 1528 c33d a130 40bd
00000160: e980 d5bd 1101 c93d 5cb2 b03d 79a2 8abd
00000170: fc39 38bd 2e9a 8e3d 2e29 433d 2d96 85bd
00000180: d12e 97bd e4bc 85bc 1ed0 a23d c9ff 81bd
00000190: 5c1e d93a 621a 733d ae7b f5bc d45e b83d
000001a0: 132b 893d 2010 f13d e8de 87bd 6a80 70bd
000001b0: 6db4 ea3d 7716 d43c c1e6 afbb da6f a8bd
000001c0: 35e8 c03d 737e 0b3d c001 6cbd 6e46 d6bd
000001d0: b4be b0bd 93a9 af3d c602 fcbc d835 833d
000001e0: 9755 ac3c 9b61 f1bd 6f36 c4bd 740f ae3c
000001f0: 272c cabd 4d61 56bd dcd6 643d 440e 993d
00000200: 2f0d 323c 3e54 563b 1692 c7bb 712f 8d3d
00000210: 853d c73c a91a c63c 7450 a53d 741d de3d
00000220: e526 0ebd de29 c6bd 647d b0bd fcd1 7dbd
00000230: da91 873a a878 3cbc 95b6 c3bd 698b d4bd
00000240: 4a5d c53d b0cd ae3d b2b6 c03d be55 75bc
00000250: bd85 40bd 532b f0bd e77f e7bd 4b64 0fbd
00000260: 2b06 bd3d 9a51 89bd a1fe 933a be21 143d
00000270: ba7c b63d 1336 103d b149 94bd c775 6d3d
00000280: 6427 323d 85aa 2abd d642 82bc 61a6 23bc
00000290: a270 ce3a 431d 8a3d 8047 963d d8bc b1bd
000002a0: 4423 c43d de66 713d b142 b43d 9505 c7bd
000002b0: a4fb 9abb 9b38 0a3b fe08 833d de22 b6bc
000002c0: de59 63bd 026c e33c 2330 e0bd e540 3cbd
000002d0: 7499 b43d 6f60 043d dded 8cbd 1a50 ee3d
000002e0: ffb2 dcbd d9ab 93bd 478a c53c f6a1 82bd
000002f0: fedc dfbc 8f61 c93d dbe8 2a3d 8cfa 12bd
00000300: 5b19 c1bd f6ad 2b3d 9976 bcbd 34ef e63c
00000310: 961d 13bd 8996 4ebd 9ea3 3d3d 1283 acbc
00000320: acfe a7bd 20b3 95bd 4875 91bc 5404 acbc
00000330: 369d d3bd acb9 e5bc bc8e 053c 1ce4 05bd
00000340: 4d50 32bd 6422 8dbd 4678 1d3d 84e8 df3d
00000350: f666 67bd 9be5 b7bd 06c4 a93c 2e67 d13c
00000360: 6edb d1bd cd40 cf3d a6c5 c8bd a069 e63d
00000370: 9192 273d b4f1 ba3b 05d1 80bd c1cb 193c
00000380: 53d3 ae3d a390 59bd b887 39bd df29 ba3d
00000390: 7d01 44bd de85 c8bd 155b 203c 5bab aebd
000003a0: 4be4 dcbd 7a13 adbd 94f4 793c 7800 48bd
000003b0: e79d b53c 9f98 ef3d 78ae 00bd 8ffd 223d
000003c0: c2f2 abbd ebbd 873c 8090 233d 7ac8 4fbd
000003d0: 7180 36bd e204 263d da3b 663d 70ba 0a3d
000003e0: 3c93 663d 97a0 c23d e41f eb3d 4ad4 cabd
000003f0: 6aa7 91bd bd26 993c 8b92 ed3d 98d1 123c
-0.004902614 -0.079225376 0.0073546227 0.06994376 0.0959764 0.023815129 -0.07616569 0.08842593
0.0951648 -0.10067466 -0.01567276 -0.11337172 0.05775717 -0.10825723 0.10461346 -0.087386936
-0.030531174 -0.014516889 -0.020249937 -0.02119187 -0.014744752 -0.03860723 -0.043855127 -0.006549023
-0.023921564 0.03977581 0.017040769 0.08875962 0.08958819 0.05772755 0.0846124 -0.087661944
-0.021696886 0.07637196 -0.028752472 0.046780422 -0.0012557664 0.079369664 0.09961267 -0.09700608
-0.03279617 0.06137682 0.1080093 0.085159354 0.024420891 -0.1096469 -0.070315965 0.050343014
0.015749019 -0.03953584 -0.006720883 0.07138132 -0.013835532 0.112768956 -0.07294321 0.054020204
-0.006019644 0.027129047 -0.06968745 -0.10629736 0.032145962 0.03967361 -0.09413939 0.099238515
0.066173226 -0.014949092 -0.09939088 -0.11738702 0.050204597 -0.07341972 0.10139524 -0.07754295
-0.107500255 -0.028639304 -0.004734584 0.08469718 -0.009692284 0.0027719676 0.10496186 -0.091855116
-0.051259603 0.069985904 -0.0817424 -0.012444187 0.08120666 0.022609262 0.095291294 -0.046921376
-0.10424978 0.098146565 0.08627769 -0.067692704 -0.044977173 0.06963001 0.047646694 -0.065227844
-0.073819764 -0.016325422 0.079498515 -0.06347615 0.0016564834 0.059351332 -0.029966202 0.09002462
0.06697669 0.11770654 -0.06634313 -0.058716215 0.11460195 0.025889618 -0.005368084 -0.08224459
0.0941929 0.03405614 -0.057618856 -0.10462652 -0.08630124 0.085772656 -0.030763041 0.06406754
0.021036906 -0.11786195 -0.09580695 0.021247603 -0.09871703 -0.052338887 0.05586897 0.07473424
0.010867401 0.003270402 -0.006090413 0.06893814 0.024321327 0.024182634 0.08071986 0.108454615
-0.03470506 -0.09675954 -0.08617666 -0.061967835 0.001034315 -0.011503376 -0.09556309 -0.10378153
0.09636934 0.085353255 0.09409846 -0.014974056 -0.047002543 -0.117270134 -0.11303692 -0.035007756
0.09229692 -0.067050174 0.0011291095 0.03616499 0.089105085 0.03520782 -0.07240618 0.05797365
0.043494597 -0.041666526 -0.01590101 -0.009988398 0.001575012 0.067438625 0.07337856 -0.08678597
0.09577039 0.058935992 0.08801783 -0.097178616 -0.004729705 0.0021090868 0.063981995 -0.022233423
-0.055505626 0.027761463 -0.10946681 -0.045960326 0.08818331 0.03231853 -0.06881306 0.11636372
-0.10776328 -0.07210512 0.024113787 -0.06378548 -0.027327057 0.09833061 0.041725975 -0.03588347
-0.09428664 0.04191395 -0.09202308 0.028190233 -0.035916887 -0.05043653 0.046298616 -0.021058593
-0.08202872 -0.07309556 -0.01775612 -0.020998158 -0.1033272 -0.028042637 0.008151706 -0.032688245
-0.043533612 -0.06891325 0.03844478 0.10933021 -0.056494676 -0.08979341 0.020723354 0.025561895
-0.10246931 0.10119782 -0.098033234 0.11250615 0.04091126 0.005705083 -0.06289867 0.009386958
0.08536401 -0.053116452 -0.045295447 0.090900175 -0.04785298 -0.09791158 0.009787341 -0.08528777
-0.10785731 -0.084509805 0.015256066 -0.048828572 0.02217002 0.11699032 -0.031416386 0.039792594
-0.08395912 0.016570052 0.039932728 -0.0507283 -0.044556085 0.040532 0.056209423 0.033869207
0.056292757 0.09503286 0.11480692 -0.09903772 -0.0711201 0.01869523 0.116002165 0.008961104

conv_block_4.2.bias f4 [16]
00000000: af1b 4dbd 723b 61bd 0d63 cd3d 6743 e2bd
00000010: 69da 89bc 0937 d1bd 5cfd 7bbd 99c2 8f3d
00000020: 00ab df3d 80ec f6bb 1527 413d f3a6 993c
00000030: fc69 493d 5379 9cbd 79b2 c5bb 0885 e3bc
-0.05007523 -0.054988332 0.10028658 -0.11048012 -0.016827779 -0.10215575 -0.06152092 0.070195384
0.109212875 -0.007535517 0.047156412 0.018756365 0.04917334 -0.07640328 -0.0060332385 -0.027773395

conv_block_4.3.weight f4 [16]
00000000: 68fa 7f3f 0aeb 7f3f 14ee 7f3f 3603 803f
00000010: 01ef 7f3f e3f7 7f3f 2c01 803f 21f5 7f3f
00000020: ec09 803f 5602 803f d5ff 7f3f 3601 803f
00000030: 1e0d 803f de0c 803f 0008 803f 89e9 7f3f
0.99991465 0.99968016 0.99972653 1.000098 0.99974066 0.9998762 1.0000358 0.9998341
1.0003028 1.0000713 0.99999744 1.000037 1.0004003 1.0003927 1.0002441 0.9996572

conv_block_4.3.bias f4 [16]
00000000: a063 e8b8 ae5f bcb9 de74 9bb9 39a5 5eb9
00000010: 8ea9 f3b8 b3a8 fbb8 9758 aa38 73b5 09b9
00000020: ccc1 e839 3a59 beb7 5096 d3b8 67ce b7b9
00000030: d11f 8039 fec2 a439 e8cd a0b8 26ec beb9
-0.00011081179 -0.0003592944 -0.00029650977 -0.0002123312 -0.00011618725 -0.00012000035 8.122733e-05 -0.00013132933
0.00044394878 -2.2691314e-05 -0.00010089262 -0.00035058262 0.00024437768 0.00031425798 -7.6677476e-05 -0.00036415568

conv_block_4.3.running_mean f4 [16]
00000000: c06c b4bb 00ac 6ebd dfe6 29bc 17bf 3ebd
00000010: f90a 963b ee8c 4abd d700 e93c 3f14 f2bd
00000020: f73e 06bc 3435 e13d 32e2 033d 874c 51bc
00000030: f224 193e ea58 673d 977c eaba 7084 223c
-0.005506128 -0.0582695 -0.010369985 -0.046568956 0.0045789448 -0.049450807 0.028442783 -0.11820268
-0.008193723 0.10996476 0.03219814 -0.012774593 0.149555 0.05648128 -0.0017889914 0.009919271

conv_block_4.3.running_var f4 [16]
00000000: 2505 243f 6f9f 1f3f bff2 203f 4bdd 1f3f
00000010: ac3a 213f 5d22 223f aba4 1f3f f721 203f
00000020: da84 213f 6551 2e3f 76dd 203f e112 1f3f
00000030: e06f 213f 3350 203f f9bd 253f 00e7 1c3f
0.6407035 0.6235265 0.628704 0.6244704 0.6298015 0.63333684 0.6236064 0.62551826
0.6309334 0.6809295 0.6283792 0.6213818 0.6306133 0.62622374 0.64743 0.6128998

conv_block_4.5.weight f4 [16, 16, 3, 3]
00000000: b680 243a 8e05 513d 2286 b13c 5ecf 1ebd
00000010: 5baa 86bd 5eeb 4b3d 8ce1 883b 34c1 85bd
00000020: 679e 35bd f956 843d d0ea fc3c fc06 87bd
00000030: f67d 83bd e778 41bd 560a a63c 7746 a2bd
00000040: 48a6 88bc 7b78 93bd dd4c cc3c 9808 7e3d
00000050: 9771 0fbd 258e 083d 00d2 45bd 55c8 593c
00000060: 5673 923d ca59 83bd 4c6e c3bc c5bb 323d
00000070: a7f2 f33c e949 61bd 357c 81bc 6828 82bd
00000080: 855a 74bb 3695 2f3d e81c b7bb 8819 95bd
00000090: 4ba6 8f3d 91b1 14bc 2982 a8bb b143 72bd
000000a0: 6047 943d f10e 443d 17c5 9d3c 858f 883d
000000b0: e4f9 a83d 0804 1cbd f549 93bd 99e9 373d
000000c0: 69be dc3c 43d2 7ebd 5d77 773d 905e 703d
000000d0: eb33 0c3d 4fa5 93bd af67 6b3d 734e 1e3d
000000e0: 79f0 0bbd a7fa 39bd 23e6 09bd a9d2 b03b
000000f0: a6b3 70bd efed 94bd 634d f93c 2ef9 583d
00000100: 0058 67bd f12e 37bd f706 22bd 3291 25bd
00000110: b176 a33d bde0 a2bd 5096 27bd 325d 143c
00000120: e868 0fbd 3f60 8abd 68f9 8d3c fffb 01bd
00000130: 002f 29bd 7532 e23a 6bc2 8d3d 5d39 653b
00000140: 1597 4dbd 35d5 94bc 94ea 8c3d 21db a0bd
00000150: bd02 8dbc 7332 7abd b5bd 073c 5984 103c
00000160: 664d aa3d 0c0e d2bc 483c 8d3d 6881 a9bd
00000170: 07d3 3fbd d7e0 2a3d 45a9 99bd 9c6c 843d
00000180: 1921 6abd cf6f 263b fc61 81bd 6c7c 8e3d
00000190: c599 a73d 7bf0 8abd 9fa5 81bc 407f 91bc
000001a0: 6399 153c 2d33 a43d 7c16 f63c 61e9 823c
000001b0: e173 14bd 59a2 66bd acb1 a93d 603a 833d
000001c0: 7eed 2c3d ed1b 4b3d 978e 503d 418b e0bc
000001d0: 1cc4 96bd 0bbd 753b fd71 813b 8eb6 60bd
000001e0: 91d3 82bd f206 263d 490e 92bd a708 673d
000001f0: cb00 9dbd 4d06 75bd 158f 963d c634 4bbd
00000200: 394c 743d d14c adbc 2061 393d 0d56 9ebd
00000210: ccdf 45bd b857 71bd df8b 2abd 451d 19bd
00000220: 3120 803d 47e3 9b3d f3b9 1cbc deed b4bc
00000230: e0c0 a63d da2a f6bc 646f 44bb ec23 e43c
00000240: d586 223d 76e8 643d 5e8e 97bc fe08 343d
00000250: 6349 e53c 7240 bfbc 3538 10bd 1f97 8ebd
00000260: aa0b 173d c395 56bc d2ce 30bd 05af 33bc
00000270: b830 9dbd f870 4c3d 6a90 86bd 100a 5dbc
00000280: 3d45 f4bc 1923 5fbd 7d49 91bc d226 633d
00000290: 6dfe 9f3d 87be db3c 5351 a23d 6874 883d
000002a0: 604e 05bd 306c 333c 1017 383d eebd 913d
000002b0: a079 823b 185e 7dbc 1f9d 75bd 5300 a3ba
000002c0: 7df9 713d 3092 193d 4bd3 09bd d245 c23b
000002d0: 92b1 08bd 0d39 703d 3a3c 57bd b067 273d
000002e0: b93b 903d 409b d33c 68b3 5fbd 198b 873d
000002f0: 2a9d 87bd b48d cd3b ed97 353b 5035 8f3d
00000300: d467 4fbd df3d 61bd 6e23 173d 7e48 a23b
00000310: 06ae 1a3d 7205 a83d 20fc 9b3d 9945 743d
00000320: 488b 62bd a8d5 0dbc 2b17 443d 5351 8c3d
00000330: 0836 83bd 5ee0 03bd fb39 ec3b c2a1 8b3d
00000340: c0d4 80bb 475e 97bd de7c f1bc ac3a 7fbd
00000350: 5c5d 24bc 1f1d 88bd 27c9 8dbd 1d39 ddbc
00000360: 1914 a33c f824 a6bc 60c6 98bd 90ba 2dbd
00000370: d916 783b a0a3 47bc a1d7 2cbc 0a29 c8bc
00000380: d4bf 393d e313 533d 13c9 76bd a5db 8dbd
00000390: f82c a7bd e6c5 c9bc b891 a9bd 94e8 5b3d
000003a0: 6ccd 6b3d cfd4 1c3d 8556 9ebc d37f 043d
000003b0: 46ff f13c fadf 523d 6d21 7b3d c288 99bd
000003c0: 5f88 a43d 1b6c a63d 35c6 17bd 1d3d 6bbd
000003d0: 21a7 c3bc fb6e 0ebd cf54 883d cc88 8e3d
000003e0: 1b02 b03c 34b6 9b3d 8cec 5bbd 4aad 523d
000003f0: 320a 9abd e04e 33bd 2207 893d 9fda 433d
0.0006275283 0.051030688 0.021670405 -0.03877198 -0.065754615 0.04978501 0.004177278 -0.06530991
-0.044340517 0.06461901 0.030873686 -0.06593129 -0.064205095 -0.047234442 0.0202686 -0.07923596
-0.016680852 -0.07200714 0.024938995 0.062019914 -0.035020437 0.033338685 -0.048295975 0.013292392
0.07150905 -0.0641361 -0.023856305 0.043636102 0.029778792 -0.055002127 -0.015806297 -0.06355363
-0.00372854 0.042866908 -0.0055881627 -0.0728026 0.0701414 -0.009075538 -0.0051424694 -0.059146587
0.07240176 0.04786581 0.019259019 0.06667999 0.08250788 -0.038089782 -0.071918406 0.04490051
0.026946263 -0.06221224 0.060416568 0.05868393 0.0342292 -0.072092645 0.057471927 0.038649034
-0.03416488 -0.045405056 -0.03366674 0.0053962064 -0.058765076 -0.07271945 0.030432409 0.05297201
-0.056480408 -0.0447225 -0.039557423 -0.040421672 0.07981623 -0.07953022 -0.040914834 0.009055423
-0.035012156 -0.06756639 0.01733084 -0.031734463 -0.04130459 0.0017257469 0.06921848 0.0034976818
-0.05019291 -0.018168071 0.0688068 -0.078542955 -0.01721322 -0.06108327 0.008284976 0.008820617
0.08315544 -0.025641464 0.06896263 -0.082766354 -0.04683211 0.04171833 -0.07502989 0.06466028
-0.05716047 0.0025396233 -0.06317517 0.06957325 0.08183626 -0.06784149 -0.015826045 -0.017760873
0.0091308085 0.080175735 0.030040018 0.015980424 -0.036243323 -0.05630717 0.08285841 0.064076185
0.042218678 0.04958718 0.050917234 -0.027410151 -0.07361624 0.0037496712 0.003950356 -0.054861598
-0.06388009 0.040533967 -0.07131631 0.056404736 -0.07666167 -0.059820462 0.073515095 -0.049610876
0.059643004 -0.021154793 0.04525864 -0.07731257 -0.048309132 -0.058921546 -0.041637298 -0.03738143
0.0625614 0.07611709 -0.009565818 -0.02208608 0.08142257 -0.03004973 -0.002997362 0.02784916
0.039679367 0.055885755 -0.018500503 0.043953888 0.027989095 -0.02334616 -0.035209853 -0.06962418
0.036876358 -0.013097229 -0.04316599 -0.010967021 -0.07675308 0.049912423 -0.065705135 -0.013491169
-0.029818172 -0.05447683 -0.017735237 0.055456944 0.078122 0.026824249 0.079256676 0.06662828
-0.032545447 0.010951087 0.04494387 0.07116304 0.003981784 -0.015464328 -0.059964295 -0.001243601
0.05907582 0.03749293 -0.03364877 0.0059287334 -0.03337247 0.058648158 -0.05254767 0.04087037
0.07042641 0.025830865 -0.054614455 0.06618328 -0.066217735 0.006272996 0.0027708963 0.069925904
-0.050636128 -0.054990645 0.036899023 0.0049524894 0.037763618 0.082041636 0.076164484 0.059636686
-0.05530861 -0.008656897 0.047873657 0.06851449 -0.0640679 -0.032196395 0.0072090602 0.06817962
-0.003931612 -0.07391029 -0.029478487 -0.062311813 -0.010032024 -0.066461794 -0.069231324 -0.027004773
0.019907044 -0.0202813 -0.07459712 -0.042414248 0.0037855415 -0.012185007 -0.010549457 -0.024433631
0.045348957 0.051532637 -0.060250353 -0.069266595 -0.08162874 -0.024630498 -0.08279747 0.0536886
0.057568952 0.038288888 -0.019328365 0.032348465 0.02954067 0.051483132 0.061311174 -0.074967876
0.08033823 0.08126088 -0.03705426 -0.05743133 -0.023883404 -0.034773808 0.06656801 0.06959686
0.021485379 0.07603112 -0.053692386 0.051434793 -0.07521476 -0.043776393 0.066908136 0.047815915

conv_block_4.5.bias f4 [16]
00000000: 7bfd 37bd b46a 91bd ebde e43c a648 ba3c
00000010: 5a69 a3bd 3355 7c3d 89a9 fbbc 4c02 a0bd
00000020: 0109 08bc 1be6 c8bc 2cff 2d3d cfc5 5dbd
00000030: cad1 31bd 7718 273c efd7 afbc 8cd0 00bb
-0.044919472 -0.0710043 0.027938327 0.02273972 -0.079790786 0.06160469 -0.03072049 -0.07812938
-0.008302928 -0.024523785 0.04247968 -0.054143723 -0.04341296 0.010198704 -0.02146527 -0.0019655554

conv_block_5.0.weight f4 [16]
00000000: 6d00 803f 7e03 803f e809 803f aee1 7f3f
00000010: 6f0c 803f 88ee 7f3f d508 803f b407 803f
00000020: b600 803f 9305 803f e8fe 7f3f 39e3 7f3f
00000030: 55f3 7f3f fe02 803f 8102 803f cefb 7f3f
1.000013 1.0001066 1.0003023 0.99953735 1.0003794 0.99973345 1.0002695 1.0002351
1.0000217 1.0001701 0.9999833 0.9995609 0.9998067 1.0000913 1.0000764 0.999936

conv_block_5.0.bias f4 [16]
00000000: b57f 2fb9 6259 4bb9 1072 7c39 f4de eab9
00000010: aaef cf39 bf28 28b9 f30f a439 257f d2b9
00000020: a3fe 3bb9 32e7 3fb9 a1bd da39 89cd 5f39
00000030: 56af e9b8 1a2c c8b8 a948 4d39 102d 80b8
-0.00016736875 -0.00019392886 0.00024075084 -0.0004479807 0.0003966068 -0.00016036908 0.000312924 -0.0004014905
-0.0001792857 -0.00018301306 0.00041721485 0.00021343505 -0.00011142965 -9.544958e-05 0.00019577392 -6.111909e-05

conv_block_5.0.running_mean f4 [16]
00000000: 5d6c 073c e799 c83d 19f8 973e 703e 6c3c
00000010: 8ed0 a2bd 48ae 223e 1553 e93d d493 b1bd
00000020: ff3f 0f3e 26d3 a03d 5e72 373e e2b5 55bd
00000030: d52b 86bc a4b9 e13d 1a78 393d 7c72 38bd
0.008265582 0.097949795 0.2968147 0.014419183 -0.07949935 0.15886796 0.113928 -0.08670774
0.13989256 0.07852773 0.17914721 -0.05217541 -0.016378323 0.11021736 0.045280553 -0.045031056

conv_block_5.0.running_var f4 [16]
00000000: b05b 1a3f 0304 223f cd1b 213f a15a 193f
00000010: 3512 1e3f 4fb0 1a3f 9afa 203f 27ed 1a3f
00000020: 1525 1b3f 9c9d 1c3f b396 1a3f da7d 193f
00000030: 0b13 193f 414f 1b3f f01a 1e3f 8d92 193f
0.60296154 0.6328737 0.62933046 0.59903914 0.6174653 0.60425276 0.6288239 0.60518116
0.6060346 0.6117799 0.603862 0.5995766 0.5979468 0.60667807 0.61759853 0.59989244

conv_block_5.2.weight f4 [32, 16, 3, 3]
00000000: 4cd0 183c bb79 9c3d 482c 0ebd 8743 213d
00000010: a967 b1bb 96d1 bf3c f319 9e3d 9ee9 583d
00000020: 4b67 37bc 2d2d 4abd b3e3 8c3c 5bb1 c13c
00000030: 80f2 fc3c d919 093d 63d3 51bc 33c6 7c3d
00000040: d03b 4dbd 6ac8 91bd a6fc 96bd 4826 f5bc
00000050: d500 11bd 8d56 36bd 57cb 983d 1027 84bc
00000060: d139 f43c f0da 673d 8839 623d 3d4f 9d3b
00000070: 657b 1bbd 875e 113d 4e1f 913d d35b 193d
00000080: 0f23 173d 7d40 6e3d e6e2 453d fd9a 493d
00000090: 90c4 a13c ea79 3f3c ce39 5ebd 449a 22bc
000000a0: 3eef 7ebc 1afa fe3c fc98 ee3c 1b8f 563c
000000b0: 0d21 9d3c f2b8 9bbc 79ed 9c3d f605 3e3c
000000c0: e66b 083d 8608 a93d 99fa 2ebd f4ef 22bd
000000d0: bf76 83bd d3f5 80bc e784 1a3d 9d6e cf3c
000000e0: 30f0 973c 5190 483c 580b a9bd 9636 08bd
000000f0: a562 9cbb 7701 4cbd 45f0 a1bb cd6c de3c
00000100: 2693 b33c 78af 85bd e1a3 e33c e666 afbc
00000110: c622 e3bc 38b3 353d 43dc 463d b7f3 45bd
00000120: fe32 5cbd a05e 553d 4445 f9bb a31a 43bc
00000130: ad1c aabc c4ce 93bd d803 b8bc 896e d7bc
00000140: 3909 45bd 3873 9cbc 2817 49bc d538 93bd
00000150: 2c8d 863c 2805 debb 1cbd 1e3d edcd a33d
00000160: e337 97bd 6e86 a9bc 6dd6 97bd 112f 3fbd
00000170: ac75 8bbd 0054 5dbc 9a15 91bb 47c3 b3bc
00000180: 9f0c 6c3d e366 31bd ccce 3dbd 5189 a43d
00000190: 6143 65bd f306 383d 048b 4a3d 7975 fdbc
000001a0: 63a1 3bbd 79d4 3fbc 13c4 9cbd 0914 38bd
000001b0: 70de 80bd 6d45 873d 2170 9ebd e728 78bd
000001c0: 4f97 aa3c 8349 013d 4b47 9dbd 3d2a c0bc
000001d0: 4c50 aabd ba39 aa3d b117 a239 7e96 463d
000001e0: ac67 a1bd ba14 dfbb 313e a23d cfd4 86bd
000001f0: 8f08 0f3d 3d26 6dbc 0803 2c3d 83b3 f43a
00000200: 30df 91bc bb4d 233c 4b46 a63d 19b0 893d
00000210: 9d39 e3bb abaa 7c3b 3177 71bd 540b 85bc
00000220: 1266 323b 43aa bcbc 0a7f 533c da85 693c
00000230: 488b a3bd dda2 853d 2e3b 1fbb 559a 953d
00000240: 9f36 913c 4739 8dbc 47d0 9a3b e998 903c
00000250: 0b81 0dbc de4a 4a3d c99f 74bc bd99 c6bc
00000260: e906 2ebc 590f 8f3d 29e8 c03c bb5c b63b
00000270: f07f 41bd f14c 2ebd 1693 22bd 0a15 5fbc
00000280: 527c cb3c b0d2 753d bbb4 9c3d 1493 0d3d
00000290: 7b62 823d 2696 3abd 8084 8dbd 06b0 323d
000002a0: 9515 b7bc 7523 cfbc 7936 893d 6cd9 a53c
000002b0: 5424 33bc 710f 093d f1e9 843c acdf 92bd
000002c0: 560f 223b bf53 a73d 3070 1f3d cdee a63c
000002d0: 2109 6dbc 39a1 473d bc3e ffb9 9ab6 493d
000002e0: 5f25 473b 08b4 1abd c915 b6bc df68 f4bb
000002f0: a4ab 50bd 84c0 8cbd bc10 98bb 2de7 88bb
00000300: 8120 9f3d 771d 7b3d d271 54bc f146 983c
00000310: 543b 2dbd 54da a3bd 730e 803d f065 83bd
00000320: 999a 913c 6ddc 553d 1363 ef3c 0a81 cb3b
00000330: 217a 65bd bf47 3a3d f3da 92bd 8386 073d
00000340: 534e 053a 5418 4d3d af63 5fbd 5195 673d
00000350: 0a2f 3b3d f944 e5bc 6283 453d f4ff 523d
00000360: 8870 a53d 63be 2c3d d7d2 963d dcb1 d2bc
00000370: c807 e33c 19f4 423d fbc5 933b a328 9ebd
00000380: 23b2 26bd 46b6 e9bb ab3d 0d3d 684b 1f3d
00000390: 89db ec3b 20ae 78bc 83a8 51bc 3786 93bd
000003a0: 4baf 3db9 720c a73d 8a14 13bd d2c0 973c
000003b0: 0df0 443c 0a31 44bd 7f28 92bd 36c2 1bbd
000003c0: e42f 8e3c 00e8 443d 253a 8d3d ff6f 233b
000003d0: bd42 dfb7 7ceb 4abd 2324 2abd 0db4 e5bc
000003e0: 011e 45bd 231f 9d3d 231f 76bc 2f7c 173d
000003f0: 0e04 463d c70c 503d 1de5 8e3d 4570 8c3d
0.009327006 0.07640406 -0.0347102 0.03937104 -0.0054139686 0.023415368 0.07719793 0.05295717
-0.011194061 -0.04935949 0.01719842 0.02364414 0.030877352 0.033471916 -0.012806746 0.061712455
-0.05010587 -0.07118304 -0.073724076 -0.02992548 -0.035401184 -0.044516135 0.07460659 -0.016131908
0.029812725 0.05660528 0.055230647 0.0048007057 -0.037959475 0.03549054 0.07086049 0.037441086
0.03689867 0.05816697 0.04831209 0.049220074 0.019747049 0.011686781 -0.054254346 -0.009924475
-0.0155599695 0.031125117 0.029125683 0.013095642 0.019180799 -0.019009087 0.07662482 0.011598101
0.033306025 0.08253579 -0.042719457 -0.03977962 -0.064191334 -0.015742218 0.0377244 0.0253213
0.018547148 0.012241439 -0.08254117 -0.033255182 -0.0047725015 -0.049806084 -0.0049419724 0.02715149
0.021920752 -0.06527609 0.027788104 -0.02141137 -0.027726542 0.04436037 0.0485499 -0.048328128
-0.053759567 0.052092195 -0.007607134 -0.011908206 -0.020765627 -0.07217172 -0.02246277 -0.026297824
-0.0481045 -0.01909791 -0.012273587 -0.07188574 0.016424738 -0.006775517 0.038754568 0.079982616
-0.073837064 -0.020693984 -0.07413945 -0.046675745 -0.068095535 -0.013508797 -0.004427624 -0.021943701
0.057629224 -0.04331101 -0.046339795 0.080340035 -0.05597246 0.044928502 0.049448982 -0.030939804
-0.045808207 -0.011708372 -0.07654586 -0.044940982 -0.062924266 0.06605039 -0.07736231 -0.060585883
0.020824103 0.031564247 -0.07679614 -0.02345764 -0.08316097 0.08311792 0.000309167 0.048483364
-0.07881102 -0.0068078907 0.07922018 -0.06583559 0.03492027 -0.014474449 0.04199508 0.0018669221
-0.01780662 0.009967263 0.08118876 0.06723041 -0.0069343583 0.0038553874 -0.05895156 -0.016240753
0.0027221483 -0.023030406 0.012908706 0.014253104 -0.0798555 0.06525204 -0.0024296748 0.07304827
0.01772624 -0.017239226 0.0047245356 0.017651038 -0.008636723 0.049387805 -0.014930674 -0.02424323
-0.010621765 0.06985349 0.023548203 0.0055652536 -0.04724115 -0.042553846 -0.039691053 -0.013615856
0.024839554 0.06001538 0.07651659 0.034564093 0.0636644 -0.04555335 -0.06910038 0.0436249
-0.022349158 -0.025285462 0.06699843 0.020245276 -0.010933954 0.03346199 0.016224833 -0.07171568
0.002472838 0.0817027 0.03892535 0.020377541 -0.0144675085 0.04873774 -0.0004868413 0.049246408
0.0030387265 -0.037769347 -0.022227185 -0.0074587907 -0.05094494 -0.06872657 -0.004640667 -0.004177949
0.077698715 0.061307397 -0.01296659 0.018588515 -0.042292908 -0.08000627 0.06252756 -0.064159274
0.017773913 0.052212168 0.029222047 0.006210451 -0.056024674 0.04547858 -0.071706675 0.033087265
0.00050852186 0.05007203 -0.054538425 0.056538884 0.045699157 -0.02798699 0.048221 0.051513627
0.08078104 0.042173754 0.07364433 -0.025719576 0.027713671 0.04759607 0.004509685 -0.077225946
-0.04069723 -0.0071323244 0.03448264 0.038890272 0.007228319 -0.015178233 -0.012796524 -0.07203334
-0.00018089746 0.08156671 -0.03590826 0.018524561 0.012020123 -0.04789833 -0.0713663 -0.03802701
0.01735682 0.048072815 0.06895856 0.002493858 -2.6614749e-05 -0.04954098 -0.04153837 -0.028039956
-0.048124317 0.076719545 -0.015022072 0.036983665 0.04834371 0.050793435 0.06977294 0.06857351

conv_block_5.2.bias f4 [32]
00000000: 22e4 d039 285e 9b3d bf7a 0b3c 1c8a f53c
00000010: 53de 95bd f8a9 27bd 3610 a3bd faf6 8c3d
00000020: e08e 0abd 4db7 0cbb 3217 913d 312b 7f3c
00000030: fdef 62bd ae6a b0ba 3c08 88bd b330 5dba
00000040: 3b49 a2bd a193 893d e95f 69bd 391a 4ebd
00000050: e1fc b6bb ead1 c3ba a901 c9bc 8f99 fa3c
00000060: 22ae 583d 04c9 123d 5a54 3d3d 5349 7fbc
00000070: 4735 f63c 9038 403d 7139 fdbc 98d0 353d
0.00039842824 0.07586318 0.008513152 0.029973082 -0.073177956 -0.04093358 -0.07962076 0.068830445
-0.033827662 -0.002147156 0.07084502 0.0155742625 -0.055404652 -0.0013459527 -0.066421956 -0.00084377377
-0.07924124 0.06717611 -0.056976233 -0.050317977 -0.0055843447 -0.0014939879 -0.024536924 0.0305908
0.05290044 0.035836235 0.046223022 -0.015581447 0.030054701 0.046928942 -0.03091118 0.044388384

conv_block_5.3.weight f4 [32]
00000000: 82ea 7f3f c203 803f 6c03 803f 7afd 7f3f
00000010: 220d 803f 6705 803f f8f8 7f3f 54ff 7f3f
00000020: 87f1 7f3f e7fb 7f3f 080d 803f 4d04 803f
00000030: 55f4 7f3f 6606 803f a20b 803f 04e8 7f3f
00000040: 4909 803f b3e7 7f3f fefe 7f3f b4f4 7f3f
00000050: 8a0d 803f b50a 803f f601 803f b9ff 7f3f
00000060: a5fc 7f3f ec09 803f b2fb 7f3f 06f4 7f3f
00000070: 0efe 7f3f e108 803f 33eb 7f3f 3efa 7f3f
0.99967206 1.0001147 1.0001044 0.9999615 1.0004008 1.0001649 0.9998927 0.99998975
0.99977916 0.9999375 1.0003977 1.0001312 0.99982196 1.0001953 1.000355 0.999634
1.0002834 0.9996292 0.9999846 0.9998276 1.0004132 1.0003268 1.0000598 0.99999577
0.9999488 1.0003028 0.9999343 0.99981725 0.9999703 1.000271 0.9996826 0.99991214

conv_block_5.3.bias f4 [32]
00000000: a92a 92b9 c35d 1839 8396 69b9 e7d3 a739
00000010: c2b7 3538 58f8 d039 0f08 37b9 dde8 8ab9
00000020: d45c deb9 619e 48b9 8b19 e1b8 e3ea 2639
00000030: 5998 3a39 7880 8fb8 8621 c239 3fd0 45b8
00000040: 5842 7639 12ec 3eb9 72af 7c39 863d 1fb9
00000050: 08db f239 7798 c7b9 d941 4539 6be6 c7b9
00000060: c3bd f9b9 b4b2 ceb8 648a 85b9 1732 e2b8
00000070: 1879 e0b8 e548 7b39 089c 86b9 323a 0739
-0.00027879074 0.00014530779 -0.00022276682 0.00032010602 4.33249e-05 0.00039857882 -0.00017455242 -0.00026494908
-0.00042412302 -0.00019132487 -0.00010733594 0.00015918496 0.00017795096 -6.8427005e-05 0.0003702754 -4.7162404e-05
0.00023485103 -0.00018207755 0.00024097951 -0.00015186341 0.00046321028 -0.00038069833 0.00018811914 -0.00038127913
-0.00047634364 -9.8561315e-05 -0.00025470846 -0.0001078585 -0.00010703708 0.0002396438 -0.00025674724 0.00012896283

conv_block_5.3.running_mean f4 [32]
00000000: 92bf 773b 7df9 d13d 0f03 063e ecd5 b93c
00000010: cf6f 07be 8ffc c03d ddb5 ce3d 48b2 c63c
00000020: 43bd 613d 5588 723c cffb e6bb e608 23be
00000030: 72c0 babc ae6b 7d3c 1b41 7e3d 42eb b2bd
00000040: 9592 bdbb 9e99 bbbc 1aef 03bd 6334 2ebd
00000050: 9fc9 9fbd 3275 9e3c 199e 67bc 62b2 1f3d
00000060: 42a1 4d3d 3b61 663d fbb9 42bd ba1d 353c
00000070: acfa d33d 47c0 083b 6624 283e 102e 083d
0.0037803394 0.10252664 0.13087104 0.022685014 -0.13226245 0.09423172 0.100932814 0.024254933
0.055112135 0.014803012 -0.007049061 -0.15921363 -0.022796843 0.015467567 0.06207381 -0.08736278
-0.005785296 -0.022900399 -0.032210447 -0.04253043 -0.07802128 0.019342992 -0.0141368145 0.03898848
0.050202616 0.05624507 -0.047540646 0.011054451 0.10350546 0.002086656 0.16420135 0.033247054
