cloud-detection-code/tests/test_artifacts/test_cross_entropy_loss/model_checkpoint_6.pt (torch, 439769 bytes, 347 tensors)

input_conv_block.0.weight f4 [3]
000000 96 f2 7f 3f d2 05 80 3f 5d f5 7f 3f
       0.9997953 1.0001776 0.9998377

input_conv_block.0.bias f4 [3]
000000 6b 51 e4 b9 fe f6 d1 38 11 25 a6 b9
       -0.0004354821 0.000100119025 -0.00031689604

input_conv_block.0.running_mean f4 [3]
000000 18 94 a8 3e 26 7d 80 3e ef 9b 52 3e
       0.32925487 0.2509548 0.20567296

input_conv_block.0.running_var f4 [3]
000000 72 20 08 3f b5 16 08 3f ac 10 08 3f
       0.5317451 0.5315965 0.5315044

input_conv_block.2.weight f4 [2, 3, 1, 1]
000000 df fd 75 be b2 d6 e4 bc 64 a7 b2 bd 34 c3 3b 3b
       -0.24022625 -0.027934406 -0.087233335 0.0028650286
000010 c5 74 94 3d 4d 55 06 be
       0.072488345 -0.13118477

conv_block_1.0.weight f4 [2]
000000 36 dc 7f 3f e4 11 80 3f
       0.9994539 1.000546

conv_block_1.0.bias f4 [2]
000000 47 24 18 ba ca 9b ff 39
       -0.00058037456 0.00048753462

conv_block_1.0.running_mean f4 [2]
000000 db 73 76 bd 03 2f 23 bc
       -0.060169082 -0.009959939

conv_block_1.0.running_var f4 [2]
000000 0b 4f 0b 3f 17 42 08 3f
       0.54417485 0.53225845

conv_block_1.2.weight f4 [2, 2, 3, 3]
000000 83 fd 26 bd 40 f4 d6 3c 37 44 66 3e 8d 37 4a be
       -0.04076911 0.026239514 0.2248696 -0.19747753
000010 cd 82 0a 3d d6 c1 f4 bd 2f af 1c be bb 2a 04 3e
       0.033816148 -0.11951034 -0.15301202 0.12906925
000020 f5 9d 41 3e 7b 2a 2f be aa 77 39 3e 02 5d 49 3e
       0.18907912 -0.17106049 0.18112054 0.19664386
000030 18 db 21 3e 3a d6 38 bc 7a 99 fc bd 59 f5 24 be
       0.15806234 -0.011281544 -0.12333961 -0.16109218
000040 93 cf 40 be a0 21 33 3e 25 5f dc bd 1a 4d 22 be
       -0.18829183 0.17493296 -0.10760335 -0.15849724
000050 d2 48 40 be 8c fe eb 3d d6 54 b8 bd 6f 32 1a be
       -0.18777779 0.1152316 -0.09000556 -0.15058301
000060 43 af 68 bd cb 2a de 3d c2 69 e2 ba 77 42 6b 3e
       -0.056807768 0.10848006 -0.001727395 0.22974573
000070 5c 13 fe 3d b7 b6 1b be f2 41 3c 3e 0c ca 1c bd
       0.12406036 -0.15206419 0.18384531 -0.038278624
000080 af d5 3f bd dc 2f 29 3e cc ec a6 3d b6 12 2a 3e
       -0.046834644 0.16522163 0.08150634 0.166087

conv_block_1.2.bias f4 [2]
000000 e0 36 0f be 76 ce 57 3c
       -0.13985777 0.013171783

conv_block_1.3.weight f4 [2]
000000 c8 06 80 3f 6f f2 7f 3f
       1.000207 0.999793

conv_block_1.3.bias f4 [2]
000000 9b f4 c5 39 12 7b 05 ba
       0.00037757013 -0.0005091886

conv_block_1.3.running_mean f4 [2]
000000 2e fd 1c bd 29 05 f2 3c
       -0.03832739 0.029543476

conv_block_1.3.running_var f4 [2]
000000 8f 4e 09 3f 95 16 0f 3f
       0.53635496 0.5589383

conv_block_1.5.weight f4 [2, 2, 3, 3]
000000 ca f7 68 3e 75 18 94 bd ac d5 01 3e 08 f1 51 3e
       0.22750774 -0.07231227 0.12679166 0.20502102
000010 65 86 04 3e e8 90 14 be ca 1b b3 bd 22 ef a2 bd
       0.12941892 -0.14508402 -0.08745535 -0.07955767
000020 15 98 49 3c 05 34 55 be 6d 00 ba bd b3 95 a7 bd
       0.012304326 -0.20820625 -0.090821125 -0.0818285
000030 f7 12 6b bd 87 1e 6c be 4c 12 1e 3e 3c 60 0a 3e
       -0.057391133 -0.2305852 0.15436667 0.13513273
000040 5d 04 62 be b4 3e 1a bd 20 89 15 3e 07 e8 ad 3d
       -0.22071977 -0.037657455 0.1460309 0.08491521
000050 f7 da 63 3e 44 72 e6 3d 2d e4 14 bc 05 78 37 3e
       0.22251497 0.11252263 -0.0090876045 0.17916878
000060 8b b6 5d 3e e9 c8 d0 bc 3a fa e0 bb c1 0f 43 bd
       0.21651666 -0.025486426 -0.006865767 -0.047622446
000070 eb 51 36 bd 00 3f eb 3b 5f ee fa bd 68 52 5a 3e
       -0.044511717 0.007179141 -0.12252497 0.21320498
000080 91 00 3b 3e e9 3d 33 be a5 17 27 3e 7d 3e 39 be
       0.18261935 -0.17504086 0.16317613 -0.18090244

conv_block_1.5.bias f4 [2]
000000 73 c4 0f bd 8d 15 24 3e
       -0.035099458 0.16023846

conv_block_2.0.weight f4 [2]
000000 2d 06 80 3f a8 f3 7f 3f
       1.0001885 0.99981165

conv_block_2.0.bias f4 [2]
000000 13 e6 fa b9 5b 82 88 b9
       -0.00047855134 -0.00026037064

conv_block_2.0.running_mean f4 [2]
000000 8f f8 c2 3c b2 e4 9f 3e
       0.023800163 0.31229168

conv_block_2.0.running_var f4 [2]
000000 fc b0 1b 3f cc 3c 18 3f
       0.6081693 0.5946777

conv_block_2.2.weight f4 [4, 2, 3, 3]
000000 1b 1e fa 3d 0d f6 29 be 10 78 5f 3e 1f 7e 69 be
       0.122127734 -0.16597767 0.21823144 -0.22802018
000010 58 ae 18 be 08 7b 58 be 54 b9 31 3e f1 e7 cf bd
       -0.14910257 -0.21140683 0.17355853 -0.10151661
000020 cf b9 36 be 71 dd ed 3d ff a8 1d be b8 e3 f0 bc
       -0.17844318 0.11614502 -0.15396498 -0.02940546
000030 40 0d 74 bc 6e 19 95 3d 4d c0 d8 3b c2 4d a6 bd
       -0.014895737 0.07280241 0.006614721 -0.081203
000040 60 3e 2e 3d 46 b7 bd 3d e5 17 b6 3d ea 4e 4a bc
       0.042539954 0.09263472 0.08891276 -0.012347916
000050 d2 0a 17 3e e0 ce 9e bc bf ba 55 be 62 72 c4 3d
       0.14750221 -0.019385755 -0.20872019 0.09592129
000060 d5 4b 3b 3e 8c e4 ac 3d cb 48 f5 bc fb 18 9d bd
       0.18290646 0.08442029 -0.029941937 -0.0767078
000070 d8 2f 8c 3c 81 f1 51 3e a4 f1 53 be 76 c2 48 3e
       0.017112657 0.20502283 -0.20697647 0.19605431
000080 e2 35 59 be f3 a9 62 be 72 c2 4c 3e 18 5c 5d 3e
       -0.21211961 -0.22135143 0.1999605 0.21617162
000090 ee 6e 52 be 9a b1 25 3d a2 3a 94 bd 0a 4d 5b b9
       -0.20550129 0.040452577 -0.07237746 -0.00020914167
0000a0 95 a1 07 3d d0 b9 61 3d 7f 9d e9 3d 98 38 82 bd
       0.03311308 0.055108845 0.11406993 -0.06358451
0000b0 79 5f 33 be 29 d3 d0 3d f3 ef 0f 3e 45 ca 34 3e
       -0.17516889 0.101965256 0.14056377 0.17655285
0000c0 7b fe 4f 3d ff 2e 2c 3e 54 10 dd 3d 20 3e 38 be
       0.0507798 0.16814803 0.1079413 -0.17992449
0000d0 4b 0b e6 3d 13 dc e3 bd 30 50 fd bd b9 89 4e be
       0.11232623 -0.1112596 -0.1236881 -0.20169725
0000e0 54 2a 2c 3e 93 f6 5e bc 7f b4 cc 3d 5e f6 41 be
       0.16813022 -0.013608593 0.099953644 -0.18941638
0000f0 de 51 36 be 0c 8b b8 bc 27 12 bf 3d 48 8c 24 3e
       -0.17804667 -0.02252724 0.09329634 0.16069138
000100 e4 38 42 3e 81 7a c2 bd 2c aa 10 3e 1c 3f 8c 3d
       0.18967015 -0.09496022 0.14127415 0.06847975
000110 5f bc 3e 3d 77 44 26 be d3 65 8f 3d 04 ba 95 bd
       0.046566363 -0.16237055 0.07001843 -0.0731087

conv_block_2.2.bias f4 [4]
000000 6d 70 56 3e 79 a1 4d be dd 06 3f 3b ed dc 27 be
       0.20941325 -0.20081128 0.0029148378 -0.1639287

conv_block_2.3.weight f4 [4]
000000 42 03 80 3f 92 04 80 3f 1e e8 7f 3f 2b 0d 80 3f
       1.0000994 1.0001395 0.9996356 1.0004019

conv_block_2.3.bias f4 [4]
000000 f6 78 ca b8 3d 4c b5 b9 fa 96 a8 b9 f1 ed 8f b7
       -9.654641e-05 -0.00034579812 -0.00032155943 -1.7157729e-05

conv_block_2.3.running_mean f4 [4]
000000 4e 16 02 3d 81 08 ef bc 5c b8 7b 3d 01 c2 88 bd
       0.031759553 -0.02917886 0.061455116 -0.06677628

conv_block_2.3.running_var f4 [4]
000000 2d 12 0e 3f 09 ed 12 3f 62 ff 15 3f 9a 37 0f 3f
       0.55496484 0.57392937 0.5859281 0.55944216

conv_block_2.5.weight f4 [4, 4, 3, 3]
000000 9c a3 21 3e 32 46 8f bd 09 17 26 3e f2 b3 44 bd
       0.15785068 -0.069958106 0.16219725 -0.04802317
000010 94 be 18 be 90 76 a4 bd 44 61 f6 bc ea 0d e4 bd
       -0.1491645 -0.080304265 -0.030075677 -0.111354664
000020 25 3f f6 3d eb 4b ad 3d ac 76 0c be 37 0b 04 bc
       0.120237626 0.08461746 -0.13717145 -0.008059314
000030 9b 17 15 3e e7 a0 89 bd 96 b1 98 bd 85 a9 00 3e
       0.14559786 -0.06720143 -0.07455747 0.12564667
000040 ba db ed 3c 81 6a b7 bd 55 6f a7 bd 26 f1 1c be
       0.029035438 -0.08955861 -0.08175532 -0.15326366
000050 cf 60 bb bd 17 9e 91 3d f2 df 00 be ff 93 f3 bc
       -0.09149324 0.07110231 -0.12585428 -0.029733656
000060 d0 f2 c2 b9 68 08 9a 3d 0c af 0b be 39 dc e7 bc
       -0.00037183473 0.075211346 -0.13640994 -0.028303253
000070 c7 2a e8 bd 55 db 7e bc 68 cd 1a 3e b9 87 0c bd
       -0.11336284 -0.0155552225 0.15117419 -0.034309123
000080 d1 28 4c 3d f0 a0 be bd 36 4e 0a be 8a 11 40 b9
       0.049843613 -0.0930804 -0.13506398 -0.0001831708
000090 d3 0a 1f 3b 49 66 68 3d 4e aa 17 3d 68 5d 14 3b
       0.0024267926 0.05673817 0.03702765 0.0022638682
0000a0 fa c3 64 bd 7f f1 52 bd 97 fd db 3d f4 4f 0f be
       -0.05585096 -0.05149984 0.10741728 -0.13995343
0000b0 69 27 21 3d ff 80 b4 3c c9 95 b1 3d 37 04 fc bd
       0.039344225 0.022034166 0.086711474 -0.123054914
0000c0 e2 2b c5 3d 2a 3f 11 be 5d d1 e3 3d 43 0b 29 bd
       0.096275106 -0.14184251 0.11123917 -0.041270506
0000d0 a1 47 28 3e 9a ce ff bd dc a0 f7 bd 4e 3e 09 3e
       0.16433574 -0.12490578 -0.12091228 0.13402674
0000e0 ce 77 87 bd 31 69 07 3e 23 ee ac 3d ec 93 7a 3d
       -0.06614648 0.13223721 0.084438585 0.061176226
0000f0 08 a1 18 3e fe 43 07 3e 37 a7 09 be 57 20 20 3e
       0.14905179 0.1320953 -0.13442694 0.15637337
000100 61 1a 38 3d 3b 52 96 3c c7 7c 8c 3d fd 0b 1b be
       0.044947032 0.018349757 0.06859737 -0.15141292
000110 e3 05 c0 bc 88 7d cf bd ad e4 c5 3d 90 8d 92 bd
       -0.023440307 -0.10131365 0.09662757 -0.07155907
000120 dc 06 59 bd b4 20 33 bd 8c 91 f6 bc bd 91 10 3d
       -0.052985057 -0.04373236 -0.030098699 0.035295237
000130 2c 57 bb bc 64 a3 36 3d 59 ee 4b bd f7 f1 0c be
       -0.022868715 0.044589415 -0.049787853 -0.13764177
000140 29 db 04 3e 86 ec 68 3d bf 40 bd 3d e5 bb 28 3d
       0.12974228 0.05686619 0.09240865 0.041194815
000150 d9 f7 b7 bc f4 f5 27 be e9 9e 11 3e 1e 94 e8 3d
       -0.02245705 -0.16402417 0.14220776 0.11356376
000160 ae 35 40 bd 7e 9e df bd 81 e2 4f 3d 9f 95 21 3e
       -0.046926193 -0.10918902 0.05075312 0.15779732
000170 a6 f3 ec bc 1d e5 29 3e 0e 1c f8 bb 43 38 5d 3c
       -0.028924774 0.16591306 -0.0075717038 0.013502183
000180 bb 0b 60 3d 38 58 04 be e5 2e c3 3d f9 04 3e 3c
       0.054698687 -0.12924278 0.09530429 0.011597865
000190 62 23 29 3e 3f 30 70 bd 94 3a 4d 3c b7 f7 c8 bd
       0.16517404 -0.05863976 0.012526173 -0.09812873
0001a0 11 ba 11 3e 57 d1 ca bd b3 4e 5b bd b8 96 42 3d
       0.14231135 -0.0990321 -0.05354185 0.047507018
0001b0 4b f1 7d bd 77 65 b9 bd ff dc 5b bc d1 8c c8 3c
       -0.061997693 -0.09052556 -0.013419389 0.024481209
0001c0 49 9b eb 3c 99 ed 68 3b 9e 15 0c be 66 9c e6 bd
       0.02876057 0.003554201 -0.13680121 -0.112602994
0001d0 48 64 0b 3e 3e 2e 27 3e d3 07 df 3d fe 2b e1 bd
       0.13612473 0.16326234 0.10890164 -0.10994719
0001e0 b2 76 e3 bc 9d 5f 13 be 9f 8e 00 be 83 8b 0f 3e
       -0.02776656 -0.14391942 -0.12554406 0.14018063
0001f0 99 e0 6f bd 26 cb ae 3d 0f a4 82 bd 57 8a 7e 3d
       -0.058563802 0.08534841 -0.06378948 0.06214365
000200 4d ae 14 bd bc ce 73 bd 8a 4c 14 be b6 7d 14 be
       -0.03629904 -0.05952333 -0.14482322 -0.1450108
000210 75 85 8e bd 9f 6b c3 3d 55 4b 13 bd 71 4f 53 bd
       -0.06959049 0.095420115 -0.035960514 -0.051589433
000220 ca da bb 3d 66 e9 9e 3b 2b 64 5c 3d b2 17 19 3e
       0.0917259 0.0048496006 0.053806465 0.14950445
000230 82 2e a5 3d 9f a7 da bd 1d 29 1f 3d 2d ad 25 38
       0.08065511 -0.106765024 0.038857568 3.9500348e-05

conv_block_2.5.bias f4 [4]
000000 9e 01 fe 3c 57 ac 95 bc 48 4a 04 bd 7a 34 8e bd
       0.03100663 -0.018270655 -0.032297403 -0.06943603

conv_block_3.0.weight f4 [4]
000000 00 fc 7f 3f ed e0 7f 3f 99 10 80 3f bd 0b 80 3f
       0.99993896 0.99952585 1.0005065 1.0003582

conv_block_3.0.bias f4 [4]
000000 1c a0 ba b9 7c 44 dd b9 bd 5f a8 39 b8 2b a0 39
       -0.00035595975 -0.0004220343 0.00032114788 0.0003055015

conv_block_3.0.running_mean f4 [4]
000000 2f eb d7 3a e0 03 10 3e ce 48 01 3e 4c 7f 2b bc
       0.0016473288 0.14063978 0.12625429 -0.010467362

conv_block_3.0.running_var f4 [4]
000000 e3 76 10 3f 7b ac 1c 3f 69 36 1f 3f 5c f5 0b 3f
       0.56431407 0.61200684 0.621924 0.54671264

conv_block_3.2.weight f4 [8, 4, 3, 3]
000000 41 2d 1b 3e 02 d1 ff bc 99 f7 6b 3d 98 80 10 be
       0.15153982 -0.031227592 0.057609174 -0.14111555
000010 30 d3 fb bd ed 2e f7 bc 95 89 ee 3d fa 74 10 be
       -0.1229614 -0.030173743 0.116473354 -0.14107123
000020 90 e4 13 be 6e 7a 86 3d 00 2c 1e 3e fd de 0f 3e
       -0.14442658 0.0656632 0.15446472 0.14049907
000030 7f 84 29 be 68 4e fe bc b2 47 85 bd 65 c5 08 3e
       -0.1655445 -0.031043246 -0.065078154 0.1335655
000040 10 97 bf bc e8 a9 92 bd 2e 6d 81 3d 01 33 8d bc
       -0.023387462 -0.07161313 0.063196525 -0.017236235
000050 a3 cc 0e 3e d9 da 87 bd 4f 33 22 3d 6b ff d0 bc
       0.1394525 -0.06633539 0.039599713 -0.025512418
000060 23 b7 2b bd ae 53 9a 3c d4 a3 e7 bd 65 2b 7d 3c
       -0.0419227 0.01883873 -0.113105446 0.015452241
000070 ee f6 0b 3e 99 c0 ac 3c aa ff 97 bc 91 35 1c be
       0.13668415 0.021087931 -0.018554527 -0.15254809
000080 72 bd 2a be 1b b2 14 bd d0 8d c6 bd 5b ae e4 3d
       -0.1667383 -0.036302667 -0.09695017 0.11166068
000090 a7 cc 5f 3c 48 6a 81 bd 2b ec 83 3d c6 5f 70 3c
       0.013659633 -0.063191 0.0644153 0.014671272
0000a0 dd 9a 7a bc 86 c8 86 bd 0b 61 61 3d b0 f5 1f 3d
       -0.015295711 -0.065812156 0.055024188 0.039052665
0000b0 d5 bd 08 3e 7f 5b 17 3d b5 15 18 3e 10 02 bd bd
       0.13353665 0.03695249 0.1485203 -0.09228909
0000c0 63 a5 99 bd d0 06 fd 3d 2a c3 0c 3e 0b ad 2a 3e
       -0.07502248 0.12354815 0.13746324 0.16667573
0000d0 76 88 b9 bc 24 0f 42 3c 2d 64 89 3d be 62 d6 bc
       -0.022648077 0.01184443 0.0670856 -0.02617013
0000e0 b3 3a 0d be de 10 e1 3d d6 4c 0d be 74 d7 22 be
       -0.13791923 0.10989545 -0.13798842 -0.15902501
0000f0 46 15 5d bd fd 42 fc 3d 57 07 d9 bd 7a 64 33 3d
       -0.053975366 0.123174645 -0.10597103 0.043796994
000100 ba 1b 08 3e 9e d0 12 3d f7 09 8e bd d1 74 23 bd
       0.13291827 0.035843484 -0.069354944 -0.039906327
000110 69 32 7b bc a8 e1 1d 3d ac b1 a2 3c 8f ab 76 bd
       -0.015331843 0.03854528 0.019860111 -0.060222205
000120 06 af 27 bc 17 d0 4a bd 49 f0 d5 3c 76 d9 0f bd
       -0.0102346 -0.049514856 0.026115553 -0.035119496
000130 63 6b 56 bd 6c 7a 99 3d eb d6 3f bd 02 79 9a 3c
       -0.052348506 0.07494053 -0.04683582 0.01885653
000140 25 06 fa bd aa f8 24 3e 20 cb 0e 3e f5 d4 25 3e
       -0.12208203 0.16110483 0.13944674 0.16194518
000150 24 f0 90 3d 3f fd 90 3b d0 53 2f bd bf 07 a1 3c
       0.07077053 0.0044247205 -0.04280454 0.019657014
000160 75 79 34 3c d3 bb 48 bd 96 8a b6 bc 73 bc 85 3d
       0.011015286 -0.049007248 -0.02228288 0.065300845
000170 62 cf 09 bd 37 02 1f be 06 58 d7 3d 90 da 6d 3c
       -0.03364504 -0.15528189 0.10514836 0.014517441
000180 17 24 71 bd 00 2d df bd be 9c 31 bd 68 e6 e7 bd
       -0.05887231 -0.10897255 -0.04336237 -0.113232434
000190 92 84 31 3d e9 36 81 bd b6 9f 6b ba 94 d3 7f 3d
       0.04333932 -0.063093014 -0.00089883374 0.062457636
0001a0 ff 40 d5 3d 24 de a9 bd bf c6 81 bb 67 b0 9d bd
       0.10412788 -0.08294323 -0.00396046 -0.07699662
0001b0 86 8c de bd 23 fb 8a 3d e1 15 83 3d 9d b6 04 be
       -0.108666465 0.06786182 0.064006574 -0.12960286
0001c0 fd e3 93 3d 60 d0 b1 bd 3c 6a 1e be 58 fd c4 bd
       0.0722122 -0.086823225 -0.15470213 -0.09618634
0001d0 e1 2c 85 bd 46 36 27 be 42 c1 03 3e 80 b7 05 be
       -0.065027006 -0.16329297 0.12866691 -0.13058281
0001e0 09 66 7e 3d 1d f1 b0 bd e4 65 e9 bd 1a 7d 7b bd
       0.062109027 -0.08639739 -0.11396387 -0.061398603
0001f0 cd 0f 50 3d fe 18 a8 3d 84 56 1a be 8c 8d 6a 3c
       0.05079632 0.08207892 -0.15072066 0.014315974
000200 aa 31 15 3e af 87 a0 3d 89 82 01 bd 44 8e 04 bd
       0.14569727 0.078383796 -0.03161863 -0.032362238
000210 8e da 1d 3e cb 86 0e 3e b4 9b dc 3b 2e a9 5a 3c
       0.15415403 0.13918607 0.0067324284 0.013346
000220 d2 13 f9 bd 91 2b 05 3e aa c4 83 3d b4 0f 5b 3d
       -0.121619835 0.130049 0.06433995 0.053481773
000230 eb eb 3e 3d 2c 52 15 3e ed d7 05 be 99 52 e0 bd
       0.046611708 0.14582127 -0.1307065 -0.10953254
000240 cf a2 6b 3d 06 2d 21 3e 07 1a 08 3d d8 ae f8 bc
       0.057528313 0.15739831 0.033227947 -0.03035681
000250 48 07 9d bd 9b a4 70 3d 39 88 22 3d ef fc 83 3b
       -0.076674044 0.05875073 0.039680693 0.004027955
000260 63 c5 1e be 0e 94 18 3e d4 a9 26 3e 0f 03 6e 3d
       -0.15504985 0.14900228 0.16275722 0.058108386
000270 d1 e1 46 3d f6 a6 b6 3c d5 f5 66 ba fc c0 0e 3e
       0.0485552 0.02229641 -0.00088104355 0.13940805
000280 f2 2e e0 3c cd 23 42 bd 73 0f 20 bd 8a 2a 86 3d
       0.027366135 -0.047397424 -0.039077234 0.065510824
000290 c5 d2 98 bd e8 e9 12 be 6b 77 7a bc 8b f3 15 3d
       -0.07462076 -0.1434704 -0.0152872605 0.036609214
0002a0 a3 f0 4b bd a7 4f d1 3d a2 b9 06 3e 50 e6 c0 bd
       -0.049790036 0.102202706 0.13156751 -0.094189286
0002b0 20 e1 81 bd f7 21 f3 3d 2a 7d 28 3e 77 99 20 be
       -0.06341767 0.11871713 0.16453996 -0.15683542
0002c0 bd 5e 1f bd d8 8d 07 be 18 1a 65 3d 16 0a 09 be
       -0.03890871 -0.13237703 0.055933088 -0.13382754
0002d0 5b 1a 37 3d 05 bb 1a be fb ec ec 3d 67 c0 33 3d
       0.04470287 -0.15110405 0.11568638 0.04388466
0002e0 50 73 77 bd e2 2d 12 be 3f 42 4f 3d 31 a8 79 bc
       -0.060412705 -0.14275315 0.050600287 -0.015237854
0002f0 16 6c eb bd d1 35 30 bd 3b 99 fe 3d af 87 32 3d
       -0.11495225 -0.043020073 0.1243157 0.04358643
000300 5a 29 e8 3b 36 97 66 bb fb e8 ea 3c 07 82 dd bd
       0.0070850076 -0.0035185344 0.028675547 -0.108158164
000310 c8 1c 66 bd 3e 1f d7 3d c5 88 49 bd 3e a6 c0 bd
       -0.05617979 0.10504006 -0.0492027 -0.09406708
000320 06 72 d6 3d 0f 0f 13 be b2 ec 07 be 47 e3 07 3e
       0.10470967 -0.14361213 -0.13273886 0.13270293
000330 c4 b1 a0 3d d3 8c 41 3d 92 6a 0f 3e dc 60 ce bc
       0.07846406 0.04725344 0.14005497 -0.02519267
000340 6b 04 dc bd 40 c5 07 be 01 7d 1b 3c cd 32 4e 3d
       -0.1074303 -0.13258839 0.0094902525 0.050341416
000350 d2 a1 33 bd df 82 fe 3d 19 58 88 3c 59 f2 eb 3c
       -0.043855496 0.124273054 0.01664357 0.028802084
000360 86 a9 27 3e 9c 55 fc 3d 4b e3 18 be 81 af ca 3c
       0.16373262 0.12321016 -0.14930455 0.02474189
000370 12 fd bc bd 9f 14 d2 3d b8 c1 d9 bd ca 35 f8 3d
       -0.09227957 0.102578394 -0.10632652 0.121196344
000380 8a e3 d7 3d bd 88 f7 bc a5 03 96 3d 2a 95 8f 3d
       0.105414465 -0.03021657 0.07324914 0.07010873
000390 ca e3 6a bd ea 25 b0 3d 73 08 b0 bd 0a 77 b8 bd
       -0.057346143 0.086009815 -0.085953616 -0.0900708
0003a0 47 75 26 3e b9 54 10 be b5 47 fe 3d 43 34 3e 3b
       0.16255675 -0.14094819 0.12416021 0.002902285
0003b0 fd 0c 18 be 0a 25 a0 3c 02 56 67 bc e6 37 77 3c
       -0.14848705 0.019548912 -0.014119627 0.015089011
0003c0 01 58 fb bd e5 0c 31 3d ed 06 4b bd e8 05 2d bd
       -0.12272645 0.043225188 -0.04956715 -0.04224196
0003d0 df e4 0c 3d 02 c7 0a 3d d5 f9 00 3e 50 4e d2 bd
       0.034397956 0.033881195 0.12595303 -0.10268843
0003e0 9a ab 99 3c d8 37 6c bd e0 d0 24 be 17 78 f2 bb
       0.018758584 -0.057670444 -0.16095304 -0.0073995697
0003f0 79 75 6e bd 78 23 ed bd 1c b5 02 bd 5b d9 42 3d
       -0.0582175 -0.11579031 -0.031911 0.047570568

conv_block_3.2.bias f4 [8]
000000 fa a3 07 be 22 17 08 be d6 23 ff bd 80 bc 1e 3e
       -0.13246146 -0.13290074 -0.12458007 0.15501595
000010 b3 0e ef bd d9 a1 91 3d 8f 18 ec 3d 61 26 a7 bd
       -0.116727255 0.07110948 0.11528122 -0.08161617

conv_block_3.3.weight f4 [8]
000000 cd 08 80 3f 11 f0 7f 3f 20 ff 7f 3f 55 f3 7f 3f
       1.0002686 0.9997569 0.99998665 0.9998067
000010 c2 de 7f 3f 1c 0d 80 3f a4 00 80 3f 09 08 80 3f
       0.99949276 1.0004001 1.0000196 1.0002452

conv_block_3.3.bias f4 [8]
000000 2d 9e 83 b9 61 97 9e 38 b4 01 13 3a 06 48 36 b9
       -0.00025104117 7.5622236e-05 0.0005607859 -0.00017383703
000010 a4 33 d6 b9 fa 54 89 38 24 b9 d3 b8 e5 3b ac b7
       -0.00040855736 6.548497e-05 -0.00010095749 -2.0531888e-05

conv_block_3.3.running_mean f4 [8]
000000 c3 ce e4 bd 2d a3 2f ba 68 3d 83 bd 30 1a 3e 3d
       -0.11172249 -0.00067000353 -0.06408197 0.046411693
000010 92 e2 11 3c 5f b8 46 3c 08 34 41 3d 38 fb b4 3d
       0.008904116 0.012128918 0.04716876 0.08836979

conv_block_3.3.running_var f4 [8]
000000 8e 93 16 3f 62 20 15 3f 90 45 13 3f c9 f4 10 3f
       0.588189 0.5825254 0.5752802 0.5662351
000010 79 3f 13 3f c3 9d 12 3f c2 bc 0d 3f 8e 59 21 3f
       0.57518727 0.57271975 0.55366147 0.63027275

conv_block_3.5.weight f4 [8, 8, 3, 3]
000000 11 80 a2 bd ea cd 7a b9 34 cb 92 3d 1e 75 89 bd
       -0.07934583 -0.00023918567 0.07167664 -0.067117915
000010 2e 87 37 bd d6 a9 d3 3d 29 7e ae bd 5b 9c a6 3d
       -0.04480665 0.10335128 -0.08520157 0.08135291
000020 0e 39 c6 bd 96 81 2b bd 35 0d a3 3c 7d f0 6f bc
       -0.09678851 -0.04187163 0.019903759 -0.014644739
000030 b7 74 91 bd da 88 d0 3c 76 55 b4 3d 9c 06 3b 3d
       -0.0710234 0.02545588 0.08805363 0.0456606
000040 52 6a c2 bd 05 a8 88 bd e5 78 d9 3d bb 0f ef bd
       -0.09492935 -0.06672672 0.10618762 -0.11672922
000050 95 48 85 3c 0b 2c c6 bc cb 5f 9b bd 98 86 d7 bd
       0.016269961 -0.024190923 -0.075866304 -0.105237186
000060 85 f2 93 bb 2b 01 23 3d f0 72 ef bc 39 62 ed bc
       -0.0045149946 0.039796036 -0.029229611 -0.0289775
000070 6f 5c 92 3b 38 0b cc 3d 07 7f 77 bd d7 01 8d bd
       0.0044665853 0.09963077 -0.060423877 -0.068851165
000080 24 94 58 bc a2 3a de bc 25 2e b4 3a 0d f4 a3 3d
       -0.013218913 -0.027127568 0.0013746662 0.08005533
000090 e4 21 2b 3d f1 45 c5 bd 83 f4 ab bd 59 95 f4 bc
       0.041780367 -0.09632481 -0.08396246 -0.02985637
0000a0 ce 48 b5 3d cf bc ae bd 9d c7 84 3d 16 0b 03 bd
       0.08851777 -0.08532106 0.06483386 -0.031992994
0000b0 0a 84 a2 bd d1 7c f3 bc 9d a0 57 3d d7 d8 81 3d
       -0.07935341 -0.029722603 0.052643407 0.06340187
0000c0 f1 75 e7 3d af 11 85 bc 79 c4 d7 bb 84 5b 8d 3d
       0.113017924 -0.016243784 -0.0065847007 0.06902221
0000d0 de 42 b0 bd af fd 3f bc ec a9 63 3d 3f 95 08 3d
       -0.08606504 -0.011718198 0.055581972 0.033345457
0000e0 1c f6 ca 3c b7 d4 83 3d bb cd 4c bd 8a f9 ad bd
       0.024775557 0.064370565 -0.050000887 -0.084948614
0000f0 67 3e 27 bd 9a 40 e4 bd a1 da b3 3d 54 87 8e bd
       -0.040830996 -0.11145134 0.087819345 -0.069594055
000100 5e 36 af bb c6 30 8d bd ab 80 a4 3d 02 1c d4 bd
       -0.0053470572 -0.068940684 0.08032354 -0.103569046
000110 4b d2 b8 3d 40 0a e3 bd 8e 78 ef 3c d2 34 ec 3d
       0.09024485 -0.110859394 0.02923229 0.11533512
000120 55 cf a1 3d a2 9b 8a bc 37 5b 34 3d f9 b5 d8 3c
       0.079008736 -0.016919915 0.0440323 0.026453959
000130 d9 94 25 bc f5 6d ce 3c fd 71 82 3d 83 8e d3 3b
       -0.010106289 0.025198916 0.06369398 0.0064561977
000140 9c 88 99 bc aa ea 56 bd 58 9c 8b 3d a9 22 1b bd
       -0.018741898 -0.052469887 0.068169296 -0.03787485
000150 0a 38 9c 3d 5e 61 e3 bc 9c 13 aa bd e1 03 d3 3d
       0.07627876 -0.02775639 -0.083045214 0.10303474
000160 37 74 7f 3d 1d fb 5e bd 32 be 9e 3d f5 fe 8c bd
       0.06236669 -0.0544387 0.077511206 -0.06884567
000170 9c de cb 3d c5 e9 f6 bc db 10 c5 bb 78 f0 25 3d
       0.09954569 -0.030140767 -0.006013972 0.040512532
000180 30 df 85 bd d3 8b 19 3d 62 b4 11 3a 8b f1 a4 bd
       -0.0653671 0.037486862 0.000555819 -0.08053883
000190 00 52 b0 3d 5c 41 8b bd 88 4b a9 bc c6 e1 98 3c
       0.0860939 -0.06799576 -0.020665899 0.018662345
0001a0 c8 bc 5a 3c 56 4a 93 3d 9a 5b 86 bd f2 f4 b9 3c
       0.013350673 0.07191913 -0.0656044 0.022699807
0001b0 54 6b d6 bd db c8 bc bd 64 59 b2 3c b7 50 d3 bd
       -0.1046969 -0.09217998 0.02177114 -0.103181295
0001c0 3c df 46 3d fb 99 81 bd 15 9a e6 3c d8 00 c0 bc
       0.048552737 -0.063281976 0.028149644 -0.023437902
0001d0 72 bc ad 3d b9 19 54 3d 18 9b 06 bc 03 96 84 3d
       0.08483209 0.051782344 -0.008215688 0.06473925
0001e0 d9 98 8d bc 02 d6 26 bd 3f f9 e8 3d d5 6b a9 bd
       -0.017284798 -0.040731438 0.11375665 -0.082725205
0001f0 cd 60 da 3d 85 04 15 3c aa a5 25 bb a2 0a dc bd
       0.106629945 0.009095316 -0.0025275745 -0.107442155
000200 4c eb d9 bd b6 1b dc 3d e2 83 d6 3d 2a ae 82 bb
       -0.106405824 0.10747473 0.104743734 -0.003988047
000210 3e 1c 34 3d 0b 1d c6 3d 74 ea 39 3d cc 14 8a bd
       0.043972246 0.09673508 0.045389608 -0.06742248
000220 e7 42 93 3c a5 4b 12 bd ce dc e1 3d 7d 1a 51 3d
       0.017976237 -0.03571667 0.11028443 0.05105065
000230 df 7d d1 3c 7a dc 89 3d 1c 19 a4 bd 99 d2 55 3c
       0.025572715 0.06731506 -0.08012602 0.013050699
000240 40 c0 a4 bd 21 ab eb 3d 66 27 44 3c b5 93 10 bd
       -0.08044481 0.115072496 0.011972284 -0.035297114
000250 5b 2c 1d 3d 77 8c 85 bb 0e b1 da bd 8f 9b 1d 3c
       0.03837238 -0.0040755826 -0.10678302 0.009619608
000260 b8 a8 87 bd b2 2d b0 bd 57 79 e8 3d 10 6f 60 3b
       -0.066239774 -0.08602466 0.11351269 0.0034245886
000270 5b b0 d3 bc e1 55 d2 bd 2f 9a 40 3d 3b bd 08 3c
       -0.025840929 -0.10270286 0.04702204 0.008345897
000280 35 1e 91 3d be 57 3f 3d 64 74 eb bd d6 8e 8c bc
       0.0708584 0.046714537 -0.11496809 -0.017157953
000290 70 b8 41 bc 72 36 4e bd a6 1a eb bc 69 a8 82 3d
       -0.0118237585 -0.05034489 -0.02869923 0.06379778
0002a0 36 c1 c6 bd da e2 df bd c4 40 bf 3d 4a 4d 7d 3d
       -0.09704821 -0.109319404 0.09338525 0.061841287
0002b0 3d c0 d8 bc 5b 14 d4 3d c1 c3 8d 3c b3 b3 44 3d
       -0.026458854 0.10355445 0.017305257 0.048022937
0002c0 49 bf 99 bd 8c a6 a0 bc 71 1e 38 bd c1 34 9f 3d
       -0.07507188 -0.019610666 -0.044950906 0.07773734
0002d0 39 9f 71 3c a5 4e e1 3d 56 51 ee 3d f4 6c b9 3c
       0.014747434 0.110013284 0.11636607 0.02263496
0002e0 7f b2 56 3d 18 57 8f bd 2a 05 46 bd 6f 2f b6 bd
       0.05241632 -0.06999034 -0.04834477 -0.08895766
0002f0 3c 87 73 3d 80 dd fd 3c fe e6 71 3d 89 de b4 bc
       0.05945514 0.030989408 0.059058182 -0.02207877
000300 b7 e0 fb bc 0a b3 a1 3d fb a2 9e 3d 3c 25 3d 3d
       -0.0307468 0.07895477 0.0774593 0.046178088
000310 2f 5b c1 bd bb 75 8c bd 06 ea a7 3d 5e d5 b8 3d
       -0.0944122 -0.06858393 0.08198933 0.090250716
000320 4c 17 e0 3d f8 72 1d 3d e4 43 b6 bd 10 5d 42 bd
       0.109419435 0.03843972 -0.08899668 -0.047452033
000330 d7 ab 4d bc 5e 3f b6 3c 2a d9 aa bd 6d 46 ad bd
       -0.012553177 0.022247013 -0.08342202 -0.08460698
000340 4e 8d b9 bc f5 66 c7 3d b8 d6 b7 3d 83 e9 e7 bd
       -0.022650387 0.09736434 0.08976501 -0.11323836
000350 ac 2f 88 3d d8 de 97 bd 30 48 91 bd 64 28 88 3d
       0.06649718 -0.07415551 -0.07093847 0.06648329
000360 45 a4 5d bc 95 59 ba 3d f3 9e d1 3d e8 d9 a6 3c
       -0.013527934 0.09099118 0.10235395 0.020367578
000370 1b 46 8a 3d d4 87 98 3d 6b ff 80 bd 76 a1 b4 3d
       0.06751653 0.07447782 -0.06298717 0.08819859
000380 54 a8 db bc 77 73 1f bd ba e4 23 bd 18 23 99 bb
       -0.026813664 -0.038928475 -0.040013053 -0.004673373
000390 94 80 54 bd 9b c7 98 bd 29 45 91 3d 6b 14 98 bb
       -0.051880434 -0.07459947 0.070932694 -0.004641106
0003a0 d8 21 e3 3c c7 61 ee 3d 6a 9f 3f 3d b2 8a 44 3c
       0.027726099 0.11639743 0.04678289 0.011995958
0003b0 9f 9a e3 3d 16 34 59 bd 4b 72 60 bc bf 1c d6 3d
       0.11113476 -0.05302819 -0.013699125 0.10454702
0003c0 9f 66 e1 bd 4f 0c ef 3d 5a 0e 3e bd 69 55 1f bc
       -0.110059015 0.116722696 -0.046400405 -0.009724953
0003d0 15 09 41 3d 3b b8 b4 3c 9c 7b bf 3c 26 1b 8e bd
       0.047127802 0.022060504 0.023374371 -0.06938772
0003e0 bb 5e 81 bd 27 c7 c5 bd 75 95 bf bd a4 32 88 3c
       -0.063168965 -0.09657126 -0.093546785 0.01662571
0003f0 d2 dd a6 bd 63 38 3b bc 7d 49 89 bd 8b f4 64 3d
       -0.081477776 -0.011427018 -0.0670347 0.055897277

conv_block_3.5.bias f4 [8]
000000 d4 fc c1 bd 77 c2 cf bd 87 0a b9 bd 92 3e de 3d
       -0.09472051 -0.10144513 -0.09035211 0.10851778
000010 c7 c7 32 bd fb 7f 8d 3d f1 29 85 bc 6e b3 e0 bc
       -0.043647554 0.06909176 -0.01625535 -0.027429309

conv_block_4.0.weight f4 [8]
000000 98 0f 80 3f 5d 03 80 3f 8a e1 7f 3f c7 04 80 3f
       1.0004759 1.0001026 0.9995352 1.0001458
000010 8d eb 7f 3f 80 12 80 3f 74 07 80 3f f3 e5 7f 3f
       0.99968797 1.0005646 1.0002275 0.9996025

conv_block_4.0.bias f4 [8]
000000 92 77 f6 37 c2 f0 e7 b9 c4 06 7e b9 4a 5f dc 39
       2.9381164e-05 -0.00044239132 -0.00024225848 0.00042032666
000010 c1 c2 5e b9 46 2d c0 38 7a 39 ef b9 66 b5 b7 b9
       -0.00021244121 9.163706e-05 -0.00045628456 -0.00035039632

conv_block_4.0.running_mean f4 [8]
000000 27 56 ee bc c5 1f 15 3e fc e8 9d 3d 11 ef f8 3d
       -0.029093815 0.145629 0.07710454 0.12154973
000010 1c e8 09 bd 65 71 ea 3c 46 4a e5 3d e4 4e d9 3d
       -0.033668622 0.028618524 0.11195807 0.1061075

conv_block_4.0.running_var f4 [8]
000000 55 ed 0a 3f 3f bb 0e 3f c1 a7 0e 3f 47 9d 0d 3f
       0.5426839 0.55754465 0.5572472 0.5531811
000010 06 66 14 3f 41 b3 11 3f 45 89 0d 3f 5f e9 0d 3f
       0.57968175 0.56914145 0.5528758 0.5543422

conv_block_4.2.weight f4 [16, 8, 3, 3]
000000 e8 42 9e bb a8 2a a2 bd 06 cf f0 3b 6d 5a 8f 3d
       -0.004829753 -0.07918292 0.007348898 0.06999669
000010 4a 9a c4 3d 8e e5 c2 3c 4e fd 9b bd 8f 23 b5 3d
       0.09599741 0.0237911 -0.076166734 0.08844673
000020 01 08 c3 3d fb 33 ce bd 72 3e 80 bc ee 1c e8 bd
       0.09523011 -0.10068508 -0.015654776 -0.11333643
000030 4d bc 6c 3d 37 98 dd bd 18 52 d6 3d 57 d2 b2 bd
       0.057796765 -0.10820048 0.10464877 -0.087315254
000040 59 ec f9 bc a5 d5 6d bc a0 7b a5 bc 31 80 ad bc
       -0.030508207 -0.014516269 -0.02020055 -0.02117929
000050 9f 28 71 bc 33 df 1d bd 0a 8b 33 bd 7b 61 d6 bb
       -0.0147191575 -0.038542937 -0.04383377 -0.0065423823
000060 fe b5 c3 bc e6 ca 22 3d c7 bf 8b 3c f4 c4 b5 3d
       -0.023890492 0.03974428 0.01705922 0.088754565
000070 f8 75 b7 3d c7 84 6c 3d 34 61 ad 3d 7e 89 b3 bd
       0.08958048 0.057743814 0.08465806 -0.08766459
000080 56 9a b1 bc db 81 9c 3d 70 6d eb bc f6 be 3f 3d
       -0.021680038 0.076419555 -0.028738707 0.046812974
000090 24 20 ad ba 7d a2 a2 3d f9 00 cc 3d 08 c8 c6 bd
       -0.0013208431 0.079411484 0.09961123 -0.09706122
0000a0 28 48 06 bd f2 64 7b 3d fb 1a dd 3d d8 59 ae 3d
       -0.032783657 0.061375566 0.10796162 0.0851323
0000b0 6e 83 c7 3c cd 64 e0 bd 9c ec 8f bd be 52 4e 3d
       0.024354663 -0.10956726 -0.070275515 0.050371878
0000c0 53 28 81 3c 27 b4 21 bd 60 51 db bb d0 23 92 3d
       0.015766298 -0.039478447 -0.0066930503 0.07135737
0000d0 53 51 62 bc e3 00 e7 3d d0 80 95 bd 0a 32 5d 3d
       -0.0138133345 0.11279466 -0.0729996 0.0540028
0000e0 05 c6 c5 bb 9b 4b de 3c b2 ac 8e bd 1e ac d9 bd
       -0.0060355687 0.02713566 -0.06966533 -0.10628532
0000f0 cd be 03 3d a1 af 22 3d e8 bd c0 bd 19 3b cb 3d
       0.032164384 0.039718274 -0.09411222 0.09923381
000100 98 82 87 3d cc e0 74 bc 55 7e cb bd 84 54 f0 bd
       0.06616706 -0.014946174 -0.09936205 -0.1173487
000110 83 8d 4d 3d 91 64 96 bd 1c aa cf 3d a0 d4 9e bd
       0.050183784 -0.073434 0.10139868 -0.07755399
000120 b5 27 dc bd f0 a1 ea bc a2 23 9b bb b8 83 ad 3d
       -0.10749761 -0.028641671 -0.0047344724 0.08472389
000130 4e 83 1e bc 3e ae 37 3b 97 ea d6 3d e0 1a bc bd
       -0.00967486 0.002802744 0.10493963 -0.091848135
000140 2d 02 52 bd 8e 68 8f 3d 08 7e a7 bd 83 9e 4b bc
       -0.051271606 0.07002364 -0.081783354 -0.012427929
000150 3f 6c a6 3d 78 6a b9 3c 69 2e c3 3d 7c 33 40 bd
       0.08126115 0.022633776 0.095303364 -0.0469241
000160 8a 78 d5 bd a6 15 c9 3d 98 a7 b0 3d 68 92 8a bd
       -0.104233816 0.09818582 0.08625716 -0.06766206
000170 16 ff 37 bd a4 8b 8e 3d 89 37 43 3d 6e 76 85 bd
       -0.044921003 0.06960228 0.047660384 -0.06516729
000180 c1 3e 97 bd 3c bd 85 bc 8e ea a2 3d 01 ef 81 bd
       -0.07385016 -0.016325586 0.07954894 -0.063444145
000190 17 28 e0 3a 91 4a 73 3d 9c b0 f5 bc bd 74 b8 3d
       0.0017101791 0.059397284 -0.02999144 0.09006641
0001a0 c2 46 89 3d 8f f3 f0 3d 54 d8 87 bd ce 29 70 bd
       0.06702949 0.11765205 -0.06633058 -0.058633618
0001b0 10 c5 ea 3d 61 3d d4 3c 83 91 af bb 28 61 a8 bd
       0.11463368 0.025908174 -0.0053579225 -0.08221656
0001c0 07 e6 c0 3d bb 50 0b 3d 0b c1 6b bd f3 4c d6 bd
       0.09418874 0.034012537 -0.057557147 -0.10463896
0001d0 c2 c9 b0 bd 3e b6 af 3d e6 c5 fb bc 54 35 83 3d
       -0.08632232 0.08579682 -0.030734014 0.06406656
0001e0 77 60 ac 3c 29 70 f1 bd 5e 4f c4 bd 9a 39 ae 3c
       0.021042092 -0.11788971 -0.095854506 0.021267701
0001f0 c7 38 ca bd fa 8d 56 bd 80 02 65 3d 3e 27 99 3d
       -0.09874111 -0.052381493 0.055910587 0.07478188
000200 61 9e 32 3c ed c0 53 3b 78 b2 c6 bb d6 32 8d 3d
       0.010902018 0.0032311038 -0.0060637556 0.06894462
000210 e0 23 c7 3c eb f6 c5 3c b8 30 a5 3d af 24 de 3d
       0.024309099 0.024165591 0.08065933 0.108468406
000220 fa 23 0e bd 76 16 c6 bd d5 6f b0 bd 75 d8 7d bd
       -0.03470228 -0.09672253 -0.0861508 -0.061974008
000230 d2 d7 88 3a 0f 09 3c bc a2 ab c3 bd ea 6b d4 bd
       0.0010440296 -0.011476769 -0.09554221 -0.103721455
000240 88 53 c5 3d 03 c4 ae 3d 19 9b c0 3d 21 69 75 bc
       0.09635073 0.0853348 0.094045825 -0.014978678
000250 91 95 40 bd ad 3d f0 bd 61 73 e7 bd 14 5d 0f bd
       -0.047017638 -0.11730514 -0.11301304 -0.035000876
000260 ae f7 bc 3d f2 36 89 bd 6a de 98 3a de f8 13 3d
       0.09226929 -0.06699933 0.0011662964 0.03612601
000270 81 54 b6 3d 7b 43 10 3d 02 41 94 bd c4 69 6d 3d
       0.089028366 0.035220604 -0.07238962 0.057962194
000280 26 34 32 3d 5b 90 2a bd bf df 81 bc 7a c5 22 bc
       0.043506764 -0.041641574 -0.01585376 -0.009934777
000290 9f 40 cb 3a 35 45 8a 3d 4b 61 96 3d fa ad b1 bd
       0.001550693 0.067514814 0.07342776 -0.086757615
0002a0 ef 4e c4 3d 1e 9a 71 3d f7 55 b4 3d 70 1e c7 bd
       0.09585368 0.05898487 0.08805459 -0.09722602
0002b0 e2 ca 9b bb b5 08 08 3b 2b 0f 83 3d bc 31 b6 bc
       -0.00475441 0.0020757143 0.063993774 -0.022240512
0002c0 72 7a 63 bd dc c5 e3 3c b4 33 e0 bd 93 36 3c bd
       -0.055536695 0.027804308 -0.109473616 -0.045950484
0002d0 9e 80 b4 3d e6 2b 04 3d 6f db 8c bd 7a 36 ee 3d
       0.08813594 0.032268427 -0.06877791 0.11631484
0002e0 07 c3 dc bd 71 9c 93 bd f6 79 c5 3c 89 bc 82 bd
       -0.10779386 -0.07207573 0.024106007 -0.063836165
0002f0 22 ab df bc 90 84 c9 3d 39 cc 2a 3d 2c f3 12 bd
       -0.027303282 0.098397374 0.04169867 -0.035876438
000300 f9 03 c1 bd 15 dd 2b 3d 5b 61 bc bd 8d 16 e7 3c
       -0.09424586 0.041958887 -0.091982566 0.028208995
000310 1a 04 13 bd d5 64 4e bd dc af 3d 3d 93 59 ac bc
       -0.035892583 -0.05038913 0.04631029 -0.021038806
000320 70 ef a7 bd 35 98 95 bd 37 da 90 bc d4 bf ab bc
       -0.08199966 -0.07304422 -0.017682178 -0.020965494
000330 70 8d d3 bd 16 5c e5 bc e5 71 06 3c 95 8b 05 bd
       -0.103297114 -0.027998012 0.0082058655 -0.03260382
000340 38 24 32 bd c1 31 8d bd 94 b2 1d 3d b0 ff df 3d
       -0.043491572 -0.068942554 0.038500383 0.109374404
000350 6a 5c 67 bd 29 e5 b7 bd 58 f8 a9 3c da 8a d1 3c
       -0.056484617 -0.08979256 0.020748302 0.025578905
000360 d3 dd d1 bd c5 40 cf 3d 54 b9 c8 bd 54 83 e6 3d
       -0.10247388 0.10119776 -0.098009735 0.112555176
000370 51 5b 27 3d 0d cb b8 3b 8e b5 80 bd ea e5 19 3c
       0.04085857 0.00563944 -0.06284629 0.009393195
000380 c4 cf ae 3d b2 44 59 bd cd 34 39 bd 8d 47 ba 3d
       0.08535722 -0.05304403 -0.04521637 0.090956785
000390 f5 cb 43 bd 19 67 c8 bd db 8d 20 3c 81 7d ae bd
       -0.04780193 -0.09785289 0.009799446 -0.08520032
0003a0 50 c9 dc bd 1e 13 ad bd b6 5c 7b 3c 60 ad 47 bd
       -0.10780585 -0.08450912 0.015341928 -0.048749328
0003b0 3b 44 b5 3c 8d bf ef 3d 15 64 00 bd bd fd 22 3d
       0.022127261 0.11706457 -0.031345446 0.039792765
0003c0 36 c7 ab bd 82 49 88 3c 60 c7 23 3d 12 7c 4f bd
       -0.08387606 0.016636614 0.03998506 -0.050655432
0003d0 a5 4f 36 bd 14 f9 25 3d 0f 99 66 3d 22 f0 0a 3d
       -0.04450955 0.040520743 0.05629831 0.033920415
0003e0 9f 96 66 3d 69 bc c2 3d 13 2e eb 3d cc b9 ca bd
       0.056295987 0.09508593 0.11483397 -0.09898719
0003f0 e5 bd 91 bd 32 24 99 3c d5 77 ed 3d 91 64 12 3c
       -0.07116298 0.018694017 0.11595122 0.00893511

conv_block_4.2.bias f4 [16]
000000 38 11 4d bd a8 36 61 bd e3 63 cd 3d b9 42 e2 bd
       -0.05006525 -0.054983765 0.100288175 -0.110478826
000010 09 d2 89 bc 43 36 d1 bd 3b 04 7c bd 18 c6 8f 3d
       -0.016823785 -0.10215428 -0.061527472 0.07020205
000020 fe ac df 3d 59 0b f7 bb 47 15 41 3d 38 a8 99 3c
       0.109216675 -0.0075391945 0.047139432 0.01875697
000030 24 74 49 3d 77 7a 9c bd 1c a5 c5 bb bb a9 e3 bc
       0.049183026 -0.07640546 -0.0060316455 -0.027790895

conv_block_4.3.weight f4 [16]
000000 11 fa 7f 3f 41 e6 7f 3f 09 ed 7f 3f 3e 02 80 3f
       0.99990946 0.99960715 0.9997106 1.0000684
000010 52 ee 7f 3f 8f fb 7f 3f 48 01 80 3f 6c f1 7f 3f
       0.9997302 0.9999322 1.0000391 0.99977756
000020 52 09 80 3f 42 01 80 3f 98 00 80 3f 91 00 80 3f
       1.0002844 1.0000384 1.0000181 1.0000173
000030 73 0f 80 3f 0f 0e 80 3f 30 0a 80 3f 1c e6 7f 3f
       1.0004715 1.000429 1.0003109 0.99960494

conv_block_4.3.bias f4 [16]
000000 c8 dc 21 b9 f3 24 d5 b9 ed 66 a7 b9 27 b4 84 b9
       -0.00015436404 -0.00040654055 -0.00031929408 -0.00025311226
000010 94 6c 95 b8 0d 48 0b b9 b2 d3 b7 38 5d 6e 43 b9
       -7.125098e-05 -0.00013282914 8.765551e-05 -0.00018637763
000020 26 95 06 3a 34 85 93 b8 d7 de ef b8 7f e6 d9 b9
       0.0005133919 -7.034317e-05 -0.00011437915 -0.00041561198
000030 2f e0 96 39 07 66 b5 39 58 1d 76 b8 6a 87 d8 b9
       0.0002877726 0.00034599027 -5.86783e-05 -0.00041299622

conv_block_4.3.running_mean f4 [16]
000000 be 0c c8 bb 80 ec 86 bd 79 86 2c bc 91 bf 5a bd
       -0.0061050346 -0.065880775 -0.010530108 -0.05340535
000010 46 ed 8f 3b 66 31 6a bd 89 d4 06 3d 2b 73 09 be
       0.004392299 -0.057176016 0.032917533 -0.1342284
000020 ae 0e ff bb 59 d7 fc 3d e6 43 1f 3d c4 14 5f bc
       -0.0077837324 0.12345762 0.038883112 -0.013615791
000030 ac 9f 2e 3e ae 9c 86 3d 5c f3 ac ba 03 12 2e 3c
       0.17053097 0.06572853 -0.0013195085 0.0106244115

conv_block_4.3.running_var f4 [16]
000000 09 57 16 3f 10 00 12 3f 36 12 13 3f 2b f6 11 3f
       0.58726555 0.57031345 0.5744966 0.5701625
000010 ab 8c 13 3f 95 cb 14 3f 81 f3 11 3f 70 30 12 3f
       0.5763652 0.5812314 0.5701218 0.5710516
000020 ea 10 14 3f b4 86 22 3f e3 b4 12 3f 97 0d 11 3f
       0.5783831 0.6348679 0.5730726 0.5666136
000030 e1 93 13 3f f4 4c 12 3f da 06 18 3f d2 da 0e 3f
       0.5764752 0.5714867 0.59385455 0.55802643

conv_block_4.5.weight f4 [16, 16, 3, 3]
000000 0d 74 12 3a 04 f5 50 3d f2 42 b1 3c 9d 04 1f bd
       0.0005586751 0.051014915 0.021638367 -0.03882276
000010 0b c1 86 bd 6e cb 4b 3d 36 03 88 3b 5b d2 85 bd
       -0.06579789 0.049754553 0.0041507734 -0.06534263
000020 30 cb 35 bd 75 41 84 3d c1 71 fc 3c 3e 04 87 bd
       -0.044383228 0.064577974 0.03081596 -0.06592606
000030 63 66 83 bd ef 5c 41 bd 8d f2 a5 3c 87 2b a2 bd
       -0.06416013 -0.04720777 0.020257259 -0.079184584
000040 35 52 88 bc d3 59 93 bd 23 ad cc 3c b9 41 7e 3d
       -0.016640762 -0.07194867 0.024984902 0.062074397
000050 37 59 0f bd 5f c5 08 3d b4 9b 45 bd 5c 14 5a 3c
       -0.03499719 0.033391353 -0.048244193 0.013310518
000060 92 85 92 3d 61 6d 83 bd 51 46 c3 bc 16 bb 32 3d
       0.07154383 -0.06417347 -0.02383724 0.04363545
000070 9d 0b f4 3c 99 2b 61 bd 71 56 81 bc 62 fb 81 bd
       0.029790694 -0.05497322 -0.015788289 -0.063467756
000080 b5 fa 75 bb 91 b0 2f 3d 1d c7 b6 bb 8e 12 95 bd
       -0.0037533466 0.042892996 -0.0055779354 -0.0727893
000090 78 b0 8f 3d fb 80 13 bc c1 4e a7 bb 6c 12 72 bd
       0.070160806 -0.009002919 -0.0051058237 -0.0590996
0000a0 c0 67 94 3d 19 47 44 3d 6e 5d 9e 3c 42 92 88 3d
       0.07246351 0.047919367 0.01933166 0.066685215
0000b0 6d 0c a9 3d 11 cf 1b bd f9 3a 93 bd 8d 0c 38 3d
       0.08254323 -0.03803927 -0.071889825 0.044933844
0000c0 4d 47 dd 3c e5 94 7e bd 02 91 77 3d 9c a9 70 3d
       0.027011538 -0.062153716 0.060441025 0.058755502
0000d0 f3 63 0c 3d f3 8d 93 bd 35 69 6b 3d 8b 61 1e 3d
       0.034275007 -0.07204809 0.05747338 0.038667243
0000e0 3f 06 0c bd 8d b2 39 bd b1 99 09 bd d3 e4 b2 3b
       -0.034185644 -0.045336295 -0.033593837 0.005459407
0000f0 11 79 70 bd 5a d0 94 bd 62 bc f9 3c f6 fc 58 3d
       -0.058709208 -0.072663024 0.030485336 0.052975617
000100 a0 64 67 bd f5 4d 37 bd fc dd 21 bd 65 8c 25 bd
       -0.056492448 -0.04475208 -0.03951834 -0.040417094
000110 2a 74 a3 3d b3 b1 a2 bd 96 40 27 bd 90 fd 13 3c
       0.07981141 -0.0794405 -0.04083308 0.009032622
000120 70 a4 0f bd c6 74 8a bd 7e 57 8d 3c 62 30 02 bd
       -0.03506893 -0.06760554 0.017253634 -0.031784423
000130 52 30 29 bd 54 26 e1 3a 9e a3 8d 3d df 3d 5f 3b
       -0.041305847 0.001717756 0.06915973 0.0034063978
000140 47 a0 4d bd 9c b1 94 bc 97 f9 8c 3d 99 cf a0 bd
       -0.05020168 -0.018151097 0.06883543 -0.07852096
000150 b4 db 8c bc 71 2c 7a bd 8a dd 07 3c da ef 10 3c
       -0.017194606 -0.06107754 0.008292565 0.008846248
000160 35 54 aa 3d 3a ed d1 bc 9e 54 8d 3d 27 63 a9 bd
       0.083168425 -0.025625814 0.06900905 -0.08270865
000170 4a 93 3f bd eb 20 2b 3d 20 82 99 bd 9e 90 84 3d
       -0.046771325 0.04177944 -0.074955225 0.06472896
000180 74 0c 6a bd 2b 40 2a 3b 34 4e 81 bd d6 98 8e 3d
       -0.057140782 0.0025978188 -0.06313744 0.06962745
000190 f3 ac a7 3d bb db 8a bd 78 10 81 bc dd 00 91 bc
       0.08187284 -0.067801915 -0.015754923 -0.017700607
0001a0 f9 d4 16 3c 8e 63 a4 3d 8b d0 f6 3c 98 7e 83 3c
       0.00920605 0.08026801 0.030128738 0.016051576
0001b0 44 6b 14 bd e7 76 66 bd 81 a5 a9 3d 35 51 83 3d
       -0.03623511 -0.056265738 0.082835205 0.064119734
0001c0 00 df 2c 3d 40 02 4b 3d 82 af 50 3d 73 cd e0 bc
       0.042204857 0.049562693 0.050948627 -0.027441716
0001d0 75 da 96 bd 98 d8 70 3b 2b 1e 7f 3b 61 91 60 bd
       -0.07365886 0.0036750194 0.0038927894 -0.054826144
0001e0 77 e3 82 bd 1e d3 25 3d 53 00 92 bd e9 49 67 3d
       -0.06391042 0.04048454 -0.07128968 0.05646697
0001f0 4e 03 9d bd cf 12 75 bd e0 93 96 3d a6 39 4b bd
       -0.07666646 -0.05983239 0.07352424 -0.049615525
000200 c7 77 74 3d 5c 22 ad bc 8c 9b 39 3d cb 34 9e bd
       0.05968454 -0.021134548 0.045314357 -0.07724913
000210 2d aa 45 bd 38 58 71 bd 5c 4f 2a bd e1 2d 19 bd
       -0.048257995 -0.058922023 -0.04157959 -0.03739727
000220 fa fe 7f 3d 23 dc 9b 3d b1 65 1c bc e6 58 b5 bc
       0.062499024 0.07610347 -0.0095457295 -0.022137117
000230 47 b1 a6 3d f4 59 f6 bc a3 d5 44 bb 17 dd e3 3c
       0.08139282 -0.03007219 -0.0030034564 0.027815385
000240 64 7e 22 3d 58 cc 64 3d 92 0f 98 bc 75 01 34 3d
       0.039671317 0.05585894 -0.018562112 0.043946702
000250 a7 07 e5 3c b0 cb bf bc 60 71 10 bd 60 a5 8e bd
       0.02795775 -0.023412555 -0.035264373 -0.069651365
000260 eb dd 16 3d 29 80 56 bc e2 c0 30 bd e9 f4 32 bc
       0.03683273 -0.013092079 -0.043152697 -0.010922649
000270 da 2c 9d bd fd 43 4c 3d aa 95 86 bd 85 72 5d bc
       -0.076745704 0.049869526 -0.06571515 -0.013516073
000280 22 85 f4 bc cc 6f 5f bd 0e b5 90 bc f8 3c 63 3d
       -0.029848639 -0.054549977 -0.017664459 0.055478066
000290 c1 ea 9f 3d 10 ba db 3c f1 6d a2 3d df 5f 88 3d
       0.07808448 0.02682212 0.07931126 0.06658911
0002a0 6d 5d 05 bd 6f c9 33 3c 20 3a 38 3d c5 be 91 3d
       -0.0325598 0.0109733185 0.044977307 0.071164645
0002b0 f9 4a 80 3b 2a 89 7e bc f1 83 75 bd ac 67 a0 ba
       0.0039151874 -0.015535632 -0.059940282 -0.0012237928
0002c0 e2 da 71 3d da 6e 19 3d 30 a9 09 bd f4 7a c3 3b
       0.059046634 0.037459232 -0.033608615 0.005965585
0002d0 dd 63 08 bd ba 47 70 3d 8e 1c 57 bd a0 b9 27 3d
       -0.033298362 0.058662154 -0.052517466 0.04094851
0002e0 d0 55 90 3d 19 b4 d3 3c 48 a4 5f bd e5 93 87 3d
       0.070476174 0.025842713 -0.05460003 0.066200055
0002f0 d9 7c 87 bd 6c 00 cf 3b 73 43 35 3b ca 45 8f 3d
       -0.0661561 0.006317189 0.002765861 0.06995733
000300 e9 29 4f bd b3 ed 60 bd 53 41 17 3d fc 94 a1 3b
       -0.050577078 -0.054914188 0.036927532 0.0049310904
000310 e2 f1 1a 3d 97 2a a8 3d e4 15 9c 3d 71 65 74 3d
       0.037828334 0.08211248 0.07621363 0.059667055
000320 8e 7d 62 bd 1a aa 0d bc 63 2b 44 3d 55 4f 8c 3d
       -0.05529552 -0.008646512 0.04789294 0.06851069
000330 48 32 83 bd 89 d0 03 bd 8a bf eb 3b fe c1 8b 3d
       -0.06406075 -0.032181296 0.007194464 0.068241104
000340 ed c8 7c bb 61 2e 97 bd b3 dc f0 bc cf 0a 7f bd
       -0.003857191 -0.07381893 -0.029402113 -0.062266167
000350 b6 9d 23 bc ea 20 88 bd a8 db 8d bd f3 d9 dc bc
       -0.009986332 -0.06646903 -0.06926662 -0.026959395
000360 d5 b5 a2 3c e6 8f a6 bc 0b eb 98 bd 4c dc 2d bd
       0.019862095 -0.020332288 -0.07466706 -0.04244642
000370 16 cc 78 3b cd f3 48 bc dc ea 2d bc 8d 33 c8 bc
       0.0037963442 -0.012265158 -0.010615077 -0.024438644
000380 0f 6d 39 3d 49 24 53 3d 76 c2 76 bd f1 c3 8d bd
       0.045270022 0.051548276 -0.060244046 -0.069221385
000390 97 1c a7 bd 8d de c9 bc 8a 71 a9 bd eb 16 5c 3d
       -0.0815975 -0.024642253 -0.08273609 0.053732794
0003a0 df f8 6b 3d 7a f7 1c 3d b6 15 9e bc 56 71 04 3d
       0.05761039 0.03832195 -0.019297462 0.032334648
0003b0 a8 cf f1 3c 83 34 53 3d c7 17 7b 3d 9a 8b 99 bd
       0.029517964 0.05156375 0.061301973 -0.0749733
0003c0 2b 75 a4 3d df 5d a6 3d fe 90 17 bd 51 44 6b bd
       0.080301605 0.08123373 -0.03700351 -0.0574382
0003d0 ae 2e c3 bc b6 69 0e bd 04 3f 88 3d 58 83 8e 3d
       -0.02382597 -0.034768783 0.06652644 0.069586456
0003e0 81 6c b0 3c 71 b2 9b 3d e5 0c 5c bd 5c ac 52 3d
       0.021536114 0.07602394 -0.053723235 0.051433906
0003f0 8a 0a 9a bd c8 38 33 bd 35 2e 89 3d 73 cf 43 3d
       -0.075215414 -0.043755323 0.066982664 0.04780526

conv_block_4.5.bias f4 [16]
000000 81 fa 37 bd a9 67 91 bd ea e3 e4 3c a0 3f ba 3c
       -0.044916634 -0.0709985 0.02794071 0.022735417
000010 4c 66 a3 bd 28 59 7c 3d 54 a7 fb bc 79 fe 9f bd
       -0.07978496 0.061608464 -0.030719437 -0.07812209
000020 41 c0 07 bc b3 eb c8 bc 0e fd 2d 3d a3 cd 5d bd
       -0.008285583 -0.024526453 0.04247766 -0.05415119
000030 2e c9 31 bd 39 37 27 3c b0 d9 af bc 49 5a 00 bb
       -0.04340475 0.010206037 -0.021466106 -0.0019585064

conv_block_5.0.weight f4 [16]
000000 38 02 80 3f b7 05 80 3f 07 0c 80 3f d7 db 7f 3f
       1.0000677 1.0001744 1.000367 0.99944824
000010 61 0e 80 3f 65 ec 7f 3f 09 08 80 3f 39 07 80 3f
       1.0004388 0.99970084 1.0002452 1.0002204
000020 7e 00 80 3f 4c 07 80 3f 91 00 80 3f 0f df 7f 3f
       1.000015 1.0002227 1.0000173 0.99949735
000030 e3 f2 7f 3f 20 02 80 3f 37 02 80 3f 94 f8 7f 3f
       0.9997999 1.0000648 1.0000676 0.99988675

conv_block_5.0.bias f4 [16]
000000 ab 5e 08 b9 4e 9a 52 b9 44 41 81 39 52 54 07 ba
       -0.00013005237 -0.00020084644 0.00024653424 -0.0005162406
000010 05 be f1 39 8e 8c 2b b9 10 a5 af 39 28 8d f6 b9
       0.00046108678 -0.00016360192 0.00033501582 -0.00047025946
000020 37 3b 77 b9 41 a7 2c b9 10 ee 03 3a c1 f1 40 39
       -0.00023577815 -0.00016465505 0.00050327275 0.00018400607
000030 cb 66 e1 b8 ec 26 e5 b8 30 bb 7d 39 30 68 c3 b8
       -0.00010747983 -0.00010926821 0.00024197693 -9.317731e-05

conv_block_5.0.running_mean f4 [16]
000000 9c e2 29 3c b1 e4 e6 3d 32 c9 af 3e 88 6d 74 3c
       0.010368969 0.11274088 0.34333187 0.014918692
000010 78 00 bb bd ed 37 3c 3e 62 20 07 3e 4c e1 cc bd
       -0.09130949 0.18380709 0.13195947 -0.100039095
000020 21 ad 22 3e dd 78 b9 3d 9d 62 52 3e ab 3a 72 bd
       0.15886356 0.09056256 0.2054543 -0.05913798
000030 a8 17 87 bc 9a 5b 01 3e 19 ed 59 3d e7 25 4a bd
       -0.016490772 0.126326 0.05320463 -0.049352553

conv_block_5.0.running_var f4 [16]
000000 6d 03 0c 3f 8c c9 13 3f e7 17 13 3f 43 8a 0a 3f
       0.5469273 0.5772941 0.5745835 0.5411722
000010 f2 68 10 3f 57 0f 0c 3f ac e3 13 3f b1 71 0c 3f
       0.56410134 0.54710907 0.57769275 0.5486098
000020 7c 74 0c 3f 72 7c 0e 3f 36 f2 0b 3f 1e b0 0a 3f
       0.5486524 0.5565864 0.5466646 0.54174984
000030 7c 3b 0a 3f 44 db 0c 3f 1b 3f 10 3f c4 ac 0a 3f
       0.53997016 0.5502207 0.5634629 0.5416987
