cloud-detection-code/tests/test_artifacts/test_class_weighted_loss_explicit/model_checkpoint_5.pt (torch, 439769 bytes, 347 tensors)

input_conv_block.0.weight f4 [3]
0	0x3f7fa695	0.9986356
1	0x3f7fbb7e	0.99895465
2	0x3f802b8c	1.001329

input_conv_block.0.bias f4 [3]
0	0xba997109	-0.0011706661
1	0xba0478bc	-0.0005053391
2	0x3a6ef9e4	0.0009116216

input_conv_block.0.running_mean f4 [3]
0	0x3ed25ab0	0.41084814
1	0x3ed09a0e	0.40742534
2	0x3eafb9bc	0.34321392

input_conv_block.0.running_var f4 [3]
0	0x3d90b158	0.07065076
1	0x3d8957a9	0.06706173
2	0x3d82b9d5	0.06383101

input_conv_block.2.weight f4 [2, 3, 1, 1]
0	0xbf12274b	-0.57091206
1	0xbe3a6521	-0.1820264
2	0x3ecf36a4	0.40471375
3	0xbef061fe	-0.46949762
4	0xbd81f64f	-0.06345808
5	0x3e2c730b	0.1684076

conv_block_1.0.weight f4 [2]
0	0x3f803103	1.0014957
1	0x3f7f9d9a	0.99849856

conv_block_1.0.bias f4 [2]
0	0xbb393a71	-0.0028263594
1	0xbae9f4f5	-0.0017849492

conv_block_1.0.running_mean f4 [2]
0	0xbe16f016	-0.14740023
1	0xbe171fa8	-0.1475817

conv_block_1.0.running_var f4 [2]
0	0x3dd0872c	0.10182032
1	0x3dbcd5b7	0.0922045

conv_block_1.2.weight f4 [2, 2, 3, 3]
0	0x3e65943e	0.22419831
1	0x3d9ec0ef	0.07751643
2	0x3daa7e19	0.083248325
3	0x3d0eca38	0.03486082
4	0x3e523bb1	0.20530583
5	0xbd328bd3	-0.043590378
6	0xbdfcb292	-0.12338747
7	0xbc5d2d15	-0.013499518
8	0x3db7aee4	0.089689046
9	0x3d2986de	0.041388385
10	0x3ddb38e1	0.10704208
11	0x3d52be00	0.05145073
12	0x3d235193	0.039872717
13	0x3e1a27a9	0.15054192
14	0x3e3c2cc4	0.18376452
15	0x3e360156	0.17773947
16	0xbe31c8c6	-0.17361745
17	0x3c3f0dd0	0.011661008
18	0xbd8ebfc3	-0.069701694
19	0xbe68fbec	-0.2275235
20	0x3e222a81	0.15836526
21	0xbda5e908	-0.08101088
22	0xbe080b4f	-0.13285564
23	0xbe178a66	-0.14798889
24	0x3db55768	0.08854562
25	0x3e1b42be	0.15162179
26	0x3d5952e8	0.05305758
27	0xbe4f9d63	-0.20274882
28	0xbe68d983	-0.22739224
29	0xbe22c11b	-0.15893976
30	0x3dcf0028	0.10107452
31	0xbe0bfb45	-0.1367007
32	0x3dc755f0	0.09733188
33	0xbe24100f	-0.16021751
34	0x3d67ea0d	0.056619693
35	0x3e473fac	0.19457883

conv_block_1.2.bias f4 [2]
0	0x3d5ee3bf	0.054416414
1	0x3dd1e266	0.1024826

conv_block_1.3.weight f4 [2]
0	0x3f8013e5	1.0006071
1	0x3f7fd820	0.99939156

conv_block_1.3.bias f4 [2]
0	0xbad5f2fd	-0.0016323027
1	0x39996582	0.00029258063

conv_block_1.3.running_mean f4 [2]
0	0x3ef955c1	0.48698238
1	0xbe1b08fa	-0.15140143

conv_block_1.3.running_var f4 [2]
0	0x3e1f5cea	0.15562788
1	0x3dcd5234	0.100254446

conv_block_1.5.weight f4 [2, 2, 3, 3]
0	0xbd1eeee2	-0.038802035
1	0xbd70b7d4	-0.058769062
2	0xbc931e40	-0.01795876
3	0x3e3ac079	0.18237485
4	0x3e4d7fe7	0.20068322
5	0x3dbde8a9	0.09272892
6	0xbdf3d725	-0.1190627
7	0xbe3e638f	-0.18592666
8	0x3d4d823d	0.050173033
9	0x3c2f5560	0.010701507
10	0xbde07b6c	-0.10961041
11	0xbd27849b	-0.040897947
12	0x3e161276	0.1465548
13	0xbd39caba	-0.04535935
14	0xbdf80001	-0.12109376
15	0xbd19813c	-0.037476763
16	0xbe4f49c7	-0.20242988
17	0x3d63710a	0.055527724
18	0xbe4f2aaa	-0.20231119
19	0x3e4006cc	0.18752593
20	0x3e129370	0.14314055
21	0x3e6ab16a	0.2291924
22	0x3dce9776	0.10087483
23	0xbdc4ae5c	-0.09603569
24	0xbcf0302e	-0.029319849
25	0x3e332b6f	0.17497037
26	0x3e6a43a4	0.22877365
27	0x3e42de24	0.19030052
28	0xbdf76d1a	-0.12081356
29	0x3e55a575	0.20863898
30	0xbcaad6bb	-0.020854345
31	0xbe1968e9	-0.14981426
32	0x3e1706a6	0.1474863
33	0x3db7264a	0.0894285
34	0xbde46b02	-0.111532226
35	0xbdbf7c10	-0.09349835

conv_block_1.5.bias f4 [2]
0	0x3e4bf435	0.19917376
1	0xbd8c962f	-0.06864583

conv_block_2.0.weight f4 [2]
0	0x3f7fd7d2	0.9993869
1	0x3f801408	1.0006113

conv_block_2.0.bias f4 [2]
0	0xbabab51c	-0.0014244649
1	0xbb0583ec	-0.002037282

conv_block_2.0.running_mean f4 [2]
0	0x3e35162c	0.17684239
1	0x3ed5d185	0.41761413

conv_block_2.0.running_var f4 [2]
0	0x3da68ce6	0.08132343
1	0x3e243873	0.16037159

conv_block_2.2.weight f4 [4, 2, 3, 3]
0	0xbd603f72	-0.054748006
1	0x3e5a31f5	0.2130812
2	0x3e715d0b	0.2357065
3	0xbd300597	-0.04297408
4	0x3e0d5fba	0.13806048
5	0x3e3f5206	0.18683633
6	0xbd9a0e21	-0.07522226
7	0x3dfea9db	0.12434741
8	0xbe14be18	-0.1452564
9	0xbe39b71a	-0.18136254
10	0xbd508952	-0.05091221
11	0x398013d5	0.00024428839
12	0xbe13a307	-0.14417659
13	0x3c0f55bd	0.008748469
14	0xbd585c03	-0.052822124
15	0x3e36ee7b	0.1786441
16	0xbc81ce92	-0.01584557
17	0xbe6423e1	-0.22279312
18	0xbcfc1050	-0.030769497
19	0xbe0d5ac9	-0.13804163
20	0x3cacbd6e	0.02108642
21	0xbdbb3512	-0.09140982
22	0xbe0202d4	-0.12696391
23	0x3dd56154	0.104189545
24	0xbe2c8c8c	-0.1685049
25	0x3e35902c	0.17730778
26	0xbe2c9195	-0.1685241
27	0x3e503745	0.20333584
28	0x3dc61507	0.096719794
29	0x3cf185e1	0.029482784
30	0x3dd84092	0.10559191
31	0x3dc868f4	0.09785643
32	0xbe6d8756	-0.23196158
33	0x3e156fed	0.14593478
34	0x3e541d8c	0.20714396
35	0xbdf36a70	-0.11885536
36	0x3d0dd256	0.03462442
37	0x3e4ece13	0.20195799
38	0x3c62010a	0.013794193
39	0x3cb69a85	0.022290478
40	0x3e3e2aa7	0.18570958
41	0xbde05196	-0.10953061
42	0xbe0041d8	-0.12525117
43	0x3e299df0	0.16564155
44	0x3d86ac56	0.06575839
45	0xbe06b3e3	-0.13154559
46	0xbe206f0a	-0.15667358
47	0x3b5342f8	0.0032235961
48	0xbda5a557	-0.08088177
49	0xbe0888bf	-0.13333414
50	0x3e3392f2	0.17536524
51	0xbe1282f6	-0.1430777
52	0x3e07c242	0.13257697
53	0x3b30cb31	0.002697658
54	0x3e2f96ca	0.17147365
55	0xbd3ab1fc	-0.045579895
56	0xbd1c9369	-0.03822652
57	0xbd519072	-0.051163144
58	0xbe55b846	-0.20871076
59	0xbdd597d6	-0.10429351
60	0xbdcec685	-0.10096458
61	0xbdd8a5ae	-0.10578476
62	0x3e46898c	0.19388407
63	0x3e44e26b	0.19226997
64	0xbd5e3e8a	-0.05425886
65	0xbe466749	-0.19375338
66	0x3d6ebbde	0.058284633
67	0xbdb1ffbb	-0.08691355
68	0x3dba6c62	0.09102704
69	0xbe27145b	-0.16316359
70	0x3e4f02d1	0.20215918
71	0x3d80fa51	0.06297744

conv_block_2.2.bias f4 [4]
0	0x3d74514c	0.059647843
1	0xbe15285a	-0.14566174
2	0x3c9451cf	0.018105416
3	0xbe3cf499	-0.18452682

conv_block_2.3.weight f4 [4]
0	0x3f7f9e52	0.9985095
1	0x3f801708	1.0007029
2	0x3f7fa94e	0.99867713
3	0x3f80219d	1.0010258

conv_block_2.3.bias f4 [4]
0	0xbaf8883b	-0.0018961498
1	0xba2c100a	-0.00065636693
2	0xbaa5692e	-0.0012619847
3	0xbae934a2	-0.0017792175

conv_block_2.3.running_mean f4 [4]
0	0x3e0881ab	0.13330714
1	0xbe0a9206	-0.13532266
2	0x3dba7e26	0.09106092
3	0xbe846cec	-0.2586435

conv_block_2.3.running_var f4 [4]
0	0x3df4db9a	0.11955948
1	0x3e1acdc4	0.15117556
2	0x3dc097eb	0.09403976
3	0x3da53a75	0.080677904

conv_block_2.5.weight f4 [4, 4, 3, 3]
0	0x3d262ce1	0.040570144
1	0xbd480e44	-0.04884173
2	0xbc05d567	-0.008168555
3	0xbd79878d	-0.060920287
4	0x3e1ac4ee	0.15114185
5	0x3de85d43	0.11345913
6	0x3dadd32e	0.08487545
7	0xbda28ccb	-0.079370104
8	0x3c1a5683	0.00942004
9	0x3e09f53f	0.1347246
10	0x3cee378a	0.029079217
11	0xbe28dccb	-0.16490476
12	0x3e08b2e7	0.13349496
13	0x3da68f5c	0.081328124
14	0x3b3270b7	0.0027227828
15	0x3d7aaf5f	0.061202403
16	0x3da79644	0.08182958
17	0xbdd9720a	-0.10617454
18	0x3dfc5aaa	0.1232198
19	0x3deed357	0.116614036
20	0xbe20a391	-0.15687396
21	0x3e108507	0.14113246
22	0xbd451015	-0.04811104
23	0xbdb51e09	-0.088436194
24	0x3ccf18c3	0.025280362
25	0xbdbf6248	-0.093449175
26	0xbde32cfb	-0.11092564
27	0x3cc5ab83	0.024129635
28	0x3d84c865	0.06483535
29	0x3e2a4ba8	0.16630423
30	0xbe1bad18	-0.15202749
31	0x3e158067	0.14599763
32	0x3ca25b95	0.01981906
33	0xbe163358	-0.14668024
34	0x3e05e1ab	0.13074367
35	0xbd874f3c	-0.0660691
36	0x3e16245f	0.14662312
37	0x3de80daa	0.11330731
38	0xbe147713	-0.14498548
39	0x3d83fc95	0.064446606
40	0xbdeb5f1e	-0.114927515
41	0x3e1d2259	0.15345134
42	0x3e235c92	0.15953282
43	0x3b7be0dc	0.0038433587
44	0xbd547c60	-0.051876426
45	0xbe1aba9b	-0.15110247
46	0x3cfb6fb2	0.030692909
47	0x3e276a6a	0.16349187
48	0x3d5310b9	0.05152962
49	0xbd308459	-0.043094967
50	0xbca98785	-0.020694504
51	0x3e0efd07	0.1396371
52	0x3e1dc046	0.15405378
53	0xbdee832b	-0.11646112
54	0x3e195bbc	0.149764
55	0x3de8978c	0.1135703
56	0x3ddf0464	0.10889509
57	0x3e0bcfd0	0.13653493
58	0x3e1ea0fd	0.154911
59	0xbd34d5a7	-0.044149067
60	0xbd0b419b	-0.033998113
61	0xbdbb363c	-0.09141204
62	0x3da108e2	0.078630224
63	0x3d7a6d7a	0.06113956
64	0xbd6a6a48	-0.057230264
65	0xbe054055	-0.13012822
66	0x3da4f64a	0.080547884
67	0xbc8b9dc3	-0.017043
68	0x3cd54dbc	0.026038043
69	0xbd9ce2e4	-0.076604635
70	0xbdd5e720	-0.10444474
71	0x3e1c90e6	0.1528965
72	0xbdb9e636	-0.090771124
73	0xbcc09989	-0.023510711
74	0x3dce683c	0.10078475
75	0x3e0b6c73	0.13615589
76	0x3e02fef0	0.12792563
77	0x3e227031	0.1586311
78	0x3e0d88c2	0.138217
79	0x3db3bdb7	0.087764196
80	0xbcc94114	-0.024567164
81	0xbdc91974	-0.09819308
82	0xbcf21166	-0.029549312
83	0xbd8ec87d	-0.06971834
84	0x3d72f01e	0.059311025
85	0xbe24ab27	-0.16080914
86	0xbd94b38b	-0.072608076
87	0x3e13d285	0.14435776
88	0x3d3bbb01	0.045832638
89	0xbd4b6595	-0.049657423
90	0xbb234df8	-0.00249183
91	0x3c822a7c	0.015889399
92	0xbcd33b72	-0.025785182
93	0x3de3eeeb	0.11129554
94	0xbd43d330	-0.047808826
95	0xbe0572d2	-0.13032082
96	0x3dfb048c	0.122567266
97	0xbcddb40f	-0.027063398
98	0x3c99073c	0.018680207
99	0x3e040187	0.12891208
100	0xbe09521b	-0.13410227
101	0x3c432b4d	0.011912179
102	0x3dbfc4bf	0.09363698
103	0xbbbd6157	-0.005779426
104	0xbde1d220	-0.11026406
105	0x3e239763	0.15975718
106	0xbd260f40	-0.040541887
107	0xbe1ba6cd	-0.15200348
108	0xbe04cd40	-0.12968922
109	0xbd45e68f	-0.04831558
110	0x3d1e8279	0.038698647
111	0xbd2ea57f	-0.042638298
112	0x3dfd360e	0.12363826
113	0xbd7221bb	-0.0591142
114	0xbc7c3db5	-0.0153955715
115	0x3cbbe4d8	0.02293627
116	0x3d7d89f8	0.061899155
117	0xbe106a76	-0.14103112
118	0x3de41e0f	0.11138546
119	0x3d867303	0.065649055
120	0x3e17222f	0.14759134
121	0x3dde45c0	0.108531475
122	0x3d958060	0.07299876
123	0xbe106272	-0.14100054
124	0xbddbe405	-0.10736851
125	0x3e10ec60	0.1415267
126	0xbdd4eb80	-0.103964806
127	0xbbe91c0b	-0.0071139387
128	0xbcc3a984	-0.023884542
129	0x3da8e4b2	0.08246745
130	0x3ded74ba	0.115945294
131	0x3d487a7d	0.04894494
132	0x3cfcb936	0.030850034
133	0xbe058386	-0.13038453
134	0xbd8aab72	-0.06770982
135	0x3e2b14a0	0.16707087
136	0x3d58125a	0.052751876
137	0xbdaf60da	-0.08563395
138	0x3e199bdd	0.15000863
139	0xbe1c909e	-0.15289542
140	0xbc8442ff	-0.016145227
141	0xbdf58c86	-0.11989693
142	0x3d624289	0.055239234
143	0xbdafdbe0	-0.0858686

conv_block_2.5.bias f4 [4]
0	0x3e13558d	0.14388104
1	0x3d786100	0.06063938
2	0xbdb5c5c2	-0.0887561
3	0xbe06bc2f	-0.13157724

conv_block_3.0.weight f4 [4]
0	0x3f802bd0	1.001337
1	0x3f7f9653	0.9983875
2	0x3f7fe71a	0.9996201
3	0x3f8000e1	1.0000268

conv_block_3.0.bias f4 [4]
0	0xb905e487	-0.00012769001
1	0xbaee6506	-0.0018188066
2	0xbaebf865	-0.0018003104
3	0x3458cbe0	2.0190737e-07

conv_block_3.0.running_mean f4 [4]
0	0x3ee3e47b	0.44510254
1	0x3f0638d9	0.5243049
2	0x3e51e744	0.20498377
3	0x3d52295b	0.05130897

conv_block_3.0.running_var f4 [4]
0	0x3e4cbc9e	0.19993827
1	0x3e536910	0.20645547
2	0x3dfcfe84	0.123532325
3	0x3e272991	0.1632445

conv_block_3.2.weight f4 [8, 4, 3, 3]
0	0xbdba0cc0	-0.09084463
1	0xbe180271	-0.14844681
2	0xbdd11238	-0.10208553
3	0x3e22bc89	0.15892233
4	0xbdea7b85	-0.11449341
5	0xbde59d71	-0.1121167
6	0x3dff3fa3	0.124633096
7	0xbd2c2914	-0.042031363
8	0x3cbbdf97	0.022933764
9	0x3be7b365	0.007070946
10	0xbd83800a	-0.06420906
11	0xbe261907	-0.16220485
12	0xbcd29079	-0.025703656
13	0x3dc5ada1	0.09652258
14	0xbd40a014	-0.047027662
15	0x3c8b3911	0.016994985
16	0x3d54d505	0.051960964
17	0xbe1fa267	-0.15589295
18	0xbd1039e4	-0.03521146
19	0x3db6d110	0.08926594
20	0x3dc11083	0.094269775
21	0xbe1b3d86	-0.15160188
22	0xbce07cb5	-0.027403215
23	0x3e224d50	0.15849805
24	0xbe0b33ab	-0.13593929
25	0x3d7788f9	0.06043336
26	0xbdc5a80f	-0.09651195
27	0xbd28b4a8	-0.041187912
28	0xbe23478f	-0.15945266
29	0x3e1c6eb9	0.15276612
30	0x3d58da1f	0.05294239
31	0x3c284cda	0.010272229
32	0x3d9f47db	0.07777377
33	0xbd848f1f	-0.06472611
34	0x3e1d98dd	0.15390344
35	0xbd8b2b8d	-0.06795416
36	0xbd71d03b	-0.059036475
37	0xbd53a8bb	-0.051674586
38	0xbe126ac4	-0.1429854
39	0xbd329ff0	-0.04360956
40	0x3d3a892b	0.04554097
41	0xbe07c553	-0.13258867
42	0x3de4fad1	0.11180652
43	0xbe09dcbc	-0.1346311
44	0xbe21de98	-0.15807569
45	0x3d0bc973	0.034127664
46	0xbd258d7a	-0.040418126
47	0x3e068a7e	0.13138768
48	0x3da3425e	0.07971643
49	0xbd891584	-0.06693557
50	0xbddd42f5	-0.10803787
51	0xbe018ae8	-0.12650645
52	0x3a601073	0.0008547373
53	0xbd2819a2	-0.04104007
54	0xbdf86833	-0.121292494
55	0x3de2ff31	0.1108383
56	0xbe0eb373	-0.13935642
57	0x3dab1432	0.08353461
58	0x3b26fb02	0.0025479202
59	0xbd872e83	-0.06600668
60	0xbe0e3464	-0.13887173
61	0xbd0de9ab	-0.03464667
62	0x3d929731	0.07157744
63	0x3c87fe16	0.01660065
64	0x3d276cbd	0.040875185
65	0x3d114bdc	0.035472736
66	0x3e209178	0.15680492
67	0x3b3a35e6	0.0028413474
68	0x3d74671c	0.059668645
69	0x3da8847d	0.08228395
70	0xbda5fa70	-0.08104408
71	0xbdd480d0	-0.103761315
72	0xbd633a02	-0.055475242
73	0x3dcad893	0.099045895
74	0x3c0333d6	0.008007964
75	0x3d8931fd	0.06698988
76	0xbc4c1208	-0.012455471
77	0xbdd85f2e	-0.10565029
78	0x3e0cc22f	0.1374595
79	0xba730451	-0.00092703576
80	0xbd8f9ff9	-0.07012934
81	0x3b85c13d	0.0040818737
82	0x3ca620b6	0.02027927
83	0x3e0bf97c	0.1366939
84	0xbda7413e	-0.08166741
85	0xbdd98c5d	-0.10622475
86	0xbdb12986	-0.08650498
87	0xbdbf906c	-0.09353718
88	0x3dac9118	0.08426112
89	0xbe1c9a6f	-0.15293287
90	0xbd6663e4	-0.056247607
91	0x3e26b6f4	0.16280729
92	0xbc09babc	-0.008406337
93	0xbd80d4ac	-0.06290564
94	0x3d98518b	0.07437428
95	0xbdf5af67	-0.11996346
96	0x3e02f2b1	0.12787892
97	0xbdb057ed	-0.086105205
98	0xbe2785b2	-0.16359594
99	0x3d02d386	0.031940006
100	0xbda12fb9	-0.078704305
101	0x3ca0391e	0.019558486
102	0xbd1e9903	-0.038720142
103	0x3bb8a2ac	0.0056346264
104	0xbe229685	-0.15877731
105	0x3e02603a	0.1273202
106	0x3e0e5f9e	0.13903663
107	0xbe230c7a	-0.15922728
108	0xbdeba74c	-0.11506519
109	0x3ca27842	0.019832734
110	0xbe138f41	-0.14410116
111	0x3dfc6158	0.12323254
112	0x3d89e258	0.06732625
113	0x3dbbe693	0.09174838
114	0xbde62c50	-0.11238921
115	0x3c0bc395	0.008530517
116	0xbe0e93b5	-0.13923533
117	0xbe1d80d6	-0.15381178
118	0xbcd944fe	-0.026522156
119	0xbda5ab99	-0.0808937
120	0xbe1d579e	-0.15365455
121	0x3da6f602	0.08152391
122	0xbcfadbe8	-0.030622438
123	0x3e194605	0.14968117
124	0xbda5be87	-0.08092981
125	0x3da3c758	0.07997006
126	0xbb850f61	-0.004060671
127	0x3d0d0031	0.03442401
128	0x3dd556ed	0.104169704
129	0x3d348e66	0.044081114
130	0x3c51adbd	0.01279777
131	0xbcd3f72d	-0.025874699
132	0x3d83f8fe	0.06443976
133	0x3e13fa1c	0.14450878
134	0x3d7f91c3	0.06239487
135	0xbe144475	-0.1447924
136	0x3d28ff78	0.04125926
137	0xbc922c7c	-0.017843477
138	0x3e076616	0.13222536
139	0xbd2c2427	-0.042026665
140	0xbda87c71	-0.0822686
141	0x3dcab97e	0.09898661
142	0xbdefa867	-0.11702042
143	0xbe157980	-0.1459713
144	0x3d5117cc	0.051048085
145	0x3e0621c7	0.13098823
146	0x3e1294bf	0.14314555
147	0xbe027946	-0.12741575
148	0x3e1c9d15	0.15294297
149	0x3dcbb0fa	0.09945865
150	0xbe0413d7	-0.12898193
151	0xbdcfc482	-0.10144903
152	0xbd88c250	-0.06677687
153	0xbe289acf	-0.16465305
154	0x3de66619	0.11249942
155	0xbb578c00	-0.0032889843
156	0xbcc528a4	-0.02406723
157	0xbcf422a9	-0.029801684
158	0xbdb85bc9	-0.09001882
159	0xbd45b1d0	-0.04826528
160	0x3deacc6b	0.11464771
161	0x3ddb15e1	0.106975324
162	0xbc801f92	-0.015640054
163	0xbe0bae55	-0.13640721
164	0xbe0ea390	-0.13929582
165	0xbe00a1e9	-0.12561764
166	0xbe1215c6	-0.14266118
167	0xbd981dad	-0.07427535
168	0x3d6f8b42	0.058482416
169	0xbd082e5f	-0.033247348
170	0x3de88680	0.11353779
171	0x3d679730	0.056540668
172	0x3dcbd43c	0.0995259
173	0x3de15311	0.11002172
174	0xbe12c1d3	-0.1433175
175	0xbde610db	-0.11233684
176	0xbdbc6acc	-0.092000574
177	0x3c855328	0.016275004
178	0x3d80ccb3	0.06289043
179	0xbd97edfb	-0.07418438
180	0xbda4214e	-0.08014165
181	0x3cb960be	0.022629138
182	0x3dffddb6	0.1249346
183	0x3e084560	0.13307714
184	0x3d9b62bf	0.07587194
185	0x3d63057a	0.055425145
186	0x3c308a22	0.010775121
187	0x3d28baa6	0.041193627
188	0xbc8f63ad	-0.017503584
189	0x3d0241df	0.0318011
190	0x3ddaba5d	0.10680077
191	0xbe1f4dbb	-0.15556996
192	0xbe1677d9	-0.14694156
193	0xbde85f6b	-0.113463245
194	0x3b91ed43	0.0044533326
195	0x3da2ff07	0.07958799
196	0x3e2a64b6	0.1663998
197	0x3dae9347	0.08524185
198	0xbe273aad	-0.16330977
199	0x3d83ce53	0.064358376
200	0x3cc75cfe	0.024336334
201	0x3cf43726	0.029811453
202	0xbe00652e	-0.12538597
203	0xbe14954b	-0.14510076
204	0xbe085213	-0.13312559
205	0xbdc064fe	-0.09394263
206	0x3dce5775	0.10075275
207	0x3e26b32d	0.16279288
208	0xbe1f5a70	-0.15561843
209	0x3de44feb	0.11148056
210	0x3d590b09	0.05298904
211	0xbd128ca2	-0.03577865
212	0xbbe1cbd5	-0.0068907537
213	0x3e284c76	0.16435418
214	0x3d016208	0.03158763
215	0xbd66eecf	-0.05638009
216	0x3dee1822	0.11625697
217	0x3dcf09d4	0.101092964
218	0x3dd99b99	0.10625381
219	0x3d54b061	0.05192602
220	0xbda37e1e	-0.07983039
221	0x3dcaea8d	0.09908018
222	0xbda63239	-0.08115048
223	0xbd8c1667	-0.068402104
224	0x3dfadd7e	0.122492775
225	0x3decf97a	0.115710214
226	0x3dbf9c57	0.09355991
227	0x3d98fa1b	0.07469579
228	0xbd5bdaa6	-0.053675316
229	0xbd7b4cac	-0.061352417
230	0xbe20cf80	-0.15704155
231	0x3d704207	0.05865672
232	0xbb03aa08	-0.002009036
233	0x3ccb5fcb	0.024825951
234	0x3e167ea2	0.14696744
235	0x3b0d9ec0	0.0021609515
236	0xbe0c5060	-0.13702536
237	0xbe235205	-0.15949257
238	0x3e2069ca	0.15665355
239	0x3b161eb5	0.0022906486
240	0x3e214a0a	0.157509
241	0xbd453d46	-0.048154138
242	0xbe1e2829	-0.15445007
243	0x3de687b7	0.11256354
244	0x3d821075	0.06350795
245	0x3cbfd158	0.023415253
246	0x3e07eead	0.13274641
247	0x3ccfc09f	0.025360404
248	0xbdb1cc19	-0.08681507
249	0xbdefcb10	-0.11708653
250	0xbd4b1b4d	-0.049586583
251	0xbd934a3b	-0.07191893
252	0x3e159c94	0.14610511
253	0xbd321b62	-0.043483146
254	0x3ddd419e	0.10803531
255	0x3e145baa	0.14488092

conv_block_3.2.bias f4 [8]
0	0xbe05ac05	-0.13053901
1	0x3e0e62ae	0.13904831
2	0xbe073818	-0.13204992
3	0x3e0a933a	0.13532725
4	0x3da8feba	0.0825171
5	0x3e1796af	0.14803575
6	0x3de51bec	0.11186966
7	0xbc71db25	-0.014761721

conv_block_3.3.weight f4 [8]
0	0x3f7f9b09	0.9984594
1	0x3f7fbc6a	0.9989687
2	0x3f7f6f1a	0.997789
3	0x3f7fe411	0.99957377
4	0x3f7fe312	0.99955857
5	0x3f802962	1.0012629
6	0x3f801f05	1.0009466
7	0x3f801363	1.0005916

conv_block_3.3.bias f4 [8]
0	0xba9b87b9	-0.001186601
1	0xb9b8d919	-0.00035256965
2	0xbb17ebc1	-0.0023181292
3	0xba789ddd	-0.00094839727
4	0xbae1a3ae	-0.0017214918
5	0x3a64f154	0.00087334705
6	0x3a9aa912	0.0011799654
7	0xbad197c7	-0.0015990668

conv_block_3.3.running_mean f4 [8]
0	0xbe939e2b	-0.2883161
1	0xbdb43ee4	-0.08801058
2	0xbe9246b1	-0.28569558
3	0x3db68421	0.0891192
4	0xbdbde080	-0.092713356
5	0x3e2793f6	0.16365036
6	0x3e6c890f	0.23099159
7	0xbd90523c	-0.07046935

conv_block_3.3.running_var f4 [8]
0	0x3e505eda	0.20348683
1	0x3e81940e	0.2530827
2	0x3e7237c8	0.23654091
3	0x3e871a92	0.2638746
4	0x3e853c5c	0.26022613
5	0x3e8a3ccc	0.2699951
6	0x3e8750f4	0.2642895
7	0x3e0e9569	0.13924183

conv_block_3.5.weight f4 [8, 8, 3, 3]
0	0xbdf23a56	-0.11827533
1	0xbd2f45cb	-0.04279117
2	0x3d444a8b	0.047922652
3	0xbd762a55	-0.060098965
4	0x3c8eeef1	0.01744792
5	0x3dc3448e	0.0953456
6	0xbdec5010	-0.11538708
7	0x3d6e7f06	0.058226608
8	0x3d559015	0.05213936
9	0xbc1a015c	-0.009399738
10	0x3dd82fc1	0.10555983
11	0x3d7b052e	0.061284237
12	0x3d54de64	0.0519699
13	0xbdebaf1f	-0.11508011
14	0xbdd71ec4	-0.10503915
15	0x3dde241a	0.108467296
16	0xbd3af5fd	-0.04564475
17	0xbd16c4a1	-0.036808614
18	0x3d167a97	0.036738005
19	0x3dced4af	0.1009916
20	0xbccafe54	-0.024779476
21	0x3dc4e01d	0.09613059
22	0x3c8463df	0.016160903
23	0xbdc4cc68	-0.096093
24	0x3cae480f	0.021274595
25	0x3dd062b4	0.10175076
26	0xbcd77fcb	-0.026306054
27	0x3d4e7489	0.050404105
28	0x3dbf4849	0.09339959
29	0x3d362528	0.04446903
30	0x3c48d9af	0.012258931
31	0x3ce7c2e9	0.028291183
32	0xbbf04232	-0.00733211
33	0x3ce1e571	0.027575227
34	0xbdb20e25	-0.08694104
35	0xbd10f3b5	-0.035388667
36	0xbc311657	-0.010808549
37	0x3d18163d	0.037130583
38	0x3cdced36	0.02696858
39	0x3d84d809	0.06486518
40	0xbddc01ca	-0.10742529
41	0xbd8bad1d	-0.06820128
42	0x3de18f8d	0.11013708
43	0xbd86bf8f	-0.06579506
44	0xbd100250	-0.035158455
45	0x3d9a2567	0.07526665
46	0xbd32942d	-0.043598343
47	0xbc9ec2a6	-0.019379925
48	0x3cfb6274	0.030686595
49	0x3d15d868	0.036583334
50	0x3dc9c3ab	0.09851774
51	0x3d6ccf78	0.057815045
52	0x3b21db6d	0.0024697438
53	0xbde727c1	-0.11286879
54	0xbdcb3b35	-0.09923402
55	0x3ce0b98c	0.027432226
56	0x3d5af93b	0.05346034
57	0xbde3406f	-0.11096274
58	0xbd208515	-0.039189417
59	0xbd1083b3	-0.03528185
60	0xbd4f5dd0	-0.050626576
61	0x3d8fbd01	0.070184715
62	0x3d87c853	0.06630006
63	0xbd8a3a34	-0.067493826
64	0x3d7d1cdd	0.061795104
65	0xbbdc7106	-0.0067273406
66	0x3dc5f84e	0.09666501
67	0xbd9e745a	-0.07737036
68	0x3de709b6	0.11281149
69	0xbdebeb9a	-0.11519547
70	0x3dbd837d	0.09253595
71	0x3dbd155d	0.0923259
72	0x3daa81e6	0.083255574
73	0xbc93a4f0	-0.018022984
74	0x3cae3688	0.021266237
75	0x3d86d352	0.06583275
76	0x3d57dc65	0.05270042
77	0xbd99b419	-0.07505054
78	0xbd61f38b	-0.0551639
79	0x3d45c7cf	0.048286255
80	0x3d8ee686	0.069775626
81	0xbde118b0	-0.10991037
82	0x3de50982	0.11183454
83	0xbcf42e02	-0.029807094
84	0xbd03fa61	-0.0322212
85	0xbd82d791	-0.06388772
86	0xbdee6edf	-0.11642241
87	0x3dbb8770	0.09156692
88	0xbd02e7f5	-0.031959493
89	0xbd02d2d2	-0.031939335
90	0x3dc5eadc	0.096639365
91	0xbcc8560c	-0.024455093
92	0xbd6d4ddf	-0.05793559
93	0x3d0336b9	0.03203461
94	0x3db8422c	0.08996996
95	0xbce6d4bc	-0.028177612
96	0x3dd5da9e	0.104420885
97	0xbd4a1952	-0.049340554
98	0xbd297b89	-0.041377578
99	0xbdb467ad	-0.08808837
100	0xbdcbb78b	-0.099471174
101	0xbdf23542	-0.11826564
102	0x3da02fd9	0.07821626
103	0x3d99de9c	0.075131625
104	0x3d37ef32	0.04490585
105	0x3d161620	0.036642194
106	0x3d62fc93	0.055416655
107	0x3d21f0df	0.039536353
108	0xbd20e370	-0.0392794
109	0x3dd3fbb2	0.103507414
110	0x3c8b4bff	0.017004011
111	0xbd748b04	-0.059702888
112	0xbd7d1033	-0.061783027
113	0x3d85415b	0.06506606
114	0xbd9efbe1	-0.07762886
115	0x3c70153d	0.014653501
116	0x3de51686	0.11185937
117	0xbdd11069	-0.10208208
118	0x3de763b9	0.112983175
119	0xbda0bee8	-0.078489125
120	0x3d4c56f5	0.049887616
121	0x3db71c7c	0.0894098
122	0x3d71de64	0.05904998
123	0x3ba5f49f	0.0050645615
124	0x3d710dec	0.058851168
125	0xbdb4aa04	-0.088214904
126	0x3d857894	0.06517139
127	0xbd7540c2	-0.05987621
128	0x3b46ae11	0.0030316154
129	0x3dca5348	0.09879166
130	0x3d850011	0.06494153
131	0xbc8c0cfd	-0.017096037
132	0x3d0eaf26	0.034835003
133	0xbd21a357	-0.039462414
134	0x3cc7ce65	0.024390409
135	0x3db11e73	0.08648386
136	0xbb97bfeb	-0.0046310327
137	0x3de6ede5	0.112758435
138	0x3d90a97e	0.07063578
139	0x3d8e7f59	0.069578834
140	0x3db0805a	0.08618231
141	0xbd3af7c8	-0.04564646
142	0x3d1df955	0.03856786
143	0x3d24973b	0.040183287
144	0x3cca88df	0.024723468
145	0xbd2ba333	-0.041903686
146	0x3d79d14a	0.06099061
147	0xbd714e7b	-0.058912735
148	0x3be0417c	0.006843744
149	0x3dd6a5e1	0.10480858
150	0x3da52d18	0.080652416
151	0x3d33447e	0.04376649
152	0x3c595fbc	0.013267454
153	0xbca316df	-0.019908367
154	0x3d0766bc	0.03305696
155	0xbbb16b4e	-0.005414403
156	0x3c8bd43c	0.017068975
157	0xbd2c3ecb	-0.04205207
158	0x3d7f9320	0.06239617
159	0x3dbd18a5	0.09233216
160	0xbceebee2	-0.029143754
161	0xbdd60d6f	-0.10451781
162	0xbd8204e0	-0.06348586
163	0x3ddfd01d	0.10928366
164	0x3cff4f04	0.031165607
165	0x3d71e48d	0.059055854
166	0x3da1b950	0.07896674
167	0xbd98d4c4	-0.07462457
168	0x3d63c627	0.055608895
169	0xbde9b4fe	-0.11411475
170	0x3d8cdb9f	0.06877827
171	0x3da0e544	0.07856229
172	0xbbad455b	-0.005287809
173	0xbddf9bf3	-0.10918417
174	0x3db8835d	0.090094306
175	0xbcc4478e	-0.023959901
176	0xbca6682f	-0.02031335
177	0xbd8466f3	-0.064649485
178	0x3d69036d	0.056888033
179	0xbb85b266	-0.0040801046
180	0xbd85cefc	-0.0653362
181	0x3bd2bd74	0.006431276
182	0x3deb2bed	0.114829876
183	0xbda426c1	-0.08015204
184	0x3db4d278	0.08829206
185	0xbd94a277	-0.0725755
186	0x3d167803	0.036735546
187	0x3d320bf4	0.04346843
188	0xbd598873	-0.053108644
189	0xbdb158fd	-0.08659551
190	0xbdc0fa61	-0.09422756
191	0x3d44392f	0.047906097
192	0x3da8fa97	0.08250921
193	0x3d59d6b2	0.053183265
194	0x3d1341b7	0.035951342
195	0xbce02287	-0.027360214
196	0x3ce89991	0.028393539
197	0x3ccc107e	0.024910208
198	0xbcfe938b	-0.031076213
199	0x3cca169a	0.02466898
200	0x3d31a6a0	0.043371797
201	0xbd4e4623	-0.050359856
202	0x3ceb4cde	0.028723177
203	0x3d3ccf36	0.04609605
204	0xbc477dda	-0.012176001
205	0x3d32b18a	0.043626346
206	0x3d9c2e31	0.07625998
207	0xbdc2c3cb	-0.09510001
208	0x3c9a99c9	0.018872159
209	0x3bfba9e5	0.007680165
210	0x3d5ecd9f	0.054395314
211	0xbd30d87a	-0.0431752
212	0x3d87bd2b	0.06627878
213	0xbb74aae1	-0.0037333297
214	0xbdbd3f9a	-0.09240647
215	0x3dcc51fc	0.09976575
216	0xbdb0b5dc	-0.08628437
217	0xbc942908	-0.018085971
218	0x3d8de3b8	0.069281995
219	0xbd4984a2	-0.049198754
220	0x3da1d273	0.07901468
221	0x3cc0c71b	0.02353244
222	0xbda00371	-0.078131564
223	0x3de2b043	0.110687755
224	0x3dae1bf1	0.08501423
225	0x3c07edcb	0.00829644
226	0xbdbd623e	-0.09247254
227	0x3c972cd6	0.018453997
228	0xbd9aed6c	-0.07564816
229	0xbdce0399	-0.1005928
230	0x3debb0c5	0.115083255
231	0x3deb5daf	0.11492478
232	0x3d34fa71	0.044184152
233	0x3ddc3a68	0.107533276
234	0x3c8960d2	0.0167698
235	0x3dbeec4b	0.09322413
236	0xbdaacc85	-0.0833979
237	0xbd86e610	-0.0658685
238	0x3d70bf63	0.05877627
239	0x3dde2c80	0.108483315
240	0xbdd16eb6	-0.102261946
241	0x3d091c19	0.03347406
242	0x3d631341	0.055438284
243	0xbc6cfef0	-0.014465079
244	0xbd628665	-0.05530395
245	0xbdaecbb1	-0.08534945
246	0x3dd212fc	0.10257527
247	0xbc883bbf	-0.016630052
248	0x3cf5d0b6	0.030006748
249	0xbc0dbfee	-0.008651717
250	0xbc8e1712	-0.017344985
251	0x3cf7c516	0.030245345
252	0x3d9bc3c4	0.07605699
253	0x3d29fc7f	0.041500565
254	0xbda074a7	-0.0783475
255	0xbde41051	-0.111359246

conv_block_3.5.bias f4 [8]
0	0x3bd16e0d	0.006391293
1	0x3da2402d	0.07922397
2	0x3dc46450	0.095894456
3	0x3d9ca245	0.07648138
4	0x3b8e22d7	0.0043376493
5	0xbd5c2f01	-0.053755764
6	0xbd826711	-0.063673146
7	0x3d8a42e6	0.06751041

conv_block_4.0.weight f4 [8]
0	0x3f802a91	1.001299
1	0x3f7f9b84	0.99846673
2	0x3f7ff6a6	0.9998573
3	0x3f800739	1.0002204
4	0x3f800561	1.0001642
5	0x3f802135	1.0010134
6	0x3f7fb43a	0.9988438
7	0x3f7fcd82	0.99922955

conv_block_4.0.bias f4 [8]
0	0x3ae8da14	0.0017765188
1	0xbab98e4e	-0.001415679
2	0xba19a0ea	-0.0005860465
3	0x3a3f4fc0	0.00072979555
4	0xb9cfbc1a	-0.00039622263
5	0x3a81cef5	0.0009903597
6	0xb979fd32	-0.00023840813
7	0xbaadfe76	-0.0013274688

conv_block_4.0.running_mean f4 [8]
0	0x3e859157	0.26087448
1	0x3ee4eb42	0.44710737
2	0x3ec151e8	0.37757802
3	0x3ebdea40	0.3709278
4	0x3e5a1489	0.21296896
5	0x3e6ccc87	0.23124896
6	0xbdbca3d3	-0.092109345
7	0x3d710820	0.05884564

conv_block_4.0.running_var f4 [8]
0	0x3dc0d65c	0.09415886
1	0x3e2320fc	0.15930551
2	0x3deb622e	0.11493336
3	0x3d8ff9ee	0.07030092
4	0x3d801160	0.06253314
5	0x3e18927d	0.14899631
6	0x3d93c1ee	0.072147235
7	0x3d738d72	0.059461065

conv_block_4.2.weight f4 [16, 8, 3, 3]
0	0x3c8e8424	0.017396994
1	0xbde425a1	-0.1113999
2	0x3d4efeb6	0.05053588
3	0x3d81a6ec	0.06330666
4	0x3c966b7c	0.0183618
5	0xbd865df4	-0.06560889
6	0x3dde4626	0.108532235
7	0x3d3319a5	0.04372563
8	0xbd1b4e4f	-0.037916478
9	0xbda3ebbd	-0.08003948
10	0xbabea6f0	-0.0014545601
11	0x3c76810f	0.015045418
12	0xbc37af0c	-0.011211168
13	0x3c7afe47	0.0153194135
14	0xbbb07b90	-0.0053858235
15	0x3d6f582d	0.0584337
16	0x3ddb70fa	0.10714908
17	0x3c58e210	0.013237491
18	0xbc091c21	-0.008368523
19	0xbd83bf08	-0.06432921
20	0xbde10c18	-0.10988635
21	0xbd50c797	-0.050971594
22	0xbdbcb244	-0.09213689
23	0x3c8c1c45	0.017103324
24	0x3c6b52df	0.01436302
25	0x3d53f59a	0.051747896
26	0xbdcda4c7	-0.100411944
27	0x3cb26be5	0.021779964
28	0xbc4ae5aa	-0.012383858
29	0xbc8ba810	-0.017047912
30	0x3b841085	0.0040302896
31	0xbde1b0f3	-0.110200785
32	0xbdacc02b	-0.08435091
33	0x3cd88e6f	0.026435105
34	0x3dc3b5a5	0.0955613
35	0xbd229c53	-0.039699864
36	0xbd55d57d	-0.05220555
37	0xbdbd1420	-0.09232354
38	0xbc0b62eb	-0.008507471
39	0x3d2d70ba	0.042343833
40	0x3c6dc30b	0.014511834
41	0xbd8db318	-0.06918925
42	0xbd5ef7ad	-0.05443542
43	0xbcfa8c77	-0.030584557
44	0x3d2b0093	0.041748594
45	0x3ca40a03	0.020024305
46	0xbbdf5e0d	-0.0068166316
47	0x3d87a0e4	0.06622484
48	0x3db46d94	0.08809963
49	0xbda0f91c	-0.07860014
50	0x3dca0f68	0.0986622
51	0x3d226fa6	0.039657257
52	0x3c820cac	0.015875183
53	0xbdacdd6d	-0.08440671
54	0xbdd7b6f4	-0.105329424
55	0xbcba93eb	-0.02277561
56	0xbdd58c92	-0.10427202
57	0x3d599316	0.053118788
58	0xbdbf0a8b	-0.09328183
59	0x3c11b7d3	0.008893925
60	0x3df1074a	0.117689684
61	0x3dcbe837	0.09956401
62	0x3da3a3d4	0.07990232
63	0xbc638f19	-0.013889098
64	0x3dc6253e	0.09675072
65	0xbd9d76da	-0.07688685
66	0xbd8517a5	-0.064986505
67	0xbc9b0e2c	-0.018927656
68	0xbdc91702	-0.098188415
69	0x3baa840d	0.00520373
70	0x3cb05a55	0.021527449
71	0x3da03042	0.078217044
72	0xbd0afe10	-0.0339337
73	0x3dddc49b	0.10828515
74	0x3cf0ae5c	0.029380016
75	0x3b8787ab	0.004136046
76	0xbdcd83be	-0.100348935
77	0x3d829230	0.06375539
78	0xbddc81b2	-0.10766925
79	0x3d0e56e8	0.03475085
80	0x3d5573cc	0.052112386
81	0x3d657eca	0.05602912
82	0xbdd4f831	-0.10398901
83	0xbd8165c6	-0.0631824
84	0xbda60c50	-0.08107817
85	0x3c8cf3ea	0.017206151
86	0xbbceed09	-0.006314878
87	0x3dcd7cfe	0.10033606
88	0x3db5f7ad	0.08885131
89	0xbde9eab2	-0.11421718
90	0xbd97b889	-0.07408244
91	0x3cb90c21	0.022588791
92	0x3d0d0b90	0.034434855
93	0xbddfe69b	-0.109326564
94	0xbd8d6258	-0.06903523
95	0xbcfa5e9d	-0.030562693
96	0x3dcc7268	0.09982759
97	0xbc96471d	-0.018344456
98	0x3b1fae18	0.0024365243
99	0x3d6bf03a	0.057602145
100	0x3da1b8e0	0.0789659
101	0xbda9f621	-0.082988985
102	0x3c893875	0.016750554
103	0x3da359bb	0.07976099
104	0xbde5fc86	-0.11229806
105	0xbd9d1600	-0.07670212
106	0xbc693dbd	-0.014235911
107	0xbd82816a	-0.0637234
108	0x3da7ab8f	0.08187019
109	0xbd3ddf2b	-0.046355408
110	0x3d4f90d1	0.050675217
111	0x3d94861d	0.072521426
112	0x3dae187e	0.08500765
113	0x3d891ad0	0.06694567
114	0x3dbe813a	0.09301992
115	0x3db377f9	0.08763117
116	0x3c22f261	0.009945483
117	0xbc35e695	-0.011102338
118	0x3d950562	0.07276417
119	0xbd6fc900	-0.058541298
120	0xbda370e3	-0.07980516
121	0xbc64e294	-0.013970036
122	0xbde8e4ea	-0.11371787
123	0x3d2e2c4f	0.042522725
124	0x3d31f841	0.043449644
125	0xbd5faa2a	-0.05460564
126	0x3d89e038	0.067322195
127	0x3d2f2982	0.042764194
128	0xbce6e2b8	-0.02818428
129	0xbde5272a	-0.111891106
130	0xbdc63a65	-0.096791066
131	0x3d89f265	0.06735686
132	0x3db9cdf4	0.090724856
133	0xbb1347c2	-0.002247319
134	0x3c24b6b1	0.010053323
135	0x3debfa39	0.115223356
136	0xbc9c21bc	-0.019059055
137	0xbdbb6acd	-0.0915123
138	0xbde70fad	-0.11282287
139	0xbdd749eb	-0.105121456
140	0x3dbecb7c	0.09316155
141	0x3d58fdd8	0.05297646
142	0x3dc55e29	0.096371
143	0x3d859a1d	0.065235354
144	0x3d1ef763	0.038810145
145	0xbd37844d	-0.044803906
146	0x3d1bd758	0.038047165
147	0xbd6a5ee7	-0.057219412
148	0xbd7f3ed2	-0.06231577
149	0xbdb30f34	-0.08743134
150	0x3cd3f2a6	0.02587254
151	0x3d82de57	0.06390064
152	0xbcf27ad7	-0.02959959
153	0x3de394db	0.11112376
154	0xbd89c54c	-0.067270845
155	0x3de600ed	0.11230645
156	0x3dd04c08	0.10170752
157	0xbc143354	-0.009045441
158	0x3d863cb4	0.06554547
159	0x3d93bd3e	0.072138295
160	0x3c83e32f	0.01609954
161	0x3dce6c97	0.100793056
162	0xbce3c606	-0.027804386
163	0xbce28d78	-0.027655348
164	0x3c81e58d	0.015856529
165	0xbd61f007	-0.05516055
166	0xbd23d7d8	-0.040000767
167	0xbd99f971	-0.0751828
168	0xbdf0425e	-0.117314085
169	0xbd2266d4	-0.039648846
170	0xbd861ac4	-0.06548074
171	0x3d90d053	0.07070985
172	0xbda9465b	-0.08265372
173	0x3dc457c6	0.09587054
174	0xbde99d6b	-0.11406978
175	0xbd02416b	-0.03180067
176	0x3ddc95f2	0.10770787
177	0xbd870c29	-0.06594116
178	0xbce67c64	-0.028135486
179	0xbdddc978	-0.10829443
180	0xbd822423	-0.06354549
181	0xbde0d4e3	-0.10978105
182	0xbd82411b	-0.06360074
183	0x3deeb9cd	0.116565324
184	0xbd80ce6d	-0.062893726
185	0x3dbc2079	0.09185881
186	0xbd8e0ed0	-0.06936419
187	0xbd02e046	-0.031952165
188	0xbde02a67	-0.109455876
189	0x3cc3fcc2	0.023924235
190	0xbd72bd80	-0.059262753
191	0xbdd27d2d	-0.10277782
192	0xbdc64c5c	-0.09682533
193	0x3bded887	0.0068007144
194	0x3dcb38ce	0.09922944
195	0x3b4a062a	0.0030826428
196	0x3d84adb5	0.064784445
197	0xbd8cb645	-0.06870703
198	0x3ce4b10e	0.027916458
199	0x3d5d621a	0.054048635
200	0xbddef4af	-0.108865134
201	0xbdd80b43	-0.10549023
202	0x3d289f53	0.04116757
203	0xbcef3632	-0.029200647
204	0x3ceb52e3	0.028726047
205	0xbd5166fc	-0.051123604
206	0xbdda2809	-0.10652167
207	0xbd688580	-0.05676794
208	0x3da41df4	0.080135256
209	0xbd826357	-0.06366604
210	0xbc24b1de	-0.0100521725
211	0xbd6af406	-0.057361625
212	0x3dbc0f24	0.09182575
213	0x3d673a3f	0.056452032
214	0x3c735b6a	0.014853338
215	0x3d06fb0a	0.032954253
216	0x3de30411	0.1108476
217	0x3c22c75c	0.009935226
218	0xbdb272ec	-0.08713326
219	0xbd98a6c9	-0.07453687
220	0xbd392e14	-0.04520996
221	0x3db3e942	0.08784725
222	0xbdb517bc	-0.088424176
223	0x3db31db3	0.08745899
224	0x3dd36419	0.103218265
225	0xbbfa5eed	-0.0076407106
226	0xbde9870c	-0.11402711
227	0xbcef0a33	-0.029179668
228	0x3ddaa977	0.10676854
229	0x3dc7f09a	0.09762688
230	0xbcadf9b2	-0.021237228
231	0xbc96d8cf	-0.01841393
232	0x3d5df1ba	0.054185607
233	0x3d8bd2af	0.06827294
234	0x3c55d873	0.013052094
235	0xbd96c643	-0.07362034
236	0x3d9d7d5c	0.07689926
237	0xbd28134a	-0.04103402
238	0xbdabee67	-0.08395081
239	0x3ca7df0f	0.020492105
240	0x3d0b39aa	0.03399054
241	0x3dc3849f	0.0954678
242	0x3dd145b6	0.102183744
243	0x3de6d941	0.11271907
244	0x3d9aa5ea	0.07551177
245	0xbc11d3db	-0.008900608
246	0xbdeebb6e	-0.11656843
247	0xbddc43dd	-0.107551314
248	0x3d68143c	0.056659922
249	0xbde01967	-0.10942345
250	0xbdd196d7	-0.102338485
251	0xbda6d6ff	-0.08146476
252	0xbd0449a0	-0.032296777
253	0x3c084978	0.008318298
254	0xbcfef6f3	-0.031123614
255	0x3d390a00	0.045175552

conv_block_4.2.bias f4 [16]
0	0x3d29ea40	0.041483164
1	0xbdb6207f	-0.08892917
2	0xbdb29931	-0.08720625
3	0xbdb09b15	-0.086233296
4	0xbde6aeab	-0.11263784
5	0x3d167196	0.036729418
6	0xbdc6aa99	-0.09700508
7	0xbdefeb88	-0.11714846
8	0x3daec14c	0.08532962
9	0xbd58102d	-0.0527498
10	0xbbef709b	-0.007307125
11	0x3dd7124d	0.105015375
12	0xbd07bbcc	-0.03313808
13	0xbdc99d47	-0.098444514
14	0x3c91a72c	0.01777991
15	0xbd726378	-0.059176892

conv_block_4.3.weight f4 [16]
0	0x3f800e98	1.0004454
1	0x3f7ffb17	0.9999251
2	0x3f7f9dd4	0.998502
3	0x3f7feddc	0.9997232
4	0x3f7fbf5a	0.99901354
5	0x3f802771	1.0012037
6	0x3f7ffd3a	0.9999577
7	0x3f802d47	1.0013818
8	0x3f7fb8cb	0.99891347
9	0x3f8017e1	1.0007287
10	0x3f7fed22	0.9997121
11	0x3f7fb2c3	0.99882144
12	0x3f7fca75	0.999183
13	0x3f7feea6	0.99973524
14	0x3f80074a	1.0002224
15	0x3f8013d1	1.0006047

conv_block_4.3.bias f4 [16]
0	0x3a1abc2c	0.00059026736
1	0x39c1cfb7	0.00036966588
2	0x39451fe1	0.0001879926
3	0xb9a41cde	-0.00031302025
4	0xba682722	-0.0008855929
5	0x39bc172c	0.0003587542
6	0x39c27198	0.00037087197
7	0x3a396c53	0.00070733315
8	0xb9571a0a	-0.00020513698
9	0x3aa6758f	0.001269983
10	0xb9bd8994	-0.00036151393
11	0xb98f0a11	-0.00027282586
12	0xb9d4419e	-0.0004048468
13	0xba8ac4bd	-0.0010587197
14	0xb94f92e2	-0.00019795776
15	0x3a6d3ca0	0.00090498663

conv_block_4.3.running_mean f4 [16]
0	0xbd786124	-0.060639516
1	0xbd5f513e	-0.054520838
2	0xbe8faf25	-0.28063312
3	0x3d0c0090	0.034180224
4	0xbeab2678	-0.33427787
5	0x3e4139de	0.18869731
6	0x3c514b28	0.012774266
7	0xbd5cb1a9	-0.053880367
8	0x3e4b240c	0.1983797
9	0xbea1ff6a	-0.31640178
10	0x3e14f649	0.14547075
11	0x3b057244	0.0020362297
12	0xbda9c116	-0.08288781
13	0xbdc57f46	-0.09643416
14	0x3e1727c1	0.14761259
15	0xbc627bb3	-0.0138234375

conv_block_4.3.running_var f4 [16]
0	0x3e832c36	0.25619668
1	0x3e47877c	0.19485277
2	0x3e65ca99	0.22440566
3	0x3e7823ba	0.24232379
4	0x3ead7bbb	0.3388346
5	0x3e9a096f	0.30085322
6	0x3e118866	0.14212188
7	0x3e3b3096	0.18280253
8	0x3e834819	0.25640944
9	0x3eec4cc6	0.46152323
10	0x3e43558b	0.19075601
11	0x3de5c929	0.11220009
12	0x3e4addc8	0.19811165
13	0x3e3ccb94	0.18437034
14	0x3e61498e	0.22000715
15	0x3e0f262c	0.13979405

conv_block_4.5.weight f4 [16, 16, 3, 3]
0	0xbd4b62d6	-0.049654804
1	0x3c744ab8	0.014910392
2	0xbbf8c331	-0.007591628
3	0x3cf8511e	0.030312117
4	0x3d79d044	0.060989633
5	0xbcc58e44	-0.02411569
6	0xbd5a6f19	-0.053328607
7	0x3d3cacaf	0.04606312
8	0x3d99c1fd	0.075077035
9	0xbd29cdff	-0.04145622
10	0xbd31e988	-0.043435603
11	0xbd53f21c	-0.051744565
12	0x3d1b0347	0.037844922
13	0x3d90f7b3	0.07078495
14	0xbd9da758	-0.07697934
15	0xbb130917	-0.0022435838
16	0x3d15c476	0.036564313
17	0x3d93e6bb	0.07221743
18	0xbd35690d	-0.044289637
19	0x3cccacc9	0.024984734
20	0xbd21b62d	-0.039480377
21	0xbd7229bd	-0.059121836
22	0xbd38587c	-0.04500626
23	0x3d9ec312	0.077520505
24	0xbd341b07	-0.043971088
25	0xbd5d9c74	-0.054104283
26	0xb6d87b50	-6.451657e-06
27	0xbd963157	-0.073336296
28	0x3da563a3	0.08075645
29	0x3d499ea6	0.049223565
30	0x3d0370b0	0.03208989
31	0xbda3d8d1	-0.08000339
32	0xbda06671	-0.07832039
33	0x3c0d722c	0.008633178
34	0xbd37a90a	-0.044838943
35	0x3d0590cd	0.032608796
36	0x3b037a4a	0.0020061904
37	0x3c994b85	0.018712768
38	0xbc68a52b	-0.014199535
39	0xbce0de7d	-0.02744984
40	0xbd311159	-0.043229435
41	0x3d662d3e	0.05619549
42	0xbd2d3081	-0.042282585
43	0x3da8cbde	0.082420096
44	0x3d89d461	0.06729961
45	0x3d475aff	0.048670765
46	0x3c1aa048	0.009437628
47	0xbd39eca7	-0.045391705
48	0xbd992b0f	-0.07478916
49	0x3d69f930	0.05712241
50	0xbda9c149	-0.08288819
51	0xbd626db7	-0.055280413
52	0x3d8a0f37	0.06741183
53	0x3d8c3cfd	0.0684757
54	0x3cad7c16	0.021177333
55	0xbd5faef0	-0.054610193
56	0xbc44a52c	-0.012002271
57	0x3d736b17	0.0594283
58	0xbd8b66a4	-0.068066865
59	0xbd957cba	-0.0729918
60	0x3d24cf0c	0.040236518
61	0x3c872f81	0.016502144
62	0xbd23b70c	-0.03996949
63	0x3d7eeeb4	0.062239364
64	0x3daa57c3	0.083175205
65	0xbd1f77e3	-0.038932692
66	0x3d5cf41c	0.05394374
67	0x3d546a35	0.0518591
68	0x3d5a2191	0.053254668
69	0x3d443f20	0.047911763
70	0x3da2b122	0.07943942
71	0x3d7523d1	0.05984861
72	0x3d23c3e7	0.03998175
73	0x3d94ec5f	0.07271647
74	0xbd0c3e92	-0.03423936
75	0xbda99629	-0.08280594
76	0xbda28d72	-0.07937135
77	0x3d180aa5	0.037119526
78	0x3d5757ef	0.052574094
79	0xbd60c5aa	-0.054876007
80	0x3d6ac594	0.05731733
81	0xbd117642	-0.03551317
82	0xbcbef152	-0.02330843
83	0x3d5c10a5	0.05372681
84	0xbc2623ef	-0.010140403
85	0xbd901104	-0.070344955
86	0xbc4145b9	-0.011796408
87	0xbd6f7625	-0.05846228
88	0x3d26476f	0.040595468
89	0xbd548f45	-0.051894445
90	0xbd705b88	-0.05868104
91	0x3d80764a	0.06272562
92	0xbd7cc636	-0.061712466
93	0xbc2a6907	-0.010401017
94	0xbd8dfd72	-0.069331065
95	0x3da65633	0.0812191
96	0xbd9d6ed8	-0.076871574
97	0x3c454a28	0.012041606
98	0xba9ae21f	-0.0011816657
99	0xbb7e5044	-0.0038805166
100	0x3d67109f	0.056412335
101	0x3b69cc39	0.0035674705
102	0xbd220ae9	-0.039561186
103	0xbd94e430	-0.07270086
104	0xbd8753c1	-0.06607772
105	0x3c3a1dc7	0.011359639
106	0xbd8165de	-0.06318258
107	0x3d8efa37	0.069813184
108	0x3d9ed005	0.0775452
109	0xbd0a38ac	-0.033745453
110	0x3aa4ed17	0.0012582865
111	0x3d37b155	0.04484685
112	0x3cd4c40c	0.025972389
113	0xbb5d63c1	-0.0033781382
114	0xbcd2711a	-0.025688697
115	0x3cbb0f45	0.02283443
116	0x3d311481	0.043232445
117	0x3cd7def8	0.026351437
118	0x3cdc7cf8	0.026915058
119	0x3cfa0bef	0.030523269
120	0xbcf61f68	-0.030044273
121	0xbd4157f0	-0.047203004
122	0xbd56c2cf	-0.052431878
123	0x3ca62bcf	0.020284561
124	0x3d87e4e7	0.066354565
125	0x3d42a026	0.04751601
126	0xb9a439c0	-0.00031323545
127	0xbcf0fda3	-0.029417818
128	0x3d456415	0.04819115
129	0x3c190933	0.009340572
130	0x3c9ba9bd	0.019001836
131	0xbd1b5f5c	-0.03793274
132	0xbcc3c153	-0.023895895
133	0xbd6d0e88	-0.057875186
134	0xbcc54bb0	-0.024083942
135	0xbd973312	-0.07382788
136	0x3ceeef97	0.02916698
137	0xbd00f12a	-0.031479992
138	0x3d943313	0.07236304
139	0xbd97ee3d	-0.07418487
140	0xbd9d2383	-0.07672789
141	0x3d6bd2b7	0.057574
142	0x3da84643	0.08216526
143	0x3d7a8d2d	0.061169792
144	0x3d980364	0.07422522
145	0xbd3db806	-0.046318077
146	0x3d4e1ea7	0.0503222
147	0xbc178e88	-0.009250291
148	0x3d873d53	0.066034935
149	0x3cafbabb	0.021451345
150	0xbd8c9d5c	-0.068659514
151	0x3d5761aa	0.052583374
152	0xbc8e42e0	-0.017365873
153	0xbda14fd0	-0.07876551
154	0x3c94d66d	0.018168652
155	0x3da72685	0.08161644
156	0x3bc4ea6d	0.006009391
157	0xbd848689	-0.06470973
158	0xbd6833ad	-0.056689907
159	0x3d493675	0.0491242
160	0x3bff1875	0.007784898
161	0xbd364185	-0.044496078
162	0xbd7406fa	-0.059576966
163	0x3d3c6402	0.045993812
164	0xbbffb7b7	-0.007803883
165	0xbcabe8be	-0.020985004
166	0xbd08cbde	-0.033397548
167	0xbd448b6f	-0.047984537
168	0xbc9fb734	-0.019496538
169	0xbcbc28ea	-0.022968728
170	0xbcfe910c	-0.031075023
171	0x3d8a24f4	0.067453295
172	0xbc78e3e3	-0.015191051
173	0x3ba45edb	0.0050161905
174	0xbda3ebdb	-0.0800397
175	0x3d45fd23	0.048337113
176	0xbd2f26b6	-0.042761527
177	0x3cb2bf6e	0.021819796
178	0x3cfffd50	0.031248719
179	0x3d0764dc	0.03305517
180	0xbcdf7d2b	-0.027281364
181	0xbb32c723	-0.002727934
182	0x3d690ba2	0.05689586
183	0xbd2ca4e7	-0.04214945
184	0x3d978878	0.07399076
185	0x3da4a292	0.0803882
186	0x3d7a6ed1	0.06114084
187	0xbc71065e	-0.014710991
188	0x3c9ac6c2	0.018893603
189	0xbd9de48d	-0.07709608
190	0xbc32995d	-0.0109008225
191	0xbd7e086a	-0.062019743
192	0x3da465f7	0.08027261
193	0xbda1bdc5	-0.07897524
194	0xbd2faa9d	-0.04288732
195	0xbc459911	-0.01206042
196	0xbda7868e	-0.08179961
197	0xbc96de3d	-0.018416518
198	0x3cf23d95	0.02957038
199	0xbb81b2f5	-0.003958101
200	0x3b900d3f	0.0043961103
201	0xbd94f9fc	-0.07274243
202	0xbd9d825a	-0.07690878
203	0x3d213db1	0.039365474
204	0xbcc33973	-0.023831105
205	0x3d34ec2f	0.044170555
206	0x3d740b85	0.0595813
207	0xbd93219b	-0.07184144
208	0xbd357c55	-0.044308025
209	0x3d9a84c6	0.07544856
210	0x3d8f8359	0.070074745
211	0x3b4b63c0	0.0031034797
212	0x3cd9c5ad	0.026583517
213	0x3c8e8144	0.017395623
214	0x3d760ec5	0.06007268
215	0xbc04c2e9	-0.008103111
216	0x3d8cccb2	0.0687498
217	0x3d369efa	0.044585206
218	0x3c8bb831	0.017055603
219	0x3d3b80ef	0.045777258
220	0x3d2cd7ef	0.042198118
221	0x3d91c846	0.07118277
222	0xbc76274e	-0.015024019
223	0xbd4cc1ff	-0.049989697
224	0xbd86b23f	-0.065769665
225	0x3a6dc5b7	0.00090702943
226	0xbd9987ba	-0.07496591
227	0x3c9d4223	0.019196576
228	0xbd25f38f	-0.04051548
229	0xbb1719f6	-0.0023056245
230	0xbd5164b6	-0.051121436
231	0x3d017165	0.031602282
232	0xbcb044f9	-0.021517264
233	0x3d2633ad	0.040576626
234	0x3da82099	0.082093425
235	0xbc9d369c	-0.019191079
236	0x3c8c2394	0.017106809
237	0xbd92fb7b	-0.07176872
238	0x3d03e649	0.03220204
239	0x3d0f4a83	0.03498317
240	0x3da6cfe8	0.08145124
241	0x3d321511	0.04347712
242	0xbc892c39	-0.01674472
243	0xbd3ad84b	-0.04561643
244	0xbc9640d7	-0.018341465
245	0xbb8ec32d	-0.004356763
246	0x3da8d6b0	0.082440734
247	0xbd208b3f	-0.039195295
248	0x3ca87481	0.020563366
249	0x3c543810	0.0129528195
250	0xbcde5645	-0.027140746
251	0x3c3e52f8	0.011616461
252	0x3b9176c1	0.0044392054
253	0x3d956867	0.07295304
254	0xbd29299b	-0.041299444
255	0xbda2c16f	-0.07947051

conv_block_4.5.bias f4 [16]
0	0x3d10903c	0.035293803
1	0xbd2e22df	-0.042513724
2	0x3ce4ebb3	0.027944421
3	0xbd139c19	-0.03603754
4	0x3c931555	0.017954508
5	0xbd095131	-0.033524696
6	0x3c7fb756	0.015607676
7	0xbd3ea909	-0.046547923
8	0xbd7880aa	-0.06066958
9	0xbda4e5da	-0.08051653
10	0x3da4e1b7	0.08050864
11	0x3da23a19	0.079212375
12	0xbca41e1e	-0.020033892
13	0xbd9423ef	-0.07233416
14	0x3da11f07	0.07867246
15	0xbccb1f9d	-0.024795348

conv_block_5.0.weight f4 [16]
0	0x3f7fb72e	0.99888885
1	0x3f7fcace	0.9991883
2	0x3f8003da	1.0001175
3	0x3f801382	1.0005953
4	0x3f7ffe5e	0.9999751
5	0x3f7fee80	0.999733
6	0x3f7fcf75	0.9992593
7	0x3f8014b6	1.000632
8	0x3f800609	1.0001842
9	0x3f8002bc	1.0000834
10	0x3f8013eb	1.0006078
11	0x3f7ffe31	0.9999724
12	0x3f801007	1.0004891
13	0x3f800564	1.0001645
14	0x3f7fc2a2	0.9990636
15	0x3f802671	1.0011731

conv_block_5.0.bias f4 [16]
0	0xba5c0e94	-0.00083945063
1	0x369a9428	4.6068053e-06
2	0x38288246	4.0175648e-05
3	0xb942d44d	-0.0001858037
4	0xb9b3f0db	-0.00034320992
5	0xb99e9f18	-0.00030254642
6	0xba37eacc	-0.00070158835
7	0x37f5efc1	2.931792e-05
8	0x39c22044	0.00037026603
9	0xb71f3b5c	-9.490959e-06
10	0x39916f3f	0.0002773944
11	0xb82a4f40	-4.0604966e-05
12	0x392786cc	0.00015976577
13	0x3a3e696e	0.0007263635
14	0x3a2f0514	0.0006676477
15	0xb9d841c2	-0.00041247724

conv_block_5.0.running_mean f4 [16]
0	0x3e466f3f	0.19378375
1	0x3dde3fe7	0.10852032
2	0x3ece98b5	0.4035088
3	0x3b8d4872	0.0043116147
4	0x3e55396a	0.20822683
5	0xbe3bb99f	-0.18332528
6	0x3e1f1ca5	0.15538271
7	0x3e741905	0.23837669
8	0x3d9b11e8	0.07571775
9	0x3dc3e866	0.09565811
10	0x3eafc91e	0.34333128
11	0x3e9e397f	0.3090324
12	0x3ecc1fe1	0.39868072
13	0x3d2f4bd9	0.042796943
14	0xbdc3d73f	-0.09562539
15	0xbe00d737	-0.12582098

conv_block_5.0.running_var f4 [16]
0	0x3ded341b	0.11582204
1	0x3db0f4f2	0.086404696
2	0x3eafb045	0.3431417
3	0x3e0add54	0.13560992
4	0x3e310ec9	0.17290796
5	0x3dcf4335	0.101202406
6	0x3d86a3c6	0.06574206
7	0x3e801b72	0.2502094
8	0x3db51b41	0.08843089
9	0x3d8fa504	0.07013896
10	0x3e2b114d	0.16705818
11	0x3e1c3862	0.15255883
12	0x3ea65552	0.3248697
13	0x3d80b097	0.06283682
14	0x3dce8d74	0.10085574
15	0x3d993f91	0.074828275

conv_block_5.2.weight f4 [32, 16, 3, 3]
0	0x3cb02341	0.021501185
1	0x3d1d60e5	0.038422484
2	0x3d1caada	0.038248874
3	0x3d3f81b3	0.04675455
4	0x3d4763f3	0.048679303
5	0x3cbac0c0	0.022796988
6	0x3d4cbb14	0.0499831
7	0xbd8fd19e	-0.07022403
8	0x3d946550	0.07245886
9	0x3d81fb19	0.06346721
10	0xbc216d83	-0.00985277
11	0xbd596340	-0.053073168
12	0x3cf4f3fd	0.029901499
13	0xbcf63118	-0.030052707
14	0x3d420037	0.047363486
15	0x3d93c119	0.07214565
16	0xbb870456	-0.00412039
17	0x3d6dc22a	0.058046497
18	0x3d8859da	0.06657763
19	0xbbd3275e	-0.006443902
20	0x3d9ce137	0.07660144
21	0xbd2ce4b3	-0.042210292
22	0x3cfc7339	0.030816661
23	0x3d049344	0.032367006
24	0xbcdada5c	-0.02671545
25	0xbd338a82	-0.043833263
26	0x3cede6dd	0.029040748
27	0xbd8fd48e	-0.070229635
28	0xbd91bb70	-0.07115829
29	0xbd401e51	-0.046903912
30	0xbd8aecd4	-0.06783453
31	0x3d6f3a94	0.058405474
32	0x3d9f33e0	0.07773566
33	0x3a9715af	0.0011526848
34	0xbb2916c1	-0.0025800916
35	0x3d659c26	0.056057118
36	0xbc6be48b	-0.014397751
37	0x3d0e4ff6	0.034744225
38	0xbd1d3fda	-0.03839097
39	0x3d2f545f	0.042805072
40	0x3d5299d5	0.051416237
41	0x3d8db3ca	0.06919058
42	0x3d73de40	0.059538126
43	0xbcb82405	-0.022478113
44	0x3d861e4a	0.06548746
45	0x3b8a80ff	0.0042268033
46	0x3d403891	0.046928946
47	0x3d814ab0	0.06313074
48	0xbd97f0db	-0.074189864
49	0xbc98487a	-0.018589247
50	0x3cb63df4	0.022246338
51	0x3c9447ca	0.018100638
52	0xbc8df840	-0.017330289
53	0xbd20bb13	-0.039240908
54	0xbd5773ee	-0.052600794
55	0xbd5c4508	-0.05377677
56	0x3d5b7822	0.053581364
57	0xbdaa57e0	-0.08317542
58	0xbd94eedc	-0.07272121
59	0xbbff501b	-0.0077915317
60	0x39604994	0.00021389715
61	0xbc8ee10c	-0.017441295
62	0x3d9339ad	0.07188735
63	0x3d85ef96	0.06539838
64	0xbd79e6a1	-0.06101096
65	0xbd0934b3	-0.033497524
66	0x3d1e7570	0.038686216
67	0xbda2bc69	-0.07946093
68	0xbd0f2758	-0.03494963
69	0xbd8530ca	-0.065034464
70	0x3da67162	0.08127095
71	0xbc786d0c	-0.015162718
72	0x3cda0aa4	0.026616402
73	0xbc96e25b	-0.018418482
74	0x3c854040	0.016265988
75	0x3cc6180c	0.024181388
76	0xbd1466c0	-0.036230803
77	0xbd9130c1	-0.07089377
78	0xbd72997a	-0.059228398
79	0xbd4fbd88	-0.05071786
80	0x3d03bada	0.032160617
81	0x3cf20351	0.029542597
82	0xbc023896	-0.007948061
83	0x3c716e1d	0.014735726
84	0x3d56ed52	0.05247242
85	0x3d2be342	0.041964777
86	0x3b4776bb	0.003043576
87	0xbda84eb1	-0.08218134
88	0x3c925304	0.01786185
89	0xbc8e6cda	-0.017385889
90	0xbca107b9	-0.019657003
91	0xbd452d07	-0.048138645
92	0x3d32f74b	0.04369287
93	0x3cea467a	0.028598059
94	0xbcecfae8	-0.028928235
95	0xbb5e5834	-0.0033927085
96	0x3d916d4c	0.07100925
97	0xbda18299	-0.07886238
98	0x3d52987a	0.051414944
99	0x3cdc270b	0.026874086
100	0xbce65ac8	-0.02811946
101	0x3d412eec	0.04716389
102	0x3d954013	0.07287612
103	0xbd3c299c	-0.04593812
104	0x3da61e23	0.08111217
105	0xbbe18ae8	-0.006883014
106	0xbd12b01c	-0.035812482
107	0xbb0d5164	-0.0021563405
108	0x3d07f2bc	0.033190474
109	0xbd9eae0a	-0.07748039
110	0x3c07e1df	0.008293598
111	0x3d66307f	0.056198593
112	0x3d257e00	0.040403366
113	0x3d5837f6	0.052787744
114	0x3c49cf2a	0.012317458
115	0x3cf1cc2f	0.029516308
116	0x3d7d19a7	0.061792042
117	0x3d6b2c57	0.057415333
118	0x3d867064	0.065644056
119	0xbd868865	-0.06568984
120	0x3c961b2e	0.018323507
121	0x3d558da5	0.052137036
122	0x3c4fdd74	0.012687076
123	0xbd56017d	-0.052247513
124	0xbcad9aef	-0.021192042
125	0xbd1d639f	-0.038425084
126	0xbd5799a0	-0.052636743
127	0xbd89b904	-0.06724742
128	0xbcf19b4a	-0.029492993
129	0x3d278b95	0.0409046
130	0x3c21c29f	0.009873061
131	0x3cf098a9	0.029369669
132	0xbc61b5d7	-0.013776264
133	0xbc437e97	-0.011932037
134	0x3d81fbc9	0.06346852
135	0xbd7a6196	-0.06112822
136	0x3d82b78d	0.06382666
137	0x3d9b7621	0.07590891
138	0xbc8e0010	-0.017334014
139	0x3c218613	0.009858626
140	0xbceb329f	-0.028710661
141	0xbc12526c	-0.008930784
142	0x3d2f38f3	0.04277892
143	0xbd6327e7	-0.055457976
144	0x3d1c4f94	0.03816183
145	0x3bab8e79	0.00523549
146	0x3d7aea14	0.06125839
147	0x3d88e405	0.06684116
148	0x3d43c8e0	0.04779899
149	0xbcfb25c2	-0.030657653
150	0xbcdfe323	-0.027329987
151	0x3c676a73	0.014124501
152	0xbce96e93	-0.028495109
153	0x3da7f452	0.08200897
154	0xbcb06259	-0.02153127
155	0x3d9dec8f	0.077111356
156	0x3d278bb1	0.040904704
157	0x3c896c2a	0.01677521
158	0xbc141a54	-0.00903948
159	0x3d928642	0.07154514
160	0xbd4317b1	-0.047630016
161	0xbd556f1d	-0.05210792
162	0x3d853ca9	0.06505711
163	0x3d677e2a	0.056516804
164	0xbd961d80	-0.073298454
165	0x3da532db	0.080663405
166	0x3c0b3fee	0.008499129
167	0x3bd07124	0.0063611437
168	0x3d6870e7	0.056748297
169	0xbc9453b4	-0.018106319
170	0x3b8784d0	0.0041357055
171	0x3d1caec1	0.038252596
172	0xbcee885f	-0.029117761
173	0x3d6d9519	0.05800352
174	0x3d4d0383	0.050052177
175	0x3d391aea	0.045191683
176	0x3cda1b78	0.026624426
177	0x3ced506b	0.02896901
178	0xbcfe9d68	-0.031080917
179	0xbd4f1b5a	-0.050563194
180	0x3c2fe316	0.010735294
181	0x3cce10aa	0.02515443
182	0xbbfa417d	-0.0076372013
183	0xbc3d91d9	-0.011570417
184	0x3ca90a9d	0.020634944
185	0x3d20c8ad	0.03925388
186	0x3d06ad5a	0.032880165
187	0xbc4e9d81	-0.012610794
188	0xbcfe191c	-0.031017832
189	0xbd3743a0	-0.044742227
190	0x3da1c8c4	0.07899621
191	0xbd38ac5e	-0.045086257
192	0xbda9414f	-0.0826441
193	0x3d13fcc5	0.03612973
194	0xbd82d0dd	-0.06387494
195	0xbbc2a9e5	-0.005940663
196	0x3d21ec6f	0.03953212
197	0xbd90da5e	-0.070729
198	0x3d6fd4f9	0.058552716
199	0xbd37be2c	-0.044859096
200	0x3d85c6a2	0.06532027
201	0xbd622199	-0.055207822
202	0xbd996970	-0.07490814
203	0xbd150173	-0.036378335
204	0xbd6f81f4	-0.058473542
205	0xbd7a55a2	-0.061116822
206	0xbda12171	-0.078677066
207	0x3d6353c1	0.055499796
208	0x3d8f7f68	0.07006723
209	0xbbfea58b	-0.007771199
210	0x3c38450e	0.011246933
211	0x3d606b3b	0.054789763
212	0xbda0775a	-0.078352645
213	0xbd987c56	-0.0744559
214	0x3c43ec10	0.011958137
215	0x3cedc304	0.029023655
216	0xbd7271fe	-0.059190743
217	0x3d2938fa	0.041314103
218	0x3ca01a6b	0.019543847
219	0x3d5f4199	0.05450592
220	0xbd4d11bb	-0.050065737
221	0x3da60f24	0.081083566
222	0xbcc15847	-0.023601664
223	0x3da39988	0.07988268
224	0x3d175733	0.036948394
225	0x3d4b68ed	0.049660612
226	0x3d9efdc8	0.07763249
227	0x3da2db0d	0.07951937
228	0xbd61edce	-0.05515843
229	0x3d8e4565	0.0694683
230	0x3d73c253	0.059511494
231	0xbca3a510	-0.019976169
232	0x3d766b6f	0.06016105
233	0xbb6c7e70	-0.0036086105
234	0xbb752609	-0.0037406704
235	0x3d957c7d	0.07299135
236	0xbcd240b5	-0.02566562
237	0xbda18469	-0.07886583
238	0xbae770d2	-0.0017657524
239	0xbd534b9e	-0.051585786
240	0xbd6c065b	-0.05762325
241	0xbce7f5e9	-0.028315501
242	0x3d5c0d37	0.05372354
243	0xbc4e04f8	-0.012574427
244	0x3a386ed5	0.0007035558
245	0xbd3938b6	-0.0452201
246	0x3d007cba	0.03136895
247	0x3d79b8a1	0.06096709
248	0xbcbe2599	-0.023211287
249	0x3d8522ae	0.06500755
250	0xbd7760f4	-0.060395196
251	0xbcc0cfd2	-0.023536596
252	0xbcd1e5ff	-0.025622366
253	0x3c475332	0.012165831
254	0x3d8146e1	0.06312347
255	0x3da28195	0.07934872
