cloud-detection-code/tests/test_artifacts/test_class_weighted_loss_explicit/model_checkpoint_6.pt (torch, 439769 bytes, 347 tensors)

input_conv_block.0.weight f4 [3]
000000 7c 90 7f 3f 43 a0 7f 3f 9e 37 80 3f
       0.9982984 0.99853915 1.0016973

input_conv_block.0.bias f4 [3]
000000 f9 6e b9 ba 69 ac 59 ba 56 e0 95 3a
       -0.0014147452 -0.0008303584 0.0011434655

input_conv_block.0.running_mean f4 [3]
000000 39 af d7 3e ef d7 d5 3e 7b 0e b4 3e
       0.42125872 0.41766307 0.35167298

input_conv_block.0.running_var f4 [3]
000000 7c 1c 54 3d de 17 45 3d 4d b1 37 3d
       0.051784977 0.048118465 0.04484682

input_conv_block.2.weight f4 [2, 3, 1, 1]
000000 8e 14 12 bf 9e 01 3a be 82 60 cf 3e 73 2c f0 be
       -0.57062614 -0.1816468 0.40503317 -0.46908912
000010 7b 0e 81 bd f8 e6 2c 3e
       -0.0630159 0.16884983

conv_block_1.0.weight f4 [2]
000000 45 36 80 3f da 92 7f 3f
       1.0016562 0.9983345

conv_block_1.0.bias f4 [2]
000000 5d 04 61 bb b2 db 0d bb
       -0.0034334876 -0.0021645841

conv_block_1.0.running_mean f4 [2]
000000 40 34 1a be 81 4d 1a be
       -0.15058994 -0.15068628

conv_block_1.0.running_var f4 [2]
000000 bc 4c a9 3d d0 de 95 3d
       0.08266589 0.07317889

conv_block_1.2.weight f4 [2, 2, 3, 3]
000000 98 e2 65 3e 28 7c 9f 3d 17 30 ab 3d db ef 0e 3d
       0.2244972 0.07787353 0.08358782 0.034896713
000010 b2 23 52 3e a3 f0 32 bd 48 42 fc bd af 45 5a bc
       0.20521429 -0.04368652 -0.1231733 -0.013322278
000020 9d 86 b7 3d 4f c5 29 3d 21 26 db 3d e7 e2 52 3d
       0.08961222 0.041447934 0.10700632 0.051485922
000030 b1 8c 22 3d 84 bc 19 3e 2b d7 3b 3e f8 13 36 3e
       0.039684955 0.15013319 0.18343799 0.17781055
000040 bf c8 31 be 64 17 3b 3c 60 41 8f bd 7c c5 68 be
       -0.17361735 0.011419151 -0.06994891 -0.22731584
000050 2d 0f 22 3e 6e 6b a6 bd 66 17 08 be 11 8f 17 be
       0.15826102 -0.08125959 -0.13290176 -0.14800669
000060 fb de b4 3d 7e 2d 1b 3e 8a 4f 59 3d 8b fd 4f be
       0.08831593 0.15154073 0.05305437 -0.20311563
000070 63 92 68 be 29 ec 22 be 39 3a ce 3d db 09 0c be
       -0.22712092 -0.159104 0.10069699 -0.13675635
000080 1b 22 c7 3d a7 60 24 be dc 6c 67 3d 7a 30 47 3e
       0.09723302 -0.16052495 0.0565003 0.19452086

conv_block_1.2.bias f4 [2]
000000 37 0c 5f 3d 6d 37 d2 3d
       0.05445501 0.10264478

conv_block_1.3.weight f4 [2]
000000 19 18 80 3f ae cf 7f 3f
       1.0007354 0.9992627

conv_block_1.3.bias f4 [2]
000000 66 21 02 bb b2 2c ab 39
       -0.0019856333 0.00032648962

conv_block_1.3.running_mean f4 [2]
000000 16 b2 ff 3e 56 8f 1f be
       0.49940556 -0.15582022

conv_block_1.3.running_var f4 [2]
000000 e1 e3 0e 3e ee 88 a8 3d
       0.13954116 0.08229242

conv_block_1.5.weight f4 [2, 2, 3, 3]
000000 88 7e 1d bd 5e 24 6f bd aa 69 90 bc 96 22 3b 3e
       -0.038450748 -0.05838429 -0.01762851 0.18274912
000010 36 f0 4d 3e ae b3 be 3d 2f 14 f3 bd 43 f4 3d be
       0.20111164 0.09311615 -0.11869084 -0.1855021
000020 b4 06 4f 3d 01 8c 2d 3c 1f 76 e0 bd f1 47 27 bd
       0.050543502 0.010592462 -0.1096003 -0.040840093
000030 ff f8 15 3e 0f b9 39 bd 19 e2 f7 bd 7c 7b 19 bd
       0.14645766 -0.0453425 -0.121036716 -0.03747128
000040 7b 44 4f be 37 54 63 3d 11 12 4f be 21 2d 40 3e
       -0.20240967 0.055500235 -0.20221736 0.18767215
000050 ee a0 12 3e 7f cc 6a 3e ba f8 ce 3d b8 44 c4 bd
       0.14319202 0.22929572 0.101060346 -0.095834196
000060 fa d0 ef bc 55 32 33 3e 8f 22 6a 3e 5e da 42 3e
       -0.029274452 0.17499669 0.22864746 0.19028613
000070 c4 29 f7 bd 75 c8 55 3e 81 f2 a9 bc 2a 35 19 be
       -0.12068513 0.2087725 -0.020745518 -0.14961687
000080 4a 28 17 3e c1 8d b7 3d e7 b9 e3 bd e6 d4 be bd
       0.14761463 0.08962584 -0.111194424 -0.09317951

conv_block_1.5.bias f4 [2]
000000 d7 e6 4b 3e d1 a8 8c bd
       0.19912277 -0.06868137

conv_block_2.0.weight f4 [2]
000000 f7 c9 7f 3f ea 1a 80 3f
       0.9991755 1.0008214

conv_block_2.0.bias f4 [2]
000000 7e 4c e8 ba c9 48 26 bb
       -0.0017722992 -0.0025372973

conv_block_2.0.running_mean f4 [2]
000000 3d 71 39 3e 75 36 d9 3e
       0.18109603 0.4242436

conv_block_2.0.running_var f4 [2]
000000 8d 3a 81 3d a9 ab 14 3e
       0.06309996 0.14518608

conv_block_2.2.weight f4 [4, 2, 3, 3]
000000 9b 92 60 bd 88 24 5a 3e f2 71 71 3e 61 7e 30 bd
       -0.054827314 0.21302998 0.23578623 -0.043089274
000010 3c 0c 0d 3e 9b 2a 3f 3e d6 d5 99 bd ae 80 fe 3d
       0.13774198 0.18668596 -0.07511489 0.124268875
000020 72 b7 14 be 08 d5 39 be b2 7e 50 bd b4 9b ab 39
       -0.14523104 -0.18147671 -0.050902076 0.0003273167
000030 9e a6 13 be 90 ec 0e 3c 32 84 58 bd 39 e2 36 3e
       -0.14419028 0.008723393 -0.052860446 0.17859735
000040 25 c3 82 bc 81 5c 64 be 30 0d fe bc 64 82 0d be
       -0.015962193 -0.22300912 -0.031012148 -0.13819271
000050 7d d1 ab 3c 82 f7 bb bd 43 44 02 be 91 f5 d4 3d
       0.020973915 -0.09178068 -0.12721352 0.103984006
000060 8f 4a 2c be fa dd 35 3e 93 58 2c be a3 e3 4f 3e
       -0.16825317 0.17760459 -0.16830663 0.2030168
000070 90 d8 c5 3d 35 a8 f0 3c da cb d7 3d ca 2e c8 3d
       0.09660447 0.029377082 0.105369285 0.09774549
000080 5c ac 6d be e9 9e 15 3e 68 48 54 3e 67 2a f3 bd
       -0.23210281 0.146114 0.20730746 -0.11873322
000090 1a 2f 0c 3d 6f 6b 4e 3e 56 1d 5e 3c 9f 9f b7 3c
       0.034224607 0.2015817 0.013556799 0.02241498
0000a0 95 10 3e 3e 6c 41 e0 bd ca c2 ff bd 26 01 2a 3e
       0.18561013 -0.10949978 -0.12488325 0.16602
0000b0 f8 72 87 3d cb b8 06 be f8 53 20 be b9 c5 56 3b
       0.066137254 -0.1315643 -0.15657032 0.003277166
0000c0 67 8b a5 bd 92 3f 08 be 01 cb 33 3e 37 61 12 be
       -0.080832295 -0.133055 0.17557909 -0.14294897
0000d0 e9 16 08 3e ef 55 43 3b 22 c0 2f 3e be 43 39 bd
       0.1328999 0.002980586 0.17163137 -0.04523062
0000e0 1c 1e 1b bd b9 0a 51 bd 55 85 55 be d1 76 d5 bd
       -0.03787051 -0.051035617 -0.20851643 -0.10423053
0000f0 03 63 ce bd 66 68 d8 bd 13 7e 46 3e a7 1a 45 3e
       -0.10077479 -0.105667874 0.19384031 0.19248448
000100 cf 2e 5d bd da 22 46 be 3c 73 6f 3d 46 86 b1 bd
       -0.05399972 -0.19349232 0.058459505 -0.08668189
000110 7a e6 ba 3d 3b db 26 be 6b 49 4f 3e 5b 98 81 3d
       0.09125991 -0.16294567 0.2024285 0.063278876

conv_block_2.2.bias f4 [4]
000000 8c 60 74 3d f9 23 15 be 79 5e 94 3c 6b e1 3c be
       0.059662387 -0.14564504 0.018111454 -0.18445365

conv_block_2.3.weight f4 [4]
000000 a9 87 7f 3f 23 21 80 3f ee 95 7f 3f 35 27 80 3f
       0.99816376 1.0010113 0.9983815 1.0011965

conv_block_2.3.bias f4 [4]
000000 f9 4c 13 bb 68 7d 68 ba b5 12 c1 ba 6e 47 13 bb
       -0.00224763 -0.00088687846 -0.0014730307 -0.0022472995

conv_block_2.3.running_mean f4 [4]
000000 95 1e 0d 3e 39 00 10 be b2 5e c1 3d c0 e5 86 be
       0.13781197 -0.14062585 0.0944189 -0.2634716

conv_block_2.3.running_var f4 [4]
000000 07 8d cf 3d 0d 5b 06 3e 89 d2 95 3d d2 6c 7a 3d
       0.10134321 0.1312067 0.07315547 0.061138935

conv_block_2.5.weight f4 [4, 4, 3, 3]
000000 4e e9 24 3d 23 95 48 bd c8 f5 03 bc 86 63 7a bd
       0.04026156 -0.048970353 -0.008054204 -0.06113007
000010 41 ca 1a 3e c0 be e8 3d c2 3e ae 3d 75 36 a2 bd
       0.15116216 0.11364508 0.08508064 -0.07920543
000020 3c b6 1c 3c 98 00 0a 3e 99 82 ef 3c b3 cd 28 be
       0.009564932 0.13476789 0.029237079 -0.16484718
000030 7f a7 08 3e 4b c5 a6 3d 37 4c 34 3b d5 36 7a 3d
       0.13345145 0.081430994 0.0027511248 0.06108745
000040 65 98 a7 3d d5 5e d9 bd c8 5a fc 3d 73 9f ee 3d
       0.08183364 -0.10613791 0.12322003 0.11651506
000050 e0 78 20 be 64 99 10 3e bd 4e 45 bd 4a 08 b5 bd
       -0.1567111 0.14121014 -0.048170794 -0.08839472
000060 31 5e d0 3c 94 2f bf bd 33 09 e3 bd 49 7d c6 3c
       0.025435539 -0.09335247 -0.11085739 0.024229662
000070 3d 10 85 3d 0b 52 2a 3e 04 b0 1b be b9 6b 15 3e
       0.06497238 0.1663286 -0.15203863 0.14591874
000080 4e 61 a1 3c 29 46 16 be 93 db 05 3e e3 57 87 bd
       0.019699719 -0.14675201 0.13072042 -0.0660856
000090 b6 9f 15 3e 9a b3 e7 3d 39 17 14 be 74 25 83 3d
       0.14611706 0.11313553 -0.14461984 0.06403628
0000a0 67 81 eb bd 51 6b 1d 3e ea 9b 23 3e e9 a5 78 3b
       -0.11499291 0.15372969 0.15977445 0.0037940687
0000b0 bf 44 55 bd 57 80 1a be 2e 8a fe 3c 6a c3 27 3e
       -0.052067515 -0.1508802 0.031071749 0.16383138
0000c0 37 eb 53 3d 0a e8 2e bd 3b d6 a6 bc eb 2f 0f 3e
       0.05173799 -0.04270176 -0.020365825 0.13983123
0000d0 e3 29 1e 3e 64 bc ed bd 81 36 19 3e 33 d3 e7 3d
       0.15445666 -0.11608198 0.14962198 0.1131958
0000e0 c7 1a df 3d 6d e9 0b 3e eb 2a 1e 3e e9 e2 35 bd
       0.10893779 0.13663264 0.1544606 -0.04440585
0000f0 a8 41 09 bd d0 09 bb bd 52 97 a0 3d e4 1e 7c 3d
       -0.03350988 -0.09132731 0.07841362 0.061552897
000100 f3 c6 6a bd cd c2 05 be 86 9d a4 3d 6b 95 8f bc
       -0.05731864 -0.13062592 0.08037858 -0.017527303
000110 e7 8d d2 3c a0 50 9d bd 8b fa d5 bd cf b0 1c 3e
       0.02570243 -0.076813936 -0.10448178 0.15301822
000120 b9 c4 b8 bd fe 65 bd bc cd 5a ce 3d cc c2 0b 3e
       -0.09021897 -0.023119923 0.100759126 0.13648528
000130 6a 42 03 3e 74 7c 22 3e a3 2e 0d 3e df 81 b3 3d
       0.12818304 0.15867788 0.13787322 0.08765005
000140 d7 c4 c8 bc ee 27 c9 bd 0c 8b f3 bc a5 11 8f bd
       -0.024507923 -0.09822069 -0.029729389 -0.06985787
000150 54 18 73 3d 21 b1 24 be e8 d4 94 bd 07 ea 13 3e
       0.059349373 -0.16083194 -0.07267171 0.14444743
000160 44 f6 3b 3d 33 99 4b bd 4f d4 0d bb 81 ba 84 3c
       0.045889154 -0.04970665 -0.0021641438 0.016202213
000170 93 20 d3 bc b0 93 e3 3d 38 65 43 bd 74 52 05 be
       -0.025772369 0.111121535 -0.04770395 -0.13019735
000180 c5 3f fa 3d 70 29 e0 bc 1a 88 99 3c 9b 01 04 3e
       0.12219194 -0.027363509 0.018741656 0.12891237
000190 f0 61 09 be 46 85 43 3c b8 07 c0 3d 2f f8 b7 bb
       -0.13416266 0.01193363 0.09376472 -0.0056143026
0001a0 4c 47 e1 bd 1f cf 23 3e 4b 3a 25 bd 54 59 1b be
       -0.10999927 0.15996979 -0.040338796 -0.15170795
0001b0 ca 97 04 be 4d 96 46 bd c5 ea 1c 3d c7 23 2e bd
       -0.12948528 -0.04848318 0.03830983 -0.04251459
0001c0 ae 50 fc 3d 7d 18 74 bd 66 8b 78 bc 9c 45 bc 3c
       0.12320076 -0.059593666 -0.015169954 0.022982411
0001d0 e5 10 7e 3d 34 7d 10 be 08 f4 e3 3d 7f 0b 86 3d
       0.06202783 -0.14110261 0.1113053 0.065451615
0001e0 e9 52 17 3e b1 cd de 3d 46 dc 95 3d 3c 74 10 be
       0.14777721 0.10879076 0.073174044 -0.1410684
0001f0 0f cf db bd 5d cd 10 3e 83 9c d4 bd 5a 47 ed bb
       -0.10732853 0.1414084 -0.10381415 -0.007241172
000200 49 bc c5 bc c6 99 a9 3d 03 04 ee 3d ad 23 49 3d
       -0.024137633 0.08281283 0.11621859 0.04910629
000210 a5 5f fd 3c 45 72 05 be 21 2a 8a bd e8 57 2b 3e
       0.030929396 -0.13031872 -0.06746317 0.16732752
000220 16 b4 59 3d b3 6a ae bd 1e 95 19 3e 05 35 1c be
       0.05315026 -0.08516445 0.1499829 -0.152546
000230 b1 48 83 bc ae 96 f5 bd 59 46 61 3d 09 f5 af bd
       -0.016025873 -0.119916305 0.05499873 -0.085916586

conv_block_2.5.bias f4 [4]
000000 73 56 13 3e 5c 5e 78 3d f8 d0 b5 bd 4a bd 06 be
       0.14388447 0.060636863 -0.08877748 -0.13158146

conv_block_3.0.weight f4 [4]
000000 49 30 80 3f 2c 8b 7f 3f 1e d3 7f 3f bb 08 80 3f
       1.0014735 0.99821734 0.99931514 1.0002664

conv_block_3.0.bias f4 [4]
000000 f0 a8 cd b9 3d 22 05 bb 2e 7a 13 bb 3d 7f 88 b8
       -0.00039226515 -0.0020314597 -0.0022503245 -6.508685e-05

conv_block_3.0.running_mean f4 [4]
000000 96 d6 e7 3e 50 1f 09 3f 3b 3c 54 3e 7d 54 53 3d
       0.45280904 0.53563404 0.20726101 0.051594246

conv_block_3.0.running_var f4 [4]
000000 fd 36 3a 3e e5 55 42 3e 40 15 d7 3d 29 0c 16 3e
       0.18185039 0.18978079 0.105021 0.14653076

conv_block_3.2.weight f4 [8, 4, 3, 3]
000000 a7 33 ba bd 3a 1c 18 be f8 0b d1 bd 7b a2 22 3e
       -0.09091883 -0.14854518 -0.10207361 0.15882294
000010 58 98 ea bd 13 7f e5 bd c0 01 ff 3d cf 39 2c bd
       -0.114548385 -0.11205878 0.12451506 -0.042047318
000020 bb 65 bc 3c 05 d0 e5 3b 5b e3 83 bd 9f 2d 26 be
       0.022997728 0.0070133233 -0.06439849 -0.1622834
000030 85 1b d3 bc bf b6 c5 3d 93 08 41 bd a2 64 8b 3c
       -0.025769958 0.09653997 -0.047127318 0.017015759
000040 45 71 55 3d ea a3 1f be 59 89 10 bd 1d 96 b6 3d
       0.052109975 -0.15589872 -0.035287235 0.089153506
000050 ed e8 c0 3d d8 48 1b be 5c f2 e0 bc d6 3d 22 3e
       0.09419427 -0.15164506 -0.027459316 0.15843901
000060 e6 fd 0a be 96 94 77 3d a3 93 c5 bd d7 28 29 bd
       -0.13573417 0.060444437 -0.096473 -0.041298714
000070 2e 52 23 be e2 6d 1c 3e 24 77 58 3d 93 fd 2a 3c
       -0.15949318 0.15276292 0.052847996 0.010436433
000080 1d 31 9f 3d f1 88 84 bd a0 b7 1d 3e 0d 0a 8b bd
       0.077730395 -0.06471432 0.15402079 -0.067890264
000090 37 9d 72 bd 1c 20 54 bd d3 60 12 be cb 1a 33 bd
       -0.059231963 -0.051788434 -0.14294748 -0.043726724
0000a0 4c 64 3a 3d 42 c9 07 be b7 1d e5 3d bb a0 09 be
       0.045505807 -0.13260368 0.11187308 -0.1344022
0000b0 71 f9 21 be ef fe 0a 3d 5c 58 25 bd 8f aa 06 3e
       -0.1581781 0.03393453 -0.04036747 0.13151
0000c0 22 2a a3 3d 2b d8 88 bd 84 e8 dc bd 68 44 01 be
       0.079670206 -0.06681856 -0.10786536 -0.12623751
0000d0 a2 c7 7b 3a 8c 7d 27 bd d4 6f f8 bd 11 ff e2 3d
       0.0009604638 -0.040891215 -0.121307045 0.11083806
0000e0 49 a1 0e be bc 2d ab 3d 51 80 34 3b f8 bc 86 bd
       -0.13928713 0.083583325 0.0027542303 -0.06579012
0000f0 d3 1e 0e be 09 d9 0c bd 4e d2 92 3d e9 c7 87 3c
       -0.13878946 -0.03438667 0.07169019 0.016574817
000100 85 88 27 3d 0c 1d 12 3d 78 9a 20 3e c8 7e 30 3b
       0.04090168 0.035672233 0.15683925 0.0026931036
000110 b4 a2 74 3d 1a e7 a8 3d cb 4d a6 bd f8 88 d4 bd
       0.05972548 0.08247204 -0.081203066 -0.10377687
000120 50 41 63 bd 12 08 cb 3d e0 e6 05 3c e2 3b 89 3d
       -0.05548221 0.09913649 0.008172721 0.06700875
000130 8c 04 4a bc 1f 4a d8 bd 83 e2 0c 3e 7c d0 4e ba
       -0.012330186 -0.105610125 0.13758282 -0.0007889343
000140 5e a1 8f bd c9 61 8a 3b 74 cb a7 3c 6c 0e 0c 3e
       -0.070132 0.0042230827 0.020482756 0.13677377
000150 2f d4 a6 bd 22 15 d9 bd 82 d4 b0 bd 95 ef be bd
       -0.081459396 -0.10599734 -0.08634283 -0.093230404
000160 4b f2 ac 3d e8 68 1c be 90 2c 66 bd 73 d5 26 3e
       0.08444651 -0.15274394 -0.05619484 0.16292362
000170 6d 65 08 bc 4e 6f 80 bd c5 c6 98 3d a6 39 f5 bd
       -0.008324963 -0.0627123 0.07459787 -0.11973886
000180 39 3f 03 3e 3c f7 af bd 63 52 27 be 8b 5a 03 3d
       0.12817086 -0.08592078 -0.16340022 0.03206877
000190 63 d4 a0 bd 79 4b a1 3c a6 25 1e bd f3 8a ba 3b
       -0.078530096 0.019689308 -0.038610123 0.0056928336
0001a0 b1 b0 22 be 5d 70 02 3e 39 78 0e 3e a9 19 23 be
       -0.15887715 0.12738176 0.13913049 -0.15927757
0001b0 ae 41 eb bd 76 03 a3 3c 03 92 13 be f3 b9 fc 3d
       -0.11487137 0.019899111 -0.14411168 0.123401545
0001c0 e0 f3 89 3d c7 c9 bb 3d 43 dc e5 bd 1b d5 0b 3c
       0.067359686 0.09169345 -0.11223652 0.008534695
0001d0 06 b2 0e be 65 93 1d be 4b a7 d9 bc a3 91 a5 bd
       -0.13935098 -0.15388258 -0.02656903 -0.080844186
0001e0 3a 70 1d be 0c cf a6 3d 35 70 fa bc c8 26 19 3e
       -0.15374842 0.0814496 -0.030571083 0.149562
0001f0 c6 04 a6 bd d9 ae a3 3d ed ab 86 bb cd d8 0c 3d
       -0.08106379 0.07992334 -0.0041098506 0.034386445
000200 0b 90 d5 3d 78 6e 34 3d 2d b6 50 3c 7c 9b d3 bc
       0.10427865 0.044050664 0.012738747 -0.025830977
000210 92 b8 83 3d bf e3 13 3e ac 33 7f 3d 68 44 14 be
       0.06431688 0.14442347 0.062305138 -0.1447922
000220 5a 59 29 3d 45 f7 91 bc 6d 58 07 3e 9b 8a 2c bd
       0.041344978 -0.017818103 0.13217326 -0.042124372
000230 87 88 a8 bd b7 b8 ca 3d c1 fe ef bd 0a 83 15 be
       -0.082291655 0.09898513 -0.11718512 -0.14600769
000240 87 e9 51 3d 8e 4e 06 3e c9 c4 12 3e a6 3f 02 be
       0.0512481 0.13115904 0.1433288 -0.12719592
000250 cf 9a 1c 3e bd a6 cb 3d c0 d6 03 be 8a 05 d0 bd
       0.1529343 0.09943912 -0.1287489 -0.101573065
000260 b6 0a 89 bd 36 5c 28 be 2c ac e6 3d 64 48 51 bb
       -0.06691496 -0.16441426 0.11263308 -0.0031934017
000270 d5 a3 c3 bc fd 12 f4 bc 08 45 b8 bd a1 bf 45 bd
       -0.023881832 -0.02979421 -0.08997542 -0.048278455
000280 f6 82 ea 3d b6 29 db 3d 40 82 78 bc 60 88 0b be
       0.1145076 0.10701315 -0.015167773 -0.13626242
000290 35 b8 0e be dc 56 00 be fa cd 11 be 77 bd 97 bd
       -0.13937457 -0.12533134 -0.1423873 -0.074091844
0002a0 23 23 70 3d be 36 08 bd 08 61 e8 3d 0d 4b 68 3d
       0.05862726 -0.03325533 0.11346632 0.0567122
0002b0 0f 23 cc 3d f5 94 e1 3d db bc 12 be 31 1d e6 bd
       0.099676244 0.110147394 -0.14329855 -0.112360366
0002c0 e8 55 bc bd 90 15 84 3c e7 bc 80 3d bd ae 97 bd
       -0.09196073 0.016123563 0.0628603 -0.074063756
0002d0 7e 8a a4 bd 9b 32 b8 3c ed 3f ff 3d f8 44 08 3e
       -0.08034228 0.022485068 0.12463365 0.1330756
0002e0 ff 8f 9b 3d 58 45 62 3d a9 cb 33 3c 9d c4 29 3d
       0.075958245 0.055241913 0.010973849 0.04144727
0002f0 a2 73 8f bc ab b7 02 3d 64 ce da 3d 7f 6f 1f be
       -0.017511193 0.03191344 0.10683897 -0.15569876
000300 0b 42 16 be 01 ff e7 bd c2 c8 95 3b f1 44 a3 3d
       -0.14673631 -0.11327935 0.0045710513 0.07972134
000310 7f a0 2a 3e d7 d2 ae 3d fe 35 27 be 30 1b 84 3d
       0.16662787 0.08536308 -0.1632919 0.06450498
000320 57 a5 c9 3c 4d b7 f3 3c dd 24 00 be f6 5e 14 be
       0.024614973 0.02975049 -0.12514062 -0.1448935
000330 5d 74 08 be 8f 5d c0 bd 48 4c ce 3d 9d 89 26 3e
       -0.13325639 -0.09392845 0.10073143 0.16263433
000340 a9 9c 1f be fd d0 e3 3d 89 d4 58 3d 6f b0 12 bd
       -0.15587105 0.11123846 0.052937064 -0.03581279
000350 4d 78 e5 bb ea 83 28 3e d7 41 02 3d 1a ad 66 bd
       -0.0070028664 0.16456571 0.03180107 -0.056317426
000360 dd f9 ed 3d bc 06 cf 3d 24 67 d9 3d ce de 53 3d
       0.11619923 0.10108706 0.10615376 0.051726155
000370 5f c1 a3 bd 77 c0 ca 3d d9 a0 a6 bd c5 60 8c bd
       -0.07995867 0.09899991 -0.08136148 -0.06854395
000380 2c d8 fa 3d ce de ec 3d bc 7f bf 3d 73 07 99 3d
       0.12248263 0.11565934 0.09350535 0.07472124
000390 f9 62 5c bd 27 95 7b bd 9c b2 20 be 20 e4 6f 3d
       -0.053805325 -0.06142154 -0.15693134 0.058567166
0003a0 1e 38 f9 ba 07 9a cc 3c 74 7c 16 3e 4b d9 11 3b
       -0.0019013917 0.02497579 0.14695913 0.002225476
0003b0 e7 4e 0c be bd 5b 23 be 70 8d 20 3e 34 57 23 3b
       -0.13701974 -0.15952964 0.15678954 0.0024923803
0003c0 6c 4e 21 3e 4f 44 45 bd d4 16 1e be 6c 64 e6 3d
       0.15752572 -0.048160847 -0.15438396 0.11249623
0003d0 f0 34 82 3d d9 9a c0 3c 66 bb 07 3e b9 ad cf 3c
       0.06357753 0.023511337 0.1325508 0.025351392
0003e0 11 c5 b1 bd 3c 4b f0 bd 9f e3 4a bd 2a 3a 93 bd
       -0.086801656 -0.117331 -0.049533483 -0.07188828
0003f0 81 b5 15 3e 9a 9b 31 bd 04 88 dd 3d 49 4b 14 3e
       0.1462002 -0.043361284 0.108169585 0.14481844

conv_block_3.2.bias f4 [8]
000000 5c ad 05 be 2e 60 0e 3e 18 36 07 be 16 93 0a 3e
       -0.13054413 0.13903877 -0.13204229 0.13532671
000010 02 ff a8 3d b4 98 17 3e 07 1b e5 3d c6 b5 71 bc
       0.08251764 0.14804345 0.11186796 -0.014752811

conv_block_3.3.weight f4 [8]
000000 f1 89 7f 3f c0 b9 7f 3f 55 5c 7f 3f 0b d9 7f 3f
       0.99819857 0.99892807 0.9975026 0.99940556
000010 de e6 7f 3f e0 2c 80 3f 1b 28 80 3f 16 11 80 3f
       0.9996165 1.0013695 1.0012239 1.0005214

conv_block_3.3.bias f4 [8]
000000 3a 42 c5 ba 40 75 cc b9 3c c2 31 bb 5f 11 7a ba
       -0.0015049644 -0.0003899727 -0.002712383 -0.00095393317
000010 d4 32 f1 ba c6 b7 60 3a f3 2d b5 3a d8 f3 fe ba
       -0.0018401989 0.0008572306 0.0013822898 -0.0019451333

conv_block_3.3.running_mean f4 [8]
000000 94 25 96 be 35 cf b7 bd 83 97 94 be 91 68 b8 3d
       -0.29325545 -0.089750685 -0.29021844 0.090043195
000010 c8 ee bd bd 64 15 2e 3e 8e 2b 71 3e f6 ea 90 bd
       -0.092740595 0.17000347 0.23551771 -0.07076065

conv_block_3.3.running_var f4 [8]
000000 2c 66 3e 3e a5 14 72 3e 12 41 61 3e 88 ea 7c 3e
       0.18593663 0.23640688 0.21997479 0.24698842
000010 df 10 78 3e 75 c7 81 3e 22 6e 7f 3e 91 32 f7 3d
       0.24225186 0.25347486 0.24944356 0.12070192

conv_block_3.5.weight f4 [8, 8, 3, 3]
000000 ab b3 f2 bd 7c 06 30 bd 8b 0c 45 3d d4 23 77 bd
       -0.11850675 -0.042974934 0.048107665 -0.060336903
000010 ed 1d 8c 3c 9b 3b c3 3d a8 9e ec bd c0 aa 6d 3d
       0.017104113 0.09532853 -0.11553699 0.058024168
000020 57 d4 53 3d 80 b1 1e bc 81 93 d7 3d c2 62 79 3d
       0.051716175 -0.009685874 0.10526181 0.0608852
000030 c8 6e 53 3d 01 32 ec bd 68 b6 d7 bd a3 81 dd 3d
       0.05161932 -0.11532975 -0.10532838 0.10815742
000040 db e5 3b bd 29 37 18 bd c8 80 15 3d fc 8e ce 3d
       -0.045873504 -0.03716198 0.03649977 0.10085866
000050 9f 5e cb bc 05 6e c4 3d 84 e1 82 3c e8 54 c5 bd
       -0.024825392 0.09591297 0.015976675 -0.09635335
000060 45 02 ad 3c 5e bf cf 3d ff fb da bc b4 1d 4e 3d
       0.021119246 0.10143922 -0.02673149 0.050321296
000070 fb 1c bf 3d 70 06 35 3d 74 b5 49 3c 1d e3 e5 3c
       0.093316995 0.044195592 0.012311328 0.028062398
000080 0e 65 f7 bb 69 48 e3 3c 9c db b1 bd 41 1e 11 bd
       -0.0075498885 0.027744489 -0.08684465 -0.035429243
000090 fc 95 2f bc 27 54 19 3d cd b0 de 3c da 14 85 3d
       -0.010716911 0.03743377 0.027183915 0.06498118
0000a0 1b e8 db bd 01 2f 8b bd b3 24 e2 3d fd 03 86 bd
       -0.1073763 -0.06796075 0.11042156 -0.065437295
0000b0 30 97 0e bd 90 04 9a 3d 51 f1 31 bd 8f ba 9b bc
       -0.034812152 0.075204015 -0.043443028 -0.019009857
0000c0 ed a8 fa 3c a3 c7 16 3d 3e 6c ca 3d fe 7b 6c 3d
       0.030598128 0.036811482 0.09883927 0.057735436
0000d0 06 e1 1e 3b 9e c1 e6 bd 62 0a cb bd 21 56 e2 3c
       0.002424301 -0.11267398 -0.0991409 0.02762896
0000e0 f5 22 5c 3d 22 fd e2 bd ad e0 1f bd 73 4e 0f bd
       0.053744275 -0.110834375 -0.039032627 -0.034986924
0000f0 5d 18 4f bd 41 41 90 3d 67 bd 88 3d 03 78 89 bd
       -0.050560344 0.07043696 0.06676751 -0.067123435
000100 d0 9d 7d 3d 0e 82 d9 bb 36 22 c6 3d 1f 6c 9e bd
       0.06191808 -0.006637818 0.09674494 -0.07735466
000110 68 2e e7 3d 33 8c eb bd 95 63 bd 3d b9 47 bd 3d
       0.11288148 -0.1150135 0.092475094 0.09242196
000120 ac fc a9 3d 2b b1 93 bc 27 99 b0 3c 0a 57 86 3d
       0.083001465 -0.018028816 0.021557404 0.0655957
000130 01 f2 57 3d cc 36 99 bd 79 0d 63 bd 5e 35 45 3d
       0.052721027 -0.07481155 -0.05543277 0.048146598
000140 55 d8 8e 3d 40 6f e1 bd 16 31 e5 3d 9d 2d f6 bc
       0.06974856 -0.110075474 0.11191003 -0.030051047
000150 93 cb 04 bd 0e c3 82 bd 06 9d ee bd a7 50 bb 3d
       -0.032420706 -0.0638486 -0.116510436 0.091462426
000160 50 a1 02 bd 59 11 03 bd 4c 89 c5 3d a9 3b c7 bc
       -0.03189212 -0.031998966 0.09645328 -0.02432044
000170 ec 5d 6c bd b1 22 02 3d 2f bb b8 3d 20 61 e5 bc
       -0.05770676 0.031771366 0.090200774 -0.028000414
000180 c7 65 d5 3d 49 db 49 bd 36 f5 29 bd c5 7d b4 bd
       0.10419803 -0.049281392 -0.041493617 -0.08813051
000190 b0 a8 cb bd 23 90 f2 bd 31 2a a0 3d 27 a7 99 3d
       -0.09944284 -0.11843898 0.07820547 0.07502585
0001a0 a9 29 37 3d 3b e6 16 3d 58 0b 63 3d 9d 5a 21 3d
       0.044717465 0.03684066 0.05543074 0.039393056
0001b0 9d 8b 20 bd 97 e5 d3 3d ce 73 8d 3c 18 27 74 bd
       -0.039195646 0.10346525 0.017267134 -0.059607595
0001c0 9b 0c 7e bd 05 2a 85 3d 27 b9 9e bd 9c ad 6d 3c
       -0.06202374 0.06502155 -0.07750159 0.014506724
0001d0 4d c0 e4 3d e8 af d0 bd 90 df e7 3d 68 a9 a0 bd
       0.11169491 -0.101898015 0.11321938 -0.07844812
0001e0 84 b2 4c 3d 2a c0 b7 3d 65 69 72 3d 12 d1 a8 3b
       0.049974933 0.08972199 0.059182543 0.0051518762
0001f0 18 8e 71 3d a4 8a b4 bd b6 99 85 3d e9 0c 75 bd
       0.0589734 -0.08815506 0.06523459 -0.059826765
000200 23 3b 53 3b c9 56 ca 3d 40 fb 84 3d 05 c3 8b bc
       0.0032231293 0.09879834 0.06493235 -0.017060766
000210 84 6e 0e 3d 99 93 20 bd dd 5b ca 3c 7b e6 b0 3d
       0.034773365 -0.03920326 0.024702007 0.08637711
000220 03 1c 99 bb 34 2d e7 3d 43 13 90 3d 78 db 8d 3d
       -0.0046725287 0.11287919 0.07034924 0.06926626
000230 8f e3 b0 3d dd ca 3c bd fa fb 1c 3d 50 c0 25 3d
       0.08637153 -0.046091903 0.03832624 0.040466607
000240 f2 85 c8 3c b2 7c 2c bd f4 0e 7a 3d d2 20 72 bd
       0.024477933 -0.042111106 0.061049417 -0.05911333
000250 f7 e2 d7 3b 1c 65 d6 3d 42 43 a5 3d 7a 16 33 3d
       0.0065883356 0.10468504 0.08069469 0.043722607
000260 75 2d 56 3c ab 31 a3 bc 19 7c 06 3d 77 b0 b7 bb
       0.013072361 -0.019921144 0.032833192 -0.005605753
000270 38 b6 8a 3c 45 c9 2d bd cc 69 7e 3d c2 a1 bc 3d
       0.016932592 -0.042428274 0.062112615 0.0921054
000280 cb a3 f0 bc 40 58 d6 bd a1 25 82 bd a7 20 df 3d
       -0.029374978 -0.10466051 -0.063548334 0.108949
000290 7e 79 fe 3c cb ff 70 3d bf 35 a1 3d 68 17 99 bd
       0.031063791 0.058837693 0.078715794 -0.074751675
0002a0 8c f7 63 3d 3b cb e9 bd 6b 6e 8c 3d bf f3 a0 3d
       0.055656 -0.11415716 0.06856998 0.07858991
0002b0 e8 f2 ad bb a3 3b df bd 5a 9e b8 3d f2 c3 c4 bc
       -0.0053084977 -0.10900047 0.09014578 -0.024019215
0002c0 20 0d a6 bc f3 63 84 bd 9d 82 68 3d 30 2d 90 bb
       -0.02026993 -0.06464376 0.056765188 -0.004399918
0002d0 55 b8 85 bd 1f 81 da 3b 58 e0 eb 3d 42 dd a3 bd
       -0.06529299 0.0066682245 0.115173995 -0.08001186
0002e0 d6 3a b5 3d d9 20 94 bd cd 52 16 3d ae 08 32 3d
       0.08849113 -0.07232828 0.03670006 0.04346531
0002f0 f7 20 59 bd 64 67 b1 bd cf f9 c0 bd a7 28 45 3d
       -0.053009953 -0.08662298 -0.09422647 0.048134472
000300 2b ae a8 3d ea a6 59 3d 40 3b 14 3d 9b 7f e0 bc
       0.08236345 0.053137697 0.036189318 -0.027404597
000310 d0 25 e8 3c cc c4 cc 3c a2 34 fe bc ae 2f cb 3c
       0.028338343 0.024996184 -0.031030957 0.024803009
000320 48 c6 32 3d 68 01 4e bd d6 4a ec 3c 1b 96 3d 3d
       0.043646127 -0.05029431 0.028844278 0.04628573
000330 0c 40 49 bc 60 b7 32 3d 39 96 9c 3d ae 69 c2 bd
       -0.012283336 0.04363191 0.0764584 -0.09492813
000340 e4 dd 9b 3c be 97 f8 3b c8 00 60 3d 24 64 30 bd
       0.019026704 0.0075864485 0.054688245 -0.04306425
000350 2b 94 87 3d f8 04 67 bb b0 2f bd bd d5 61 cc 3d
       0.06620058 -0.0035250764 -0.09237611 0.099795975
000360 2d b4 b0 bd cb 2d 94 bc 37 17 8e 3d 75 43 49 bd
       -0.08628116 -0.018088242 0.06938022 -0.049136598
000370 ab d4 a1 3d 2b ec bf 3c c8 bb 9f bd bc 96 e2 3d
       0.07901891 0.023428043 -0.07799488 0.110639066
000380 01 d0 ad 3d 2b c6 06 3c 32 e6 bd bd 02 13 97 3c
       0.08486939 0.008225958 -0.09272422 0.01844168
000390 75 f9 9a bd 3d 39 ce bd 46 4e eb 3d 21 5f eb 3d
       -0.075671114 -0.10069511 0.11489539 0.11492754
0003a0 9a 21 34 3d 95 b0 db 3d 17 3b 89 3c 8f a7 be 3d
       0.043977357 0.1072704 0.016751809 0.09309303
0003b0 75 3a ab bd 48 f3 86 bd 53 4d 70 3d a8 af dd 3d
       -0.08360759 -0.06589371 0.058667492 0.108245194
0003c0 fb 6d d1 bd c0 68 08 3d 93 5c 62 3d 4e a3 71 bc
       -0.10226055 0.033303022 0.055264067 -0.0147484075
0003d0 0e 80 63 bd f1 db ae bd 09 d4 d1 3d 67 07 8a bc
       -0.055542044 -0.08538044 0.102455206 -0.016849233
0003e0 5f bc f5 3c 12 45 10 bc 02 14 8e bc ee a3 f8 3c
       0.029997049 -0.00880553 -0.017343525 0.030351605
0003f0 0f e1 9b 3d 3c 37 2b 3d c5 bb 9f bd 01 c4 e3 bd
       0.07611286 0.041800722 -0.07799486 -0.11121369

conv_block_3.5.bias f4 [8]
000000 9e da d1 3b e7 41 a2 3d fc 62 c4 3d 87 a0 9c 3d
       0.006404235 0.07922726 0.09589192 0.07647806
000010 e6 c1 8d 3b 02 37 5c bd bb 6a 82 bd a9 48 8a 3d
       0.004326093 -0.053763397 -0.063680135 0.0675214

conv_block_4.0.weight f4 [8]
000000 0a 30 80 3f 54 93 7f 3f ba 00 80 3f a6 08 80 3f
       1.001466 0.9983418 1.0000222 1.0002639
000010 ad f8 7f 3f fe 2b 80 3f dc 9d 7f 3f 25 c7 7f 3f
       0.99988824 1.0013425 0.9985025 0.99913245

conv_block_4.0.bias f4 [8]
000000 81 e0 00 3b a0 c4 d3 ba 43 bd 02 ba 90 1d 68 3a
       0.0019665065 -0.0016156621 -0.00049873086 0.0008854503
000010 1a 3b 12 ba a9 e2 95 3a e3 8e d9 b9 b2 f9 aa ba
       -0.0005578265 0.0011435348 -0.00041495924 -0.0013044386

conv_block_4.0.running_mean f4 [8]
000000 c7 e7 87 3e 75 e5 e9 3e 93 60 c5 3e d5 76 c1 3e
       0.2654402 0.45682874 0.38550243 0.37785974
000010 e5 78 5e 3e 82 56 72 3e 64 bf c0 bd d7 2b 78 3d
       0.21725805 0.23665813 -0.09411505 0.060588684

conv_block_4.0.running_var f4 [8]
000000 95 ff 9b 3d 8d 40 15 3e b4 9a c5 3d ee e1 55 3d
       0.07617108 0.14575405 0.09648648 0.052217416
000010 80 fb 31 3d 3f dc 09 3e 9d 5d 56 3d 4e 37 24 3d
       0.04345274 0.13462923 0.05233537 0.040091805

conv_block_4.2.weight f4 [16, 8, 3, 3]
000000 b1 15 8f 3c 18 25 e4 bd a3 22 50 3d 89 1d 82 3d
       0.017466398 -0.111398876 0.050814282 0.0635329
000010 b6 17 97 3c fa da 85 bd 52 c7 de 3d 00 8a 33 3d
       0.018443923 -0.06535907 0.10877861 0.04383278
000020 67 6d 1a bd 24 ab a3 bd 5f 10 b0 ba 85 96 79 3c
       -0.03770199 -0.07991627 -0.0013432613 0.015233641
000030 d6 9c 35 bc 23 61 7d 3c 2a 97 aa bb 76 1d 70 3d
       -0.011084756 0.015465054 -0.0052060084 0.058621846
000040 cf cc db 3d 92 ca 5b 3c dc a9 07 bc ac 3e 83 bd
       0.107324235 0.013414996 -0.008280244 -0.06408438
000050 e2 b6 e0 bd f9 21 50 bd 0d 34 bc bd b5 b3 8d 3c
       -0.10972382 -0.05081365 -0.091896154 0.017297605
000060 41 dc 6d 3c 3c cf 54 3d 96 44 cd bd 05 1f b3 3c
       0.014517845 0.051955447 -0.10022847 0.021865377
000070 bc f5 48 bc a4 fc 8a bc 5d e3 82 3b 90 81 e1 bd
       -0.012265619 -0.016966172 0.003994389 -0.1101104
000080 be 52 ac bd c8 b2 d7 3c b2 c2 c3 3d e9 05 22 bd
       -0.08414219 0.026330367 0.095586196 -0.039556418
000090 12 2d 55 bd 7c b0 bc bd b9 26 0a bc 1a fa 2c 3d
       -0.052044936 -0.09213349 -0.008432084 0.042230703
0000a0 da 21 71 3c 7a 73 8d bd b7 3e 5f bd da cf f9 bc
       0.0147175435 -0.06906791 -0.05450317 -0.03049462
0000b0 c6 ae 2b 3d 41 a6 a4 3c 3c 75 da bb dc 35 88 3d
       0.041914724 0.020098807 -0.0066668075 0.06650898
0000c0 9b 9c b4 3d 5f d9 a0 bd 0b 86 ca 3d 84 38 23 3d
       0.088189326 -0.0785396 0.09888848 0.03984882
0000d0 75 b7 82 3c 3a 97 ac bd 26 3c d7 bd 0b ea b7 bc
       0.01595662 -0.08427282 -0.10509519 -0.022450468
0000e0 22 33 d5 bd 4a b9 59 3d 5c 9f be bd 43 14 14 3c
       -0.104101434 0.05315522 -0.09307739 0.009038034
0000f0 11 3a f1 3d fb 1e cc 3d fb db a3 3d 11 29 60 bc
       0.117786534 0.099668466 0.08000942 -0.013681666
000100 95 1c c6 3d 59 80 9d bd f4 5e 84 bd 5b 5a 99 bc
       0.0967342 -0.07690496 -0.06463423 -0.018719843
000110 16 e6 c8 bd 42 ea ab 3b 03 30 b2 3c f5 99 a0 3d
       -0.098095104 0.0052464316 0.02175141 0.07841865
000120 c4 55 0b bd d0 02 de 3d 6a a6 ef 3c cd 9c 84 3b
       -0.03401734 0.1084038 0.029254157 0.0040470124
000130 ea 2f cd bd 75 02 82 3d aa e4 dc bd 03 b2 0e 3d
       -0.100189045 0.06348125 -0.10785802 0.034837734
000140 d8 db 54 3d ca 0a 65 3d 76 fb d4 bd 12 9a 81 bd
       0.05196747 0.055918492 -0.10399525 -0.06328215
000150 f0 30 a6 bd 3c 60 8d 3c b0 77 d0 bb 37 3b cd 3d
       -0.08114803 0.017257802 -0.006361924 0.1002106
000160 02 0a b6 3d 28 24 ea bd ec bc 97 bd 89 75 b8 3c
       0.088886276 -0.114326775 -0.07409081 0.022516983
000170 0d a6 0c 3d ff d1 df bd 80 a6 8d bd 06 47 fc bc
       0.034338046 -0.109287255 -0.06916523 -0.030795585
000180 c8 84 cc 3d c8 3c 97 bc c5 f0 1a 3b 08 47 6b 3d
       0.099862635 -0.0184616 0.0023642045 0.057440788
000190 1e ad a1 3d ed 50 aa bd 47 04 88 3c 4a 3a a3 3d
       0.078943476 -0.083162166 0.016603602 0.07970102
0001a0 14 8d e6 bd 12 51 9d bd 5d 72 6b bc c3 3d 83 bd
       -0.11257377 -0.076814786 -0.014370528 -0.064082645
0001b0 5d 23 a7 3d 82 be 3e bd 68 33 4e 3d f6 32 94 3d
       0.08161042 -0.0465684 0.050341994 0.072362825
0001c0 53 a7 ad 3d c0 ef 88 3d ce 79 be 3d d5 2b b3 3d
       0.0847918 0.06686354 0.09300576 0.08748595
0001d0 f9 fa 1f 3c a5 15 37 bc d5 09 95 3d 59 07 70 bd
       0.009764426 -0.011174594 0.07277266 -0.058600757
0001e0 ca 71 a3 bd 22 d3 64 bc 8e 46 e9 bd df d4 2d 3d
       -0.07980688 -0.013966354 -0.1139041 0.042439338
0001f0 de 8c 32 3d 08 13 60 bd e7 3b 8a 3d f2 c7 2e 3d
       0.043591373 -0.05470565 0.06749707 0.04267115
000200 02 be e7 bc 6b 02 e5 bd 17 d1 c6 bd 14 5a 89 3d
       -0.028288845 -0.11182102 -0.097078495 0.06706634
000210 da 01 ba 3d d3 50 1c bb 1a fd 24 3c 4b 50 eb 3d
       0.090823844 -0.0023851886 0.01007011 0.11489924
000220 51 4e 9f bc 66 73 bb bd c8 6d e7 bd 99 b0 d7 bd
       -0.019446524 -0.0915287 -0.11300236 -0.1053173
000230 30 d0 be 3d 45 16 58 3d 3a 07 c5 3d 6a e8 85 3d
       0.09317052 0.052755613 0.09620519 0.0653847
000240 30 d6 1d 3d 09 22 38 bd 62 4a 1b 3d d9 03 6b bd
       0.038534343 -0.044954333 0.037912734 -0.057376716
000250 23 61 7f bd f0 8a b3 bd e1 c1 d2 3c cc af 82 3d
       -0.062348496 -0.087667346 0.025727214 0.06381187
000260 a2 e0 f4 bc 6a 10 e3 3d df 53 8a bd 79 9d e5 3d
       -0.02989227 0.11087115 -0.067542784 0.11211676
000270 f7 ac cf 3d 09 63 18 bc a3 d3 85 3d b0 30 93 3d
       0.10140412 -0.009300956 0.06534507 0.07187021
000280 59 67 82 3c 16 01 ce 3d 25 35 e6 bc 30 87 e4 bc
       0.01591842 0.10058801 -0.028101513 -0.027896494
000290 90 a5 80 3c 3e 07 63 bd f5 8b 24 bd f5 33 9a bd
       0.015703946 -0.05542683 -0.040172536 -0.07529441
0002a0 f3 8f f0 bd ac 20 23 bd 38 57 86 bd 34 6f 90 3d
       -0.11746206 -0.03982608 -0.065596044 0.0705246
0002b0 ed a7 a9 bd 01 35 c4 3d 81 04 ea bd 73 06 03 bd
       -0.082839824 0.09580422 -0.1142664 -0.031988572
0002c0 3e 5e dc 3d 39 9a 87 bd d8 5b e7 bc 95 13 de bd
       0.10760163 -0.066212125 -0.028242037 -0.10843579
0002d0 b8 1a 82 bd 56 e4 e0 bd bc 5a 82 bd d3 38 ee 3d
       -0.063527524 -0.109810516 -0.063649625 0.11631932
0002e0 89 30 81 bd a8 ca bb 3d eb c7 8e bd 30 b9 03 bd
       -0.063080855 0.09169513 -0.06971725 -0.03215903
0002f0 6c 5c e0 bd 47 86 c1 3c cd cb 73 bd 5d df d2 bd
       -0.10955128 0.023623599 -0.05952053 -0.102965094
000300 b5 cb c6 bd 6c 42 d7 3b 57 c5 ca 3d db cb 3e 3b
       -0.09706823 0.0065691974 0.09900921 0.0029113207
000310 3e 59 84 3d 20 38 8d bd 6f 4a e3 3c 16 86 5c 3d
       0.06462334 -0.068954706 0.027745454 0.05383881
000320 30 46 df bd 5a 77 d8 bd e6 d7 27 3d e1 a4 ef bc
       -0.10902059 -0.105696395 0.04097738 -0.029253425
000330 d4 74 e9 3c d8 31 52 bd be 36 da bd 04 d0 68 bd
       0.02849809 -0.051317066 -0.106549725 -0.056839004
000340 32 a8 a3 3d 62 61 82 bd 5d 12 26 bc 94 ee 6a bd
       0.07991065 -0.063662305 -0.010136214 -0.057356432
000350 98 4b bc 3d 1e 3b 67 3d 9b 06 73 3c 34 4e 07 3d
       0.09194106 0.056452863 0.014833118 0.033033565
000360 5d 52 e3 3d 93 e1 22 3c 09 67 b2 bd 8f 90 98 bd
       0.11099694 0.009941476 -0.08711059 -0.07449447
000370 53 7a 39 bd bf 3c b4 3d 8c 5e b5 bd 99 c3 b2 3d
       -0.045282673 0.08800649 -0.08855924 0.087287135
000380 9f b9 d3 3d 9b 07 f6 bb e4 65 e9 bd e9 ec ee bc
       0.10338139 -0.007508231 -0.11396387 -0.029165702
000390 87 c9 da 3d b2 eb c7 3d 58 5a ae bc 61 44 98 bc
       0.106829695 0.09761752 -0.021283314 -0.018587293
0003a0 28 4a 5d 3d 1e 96 8b 3d 56 7c 57 3c bc d4 96 bd
       0.0540258 0.06815742 0.013152203 -0.073647946
0003b0 f8 4f 9d 3d 2f fc 27 bd 38 12 ac bd aa 38 a7 3c
       0.076812685 -0.041011985 -0.084019125 0.020412762
0003c0 f4 90 0a 3d e4 56 c3 3d c2 85 d1 3d 37 da e6 3d
       0.033829644 0.095380574 0.102305904 0.1127209
0003d0 20 7f 9a 3d 55 56 12 bc 48 af ee bd ec 5f dc bd
       0.075437784 -0.008931716 -0.11654526 -0.10760483
0003e0 33 d3 67 3d b8 6a e0 bd 6d cd d1 bd fc e0 a6 bd
       0.0565979 -0.10957855 -0.1024426 -0.08148381
0003f0 7c c7 04 bd 76 20 07 3c b4 cf ff bc 40 14 38 3d
       -0.032416806 0.008247485 -0.03122697 0.044941187

conv_block_4.2.bias f4 [16]
000000 5d ed 29 3d 36 1d b6 bd 32 99 b2 bd b7 9c b0 bd
       0.041486133 -0.0889229 -0.08720626 -0.08623641
000010 37 ae e6 bd 7a 71 16 3d ff aa c6 bd 51 eb ef bd
       -0.112636976 0.036729313 -0.09700584 -0.11714805
000020 d3 c1 ae 3d c1 10 58 bd 5f 62 ef bb 79 12 d7 3d
       0.08533063 -0.052750353 -0.007305428 0.1050157
000030 53 ba 07 bd 99 9f c9 bd 07 a7 91 3c 7a 60 72 bd
       -0.033136677 -0.09844894 0.01777984 -0.05917404

conv_block_4.3.weight f4 [16]
000000 63 19 80 3f fa ea 7f 3f 81 98 7f 3f 76 ee 7f 3f
       1.0007747 0.9996792 0.9984208 0.9997324
000010 c9 b6 7f 3f 38 2c 80 3f de f9 7f 3f 59 2d 80 3f
       0.99888283 1.0013494 0.9999064 1.0013839
000020 7d af 7f 3f 33 17 80 3f 66 e8 7f 3f 03 a7 7f 3f
       0.9987715 1.000708 0.99963987 0.99864215
000030 4e cc 7f 3f 9f f3 7f 3f d9 09 80 3f dc 13 80 3f
       0.9992112 0.9998111 1.0003005 1.0006061

conv_block_4.3.bias f4 [16]
000000 01 7b 47 3a 03 0c 97 39 6e 05 90 39 c7 e2 0b ba
       0.00076095766 0.00028809914 0.00027469866 -0.00053362217
000010 0e e8 61 ba 88 03 fa 39 40 e3 6e 39 13 cb 37 3a
       -0.00086176477 0.00047686347 0.00022782106 0.00070111564
000020 eb ee 03 b9 8b d7 af 3a 2d c3 ae b9 20 b5 96 b9
       -0.00012582137 0.0013415677 -0.00033333283 -0.00028745178
000030 cb 34 1d ba 0d 1d 9b ba 4b 13 8a b9 51 d5 3d 3a
       -0.00059969415 -0.0011834219 -0.00026335786 0.00072415645

conv_block_4.3.running_mean f4 [16]
000000 56 95 70 bd 92 5f 6a bd 30 be 94 be 10 20 13 3d
       -0.058736168 -0.05722005 -0.29051352 0.03591925
000010 e7 81 af be 6a d3 48 3e 9e f8 45 3c 79 94 5c bd
       -0.34278795 0.19611898 0.012083201 -0.053852532
000020 12 5c 4c 3e 81 54 a7 be d2 f0 16 3e 02 08 8a 3a
       0.19956997 -0.3268166 0.14740303 0.0010530951
000030 cd bc ad bd 83 bb c7 bd 3e 2e 1b 3e 3f b3 6e bc
       -0.084832765 -0.09752562 0.15154359 -0.014569103

conv_block_4.3.running_var f4 [16]
000000 78 6b 7d 3e fc 39 32 3e cd cd 5d 3e bc 1a 6a 3e
       0.24748027 0.17404932 0.21660538 0.22861761
000010 c9 3b a6 3e 82 14 95 3e 18 11 00 3e a1 84 2a 3e
       0.32467487 0.2911721 0.12506521 0.16652156
000020 e8 b4 7a 3e 24 a2 e9 3e 23 f1 32 3e ba 56 c2 3d
       0.24483073 0.45631516 0.17474799 0.09489198
000030 85 12 3b 3e 6e 9d 2a 3e 6c 52 54 3e 27 06 f7 3d
       0.18268783 0.16661617 0.20734566 0.1206172

conv_block_4.5.weight f4 [16, 16, 3, 3]
000000 2b fe 4a bd 25 35 75 3c 8f dd fb bb 07 d7 f8 3c
       -0.0495588 0.014966284 -0.007686324 0.03037597
000010 79 01 7a 3d c3 ea c7 bc 07 58 5a bd b1 08 3d 3d
       0.06103656 -0.024403935 -0.053306606 0.046150867
000020 b4 68 99 3d c7 e3 29 bd 6b f6 31 bd 87 89 53 bd
       0.07490674 -0.04147699 -0.043447893 -0.05164483
000030 ff 32 1b 3d 3a 16 91 3d cd a4 9d bd 5f d8 13 bb
       0.03789043 0.070843175 -0.07697449 -0.0022559387
000040 57 0f 16 3d 4c e1 93 3d f8 14 36 bd fc f9 cc 3c
       0.036635723 0.07220706 -0.04445359 0.025021546
000050 4f 5d 21 bd 25 7f 72 bd 47 65 38 bd c0 d0 9e 3d
       -0.039395627 -0.059203286 -0.04501846 0.0775466
000060 d5 b1 34 bd 1d 55 5d bd e8 fd b8 35 2a 15 96 bd
       -0.044114906 -0.05403625 1.3782965e-06 -0.073282555
000070 5c 8f a5 3d 1d fc 49 3d 45 81 03 3d 9c c8 a3 bd
       0.08083984 0.0493127 0.032105703 -0.079972476
000080 24 5c a0 bd 60 c0 0d 3c ff 44 37 bd bd 28 06 3d
       -0.078300744 0.008651823 -0.044743534 0.032753695
000090 22 3c 00 3b a9 63 99 3c db 72 6a bc ab fa e1 bc
       0.0019567092 0.01872428 -0.01430961 -0.027585348
0000a0 03 6a 31 bd bc f5 65 3d b8 46 2d bd 54 f2 a8 3d
       -0.04331399 0.056142554 -0.04230377 0.082493454
0000b0 ef ba 89 3d 9b a8 46 3d 8f 80 19 3c f5 11 3a bd
       0.06725108 0.04850064 0.00936903 -0.04542728
0000c0 fb 3b 99 bd f1 03 6a 3d 1b ba a9 bd d4 8d 62 bd
       -0.074821435 0.057132665 -0.0828745 -0.05531104
0000d0 fe 0c 8a 3d 34 47 8c 3d 3a 2e ac 3c 27 39 60 bd
       0.06740759 0.068495184 0.021018136 -0.054742005
0000e0 21 1a 46 bc 07 6b 73 3d 6b 90 8b bd c0 93 95 bd
       -0.012091191 0.05942824 -0.06814655 -0.07303572
0000f0 97 21 25 3d e9 50 87 3c 28 3a 24 bd 30 95 7e 3d
       0.040315237 0.016518073 -0.040094525 0.062153995
000100 dc f8 a9 3d d5 76 20 bd 35 4b 5d 3d ce 32 53 3d
       0.08299419 -0.039175827 0.0540268 0.051562123
000110 44 7b 59 3d 31 db 44 3d b0 3a a2 3d 17 36 74 3d
       0.05309607 0.0480606 0.0792135 0.059621897
000120 aa 87 23 3d 3b f3 94 3d 35 b1 0b bd 6e bd a9 bd
       0.0399243 0.07272955 -0.034104545 -0.08288084
000130 f8 95 a2 bd c1 41 18 3d 46 0c 57 3d 0e 22 61 bd
       -0.079387605 0.037172083 0.05250194 -0.054964118
000140 ce 89 6a 3d 13 80 11 bd 02 15 c0 bc 0a c9 5a 3d
       0.057260327 -0.03552253 -0.023447517 0.053414382
000150 cb 9a 29 bc e2 39 90 bd 92 44 43 bc 96 68 70 bd
       -0.010351847 -0.0704229 -0.011918204 -0.05869349
000160 3d 77 25 3d 4d 11 55 bd 15 ab 6f bd d9 84 80 3d
       0.040396918 -0.052018452 -0.058512766 0.06275339
000170 9b 64 7d bd f7 ea 28 bc 6e d8 8d bd 18 e1 a5 3d
       -0.061863523 -0.010309926 -0.06926046 0.08099574
000180 2a 31 9d bd 0a 97 47 3c 13 16 ba ba d9 33 7c bb
       -0.07675393 0.012182007 -0.0014197252 -0.0038483052
000190 8e 0b 67 3d 54 53 68 3b 48 cf 21 bd 72 fe 94 bd
       0.056407504 0.0035450058 -0.03950432 -0.07275094
0001a0 0e 69 87 bd 08 19 39 3c ec 6d 81 bd d9 48 8f 3d
       -0.066118345 0.011297472 -0.06319794 0.069963165
0001b0 6d c3 9e 3d 7b 2d 0a bd 15 f8 9b 3a 38 50 37 3d
       0.07752118 -0.03373478 0.0011899496 0.044754237
0001c0 18 c7 d4 3c 31 f9 61 bb 34 78 d4 bc 54 70 ba 3c
       0.025973842 -0.0034480805 -0.025936224 0.02275864
0001d0 10 42 31 3d fc cc d7 3c 83 60 dc 3c a9 5e fb 3c
       0.043275893 0.026342861 0.02690149 0.030684786
0001e0 c9 5c f6 bc f8 9b 41 bd 20 53 56 bd f4 9c a6 3c
       -0.03007354 -0.047267884 -0.052325368 0.020338513
0001f0 78 ca 87 3d fb 0c 43 3d 52 a7 5f b9 14 30 f1 bc
       0.06630415 0.0476198 -0.00021329269 -0.02944187
000200 48 12 45 3d 1d 10 19 3c ad 23 9b 3c 77 c6 1b bd
       0.048113137 0.009342221 0.01893791 -0.038031068
000210 dd 41 c3 bc 9f 1a 6d bd 4d 91 c5 bc c2 45 97 bd
       -0.023835117 -0.057886716 -0.024117136 -0.07386352
000220 29 96 ee 3c ef 97 00 bd 2b 79 94 3d 8f e1 97 bd
       0.029124336 -0.031394895 0.072496735 -0.07416069
000230 ed 02 9d bd c7 f1 6b 3d 43 75 a8 3d 6b f1 7a 3d
       -0.07666574 0.057603624 0.08225491 0.06126539
000240 ec f8 97 3d e4 4d 3e bd e2 7d 4d 3d a9 ab 16 bc
       0.07420525 -0.046461 0.05016888 -0.0091962
000250 54 3d 87 3d 13 f1 ad 3c bf 9a 8c bd 23 93 57 3d
       0.06603494 0.021233117 -0.06865453 0.052630555
000260 e8 f9 8e bc f8 a9 a1 bd 62 35 93 3c f0 f5 a6 3d
       -0.017453149 -0.07893747 0.01796979 0.081523776
000270 d8 58 c2 3b 03 94 84 bd b6 0b 68 bd 47 54 48 3d
       0.005931001 -0.064735435 -0.056651793 0.0489085
000280 6b c8 f9 3b 57 9e 36 bd 9a 23 74 bd 7d 36 3c 3d
       0.0076227686 -0.0445846 -0.059604265 0.0459504
000290 2e 1a 01 bc 31 bf ad bc 2c 28 08 bd 87 e8 43 bd
       -0.007879777 -0.021209331 -0.033241436 -0.047829177
0002a0 d0 54 a0 bc 58 8c ba bc c4 1c fe bc c1 0e 8a 3d
       -0.019571692 -0.022772 -0.031019576 0.06741095
0002b0 86 ba 78 bc c2 dc a1 3b 5f ee a3 bd 20 6c 45 3d
       -0.015181189 0.0049396465 -0.0800445 0.04819882
0002c0 93 60 2f bd e9 de b0 3c eb 81 fe 3c db e3 06 3d
       -0.04281671 0.021590667 0.03106781 0.032932144
0002d0 dd 14 df bc ab f8 2c bb c4 7f 69 3d 86 0e 2c bd
       -0.027231628 -0.0026393335 0.057006612 -0.042006038
0002e0 26 85 97 3d 10 e0 a4 3d f3 ea 7a 3d 73 62 70 bc
       0.07398443 0.08050549 0.06125922 -0.01467191
0002f0 a4 23 9a 3c 75 1b 9e bd 13 83 32 bc e7 eb 7d bd
       0.018815823 -0.07720081 -0.010895508 -0.061992552
000300 1c f4 a3 3d be 14 a2 bd c4 d4 2f bd 93 a1 48 bc
       0.080055445 -0.079141125 -0.04292752 -0.012245554
000310 01 e7 a7 bd d2 74 98 bc 6f 36 f2 3c 71 92 85 bb
       -0.081983574 -0.018610392 0.029566972 -0.004076295
000320 65 b5 8c 3b d4 f4 94 bd aa c6 9d bd 48 2e 21 3d
       0.004294085 -0.0727326 -0.07703908 0.039350778
000330 fc ce c2 bc 47 71 34 3d dc 06 74 3d 46 01 93 bd
       -0.023780338 0.044053342 0.059576854 -0.07177977
000340 84 b1 35 bd 4e 78 9a 3d 52 a2 8f 3d 0a f5 3d 3b
       -0.044358745 0.075424775 0.07013382 0.0028985166
000350 30 fd d9 3c 9e 5a 8f 3c c9 6c 75 3d c8 42 03 bc
       0.026609987 0.017499264 0.0599182 -0.008011527
000360 e3 ac 8c 3d 5f d4 36 3d 2f 0a 8c 3c 8d e6 3a 3d
       0.06868913 0.044636127 0.0170947 0.045630027
000370 02 d9 2c 3d 0a a0 91 3d 1e 5a 79 bc c8 67 4d bd
       0.042199142 0.07110603 -0.0152192395 -0.0501478
000380 45 f1 86 bd 18 e8 7c 3a 6d 21 99 bd bb 2d 9e 3c
       -0.06588987 0.0009647622 -0.074770786 0.019308915
000390 c6 85 25 bd 7d d3 0f bb ab a1 50 bd c5 9b 01 3d
       -0.04041078 -0.0021946125 -0.05093543 0.031642694
0003a0 7b fd ae bc c2 67 27 3d 6d 5d a8 3d 2f d5 9d bc
       -0.021361103 0.040870436 0.082209446 -0.019266693
0003b0 c0 75 8a 3c 8e af 92 bd 8b dc 03 3d 4a 9b 0e 3d
       0.01690185 -0.07162391 0.032192748 0.034816064
0003c0 66 a8 a6 3d a2 63 31 3d f7 e6 8a bc 57 a9 3a bd
       0.08137588 0.043307908 -0.016955836 -0.04557165
0003d0 bb f0 94 bc 54 aa 8b bb 6a c7 a8 3d a4 b6 20 bd
       -0.018181195 -0.004262248 0.0824116 -0.03923668
0003e0 d2 98 a8 3c c9 f0 50 3c 61 dc df bc 56 74 3d 3c
       0.020580683 0.01275272 -0.027326765 0.011563381
0003f0 ec c2 8b 3b 82 4f 95 3d 68 9c 29 bd 32 d0 a2 bd
       0.00426518 0.072905555 -0.041408926 -0.07949866

conv_block_4.5.bias f4 [16]
000000 b3 8c 10 3d bb 1c 2e bd 19 e8 e4 3c 3c 9b 13 bd
       0.03529043 -0.04250787 0.027942704 -0.036036715
000010 6d 13 93 3c f5 4e 09 bd a5 b9 7f 3c f9 a8 3e bd
       0.017953599 -0.033522565 0.015608226 -0.046547864
000020 ae 81 78 bd 2f e4 a4 bd 18 e1 a4 3d 55 3d a2 3d
       -0.060670547 -0.08051335 0.08050746 0.079218544
000030 22 23 a4 bc 18 26 94 bd e6 20 a1 3d 4b 11 cb bc
       -0.020036284 -0.07233828 0.07867603 -0.02478852

conv_block_5.0.weight f4 [16]
000000 4b bb 7f 3f 5b bc 7f 3f fc 05 80 3f 71 16 80 3f
       0.9989516 0.9989678 1.0001826 1.0006849
000010 2d 07 80 3f 4d f0 7f 3f 1c c6 7f 3f d5 13 80 3f
       1.000219 0.99976045 0.99911666 1.0006052
000020 2f 00 80 3f 15 fe 7f 3f 4b 12 80 3f b9 fa 7f 3f
       1.0000056 0.99997073 1.0005583 0.9999195
000030 a9 16 80 3f 0c 04 80 3f 9d d2 7f 3f f2 25 80 3f
       1.0006915 1.0001235 0.99930745 1.001158

conv_block_5.0.bias f4 [16]
000000 b7 c0 25 ba 13 1d 5d b9 2b 78 0c 39 c5 7a 93 b9
       -0.0006322967 -0.00021087033 0.00013396206 -0.00028129495
000010 2a 3f 58 b9 cd b5 8e b9 93 73 58 ba 5c 33 c7 b8
       -0.00020622896 -0.00027219803 -0.0008256968 -9.498626e-05
000020 20 6a 70 39 bc c3 8e b8 5b d8 a2 39 dc a8 3e b9
       0.00022927718 -6.807546e-05 0.00031060245 -0.00018182717
000030 95 07 af 39 ec 1b 51 3a b1 c5 86 3a 7c 25 28 ba
       0.0003338425 0.0007976878 0.0010282305 -0.0006414277

conv_block_5.0.running_mean f4 [16]
000000 63 36 4b 3e ab 30 e0 3d 5a 6f d3 3e a1 f4 a3 3b
       0.19844966 0.10946783 0.41295892 0.0050035273
000010 2a 99 5a 3e 2f 9f 3b be 69 3b 21 3e 20 12 7d 3e
       0.2134749 -0.18322442 0.1574532 0.24713945
000020 83 44 9f 3d 34 11 c8 3d cc 2d b3 3e 5e 4d a2 3e
       0.077767394 0.09768906 0.34995878 0.3169965
000030 90 e1 d1 3e 00 01 2b 3d a2 ff c7 bd 9f fd 01 be
       0.40992403 0.041749 -0.09765555 -0.12694405

conv_block_5.0.running_var f4 [16]
000000 b6 7d cc 3d 02 df 88 3d 8e 42 a8 3e 79 bb f3 3d
       0.09984915 0.0668316 0.32863277 0.11900992
000010 7a 5f 23 3e c7 3f a0 3d b3 74 3c 3d a3 66 78 3e
       0.1595439 0.078246646 0.04600973 0.24257903
000020 85 ca 8e 3d 0f 84 4f 3d 92 dd 1a 3e 70 3d 0d 3e
       0.06972221 0.05066305 0.15123585 0.13792968
000030 a8 f6 9f 3e 3d 74 31 3d 3e 1a a7 3d 33 dd 67 3d
       0.3124287 0.043323744 0.08159302 0.056607436
