cloud-detection-code/tests/test_artifacts/test_save_r2_conv/test_save_r2_conv.pt (torch, 11551 bytes, 4 tensors)

.weights f4 [192]
0	0x3da515f3	0.08060827
1	0xbd633f3a	-0.05548022
2	0x3e08e391	0.1336806
3	0xbc53a2ae	-0.012917204
4	0x3da002c2	0.07813026
5	0x3c4bf7dc	0.012449231
6	0xbda6407f	-0.081177704
7	0x3d1bd987	0.038049247
8	0x3ee1dd01	0.44113925
9	0xbe3f9349	-0.18708529
10	0xbe3b2bbf	-0.18278407
11	0x3e23d8b1	0.1600063
12	0xbdee8e4f	-0.11648237
13	0x3ef2fc57	0.47458145
14	0x3e6ef6a5	0.23336275
15	0x3bc13e24	0.0058973003
16	0xbe87af14	-0.26500762
17	0x3e481a8a	0.19541374
18	0xbe2270f0	-0.15863395
19	0xbd9def0e	-0.07711612
20	0xbc65f8a1	-0.0140363285
21	0xbe5001f9	-0.20313253
22	0x3f24d0c8	0.64381075
23	0x3ef6efdc	0.48229873
24	0x3e40f77b	0.18844406
25	0x3da7c4e2	0.08191849
26	0xbebc176e	-0.36736625
27	0xbe143cf8	-0.14476383
28	0xbdcd1ab7	-0.10014861
29	0xbed36c80	-0.41293716
30	0xbb1bf792	-0.0023798686
31	0xbda5e197	-0.080996685
32	0x3cf629a9	0.030049162
33	0xbecce595	-0.40018907
34	0xbebe0d25	-0.37119403
35	0xbe3411bc	-0.1758489
36	0xbf08d9ca	-0.5345732
37	0xbc05d5b6	-0.008168628
38	0x3cbb569f	0.022868453
39	0xbd13af69	-0.036055956
40	0x3df848bc	0.12123248
41	0xbd789cc5	-0.060696382
42	0x3e0313c1	0.12800504
43	0xbe0cb306	-0.13740167
44	0xbe5576f1	-0.20846154
45	0x3d791982	0.06081534
46	0x3ea64f86	0.32482547
47	0x3e4ca0d3	0.19983225
48	0x3dccc052	0.0999762
49	0x3ed809eb	0.42195067
50	0xbea9c58f	-0.33158538
51	0x3de6df03	0.11273005
52	0x3d8f848b	0.070077024
53	0x3e9702e3	0.2949439
54	0x3d20703a	0.039169528
55	0xbeb85171	-0.35999635
56	0x3dead788	0.114668906
57	0x3cabfcdf	0.020994602
58	0xbd54789b	-0.05187283
59	0x3ca88f78	0.020576224
60	0x3e1a36e5	0.15060003
61	0x3c16acef	0.009196504
62	0x3d6fd308	0.058550864
63	0xbd2f8fd0	-0.04286176
64	0xbe081d8a	-0.13292518
65	0x3e25b0ed	0.16180773
66	0x3df9ba5f	0.121937506
67	0x3e0a1b7d	0.13487048
68	0xbe0014b1	-0.12507893
69	0x3de0dcf3	0.10979643
70	0x3eca44f4	0.39505732
71	0x3f1eaeb4	0.61985326
72	0xbf2f28eb	-0.6842181
73	0x3e572a07	0.21012126
74	0x3f029602	0.51010144
75	0x3e1b6e08	0.15178692
76	0xbe000438	-0.1250161
77	0x3ee1e71d	0.44121638
78	0xbda83c2c	-0.08214602
79	0x3e3d4f9b	0.18487398
80	0x3e9274f8	0.28604865
81	0xbd8d14a3	-0.06888702
82	0x3e0bdfcc	0.1365959
83	0xbde17f83	-0.11010649
84	0x3e20c554	0.15700275
85	0xbe393498	-0.18086469
86	0xbe3551e9	-0.17707027
87	0xbe2aeb94	-0.16691428
88	0x3dd6d0f7	0.10489076
89	0xbd5de45e	-0.054172866
90	0xbdf23d47	-0.11828094
91	0x3ebff89f	0.3749437
92	0x3e5ea367	0.2174202
93	0xbd7ba52a	-0.06143681
94	0x3eea982e	0.4581923
95	0xbe6f76be	-0.2338514
96	0xbca4ee7c	-0.02013325
97	0xbe0d108d	-0.13775845
98	0xbd936b73	-0.07198229
99	0xbdbb12a2	-0.09134413
100	0xbe08b3cc	-0.13349837
101	0x3d90894e	0.07057439
102	0xbea64f3c	-0.32482326
103	0xbd74cbde	-0.059764735
104	0x3f298df3	0.6623222
105	0xbd8d0e75	-0.06887523
106	0xbe35bac1	-0.17747022
107	0xbdc132be	-0.094335064
108	0x3e9e46e9	0.30913475
109	0x3dc0f073	0.09420862
110	0xbc4ac57a	-0.012376184
111	0x3eb148f4	0.3462597
112	0x3dfac311	0.12244237
113	0xbe4d0819	-0.2002262
114	0x3e09a303	0.1344109
115	0xbce37f3a	-0.027770627
116	0xbeda5a6a	-0.42647105
117	0x3e48d1fc	0.19611353
118	0x3e70ea02	0.23526767
119	0xbe53cb30	-0.20682979
120	0x3e2a62a6	0.16639194
121	0x3d14a252	0.036287613
122	0x3dd49e8c	0.10381803
123	0x3aa4592a	0.001253878
124	0xbe4316e0	-0.19051695
125	0x3ea3ce26	0.31993216
126	0xbdcaa8f8	-0.098955095
127	0xbf20d707	-0.62828106
128	0xbdca5d4a	-0.09881075
129	0xbf0bb4e8	-0.54572916
130	0x3e441d16	0.1915172
131	0x3e5eccc4	0.217578
132	0x3ed4d54f	0.41568992
133	0x3e8c3f97	0.27392265
134	0xbe1b89d5	-0.15189297
135	0xbe13383f	-0.14376925
136	0x3d5483f4	0.051883653
137	0xbe70745a	-0.23481885
138	0xbe8f42bc	-0.27980602
139	0x3e430d56	0.19048056
140	0xbd4d233b	-0.050082427
141	0x3e125fde	0.14294383
142	0xbdc293a1	-0.09500814
143	0xbe08c29f	-0.13355492
144	0x3f49b7e1	0.787962
145	0xbca59027	-0.020210339
146	0x3e6407e8	0.22268641
147	0x3d2e6f64	0.0425867
148	0xbdfd6f7d	-0.1237478
149	0xbdc0b8d2	-0.09410252
150	0x3e66772a	0.22506395
151	0x3f0a355c	0.5398767
152	0x3e79bd73	0.24388675
153	0xbf0fd706	-0.56187475
154	0x3ef0b00c	0.47009313
155	0x3ecb8d4a	0.39756233
156	0x3e988662	0.29790026
157	0xbdf85838	-0.121262014
158	0x3cd9d944	0.026592858
159	0xbd5feb5d	-0.05466782
160	0xbdf2739c	-0.11838457
161	0x3e4aa67d	0.19790073
162	0x3d29cdc8	0.041456014
163	0xbe09da4d	-0.13462181
164	0x3e3f4427	0.18678342
165	0xbe254663	-0.16140132
166	0x3e5456f2	0.20736292
167	0x3ea10b1a	0.31453782
168	0x3ca6937d	0.020334
169	0x3f012413	0.5044567
170	0x3e189698	0.14901197
171	0xbd9e785e	-0.07737802
172	0x3eff0f4a	0.49816352
173	0x3db0b711	0.08628667
174	0x3eb921ca	0.36158592
175	0x3e84212f	0.25806567
176	0xbf46035d	-0.7734888
177	0x3e9b8462	0.30374438
178	0x3e159464	0.14607388
179	0xbee4402a	-0.44580203
180	0x3e9f444a	0.31106788
181	0xbdbbe205	-0.09173969
182	0xbe85a205	-0.26100174
183	0x3e991523	0.2989894
184	0xbdca468c	-0.09876737
185	0xbe898008	-0.26855493
186	0xbba5a653	-0.005055228
187	0xbe0a2825	-0.13491876
188	0xbe853e9c	-0.2602433
189	0x3edcc732	0.43120724
190	0x3e4042ee	0.18775532
191	0xbee55392	-0.44790322

.filter f4 [16, 16, 3, 3]
0	0x3d8ca0c9	0.06866605
1	0x3ce5e509	0.028063314
2	0xbdb27f95	-0.087157406
3	0x3bb78f7e	0.0056018224
4	0x3ada8783	0.0016672466
5	0xbdad13ad	-0.084510185
6	0xbc1ba5a8	-0.009499945
7	0x3e00b4a7	0.12568913
8	0x3d92fe53	0.07177415
9	0xbc945b62	-0.018109981
10	0x3d9c531a	0.07633038
11	0x3dce26ee	0.10066019
12	0xbda3d309	-0.07999236
13	0xbd0f2019	-0.03494272
14	0x3e11390e	0.14181921
15	0xbd709a46	-0.058740877
16	0xbdb29c30	-0.08721197
17	0x3bc460c6	0.0059929816
18	0x3d849f51	0.064757
19	0x3eb13745	0.3461248
20	0x3dbb10ac	0.09134039
21	0xbdeede08	-0.11663443
22	0xbd0d7f17	-0.03454503
23	0xbe2cc036	-0.16870198
24	0xbc60af58	-0.01371368
25	0x3d24331f	0.040087815
26	0xbdaabf25	-0.08337239
27	0xbb147075	-0.0022650037
28	0xbda2b4ca	-0.07944639
29	0xbd8be8a4	-0.06831482
30	0x3cf0ad49	0.029379504
31	0x3cddf74c	0.02709546
32	0xbd5d4535	-0.05402108
33	0x3cc3940a	0.023874301
34	0x3d75d8df	0.060021278
35	0x3cab6f40	0.020927072
36	0x3d0663d2	0.03281004
37	0xbcd0c733	-0.02548561
38	0x3d6352ba	0.055498816
39	0x3e49d45a	0.19709912
40	0x3cbe16e2	0.02320427
41	0x3db80604	0.089855224
42	0x3d0b5458	0.034015983
43	0xbe3d18b2	-0.18466452
44	0xbd9e8173	-0.07739534
45	0xbcca6235	-0.024705032
46	0xbd4d1ba1	-0.050075177
47	0x3d79585c	0.06087528
48	0x3e4ba064	0.19885403
49	0x3c0d12bc	0.008610424
50	0x3cf2b723	0.029628342
51	0x3e0acacc	0.13553923
52	0xbd1eec8f	-0.03879982
53	0xbdb86763	-0.090040945
54	0x3d51177e	0.051047795
55	0xba8f8479	-0.0010949514
56	0x3d875093	0.06607165
57	0x3dee8a21	0.1164744
58	0x3d99c2a8	0.07507831
59	0x3e838954	0.2569071
60	0xbcadb37c	-0.021203749
61	0xbd92be0d	-0.071651556
62	0x3da3bdd8	0.07995194
63	0x3c4b1862	0.01239595
64	0xbdacdbcc	-0.084403604
65	0xbd4e318e	-0.050340228
66	0x3e0e811b	0.13916437
67	0x3cbacf07	0.022803796
68	0xbd343755	-0.04399808
69	0x3da6c6e4	0.08143404
70	0x3d50e51f	0.050999757
71	0xbbf12836	-0.00735953
72	0xbc165a4e	-0.009176804
73	0x3d3f1651	0.046652142
74	0x3dd70395	0.1049873
75	0xbb8d124e	-0.0043051606
76	0x3e327684	0.17428023
77	0x3e010649	0.12600054
78	0xbd7b2f85	-0.061324615
79	0xbe668171	-0.22510315
80	0xbd8a9f98	-0.06768721
81	0x3d309db6	0.043119155
82	0x3d0e950e	0.03481012
83	0xbd7bb7e7	-0.06145468
84	0xbc318fab	-0.010837476
85	0x3ded9bac	0.11601958
86	0xbd57064c	-0.05249624
87	0x3cc9fcf1	0.024656745
88	0x3e4e289a	0.20132676
89	0x3dc214e5	0.094766416
90	0x3d09e1da	0.033662654
91	0xbce93120	-0.028465807
92	0xbde9e92e	-0.114214286
93	0xbd941b8e	-0.07231818
94	0x3cf13411	0.029443773
95	0xbe08f457	-0.13374458
96	0xbd9c8252	-0.07642044
97	0x3ac14f31	0.0014748332
98	0x3ca91257	0.020638628
99	0xbc61d566	-0.013783788
100	0x3c0861f4	0.008324135
101	0xbcaa4948	-0.020786896
102	0xbda454ab	-0.08023962
103	0x3dd5152d	0.104044296
104	0xbcd203d4	-0.025636591
105	0xbc6cb69a	-0.0144478325
106	0x3da0428d	0.078251936
107	0x3d1a88e1	0.037728194
108	0xbcf8bf21	-0.030364575
109	0x3b4275e1	0.0029672312
110	0x3e1e52e8	0.15461314
111	0x3dcdd89f	0.10051083
112	0xbe3a6a56	-0.18204626
113	0x3e6f778b	0.23385446
114	0x3c77129e	0.015080122
115	0xbe4dd60b	-0.20101182
116	0xbd740d1d	-0.05958282
117	0xbcc2bc7a	-0.023771513
118	0x3cf1229c	0.029435448
119	0x3b7ce2de	0.0038587372
120	0x3c50c836	0.0127430465
121	0xbd081a0d	-0.03322797
122	0xbdc1fbfd	-0.09471891
123	0x3dbeebd2	0.09322323
124	0x3e0d5357	0.13801323
125	0xbcbef487	-0.02330996
126	0x3d93f4bd	0.072244145
127	0x3b284bf1	0.002568003
128	0xbd749d7a	-0.059720494
129	0x3e0de03b	0.13855068
130	0xbe1c7c37	-0.15281759
131	0xbdc9e46a	-0.0985802
132	0x3d2685a6	0.0406548
133	0x3c04a307	0.008095509
134	0xbcc0fd35	-0.023558239
135	0x3d349166	0.044083975
136	0xbca22eae	-0.01979765
137	0xbce85c4f	-0.028364329
138	0xbd0f4cfb	-0.034985524
139	0x3d3e46b7	0.046454158
140	0x3e05d1e1	0.13068344
141	0xbdc19cb9	-0.094537206
142	0xbc670dc7	-0.014102406
143	0x3deb749a	0.11496849
144	0xbd4a3d79	-0.04937503
145	0xbdb03cd8	-0.08605355
146	0xbcd2d92b	-0.02573832
147	0x3cad96eb	0.021190127
148	0x3cbacf07	0.022803796
149	0xbc4e1f26	-0.012580669
150	0x3da6b9f8	0.081409395
151	0x3e0e8c29	0.13920654
152	0x3cf466de	0.029834207
153	0x3c867c45	0.016416678
154	0xbe1890e8	-0.14899027
155	0xbd4a7edb	-0.049437385
156	0x3df06528	0.11738044
157	0x3ada8783	0.0016672466
158	0x3dfb46bc	0.12269351
159	0x3b56c2d0	0.0032769926
160	0xbc8508dd	-0.016239578
161	0x3d969517	0.073526554
162	0x3d36e55a	0.04465232
163	0x3e3033c4	0.17207247
164	0x3da9e833	0.082962416
165	0xbcfd9b6d	-0.030957902
166	0xbd0f2019	-0.03494272
167	0x3c27d919	0.010244631
168	0xbd3fab9c	-0.04679452
169	0xbdcda5d2	-0.10041393
170	0xbd50f824	-0.051017895
171	0x3e4f568d	0.2024786
172	0x3e1fe360	0.1561408
173	0xbdca1d33	-0.098688506
174	0x3de2b5b4	0.11069813
175	0xbd0d7f17	-0.03454503
176	0xbe11f0c5	-0.14252003
177	0xbd8bbbfb	-0.06822964
178	0xbcc00ae1	-0.023442687
179	0x3cc01c04	0.023450859
180	0xbd3e5cb3	-0.046475124
181	0xbdef2a59	-0.11677999
182	0xbd0170b6	-0.03160163
183	0xbb7dbf82	-0.0038718884
184	0x3cddf74c	0.02709546
185	0x3d128747	0.03577354
186	0x3c8ccaf6	0.017186623
187	0x3d272a1f	0.040811654
188	0x3d0fd148	0.035111696
189	0xbc7443e0	-0.014908761
190	0x3dc24c2c	0.09487185
191	0x3d574d86	0.052564166
192	0x3d65bb3c	0.056086764
193	0x3cbe16e2	0.02320427
194	0xbe077a56	-0.13230261
195	0x3dec22a9	0.115300484
196	0x3d6e2ce5	0.058148284
197	0xbddd3cf2	-0.1080264
198	0xbceff895	-0.029293338
199	0x3dd51ebe	0.10406254
200	0x3c8dfc40	0.017332196
201	0xbd2cfb2f	-0.042231735
202	0x3c0d12bc	0.008610424
203	0xbe1d9d11	-0.15391947
204	0x3dee3ce2	0.11632706
205	0x3e6d41bb	0.23169605
206	0xbcb9efe8	-0.022697404
207	0xba27e9a4	-0.00064053596
208	0x3de74ff1	0.112945445
209	0x3e19e4ef	0.15028737
210	0x3db2b6fd	0.087263085
211	0x3d99c2a8	0.07507831
212	0x3e0bf3ff	0.13667296
213	0x3d8b8ae8	0.06813604
214	0xbd147737	-0.036246505
215	0xbd2baf53	-0.04191525
216	0xbc3dbfd0	-0.011581376
217	0xbd469a65	-0.048487086
218	0x3d9c90d7	0.076448135
219	0x3d9a55c0	0.07535887
220	0x3d3e46b7	0.046454158
221	0x3e493f96	0.19653162
222	0xbca7a87f	-0.020466087
223	0xbe257bee	-0.16160557
224	0xbc0729ee	-0.008249743
225	0x3cdf9131	0.027290912
226	0x3e37c6d2	0.17946938
227	0x3d96f496	0.0737087
228	0xbc80826b	-0.015687188
229	0x3e327684	0.17428023
230	0xbdecf7e1	-0.11570717
231	0xbb250ccc	-0.002518463
232	0xbdd6b177	-0.104830675
233	0xbe06d7c6	-0.13168249
234	0x3ca6d14b	0.02036347
235	0xbdd7260b	-0.10505303
236	0xbcfb92c3	-0.03070963
237	0x3d96f50a	0.07370956
238	0x3ded9bac	0.11601958
239	0x3e25e2a5	0.1619974
240	0xbbcfbe01	-0.006339789
241	0x3d2ca4a4	0.0421492
242	0x3df13346	0.11777358
243	0xbc886a0b	-0.016652128
244	0xbe47ed9b	-0.19524233
245	0xbda03bb1	-0.07823885
246	0x3d6bb388	0.05754426
247	0x3cf13411	0.029443773
248	0x3d10823c	0.03528045
249	0xbd2d483b	-0.042305212
250	0xbe05c578	-0.1306361
251	0x3a622a5a	0.00086275267
252	0x3b9f9072	0.004869514
253	0xbd118c09	-0.03553394
254	0xbc75b64a	-0.014997074
255	0xbcc1063a	-0.02356254

.bias f4 [2]
0	0x3aa21558	0.001236598
1	0x3a7bf49f	0.00096113415

.expanded_bias f4 [16]
0	0x39e53873	0.00043720342
1	0x39e53873	0.00043720342
2	0x39e53873	0.00043720342
3	0x39e53873	0.00043720342
4	0x39e53873	0.00043720342
5	0x39e53873	0.00043720342
6	0x39e53873	0.00043720342
7	0x39e53873	0.00043720342
8	0x39b228d3	0.00033981222
9	0x39b228d3	0.00033981222
10	0x39b228d3	0.00033981222
11	0x39b228d3	0.00033981222
12	0x39b228d3	0.00033981222
13	0x39b228d3	0.00033981222
14	0x39b228d3	0.00033981222
15	0x39b228d3	0.00033981222
