cloud-detection-code/tests/test_artifacts/test_jaccard_loss/model_checkpoint_2.pt (torch, 439769 bytes, 347 tensors)

input_conv_block.0.weight f4 [3]
00000000: e2f3 7f3f 1304 803f 4602 803f
0.9998151 1.0001243 1.0000694

input_conv_block.0.bias f4 [3]
00000000: 837b 8939 e3e3 033a 27e3 e9b9
0.000262227 0.0005031211 -0.00044610465

input_conv_block.0.running_mean f4 [3]
00000000: 228d 9d3e 4fcc 9c3e 5364 853e
0.30771738 0.30624625 0.26053104

input_conv_block.0.running_var f4 [3]
00000000: fa83 9b3e df3a 9a3e 634a 993e
0.30374128 0.3012304 0.29939565

input_conv_block.2.weight f4 [2, 3, 1, 1]
00000000: adbf 02bf 9f11 80be 6a30 f03e 927d 5e3e
00000010: d1a0 d3be 175f e9be
-0.51073724 -0.25013444 0.46911937 0.21727589 -0.4133363 -0.4558036

conv_block_1.0.weight f4 [2]
00000000: 8bf2 7f3f bb06 803f
0.99979466 1.0002054

conv_block_1.0.bias f4 [2]
00000000: ffbd a139 a0d1 c939
0.0003084987 0.0003849389

conv_block_1.0.running_mean f4 [2]
00000000: dd3b c1bd fa9d 38be
-0.09435246 -0.18029013

conv_block_1.0.running_var f4 [2]
00000000: 559a a43e fdd8 da3e
0.32148996 0.42743674

conv_block_1.2.weight f4 [2, 2, 3, 3]
00000000: b7bd eebd 8695 84bc 7057 3ebe fbe9 0f3e
00000010: 0238 6f3e 4282 ce3b 848a 693e 7c87 2d3e
00000020: d0d9 443e 3f67 6e3e 22a0 6a3e 0207 6dbe
00000030: a49b a5bd e797 b7bd a932 02be 4818 ac3d
00000040: 045e 713d 196f 23bd d62b 1fbe a1ba 623e
00000050: 4c52 263e 1c9c 6f3e 74bb 633c c037 f53c
00000060: a634 583e 4503 5d3e a39c 3c3e 2e69 553e
00000070: f5e1 3f3e 76f9 243d 3a60 5cbd 22c5 6e3e
00000080: 6fef 44be 36b9 47bc 3634 4a3e 8177 65be
-0.11657279 -0.01618458 -0.18588042 0.140541 0.23361209 0.006302149 0.22806746 0.16946214
0.19223714 0.23281573 0.22912648 -0.23147205 -0.08086327 -0.0896452 -0.12714638 0.08403069
0.05892755 -0.039900873 -0.15544066 0.22141506 0.16242331 0.23399395 0.013899673 0.02993381
0.21113834 0.21583278 0.18419127 0.20840904 0.1873854 0.040276967 -0.053802706 0.23317388
-0.19231962 -0.012190154 0.1974648 -0.22408868

conv_block_1.2.bias f4 [2]
00000000: de5b 39be c24a bdbd
-0.18101451 -0.092427745

conv_block_1.3.weight f4 [2]
00000000: 4aee 7f3f dd08 803f
0.99972975 1.0002705

conv_block_1.3.bias f4 [2]
00000000: d594 0b38 475e 1b3a
3.3278793e-05 0.0005926829

conv_block_1.3.running_mean f4 [2]
00000000: ddba 883d f674 b43e
0.06676266 0.35245484

conv_block_1.3.running_var f4 [2]
00000000: e9a9 ad3e f463 d53e
0.33918694 0.4167782

conv_block_1.5.weight f4 [2, 2, 3, 3]
00000000: 8718 1a3e 37c4 c03d f287 70be a2e5 0d3e
00000010: c6ab 62be 92fd 69be 84f2 78bd 31db 69bd
00000020: cecd a23d 012e aebd b875 8cbb 2234 37bd
00000030: 30f4 0dbe 6b3a 9dbd 7c37 0f3e b5ec 1cbc
00000040: 7566 5bbe d745 bb3d 1c77 9f3b 6be6 26bd
00000050: a47c f1bc f102 9cbd 880b 083e 66f6 fcbb
00000060: 60ac 063e 89b2 02be 0fb6 0bbe 4d7d b9bd
00000070: c970 203e 23e0 b53c 4305 273e bfdc 653e
00000080: d41f e53c 5984 33be ee5b 0f3e 1f76 113e
0.15048419 0.09412425 -0.23489359 0.13857129 -0.22135839 -0.22850636 -0.060778156 -0.057093803
0.079494104 -0.08504868 -0.004286494 -0.044727452 -0.13862681 -0.07677158 0.1398601 -0.00957792
-0.21425803 0.0914418 0.004866494 -0.040747087 -0.029478379 -0.076177485 0.13285649 -0.0077198027
0.13151693 -0.12763418 -0.13643669 -0.09057102 0.15668024 0.022201603 0.16310601 0.22447489
0.027969278 -0.17530955 0.13999912 0.14205216

conv_block_1.5.bias f4 [2]
00000000: 1f35 2abd c43b cfbd
-0.041554566 -0.10118821

conv_block_2.0.weight f4 [2]
00000000: 3d03 803f 87f9 7f3f
1.0000988 0.99990124

conv_block_2.0.bias f4 [2]
00000000: 62aa 0738 667c 0a38
3.234519e-05 3.301762e-05

conv_block_2.0.running_mean f4 [2]
00000000: c8f8 18be 09e0 e03d
-0.14938653 0.10980231

conv_block_2.0.running_var f4 [2]
00000000: ab92 b23e db8e b23e
0.34877524 0.34874615

conv_block_2.2.weight f4 [4, 2, 3, 3]
00000000: 281e 47be 4c93 45be 85a3 10be 8ac1 cf3d
00000010: 7deb 42be fd72 b1bd a6ff 5d3e 74dd 36be
00000020: 2364 4b3e 9267 86bd 256d e8bc bdbf 95bd
00000030: 3071 5d3e f264 fd3d 2af6 64be e10d 54be
00000040: c798 e0bd 6d49 0d3e 3bd0 dc3d 5606 37be
00000050: 8468 303e b5f7 17be a8d0 333e e9ba 10be
00000060: f6d0 0e3e bc81 a03d ff4b 6bbe 3592 3b3e
00000070: d246 263d 9c14 5f3d e1e4 d33c 1413 35bd
00000080: 6d68 19be 96a4 aabd 1678 0a3b 4c49 733d
00000090: 9afa cd3d 353c e6bc 78f7 143d ae5c 353d
000000a0: 9806 153c 5500 dfbd b1e7 abbd 3281 1c3c
000000b0: 6004 ffbd 75f4 22be 08d5 66be f74e 4dbe
000000c0: 719f c9bd b7da d7bd 0110 3dbe 0be2 33be
000000d0: 957a 543e acc9 893c d532 5f3e 5add 62be
000000e0: aefd 653e d9a6 6bbd 53c5 9b3d 51b7 de3c
000000f0: a335 bdbd e8d7 233e de13 d53d 6381 213e
00000100: b4f0 9c3c e91f 70bc cd03 533d af56 18bd
00000110: 719c 21be b55f c2bc 3e77 8e3c 6185 6d3e
-0.19445097 -0.1929447 -0.14124878 0.101443365 -0.19035144 -0.086645104 0.21679553 -0.17857915
0.19862418 -0.06562723 -0.028372357 -0.07311962 0.21625209 0.123727694 -0.22359529 -0.2070842
-0.1096664 0.13797541 0.10781904 -0.1787351 0.1722737 -0.14840586 0.17560065 -0.141338
0.139469 0.07837245 -0.22978209 0.18317492 0.040594883 0.054463014 0.025865974 -0.044207647
-0.14981242 -0.083321735 0.0021128706 0.059396073 0.10057564 -0.02810488 0.036368817 0.04427784
0.00909581 -0.10888735 -0.08393801 0.009552287 -0.12452006 -0.15913565 -0.22542202 -0.20049654
-0.09844864 -0.105397634 -0.18463136 -0.17566697 0.20749886 0.016819797 0.21796735 -0.22154751
0.22460052 -0.057532165 0.07605996 0.027187021 -0.09238746 0.1600033 0.1040418 0.15772013
0.019157745 -0.0146560455 0.051517297 -0.037192043 -0.15782334 -0.023727277 0.017390843 0.23195411

conv_block_2.2.bias f4 [4]
00000000: b84b 613e 981a b6bc d76d 3ebe 65e0 343d
0.2200154 -0.022229478 -0.18596588 0.04415931

conv_block_2.3.weight f4 [4]
00000000: c719 803f 61ee 7f3f 9407 803f 47f4 7f3f
1.0007867 0.9997311 1.0002313 0.9998211

conv_block_2.3.bias f4 [4]
00000000: cf1a 4d3a 4c53 43ba e0a8 d839 820b 72ba
0.0007824124 -0.0007451072 0.00041324552 -0.0009233282

conv_block_2.3.running_mean f4 [4]
00000000: ca4b 0c3b cade 46bb d007 bdbe bb6e 3b3e
0.0021407478 -0.0030345195 -0.36920023 0.18303959

conv_block_2.3.running_var f4 [4]
00000000: 120a a03e ee9f 983e f7d5 1e3f 6a90 9e3e
0.31257683 0.29809517 0.62045234 0.30969554

conv_block_2.5.weight f4 [4, 4, 3, 3]
00000000: f651 a0bd 1759 1abe 88df d03c 236d 5a3d
00000010: 60a9 973d 5b2c 8bbd 6dd4 373d 8504 483b
00000020: 3302 223e cc85 02be f8a7 233e 2122 e1bd
00000030: 0595 8c3c f646 8d3d 7e25 1c3e 355c 20bd
00000040: b131 ea3d 4847 853d 466d e63d bd69 cfbd
00000050: 5447 97bd c782 dfbd 08c6 8abc fae9 c5bd
00000060: 8fcd 41bd c8c6 0d3e 202c 92bc 7eb1 2a3c
00000070: 4265 b8bd 2e6c 223d df3e 89bd 6005 93bc
00000080: 93b9 de3d df19 1d3e a1b8 f03d 73ea b6bd
00000090: 0b19 033e 0e72 eb3d 91c5 113e 01d0 e83d
000000a0: 7be1 cdbd 45ea 893c 7649 8fbd 0cdf 213e
000000b0: bcc6 213e 41b2 f9bc 8382 073e 6369 29be
000000c0: eecc 6abd 6881 16bd d9e9 973d 2442 103d
000000d0: 1771 ab3d 973f 003e 06e6 c7bd 3df0 263e
000000e0: 6998 f43d 352a 1c3e 636e 16bd 4280 68bd
000000f0: 1fa2 3b3d 714e 2bbc 38fe 70bd 58c2 40bd
00000100: 31f3 cabc a2a4 68bc dbaf 413d 8619 3abd
00000110: e4e8 a13d edf4 f13d 736f 67bd 3104 3abd
00000120: faf4 72bd 4e93 bf3d 143e 3d3c 4d81 0e3e
00000130: cd7f c93d a310 013e 5031 cc3d e0eb ca3c
00000140: 7165 223e c48c c5bb e415 cfbc 386a be3b
00000150: 6258 73bd 61a5 dbbd fbb5 78bd 1f08 29be
00000160: 94d9 f63d 5bf4 8f3d cac9 0f3e 61fc fa3d
00000170: 521f fc3d 965d c23d 5138 1b3e 1f8c cc3c
00000180: 4b24 a33d 2ec5 04bd 5ec0 0c3e bd95 263e
00000190: 691b 5dbb 1dda 09be 0852 e03d c5a7 cbbb
000001a0: d1b0 7c3d c376 ad3d 1c59 e73d e81f 353b
000001b0: c73b f33c 0c80 3a3d 3a8e e4bc a1c3 843d
000001c0: a815 c73c 1f72 d53b 602c 073e 3a3b bd3b
000001d0: 911a 143e 02cc 203e 17c5 debd f4b0 a4ba
000001e0: 28f3 00bd 9ba7 fdbd 0849 083e 741f 7f3d
000001f0: 780e 06be dda9 f23b 8aa3 ff3d e33f 02be
00000200: 1d12 ad3d 293f c13c 2c09 863d c2b2 f0bd
00000210: 6325 28be 44fc 0dbe bea9 063e 2ef2 c83d
00000220: 84e7 e1bd 15ad 123e 9f38 95bd bc23 19be
00000230: d427 023e ac08 00be 8d40 0b3e 772c 95bc
-0.07828133 -0.15073048 0.025497213 0.053326737 0.074053526 -0.067955695 0.04488032 0.0030520272
0.15821151 -0.12746352 0.15982044 -0.10992838 0.017160902 0.068983 0.15248677 -0.039150435
0.11435259 0.065077364 0.11251311 -0.1012759 -0.07386652 -0.10913616 -0.016940132 -0.09663768
-0.047315177 0.1384536 -0.017843306 0.010418294 -0.090036884 0.03965395 -0.06701445 -0.017946899
0.10875239 0.153419 0.11753965 -0.089314364 0.12802522 0.114963636 0.14235522 0.113677986
-0.100527726 0.016835341 -0.069964334 0.15807742 0.15798467 -0.030480506 0.1323338 -0.16544108
-0.057324342 -0.036744505 0.0741765 0.035219327 0.083711796 0.12524258 -0.0976067 0.16302581
0.119431324 0.15250476 -0.036726367 -0.05676294 0.045808908 -0.010455714 -0.058836192 -0.04706034
-0.024774166 -0.014199408 0.04728685 -0.045434497 0.079057485 0.11814294 -0.05650277 -0.045414153
-0.05931566 0.09354268 0.011550445 0.13916512 0.09838829 0.12604003 0.09970343 0.024770677
0.1585901 -0.0060287435 -0.025278993 0.005811002 -0.05941046 -0.10724903 -0.060720425 -0.16507004
0.120532185 0.07029029 0.1404182 0.12255169 0.123106614 0.09490506 0.15158202 0.024969159
0.07965907 -0.032414608 0.13745257 0.16268058 -0.0033738262 -0.1346211 0.10953146 -0.006215068
0.061692063 0.084699176 0.11296293 0.0027637426 0.02969159 0.04553227 -0.02789985 0.06482626
0.024302319 0.0065138484 0.13200521 0.0057748826 0.1446326 0.15702823 -0.10877436 -0.0012564943
-0.031481892 -0.12385484 0.13309109 0.062285855 -0.13091457 0.007405503 0.124823645 -0.12719683
0.084507205 0.023589687 0.06544718 -0.11752845 -0.16420512 -0.13865763 0.13150689 0.09811817
-0.11030486 0.14323838 -0.0728619 -0.14955038 0.12710506 -0.12503308 0.13598843 -0.018209679

conv_block_2.5.bias f4 [4]
00000000: 02c7 28be 01e3 79bd a734 08be 9e67 f8bd
-0.16482165 -0.061007503 -0.13301335 -0.121291384

conv_block_3.0.weight f4 [4]
00000000: 9c01 803f 59ff 7f3f d4d9 7f3f f40b 803f
1.0000491 0.99999005 0.99941754 1.0003648

conv_block_3.0.bias f4 [4]
00000000: 8bce 6a38 6716 3cb9 6dd1 cd38 f812 42b6
5.5982306e-05 -0.00017937423 9.81417e-05 -2.8919294e-06

conv_block_3.0.running_mean f4 [4]
00000000: 8537 653d c31a 943e 0c93 bf3e b981 de3d
0.05596115 0.28926668 0.37416875 0.108645864

conv_block_3.0.running_var f4 [4]
00000000: e1dc cf3e 108d aa3e 5272 aa3e 71c8 a13e
0.40598205 0.33310747 0.33290344 0.31598237

conv_block_3.2.weight f4 [8, 4, 3, 3]
00000000: ad0e 993d 61a1 84bd 5a99 1fbe 4b64 7dbd
00000010: 88aa 94bd 3936 01be d4a6 55bd 3efa 133b
00000020: 2a59 2b3d 9015 bcbd 22db ccbd dbbc afbc
00000030: f78b e2bc 2436 033e 8215 24bd 2d61 ca3d
00000040: e36e 063e 9c9f f2bd b919 1dbd bd21 4f3d
00000050: 62b0 26be 4900 c0bc facf 9fbd 984b 05be
00000060: 3569 0c3c 4779 c93d b65b e8bd 03a5 163d
00000070: 2fe4 81bd d032 7fbd af77 3cbd 68a3 9ebd
00000080: 8354 3cbd 2d27 3c3c 7505 d83b c2f3 113e
00000090: b1d2 0d3e 9528 b53d 6cad db3d fa4f c63d
000000a0: e564 e4bd b6f7 053e 941e 1abe 83d6 52bc
000000b0: a7ff 8d3d 15a9 d7bd 8f4c e53d 304e 9cba
000000c0: cb79 eb3d 1132 d6bd de38 b33d 4f7a 1ebd
000000d0: 7aab 26be a842 d1bc 7168 12bd 64da 11be
000000e0: 2e71 e83d 4b58 0f3e 2d4c f3bc edd0 c23d
000000f0: a547 ec3d e403 7cbd 9dcc 233e ff00 7b3d
00000100: fea2 ce3d e1f3 65bd 2655 b3bd a8d5 13be
00000110: a550 b6bd 8b01 b73d ffcd 183e b713 68bd
00000120: 2fe2 88bd f0d0 59bd 2450 f9bd f606 0ebe
00000130: 7ab5 95bc 27ec 2abd 2d02 793c 2aea c33c
00000140: 7634 19bd 000b 113e 5143 8ebd a02c 583d
00000150: 8c51 07be 7273 c63c 2c29 08be 2595 84bc
00000160: a0ba 4bbd 40db d8bc 4fae d63d 0632 fcbc
00000170: f7b7 a4bc 9512 42bd d3bc 86bd 3cc0 a93d
00000180: 99e5 b6bd 12eb cebb 4a40 86bd 01b0 1e3e
00000190: cf86 07be 9d54 9f3d c769 cfbd 4348 d0bd
000001a0: b299 1abe 69fe eabd 2bf9 1c3e 1993 0abe
000001b0: 037d 99bc ea2f be3c 25a9 903d bb35 a43c
000001c0: fe23 d63d c461 1fbe 025f c13d 6e79 e43b
000001d0: 8518 043e d3bb 0c3c bfde c83d 4703 2a3e
000001e0: 36f7 26be b248 803d 98b4 e63d ef6c 0cbe
000001f0: c984 85bd 5763 cf3d 4b2e 01be c144 edbd
00000200: f392 6e3d f3cb cabd 5c69 dabc 37a2 023e
00000210: 1c3b 7cbd 46f4 3dbd 96ef c8bd bdc5 78bd
00000220: 90d7 e6bd 9887 9a3d 5394 94bd cb88 a4bd
00000230: 660f 7bbc d23f db3d ad1d b13d 843e 183e
00000240: badd 82bd 1387 6fbc 43c4 7fbd 213e 12bd
00000250: 8428 153d a7e6 813d 3024 09be 32ca 15bd
00000260: 0824 1ebe e486 f83d bbb6 ca3c 8456 7f3d
00000270: bdf5 41bd fec4 3f3d 69f6 6c3d be7b c93d
00000280: 917e b03d ba88 c4bd 0c4f e6bd 27d0 9d3d
00000290: 08fc adbd 49f6 a03d 8215 26be d411 c33c
000002a0: 30a2 783d 68d3 a3bd 215b 38ba fd6a d4bd
000002b0: 7929 4dbc be1f a3bc ebcf b4bd d2ab 063e
000002c0: 0955 c53d 4f03 90bd 7937 5ebd 1705 aebc
000002d0: 9a43 e23c 85fc 013e b99b 5cbd cf35 f9bd
000002e0: a4f7 813d 5ccf 443d a1c4 f2bd 955b 85bd
000002f0: 6465 fe3d 4956 8e3d 56a7 0abe ad9b e63d
00000300: 0671 7d3d 6e77 ba3d 1962 cbbd 4332 0dbe
00000310: c295 483b ad92 7b3d cf27 a53d 88f5 8e3d
00000320: 0715 aabd 4f5b 13bd 9a60 08bd d881 183e
00000330: 155a 143e 6e16 14be 8bd9 09bd 1822 743d
00000340: 75d9 273e 6896 27be 96c3 d53d 28b8 a53d
00000350: f691 90ba cc12 cbbd 0684 0dbe ea61 ca3d
00000360: 0e28 ca3c e44f 023e 8f82 aa3d 5fb7 003e
00000370: d8a2 b9bd b311 113e 0d2e bb3d dc36 c83d
00000380: e30f c1bd 4094 afbd aa3b d3bd e9ab ddbd
00000390: ff01 ce3c 736a 1abe 3804 87bd 4bc8 f0bd
000003a0: c08d 2fbd 00fd 79bd 2111 a2bd 7e26 6abd
000003b0: fb45 dc3d 7d2b a4bd e54c 0f3e 7164 0cbe
000003c0: ec30 f73b b8c3 263e 2db5 0ebe 305b 8bbd
000003d0: bde4 aabc 23f3 82bd 3c4a 4fbd ac57 0a3e
000003e0: 9361 f73d d649 65bd 63f5 3fbc 1176 90bd
000003f0: 31de ac3d d66c 11be 08d3 fabd c009 aabc
0.07473502 -0.06476093 -0.15585843 -0.061863225 -0.07259089 -0.1261834 -0.052161053 0.0022579576
0.04183308 -0.091838 -0.10002734 -0.021452358 -0.027654631 0.12813622 -0.040059574 0.09881816
0.13128237 -0.11846849 -0.03835461 0.050569285 -0.16278222 -0.023437636 -0.0780334 -0.13017118
0.008570005 0.09837585 -0.113456175 0.03677846 -0.06342351 -0.062304318 -0.046012577 -0.07746011
-0.045979034 0.01148395 0.0065924474 0.14253142 0.13849904 0.08845631 0.10726437 0.09683223
-0.111520566 0.13082775 -0.15050727 -0.012868526 0.069335274 -0.10530297 0.11196243 -0.0011925157
0.114978395 -0.10458768 0.08751081 -0.03869086 -0.1627635 -0.02554448 -0.035744134 -0.14243466
0.11349712 0.13998525 -0.02969941 0.09512506 0.115371026 -0.061527148 0.15996023 0.061280247
0.10089682 -0.056140784 -0.08756475 -0.14436972 -0.089021005 0.08935841 0.14922331 -0.056659427
-0.06683766 -0.053177774 -0.12173489 -0.13869843 -0.018275011 -0.04172912 0.015198273 0.023915369
-0.037403546 0.14164352 -0.06946433 0.052776933 -0.13214701 0.02422497 -0.13296956 -0.016184399
-0.049738526 -0.026471734 0.104824655 -0.030785572 -0.020107253 -0.047381002 -0.06578984 0.08288619
-0.08930511 -0.0063146437 -0.06555231 0.15496828 -0.13235019 0.077798106 -0.10127597 -0.10170033
-0.15097693 -0.11474306 0.15329425 -0.13532676 -0.018736368 0.023216207 0.07063512 0.020045152
0.10456084 -0.15564638 0.094419494 0.0069724834 0.12899978 0.008589703 0.098081104 0.16602813
-0.16305241 0.062638655 0.11264914 -0.1371343 -0.065194674 0.101263694 -0.12615316 -0.115853794
0.05824561 -0.099021815 -0.026661567 0.12757193 -0.06157981 -0.046375535 -0.098113224 -0.060735453
-0.11271584 0.07545394 -0.07254853 -0.08033904 -0.0153234955 0.10705532 0.08648238 0.14867598
-0.06389947 -0.014619607 -0.06244303 -0.035703782 0.03641559 0.063428216 -0.1339271 -0.03656978
-0.15443432 0.12135103 0.024745336 0.062338367 -0.047353495 0.046818726 0.057852183 0.09838055
0.086178906 -0.09596391 -0.11245546 0.077057175 -0.08495337 0.07859475 -0.16219142 0.023812212
0.06070155 -0.07999307 -0.0007032622 -0.10371969 -0.012522095 -0.019912597 -0.0882872 0.13151482
0.0963536 -0.07031881 -0.05425212 -0.021242661 0.027620126 0.12693985 -0.053859446 -0.12168466
0.06346062 0.048049316 -0.1185391 -0.065116085 0.124216825 0.06950051 -0.13540396 0.112601615
0.061875366 0.09104811 -0.0993082 -0.13788705 0.003060684 0.061419178 0.080642335 0.06980425
-0.08304792 -0.03597575 -0.03329525 0.14893281 0.14487489 -0.14461681 -0.03365473 0.059602827
0.16391547 -0.16365969 0.10437696 0.08091766 -0.0011029828 -0.099156946 -0.13819894 0.09881957
0.024677303 0.12725788 0.08325683 0.1256995 -0.09064263 0.14166908 0.09139643 0.097760886
-0.09426858 -0.08573198 -0.103141144 -0.10823805 0.025147436 -0.1507967 -0.065926015 -0.11756953
-0.042859793 -0.061032295 -0.07913423 -0.057165615 0.10755535 -0.08016107 0.13994177 -0.1371019
0.0075436737 0.16285598 -0.139363 -0.06804502 -0.020861024 -0.06394031 -0.050607905 0.13510007
0.12079158 -0.05597862 -0.01171622 -0.070537694 0.08440817 -0.14201674 -0.12247282 -0.020756602

conv_block_3.2.bias f4 [8]
00000000: 24f8 2bbc a5db a43d 53c2 1c3e 1fc2 b9bd
00000010: 1f48 a73c 923e 193d fac0 bbbd c018 c4bc
-0.010496173 0.08049706 0.15308504 -0.09070229 0.020420132 0.037413187 -0.09167667 -0.023937583

conv_block_3.3.weight f4 [8]
00000000: 6208 803f 52eb 7f3f 06e5 7f3f c50d 803f
00000010: 01fb 7f3f 41f7 7f3f 190a 803f 8ff6 7f3f
1.0002558 0.99968445 0.9995884 1.0004202 0.99992377 0.99986655 1.0003082 0.99985594

conv_block_3.3.bias f4 [8]
00000000: 113d 3d3a 6f11 c939 29db d0b9 6865 273a
00000010: f99a 90b9 dc75 7db8 cc06 adb8 7fb4 24ba
0.00072188774 0.00038350697 -0.0003983614 0.0006385655 -0.00027581284 -6.0429666e-05 -8.250549e-05 -0.00062829995

conv_block_3.3.running_mean f4 [8]
00000000: eb7d 6dbe e86c 333e 4b34 34be 2567 f0bc
00000010: 2725 71bd 5d1a cb3d 743b 4dbe 7fe7 e0bd
-0.23192565 0.17522013 -0.17598073 -0.029346058 -0.05887332 0.09917138 -0.20042211 -0.109816544

conv_block_3.3.running_var f4 [8]
00000000: 8e3f 0a3f ae2a cd3e f67b 063f 5f9c c43e
00000010: 8e27 c73e 7cae b33e 2b46 ba3e 3ece f83e
0.54003227 0.40071625 0.525329 0.38400552 0.38897365 0.3509406 0.3638166 0.4859485

conv_block_3.5.weight f4 [8, 8, 3, 3]
00000000: b38f c5bd 4d6b 033d b1d6 d03c 6909 8cbd
00000010: 2aab 1fbd 653c e6bd 8c82 b73d 860c 26bb
00000020: 418d e03c eb95 3abd b631 b23d dddd f93c
00000030: 832d ecbc 7ee1 e83d b17e 82bd 46ef febb
00000040: c9c8 d4bd 1256 a6bd 2fe9 ecbd 8c98 4bbd
00000050: 3239 b53d 40a2 cd3d fb2f 9c3d 22ca 78bd
00000060: 4953 723c 5283 ec3d 9693 df3d 83d6 21bc
00000070: fcb9 0bbd bc48 b8bd adcf f7bc 9cc6 ccbd
00000080: 9302 c6bc 69cb a13d 6772 91bc 459d edbd
00000090: 7c06 be3d fc6f b23c 7c1e c7bd c7a4 13bd
000000a0: b6af c53c e9e6 adbc 5377 ffbc b268 ee3d
000000b0: 240c db3d 319c 56bc 10fd ccbd 1cc1 a8ba
000000c0: 73a9 58bd a018 d93c 5ccf 9fbd e3d7 993b
000000d0: b701 87bd 7b1b bfbd e68e d23d a93b ad3d
000000e0: 6a0b 94bc e6e9 ac3d 8e18 b9bd de58 523c
000000f0: 26d6 8cbd 9e8d e23c 7096 6c3d c948 c33d
00000100: eed2 bc3c 372f 36bd 648e 79bc 33a9 b8bd
00000110: 92a3 cb3c 66b1 aebd d916 80bd 9dd6 ad3d
00000120: 3c8c 50bd 8c1d 7e3d 9590 81bd d25e b53d
00000130: b30d 3bbd 982c 9fbd f29f 493d 222c ea3d
00000140: b4e9 92bd 4fe4 9bbd 8a54 c8bd d31a 4ebd
00000150: 0785 43bd dcd0 c3bd b92b cabd 532b c0bd
00000160: 60c1 d93d 0a0c 5f3d 5edb f7bc da5b 0f3c
00000170: 1de8 cd3d 8e89 e3bd 94c0 ecbd f7ae c93d
00000180: 9a55 643d 5b29 c83d 82ab c4bd 82f5 89bc
00000190: b7b0 c63d 4387 2d3d a59d 1fbb d04b 9a3d
000001a0: 23eb 0b3d 7106 56bd 2fee aebd 5d4b 86bd
000001b0: a3cd acbc 8840 643b e139 8e3d 76fe 45bd
000001c0: 3d79 0bbd b705 6abc 7ac9 c53d 2d68 91bd
000001d0: 8384 c8b9 2637 6b3c 581a c3bc d59e 6c3d
000001e0: 15ff 81bd 8d85 e43d 1ce3 bb3c 12eb 1d3c
000001f0: e63b 253b b91b 463d a011 59bd d87a 3e3d
00000200: 3a61 fd3c b4ce 7e3c 89c0 f03d 0e23 763d
00000210: 9bdc 393c 26a6 853d c008 eb3c 3444 243d
00000220: cdb9 bd3d 00d9 39bc 333a c33d 8bc4 d0ba
00000230: a91d a5bd 7562 1e3d 4603 13bd 3638 b83d
00000240: f479 c7bd 237a c7bb 07bd a8bc 1d4e 65bd
00000250: 21da df3d 8eae 913d e8e7 1cbd e3c5 bf3d
00000260: 0cbc a23d dac3 973d 6af1 e63d 50fe a03d
00000270: c2ac c13d 267a 19bd 915a ad3d 3d91 963c
00000280: 9f6e 833c 8930 593d 1450 e23c 1d23 353c
00000290: f541 a4bd fae3 343d f098 93bd 9694 a8bd
000002a0: f092 d2bd 71af d3bc 3566 bcbd 3a98 3e3d
000002b0: 653d 1d3c 4ee4 afbd 19db 52bd bcb7 fabc
000002c0: e784 6bbb 00c7 703d 6c93 e93d c807 ca3c
000002d0: 3d50 b0bd 1611 113d e41d c73d 8d52 cb3d
000002e0: 3da6 ff3b b114 ce3d 9061 a4bd c7a6 81bd
000002f0: 1906 44bd 0122 09bd 13e0 9dbc a08f 573b
00000300: d66c c83d 1191 533d a074 ce3d 5953 efbd
00000310: e9f6 243d 1c56 843d acc4 343d a158 c0bd
00000320: 78e7 28bc 966c 3ebd 783c 0ebc 2310 d43d
00000330: a006 67bd d9a3 f03d 2fef 503c 99f9 c53d
00000340: 3d0e cfbb db8d 873d fa71 d73c a1a4 8fbd
00000350: 9496 2dbd 93b3 203d 63ff 433b adf0 9ebb
00000360: 6090 0abd 4fc2 7abd 2915 c4bd 3b56 0cbc
00000370: e7e7 82bc 7919 f0bd 519a 653c 198c d5bd
00000380: d7e3 773d 4be5 c1bd 6ffd 2d3d a851 ce3d
00000390: b153 dcbd ce34 a6bd 0d05 8d3d 41e7 bc3d
000003a0: bda4 d2bd 4136 563c 5672 2cbd ee85 aa3d
000003b0: 23f7 5ebb a5c2 86bd f9a0 283d f524 d1bd
000003c0: 079d d3bd 0e41 1f3d bf47 733d c8f3 a53d
000003d0: 1e5d df3d a159 c93d ebc7 a23d 8dd5 cd3d
000003e0: edf8 35bd 5f5b e3bd 0f30 eebd 987b e1bd
000003f0: 80f8 d03d 5056 2dbd 2164 4e3d 8adb 513d
-0.09646549 0.032084752 0.025492998 -0.06837732 -0.038981594 -0.11241988 0.08960447 -0.0025337054
0.027411105 -0.04555313 0.08700888 0.0305013 -0.028830295 0.11371134 -0.06371821 -0.0077799885
-0.10389859 -0.08121885 -0.11567914 -0.049706027 0.088488 0.10040712 0.07626339 -0.060739644
0.014790365 0.11548485 0.10916822 -0.009877804 -0.034112915 -0.08998248 -0.030250395 -0.09998819
-0.02417115 0.079001255 -0.017754747 -0.116022624 0.092785805 0.021781914 -0.09722611 -0.036045816
0.024131637 -0.02122827 -0.031184828 0.11641063 0.10695675 -0.013098762 -0.10009205 -0.0012874934
-0.052895974 0.026501 -0.078032225 0.004694925 -0.06592124 -0.09331413 0.10281162 0.08458645
-0.018071849 0.0844305 -0.090378866 0.01283857 -0.06876783 0.027655419 0.057760656 0.09535367
0.023049798 -0.04447862 -0.0152317025 -0.09016647 0.02485827 -0.0852993 -0.06254358 0.084882
-0.050914988 0.062039897 -0.06326405 0.08855976 -0.04566736 -0.077721775 0.0492248 0.11434199
-0.071734816 -0.07611906 -0.097817495 -0.05031855 -0.047734287 -0.09561321 -0.09871621 -0.093832634
0.106325865 0.05445484 -0.03025597 0.008749926 0.10054038 -0.11110221 -0.11560169 0.09847825
0.0557457 0.09773513 -0.09603025 -0.0168407 0.097016744 0.042365324 -0.0024355438 0.07533991
0.03415979 -0.052252237 -0.08541524 -0.06557343 -0.021094149 0.0034828503 0.06944633 -0.048338376
-0.03405117 -0.014283589 0.09657569 -0.07099948 -0.00038245702 0.01435641 -0.023816273 0.05776866
-0.06347481 0.11158285 0.022935443 0.009638565 0.0025212704 0.048366282 -0.052995324 0.04650387
0.03093015 0.015552212 0.11755473 0.060092025 0.0113441 0.06525831 0.028690696 0.040104106
0.09263954 -0.011343241 0.09532585 -0.0015927715 -0.08062298 0.038668115 -0.035891794 0.089950964
-0.097400576 -0.006087558 -0.020597948 -0.055982698 0.10930277 0.07113372 -0.0383071 0.09363916
0.07946023 0.074104026 0.11276515 0.07861006 0.09456779 -0.037470005 0.0846454 0.018379802
0.01604396 0.053024802 0.027626075 0.011055735 -0.08020393 0.044162728 -0.07206905 -0.082314655
-0.10281932 -0.025840493 -0.09199182 0.046531893 0.009597157 -0.085884675 -0.05147848 -0.03060519
-0.003593737 0.05878353 0.114050716 0.024661914 -0.08609054 0.035416685 0.09722498 0.09927855
0.0078017996 0.1006254 -0.08026421 -0.063306384 -0.047857378 -0.033479694 -0.019271886 0.0032892004
0.09786384 0.051652018 0.10080838 -0.11685819 0.040274534 0.064617366 0.044132873 -0.093919046
-0.010309093 -0.046490274 -0.008681409 0.1035464 -0.056402802 0.117500015 0.012752338 0.096667476
-0.006318836 0.06618854 0.026299465 -0.07013822 -0.04237993 0.039233755 0.002990686 -0.004850468
-0.033829093 -0.061220463 -0.095743485 -0.008565481 -0.01597972 -0.117236085 0.014013843 -0.10427112
0.06052002 -0.09467562 0.04247802 0.100741684 -0.1075815 -0.081155404 0.06885729 0.09223796
-0.102853276 0.013074459 -0.042101227 0.08326326 -0.0034021817 -0.06580094 0.04116914 -0.10212127
-0.10332685 0.0388804 0.059394594 0.08103138 0.109064326 0.098315485 0.079482876 0.10050497
-0.044426847 -0.11101412 -0.1163026 -0.11009902 0.102036476 -0.042318642 0.05038846 0.05123476

conv_block_3.5.bias f4 [8]
00000000: 9c35 583d 4e2d 3bbd 5498 3abc 2d41 99bd
00000010: b395 053d b4cd 90bd a8e3 8ebd 32e3 ccbd
0.0527855 -0.045697503 -0.011388857 -0.074831344 0.032613467 -0.07070485 -0.06977016 -0.100042716

conv_block_4.0.weight f4 [8]
00000000: df06 803f 5301 803f ed05 803f 4f12 803f
00000010: 2b00 803f 29e6 7f3f 4cf9 7f3f acf3 7f3f
1.0002097 1.0000404 1.0001808 1.0005587 1.0000051 0.9996057 0.9998977 0.9998119

conv_block_4.0.bias f4 [8]
00000000: 044b e039 9bb6 30b9 78c7 97b8 09ac 8839
00000010: 34f5 b939 9326 cdb9 5082 4b39 07c4 da39
0.000427805 -0.00016852694 -7.237395e-05 0.00026068118 0.0003546864 -0.00039129387 0.00019408134 0.00041726252

conv_block_4.0.running_mean f4 [8]
00000000: b223 9f3d f88a 1a3e 8ad7 843e 1169 3a3d
00000010: f9f2 043e 6075 4a3d ee7a 613d 8617 2e3e
0.0777048 0.15092075 0.25945693 0.045510355 0.12983312 0.049428344 0.055048876 0.17001161

conv_block_4.0.running_var f4 [8]
00000000: e27c a53e 619e 9b3e 769e 113f 9418 b73e
00000010: c47d 993e d71f 953e 0050 993e f968 db3e
0.3232184 0.3039427 0.5688242 0.3576094 0.29978764 0.29125854 0.29943848 0.42853525

conv_block_4.2.weight f4 [16, 8, 3, 3]
00000000: de74 adbc 8821 cdbd 3c02 7a3d fbca ecbc
00000010: 97d5 08bd 369e 0ebd c8a9 14bd 1b01 08bd
00000020: cacf ee3d 356c 663d 7d6b 04bd 5263 9abd
00000030: 1a56 7abc 5cf8 8ebd 7d60 c4bc 5e2f e63d
00000040: d3b7 d33d 8d08 91bc a44f d2bd 9762 b83d
00000050: 468d d1bd c9c2 e13d 054a f53c 19ac c7bd
00000060: f09a f23c e4c6 6e3d 3d63 383c 1e84 73bd
00000070: 7233 6a3d cf0c d33d 793c 1f3c adf6 0c3d
00000080: e860 dcbd 62d8 47bd 5114 82bd bfd3 493d
00000090: 2dde d33d 9a8e 8ebd 8ba1 e33d c364 853d
000000a0: be63 0a3d c218 65bd e519 5abb 3301 c9bd
000000b0: 9482 8a3c ba64 403d 565b dcbd 5e7e dc3d
000000c0: cec0 c1bd bd4f 9dbc 4276 81bd bf48 ebbd
000000d0: 0ca1 70bd 3216 54bd 4246 b2bc 3570 f63c
000000e0: 850b 413d 292f 653d 1f58 cbbd b4d9 a4bd
000000f0: 300b e53d aa8e 8fbd 4781 6cbd 3a5f 86bd
00000100: 7fd5 e5bd 1942 b73d 2676 ecbd f85a e93d
00000110: 0568 a43c 5d9f a2bd d6b1 933d 4f6a 6d3d
00000120: 9e39 af3d d452 c93d 0bbc 863d 7f16 dabc
00000130: 4a4d e93d e403 913d 36ae d0bc fa06 173d
00000140: fe1b 2d3d ac6d fbbc 6ac0 16bd 31c5 c13d
00000150: 2bbb bbbd 52f5 213d c2f1 87bd fe59 a2bd
00000160: 70ea 9fbd a94c c93c a6a2 47bc 8a41 fb3b
00000170: 4fcd b73c de70 51bd 8f4e 6fbd 9275 ae3d
00000180: 6d1e 223d 69f2 18bd 3a70 bcbb 40e5 1c3d
00000190: 571c f2bc 4df0 c9bd 7e5c d83d 2010 de3d
000001a0: 3749 e23c e86b 43bd a0f8 a8bd eeba debb
000001b0: 3ac1 c63d ff8b 343c 8943 c5bc f4ae e9bc
000001c0: 98af 963d 3567 a0bc f06b 8bbc 95d2 dd3d
000001d0: fafc a9bd 16b7 aebd 5da3 2a3d 6698 ac3d
000001e0: 61bb 113c 7479 bb3d f6cd 91bd 5ca6 14bd
000001f0: 2c23 d1bd 4ec9 aebd b5b7 63bd f2b7 5c3c
00000200: 5618 7e3d 31b4 e6bd dd54 abbd b86a 9a3d
00000210: a9d7 af3d e2c1 493c 5932 c1bc 2f8b aa3d
00000220: 84bc 88bc 6f22 6a3d 6df3 c7bd 7feb 763c
00000230: 1e9c 9f3d 5700 a73d 68b6 fcbc 27df 8cbd
00000240: 2128 c4bd cb2c 57bd cd33 91bc a749 923d
00000250: 402e f1bd 827c c83c 206a 83bd 6822 cb3d
00000260: ad16 8e3d c22c b43d 0015 7e3c 610b 48bb
00000270: 06e0 a1bd 7d98 f13c e6aa 203d 3c27 70bd
00000280: c6a3 5f3d c4f4 81bd a835 1e3d 54b4 9d3d
00000290: 1347 ee3d 679a bcbd 99e4 ec3c a85b 903d
000002a0: 7899 c1bd 8a51 8c3d 4d9c 1dbd 3bda db3b
000002b0: 07c5 14bc e2a5 003d 2e21 ce3d 3ae9 023d
000002c0: 6a2a 0b3d 7094 7c3d 2158 8b3d e47a b4bd
000002d0: 9238 753c cfb1 c7bd 5d36 48bd 4e90 8cbd
000002e0: 409d 883d 3c5f a13d dfb2 94bd a41d d93c
000002f0: 1fe5 b43c a860 d5bd 2184 923d bc7c 24bd
00000300: 57a8 debd 91eb ddbd eb69 cdbd 6f83 1e3c
00000310: 50e0 8e3d 2587 32bc bc4f 52bc 7312 c73d
00000320: 7c91 78bd 2a3d 923d f71b 643d 51b0 dc3d
00000330: 17e2 c6bc 9d0a 84bd acf2 ddbd b476 853d
00000340: 8332 96bd 1465 de3d 1c62 7b3c 6c77 74bd
00000350: f6a5 5f3d b355 81bc 6c58 97bb 62b3 85bc
00000360: 7299 f2bd e13f cbbd df47 7c3c f515 ccbd
00000370: b7e9 9dbd 12dc af3d 3e4a d63c 49fc 563d
00000380: f3b8 89bd 6a8d ddbc 60fe d4bd d985 9a3d
00000390: 32cb 96bd 2503 1cbc dda0 ce3d bb02 7a3c
000003a0: cb92 d3bd 98fc 89bd e9db d53d 6dc7 a0bd
000003b0: 2cb2 a8bd a477 813d e655 9bbd 0644 b7bd
000003c0: a004 e3bc 9fc6 063d 5428 afbd 4ac7 543d
000003d0: 2011 a1bc 17f3 b2bc ac20 3bbd 6698 1a3c
000003e0: 8fcc fc3b e928 11bd c212 f1bd cc91 9f3d
000003f0: a191 c1bc 4d49 a43c f50e 87bd 0277 463d
-0.02117389 -0.10016161 0.061037287 -0.028905382 -0.03340682 -0.03481885 -0.03629473 -0.03320418
0.11660726 0.056255538 -0.03232907 -0.07538475 -0.015279317 -0.069809645 -0.02397179 0.11239503
0.10337796 -0.017704273 -0.102690965 0.090031795 -0.10232024 0.110234804 0.029942522 -0.09749622
0.029614896 0.058295146 0.011254129 -0.05945217 0.05717797 0.103051774 0.009719008 0.034414936
-0.10760671 -0.048790343 -0.06351531 0.049274202 0.10345111 -0.06960793 0.11114796 0.065133594
0.033786528 -0.055931814 -0.0033279594 -0.09814682 0.016907968 0.04697106 -0.107596084 0.1076629
-0.09460603 -0.019203061 -0.06321384 -0.114884846 -0.058747336 -0.05177898 -0.021762017 0.030082801
0.047130127 0.05595318 -0.09928917 -0.08049336 0.111837745 -0.07009633 -0.057740476 -0.06561132
-0.11222362 0.08948154 -0.115459725 0.11394304 0.020069132 -0.079405524 0.07211654 0.057962712
0.085559115 0.09830251 0.06578835 -0.026622055 0.11391695 0.0708082 -0.025473695 0.036871888
0.042263024 -0.030691944 -0.036804594 0.094614394 -0.09166559 0.039540596 -0.066379085 -0.07927321
-0.07808387 0.024572687 -0.0121847745 0.007667725 0.022436766 -0.05113303 -0.05842453 0.085185185
0.039579798 -0.037340555 -0.005750683 0.038304567 -0.02955453 -0.09860287 0.105645165 0.10842919
0.027622802 -0.04771033 -0.082505465 -0.006797186 0.09704824 0.011019706 -0.024080055 -0.028525807
0.073577106 -0.019580463 -0.017019242 0.10831181 -0.083002046 -0.085310146 0.0416597 0.08427505
0.008894772 0.09154025 -0.07119362 -0.036291465 -0.10211787 -0.085344896 -0.05559512 0.01347159
0.062034927 -0.112648375 -0.08365796 0.07539886 0.08586056 0.012314292 -0.023583578 0.083273284
-0.016691454 0.057161745 -0.09763227 0.015070795 0.07793449 0.08154362 -0.030848697 -0.068785004
-0.095779665 -0.052532952 -0.017724896 0.07142954 -0.117763996 0.024473432 -0.06416726 0.09918672
0.06937919 0.087975994 0.0155079365 -0.003052436 -0.07904057 0.029491657 0.03922548 -0.058631167
0.054599546 -0.063455135 0.03862539 0.077004105 0.1163465 -0.092091374 0.028917598 0.07048732
-0.094531 0.0685149 -0.03847914 0.0067093647 -0.009080178 0.0314082 0.10064922 0.031960703
0.033975996 0.061665 0.06803919 -0.08812502 0.014967101 -0.09750711 -0.04887997 -0.068634614
0.06670618 0.07879493 -0.072606795 0.026503392 0.02208191 -0.10418826 0.07154108 -0.04015802
-0.10871952 -0.10835946 -0.10029968 0.009674891 0.06976378 -0.010896479 -0.012836393 0.09720316
-0.06068562 0.07140572 0.05569073 0.10775817 -0.02427773 -0.06447337 -0.108373016 0.065167814
-0.07333853 0.10859123 0.015343215 -0.059684202 0.054601632 -0.015787935 -0.004618695 -0.016320888
-0.118456736 -0.09924293 0.015397995 -0.099651255 -0.07710593 0.08586897 0.026158448 0.05248669
-0.067247294 -0.02704497 -0.10400081 0.07545061 -0.07362975 -0.009522234 0.10089276 0.01525944
-0.10330733 -0.067376316 0.10442335 -0.078505374 -0.082371086 0.06321648 -0.07584743 -0.08948521
-0.027712166 0.032904264 -0.08552614 0.05194787 -0.019661486 -0.02184443 -0.045685455 0.009435749
0.007714815 -0.035439406 -0.11771156 0.077914804 -0.023629012 0.020054484 -0.0659465 0.04845334

conv_block_4.2.bias f4 [16]
00000000: 7287 89bd 66fa df3c e03d 863d 27cf cb3b
00000010: 9301 ab3d 932b ddbd 0d3a 9dbd 9a45 c4bd
00000020: ac8d 923d fccc cbbc 06d5 95bd b7f9 23bd
00000030: aad1 953c 6243 28bd f0c2 35bd 2379 f3bc
-0.06715287 0.027341079 0.065547705 0.006219763 0.0834991 -0.10799327 -0.07677088 -0.09583588
0.07155928 -0.024878018 -0.073160216 -0.04003307 0.018288452 -0.041079886 -0.04437536 -0.029720848

conv_block_4.3.weight f4 [16]
00000000: cb06 803f b6fc 7f3f b804 803f 39ef 7f3f
00000010: cdfe 7f3f 8800 803f 3c11 803f 8d16 803f
00000020: f9ef 7f3f e60a 803f 05d4 7f3f 1d00 803f
00000030: 7bf4 7f3f b8d6 7f3f 4505 803f 70f9 7f3f
1.0002073 0.9999498 1.000144 0.999744 0.9999817 1.0000162 1.000526 1.0006882
0.99975544 1.0003326 0.9993289 1.0000035 0.9998242 0.9993701 1.0001608 0.99989986

conv_block_4.3.bias f4 [16]
00000000: bf6c b8b9 5cc8 46b9 1822 4e39 c763 fa39
00000010: 9f2d 5dba c770 3c39 1f2b 4139 6a4f 5a3a
00000020: 6fd1 83b9 fb6e 123a 3261 8838 a04b bf37
00000030: 5dfb ecb8 ce10 f5b9 ca62 08b9 27e9 6a3a
-0.00035176237 -0.00018957391 0.00019658392 0.00047758056 -0.0008437279 0.0001797109 0.00018421978 0.00083278737
-0.00025142307 0.00055859954 6.5030894e-05 2.280419e-05 -0.00011300177 -0.00046742562 -0.00013006772 0.0008961134

conv_block_4.3.running_mean f4 [16]
00000000: f931 27be a081 a43d eedd 753d 921d 50bd
00000010: b3ac 123e cd75 bdbe 04c6 63bd 98db 39be
00000020: 518b 903e ed69 443d d93b 053e efcd fcbd
00000030: 60e3 dabc 0f48 02be 05ad 4d3e c482 81bd
-0.16327657 0.080325365 0.0600261 -0.05080945 0.14323692 -0.37003937 -0.055608764 -0.18150175
0.2823129 0.04795258 0.13011111 -0.12343966 -0.026719749 -0.127228 0.20085533 -0.0632377

conv_block_4.3.running_var f4 [16]
00000000: 46b0 ad3e 839e bf3e 623e db3e 360c bc3e
00000010: 89c2 b93e 8e6e c43e a7f7 b03e 1915 bb3e
00000020: 6cbc af3e 7f7a e33e 8549 0a3f fd1b d53e
00000030: f884 c83e 7e99 be3e 1a48 bc3e 1db7 b63e
0.33923548 0.37425622 0.42821032 0.36728066 0.3628123 0.38365597 0.34563944 0.36539534
0.34323442 0.44429395 0.5401843 0.41622916 0.39163947 0.3722648 0.3677376 0.3568658

conv_block_4.5.weight f4 [16, 16, 3, 3]
00000000: f6aa 8c3c 62a0 cf3b 14b4 9c3d 1abc 0ebc
00000010: 1c2b e1bb e881 2dbd 91b9 7a3c 72b1 8bbd
00000020: ab4f a03d d898 b4bb 0f3e bb3c 6bf5 67bc
00000030: 924b 173d 692f f93b 8241 3c3c a013 c63c
00000040: 6d46 703d eace 9c3c c40a 7ebd 071b a0bd
00000050: 849d a23d 2cc2 bb3c e5a6 9d3d a6ad 36bd
00000060: 34ee 45bd 940e 913b eaf7 583d 071e af3c
00000070: 3f9d dd3b db27 bb3c bff9 8d3d 0f6d 9fbc
00000080: 57c2 953d 9de7 133d 78cb 4a3d 7a66 93bd
00000090: 68f2 7bbc 16f6 eabc 052b 03bd 60ba 35bd
000000a0: 5078 94bd 5eda 583d 0c1a 73bd 8b1a 873d
000000b0: 7eff 27bd 222d 7a3c 2162 ef3b 5265 13bd
000000c0: 21ac 7b3d 4ed7 94bc fa85 2e3d 7069 c03c
000000d0: 709a a5bd 95af 263b a463 4c3d 1b74 26bc
000000e0: eb3e 22bb 03a6 013d cc4b 853d 551d 4fbd
000000f0: 07f7 673d acad 23bd 43d9 99bd 5f11 78bd
00000100: a53e 453c 6970 56bd 13a1 323d 7062 513d
00000110: 5868 5d3d 4d41 af3c 5ad9 a4bd 0df2 243c
00000120: 3a87 33bd 5629 9b3d 59f2 6dbc 3599 50bc
00000130: acbf 973d 29ac 97bd 3239 9fbd a5e1 2fbd
00000140: b8e2 a3bd 8dd0 a23c e7ad 3f3c 82e9 3ebd
00000150: 4136 003d 3d49 a2bd 5d74 b53c 5d00 87bd
00000160: 36a9 073d ed07 0cbd 28e3 8b3d feeb a93d
00000170: 0b40 a3bd af72 cfbc b37d 3b3d 2c9e 673c
00000180: adde 2b3d 9635 9c3d 6c04 ec39 7ce7 bd3c
00000190: 7e89 113c 1350 4c3c 78b9 d8bc a24f 9dbd
000001a0: 86d6 5e3d 71b2 5d3d 810e a1bd 3e2b 78bd
000001b0: 3dec 0ebd 708a 87bd 58e9 a33c 6e4f 623d
000001c0: fa2d 32bd 5ca2 d73c 519f a5bd ac83 933d
000001d0: 0f9d 293d ee99 783b 7faa c53c 7d15 a93d
000001e0: f5c6 a0bd 934b 9dbc ad27 9bba 7795 3fbd
000001f0: ec3b 23bc dfbc 3cbc 033a 7c3c 1a6d 52bd
00000200: 7ada e0bc 60d9 3b3d 88e5 a73d 70fd a03c
00000210: c41a 54bd f101 673d e41d 6d3d 4874 24bd
00000220: 2618 963d e5cd 15bd 378e fa3c a605 a43c
00000230: fba8 a6bd 1b54 423c 40f1 db3c 74d0 313d
00000240: 35cf 843d e54f 283d a928 aabd 8eed 0a3d
00000250: 7291 86bd f8c9 70bd 64ff 283d dfa6 a83d
00000260: 9e8a 6e3d 8788 a7bd 75e0 243d 6fc5 133d
00000270: 13b3 193d 96fe dd3c f610 ca3c 8106 883c
00000280: b7e1 ab3c 9dc5 2fbc 4a0f d0ba c824 3d3d
00000290: cc8e 2a3b 4202 d53a 4f02 0e3d 93af a0bc
000002a0: 9cbd 82bb c623 813d 1d3c 7a3d 3db2 bb3c
000002b0: 57d8 d539 d9af f53c 34d0 56bd 1b93 283d
000002c0: 8d36 88bd 445c 503b f789 2e3d da6f 053c
000002d0: 7bf2 0a3d 2bf2 e63c 2a4c 263c 3c9e 0d3d
000002e0: 3c73 7abd dc95 953d 3569 7c3d 5616 da3c
000002f0: a2c6 68bd a6a7 613c fb69 87bd 3439 67bc
00000300: 5d8c 0c3d 7032 17bd 6b85 d73b ee7d 743d
00000310: 6a44 513c a1bf e4bc b750 483d d1aa 4ebd
00000320: f18d a73d a4c6 433d 6061 493d fc78 683d
00000330: ec39 713c 941b 2ebb 36b9 a13c 6c09 b03c
00000340: 953c 2e3d 3c67 f4bc 8ea8 3ebd f501 2abc
00000350: 23c3 fd3c 5b3c 923d 163b 573c d323 853c
00000360: 4a4b ee3c 27d1 5bbd 967c 413d a5cd 0fbd
00000370: ca58 ebbc 6fb9 403d 9b57 833d fe62 f2bc
00000380: fd7b 803b 0cad 203d 4f1d 573d 51b7 373d
00000390: 7749 f1bc 3b41 1abd 939b a0bc 580c fbba
000003a0: 0ba1 693d c7a6 10bd 4f51 373c 708f bdbc
000003b0: 6678 93bd 3738 8c3c 3092 a7bd fbc7 09bd
000003c0: bfa0 543d 3f8e 103d 9630 903d aa8a 063d
000003d0: 94c1 46bd a101 f73c 21f2 0a3c 3b48 edbb
000003e0: 375a 28bc f282 8f3d 7683 3ebd 8020 8a3d
000003f0: 2b5e fc3c 0787 9abc 7b37 1dbd 6e67 54bc
0.017171364 0.006336258 0.07651535 -0.008711839 -0.006871594 -0.042360216 0.015303032 -0.068209544
0.078276955 -0.0055113845 0.02285674 -0.014157633 0.036937304 0.0076045287 0.011490228 0.02417928
0.058660913 0.019141633 -0.062021986 -0.07817655 0.079402 0.022919737 0.07697848 -0.044599198
-0.04832287 0.0044267867 0.052970804 0.021376623 0.00676313 0.022846153 0.06932401 -0.019461183
0.07312458 0.036109556 0.04951045 -0.0719728 -0.015377618 -0.028681796 -0.03202345 -0.044367194
-0.0724951 0.052942626 -0.059351012 0.065968595 -0.04101514 0.01526955 0.007305399 -0.0359853
0.06144345 -0.018169072 0.04260824 0.023487777 -0.08086097 0.0025434245 0.049899712 -0.010159518
-0.002475674 0.03165246 0.06508598 -0.050565083 0.056632068 -0.03996055 -0.075121425 -0.06056344
0.012038861 -0.052353296 0.043610644 0.051119268 0.054054588 0.021393443 -0.08049269 0.010067475
-0.043830134 0.075762436 -0.014523112 -0.01273184 0.074096054 -0.07405884 -0.07774581 -0.0429398
-0.080022275 0.019874835 0.011699176 -0.04660941 0.03130174 -0.07924125 0.022150213 -0.06591866
0.033120357 -0.034187246 0.06830436 0.08296965 -0.079711996 -0.02532324 0.045774173 0.014136832
0.041960407 0.07627408 0.00045016722 0.02318167 0.008882878 0.012470263 -0.026455626 -0.076812044
0.054403804 0.054125253 -0.078640945 -0.060588114 -0.034893263 -0.06618202 0.020008728 0.05525153
-0.043500878 0.026322536 -0.08087028 0.07202849 0.04140955 0.0037933546 0.02412915 0.08256052
-0.07850448 -0.019201076 -0.0011837386 -0.0467734 -0.009963017 -0.01151964 0.01539469 -0.05137358
-0.027447928 0.0458616 0.081980765 0.019652098 -0.05178334 0.056398336 0.057889834 -0.040149957
0.07328825 -0.03657331 0.030585391 0.020022225 -0.08137699 0.011860873 0.026848435 0.043411687
0.06484834 0.04109182 -0.083085366 0.033917956 -0.0657071 -0.058786362 0.041259184 0.08234953
0.058237664 -0.081803374 0.04025312 0.03607696 0.037524294 0.027098935 0.02466629 0.016604664
0.020981653 -0.010728267 -0.0015873697 0.046177655 0.0026025055 0.0016251283 0.03467017 -0.01961497
-0.0039898884 0.06305651 0.061092485 0.02291214 0.00040787712 0.029991077 -0.05244465 0.041155916
-0.0665103 0.0031793276 0.042612042 0.008144343 0.033922654 0.028191647 0.010149995 0.034574732
-0.061145052 0.07303974 0.06162377 0.026621979 -0.056830056 0.013772881 -0.06612011 -0.014112759
0.03431355 -0.036913335 0.006577184 0.05969041 0.012772659 -0.027923407 0.0489051 -0.050455872
0.0818137 0.04779686 0.04916513 0.056756005 0.014723282 -0.002656673 0.019741636 0.021488868
0.042538244 -0.029834382 -0.046547465 -0.010376443 0.030976838 0.07140418 0.013136646 0.016252434
0.029088635 -0.05366626 0.047237955 -0.035108227 -0.028728861 0.047051843 0.06413194 -0.029588219
0.0039210306 0.03922753 0.052518185 0.04485256 -0.029453976 -0.037659865 -0.019605434 -0.0019153459
0.05703835 -0.0353153 0.011188819 -0.023139685 -0.072006986 0.01711665 -0.0818218 -0.03363798
0.051911112 0.035291906 0.07040517 0.032847084 -0.048524454 0.030152144 0.00848058 -0.0072412766
-0.010275415 0.07007398 -0.04651209 0.0674448 0.030806622 -0.018863214 -0.03838299 -0.012964113

conv_block_4.5.bias f4 [16]
00000000: 6870 ed3b 652e 793c b041 9cbd 4022 be3c
00000010: 2d15 9ebd af54 913c c40c a13d d286 0abd
00000020: b141 c33c d846 23bd 9b04 9fbc e3c0 e53c
00000030: d3f9 513d 7d7a 173d 95f4 87bc b0fc 533c
0.007246066 0.015208815 -0.076297164 0.023209691 -0.07718883 0.017740576 0.07863763 -0.03381998
0.023835035 -0.039862484 -0.019411376 0.028046077 0.05126364 0.03698205 -0.016596118 0.012938663

conv_block_5.0.weight f4 [16]
00000000: dcdd 7f3f 59ee 7f3f 52d6 7f3f 1107 803f
00000010: 52c2 7f3f 0af0 7f3f 6216 803f e3f6 7f3f
00000020: e015 803f b1ff 7f3f fd0a 803f 47f4 7f3f
00000030: a10b 803f 63c1 7f3f 8500 803f 310e 803f
0.99947906 0.99973065 0.999364 1.0002156 0.99905884 0.99975646 1.0006831 0.99986094
1.0006676 0.9999953 1.0003353 0.9998211 1.0003549 0.9990446 1.0000159 1.0004331

conv_block_5.0.bias f4 [16]
00000000: 9808 2cba a860 1db9 62cb e8b9 c6c5 f539
00000010: a5ba cab9 aee6 3f39 2416 4439 1487 11b9
00000020: e03d b239 deb1 d239 840c ea38 c017 6fb8
00000030: d7f2 03b9 929a 3dba d2e6 8339 a63b 4c3a
-0.000656256 -0.00015008694 -0.0004440202 0.00046877394 -0.00038667503 0.00018301114 0.00018700265 -0.00013878598
0.00033996906 0.00040186843 0.00011160321 -5.700416e-05 -0.00012583598 -0.00072328106 0.00025158242 0.0007790871

conv_block_5.0.running_mean f4 [16]
00000000: b97d 433e 82ac f83e d3c8 94bd 9b12 9d3e
00000010: 0069 66bd bfe9 91bc cb59 163e 739a 2b3e
00000020: 1068 683e 4ada 24be 749b 173d 8744 aa3e
00000030: 2cb7 463e a7e4 583e 7d70 62bd 6b78 893e
0.19090928 0.48569113 -0.07264867 0.30678257 -0.05625248 -0.017811654 0.14682691 0.16758136
0.22695947 -0.16098896 0.037013486 0.33255407 0.19405812 0.21180974 -0.05528306 0.26849684

conv_block_5.0.running_var f4 [16]
00000000: a6dd af3e 3ef8 003f 1c1e a53e 720c ab3e
00000010: af96 a13e 6df3 a23e 93b2 a43e e158 9c3e
00000020: ec73 a53e 02ff b23e 1461 983e b5a3 d73e
00000030: 568b b03e 72a3 c73e 13c0 9d3e dcd2 a33e
0.34348792 0.5037879 0.32249534 0.33407933 0.31560275 0.31826344 0.3216749 0.3053656
0.32315004 0.3496018 0.29761565 0.42117086 0.34481305 0.38991886 0.30810603 0.3199681

conv_block_5.2.weight f4 [32, 16, 3, 3]
00000000: 1f06 6d3c 1e3d a73d d1f7 5b3d 0331 13bc
00000010: c233 46bd 1681 1cbd 095a 12bd fa38 093d
00000020: 914d a13d e984 08bd b23d 9abd dacd 643d
00000030: fda2 863d 5dce 02bd 6b60 2abd 0228 583d
00000040: fdfc 99bd a251 53bd 24ee a6bd 9694 5f3b
00000050: f278 853c 2d2c 903c d4d8 993d 7d29 823c
00000060: 7039 0f3d ff30 ecbb 58c3 893d fcb5 323d
00000070: deaf 903d 3dda 9fbc d323 b33c 11dd b03c
00000080: 1d0c 3dbd 6eff a2bd 5544 db3c 388b aab9
00000090: 1a8e 8cbc a50e d33c ab15 d73c b918 b93b
000000a0: 6653 953d a12a a8bd 4117 9b3c 3deb 133c
000000b0: 79e7 73bb 4523 a53d 92dd 623d 3098 863d
000000c0: c7d6 72bd 2863 a03c 4a82 75bc 9eab 8a3d
000000d0: 61f0 a23c a222 7bbd 0023 3cbd 9808 73bd
000000e0: 532d 933d b3dc 0bbd 368c 983b e61e 46bd
000000f0: 41f6 8dbd 6d1b 4e3d aa67 643d b2a8 94bc
00000100: bae7 b63c c708 133d 3563 953d 7637 78bd
00000110: b1f4 9e3b 1e9f e23c dd8f a8bb eb03 413d
00000120: 7a45 973d cd5d 7cbd 45c6 823d f742 533d
00000130: 1a3e 81bd 1460 813d c25d 7abd 26d8 1ebd
00000140: 03df 4b3d 48c8 65bd 53b3 83bd 223c 87bd
00000150: 3878 00bd fb1b 77bb 35d7 6a3d 7cb9 36bd
00000160: aec0 6dbb f8f3 f83c 619b f93c 9050 a83b
00000170: a4e0 273c ee16 073d 8fe6 0a3d 5a34 e9bc
00000180: 48d2 85bd 8122 8e3d a040 8abd 6963 3d3d
00000190: 8243 3bbd 420b 143d 30b4 a83b 441a bebc
000001a0: 3648 a03c d3f0 46bd 20cb 8b3d 820d a3bc
000001b0: 869f 2abc 7f38 44bc ad6a 1bbd 5a9e 3fbd
000001c0: b395 b13c 63aa 8fbd 3c8a cb3c ba44 17bd
000001d0: 4ddb ecbc 9273 9cba 205e db3c 782c 68bc
000001e0: ee84 afbc 4a4c f53a 5d97 55b9 c169 893d
000001f0: 56f1 7dbc 7751 0dbd fe15 1dbd 63cb 6bbd
00000200: bf07 44bc e04e aabb 849c 243d 29b0 1ebc
00000210: 9a17 863d e96c 84bd bba3 5bbc 5d04 a7bd
00000220: d699 973d 6780 99bd 4864 2c3d 7b57 823d
00000230: 786a 8fbc 16bc 80bb 97bf 42bd f537 57bd
00000240: c400 323b d9af b63c 6c5e a4bd 37eb 30bd
00000250: c545 2a3d ce93 a93d 83c2 3e3c b2a5 6f3d
00000260: e736 a73d 6d42 0ebc 495a 733d ea79 34bd
00000270: b448 2ebc 4fec d4b9 f161 5eba faa9 90bc
00000280: 8d3e f43c f133 883c 9695 a0bd 91db aabc
00000290: 8437 de3b c3a9 a7bc 18da 7d3d 5983 aa3d
000002a0: d278 3f3d 9ced 76bd 880e 2d3d c259 6ebd
000002b0: 2424 8f3d 1387 9b3d 4105 95bc fdab a43d
000002c0: b5a3 11bd d96e 0fbd da8f dabc 1c44 febc
000002d0: 1ed4 47bc 9cf6 9abd fbd4 893d e6b6 373d
000002e0: 0523 55bd 10e6 9cbd c647 57bd f2be 503d
000002f0: c6fd 1cbd c139 82bc a529 143d 36c2 283d
00000300: cc22 733d 44ef 383c 6da7 973d 49e7 a63b
00000310: e128 95bc cd05 4cbd e468 6e3d 4999 94bd
00000320: cd2e 78bd 7b53 97bb 104c 633c 4371 a5bd
00000330: bd01 903d b3f3 8fbd b341 dabb db03 7fbd
00000340: 7c58 e23c 5e24 5c3d 01b0 1c3d a21a 45bd
00000350: 2df1 66bb 2be6 23bd 0a7d e23c 6c93 82bd
00000360: 2297 993c e0ba c5bc 49f4 8a3d 794b 3f3d
00000370: 14b8 09bd ca3b 8b3d c946 9a3c 56f1 e23c
00000380: 9508 10bd fc86 973d 0f16 ffbc 1ed1 903d
00000390: e008 903d a5f2 3b3c 6730 623c 4f22 f5bc
000003a0: 650d dc3c a357 a2bb d30e 9a3d 2cf4 b8bb
000003b0: be9e a53c e202 343d e2ba 9f3d 2a34 5f3b
000003c0: a64e 8fbd 25ae e23c 7251 813d ce65 f5bc
000003d0: 7cec 05bd a7c5 ee3c f51a a6bd 8ea3 5fbd
000003e0: 9ec3 8c3d 7b86 5cbd dcdf 87bc fbd0 943c
000003f0: 5f6a 813d 2f5b 903d 3f33 a43d 3732 9f3d
0.014466791 0.08165954 0.053703133 -0.008983853 -0.048389204 -0.038209043 -0.035730395 0.033501603
0.07876123 -0.033329878 -0.07531299 0.055860378 0.06574056 -0.031935085 -0.041595858 0.05277253
-0.07518957 -0.051591523 -0.081508905 0.0034115664 0.016293023 0.01759919 0.0751206 0.015888924
0.034966886 -0.007207989 0.06726712 0.043630585 0.07064794 -0.019513244 0.021867668 0.021589788
-0.04615413 -0.079588756 0.026765982 -0.00032528653 -0.017157603 0.025763819 0.02625545 0.005648699
0.072912976 -0.08211256 0.018931987 0.009028253 -0.0037216826 0.08063368 0.055387087 0.06571996
-0.05928686 0.019578531 -0.014984677 0.06771015 0.019890012 -0.061312325 -0.045931816 -0.059334368
0.07186379 -0.034146022 0.0046553863 -0.04836931 -0.06931735 0.050319124 0.055762924 -0.018146846
0.022327293 0.035897043 0.07294313 -0.060599767 0.004850947 0.027663764 -0.005144103 0.047122877
0.073862985 -0.061612893 0.06385473 0.051577535 -0.06310673 0.063171536 -0.06112457 -0.038780354
0.049773227 -0.056099206 -0.06430688 -0.06603266 -0.03136465 -0.0037705887 0.057334144 -0.044610485
-0.0036278176 0.03038977 0.030469598 0.005136557 0.01024643 0.03298085 0.033911284 -0.028467346
-0.065342486 0.06940175 -0.067506075 0.046237383 -0.045718677 0.03614355 0.005148433 -0.023205884
0.019565683 -0.04856951 0.068258524 -0.019903902 -0.01041401 -0.01197636 -0.03794353 -0.046781875
0.021677827 -0.070149206 0.024846189 -0.036930777 -0.028913165 -0.0011936298 0.02677828 -0.014170758
-0.02142569 0.0018714753 -0.0002036965 0.06709624 -0.0154994335 -0.03450152 -0.03835105 -0.05756701
-0.011964737 -0.005197391 0.040188327 -0.009685555 0.065474704 -0.064660855 -0.013405736 -0.08155129
0.07402389 -0.07495194 0.042087823 0.06364342 -0.017506823 -0.0039286716 -0.047545996 -0.0525436
0.00271611 0.022300648 -0.08025822 -0.04319307 0.041570444 0.08280145 0.011643055 0.05850763
0.08164769 -0.008682829 0.059412275 -0.04406158 -0.010637451 -0.00040611855 -0.00084832223 -0.017659176
0.029814983 0.01662633 -0.07841031 -0.02085665 0.0067815203 -0.02046669 0.06197557 0.08325834
0.046746083 -0.060285196 0.042250186 -0.05819107 0.06989315 0.07594123 -0.018190982 0.08040617
-0.035556514 -0.035017822 -0.026679922 -0.031038336 -0.012196569 -0.07566568 0.06730076 0.04485216
-0.05203535 -0.076610684 -0.052558683 0.05096335 -0.038327955 -0.01589668 0.036172528 0.04120084
0.059359357 0.011287514 0.07404981 0.0050934893 -0.01820797 -0.04981022 0.0582055 -0.07255799
-0.060591508 -0.004618106 0.013873115 -0.080782436 0.070315816 -0.07028904 -0.006660664 -0.062259536
0.027630083 0.05374562 0.038253788 -0.048121102 -0.0035238967 -0.040014427 0.027647514 -0.06375775
0.018748824 -0.02413696 0.06784875 0.046702836 -0.033622816 0.06798513 0.018832581 0.027702969
-0.035164434 0.07398793 -0.031138448 0.07071136 0.07032943 0.011471425 0.013805485 -0.029923586
0.026861856 -0.004954295 0.07522359 -0.005644342 0.020217296 0.04394806 0.07799317 0.0034058192
-0.06997423 0.02767093 0.063143626 -0.02995577 -0.032696232 0.029146982 -0.081106104 -0.054599337
0.068732485 -0.053839188 -0.016586237 0.018166056 0.06319117 0.07048642 0.08017587 0.077732496

conv_block_5.2.bias f4 [32]
00000000: b966 7c3c a352 97bd 8762 0cbb 0355 6d3d
00000010: 52b9 6dbc 69e8 3d3d bad0 793d 3a1b a2bc
00000020: 3c46 a83d ddeb 73bc 3725 0e3d 15e9 0cbc
00000030: a1a6 95bd 749c 933d 9367 56bc 1e9c 15bd
00000040: 82fa 3d3d 3399 e23a 6dc6 cb3c bb03 3b3d
00000050: ed07 90bd e733 553d 4eb4 04ba 28d3 91bb
00000060: 34f0 a2bd bf4c 7b3d 2cd6 a63d ecde a33d
00000070: 1260 86bd 6e57 6d3d b747 88bc 15d1 84bd
0.01540535 -0.073888086 -0.0021421032 0.0579424 -0.014509516 0.04636422 0.060990073 -0.019788373
0.08216521 -0.014887777 0.03470346 -0.008600493 -0.073071726 0.072075754 -0.013086217 -0.036525838
0.04638148 0.0017288089 0.02487489 0.045657855 -0.07032762 0.05205145 -0.0005062268 -0.0044502206
-0.07955971 0.061352488 0.08146319 0.08001503 -0.06561293 0.057944708 -0.016635759 -0.06485192

conv_block_5.3.weight f4 [32]
00000000: 8302 803f 2e11 803f 62ff 7f3f ade1 7f3f
00000010: 5fe2 7f3f 2dfd 7f3f 9900 803f 4600 803f
00000020: 2b13 803f 4a08 803f eded 7f3f 65e4 7f3f
00000030: 3f12 803f a2f7 7f3f 08f3 7f3f 0fef 7f3f
00000040: df06 803f c206 803f c502 803f 0206 803f
00000050: 92fc 7f3f bbcb 7f3f a7e3 7f3f 3b1d 803f
00000060: 7efc 7f3f edde 7f3f 791c 803f 64f1 7f3f
00000070: 32f1 7f3f db02 803f 9f1a 803f 9612 803f
1.0000767 1.0005243 0.9999906 0.9995373 0.9995479 0.9999569 1.0000182 1.0000083
1.000585 1.000253 0.9997242 0.9995788 1.0005568 0.9998723 0.9998021 0.9997415
1.0002097 1.0002062 1.0000845 1.0001833 0.99994767 0.99920243 0.99956745 1.000892
0.9999465 0.9994953 1.0008689 0.9997771 0.9997741 1.0000871 1.0008124 1.0005672

conv_block_5.3.bias f4 [32]
00000000: 085a 053a fab4 5439 a966 6ab9 5ea3 24ba
00000010: 5027 43b8 52e0 3d38 bdd8 3c3a 49b7 5cb8
00000020: 1027 363a 481a 0139 dfc2 bab9 21be 90b9
00000030: abcf 263a dd28 2c39 147a 08ba dab8 0039
00000040: 1324 093a ef28 e2b9 4cc9 e9b9 2fd1 5d39
00000050: ef21 a639 7810 c9b9 bea9 00ba d5db 223a
00000060: 22ae f2b9 907b 28b9 20e1 5a3a 137e 00b9
00000070: c089 74b5 9e25 f4b9 bd8d 213a 2679 68b9
0.0005086963 0.00020285315 -0.00022354223 -0.0006280447 -4.6528236e-05 4.5270026e-05 0.00072039274 -5.2622785e-05
0.000694857 0.00012312189 -0.00035621875 -0.00027607477 0.00063633424 0.00016418421 -0.00052061793 0.00012275894
0.0005231511 -0.00043136577 -0.000445912 0.0002115413 0.0003168727 -0.00038349978 -0.0004908106 0.0006212567
-0.00046287576 -0.00016067759 0.0008349586 -0.00012253998 -9.1097536e-07 -0.00046567334 0.0006162783 -0.00022170375

conv_block_5.3.running_mean f4 [32]
00000000: a2bf af3c a6c6 c93d b549 a6bc f6d4 4e3e
00000010: b1a7 b8bc 11a0 18be a5d7 263d dbd4 10be
00000020: 32e7 9fbd 1beb b53d 3b13 cc3c 90e3 edbc
00000030: b89e 763d f328 40be 3637 fd3d 6355 673e
00000040: 4991 c53d d4c0 41be a27d 8c3e f528 39be
00000050: 36de 4abe 5c8f 553e 5d2f 2ebe e524 d93d
00000060: f6a7 883d 367a a23c b9de 8b3e 09ff f53d
00000070: eada 903b 65fe 863c 9a08 aebe 35a1 9bbd
0.021453682 0.09852342 -0.020298818 0.20198426 -0.022540899 -0.1490481 0.040733 -0.14143698
-0.07807769 0.088827334 0.024911514 -0.029039174 0.06020996 -0.18765621 0.12364046 0.22591166
0.096468516 -0.18921214 0.274396 -0.1808203 -0.19811329 0.20855469 -0.17010255 0.1060274
0.06672661 0.019833665 0.2731836 0.12011535 0.004420628 0.016478727 -0.33990937 -0.07599107
