cloud-detection-code/tests/test_artifacts/test_jaccard_loss/model_checkpoint_5.pt (torch, 439769 bytes, 347 tensors)

input_conv_block.0.weight f4 [3]
00000000: 14cc 7f3f afe5 7f3f 6115 803f
0.99920774 0.99959844 1.0006524

input_conv_block.0.bias f4 [3]
00000000: 3e70 ff38 fc24 fb39 126b d7b8
0.00012180254 0.00047902006 -0.00010271942

input_conv_block.0.running_mean f4 [3]
00000000: 92f4 cf3e e2d2 d03e c761 b03e
0.4061628 0.4078589 0.34449598

input_conv_block.0.running_var f4 [3]
00000000: 5f97 903d b8da 893d e711 853d
0.07060122 0.067311704 0.06497555

input_conv_block.2.weight f4 [2, 3, 1, 1]
00000000: 3396 02bf 1ea1 7fbe 517d f03e 092b 5f3e
00000010: 3669 d3be 9b48 e9be
-0.51010436 -0.24963805 0.4697061 0.2179376 -0.41291207 -0.45563206

conv_block_1.0.weight f4 [2]
00000000: 7602 803f 18fb 7f3f
1.0000751 0.99992514

conv_block_1.0.bias f4 [2]
00000000: 2b02 6239 e1e0 5939
0.00021553847 0.00020778507

conv_block_1.0.running_mean f4 [2]
00000000: be7c 01be ddd1 74be
-0.12645242 -0.23908181

conv_block_1.0.running_var f4 [2]
00000000: c8bf c23d e210 743e
0.095092356 0.23834565

conv_block_1.2.weight f4 [2, 2, 3, 3]
00000000: a913 eebd 534a 80bc 7cbb 3dbe e60f 103e
00000010: 7eda 6f3e e990 ec3b 759e 693e b967 2e3e
00000020: e376 453e e608 6e3e 965a 6a3e 2fc7 6cbe
00000030: 8772 a6bd 9a63 b8bd e011 02be 9c2b ab3d
00000040: 8ab3 6f3d 3d7e 22bd ab44 1fbe 4b65 623e
00000050: caf6 253e 29ae 6f3e 19f3 5f3c 2d81 f33c
00000060: ee5b 583e 7e16 5d3e 1b85 3c3e 0f96 553e
00000070: e7e7 3f3e ff85 243d 1ae9 5bbd 26bf 6e3e
00000080: ea06 45be e0ca 45bc 5a4a 4a3e 2b6a 65be
-0.116248436 -0.01566044 -0.18528551 0.14068565 0.23423192 0.007219423 0.22814353 0.17031755
0.19283633 0.23245582 0.22886118 -0.23122858 -0.08127313 -0.090033725 -0.12702131 0.08357927
0.05852083 -0.03967117 -0.15553539 0.22108953 0.16207424 0.2340628 0.013668799 0.029724682
0.21128818 0.21590611 0.1841015 0.20858024 0.18740807 0.04016685 -0.0536891 0.23315105
-0.19240919 -0.012072295 0.19754925 -0.22403781

conv_block_1.2.bias f4 [2]
00000000: 5770 39be dc86 bdbd
-0.1810926 -0.09254238

conv_block_1.3.weight f4 [2]
00000000: 79e8 7f3f ce0b 803f
0.999641 1.0003603

conv_block_1.3.bias f4 [2]
00000000: 88ca 3f39 1819 e938
0.00018290628 0.0001111498

conv_block_1.3.running_mean f4 [2]
00000000: 77bd b13d ec2f ee3e
0.08678716 0.46520936

conv_block_1.3.running_var f4 [2]
00000000: 8ce1 ef3d 101a 613e
0.117129415 0.21982598

conv_block_1.5.weight f4 [2, 2, 3, 3]
00000000: 21f6 193e cbe2 c03d 6b5c 70be d6a8 0d3e
00000010: c03a 63be 7cfc 69be d29f 7abd f214 6cbd
00000020: 9d1f a23d 6599 adbd 59c9 7bbb efaa 37bd
00000030: 35f3 0dbe a532 9dbd 0c27 0f3e 2ca1 22bc
00000040: 3ff1 5bbe 3bb5 ba3d 4724 963b 65b8 26bd
00000050: 28ec f0bc b705 9cbd d30e 083e eb10 00bc
00000060: bee0 063e 3951 02be dba6 0bbe fc2e b9bd
00000070: e1f6 203e 0ee6 b83c 5d36 273e a1ef 653e
00000080: 305a e03c cb34 33be b4b3 0f3e e974 113e
0.15035297 0.09418257 -0.23472755 0.13833937 -0.2219038 -0.22850221 -0.061187573 -0.057637163
0.07916186 -0.08476523 -0.0038419573 -0.04484075 -0.13862307 -0.07675675 0.13979739 -0.009926122
-0.21478747 0.09116598 0.0045819613 -0.040703196 -0.029409483 -0.076182775 0.13286905 -0.007816534
0.1317167 -0.12726296 -0.13637869 -0.09042165 0.15719177 0.022570636 0.16329332 0.22454692
0.027386755 -0.17500608 0.14033395 0.14204754

conv_block_1.5.bias f4 [2]
00000000: 1278 2abd 8f01 cfbd
-0.041618414 -0.10107719

conv_block_2.0.weight f4 [2]
00000000: aa03 803f acf8 7f3f
1.0001118 0.9998882

conv_block_2.0.bias f4 [2]
00000000: b02c 6039 d6f6 1cba
0.00021378952 -0.0005987709

conv_block_2.0.running_mean f4 [2]
00000000: 1f0f 4cbe f86c 163e
-0.19927643 0.14690006

conv_block_2.0.running_var f4 [2]
00000000: 2621 083e f039 073e
0.13293895 0.13205695

conv_block_2.2.weight f4 [4, 2, 3, 3]
00000000: a63a 47be a41c 46be d520 11be 9d4e cf3d
00000010: 6a78 43be 82b1 b2bd 96f1 5d3e aaed 36be
00000020: 6323 4b3e 1db6 85bd 5b50 e5bc 8de6 94bd
00000030: 9073 5d3e 0365 fd3d a8d5 64be 80e1 53be
00000040: 166a e0bd 6b94 0d3e edba dd3d c380 36be
00000050: e6f5 303e c773 17be 882a 343e ec5f 10be
00000060: a41a 0f3e 23ce a03d 44e0 6abe 7eae 3b3e
00000070: 878b 253d 0f22 5d3d 123e d53c 7700 35bd
00000080: f89f 19be c993 aabd 99b5 0d3b 62f3 723d
00000090: 6327 cc3d 12d5 eebc d683 113d d817 323d
000000a0: 7071 063c ec90 e0bd b749 adbd caea 0e3c
000000b0: 1df7 ffbd 73c1 22be 6ca5 66be 5070 4dbe
000000c0: 4a41 c9bd f8f8 d7bd a285 3dbe cb85 34be
000000d0: 17cd 533e a0fd 843c 09b4 5e3e 852a 63be
000000e0: c6c2 653e b1ed 6cbd 5635 9b3d c7c2 db3c
000000f0: a4c7 bdbd e485 233e 4af4 d43d 5eff 213e
00000100: 9015 9d3c e073 73bc 65c7 533d a0c2 18bd
00000110: 2fb9 21be c3b0 c1bc ca1e 8e3c 0c6a 6d3e
-0.19455966 -0.19346863 -0.1417268 0.10122416 -0.19088903 -0.08725263 0.21674189 -0.17864099
0.19837718 -0.06528876 -0.027992418 -0.072705366 0.21626115 0.12372782 -0.22347128 -0.2069149
-0.10957734 0.13826148 0.10826669 -0.17822556 0.17281303 -0.1479026 0.1759435 -0.14099091
0.13975006 0.078518175 -0.22937113 0.18328282 0.040416267 0.05398756 0.026030574 -0.044189896
-0.1500243 -0.08328969 0.0021623133 0.05931414 0.0996845 -0.029154334 0.03552612 0.04347977
0.008205757 -0.10965142 -0.084613256 0.00872297 -0.12498305 -0.15894108 -0.22524041 -0.20062375
-0.09826906 -0.10545534 -0.18508008 -0.17629163 0.20683704 0.01623422 0.21748365 -0.22184189
0.22437581 -0.057843868 0.075785324 0.026826276 -0.09266594 0.15969044 0.10398157 0.15820071
0.01917532 -0.01485917 0.05170383 -0.037294984 -0.15793298 -0.023643857 0.017348666 0.23184985

conv_block_2.2.bias f4 [4]
00000000: f43f 613e 4f1d b6bc ed6c 3ebe 4df8 343d
0.21997052 -0.022230772 -0.1859624 0.04418211

conv_block_2.3.weight f4 [4]
00000000: 9631 803f a0e2 7f3f 190c 803f a2d5 7f3f
1.0015132 0.9995518 1.0003692 0.9993535

conv_block_2.3.bias f4 [4]
00000000: 3e81 dc3a c731 06bb 4201 843a a975 efba
0.0016823185 -0.0020476447 0.0010071176 -0.0018269318

conv_block_2.3.running_mean f4 [4]
00000000: baf8 213b 119a 2bbb 8d7b febe 2c2c 7a3e
0.0024714903 -0.002618436 -0.49703637 0.24430913

conv_block_2.3.running_var f4 [4]
00000000: 4133 a93d d085 803d 4e6a f83e 12a9 a03d
0.08261729 0.06275523 0.48518604 0.078447476

conv_block_2.5.weight f4 [4, 4, 3, 3]
00000000: 592c a1bd 411b 1abe 94f4 d13c 9a2d 593d
00000010: f0c9 973d 3489 8abd bce9 363d c009 3b3b
00000020: 34f1 213e 747e 02be 5d86 233e 5cf5 e0bd
00000030: f07b 8f3c 81e6 8d3d 951f 1c3e 9ba6 1dbd
00000040: 0a9d e93d c06e 853d 1e09 e63d e966 cfbd
00000050: 70fb 96bd f34b dfbd e05f 8abc 3948 c5bd
00000060: ec34 41bd 8aac 0d3e 6796 93bc 3bd9 303c
00000070: 68e3 b7bd b545 243d db26 88bd b2dd 8ebc
00000080: dd35 e03d 93a5 1d3e d7d7 f03d 5f2e b6bd
00000090: f63a 033e cf7e eb3d 26a5 113e aaa8 e93d
000000a0: 3d7a cdbd 9eaf 883c 6b68 8ebd 8229 223e
000000b0: 53e5 213e 54e5 fbbc 6540 073e 57c5 29be
000000c0: ce26 6dbd e5c7 18bd 5c70 973d 2ca2 0e3d
000000d0: 5e70 aa3d 58cc ff3d 6bfb c6bd d567 273e
000000e0: 4d75 f53d 0699 1c3e b524 15bd bd16 67bd
000000f0: 6498 3c3d 63b2 27bc c6f3 6fbd 0fab 43bd
00000100: 893f d0bc 6b8d 73bc 2abf 3e3d a061 3dbd
00000110: 37ba a03d d8d4 f03d 3cf3 69bd d092 3cbd
00000120: eecb 6fbd b2ff c03d deb0 413c 9a43 0f3e
00000130: cc56 cb3d 90bc 013e db40 ce3d 8a19 d23c
00000140: 3011 233e 606a b8bb 42a7 cebc dc85 b63b
00000150: c514 74bd 87e4 dbbd 1b6d 79bd 71a0 29be
00000160: c31d f63d b339 8f3d 6395 0f3e d148 fa3d
00000170: 4f34 fc3d 213b c23d 3217 1b3e da52 cd3c
00000180: 07a3 a23d 2dc7 05bd e989 0c3e b63b 263e
00000190: 6b75 75bb 1866 0abe 0adf de3d 4342 ddbb
000001a0: f564 7a3d 4784 ab3d ecd2 e53d d5d0 023b
000001b0: 0699 f03c ff11 393d d861 e1bc f270 833d
000001c0: 88d2 c33c c79d e33b f2be 063e c510 bc3b
000001d0: 2ae2 143e 9645 213e 3ea6 ddbd 895a 74ba
000001e0: 9eb7 fdbc 489b fcbd b690 083e 9940 803d
000001f0: 1dc3 05be dd89 fc3b 8be8 fe3d e3b2 02be
00000200: fcea ab3d 3dc4 bc3c d646 853d a9c3 f1bd
00000210: 5fa9 28be 356c 0ebe 8338 063e 1f15 ca3d
00000220: 3202 e1bd fc14 133e f197 93bd 8341 18be
00000230: 17b5 023e b0ca febd bfb0 0b3e eec1 91bc
-0.07869787 -0.15049459 0.02562932 0.053022005 0.074115634 -0.06764451 0.0446565 0.0028539747
0.15814668 -0.1274355 0.15969224 -0.109842986 0.017515153 0.06928731 0.15246423 -0.038488965
0.11406906 0.065152645 0.11232208 -0.101270504 -0.07372177 -0.10903158 -0.01689142 -0.09632916
-0.04716961 0.1383535 -0.018016053 0.010793979 -0.08978921 0.04010554 -0.06648036 -0.017439697
0.109477736 0.15395193 0.11759918 -0.08895563 0.1281546 0.11498796 0.14223155 0.11409123
-0.10033081 0.016685303 -0.0695351 0.15836146 0.15810136 -0.030749 0.13208158 -0.16579185
-0.057898335 -0.03730001 0.07394478 0.034822628 0.083222136 0.12490147 -0.09715923 0.16348203
0.11985264 0.15292749 -0.03641196 -0.05641817 0.04604377 -0.010235402 -0.05858209 -0.047770556
-0.02542092 -0.01486526 0.046569027 -0.04623568 0.07848018 0.11759347 -0.057116732 -0.04603845
-0.058544092 0.0942377 0.011821954 0.13990632 0.099286646 0.12669587 0.10070964 0.025646944
0.15924525 -0.0056279153 -0.02522624 0.0055701565 -0.05959012 -0.107369475 -0.060895067 -0.1656511
0.12017395 0.06993427 0.1402183 0.1222092 0.123146646 0.09483934 0.15145567 0.02506392
0.07941251 -0.032660652 0.13724484 0.16233715 -0.003745402 -0.13515508 0.10882385 -0.006752284
0.061131436 0.08374839 0.11221871 0.00199609 0.029369842 0.045183178 -0.027512476 0.06418027
0.0239041 0.0069462988 0.13158777 0.005739304 0.145394 0.15749201 -0.10822724 -0.0009321352
-0.030971345 -0.12334305 0.13336453 0.06262321 -0.13062711 0.0077068643 0.12446698 -0.12763552
0.08394429 0.023042792 0.065076515 -0.11804897 -0.1647086 -0.13908465 0.13107495 0.0986731
-0.10986747 0.14363474 -0.07206715 -0.1486874 0.12764393 -0.12441003 0.13641642 -0.017792668

conv_block_2.5.bias f4 [4]
00000000: e9c5 28be a4de 79bd 3a32 08be ed5d f8bd
-0.16481747 -0.061003342 -0.1330041 -0.1212729

conv_block_3.0.weight f4 [4]
00000000: 1508 803f e200 803f bfc2 7f3f db07 803f
1.0002466 1.000027 0.99906534 1.0002397

conv_block_3.0.bias f4 [4]
00000000: e4d4 3fb9 e0fe 02ba ddb0 4637 cce6 c538
-0.00018294487 -0.0004997086 1.1842899e-05 9.436681e-05

conv_block_3.0.running_mean f4 [4]
00000000: 2463 9d3d 4fc7 c33e c077 fd3e 4aae 183e
0.07684925 0.38237998 0.49505424 0.14910236

conv_block_3.0.running_var f4 [4]
00000000: e6bc 583e 5ef3 da3d 50e7 d73d ea0b b83d
0.21165809 0.1069095 0.10542166 0.089866474

conv_block_3.2.weight f4 [8, 4, 3, 3]
00000000: e187 983d b9bc 85bd 94d9 1fbe 10af 7ebd
00000010: d45d 95bd 4260 01be 927f 56bd 7ca4 153b
00000020: 90d4 2b3d 1191 bbbd 99e9 ccbd d27d b0bc
00000030: 5f78 e4bc 27c4 023e 25a3 24bd 9a77 c93d
00000040: 883e 063e d087 f2bd eebe 1bbd 9d92 503d
00000050: 4cd6 26be 6e7f bfbc 34a9 9fbd 1a5f 05be
00000060: 1679 083c a231 c93d 22cb e8bd e2ef 163d
00000070: 3792 81bd d565 7fbd 302f 3dbd 8c0b 9fbd
00000080: fa74 3cbd 789e 363c a500 d13b ac35 123e
00000090: f479 0d3e 4a4a b63d 2d86 dc3d 9664 c53d
000000a0: f0ef e3bd a56a 063e e090 1abe c732 54bc
000000b0: 97f7 8d3d 809a d7bd bfd4 e63d 9e61 18ba
000000c0: 72b5 eb3d 0a48 d6bd fea9 b33d a24a 1ebd
000000d0: 39ad 26be 8fd6 d2bc 5de9 13bd ebe1 11be
000000e0: 4a16 e93d 5aaa 0e3e d693 f5bc cd71 c23d
000000f0: 396e eb3d 7022 7dbd c084 233e 88a3 7b3d
00000100: 0583 cf3d 00b6 64bd b7eb b2bd 429c 13be
00000110: fa86 b5bd edb7 b63d 74f1 183e 119a 67bd
00000120: 4f28 89bd 6a9f 5abd 7d2c f9bd f45a 0ebe
00000130: b8d6 96bc 0318 29bd 830b 793c b6cc c43c
00000140: c251 16bd 9198 113e 3f0a 8dbd 3cc5 5a3d
00000150: bac4 06be e997 c63c 21e6 07be 92e2 82bc
00000160: d479 4cbd 69c3 d8bc 98a9 d73d 3cda f8bc
00000170: c34a 9fbc 39d9 40bd 93d2 86bd 804d aa3d
00000180: 9d8c b7bd 7a81 d8bb 19b2 85bd 1fe7 1e3e
00000190: dabe 06be 77dc a03d 96eb cebd 0be9 cfbd
000001a0: c993 1abe 2d7c eabd 0850 1d3e 4405 0abe
000001b0: 41fe 97bc 1d0c c03c 513f 903d e96d a53c
000001c0: c3be d53d f36d 20be 1446 c13d 55b1 e23b
000001d0: fdb8 033e 46c4 0d3c b946 c93d a7ad 293e
000001e0: 3920 27be 5816 803d b7e4 e53d 8daa 0cbe
000001f0: 7d23 85bd dc96 cf3d 8845 01be fcad edbd
00000200: 5561 6b3d d496 cbbd 435c dbbc 8768 023e
00000210: c8b1 7bbd d8cc 3dbd 9003 c9bd 1b6c 78bd
00000220: fa40 e6bd f9e2 9b3d c13a 94bd 3e61 a4bd
00000230: 50dc 75bc e0b8 db3d a454 b13d 93de 173e
00000240: 5e30 82bd 217c 6bbc b00d 7ebd 46ef 10bd
00000250: 3656 163d 73ac 823d 94e4 08be 321c 14bd
00000260: ae0f 1ebe 987c f93d e13a ce3c cbce 803d
00000270: 5734 3fbd b406 423d 9a9b 6d3d 89cd ca3d
00000280: d0e6 b13d c961 c4bd cf0d e5bd c5bd 9e3d
00000290: c114 adbd 692a a23d 45cc 25be 9ebf c13c
000002a0: 756a 793d 6cf0 a2bd 187d 1aba 7bf9 d2bd
000002b0: 4c7d 43bc e42c 9dbc ce0e b3bd 505c 073e
000002c0: 6055 c63d f7a4 8ebd 0510 5abd 1233 a9bc
000002d0: 6a09 e13c 796d 013e a120 5fbd f1d3 f9bd
000002e0: 4cab 803d f837 423d b357 f4bd 01d5 86bd
000002f0: 4d96 fd3d 60fb 8e3d 4d85 0abe 3d46 e63d
00000300: c53e 7d3d a24b ba3d 7bab cbbd 0db8 0dbe
00000310: 8943 233b 12a0 7b3d 2609 a63d 52a2 8e3d
00000320: 9aa8 aabd 4b0a 13bd bd37 09bd 814d 183e
00000330: a896 133e 5375 14be cdf4 0abd 7a24 743d
00000340: a98c 273e 0da8 27be 28e3 d53d e158 a53d
00000350: 8218 89ba 714e cbbd fcd9 0dbe 2588 c93d
00000360: d90b ca3c f304 023e 24eb a93d 04ee 003e
00000370: f8b8 b9bd eb10 113e 7202 bc3d 7196 c83d
00000380: 06f8 c0bd b35b afbd 481c d3bd 2bc0 ddbd
00000390: 1bd1 ce3c 936b 1abe 2fa6 86bd e29d efbd
000003a0: 2a74 2ebd 209c 79bd 7750 a1bd 92b3 69bd
000003b0: d6d2 db3d ac1d a3bd d9ac 0f3e 2767 0cbe
000003c0: f6f1 033c d753 273e c25a 0ebe 0786 8bbd
000003d0: f5e9 aabc be97 83bd 54c3 4fbd 6b1e 0a3e
000003e0: 1a1d f73d 5aa2 65bd 9a67 41bc 294e 91bd
000003f0: 5f28 ad3d 166b 11be c895 fabd f019 a7bc
0.07447792 -0.065301366 -0.15610343 -0.06217867 -0.07293287 -0.12634376 -0.052367754 0.0022833636
0.041950762 -0.091585286 -0.10005493 -0.02154437 -0.027889429 0.12770139 -0.04019465 0.09837265
0.13109791 -0.118423104 -0.03802388 0.05092107 -0.16292685 -0.023376193 -0.07795945 -0.1302456
0.00832965 0.0982392 -0.113668695 0.036849864 -0.063267164 -0.062352974 -0.04618758 -0.07765874
-0.046009995 0.01114618 0.0063782507 0.14278287 0.13816053 0.08900888 0.107677795 0.09638326
-0.11129749 0.13126619 -0.15094328 -0.012951559 0.0693199 -0.105275154 0.11271047 -0.0005812886
0.11509217 -0.10462959 0.08772658 -0.038645394 -0.16277017 -0.025737075 -0.036111224 -0.14246337
0.113812044 0.13932171 -0.02997772 0.09494362 0.11495633 -0.06180042 0.15968609 0.061435252
0.10132412 -0.05583763 -0.08736365 -0.14415076 -0.08863635 0.089218 0.14935857 -0.056543414
-0.066971414 -0.053374685 -0.121666886 -0.13901883 -0.018412933 -0.041282665 0.0152004985 0.024023395
-0.036699064 0.14218356 -0.0688672 0.053410754 -0.13160983 0.024242358 -0.13271381 -0.015977178
-0.04992087 -0.026460366 0.10530394 -0.0303775 -0.019444829 -0.04708216 -0.065831326 0.08315563
-0.08962367 -0.0066072317 -0.0652811 0.15517853 -0.13158742 0.0785455 -0.10103528 -0.10151871
-0.15095438 -0.11449466 0.15362561 -0.13478571 -0.018553855 0.023443276 0.07043327 0.02019401
0.104367755 -0.15666942 0.094371945 0.0069181123 0.12863536 0.008652752 0.098279424 0.1657015
-0.16320886 0.06254262 0.112252645 -0.13736935 -0.065009095 0.10136196 -0.1262418 -0.116054505
0.05746587 -0.099408776 -0.026777392 0.12735187 -0.061448842 -0.046337932 -0.098151326 -0.060649972
-0.11242862 0.07611651 -0.07237769 -0.0802636 -0.01500614 0.107286215 0.08658722 0.14830999
-0.063568816 -0.014372856 -0.062024772 -0.03538444 0.03670331 0.06380548 -0.13368446 -0.0361597
-0.15435669 0.121819675 0.02517456 0.06289443 -0.046680775 0.047369674 0.05800972 0.09902484
0.08686602 -0.095889635 -0.111842744 0.077510394 -0.08451224 0.07918245 -0.16191204 0.02365094
0.06089254 -0.07956013 -0.0005893274 -0.10301491 -0.011931729 -0.019186445 -0.08743058 0.13218808
0.09684253 -0.06965058 -0.053237934 -0.020654235 0.02747031 0.12639417 -0.054474477 -0.12198628
0.06282672 0.047416657 -0.1193079 -0.06583596 0.12382183 0.0698154 -0.13527413 0.11243866
0.06182744 0.09096457 -0.09944817 -0.13839741 0.002491208 0.06143195 0.08107214 0.06964554
-0.083329394 -0.035898488 -0.03350042 0.14873315 0.1441294 -0.1449788 -0.033924866 0.0596051
0.16362251 -0.163727 0.10443717 0.08073593 -0.0010459574 -0.09927071 -0.13852686 0.09840421
0.024663853 0.126972 0.08296803 0.12590796 -0.09068483 0.1416661 0.09180154 0.097943194
-0.09422307 -0.08562412 -0.103081286 -0.10827669 0.025246194 -0.15080099 -0.06574666 -0.11700036
-0.04259125 -0.060939908 -0.078766756 -0.057056017 0.10733573 -0.07964644 0.1403078 -0.13711224
0.008053293 0.16340576 -0.13901809 -0.06812673 -0.020863513 -0.06425427 -0.05072339 0.13488166
0.120660976 -0.056063034 -0.011804486 -0.07094986 0.08454966 -0.14201006 -0.122356 -0.02039811

conv_block_3.2.bias f4 [8]
00000000: 67e3 2bbc d5d6 a43d 9ec2 1c3e dec3 b9bd
00000010: 3b4b a73c f635 193d 3dc7 bbbd 831d c4bc
-0.010491229 0.080487885 0.15308616 -0.09070562 0.020421615 0.037404977 -0.09168861 -0.023939854

conv_block_3.3.weight f4 [8]
00000000: 800c 803f 6701 803f 0cca 7f3f 2cfb 7f3f
00000010: 1cd7 7f3f b1f9 7f3f bd0f 803f d3f1 7f3f
1.0003815 1.0000428 0.99917674 0.9999263 0.99937606 0.99990374 1.0004803 0.9997837

conv_block_3.3.bias f4 [8]
00000000: 8875 8b3a c3c2 813a d3cc f5b9 f35c 6e3a
00000010: 58c8 77ba 3d40 23ba 84c1 5ab9 b386 b5ba
0.0010639885 0.0009899962 -0.00046882647 0.000909283 -0.0009452156 -0.0006227529 -0.0002086219 -0.0013849348

conv_block_3.3.running_mean f4 [8]
00000000: 9fea 9dbe ab79 6f3e e7f2 69be ca17 1abd
00000010: eefb 92bd 8548 053e 1fd8 87be fd3d 15be
-0.30843064 0.23386256 -0.22846566 -0.037620343 -0.07176958 0.13015945 -0.26532075 -0.14574428

conv_block_3.3.running_var f4 [8]
00000000: fd70 c83e 0f65 4c3e 8eef bd3e 5d2e 373e
00000010: 36c3 3c3e 29c5 093e 5ab6 183e 4c1b a03e
0.39148703 0.19960426 0.37096828 0.1788878 0.18433842 0.13454117 0.14913312 0.31270826

conv_block_3.5.weight f4 [8, 8, 3, 3]
00000000: e7f0 c6bd 227d 013d c6ff cc3c 98de 8dbd
00000010: 308e 22bd 7b80 e7bd c7a5 b53d 7dc4 62bb
00000020: 8b06 d93c e9ce 39bd 7194 b23d 4311 fb3c
00000030: c03e eabc 2980 e93d 53a5 81bd 73ff f6bb
00000040: 9f47 d4bd 9cce a5bd 1ab2 eebd 6344 4fbd
00000050: 860e b43d f602 cc3d cbb7 9a3d f483 7bbd
00000060: 7794 673c 524a eb3d 1e4e de3d 2598 1fbc
00000070: 775c 0bbd d4e5 b7bd 7868 f3bc d1dd cbbd
00000080: 694f c4bc 6207 a33d 24aa 90bc a925 eebd
00000090: 71b8 bd3d 464a b23c 4da8 c7bd ebf8 13bd
000000a0: d287 c43c 23c5 adbc db35 ffbc 6885 ee3d
000000b0: 9017 db3d 25f1 50bc 03d7 ccbd 5ca1 97ba
000000c0: 1071 56bd ea05 dc3c d186 9fbd 6d83 a03b
000000d0: 57dc 86bd 3792 bebd 6a13 d33d aa79 ad3d
000000e0: a25e 93bc e15d ad3d 889e b8bd 57c1 583c
000000f0: 2b55 8cbd e31f e63c 01a8 6e3d 659f c33d
00000100: 93d4 bb3c 904d 38bd fd59 7dbc 3f04 b9bd
00000110: a34c c73c 12f4 afbd b98d 81bd c8b3 ac3d
00000120: 8d07 51bd 3e3c 7e3d 2346 81bd 3ea3 b43d
00000130: c920 3bbd 1a9b 9fbd 50aa 463d 04b7 e83d
00000140: da1f 94bd e87e 9cbd 1e08 c9bd 4afa 4ebd
00000150: 57d9 42bd e940 c4bd a36b cabd 4e1a bfbd
00000160: e02d da3d 92ca 5f3d 4f91 fbbc 51a4 093c
00000170: 0440 cd3d 5be3 e4bd 6556 eebd d76f c83d
00000180: 6d3a 603d 736b c63d 7968 c6bd c562 88bc
00000190: a6d4 c53d e78b 2c3d 8e30 ffba 6759 9a3d
000001a0: d63d 0b3d ceb0 54bd 6ced aebd e2d8 86bd
000001b0: e3dd acbc 22f3 553b f11c 8e3d 9558 45bd
000001c0: bf0e 0abd 24fe 69bc 48f2 c53d e8b9 90bd
000001d0: f118 37ba fcd8 6a3c 1a42 c5bc 43c3 6b3d
000001e0: d95d 82bd a227 e43d 4289 ba3c b849 1b3c
000001f0: 6dd3 273b dd96 453d 4162 59bd c7ed 3c3d
00000200: 3579 fa3c 1cf4 803c 72e9 ef3d a5af 743d
00000210: feff 3f3c 158c 853d 669a ea3c e3c5 263d
00000220: cbf3 be3d e728 35bc ec50 c43d 5b03 83ba
00000230: 982f a4bd 7932 203d 114f 11bd 90eb b83d
00000240: d8da c6bd 5072 bebb 9157 a5bc adbc 65bd
00000250: fc4a df3d 97e7 913d c712 1cbd e7c6 bf3d
00000260: a4cf a13d a324 973d 0fd0 e53d a8a6 a13d
00000270: c3c3 c23d b4db 1abd 8e8f ad3d de6e 983c
00000280: 3d1d 7d3c 60c3 583d 4f30 e33c 26f7 333c
00000290: 1da8 a3bd 76a5 343d 9a25 94bd bdad a8bd
000002a0: ac2d d2bd 9d39 d2bc 8803 bcbd f5d6 3f3d
000002b0: 0615 153c 1bdb afbd fd6d 50bd 5c78 f9bc
000002c0: 2277 60bb 2ebe 713d 6527 e93d 125d c63c
000002d0: b341 b0bd 5f18 113d 8159 c73d d6a5 cb3d
000002e0: 6e43 0a3c d7a5 ce3d 702a a4bd 8a34 80bd
000002f0: 24ec 41bd 9f92 08bd d508 a0bc 420a 5e3b
00000300: 0026 c93d 163a 543d 84d3 cf3d 2808 efbd
00000310: 8f44 233d 5267 853d 6d65 333d f3e6 c0bd
00000320: 9657 31bc dab2 3fbd 3f64 1bbc cea8 d33d
00000330: b239 67bd bed0 ef3d d02e 4d3c 926a c63d
00000340: 935d cbbb cb33 883d 3f1f d63c 26ed 8fbd
00000350: 910b 2ebd 8881 1f3d 4fc8 2b3b 322e b4bb
00000360: 9932 09bd 9f30 7abd 68d4 c4bd fa19 05bc
00000370: c548 80bc b48e f0bd 7086 6a3c aebb d4bd
00000380: 8f28 7b3d db8b c2bd d6ff 2c3d 0333 ce3d
00000390: e168 ddbd 37ee a6bd f879 8d3d 14f0 bb3d
000003a0: 1f95 d3bd 5af2 563c 9e7a 2dbd dd99 aa3d
000003b0: c5b3 76bb a5ca 86bd 8458 283d f919 d1bd
000003c0: f92b d4bd 9fab 1e3d 393a 743d f4a1 a43d
000003d0: 55ff de3d 1f90 c83d dc5f a13d 715b cd3d
000003e0: bbda 34bd fdeb e4bd 460e eebd ac77 e0bd
000003f0: ef31 d13d 1a17 2cbd 7b5a 4e3d 797f 533d
-0.09713917 0.031613477 0.025024306 -0.06927222 -0.03968638 -0.113038026 0.0886951 -0.003460198
0.026492378 -0.04536334 0.08719719 0.03064788 -0.028594375 0.11401398 -0.06330361 -0.007537776
-0.10365223 -0.08096048 -0.11655064 -0.050602328 0.087918326 0.09961502 0.07554587 -0.061405137
0.014134518 0.11488785 0.108547434 -0.009740864 -0.03402373 -0.08979383 -0.0297129 -0.099544175
-0.023963647 0.079603925 -0.017659254 -0.11628277 0.09263695 0.021763932 -0.09748898 -0.03612606
0.023990545 -0.021212166 -0.03115361 0.11646539 0.106978536 -0.012752806 -0.10001948 -0.0011568475
-0.05235392 0.026858289 -0.07789386 0.0048984797 -0.06584995 -0.09305232 0.10306437 0.08470471
-0.01798946 0.084651716 -0.090146124 0.01322969 -0.06852182 0.028091377 0.05826569 0.095518865
0.022928512 -0.044995844 -0.015463349 -0.09034013 0.024328535 -0.085914746 -0.063258596 0.08432728
-0.05103259 0.06206917 -0.06312206 0.088201985 -0.045685563 -0.07793255 0.048502266 0.113630325
-0.07232638 -0.07641393 -0.09816001 -0.050531663 -0.047570553 -0.09582693 -0.09883811 -0.09331189
0.10653281 0.054636545 -0.030708937 0.0084009925 0.10021976 -0.11176177 -0.11637572 0.09786957
0.05474322 0.09688463 -0.09687895 -0.01664866 0.096597 0.04212561 -0.0019469426 0.075365834
0.03399452 -0.051926427 -0.085413784 -0.06584336 -0.021101898 0.003264614 0.06939114 -0.04818018
-0.03370547 -0.014281783 0.09665352 -0.07066709 -0.00069846126 0.01433396 -0.024079371 0.057559263
-0.06365556 0.11140372 0.022770528 0.009478025 0.0025608197 0.048239578 -0.053072218 0.0461252
0.030575374 0.0157414 0.11714448 0.05973782 0.011718748 0.06520859 0.028638076 0.040716063
0.093238436 -0.011057115 0.09585747 -0.0009995507 -0.0801689 0.039110634 -0.035475794 0.09029305
-0.0970971 -0.005811967 -0.020183356 -0.05608814 0.10902974 0.071242504 -0.038103845 0.093641095
0.079009324 0.07380035 0.11221325 0.07893115 0.09509995 -0.03780718 0.084746465 0.018607553
0.0154488655 0.0529207 0.027732996 0.010984218 -0.079910494 0.04410311 -0.072337344 -0.08236263
-0.102626175 -0.025662238 -0.09180361 0.04683586 0.009099251 -0.08586713 -0.050886143 -0.0304529
-0.0034250696 0.05901926 0.11384467 0.024214301 -0.08606281 0.035423633 0.097338684 0.0994374
0.008438928 0.10090225 -0.08015907 -0.06260021 -0.047344342 -0.033342954 -0.019535461 0.0033880626
0.09821701 0.051813208 0.10147765 -0.116714776 0.039860304 0.065138474 0.0437979 -0.0941905
-0.010824105 -0.046801426 -0.00948435 0.10334931 -0.056451507 0.11709736 0.012523368 0.096882954
-0.0062062233 0.06650504 0.026137946 -0.07027654 -0.0424915 0.03894189 0.0026211923 -0.005498671
-0.03349552 -0.061081525 -0.09610826 -0.008123869 -0.0156597 -0.117459685 0.014314279 -0.103873596
0.061317977 -0.094993316 0.04223617 0.100683235 -0.1081102 -0.081509046 0.06908029 0.09176651
-0.10331177 0.013119305 -0.042353265 0.08330128 -0.0037643772 -0.0658162 0.04110004 -0.10210032
-0.103599496 0.03873789 0.059625838 0.080387026 0.108885445 0.09793114 0.07879612 0.10027207
-0.04415391 -0.11177824 -0.11623816 -0.109603256 0.10214602 -0.04201422 0.050379258 0.05163524

conv_block_3.5.bias f4 [8]
00000000: f83c 583d f234 3bbd d490 3abc 993f 99bd
00000010: 00a3 053d 4acf 90bd 66e6 8ebd 2ee3 ccbd
0.05279252 -0.04570479 -0.011387069 -0.074828334 0.032626152 -0.07070787 -0.06977539 -0.100042686

conv_block_4.0.weight f4 [8]
00000000: 7ffa 7f3f 3a0e 803f 1514 803f df03 803f
00000010: 1f02 803f 14e7 7f3f 08e7 7f3f 6ef3 7f3f
0.999916 1.0004342 1.0006129 1.0001181 1.0000647 0.9996197 0.999619 0.9998082

conv_block_4.0.bias f4 [8]
00000000: cff3 8639 c2fa 24b9 c8aa a837 e182 2b39
00000010: 3d3c 613a cc67 76b9 aeea 8539 c654 c539
0.00025740123 -0.00015733673 2.0106687e-05 0.00016356587 0.0008592045 -0.00023499056 0.00025542587 0.0003763793

conv_block_4.0.running_mean f4 [8]
00000000: 36f2 d33d 9201 4f3e 7932 b23e 56bd 7d3d
00000010: 27b6 323e d375 853d 59c5 933d e8af 673e
0.103489324 0.20215443 0.34804133 0.061948143 0.17452298 0.06516614 0.072153755 0.22625697

conv_block_4.0.running_var f4 [8]
00000000: 1382 c03d d083 933d d019 da3e e26a 123e
00000010: c53b 873d 8989 603d 7782 863d 3471 783e
0.0939981 0.072028756 0.42597818 0.14298585 0.06603197 0.054818664 0.06567853 0.24261934

conv_block_4.2.weight f4 [16, 8, 3, 3]
00000000: dbb8 aabc beb1 ccbd be8c 7a3d c7bf ebbc
00000010: 8256 08bd 0a0b 10bd ef85 14bd ca76 07bd
00000020: bf35 ee3d 0542 673d 288d 03bd f561 9abd
00000030: cc26 7dbc 8ad6 8ebd 1303 c2bc 4db4 e53d
00000040: e2ed d33d eeef 8ebc 408e d3bd 9646 b73d
00000050: f865 d2bd 2a12 e13d 94f6 f13c 8b48 c8bd
00000060: cc38 f33c b2cd 6d3d f2ef 333c dc43 74bd
00000070: 7662 6a3d e79c d23d 6e26 1a3c 1f45 0b3d
00000080: 8c4c ddbd c85b 49bd 00f2 82bd 5cb3 493d
00000090: 1721 d33d 86db 8ebd f522 e33d c0cf 833d
000000a0: 7f3f 073d 7d51 66bd 98d2 80bb c4cc c9bd
000000b0: b12b 8b3c c05a 3f3d 0530 ddbd a843 dc3d
000000c0: 96cb c1bd d1ea 9fbc b2c3 81bd c433 ebbd
000000d0: 0975 70bd 4ce6 54bd 5e66 b1bc 9951 f53c
000000e0: ea54 403d 51d8 653d 6a88 cabd 34b8 a4bd
000000f0: f0d9 e53d 7835 8fbd dbc4 6dbd e444 87bd
00000100: bac3 e6bd 2a9b b63d 6908 edbd ccac e83d
00000110: 4caf a33c 045c a2bd 6391 933d dd70 6d3d
00000120: a64b af3d 39c0 c83d a000 863d 34b7 d9bc
00000130: bcdf e83d db39 903d 9768 d0bc e83c 163d
00000140: 9be4 2a3d 5015 fabc a153 15bd 9c84 c23d
00000150: 6b09 bbbd ca25 213d d2ea 87bd eac6 a1bd
00000160: 9611 a0bd 4dea c73c ce4d 42bc 2f87 023c
00000170: 84ae ba3c c602 50bd c4a8 6ebd 31ab ae3d
00000180: 8f85 233d eb1c 18bd 7c3e bebb 073a 1e3d
00000190: 391b efbc 339a c8bd 86ce d83d 496b de3d
000001a0: fba3 e53c 7fd2 40bd 2915 a8bd ac6d d3bb
000001b0: 0cd2 c73d fcfc 3c3c 7dae c0bc 536e e6bc
000001c0: 96ff 963d 4e9e 9ebc eb05 86bc b658 de3d
000001d0: 05ea a9bd 9c3a aebd 3feb 2b3d 8a60 ad3d
000001e0: 4b3a 153c beab bc3d 981a 91bd c518 14bd
000001f0: 9e0f d1bd 0414 afbd 8bcd 62bd b841 593c
00000200: 46f4 7d3d 45c4 e5bd 7aa1 aabd a625 9b3d
00000210: e09d af3d add1 433c f339 c1bc de5a ab3d
00000220: 36e2 84bc adfa 6b3d 8949 c7bd c540 7b3c
00000230: 73df 9f3d a2e7 a73d 6590 fabc 4012 8dbd
00000240: dfd8 c2bd b0d0 57bd fc9e 93bc 5f3f 913d
00000250: 3967 f2bd 18ca c53c 7ea3 84bd 9274 ca3d
00000260: 1d7d 8d3d fb27 b53d 9c6e 823c 775b 37bb
00000270: de7e 9fbd 4321 f73c 8cbe 213d d207 6cbd
00000280: 0d53 613d 4ead 81bd 82dc 1e3d 8283 9e3d
00000290: a3ee ee3d fe51 bcbd aaf7 f03c 5ba3 913d
000002a0: 3630 c1bd 4010 8d3d df40 1cbd fc4b e63b
000002b0: cc23 15bc b41f 003d ec5d ce3d 0cc7 053d
000002c0: 7066 0c3d ecc2 7d3d ca8c 8c3d d88b b3bd
000002d0: 84ef 7c3c db8f c7bd c00d 4abd 0f36 8bbd
000002e0: ca6d 893d 48de a13d 71f7 93bd dbe7 dc3c
000002f0: 6c55 b63c 7126 d5bd 4a7a 913d c373 25bd
00000300: d51d dfbd 32a0 debd 805b cdbd 7eaa 123c
00000310: e794 8d3d cb6d 3abc 107a 50bc dc6a c73d
00000320: 6465 76bd ba86 913d 08a5 633d 76ea dc3d
00000330: 0ac0 c3bc 53b7 84bd 3ee5 ddbd 351f 863d
00000340: 6500 95bd 3d31 df3d 1b2a 803c d3e6 71bd
00000350: 3581 623d f81c 7ebc 5ea5 8abb cbba 82bc
00000360: c512 f3bd 942f ccbd 4177 723c de9c cdbd
00000370: 90e3 9ebd ebb7 af3d 06c9 d53c d08d 563d
00000380: ae68 89bd 535e ddbc c0df d4bd 5a72 9a3d
00000390: 261c 96bd a70f 19bc f249 ce3d fe2c 803c
000003a0: 0d59 d3bd 6cee 8abd dca5 d53d 6462 a1bd
000003b0: 893e aabd 0a7d 813d 3153 9bbd 5a7e b8bd
000003c0: d1a6 e4bc 006e 073d ca5b afbd 877b 533d
000003d0: bed7 a3bc 99a4 b5bc 82c4 3abd 74d3 183c
000003e0: cca5 eb3b 5a52 11bd 0049 f1bd 4eff 9d3d
000003f0: ab8a c4bc be69 a03c 2fd8 87bd 1b59 473d
-0.0208401 -0.09994839 0.06116938 -0.02877797 -0.033285625 -0.035166778 -0.03626054 -0.03307227
0.11631345 0.056459446 -0.03211704 -0.07538215 -0.015451144 -0.06974514 -0.023683107 0.1121603
0.10348107 -0.017448392 -0.103298664 0.0894901 -0.10273355 0.10989793 0.029536523 -0.097794615
0.029690169 0.058057494 0.0109825 -0.05963503 0.057222806 0.10283833 0.009408576 0.034001466
-0.10805616 -0.049159795 -0.06393814 0.049243316 0.10309046 -0.069754645 0.11090652 0.064361095
0.03301954 -0.056230057 -0.0039313547 -0.09853509 0.016988607 0.046717405 -0.108001746 0.10755092
-0.09462659 -0.019521149 -0.06336154 -0.11484483 -0.058705363 -0.05197744 -0.021655258 0.029946135
0.04695598 0.0561145 -0.098893 -0.080429465 0.11223209 -0.0699262 -0.058049064 -0.06604937
-0.11267801 0.08916314 -0.1157387 0.113610834 0.019981049 -0.07927707 0.07205465 0.057968963
0.08559351 0.098022886 0.06543088 -0.026576616 0.11370799 0.07042285 -0.025440497 0.03667918
0.04172192 -0.03052774 -0.036456708 0.094979495 -0.09132656 0.03934268 -0.06636585 -0.07899268
-0.07815854 0.024403716 -0.01185937 0.007966801 0.022788294 -0.050783895 -0.058266416 0.08528746
0.039922293 -0.037136953 -0.0058057886 0.038629558 -0.029187785 -0.09795036 0.10586266 0.10860307
0.028032294 -0.047075745 -0.08207161 -0.006452283 0.0975686 0.011534926 -0.023520702 -0.028128779
0.07372968 -0.019362595 -0.016360244 0.10856764 -0.08296589 -0.085072726 0.041972395 0.08465679
0.009108136 0.09212445 -0.070851505 -0.036156435 -0.10208057 -0.085487396 -0.055371802 0.0132602975
0.062000535 -0.11219076 -0.083315805 0.0757554 0.08575034 0.011951846 -0.023587203 0.08366941
-0.016221147 0.05761211 -0.097308226 0.0153352665 0.078062914 0.08198477 -0.03058643 -0.068882465
-0.09514021 -0.052689254 -0.018020146 0.07092165 -0.118360944 0.024144217 -0.06476496 0.09885515
0.06908629 0.08845516 0.015921883 -0.0027978101 -0.0778787 0.030167228 0.03948836 -0.057624646
0.055010844 -0.06331883 0.03878451 0.07739927 0.1166661 -0.09195326 0.02941497 0.07111236
-0.09433024 0.06887865 -0.038147803 0.007028101 -0.009102773 0.031280234 0.10076508 0.03266053
0.03427738 0.06195347 0.06862791 -0.087669075 0.015437964 -0.09744235 -0.04932952 -0.0679742
0.06710394 0.07903725 -0.0722493 0.026966026 0.02225753 -0.10407723 0.07103403 -0.040393602
-0.10894362 -0.108703986 -0.10027218 0.008951781 0.069131665 -0.011378716 -0.0127244145 0.09737179
-0.060155287 0.07105775 0.055577308 0.107869074 -0.023895282 -0.06480279 -0.1083474 0.06548921
-0.07275466 0.10898063 0.015645077 -0.05905802 0.055299003 -0.015509836 -0.004231139 -0.01595821
-0.118688144 -0.09970012 0.01479894 -0.10039686 -0.07758248 0.085800014 0.026096832 0.052381337
-0.06709419 -0.027022516 -0.103942394 0.07541342 -0.07329588 -0.009342111 0.10072698 0.015646454
-0.103197195 -0.067837566 0.10432026 -0.07880095 -0.08312709 0.063226774 -0.07584227 -0.09008475
-0.027911576 0.03306389 -0.08562429 0.051631477 -0.020000335 -0.022173213 -0.04559756 0.009327758
0.0071913954 -0.035478927 -0.11781502 0.07714711 -0.023991903 0.019581672 -0.066330306 0.048668962

conv_block_4.2.bias f4 [16]
00000000: b687 89bd 52f8 df3c b83d 863d 91d9 cb3b
00000010: 7802 ab3d 352b ddbd 383a 9dbd 6146 c4bd
00000020: f68e 923d 6dca cbbc 1fd5 95bd 36f9 23bd
00000030: f3d0 953c 0c44 28bd 8cbf 35bd c27c f3bc
-0.06715338 0.027340088 0.06554741 0.0062210043 0.0835008 -0.10799257 -0.0767712 -0.09583736
0.07156174 -0.024876798 -0.0731604 -0.040032588 0.018288111 -0.04108052 -0.044372126 -0.029722575

conv_block_4.3.weight f4 [16]
00000000: 570b 803f 7a00 803f 6b00 803f 88e4 7f3f
00000010: f311 803f d8ec 7f3f 811d 803f 191c 803f
00000020: 28ea 7f3f df13 803f 1cb5 7f3f bdf2 7f3f
00000030: c5ed 7f3f 26d8 7f3f 830c 803f 9eec 7f3f
1.0003461 1.0000145 1.0000128 0.99958086 1.0005478 0.9997077 1.0009004 1.0008575
0.9996667 1.0006064 0.99885726 0.99979764 0.9997218 0.9993919 1.0003818 0.99970424

conv_block_4.3.bias f4 [16]
00000000: f075 9938 43ff 67b9 8886 8439 64fa 423a
00000010: 44a9 53ba c04f fa37 0860 fe39 3209 993a
00000020: c746 eab9 55c8 113a c2b9 f1b9 74b5 9138
00000030: 98e5 5cb8 ef1c 6fb9 22f2 153a 3397 b13a
7.317576e-05 -0.00022124969 0.00025277236 0.0007437824 -0.0008074234 2.9839459e-05 0.00048518204 0.0011675714
-0.0004468469 0.0005561163 -0.00046105502 6.947937e-05 -5.2665913e-05 -0.00022803595 0.00057199795 0.0013549089

conv_block_4.3.running_mean f4 [16]
00000000: 8faf 60be 5d82 e43d 47b4 ae3d 2ebd 92bd
00000010: e164 413e 1e33 fdbe 4c15 90bd 1aab 7abe
00000020: 0c01 c23e 1a93 873d a1cb 313e f4cd 26be
00000030: f1d8 0ebd 760e 31be 28ec 883e 585e b5bd
-0.2194197 0.11157677 0.08530479 -0.071649894 0.18886138 -0.49453062 -0.07035312 -0.24479333
0.37891424 0.06619854 0.17362835 -0.16289502 -0.03487486 -0.17290673 0.26742673 -0.08855885

conv_block_4.3.running_var f4 [16]
00000000: d568 ee3d ec24 253e 31a4 783e fd79 203e
00000010: 9b7d 1c3e 297f 383e 3d84 053e 75da 203e
00000020: c862 fe3d 8f82 823e 3d45 ca3e caa7 6b3e
00000030: d721 433e d92a 2c3e 0397 1d3e 22e2 0b3e
0.11641089 0.16127366 0.24281384 0.15671535 0.1528229 0.18017258 0.13038726 0.15708335
0.12421185 0.25490233 0.3950595 0.23013225 0.19055878 0.1681322 0.15389638 0.13660482

conv_block_4.5.weight f4 [16, 16, 3, 3]
00000000: 4e6a 8e3c 1321 c43b 4efa 9a3d 6f99 0ebc
00000010: d945 f8bb b0f4 31bd 36a8 7f3c b4ec 8cbd
00000020: c2b6 9e3d f446 bfbb 5648 ba3c 24a4 63bc
00000030: 24a2 193d 609b 053c 9158 473c 7de8 c73c
00000040: 5991 6f3d 896f 9f3c bc06 7ebd 6ab9 a0bd
00000050: bf99 a23d 4010 bf3c 2b90 9d3d 22c3 35bd
00000060: 04cd 45bd 002e 793b 731c 573d 42ac af3c
00000070: c21b f03b 3d43 bd3c 8c4f 8e3d fbed 99bc
00000080: 133f 963d dfb2 133d 6392 4b3d 7e4e 94bd
00000090: 3dd3 80bc f7e3 ecbc 2696 02bd 54ed 36bd
000000a0: 3e33 95bd 544d 583d 2684 74bd fe1d 863d
000000b0: c2e4 29bd 2c9d 793c 885b fd3b f5bf 12bd
000000c0: 3283 7a3d d1ca 96bc 8ddd 2e3d 66d1 ba3c
000000d0: ae41 a6bd 754d 213b bec2 493d a6f3 30bc
000000e0: ad4f 15bb bc8f ff3c 821f 843d 2b63 4ebd
000000f0: 2970 673d 4c1c 25bd ebdd 99bd a7f5 78bd
00000100: 3857 473c e5ab 55bd f411 313d 986e 4f3d
00000110: 932d 5d3d 79ff ab3c 0f5d a5bd c437 1b3c
00000120: f612 34bd 4c21 9a3d 220d 6dbc 6e89 5bbc
00000130: 3984 963d 1e2d 98bd 90ac a0bd 9f04 33bd
00000140: 4468 a5bd f6c1 a43c c582 443c a885 3fbd
00000150: 9b07 013d 4191 a2bd 6cfd b23c cddc 86bd
00000160: 0e39 073d 2bca 0cbd 5f35 8b3d fcd5 a83d
00000170: 401c a4bd 0f3c cfbc 2722 3c3d ad3a 663c
00000180: 82c2 2c3d b9a7 9c3d ac8a 4f39 522c c03c
00000190: 734f 183c f6e0 553c 0c8f dabc 41d7 9ebd
000001a0: 2aad 5f3d fb26 5e3d 4c04 a1bd 935b 78bd
000001b0: 6480 0fbd b1f3 87bd 4686 a43c f2b6 5f3d
000001c0: d07b 34bd 4966 d33c 0504 a7bd 801d 923d
000001d0: e0bb 263d aabc 5a3b 9767 c33c e777 a83d
000001e0: b07d a1bd e5d4 9cbc 928e 56ba e3c8 3fbd
000001f0: f752 18bc b4f2 3bbc 1087 7d3c 57f2 52bd
00000200: b872 e2bc 7404 3c3d 9f96 a73d dfcd 9e3c
00000210: 3ea2 55bd 3996 653d 6d45 6b3d f46b 23bd
00000220: c65d 963d 030e 16bd 5183 fe3c 2960 a13c
00000230: 7423 a8bd 17fd 3d3c 5402 d63c 8911 303d
00000240: 053e 843d 96c4 263d 2cc2 aabd d884 0c3d
00000250: 19ec 85bd 736d 71bd 3252 263d cd5c a93d
00000260: 20d3 6f3d 6cdc a7bd 5f82 253d 573d 163d
00000270: 62f5 193d 80cd db3c bae3 ca3c fabb 873c
00000280: f3ef a73c 87cd 36bc 0652 00bb c4b4 3d3d
00000290: c7bb 3f3b a6f5 a83a 7890 0d3d 47cf a2bc
000002a0: c4b1 78bb 839a 813d 37cc 793d d8b9 b63c
000002b0: aa56 bab7 209a f23c 32fb 59bd d909 263d
000002c0: 6138 89bd 61a0 243b e24e 2c3d 94e6 fe3b
000002d0: 321c 093d 9436 e43c 2379 1c3c 2723 103d
000002e0: 1add 7bbd 6052 943d 36ae 7d3d 8443 d63c
000002f0: c79d 6cbd 3472 5b3c 801a 88bd 7461 6cbc
00000300: 0b14 0c3d 4433 18bd 0a88 d03b eaee 733d
00000310: a459 4d3c 3453 e8bc 71b4 473d 8e9f 4ebd
00000320: 8712 a73d 5297 423d 1c7b 463d b2ce 663d
00000330: 365c 6e3c 5b7f 3ebb 8773 9e3c 929c aa3c
00000340: 31b1 2b3d 1854 f7bc d2d9 3dbd 5e07 31bc
00000350: 21dc fa3c f32d 923d 440b 583c 9999 863c
00000360: fbf9 ef3c be1c 59bd d3f7 423d ed9e 0fbd
00000370: d2fd ebbc 5466 403d e351 843d 7d3d f3bc
00000380: b6b3 7e3b 6853 203d b6d1 573d d2fd 383d
00000390: 3b92 f1bc a86c 19bd 7fd1 9dbc 02d0 06bb
000003a0: 601e 6b3d 1b4d 0fbd 04b0 373c a376 bdbc
000003b0: d1c3 93bd dc86 8b3c af33 a7bd bd0e 09bd
000003c0: d5d9 533d c168 0f3d 03d3 8f3d ad83 063d
000003d0: db0f 45bd 28ff f73c 6d59 093c 6a89 ecbb
000003e0: 91c1 2cbc d1fb 8f3d a70e 3dbd 371d 8a3d
000003f0: 8abb fc3c fc4e 9bbc b78c 1fbd cd21 4dbc
0.017384674 0.005985388 0.07567273 -0.008703574 -0.007576686 -0.043446243 0.015604069 -0.06881085
0.07749702 -0.0058373157 0.02273957 -0.013894115 0.037508145 0.00815472 0.012167112 0.024402851
0.058488224 0.019462364 -0.06201814 -0.07847865 0.07939481 0.023323178 0.076935135 -0.044375546
-0.04829122 0.0038021803 0.052517366 0.021444444 0.0073275277 0.02310335 0.06948766 -0.018790236
0.07336249 0.036059257 0.049700152 -0.07241534 -0.015725726 -0.028917296 -0.031881474 -0.044659927
-0.07285164 0.05280812 -0.05969634 0.06548689 -0.041477926 0.015235227 0.0077318586 -0.035827596
0.061160274 -0.018407257 0.042691756 0.022804927 -0.08117996 0.0024612818 0.049257986 -0.010800278
-0.0022783086 0.031196468 0.06451322 -0.050387543 0.05650345 -0.04031019 -0.075130306 -0.060781147
0.012166791 -0.052165885 0.043230012 0.05064258 0.05399854 0.020995842 -0.0807439 0.009473745
-0.043963395 0.07525882 -0.014468463 -0.013399465 0.07349438 -0.074304804 -0.07845414 -0.04370558
-0.08076528 0.020112019 0.0119940685 -0.046758324 0.031501394 -0.07937861 0.021849357 -0.06585083
0.033013396 -0.03437249 0.06797289 0.08243939 -0.08013201 -0.025297193 0.045931008 0.014052075
0.042177685 0.07649178 0.00019792718 0.023458634 0.009296286 0.013054123 -0.026679538 -0.077559
0.0546085 0.054236393 -0.07862148 -0.060634207 -0.035034552 -0.06638277 0.020083558 0.05461783
-0.04406339 0.02580561 -0.081550635 0.07134533 0.040706515 0.0033376613 0.023853106 0.082259946
-0.07885301 -0.019144485 -0.0008184697 -0.04682244 -0.009297124 -0.011471439 0.015474096 -0.051500645
-0.027642593 0.045902684 0.081830256 0.019385276 -0.05215668 0.056051467 0.057439256 -0.039897874
0.073421046 -0.036634456 0.031068476 0.019699173 -0.08209887 0.011595986 0.026124157 0.042985473
0.06457142 0.040714823 -0.083378166 0.034306377 -0.06539173 -0.05894227 0.04060573 0.082696535
0.058550954 -0.08196339 0.040407535 0.036679592 0.03758753 0.026831388 0.024766792 0.016569126
0.020500159 -0.0111574 -0.001958014 0.04631497 0.002925621 0.0012890592 0.034561604 -0.019874228
-0.0037947753 0.06328299 0.06098577 0.022305414 -2.2213284e-05 0.029614508 -0.053218074 0.040536735
-0.067002065 0.0025120007 0.042067416 0.007778952 0.033474155 0.027858056 0.009550366 0.035189774
-0.061490156 0.07242274 0.06193372 0.02615524 -0.057767656 0.013393927 -0.066456795 -0.0144275315
0.034198802 -0.037158266 0.0063638734 0.059554018 0.012533579 -0.028359987 0.048756067 -0.050445132
0.08157831 0.04750759 0.04845725 0.056349464 0.014548352 -0.002906761 0.019342197 0.020826612
0.04191703 -0.030191466 -0.046350308 -0.010804979 0.030622544 0.0713767 0.01318628 0.016430663
0.029294005 -0.053005926 0.047599625 -0.035063673 -0.028807554 0.046972588 0.06460931 -0.029692406
0.003886444 0.039142042 0.05269023 0.045163937 -0.029488673 -0.03745714 -0.019264935 -0.002057076
0.057402015 -0.034985643 0.011211399 -0.02312786 -0.072150834 0.01703208 -0.08164155 -0.03346132
0.051721413 0.03501201 0.07022669 0.03284042 -0.048110824 0.030273035 0.008383137 -0.0072185295
-0.010544197 0.07030452 -0.04615655 0.067438535 0.030851144 -0.018958561 -0.038952556 -0.012520266

conv_block_4.5.bias f4 [16]
00000000: 1772 ed3b bf33 793c 6340 9cbd 941d be3c
00000010: 1913 9ebd 3954 913c e50c a13d 2f86 0abd
00000020: e540 c33c b947 23bd 3cfe 9ebc f5c0 e53c
00000030: bdf8 513d 1d7b 173d bff1 87bc 9dfc 533c
0.0072462666 0.015210091 -0.07629468 0.023207463 -0.07718486 0.017740356 0.078637876 -0.033819374
0.023834655 -0.039863322 -0.019408338 0.02804611 0.051262606 0.036982644 -0.016594766 0.012938646

conv_block_5.0.weight f4 [16]
00000000: 72d5 7f3f 80f2 7f3f 91bb 7f3f c506 803f
00000010: 0c99 7f3f 1aee 7f3f 4729 803f 19ca 7f3f
00000020: a01d 803f af0a 803f ba10 803f d0c3 7f3f
00000030: ca25 803f 60ae 7f3f 7007 803f 671c 803f
0.99935067 0.999794 0.9989558 1.0002066 0.99842906 0.9997269 1.0012597 0.9991775
1.0009041 1.000326 1.0005105 0.9990816 1.0011532 0.9987545 1.000227 1.0008668

conv_block_5.0.bias f4 [16]
00000000: de5f 93ba c001 90b7 4bf8 08ba 2db2 f939
00000010: 9815 24ba 080c 3b39 5c9a 1c39 37bf 8c38
00000020: 3b6c a739 1a42 3d3a 039a 7737 7e90 f9b9
00000030: 43d7 163a 52bd 7bba ecae 4f3a 22be 6b3a
-0.0011243781 -1.7166953e-05 -0.0005224987 0.00047625732 -0.0006259321 0.00017838192 0.00014934823 6.711337e-05
0.0003193336 0.0007219628 1.4758206e-05 -0.00047600636 0.00057541224 -0.0009603101 0.0007922489 0.00089928706

conv_block_5.0.running_mean f4 [16]
00000000: cee2 803e 9d57 243f dd7e d3bd c173 d03e
00000010: e903 96bd 2678 fcbc 2bca 453e e041 683e
00000020: db9c 993e 6de1 5bbe d6fc 553d 4cb7 e03e
00000030: b61e 843e 4aeb 933e e048 77bd 67f9 b03e
0.25173038 0.6419619 -0.103269316 0.40713313 -0.073249646 -0.03081901 0.19315402 0.2268138
0.30002484 -0.21472712 0.052243076 0.43889844 0.2580468 0.2889045 -0.060372233 0.3456528

conv_block_5.0.running_var f4 [16]
00000000: 9c14 ed3d 0142 b03e 56c5 c13d 6178 e63d
00000010: 5362 b53d dd5c c23d caed bd3d 36b3 973d
00000020: 8024 bb3d 0fc4 043e 391b 803d 495e 713e
00000030: 08f8 043e 8613 4a3e d814 9c3d 8f0c b13d
0.115761966 0.34425357 0.09461467 0.11253429 0.088566445 0.094903685 0.0927387 0.07407229
0.09137821 0.12965415 0.06255192 0.23571123 0.12985241 0.1973401 0.07621163 0.086449735

conv_block_5.2.weight f4 [32, 16, 3, 3]
00000000: 0755 713c 98bc a73d 3404 5c3d 4b66 19bc
00000010: 25cf 46bd 9a38 1cbd 2d8e 14bd 4a13 083d
00000020: ff89 a03d 20f7 07bd 018c 9abd 0db3 643d
00000030: 624b 853d 4290 04bd b927 2cbd 3dd5 543d
00000040: c13f 9bbd 2319 56bd b58e a8bd 34f8 553b
00000050: 8245 843c 0a86 8b3c d641 993d fb08 823c
00000060: c8b9 0e3d 70c9 e6bb 1303 8a3d 3548 323d
00000070: a028 903d b3f3 a2bc 081a b23c 5ebb ad3c
00000080: 7f23 40bd ec8d a3bd 7bbc d73c 44f0 60ba
00000090: ffa1 85bc 2252 d13c 116e d73c 6970 bc3b
000000a0: ec84 953d 2a0d a7bd 5ac1 9c3c 44cd 173c
000000b0: a5bc 78bb 7cc9 a53d 42ea 623d a7b8 863d
000000c0: 416d 73bd ecef a03c eb69 6abc 6c86 8a3d
000000d0: 7335 a53c 33a5 7abd dd27 3dbd efa5 74bd
000000e0: dd6c 923d 4c13 0dbd 4eaa 863b 1edb 45bd
000000f0: 4fd5 8ebd 1d3a 4d3d 2794 653d f494 93bc
00000100: 3eab b73c d7a9 123d 758d 943d 4bd2 75bd
00000110: a423 a93b 4848 de3c 1603 a9bb 58ee 403d
00000120: 082c 973d b215 7fbd 2097 813d f00b 513d
00000130: 52aa 82bd 64b2 803d eae2 79bd 230b 20bd
00000140: 7bb7 4a3d 3e85 63bd 2fb3 83bd 02c2 87bd
00000150: f42c fbbc ee91 5cbb f1f8 6a3d c121 37bd
00000160: 89a8 81bb d1d5 f43c 7095 f93c bdff 9e3b
00000170: 773c 203c 6d2f 063d 55b3 0a3d 9238 e9bc
00000180: 9b46 86bd 8d2e 8e3d 6d4b 89bd 5fbd 3b3d
00000190: 514a 3ebd ffba 123d 80ee a63b 8d00 c1bc
000001a0: e36d 9f3c fc04 46bd 5f04 8b3d 1194 a4bc
000001b0: 5e6d 29bc 80d5 47bc db06 1bbd 69a7 41bd
000001c0: 0d03 ad3c 6c20 90bd 09e3 c83c c481 19bd
000001d0: 3257 efbc 208e aaba f035 d73c 1698 6fbc
000001e0: 678a afbc d2e7 a73a e90d 60ba 8ac5 883d
000001f0: a3ad 84bc 698e 0fbd 1af8 1dbd 1603 6dbd
00000200: 5cf4 46bc 0b8e bfbb 94ff 223d c3f0 1fbc
00000210: 0662 853d 4113 85bd 6178 5dbc 118a a7bd
00000220: 5bc2 963d fe4c 9abd 565e 2a3d cd21 813d
00000230: 2ad4 94bc 75ad 88bb 1a27 44bd f019 5abd
00000240: b09d 2d3b 33d8 b63c 4515 a4bd 7def 30bd
00000250: 7aaf 293d def2 a83d 1010 3e3c fd70 6f3d
00000260: 0d44 a73d f882 07bc 76d4 743d 9abb 33bd
00000270: d0fc 29bc 991d 60b9 501f 92ba 3392 8fbc
00000280: b687 f63c 3074 873c b724 a2bd 93cb a9bc
00000290: 63de ea3b f88d abbc 803f 7d3d 4ae6 aa3d
000002a0: c8c5 3e3d c04f 76bd 7425 2c3d 72a5 6cbd
000002b0: 9a9d 903d 56f3 9b3d b3f0 8fbc 6081 a53d
000002c0: 7ea6 12bd 30cd 0dbd eef8 d6bc c5ca 00bd
000002d0: 4e37 49bc 3aae 9abd 40f7 893d f342 383d
000002e0: 45d6 54bd 85d1 9cbd 2340 57bd 2c0f 523d
000002f0: 60a6 1bbd 2201 87bc d87c 133d 8b56 293d
00000300: f7d9 713d ede2 353c 4b0c 983d 7b7a b33b
00000310: 8c61 8fbc 2fc4 49bd 0d29 6f3d e41a 94bd
00000320: b2ac 77bd 333d 94bb 7874 633c 119e a5bd
00000330: bc44 903d d49c 8fbd 27fe ddbb 1311 7ebd
00000340: 0bda e43c 53f8 5c3d 36d0 1b3d 49e0 43bd
00000350: fb7f 36bb 2cf3 22bd fb20 e43c b1e9 81bd
00000360: bcdb 9c3c 68d9 c3bc 1e9c 8a3d f44f 403d
00000370: 5b42 09bd c885 8a3d e555 9d3c 80b4 e23c
00000380: 6ef6 11bd ff76 963d d959 fbbc 3d06 923d
00000390: 2c30 8f3d 06cd 453c 5d86 6a3c 72ce f3bc
000003a0: 20a7 dd3c bf81 92bb 4f52 993d 1198 b8bb
000003b0: 2567 a63c e1b3 333d ae56 9f3d c759 523b
000003c0: c13f 8ebd 9436 e43c 19fa 813d eb53 f1bc
000003d0: be94 04bd c635 ee3c ce5a a5bd 9312 5fbd
000003e0: 520c 8c3d c6cd 5abd 5ace 85bc b1e8 923c
000003f0: 090d 823d 7376 913d 5659 a43d fd13 a03d
0.014729745 0.08190268 0.053714946 -0.009362767 -0.048537392 -0.038139917 -0.036268402 0.03322152
0.07838821 -0.03319466 -0.07546235 0.05583482 0.06508519 -0.032364137 -0.04203007 0.051961172
-0.075805195 -0.052270066 -0.08230344 0.0032649161 0.016146425 0.017031688 0.0748326 0.015873423
0.034845144 -0.007043056 0.067388676 0.043525893 0.070389986 -0.019891595 0.021740928 0.021207508
-0.04690885 -0.07986054 0.026334992 -0.0008580724 -0.016312597 0.02555186 0.026297601 0.005750705
0.073007435 -0.08156808 0.019135166 0.009265248 -0.0037954238 0.08095071 0.055399187 0.065781884
-0.059430365 0.019645654 -0.014307479 0.0676392 0.020167088 -0.061192703 -0.046180595 -0.05972856
0.0714967 -0.03444223 0.0041096574 -0.04830467 -0.06974279 0.05010425 0.056049492 -0.018015362
0.022420522 0.035806503 0.07253543 -0.060015004 0.0051617194 0.027134076 -0.0051578386 0.047102302
0.07381445 -0.06227655 0.06327653 0.051036775 -0.06380142 0.06284025 -0.061007418 -0.03907312
0.049491387 -0.05554699 -0.06430661 -0.06628801 -0.030661084 -0.0033656317 0.057366315 -0.044709925
-0.0039568585 0.029887112 0.030466765 0.0048522637 0.009780041 0.032760072 0.03386243 -0.028469358
-0.06556436 0.069424726 -0.067038395 0.045834895 -0.046457592 0.035822865 0.0050943494 -0.023559833
0.019461578 -0.048344597 0.06787943 -0.020090135 -0.010341017 -0.012196898 -0.037848335 -0.047278795
0.021119619 -0.07037434 0.024522321 -0.03747727 -0.029216383 -0.0013012327 0.026270837 -0.014623662
-0.0214283 0.0012810177 -0.00085469946 0.066783026 -0.016196078 -0.035047922 -0.038566686 -0.05786427
-0.012143221 -0.0058457903 0.03979452 -0.009761992 0.06512837 -0.06497813 -0.01351747 -0.08180631
0.07361289 -0.07534216 0.041593872 0.06305275 -0.018167574 -0.0041710683 -0.047888853 -0.053247392
0.0026491694 0.022319889 -0.08011869 -0.043197144 0.041427113 0.08249448 0.011600509 0.058457363
0.081672765 -0.0082709715 0.05977293 -0.043880083 -0.010375217 -0.0002137333 -0.0011148248 -0.017525768
0.030094009 0.016534895 -0.07917159 -0.020726955 0.007167624 -0.02094172 0.061828136 0.083447054
0.046575338 -0.06013465 0.042027906 -0.05777497 0.0706131 0.07614772 -0.017570829 0.08081317
-0.03580331 -0.03461951 -0.026241746 -0.031443376 -0.012281252 -0.07552762 0.06736612 0.044985723
-0.051962156 -0.0765715 -0.0525514 0.051284 -0.038000464 -0.016480032 0.036007732 0.0413423
0.059045758 0.011101467 0.0742422 0.0054772473 -0.017502569 -0.04925936 0.05838876 -0.072316915
-0.06046743 -0.004523897 0.013882749 -0.080867894 0.0704436 -0.070123345 -0.006774682 -0.062028002
0.027936002 0.053947758 0.038040362 -0.047821317 -0.0027847278 -0.039782688 0.027847758 -0.06343401
0.019147746 -0.023907378 0.06768058 0.04695125 -0.033510547 0.06763798 0.019205997 0.02767396
-0.035635404 0.073469155 -0.030682491 0.07130096 0.0699161 0.012072807 0.014314261 -0.029761527
0.02705723 -0.0044710333 0.07486402 -0.005633362 0.020312855 0.043872718 0.07780205 0.0032096968
-0.06945754 0.027858056 0.063465305 -0.02945896 -0.032368414 0.029078376 -0.0807396 -0.054461073
0.068382874 -0.053418897 -0.016333748 0.017933222 0.063501425 0.071026705 0.08024852 0.078163125

conv_block_5.2.bias f4 [32]
00000000: b464 7c3c de52 97bd 2161 0cbb ed53 6d3d
00000010: 03b9 6dbc 47e8 3d3d 58d0 793d 881b a2bc
00000020: b546 a83d 6feb 73bc ee24 0e3d 4fed 0cbc
00000030: 45a7 95bd 619c 933d 0269 56bc c59b 15bd
00000040: 11fa 3d3d f87d e23a 00c8 cb3c d903 3b3d
00000050: ed07 90bd a533 553d 94a9 04ba 9fd8 91bb
00000060: 79f0 a2bd 1b4c 7b3d 1ed6 a63d bdde a33d
00000070: 0660 86bd 2658 6d3d 5f49 88bc a5d0 84bd
0.015404869 -0.073888525 -0.0021420198 0.057941366 -0.014509442 0.046364095 0.060989708 -0.019788519
0.08216611 -0.014887675 0.034703188 -0.008601501 -0.07307295 0.07207561 -0.013086559 -0.036525507
0.04638106 0.0017279973 0.02487564 0.045657966 -0.07032762 0.052051205 -0.00050606695 -0.004450872
-0.07956023 0.061351877 0.08146308 0.08001468 -0.06561284 0.057945393 -0.016636549 -0.06485108

conv_block_5.3.weight f4 [32]
00000000: fd06 803f 6a1a 803f 50f0 7f3f 65ea 7f3f
00000010: a2fe 7f3f ea00 803f 5316 803f dd01 803f
00000020: 0507 803f 39ee 7f3f 54eb 7f3f c600 803f
00000030: ee1d 803f 31f2 7f3f 43e5 7f3f 53d1 7f3f
00000040: 9e18 803f 720c 803f ecb9 7f3f ac01 803f
00000050: b608 803f 29c2 7f3f 6dcb 7f3f 5424 803f
00000060: 380d 803f 81e0 7f3f 2022 803f 7ded 7f3f
00000070: 1ae8 7f3f f4ec 7f3f 0c23 803f 9512 803f
1.0002133 1.0008061 0.9997606 0.9996703 0.99997914 1.0000279 1.0006813 1.0000569
1.0002142 0.99972874 0.9996846 1.0000236 1.0009134 0.9997893 0.999592 0.9992878
1.0007513 1.0003798 0.9989307 1.000051 1.0002658 0.9990564 0.9991978 1.0011086
1.0004034 0.9995194 1.0010414 0.99971753 0.99963534 0.99970937 1.0010695 1.0005671

conv_block_5.3.bias f4 [32]
00000000: a716 3c3a fc4c b139 b507 78b9 110f 28ba
00000010: 020c 173a ae9b 4839 02e8 b83a d4ed 11ba
00000020: 6ed2 6239 de1a 58ba a35e cdb9 db77 e7b9
00000030: 00c8 653a 624b 0cb8 9b3a 24ba 20cb 9c39
00000040: 1d2c 833a e85c c9b8 8a8d a5ba 471f 9b39
00000050: eadf 653a 50a1 00ba 2d36 3aba b4c9 4d3a
00000060: 3732 68b9 d34f b2b9 2163 843a efb0 2eba
00000070: be36 dab9 14b4 99ba a9f9 213a aec5 70b9
0.00071750063 0.0003381743 -0.00023653994 -0.00064109365 0.0005761982 0.00019131482 0.001410723 -0.000556675
0.0002163143 -0.00082437496 -0.00039171157 -0.00044149053 0.0008765459 -3.3448807e-05 -0.00062648364 0.0002990598
0.0010007654 -9.601732e-05 -0.0012630683 0.00029587207 0.00087690225 -0.000490685 -0.000710341 0.00078501855
-0.0002214395 -0.0003401028 0.0010100343 -0.00066639384 -0.00041620986 -0.0011726641 0.0006178865 -0.00022961825

conv_block_5.3.running_mean f4 [32]
00000000: 2e98 a83c 7c9f 103e 2de4 13bc 926f 8b3e
00000010: 9007 0abd 4346 4fbe 10ff 6e3d 7a0d 42be
00000020: 6a76 ccbd 8ca7 ec3d 2c50 e73c 723a 00bd
00000030: 00f8 963d c439 7dbe 785b 283e a542 983e
00000040: 1b03 083e defb 7ebe 166c b93e 57cf 66be
00000050: f222 85be 4277 8e3e 3175 60be 7a02 153e
00000060: 4f51 a23d 68ca 4d3c 05a0 b63e b77a 253e
00000070: f86a e13b b415 163d f0d6 e2be eb4f c1bd
0.020580377 0.14123338 -0.009026569 0.2723356 -0.03369862 -0.20241646 0.058348715 -0.18950453
-0.09983523 0.115553945 0.028236471 -0.031305738 0.07371521 -0.24729067 0.16441143 0.29738346
0.13282435 -0.24900767 0.36215276 -0.22540031 -0.26003224 0.27825361 -0.21919705 0.14551726
0.07925665 0.012560464 0.3566896 0.16160093 0.0068792067 0.03664179 -0.4430461 -0.09439071
