cloud-detection-code/tests/test_artifacts/test_jaccard_loss/model_checkpoint_6.pt (torch, 439769 bytes, 347 tensors)

input_conv_block.0.weight f4 [3]
000000 8c c0 7f 3f a7 da 7f 3f 1c 1b 80 3f
       0.9990318 0.9994301 1.0008273

input_conv_block.0.bias f4 [3]
000000 ab 71 0e 38 4c 47 e8 39 98 0c 02 b8
       3.39613e-05 0.0004430361 -3.1006144e-05

input_conv_block.0.running_mean f4 [3]
000000 0e 4a d5 3e dc f5 d4 3e 4e 81 b3 3e
       0.41658062 0.41593826 0.3505959

input_conv_block.0.running_var f4 [3]
000000 b8 2e 51 3d 6a 57 43 3d 78 1e 38 3d
       0.051069945 0.047690786 0.044950932

input_conv_block.2.weight f4 [2, 3, 1, 1]
000000 1f 8a 02 bf ba 74 7f be ea 94 f0 3e ce 61 5f 3e
       -0.50992006 -0.24946871 0.46988612 0.21814653
000010 1a 68 d3 be 4b 2c e9 be
       -0.4129036 -0.45541605

conv_block_1.0.weight f4 [2]
000000 01 02 80 3f 06 fc 7f 3f
       1.0000612 0.9999393

conv_block_1.0.bias f4 [2]
000000 93 33 01 39 5b 24 92 39
       0.00012321612 0.00027874377

conv_block_1.0.running_mean f4 [2]
000000 d7 1a 04 be 38 ee 78 be
       -0.12900864 -0.24309623

conv_block_1.0.running_var f4 [2]
000000 0e 20 99 3d c8 12 65 3e
       0.07476817 0.22370446

conv_block_1.2.weight f4 [2, 2, 3, 3]
000000 f1 18 ee bd 85 d7 7f bc b5 8d 3d be 21 08 10 3e
       -0.11625851 -0.015615349 -0.18511088 0.14065601
000010 40 dd 6f 3e fe e9 f3 3b 0a bf 69 3e 62 a7 2e 3e
       0.23424244 0.0074436655 0.22826782 0.17056039
000020 25 9a 45 3e 75 09 6e 3e e1 6a 6a 3e 9e 9a 6c be
       0.19297083 0.23245795 0.22892334 -0.23105857
000030 09 6e a6 bd f8 55 b8 bd 1f ef 01 be f5 2c ab 3d
       -0.08126456 -0.09000772 -0.12688874 0.08358184
000040 7a d5 6f 3d 2a d5 21 bd 41 31 1f be 24 66 62 3e
       0.058553196 -0.03950993 -0.15546133 0.22109276
000050 36 d1 25 3e f9 b0 6f 3e 74 20 5f 3c f1 5d f2 3c
       0.16193089 0.23407353 0.013618577 0.02958581
000060 85 53 58 3e dd 07 5d 3e e2 88 3c 3e c5 99 55 3e
       0.2112561 0.21585031 0.18411592 0.2085944
000070 bf e4 3f 3e f3 1a 24 3d 4a e3 5b bd 04 af 6e 3e
       0.18739603 0.040064763 -0.053683557 0.2330895
000080 23 2e 45 be 93 da 45 bc 58 37 4a 3e cb 9a 65 be
       -0.19255881 -0.012076038 0.19747674 -0.2242233

conv_block_1.2.bias f4 [2]
000000 a8 72 39 be 3b 7d bd bd
       -0.18110144 -0.092524014

conv_block_1.3.weight f4 [2]
000000 96 e4 7f 3f c1 0d 80 3f
       0.9995817 1.0004197

conv_block_1.3.bias f4 [2]
000000 f8 04 87 39 55 2b c4 b7
       0.0002575291 -2.3385199e-05

conv_block_1.3.running_mean f4 [2]
000000 99 96 b7 3d e8 64 f3 3e
       0.08964271 0.47537923

conv_block_1.3.running_var f4 [2]
000000 f3 fd ca 3d eb 0f 52 3e
       0.09911718 0.20513885

conv_block_1.5.weight f4 [2, 2, 3, 3]
000000 45 ef 19 3e 1c db c0 3d d8 66 70 be 07 a2 0d 3e
       0.1503268 0.09416792 -0.23476732 0.1383134
000010 8b 4f 63 be ed fa 69 be 67 ca 7a bd ae 01 6d bd
       -0.22198312 -0.22849627 -0.061228182 -0.05786293
000020 97 c5 a1 3d 01 8a ad bd f1 a3 74 bb 2d 9d 37 bd
       0.078990154 -0.08473588 -0.0037329162 -0.04482763
000030 bf f7 0d be 50 3f 9d bd 19 16 0f 3e 27 29 24 bc
       -0.13864039 -0.076780915 0.13973273 -0.010019577
000040 34 21 5c be 63 72 ba 3d c4 4c 94 3b cc 70 26 bd
       -0.21497041 0.09103849 0.0045257527 -0.040634915
000050 cc e3 ef bc 01 31 9c bd 7c 1a 08 3e 33 31 ff bb
       -0.029283427 -0.07626534 0.13291353 -0.0077878474
000060 a6 d9 06 3e 11 45 02 be 25 8b 0b be e3 21 b9 bd
       0.13168964 -0.12721659 -0.13627298 -0.090396665
000070 bd 21 21 3e 66 bb b8 3c 84 3d 27 3e f1 24 66 3e
       0.15735526 0.022550296 0.1633206 0.2247503
000080 49 39 df 3c 66 41 33 be e1 b5 0f 3e f2 5d 11 3e
       0.027248995 -0.17505416 0.14034225 0.14195994

conv_block_1.5.bias f4 [2]
000000 33 8a 2a bd 30 ee ce bd
       -0.041635703 -0.101040244

conv_block_2.0.weight f4 [2]
000000 71 08 80 3f 1d ef 7f 3f
       1.0002576 0.9997423

conv_block_2.0.bias f4 [2]
000000 6c a3 8d 39 4b 16 65 ba
       0.00027015375 -0.00087389786

conv_block_2.0.running_mean f4 [2]
000000 30 e8 51 be 49 ec 19 3e
       -0.20498729 0.15031542

conv_block_2.0.running_var f4 [2]
000000 7b fb e9 3d b2 9b ea 3d
       0.11424919 0.11455478

conv_block_2.2.weight f4 [4, 2, 3, 3]
000000 79 59 47 be e2 46 46 be 39 42 11 be 70 02 cf 3d
       -0.19467725 -0.19362977 -0.14185418 0.10107887
000010 be a5 43 be 8c 44 b3 bd f6 d0 5d 3e 46 16 37 be
       -0.19106194 -0.08753309 0.21661744 -0.1787959
000020 69 e8 4a 3e 47 78 85 bd ae 38 e4 bc 94 a9 94 bd
       0.1981522 -0.06517082 -0.027859058 -0.07258907
000030 3d 79 5d 3e 3b 78 fd 3d 82 c2 64 be 16 d8 53 be
       0.2162828 0.12376448 -0.22339824 -0.20687899
000040 bd 4d e0 bd 8d b0 0d 3e 49 04 de 3d 34 67 36 be
       -0.109523274 0.1383688 0.10840661 -0.17812806
000050 7c 1d 31 3e 80 67 17 be b0 41 34 3e 9f 47 10 be
       0.17296404 -0.14785576 0.17603183 -0.14089821
000060 0c 10 0f 3e c6 ea a0 3d 06 d5 6a be ae b7 3b 3e
       0.13970965 0.078572795 -0.22932824 0.18331787
000070 a8 5d 25 3d af ce 5c 3d 7d 4d d5 3c 86 e8 34 bd
       0.04037252 0.053908046 0.026037926 -0.044167064
000080 88 a3 19 be b4 6a aa bd 28 78 13 3b a9 1d 73 3d
       -0.15003788 -0.08321133 0.0022502039 0.059354458
000090 e4 f2 cb 3d 0d 14 f0 bc 91 da 10 3d b1 bf 31 3d
       0.09958437 -0.029306436 0.03536469 0.0433957
0000a0 d4 2f 04 3c 66 cb e0 bd 37 77 ad bd 24 51 0c 3c
       0.008068044 -0.10976295 -0.08470004 0.008564267
0000b0 9c 13 00 be fa aa 22 be 5c a6 66 be fb 6a 4d be
       -0.1250748 -0.15885535 -0.22524399 -0.20060341
0000c0 03 25 c9 bd ba 1e d8 bd 95 a0 3d be 61 aa 34 be
       -0.098215126 -0.105527356 -0.18518288 -0.1764312
0000d0 04 a5 53 3e 78 e6 83 3c e1 c6 5e 3e 15 33 63 be
       0.20668417 0.016101107 0.21755554 -0.22187455
0000e0 bd d0 65 3e 1d e7 6c bd c4 3a 9b 3d 87 1b dc 3c
       0.22442909 -0.057837594 0.07579568 0.026868595
0000f0 d5 bd bd bd 25 8c 23 3e c2 f2 d4 3d 18 e0 21 3e
       -0.09264723 0.1597143 0.10397865 0.15808141
000100 bd a9 9b 3c 3b d8 74 bc 8f 48 53 3d a6 36 19 bd
       0.019001836 -0.0149441315 0.05158287 -0.037405632
000110 a4 c1 21 be 60 b7 c2 bc 98 79 8d 3c 48 68 6d 3e
       -0.15796524 -0.02376908 0.017269894 0.23184311

conv_block_2.2.bias f4 [4]
000000 00 3c 61 3e f7 28 b6 bc 24 6b 3e be aa f6 34 3d
       0.21995544 -0.02223633 -0.18595558 0.04418055

conv_block_2.3.weight f4 [4]
000000 0d 33 80 3f 68 e8 7f 3f 89 0c 80 3f f8 cc 7f 3f
       1.001558 0.99964 1.0003825 0.9992213

conv_block_2.3.bias f4 [4]
000000 02 c3 ec 3a 66 36 19 bb f8 3b 9b 3a 2a e1 fe ba
       0.0018063488 -0.0023378371 0.0011843434 -0.0019445766

conv_block_2.3.running_mean f4 [4]
000000 e2 f7 d2 3a 36 f1 16 bb 25 4c 02 bf a9 d8 7f 3e
       0.0016095603 -0.0023031957 -0.5089744 0.24984993

conv_block_2.3.running_var f4 [4]
000000 25 45 81 3d 29 31 32 3d f1 b7 f3 3e 72 98 71 3d
       0.063120164 0.043503914 0.47601274 0.058983274

conv_block_2.5.weight f4 [4, 4, 3, 3]
000000 a0 27 a1 bd d8 0b 1a be 1b 29 d3 3c dd bf 58 3d
       -0.07868886 -0.1504358 0.025776437 0.05291735
000010 c4 a9 97 3d 67 60 8a bd 33 a7 36 3d 44 c9 33 3b
       0.07405427 -0.067566685 0.044593047 0.0027433196
000020 0f 03 22 3e c3 64 02 be 11 95 23 3e 6e da e0 bd
       0.1582148 -0.1273375 0.15974833 -0.10979162
000030 d2 85 90 3c 55 25 8e 3d 7e 15 1c 3e 62 0e 1d bd
       0.017641935 0.06940714 0.15242574 -0.038343795
000040 be 4f e9 3d 2a 53 85 3d 40 1f e6 3d 1b 1c cf bd
       0.11392163 0.06510003 0.11236429 -0.101127826
000050 72 a9 96 bd 3d 0d df bd f7 de 88 bc 19 d4 c4 bd
       -0.07356538 -0.10891197 -0.01670788 -0.09610767
000060 31 f7 40 bd 32 c2 0d 3e 2e 04 93 bc 13 c3 33 3c
       -0.04711074 0.13843611 -0.017946329 0.010971802
000070 85 85 b7 bd 2e 29 25 3d 81 96 87 bd a5 5c 8c bc
       -0.08961014 0.040322475 -0.06620503 -0.01713402
000080 fd e2 e0 3d f3 d5 1d 3e ec 20 f1 3d b2 c4 b5 bd
       0.109807946 0.15413646 0.117738575 -0.08875407
000090 47 5a 03 3e 84 9c eb 3d 05 97 11 3e 7e 0d ea 3d
       0.12827407 0.11504462 0.14217766 0.11428355
0000a0 b1 2e cd bd 99 05 89 3c 2a 0b 8e bd 92 25 22 3e
       -0.10018671 0.016726302 -0.06935723 0.15834644
0000b0 37 de 21 3e f8 0d fd bc c7 2d 07 3e 63 d6 29 be
       0.15807424 -0.03089045 0.13201056 -0.16585688
0000c0 05 a9 6d bd 20 07 19 bd d6 70 97 3d f1 78 0e 3d
       -0.058022518 -0.03736031 0.073945686 0.034783307
0000d0 c9 64 aa 3d d4 e3 ff 3d cd 11 c7 bd 75 62 27 3e
       0.083200045 0.12494627 -0.09720192 0.16346152
0000e0 24 64 f5 3d 4c 8c 1c 3e ec 5f 15 bd 17 65 67 bd
       0.11981991 0.15287894 -0.03646843 -0.05649289
0000f0 b2 55 3c 3d 6a 4f 28 bc ac 45 70 bd 5a 64 44 bd
       0.045980163 -0.01027284 -0.058660194 -0.047947265
000100 c8 c5 d0 bc 1e 73 75 bc cf c8 3d 3d 64 25 3e bd
       -0.025484934 -0.014981059 0.046334084 -0.046422377
000110 f3 6e a0 3d f0 6b f0 3d 1f 9a 6a bd c6 16 3d bd
       0.07833662 0.117393374 -0.057275888 -0.046164297
000120 03 61 6f bd b7 1d c1 3d 95 45 41 3c 59 64 0f 3e
       -0.058442127 0.09429496 0.011796375 0.14003123
000130 9c a9 cb 3d 65 c5 01 3e aa ad ce 3d 76 f0 d2 3c
       0.0994446 0.12672956 0.100917175 0.025749426
000140 c7 1f 23 3e d0 8d b9 bb c8 78 cf bc 16 0c b5 3b
       0.15930091 -0.0056626573 -0.025326148 0.0055251224
000150 d1 a8 74 bd 50 22 dc bd 46 57 79 bd 8a d4 29 be
       -0.05973131 -0.10748732 -0.060874246 -0.16584983
000160 f2 ed f5 3d d9 3c 8f 3d 82 8a 0f 3e 20 1c fa 3d
       0.12008275 0.06994028 0.1401768 0.12212396
000170 8d 27 fc 3d 00 4c c2 3d 32 1b 1b 3e 60 39 ce 3c
       0.12312231 0.09487152 0.15147093 0.025173843
000180 47 cf a2 3d 17 85 05 bd e0 a3 0c 3e b0 1d 26 3e
       0.07949691 -0.032597627 0.13734388 0.16222262
000190 7a a5 7d bb 27 84 0a be 56 6c de 3d 27 c4 e1 bb
       -0.0038703368 -0.13526975 0.10860507 -0.0068898383
0001a0 26 1d 7a 3d 69 02 ab 3d 3d 88 e5 3d 6f f6 f6 3a
       0.061062954 0.08350069 0.11207626 0.0018841753
0001b0 d3 10 ef 3c d5 2f 39 3d 6e bb df bc a3 f1 82 3d
       0.029182827 0.04521163 -0.027311053 0.06393745
0001c0 01 1b c3 3c 3a c9 e7 3b 06 83 06 3e 6b 0f ba 3b
       0.023816587 0.0070735486 0.13135919 0.0056781075
0001d0 da 11 15 3e 47 64 21 3e 82 6e dd bd 93 c3 66 ba
       0.14557591 0.15760909 -0.10812093 -0.00088029465
0001e0 aa 5a fc bc 27 46 fc bd 57 a1 08 3e 58 71 80 3d
       -0.03080495 -0.12318068 0.13342796 0.062716186
0001f0 e0 ad 05 be 9c fb fd 3b 6e 74 fe 3d ab e1 02 be
       -0.1305461 0.0077509414 0.12424551 -0.12781398
000200 ec be ab 3d dd e3 ba 3c 9f eb 84 3d 99 f3 f1 bd
       0.08386025 0.022813732 0.06490254 -0.11814041
000210 b2 f4 28 be ba a3 0e be 99 0c 06 3e 8a 58 ca 3d
       -0.16499594 -0.13929644 0.13090743 0.09880169
000220 e9 e0 e0 bd 2f 2d 13 3e b1 57 93 bd ff 32 18 be
       -0.10980398 0.14372705 -0.0719446 -0.14863203
000230 cd b4 02 3e 49 90 fe bd 97 c5 0b 3e 9e de 91 bc
       0.12764283 -0.12429864 0.13649593 -0.017806347

conv_block_2.5.bias f4 [4]
000000 ba c4 28 be c5 dd 79 bd 19 31 08 be 65 5c f8 bd
       -0.16481295 -0.06100251 -0.1329998 -0.12126998

conv_block_3.0.weight f4 [4]
000000 55 08 80 3f 5c 00 80 3f 93 c9 7f 3f e8 04 80 3f
       1.0002543 1.000011 0.9991695 1.0001497

conv_block_3.0.bias f4 [4]
000000 80 eb 95 b9 c2 60 2b ba 70 23 13 b8 f5 ef 9f 39
       -0.00028594956 -0.00065375504 -3.5080535e-05 0.00030505625

conv_block_3.0.running_mean f4 [4]
000000 70 8f 9e 3d 8a a3 c6 3e e9 5f 00 3f b1 53 1a 3e
       0.07742202 0.38796645 0.5014635 0.15070988

conv_block_3.0.running_var f4 [4]
000000 f0 e2 4c 3e 0f e2 b6 3d 91 3e b0 3d fa 70 91 3d
       0.20008445 0.08929836 0.086056836 0.07101627

conv_block_3.2.weight f4 [8, 4, 3, 3]
000000 b2 b3 98 3d 9b c0 85 bd 00 d2 1f be 1d 9a 7e bd
       0.07456149 -0.06530877 -0.15607452 -0.062158693
000010 5f 3f 95 bd 10 44 01 be bb 26 56 bd 4a 17 20 3b
       -0.07287478 -0.1262362 -0.05228303 0.0024427944
000020 e8 88 2c 3d b2 7e bb bd d7 00 cd bd ef ae b0 bc
       0.04212275 -0.091550246 -0.10009926 -0.02156779
000030 a5 4c e4 bc 7e a2 02 3e 6e 7a 24 bd 62 a2 c9 3d
       -0.027868578 0.12757298 -0.04015582 0.09845425
000040 d9 58 06 3e 16 2c f2 bd 7b 80 1b bd 1d 33 50 3d
       0.1311983 -0.11824815 -0.037964325 0.050829995
000050 9b d0 26 be 23 b6 be bc 18 8d 9f bd bb 32 05 be
       -0.16290514 -0.023280209 -0.07790583 -0.13007633
000060 c3 8a 0a 3c d7 6a c9 3d 07 64 e8 bd d6 6a 17 3d
       0.008455935 0.09834831 -0.11347204 0.03696712
000070 d5 5b 81 bd c5 40 7f bd c0 8d 3c bd f4 03 9f bd
       -0.06316344 -0.06231763 -0.04603362 -0.07764426
000080 70 1d 3c bd f3 51 38 3c 31 a6 d3 3b 60 83 12 3e
       -0.04592651 0.011250007 0.0064590205 0.14307928
000090 9c 52 0d 3e 90 6d b6 3d 66 c1 dc 3d 2a f9 c4 3d
       0.13801044 0.08907616 0.10779075 0.09617837
0000a0 8d d6 e3 bd d9 93 06 3e da c9 1a be 6c dd 53 bc
       -0.11124907 0.13142337 -0.15116063 -0.012931209
0000b0 3f 2e 8e 3d 6d 1b d8 bd b5 f4 e6 3d f7 e1 02 ba
       0.069424145 -0.10552106 0.11277143 -0.0004992778
0000c0 2e 5e eb 3d 1e 65 d6 bd 34 c2 b3 3d f6 1e 1f bd
       0.11492573 -0.10468505 0.08777276 -0.038847886
0000d0 2a b0 26 be c3 aa d2 bc bc 93 14 bd c0 dc 11 be
       -0.16278139 -0.025716191 -0.036273703 -0.14244366
0000e0 b4 3f e9 3d b8 62 0e 3e f6 c4 f5 bc d2 81 c2 3d
       0.113891035 0.13904846 -0.030001145 0.094974175
0000f0 f5 c8 ea 3d 81 a5 7d bd 41 89 23 3e 64 25 7c 3d
       0.11464111 -0.061925415 0.15970327 0.061559096
000100 f9 87 cf 3d 4f 76 65 bd f1 ae b2 bd 1c a3 13 be
       0.101333566 -0.05602103 -0.08724774 -0.1441769
000110 eb ab b5 bd 28 53 b6 3d 32 de 18 3e 81 be 67 bd
       -0.088706814 0.089025795 0.14928511 -0.056578163
000120 e8 37 89 bd 2e 71 5a bd 02 dc f8 bd a6 68 0e be
       -0.067001164 -0.053330593 -0.12151338 -0.13907108
000130 d0 f1 94 bc 39 b0 27 bd 79 3f 7c 3c 8f 39 c7 3c
       -0.018181711 -0.040939543 0.015395992 0.024319438
000140 bd de 14 bd f9 d1 11 3e d2 bd 8c bd 11 70 5b 3d
       -0.036345232 0.14240254 -0.06872143 0.05357367
000150 c9 97 06 be ee 71 c7 3c 8a d4 07 be 92 b2 82 bc
       -0.13143839 0.024346318 -0.13264671 -0.01595429
000160 97 83 4d bd 13 4c d9 bc 09 1a d8 3d 92 17 f7 bc
       -0.050174322 -0.026525533 0.10551841 -0.030162606
000170 9a c5 9c bc 6e 9e 40 bd 83 e7 86 bd c8 7e aa 3d
       -0.019137193 -0.04702609 -0.06587126 0.08324963
000180 fd bc b7 bd c6 13 e1 bb f8 88 85 bd e5 fd 1e 3e
       -0.089715935 -0.0068688123 -0.06520265 0.1552654
000190 5e 81 06 be f7 d8 a0 3d b9 d4 ce bd 39 a3 cf bd
       -0.13135287 0.07853883 -0.100991674 -0.10138554
0001a0 c5 82 1a be c7 41 ea bd 93 77 1d 3e 3b f6 09 be
       -0.15088947 -0.11438327 0.15377645 -0.13472836
0001b0 5f 81 96 bc 5c 3e c2 3c e0 af 90 3d 17 13 a6 3c
       -0.018372236 0.023711376 0.070647955 0.020272775
0001c0 b4 8f d5 3d d7 b5 20 be d1 ef c0 3d 89 6d dc 3b
       0.104278 -0.15694366 0.09420741 0.006726925
0001d0 6e 76 03 3e 3e 91 10 3c b9 c8 c9 3d 4a d9 29 3e
       0.12838146 0.008823691 0.09852738 0.16586795
0001e0 49 2b 27 be 32 dd 7f 3d d7 a5 e5 3d f1 bb 0c be
       -0.16325106 0.062466808 0.11213272 -0.13743569
0001f0 3a 53 85 bd d6 44 cf 3d 36 52 01 be be cb ed bd
       -0.06510015 0.10120551 -0.12629017 -0.11611126
000200 e3 f5 6a 3d c9 2d cc bd 21 cb dc bc 66 35 02 3e
       0.057363402 -0.0996967 -0.026952328 0.12715682
000210 c0 7e 7b bd 55 38 3e bd e9 7a c9 bd 32 b3 77 bd
       -0.061400175 -0.04644044 -0.098378964 -0.06047363
000220 43 94 e5 bd 69 91 9c 3d 7a 1e 94 bd 06 15 a4 bd
       -0.11209919 0.07644922 -0.072323754 -0.080118224
000230 cc cb 71 bc 79 7e db 3d ba 4d b1 3d 69 c9 17 3e
       -0.014758062 0.10717482 0.08657403 0.14822926
000240 96 3b 82 bd 0a 72 6b bc a6 b6 7d bd 35 d9 10 bd
       -0.06359021 -0.014370451 -0.061941765 -0.035363395
000250 7b 7f 16 3d 73 d0 82 3d 46 d0 08 be ad c6 13 bd
       0.03674267 0.06387415 -0.133607 -0.036078144
000260 38 11 1e be 6b 52 f9 3d 6c 6b ce 3c 04 e1 80 3d
       -0.15436256 0.12173923 0.025197707 0.06292918
000270 37 40 3f bd 7d 07 42 3d 96 37 6d 3d 0a fc ca 3d
       -0.0466921 0.047370423 0.05791434 0.09911354
000280 e1 0f b2 3d 92 9e c4 bd f5 21 e5 bd 7a be 9e 3d
       0.08694435 -0.096005574 -0.111881174 0.07751174
000290 7b 37 ad bd 2f 2d a2 3d 56 d6 25 be 15 40 c0 3c
       -0.08457848 0.07918774 -0.16195044 0.023468057
0002a0 cb 17 79 3d 01 2d a3 bd 9d 1e 47 ba 70 14 d3 bd
       0.060813706 -0.07967568 -0.00075958093 -0.103066325
0002b0 f0 a1 42 bc 05 dc 9c bc a4 de b2 bd c1 63 07 3e
       -0.011879429 -0.019147882 -0.087338716 0.13221647
0002c0 c8 5a c6 3d f1 62 8e bd 8a 89 59 bd f7 59 a8 bc
       0.09685284 -0.06952465 -0.053109683 -0.020550711
0002d0 a7 70 e0 3c 58 4c 01 3e 92 f1 5f bd 91 e5 f9 bd
       0.027397467 0.12626779 -0.05467374 -0.122019894
0002e0 eb 65 80 3d e3 a8 41 3d 07 9e f4 bd ee 29 87 bd
       0.06269439 0.047280204 -0.11944204 -0.06599794
0002f0 4c 81 fd 3d 90 94 8e 3d 29 ab 0a be 0c 0a e6 3d
       0.12378177 0.0696193 -0.13541855 0.11232385
000300 38 98 7c 3d 98 dc b9 3d a7 b2 cb bd fe ee 0d be
       0.061668605 0.09075278 -0.099461846 -0.138607
000310 ee e8 0f 3b 37 bc 7b 3d 64 07 a6 3d 5c 6e 8e 3d
       0.0021958905 0.061458793 0.081068784 0.06954643
000320 3e a6 aa bd 5a 34 13 bd 73 c8 09 bd 6b 63 18 3e
       -0.083324894 -0.0359386 -0.03363843 0.14881675
000330 7f 67 13 3e 1b a3 14 be 57 49 0b bd d5 35 74 3d
       0.1439495 -0.14515345 -0.03400549 0.05962165
000340 b2 8b 27 3e 69 b4 27 be 1c 01 d6 3d 47 85 a5 3d
       0.16361883 -0.16377415 0.1044943 0.08082061
000350 9e 7f 85 ba b3 2c cb bd 88 c2 0d be 8f 72 c9 3d
       -0.0010185128 -0.09920635 -0.13843739 0.098363034
000360 13 2c ca 3c c9 ed 01 3e b1 ad a9 3d dc f5 00 3e
       0.02467922 0.12688364 0.08285082 0.12593788
000370 54 c2 b9 bd 19 ff 10 3e 7a 5c bc 3d ed cf c8 3d
       -0.09070268 0.14159812 0.09197326 0.09805284
000380 e6 04 c1 bd 63 6c af bd 81 1c d3 bd e6 b1 dd bd
       -0.094247624 -0.08565595 -0.10308171 -0.10824947
000390 c0 f3 ce 3c d8 5a 1a be e0 8c 86 bd 9a 0d ef bd
       0.025262713 -0.15073717 -0.065698385 -0.11672516
0003a0 84 ad 2d bd 62 68 79 bd 77 3b a1 bd ab 87 69 bd
       -0.042401806 -0.060890563 -0.0787267 -0.05701415
0003b0 c7 d5 db 3d 39 bd a2 bd 6e db 0f 3e e4 5b 0c be
       0.10734134 -0.079462476 0.1404855 -0.13706928
0003c0 5c 42 07 3c 6a 89 27 3e 04 43 0e be 09 63 8b bd
       0.008255567 0.16361013 -0.13892752 -0.06805999
0003d0 c9 35 ab bc d1 f7 83 bd 23 61 4f bd 9c 2b 0a 3e
       -0.02089967 -0.064437516 -0.050629746 0.13493198
0003e0 dc fe f6 3d b6 db 64 bd 59 d3 3f bc 3c 85 91 bd
       0.12060329 -0.055873595 -0.011708104 -0.071054906
0003f0 a5 98 ad 3d 26 3e 11 be 52 57 fa bd 37 41 a5 bc
       0.0847638 -0.14183864 -0.12223686 -0.020172698

conv_block_3.2.bias f4 [8]
000000 9c e7 2b bc 8b d6 a4 3d 78 c2 1c 3e 97 c4 b9 bd
       -0.010492232 0.08048733 0.15308559 -0.090707
000010 3a 49 a7 3c 57 33 19 3d 26 c7 bb bd 79 1b c4 bc
       0.02042066 0.037402477 -0.09168844 -0.023938881

conv_block_3.3.weight f4 [8]
000000 9e 13 80 3f 7b 05 80 3f 2e d9 7f 3f da f0 7f 3f
       1.0005987 1.0001673 0.99940765 0.99976885
000010 ff cc 7f 3f fc fa 7f 3f 46 0b 80 3f 92 f5 7f 3f
       0.99922174 0.99992347 1.000344 0.99984086

conv_block_3.3.bias f4 [8]
000000 b4 fb a8 3a d7 87 7d 3a 53 f4 68 b9 50 1f 7f 3a
       0.0012892396 0.0009671426 -0.00022216262 0.0009732144
000010 36 49 88 ba b3 df 4c ba 8d b3 dc b9 04 c1 cf ba
       -0.0010397795 -0.0007815316 -0.00042095446 -0.001585037

conv_block_3.3.running_mean f4 [8]
000000 d1 b0 9f be e0 12 72 3e dd 8b 6b be c0 51 1e bd
       -0.31189588 0.23640013 -0.23002572 -0.03865218
000010 5c a9 8e bd 84 42 07 3e 55 be 8b be ba a2 16 be
       -0.069658965 0.13208967 -0.2729365 -0.14710513

conv_block_3.3.running_var f4 [8]
000000 e7 71 c8 3e 8a f6 43 3e d7 b2 b9 3e 32 25 24 3e
       0.391494 0.19137016 0.36269256 0.16029814
000010 af 87 2f 3e 9c 32 f0 3d 69 de 04 3e 2e ac 95 3e
       0.17141603 0.11728403 0.12975468 0.29232925

conv_block_3.5.weight f4 [8, 8, 3, 3]
000000 0d bd c6 bd 38 ea 01 3d 06 c6 cd 3c 84 f6 8d bd
       -0.09704027 0.03171751 0.025118839 -0.06931785
000010 e6 a8 22 bd 95 8b e7 bd d9 6b b5 3d df dd 6d bb
       -0.039711855 -0.1130592 0.08858461 -0.0036295576
000020 66 d0 d7 3c 8c 35 3a bd 62 72 b2 3d b7 75 fa 3c
       0.02634449 -0.045461223 0.08713223 0.030573709
000030 bd 5b eb bc 67 47 e9 3d bf d1 81 bd b0 69 fb bb
       -0.028730268 0.11390572 -0.06338834 -0.007672511
000040 43 99 d4 bd 02 ef a5 bd 4f db ee bd 61 89 4f bd
       -0.10380795 -0.08102228 -0.116629235 -0.050668124
000050 a7 04 b4 3d 11 e8 cb 3d 4a b1 9a 3d d0 48 7b bd
       0.0878995 0.099563725 0.075533465 -0.061348736
000060 2a 62 68 3c cb 8e eb 3d 4e 9d de 3d 74 93 21 bc
       0.01418356 0.11501845 0.10869847 -0.009861816
000070 36 71 0b bd 5b d6 b7 bd 48 8c f4 bc 44 ec cb bd
       -0.034043513 -0.08976432 -0.029852048 -0.099571735
000080 65 00 c4 bc 67 bd a2 3d 10 0b 91 bc b9 5e ee bd
       -0.02392597 0.07946282 -0.01770547 -0.11639161
000090 6f b8 bd 3d 72 29 b2 3c 02 d9 c7 bd 65 c1 13 bd
       0.092636935 0.021748278 -0.09758188 -0.036073107
0000a0 86 e1 c4 3c b6 5a ad bc 52 8e fe bc c5 a6 ee 3d
       0.02403332 -0.021161418 -0.031073723 0.116529025
0000b0 9a 23 db 3d 66 de 4f bc 26 c6 cc bd 6e 0f 9f ba
       0.1070015 -0.012687301 -0.09998731 -0.0012135336
0000c0 df 94 56 bd 3b 08 dd 3c 8f 91 9f bd e2 88 9d 3b
       -0.05238807 0.026981464 -0.07791435 0.0048075775
0000d0 81 0c 87 bd 03 8f be bd 0a c4 d2 3d 40 2f ad 3d
       -0.06594182 -0.09304621 0.10291298 0.08456278
0000e0 33 42 94 bc e9 07 ad 3d dd d2 b8 bd da 60 58 3c
       -0.018097972 0.08448774 -0.09024594 0.013206685
0000f0 8e a9 8c bd 89 9c e5 3c 8e de 6e 3d fc c9 c3 3d
       -0.068682775 0.028028743 0.058317713 0.0956001
000100 e0 b2 bc 3c 00 49 38 bd 42 80 7f bc 65 2f b9 bd
       0.023034513 -0.044991493 -0.015594544 -0.09042243
000110 be db c5 3c bc 97 b0 bd 0a 38 82 bd 1f 62 ac 3d
       0.024152633 -0.08622691 -0.06358345 0.084171526
000120 06 77 51 bd 45 1c 7e 3d 1d 35 81 bd be 5c b4 3d
       -0.0511389 0.06203868 -0.06308959 0.08806752
000130 5e f8 3a bd 9c cb 9f bd 6e 20 46 3d 5f 77 e8 3d
       -0.045647018 -0.07802507 0.04837077 0.11350893
000140 fb 48 94 bd 92 7d 9c bd 99 f5 c8 bd 77 f3 4e bd
       -0.072404824 -0.07641138 -0.09812469 -0.050525155
000150 e3 80 42 bd 09 23 c4 bd f6 78 ca bd 51 e8 be bd
       -0.047486197 -0.09576995 -0.09886353 -0.093216546
000160 4a 65 da 3d da b0 5f 3d 64 3b fd bc 79 8e 06 3c
       0.106638506 0.05461202 -0.030912109 0.008212679
000170 7c e5 cc 3d d4 5f e5 bd d0 de ee bd 6c f4 c7 3d
       0.10004708 -0.111999184 -0.11663592 0.09763417
000180 09 03 5f 3d 97 c6 c5 3d ae f1 c6 bd b6 70 87 bc
       0.054446254 0.09657019 -0.097140655 -0.016533237
000190 b3 db c5 3d c9 57 2c 3d da 29 f5 ba 2a 71 9a 3d
       0.09661045 0.042075906 -0.0018704489 0.075411156
0001a0 8d 3d 0b 3d 83 4f 54 bd d2 e5 ae bd 1d 04 87 bd
       0.033994246 -0.05183364 -0.085399285 -0.065925814
0001b0 7e bd ac bc 5c 6a 51 3b d4 36 8e 3d 21 5b 45 bd
       -0.02108645 0.0031954264 0.069440514 -0.04818261
0001c0 5c d5 09 bd 2c cf 68 bc 94 82 c5 3d 0b c2 90 bd
       -0.03365074 -0.01420955 0.096440464 -0.07068261
0001d0 a7 cd 2a ba ee 3a 6a 3c 32 0b c5 bc 71 10 6c 3d
       -0.000651563 0.0142962765 -0.02405319 0.057632867
0001e0 19 90 82 bd 93 34 e4 3d 43 01 bb 3c c5 d2 1b 3c
       -0.06375141 0.1114284 0.02282775 0.009510701
0001f0 21 27 24 3b 74 75 45 3d a0 08 59 bd 2f d7 3c 3d
       0.0025047737 0.048207715 -0.05298674 0.046103653
000200 58 cf f8 3c a5 f5 81 3c d9 c0 ef 3d ae db 73 3d
       0.030372307 0.015864203 0.11706705 0.059535675
000210 84 1c 40 3c 8b 7c 85 3d 8d 71 e9 3c 97 99 27 3d
       0.011725549 0.06517895 0.028496528 0.04091796
000220 f2 56 bf 3d 15 d5 32 bc 6d bc c4 3d 00 68 53 ba
       0.093427554 -0.0109150605 0.09606252 -0.00080645084
000230 e6 ca a3 bd 1a 3c 21 3d 00 8b 10 bd 74 29 b9 3d
       -0.07997684 0.039363958 -0.03528881 0.0904111
000240 90 10 c7 bd 2b ae c4 bb d4 97 a6 bc c0 07 66 bd
       -0.09719956 -0.0060022078 -0.02033607 -0.056159735
000250 27 e2 de 3d 49 c7 91 3d 55 04 1c bd bb b4 bf 3d
       0.10882979 0.07118089 -0.03809007 0.093606435
000260 69 96 a1 3d 5c fd 96 3d 22 06 e6 3d 15 d0 a1 3d
       0.078900166 0.07372543 0.112316385 0.079010166
000270 be aa c2 3d 24 d5 19 bd b2 99 ad 3d 54 74 96 3c
       0.09505223 -0.037556782 0.08476581 0.018366016
000280 fc 40 7d 3c ba 14 58 3d 3e e3 e2 3c d3 8a 31 3c
       0.015457388 0.05275414 0.027696248 0.010836321
000290 34 a4 a3 bd 83 39 34 3d a9 53 94 bd a3 ce a8 bd
       -0.07990304 0.04400016 -0.072425194 -0.08242538
0002a0 5e 27 d2 bd 9a 08 d2 bc f7 cf bb bd 80 64 41 3d
       -0.10261415 -0.025638867 -0.091705255 0.047214985
0002b0 ca 9c 17 3c 07 df af bd 47 51 4f bd 1e c1 f7 bc
       0.00925369 -0.08587461 -0.05061462 -0.030243453
0002c0 d8 f7 57 bb 14 d3 71 3d 93 5b e9 3d 6a d0 c6 3c
       -0.0032954123 0.05903919 0.113944195 0.024269301
0002d0 e3 34 b0 bd 90 e4 10 3d fd 51 c7 3d 25 cf cb 3d
       -0.08603837 0.035374224 0.09732435 0.09951619
0002e0 63 e1 0a 3c b4 9a ce 3d f4 f8 a3 bd e9 09 80 bd
       0.008476588 0.10088101 -0.080064684 -0.0625189
0002f0 28 77 41 bd d6 c2 08 bd f7 9f 9f bc 01 f2 60 3b
       -0.047232777 -0.033388935 -0.019485457 0.0034323933
000300 cd 3c c9 3d 72 1c 55 3d 77 57 d0 3d c5 0d ef bd
       0.0982605 0.05202908 0.101729326 -0.11672548
000310 8e 92 23 3d 65 b0 85 3d 94 3d 34 3d 3d af c0 bd
       0.039934687 0.06527785 0.044004038 -0.09408424
000320 0e 49 31 bc 35 aa 3e bd a6 a6 1c bc 5b 61 d3 3d
       -0.01082064 -0.04654904 -0.009561216 0.103213035
000330 78 83 66 bd 93 ca ef 3d df c9 4c 3c 58 3b c6 3d
       -0.056277722 0.1170856 0.012499302 0.09679288
000340 7a 94 ce bb 2a 14 88 3d ed aa d5 3c f2 33 90 bd
       -0.006304321 0.06644471 0.02608248 -0.07041158
000350 02 5b 2e bd 84 e9 1e 3d 68 bf 25 3b 4d 8a ba bb
       -0.04256726 0.038796917 0.002529109 -0.0056927563
000360 4a 0f 09 bd 30 97 7a bd 83 2c c5 bd df 0b 04 bc
       -0.033461846 -0.06117934 -0.096276306 -0.008059471
000370 32 a9 7f bc a3 a0 f0 bd 73 9a 6d 3c dd 4b d4 bd
       -0.015604304 -0.11749389 0.014502156 -0.10366032
000380 90 f7 7b 3d de 9f c2 bd 8a 28 2d 3d 3f a8 ce 3d
       0.06151539 -0.095031485 0.04227499 0.10090684
000390 6a 82 dd bd 54 dc a6 bd 3e ff 8d 3d ca c4 bb 3d
       -0.1081589 -0.08147493 0.06933449 0.09168394
0003a0 2b 61 d3 bd 3f 53 5b 3c ea 6f 2d bd 7f be aa 3d
       -0.10321268 0.013386547 -0.042343058 0.083371155
0003b0 57 c1 77 bb 00 bf 86 bd 2d 71 28 3d 5a e0 d0 bd
       -0.0037804449 -0.06579399 0.041123558 -0.10199042
0003c0 2b 50 d4 bd 2d 67 1e 3d 74 55 74 3d 21 e1 a3 3d
       -0.10366853 0.038672615 0.059651807 0.08001924
0003d0 d5 c0 de 3d 5d 9c c8 3d c3 c2 a0 3d eb 02 cd 3d
       0.108766235 0.09795449 0.07849648 0.10010322
0003e0 a3 88 34 bd d4 63 e5 bd 5b f9 ed bd 90 d7 df bd
       -0.04407562 -0.11200681 -0.116198264 -0.10929787
0003f0 be 20 d1 3d 19 d4 2c bd 26 8f 4d 3d 1b f2 53 3d
       0.10211323 -0.04219446 0.050185345 0.05174456

conv_block_3.5.bias f4 [8]
000000 1d 3d 58 3d f4 38 3b bd e1 8e 3a bc 63 3f 99 bd
       0.052792657 -0.04570861 -0.011386604 -0.07482793
000010 37 a0 05 3d 3b ce 90 bd 03 e5 8e bd b4 e1 cc bd
       0.032623496 -0.07070585 -0.06977274 -0.10003987

conv_block_4.0.weight f4 [8]
000000 dc fa 7f 3f 16 0d 80 3f dc 1a 80 3f 27 05 80 3f
       0.99992156 1.0003994 1.0008197 1.0001572
000010 10 fd 7f 3f f2 dc 7f 3f 05 e2 7f 3f 9b f9 7f 3f
       0.9999552 0.9994651 0.99954253 0.9999024

conv_block_4.0.bias f4 [8]
000000 f5 98 a7 39 95 33 78 b9 ee 43 b2 38 c2 aa 86 39
       0.00031966684 -0.00023670339 8.500354e-05 0.00025685696
000010 7d 50 59 3a 3e 9c d0 b9 71 bf 2f 39 88 51 da 39
       0.0008289887 -0.0003978926 0.00016760618 0.00041640946

conv_block_4.0.running_mean f4 [8]
000000 33 fc d5 3d 60 d4 52 3e 4c e1 b3 3e ab 3f 80 3d
       0.10448494 0.20588827 0.35132825 0.06262144
000010 97 22 35 3e d7 26 81 3d ad cc 91 3d a0 88 69 3e
       0.17688976 0.06306236 0.07119117 0.22806025

conv_block_4.0.running_var f4 [8]
000000 35 40 9a 3d 27 3f 57 3d 16 f4 d8 3e 90 88 00 3e
       0.07531778 0.05255046 0.42373723 0.12552094
000010 96 26 3c 3d e6 60 0f 3d b8 b0 3d 3d 7f 7a 6d 3e
       0.045935236 0.03500452 0.04631111 0.2319126

conv_block_4.2.weight f4 [16, 8, 3, 3]
000000 68 2a ab bc db cc cc bd 47 0e 7a 3d c4 e8 eb bc
       -0.020894244 -0.100000106 0.061048772 -0.028797515
000010 d0 94 08 bd a6 ad 10 bd c8 7e 14 bd da a7 07 bd
       -0.033345044 -0.035321854 -0.03625372 -0.03311906
000020 de 08 ee 3d 7d 7b 67 3d 24 1e 03 bd 4c 1c 9a bd
       0.11622785 0.056514252 -0.032011166 -0.075249285
000030 1f db 7c bc c4 d3 8e bd 4c 39 c1 bc bd 7f e5 3d
       -0.015433102 -0.06973985 -0.023586892 0.11206005
000040 f2 e3 d3 3d d2 c9 8d bc 57 fa d3 bd a8 d5 b6 3d
       0.103462115 -0.01730815 -0.10350483 0.089274704
000050 7c c4 d2 bd 33 b1 e0 3d 58 48 f0 3c 37 ac c8 bd
       -0.10291383 0.10971298 0.029331371 -0.097984724
000060 42 81 f2 3c 75 20 6d 3d 1f f6 30 3c 05 94 74 bd
       0.02960265 0.05789228 0.010800867 -0.059711475
000070 dc 8e 6a 3d 97 aa d2 3d 6d ec 18 3c 55 f1 0a 3d
       0.057265148 0.10286444 0.009333712 0.03392156
000080 db 9b dd bd 37 47 4a bd 42 60 83 bd d0 40 49 3d
       -0.10820743 -0.049384322 -0.06414844 0.049134076
000090 41 ef d2 3d 0e 05 8f bd 15 2b e3 3d ab 70 83 3d
       0.1029954 -0.06983386 0.110922016 0.06417974
0000a0 e9 13 06 3d e0 05 67 bd 87 d7 86 bb eb 21 ca bd
       0.03273383 -0.056402087 -0.0041150483 -0.098697506
0000b0 ab b8 8a 3c 0c c7 3e 3d 5e 48 dd bd 77 4b dc 3d
       0.01693376 0.046576545 -0.108048186 0.10756581
0000c0 9f ae c1 bd 8f 03 a0 bc 4f a5 81 bd 65 36 eb bd
       -0.094571345 -0.019532947 -0.06330358 -0.11484984
0000d0 94 52 70 bd 20 02 55 bd b7 d1 b1 bc 6e f2 f4 3c
       -0.058672503 -0.05200398 -0.021706445 0.029900756
0000e0 e0 2f 40 3d 70 66 65 3d c1 b0 ca bd f9 e0 a4 bd
       0.046920657 0.056005895 -0.098969944 -0.08050723
0000f0 6d b2 e5 3d 5c 5f 8f bd 33 63 6e bd 83 89 87 bd
       0.11215673 -0.0700061 -0.058200072 -0.06618025
000100 60 07 e7 bd a6 5b b6 3d d0 43 ed bd 8b 68 e8 3d
       -0.112807035 0.08904199 -0.115852 0.11348065
000110 00 b2 a2 3c 6d 78 a2 bd ae 5f 93 3d 36 fa 6c 3d
       0.019860268 -0.07933126 0.07195984 0.057855807
000120 02 a9 af 3d 5c f9 c8 3d 2f 39 86 3d 62 0c d9 bc
       0.085771576 0.098131865 0.06553876 -0.026495162
000130 bd f5 e8 3d 88 2a 90 3d 45 c5 cf bc 77 bb 16 3d
       0.11374996 0.07039362 -0.02536262 0.036799874
000140 8f fc 2a 3d 66 c4 f9 bc fd 9f 15 bd 13 3f c2 3d
       0.041744765 -0.030489158 -0.03652953 0.09484687
000150 80 38 bb bd ca 58 20 3d fa 0c 88 bd 1d f5 a1 bd
       -0.09141636 0.039147176 -0.066431 -0.0790808
000160 25 31 a0 bd d7 d6 c6 3c ff 7c 43 bc 97 00 01 3c
       -0.078218736 0.024272365 -0.011931657 0.007873676
000170 74 51 ba 3c 42 59 50 bd 94 41 6f bd 38 5b ae 3d
       0.022743918 -0.050866373 -0.05841215 0.08513492
000180 75 45 23 3d c9 ce 18 bd 31 b4 c4 bb 06 a8 1e 3d
       0.03986116 -0.03730658 -0.006002926 0.03873446
000190 4b b7 ee bc fa 69 c8 bd 8a c0 d8 3d 49 43 de 3d
       -0.029140135 -0.097858384 0.10583599 0.108526774
0001a0 36 d8 e5 3c cd c6 40 bd 44 42 a8 bd 49 a4 d4 bb
       0.028057199 -0.04706459 -0.08215764 -0.006489311
0001b0 de fc c7 3d a9 8f 3c 3c 9b a8 c0 bc 1a 12 e7 bc
       0.097650275 0.011508861 -0.023517897 -0.028206874
0001c0 3f af 96 3d 14 68 9f bc 3a 13 86 bc 58 05 de 3d
       0.07357644 -0.019458808 -0.01636659 0.10840863
0001d0 3b 33 aa bd 4a 20 ae bd de 38 2b 3d f7 4d ad 3d
       -0.08310553 -0.085022524 0.04180228 0.08462136
0001e0 2d 07 14 3c 9c d0 bc 3d c0 2f 91 bd 8a 74 14 bd
       0.009034914 0.092194766 -0.07089186 -0.036243953
0001f0 38 22 d1 bd c3 6d af bd 95 e6 62 bd 68 8a 57 3c
       -0.10211605 -0.08565857 -0.05539568 0.013155557
000200 8b e7 7d 3d 7f 57 e5 bd e1 95 aa bd 73 39 9b 3d
       0.061988395 -0.11198329 -0.083293684 0.07579317
000210 85 91 af 3d 7d 53 43 3c 94 ce c0 bc 58 56 ab 3d
       0.085726775 0.011921761 -0.023536004 0.08366078
000220 f4 00 85 bc 2c 0c 6c 3d 63 79 c7 bd a3 28 79 3c
       -0.016235806 0.057628796 -0.097399496 0.015207442
000230 7d af 9f 3d 76 d3 a7 3d d5 9d fb bc 6a 5e 8d bd
       0.077971436 0.0819463 -0.030714909 -0.06902774
000240 45 9c c2 bd 09 f3 57 bd a6 2f 94 bc 37 0e 91 3d
       -0.09502462 -0.05272201 -0.018089127 0.070827894
000250 de ce f2 bd 9d 51 c4 3c 89 b5 84 bd 41 7d ca 3d
       -0.11855863 0.023964697 -0.064799376 0.098871715
000260 c8 78 8d 3d 64 bb b5 3d f7 56 83 3c eb 68 3a bb
       0.06907803 0.088736326 0.016032679 -0.0028443884
000270 06 d3 9e bd e6 f3 f8 3c bb 39 22 3d bf 80 6b bd
       -0.07755093 0.030389737 0.039605837 -0.05749583
000280 31 b9 61 3d ac 26 81 bd 1e 6b 1e 3d 49 7e 9e 3d
       0.055108253 -0.06306204 0.038676374 0.07738931
000290 b9 11 ef 3d ea 7a bc bd ce b1 f0 3c f0 0d 92 3d
       0.11673302 -0.092031315 0.029381659 0.071315646
0002a0 53 40 c1 bd e7 0d 8d 3d 37 dc 1b bd 7e 45 e6 3b
       -0.09436097 0.06887417 -0.03805181 0.007027327
0002b0 b0 72 16 bc 66 b3 ff 3c d4 03 ce 3d e0 e7 05 3d
       -0.009182617 0.031213474 0.10059324 0.032691836
0002c0 37 17 0d 3d 14 99 7d 3d b9 9e 8c 3d 02 34 b3 bd
       0.034445968 0.061913565 0.068662114 -0.08750154
0002d0 bd 19 7e 3c ec ac c7 bd d0 dd 4a bd cf 31 8b bd
       0.015509066 -0.09749779 -0.049527943 -0.067966096
0002e0 eb c3 89 3d 03 36 a2 3d a6 ce 93 bd 9c 5f dd 3c
       0.067268215 0.07920458 -0.072171494 0.02702313
0002f0 98 6a b7 3c b1 24 d5 bd 45 d4 90 3d 67 c7 25 bd
       0.022389695 -0.10407389 0.07071737 -0.040473368
000300 83 9d df bd e8 03 df bd 4e 58 cd bd f0 12 0e 3c
       -0.10918715 -0.10889417 -0.100266084 0.008671507
000310 2b 39 8d 3d 4c 46 3e bc 98 0d 4f bc 19 68 c7 3d
       0.068956695 -0.01161344 -0.012637518 0.09736652
000320 6d b5 75 bd 21 a7 91 3d 5b 4b 63 3d 01 d5 dc 3d
       -0.059987474 0.071119554 0.055491786 0.10782815
000330 e0 45 c3 bc 11 7f 84 bd 2f 97 dd bd 96 f0 85 3d
       -0.02383703 -0.064695485 -0.108198516 0.06540029
000340 3c 1c 95 bd 58 42 df 3d c0 96 7f 3c 46 c7 71 bd
       -0.07280776 0.10901326 0.015599906 -0.059027933
000350 4c c7 63 3d 37 ce 7e bc e0 78 8b bb 8e e6 81 bc
       0.055609986 -0.015552095 -0.004256353 -0.015857007
000360 cf 0c f3 bd 9a e0 cb bd 36 75 74 3c 6b 11 ce bd
       -0.118676774 -0.09954949 0.014920523 -0.10061916
000370 00 eb 9e bd e1 b2 af 3d 1a 7a d5 3c 7d 5a 56 3d
       -0.077596664 0.0857904 0.0260592 0.05233239
000380 80 41 89 bd 51 c0 dc bc fe b0 d4 bd 87 b8 9a 3d
       -0.06701946 -0.026947172 -0.10385321 0.07554727
000390 51 ab 95 bd 1b 46 18 bc fe 50 ce 3d cf fb 82 3c
       -0.07308067 -0.009294058 0.10074042 0.015989212
0003a0 b9 df d2 bd 20 67 8b bd 6d bb d5 3d 97 8b a1 bd
       -0.10296578 -0.06806779 0.10436139 -0.07887953
0003b0 f9 98 aa bd 4f 22 82 3d 09 cd 9a bd f7 54 b8 bd
       -0.083299585 0.063542 -0.075586386 -0.09000581
0003c0 27 7e e2 bc 84 df 08 3d a4 e5 ae bd 14 a5 52 3d
       -0.027648045 0.033416286 -0.08539894 0.051426962
0003d0 9c ce a5 bc 12 44 b7 bc 0b 10 3a bd 22 20 18 3c
       -0.02024012 -0.022371326 -0.045425456 0.009285005
0003e0 30 63 e6 3b 59 09 10 bd 05 b9 f0 bd d9 eb 9d 3d
       0.007030867 -0.035165165 -0.1175404 0.07711
0003f0 76 20 c5 bc 9e 03 9f 3c 68 22 88 bd 15 13 48 3d
       -0.02406333 0.019410904 -0.066471875 0.048846323

conv_block_4.2.bias f4 [16]
000000 bb 87 89 bd 28 f7 df 3c e1 3d 86 3d 8a df cb 3b
       -0.06715342 0.027339533 0.06554771 0.0062217163
000010 93 02 ab 3d 21 2b dd bd ad 39 9d bd 96 46 c4 bd
       0.083501 -0.10799242 -0.076770164 -0.09583776
000020 82 8f 92 3d bc c9 cb bc ff d4 95 bd 4e f9 23 bd
       0.07156278 -0.024876468 -0.073160164 -0.040032677
000030 74 d1 95 3c a2 44 28 bd bc be 35 bd df 7d f3 bc
       0.018288352 -0.04108108 -0.04437135 -0.029723106

conv_block_4.3.weight f4 [16]
000000 96 0c 80 3f f6 00 80 3f 13 05 80 3f ad ee 7f 3f
       1.0003841 1.0000293 1.0001549 0.99973565
000010 ea 11 80 3f ba dc 7f 3f 47 19 80 3f 67 1f 80 3f
       1.0005467 0.99946177 1.0007714 1.0009583
000020 e9 e9 7f 3f 17 16 80 3f 92 a5 7f 3f 0a f4 7f 3f
       0.99966294 1.0006741 0.99862015 0.9998175
000030 7a f0 7f 3f 3e d4 7f 3f 24 13 80 3f 51 e3 7f 3f
       0.99976313 0.9993323 1.0005841 0.9995623

conv_block_4.3.bias f4 [16]
000000 1b df 58 39 6c 6a 8b b9 77 4d 90 39 ce 31 5d 3a
       0.00020682478 -0.00026591436 0.00027523536 0.00084379024
000010 57 cd 1c ba 39 5a 8d b9 d4 10 af 39 2d 63 a3 3a
       -0.0005981526 -0.00026960837 0.0003339114 0.001246547
000020 a8 f5 d4 b9 cb 5a 35 3a bf 9c 1b ba 50 b6 df 38
       -0.0004061882 0.0006918131 -0.0005936138 0.00010667427
000030 26 72 a7 b7 b0 cc 97 b6 ae 44 5e 3a 40 67 9f 3a
       -1.9961106e-05 -4.5239794e-06 0.0008478862 0.0012161508

conv_block_4.3.running_mean f4 [16]
000000 d5 dc 67 be 45 13 e6 3d b2 9e ae 3d b4 6a 90 bd
       -0.22642834 0.11234144 0.085263625 -0.07051602
000010 dc 52 42 3e 07 36 02 bf cb 3e 95 bd 8a 48 80 be
       0.18976921 -0.5086369 -0.072873674 -0.25055343
000020 59 8f c5 3e 04 0b 8c 3d 83 54 32 3e 6e dc 2b be
       0.38585928 0.068380386 0.17415051 -0.16783306
000030 be 09 0d bd d3 27 32 be ed a8 8b 3e 60 6b b6 bd
       -0.03443312 -0.17398004 0.27277318 -0.08907199

conv_block_4.3.running_var f4 [16]
000000 bc b6 c7 3d 4f 83 12 3e e6 0b 69 3e 3c a4 0f 3e
       0.09751651 0.14307903 0.22758445 0.14027494
000010 fc c0 09 3e c2 3e 26 3e 3f 0b e3 3d c9 83 11 3e
       0.13452524 0.16234878 0.110861294 0.14210428
000020 15 86 da 3d 9c 0d 74 3e c2 fa c8 3e cf cd 54 3e
       0.10670105 0.23833317 0.39253813 0.20781635
000030 02 42 30 3e ba db 18 3e 62 e2 0b 3e 35 1a f1 3d
       0.1721268 0.14927569 0.13660577 0.11772577

conv_block_4.5.weight f4 [16, 16, 3, 3]
000000 b4 9d 8f 3c 73 66 bc 3b f6 56 9a 3d 59 b1 0b bc
       0.017531253 0.0057495176 0.07536118 -0.00852617
000010 cf 82 fe bb f1 58 33 bd a8 d3 80 3c a3 56 8d bd
       -0.0077670584 -0.043785993 0.015725926 -0.0690129
000020 c6 30 9e 3d c9 73 c6 bb 45 fc b9 3c a5 36 61 bc
       0.077241465 -0.006056283 0.0227033 -0.013745938
000030 54 e3 19 3d d8 76 07 3c c7 33 49 3c 69 9f c8 3c
       0.037570313 0.008268081 0.012280411 0.024490075
000040 1b 68 6f 3d 51 c9 9f 3c 76 e0 7d bd 49 bf a0 bd
       0.058448892 0.019505175 -0.06198164 -0.07848985
000050 9a 83 a2 3d ac 5d bf 3c 1c 58 9d 3d a8 4c 36 bd
       0.07935257 0.023360096 0.07682821 -0.0445067
000060 85 cd 45 bd 97 12 65 3b 20 ea 55 3d 62 8f b0 3c
       -0.0482917 0.0034953707 0.052225232 0.021552745
000070 04 1a fb 3b 8e 02 bf 3c 6c b6 8e 3d 2e 02 97 bc
       0.0076630134 0.023316648 0.06968388 -0.018433657
000080 7a a5 96 3d 1a 9a 14 3d 3d a8 4c 3d fb 4e 94 bd
       0.07355781 0.036279775 0.049965132 -0.07241627
000090 10 b0 81 bc 2d 60 ed bc e1 87 02 bd c7 f7 36 bd
       -0.015831023 -0.028976524 -0.031867865 -0.044669893
0000a0 e9 68 95 bd d1 23 58 3d e3 08 75 bd 1d b4 85 3d
       -0.07295401 0.052768532 -0.05982293 0.065284945
0000b0 4a 98 2a bd 6f 96 77 3c 0b c1 f9 3b d7 2b 13 bd
       -0.04164914 0.01511155 0.0076218895 -0.03593048
0000c0 c3 79 79 3d bd 2c 99 bc fa b5 2e 3d c4 44 b7 3c
       0.060907137 -0.01869809 0.042654015 0.022371657
0000d0 c9 ea a6 bd 8f 72 24 3b 20 bf 48 3d 4f e0 31 bc
       -0.081502505 0.0025092696 0.049010396 -0.010856702
0000e0 22 bf 06 bb bf 03 ff 3c 7e e3 83 3d 32 0b 4e bd
       -0.0020560701 0.031129716 0.06439875 -0.050303645
0000f0 32 b1 67 3d 0d 5a 25 bd d8 d6 99 bd 09 49 78 bd
       0.05656547 -0.040369082 -0.07511681 -0.060616527
000100 9b 70 4a 3c 2d e0 54 bd 7e ba 30 3d af c6 4e 3d
       0.012355949 -0.051971603 0.043146603 0.05048245
000110 f9 f9 5c 3d 0c 77 aa 3c 3c ea a5 bd ab 18 1b 3c
       0.05394933 0.02080872 -0.08101317 0.0094663305
000120 ff 43 34 bd 1e ca 99 3d 5a 8f 6f bc 9c 55 5d bc
       -0.04401016 0.07509254 -0.01462158 -0.01350918
000130 d4 08 96 3d 28 6c 98 bd d4 19 a1 bd d0 59 34 bd
       0.073259026 -0.07442504 -0.078662544 -0.044030964
000140 15 20 a6 bd 0e 19 a4 3c 83 c9 44 3c ca 5c 40 bd
       -0.08111588 0.020031478 0.012010935 -0.04696349
000150 ec 0f 01 3d d8 99 a2 bd f0 20 b2 3c 0b ba 86 bd
       0.031509325 -0.079394996 0.021744221 -0.06578454
000160 a5 88 07 3d 12 e4 0c bd 83 27 8b 3d 04 b0 a8 3d
       0.0330893 -0.034397192 0.06794646 0.08236697
000170 f6 41 a4 bd bb 82 ce bc cb 4e 3c 3d 3b ff 64 3c
       -0.080203936 -0.025208822 0.04597358 0.013976867
000180 ac 22 2d 3d 66 8a 9c 3d 71 f0 61 b8 a8 43 c0 3c
       0.042269394 0.07643585 -5.386811e-05 0.023469761
000190 61 a2 17 3c be b5 55 3c b5 e3 da bc 59 78 9f bd
       0.009255023 0.013043819 -0.026719907 -0.07786626
0001a0 18 d0 5e 3d d1 94 5d 3d 32 4c a1 bd 2d d3 78 bd
       0.054397672 0.054097 -0.07875861 -0.060748268
0001b0 2e 50 0f bd e5 14 88 bd 63 d8 a4 3c c8 7f 5f 3d
       -0.034988575 -0.0664461 0.020122712 0.05456522
0001c0 9c 03 35 bd 2b bf d1 3c 49 66 a7 bd e7 c2 91 3d
       -0.044192895 0.025603851 -0.08173806 0.07117253
0001d0 b0 bb 25 3d 09 a0 55 3b c2 a8 c3 3c d6 6d a8 3d
       0.040462196 0.003259661 0.023884181 0.082240745
0001e0 d2 28 a1 bd dc cd 9a bc 69 1d 27 ba 79 e0 3e bd
       -0.07869114 -0.01889699 -0.0006374927 -0.046600793
0001f0 80 bd 15 bc 6b 92 39 bc c6 7d 7f 3c 20 46 53 bd
       -0.009139419 -0.011326413 0.015593952 -0.05158055
000200 df 82 e2 bc 99 00 3c 3d be 4e a7 3d d6 5d 9d 3c
       -0.027650295 0.045899007 0.08169316 0.019209784
000210 1c ef 55 bd 7c 32 65 3d 89 da 6a 3d 71 ad 22 bd
       -0.052229986 0.05595635 0.057337318 -0.039716188
000220 b8 48 96 3d dd d6 16 bd 60 fb ff 3c db 57 a0 3c
       0.07338089 -0.036826003 0.031247795 0.019573143
000230 a3 bd a8 bd ad d7 3c 3c 13 60 d4 3c 41 6c 2f 3d
       -0.08239295 0.0115260305 0.025924718 0.04282785
000240 16 28 84 3d a1 72 27 3d e9 90 aa bd 86 25 0d 3d
       0.06452958 0.040880803 -0.08328421 0.034459613
000250 4b 74 85 bd ea 68 71 bd b0 fb 25 3d f2 de a9 3d
       -0.06516322 -0.058937944 0.04052323 0.082944766
000260 74 3f 70 3d b9 b1 a7 bd a3 46 25 3d 68 12 17 3d
       0.058654264 -0.08188195 0.040350568 0.036882788
000270 74 42 19 3d 81 63 d9 3c d7 39 ca 3c 39 ed 85 3c
       0.03741689 0.026536705 0.024685783 0.016348468
000280 b7 55 a5 3c be 33 3b bc 1e c4 04 bb 4c 02 3e 3d
       0.020182474 -0.0114259105 -0.0020258497 0.04638891
000290 ff 79 4f 3b 4c bb 9b 3a 57 a4 0d 3d 8f fb a1 bc
       0.0031658409 0.001188138 0.034580555 -0.019773273
0002a0 5b 00 75 bb 80 db 81 3d 33 55 7a 3d a7 5b b4 3c
       -0.0037384245 0.063406944 0.06111641 0.02201636
0002b0 90 7f 2c b9 79 c8 f1 3c 65 54 5b bd bf 92 25 3d
       -0.00016450719 0.029514538 -0.05354728 0.04042315
0002c0 aa 97 89 bd 24 59 13 3b 71 f3 2b 3d eb e9 fc 3b
       -0.06718381 0.0022483552 0.04198021 0.007718315
0002d0 56 dc 07 3d 40 c4 e2 3c 65 44 1b 3c 29 a9 0f 3d
       0.033169113 0.02768147 0.009476756 0.035073433
0002e0 cd 5d 7c bd 2c 15 94 3d 52 98 7d 3d 60 ae d6 3c
       -0.061612893 0.07230601 0.061912842 0.026206195
0002f0 af 2b 6d bd f8 44 5b 3c a6 e6 87 bd b8 7a 6d bc
       -0.057902988 0.013383143 -0.066357896 -0.01449459
000300 05 33 0c 3d bd 0f 18 bd 99 6e cb 3b 77 3b 74 3d
       0.034228344 -0.037124384 0.0062082526 0.059627023
000310 2e e5 50 3c 04 09 e8 bc 84 05 47 3d 2b b1 4e bd
       0.012749953 -0.028324611 0.048589244 -0.05046193
000320 83 cf a6 3d 47 4a 41 3d f8 8e 45 3d 6a 06 66 3d
       0.081450485 0.047189977 0.04823205 0.05615846
000330 9e b9 67 3c 9c 01 48 bb f1 e8 9c 3c a0 d6 a8 3c
       0.014143376 -0.0030518537 0.019154044 0.020610154
000340 da d9 2b 3d 85 72 f7 bc e7 bc 3d bd 46 23 30 bc
       0.041955806 -0.030205974 -0.04632273 -0.010750597
000350 1d 2e fb 3c 83 0e 92 3d 99 4d 5a 3c ab b4 87 3c
       0.030661637 0.07131674 0.013324165 0.016565641
000360 af 84 f1 3c 67 55 58 bd ba ca 43 3d 4c 32 0f bd
       0.029482214 -0.05281582 0.047800757 -0.034960076
000370 d3 8f ea bc 55 48 41 3d c2 b4 84 3d a2 4f f2 bc
       -0.028633034 0.04718812 0.06479789 -0.029578988
000380 20 da 85 3b ac 50 20 3d d0 33 58 3d 4f b7 39 3d
       0.0040848404 0.039139435 0.052783787 0.045340832
000390 9f 1b f0 bc 9f 6a 18 bd 47 f4 9b bc 6f a6 f9 ba
       -0.029310046 -0.037211057 -0.019037379 -0.0019046793
0003a0 69 34 6c 3d 0a d6 0e bd c2 84 38 3c 04 45 bc bc
       0.05766717 -0.034872092 0.011262121 -0.022982128
0003b0 9c 6c 93 bd e8 02 8a 3c c3 ea a6 bd 02 77 08 bd
       -0.0719845 0.016847089 -0.08150246 -0.03331662
0003c0 f8 04 53 3d 8a 91 0f 3d bf 33 90 3d 09 4f 06 3d
       0.05151841 0.035050906 0.0704112 0.032790218
0003d0 cd 8a 44 bd c1 c8 f8 3c 2d d9 09 3c cf e3 ea bb
       -0.047983933 0.030369164 0.008413595 -0.00716827
0003e0 0a 82 2d bc 6d a0 90 3d 0a 1e 3c bd ea 69 8a 3d
       -0.010590086 0.07061849 -0.045927085 0.06758483
0003f0 c1 82 fd 3c ff 13 9a bc 45 73 1f bd 3f 6e 49 bc
       0.030946137 -0.018808363 -0.03892829 -0.012294351

conv_block_4.5.bias f4 [16]
000000 2c 70 ed 3b f2 35 79 3c 26 40 9c bd 5b 1d be 3c
       0.007246038 0.0152106155 -0.07629423 0.023207357
000010 50 12 9e bd 7d 54 91 3c 00 0d a1 3d f9 85 0a bd
       -0.077183366 0.017740482 0.07863808 -0.033819173
000020 1c 40 c3 3c 4a 48 23 bd cd fb 9e bc 07 c0 e5 3c
       0.02383428 -0.039863862 -0.019407177 0.028045667
000030 4c f8 51 3d ad 7a 17 3d dc f1 87 bc f2 fd 53 3c
       0.051262185 0.036982227 -0.01659482 0.012938963

conv_block_5.0.weight f4 [16]
000000 9e c5 7f 3f ec f8 7f 3f 82 be 7f 3f d6 08 80 3f
       0.99910915 0.999892 0.99900067 1.0002697
000010 9d 99 7f 3f 85 e0 7f 3f a6 2c 80 3f 71 b8 7f 3f
       0.9984377 0.99951965 1.0013626 0.9989081
000020 51 1b 80 3f 86 07 80 3f e2 17 80 3f 8a c0 7f 3f
       1.0008336 1.0002296 1.0007288 0.99903166
000030 b4 2e 80 3f 3e ab 7f 3f 35 08 80 3f 9a 1f 80 3f
       1.0014253 0.9987067 1.0002505 1.0009644

conv_block_5.0.bias f4 [16]
000000 f9 08 9d ba 3e 01 93 38 0f 69 b6 b9 24 2e 20 3a
       -0.0011980823 7.0097376e-05 -0.0003479202 0.0006110391
000010 4a 7d fd b9 ba 50 e3 38 8c 2e e6 38 5c 61 ef 37
       -0.00048349268 0.0001083924 0.00010975925 2.8536357e-05
000020 bf 4f 6f 39 0d 66 1f 3a 4c 5b 88 38 50 8a a1 b9
       0.00022822524 0.00060805754 6.501991e-05 -0.00030811364
000030 6c 39 5c 3a 32 46 8d ba 90 65 74 3a e0 34 6e 3a
       0.00084008905 -0.0010778366 0.00093229953 0.00090868585

conv_block_5.0.running_mean f4 [16]
000000 7e d3 80 3e 53 9c 26 3f 2f cd d6 bd 85 4d d3 3e
       0.25161356 0.6508228 -0.104883544 0.4127008
000010 87 b7 a5 bd 01 bb 1e bd f1 c4 46 3e 88 59 6d 3e
       -0.08091646 -0.03875256 0.19411065 0.23178685
000020 0a 5a 9b 3e 32 84 60 be 74 de 54 3d 21 ff e3 3e
       0.30342132 -0.21925429 0.05196996 0.44530585
000030 46 dd 86 3e 42 5b 95 3e 45 47 76 bd 1e 83 b0 3e
       0.26340693 0.29171187 -0.06012656 0.34475034

conv_block_5.0.running_var f4 [16]
000000 94 2d c9 3d 4c 8b ab 3e e1 3e 9b 3d 0a e4 bf 3d
       0.098231465 0.33504713 0.075803526 0.09369667
000010 95 66 8f 3d ce ec a0 3d bc 10 99 3d 61 5f 5f 3d
       0.07001988 0.07857667 0.07473895 0.05453432
000020 5a 00 94 3d 7d 4d ed 3d c6 9b 34 3d 8b 5c 64 3e
       0.072266296 0.11587045 0.04409387 0.22300927
000030 14 18 f1 3d 8b a7 3b 3e 61 4c 6b 3d d7 08 88 3d
       0.11772171 0.18325631 0.057445887 0.06642311
