cloud-detection-code/tests/test_artifacts/test_jaccard_loss/model_checkpoint_3.pt (torch, 439769 bytes, 347 tensors)

input_conv_block.0.weight f4 [3]
0	0x3f7fef86	0.9997486
1	0x3f800306	1.0000923
2	0x3f80040d	1.0001236

input_conv_block.0.bias f4 [3]
0	0x39d2c374	0.00040199945
1	0x3a22a668	0.0006204606
2	0xba06cc5a	-0.0005142145

input_conv_block.0.running_mean f4 [3]
0	0x3eb8dc15	0.3610541
1	0x3eb8a874	0.3606602
2	0x3e9cc69e	0.30620283

input_conv_block.0.running_var f4 [3]
0	0x3e3371a5	0.1752382
1	0x3e305cdf	0.17222928
2	0x3e2e00e6	0.1699253

input_conv_block.2.weight f4 [2, 3, 1, 1]
0	0xbf02bac1	-0.51066214
1	0xbe800f0b	-0.25011477
2	0x3ef037a4	0.4691745
3	0x3e5eb099	0.21747054
4	0xbed38e39	-0.41319445
5	0xbee95bce	-0.45577854

conv_block_1.0.weight f4 [2]
0	0x3f7ff4f4	0.99983144
1	0x3f800586	1.0001686

conv_block_1.0.bias f4 [2]
0	0x3a0875e3	0.0005205555
1	0x39cc9e31	0.00039027774

conv_block_1.0.running_mean f4 [2]
0	0xbde644b9	-0.112435766
1	0xbe5b0366	-0.21388015

conv_block_1.0.running_var f4 [2]
0	0x3e490ac4	0.19633013
1	0x3ea57c31	0.32321313

conv_block_1.2.weight f4 [2, 2, 3, 3]
0	0xbdee5cb6	-0.11638777
1	0xbc82650b	-0.015917322
2	0xbe3e2d2a	-0.18571916
3	0x3e0ff670	0.14058852
4	0x3e6f8748	0.2339145
5	0x3bd56547	0.0065123173
6	0x3e6994c6	0.22810659
7	0x3e2ddfc0	0.16979885
8	0x3e44fb5b	0.1923651
9	0x3e6e37e4	0.23263508
10	0x3e6a695e	0.22891757
11	0xbe6d0ba1	-0.23148967
12	0xbda5ff11	-0.08105291
13	0xbdb813a2	-0.0898812
14	0xbe024a7d	-0.12723728
15	0x3dab90a9	0.08377201
16	0x3d70543e	0.05867409
17	0xbd238d9b	-0.039929967
18	0xbe1f43d6	-0.15553221
19	0x3e627065	0.22113188
20	0x3e264bd8	0.1623987
21	0x3e6f8d00	0.23393631
22	0x3c606728	0.013696469
23	0x3cf52bbc	0.02992808
24	0x3e58321b	0.21112864
25	0x3e5cedaa	0.21575037
26	0x3e3c9d3f	0.1841936
27	0x3e559cbd	0.20860572
28	0x3e4012b6	0.18757138
29	0x3d25beb7	0.040465083
30	0xbd5ba7d7	-0.05362686
31	0x3e6ef0e7	0.23334084
32	0xbe44b794	-0.19210654
33	0xbc445c5a	-0.011984909
34	0x3e4a6e04	0.1976853
35	0xbe653930	-0.22385097

conv_block_1.2.bias f4 [2]
0	0xbe3964bb	-0.18104832
1	0xbdbd67dd	-0.09248326

conv_block_1.3.weight f4 [2]
0	0x3f7fefc9	0.9997526
1	0x3f80081f	1.0002478

conv_block_1.3.bias f4 [2]
0	0x396cb301	0.00022573398
1	0x3a2f076e	0.00066768273

conv_block_1.3.running_mean f4 [2]
0	0x3da20bfa	0.079124406
1	0x3ed63c29	0.41842774

conv_block_1.3.running_var f4 [2]
0	0x3e5c4784	0.21511656
1	0x3e9c4ed4	0.3052889

conv_block_1.5.weight f4 [2, 2, 3, 3]
0	0x3e1a1c46	0.15049848
1	0x3dc0d59b	0.09415742
2	0xbe70810f	-0.23486732
3	0x3e0decf9	0.13859929
4	0xbe62bd05	-0.22142418
5	0xbe69ffe4	-0.22851521
6	0xbd793430	-0.060840786
7	0xbd6a2c65	-0.057171244
8	0x3da2a90a	0.07942398
9	0xbdadc1cc	-0.084842294
10	0xbb8769a1	-0.004132465
11	0xbd376b1f	-0.044779893
12	0xbe0de1ff	-0.13855742
13	0xbd9d1eda	-0.076719
14	0x3e0f2f68	0.13982928
15	0xbc1e5e1d	-0.009665993
16	0xbe5b94dc	-0.21443504
17	0x3dbb213c	0.09137198
18	0x3b9abe8f	0.0047224234
19	0xbd275326	-0.04085078
20	0xbcf2aa7e	-0.029622313
21	0xbd9c3617	-0.07627504
22	0x3e07e4c4	0.13270861
23	0xbc013649	-0.007886478
24	0x3e06c041	0.13159277
25	0xbe0292af	-0.12751268
26	0xbe0bb119	-0.13641776
27	0xbdb95f68	-0.090514004
28	0x3e20a170	0.15686584
29	0x3cb7fe22	0.022460047
30	0x3e26f4f5	0.16304381
31	0x3e65cd6c	0.22441643
32	0x3ce3a7f8	0.027790055
33	0xbe335b34	-0.1751526
34	0x3e0f8f0f	0.14019416
35	0x3e1199aa	0.14218774

conv_block_1.5.bias f4 [2]
0	0xbd2a4ac9	-0.041575227
1	0xbdcf2ba2	-0.10115744

conv_block_2.0.weight f4 [2]
0	0x3f8006d4	1.0002084
1	0x3f7ff259	0.9997917

conv_block_2.0.bias f4 [2]
0	0x38badd1a	8.9103545e-05
1	0xb7ddec1c	-2.64552e-05

conv_block_2.0.running_mean f4 [2]
0	0xbe374046	-0.17895612
1	0x3e06371b	0.13106959

conv_block_2.0.running_var f4 [2]
0	0x3e69f722	0.2284818
1	0x3e67b401	0.2262726

conv_block_2.2.weight f4 [4, 2, 3, 3]
0	0xbe470fa3	-0.19439559
1	0xbe45a5e6	-0.19301566
2	0xbe10bc19	-0.14134254
3	0x3dcfd846	0.10148673
4	0xbe42f77e	-0.19039723
5	0xbdb199b0	-0.08671892
6	0x3e5e276c	0.21694726
7	0xbe36b530	-0.17842555
8	0x3e4b7fdd	0.19872995
9	0xbd861682	-0.06547262
10	0xbce72aa4	-0.028218575
11	0xbd955c4e	-0.07292996
12	0x3e5d6d44	0.21623713
13	0x3dfd5e2c	0.123714775
14	0xbe64ead7	-0.2235521
15	0xbe5407e6	-0.20706138
16	0xbde08e7e	-0.10964678
17	0x3e0d6ac1	0.13810255
18	0x3ddd1ba5	0.107962884
19	0xbe36ed7b	-0.17864029
20	0x3e30946e	0.17244121
21	0xbe17c8b4	-0.14822656
22	0x3e33d8b4	0.17563134
23	0xbe10b830	-0.14132762
24	0x3e0ef9f0	0.13962531
25	0x3da074a0	0.078347445
26	0xbe6b2a4d	-0.22965355
27	0x3e3bad8f	0.18327926
28	0x3d268bfb	0.04066084
29	0x3d5eda31	0.054407302
30	0x3cd52b5a	0.026021648
31	0xbd348c50	-0.044079125
32	0xbe195699	-0.1497444
33	0xbdaa6d5c	-0.0832164
34	0x3b13e092	0.0022564274
35	0x3d73cf46	0.059523843
36	0x3dcd79f8	0.10033029
37	0xbce8a065	-0.028396795
38	0x3d142b50	0.03617412
39	0x3d34587f	0.04402971
40	0x3c10149c	0.008793976
41	0xbddf86e2	-0.10914399
42	0xbdac5e92	-0.08416475
43	0x3c17b6eb	0.00925992
44	0xbdff45c8	-0.124644816
45	0xbe22ceef	-0.15899251
46	0xbe66bafb	-0.22532265
47	0xbe4d55e6	-0.20052299
48	0xbdc98f79	-0.09841818
49	0xbdd79d99	-0.10528106
50	0xbe3d1314	-0.18464309
51	0xbe34107d	-0.17584415
52	0x3e5454d1	0.2073548
53	0x3c8943a6	0.01675589
54	0x3e5f1051	0.21783568
55	0xbe62e78f	-0.22158645
56	0x3e660a0e	0.22464773
57	0xbd6ba27f	-0.057528015
58	0x3d9bb929	0.07603676
59	0x3cde97d6	0.02717201
60	0xbdbd553c	-0.09244773
61	0x3e23c1c8	0.1599189
62	0x3dd56e16	0.10421388
63	0x3e21949b	0.15779345
64	0x3c9c8e22	0.019110743
65	0xbc7311d2	-0.014835792
66	0x3d52e81d	0.05149089
67	0xbd18e0ee	-0.037323885
68	0xbe21cef9	-0.1580161
69	0xbcc22d6b	-0.023703298
70	0x3c8dbe2b	0.017302593
71	0x3e6d5bf7	0.23179613

conv_block_2.2.bias f4 [4]
0	0x3e614bf6	0.22001633
1	0xbcb60955	-0.022221247
2	0xbe3e6cdc	-0.18596214
3	0x3d34dc5a	0.044155456

conv_block_2.3.weight f4 [4]
0	0x3f80239f	1.0010871
1	0x3f7fef3b	0.9997441
2	0x3f800c5e	1.0003774
3	0x3f7fe418	0.9995742

conv_block_2.3.bias f4 [4]
0	0x3a9a810f	0.001178773
1	0xba9a776a	-0.0011784856
2	0x3a3e3e34	0.0007257194
3	0xbaab36e4	-0.0013062623

conv_block_2.3.running_mean f4 [4]
0	0x3a7ba5ef	0.0009599616
1	0xbb370a82	-0.0027929847
2	0xbee20712	-0.4414602
3	0x3e5fae8f	0.21843933

conv_block_2.3.running_var f4 [4]
0	0x3e3de544	0.18544489
1	0x3e2d15a8	0.16902792
2	0x3f0bbcdc	0.5458505
3	0x3e3a1ff3	0.1817625

conv_block_2.5.weight f4 [4, 4, 3, 3]
0	0xbda09f88	-0.07842928
1	0xbe1a651e	-0.15077636
2	0x3cd033cb	0.025415322
3	0x3d599f00	0.05313015
4	0x3d97aaec	0.07405648
5	0xbd8b0c19	-0.06789417
6	0x3d375edf	0.04476821
7	0x3b473d6c	0.00304016
8	0x3e2210d2	0.15826729
9	0xbe0273d1	-0.12739493
10	0x3e23ba57	0.15989052
11	0xbde0cc9b	-0.109765254
12	0x3c8dba01	0.017300608
13	0x3d8d9c31	0.06914557
14	0x3e1c37f9	0.15255727
15	0xbd1fdfdd	-0.039031852
16	0x3de9dcac	0.11419043
17	0x3d854b7c	0.06508538
18	0x3de6293e	0.11238335
19	0xbdcf8f3e	-0.10134743
20	0xbd975bb0	-0.07390535
21	0xbddf7551	-0.10911048
22	0xbc8ac359	-0.016938852
23	0xbdc5c9f2	-0.09657659
24	0xbd419388	-0.047259837
25	0x3e0dc0c5	0.13843067
26	0xbc92aec0	-0.017905593
27	0x3c2c7f04	0.01052833
28	0xbdb82ba9	-0.089927025
29	0x3d232bfb	0.039836865
30	0xbd88e058	-0.06683415
31	0xbc9182ce	-0.017762568
32	0x3ddf2d29	0.108972855
33	0x3e1d345e	0.15352008
34	0x3df0a109	0.11749465
35	0xbdb6c2db	-0.089238845
36	0x3e031738	0.12801826
37	0x3deb2be3	0.1148298
38	0x3e119486	0.14216813
39	0x3de904f2	0.11377896
40	0xbdcdf0a8	-0.10055667
41	0x3c88bd05	0.016691694
42	0xbd8f108e	-0.069855794
43	0x3e21f0a9	0.15814461
44	0x3e21b66d	0.15792246
45	0xbcfa9477	-0.030588372
46	0x3e0776ca	0.13228908
47	0xbe297a31	-0.16550519
48	0xbd6b8fe4	-0.05751027
49	0xbd176131	-0.036957923
50	0x3d97c7ea	0.074111775
51	0x3d0fe6a4	0.035132065
52	0x3dab29c7	0.08357578
53	0x3e002d12	0.12517193
54	0xbdc7a11c	-0.09747526
55	0x3e270c31	0.16313244
56	0x3df4cfd3	0.11953702
57	0x3e1c4a67	0.15262757
58	0xbd16389f	-0.03667509
59	0xbd681ea5	-0.05666985
60	0x3d3bd661	0.045858745
61	0xbc2ae9d5	-0.010431726
62	0xbd70b257	-0.058763828
63	0xbd4197da	-0.047263958
64	0xbccc89c6	-0.02496804
65	0xbc6c3366	-0.014416551
66	0x3d40e1d2	0.04709036
67	0xbd3b55f0	-0.045736253
68	0x3da19895	0.07890431
69	0x3df1c3d4	0.118049294
70	0xbd68106d	-0.05665629
71	0xbd3aa629	-0.04556862
72	0xbd71a4d9	-0.0589951
73	0x3dc0270c	0.093824476
74	0x3c3fccea	0.01170657
75	0x3e0ecf2a	0.13946214
76	0x3dca26f3	0.0987071
77	0x3e017127	0.1264082
78	0x3dccee6a	0.100064114
79	0x3ccd56ae	0.025065746
80	0x3e22b62b	0.15889804
81	0xbbbe7406	-0.005812171
82	0xbcce75cf	-0.02520266
83	0x3bbbcdc5	0.0057313167
84	0xbd73b14c	-0.059495255
85	0xbddba564	-0.10724905
86	0xbd791edb	-0.06082044
87	0xbe295241	-0.16535284
88	0x3df65d5f	0.12029528
89	0x3d8f6cfe	0.070032105
90	0x3e0fd320	0.14045382
91	0x3dfb066f	0.122570865
92	0x3dfc6706	0.12324338
93	0x3dc27a21	0.094959505
94	0x3e1b42eb	0.15162246
95	0x3ccd9246	0.025094163
96	0x3da2f514	0.07956901
97	0xbd04dcaa	-0.032437004
98	0x3e0cbfb2	0.13745001
99	0x3e2663c0	0.16248989
100	0xbb69e181	-0.003568739
101	0xbe0a2ef2	-0.1349447
102	0x3ddfb01c	0.10922262
103	0xbbd538bf	-0.006507009
104	0x3d7b2005	0.061309833
105	0x3dacc68b	0.084363066
106	0x3de6a05c	0.11261055
107	0x3b1adddd	0.0023630776
108	0x3cf26245	0.029587874
109	0x3d39bf16	0.04534825
110	0xbce40cee	-0.027838197
111	0x3d8476cb	0.064679705
112	0x3cc69922	0.024242941
113	0x3bdbb9d6	0.006705503
114	0x3e07182b	0.13192813
115	0x3bbf8b80	0.005845487
116	0x3e145d9f	0.14488839
117	0x3e2104d0	0.15724492
118	0xbdde3ecc	-0.10851821
119	0xba915af8	-0.0011089733
120	0xbd0073ac	-0.031360313
121	0xbdfd7a1b	-0.123768054
122	0x3e0840df	0.13305996
123	0x3d7fc5fc	0.062444672
124	0xbe06027a	-0.13086882
125	0x3bf4c430	0.0074696764
126	0x3dff8ecb	0.124784075
127	0xbe025234	-0.1272667
128	0x3daca156	0.0842921
129	0x3cbfd437	0.023416622
130	0x3d85c2d1	0.06531299
131	0xbdf12b22	-0.11775805
132	0xbe2850d0	-0.16437078
133	0xbe0e2318	-0.13880575
134	0x3e0679d2	0.13132408
135	0x3dc96417	0.09833544
136	0xbde1a962	-0.11018635
137	0x3e12c273	0.14331989
138	0xbd949077	-0.07254117
139	0xbe18e4b4	-0.14930993
140	0x3e024303	0.12720875
141	0xbdff8152	-0.12475838
142	0x3e0b5091	0.13604952
143	0xbc948fb2	-0.018134926

conv_block_2.5.bias f4 [4]
0	0xbe28c6fe	-0.1648216
1	0xbd79e281	-0.061007027
2	0xbe08335b	-0.1330084
3	0xbdf8637a	-0.12128349

conv_block_3.0.weight f4 [4]
0	0x3f8004a2	1.0001414
1	0x3f800040	1.0000076
2	0x3f7fc86d	0.999152
3	0x3f800c3e	1.0003736

conv_block_3.0.bias f4 [4]
0	0xb85df86b	-5.2921863e-05
1	0xb950ec6e	-0.00019924503
2	0x39021d8c	0.00012408773
3	0x380287f4	3.112103e-05

conv_block_3.0.running_mean f4 [4]
0	0x3d8c6a79	0.068562455
1	0x3eb00097	0.3437545
2	0x3ee354b1	0.44400552
3	0x3e07b001	0.13250734

conv_block_3.0.running_var f4 [4]
0	0x3e981483	0.2970315
1	0x3e57097d	0.20999713
2	0x3e54ecef	0.20793508
3	0x3e42ef03	0.19036488

conv_block_3.2.weight f4 [8, 4, 3, 3]
0	0x3d98a083	0.0745249
1	0xbd8525ad	-0.06501327
2	0xbe1fa42d	-0.15589972
3	0xbd7e348a	-0.062061824
4	0xbd95126e	-0.07278906
5	0xbe014f54	-0.12627918
6	0xbd569545	-0.05238845
7	0x3b096ae7	0.002096826
8	0x3d2b3d57	0.041806545
9	0xbdbc376d	-0.09190259
10	0xbdcd37dd	-0.10020421
11	0xbcb03901	-0.021511557
12	0xbce47322	-0.02788693
13	0x3e02f067	0.12787019
14	0xbd24bdc9	-0.040220056
15	0x3dc9d58a	0.098551825
16	0x3e063df5	0.13109572
17	0xbdf2e001	-0.118591316
18	0xbd1cc245	-0.038271207
19	0x3d4fb104	0.050705925
20	0xbe26afae	-0.16277954
21	0xbcc02107	-0.023453249
22	0xbd9fe475	-0.078072466
23	0xbe055e17	-0.13024174
24	0x3c09fb0b	0.00842167
25	0x3dc93e9c	0.09826395
26	0xbde8a100	-0.11358833
27	0x3d163519	0.03667173
28	0xbd81f565	-0.063456334
29	0xbd7ed828	-0.06221786
30	0xbd3d4211	-0.046205584
31	0xbd9ecc7c	-0.07753846
32	0xbd3c46df	-0.045966025
33	0x3c3975bc	0.011319574
34	0x3bd4a2d7	0.0064891386
35	0x3e11ff17	0.14257465
36	0x3e0db797	0.13839565
37	0x3db57e86	0.08862023
38	0x3ddc059d	0.10743258
39	0x3dc5eb38	0.09664005
40	0xbde45d16	-0.11150567
41	0x3e061907	0.13095485
42	0xbe1a445c	-0.1506514
43	0xbc53f78b	-0.012937437
44	0x3d8de25f	0.069279425
45	0xbdd77208	-0.105197966
46	0x3de5e960	0.112261534
47	0xba75696e	-0.00093617185
48	0x3deb9093	0.11502185
49	0xbdd6417d	-0.1046171
50	0x3db36cb7	0.0876097
51	0xbd1e0a65	-0.03858413
52	0xbe26a8b6	-0.16275296
53	0xbcd2273a	-0.02565347
54	0xbd131fcd	-0.035919
55	0xbe11ecbf	-0.14250468
56	0x3de85c4b	0.113457285
57	0x3e0f21a0	0.1397767
58	0xbcf51555	-0.029917398
59	0x3dc26d98	0.094935596
60	0x3dec4681	0.11536885
61	0xbd7c25d2	-0.061559506
62	0x3e23a7c7	0.1598197
63	0x3d7b49ec	0.061349794
64	0x3dcf217b	0.10113808
65	0xbd652225	-0.055940766
66	0xbdb3382f	-0.087509505
67	0xbe13adb8	-0.14421737
68	0xbdb5f00e	-0.088836774
69	0x3db6fa86	0.08934502
70	0x3e18fcf6	0.14940247
71	0xbd67a206	-0.056551002
72	0xbd88f85d	-0.066879965
73	0xbd5a5c50	-0.053310692
74	0xbdf97f69	-0.12182505
75	0xbe0dfbe5	-0.13865621
76	0xbc962766	-0.018329334
77	0xbd2b1ac4	-0.041773573
78	0x3c79a70c	0.015237581
79	0x3cc41650	0.02393642
80	0xbd1882b5	-0.037234027
81	0x3e11532a	0.14191881
82	0xbd8db354	-0.0691897
83	0x3d5945b3	0.053044986
84	0xbe0702fa	-0.13184729
85	0x3cc73f84	0.024322279
86	0xbe081177	-0.13287912
87	0xbc83b66b	-0.016078195
88	0xbd4b383c	-0.049614176
89	0xbcd7e13a	-0.026352514
90	0x3dd754ff	0.105142586
91	0xbcfae4b7	-0.030626638
92	0xbca2b546	-0.019861829
93	0xbd410f8f	-0.04713398
94	0xbd8683d4	-0.06568113
95	0x3daa24aa	0.08307774
96	0xbdb721b7	-0.089419775
97	0xbbceb455	-0.0063081183
98	0xbd85d283	-0.065342925
99	0x3e1eba20	0.15500689
100	0xbe07511d	-0.13214536
101	0x3d9fd6b1	0.07804621
102	0xbdcf2784	-0.10114959
103	0xbdd01373	-0.1015996
104	0xbe1aa28a	-0.15101066
105	0xbdeade6f	-0.11468207
106	0x3e1d1be3	0.15342669
107	0xbe0a62a3	-0.1351419
108	0xbc9990e2	-0.018745843
109	0x3cbea084	0.0232699
110	0x3d90438a	0.07044132
111	0x3ca5423f	0.02017319
112	0x3dd655d1	0.10465587
113	0xbe1fb24f	-0.15595363
114	0x3dc1af1d	0.09457228
115	0x3be9e01e	0.0071373126
116	0x3e0421e0	0.12903547
117	0x3c0ad0ee	0.008472664
118	0x3dc8b8f6	0.098009035
119	0x3e29ba96	0.16575083
120	0xbe26efdb	-0.16302435
121	0x3d805c8e	0.062676534
122	0x3de67b42	0.11253978
123	0xbe0c6c1e	-0.13713118
124	0xbd851c20	-0.06499505
125	0x3dcfc13c	0.101442784
126	0xbe01286b	-0.12613074
127	0xbded490a	-0.11586197
128	0x3d6d8e00	0.05799675
129	0xbdcad1bd	-0.09903286
130	0xbcd9bc43	-0.026579028
131	0x3e02a959	0.12759914
132	0xbd7bf04e	-0.06150847
133	0xbd3d4b5c	-0.046214446
134	0xbdc8b065	-0.097992696
135	0xbd786284	-0.060640827
136	0xbde6a669	-0.11262209
137	0x3d9af799	0.07566757
138	0xbd9454ed	-0.07242761
139	0xbda46ca1	-0.08028532
140	0xbc79f1f6	-0.015255442
141	0x3ddb96c0	0.10722113
142	0x3db15cbb	0.08660265
143	0x3e18336c	0.14863366
144	0xbd826a6b	-0.06367954
145	0xbc6c8903	-0.014436963
146	0xbd7ed003	-0.062210094
147	0xbd11a9cd	-0.035562325
148	0x3d15e09c	0.036591157
149	0x3d8248ee	0.063615665
150	0xbe08f8b7	-0.13376127
151	0xbd14dce2	-0.036343463
152	0xbe1e0b20	-0.15433931
153	0x3df8eaba	0.121541455
154	0x3ccc6214	0.024949111
155	0x3d801d5a	0.06255598
156	0xbd40e3db	-0.0470923
157	0x3d407c35	0.046993453
158	0x3d6d337c	0.057910427
159	0x3dca05a7	0.09864359
160	0x3db0f190	0.086398244
161	0xbdc49a19	-0.09599704
162	0xbde5ed47	-0.11226898
163	0x3d9e1085	0.077179946
164	0xbdada0a3	-0.08477905
165	0x3da189a8	0.07887584
166	0xbe25f82e	-0.16207954
167	0x3cc2aef9	0.023765074
168	0x3d7999aa	0.06093756
169	0xbda359d8	-0.07976121
170	0xba376659	-0.0006996147
171	0xbdd3a5b4	-0.1033434
172	0xbc47e3e4	-0.012200329
173	0xbca070d8	-0.019585058
174	0xbdb3f657	-0.0878722
175	0x3e0707f2	0.13186625
176	0x3dc5d5c2	0.09659912
177	0xbd8f7d47	-0.07006317
178	0xbd5c758c	-0.05382304
179	0xbcacd4b6	-0.021097522
180	0x3ce29b11	0.027661832
181	0x3e01e324	0.12684304
182	0xbd5ce1b8	-0.0539262
183	0xbdf94c57	-0.12172764
184	0x3d819e0d	0.06328974
185	0x3d4448c1	0.047920946
186	0xbdf3451f	-0.11878418
187	0xbd85c854	-0.0653235
188	0x3dfe40c4	0.12414697
189	0x3d8e7a46	0.069569156
190	0xbe0a954c	-0.13533515
191	0x3de68961	0.11256672
192	0x3d7d7a2d	0.061884094
193	0x3dba8831	0.09108008
194	0xbdcb67d1	-0.09931911
195	0xbe0d47bb	-0.13796894
196	0x3b4602c6	0.0030214055
197	0x3d7bcfa4	0.06147732
198	0x3da55779	0.08073325
199	0x3d8eee41	0.06979037
200	0xbdaa33e2	-0.08310677
201	0xbd13064b	-0.035894673
202	0xbd087a19	-0.033319566
203	0x3e1879a6	0.14890155
204	0x3e140e26	0.14458522
205	0xbe141d50	-0.14464307
206	0xbd09de54	-0.033659294
207	0x3d7433cf	0.05961972
208	0x3e27d601	0.1639023
209	0xbe278060	-0.16357565
210	0x3dd5afd4	0.10433927
211	0x3da5ab98	0.080893695
212	0xba84bc6e	-0.0010126957
213	0xbdcb6f25	-0.099333085
214	0xbe0dab74	-0.13834935
215	0x3dca0729	0.09864647
216	0x3cca4cf6	0.024694901
217	0x3e023a94	0.12717658
218	0x3daa331b	0.08310529
219	0x3e00c70b	0.12575929
220	0xbdb9cd6f	-0.090723865
221	0x3e10fea9	0.14159645
222	0x3dbb3ab6	0.091420576
223	0x3dc82886	0.09773354
224	0xbdc10d29	-0.09426338
225	0xbdaf83d2	-0.085700646
226	0xbdd32d37	-0.103113584
227	0xbddde366	-0.108343884
228	0x3ccd9f13	0.025100267
229	0xbe1a7edc	-0.15087456
230	0xbd871927	-0.06596594
231	0xbdf0b396	-0.11753003
232	0xbd2f6f9f	-0.04283106
233	0xbd79cfd8	-0.06098923
234	0xbda1c1b9	-0.07898278
235	0xbd69d120	-0.057084203
236	0x3ddc24c5	0.10749201
237	0xbda3e5bf	-0.08002805
238	0x3e0f66e6	0.14004096
239	0xbe0c61ff	-0.13709258
240	0x3bfc3674	0.007696921
241	0x3e26f713	0.16305189
242	0xbe0e8efc	-0.13921732
243	0xbd8bb65a	-0.0682189
244	0xbcab3a23	-0.020901745
245	0xbd832618	-0.0640375
246	0xbd5035f0	-0.05083269
247	0x3e0a28f0	0.13492179
248	0x3df756f7	0.12077134
249	0xbd6609c1	-0.056161646
250	0xbc429134	-0.011875439
251	0xbd90a8f1	-0.07063473
252	0x3dacb14f	0.084322564
253	0xbe119f2b	-0.14220874
254	0xbdfb2a01	-0.12263871
255	0xbcaa4cef	-0.020788638

conv_block_3.2.bias f4 [8]
0	0xbc2beefb	-0.010493989
1	0x3da4d9ae	0.080493316
2	0x3e1cc285	0.15308578
3	0xbdb9c1b3	-0.09070148
4	0x3ca74c21	0.020422043
5	0x3d193b5a	0.037410118
6	0xbdbbc32e	-0.09168087
7	0xbcc42126	-0.023941588

conv_block_3.3.weight f4 [8]
0	0x3f8008b9	1.0002662
1	0x3f7fefb1	0.99975115
2	0x3f7fd225	0.9993003
3	0x3f800c2a	1.0003712
4	0x3f7fef88	0.9997487
5	0x3f7ff91e	0.999895
6	0x3f800fda	1.0004838
7	0x3f7fe94e	0.9996537

conv_block_3.3.bias f4 [8]
0	0x3a65a762	0.0008760599
1	0x3a304f42	0.00067256775
2	0xba1f5434	-0.0006077916
3	0x3a53f834	0.00080859964
4	0xb9f6039f	-0.00046923474
5	0xb9874581	-0.0002580099
6	0xb87d2284	-6.0352046e-05
7	0xba847e08	-0.0010108361

conv_block_3.3.running_mean f4 [8]
0	0xbe8ba419	-0.27273634
1	0x3e52fc82	0.20604137
2	0xbe52acc9	-0.20573725
3	0xbd048507	-0.032353427
4	0xbd892a49	-0.066975184
5	0x3deff7a5	0.11717156
6	0xbe721189	-0.23639502
7	0xbe0569ca	-0.13028637

conv_block_3.3.running_var f4 [8]
0	0x3ee9ce64	0.45665276
1	0x3e94d6e1	0.2907019
2	0x3ee0dd88	0.43919015
3	0x3e8933fa	0.26797467
4	0x3e8c332d	0.27382794
5	0x3e6b4f64	0.22979504
6	0x3e785d0b	0.24254243
7	0x3eca6ea4	0.39537537

conv_block_3.5.weight f4 [8, 8, 3, 3]
0	0xbdc64074	-0.09680262
1	0x3d0257ef	0.03182214
2	0x3ccedf25	0.025252888
3	0xbd8ceff1	-0.06881703
4	0xbd2132b6	-0.039355002
5	0xbde6cacc	-0.11269149
6	0x3db695da	0.08915301
7	0xbb42b3f2	-0.0029709307
8	0x3cdd46fd	0.027011389
9	0xbd39f5ff	-0.045400616
10	0x3db27765	0.08714179
11	0x3cfa776c	0.030574523
12	0xbcea64e2	-0.028612558
13	0x3de95f02	0.113950744
14	0xbd8216a7	-0.06351977
15	0xbbf953e9	-0.00760888
16	0xbdd44c77	-0.10366147
17	0xbda61000	-0.081085205
18	0xbdedcb23	-0.11611011
19	0xbd4d53d7	-0.050128784
20	0x3db49963	0.08818319
21	0x3dccce8d	0.10000334
22	0x3d9b68e9	0.075883694
23	0xbd7a3bb2	-0.061092086
24	0x3c6c4075	0.014419665
25	0x3debc7e6	0.11512737
26	0x3ddee01e	0.10882591
27	0xbc1f91ed	-0.009739381
28	0xbd0bd706	-0.03414061
29	0xbdb86e5c	-0.090054244
30	0xbcf53c83	-0.02993608
31	0xbdcc8309	-0.099859305
32	0xbcc6610d	-0.0242162
33	0x3da26cd6	0.07930915
34	0xbc90f24d	-0.017693663
35	0xbdede48e	-0.11615859
36	0x3dbe1cba	0.09282823
37	0x3cb314ff	0.021860598
38	0xbdc74732	-0.09730376
39	0xbd136354	-0.0359834
40	0x3cc5f087	0.024162544
41	0xbcad1128	-0.021126345
42	0xbcfeacf4	-0.03108833
43	0x3dee9548	0.11649567
44	0x3ddb2e9a	0.10702248
45	0xbc556eb1	-0.013026879
46	0xbdcd0707	-0.10011106
47	0xbaa22052	-0.0012369251
48	0xbd579847	-0.052635457
49	0x3cda54d5	0.02665178
50	0xbd9f959a	-0.07792206
51	0x3b9e7ae5	0.0048364275
52	0xbd86ac82	-0.06575872
53	0xbdbecfe3	-0.09316995
54	0x3dd2d87c	0.10295197
55	0x3dad55a0	0.08463597
56	0xbc9452f9	-0.01810597
57	0x3dad30eb	0.08456596
58	0xbdb913ee	-0.090370044
59	0x3c52eac6	0.012873357
60	0xbd8cb4c7	-0.06870418
61	0x3ce2bd97	0.027678294
62	0x3d6cee7f	0.057844635
63	0x3dc35b2e	0.095388755
64	0x3cbb7689	0.02288367
65	0xbd376e1e	-0.04478275
66	0xbc79ffd3	-0.015258747
67	0xbdb8d14a	-0.09024294
68	0x3cc94380	0.02456832
69	0xbdaf01d2	-0.08545269
70	0xbd808f01	-0.06277276
71	0x3dad6072	0.08465661
72	0xbd50d41d	-0.050983537
73	0x3d7e270f	0.062048968
74	0xbd819033	-0.06326332
75	0x3db550cf	0.08853304
76	0xbd3ad9a7	-0.045617726
77	0xbd9f3942	-0.07774593
78	0x3d48cf06	0.049025558
79	0x3de9b833	0.11412086
80	0xbd9343f6	-0.07190697
81	0xbd9c3c5b	-0.076286994
82	0xbdc8d18d	-0.09805594
83	0xbd4e98db	-0.050438743
84	0xbd434672	-0.047674604
85	0xbdc41a2b	-0.09575304
86	0xbdca3de2	-0.098750845
87	0xbdbfc1a5	-0.09363107
88	0x3dd9a86f	0.10627829
89	0x3d5f2c54	0.054485634
90	0xbcf7c9be	-0.030247565
91	0x3c0f0235	0.008728554
92	0x3dcdd4fd	0.1005039
93	0xbde3bb10	-0.11119664
94	0xbded2bc4	-0.11580613
95	0x3dc962ae	0.09833275
96	0x3d632286	0.055452846
97	0x3dc7b0e3	0.09750535
98	0xbdc53cc1	-0.096307285
99	0xbc89ccb0	-0.016821235
100	0x3dc6464a	0.09681375
101	0x3d2d179b	0.04225884
102	0xbb13d9a7	-0.002256015
103	0x3d9a49e1	0.075336225
104	0x3d0ba0a6	0.034088753
105	0xbd55ccd2	-0.052197285
106	0xbdaee916	-0.08540551
107	0xbd866fa0	-0.065642595
108	0xbcacf272	-0.0211117
109	0x3b65be10	0.0035055913
110	0x3d8e5c9d	0.06951258
111	0xbd4595f8	-0.048238724
112	0xbd0af0e5	-0.03392114
113	0xbc6a5509	-0.0143025005
114	0x3dc6394b	0.096788965
115	0xbd90a4be	-0.07062672
116	0xb9c7b654	-0.00038092083
117	0x3c6ab8f2	0.014326321
118	0xbcc4799a	-0.023983765
119	0x3d6c29a8	0.057656914
120	0xbd82345c	-0.06357643
121	0x3de44bef	0.11147296
122	0x3cbb5cbd	0.02287137
123	0x3c1b6a88	0.009485848
124	0x3b289d1f	0.0025728417
125	0x3d460d63	0.04835261
126	0xbd5933bb	-0.05302785
127	0x3d3e45a0	0.04645312
128	0x3cfd39f5	0.030911425
129	0x3c7fb053	0.015606004
130	0x3df08045	0.117432155
131	0x3d76139f	0.060077306
132	0x3c3d0615	0.011537095
133	0x3d85b133	0.06527939
134	0x3cebab29	0.028768139
135	0x3d24c749	0.040229116
136	0x3dbded47	0.09273773
137	0xbc38d58f	-0.011281385
138	0x3dc34f90	0.0953666
139	0xbac0d315	-0.0014711345
140	0xbda4fcb5	-0.080560125
141	0x3d1e9f39	0.038726065
142	0xbd1275d2	-0.035756893
143	0x3db884ff	0.09009742
144	0xbdc74112	-0.09729208
145	0xbbc34f84	-0.0059604067
146	0xbca725ac	-0.020403706
147	0xbd657ab3	-0.05602522
148	0x3ddf9d8d	0.10918722
149	0x3d91910c	0.071077436
150	0xbd1cd4cf	-0.038288888
151	0x3dbf7d91	0.09350122
152	0x3da24edf	0.079252
153	0x3d976f23	0.073942445
154	0x3de64d65	0.112452306
155	0x3da11022	0.07864405
156	0x3dc2257f	0.09479808
157	0xbd1a62e6	-0.037691973
158	0x3dadb895	0.08482472
159	0x3c985359	0.01859443
160	0x3c822a9e	0.015889462
161	0x3d59ead7	0.053202476
162	0x3ce2825b	0.027650049
163	0x3c34ccaa	0.011035124
164	0xbda41c3c	-0.08013198
165	0x3d34b5bd	0.04411863
166	0xbd93f268	-0.0722397
167	0xbda8c092	-0.08239855
168	0xbdd27627	-0.10276442
169	0xbcd3c0ce	-0.025848772
170	0xbdbc790e	-0.09202777
171	0x3d3e3cf3	0.046444844
172	0x3c1a26f7	0.009408704
173	0xbdafcf21	-0.085844286
174	0xbd51f676	-0.051260434
175	0xbcfa58ba	-0.030559886
176	0xbb6979be	-0.0035625543
177	0x3d716331	0.058932487
178	0x3de97428	0.11399108
179	0x3cc86113	0.024460351
180	0xbdb04268	-0.08606416
181	0x3d10f9d2	0.035394497
182	0x3dc6edaf	0.09713303
183	0x3dcb8daf	0.099391334
184	0x3c04b347	0.008099384
185	0x3dce2405	0.10065464
186	0xbda46398	-0.080268085
187	0xbd810612	-0.06299986
188	0xbd433350	-0.047656357
189	0xbd091a25	-0.0334722
190	0xbc9fc63e	-0.019503709
191	0x3b5537eb	0.003253455
192	0x3dc85ec9	0.09783704
193	0x3d532da1	0.051557187
194	0x3dcefbe3	0.10106637
195	0xbdef6b8d	-0.116904356
196	0x3d24148b	0.040058654
197	0x3d84d406	0.06485753
198	0x3d33f30c	0.04393296
199	0xbdc0818d	-0.0939971
200	0xbc29068f	-0.010316505
201	0xbd3ec5a8	-0.04657522
202	0xbc109adc	-0.008825984
203	0x3dd43ea3	0.103635095
204	0xbd669eed	-0.056303907
205	0x3df07c9c	0.11742517
206	0x3c51073f	0.012758075
207	0x3dc6569e	0.0968449
208	0xbbc832b2	-0.006109559
209	0x3d880a8f	0.06642639
210	0x3cd7619f	0.026291667
211	0xbd8f9cbf	-0.07012319
212	0xbd2dc050	-0.04241973
213	0x3d208cf6	0.03919693
214	0x3b416f0e	0.0029515657
215	0xbba212db	-0.0049460954
216	0xbd0a7353	-0.033801388
217	0xbd7abe27	-0.0612165
218	0xbdc47079	-0.09591765
219	0xbc0b9e07	-0.008521563
220	0xbc8277b5	-0.015926221
221	0xbdf01d94	-0.117243916
222	0x3c66c3d8	0.014084779
223	0xbdd553f9	-0.10416407
224	0x3d79874c	0.060920045
225	0xbdc20eaa	-0.09475453
226	0x3d2da7c5	0.042396326
227	0x3dce0f1b	0.10061475
228	0xbddca1a7	-0.1077302
229	0xbda67175	-0.08127109
230	0x3d8d0579	0.068858095
231	0x3dbcc583	0.0921736
232	0xbdd2ec48	-0.10298973
233	0x3c55bf6c	0.013046127
234	0xbd2cd10e	-0.042191558
235	0x3daab208	0.08334738
236	0xbb641d0e	-0.0034807357
237	0xbd86b41e	-0.065773234
238	0x3d28ecb1	0.04124135
239	0xbdd1010b	-0.10205277
240	0xbdd3a7bc	-0.10334727
241	0x3d1f84f3	0.03894515
242	0x3d73fb3e	0.059565775
243	0x3da5b819	0.080917545
244	0x3ddf8033	0.10913124
245	0x3dc920ac	0.09820685
246	0x3da26101	0.07928658
247	0x3dce22fa	0.10065265
248	0xbd352aed	-0.04423039
249	0xbde3cc84	-0.11122993
250	0xbdede056	-0.11615054
251	0xbde12186	-0.10992722
252	0x3dd104e5	0.10206012
253	0xbd2cf189	-0.042222533
254	0x3d4ebd1f	0.05047333
255	0x3d51e3ee	0.05124276

conv_block_3.5.bias f4 [8]
0	0x3d5838b2	0.052788444
1	0xbd3b2da2	-0.045697816
2	0xbc3a961e	-0.01138833
3	0xbd99406f	-0.07482993
4	0x3d059c96	0.032620035
5	0xbd90cd97	-0.07070463
6	0xbd8ee683	-0.0697756
7	0xbdcce358	-0.100043

conv_block_4.0.weight f4 [8]
0	0x3f8002e5	1.0000883
1	0x3f800205	1.0000616
2	0x3f80093c	1.0002818
3	0x3f8011da	1.0005448
4	0x3f800085	1.0000159
5	0x3f7fea15	0.99966556
6	0x3f7ff552	0.99983704
7	0x3f7ff39b	0.9998109

conv_block_4.0.bias f4 [8]
0	0x39c0f27e	0.00036801765
1	0xb9515526	-0.00019963513
2	0xb8e0c692	-0.00010718139
3	0x39c7c27c	0.0003810114
4	0x3a1ab23a	0.00059011916
5	0xb9757127	-0.00023407173
6	0x39c55b63	0.00037642856
7	0x3a13b3c7	0.0005634394

conv_block_4.0.running_mean f4 [8]
0	0x3dbab50b	0.091165625
1	0x3e363a60	0.17795706
2	0x3e9d8e0c	0.30772436
3	0x3d69d64a	0.057089128
4	0x3e1ffa94	0.15622932
5	0x3d6bc015	0.05755623
6	0x3d8221fc	0.06354138
7	0x3e4d7921	0.20065738

conv_block_4.0.running_var f4 [8]
0	0x3e4b383a	0.19845667
1	0x3e335912	0.17514446
2	0x3eff0da1	0.49815086
3	0x3e75022c	0.2392661
4	0x3e2f37d2	0.17111138
5	0x3e2488c1	0.16067792
6	0x3e2eb4be	0.17061135
7	0x3ea6e39e	0.32595533

conv_block_4.2.weight f4 [16, 8, 3, 3]
0	0xbcac8fe9	-0.021064715
1	0xbdcd0763	-0.100111745
2	0x3d79f3d5	0.061023552
3	0xbcebd476	-0.028787833
4	0xbd0891b1	-0.033342067
5	0xbd0f6804	-0.035011306
6	0xbd145a75	-0.03621908
7	0xbd07dc06	-0.033168815
8	0x3dee6741	0.11640788
9	0x3d669b4c	0.056300446
10	0xbd0458e0	-0.03231132
11	0xbd9a9b7a	-0.07549186
12	0xbc7afb50	-0.015318707
13	0xbd8ed6c3	-0.06974556
14	0xbcc3d656	-0.023905914
15	0x3de61424	0.1123431
16	0x3dd3da10	0.103443265
17	0xbc8fdae9	-0.01756044
18	0xbdd2a1e7	-0.10284787
19	0x3db833a0	0.08994222
20	0xbdd1af37	-0.10238498
21	0x3de1bf47	0.110228114
22	0x3cf51940	0.029919267
23	0xbdc7acae	-0.09749733
24	0x3cf3fde0	0.029784143
25	0x3d6efedc	0.05834852
26	0x3c390ff9	0.011295312
27	0xbd73bb9f	-0.0595051
28	0x3d6a42c6	0.057192586
29	0x3dd2c381	0.10291196
30	0x3c1de1ac	0.009636324
31	0x3d0c88e2	0.03431023
32	0xbddca20a	-0.10773094
33	0xbd4800ca	-0.048828878
34	0xbd8239db	-0.06358691
35	0x3d4a11c5	0.049333353
36	0x3dd390fc	0.10330388
37	0xbd8e8c97	-0.06960409
38	0x3de36d0e	0.11104785
39	0x3d84dac7	0.06487041
40	0x3d09ab8d	0.03361087
41	0xbd656b3c	-0.05601047
42	0xbb635149	-0.00346859
43	0xbdc92d71	-0.098231204
44	0x3c8a9355	0.016915957
45	0x3d40697b	0.046975594
46	0xbddc9864	-0.10771254
47	0x3ddc87c5	0.107680835
48	0xbdc1d0c5	-0.09463648
49	0xbc9e268e	-0.019305494
50	0xbd8194b8	-0.06327194
51	0xbdeb5b00	-0.11491966
52	0xbd70e3f7	-0.058811154
53	0xbd54a0ff	-0.05191135
54	0xbcb21a30	-0.021741003
55	0x3cf5c9cd	0.030003453
56	0x3d40f738	0.047110766
57	0x3d65b682	0.056082256
58	0xbdcb045e	-0.09912942
59	0xbda47c8f	-0.0803157
60	0x3de5666e	0.112011775
61	0xbd8f6881	-0.070023544
62	0xbd6c656a	-0.057713903
63	0xbd86918a	-0.06570728
64	0xbde5fa24	-0.11229351
65	0x3db724c7	0.089425616
66	0xbdec79d8	-0.11546677
67	0x3de957f9	0.113937326
68	0x3ca4e867	0.02013035
69	0xbda24b17	-0.079244785
70	0x3d93dc27	0.07219725
71	0x3d6dd163	0.058061015
72	0x3daf632d	0.08563838
73	0x3dc94ae3	0.09828737
74	0x3d866f20	0.06564164
75	0xbcd942d9	-0.026521133
76	0x3de95400	0.11392975
77	0x3d90d269	0.070713826
78	0xbcd09e20	-0.025466025
79	0x3d166f97	0.036727514
80	0x3d2c45e3	0.042058837
81	0xbcfb6327	-0.030686928
82	0xbd16b346	-0.036792062
83	0x3dc1ff28	0.09472495
84	0xbdbb745b	-0.091530524
85	0x3d215ddf	0.039396163
86	0xbd882d8c	-0.066493124
87	0xbda23479	-0.079201646
88	0xbda01d34	-0.0781807
89	0x3cc7d76e	0.024394717
90	0xbc4529ef	-0.0120339235
91	0x3bfd6132	0.007732534
92	0x3cb7c3cc	0.02243223
93	0xbd50c940	-0.050973177
94	0xbd6f0e91	-0.0583635
95	0x3dae65b4	0.08515492
96	0x3d22e46e	0.03976863
97	0xbd1854a7	-0.037190106
98	0xbbbc8fb6	-0.0057544364
99	0x3d1d31f7	0.03837773
100	0xbcf27525	-0.029596874
101	0xbdc9c5ac	-0.09852156
102	0x3dd8691d	0.10566924
103	0x3dddd028	0.10830718
104	0x3ce1e792	0.027576242
105	0xbd428554	-0.047490433
106	0xbda8bd4c	-0.082392305
107	0xbbddd4c6	-0.0067697493
108	0x3dc72874	0.09724513
109	0x3c36d918	0.011160158
110	0xbcc4786f	-0.023983208
111	0xbce8a80d	-0.028400445
112	0x3d96b2c9	0.07358319
113	0xbca0aeff	-0.019614695
114	0xbc894eb8	-0.016761169
115	0x3dde1948	0.10844666
116	0xbda9f980	-0.082995415
117	0xbdaeadde	-0.08529256
118	0x3d2b42e5	0.041811842
119	0x3dac9f04	0.08428767
120	0x3c135cf6	0.008994332
121	0x3dbbdad7	0.091726
122	0xbd91de42	-0.071224704
123	0xbd149480	-0.036274433
124	0xbdd11fb3	-0.10211124
125	0xbdaee7f0	-0.08540332
126	0xbd641fed	-0.05569451
127	0x3c588d75	0.01321732
128	0x3d7d1f77	0.061797585
129	0xbde6b942	-0.11265804
130	0xbdab674b	-0.08369311
131	0x3d9a5516	0.0753576
132	0x3dafa953	0.08577218
133	0x3c45bb9b	0.012068654
134	0xbcc295fd	-0.02375316
135	0x3daadb55	0.083426155
136	0xbc87fb7c	-0.01659941
137	0x3d6a4552	0.057195015
138	0xbdc7acd1	-0.09749759
139	0x3c77e4b1	0.015130208
140	0x3d9f75f1	0.077861674
141	0x3da765c1	0.08173705
142	0xbcfb6908	-0.030689731
143	0xbd8d04a6	-0.06885652
144	0xbdc3b7d7	-0.09556549
145	0xbd57af82	-0.05265761
146	0xbc92adfe	-0.017905232
147	0x3d91a563	0.07111623
148	0xbdf1af6f	-0.118010394
149	0x3cc7a5d0	0.024371058
150	0xbd83f408	-0.0644303
151	0x3dcaa955	0.09895579
152	0x3d8dbd77	0.06920903
153	0x3db446d7	0.08802574
154	0x3c801033	0.015632724
155	0xbb37df7a	-0.0028056786
156	0xbda11251	-0.07864822
157	0x3cf2ade7	0.029623939
158	0x3d213b69	0.0393633
159	0xbd6ea17e	-0.05825948
160	0x3d600a9d	0.05469762
161	0xbd824c41	-0.063622005
162	0x3d1f623c	0.038912043
163	0x3d9e238d	0.077216245
164	0x3dee6c26	0.116417214
165	0xbdbc0aaf	-0.09181725
166	0x3cefda62	0.029278938
167	0x3d90e18c	0.0707427
168	0xbdc0f1e5	-0.09421138
169	0x3d8d03eb	0.06885513
170	0xbd1c9e51	-0.03823692
171	0x3bdfe43c	0.0068326276
172	0xbc16042d	-0.009156269
173	0x3d001c87	0.031277206
174	0x3dce80d3	0.10083165
175	0x3d039f7b	0.032134514
176	0x3d0b5517	0.034016695
177	0x3d7dbf7e	0.0619502
178	0x3d8c18e4	0.06840685
179	0xbdb40646	-0.08790259
180	0x3c77e0b4	0.015129257
181	0xbdc7cfea	-0.09756453
182	0xbd48d06b	-0.049026888
183	0xbd8bdb6e	-0.06828962
184	0x3d88b24e	0.06674634
185	0x3da14ec7	0.07876354
186	0xbd94019e	-0.07226871
187	0x3cdbeee2	0.026847307
188	0x3cb58314	0.02215723
189	0xbdd50f33	-0.1040329
190	0x3d9265af	0.07148301
191	0xbd247b49	-0.040156636
192	0xbddee568	-0.108835995
193	0xbdde380e	-0.10850535
194	0xbdcd6f15	-0.10030953
195	0x3c1a0974	0.009401668
196	0x3d8e8843	0.069595836
197	0xbc363fef	-0.011123641
198	0xbc5043b4	-0.012711454
199	0x3dc76fc9	0.09738118
200	0xbd77cc7d	-0.06049775
201	0x3d9204f7	0.07129853
202	0x3d646e81	0.055769447
203	0x3ddcda54	0.1078383
204	0xbcc697b5	-0.024242261
205	0xbd846546	-0.06464629
206	0xbdddef29	-0.10836632
207	0x3d86076a	0.06544383
208	0xbd959153	-0.07303109
209	0x3dde9c5f	0.10869669
210	0x3c7fd7e0	0.015615433
211	0xbd7324d0	-0.05936128
212	0x3d6073f3	0.054798078
213	0xbc7d28e5	-0.015451645
214	0xbb8c2fba	-0.0042781504
215	0xbc8412fd	-0.016122336
216	0xbdf32e47	-0.11874061
217	0xbdcbccd1	-0.09951175
218	0x3c76961e	0.015050439
219	0xbdccbe34	-0.09997216
220	0xbd9e4594	-0.07728115
221	0x3dafb3d9	0.08579225
222	0x3cd53ffe	0.02603149
223	0x3d56c5e5	0.05243482
224	0xbd896a08	-0.06709677
225	0xbcdd8bfc	-0.027044289
226	0xbdd526b3	-0.10407772
227	0x3d9a2e1f	0.07528328
228	0xbd969252	-0.07352127
229	0xbc1adf85	-0.009452705
230	0x3dce5cb7	0.10076278
231	0x3c7c7197	0.015407941
232	0xbdd37816	-0.10325639
233	0xbd8a4464	-0.06751326
234	0x3dd5ecf7	0.10445588
235	0xbda0bd49	-0.07848603
236	0xbda9157a	-0.082560495
237	0x3d8132d8	0.06308526
238	0xbd9b7b1c	-0.075918406
239	0xbdb7df69	-0.08978159
240	0xbce50235	-0.027955154
241	0x3d0625c4	0.03275086
242	0xbdafa588	-0.085764945
243	0x3d55632a	0.052096523
244	0xbca0fa74	-0.019650675
245	0xbcb39c9b	-0.021925261
246	0xbd3a790f	-0.045525607
247	0x3c1c4513	0.009537953
248	0x3bfb0e7e	0.0076616397
249	0xbd118baf	-0.035533603
250	0xbdf15971	-0.11784638
251	0x3d9efa59	0.07762594
252	0xbcc2138c	-0.023690961
253	0x3ca38131	0.019959064
254	0xbd8748a8	-0.06605655
255	0x3d46d2f9	0.048541043

conv_block_4.2.bias f4 [16]
0	0xbd8987ef	-0.067153804
1	0x3cdff9bf	0.027340768
2	0x3d863dae	0.06554733
3	0x3bcbd0c8	0.006219957
4	0x3dab01d2	0.083499566
5	0xbddd2b8b	-0.10799321
6	0xbd9d3a6c	-0.07677159
7	0xbdc445ec	-0.09583649
8	0x3d928e1e	0.07156013
9	0xbccbcbd2	-0.024877463
10	0xbd95d514	-0.07316032
11	0xbd23f94f	-0.04003268
12	0x3c95d1a9	0.01828845
13	0xbd2842f1	-0.041079465
14	0xbd35c1d8	-0.044374317
15	0xbcf37aac	-0.02972158

conv_block_4.3.weight f4 [16]
0	0x3f80099c	1.0002933
1	0x3f7ff63d	0.99985105
2	0x3f8002d2	1.0000861
3	0x3f7fe9bd	0.9996603
4	0x3f8006b2	1.0002043
5	0x3f7ffe4d	0.9999741
6	0x3f801a5d	1.0008045
7	0x3f8015f7	1.0006703
8	0x3f7feb55	0.99968463
9	0x3f800d17	1.0003995
10	0x3f7fcb1f	0.99919313
11	0x3f800169	1.000043
12	0x3f7ff18e	0.9997796
13	0x3f7fd2cc	0.99931026
14	0x3f800441	1.0001298
15	0x3f7ff3ee	0.9998158

conv_block_4.3.bias f4 [16]
0	0xb95a2ad4	-0.00020806055
1	0xb99f7017	-0.00030410357
2	0x398ee440	0.0002725441
3	0x3a1c6506	0.00059659814
4	0xba75fa3f	-0.0009383298
5	0x398cbc81	0.00026843327
6	0x3a02f546	0.0004995655
7	0x3a852251	0.0010157322
8	0xb9d32490	-0.00040272297
9	0x39cb0403	0.00038722166
10	0xb91dbdc2	-0.00015043377
11	0x38b250ea	8.502773e-05
12	0xb7b3efce	-2.145013e-05
13	0xba0a0c6f	-0.0005266135
14	0xb7a7e60e	-2.0015079e-05
15	0x3aa61119	0.001266989

conv_block_4.3.running_mean f4 [16]
0	0xbe45ecaa	-0.19328561
1	0x3dc63301	0.09677697
2	0x3d96578f	0.07340919
3	0xbd789098	-0.06068477
4	0x3e2c3081	0.16815378
5	0xbee050cb	-0.4381164
6	0xbd82ea0e	-0.06392299
7	0xbe5c8028	-0.21533263
8	0x3eab4a6a	0.3345521
9	0x3d60d15a	0.054887153
10	0x3e1c3c2c	0.15257329
11	0xbe13dd22	-0.14439824
12	0xbd03a383	-0.03213836
13	0xbe1a8fbd	-0.15093894
14	0x3e736ca4	0.23771912
15	0xbd9e11af	-0.07718217

conv_block_4.3.running_var f4 [16]
0	0x3e5cb4d2	0.21553352
1	0x3e83312f	0.25623462
2	0x3ea62602	0.32450873
3	0x3e8180c9	0.25293568
4	0x3e784ffb	0.2424926
5	0x3e8a0786	0.26958865
6	0x3e67b969	0.22629322
7	0x3e801596	0.2501647
8	0x3e65985f	0.22421406
9	0x3eaff6c6	0.3436796
10	0x3eed9f95	0.46410814
11	0x3e9fe4b5	0.31229177
12	0x3e900a0b	0.28132662
13	0x3e86678b	0.26250872
14	0x3e81468a	0.2524913
15	0x3e713793	0.23556356

conv_block_4.5.weight f4 [16, 16, 3, 3]
0	0x3c8e2874	0.017353274
1	0x3bcb8f57	0.006212156
2	0x3d9c3af7	0.07628434
3	0xbc0ec957	-0.008714995
4	0xbbebac17	-0.0071921456
5	0xbd2f4731	-0.042792503
6	0x3c7c58d6	0.0154020395
7	0xbd8c1946	-0.06840758
8	0x3d9fb1e9	0.077976055
9	0xbbb43b33	-0.005500221
10	0x3cbbca86	0.02292372
11	0xbc65e20b	-0.014030944
12	0x3d1828dd	0.037148345
13	0x3bfe69da	0.0077640833
14	0x3c40b39d	0.011761573
15	0x3cc6c5e4	0.024264283
16	0x3d6fef76	0.058577977
17	0x3c9d4982	0.01920009
18	0xbd7df1f5	-0.061998326
19	0xbda06291	-0.078313
20	0x3da2adcd	0.07943306
21	0x3cbcbd07	0.023039354
22	0x3d9d92e7	0.07694035
23	0xbd364ccf	-0.044506844
24	0xbd45ac44	-0.04825999
25	0x3b8ce0f9	0.00429928
26	0x3d585adf	0.052821036
27	0x3caf12e4	0.021371312
28	0x3be1cf2a	0.006891151
29	0x3cbac911	0.022800954
30	0x3d8dfe05	0.06933216
31	0xbc9e8c85	-0.019354114
32	0x3d95c2cd	0.07312546
33	0x3d138496	0.036015116
34	0x3d4aa87e	0.049477093
35	0xbd93bace	-0.072133645
36	0xbc7db7ab	-0.015485684
37	0xbcec3fa4	-0.02883894
38	0xbd03450a	-0.032048263
39	0xbd35e69e	-0.044409387
40	0xbd94cda1	-0.07265783
41	0x3d58694f	0.052834805
42	0xbd730fc4	-0.059341207
43	0x3d86e4f6	0.065866396
44	0xbd2884f2	-0.04114241
45	0x3c791d64	0.015204761
46	0x3bf43f49	0.0074538332
47	0xbd12d35c	-0.0358461
48	0x3d7bf4e4	0.061512843
49	0xbc94492d	-0.0181013
50	0x3d2ed3af	0.042682346
51	0x3cc04897	0.023472114
52	0xbda58de9	-0.08083708
53	0x3b262aac	0.0025355024
54	0x3d4c12c7	0.049822595
55	0xbc2906f8	-0.010316603
56	0xbb211b5f	-0.0024582965
57	0x3d01452a	0.0315601
58	0x3d84fa84	0.064930946
59	0xbd4eebfc	-0.05051802
60	0x3d67923e	0.05653595
61	0xbd247cca	-0.04015807
62	0xbd9a15ff	-0.07523727
63	0xbd78b67f	-0.060720917
64	0x3c442443	0.011971536
65	0xbd56a854	-0.052406624
66	0x3d320786	0.043464206
67	0x3d509e21	0.050932053
68	0x3d5d78ec	0.0540704
69	0x3cae7437	0.02129565
70	0xbda4db5e	-0.080496535
71	0x3c21cf34	0.009876061
72	0xbd33e145	-0.043916006
73	0x3d9ab161	0.075533636
74	0xbc6f828b	-0.014618526
75	0xbc552bf4	-0.0130109675
76	0x3d9751d7	0.073886566
77	0xbd97fdae	-0.074214324
78	0xbd9fb2e1	-0.0779779
79	0xbd3102ca	-0.04321555
80	0xbda44c8b	-0.08022412
81	0x3ca32d77	0.01991914
82	0x3c404816	0.011735937
83	0xbd3eeaba	-0.04661057
84	0x3d00da65	0.031458277
85	0xbda218aa	-0.079148605
86	0x3cb56036	0.022140604
87	0xbd8701a6	-0.06592111
88	0x3d07c683	0.0331483
89	0xbd0c3b88	-0.03423646
90	0x3d8bf8a0	0.06834531
91	0x3da9b28b	0.082860075
92	0xbda38209	-0.079837866
93	0xbccea0ff	-0.025223253
94	0x3d3bec4e	0.045879655
95	0x3c684efc	0.014178988
96	0x3d2bef64	0.041976348
97	0x3d9c49af	0.076312415
98	0x39bf5a08	0.00036497437
99	0x3cbd137d	0.023080582
100	0x3c11d8e6	0.00890181
101	0x3c4eee67	0.012630082
102	0xbcd9b569	-0.02657576
103	0xbd9dddda	-0.077083305
104	0x3d5f5886	0.054527782
105	0x3d5e1a73	0.054224443
106	0xbda0b855	-0.078476585
107	0xbd77dabc	-0.060511336
108	0xbd0f401c	-0.03497325
109	0xbd87d73b	-0.06632849
110	0x3ca35844	0.01993955
111	0x3d61594d	0.055016804
112	0xbd33051f	-0.043706056
113	0x3cd6689c	0.026172929
114	0xbda62def	-0.0811423
115	0x3d9307fe	0.07179259
116	0x3d288422	0.041141637
117	0x3b6f9ec9	0.003656315
118	0x3cc45d04	0.023970135
119	0x3da8d2d4	0.08243337
120	0xbda10588	-0.07862383
121	0xbc9ede0e	-0.019392993
122	0xba9ce406	-0.0011969812
123	0xbd3f95ff	-0.046773907
124	0xbc20f7b9	-0.009824687
125	0xbc3bd75a	-0.011464918
126	0x3c7bd242	0.015369954
127	0xbd527000	-0.051376343
128	0xbce179bb	-0.027523866
129	0x3d3bfc7f	0.045895096
130	0x3da7d374	0.08194628
131	0x3ca04a5c	0.019566707
132	0xbd54b45e	-0.051929824
133	0x3d668ec1	0.056288484
134	0x3d6c82da	0.057741977
135	0xbd2516f6	-0.0403051
136	0x3d95ecd2	0.073205605
137	0xbd15c26f	-0.03656238
138	0x3cfacf85	0.030616531
139	0x3ca274c4	0.019831069
140	0xbda73b3b	-0.08165594
141	0x3c40c0d4	0.011764724
142	0x3cd9edeb	0.026602706
143	0x3d31494f	0.043282803
144	0x3d8476cd	0.06467972
145	0x3d273cd4	0.040829495
146	0xbdaa8480	-0.083260536
147	0x3d0b6712	0.034033842
148	0xbd8665f0	-0.06562412
149	0xbd719906	-0.058983825
150	0x3d283bc5	0.041072626
151	0x3da8aa99	0.08235664
152	0x3d6ea8ad	0.05826633
153	0xbda810e5	-0.082063474
154	0x3d250168	0.040284544
155	0x3d148fb2	0.03626985
156	0x3d19c80c	0.037544295
157	0x3cdde6ee	0.027087655
158	0x3cc9968e	0.024607923
159	0x3c88b94b	0.016689917
160	0x3caaf764	0.020869918
161	0xbc322e14	-0.010875244
162	0xbae2c3e0	-0.0017300807
163	0x3d3d6fd9	0.046249244
164	0x3b29cb90	0.0025908686
165	0x3ad37973	0.0016134217
166	0x3d0e179b	0.03469048
167	0xbca22f2f	-0.01979789
168	0xbb7ab3aa	-0.003825406
169	0x3d8156ca	0.06315382
170	0x3d79a181	0.060945038
171	0x3cb9684a	0.022632737
172	0x3966fee6	0.00022029466
173	0x3cf521c6	0.029923331
174	0xbd57df28	-0.052703053
175	0x3d27a37b	0.04092739
176	0xbd885ae0	-0.06657958
177	0x3b42d226	0.002972731
178	0x3d2db38e	0.042407565
179	0x3c04e07a	0.00811016
180	0x3d0a81ab	0.033815067
181	0x3ce59ef7	0.028029902
182	0x3c225691	0.009908334
183	0x3d0e72a3	0.034777295
184	0xbd7b1239	-0.061296675
185	0x3d9542c4	0.07288125
186	0x3d7d08e4	0.061776057
187	0x3cd76f47	0.026298178
188	0xbd6a52c7	-0.05720785
189	0x3c5d151e	0.013493804
190	0xbd87de44	-0.06634191
191	0xbc6885d7	-0.014192066
192	0x3d0bd461	0.034138087
193	0xbd17f304	-0.037096992
194	0x3bd9b108	0.006643418
195	0x3d741e67	0.059599306
196	0x3c4f2d95	0.012645145
197	0xbce4f0ff	-0.027946947
198	0x3d485fef	0.048919614
199	0xbd4ec843	-0.050483953
200	0x3da75c6b	0.08171924
201	0x3d43ef7a	0.047835805
202	0x3d487051	0.04893524
203	0x3d67ce58	0.05659327
204	0x3c71b12d	0.014751715
205	0xbb3a44a3	-0.0028422258
206	0x3c9fc1b5	0.019501546
207	0x3cadfde9	0.021239238
208	0x3d2d1287	0.042253997
209	0xbcf4ba57	-0.02987401
210	0xbd3ef10c	-0.0466166
211	0xbc2e8dee	-0.010653956
212	0x3cfce0da	0.030868936
213	0x3d923cd3	0.071405075
214	0x3c54226d	0.012947661
215	0x3c85b211	0.01632026
216	0x3ceef1d3	0.029168045
217	0xbd5b34b0	-0.053517044
218	0x3d417386	0.047229312
219	0xbd0f3fff	-0.03497314
220	0xbcecfedb	-0.028930118
221	0x3d40188a	0.046898402
222	0x3d839745	0.06425337
223	0xbcf3d000	-0.029762268
224	0x3b77bf62	0.0037803282
225	0x3d20c5aa	0.039251007
226	0x3d57bf1d	0.052672494
227	0x3d386a30	0.045023143
228	0xbcf0e0cd	-0.029404068
229	0xbd19aa02	-0.037515648
230	0xbc9f9f05	-0.019485006
231	0xbb0634f4	-0.002047834
232	0x3d6a1cc5	0.057156343
233	0xbd1011b6	-0.03517314
234	0x3c371c88	0.011176236
235	0xbcbd88d5	-0.023136536
236	0xbd93a63e	-0.072094426
237	0x3c8bbee5	0.017058799
238	0xbda777d3	-0.081771515
239	0xbd097e70	-0.033567846
240	0x3d547ac1	0.05187488
241	0x3d1006f5	0.035162885
242	0x3d901670	0.070355296
243	0x3d070f2a	0.032973446
244	0xbd464f15	-0.048415262
245	0x3cf6792d	0.030087078
246	0x3c0cae58	0.008586489
247	0xbbeae1ea	-0.0071680443
248	0xbc29ea54	-0.01037081
249	0x3d8fab0a	0.07015045
250	0xbd3df6c6	-0.04637792
251	0x3d89f4a2	0.06736113
252	0x3cfd19ec	0.03089615
253	0xbc9abc01	-0.018888475
254	0xbd1e198e	-0.03859859
255	0xbc52eae4	-0.012873385

conv_block_4.5.bias f4 [16]
0	0x3bed7464	0.007246541
1	0x3c792f85	0.015209083
2	0xbd9c40ff	-0.076295845
3	0x3cbe213c	0.023209207
4	0xbd9e14af	-0.07718789
5	0x3c9154b1	0.01774058
6	0x3da10cc4	0.07863763
7	0xbd0a86e9	-0.033820067
8	0x3cc341b9	0.02383505
9	0xbd2346c2	-0.0398624
10	0xbc9f0393	-0.019410884
11	0x3ce5c197	0.028046412
12	0x3d51f97c	0.051263317
13	0x3d177ae5	0.036982436
14	0xbc87f574	-0.016596533
15	0x3c53fca8	0.012938656

conv_block_5.0.weight f4 [16]
0	0x3f7fe00b	0.9995124
1	0x3f7ff3bb	0.9998128
2	0x3f7fc409	0.999085
3	0x3f800330	1.0000973
4	0x3f7fad20	0.9987354
5	0x3f7ff438	0.99982023
6	0x3f801dba	1.0009072
7	0x3f7fecda	0.9997078
8	0x3f801b26	1.0008285
9	0x3f800193	1.000048
10	0x3f800d5b	1.0004076
11	0x3f7fdd39	0.99946934
12	0x3f80184e	1.0007417
13	0x3f7fb810	0.9989023
14	0x3f7fffee	0.9999989
15	0x3f801497	1.0006284

conv_block_5.0.bias f4 [16]
0	0xba42fa15	-0.0007437778
1	0x385a6e14	5.207777e-05
2	0xba23e23b	-0.00062516675
3	0x39c3904f	0.00037300817
4	0xba0496db	-0.00050578796
5	0x39879ffe	0.0002586841
6	0x3925129d	0.0001574256
7	0xb8cdbe77	-9.8106386e-05
8	0x39c2d198	0.00037158723
9	0x39f61e68	0.0004694343
10	0x38663f08	5.4894976e-05
11	0xb95e6dfa	-0.0002121254
12	0x39136966	0.00014058276
13	0xba55c54f	-0.00081547064
14	0x39b6b35c	0.00034847378
15	0x3a637bd8	0.0008677817

conv_block_5.0.running_mean f4 [16]
0	0x3e62602d	0.22107
1	0x3f11af5d	0.5690821
2	0xbdbcfbf1	-0.092277415
3	0x3eb8586a	0.36004955
4	0xbd8840b9	-0.0665297
5	0xbcc5e56a	-0.024157245
6	0x3e2ff5d0	0.17183614
7	0x3e497f54	0.19677478
8	0x3e88c89a	0.26715547
9	0xbe442456	-0.19154486
10	0x3d3302bb	0.043703776
11	0x3ec78c75	0.38974348
12	0x3e69e38f	0.22840713
13	0x3e81c8df	0.25348565
14	0xbd80f61e	-0.06296943
15	0x3e9de22b	0.30836615

conv_block_5.0.running_var f4 [16]
0	0x3e60557c	0.2190761
1	0x3ed7acff	0.42124173
2	0x3e49d046	0.19708356
3	0x3e59cbd1	0.21269156
4	0x3e4506a3	0.19240813
5	0x3e46cc53	0.19413881
6	0x3e498427	0.19679318
7	0x3e363ae4	0.17795902
8	0x3e4b6eae	0.1986644
9	0x3e6ed646	0.23323926
10	0x3e2c2ef0	0.1681478
11	0x3ea670a8	0.32507825
12	0x3e67931a	0.22614709
13	0x3e910131	0.2832122
14	0x3e38d434	0.18049699
15	0x3e44c5bd	0.19216056

conv_block_5.2.weight f4 [32, 16, 3, 3]
0	0x3c6eab7e	0.014567254
1	0x3da74a78	0.08168501
2	0x3d5b94e6	0.053608797
3	0xbc131f53	-0.008979636
4	0xbd46648e	-0.04843574
5	0xbd1c1815	-0.038108904
6	0xbd132f9a	-0.03593407
7	0x3d08cd80	0.033399105
8	0x3da1592b	0.078783356
9	0xbd083ceb	-0.03326122
10	0xbd9a62e0	-0.0753839
11	0x3d64df59	0.055877063
12	0x3d86508b	0.06558331
13	0xbd03240d	-0.032016803
14	0xbd2acd9a	-0.041699983
15	0x3d56b7e2	0.052421458
16	0xbd9a6baf	-0.0754007
17	0xbd544442	-0.05182291
18	0xbda79fa9	-0.0818475
19	0x3b5ef306	0.0034019365
20	0x3c8500f6	0.01623581
21	0x3c8e15f4	0.017344452
22	0x3d99b333	0.07504883
23	0x3c82ccdb	0.015966823
24	0x3d0e901d	0.034805406
25	0xbbecd15c	-0.007227106
26	0x3d89d4f2	0.06730069
27	0x3d32c123	0.04364122
28	0x3d907772	0.070540324
29	0xbca13828	-0.019680098
30	0x3cb41f8b	0.021987697
31	0x3cb0cfff	0.021583555
32	0xbd3de920	-0.046364903
33	0xbda2dca4	-0.0795224
34	0x3cdb2bba	0.026754249
35	0xb9ea9209	-0.00044740763
36	0xbc8a2d16	-0.016867202
37	0x3cd24931	0.025669666
38	0x3cd6cb4b	0.026219985
39	0x3bbad0a2	0.0057011405
40	0x3d957412	0.07297529
41	0xbda7ad15	-0.0818731
42	0x3c9b7589	0.018976944
43	0x3c157732	0.009122657
44	0xbb73bf84	-0.003719301
45	0x3da5342f	0.08066594
46	0x3d62f58c	0.055409953
47	0x3d86bd9b	0.06579133
48	0xbd73b4ef	-0.059498724
49	0x3c9f0ea3	0.019416159
50	0xbc714984	-0.014727
51	0x3d8a3d83	0.06750014
52	0x3ca25946	0.01981796
53	0xbd7b9ce1	-0.06142891
54	0xbd3cc7d5	-0.046089012
55	0xbd7429a2	-0.059610017
56	0x3d92ace0	0.071618795
57	0xbd0c883e	-0.03430962
58	0x3b8d45d3	0.004311302
59	0xbd468192	-0.04846341
60	0xbd8e42b1	-0.06946314
61	0x3d4db356	0.050219856
62	0x3d64eac2	0.055887945
63	0xbc940665	-0.018069455
64	0x3cb669fc	0.022267334
65	0x3d12defe	0.035857193
66	0x3d9514d3	0.072793625
67	0xbd773823	-0.06035627
68	0x3ba63531	0.005072259
69	0x3ce16272	0.027512763
70	0xbba20db5	-0.0049454817
71	0x3d41a17f	0.047273155
72	0x3d973e72	0.073849574
73	0xbd7cbb14	-0.06170185
74	0x3d826810	0.063675046
75	0x3d531603	0.051534664
76	0xbd814a0d	-0.06312952
77	0x3d8153c1	0.06314803
78	0xbd7a26e8	-0.06107226
79	0xbd1f4079	-0.038879845
80	0x3d4bd8ea	0.049767412
81	0xbd652e3b	-0.055952292
82	0xbd83bce6	-0.06432514
83	0xbd872556	-0.06598918
84	0xbcff12e4	-0.031136937
85	0xbb6bb1ab	-0.0035964053
86	0x3d6b5ec2	0.057463415
87	0xbd373e63	-0.04473723
88	0xbb71aeed	-0.0036877946
89	0x3cf760cb	0.030197522
90	0x3cf96acd	0.030446434
91	0x3bab7f00	0.0052336454
92	0x3c275173	0.01021229
93	0x3d065fdc	0.032806262
94	0x3d0b42c2	0.033999212
95	0xbce85fae	-0.028365936
96	0xbd8632d0	-0.065526605
97	0x3d8dc405	0.069221534
98	0xbd8a4d12	-0.06752981
99	0x3d3c552a	0.045979656
100	0xbd3cbabb	-0.046076518
101	0x3d1348d2	0.03595812
102	0x3ba84cdc	0.0051361155
103	0xbcbe854f	-0.023256926
104	0x3ca040a0	0.019562066
105	0xbd4646f2	-0.048407502
106	0x3d8bc416	0.0682451
107	0xbca2d67b	-0.019877663
108	0xbc2c5043	-0.010517183
109	0xbc479819	-0.012182259
110	0xbd1bd776	-0.038047276
111	0xbd40556f	-0.046956476
112	0x3cb016df	0.02149528
113	0xbd8fc54a	-0.07020052
114	0x3ccb35f5	0.024806002
115	0xbd17c92b	-0.037057083
116	0xbcece71e	-0.028918799
117	0xba9c4573	-0.0011922553
118	0x3cd9dcc0	0.02659452
119	0xbc6ad83e	-0.014333783
120	0xbcae8da2	-0.02130777
121	0x3ae6d81e	0.0017612015
122	0xb9cdd4d5	-0.0003925922
123	0x3d8971e5	0.06711177
124	0xbc808807	-0.015689863
125	0xbd0e2996	-0.03470763
126	0xbd1d2e3e	-0.038374178
127	0xbd6c3b51	-0.057673756
128	0xbc436ec0	-0.01192826
129	0xbbb3e9b2	-0.005490505
130	0x3d2396b6	0.03993865
131	0xbc1e911c	-0.009678151
132	0x3d859502	0.065225616
133	0xbd84e52e	-0.06489025
134	0xbc5b783c	-0.013395365
135	0xbda6df1f	-0.08148026
136	0x3d978da5	0.074000634
137	0xbd99a5be	-0.07502316
138	0x3d2c224c	0.042024896
139	0x3d8214dd	0.063516356
140	0xbc913ee4	-0.017730184
141	0xbb842a8a	-0.0040333914
142	0xbd439a0b	-0.04775433
143	0xbd587822	-0.052848943
144	0x3b3445b7	0.0027507374
145	0x3cb7c2c2	0.022431735
146	0xbda41758	-0.08012265
147	0xbd30d8d6	-0.04317554
148	0x3d2a726a	0.04161302
149	0x3da97249	0.08273751
150	0x3c3cec9a	0.01153102
151	0x3d6f897b	0.05848072
152	0x3da73c8d	0.08165846
153	0xbc0b1ed0	-0.008491233
154	0x3d747d52	0.059689827
155	0xbd344108	-0.04400733
156	0xbc2c7bec	-0.010527592
157	0xb984a82e	-0.00025302306
158	0xba789429	-0.0009482527
159	0xbc907c32	-0.017637346
160	0x3cf5560e	0.02994826
161	0x3c87af00	0.016562939
162	0xbda13508	-0.07871443
163	0xbcaaf8bf	-0.020870565
164	0x3be291f9	0.006914374
165	0xbca97c69	-0.020689206
166	0x3d7d0128	0.06176868
167	0x3daa6d69	0.083216496
168	0x3d3ec662	0.04657591
169	0xbd76e055	-0.060272533
170	0x3d2ce2dc	0.042208537
171	0xbd6d13eb	-0.057880323
172	0x3d8fcd5c	0.07021591
173	0x3d9b8d65	0.07595328
174	0xbc931549	-0.017954485
175	0x3da51897	0.08061331
176	0xbd124e38	-0.035719126
177	0xbd0f007b	-0.034912568
178	0xbcd8a9cf	-0.026448159
179	0xbcff6bad	-0.031179274
180	0xbc471b62	-0.012152525
181	0xbd9aaa22	-0.075519815
182	0x3d8a048d	0.06739149
183	0x3d37e811	0.04489905
184	0xbd54d058	-0.051956505
185	0xbd9cd118	-0.07657069
186	0xbd578ac4	-0.05262257
187	0x3d515d64	0.051114455
188	0xbd1c790c	-0.038201377
189	0xbc84150e	-0.01612332
190	0x3d13e375	0.03610559
191	0x3d295067	0.041336443
192	0x3d7279ba	0.05919812
193	0x3c38e735	0.011285593
194	0x3d97f6d5	0.07420126
195	0x3ba9c80c	0.005181318
196	0xbc934344	-0.01797641
197	0xbd4b0984	-0.04956962
198	0x3d6ebb23	0.058283936
199	0xbd945302	-0.07242395
200	0xbd77c3a4	-0.06048931
201	0xbb97e910	-0.0046359375
202	0x3c634da9	0.013873496
203	0xbda56056	-0.08075015
204	0x3d8ff507	0.07029157
205	0xbd8fedc2	-0.070277706
206	0xbbdc1d51	-0.006717362
207	0xbd7e8c70	-0.06214565
208	0x3ce3ef03	0.02782393
209	0x3d5c509d	0.053787816
210	0x3d1ca87d	0.03824662
211	0xbd453862	-0.048149474
212	0xbb5a1086	-0.003327401
213	0xbd23936f	-0.039935526
214	0x3ce26edb	0.02764075
215	0xbd829509	-0.063760825
216	0x3c9b8081	0.018982174
217	0xbcc55134	-0.024086572
218	0x3d8acc31	0.06777228
219	0x3d3feb07	0.046855
220	0xbd08ad67	-0.033368494
221	0x3d8b3202	0.067966476
222	0x3c9be5b8	0.019030437
223	0x3ce36e46	0.027762543
224	0xbd10a277	-0.03531119
225	0x3d96efda	0.07369967
226	0xbcfeb6c7	-0.031093014
227	0x3d90fe97	0.07079809
228	0x3d8fbf47	0.07018905
229	0x3c3eb5fe	0.01164007
230	0x3c6536cb	0.013990114
231	0xbcf48910	-0.029850513
232	0x3cdc102f	0.026863186
233	0xbb9a7902	-0.0047141323
234	0x3d99a098	0.07501334
235	0xbbb40259	-0.005493444
236	0x3ca5d747	0.020244254
237	0x3d33bfda	0.043884136
238	0x3d9fd4fb	0.07804295
239	0x3b643a35	0.0034824733
240	0xbd8f0378	-0.069830835
241	0x3ce3d399	0.027810859
242	0x3d81b41e	0.06333183
243	0xbcf2f429	-0.02965744
244	0xbd05cea7	-0.032667782
245	0x3cee1ccd	0.029066468
246	0xbda58153	-0.08081307
247	0xbd5f5490	-0.054524004
248	0x3d8c854c	0.06861362
249	0xbd5ba41d	-0.053623307
250	0xbc86d74c	-0.016460083
251	0x3c940423	0.018068379
252	0x3d81f00f	0.06344616
253	0x3d90d7e1	0.07072426
254	0x3da41686	0.080121085
255	0x3d9fa0b6	0.07794325
