cloud-detection-code/tests/test_artifacts/test_log_dice_loss/model_checkpoint_5.pt (torch, 439769 bytes, 347 tensors)

input_conv_block.0.weight f4 [3]
0	0x3f80016b	1.0000433
1	0x3f800a50	1.0003147
2	0x3f7ff109	0.99977165

input_conv_block.0.bias f4 [3]
0	0x3853e20c	5.0516843e-05
1	0xb9ebfad2	-0.0004500957
2	0xb964d387	-0.00021822574

input_conv_block.0.running_mean f4 [3]
0	0x3ed2af20	0.41149235
1	0x3ed09236	0.4073655
2	0x3eb1100d	0.34582558

input_conv_block.0.running_var f4 [3]
0	0x3d91f2bc	0.07126376
1	0x3d8aecd1	0.067834504
2	0x3d851bfe	0.0649948

input_conv_block.2.weight f4 [2, 3, 1, 1]
0	0xbeb48865	-0.3526031
1	0xbf02456d	-0.50887185
2	0x3eea5321	0.45766547
3	0xbed9e5ad	-0.4255804
4	0x3ea38fc8	0.31945634
5	0x3eb9c581	0.36283496

conv_block_1.0.weight f4 [2]
0	0x3f7f7faf	0.99804205
1	0x3f804027	1.0019578

conv_block_1.0.bias f4 [2]
0	0xbadc6cd4	-0.0016817101
1	0xb9944d21	-0.00028286225

conv_block_1.0.running_mean f4 [2]
0	0xbe2c62ff	-0.16834639
1	0x3db53412	0.08847822

conv_block_1.0.running_var f4 [2]
0	0x3deb6cbd	0.114953496
1	0x3dc3b1d1	0.095554

conv_block_1.2.weight f4 [2, 2, 3, 3]
0	0xbd98c3b9	-0.07459206
1	0xbe492160	-0.19641638
2	0x3d979b4c	0.074026674
3	0xbe154bd8	-0.14579713
4	0xbe367da4	-0.17821366
5	0x3d51dc3b	0.05123542
6	0x3d184ae9	0.037180815
7	0xbe356dae	-0.1771762
8	0xbe62ad1a	-0.22136346
9	0x3d29a2e0	0.041415095
10	0x3dac7a6f	0.0842179
11	0x3d249c27	0.04018798
12	0xbdc6da39	-0.097095914
13	0x3dd0a903	0.101884864
14	0x3ddf8bbc	0.10915324
15	0xbda6953b	-0.08133932
16	0x3dc10db6	0.09426443
17	0xbd3cb3ef	-0.046070036
18	0x3e00abea	0.1256558
19	0x3dbc9f8d	0.092101194
20	0xbe5f1e9f	-0.21789025
21	0xbdc62bdb	-0.096763335
22	0xbe21f4f6	-0.15816101
23	0xbe67df23	-0.22643714
24	0xbe556170	-0.2083795
25	0xbe010c2f	-0.12602304
26	0x3dc9b053	0.09848084
27	0xbe20225e	-0.1563811
28	0x3db20dfc	0.086940736
29	0xbda52fb8	-0.08065742
30	0xbd9a48e3	-0.07533433
31	0x3e311204	0.17292029
32	0x3d84d530	0.06485975
33	0xbe657d5e	-0.22411105
34	0x3e45febc	0.19335455
35	0xbe17fc96	-0.14842448

conv_block_1.2.bias f4 [2]
0	0x3e6c336b	0.2306649
1	0x3e11e7e3	0.14248614

conv_block_1.3.weight f4 [2]
0	0x3f8021a9	1.0010272
1	0x3f7fbcac	0.99897265

conv_block_1.3.bias f4 [2]
0	0xba45064a	-0.0007515891
1	0xba98eb5e	-0.0011666825

conv_block_1.3.running_mean f4 [2]
0	0xbcafed0d	-0.02147534
1	0xbe4a54d1	-0.19758917

conv_block_1.3.running_var f4 [2]
0	0x3e312305	0.17298515
1	0x3df65d0d	0.12029467

conv_block_1.5.weight f4 [2, 2, 3, 3]
0	0x3e421e7a	0.18956938
1	0x3e1d9e3d	0.15392394
2	0x3d1cf4c1	0.038319353
3	0x3e70928e	0.23493406
4	0xbcb0f1ac	-0.021599613
5	0x3e3931f0	0.18085456
6	0x3e5ebf3f	0.21752642
7	0xbdf1fdc6	-0.118159816
8	0xbd5b511b	-0.053544145
9	0xbe3d5d71	-0.18492676
10	0xbdf0485e	-0.11732553
11	0xbd9d7b40	-0.07689524
12	0x3e6d3116	0.23163256
13	0xbd29a9ea	-0.04142181
14	0xbc03bc53	-0.008040505
15	0x3e485a45	0.19565685
16	0x3ce0d065	0.02744312
17	0xbe20f2c0	-0.15717602
18	0x3d896872	0.067093745
19	0x3e646bb1	0.22306706
20	0xbd17d8e5	-0.03707208
21	0x3dd8a9f6	0.105792925
22	0xbde3ce5e	-0.11123346
23	0x3e39154d	0.18074532
24	0xbd8fd927	-0.070238404
25	0xbd708801	-0.058723453
26	0xbdff1a4b	-0.12456187
27	0x3e028181	0.12744714
28	0x3e1251d5	0.14289029
29	0xbd0d3c7d	-0.034481514
30	0x3e04bc41	0.12962438
31	0xbd6b1bc7	-0.057399537
32	0x3e013729	0.12618698
33	0xbd818a6b	-0.06325229
34	0xbe3ccaac	-0.18436688
35	0xbd94212e	-0.07232891

conv_block_1.5.bias f4 [2]
0	0xbe217d71	-0.15770508
1	0xbc92042c	-0.017824255

conv_block_2.0.weight f4 [2]
0	0x3f7fe892	0.9996425
1	0x3f800bb5	1.0003573

conv_block_2.0.bias f4 [2]
0	0xbab58082	-0.0013847502
1	0xb9a9a93f	-0.0003236029

conv_block_2.0.running_mean f4 [2]
0	0x3e77c20d	0.24195118
1	0x3e3ac15f	0.18237828

conv_block_2.0.running_var f4 [2]
0	0x3ebb25f0	0.36552382
1	0x3dbc12c6	0.09183268

conv_block_2.2.weight f4 [4, 2, 3, 3]
0	0xbe2b1b0e	-0.1670954
1	0x3ca77b0b	0.020444414
2	0x3d8122f4	0.06305495
3	0x3dbc6f58	0.09200925
4	0x3e16d573	0.14729862
5	0xbd119606	-0.035543464
6	0xbc5e7313	-0.0135772405
7	0xbd0d0eb8	-0.034437865
8	0xbe678c69	-0.22612156
9	0x3e0f1ef7	0.13976656
10	0x3e36ff90	0.17870927
11	0x3dba2ccd	0.09090576
12	0x3dc203aa	0.09473355
13	0x3e1e80fa	0.15478888
14	0xbe560305	-0.2089959
15	0x3e028df0	0.12749457
16	0xbd9a481a	-0.075332835
17	0x3e1168dd	0.14200158
18	0xbdd340af	-0.10315072
19	0x3e4cfc20	0.20018053
20	0x3af6dd03	0.0018834177
21	0xbcf4ad1e	-0.029867705
22	0x3e66506e	0.22491619
23	0x3e247282	0.16059306
24	0x3e6737b8	0.22579849
25	0xbde5bca4	-0.11217621
26	0x3e5ecd23	0.21757941
27	0x3d996722	0.07490374
28	0x3e4ac3df	0.19801281
29	0xbe6e36bb	-0.23263066
30	0x3de8a053	0.113587044
31	0x3de6d650	0.112713456
32	0x3e3cf9df	0.18454693
33	0x3d28922f	0.041155037
34	0x3de333be	0.110938534
35	0x3e6f9e3d	0.23400207
36	0xbc1e40f6	-0.009659043
37	0x3e46e2b4	0.19422418
38	0x3b9e0fc9	0.004823659
39	0xbe4cb3d4	-0.19990474
40	0xbe201ab1	-0.15635182
41	0x3e550d7b	0.20805924
42	0x3e329ebf	0.1744337
43	0x3c6e0f01	0.014529944
44	0xbe17df0d	-0.14831181
45	0xbd60bbdb	-0.054866653
46	0x3e36c90f	0.17850135
47	0x3e0ce3f8	0.13758838
48	0xbdc59531	-0.09647597
49	0xbe266b78	-0.16251934
50	0xbe4dd3d1	-0.20100333
51	0xbdb10c3e	-0.08644913
52	0xbe426f45	-0.18987758
53	0xbcf7a269	-0.03022881
54	0x3d80ae81	0.06283284
55	0x3e6b536d	0.22981043
56	0x3e1395ec	0.1441266
57	0xbe114e39	-0.14189996
58	0xbe468e55	-0.19390233
59	0xbe45d060	-0.1931777
60	0x3e4f9013	0.20269804
61	0xbe286795	-0.16445763
62	0x3cf830db	0.030296734
63	0xbe517a68	-0.2045685
64	0x3e40f675	0.18844016
65	0x3d823c0a	0.06359108
66	0x3e6e04cf	0.23244022
67	0xbe11bd56	-0.14232382
68	0x3e060cb6	0.13090786
69	0xbe58560d	-0.21126576
70	0xbdaed688	-0.08537012
71	0xbe424f21	-0.18975498

conv_block_2.2.bias f4 [4]
0	0x3e3226b5	0.17397578
1	0xbd6351b7	-0.05549785
2	0xbc6e3f23	-0.01454142
3	0xbdbe4614	-0.0929071

conv_block_2.3.weight f4 [4]
0	0x3f8016f8	1.000701
1	0x3f7fefcd	0.9997528
2	0x3f7fe90d	0.9996498
3	0x3f7fe19d	0.99953634

conv_block_2.3.bias f4 [4]
0	0x39c132df	0.0003684973
1	0xba217d0a	-0.0006160295
2	0xb9e0b841	-0.0004286189
3	0x39e6b23f	0.00044001822

conv_block_2.3.running_mean f4 [4]
0	0x3ebbe5b6	0.36698693
1	0x3f0a0a13	0.5392162
2	0xbe3ec8e2	-0.18631318
3	0xbe3b1f03	-0.18273549

conv_block_2.3.running_var f4 [4]
0	0x3e1ef04b	0.15521352
1	0x3f86fb0c	1.0545363
2	0x3e22b1bd	0.15888114
3	0x3e1b9eb5	0.1519726

conv_block_2.5.weight f4 [4, 4, 3, 3]
0	0xbbd5c6b8	-0.0065239333
1	0xbe180355	-0.14845021
2	0xbe15735c	-0.14594787
3	0xbd95454c	-0.07288608
4	0xbe0f2dba	-0.13982287
5	0xbdbff6b4	-0.09373227
6	0xbcb36d64	-0.021902747
7	0xbdf92410	-0.121650815
8	0x3e06ae38	0.13152397
9	0xbdc4442f	-0.095833175
10	0xbe0f8062	-0.14013818
11	0x3ca386ee	0.0199618
12	0x3daf1951	0.085497506
13	0xbd7f24e8	-0.062291056
14	0x3b78c84f	0.003796119
15	0x3d997c30	0.0749439
16	0x3d7bf04f	0.061508473
17	0x3dff3a7b	0.12462326
18	0xbdcb9e3d	-0.09942291
19	0xbd1daa9b	-0.03849278
20	0xbe2505cd	-0.16115494
21	0x3d6b2e32	0.057417102
22	0xbce15c71	-0.0275099
23	0x3d11d11a	0.035599805
24	0xbd93a29f	-0.07208752
25	0x3da9cea4	0.08291367
26	0x3c957364	0.0182435
27	0x3d805761	0.06266666
28	0x3dd7ef7f	0.10543727
29	0xbdd20529	-0.102548905
30	0x3dfb5613	0.12272277
31	0xbdf0e88f	-0.11763107
32	0x3e041fac	0.12902707
33	0x3e20fc06	0.1572114
34	0x3e1d0bb0	0.1533649
35	0x3dbadd51	0.09124244
36	0xbbe0a6f2	-0.006855839
37	0xbd774962	-0.060372718
38	0xbd6e560d	-0.058187533
39	0xbe04d6af	-0.1297252
40	0x3db5ef42	0.088835254
41	0x3e074113	0.13208418
42	0xbdbb6cb3	-0.09151592
43	0x3d9cd11d	0.07657073
44	0x3d4fb757	0.050711956
45	0xbdf20e26	-0.11819105
46	0xbd397801	-0.04528046
47	0x3da63935	0.0811638
48	0xbda809bb	-0.08204981
49	0x3e20961e	0.15682265
50	0x3db633c8	0.08896595
51	0xbe06516a	-0.13116995
52	0xbdb728a0	-0.089432955
53	0x3e05f930	0.13083339
54	0xbe09819d	-0.1342835
55	0xbe126db9	-0.14299668
56	0xbda3beb6	-0.079953596
57	0x3e14f1be	0.14545342
58	0x3e19acd0	0.15007329
59	0xbe160ef7	-0.14654146
60	0x3a88c950	0.0010435972
61	0x3d1b3999	0.037896726
62	0xbe235510	-0.15950418
63	0xbd60ab08	-0.054850608
64	0xbcd05a10	-0.02543357
65	0xbca9bb99	-0.020719336
66	0x3db7df47	0.08978134
67	0x3c9a5f1f	0.018844185
68	0xbd7fcc3c	-0.062450632
69	0x3c9e12bb	0.01929604
70	0x3d3532d1	0.044237915
71	0x3d6a4a76	0.057199918
72	0xbd283d7c	-0.04107426
73	0xbd37e139	-0.044892523
74	0x3cb8ea00	0.022572517
75	0xbdde969e	-0.10868572
76	0x3e144c22	0.14482167
77	0x3cb8913e	0.022530194
78	0xbdfce9ce	-0.12349282
79	0x3d19ea36	0.037576877
80	0x3d1e1c8c	0.038601443
81	0xbe14a7be	-0.14517114
82	0xbd8ae3dc	-0.06781742
83	0xbdb4f5e1	-0.0883596
84	0x3d88fe24	0.066890985
85	0xbdd18f44	-0.10232404
86	0xbd268f0c	-0.040663764
87	0xbe130eae	-0.14361069
88	0x3cef9180	0.029244184
89	0x3e13768b	0.1440069
90	0xbe276964	-0.16348797
91	0x3bcb8247	0.0062105986
92	0xbd45d5aa	-0.04829947
93	0xbccf467f	-0.02530217
94	0xbc534897	-0.012895725
95	0x3ba590ed	0.005052677
96	0x3df60103	0.12011912
97	0x3cf9f018	0.030509993
98	0x3dcb375a	0.09922667
99	0xbd9bb120	-0.07602143
100	0x3e283bfc	0.16429132
101	0x3da2ca3b	0.07948729
102	0x3d2e4842	0.04254938
103	0xbdc21ed4	-0.09478536
104	0x3be6c9dc	0.0070431065
105	0xbc84c6a3	-0.016207999
106	0x3c5a7a8c	0.0133348815
107	0x3c686fd1	0.014186815
108	0xbc9e7d4a	-0.019346852
109	0x3be9c291	0.00713379
110	0x3d7ee066	0.06222572
111	0xbddee109	-0.10882766
112	0xbe161c43	-0.14659218
113	0x3d79a166	0.060944937
114	0x3daa862b	0.08326372
115	0xbdc01132	-0.0937828
116	0xbd839d4a	-0.06426485
117	0x3cdd687c	0.027027361
118	0xbdacf792	-0.08445658
119	0xbe18992c	-0.1490218
120	0xbdc240a3	-0.09484985
121	0x3d935d9f	0.07195591
122	0x3ce2d801	0.02769089
123	0xbd67de2c	-0.056608364
124	0xbd8f3f3e	-0.06994484
125	0x3da335cd	0.07969246
126	0x3dea8c02	0.114524856
127	0xbc07f61a	-0.008298421
128	0x3d274178	0.04083392
129	0x3e2159f0	0.15756965
130	0xbdf320cd	-0.11871491
131	0xbc8902b8	-0.01672493
132	0xbdb7ae1a	-0.08968754
133	0xbd9fdb64	-0.07805517
134	0xbdfd0b08	-0.1235562
135	0xbe0b421e	-0.1359944
136	0xbd37a029	-0.044830475
137	0xbca3f95d	-0.020016367
138	0xbe14d5ea	-0.14534727
139	0x3dd5be50	0.1043669
140	0xbce15daa	-0.027510483
141	0x3d8eae06	0.06966786
142	0x3e04fc8d	0.12986965
143	0x3d880daa	0.06643231

conv_block_2.5.bias f4 [4]
0	0xbc80f759	-0.015742945
1	0xbd55d7fd	-0.052207936
2	0x3bd31d65	0.006442713
3	0xbdd4c549	-0.10389192

conv_block_3.0.weight f4 [4]
0	0x3f7fca20	0.99917793
1	0x3f802508	1.0011301
2	0x3f7fdc74	0.9994576
3	0x3f800437	1.0001286

conv_block_3.0.bias f4 [4]
0	0xbad5125d	-0.0016256083
1	0xba3b9af9	-0.00071565766
2	0x3995fca2	0.0002860772
3	0x39ebe43d	0.00044992744

conv_block_3.0.running_mean f4 [4]
0	0x3d5eb87e	0.054375164
1	0x3c7b0b77	0.015322558
2	0x3c3dc9dc	0.011583772
3	0xbe515512	-0.20442608

conv_block_3.0.running_var f4 [4]
0	0x3dbaea2f	0.09126698
1	0x3dfe79a6	0.12425546
2	0x3dbad216	0.09122102
3	0x3db1b1e4	0.08676508

conv_block_3.2.weight f4 [8, 4, 3, 3]
0	0xbd5d61f8	-0.05404851
1	0x3dfb99e4	0.12285212
2	0x3d90e9c3	0.070758365
3	0x3c3d8f1c	0.011569764
4	0x3da0bcfd	0.07848547
5	0x3e02c3a3	0.12769942
6	0x3ca30edb	0.019904545
7	0xbc3c2532	-0.011483477
8	0xbd69df1c	-0.05709754
9	0xbc83ddd9	-0.016096996
10	0xbdf14f6c	-0.11782727
11	0xbdc2fd49	-0.095209666
12	0x3e172a3c	0.14762205
13	0x3dde0477	0.10840695
14	0xbba676a9	-0.0050800634
15	0xbe1bc124	-0.15210396
16	0xbd190ca6	-0.037365578
17	0x3e01f14e	0.12689707
18	0xbe17e45a	-0.14833203
19	0xbe26614e	-0.16248056
20	0x3d8442e4	0.06458071
21	0x3df19820	0.11796594
22	0xbe27e107	-0.16394435
23	0xbdca4a51	-0.09877456
24	0x3d20006f	0.039062914
25	0xbdac8c86	-0.0842524
26	0xbd1d15d6	-0.038350902
27	0x3db519cc	0.08842811
28	0x3e288004	0.16455084
29	0x3e27b08a	0.16375938
30	0xbdad147d	-0.084511735
31	0xbac7f92a	-0.0015256752
32	0xbcc4a9d8	-0.024006769
33	0xbe1de11d	-0.15417905
34	0x3c81f86a	0.015865523
35	0xbdb29a00	-0.087207794
36	0x3da3a8ab	0.07991155
37	0x3e0008b2	0.12503317
38	0x3dbf35d7	0.09336441
39	0x3d6cb95a	0.057793953
40	0xbd88c5e1	-0.066783674
41	0xbdab5247	-0.083653025
42	0x3e102ba3	0.14079146
43	0x3de2632a	0.1105407
44	0xbdc5bbfc	-0.09654996
45	0xbcd7ca71	-0.026341649
46	0xbdea9428	-0.1145404
47	0xbd22b553	-0.039723706
48	0x3da1c5de	0.07899068
49	0x3e0e7ac5	0.1391402
50	0xbdb4be27	-0.08825331
51	0x3dbb56ee	0.0914744
52	0xbde9c0d8	-0.11413735
53	0xbe1a8246	-0.15088758
54	0xbdd66903	-0.10469248
55	0x3df098ee	0.11747919
56	0xbd8ecb14	-0.06972328
57	0xbdd2c054	-0.1029059
58	0x3db44693	0.088025235
59	0x3de5d300	0.11221886
60	0x3dda9f15	0.10674874
61	0xbe1b0125	-0.15137155
62	0xb9d482c6	-0.00040533225
63	0x3d4517a5	0.048118252
64	0x3ca06b30	0.019582361
65	0xbd622f54	-0.055220917
66	0x3d50ecc9	0.051007066
67	0x3d770d72	0.060315557
68	0xbca0b79a	-0.019618798
69	0xbdc9eeb1	-0.0985998
70	0x3e0f9415	0.14021333
71	0xbdcf653f	-0.10126733
72	0xbddb765d	-0.107159354
73	0x3dc2046d	0.094735004
74	0xbe128cf8	-0.14311588
75	0x3e291649	0.16512407
76	0xbe1cf825	-0.15329035
77	0xbc9bbb4e	-0.019010212
78	0xbe1e2a93	-0.15445928
79	0xbd4aec4f	-0.049541768
80	0x3ca2d2fb	0.019875994
81	0xbe0a51a0	-0.135077
82	0xbddfb875	-0.10923854
83	0x3e0875da	0.13326207
84	0x3d994992	0.074847355
85	0xbe10c7f9	-0.14138784
86	0x3b1ec469	0.0024225956
87	0xbd7a4bda	-0.061107494
88	0x3df2f734	0.118635565
89	0x3dd88fa6	0.10574274
90	0x3c6cab23	0.014445099
91	0x3e26b699	0.16280593
92	0xbd7fb896	-0.062431894
93	0x3d6c793c	0.057732806
94	0xbd1c131e	-0.03810417
95	0xbd77863f	-0.06043076
96	0xbcd197d1	-0.025585087
97	0x3ba5a69c	0.005055262
98	0xbbdaf077	-0.0066814977
99	0xbe01cd78	-0.12676036
100	0x3dcc5ae6	0.09978275
101	0xbdd2f313	-0.10300269
102	0xbd1787d2	-0.036994763
103	0xbd5f21f7	-0.05447575
104	0xbb34ddb3	-0.0027597963
105	0x3e02f38b	0.12788217
106	0xbdb71339	-0.08939213
107	0xbd1d931e	-0.03847038
108	0xbd62e4f7	-0.05539414
109	0xbe04bfc7	-0.12963782
110	0xbd9ccc0e	-0.07656108
111	0xbd3059c2	-0.04305435
112	0x3d9a6727	0.07539206
113	0xbcb00e6b	-0.02149125
114	0xbe29e8da	-0.16592732
115	0x3d3e3751	0.046439473
116	0xbd22c1fc	-0.03973578
117	0x3e1ec388	0.15504277
118	0xbe0b7734	-0.13619691
119	0xbce197e2	-0.027538244
120	0x3cfdb5e8	0.030970529
121	0xbc926bfb	-0.017873755
122	0x3dfe7ad9	0.12425775
123	0xbdf22ec1	-0.11825324
124	0x3e20e997	0.15714107
125	0x3dc29f49	0.095030375
126	0xbc4c6faf	-0.012477799
127	0x3d42afe8	0.04753104
128	0xbe26c2d6	-0.16285262
129	0x3d490254	0.049074486
130	0xbd860f92	-0.065459386
131	0xbb09af34	-0.002100897
132	0xbdd0a820	-0.10188317
133	0x3c845685	0.016154537
134	0x3d969c68	0.07354051
135	0x3d56c1d9	0.05243096
136	0x3da183ed	0.07886491
137	0xbe0a9fb9	-0.13537492
138	0xbc5d37bc	-0.013502058
139	0xbda46f7f	-0.08029079
140	0x3e01423e	0.12622926
141	0x3e0d9053	0.13824587
142	0x3e081507	0.13289271
143	0x3de5ff56	0.11230342
144	0xbe0ba384	-0.13636595
145	0xbb475da3	-0.0030420802
146	0x3d1f9c60	0.03896749
147	0xbd36e31e	-0.04465019
148	0x3dade542	0.08490993
149	0xbcd90e96	-0.026496213
150	0x3dd226b1	0.10261286
151	0xbd889af1	-0.06670178
152	0x3d18bfe6	0.037292384
153	0xbd8afe73	-0.067868136
154	0xbc88da05	-0.016705522
155	0x3d002591	0.031285826
156	0x3c7f198f	0.0155700585
157	0x3ba49d95	0.005023668
158	0xbe28eb03	-0.164959
159	0x3dfd504f	0.12368833
160	0x3cdc55ed	0.026896441
161	0x3e12364c	0.14278525
162	0xbe12902c	-0.1431281
163	0x3d47ae21	0.048750047
164	0xbe0012b5	-0.12507136
165	0xbadfa412	-0.0017062447
166	0x3d91c18a	0.07116993
167	0xbd9d5a3d	-0.07683227
168	0x3d682832	0.05667896
169	0x3e206470	0.15663314
170	0xbdcb2a83	-0.09920218
171	0x3b74a9dc	0.003733269
172	0xbd307316	-0.043078505
173	0x3e29cdd5	0.16582425
174	0x3d5e74cd	0.05431061
175	0xbe229c7f	-0.15880011
176	0x3d749d3d	0.059720267
177	0x3da025da	0.078197196
178	0x3cb3a999	0.021931456
179	0x3dc19854	0.094528824
180	0xbdcadcbe	-0.099053845
181	0x3e0e2999	0.13883056
182	0x3e0e6a44	0.13907725
183	0x3d021390	0.031756938
184	0xbe099128	-0.13434279
185	0x3d88deed	0.06683145
186	0xbd4a4e81	-0.049391273
187	0xbe2a61b4	-0.16638833
188	0xbe104d5d	-0.14092012
189	0x3ddffcf9	0.109369226
190	0xbda135eb	-0.07871612
191	0x3e12a22f	0.1431968
192	0xbdf68224	-0.12036541
193	0xbc9a303a	-0.018821824
194	0x3de36e41	0.11105014
195	0x3d9b83e2	0.07593514
196	0x3d9dec12	0.077110425
197	0x3e064748	0.13113129
198	0xbe09643d	-0.13417144
199	0x3d0219d5	0.031762917
200	0x3de9667b	0.113965
201	0x3dbd34b8	0.09238571
202	0x3e2abbf9	0.16673268
203	0xbe12f4bb	-0.1435117
204	0x3b0dc217	0.002163058
205	0x3cc8f7e6	0.02453227
206	0x3e271b87	0.16319095
207	0xbda9ead5	-0.08296744
208	0xbc889d0d	-0.01667645
209	0x3d763d43	0.060117017
210	0xbe16c947	-0.14725219
211	0x3dd191de	0.102329
212	0xbd95ba3f	-0.07310914
213	0xbd8b0163	-0.06787374
214	0x3d44b68e	0.04802566
215	0x3d993431	0.07480658
216	0xbdeabcd4	-0.11461797
217	0x3e168307	0.1469842
218	0x3d36ba7e	0.044611447
219	0xbca1702f	-0.019706814
220	0x3dc56ed9	0.09640283
221	0xbe27be41	-0.1638117
222	0xbdf23300	-0.11826134
223	0x3dc29cb7	0.09502547
224	0x3dbc9b35	0.09209291
225	0xbdb3926e	-0.087681636
226	0x3bd65d7b	0.0065419055
227	0x3c66a029	0.014076271
228	0x3d72687b	0.05918167
229	0xbba26644	-0.0049560387
230	0xbe27a119	-0.16370048
231	0x3c8b5b0b	0.017011186
232	0xbd1ab2c8	-0.037768155
233	0x3dfb543b	0.12271925
234	0xbcefec82	-0.02928758
235	0xbdc897f9	-0.097946115
236	0xbe0b0ead	-0.13579817
237	0xbdb5418d	-0.088503934
238	0x3c9c326f	0.019067017
239	0x3e29198e	0.16513655
240	0xbcf94ef1	-0.03043315
241	0xbd925ac7	-0.07146221
242	0x3de2b9be	0.11070584
243	0xbc643284	-0.0139280595
244	0xbd0d57cb	-0.034507554
245	0x3defddd5	0.11712233
246	0xbde0da86	-0.1097918
247	0xbdc0105b	-0.093781196
248	0x3b4b521f	0.003102429
249	0x3db05ab9	0.08611054
250	0x3d3b28d8	0.04569325
251	0x3d117a10	0.0355168
252	0x3d7e32dd	0.062060226
253	0xbe0eb9a4	-0.13938004
254	0xbdd34786	-0.103163764
255	0xbd295fe7	-0.041351225

conv_block_3.2.bias f4 [8]
0	0xbdb4cf37	-0.088285856
1	0xbccdf8bc	-0.02514302
2	0xbd91226b	-0.07086643
3	0x3d5aa04f	0.05337554
4	0xbe220e28	-0.15825713
5	0x3d5eae2a	0.054365315
6	0xbe139122	-0.14410833
7	0xbdf86f62	-0.121306196

conv_block_3.3.weight f4 [8]
0	0x3f8003a0	1.0001106
1	0x3f7fdd72	0.99947274
2	0x3f80146a	1.000623
3	0x3f8003bb	1.0001138
4	0x3f7fe003	0.9995119
5	0x3f7fdf85	0.9995044
6	0x3f801346	1.0005882
7	0x3f8003e8	1.0001192

conv_block_3.3.bias f4 [8]
0	0x39e32a23	0.00043328208
1	0xba2020e0	-0.00061084144
2	0xb941160f	-0.00018414132
3	0x360b2bc1	2.0738082e-06
4	0xb9a3ca77	-0.0003124063
5	0xb9aed6b6	-0.00033347838
6	0x39d3a503	0.00040368
7	0xb74cb67e	-1.2201837e-05

conv_block_3.3.running_mean f4 [8]
0	0xbdf050cc	-0.11734161
1	0x3cb4ca93	0.022069251
2	0xbe67897c	-0.2261104
3	0x3dce3af6	0.1006984
4	0xbd97c329	-0.07410271
5	0x3e3d8e58	0.18511331
6	0xbe38579c	-0.1800217
7	0xbea20cd4	-0.31650412

conv_block_3.3.running_var f4 [8]
0	0x3e00eb14	0.12589675
1	0x3df4e871	0.11958397
2	0x3db85451	0.09000457
3	0x3de51d3d	0.111872174
4	0x3daa7aef	0.08324229
5	0x3e14293a	0.14468852
6	0x3d998d61	0.07497669
7	0x3e28902f	0.16461252

conv_block_3.5.weight f4 [8, 8, 3, 3]
0	0x3dae87d9	0.08522005
1	0xbd5742be	-0.052553885
2	0xbd4a2458	-0.049351066
3	0x3d9cd3b3	0.07657566
4	0x3c8df9c5	0.017331013
5	0x3a7eadfd	0.00097152573
6	0x3d849f31	0.06475676
7	0xbcbdfdc4	-0.023192294
8	0xbd3a44ff	-0.045475956
9	0xbd899fe2	-0.06719948
10	0x3d67db1c	0.056605443
11	0x3d0093e1	0.03139103
12	0x3dafee4b	0.08590373
13	0x3d3c1afb	0.045924168
14	0xbcb8d3dd	-0.022561962
15	0xbdd8ea84	-0.10591605
16	0xbcf49c6c	-0.029859744
17	0xbda2c4d4	-0.07947698
18	0x3d976e94	0.07394138
19	0xbc67b825	-0.014143025
20	0x3cbd89c2	0.023136977
21	0x3d5085ef	0.05090898
22	0xbd203419	-0.039112184
23	0x3da20399	0.079108424
24	0x3d9ca97e	0.076495156
25	0x3d0f9e98	0.035063356
26	0x3df17932	0.11790694
27	0xbd79e1c9	-0.06100634
28	0x3d603634	0.054739192
29	0x3db70c36	0.08937876
30	0xbb4210f6	-0.002961216
31	0x3dbf26df	0.09333586
32	0xbd959498	-0.07303733
33	0xbcca3302	-0.024682526
34	0x3c83ee3a	0.016104806
35	0xbc922f53	-0.017844832
36	0xbca5baf6	-0.020230751
37	0x3c722516	0.01477935
38	0xbd333091	-0.04374749
39	0xbdc8ce0e	-0.09804927
40	0xbdceebef	-0.101035945
41	0xbd9d7141	-0.07687617
42	0xbdceeb5d	-0.10103486
43	0x3d57df27	0.05270305
44	0x3bf92e2a	0.00760438
45	0x3cdb94cd	0.026804352
46	0x3bd69332	0.006548309
47	0x3dd96c11	0.10616315
48	0xbde2d643	-0.110760234
49	0x3cd43938	0.02590619
50	0x3cac4d67	0.021033002
51	0x3d494bc8	0.049144536
52	0x3dc305cf	0.09522592
53	0x3cfc49ad	0.03079685
54	0xbd0abbae	-0.03387039
55	0xbd9f2aa2	-0.077718034
56	0xbdaa21d5	-0.08307234
57	0x3b11e73b	0.0022263068
58	0x3cca7abb	0.024716726
59	0xbdaa4d21	-0.083154924
60	0x3d4a0c12	0.049327917
61	0xbd370993	-0.044686865
62	0xbd161fdf	-0.03665149
63	0x3d8ab3f9	0.06772608
64	0x3d8749a7	0.06605845
65	0xbd8d06ae	-0.0688604
66	0x3c3a2cd9	0.011363232
67	0xbdb168ac	-0.08662543
68	0xbde0248a	-0.10944469
69	0xbd2b893f	-0.041878935
70	0x3d6e191a	0.058129407
71	0x3d85cd53	0.06533303
72	0x3df19b58	0.117972076
73	0x3d992c7b	0.07479187
74	0x3ddd0717	0.10792368
75	0xbd877991	-0.06614984
76	0x3d019b31	0.031642143
77	0xbd25615a	-0.040376045
78	0xbdd7ca0c	-0.10536584
79	0x3d7c42b7	0.06158706
80	0x3dbfecf1	0.09371365
81	0xbb548a4e	-0.0032431069
82	0x3d9d4225	0.07678632
83	0xbd864b9d	-0.06557391
84	0x3ac4f922	0.0015027861
85	0xbd79858f	-0.060918387
86	0x3c535916	0.012899658
87	0x3dcc801b	0.09985372
88	0x3d15fffd	0.036621083
89	0x3de03194	0.10946956
90	0xbd8ba2a8	-0.068181336
91	0x3d5d9bf1	0.054103795
92	0xbdd5e2fa	-0.10443683
93	0xbd9400f1	-0.07226742
94	0x3cd0f50f	0.025507478
95	0x3ce564d2	0.028002176
96	0xbdec9e4e	-0.11553632
97	0x3caf2682	0.021380667
98	0x3ddc90d1	0.10769809
99	0xbdd713e5	-0.105018415
100	0xbde10df8	-0.109889925
101	0xbd94ff5c	-0.072752684
102	0x3da16bf1	0.07881916
103	0x3de87433	0.11350288
104	0x3cc52b35	0.024068454
105	0x3cfdef68	0.030997947
106	0xbdab7ff5	-0.08374015
107	0x3dc1c609	0.094616
108	0xbd82040a	-0.06348427
109	0x3d89e878	0.06733793
110	0xbdcc57d8	-0.09977692
111	0xbc9ffd9a	-0.019530106
112	0x3b798295	0.0038072218
113	0x3cb99949	0.0226561
114	0x3da1d2c2	0.07901527
115	0x3d92c1fd	0.071659066
116	0x3d9eef36	0.077604696
117	0xbdd06a60	-0.101765394
118	0xbc79851e	-0.0152294915
119	0x3d65f2bb	0.05613969
120	0xbca2465a	-0.019808937
121	0xbdbbed05	-0.09176067
122	0xbd42acfb	-0.04752825
123	0x3c203773	0.009778845
124	0x3d97982a	0.0740207
125	0xbde074ef	-0.10959803
126	0xbd5da464	-0.054111853
127	0x3ca85097	0.02054624
128	0x3d9aa53f	0.075510494
129	0x3dd2c76c	0.10291943
130	0xbd6ceaf7	-0.057841267
131	0x3d1131eb	0.035447996
132	0x3d8cd247	0.06876045
133	0x3daf68a3	0.0856488
134	0xb9031430	-0.00012500654
135	0x3d910bbe	0.07082318
136	0x3de2b264	0.110691816
137	0x3c9125f2	0.017718289
138	0xbd865ff4	-0.0656127
139	0xbb25b7aa	-0.0025286474
140	0xbde3839c	-0.11109087
141	0x3d0e9ea8	0.034819275
142	0x3cdc8605	0.026919374
143	0x3cefae3c	0.029257886
144	0x3dc4e271	0.09613503
145	0x3ddac265	0.10681609
146	0x3d4fd534	0.050740436
147	0x3dbf8ea0	0.093533754
148	0x3dc296a5	0.095013894
149	0xbdf0ec1d	-0.11763785
150	0x3d4d8dc9	0.050184045
151	0xbd0a4039	-0.033752654
152	0x3dd15a0a	0.10222252
153	0x3d8c3106	0.06845288
154	0x3cce1411	0.025156053
155	0xbc8c9d6c	-0.017164908
156	0xbde5f9da	-0.11229296
157	0xbda241dd	-0.07922719
158	0x3da6f9f8	0.081531465
159	0x3da41856	0.08012454
160	0xbdb11e00	-0.086483
161	0x3ce3e484	0.027818926
162	0x3d6e79d3	0.05822165
163	0xbc3c3684	-0.011487607
164	0x3dbfe9f3	0.09370794
165	0x3d4e04b4	0.050297454
166	0x3d58e22a	0.05295006
167	0xbdd685a9	-0.104747124
168	0x3ddb33a4	0.10703209
169	0xbce8d26b	-0.028420648
170	0x3d04f7cb	0.032462876
171	0xbc879d5e	-0.01655453
172	0xbd3a44e1	-0.045475844
173	0x3d175a50	0.036951363
174	0x3baa1df1	0.0051915576
175	0xbdc760c4	-0.097352535
176	0x3db570ad	0.08859382
177	0xbcd65dc5	-0.02616776
178	0xbcbebc10	-0.023283035
179	0x3defb12a	0.11703713
180	0xbdb141d9	-0.086551376
181	0xbd7bf82f	-0.061515983
182	0x3d8aed29	0.06783516
183	0xbc39a65e	-0.011331169
184	0x3c7d8ce3	0.015475485
185	0x3d8547ba	0.065078214
186	0xbd952cd9	-0.07283945
187	0xbda15897	-0.07878225
188	0x3cc4e3ee	0.024034467
189	0x3d8358d8	0.0641343
190	0x3ddd5e97	0.10809057
191	0xbcab83df	-0.020936904
192	0xbd8946c4	-0.067029506
193	0x3c235c48	0.009970732
194	0xbb92d6ce	-0.004481173
195	0xbc3be47b	-0.011468048
196	0xbd9bba4b	-0.07603892
197	0xbdc35e48	-0.09539467
198	0xbda9769b	-0.08274575
199	0x3d4e4c1e	0.05036556
200	0x3c75a1a3	0.0149921505
201	0x3d4e5a26	0.05037894
202	0xbdb1a87d	-0.08674715
203	0xbdbebeba	-0.09313722
204	0x3dccbf1b	0.09997388
205	0x3de9004c	0.1137701
206	0x3c4cb98d	0.012495411
207	0x3db999e3	0.09062555
208	0x3dea71e7	0.114475064
209	0xbd7d2bc3	-0.061809313
210	0xbb1d99bc	-0.0024047932
211	0x3c1b5aa0	0.009482056
212	0x3d3300e6	0.04370203
213	0x3de63139	0.11239857
214	0xbdcd9898	-0.100388706
215	0x3d92f4f1	0.07175625
216	0x3d791fb3	0.060821246
217	0xbbd06b22	-0.0063604275
218	0x3b8e1430	0.0043359026
219	0x3db171b6	0.08664267
220	0x3cdc219d	0.026871497
221	0x3d9d8d99	0.07693023
222	0xbda4b029	-0.080414124
223	0xbdd1ccb2	-0.10244121
224	0xbd8955ae	-0.06705795
225	0xbdc9bda8	-0.09850627
226	0x3a6f51e6	0.000912933
227	0xbda316ab	-0.07963308
228	0x3c68abe5	0.014201139
229	0x3cd0aa95	0.025471965
230	0xbd733eb1	-0.05938596
231	0x3aea23e9	0.0017863485
232	0xbda47e7c	-0.080319375
233	0x3d8be8ae	0.068314895
234	0x3a81cd4d	0.0009903103
235	0xbd83c4f5	-0.06434051
236	0xbd8e9071	-0.06961144
237	0x3d904844	0.070450336
238	0x3d073315	0.0330077
239	0x3d909910	0.07060444
240	0xbda1a238	-0.07892269
241	0xbd3297c3	-0.043601763
242	0xbc4b781f	-0.012418776
243	0x3d74025b	0.05957256
244	0x3da6c285	0.081425704
245	0x3de95dab	0.11394819
246	0xbcb49178	-0.022042021
247	0x3d2a4ef3	0.041579198
248	0xbd812720	-0.063062906
249	0xbd904ce2	-0.07045914
250	0x3d5c0ae9	0.053721342
251	0xbce75533	-0.028238868
252	0x3de08746	0.10963301
253	0x3d8fc65c	0.07020256
254	0x3dbf8d3a	0.09353109
255	0x3c1efd55	0.009703954

conv_block_3.5.bias f4 [8]
0	0x3afa7148	0.0019107247
1	0x3d0cc378	0.0343661
2	0xbd871913	-0.065965794
3	0xbc7d4d0a	-0.015460262
4	0x3d892896	0.06697194
5	0x3dadfda7	0.08495646
6	0x3d8a0b0e	0.0674039
7	0xbd621bfa	-0.05520246

conv_block_4.0.weight f4 [8]
0	0x3f8002c7	1.0000848
1	0x3f80266d	1.0011727
2	0x3f7ff2f6	0.99980104
3	0x3f7ff2aa	0.9997965
4	0x3f800a1e	1.0003088
5	0x3f7fd03c	0.99927115
6	0x3f7fb293	0.9988186
7	0x3f800e23	1.0004314

conv_block_4.0.bias f4 [8]
0	0x39bbbe3d	0.00035809158
1	0x3a9174ec	0.0011097468
2	0x39938d12	0.0002814313
3	0xb9b05336	-0.00033631333
4	0x39ff8dfb	0.00048743174
5	0xb9abb162	-0.00032747822
6	0xba649723	-0.0008720031
7	0x3a56a740	0.00081883743

conv_block_4.0.running_mean f4 [8]
0	0x3e4b4a1f	0.19852494
1	0x3edc6a1c	0.43049705
2	0x3ec26f13	0.37975368
3	0x3e9947dd	0.2993764
4	0x3e925d4d	0.28586808
5	0xbac8db7e	-0.0015324203
6	0x3eaf3d62	0.3422652
7	0x3ea4b08c	0.32165945

conv_block_4.0.running_var f4 [8]
0	0x3dd75cba	0.10515733
1	0x3dfc8c36	0.123314306
2	0x3dbaf869	0.09129412
3	0x3e8d7dcd	0.2763504
4	0x3d7d904e	0.061905198
5	0x3daeb2e8	0.085302174
6	0x3de4ace0	0.11165786
7	0x3e362e45	0.17791088

conv_block_4.2.weight f4 [16, 8, 3, 3]
0	0xbd7a21b3	-0.061067294
1	0xbd120d26	-0.03565707
2	0xbdbfb018	-0.09359759
3	0x3d23341e	0.039844625
4	0x3c44270e	0.011972202
5	0xbdc591a8	-0.09646922
6	0x3d80a90e	0.062822446
7	0x3bb46b77	0.005505975
8	0x3dcd6912	0.10029806
9	0x3dedf6b3	0.1161932
10	0xbde9625d	-0.113957144
11	0x3dbde8ce	0.092729196
12	0x3deb8397	0.11499708
13	0xbcae82ea	-0.021302659
14	0x3cee1050	0.029060513
15	0x3db5396e	0.088488445
16	0xbdbc384e	-0.09190427
17	0xbdb0ef7c	-0.08639428
18	0xbdbe94a1	-0.093056925
19	0xbda1ff06	-0.0790997
20	0x3d1b683b	0.0379412
21	0x3d07e94a	0.033181466
22	0xbd9382f7	-0.07202714
23	0xbd4620a2	-0.048370965
24	0xbd177aa5	-0.036982197
25	0xbb054293	-0.002033387
26	0xbd667e65	-0.056272883
27	0xbdd2c5ae	-0.10291611
28	0x3cb649e3	0.022252029
29	0x3d1e3845	0.03862788
30	0xbd181691	-0.037130896
31	0xbc304982	-0.010759713
32	0x3d0656cf	0.03279763
33	0xbdec80e9	-0.11548025
34	0xbdd77e3a	-0.10522123
35	0xbdd29094	-0.10281482
36	0xbc7d5b62	-0.015463682
37	0x3d9fb6ef	0.07798564
38	0x3dba4661	0.09095455
39	0xbd49305d	-0.04911839
40	0x3deafdbe	0.11474179
41	0x3dc86b21	0.09786058
42	0xbdc61455	-0.09671847
43	0xbd6ffc49	-0.058590207
44	0xbd767ddd	-0.060178626
45	0x3d3990c2	0.045304067
46	0x3dd2f838	0.1030125
47	0x3d228554	0.039677933
48	0xbd1f7800	-0.0389328
49	0xbc8127d6	-0.015766066
50	0xbc4669f0	-0.012110218
51	0xbbc530f4	-0.0060177986
52	0xbcfd8423	-0.030946797
53	0xbd5e0f3f	-0.05421376
54	0x3d80d31a	0.062902644
55	0xbce5bd4a	-0.028044362
56	0x3ad03cff	0.0015887319
57	0xbd1e7ea4	-0.038694993
58	0x3cbfbeff	0.023406504
59	0x3c50dc53	0.012747842
60	0xbca092d3	-0.019601261
61	0xbd1553ee	-0.036456995
62	0xbd727f5a	-0.059203483
63	0x3995a197	0.00028539888
64	0xbd6a0bcd	-0.05714016
65	0x3cab7c41	0.020933272
66	0x3db53840	0.088486195
67	0x3dc51c46	0.09624533
68	0xbdbeebf8	-0.09322351
69	0x3ce1d4bc	0.02756726
70	0xbdcc9f8a	-0.09991367
71	0x38ae4b96	8.3110455e-05
72	0x3d980396	0.07422559
73	0x3d90517e	0.070467934
74	0xbde08044	-0.10961965
75	0xbcf48361	-0.029847803
76	0xbcf29e0a	-0.029616375
77	0x3d83daff	0.064382546
78	0x3daec525	0.08533696
79	0xbd95e1b3	-0.07318439
80	0xbdf22757	-0.1182391
81	0x3bdc2cc2	0.0067192027
82	0x3cc754c0	0.024332404
83	0xbdc4c084	-0.09607032
84	0x3d8aae2f	0.06771504
85	0xbde9d697	-0.11417883
86	0x3de973bb	0.11399027
87	0xbd978d2e	-0.07399975
88	0x3d38ec11	0.045147005
89	0xbd3df7fc	-0.046379074
90	0x39540539	0.00020219841
91	0xbd4f844f	-0.05066329
92	0x3d9b5806	0.075851485
93	0xbbd8f404	-0.006620886
94	0x3da81138	0.08206409
95	0xbd0ad899	-0.03389797
96	0xbdeb5234	-0.114902884
97	0x3c508514	0.012727041
98	0xbdd3e405	-0.10346226
99	0x3d46d999	0.04854736
100	0xbdc7acb4	-0.097497374
101	0xbda324f1	-0.079660304
102	0xbb877bfe	-0.004134654
103	0x3d601f9e	0.054717652
104	0x3d85e76e	0.06538282
105	0xbdefb2e8	-0.117040455
106	0xbd95fa54	-0.07323137
107	0x3d01e453	0.031711888
108	0x3d55d333	0.05220337
109	0xbdaf3823	-0.08555629
110	0xbde63416	-0.11240403
111	0x3aaa2dc2	0.0012983608
112	0x3d19a80d	0.03751378
113	0xbdde9d66	-0.10869865
114	0xbdca28d1	-0.09871066
115	0x3c04ea8c	0.008112561
116	0x3dd6e9b3	0.10493793
117	0x3dd4a2e4	0.103826314
118	0x3c7da04a	0.01548011
119	0x3d83ab70	0.064291835
120	0x3daada75	0.083424486
121	0xbccd44b8	-0.025057182
122	0x3c8583de	0.01629823
123	0x3da0270c	0.078199476
124	0x3ccf7c7b	0.025327912
125	0x3bcb5542	0.006205232
126	0x3d5ecc0b	0.05439381
127	0xbca93561	-0.020655336
128	0x3ddb2836	0.10701029
129	0x3d8cc853	0.06874146
130	0x3d6e27d2	0.058143444
131	0x3d6545be	0.055974714
132	0xbc6e69bd	-0.014551577
133	0xbd89e61a	-0.067333415
134	0xbcd0d267	-0.025490953
135	0xbdaa687b	-0.08320709
136	0x3dc31a0f	0.09526455
137	0x3dd2f96b	0.10301479
138	0x3dc8cf18	0.09805125
139	0x3d9b33aa	0.075782135
140	0x3de1b5e9	0.11021025
141	0x3dd828e7	0.105546765
142	0xbba94356	-0.005165498
143	0xbde99be1	-0.11406685
144	0x3d87c903	0.06630137
145	0xbdf0d127	-0.11758643
146	0x3d9bf0ef	0.07614314
147	0xbdc1d902	-0.09465219
148	0x3c13d9b8	0.009024076
149	0x3de7fa09	0.11326987
150	0x3ddc1a2f	0.107471816
151	0x3dda67be	0.106643185
152	0x3cfb3ed0	0.0306696
153	0x3d300f6f	0.04298347
154	0xbd7f53da	-0.062335826
155	0xbd0c3915	-0.034234125
156	0x3c9d8b9e	0.019231614
157	0xbc2ba535	-0.0104764
158	0x3d269467	0.04066887
159	0xbd146ec9	-0.036238465
160	0x3ded85d2	0.1159779
161	0x3d725103	0.05915929
162	0xbdc2b4cd	-0.09507141
163	0x3cd1cd64	0.025610633
164	0xbd148b13	-0.036265444
165	0x3cbd4e76	0.023108702
166	0x3d09e1bb	0.03366254
167	0x3d6d478a	0.057929553
168	0x3c87c93a	0.016575444
169	0x3db392d9	0.08768243
170	0x3cd0035d	0.025392229
171	0x3bcca342	0.006245048
172	0xbdc2ae86	-0.09505944
173	0x3ddd544b	0.10807093
174	0x3d485b76	0.04891535
175	0x3d8bed1a	0.06832333
176	0xbd3a55e6	-0.045492075
177	0xbcfdddd2	-0.030989561
178	0xbd75c1f5	-0.059999425
179	0xbc9b7b74	-0.018979765
180	0xbd1d5217	-0.038408365
181	0xbd5cb656	-0.053884827
182	0xbdae162d	-0.085003234
183	0x3d0a16d8	0.03371319
184	0xbddcfea4	-0.10790756
185	0x3ddc7fa2	0.107665315
186	0xbd5cd501	-0.053914074
187	0xbd81091b	-0.06300565
188	0xbcedde89	-0.029036777
189	0x3d530124	0.05151476
190	0xbdba2292	-0.09088625
191	0xbcc2fc68	-0.023801997
192	0x3df10096	0.1176769
193	0x3cae6099	0.021286296
194	0xbda3b6d9	-0.0799386
195	0xbd821e95	-0.06353489
196	0xbcb1acd9	-0.021688865
197	0x3d5c41ee	0.053773813
198	0xbdd054f3	-0.10172453
199	0xbdc6716e	-0.09689604
200	0xbd6469bf	-0.05576491
201	0xbdc94608	-0.098278105
202	0x3da00d8c	0.07815084
203	0x3d52cff6	0.05146786
204	0x3ca188e5	0.019718597
205	0x3d992d72	0.07479371
206	0x3cc90b44	0.024541505
207	0xbd116179	-0.035493348
208	0x3d8d12cb	0.0688835
209	0x3de36c42	0.11104633
210	0xbdee9be8	-0.116508305
211	0x3dae02b8	0.08496612
212	0x3dbd8aff	0.09255027
213	0x3d8f1662	0.06986691
214	0xbaabdab2	-0.0013111441
215	0x3d5edc37	0.054409232
216	0xbce2672e	-0.02763709
217	0x3d9f615d	0.077822424
218	0xbd7289b8	-0.05921337
219	0xbdd5b9f2	-0.10435857
220	0x3dbde84e	0.09272824
221	0xbdd92113	-0.106020115
222	0xbc399765	-0.011327599
223	0xbde1c579	-0.11023993
224	0xbc9c02ff	-0.019044397
225	0x3dc02c5a	0.093834594
226	0x3a0a3614	0.00052723405
227	0xbb8de433	-0.004330182
228	0xbd5ae2ab	-0.053438824
229	0x3d9bf129	0.07614357
230	0x3dd039db	0.10167285
231	0xbdda1168	-0.10647851
232	0x3d0b199f	0.03395998
233	0xbdeaff86	-0.114745185
234	0xbd3c0613	-0.04590423
235	0x3b6d17d3	0.003617753
236	0x3d18383d	0.037163008
237	0x3ce06781	0.027393105
238	0x3d5c51a3	0.053788792
239	0x3ddeca16	0.108783886
240	0x3d94a7d3	0.072585724
241	0x3d0e91da	0.034807064
242	0x3de290bf	0.110627644
243	0xbdd8c88a	-0.10585125
244	0xbd0668cb	-0.032814782
245	0xbd886331	-0.06659544
246	0xbd54460b	-0.05182461
247	0xbd945cd8	-0.07244271
248	0x3dd2a0a6	0.102845475
249	0x3d8f4ff7	0.06997674
250	0xbdbd9aee	-0.09258066
251	0xbd8cd49b	-0.06876489
252	0x3db6e045	0.08929495
253	0xbdb71894	-0.08940235
254	0x3db30f60	0.08743167
255	0x3ba7d26c	0.00512152

conv_block_4.2.bias f4 [16]
0	0xbdb1f98c	-0.086901754
1	0xbde0c527	-0.10975104
2	0xbd06dbb2	-0.03292436
3	0x3daaa86b	0.083329044
4	0xbc0bb5fc	-0.008527275
5	0x3d34053b	0.0439503
6	0x3ca23245	0.019799361
7	0x3dbaf880	0.09129429
8	0x3d8bfed7	0.06835716
9	0x3d8e4e60	0.069485426
10	0x3dcce818	0.10005206
11	0xbd9f2cb8	-0.07772201
12	0x3d861b1d	0.0654814
13	0x3d1e2226	0.038606785
14	0x3dc39d85	0.09551529
15	0x3df04787	0.11732393

conv_block_4.3.weight f4 [16]
0	0x3f7fb50b	0.99885625
1	0x3f8014fe	1.0006406
2	0x3f8011ec	1.0005469
3	0x3f801b30	1.0008297
4	0x3f7ff86d	0.9998844
5	0x3f8014d5	1.0006357
6	0x3f803cc2	1.0018542
7	0x3f7fdbfb	0.9994504
8	0x3f800dfc	1.0004268
9	0x3f7ff2be	0.9997977
10	0x3f800ff0	1.0004864
11	0x3f7fd820	0.99939156
12	0x3f7fd5be	0.9993552
13	0x3f7ff900	0.9998932
14	0x3f7fadca	0.99874556
15	0x3f7f8e56	0.9982656

conv_block_4.3.bias f4 [16]
0	0xba89320c	-0.0010467186
1	0x3a838361	0.0010033661
2	0x39925c88	0.0002791623
3	0x39d77940	0.00041098334
4	0xba31800b	-0.0006771094
5	0x3abd037f	0.0014420598
6	0x3a0ded3c	0.0005414074
7	0xba0470c0	-0.00050522014
8	0x3a00b9f4	0.00049105217
9	0xba063674	-0.00051198085
10	0xb896a6c7	-7.183622e-05
11	0xba6e8dd1	-0.0009100112
12	0xb7e069b3	-2.67521e-05
13	0x391aac5a	0.0001475079
14	0xba8b887f	-0.0010645537
15	0xba923143	-0.0011153597

conv_block_4.3.running_mean f4 [16]
0	0xbe8e5c7c	-0.27804935
1	0x3cc4b2be	0.024011012
2	0x3df0cab2	0.11757411
3	0xbd94e6a3	-0.07270553
4	0x3d3a8fb3	0.0455472
5	0xbddfb454	-0.10923067
6	0x3c14357c	0.009045955
7	0x3eb92ff2	0.36169392
8	0x3f243b1a	0.6415268
9	0x3e255dbf	0.16149043
10	0x3f056be9	0.5211778
11	0x3e3cc7c4	0.1843558
12	0x3e67651f	0.22597168
13	0xbe011790	-0.12606645
14	0x3e1c08aa	0.1523768
15	0xbe4caef6	-0.19988617

conv_block_4.3.running_var f4 [16]
0	0x3e5e3c71	0.21702744
1	0x3e22654b	0.15858953
2	0x3e890491	0.26761296
3	0x3e0a5335	0.13508303
4	0x3e26f468	0.16304171
5	0x3ec61c59	0.38693503
6	0x3e08b350	0.13349652
7	0x3e8a2184	0.26978695
8	0x3f09506f	0.53638357
9	0x3df304eb	0.118661724
10	0x3eab1bc9	0.33419636
11	0x3e52f329	0.2060057
12	0x3e49cfc5	0.19708164
13	0x3e27d953	0.16391496
14	0x3dec784d	0.11546383
15	0x3e8d2c60	0.27572918

conv_block_4.5.weight f4 [16, 16, 3, 3]
0	0xbce95057	-0.028480692
1	0xbd7f961d	-0.06239902
2	0xbc391e33	-0.011298704
3	0x3d4cb97b	0.049981575
4	0xbceba39a	-0.028764535
5	0x3c4cd946	0.012502974
6	0xbc8d869e	-0.017276105
7	0xbda2d53b	-0.07950827
8	0xbd0db85f	-0.034599658
9	0xbd6d308e	-0.057907633
10	0xbd9aafe0	-0.07553077
11	0x3c907704	0.017634876
12	0x3c75cd30	0.015002534
13	0x3d94619e	0.072451815
14	0x3c18cbf6	0.009325972
15	0x3d8948fa	0.06703372
16	0xbda2ed8b	-0.07955464
17	0xbd319f0f	-0.04336458
18	0xbbddbea8	-0.0067671128
19	0x3ca1ff7c	0.019775145
20	0x3d2f6250	0.042818367
21	0xbd350133	-0.044190597
22	0xbb03b06d	-0.0020094172
23	0xbb8a431a	-0.004219425
24	0x3c46cf56	0.012134394
25	0x3d532684	0.051550403
26	0x3c67a23e	0.014137803
27	0xbd723459	-0.059131954
28	0xbd1a543c	-0.03767799
29	0x3d87e1cf	0.066348664
30	0x3d207a8a	0.039179362
31	0xbd21b9e0	-0.039483905
32	0xbcd50dd2	-0.026007567
33	0xbd9493ac	-0.07254729
34	0xbbda0d2d	-0.0066544027
35	0xbbc0e904	-0.0058871526
36	0x3d506a36	0.05088254
37	0xbb9cfd7f	-0.0047909613
38	0xbd53e41b	-0.05173121
39	0x3cd66329	0.02617033
40	0xbb10202f	-0.002199184
41	0x3d253c27	0.04034057
42	0x3da2d1c1	0.07950164
43	0x3da006da	0.07813807
44	0xbd40fb89	-0.047114883
45	0xbd8d877e	-0.06910609
46	0x3cb2a76b	0.021808347
47	0xbba8309d	-0.0051327483
48	0xbd5ea982	-0.054360874
49	0xbd1283ea	-0.035770334
50	0xbd80994d	-0.0627924
51	0x3d10d82f	0.03536242
52	0x3c9b3f2f	0.018951027
53	0xbd7af105	-0.06126501
54	0x3bd1120d	0.0063803256
55	0x3d7a93ed	0.06117623
56	0xbd9b17fb	-0.07572933
57	0x3c5146c0	0.012773216
58	0xbceb895a	-0.028752018
59	0xbd97fa8b	-0.07420834
60	0xbd871449	-0.06595666
61	0xbb123764	-0.0022310847
62	0x3d048817	0.032356348
63	0x3d8aa329	0.067694016
64	0xbd643043	-0.05571009
65	0x3ce20cee	0.027594056
66	0x3cfe149a	0.031015683
67	0x3aa703b0	0.0012742188
68	0xbd0aa79c	-0.03385125
69	0x3d78c0db	0.060730796
70	0xbda267d4	-0.0792996
71	0x3c9373a9	0.017999487
72	0x3da14a7f	0.07875537
73	0xbd17c442	-0.0370524
74	0x3d1cd8b5	0.038292605
75	0x3d12ee68	0.035871893
76	0x3d54547e	0.05183839
77	0xbd8c3ada	-0.068471625
78	0x3d2eac84	0.042644992
79	0x3d634c1d	0.05549251
80	0x3c696920	0.014246255
81	0x3d064f50	0.032790482
82	0x3bfdbfa6	0.0077437935
83	0xb82b5d14	-4.0856263e-05
84	0xbd8beb75	-0.06832019
85	0x3d1dac6b	0.03849451
86	0xbc00bad9	-0.007857048
87	0x3cb191a0	0.021675885
88	0xbcc4f63d	-0.024043197
89	0xbd65a21e	-0.05606281
90	0x3d82d333	0.06387939
91	0x3d560767	0.052253153
92	0x3bbcf775	0.005766804
93	0x3c2e3494	0.010632653
94	0x3d997e43	0.07494786
95	0xbb882b88	-0.00415558
96	0x3c2da505	0.010598426
97	0xbca4d2d2	-0.020120058
98	0x3d620741	0.0551827
99	0x3c31f069	0.010860541
100	0xbd9968e9	-0.07490713
101	0x3d381059	0.044937465
102	0x3c2c8897	0.010530612
103	0xbca46e4f	-0.02007213
104	0x3d997e49	0.0749479
105	0xbd02779e	-0.031852357
106	0xbd72adb1	-0.059247676
107	0x3d858990	0.065203786
108	0xbcab9e00	-0.020949364
109	0xbd4390b8	-0.047745436
110	0xbda1151b	-0.07865354
111	0xbca4d51b	-0.020121148
112	0x3c06b8c1	0.00822276
113	0x3c78f7f4	0.015195835
114	0x3d16de1a	0.036832906
115	0x3d4ad816	0.04952248
116	0xbd191ae5	-0.037379164
117	0xbd9e983d	-0.07743881
118	0x3d4d94e0	0.050190806
119	0x3da02f0d	0.07821474
120	0x3be4d8c6	0.006983849
121	0x3da865a5	0.08222512
122	0xbda45337	-0.080236845
123	0x397a7abf	0.00023887584
124	0x3d044fd9	0.03230271
125	0x3cbfbf20	0.023406565
126	0x3d5638c3	0.052300226
127	0x3d3ee689	0.046606574
128	0x3d8bf756	0.06834285
129	0xbd9a2d4e	-0.075281724
130	0x3cbb7b2d	0.022885883
131	0xbd0dcbe6	-0.03461828
132	0x3d9e441b	0.07727834
133	0xbcabffd5	-0.020996014
134	0x3d54ed19	0.051983926
135	0xbd4ed279	-0.05049369
136	0x3c760cb7	0.01501768
137	0x3d67b2df	0.05656707
138	0x3d78049e	0.06055128
139	0x3d893a6b	0.067005955
140	0x3d23db53	0.040004086
141	0x3c846c80	0.016165018
142	0x3daa1fac	0.08306822
143	0xbd6d08ed	-0.05786984
144	0x3cd3b152	0.025841389
145	0x3d8dcdd1	0.06924022
146	0x3d427d02	0.047482498
147	0x3d87f2bb	0.06638094
148	0xbcaadbfe	-0.020856854
149	0xbd3a4f11	-0.04548556
150	0x3c68354e	0.014172865
151	0xbd8a52d9	-0.06754083
152	0xbd8c441a	-0.06848927
153	0x3d65556f	0.05598968
154	0xbbb069b9	-0.005383697
155	0x3d00c2b8	0.0314357
156	0x3d13a06d	0.036041666
157	0xbd98f651	-0.07468856
158	0xbd462f93	-0.048385214
159	0xbd27409f	-0.04083311
160	0xbd5a863e	-0.05335068
161	0x3c56ce66	0.013110733
162	0xbd859f56	-0.065245315
163	0x3c56bc4c	0.013106417
164	0xbd833286	-0.06406121
165	0xbd785a44	-0.06063296
166	0x3bca87a7	0.006180722
167	0xbd04bc2e	-0.032406025
168	0xbd8654b3	-0.06559124
169	0xba4d3bd3	-0.0007829044
170	0x3d1fc101	0.039002422
171	0xbd6282de	-0.055300586
172	0x3b8b412c	0.0042497125
173	0xbd926e3f	-0.07149934
174	0xbd487215	-0.048936922
175	0xba13340b	-0.000561536
176	0x3c884ff9	0.016639696
177	0x3d562896	0.0522848
178	0xbd8d228d	-0.06891356
179	0x3d4ad2dc	0.049517497
180	0xbd2380ba	-0.039917685
181	0xbd766429	-0.060154114
182	0xbd18dadd	-0.0373181
183	0x3d919ddd	0.07110188
184	0xbd686234	-0.05673428
185	0xbd671e00	-0.056425095
186	0xbc441f23	-0.011970314
187	0x3d082e18	0.033247083
188	0xbcc7d0c1	-0.024391534
189	0x3d16cd8d	0.036817122
190	0xbd2c8ab3	-0.04212446
191	0xbc09ef64	-0.008418892
192	0xbd21f740	-0.039542437
193	0xbd87fb20	-0.06639695
194	0xbbf4764b	-0.0074603907
195	0xbd06138c	-0.032733485
196	0xbc2862b5	-0.01027744
197	0xbd6a7ab1	-0.057245914
198	0xbd356b24	-0.04429163
199	0xbc6609b3	-0.014040398
200	0x3cbd89a2	0.023136918
201	0x3ceace17	0.028662724
202	0xbcc98fbc	-0.02460467
203	0x3d946337	0.07245486
204	0xbc17f34a	-0.009274313
205	0x3ceb19d9	0.028698849
206	0xbd5abed3	-0.05340464
207	0xbda15440	-0.078773975
208	0x3d418e91	0.047255103
209	0x3bd4dcad	0.006496033
210	0xbd13c244	-0.036073938
211	0x3d5f1e82	0.054472454
212	0xbb2b3d9a	-0.0026129247
213	0xbc2b4659	-0.010453784
214	0xbd05816e	-0.032594137
215	0xba416135	-0.00073768507
216	0x3d99faea	0.07518561
217	0x3d59a653	0.053137135
218	0x3d13edf2	0.036115594
219	0xbd92a1a6	-0.07159738
220	0x3c27568e	0.010213507
221	0xbda530bb	-0.08065935
222	0x3d8f8919	0.07008571
223	0x3ca81997	0.020520015
224	0x3d8d5d53	0.06902566
225	0xbd583a90	-0.052790225
226	0x3d29400b	0.04132084
227	0x3b1e9cce	0.002420235
228	0x3c89630f	0.016770868
229	0xbd466ed0	-0.048445523
230	0x3d826e8e	0.06368743
231	0xbae54c7f	-0.0017494111
232	0xbc76d372	-0.015065061
233	0x3c5e0ef7	0.013553373
234	0x3c8464df	0.01616138
235	0x3cfbee69	0.030753331
236	0xbb1622e3	-0.0022908978
237	0xbdaadec5	-0.08343271
238	0x3d2cbd5b	0.04217277
239	0x3cc47304	0.023980625
240	0x3d2d3dd2	0.042295285
241	0xbd2cfdb5	-0.04223414
242	0x3c897b66	0.016782474
243	0x3d4c45bc	0.04987119
244	0x3d564b09	0.052317653
245	0xbcfe6221	-0.03105265
246	0x3c92318f	0.017845897
247	0xbd0733d3	-0.033008408
248	0xbc54142d	-0.012944263
249	0xbd4afc53	-0.04955704
250	0xbc563921	-0.013075144
251	0x3d80ff45	0.06298689
252	0xbc82fdd2	-0.015990172
253	0x3da60c0c	0.081077665
254	0x3da6b216	0.08139436
255	0xbc5bed0f	-0.013423218

conv_block_4.5.bias f4 [16]
0	0xbd70f88e	-0.05883079
1	0x3bcf4bc0	0.006326169
2	0xbd9c11f1	-0.076206096
3	0x3d70c8cd	0.05878525
4	0x3d744ee4	0.05964555
5	0x3d302fa0	0.04301417
6	0xbd33bfba	-0.043884017
7	0xbd8ee955	-0.06978098
8	0xbd0803a2	-0.03320659
9	0x3c0a2aac	0.008433025
10	0x3c9ffb9e	0.01952916
11	0x3ce9fae2	0.028562013
12	0xbd83c921	-0.06434847
13	0xbc058407	-0.008149154
14	0x3d90034c	0.07031879
15	0xbca544d5	-0.020174423

conv_block_5.0.weight f4 [16]
0	0x3f800098	1.0000181
1	0x3f7ff270	0.99979305
2	0x3f80082d	1.0002495
3	0x3f800528	1.0001574
4	0x3f7ff9de	0.9999064
5	0x3f7ff044	0.9997599
6	0x3f7fb31c	0.99882674
7	0x3f800c2f	1.0003718
8	0x3f7fb325	0.9988273
9	0x3f8004df	1.0001487
10	0x3f800259	1.0000716
11	0x3f8002d0	1.0000858
12	0x3f801a2c	1.0007987
13	0x3f8006b9	1.0002052
14	0x3f8002f1	1.0000898
15	0x3f8004c3	1.0001453

conv_block_5.0.bias f4 [16]
0	0x384c600d	4.8726844e-05
1	0x3835123a	4.3170738e-05
2	0xb8f8d6de	-0.00011865584
3	0x393f7e6e	0.00018262278
4	0xb9fceb1a	-0.0004824035
5	0xba1b5f32	-0.0005926966
6	0xba448dc4	-0.00074979314
7	0xb9a0605a	-0.00030589366
8	0x3995684b	0.000284972
9	0xba4071af	-0.0007341159
10	0xba1b833b	-0.00059323356
11	0xb7c9c0b2	-2.4050798e-05
12	0x38ffa3bd	0.00012189846
13	0xb8a35d47	-7.78982e-05
14	0x3965fb26	0.00021932702
15	0x39dfba9a	0.00042672904

conv_block_5.0.running_mean f4 [16]
0	0x3e88248f	0.26590392
1	0x3d2846f2	0.041083284
2	0x3e02c9e7	0.12772332
3	0x3e801243	0.25013933
4	0x3e994a9d	0.29939738
5	0xbe107722	-0.14107946
6	0x3e80328c	0.25038564
7	0xbdd7ce38	-0.1053738
8	0x3e2702dc	0.16309685
9	0x3ea6f74a	0.32610542
10	0x3d885d85	0.066584624
11	0x3e032932	0.12808684
12	0x3edea7c3	0.43487367
13	0xbc599696	-0.013280531
14	0x3ef4a52f	0.47782275
15	0x3e1e7c36	0.1547707

conv_block_5.0.running_var f4 [16]
0	0x3e56effd	0.20989986
1	0x3d868046	0.06567435
2	0x3dd16ae7	0.10225468
3	0x3da58784	0.08082488
4	0x3dd991c2	0.10623504
5	0x3da93061	0.08261181
6	0x3dafc730	0.08582914
7	0x3e04292f	0.12906335
8	0x3d953c9e	0.072869524
9	0x3dbcd102	0.092195526
10	0x3da43d5c	0.08019516
11	0x3d896746	0.06709151
12	0x3e1ed330	0.15510249
13	0x3e24b15d	0.16083284
14	0x3e12cffa	0.1433715
15	0x3da7dd20	0.08196473

conv_block_5.2.weight f4 [32, 16, 3, 3]
0	0x3ca85b4c	0.020551346
1	0x3ce6071b	0.02807956
2	0xbd6fd252	-0.058550186
3	0xba030ad7	-0.00049988687
4	0x3d8355ff	0.06412887
5	0xbbb422be	-0.0054973057
6	0xbda23b78	-0.07921499
7	0xbcf85966	-0.030316066
8	0x3ce5479c	0.027988248
9	0x3d25ba4f	0.04046088
10	0x3d86cf4c	0.065825075
11	0xbd6ea366	-0.058261298
12	0x3caa1f98	0.020767018
13	0xbd82fbaf	-0.06395661
14	0x3d8e952e	0.069620475
15	0x3bcc6568	0.0062376745
16	0x3d808ccb	0.06276854
17	0xbcb9c009	-0.022674577
18	0x3da49dd2	0.08037914
19	0xbd7fa950	-0.06241733
20	0x3d057ffb	0.032592755
21	0x3d8ea75b	0.06965514
22	0x3b1e2632	0.0024131653
23	0xbd7f3184	-0.06230308
24	0x3d2a6a5a	0.04160533
25	0x3c565d6b	0.013083796
26	0xbd3f3f30	-0.04669112
27	0xbd35d455	-0.04439195
28	0x3d03872e	0.03211134
29	0x3d158a6d	0.036508966
30	0x3d89b416	0.06723802
31	0x3d35f773	0.04442544
32	0x3d6c37a9	0.05767027
33	0x3d58d885	0.052940864
34	0x3d28b114	0.0411845
35	0x3d9bf025	0.07614163
36	0x3d8da546	0.06916289
37	0x3d985a1d	0.07439063
38	0x3d859d1a	0.06524105
39	0xbda32e21	-0.07967783
40	0x3bbcc1b0	0.005760394
41	0xbc33a9bd	-0.010965762
42	0xbcd3f855	-0.02587525
43	0x3d0e3736	0.034720622
44	0xbd13ba81	-0.036066536
45	0x3c4a3568	0.012341835
46	0xbcfc4f92	-0.03079966
47	0xbd8906e2	-0.06690766
48	0xbd8c5329	-0.06851799
49	0xbcb56614	-0.022143401
50	0xbd1509e2	-0.036386378
51	0xbd7f1837	-0.062278952
52	0xbd9600df	-0.07324385
53	0x3d4922b0	0.049105346
54	0x3d001068	0.031265646
55	0xbc185d2e	-0.0092995595
56	0x3d868c15	0.06569687
57	0xbc75a411	-0.01499273
58	0xbd8987e0	-0.06715369
59	0xba9efdc5	-0.0012130073
60	0xbd477e9c	-0.04870473
61	0xbccc92b1	-0.024972292
62	0x3d57f4c9	0.05272368
63	0xbd72c2d2	-0.059267826
64	0xbda8e37e	-0.08246516
65	0xba03708c	-0.0005014024
66	0xbb15d756	-0.0022863946
67	0xbb8698f8	-0.0041075908
68	0xbd71d3ae	-0.059039764
69	0x3d93e3c0	0.07221174
70	0x3cdadf8d	0.026717925
71	0xbc7d19d7	-0.015448055
72	0x3c2542e1	0.010086746
73	0x3d4456d0	0.047934353
74	0x3d1a0148	0.03759888
75	0xbd2f0ce2	-0.042736895
76	0xbd905a61	-0.070484884
77	0x3ca5cd21	0.020239415
78	0xbd27fe7b	-0.041014176
79	0x3d246ce8	0.040142924
80	0x3c49505d	0.0122872265
81	0x3ce32b26	0.027730536
82	0x3d8c992f	0.06865155
83	0xbd9f5e9d	-0.07781718
84	0x3d3e6209	0.046480212
85	0x3c8c78cc	0.017147444
86	0xbd1c3786	-0.03813889
87	0xbd2f4a8d	-0.042795707
88	0x3d338622	0.04382909
89	0xbd69d778	-0.057090253
90	0x3c456ff6	0.012050619
91	0x3d1cabe5	0.03824987
92	0x3cbcf8c2	0.023067836
93	0xbd15a385	-0.036532898
94	0x3cad0f9e	0.02112561
95	0x3d2dacd9	0.04240117
96	0xbcc4adf7	-0.024008734
97	0xbd4196b4	-0.047262862
98	0x3d6a33f4	0.057178453
99	0x3d9d6751	0.07685722
100	0x3c3b431a	0.0114295725
101	0xbd1e0d89	-0.038587127
102	0x3d808847	0.06275993
103	0x3d8bd963	0.068285726
104	0xbd234e99	-0.03986988
105	0xbd702569	-0.058629427
106	0x3bd29286	0.0064261584
107	0xbd325805	-0.043540973
108	0xbd93b034	-0.072113425
109	0xbda4bfc2	-0.080443874
110	0x3da207e5	0.07911662
111	0xbd8341bf	-0.064090244
112	0x3d370cf6	0.044690095
113	0x3c74ae3c	0.014934119
114	0xbcf9e22d	-0.030503357
115	0x3d0adb28	0.03390041
116	0xbd691d6d	-0.05691283
117	0x3ce69f7c	0.02815222
118	0x3d0a8684	0.03381969
119	0xbced93fd	-0.02900123
120	0x3c36bd31	0.011153505
121	0xbc9697a9	-0.018382864
122	0x3d41278a	0.047156848
123	0xbd94e450	-0.0727011
124	0xbc041140	-0.008060753
125	0x3ca8b10e	0.020592239
126	0xbd62ceeb	-0.055373114
127	0x3d20cecc	0.039259717
128	0x3ca68eb4	0.020331718
129	0x3daaa228	0.0833171
130	0xbd932380	-0.071845055
131	0xbd32b6e9	-0.043631468
132	0x3cf681e3	0.030091232
133	0x3d1feb0c	0.039042518
134	0xbd0c0554	-0.03418477
135	0x3d7034ab	0.058643978
136	0xbcd4db8b	-0.025983592
137	0x3d812365	0.06305579
138	0x3d20aad7	0.039225426
139	0xbd0febfa	-0.035137154
140	0x3c89e7ca	0.016834158
141	0xbcfb653a	-0.030687917
142	0xbd24418f	-0.040101584
143	0x3d5e4c40	0.054271936
144	0xbd80c0f7	-0.06286805
145	0x3d3447ff	0.044013973
146	0xbd8a094f	-0.06740057
147	0x3d513dd5	0.05108436
148	0x3d2fdcc5	0.04293515
149	0xbd3d9a45	-0.0462897
150	0x3d75103d	0.05982994
151	0xbd8e5cd1	-0.06951297
152	0xbc7bbef8	-0.015365355
153	0x3ce83820	0.028347075
154	0x3d811301	0.06302453
155	0x3d1647a5	0.03668942
156	0x3d08fac4	0.033442274
157	0x3da9626a	0.08270724
158	0x3d3a6866	0.04550972
159	0x3da43edf	0.08019804
160	0x3d9b7082	0.075898185
161	0xbd00e26b	-0.03146593
162	0xbc665c4f	-0.014060094
163	0x3cd07081	0.025444271
164	0x3d8e7175	0.06955234
165	0x3cabfe2c	0.020995222
166	0x3ca20237	0.019776447
167	0x3d966e65	0.07345275
168	0x3d9aad6d	0.075526096
169	0xbd41b396	-0.047290407
170	0xbd88945c	-0.06668922
171	0xbda2844e	-0.07935391
172	0xbd14d2fd	-0.036334027
173	0x3d7e0c5c	0.062023506
174	0x3d723a1c	0.05913745
175	0xbd602db1	-0.054731075
176	0x3d498976	0.04920336
177	0xbda143a4	-0.078742296
178	0x3ca3cc44	0.019994862
179	0x3d245c26	0.040126942
180	0xbd1557ff	-0.036460873
181	0xbd6a1b59	-0.057154987
182	0x3d3b2554	0.045689896
183	0x3d8d6992	0.069049016
184	0x3c4f2ff8	0.012645714
185	0xbbaab05a	-0.005209011
186	0xbd9408ab	-0.07228216
187	0x3cd02013	0.02540592
188	0x3d54b607	0.051931407
189	0xbd7fe34a	-0.06247262
190	0xbc759edc	-0.014991488
191	0xbd741b97	-0.059596624
192	0xbd810437	-0.06299632
193	0x3da1f4b3	0.07908001
194	0x3b2b7a22	0.0026165326
195	0x3d5912ed	0.052996565
196	0x3d81c2cf	0.06335985
197	0xbd51693c	-0.05112575
198	0x3d86bd7e	0.065791115
199	0xbc9cc995	-0.01913909
200	0xbda4e96b	-0.080523334
201	0x3d4655cb	0.048421662
202	0xbc136c9b	-0.0089980615
203	0xbd429bb9	-0.04751179
204	0xbcd2ee5c	-0.025748424
205	0x3c813666	0.01577301
206	0x3d9741fe	0.07385634
207	0x3d17120a	0.036882438
208	0xbd379900	-0.044823647
209	0xbcaece38	-0.021338567
210	0xbd0a1c46	-0.03371837
211	0x3ca5b128	0.020226076
212	0x3d90d451	0.07071746
213	0x3d5e3e81	0.054258827
214	0xbb4741ab	-0.0030404131
215	0xbd5fc1c5	-0.054628152
216	0x3da8b414	0.08237472
217	0xbb30f997	-0.0027004236
218	0x3d3948b0	0.045235336
219	0x3bbf0f17	0.0058306563
220	0xbd0916a8	-0.033468872
221	0xbcb40d10	-0.021978885
222	0x3ad762a6	0.0016432598
223	0x3da9fa72	0.08299722
224	0x3d4b9215	0.04969986
225	0xbd6b1115	-0.057389338
226	0x3b879548	0.0041376688
227	0xbd970898	-0.07374686
228	0x3be658c0	0.007029623
229	0xbade4194	-0.00169568
230	0x3d0e8ca0	0.03480208
231	0xbd813f11	-0.06310857
232	0x3d1afc91	0.037838522
233	0xbd3650c3	-0.044510614
234	0xbda54a1e	-0.08070777
235	0x3c698b8d	0.014254463
236	0xbd9d10b1	-0.07669199
237	0x3d3cafc6	0.046066068
238	0x3cee57fa	0.029094685
239	0xbce3fc96	-0.027830403
240	0xbd48d17b	-0.0490279
241	0xbc70f010	-0.014705673
242	0xbd7073eb	-0.058704298
243	0xbd6d9841	-0.05800653
244	0x3d93ec06	0.07222752
245	0xbd97302b	-0.07382234
246	0xbd7a51fa	-0.061113335
247	0xbd0f289c	-0.034950837
248	0xbda1413f	-0.07873773
249	0x3c758126	0.014984405
250	0xbd99b238	-0.07504696
251	0x3d79f77e	0.061027043
252	0xbd16c0e8	-0.036805063
253	0xbcdc499c	-0.026890568
254	0xbd9adfd1	-0.07562221
255	0xbd90de7a	-0.07073684
