cloud-detection-code/tests/test_artifacts/test_log_dice_loss/model_checkpoint_1.pt (torch, 439769 bytes, 347 tensors)

input_conv_block.0.weight f4 [3]
000000 7c e6 7f 3f 1e e5 7f 3f 2d 0e 80 3f
       0.99961066 0.9995898 1.0004326

input_conv_block.0.bias f4 [3]
000000 24 18 d5 b9 da e9 ed b9 e1 ef de 39
       -0.00040644512 -0.00045378396 0.00042521863

input_conv_block.0.running_mean f4 [3]
000000 ad e3 49 3e cb 0f 49 3e cb 11 2b 3e
       0.19715758 0.19634931 0.16706006

input_conv_block.0.running_var f4 [3]
000000 af 60 0b 3f 8e 03 0b 3f 50 c0 0a 3f
       0.544444 0.543023 0.54199696

input_conv_block.2.weight f4 [2, 3, 1, 1]
000000 14 37 b4 be a0 1a 02 bf 5f a9 ea 3e 6b dc d9 be
       -0.3519827 -0.50821877 0.45832345 -0.42550978
000010 37 8f a3 3e 3d de b9 3e
       0.31945202 0.36302367

conv_block_1.0.weight f4 [2]
000000 88 e0 7f 3f bc 0f 80 3f
       0.9995198 1.0004802

conv_block_1.0.bias f4 [2]
000000 a7 2f db b9 ba 73 a0 b9
       -0.0004180644 -0.000306038

conv_block_1.0.running_mean f4 [2]
000000 1f 0b a8 bd 0d d1 30 3d
       -0.08205246 0.043168116

conv_block_1.0.running_var f4 [2]
000000 68 92 11 3f c2 eb 0e 3f
       0.56864023 0.5582849

conv_block_1.2.weight f4 [2, 2, 3, 3]
000000 cb c5 9a bd c3 cb 49 be da 92 96 3d 9a 57 16 be
       -0.07557257 -0.19706635 0.073522285 -0.14681855
000010 13 2d 37 be 43 52 4f 3d 6b f2 13 3d 58 5c 36 be
       -0.17888288 0.05061556 0.03611986 -0.17808664
000020 4a 2e 63 be 06 2c 27 3d 5a 78 aa 3d fc 2a 22 3d
       -0.22185627 0.04081347 0.083237365 0.039591774
000030 15 bf c7 bd f8 0d cf 3d e9 19 de 3d ca 5b a7 bd
       -0.09753243 0.10110086 0.10844786 -0.08171804
000040 3a d2 bf 3d 38 da 3e bd b7 80 ff 3d 37 1f bb 3d
       0.093662694 -0.04659483 0.12475722 0.09136813
000050 7b ef 5f be b6 e9 c7 bd 74 ba 22 be 34 8d 68 be
       -0.21868698 -0.09761374 -0.15891439 -0.22710115
000060 19 2a 56 be e0 c3 01 be a4 01 c8 3d fd ae 1f be
       -0.20914496 -0.12672377 0.09765938 -0.15594096
000070 e6 4a b1 3d 91 6b a5 bd a9 b5 99 bd 8a e9 30 3e
       0.08656864 -0.08077157 -0.07505352 0.17276588
000080 b2 35 84 3d c3 58 65 be 30 b2 45 3e a0 5b 18 be
       0.06455554 -0.22397141 0.19306254 -0.14878702

conv_block_1.2.bias f4 [2]
000000 49 1d 6c 3e a4 22 12 3e
       0.23058046 0.14271027

conv_block_1.3.weight f4 [2]
000000 4c 0b 80 3f 6a e9 7f 3f
       1.0003448 0.99965537

conv_block_1.3.bias f4 [2]
000000 78 1e bc b9 f5 0f cc b9
       -0.00035880855 -0.000389218

conv_block_1.3.running_mean f4 [2]
000000 74 57 26 bc 51 7a c2 bd
       -0.010152686 -0.09495986

conv_block_1.3.running_var f4 [2]
000000 ca 73 17 3f 8e 93 11 3f
       0.59161055 0.56865776

conv_block_1.5.weight f4 [2, 2, 3, 3]
000000 08 59 41 3e 02 05 1d 3e 77 be 1a 3d b3 a0 6f 3e
       0.18881619 0.15333942 0.037779298 0.23401146
000010 49 d9 b5 bc 5e 97 38 3e c4 26 5f 3e b9 73 f2 bd
       -0.022198336 0.18026492 0.21792132 -0.118384786
000020 81 61 5c bd e4 0d 3e be 20 40 f1 bd 92 93 9e bd
       -0.053803924 -0.18559986 -0.11779809 -0.077429906
000030 cd e8 6c 3e 2f 06 2b bd 73 31 0d bc d9 63 48 3e
       0.23135681 -0.041753944 -0.008617747 0.19569339
000040 30 cb de 3c 3b 5b 21 be 9a 36 89 3d b1 2e 64 3e
       0.027196497 -0.15757458 0.066998675 0.22283436
000050 be 03 18 bd fa bd d8 3d 62 bb e3 bd 5e fb 38 3e
       -0.037112944 0.1058311 -0.11119725 0.18064639
000060 6c 85 8f bd d1 81 70 bd 8c 3f ff bd 1a 04 03 3e
       -0.0700787 -0.058717553 -0.124632925 0.12794533
000070 5f 33 13 3e 7c 2a 09 bd e4 78 05 3e 5a cc 66 bd
       0.14375065 -0.033487782 0.13034397 -0.05634723
000080 74 47 02 3e d6 2f 80 bd c3 da 3b be a5 5c 92 bd
       0.1272257 -0.06259124 -0.1834517 -0.07146577

conv_block_1.5.bias f4 [2]
000000 7d c2 21 be cc db 90 bc
       -0.15796848 -0.017682932

conv_block_2.0.weight f4 [2]
000000 8d fd 7f 3f 39 01 80 3f
       0.9999626 1.0000373

conv_block_2.0.bias f4 [2]
000000 4e 26 cd b9 52 96 29 b9
       -0.00039129186 -0.00016173095

conv_block_2.0.running_mean f4 [2]
000000 73 10 f1 3d 5e 27 bb 3d
       0.117707156 0.09138368

conv_block_2.0.running_var f4 [2]
000000 19 f4 30 3f db 65 0e 3f
       0.69122463 0.5562417

conv_block_2.2.weight f4 [4, 2, 3, 3]
000000 10 3f 2b be 01 36 a2 3c 37 27 80 3d b0 4a bc 3d
       -0.16723275 0.019801142 0.0625748 0.09193933
000010 01 69 16 3e 40 06 13 bd 8c 57 5a bc 35 1f 0d bd
       0.14688493 -0.035894632 -0.013326537 -0.03445359
000020 ed b4 67 be e1 aa 0f 3e d7 2a 37 3e 64 f2 b9 3d
       -0.22627611 0.14030029 0.17887436 0.090794355
000030 ef c4 c1 3d 2b bf 1d 3e 98 49 56 be 50 b4 02 3e
       0.0946139 0.15404956 -0.20926511 0.12764096
000040 2c 65 9a bd bb 97 11 3e de f8 d2 bd 59 a3 4c 3e
       -0.07538828 0.14218037 -0.10301374 0.19984187
000050 b1 de ce 3a b0 4c f5 bc 8e a8 65 3e a8 1c 24 3e
       0.001578292 -0.029943794 0.2242758 0.16026556
000060 00 34 67 3e f8 b4 e5 bd e8 2c 5f 3e d9 7f 9a 3d
       0.2257843 -0.11216158 0.21794474 0.07543916
000070 52 ee 4a 3e c7 5f 6e be 8c 32 e9 3d b3 90 e5 3d
       0.19817474 -0.23278724 0.11386594 0.1120924
000080 1f a2 3c 3e 11 d4 2a 3d 67 ff e2 3d db 21 70 3e
       0.1842122 0.04170615 0.110838704 0.23450415
000090 6f 7b 21 bc 70 ce 46 3e 90 d1 90 3b a7 c4 4c be
       -0.009856089 0.19414687 0.004419513 -0.19996892
0000a0 a4 22 20 be b8 a3 54 3e 93 27 33 3e 4d 4e 71 3c
       -0.15638214 0.20765579 0.17495565 0.014728141
0000b0 aa 01 18 be 6e 91 5f bd 78 10 37 3e 35 be 0c 3e
       -0.14844385 -0.054582052 0.17877376 0.13744433
0000c0 a7 7f c4 bd 9b d1 25 be 47 fd 4d be 43 ca b0 bd
       -0.0959466 -0.1619324 -0.20116149 -0.08632328
0000d0 78 89 42 be ec 70 fc bc 6c 81 81 3d b0 d0 6b 3e
       -0.18997753 -0.030815564 0.063235134 0.23028827
0000e0 8d ef 13 3e 6a 1e 11 be 0e 47 46 be 14 87 45 be
       0.1444685 -0.14171758 -0.19363043 -0.1928981
0000f0 90 91 4f 3e 86 65 28 be 6d 4e fa 3c c5 52 51 be
       0.20270371 -0.16444978 0.030554974 -0.2044173
000100 2b 0b 41 3e 47 53 82 3d 36 44 6e 3e b9 8e 11 be
       0.18851916 0.0636354 0.23268208 -0.142146
000110 30 11 06 3e 68 1a 58 be 2b 6c ae bd 12 ff 41 be
       0.13092494 -0.21103823 -0.08516725 -0.18944958

conv_block_2.2.bias f4 [4]
000000 7c a4 32 3e b1 11 63 bd 88 95 6e bc 1a e7 be bd
       0.17445558 -0.055436794 -0.014562018 -0.09321423

conv_block_2.3.weight f4 [4]
000000 34 0c 80 3f 57 ec 7f 3f 4a 06 80 3f e4 e7 7f 3f
       1.0003724 0.9997 1.0001919 0.9996321

conv_block_2.3.bias f4 [4]
000000 43 8b 7a 39 6a 13 b6 b9 0c 23 5f b9 52 0b af 37
       0.00023893737 -0.0003472821 -0.00021279993 2.0866897e-05

conv_block_2.3.running_mean f4 [4]
000000 36 49 37 3e 20 91 86 3e ae 22 bb bd db 0d b5 bd
       0.17899022 0.26282597 -0.09137474 -0.08840533

conv_block_2.3.running_var f4 [4]
000000 b0 10 16 3f 36 26 82 3f 61 9d 16 3f 84 bf 15 3f
       0.58619213 1.0167911 0.5883389 0.58495355

conv_block_2.5.weight f4 [4, 4, 3, 3]
000000 8f 4c cc bb 3a b0 17 be a9 fa 14 be b4 3e 94 bd
       -0.0062347124 -0.14813319 -0.14548744 -0.07238522
000010 a3 db 0e be 59 76 bf bd 7d bc b3 bc 3e 1c f9 bd
       -0.13950972 -0.09348745 -0.021940464 -0.1216359
000020 92 e7 06 3e 3e 80 c3 bd 0e fd 0e be 45 71 a9 3c
       0.13174275 -0.09545945 -0.1396372 0.020683894
000030 74 77 af 3d 46 a2 7d bd 2e eb 8f 3b 86 dc 99 3d
       0.08567706 -0.061922334 0.0043920493 0.07512765
000040 31 a1 7d 3d 96 54 00 3e 6a 2a cb bd 66 87 1b bd
       0.061921302 0.12532267 -0.09920199 -0.037970923
000050 59 b7 24 be 17 ef 6c 3d 87 52 dd bc 2f 90 12 3d
       -0.16085567 0.0578452 -0.027016891 0.035782035
000060 2d c5 92 bd 5d 00 aa 3d 47 1f 97 3c 92 f9 80 3d
       -0.071665145 0.083008505 0.018447531 0.06297602
000070 ae ff d8 3d c3 5e d1 bd f3 ce fc 3d f2 56 ef bd
       0.10595642 -0.102231525 0.1234416 -0.116865054
000080 5f 26 04 3e c7 69 21 3e 64 f7 1c 3e d4 f4 ba 3d
       0.12905262 0.15763007 0.15328747 0.091287285
000090 c9 d6 d8 bb 9a 70 75 bd 05 fb 6b bd f9 63 04 be
       -0.0066174013 -0.05992184 -0.057612438 -0.12928762
0000a0 51 e2 b6 3d 6b 40 07 3e 50 31 bb bd 4a fb 9c 3d
       0.08929885 0.13208167 -0.09140265 0.07665117
0000b0 e5 67 4e 3d 22 da f1 bd 16 6b 39 bd b2 31 a6 3d
       0.05039205 -0.11809184 -0.04526814 0.081149474
0000c0 73 8e a8 bd 00 58 20 3e 15 76 b5 3d 42 8b 06 be
       -0.08230295 0.1565857 0.08860413 -0.1313906
0000d0 67 73 b7 bd a1 a8 05 3e 03 26 0a be 25 a6 12 be
       -0.08957558 0.13052608 -0.13491063 -0.14321192
0000e0 c0 92 a4 bd 79 c2 15 3e 35 60 1a 3e 8c c1 15 be
       -0.08035803 0.14624967 0.15075763 -0.14624614
0000f0 0d c5 6e 3a aa 0a 1a 3d 39 7f 23 be 0f df 5d bd
       0.00091083423 0.037607826 -0.159665 -0.054167803
000100 a9 16 cb bc a6 b6 a5 bc dc 7a b9 3d 91 3d a0 3c
       -0.024791079 -0.020228695 0.09056637 0.019560607
000110 6d b6 7d bd e0 92 9d 3c 8f eb 33 3d af 03 68 3d
       -0.061941553 0.019235075 0.043925818 0.056644138
000120 ae 87 29 bd b5 d3 38 bd 99 ff ba 3c 57 cd de bd
       -0.04138916 -0.045123775 0.022826957 -0.10879009
000130 a5 37 14 3e e7 4f bd 3c 2b 7a fd bd fe 27 19 3d
       0.14474352 0.02310939 -0.12376817 0.037391655
000140 a9 73 20 3d 6a b2 14 be be ef 89 bd f7 1e b4 bd
       0.039172802 -0.14521185 -0.0673518 -0.087949686
000150 7f 1b 89 3d fe a4 d0 bd e5 ce 24 bd f9 ed 12 be
       0.066946976 -0.1018772 -0.040236373 -0.14348592
000160 7c c3 f0 3c 10 b0 13 3e 83 4f 27 be 1e 74 c8 3b
       0.02939009 0.14422631 -0.16338925 0.006117358
000170 39 01 46 bd fb ab ce bc 46 28 50 bc 76 15 ae 3b
       -0.04834101 -0.025228491 -0.012704914 0.005312617
000180 f8 27 f5 3d b7 3a f8 3c 29 4e ca 3d 70 59 9b bd
       0.11970514 0.030301435 0.09878189 -0.07585418
000190 60 64 28 3e 30 24 a3 3d f0 f5 2d 3d cc 19 c2 bd
       0.1644454 0.079658866 0.042470872 -0.094775766
0001a0 25 b9 f4 3b e8 a1 87 bc 5a d1 5c 3c dc 6e 71 3c
       0.00746836 -0.016556695 0.013477648 0.014735904
0001b0 d3 24 9f bc 6f 75 da 3b 24 30 7c 3d 1a 87 dd bd
       -0.019426739 0.006666831 0.061569348 -0.10816784
0001c0 d9 ee 15 be 69 1a 77 3d c7 25 aa 3d ca b4 c0 bd
       -0.14641894 0.06032792 0.08307987 -0.09409483
0001d0 93 d9 84 bd 1a 21 e1 3c 08 69 ad bd ef eb 18 be
       -0.064868115 0.027481604 -0.08467299 -0.14933752
0001e0 79 53 c2 bd 63 2e 92 3d 18 21 df 3c d6 fd 69 bd
       -0.094885774 0.07137754 0.02723746 -0.057126842
0001f0 9c 8d 90 bd fc 4b a2 3d 98 74 e9 3d a1 34 12 bc
       -0.0705826 0.07924649 0.113991916 -0.0089236805
000200 0a 85 24 3d c5 b0 21 3e bd fc f2 bd 49 c8 8b bc
       0.04016594 0.15790088 -0.11864612 -0.017063277
000210 1a cc b8 bd 51 65 a1 bd 65 87 fe bd 95 13 0c be
       -0.09023304 -0.07880653 -0.12428168 -0.13679345
000220 3a 7f 3b bd 5d 84 aa bc fa 17 15 be 89 7d d4 3d
       -0.04577563 -0.020815069 -0.14559928 0.103755064
000230 fa aa e6 bc ac 12 8e 3d 36 66 04 3e 43 a0 86 3d
       -0.0281577 0.06937155 0.12929615 0.06573536

conv_block_2.5.bias f4 [4]
000000 7e c1 7b bc 2c af 57 bd de 68 e4 3b 8e c8 d4 bd
       -0.015365956 -0.05265729 0.006970509 -0.10389815

conv_block_3.0.weight f4 [4]
000000 02 ef 7f 3f c7 10 80 3f 6c f1 7f 3f 3f f6 7f 3f
       0.9997407 1.000512 0.99977756 0.99985117

conv_block_3.0.bias f4 [4]
000000 d1 8a d6 b9 d6 f5 fa 38 4b 04 9d 39 7e f2 97 b9
       -0.00040920687 0.000119667195 0.00029948572 -0.00028981635

conv_block_3.0.running_mean f4 [4]
000000 b3 0c 05 3d f9 14 2e 3c 30 a7 15 3c 70 c3 ca bd
       0.032482814 0.010625117 0.009134099 -0.09900558

conv_block_3.0.running_var f4 [4]
000000 ed 8a 0d 3f ee 57 12 3f 0f d5 0d 3f 9a 7c 0d 3f
       0.5529011 0.5716542 0.55403227 0.5526825

conv_block_3.2.weight f4 [8, 4, 3, 3]
000000 7a 5f 5c bd 09 22 fc 3d 38 96 90 3d 69 95 3e 3c
       -0.05380199 0.12311179 0.07059902 0.011632302
000010 f0 71 a1 3d 7f c2 02 3e 08 27 a6 3c 30 b3 37 bc
       0.0788306 0.12769507 0.020282283 -0.011212155
000020 2a eb 69 bd cf 0e 82 bc a7 0b f1 bd 68 4c c3 bd
       -0.057109036 -0.015876202 -0.11769801 -0.09536058
000030 b9 09 17 3e 85 dd de 3d c3 c5 99 bb e8 84 1b be
       0.14749803 0.10882095 -0.0046927645 -0.15187418
000040 93 5b 16 bd b1 1d 02 3e d7 3f 18 be 46 cc 26 be
       -0.036708426 0.12706639 -0.14868103 -0.16288862
000050 38 a8 82 3d 5a 4e f2 3d 22 6e 27 be cf b3 ca bd
       0.063797414 0.118313506 -0.16350606 -0.09897577
000060 b0 e9 21 3d 43 62 ab bd d6 40 1c bd 97 02 b6 3d
       0.039529502 -0.08368351 -0.03814777 0.08887213
000070 56 ad 28 3e 54 b3 27 3e 0c d2 ab bd 9b d4 71 ba
       0.16472372 0.16377002 -0.08389673 -0.0009225101
000080 9d da c0 bc 4c a1 1d be 6b 84 81 3c 49 e6 b2 bd
       -0.023541743 -0.15393561 0.015810212 -0.0873533
000090 a5 31 a4 3d 9b 7a 00 3e 97 a9 bf 3d 63 76 6e 3d
       0.080172814 0.1254677 0.093585186 0.05821837
0000a0 06 85 88 bd 17 c5 ac bd e5 7d 10 3e dd c2 e2 3d
       -0.06665997 -0.084360294 0.14110525 0.110723235
0000b0 e5 aa c5 bd 7f c2 d8 bc 03 e0 e9 bd 3f 90 1e bd
       -0.09651736 -0.02645993 -0.1141968 -0.038711783
0000c0 3d 67 a1 3d 7e 87 0e 3e 41 35 b3 bd 5f 89 bb 3d
       0.07881019 0.13918874 -0.08750392 0.09157061
0000d0 1b ab e9 bd 83 01 1a be 93 4b d5 bd c4 af f1 3d
       -0.11409589 -0.15039639 -0.10414805 0.11801103
0000e0 37 95 8d bd 72 31 d2 bd 7a f4 b4 3d 5b d5 e6 3d
       -0.06913226 -0.10263337 0.08835693 0.11271163
0000f0 f2 1b db 3d 36 5c 1a be 01 ee 6c b9 15 9a 48 3d
       0.106986895 -0.15074238 -0.00022595377 0.04897507
000100 63 c7 a6 3c ba 7f 62 bd b6 18 50 3d b6 47 76 3d
       0.020358747 -0.05529759 0.050804816 0.060126983
000110 49 13 a2 bc 91 41 c9 bd 25 f0 0f 3e d3 39 cf bd
       -0.019784587 -0.09826959 0.14056452 -0.10118451
000120 41 c1 da bd 09 85 c1 3d 21 08 13 be d6 c6 28 3e
       -0.106813915 0.094492026 -0.1435857 0.164821
000130 34 81 1d be 55 11 a1 bc 6d 92 1e be d6 90 4d bd
       -0.15381318 -0.019661585 -0.15485545 -0.050186954
000140 e9 f6 9c 3c 37 86 0a be e0 8a e0 bd c5 c5 07 3e
       0.019160705 -0.13527761 -0.10963988 0.13259037
000150 38 a8 98 3d 4b 4a 11 be c5 86 09 3b 29 09 7b bd
       0.0745396 -0.14188497 0.002098487 -0.061288033
000160 67 13 f2 3d 15 b2 d7 3d 08 39 67 3c 20 53 26 3e
       0.11820107 0.10532013 0.014112718 0.16242647
000170 be 3b 81 bd 71 67 6a 3d 18 86 1f bd c1 b0 7c bd
       -0.06310223 0.057227556 -0.03894624 -0.061692003
000180 48 cf d6 bc 30 2c 89 3b 50 6c ff bb 1e e5 01 be
       -0.026221886 0.0041861758 -0.0077948943 -0.12685058
000190 86 a2 cb 3d 93 a7 d3 bd e8 65 19 bd a0 3f 62 bd
       0.09943108 -0.103346966 -0.0374507 -0.05523646
0001a0 58 6f 61 bb 2b 4b 02 3e 6f b9 b8 bd 5f 22 22 bd
       -0.0034398641 0.12723987 -0.09019744 -0.03958356
0001b0 b5 44 66 bd 6a ab 04 be 76 15 9c bd 97 d8 2e bd
       -0.056217868 -0.12956014 -0.07621281 -0.042687025
0001c0 35 b9 99 3d d7 17 b2 bc 64 aa 29 be bc 0a 3d 3d
       0.075060286 -0.021739883 -0.16568905 0.046152815
0001d0 a3 58 22 bd f5 92 1e 3e d8 5f 0c be a7 a5 e3 bc
       -0.03963531 0.15485747 -0.13708436 -0.02778895
0001e0 d0 87 00 3d 0d 02 91 bc 15 5d fe 3d 95 6e f2 bd
       0.03137952 -0.017701173 0.12420098 -0.11837498
0001f0 66 d0 20 3e 1a 78 c1 3d 85 7f 51 bc 30 7b 3e 3d
       0.15704498 0.09446736 -0.012786751 0.0465042
000200 8f 34 27 be 8b 5e 48 3d a2 1a 87 bd 2f 1e 46 bb
       -0.16328643 0.04891829 -0.06596877 -0.0030230393
000210 20 d3 d0 bd eb c1 7e 3c 1f df 95 3d 58 52 57 3d
       -0.10196519 0.015549163 0.073179476 0.052568763
000220 2e b7 a1 3d e0 64 0a be 2f 2f 64 bc 9f d4 a5 bd
       0.07896267 -0.13515043 -0.013927265 -0.08097195
000230 b3 34 01 3e 5a 13 0d 3e 71 b7 07 3e 13 03 e6 3d
       0.1261776 0.13776913 0.13253571 0.11231055
000240 53 19 0c be 3f 96 69 bb d0 a5 1d 3d 37 06 37 bd
       -0.13681535 -0.0035642532 0.03848821 -0.04468366
000250 86 46 ae 3d 66 fd d8 bc 94 4a d1 3d 63 11 89 bd
       0.08509545 -0.026488017 0.10219303 -0.066927694
000260 d7 fe 18 3d 0a 68 89 bd 2f ef 87 bc 82 75 fe 3c
       0.03735241 -0.06709297 -0.016593544 0.031061891
000270 c5 66 80 3c 1d c3 ac 3b 7f 82 29 be b4 7c fc 3d
       0.015674004 0.0052722828 -0.16553687 0.12328473
000280 77 84 dc 3c 70 fd 11 3e 90 78 12 be b6 d8 45 3d
       0.026918633 0.14256835 -0.14303803 0.048302375
000290 db de 00 be c6 b1 b2 ba e9 89 91 3d 37 ca 9d bd
       -0.12585013 -0.0013633303 0.071063824 -0.07704585
0002a0 98 a3 68 3d f5 90 20 3e 76 86 cb bd 65 3c 58 3b
       0.05679664 0.15680297 -0.09937756 0.0032994982
0002b0 e7 3c 33 bd bf f6 28 3e 9a a0 5c 3d 62 07 23 be
       -0.043759253 0.16500376 0.0538641 -0.15920785
0002c0 ea 4b 72 3d 95 e1 9f 3d f6 92 b2 3c b3 26 c1 3d
       0.05915443 0.07806698 0.021798592 0.094312094
0002d0 4c eb cb bd e7 a4 0d 3e d3 f9 0d 3e 13 d4 01 3d
       -0.09956989 0.13832437 0.13864832 0.03169639
0002e0 5c 92 09 be ba 8b 88 3d 9e 9d 4a bd fa 4c 2a be
       -0.13434738 0.06667276 -0.04946672 -0.16630927
0002f0 ab 3b 10 be a4 94 df 3d a1 30 a0 bd ba f0 12 3e
       -0.14085262 0.10917023 -0.07821775 0.14349642
000300 72 1e f5 bd 8a 34 90 bc d8 71 e6 3d 0d 9f 9c 3d
       -0.119686976 -0.017603178 0.11252183 0.07647524
000310 b0 1e 9f 3d 15 c4 06 3e dd 3f 0a be 07 ce fd 3c
       0.07769525 0.13160737 -0.13500924 0.03098203
000320 c7 fa e7 3d 5c 33 bb 3d 0c be 29 3e e1 f8 13 be
       0.11327129 0.091406554 0.16576403 -0.14450409
000330 bc 87 da 3a c0 7d c7 3c a3 e8 26 3e 56 17 ab bd
       0.0016672532 0.024351954 0.16299681 -0.0835406
000340 f4 b2 89 bc 24 70 75 3d 9f cd 16 be 7b d7 d1 3d
       -0.016808964 0.0599214 -0.14726876 0.10246178
000350 83 17 95 bd 5d 69 8b bd 4a c8 43 3d b9 fb 98 3d
       -0.07279875 -0.06807206 0.047798432 0.07469887
000360 6e 51 eb bd b5 4f 16 3e 0a d8 36 3d 27 f6 a2 bc
       -0.11490141 0.14678843 0.044639625 -0.019892765
000370 bd 3d c5 3d a8 e7 27 be 6d 1d f3 bd 10 58 c1 3d
       0.09630916 -0.16396964 -0.11870847 0.09440625
000380 4f 46 bb 3d ba 8d b4 bd 45 b0 d5 3b 12 86 6d 3c
       0.0914427 -0.08816095 0.006521257 0.014497297
000390 09 0b 71 3d 43 26 aa bb ff b4 27 be 8b c2 8a 3c
       0.058848415 -0.0051925494 -0.16377638 0.016938468
0003a0 0d ee 1b bd 23 92 fa 3d a2 be ee bc 78 fe c7 bd
       -0.03806882 0.122349046 -0.029143635 -0.09765333
0003b0 31 b9 0a be 58 cc b4 bd 3b 49 a3 3c c1 d5 29 3e
       -0.13547207 -0.08828038 0.01993238 0.16585447
0003c0 f5 90 f7 bc dc 38 91 bd 39 17 e5 3d 49 6f 61 bc
       -0.030220488 -0.07090923 0.1118607 -0.013759443
0003d0 7e b5 0c bd 1d fd ef 3d f9 a5 df bd db 6c bd bd
       -0.034352772 0.117181994 -0.10920329 -0.09249278
0003e0 55 f9 94 3b b0 78 b1 3d 74 15 3f 3d 5e 19 16 3d
       0.0045463243 0.086655974 0.04665132 0.036645286
0003f0 9c b7 7d 3d 6e 91 0f be f4 e1 d5 bd 70 fc 2a bd
       0.06194268 -0.14020321 -0.10443488 -0.04174465

conv_block_3.2.bias f4 [8]
000000 b3 b0 b4 bd d0 06 ce bc ba 26 91 bd 59 7b 5b 3d
       -0.08822765 -0.025149733 -0.07087465 0.05358443
000010 4f 02 22 be 2a 3b 5e 3d 24 c2 13 be 4f bd f8 bd
       -0.15821193 0.054255642 -0.14429528 -0.12145483

conv_block_3.3.weight f4 [8]
000000 03 00 80 3f 36 fc 7f 3f 87 02 80 3f 67 e8 7f 3f
       1.0000004 0.9999422 1.0000771 0.9996399
000010 9c ed 7f 3f e6 f4 7f 3f d7 08 80 3f e4 0b 80 3f
       0.9997194 0.9998306 1.0002698 1.0003629

conv_block_3.3.bias f4 [8]
000000 c2 07 55 38 9d 5b 08 b8 5d ba 30 b8 28 45 28 39
       5.0790382e-05 -3.251025e-05 -4.2135234e-05 0.00016047491
000010 b9 a4 8b b9 c8 1b b9 37 7c d8 b1 39 80 e5 bc 39
       -0.00026634874 2.2066655e-05 0.00033921364 0.00036029145

conv_block_3.3.running_mean f4 [8]
000000 ee b5 66 bd e3 e8 46 3c b4 57 e9 bd 30 16 41 3d
       -0.056325845 0.012140485 -0.11393681 0.0471403
000010 76 e8 15 bd 85 35 b8 3d 30 c9 b2 bd 36 6a 20 be
       -0.036598645 0.08994583 -0.0872978 -0.15665516

conv_block_3.3.running_var f4 [8]
000000 d7 01 13 3f 84 3d 12 3f 5c 55 0e 3f 75 14 11 3f
       0.5742468 0.57125115 0.55599 0.5667184
000010 dd 59 0d 3f e7 62 15 3f 7f 79 0c 3f ba be 17 3f
       0.55215245 0.5835404 0.5487289 0.592754

conv_block_3.5.weight f4 [8, 8, 3, 3]
000000 04 69 ae 3d 27 77 57 bd 3f 95 4a bd f7 9a 9c 3d
       0.08516124 -0.052603867 -0.04945874 0.07646745
000010 66 fa 8a 3c d0 b9 0c 3a 5a d1 83 3d e7 5f c3 bc
       0.016965102 0.00053682644 0.06436415 -0.02384944
000020 a1 4a 3b bd 78 e4 8a bd f5 23 66 3d 86 2c fc 3c
       -0.04572547 -0.06781858 0.056186635 0.03078295
000030 33 4e ae 3d 0d 43 39 3d 87 7b bb bc b8 3a db bd
       0.08511009 0.04522996 -0.02288605 -0.10704559
000040 14 76 f9 bc ae 77 a2 bd 08 8a 99 3d 19 c5 6a bc
       -0.030451812 -0.07932983 0.074970305 -0.014329218
000050 4d 19 bc 3c 86 01 54 3d 48 37 20 bd 6e e6 a1 3d
       0.022961283 0.051759265 -0.03911522 0.07905279
000060 3f 58 9e 3d 3d e7 0e 3d a4 c2 f0 3d bc 01 7a bd
       0.07731675 0.034888495 0.11755875 -0.06103681
000070 3a c4 60 3d 8e f7 b6 3d b6 08 0c bb ad 67 bf 3d
       0.054874636 0.08933936 -0.0021367497 0.093459465
000080 b2 f6 95 bd 98 28 c5 bc ea 21 82 3c 7d 86 93 bc
       -0.07322444 -0.024067208 0.015885312 -0.018008465
000090 4b 94 aa bc 7e ea 67 3c c4 1d 35 bd fe 1a ca bd
       -0.020822665 0.014155028 -0.04421784 -0.098684296
0000a0 de a1 cf bd c9 67 9d bd ab 63 d0 bd 2f 51 57 3d
       -0.101382956 -0.07685811 -0.1017526 0.052567657
0000b0 94 62 f5 3b d0 8e da 3c 07 a3 bc 3b e5 08 d8 3d
       0.007488558 0.026679426 0.005756739 0.105485715
0000c0 53 24 e2 bd 48 df d1 3c b1 a7 a7 3c 8a 14 4a 3d
       -0.110420845 0.025619164 0.020465704 0.049335994
0000d0 08 15 c2 3d 98 ae f8 3c 3f 87 0d bd 8d cf a0 bd
       0.09476668 0.03035669 -0.03455281 -0.07852087
0000e0 04 33 ab bd 6f 81 28 3b aa 00 ca 3c 4c a9 aa bd
       -0.0835934 0.0025711914 0.02465852 -0.08333072
0000f0 08 55 48 3d 3f e9 37 bd 58 2c 17 bd 49 a9 8a 3d
       0.048909217 -0.044900175 -0.036907524 0.0677057
000100 b0 b3 87 3d b0 c7 8c bd 70 b8 3b 3c ba 0b b0 bd
       0.066260695 -0.06874025 0.011457548 -0.08595987
000110 fc 9f df bd 80 f5 2b bd 9f f8 6d 3d df 60 84 3d
       -0.109191865 -0.041982174 0.05809843 0.06463789
000120 c6 a3 f1 3d d2 85 98 3d 51 3c dc 3d c5 16 85 bd
       0.117988154 0.07447399 0.10753692 -0.064984836
000130 8e b2 04 3d 5f c3 22 bd 3b 79 d7 bd f1 ff 7d 3d
       0.032396846 -0.0397371 -0.1052117 0.062011663
000140 42 0f c1 3d 11 07 60 bb 41 85 9d 3d a5 7d 85 bd
       0.09426738 -0.00341839 0.07691432 -0.065181054
000150 87 f2 ba 3a 5e ba 78 bd 43 0e 5a 3c e4 4d cd 3d
       0.0014262953 -0.06072461 0.013309064 0.10024622
000160 33 66 17 3d c0 d5 e0 3d 87 76 8a bd da 76 59 3d
       0.0369627 0.109782696 -0.067608885 0.05309186
000170 c9 a5 d4 bd bc f2 93 bd b9 c4 d2 3c a6 18 e9 3c
       -0.103831835 -0.07224032 0.02572857 0.028454136
000180 97 0a ef bd d8 0b ad 3c 22 7b db 3d 58 ff d4 bd
       -0.11671942 0.021123812 0.10716845 -0.104002655
000190 f1 81 e1 bd 0b 1f 95 bd f2 eb a3 3d 26 e6 e7 3d
       -0.110111125 -0.072813116 0.08003987 0.11323194
0001a0 31 95 c5 3c 69 04 f8 3c 3f 08 ab bd 3e 41 c2 3d
       0.024118992 0.03027554 -0.08351182 0.094851
0001b0 24 f7 80 bd d1 1d 8b 3d 35 03 cc bd 5c 9d 9b bc
       -0.06297138 0.067927964 -0.09961549 -0.018995933
0001c0 2f 5e 8a 3b ff e2 bb 3c 4d e2 a0 3d fb aa 91 3d
       0.0042226533 0.022935389 0.078556634 0.0711269
0001d0 e2 12 9e 3d c0 db d0 bd b2 4b 80 bc 48 fb 67 3d
       0.07718445 -0.10198164 -0.015661094 0.056636125
0001e0 81 ea a2 bc c4 20 bd bd 41 89 42 bd 43 aa 24 3c
       -0.01988721 -0.09234765 -0.047494177 0.010050359
0001f0 60 6c 96 3d de c7 e0 bd 22 2d 5f bd 70 cc a6 3c
       0.0734489 -0.10975622 -0.0544864 0.020361155
000200 0a cf 9a 3d 2b e4 d3 3d 5d 44 6c bd 3a 5a 0f 3d
       0.07559021 0.10346254 -0.057682384 0.034998156
000210 26 64 8c 3d 64 2c af 3d 38 5d a1 b7 b1 6d 92 3d
       0.06855039 0.08553389 -1.9236104e-05 0.07149828
000220 a7 f5 e3 3d 9a 66 8d 3c 8c 5c 84 bd d9 4e 02 bb
       0.11130839 0.017260838 -0.064629644 -0.0019883423
000230 b4 af e3 bd cf f6 0d 3d 41 29 df 3c 9f c5 ee 3c
       -0.11117497 0.034659203 0.027241351 0.029146967
000240 33 fa c5 3d 80 7d db 3d e4 f5 50 3d 7b cf be 3d
       0.09666862 0.107172966 0.05101575 0.093169175
000250 95 20 c3 3d 10 ce ef bd ed 2e 49 3d 9e 11 0e bd
       0.09527699 -0.11709225 0.049117018 -0.03468477
000260 3a f7 cf 3d 52 93 8c 3d 5a 06 d5 3c 7c a2 89 bc
       0.101545766 0.068640366 0.026004005 -0.016801111
000270 19 4e e6 bd 23 b7 a2 bd 65 f0 a5 3d 92 ca a3 3d
       -0.11245365 -0.07945087 0.08102492 0.079976216
000280 0e 4d b2 bd 1d 81 df 3c 3b ae 6d 3d 10 82 30 bc
       -0.08706103 0.027283246 0.058027487 -0.010773197
000290 0e c2 be 3d 96 3e 4c 3d 79 18 57 3d ef 53 d6 bd
       0.09314357 0.049864374 0.052513573 -0.10465228
0002a0 42 66 db 3d b4 32 eb bc e3 64 04 3d 60 0d 85 bc
       0.107128635 -0.0287107 0.032322776 -0.01624173
0002b0 d5 42 39 bd a9 5a 19 3d 1a 60 9e 3b 60 15 c6 bd
       -0.04522975 0.037439976 0.0048332335 -0.09672046
0002c0 13 85 b6 3d 5b 2b dc bc c9 66 c3 bc cb 1f ef 3d
       0.08912101 -0.026876142 -0.023852723 0.11675986
0002d0 d7 49 b0 bd 68 06 7a bd 8e 08 8c 3d 22 54 48 bc
       -0.08607834 -0.061041266 0.06837569 -0.01222709
0002e0 f4 32 73 3c be 15 85 3d cb 5e 95 bd 31 74 a3 bd
       0.014843691 0.064982876 -0.07293471 -0.07981146
0002f0 11 6e c0 3c c4 4b 84 3d 54 b5 dd 3d a6 96 aa bc
       0.023489984 0.06459764 0.10825601 -0.020823788
000300 11 ea 88 bd 54 1a 27 3c 71 0f 88 bb d6 c6 3f bc
       -0.066852696 0.010199148 -0.0041522314 -0.011705121
000310 88 79 9b bd 68 78 c2 bd 26 87 a7 bd 7f d0 4e 3d
       -0.075915396 -0.09495622 -0.081800744 0.050491806
000320 a3 7e 79 3c a8 18 4b 3d 23 b3 b3 bd 01 a3 bd bd
       0.015227946 0.04958406 -0.08774402 -0.09259606
000330 00 69 cd 3d 83 05 e9 3d 53 d1 4b 3c 13 d2 ba 3d
       0.10029793 0.113780044 0.0124400435 0.091221
000340 f0 99 eb 3d 5c c9 7a bd 19 e3 2c bb 13 d0 1b 3c
       0.115039706 -0.061227188 -0.0026380478 0.009510058
000350 61 45 33 3d ea 5d e7 3d f8 0f ce bd 37 fe 91 3d
       0.043767337 0.112972096 -0.100616395 0.07128566
000360 0e 15 7a 3d cc 41 b4 bb 3f 88 ab 3b 39 37 b0 3d
       0.061055236 -0.0055010077 0.0052347477 0.08604283
000370 a5 3f d9 3c 23 51 9e 3d a5 ce a4 bd 21 20 d2 bd
       0.026519606 0.07730319 -0.08047227 -0.10260034
000380 0e e3 88 bd fd 6a c8 bd f1 64 74 3a 69 23 a2 bd
       -0.06683932 -0.097860314 0.0009322903 -0.0791691
000390 e1 ed 70 3c 37 49 cf 3c 0f bd 74 bd c5 51 04 3b
       0.014705152 0.025303466 -0.059750613 0.002019034
0003a0 bf 14 a5 bd b6 36 8b 3d ff 4e 11 3a dc a0 82 bd
       -0.08060598 0.06797545 0.00055430824 -0.06378338
0003b0 6a 7f 8d bd 34 34 90 3d 8a 5c 07 3d c8 d7 8f 3d
       -0.06909068 0.07041207 0.033047237 0.07023579
0003c0 ba 72 a1 bd 69 d0 31 bd 95 67 4b bc 1f e5 72 3d
       -0.078832105 -0.043411646 -0.012414833 0.05930054
0003d0 50 83 a8 3d 27 5b ea 3d 4e 49 b6 bc f6 14 2c 3d
       0.08228171 0.11443167 -0.022251751 0.042012177
0003e0 45 52 7f bd 11 5a 8f bd b1 26 5e 3d 9d 1c e1 bc
       -0.062334318 -0.06999601 0.054236118 -0.027479464
0003f0 14 29 e0 3d 39 18 90 3d 97 14 c1 3d c7 84 21 3c
       0.10945335 0.0703587 0.09427755 0.009858317

conv_block_3.5.bias f4 [8]
000000 e7 bb 09 3b 0b 37 0c 3d 5d 3d 87 bd 92 a4 7d bc
       0.002101654 0.03423218 -0.06603501 -0.015481131
000010 a8 a1 88 3d bf 1a ae 3d ab 52 8a 3d 41 06 62 bd
       0.066714585 0.08501195 0.06754049 -0.055181745

conv_block_4.0.weight f4 [8]
000000 78 0f 80 3f 5c 02 80 3f 21 ea 7f 3f 57 e3 7f 3f
       1.0004721 1.000072 0.9996663 0.9995627
000010 00 0b 80 3f 2e e5 7f 3f 3a ed 7f 3f 67 05 80 3f
       1.0003357 0.99959075 0.99971354 1.0001649

conv_block_4.0.bias f4 [8]
000000 3c 94 d7 39 da 52 a6 39 70 11 5b b9 71 e9 ec b9
       0.0004111844 0.00031723717 -0.00020891964 -0.00045187355
000010 bb 3b 52 39 90 d9 a1 38 41 ba 2b b9 27 63 be 39
       0.00020049412 7.7176024e-05 -0.00016377216 0.00036313498

conv_block_4.0.running_mean f4 [8]
000000 0f 2f c6 3d 92 cc 5c 3e 15 a3 43 3e 80 03 1a 3e
       0.096769445 0.21562412 0.1910518 0.15040398
000010 c2 8e 12 3e 5d 1d 6f bb 27 c7 2f 3e fb bc 25 3e
       0.1431227 -0.0036486008 0.17165814 0.16185372

conv_block_4.0.running_var f4 [8]
000000 2c 8f 0e 3f 60 f1 11 3f 3d 0a 0e 3f d0 1a 22 3f
       0.5568721 0.57008934 0.5548437 0.6332216
000010 e0 78 0a 3f ed 2b 0d 3f 17 04 11 3f 46 72 18 3f
       0.5409069 0.5514515 0.56646866 0.5954937

conv_block_4.2.weight f4 [16, 8, 3, 3]
000000 02 e5 74 bd 58 f2 0c bd 07 31 bd bd 97 bc 25 3d
       -0.05978871 -0.034410805 -0.09237867 0.040463056
000010 6a 48 51 3c bd d0 c3 bd 94 78 81 3d 6b 7a c6 3b
       0.0127736125 -0.09561298 0.063218266 0.006057074
000020 8f de ce 3d 58 ed ee 3d 99 f2 e8 bd 4a d3 bd 3d
       0.101010434 0.116663635 -0.11374397 0.09268816
000030 9a 9d ec 3d 22 c8 ad bc e8 fc eb 3c 72 18 b5 3d
       0.115534976 -0.021213595 0.028807119 0.08842553
000040 da 08 bd bd 9b bf b1 bd 88 9d bd bd bc 18 a0 bd
       -0.09230204 -0.08679124 -0.09258562 -0.07817218
000050 5e f2 20 3d 8e 05 0b 3d 58 7a 92 bd 63 66 44 bd
       0.03929364 0.033940844 -0.071522415 -0.047949206
000060 70 cf 14 bd c7 fc f8 ba e5 64 65 bd 44 15 d1 bd
       -0.03633064 -0.0018996232 -0.056004424 -0.10209134
000070 9f 9c c0 3c eb fa 22 3d 27 78 15 bd b9 0e 29 bc
       0.023512183 0.039790075 -0.03649154 -0.010318452
000080 4d 0a 07 3d e1 1b eb bd d8 b6 d6 bd 8e 28 d2 bd
       0.032968808 -0.11479927 -0.104840934 -0.102616414
000090 95 e3 7a bc 74 31 9f 3d f8 da bb 3d 9c b8 47 bd
       -0.015313049 0.07773104 0.09172624 -0.04876004
0000a0 b0 51 ec 3d 67 6a ca 3d 89 a3 c4 bd 64 0d 6c bd
       0.11539018 0.09883576 -0.09601504 -0.057629958
0000b0 10 1c 74 bd cd 62 39 3d 9c 62 d3 3d 7b 6a 23 3d
       -0.059597075 0.04526024 0.103215426 0.03989647
0000c0 42 98 1f bd 1e 59 80 bc 89 9b 47 bc ea 41 cf bb
       -0.038963564 -0.015667494 -0.012183079 -0.0063249962
0000d0 ea a0 00 bd e9 cb 5f bd 80 5f 82 3d 3c 31 e0 bc
       -0.03140346 -0.054637823 0.063658714 -0.027367227
0000e0 94 62 ea 3a 91 29 1c bd c8 4d c4 3c bf 38 54 3c
       0.0017882162 -0.03812558 0.02396287 0.012952982
0000f0 c9 e9 9d bc c6 eb 14 bd b0 12 73 bd 7d 35 ad 3a
       -0.019276517 -0.036357664 -0.059343994 0.0013214793
000100 d6 ea 65 bd 6d 4a b3 3c d9 9e b6 3d 2b a8 c6 3d
       -0.05613216 0.021886075 0.089170165 0.09700044
000110 13 ee bd bd f8 1f e6 3c 9c b6 cb bd ee ba 37 39
       -0.09273925 0.028091416 -0.09946939 0.00017521877
000120 5c 48 98 3d 54 fc 90 3d 5b bb e0 bd a9 2d f7 bc
       0.074356765 0.07079378 -0.10973235 -0.03017314
000130 21 3b f2 bc d2 c2 83 3d c5 14 ae 3d 14 6d 96 bd
       -0.02956921 0.064336434 0.08500055 -0.07345024
000140 b4 a9 f1 bd 78 66 d4 3b 31 b1 c5 3c b6 9d c5 bd
       -0.117999464 0.006481942 0.024132343 -0.096492216
000150 d6 cd 89 3d a6 35 eb bd bd 2a e9 3d 81 00 98 bd
       0.06728713 -0.11484842 0.11385105 -0.07421971
000160 7a 77 38 3d 30 41 3e bd a4 a6 9f 38 f6 4e 50 bd
       0.045035817 -0.046448886 7.61275e-05 -0.050856553
000170 b9 e9 9a 3d 1d 4a e7 bb 18 4a a7 3d 36 00 0a bd
       0.0756411 -0.0070583955 0.08168429 -0.033691607
000180 85 cd eb bd 4e 9c 4d 3c a4 03 d4 bd 6d bc 47 3d
       -0.11513809 0.012549473 -0.10352257 0.04876368
000190 72 b2 c6 bd 45 72 a2 bd 62 85 90 bb 9e a7 5f 3d
       -0.097020045 -0.079319514 -0.0044104317 0.05460321
0001a0 97 9f 86 3d 13 ac ef bd f6 c3 95 bd 6b 45 04 3d
       0.06573408 -0.117027424 -0.07312767 0.032292765
0001b0 9b 09 53 3d ae 00 b0 bd 47 7c e7 bd 57 e8 48 3a
       0.051522832 -0.0859388 -0.11303001 0.0007664016
0001c0 17 13 18 3d 9f eb df bd 72 48 c9 bd ee f2 fc 3b
       0.03712758 -0.10933613 -0.09828271 0.007719389
0001d0 42 e3 d5 3d c0 29 d4 3d 4f ed 7b 3c a4 d3 81 3d
       0.104437366 0.10359526 0.015376403 0.06339195
0001e0 fd 1b ac 3d 2f 63 cc bc b5 33 7c 3c 75 d8 a0 3d
       0.08403776 -0.024949638 0.015393187 0.07853786
0001f0 18 3a d0 3c 0d 8f c6 3b 7c bb 5e 3d c7 aa a9 bc
       0.025418326 0.0060595335 0.054378018 -0.020711316
000200 84 66 da 3d fe 9f 8c 3d ae ef 6d 3d c0 9d 64 3d
       0.106640846 0.068664536 0.058089904 0.055814505
000210 b8 b6 66 bc e0 b8 88 bd 8e 6d cf bc 09 eb a9 bd
       -0.0140816495 -0.06675887 -0.025320794 -0.082967825
000220 91 be c3 3d 88 06 d3 3d ed 13 c9 3d 99 64 9b 3d
       0.09557832 0.1030398 0.09818254 0.07587547
000230 28 d3 e1 3d 6d b3 d8 3d ef e6 9a bb 56 cf e8 bd
       0.11026603 0.10581098 -0.0047272365 -0.11367671
000240 1a 4c 88 3d 00 b6 f0 bd 8c ed 9a 3d 33 7c c1 bd
       0.0665514 -0.11753464 0.0756484 -0.09447517
000250 3f 41 1c 3c 7b 12 e7 3d 92 6a dd 3d 51 27 dc 3d
       0.00953704 0.11282822 0.10811342 0.107496865
000260 2f d4 f6 3c 71 ec 2f 3d f0 3a 80 bd c5 22 0d bd
       0.030130474 0.042950097 -0.062612414 -0.034456987
000270 26 9e 9b 3c a1 dd 33 bc 5e c4 23 3d ad fd 14 bd
       0.01899631 -0.010978133 0.039982192 -0.036374737
000280 1e 46 ed 3d cb 36 72 3d 92 07 c4 bd b3 eb ce 3c
       0.115856394 0.059134286 -0.095717564 0.025258875
000290 ba cd 18 bd 9a 20 bb 3c 9e 4c 09 3d 33 10 69 3d
       -0.03730557 0.022842694 0.033520333 0.056900214
0002a0 86 37 8a 3c 38 53 b4 3d c5 80 cb 3c 17 82 c2 3b
       0.016872179 0.08804935 0.024841676 0.005935918
0002b0 05 09 c3 bd 37 ee db 3d 42 47 4a 3d 48 88 8c 3d
       -0.09523205 0.10738795 0.049384363 0.06861931
0002c0 9c 6c 3a bd b7 de fd bc 7f 95 75 bd d7 b2 9e bc
       -0.045513734 -0.030989988 -0.059957024 -0.019372387
0002d0 f8 63 20 bd 9e 1f 5e bd 6d ac ae bd 6d 27 06 3d
       -0.039157838 -0.05422937 -0.08528981 0.032752443
0002e0 2b cb de bd 42 87 da 3d 6a 53 60 bd 8d 6b 81 bd
       -0.10878595 0.1067033 -0.05476705 -0.06319342
0002f0 44 7e f0 bc 63 81 50 3d 18 a6 bb bd 18 be c9 bc
       -0.029357083 0.050904643 -0.09162539 -0.024626777
000300 88 4f f0 3d e8 9c a8 3c f4 ad a3 bd f5 0c 82 bd
       0.117339194 0.020582631 -0.07992163 -0.063501276
000310 f9 16 b6 bc cc 60 5b 3d 94 59 d1 bd ea ed c7 bd
       -0.022227751 0.05355911 -0.10222164 -0.097621754
000320 93 c1 68 bd b4 e5 c9 bd 18 da 9e 3d 11 04 50 3d
       -0.05682523 -0.098582655 0.07756442 0.050785128
000330 46 0e a1 3c 12 7c 98 3d 3d 4e c5 3c 17 26 12 bd
       0.019660126 0.074455395 0.024085158 -0.035680857
000340 db 04 8c 3d 4b 0d e1 3d bd bd ee bd 24 e9 ad 3d
       0.068368636 0.109888636 -0.116572835 0.08491734
000350 ea 7b bc 3d 99 e4 8e 3d 9a 80 d8 ba a6 45 5c 3d
       0.09203322 0.06977195 -0.0016517818 0.05377736
000360 52 cb df bc b3 86 9f 3d fc 9c 75 bd a1 9a d5 bd
       -0.02731863 0.07789364 -0.059964165 -0.10429884
000370 2f 13 be 3d 92 03 da bd f3 30 45 bc 9f be e2 bd
       0.09281003 -0.10645212 -0.012035596 -0.11071514
000380 fc db a0 bc 5a 4d be 3d 31 82 d2 b9 23 63 99 bb
       -0.019636147 0.092920974 -0.0004015132 -0.0046810075
000390 9c 9c 60 bd 44 69 99 3d 4e 85 ce 3d fe 8c db bd
       -0.054836854 0.07490781 0.100840196 -0.107202515
0003a0 a5 ea 08 3d 96 02 ec bd 78 ef 3c bd a9 31 54 3b
       0.0334269 -0.11523931 -0.046126813 0.0032378233
0003b0 f9 a7 15 3d 76 2e dc 3c 4e d0 59 3d c4 d1 dd 3d
       0.036537144 0.026877623 0.05317717 0.10831025
0003c0 35 30 93 3d 95 87 0b 3d 83 7b e1 3d 2a 63 d8 bd
       0.07186929 0.034064848 0.11009886 -0.10565789
0003d0 30 7f 06 bd 7b bc 88 bd a9 12 54 bd 01 02 95 bd
       -0.03283614 -0.06676575 -0.05177561 -0.07275773
0003e0 ea 68 d2 3d a4 d7 8d 3d 9c 8e bf bd 3f fd 8d bd
       0.10273917 0.06925896 -0.093533725 -0.069330685
0003f0 ca 1b b5 3d ed d4 b8 bd f7 33 b1 3d a4 0f 7f 3b
       0.08843191 -0.09024987 0.0865249 0.0038919235

conv_block_4.2.bias f4 [16]
000000 8c ea b1 bd 59 bf e0 bd fa ef 06 bd 90 c5 aa 3d
       -0.086873144 -0.10973997 -0.032943703 0.08338463
000010 55 22 09 bc 0f e7 33 3d f0 57 a2 3c 15 ec ba 3d
       -0.008370002 0.043921527 0.019817322 0.0912706
000020 a5 12 8c 3d a3 1e 8e 3d 8d e4 cc 3d b2 30 9f bd
       0.06839494 0.06939437 0.1000453 -0.0777296
000030 df 17 86 3d b8 2c 1e 3d 6d 6e c3 3d 72 3d f0 3d
       0.06547522 0.038616866 0.095425464 0.1173047

conv_block_4.3.weight f4 [16]
000000 36 f3 7f 3f f5 f4 7f 3f b3 f3 7f 3f 29 0e 80 3f
       0.99980485 0.9998315 0.9998123 1.0004321
000010 4b e6 7f 3f 27 05 80 3f b8 0c 80 3f 2f fa 7f 3f
       0.99960774 1.0001572 1.0003881 0.99991125
000020 ab 0a 80 3f 6c 03 80 3f f7 0b 80 3f 65 f7 7f 3f
       1.0003256 1.0001044 1.0003651 0.9998687
000030 23 f5 7f 3f d0 e3 7f 3f be e5 7f 3f 79 db 7f 3f
       0.99983424 0.9995699 0.99959934 0.99944264

conv_block_4.3.bias f4 [16]
000000 7e 61 5d b9 27 bd fe 38 dd 1c 43 b9 f4 be 56 39
       -0.00021112521 0.00012146896 -0.00018607402 0.00020479766
000010 55 79 cf b9 1b cb e9 39 53 e8 b7 b9 18 43 5b 38
       -0.00039572516 0.00044592549 -0.00035077575 5.2276155e-05
000020 70 10 0b b9 ce 4d 8a b8 97 f2 b0 39 da 46 9b b9
       -0.00013262196 -6.594845e-05 0.0003375008 -0.00029616692
000030 e5 dd 07 39 55 cc dd b9 24 3a 5c b9 38 e4 d8 b9
       0.00012957265 -0.00042304644 -0.00021002494 -0.00041368767

conv_block_4.3.running_mean f4 [16]
000000 0a d3 07 be 5f f2 46 3c 7e 9a 6d 3d 22 b8 2e bd
       -0.13264099 0.012142747 0.058008663 -0.04265607
000010 c6 94 e3 3c 7d 09 45 bd 7f c9 2e 3b 65 49 34 3e
       0.027780902 -0.04810475 0.0026670394 0.17606123
000020 59 e6 9f 3e 4e 3e a6 3d 1c b8 82 3e b2 d0 b7 3d
       0.3123043 0.081173524 0.2553109 0.08975352
000030 5c 94 e0 3d ec 7f 71 bd 9e de 9a 3d e0 9e c3 bd
       0.10965797 -0.058959886 0.07561992 -0.095517874

conv_block_4.3.running_var f4 [16]
000000 20 dd 1c 3f f2 ae 16 3f 57 31 24 3f d6 0d 14 3f
       0.6127491 0.58860695 0.64137787 0.5783361
000010 37 96 16 3f ae 38 31 3f c2 52 13 3f a6 cc 25 3f
       0.5882296 0.6922711 0.57548153 0.64765394
000020 4a 70 47 3f 8d db 11 3f 98 b1 2d 3f 48 4d 1d 3f
       0.77905715 0.5697563 0.6784911 0.61446047
000030 6b 2f 1b 3f 4c e6 16 3f d7 30 11 3f 47 2d 24 3f
       0.6061923 0.58945155 0.5671515 0.6413159

conv_block_4.5.weight f4 [16, 16, 3, 3]
000000 03 aa ef bc cc c3 80 bd 12 80 4b bc 44 ec 46 3d
       -0.029255873 -0.06287345 -0.012420671 0.048565164
000010 86 5b f1 bc 60 47 45 3c 01 ca 92 bc 49 77 a4 bd
       -0.029462587 0.012040943 -0.017918589 -0.08030564
000020 1a 61 0f bd 83 42 6d bd b9 77 9a bd 8f 02 91 3c
       -0.035004713 -0.05792476 -0.075423665 0.017701415
000030 25 61 7e 3c 8c 3a 94 3d 47 6a 1c 3c 98 b7 8a 3d
       0.015526091 0.072377294 0.009546823 0.06773299
000040 01 e5 a2 bd 3f 0d 32 bd a8 79 c8 bb 36 4d a5 3c
       -0.07953835 -0.043469664 -0.006118018 0.020178419
000050 67 a1 31 3d ac e6 32 bd d6 f7 ce ba 93 e7 77 bb
       0.043366816 -0.043677017 -0.0015790414 -0.0037827238
000060 a7 fd 51 3c 3d 76 54 3d 4e bd 6a 3c 93 15 73 bd
       0.012816823 0.051870573 0.01432736 -0.059346747
000070 a4 36 1c bd 87 f0 85 3d 8f b1 1f 3d 9f a4 21 bd
       -0.038138047 0.065400176 0.038987692 -0.039463636
000080 24 1c d4 bc 86 f6 93 bd 62 cb cd bb 77 20 be bb
       -0.025892325 -0.07224755 -0.0062803486 -0.00580221
000090 fe 4e 51 3d db 9f 9a bb 97 b0 54 bd a8 d7 da 3c
       0.051100723 -0.0047187633 -0.05192622 0.026714161
0000a0 25 d8 cd ba 4d 54 24 3d 45 a4 a3 3d 5b 37 a0 3d
       -0.0015704675 0.040119458 0.07990316 0.07823058
0000b0 a9 19 40 bd 64 54 8e bd fd ed ae 3c 1b b7 bc bb
       -0.04689947 -0.0694969 0.021353716 -0.0057591326
0000c0 38 59 60 bd 9e d0 13 bd 05 76 81 bd 15 4f 12 3d
       -0.054772586 -0.036087625 -0.063213386 0.03571995
0000d0 d8 04 9a 3c ce 9d 7d bd a2 9e c4 3b 50 9b 78 3d
       0.018801138 -0.061918072 0.006000356 0.060694993
0000e0 b6 9a 9c bd 9e 80 4a 3c 63 d9 ec bc bd 33 98 bd
       -0.07646696 0.012359766 -0.028912252 -0.07431743
0000f0 5f cb 87 bd ee de 0c bb 1c 5b 06 3d 74 38 8a 3d
       -0.06630587 -0.002149518 0.032801732 0.06749049
000100 08 4d 62 bd bb 06 e4 3c a0 3b fe 3c 80 e8 be 3a
       -0.055249244 0.02783524 0.03103429 0.001456514
000110 a0 d2 08 bd 1e 63 79 3d 63 6f a2 bd 76 b6 94 3c
       -0.033403993 0.06088554 -0.079314016 0.01815341
000120 13 b0 a0 3d 37 95 18 bd 8a 4b 1d 3d 37 e6 13 3d
       0.078460835 -0.037251677 0.038402118 0.03610822
000130 c4 ef 54 3d c2 b5 8b bd 6d 92 31 3d b7 aa 66 3d
       0.05198647 -0.06821777 0.043352533 0.05631515
000140 d1 75 71 3c de 28 06 3d f7 f0 ee 3b bf 93 fb b9
       0.014737562 0.032753818 0.007291909 -0.0004798453
000150 7f 4f 8c bd b2 81 1b 3d f1 aa f8 bb b9 dd af 3c
       -0.068511 0.037965484 -0.007588737 0.02146803
000160 a0 e0 c1 bc 51 b2 65 bd 93 ee 81 3d 2b 11 53 3d
       -0.02366668 -0.05607826 0.063443325 0.051530045
000170 d3 42 a6 3b 98 21 2f 3c 04 59 99 3d 63 df 8a bb
       0.005073884 0.010689162 0.074876815 -0.0042380556
000180 27 6b 39 3c aa 5d a2 bc fa 89 62 3d 70 78 31 3c
       0.011317051 -0.019820053 0.055307366 0.010831937
000190 30 75 9a bd d0 c1 37 3d d8 82 30 3c 50 0b a6 bc
       -0.07541883 0.04486257 0.010773383 -0.020269066
0001a0 29 49 99 3d 42 10 02 bd a1 3e 6f bd 4e dd 85 3d
       0.07484657 -0.031753786 -0.058409337 0.06536351
0001b0 ca 1f aa bc 0e 00 45 bd 1b c5 a1 bd 88 f8 a4 bc
       -0.020767111 -0.048095755 -0.07898923 -0.02013804
0001c0 28 62 13 3c 1d d0 78 3c 8c bb 15 3d f4 40 49 3d
       0.00899557 0.015186337 0.03655581 0.04913421
0001d0 d7 ac 18 bd 62 b1 9d bd 6b 46 50 3d 44 c7 9f 3d
       -0.037274208 -0.07699849 0.050848406 0.07801679
0001e0 77 f7 00 3c 6d 0b a9 3d 80 8c a5 bd b3 a5 9c 39
       0.0078715 0.082541324 -0.08083439 0.00029878094
0001f0 ad e0 04 3d a6 11 bc 3c b0 84 53 3d 68 b8 3a 3d
       0.03244083 0.022957634 0.051640213 0.04558602
000200 2e b5 89 3d d6 29 99 bd 8f 4d b8 3c ad 53 10 bd
       0.067240104 -0.07478683 0.02249792 -0.03523605
000210 c6 51 9d 3d 26 a9 a8 bc 68 14 58 3d 92 68 4e bd
       0.07681613 -0.020588469 0.052753836 -0.050392695
000220 b5 8e 73 3c 52 23 67 3d 4c ed 75 3d ea 16 88 3d
       0.014865567 0.05643017 0.060040757 0.066449955
000230 eb bb 22 3d b1 4c 7d 3c 30 71 a8 3d 3c 78 70 bd
       0.039729994 0.015460179 0.08224714 -0.058708414
000240 4e 45 db 3c 56 eb 8e 3d 46 7e 44 3d fe 2c 8a 3d
       0.026766445 0.069784805 0.047971986 0.06746863
000250 4b 5f a2 bc eb 9b 38 bd e4 6e 75 3c 45 37 88 bd
       -0.01982083 -0.04507057 0.014980052 -0.06651167
000260 1c 04 8b bd a6 84 64 3d 65 92 a7 bb 05 e6 00 3d
       -0.06787893 0.055790566 -0.005113887 0.031469364
000270 23 81 14 3d 0f a1 98 bd af a2 44 bd aa 6e 23 bd
       0.036255967 -0.074525945 -0.04800671 -0.03990046
000280 7a 75 57 bd e1 86 67 3c ad 3a 84 bd 75 6d 64 3c
       -0.05260227 0.014131279 -0.06456504 0.013942112
000290 d4 1c 82 bd 7f 9f 78 bd f5 e1 d8 3b 18 58 03 bd
       -0.06353155 -0.060698982 0.006618733 -0.032066435
0002a0 c2 e3 86 bd 40 a4 db b9 48 e3 20 3d c1 51 5f bd
       -0.0658641 -0.0004189331 0.039279252 -0.054521326
0002b0 a6 40 84 3b 24 c5 91 bd 88 7b 46 bd cd 63 6e 39
       0.004036027 -0.0711768 -0.048457652 0.00022734627
0002c0 61 8f 8e 3c 40 af 57 3d 31 81 8b bd 1c 2b 4a 3d
       0.017402353 0.052657366 -0.06811751 0.04935752
0002d0 00 41 22 bd 34 d3 75 bd 00 30 16 bd 74 2a 91 3d
       -0.03961277 -0.060015872 -0.03666687 0.070881754
0002e0 91 11 6b bd c5 7b 67 bd b8 76 4b bc c5 20 07 3d
       -0.0573898 -0.05651452 -0.0124184415 0.032990236
0002f0 4b 1b cb bc 28 5e 15 3d c8 16 2e bd 50 0e 08 bc
       -0.024793288 0.036466748 -0.042502195 -0.008304194
000300 94 37 22 bd ad c8 89 bd 02 f5 fb bb 39 13 04 bd
       -0.039603785 -0.06727729 -0.0076891193 -0.032244895
000310 96 36 24 bc 04 3c 6a bd 78 05 36 bd e3 91 65 bc
       -0.01002278 -0.05718614 -0.04443881 -0.014011833
000320 ad 40 c1 3c 81 da ec 3c bd 1b d1 bc 67 73 92 3d
       0.02359041 0.028912785 -0.025525922 0.071509175
000330 07 c1 1c bc d2 a2 e7 3c 89 02 5c bd b8 b7 9f bd
       -0.009567506 0.028275881 -0.053713355 -0.077987134
000340 1e 76 42 3d fe 83 e5 3b e4 e1 12 bd dd d0 5e 3d
       0.047475927 0.00700426 -0.035859957 0.054398406
000350 3b 3e 28 bb 49 3c 2d bc 94 22 07 bd 71 2f 9f ba
       -0.0025671858 -0.010573455 -0.03299196 -0.0012144876
000360 bf 06 9a 3d 13 9c 5b 3d 65 d2 15 3d e0 ed 91 bd
       0.07520818 0.05361564 0.0365776 -0.07125449
000370 79 0c 37 3c 95 9b a3 bd 82 97 8f 3d 25 b1 ab 3c
       0.011172407 -0.07988659 0.0701132 0.020958493
000380 89 e8 8d 3d fd cb 58 bd ef 41 28 3d 1f d2 fc 3a
       0.06929118 -0.052928913 0.041078504 0.0019288695
000390 01 ff 8a 3c 4c f8 43 bd 0a 49 83 3d c1 ff ba ba
       0.016967298 -0.047844216 0.064104155 -0.0014266894
0003a0 a8 11 71 bc 82 ac 69 3c 6d c6 86 3c 7f 55 01 3d
       -0.014713682 0.0142623205 0.016452039 0.031575676
0003b0 fa 42 aa ba ad fb a9 bd b2 5c 2d 3d 95 59 c8 3c
       -0.0012989931 -0.082999565 0.04232473 0.024456779
0003c0 89 ff 2c 3d 8e e9 2e bd d5 4e 85 3c e1 81 4b 3d
       0.042235885 -0.042703204 0.016272942 0.04968441
0003d0 48 24 55 3d 49 b1 f8 bc 25 21 8e 3c 30 f6 08 bd
       0.052036554 -0.030357974 0.017349789 -0.033437908
0003e0 37 1b 4c bc 91 06 4b bd 6f 0f 53 bc bc 64 82 3d
       -0.01245766 -0.04956681 -0.012882098 0.0636687
0003f0 5a 7a 88 bc 37 d8 a7 3d c9 64 a7 3d f2 ac 58 bc
       -0.016659904 0.081955366 0.0817352 -0.013224827

conv_block_4.5.bias f4 [16]
000000 04 1f 71 bd d7 c3 cb 3b f3 e8 9b bd 98 d5 70 3d
       -0.05886747 0.0062184143 -0.07612791 0.05879745
000010 e6 60 74 3d 48 4d 30 3d c4 a6 33 bd 17 ee 8e bd
       0.059662722 0.04304245 -0.043860212 -0.06979006
000020 8d dc 07 bd 5a 35 09 3c 29 18 9f 3c 60 42 ea 3c
       -0.033169318 0.008374536 0.0194207 0.028596103
000030 99 96 83 bd 2e 60 06 bc 9c ff 8f 3d 0a 12 a5 bc
       -0.064252086 -0.008201642 0.070311755 -0.020150203

conv_block_5.0.weight f4 [16]
000000 21 0c 80 3f 6a e9 7f 3f 99 fe 7f 3f 64 ef 7f 3f
       1.0003701 0.99965537 0.9999786 0.99974656
000010 f7 fe 7f 3f c2 01 80 3f b5 e4 7f 3f 02 11 80 3f
       0.9999842 1.0000536 0.99958354 1.000519
000020 98 f8 7f 3f 2c 0b 80 3f 8d fe 7f 3f a7 ec 7f 3f
       0.999887 1.0003409 0.9999779 0.9997048
000030 6c 09 80 3f 1d e1 7f 3f 82 fb 7f 3f 44 0e 80 3f
       1.0002875 0.9995287 0.99993145 1.0004354

conv_block_5.0.bias f4 [16]
000000 f4 c7 9b 39 87 3a 4b b9 10 1f 20 b8 ea cc 22 b9
       0.0002971288 -0.00019381392 -3.8175902e-05 -0.0001552586
000010 23 1a 04 b9 b6 d2 ed 37 1a a0 5e b9 8c bd 34 39
       -0.00012598238 2.8350722e-05 -0.00021231212 0.0001723675
000020 09 5d 97 39 66 36 b3 b9 db 2d 4a b8 8f 41 59 b9
       0.0002887028 -0.0003418207 -4.820326e-05 -0.00020719155
000030 2c 96 3b 39 9a d6 97 b9 47 2d ba 39 76 fb b4 38
       0.00017889653 -0.00028960855 0.0003551042 8.629907e-05

conv_block_5.0.running_mean f4 [16]
000000 2b 2d 09 3e 0b 96 bb 3c 38 b9 6f 3d 7e 61 01 3e
       0.13396136 0.022898695 0.058526248 0.12634847
000010 b8 24 12 3e dd 41 89 bd 81 53 00 3e 51 f7 5a bd
       0.1427182 -0.067020155 0.12531854 -0.053458516
000020 3e 62 9d 3d 56 fc 21 3e b0 1f 06 3d 4d 20 85 3d
       0.07684754 0.15818915 0.032745063 0.065003015
000030 f8 cd 5b 3e 02 0d b5 bb 53 e7 6f 3e a3 9b 9d 3d
       0.2146529 -0.0055252323 0.23428087 0.07695701

conv_block_5.0.running_var f4 [16]
000000 86 70 1e 3f 7d 05 0b 3f 3e ac 0e 3f e5 31 0e 3f
       0.6189045 0.5430525 0.5573157 0.55544883
000010 07 2f 0f 3f d9 0d 0d 3f 36 ff 0d 3f 06 84 13 3f
       0.55931133 0.55099255 0.55467546 0.57623327
000020 73 9c 0b 3f b1 1a 0e 3f 84 24 0d 3f ea 81 0b 3f
       0.545356 0.5550948 0.55133843 0.5449511
000030 be 05 16 3f a5 72 16 3f fc c5 13 3f 72 98 0c 3f
       0.5860251 0.58768684 0.57723975 0.54920113
