cloud-detection-code/tests/test_artifacts/test_log_dice_loss/model_checkpoint_4.pt (torch, 439769 bytes, 347 tensors)

input_conv_block.0.weight f4 [3]
00000000: 0c00 803f 1f04 803f d0f9 7f3f
1.0000014 1.0001258 0.9999056

input_conv_block.0.bias f4 [3]
00000000: 84be 6938 c6ca cbb9 bfd6 3bb9
5.572896e-05 -0.00038870255 -0.00017913709

input_conv_block.0.running_mean f4 [3]
00000000: fe87 ca3e 3a34 c83e 00c4 a83e
0.3955688 0.39102346 0.32962036

input_conv_block.0.running_var f4 [3]
00000000: 6e18 db3d 90e7 d33d a765 cd3d
0.10698019 0.103469014 0.10029154

input_conv_block.2.weight f4 [2, 3, 1, 1]
00000000: cc78 b4be a53b 02bf b865 ea3e d2eb d9be
00000010: b788 a33e edc2 b93e
-0.3524841 -0.5087226 0.4578073 -0.4256273 0.31940243 0.3628153

conv_block_1.0.weight f4 [2]
00000000: 4290 7f3f de37 803f
0.99829495 1.0017049

conv_block_1.0.bias f4 [2]
00000000: 4d69 beba d43e b6b9
-0.0014527232 -0.00034760556

conv_block_1.0.running_mean f4 [2]
00000000: 951e 26be 1e5c ad3d
-0.16222604 0.084648356

conv_block_1.0.running_var f4 [2]
00000000: 52bf 173e d95e 053e
0.14819077 0.13024463

conv_block_1.2.weight f4 [2, 2, 3, 3]
00000000: ec77 99bd 1b57 49be bd0e 973d ec75 15be
00000010: ed8c 36be 47c7 513d 4f8d 173d 917c 35be
00000020: aac3 62be 203c 293d 1a21 ac3d 3846 243d
00000030: ff23 c7bd ac4f d03d cf52 df3d 98b2 a6bd
00000040: 06ec c03d cf6b 3cbd 283e 003e e7ed bb3d
00000050: ca75 5fbe ef97 c6bd 4a43 22be 7df5 67be
00000060: 1092 55be 6a2f 01be 9a5d c93d 3010 20be
00000070: 08a5 b13d 9e7f a5bd 6285 9abd 66e1 303e
00000080: 757d 843d 06a3 65be 00d5 453e 151a 18be
-0.074935764 -0.19662134 0.07375858 -0.14595765 -0.17827196 0.051215436 0.036999997 -0.177233
-0.22144952 0.041317105 0.08404751 0.04010603 -0.097236626 0.10171446 0.10904466 -0.08139533
0.09420018 -0.04600125 0.1252371 0.09176236 -0.21822277 -0.09696948 -0.15845981 -0.2265224
-0.208565 -0.12615743 0.09832306 -0.15631175 0.08674055 -0.08080982 -0.07544972 0.17273483
0.064692415 -0.2242547 0.19319534 -0.148537

conv_block_1.2.bias f4 [2]
00000000: 3d37 6c3e 20ff 113e
0.23067947 0.14257479

conv_block_1.3.weight f4 [2]
00000000: 2c20 803f a4bf 7f3f
1.0009818 0.99901795

conv_block_1.3.bias f4 [2]
00000000: cb1e 41ba fddf 83ba
-0.0007366954 -0.001006126

conv_block_1.3.running_mean f4 [2]
00000000: 8c21 b6bc da35 44be
-0.022232793 -0.19161168

conv_block_1.3.running_var f4 [2]
00000000: 2428 563e 090a 233e
0.2091375 0.15921797

conv_block_1.5.weight f4 [2, 2, 3, 3]
00000000: 21ee 413e d97f 1d3e ff90 1c3d 284d 703e
00000010: eb41 b2bc 73fc 383e 0cef 5e3e 18f3 f1bd
00000020: 438a 5bbd 0e81 3dbe 9c76 f0bd a6b0 9dbd
00000030: 731a 6d3e f0c4 29bd 76ac 05bc 6076 483e
00000040: 6498 e13c b5fa 20be 31c0 893d f297 643e
00000050: c9f0 16bd abf1 d83d 235f e3bd af3e 393e
00000060: c276 8fbd fcd0 6fbd 8cc8 febd 6d8e 023e
00000070: cd83 123e a250 0cbd d3d1 043e 8e23 6abd
00000080: 2070 013e 7145 81bd b38e 3cbe 6bcb 93bd
0.18938495 0.15380801 0.038224217 0.23466933 -0.021759948 0.18065052 0.21770877 -0.118139446
-0.053598654 -0.18506262 -0.11741373 -0.07699709 0.23154621 -0.04144758 -0.008158794 0.19576406
0.027538486 -0.15720637 0.06726111 0.22323588 -0.036850724 0.105929695 -0.1110213 0.18090318
-0.07005073 -0.058548912 -0.12440595 0.12749644 0.1430809 -0.034256585 0.12970667 -0.057162814
0.12640429 -0.06312073 -0.1841381 -0.07216533

conv_block_1.5.bias f4 [2]
00000000: 8f89 21be 468d 90bc
-0.1577513 -0.01764549

conv_block_2.0.weight f4 [2]
00000000: d0e9 7f3f 160b 803f
0.99966145 1.0003383

conv_block_2.0.bias f4 [2]
00000000: 602b adba a5ff 90b9
-0.0013211779 -0.0002765629

conv_block_2.0.running_mean f4 [2]
00000000: 53cd 6d3e 55e5 323e
0.23222856 0.17470296

conv_block_2.0.running_var f4 [2]
00000000: 0f40 c33e a1c9 013e
0.3813481 0.12674572

conv_block_2.2.weight f4 [4, 2, 3, 3]
00000000: 5212 2bbe da4e a73c b539 813d 099e bc3d
00000010: 81f1 163e 682a 11bd 0478 5cbc f17a 0cbd
00000020: df74 67be ca3b 0f3e 9ee3 363e fb48 ba3d
00000030: ac0b c23d 6e93 1e3e 77dc 55be 6dbd 023e
00000040: a8dd 99bd 8893 113e 7a70 d3bd 10cf 4c3e
00000050: 592d f23a 54e9 f4bc 8547 663e 3c8f 243e
00000060: ca3d 673e b370 e5bd 2d00 5f3e bcf8 983d
00000070: c986 4a3e 2f49 6ebe 314c e83d 383e e63d
00000080: fddf 3c3e 3ad4 283d fe86 e33d f0e1 6f3e
00000090: 979d 22bc 92b1 463e fc34 973b 04f2 4cbe
000000a0: f242 20be cfe6 543e e288 323e 7c35 6c3c
000000b0: 4ef2 17be ab06 61bd e2aa 363e b6b0 0c3e
000000c0: 47f8 c5bd 168b 26be 6104 4ebe 6233 b1bd
000000d0: ca76 42be 4333 f8bc 49d3 803d 6b54 6b3e
000000e0: f585 133e 274a 11be fe91 46be 2bde 45be
000000f0: 6195 4f3e b26b 28be 6ae0 f73c ac79 51be
00000100: 77e4 403e 1c0f 823d 9212 6e3e b6bb 11be
00000110: 5ef8 053e 3f5b 58be 66df aebd 695b 42be
-0.16706207 0.020423342 0.06309835 0.0920983 0.14740564 -0.035440832 -0.013456348 -0.034296934
-0.22603177 0.13987651 0.17860267 0.09095951 0.094748825 0.15485927 -0.20884882 0.12767573
-0.07512981 0.14216435 -0.103241876 0.20000863 0.001847665 -0.029896416 0.2248822 0.16070265
0.22582164 -0.11203136 0.21777411 0.07469317 0.19777979 -0.23270105 0.11342657 0.11242336
0.1844482 0.04121802 0.11109732 0.23426032 -0.009925268 0.19403675 0.0046144705 -0.20014197
-0.15650538 0.20791171 0.17435029 0.014417049 -0.14838526 -0.054938 0.17838624 0.13739285
-0.09666496 -0.16263995 -0.20118858 -0.086523786 -0.18990627 -0.030297881 0.062902994 0.22981422
0.1440657 -0.14188443 -0.19391629 -0.19323032 0.20271827 -0.16447333 0.030258376 -0.2045657
0.18837152 0.06350538 0.23249272 -0.14231762 0.13083026 -0.21128558 -0.085387036 -0.18980183

conv_block_2.2.bias f4 [4]
00000000: ed43 323e 3650 63bd 6196 70bc aa51 bebd
0.17408724 -0.055496417 -0.014684291 -0.0929292

conv_block_2.3.weight f4 [4]
00000000: b612 803f 5af8 7f3f b4e3 7f3f b9e5 7f3f
1.000571 0.9998833 0.9995682 0.99959904

conv_block_2.3.bias f4 [4]
00000000: a9a8 9b39 efb7 24ba ee6b 01ba 67d9 163a
0.00029689565 -0.0006283512 -0.0004937042 0.00057544414

conv_block_2.3.running_mean f4 [4]
00000000: 1a67 b43e 1d37 053f 1c52 37be 7b9c 33be
0.3523491 0.5203722 -0.17902416 -0.17540161

conv_block_2.3.running_var f4 [4]
00000000: 2454 413e dd94 853f 5299 413e d1af 393e
0.18879753 1.0436054 0.18906143 0.18133475

conv_block_2.5.weight f4 [4, 4, 3, 3]
00000000: ad55 d3bb 9206 18be 1472 15be 6536 95bd
00000010: c743 0fbe 6b21 c0bd cac6 b3bc 246a f9bd
00000020: a18c 063e dd43 c4bd ff83 0fbe e0a5 a33c
00000030: 3415 af3d 8b47 7fbd f4aa 773b b48e 993d
00000040: 8c26 7c3d fc5d ff3d c377 cbbd 95b7 1cbd
00000050: a2ae 24be 21a8 6b3d ad09 e0bc 31c0 123d
00000060: 848e 93bd ddfb a93d 2cd9 953c e0ab 803d
00000070: 0187 d83d 176e d1bd 8e87 fb3d b990 f0bd
00000080: 062c 043e faef 203e 18f5 1c3e f5a7 ba3d
00000090: 7bd4 ddbb b6c9 76bd 96e9 6dbd a3a2 04be
000000a0: 972d b63d f24a 073e a62a bbbd 58dc 9c3d
000000b0: 44ef 4f3d d9e9 f1bd 0750 39bd 8b64 a63d
000000c0: bbfd a7bd be95 203e 7a40 b63d 1459 06be
000000d0: a73c b7bd 4aec 053e a7a7 09be 7f84 12be
000000e0: 58ff a3bd c214 153e 6fcf 193e 71ec 15be
000000f0: 8581 813a 5dbd 1a3d 1a54 23be fbb2 5fbd
00000100: 70af cfbc fb82 a9bc 3c3e b83d 4cf9 9b3c
00000110: 5fbc 7ebd 98ff 9e3c 2d89 353d acfd 6a3d
00000120: 9303 28bd e5e3 37bd 01ab b83c 4470 debd
00000130: af44 143e 1fad b83c 380a fdbd f055 193d
00000140: 223a 1e3d a2c8 14be 37fa 8abd 5a26 b5bd
00000150: 22b0 883d 46a3 d1bd da96 26bd 1e31 13be
00000160: 9607 ef3c 847b 133e ed2c 27be 1b1a cd3b
00000170: 9bf5 45bd de0c cebc 495f 51bc c90c a73b
00000180: 5dd9 f53d d52a f93c 9611 cb3d eb21 9bbd
00000190: 1f57 283e e5ce a23d a26f 2e3d dc37 c2bd
000001a0: baae e43b b1f6 85bc b963 583c e3fa 663c
000001b0: ba8b 9dbc 33ce e83b aa20 7e3d 9e37 debd
000001c0: ddd6 15be b991 793d 14d8 aa3d 03a9 bfbd
000001d0: fe73 83bd 34d1 df3c 5ea6 acbd 2b86 18be
000001e0: 77d0 c1bd 8493 933d c084 e33c d1a1 67bd
000001f0: 5613 8fbd bc62 a33d f811 ea3d e903 0dbc
00000200: edd8 253d f824 213e 8ca4 f3bd 23de 8bbc
00000210: ee32 b8bd 0462 a0bd f07f fdbd ce94 0bbe
00000220: 0e17 39bd 7c26 a7bc 091c 15be ec32 d53d
00000230: 6979 e3bc a7e2 8e3d 850c 053e ba13 883d
-0.0064494223 -0.14846256 -0.14594299 -0.072857656 -0.13990699 -0.09381374 -0.021945376 -0.12178448
0.13139583 -0.095832564 -0.14015196 0.019976556 0.08548966 -0.062324088 0.0037791105 0.074979216
0.0615602 0.12469098 -0.09934952 -0.038261015 -0.16082242 0.057533387 -0.027348364 0.03582782
-0.07204917 0.08299992 0.018292032 0.062827826 0.10572625 -0.10226076 0.122817144 -0.11746354
0.12907419 0.15716544 0.15327871 0.091140665 -0.0067697144 -0.06025096 -0.058084093 -0.12952666
0.08895414 0.13212183 -0.09138994 0.07659215 0.05076529 -0.11812181 -0.045242336 0.08124646
-0.08202692 0.15682122 0.08899017 -0.13119918 -0.089471154 0.13078418 -0.1344286 -0.14308356
-0.08007687 0.145587 0.15020536 -0.14640976 0.0009880519 0.037778247 -0.15950051 -0.05461405
-0.02535221 -0.02069234 0.08996245 0.019039772 -0.062191363 0.019408986 0.044320274 0.057370827
-0.041019034 -0.04489507 0.022542479 -0.10861257 0.14479326 0.022543488 -0.12355465 0.037435472
0.03862966 -0.1452966 -0.06786006 -0.088452056 0.0667422 -0.1023622 -0.040671207 -0.14374205
0.029178422 0.14402586 -0.16325732 0.0062592155 -0.04832993 -0.02515262 -0.012779065 0.0050979597
0.120043494 0.030415932 0.099154636 -0.07574829 0.16439484 0.07949618 0.04258693 -0.094833106
0.006978837 -0.016352983 0.0132073695 0.014097902 -0.019231666 0.007104659 0.06204287 -0.10850452
-0.14632745 0.060929988 0.08341995 -0.09358408 -0.06418608 0.027321436 -0.084301695 -0.14894931
-0.0946359 0.07205871 0.027773261 -0.056550805 -0.0698611 0.079778165 0.114292085 -0.008606889
0.04049008 0.15736759 -0.11896619 -0.017073696 -0.08994089 -0.07831195 -0.12377918 -0.13630983
-0.045188002 -0.020404093 -0.14561476 0.10410103 -0.027767854 0.06976824 0.12993057 0.066443875

conv_block_2.5.bias f4 [4]
00000000: 9b0c 80bc 970a 56bd 5915 d63b d493 d4bd
-0.01563101 -0.052256193 0.0065333066 -0.103797585

conv_block_3.0.weight f4 [4]
00000000: b5ce 7f3f 6f26 803f f0cf 7f3f 9807 803f
0.99924785 1.0011729 0.9992666 1.0002317

conv_block_3.0.bias f4 [4]
00000000: 60f1 adba 3523 fcb9 d805 5439 8edf 9f39
-0.0013270788 -0.00048091417 0.00020220072 0.00030493404

conv_block_3.0.running_mean f4 [4]
00000000: 0ed1 5a3d 9ac1 723c 9fe9 263c a5fa 4abe
0.053422026 0.014816666 0.010187536 -0.19822176

conv_block_3.0.running_var f4 [4]
00000000: d49d 013e f3f5 233e 4a24 013e 1cc1 f93d
0.12657863 0.16011791 0.126115 0.12195036

conv_block_3.2.weight f4 [8, 4, 3, 3]
00000000: eca7 5cbd ddf2 fb3d 9a00 913d ac31 3f3c
00000010: 670a a13d c7dc 023e 1088 a43c 252a 39bc
00000020: cc1a 69bd 60be 82bc 1a1f f1bd 5d04 c3bd
00000030: 1c3e 173e 1b52 de3d 4fb5 a2bb 038c 1bbe
00000040: 8440 18bd 1d10 023e 8ae6 17be ce46 26be
00000050: 5b22 843d 00e6 f13d 98ac 27be bf09 cabd
00000060: 418e 203d 603c acbd 4ebd 1cbd f750 b53d
00000070: 4699 283e deca 273e bcc4 acbd e5b1 b1ba
00000080: 715b c3bc 74d6 1dbe aeac 823c c548 b2bd
00000090: 6ba3 a33d 17f6 ff3d e0d5 be3d 961d 6d3d
000000a0: b6ea 88bd 3de6 abbd 9139 103e b96a e23d
000000b0: 55da c5bd ed16 d8bc 0886 eabd b738 22bd
000000c0: c7cc a13d d985 0e3e a66e b4bd 4a72 bb3d
000000d0: d1b4 e9bd 9e69 1abe 7a93 d6bd 7389 f03d
000000e0: b6b6 8ebd 79e0 d2bd d33c b43d eaee e53d
000000f0: e99a da3d 53c7 1abe abda 80b9 ada7 453d
00000100: 37ae a13c b6e2 61bd 3843 513d 2b5b 773d
00000110: 4122 a0bc bdde c9bd 0aaf 0f3e fb4c cfbd
00000120: 6f39 dbbd 7424 c23d 83ab 12be b019 293e
00000130: 1401 1dbe 1e6c 9dbc 572e 1ebe 6861 4bbd
00000140: c747 a13c f65b 0abe 1bc7 dfbd a56a 083e
00000150: 332c 993d ffdf 10be 1547 1f3b aa2f 7abd
00000160: e5ae f23d 6e4e d83d df23 6d3c 8dbc 263e
00000170: a6d2 7fbd 7b34 6c3d 078f 1cbd 9726 78bd
00000180: 33ea d1bc b5be a23b f85d e0bb 9de6 01be
00000190: 5e42 cc3d 2f1c d3bd 69f8 17bd ec5c 5fbd
000001a0: 3d24 39bb a2cc 023e 3f59 b7bd 2d6a 1ebd
000001b0: fb1d 63bd 57c7 04be 55a1 9cbd a18c 2fbd
000001c0: b522 9a3d 46c1 afbc f0b8 29be 5c23 3e3d
000001d0: 8e7e 22bd 55e2 1e3e dcc2 0bbe 2bb9 e2bc
000001e0: 977f ff3c a49d 92bc f450 fe3d 2c08 f2bd
000001f0: 06cf 203e f53c c23d a119 4dbc 1bbc 413d
00000200: 38b5 26be 4d70 493d f629 86bd 9b66 11bb
00000210: 1e55 d0bd 4a74 843c d388 963d 168a 573d
00000220: a0c0 a13d b179 0abe ac23 5cbc 4578 a4bd
00000230: 0353 013e dcbb 0d3e 4c2b 083e 3c18 e63d
00000240: de92 0bbe 3b35 43bb ca10 203d bf57 36bd
00000250: 142a ae3d 44a4 d7bc b720 d23d 0bc9 88bd
00000260: e3f8 183d f93b 8abd f31f 88bc 2d4d 003d
00000270: dfa1 813c e18d a83b d5ff 28be 9957 fd3d
00000280: eae1 dc3c fe36 123e bd75 12be 1b80 473d
00000290: d63b 00be 5453 ccba edd0 913d 6849 9dbd
000002a0: be62 683d 1258 203e 0e78 cbbd e637 733b
000002b0: cdf9 30bd 16a6 293e 4a19 5e3d 16d4 22be
000002c0: c9a9 733d 43fd 9f3d 72c8 b23c f434 c13d
000002d0: 6f1a cbbd dbf7 0d3e ef3a 0e3e 1cf1 013d
000002e0: 73a7 09be 0dae 883d c0e2 4abd 527a 2abe
000002f0: f75f 10be 1c11 e03d fc04 a1bd 8091 123e
00000300: c80c f6bd c616 97bc cc37 e43d 848b 9b3d
00000310: 7f6b 9e3d 8098 063e 20a3 09be 6cb0 003d
00000320: 14ca e83d cab6 bc3d e362 2a3e 5f57 13be
00000330: a694 033b 8e90 c73c 5be7 263e 7259 aabd
00000340: a218 8abc 82bc 753d acf6 16be 9d3a d13d
00000350: 3bf4 95bd fd5a 8bbd 4a1d 443d ebe4 983d
00000360: f061 eabd 3e9b 163e 482d 363d 7f05 a0bc
00000370: 5abb c53d 4ea5 27be bd27 f2bd 0872 c23d
00000380: 01a7 bc3d a498 b3bd 73b1 d33b 3599 653c
00000390: bffb 723d 276b a0bb d6a0 27be 4cfa 8c3c
000003a0: 1e8f 1abd a861 fb3d 9710 efbc 7c62 c8bd
000003b0: f11f 0bbe 8a38 b5bd 3ab9 9c3c 951b 293e
000003c0: 5fc3 f8bc 252c 92bd ec13 e33d 3403 61bc
000003d0: 8b8a 0cbd 3f07 f03d b65c e0bd 2b74 bfbd
000003e0: 7ae5 603b c1a2 b03d ad29 3c3d a2fa 123d
000003f0: 1745 7e3d 4bda 0ebe 5be3 d3bd 8b92 29bd
-0.05387108 0.12302182 0.07080193 0.011669558 0.07863312 0.12779532 0.02008441 -0.011301552
-0.05691032 -0.015959918 -0.1177351 -0.095223166 0.14769787 0.10855504 -0.0049654613 -0.15190129
-0.037170902 0.12701459 -0.14834037 -0.16237947 0.06451865 0.11811447 -0.16374433 -0.0986514
0.039198164 -0.08409953 -0.038266473 0.088533334 0.16464719 0.16385981 -0.084359616 -0.0013557045
-0.023847314 -0.15413839 0.01595148 -0.08705286 0.07990154 0.1249811 0.09318137 0.057889543
-0.066853926 -0.08393524 0.1408446 0.11055512 -0.09660784 -0.02637812 -0.11451346 -0.03960487
0.07900386 0.13918246 -0.08810167 0.09152658 -0.11411441 -0.15079352 -0.10477348 0.11744966
-0.06968443 -0.10296721 0.08800664 0.1122721 0.10674078 -0.15115099 -0.00024576983 0.04825561
0.019736392 -0.05514785 0.051089495 0.06038968 -0.019547584 -0.09856937 0.14031616 -0.10122105
-0.10704314 0.09479609 -0.14323239 0.16513705 -0.15332443 -0.019216593 -0.15447365 -0.04965344
0.019687546 -0.13511643 -0.10926648 0.13321932 0.074791335 -0.14147948 0.0024303843 -0.061080612
0.11849765 0.10561834 0.014473884 0.16282864 -0.06245675 0.057667237 -0.03822234 -0.060583677
-0.02562437 0.0049665817 -0.0068471394 -0.12685628 0.09973596 -0.1030811 -0.037102137 -0.054531977
-0.002825036 0.12773374 -0.08952569 -0.038675476 -0.055448513 -0.12966667 -0.07647959 -0.042858724
0.07526151 -0.021454465 -0.16574454 0.04642044 -0.039671473 0.15516026 -0.13648552 -0.027676186
0.03118877 -0.017897435 0.12417784 -0.11817965 0.15703973 0.09484283 -0.012518317 0.047298532
-0.16280067 0.049179364 -0.06550972 -0.0022186402 -0.10172485 0.016168732 0.07350316 0.052621923
0.078980684 -0.13522984 -0.013436239 -0.08030752 0.12629323 0.13841194 0.13297766 0.11235091
-0.13630244 -0.0029786367 0.03907851 -0.044517275 0.085041195 -0.026323445 0.10260146 -0.06678971
0.037346732 -0.0674972 -0.016616797 0.0313236 0.015824256 0.0051438664 -0.16503842 0.123702236
0.026963193 0.1427879 -0.14302726 0.048706155 -0.12522826 -0.0015588799 0.071199276 -0.07680017
0.056734793 0.15658596 -0.09935008 0.0037112175 -0.04320698 0.16567263 0.054223336 -0.15901217
0.05948809 0.07811978 0.021824095 0.09433928 -0.09917151 0.1386408 0.13889669 0.03172408
-0.13442783 0.066738226 -0.049532652 -0.16648224 -0.14099108 0.10940763 -0.07862279 0.14313316
-0.120141566 -0.018443476 0.11143455 0.0759497 0.07735347 0.13144112 -0.13441133 0.03141825
0.11366668 0.09214552 0.16639285 -0.14388798 0.0020077615 0.024360921 0.16299193 -0.083178416
-0.016857449 0.05999423 -0.14742535 0.10216258 -0.07321974 -0.06804464 0.047879495 0.07465538
-0.11444461 0.14707658 0.044476777 -0.01953387 0.09654875 -0.16371652 -0.11823986 0.09494406
0.09211541 -0.08769348 0.0064603626 0.014013578 0.059322115 -0.004895586 -0.16369948 0.017209195
-0.037734143 0.12274486 -0.029182715 -0.097844094 -0.13586403 -0.088486746 0.019131292 0.16514428
-0.030366598 -0.07137326 0.11087784 -0.013733674 -0.034311812 0.11720132 -0.10955183 -0.09348329
0.0034316466 0.08624793 0.045938183 0.035883553 0.062077608 -0.1395046 -0.10346099 -0.04139952

conv_block_3.2.bias f4 [8]
00000000: d1c5 b4bd 072d cebc 5229 91bd cbe0 5a3d
00000010: 430a 22be 3083 5e3d bd9f 13be 1a7d f8bd
-0.08826793 -0.025167955 -0.07087959 0.053437036 -0.15824227 0.05432433 -0.14416404 -0.12133236

conv_block_3.3.weight f4 [8]
00000000: 0402 803f f6e8 7f3f 910e 803f 6300 803f
00000010: dbe3 7f3f 32e2 7f3f e811 803f 3007 803f
1.0000615 0.99964845 1.0004445 1.0000118 0.99957055 0.9995452 1.0005465 1.0002193

conv_block_3.3.bias f4 [8]
00000000: f2d7 be39 262b f4b9 3983 5cb9 bd60 b2b7
00000010: d9d4 88b9 f722 50b9 f130 073a ac10 c3b7
0.00036400516 -0.00046571455 -0.00021029719 -2.12643e-05 -0.00026098525 -0.00019849451 0.0005157134 -2.3253575e-05

conv_block_3.3.running_mean f4 [8]
00000000: edc7 e5bd 88f7 bc3c 340f 61be b6c7 c43d
00000010: 9020 92bd efbb 353e 7bc1 30be 6a77 9cbe
-0.112197734 0.02306725 -0.21978456 0.09608404 -0.07135117 0.17747472 -0.17261307 -0.30559856

conv_block_3.3.running_var f4 [8]
00000000: 0c1a 223e c211 1e3e 94ca 003e 9fbf 163e
00000010: acb4 f33d de6b 363e c5c2 e43d 3ebe 4a3e
0.15830249 0.15436462 0.12577277 0.14721535 0.11899695 0.17814586 0.11169962 0.19799134

conv_block_3.5.weight f4 [8, 8, 3, 3]
00000000: ba49 ae3d 6dfc 57bd f8a7 4abd 1673 9c3d
00000010: b374 8c3c 0c0c 4e3a 588e 843d eeea bebc
00000020: a598 3abd 20ed 89bd dd54 673d 1738 ff3c
00000030: 4091 af3d 3c3d 3b3d eba3 babc c774 d9bd
00000040: 0333 f6bc 14c5 a2bd 6ee4 973d d74e 67bc
00000050: c242 be3c a8f9 503d f6fb 1fbd 9e31 a23d
00000060: 60f7 9c3d 7079 0f3d 2143 f13d 6f78 79bd
00000070: d3b6 603d 103e b73d 7411 34bb 8559 bf3d
00000080: a153 95bd c32a c9bc c68b 843c ebfb 91bc
00000090: 1449 a7bc d73b 6f3c e0f1 33bd 58f6 c8bd
000000a0: f708 cfbd 8178 9dbd 990d cfbd bcc7 573d
000000b0: dff3 f83b cf7d db3c 62b3 d13b 9428 d93d
000000c0: 2ef8 e2bd ba04 d33c f0ff aa3c 7bef 483d
000000d0: b6c4 c23d 1a84 fb3c 9741 0bbd d982 9fbd
000000e0: 6154 aabd 1410 173b 6c9c c93c a579 aabd
000000f0: d605 4a3d 3e7a 37bd b66e 16bd af77 8a3d
00000100: 4909 873d 284b 8dbd 15b9 383c 2b48 b1bd
00000110: b719 e0bd d3e9 2bbd e507 6e3d 5464 853d
00000120: 48b7 f13d 17c5 983d 9aa9 dc3d 43c8 86bd
00000130: 3286 023d 434a 24bd ddaf d7bd f3b5 7c3d
00000140: ac41 c03d 28a6 59bb 01a0 9d3d b1ef 85bd
00000150: af4d c73a 0541 78bd d371 563c ab17 cd3d
00000160: 88f5 163d 3e8c e03d ec53 8bbd ed62 5d3d
00000170: d961 d5bd c540 94bd e455 d03c b8ae e63c
00000180: f043 edbd b2e1 ad3c c241 dc3d f182 d6bd
00000190: a461 e1bd 5719 95bd 8330 a23d fa54 e83d
000001a0: 0959 c53c d58f fc3c ec67 abbd 4fcf c13d
000001b0: a551 81bd c598 8a3d 9f15 ccbd 0c29 9ebc
000001c0: f65b 833b aeff b93c 81e6 a13d b3a0 923d
000001d0: 7a88 9e3d 115f d0bd 03cc 7abc 8f07 663d
000001e0: f2ae a1bc 1a63 bcbd f0b9 42bd 796f 223c
000001f0: 4879 973d 086c e0bd 0c2d 5dbd 7dce a73c
00000200: 018f 9a3d 4ba9 d23d ad61 6dbd 8bb7 103d
00000210: b5d9 8c3d 1b1a af3d 925b 5fb9 9982 913d
00000220: 2ff9 e23d 8c82 913c f8fc 85bd 15e0 25bb
00000230: 18c3 e3bd 1793 0e3d 0fa7 dc3c 30c8 ef3c
00000240: 33fd c43d 8906 db3d a384 503d e103 bf3d
00000250: 5695 c23d d6f2 f0bd a319 4c3d e9e6 0bbd
00000260: 2adb d03d d419 8c3d 0e8a cf3c 7aad 8cbc
00000270: 01ee e5bd bf5b a2bd 11f5 a63d 841e a43d
00000280: c75e b1bd 318a e23c 6143 6e3d 164b 3bbc
00000290: 8370 bf3d 7580 4d3d 05df 573d 84b4 d6bd
000002a0: 2d55 db3d cd38 e9bc ce37 043d e5e2 86bc
000002b0: aa8b 39bd 64ec 173d 5e5e a53b e415 c7bd
000002c0: e1a1 b53d b806 d8bc 3170 c0bc 5699 ef3d
000002d0: 3940 b1bd 97cd 7bbd 1344 8b3d 1faf 3dbc
000002e0: 2025 793c ba29 853d 1325 95bd 13e3 a1bd
000002f0: a79b c33c 0ba3 833d 9c74 dd3d 1341 abbc
00000300: 0024 89bd 575c 243c 5774 90bb 3640 3dbc
00000310: 44d2 9bbd 2b5e c3bd 4d3b a9bd 27b9 4e3d
00000320: e459 753c 3c85 4d3d cef6 b1bd 1365 bebd
00000330: d3e2 cc3d 0a2f e93d 1bde 4d3c 8682 b93d
00000340: 8081 ea3d e745 7dbd 98ae 2ebb e888 183c
00000350: f9c1 323d 0b31 e63d c9c9 cdbd b2e3 923d
00000360: 9678 793d c97c c5bb 3ac0 993b b563 b13d
00000370: 5080 dc3c 64ef 9d3d ac9f a4bd 6da6 d1bd
00000380: afe7 88bd a488 c9bd 9c1f 7f3a 92ca a2bd
00000390: 4c37 6b3c 77fb d03c 6dac 72bd 6aec f23a
000003a0: af90 a4bd 08ca 8b3d 5ce3 603a eed5 83bd
000003b0: 3fc7 8ebd 931d 903d 0fb3 063d f944 903d
000003c0: f1e4 a1bd 199b 32bd b0a2 4cbc f9f6 733d
000003d0: 5f0a a73d 1f63 e93d 1b76 b5bc 183f 2a3d
000003e0: 4b19 81bd ce56 90bd e4c0 5b3d 6ae6 e5bc
000003f0: 249e e03d 0fef 8f3d ff1a c03d be25 1f3c
0.08510156 -0.052730966 -0.049476594 0.076391384 0.01714549 0.00078600715 0.064724624 -0.023305383
-0.04555573 -0.06734681 0.056477416 0.031154675 0.08572626 0.045712695 -0.02278324 -0.10617977
-0.030053621 -0.07947746 0.074166164 -0.014117918 0.023225192 0.05101934 -0.039058648 0.0791962
0.076643705 0.03502792 0.11780382 -0.06090587 0.054861855 0.08947384 -0.0027476223 0.09343246
-0.072913416 -0.024556523 0.01617993 -0.01782032 -0.020420589 0.014601669 -0.04393184 -0.09812611
-0.10109132 -0.07689 -0.101100154 0.052680716 0.007597431 0.026793389 0.006399558 0.10603443
-0.11082493 0.02575909 0.020873994 0.04905651 0.09510176 0.03070264 -0.0339981 -0.07788629
-0.08316875 0.0023050355 0.02461072 -0.08323983 0.04932197 -0.044794314 -0.036726676 0.06761109
0.06593568 -0.068991005 0.011274596 -0.08656343 -0.10942405 -0.04197104 0.058112998 0.06513277
0.11802536 0.07459467 0.107745364 -0.06581166 0.03186626 -0.040109884 -0.1053159 0.061696958
0.09387526 -0.003321061 0.07696534 -0.06539858 0.0015205647 -0.060608882 0.013088661 0.1001428
0.03685525 0.10964249 -0.06803116 0.05404942 -0.104190536 -0.07238916 0.02543158 0.028159484
-0.11585224 0.021225784 0.1075473 -0.10474194 -0.110049516 -0.07280224 0.07919409 0.11344333
0.024090307 0.030830303 -0.08369431 0.09463369 -0.063144006 0.0676742 -0.099650614 -0.019306682
0.0040087653 0.022704925 0.07905293 0.07159557 0.077408746 -0.101743825 -0.015307429 0.056159552
-0.01973674 -0.091985896 -0.047540605 0.009914272 0.073961794 -0.10958105 -0.05399804 0.020484203
0.07546807 0.10286196 -0.05795448 0.03533129 0.06877462 0.08549901 -0.0002130105 0.07104988
0.11082684 0.017762445 -0.065423906 -0.0025310565 -0.111211956 0.034808245 0.026935128 0.029270262
0.096186064 0.10694606 0.050907742 0.09326912 0.0950114 -0.11765067 0.049829137 -0.03415576
0.10198052 0.06840864 0.025334384 -0.017172564 -0.11227036 -0.079276554 0.081522115 0.08013633
-0.086606555 0.027653785 0.058169726 -0.011431476 0.09347632 0.050171334 0.052702922 -0.104836494
0.10709605 -0.028469468 0.032279782 -0.016465614 -0.04529921 0.037090674 0.00504665 -0.09720972
0.088687666 -0.026370391 -0.023490997 0.116991684 -0.086548276 -0.061475363 0.068000935 -0.011577397
0.015206605 0.06502099 -0.07282462 -0.07904639 0.023877932 0.06427582 0.10813257 -0.020905053
-0.066963196 0.010031781 -0.0044084 -0.011550954 -0.07608464 -0.095394455 -0.08263264 0.050469544
0.014975045 0.05017589 -0.086896524 -0.09296622 0.10004201 0.11385925 0.012565161 0.090580985
0.114504814 -0.061834242 -0.002665436 0.009309985 0.043642018 0.11239823 -0.10048253 0.07172336
0.060906015 -0.0060268384 0.0046921046 0.08661596 0.026916653 0.07711676 -0.080382675 -0.10236821
-0.06684815 -0.09840515 0.0009732188 -0.079487935 0.0143564455 0.025510533 -0.05924647 0.0018533592
-0.08035409 0.06825644 0.0008578801 -0.06437288 -0.06971597 0.07036891 0.032885607 0.070444055
-0.07904995 -0.043604944 -0.01248996 0.059561703 0.08156275 0.11395859 -0.022151044 0.041564077
-0.063036524 -0.07047807 0.05365075 -0.028063972 0.10967663 0.07028019 0.09380149 0.009713588

conv_block_3.5.bias f4 [8]
00000000: 6859 003b cdaf 0c3d b934 87bd 1334 7dbc
00000010: 9c26 893d c312 ae3d 0415 8a3d 3800 62bd
0.001958454 0.034347344 -0.06601853 -0.01545431 0.06696817 0.08499672 0.0674229 -0.05517599

conv_block_4.0.weight f4 [8]
00000000: e806 803f 6f1d 803f 70f1 7f3f 51f3 7f3f
00000010: 7d0b 803f 15d1 7f3f fdc2 7f3f 0a08 803f
1.0002108 1.0008982 0.9997778 0.99980646 1.0003506 0.9992841 0.99906904 1.0002453

conv_block_4.0.bias f4 [8]
00000000: 08cf eb39 5e07 733a 1827 7239 c832 97b9
00000010: 7dd8 ce39 d09f 89b9 f188 2fba 0b23 3d3a
0.00044976943 0.0009270812 0.00023093482 -0.000288388 0.00039452678 -0.00026249746 -0.0006696126 0.00072149996

conv_block_4.0.running_mean f4 [8]
00000000: 0afc 413e a16d d13e 79b8 b93e 8ddb 913e
00000010: bf2a 8b3e f15d 91bb bc2b a73e 4673 9d3e
0.18943802 0.40903953 0.36273554 0.28487816 0.2718105 -0.0044362475 0.32650554 0.3075201

conv_block_4.0.running_var f4 [8]
00000000: 8785 0f3e ec58 213e 8ceb 003e 1a85 9b3e
00000010: bdf2 c93d a893 fa3d a64e 163e 2d0e 593e
0.1401578 0.15756577 0.12589854 0.30374986 0.09860752 0.122351944 0.1467844 0.21196814

conv_block_4.2.weight f4 [16, 8, 3, 3]
00000000: 9582 79bd 7392 11bd a468 bfbd 7f61 233d
00000010: 32b9 453c 2970 c5bd 13c2 803d 6ba6 b63b
00000020: 8090 cd3d f413 ee3d 6981 e9bd 5fe5 bd3d
00000030: 34a0 eb3d 325e aebc 1374 ee3c a60d b53d
00000040: 7761 bcbd 6103 b1bd 4684 bebd b7d5 a1bd
00000050: 376e 1c3d 144a 083d 695b 93bd c885 45bd
00000060: 3620 17bd ac4f 03bb 4287 66bd f197 d2bd
00000070: c88f b73c dad5 1e3d 0ab4 17bd 4872 2fbc
00000080: 05c0 063d d954 ecbd b463 d7bd b97d d2bd
00000090: 8f2c 7cbc 27a8 9f3d 5b79 ba3d 10bd 48bd
000000a0: 2611 eb3d d0b5 c83d 7a8f c5bd 499a 6fbd
000000b0: d231 76bd 5b92 393d dccc d23d 9d7a 223d
000000c0: 91ba 1fbd 0644 82bc 9890 46bc e8e1 cabb
000000d0: fe11 ffbc eb55 5ebd 7fdc 803d 3a84 e5bc
000000e0: 327c e03a 2f8c 1ebd bd78 c03c 671c 523c
000000f0: cee5 a0bc bc58 15bd 2966 72bd 1d72 df39
00000100: 7ba0 69bd a5de ac3c 8d58 b53d 284a c53d
00000110: 02bd bebd 3724 e23c 0e84 ccbd aa33 8c38
00000120: cc41 983d 2f51 903d 4f70 e0bd ec5f f4bc
00000130: d6d4 f2bc 50ad 833d e0cd ae3d 1fe0 95bd
00000140: c52c f2bd 6281 da3b febc c63c 9aee c4bd
00000150: 9396 8a3d be03 eabd a13c e93d f682 97bd
00000160: a5e4 383d 85ff 3dbd 2cce 6d39 e772 4fbd
00000170: 5040 9b3d 5dce d8bb 6915 a83d ec15 0bbd
00000180: b449 ebbd 00d5 503c e603 d4bd c009 473d
00000190: 8e9a c7bd 0d37 a3bd 538d 88bb 9609 603d
000001a0: b5c4 853d 6b70 efbd f1de 95bd 73c0 013d
000001b0: 2d4c 553d cc60 afbd d168 e6bd 2dd0 9d3a
000001c0: f8ea 183d 4608 dfbd 3151 cabd dce1 053c
000001d0: e008 d73d e375 d43d 8fdf 7d3c 8380 833d
000001e0: cfef aa3d e5f7 cbbc 9e12 863c 390e a03d
000001f0: e289 d13c ce3a d33b beb7 5e3d c449 a9bc
00000200: bbee da3d 06ce 8c3d d442 6e3d 6af6 643d
00000210: 70fe 6bbc cfb2 89bd 51c2 d0bc 9b36 aabd
00000220: 1f39 c33d a9c5 d23d 0df7 c83d e048 9b3d
00000230: 3c85 e13d 8781 d83d a73c a6bb df9b e9bd
00000240: 163d 883d bda2 f0bd ec03 9c3d aa8d c1bd
00000250: f35b 163c dce9 e73d 298a dc3d 5ed2 da3d
00000260: 3e60 fa3c 8370 2f3d b427 80bd a65f 0dbd
00000270: 784e 9c3c b9d9 2dbc 8fda 253d 17ff 14bd
00000280: cc4e ed3d 2af1 713d 3e2f c3bd 6bc3 cf3c
00000290: b3c6 15bd 925b bc3c ca05 093d e3f2 6b3d
000002a0: 62a5 873c ee7b b33d ccb4 ce3c 3faf cd3b
000002b0: 07d7 c2bd 0bfb dc3d b1d4 483d e3cf 8b3d
000002c0: 6850 3bbd 0ab2 fdbc 1ebb 75bd 025c 9cbc
000002d0: ace2 1ebd 82d1 5dbd 7887 aebd a30b 093d
000002e0: 8a5f ddbd b224 dc3d 246b 5dbd c40e 81bd
000002f0: 8ebf eebc 787d 513d e99e babd b7ad c4bc
00000300: 9872 f03d 14e8 ab3c 6c0f a4bd 8674 82bd
00000310: f35f b3bc db5e 5b3d 37bf d0bd 3bf9 c6bd
00000320: 3ac4 65bd 1fc0 c9bd 9484 9f3d 0e8d 513d
00000330: dabb a03c 08d5 983d 7f37 c73c 4ba7 11bd
00000340: 41af 8c3d baf6 e23d 7dd4 eebd 02ac ad3d
00000350: 04f2 bc3d 13f0 8e3d 09e5 b9ba 2cfd 5d3d
00000360: 346a e2bc 1123 9f3d 2d4d 73bd d49d d5bd
00000370: eae7 bd3d ac4e d9bd e7f0 3abc 8505 e2bd
00000380: 3bf0 9dbc 96a6 bf3d 7282 c539 f926 8ebb
00000390: 6352 5cbd f66f 9b3d ba00 d03d c975 dabd
000003a0: 1488 0a3d 8909 ebbd 4a3b 3cbd 4360 603b
000003b0: d05f 173d 248e df3c c5fb 5b3d 8199 de3d
000003c0: 3c35 943d 5ef4 0d3d b050 e23d 8697 d8bd
000003d0: b989 06bd b584 88bd 88f2 53bd dd43 94bd
000003e0: 67a7 d23d c9fe 8e3d 03fd bdbd 5f0b 8dbd
000003f0: 9877 b63d b385 b7bd 35c0 b23d b69b 9d3b
-0.06091555 -0.035540055 -0.093461305 0.0398879 0.01206808 -0.096405335 0.06287017 0.005574038
0.10037327 0.116248995 -0.11401636 0.09272265 0.11505166 -0.02128515 0.029108083 0.08840494
-0.091982774 -0.086432226 -0.09302573 -0.07902091 0.038191047 0.03327377 -0.071951695 -0.048223287
-0.036895953 -0.0020036502 -0.056281336 -0.10282887 0.022407427 0.038778163 -0.037036933 -0.010708399
0.032897968 -0.11539621 -0.10517064 -0.10277886 -0.015391483 0.077957444 0.09105178 -0.04900843
0.1147788 0.09800303 -0.096465066 -0.058496747 -0.060106106 0.04530559 0.1029298 0.039667714
-0.038996283 -0.015901577 -0.012119435 -0.006191481 -0.031136509 -0.054281157 0.06292056 -0.028017152
0.0017126857 -0.03870791 0.023495072 0.012824154 -0.01964083 -0.036461577 -0.05917946 0.00042618896
-0.05703781 0.021102259 0.0885478 0.09633285 -0.09313394 0.02760516 -0.09986125 6.6853434e-05
0.07434425 0.070467345 -0.10958921 -0.029830895 -0.029642504 0.06429541 0.08535361 -0.07318138
-0.11824945 0.0066682557 0.02426004 -0.09615822 0.06767001 -0.11426495 0.11388517 -0.07398026
0.045139927 -0.04638626 0.00022678886 -0.05064669 0.07580626 -0.0066163973 0.08207209 -0.033956453
-0.11488667 0.012746096 -0.10352306 0.048593283 -0.09746276 -0.079694845 -0.004167238 0.05469664
0.065316595 -0.11691364 -0.07317913 0.031677675 0.0520746 -0.085633844 -0.11250461 0.0012040191
0.03733346 -0.1089025 -0.09878767 0.008171525 0.1049974 0.103740476 0.015495195 0.06420996
0.08346521 -0.024898479 0.0163663 0.07815213 0.025578443 0.006446219 0.05437445 -0.020665057
0.106900655 0.06875233 0.0581692 0.05589906 -0.014403924 -0.06723558 -0.025483282 -0.083111964
0.09532379 0.10291607 0.09812746 0.07582259 0.110117406 0.105715804 -0.0050731483 -0.11406683
0.06652276 -0.1174979 0.076179355 -0.094508484 0.009177196 0.11323902 0.107685395 0.106846556
0.03056347 0.04283191 -0.06257573 -0.034515046 0.019080386 -0.010610991 0.040491637 -0.036376085
0.11587295 0.059067883 -0.09530495 0.025361737 -0.036566447 0.022992883 0.033452787 0.05760468
0.016558353 0.08763872 0.025232695 0.0062769945 -0.095136695 0.1079007 0.049030963 0.068267606
-0.04573098 -0.030968685 -0.059992902 -0.019086841 -0.03879039 -0.05415488 -0.08521932 0.033458363
-0.10809238 0.107491866 -0.054057255 -0.063016444 -0.029144075 0.051145047 -0.09112341 -0.024008615
0.11740607 0.020984687 -0.08010754 -0.06369881 -0.021896338 0.053557258 -0.10192721 -0.09715506
-0.05609534 -0.09851097 0.07788959 0.05115991 0.019620825 0.074625075 0.024318455 -0.035559934
0.068693645 0.110822156 -0.11661623 0.084800735 0.09225848 0.06979384 -0.0014182638 0.05419652
-0.027638532 0.0777036 -0.059399772 -0.10430494 0.0927275 -0.106107086 -0.011409975 -0.11036209
-0.01927959 0.093579456 0.00037671957 -0.004338142 -0.053789508 0.07589714 0.101563886 -0.10666997
0.03382118 -0.11476428 -0.04595498 0.0034237064 0.03695661 0.027289458 0.053706903 0.10869122
0.07236716 0.034656875 0.11050546 -0.10575776 -0.032846186 -0.06665937 -0.051744968 -0.072395064
0.10285836 0.0698219 -0.09276774 -0.068869345 0.089095294 -0.08961048 0.08728067 0.004809822

conv_block_4.2.bias f4 [16]
00000000: 92f8 b1bd 69c8 e0bd b8d9 06bd f7b0 aa3d
00000010: 4025 0bbc 9306 343d 952f a23c 41fb ba3d
00000020: cf01 8c3d 9045 8e3d ebeb cc3d 2528 9fbd
00000030: ef18 863d c30c 1e3d 1c9b c33d 224c f03d
-0.08689989 -0.10975725 -0.032922477 0.083345346 -0.008492768 0.043951582 0.01979808 0.09129954
0.068362825 0.06946862 0.10005935 -0.07771329 0.065477245 0.03858639 0.09551069 0.11733271

conv_block_4.3.weight f4 [16]
00000000: dcba 7f3f 610e 803f 980b 803f a717 803f
00000010: eef7 7f3f 4415 803f e233 803f cbe4 7f3f
00000020: cc12 803f b0ed 7f3f eb0e 803f abe6 7f3f
00000030: 9fdf 7f3f bee7 7f3f 0bad 7f3f 5b9b 7f3f
0.998945 1.0004388 1.0003538 1.0007218 0.99987686 1.000649 1.0015833 0.99958485
1.0005736 0.9997206 1.0004553 0.99961346 0.99950594 0.99962986 0.9987342 0.9984643

conv_block_4.3.bias f4 [16]
00000000: 6e61 68ba f921 5b3a 6fd4 4539 bfe1 cb39
00000010: 9808 2bba 4af6 bf3a 0ff1 8039 b8db deb9
00000020: a84e d039 4561 d4b9 ace7 bbb8 fdf5 34ba
00000030: 7600 ab38 4418 3ab9 456a 84ba ae24 87ba
-0.0008864616 0.00083592493 0.00018866522 0.0003888737 -0.0006524413 0.0014645543 0.00024593665 -0.00042506843
0.00039731455 -0.00040508262 -8.960007e-05 -0.000690311 8.154001e-05 -0.00017747382 -0.0010102472 -0.0010310614

conv_block_4.3.running_mean f4 [16]
00000000: 30c8 86be b675 be3c 5aff df3d f9f0 95bd
00000010: e7e3 363d bc9a d0bd 5df0 e93b 825f b13e
00000020: afae 1d3f 568e 1d3e f5c1 ff3e d5b2 353e
00000030: 496f 5f3e ed85 f6bd a073 163e f8c7 43be
-0.26324606 0.023249488 0.10937376 -0.073213525 0.04465094 -0.10185763 0.0071392492 0.3464318
0.6159467 0.15386328 0.49952665 0.17744 0.21819796 -0.12037263 0.14692545 -0.19119251

conv_block_4.3.running_var f4 [16]
00000000: 4f65 763e aab7 463e 155c 963e c6b3 2c3e
00000010: 0a8c 4c3e 5e3e cf3e f22f 2d3e fac1 983e
00000020: 5749 0c3f 9cc4 1b3e 06a4 b73e 50e6 733e
00000030: a4de 6a3e 7588 473e 7ad8 193e 409e 983e
0.24062084 0.19406 0.29367128 0.16865453 0.19975296 0.4047727 0.16912821 0.29835492
0.5479941 0.1521172 0.35867327 0.23818326 0.22936493 0.19485648 0.15023986 0.29808235

conv_block_4.5.weight f4 [16, 16, 3, 3]
00000000: 0aac eabc 5329 80bd cde3 3cbc 9c29 4c3d
00000010: 12a0 ecbc da46 4c3c e753 8ebc 6832 a3bd
00000020: 12ce 0dbd 6870 6dbd 0582 9abd c333 903c
00000030: 1d5a 7a3c 8d9a 943d d039 193c f090 893d
00000040: 1532 a3bd a62d 32bd 19ba d6bb 7775 a23c
00000050: a31b 2f3d 9c68 34bd 4f84 09bb 662e 8fbb
00000060: caed 473c 288c 523d 93c2 643c 84de 71bd
00000070: aa41 1abd 3794 873d 3a25 203d d52d 22bd
00000080: 8aff d5bc 4e80 94bd cf9d d7bb 4b46 c7bb
00000090: 5c2e 503d df83 a0bb aaae 54bd f124 d73c
000000a0: e195 10bb bdef 233d ddfe a23d e3c9 9f3d
000000b0: b4b0 41bd 15ca 8dbd e738 b13c 6e06 aebb
000000c0: bec8 5ebd 8eba 12bd d3a7 80bd fcb3 113d
000000d0: eda8 9a3c 4148 7bbd 219f c93b 7081 793d
000000e0: cca0 9bbd 7a7e 503c 1fd3 ecbc b63b 98bd
000000f0: fd27 87bd ddd8 18bb f0c4 043d e66b 8a3d
00000100: cc2c 64bd 2169 e13c 68e1 fd3c 1a24 903a
00000110: c008 0bbd 222e 783d 62d9 a2bd f21b 923c
00000120: 1b2b a13d ccbb 17bd c8ab 1c3d b876 133d
00000130: d9bd 543d d75c 8cbd 660a 2f3d eb7b 633d
00000140: d017 663c c28c 063d 5b63 fc3b 6268 f5b8
00000150: f9f2 8bbd 3f10 1d3d 598a 01bc 8b06 b13c
00000160: ec59 c6bc c00e 66bd 906e 823d d878 553d
00000170: 60d0 b83b de17 2c3c 2628 993d e641 8dbb
00000180: 9d92 2e3c d8ea a5bc 2e91 613d 7871 2f3c
00000190: cbd1 99bd d702 383d cb79 2c3c b6ad a4bc
000001a0: 2ec2 993d 9e41 02bd 94b3 71bd 63e0 853d
000001b0: e38d acbc 48a3 43bd 060f a1bd d4f1 a5bc
000001c0: 8a55 083c d23f 773c adf8 153d 37b5 4a3d
000001d0: 2f20 19bd 3b89 9ebd 1eaa 4d3d 91ed 9f3d
000001e0: fb4f e83b 6344 a83d 5494 a4bd 2cbc 8939
000001f0: a950 043d aa0a bf3c c834 553d 1354 3e3d
00000200: 4d82 8b3d d908 9abd 6860 bb3c 0d79 0ebd
00000210: 2f34 9e3d fc67 aabc 3ef4 543d 741c 4ebd
00000220: b953 783c fe3a 683d 1a35 783d 5a41 893d
00000230: 33b8 233d a647 843c 9e09 aa3d 493e 6dbd
00000240: 5f63 d43c f37d 8d3d cb1b 423d 5e54 883d
00000250: 9c3e abbc 9241 3abd 8900 6a3c a727 8abd
00000260: 68fc 8bbd 0e4e 663d e70e a7bb 48d3 013d
00000270: c2a6 143d 2d7d 98bd 28dd 44bd 8fdd 25bd
00000280: 6d5e 59bd d3f6 5c3c a9d5 84bd 11e7 5d3c
00000290: 14b9 82bd 3048 77bd 64b2 d53b 9502 04bd
000002a0: 450c 86bd e927 17ba badd 1f3d 321a 62bd
000002b0: 2fc4 8c3b 307d 92bd 6758 47bd e9d5 cbb9
000002c0: 5072 883c 2203 573d 8bdf 8cbd 391b 4b3d
000002d0: 8a93 22bd 7d82 75bd 4e77 18bd 6ce6 913d
000002e0: 4337 68bd c22e 67bd d5f0 41bc 5660 083d
000002f0: 76c2 c8bc b93c 163d 6276 2dbd 0edb 09bc
00000300: 6159 22bd 017c 88bd 2a55 f3bb 961c 06bd
00000310: 4a4f 29bc 68f4 69bd ead1 35bd 6977 66bc
00000320: e60f bf3c e148 eb3c 9a8b cabc 7f7a 943d
00000330: 1868 17bc 4077 ea3c c27b 5abd 41a8 a0bd
00000340: 92b7 423d 858c dd3b c16e 12bd 9746 603d
00000350: efff 19bb b51b 27bc 2288 04bd c141 1cba
00000360: 334b 9a3d 21e3 5a3d 6a61 153d 2e42 92bd
00000370: 4748 2d3c 187c a4bd 51f7 8f3d 700c ab3c
00000380: f1da 8d3d 24ca 57bd d6d9 293d 1ff2 143b
00000390: ed52 8b3c 7263 45bd d1a2 823d 0bd6 ceba
000003a0: ab7d 74bc 71cb 5f3c b726 863c 860f fe3c
000003b0: e960 faba 8426 aabd defe 2d3d c566 c73c
000003c0: 9844 2e3d 375d 2cbd 5d32 8b3c f1bc 4c3d
000003d0: 7ffa 563d aef0 fbbc c463 923c 6cc2 06bd
000003e0: 2736 4fbc 3be2 4abd 7670 52bc 5ab7 813d
000003f0: 7e8b 83bc f95c a63d 6fd2 a63d 9362 5bbc
-0.028646488 -0.06257882 -0.011528921 0.04984437 -0.028884921 0.012468064 -0.017373992 -0.079685986
-0.034620352 -0.057968527 -0.075443305 0.017602807 0.015280274 0.07256041 0.0093521625 0.06717098
-0.07968537 -0.043500565 -0.0065529463 0.019831402 0.042750966 -0.044045076 -0.0020983403 -0.004369545
0.012202689 0.051403195 0.013962406 -0.059050098 -0.03766028 0.066200666 0.039098002 -0.03959449
-0.026122827 -0.07251035 -0.0065800915 -0.0060813776 0.05082546 -0.0048985328 -0.051924385 0.026262732
-0.002206199 0.040023554 0.079587676 0.07802179 -0.047287658 -0.0692331 0.021633578 -0.005310825
-0.05439066 -0.035822444 -0.0628201 0.035572037 0.018879378 -0.061348204 0.006153003 0.060914457
-0.07599029 0.012725467 -0.028909264 -0.07433264 -0.06599424 -0.002332262 0.032414377 0.06758861
-0.055706784 0.02751595 0.030991271 0.0010997087 -0.03394389 0.06059087 -0.07951619 0.017835591
0.0786955 -0.03704433 0.03824976 0.03600189 0.051938865 -0.06853645 0.042734526 0.0555381
0.014043763 0.03284908 0.007702274 -0.00011701953 -0.06833453 0.03834557 -0.00790652 0.021609565
-0.0242128 -0.05616641 0.063687444 0.0521172 0.0056400746 0.010503737 0.07478361 -0.004310834
0.0106550725 -0.020253584 0.055070095 0.010708205 -0.07510718 0.044924583 0.010527085 -0.020102363
0.0750774 -0.03180086 -0.05900915 0.06536939 -0.02106375 -0.04776314 -0.078641936 -0.020256914
0.008321175 0.0150909 0.03661411 0.049489226 -0.03738421 -0.077410184 0.050211065 0.07808984
0.0070896125 0.08216169 -0.08036104 0.00026270875 0.032303486 0.023320515 0.05205229 0.0464669
0.06811962 -0.07521219 0.022873119 -0.03478341 0.07724797 -0.020801537 0.05199074 -0.050320104
0.01515668 0.056696884 0.060597517 0.06701918 0.039970588 0.016147446 0.083026156 -0.057920728
0.02592629 0.069087885 0.047389787 0.06656717 -0.020903878 -0.04547269 0.014282354 -0.06745844
-0.06835252 0.056226783 -0.005098212 0.031695634 0.036291845 -0.074457504 -0.048062474 -0.040494498
-0.053068567 0.013486582 -0.06486065 0.01354386 -0.06382957 -0.060371578 0.00652151 -0.032229025
-0.06545309 -0.000576614 0.039029814 -0.055200763 0.004295848 -0.07152784 -0.04866829 -0.00038878553
0.016656071 0.052493222 -0.06878575 0.04958651 -0.039691485 -0.059938896 -0.037223153 0.071240276
-0.056693327 -0.056441076 -0.011837204 0.033294998 -0.024506789 0.036679003 -0.042349227 -0.008414043
-0.03963602 -0.06664277 -0.007425924 -0.032742105 -0.010333845 -0.05711785 -0.044389643 -0.014066556
0.02332301 0.028721275 -0.02472477 0.07249927 -0.0092411265 0.028621316 -0.05334068 -0.07844592
0.047538348 0.006761136 -0.035750154 0.05475482 -0.0023498496 -0.010199477 -0.03235639 -0.0005960726
0.07533874 0.053439263 0.036469854 -0.07141529 0.010576314 -0.080314815 0.07029594 0.020879954
0.069265254 -0.05268301 0.04146751 0.0022727323 0.017007316 -0.04819054 0.06378711 -0.0015780343
-0.01492254 0.013659344 0.016375883 0.031013262 -0.0019102368 -0.083081275 0.04247939 0.024340997
0.042545885 -0.042081084 0.016991789 0.049984876 0.052484985 -0.030754413 0.017869838 -0.03290026
-0.012647188 -0.049532156 -0.012844196 0.063338 -0.016057726 0.08123202 0.08145606 -0.013390201

conv_block_4.5.bias f4 [16]
00000000: c3fc 70bd 30a4 cf3b 3d05 9cbd 4ecf 703d
00000010: 526e 743d fe3e 303d 17bd 33bd e3eb 8ebd
00000020: 0001 08bd fad9 093c 44cf 9f3c 381b ea3c
00000030: 12b9 83bd 1ec5 05bc 8503 903d 7351 a5bc
-0.058834802 0.0063367113 -0.076181866 0.05879145 0.059675522 0.043028824 -0.043881502 -0.069785856
-0.03320408 0.008413786 0.019508012 0.028577432 -0.06431784 -0.008164672 0.07031921 -0.02018044

conv_block_5.0.weight f4 [16]
00000000: 0608 803f 55f4 7f3f 8908 803f 3a00 803f
00000010: b3f9 7f3f b4f1 7f3f 6dc3 7f3f 4509 803f
00000020: 3cc0 7f3f 320a 803f 1e00 803f ebf6 7f3f
00000030: 9d16 803f 3603 803f b6f8 7f3f 4d05 803f
1.0002449 0.99982196 1.0002605 1.0000069 0.99990386 0.99978185 0.9990757 1.0002829
0.999027 1.0003111 1.0000036 0.9998614 1.0006901 1.000098 0.9998888 1.0001618

conv_block_5.0.bias f4 [16]
00000000: ec6a 2b39 ae0a 4138 5238 a238 8ac7 ad38
00000010: f67f c6b9 5c84 0cba 6a0b 07ba aba1 40b9
00000020: 272e f739 ba49 28ba 7bdc d6b9 fbcd 8fb9
00000030: ba9e 47b7 7292 bab7 5509 3439 0e22 0a3a
0.00016347662 4.6024732e-05 7.7352524e-05 8.28645e-05 -0.0003786084 -0.0005360299 -0.0005151542 -0.00018370773
0.00047145897 -0.00064196775 -0.00040981531 -0.00027428553 -1.1898281e-05 -2.2241122e-05 0.00017169614 0.0005269357

conv_block_5.0.running_mean f4 [16]
00000000: 07f2 803e 7bc2 2b3d d079 f63d ece8 763e
00000010: f0fb 913e 9624 0abe b39e 783e c217 ccbd
00000020: b8aa 1e3e ad63 a03e 6ef2 773d 98e0 f83d
00000030: a82d d53e 69a9 63bc c788 e93e e5d6 193e
0.25184652 0.041933518 0.12034953 0.2411229 0.28512526 -0.13490519 0.24279289 -0.09965469
0.15494812 0.31326047 0.060533933 0.12152213 0.41636395 -0.013895371 0.45612165 0.15023382

conv_block_5.0.running_var f4 [16]
00000000: dd50 753e 62ae d23d 47d0 0a3e ec38 f13d
00000010: 5152 0f3e aa6a f13d f29e fd3d 64a5 273e
00000020: c677 dc3d 8cd4 043e 2e4e f13d 0d51 d03d
00000030: 1e23 403e d1d4 473e e725 343e 7f13 f43d
0.23956628 0.10287167 0.13556014 0.11778435 0.13996245 0.11787923 0.12383832 0.16371685
0.107650325 0.12971705 0.1178249 0.10171709 0.18763396 0.19514777 0.17592584 0.11917781

conv_block_5.2.weight f4 [32, 16, 3, 3]
00000000: 52fa a93c b66a e53c fb05 71bd 2f31 0cba
00000010: 4c2a 833d 80f0 babb 7658 a2bd e198 f8bc
00000020: 065f e43c 0a06 263d 3003 873d 7499 6ebd
00000030: b6cf ab3c b984 82bd 32a9 8e3d 70cd d23b
00000040: 1774 803d bac8 babc 3616 a53d c116 7fbd
00000050: cfe6 043d dcc5 8e3d a900 1f3b 8191 7fbd
00000060: e318 2a3d c7f2 553c 76b3 3fbd 708c 35bd
00000070: e2c2 033d 5243 153d b1a6 893d 52ed 343d
00000080: 4b54 6b3d ea90 593d f29b 283d babd 9b3d
00000090: 7ca7 8d3d 0f67 983d d696 853d 0d7a a3bd
000000a0: b38b bb3b 758a 35bc a7dc d3bc fdf4 0d3d
000000b0: 2176 14bd 8bef 4b3c d1dc fbbc e10f 89bd
000000c0: 9405 8cbd c9cd b3bc b85a 15bd 9267 7ebd
000000d0: 8797 95bd 2ad3 493d 5ed6 fe3c 1ea7 18bc
000000e0: 3dfe 863d 8fa9 75bc 0079 89bd 2058 b6ba
000000f0: a3d5 46bd 8ba3 cdbc ac02 573d 33d2 73bd
00000100: 2070 a9bd 04fd 14ba 68e6 28bb a199 90bb
00000110: a3a6 71bd 158d 933d b058 d83c 6815 80bc
00000120: 1f32 283c c467 443d 0cb0 193d e1c1 2ebd
00000130: 63ae 90bd 44ac a43c 254e 28bd db5d 243d
00000140: 83ea 473c dfb8 e23c e743 8c3d b8bf 9fbd
00000150: e70c 3e3d 3c56 8b3c 246e 1cbd 177a 2fbd
00000160: 5de5 333d 2531 69bd beda 423c 3d3d 1c3d
00000170: 8ce3 bc3c 9ae6 15bd cab3 ad3c c4c4 2d3d
00000180: 197b c3bc be7f 41bd 9dc2 693d ec63 9d3d
00000190: 4ef9 3c3c 7a46 1dbd 8e70 803d 5988 8b3d
000001a0: 4123 23bd 0178 6fbd 1a9b d13b 452e 32bd
000001b0: 77df 93bd 5b3e a5bd 7f93 a13d 1613 83bd
000001c0: 772b 363d 6322 713c 4662 f9bc c28b 0a3d
000001d0: 369d 69bd 648f e83c e5db 093d 94da efbc
000001e0: 7861 383c 3e98 97bc 5d42 403d 0925 95bd
000001f0: 716a 03bc b309 a83c 357e 62bd 338b 203d
00000200: aa76 a43c b8a6 aa3d 451d 93bd 9431 33bd
00000210: e221 f63c 7e56 203d 9d38 0cbd 9879 6f3d
00000220: c7d1 d5bc dd88 813d df1d 213d e89e 10bd
00000230: 3ba3 883c 1d7a fbbc 63e9 24bd 7857 5d3d
00000240: 92d5 80bd 4cb7 343d f2ea 89bd 6085 513d
00000250: 73ec 2f3d af75 3dbd 3d52 753d 1980 8ebd
00000260: b920 7bbc d9e2 e93c e620 813d 267d 163d
00000270: 25c2 083d a480 a93d a25e 3a3d 7e01 a43d
00000280: 589c 9b3d 2b04 01bd e04d 64bc 60ec d03c
00000290: 4a3f 8e3d b665 ac3c 24ca a23c 8a5b 963d
000002a0: df8a 9a3d 7933 42bd 2292 88bd d59d a2bd
000002b0: 9504 15bd 489b 7d3d 5471 713d 42f8 5fbd
000002c0: d365 493d af66 a1bd e694 a33c f3b5 233d
000002d0: 8fe7 14bd 4200 6abd 1be3 3a3d 49ab 8d3d
000002e0: d572 513c c5b1 aabb 4a16 94bd 1061 d03c
000002f0: ebc8 543d ac45 80bd 9b3d 77bc 2585 74bd
00000300: 1480 81bd bfce a13d 1d1a 233b ed54 583d
00000310: 8871 813d 91f3 51bd b8fb 863d 7024 9bbc
00000320: d612 a5bd 9dd6 453d cbf8 0fbc 8b62 42bd
00000330: b310 d2bc f149 823c 1674 973d 149a 163d
00000340: 3428 38bd 3601 b1bc e420 0bbd 946d a33c
00000350: 6a50 903d f286 5d3d b264 59bb 0e39 60bd
00000360: a222 a93d 3514 28bb 425f 393d eecb c13b
00000370: a450 08bd d413 b3bc 29a9 c83a 5103 aa3d
00000380: b0b8 4b3d 1e4c 6bbd 5b4e 8a3b f7bb 96bd
00000390: 3423 eb3b 5927 feba a69c 0e3d 5749 81bd
000003a0: 878a 1a3d b9a2 36bd 8749 a5bd b63c 6b3c
000003b0: 6f0a 9dbd 54a1 3d3d 08fe ef3c 7af0 e2bc
000003c0: 64a1 48bd 39ec 6fbc baf8 6fbd e38f 6dbd
000003d0: 1aff 933d 7a1e 97bd 13e2 79bd 0abe 0ebd
000003e0: 7b25 a1bd d035 743c 3e4a 99bd f866 7a3d
000003f0: 3233 17bd 8cde dbbc ed25 9bbd 14fc 90bd
0.020749245 0.028004985 -0.058843594 -0.0005347905 0.06404552 -0.0057049394 -0.07927029 -0.030346336
0.027877342 0.040533103 0.06592405 -0.058251813 0.020973068 -0.06372971 0.06965865 0.0064331815
0.062721424 -0.022800792 0.08060877 -0.06227756 0.03244668 0.069713324 0.0024261868 -0.062394623
0.04152764 0.013058371 -0.046802007 -0.044323385 0.032168277 0.036441155 0.06721247 0.04417164
0.057453435 0.053116716 0.041164346 0.07604547 0.06916711 0.07441532 0.0652291 -0.07982264
0.0057234406 -0.011080374 -0.025862051 0.034657467 -0.03624547 0.012447248 -0.030744942 -0.06692482
-0.068370014 -0.021948712 -0.03646347 -0.06211049 -0.07304292 0.049273647 0.031108078 -0.009317188
0.06591461 -0.014994039 -0.06712532 -0.0013911761 -0.048543584 -0.025102397 0.052492782 -0.059526633
-0.08273339 -0.0005683454 -0.0025772098 -0.0044128452 -0.058996808 0.07204644 0.026409477 -0.015635207
0.010265856 0.04795052 0.037521407 -0.042665366 -0.070645116 0.020101674 -0.04109015 0.04012857
0.012201908 0.027676044 0.06848889 -0.07800239 0.046399023 0.017008893 -0.038190976 -0.042841043
0.04391991 -0.056931634 0.0118929725 0.03814434 0.023057722 -0.036596872 0.021203894 0.04242398
-0.023862408 -0.047240965 0.057070363 0.07685074 0.011534048 -0.03839729 0.06271468 0.068131156
-0.039828543 -0.058464054 0.0063966634 -0.043501157 -0.07220357 -0.08068534 0.07889461 -0.06400125
0.044475045 0.014717671 -0.030442368 0.03382469 -0.057034694 0.028388686 0.033656973 -0.02927903
0.011253707 -0.018505212 0.04693829 -0.072824545 -0.008020983 0.020512437 -0.05529614 0.03919525
0.020076115 0.0833258 -0.07183317 -0.043748453 0.030045453 0.039144985 -0.034233678 0.05846557
-0.026101006 0.06324933 0.039335128 -0.035307795 0.016679397 -0.030697877 -0.040261637 0.054038495
-0.06290735 0.044120118 -0.067342654 0.051152587 0.042950105 -0.04625481 0.05989288 -0.069580264
-0.015327626 0.028550552 0.06305103 0.036740445 0.033388276 0.082764894 0.045500405 0.08008097
0.075981796 -0.031498116 -0.0139345825 0.025503337 0.06945665 0.021044593 0.019871779 0.073416784
0.07546019 -0.04741237 -0.066684976 -0.0794026 -0.036381323 0.061915666 0.05894597 -0.054680116
0.049169373 -0.078809135 0.019968461 0.039968442 -0.036353644 -0.057129152 0.04562674 0.06917436
0.012783726 -0.00520918 -0.07230814 0.025436908 0.051949423 -0.06263289 -0.0150903715 -0.05969729
-0.06323257 0.07900762 0.002488739 0.052815367 0.063204825 -0.051257674 0.0659098 -0.018938273
-0.08060233 0.048300374 -0.008787344 -0.04745726 -0.025642728 0.015904399 0.073951885 0.036768034
-0.044960216 -0.021607023 -0.033966914 0.019949712 0.07046588 0.054083772 -0.0033171591 -0.05474191
0.08258559 -0.002564681 0.04525686 0.005914203 -0.03328003 -0.02186004 0.0015309203 0.08301414
0.04973668 -0.057445638 0.0042207665 -0.0736007 0.0071758274 -0.0019390389 0.03481736 -0.063128166
0.037729766 -0.04458878 -0.08070665 0.014357736 -0.07668006 0.046296433 0.029295936 -0.027702559
-0.04898204 -0.014643722 -0.058586814 -0.05799855 0.07226391 -0.0737886 -0.061006617 -0.034849204
-0.07868477 0.014905408 -0.07484864 0.061133355 -0.036914058 -0.026839517 -0.07575593 -0.0707933

conv_block_5.2.bias f4 [32]
00000000: c559 a9bd 170b 423d 4075 1abc ee96 a9bd
00000010: 858f 86bd 76be a1bd e9b5 923d f1ae d9bb
00000020: 8aaa 8abd afc8 4d3d 7092 dd3b 95c4 c73c
00000030: f8dd 893c f54b a2bd c08a 72bd d582 70bc
00000040: f5ba 1cbd 50a0 12bc 6660 e93b 92e3 ec3b
00000050: a9b6 80bd 8dc9 8f3d 4edf e5bc e904 a93d
00000060: 095c a1bc ac37 943c 2613 1a3d a7ae 2b3c
00000070: 5a65 a13d 98de 273d 7c2b 93bd 6075 47ba
-0.08269075 0.047373857 -0.009427369 -0.08280741 -0.06570343 -0.07897656 0.07163603 -0.006643169
-0.06770809 0.050240215 0.0067618415 0.02438573 0.016829476 -0.07924644 -0.059214354 -0.01467963
-0.038264234 -0.008949354 0.0071220873 0.007229277 -0.0628484 0.07020865 -0.028060582 0.0825289
-0.019697206 0.018092953 0.037615918 0.010478652 0.078806594 0.040983766 -0.07186028 -0.0007608738

conv_block_5.3.weight f4 [32]
00000000: cce2 7f3f e106 803f f1bf 7f3f 17f6 7f3f
00000010: 6720 803f f9ec 7f3f b00a 803f 1f06 803f
00000020: 6a0e 803f 0b0b 803f 4805 803f 8fe7 7f3f
00000030: 06de 7f3f d415 803f 9a0d 803f bbfb 7f3f
00000040: 1ff1 7f3f 18d1 7f3f 1718 803f 1c01 803f
00000050: 7bfa 7f3f d8b7 7f3f e5fd 7f3f 43eb 7f3f
00000060: 0b17 803f 7f16 803f 3515 803f 1201 803f
00000070: 601f 803f 75bc 7f3f 5bb8 7f3f 8c08 803f
0.9995544 1.0002099 0.99902254 0.9998488 1.0009888 0.99970967 1.0003262 1.0001868
1.0004399 1.000337 1.0001612 0.99962705 0.99948156 1.0006661 1.0004151 0.99993485
0.99977297 0.99928427 1.0007352 1.0000339 0.9999158 0.998899 0.9999679 0.99968356
1.0007032 1.0006865 1.0006472 1.0000327 1.0009575 0.9989694 0.9989068 1.0002608

conv_block_5.3.bias f4 [32]
00000000: 9a6c 99ba 788c 8137 076b af38 ef59 24ba
00000010: 278e a93a 0bd1 e0b9 3b56 ac39 ca6a 7539
00000020: 4e1c 9639 0b5c b0b9 6e1d 0bb9 7a2e bdb9
00000030: cc91 20ba 82b9 f4b9 4abf 9f39 83f4 1d3a
00000040: 827d a6b9 7618 dcb9 dedb 793a 02e5 32b8
00000050: a92f 3339 9cb8 4dba 0655 4eb7 ea3e 46b8
00000060: 657e 48b9 7c4b aeb9 1804 0e3a 2ed2 c339
00000070: 64e8 1b3a c0a5 02ba 7bd2 3eba 83de 263a
-0.001170534 1.544341e-05 8.364586e-05 -0.00062695047 0.0012936041 -0.00042880359 0.00032870643 0.00023404803
0.00028631318 -0.00033637913 -0.00013267036 -0.00036083517 -0.0006125241 -0.0004667752 0.00030469365 0.000602551
-0.00031755498 -0.00041979895 0.0009531359 -4.2651787e-05 0.00017088525 -0.00078476383 -1.2298353e-05 -4.7265472e-05
-0.00019120572 -0.00033244106 0.000541748 0.00037349894 0.00059474097 -0.0004983805 -0.0007279289 0.0006365554

conv_block_5.3.running_mean f4 [32]
00000000: 85a4 503c c32c 72bd 0b1a 0cbe 7e6c 51be
00000010: ce14 d93d 5a44 59bd c291 32be 66e0 3ebe
00000020: 0a62 9abc 2868 0b3f 7d26 c03c b9b9 c2be
00000030: 911a 213e ef6a 073d d350 75bd 84dc db3d
00000040: aed2 253e b12d 35bc 990d c43d 7c91 fc3c
00000050: 00c4 87bc 44e5 383e 3da6 bbbe d276 ad3e
00000060: 0ae0 09bd a8f2 593d fc12 3ebe 6782 87bd
00000070: 3985 373e a441 ab3e 80f6 163e f76d 0bbe
0.012734537 -0.05912472 -0.1368181 -0.20451543 0.10599671 -0.0530437 -0.17438415 -0.18640289
-0.018845577 0.54455805 0.023455853 -0.3803232 0.1573279 0.033060964 -0.059891533 0.107354194
0.16193649 -0.011058257 0.09572906 0.030831091 -0.016572952 0.18056208 -0.36650267 0.33879715
-0.033660926 0.05320993 -0.1856193 -0.06616669 0.17921914 0.33448517 0.1474247 -0.13616167
