cloud-detection-code/tests/test_artifacts/test_dice_loss/model_checkpoint_5.pt (torch, 439769 bytes, 347 tensors)

input_conv_block.0.weight f4 [3]
0.9986783 1.0013455 1.0011837
00000000: 62a9 7f3f 172c 803f ca26 803f

input_conv_block.0.bias f4 [3]
-0.0017071175 0.000624851 -0.0013540738
00000000: 5cc1 dfba 0acd 233a 2d7b b1ba

input_conv_block.0.running_mean f4 [3]
0.40851268 0.40701514 0.34477696
00000000: 9328 d13e 4a64 d03e 9b86 b03e

input_conv_block.0.running_var f4 [3]
0.070896916 0.06705124 0.06414709
00000000: 6732 913d 2952 893d 8d5f 833d

input_conv_block.2.weight f4 [2, 3, 1, 1]
0.39509398 -0.55008644 -0.31479883 -0.48423693 0.28720197 0.5498272
00000000: c249 ca3e 77d2 0cbf 502d a1be e7ed f7be
00000010: 230c 933e 7ac1 0c3f

conv_block_1.0.weight f4 [2]
0.9974977 1.0025008
00000000: 025c 7f3f f251 803f

conv_block_1.0.bias f4 [2]
0.00022507258 -0.002030364
00000000: 7601 6c39 db0f 05bb

conv_block_1.0.running_mean f4 [2]
-0.17256153 0.12173886
00000000: f8b3 30be 3952 f93d

conv_block_1.0.running_var f4 [2]
0.15529716 0.13856912
00000000: 3806 1f3e 10e5 0d3e

conv_block_1.2.weight f4 [2, 2, 3, 3]
-0.04284896 0.21447837 -0.014123845 0.05819784 -0.22486411 -0.16775258 0.20946614 0.06268993
-0.031951133 0.025321418 0.12177789 0.1933454 -0.20196386 0.17890732 0.032671493 0.035870332
0.18644677 -0.21666826 -0.088933274 0.12111224 0.031540476 -0.16074458 -0.001446519 -0.114777595
0.045684572 0.2210804 0.104409 -0.024801351 0.03012169 0.026615802 0.12806012 -0.076281086
0.071124814 0.07596243 -0.19729446 -0.09707042
00000000: 6482 2fbd 38a0 5b3e b367 67bc dc60 6e3d
00000010: c742 66be 55c7 2bbe 4b7e 563e 9463 803d
00000020: 31df 02bd dd6e cf3c b066 f93d 56fc 453e
00000030: 9dcf 4ebe 7b33 373e 8bd2 053d c5ec 123d
00000040: e7eb 3e3e 49de 5dbe a622 b6bd b209 f83d
00000050: 9630 013d 3a9a 24be 2099 bdba 8410 ebbd
00000060: bf1f 3b3d e662 623e 63d4 d53d 342c cbbc
00000070: c3c1 f63c 6209 da3c 3122 033e 4239 9cbd
00000080: e3a9 913d 3192 9b3d 8f07 4abe dbcc c6bd

conv_block_1.2.bias f4 [2]
-0.22588192 0.14816578
00000000: 974d 67be c5b8 173e

conv_block_1.3.weight f4 [2]
1.0013797 0.99861836
00000000: 362d 803f 74a5 7f3f

conv_block_1.3.bias f4 [2]
-0.001269644 -0.0020960951
00000000: 2f6a a6ba a45e 09bb

conv_block_1.3.running_mean f4 [2]
-0.08130022 0.17593348
00000000: bb80 a6bd e827 343e

conv_block_1.3.running_var f4 [2]
0.13465244 0.06338431
00000000: 54e2 093e a2cf 813d

conv_block_1.5.weight f4 [2, 2, 3, 3]
0.1172779 -0.11778347 0.11246332 0.07070078 -0.011697427 0.22795016 0.221258 -0.09776931
-0.1921024 -0.038349234 -0.16475326 -0.21837291 -0.08853603 0.12877092 -0.045251627 -0.16726686
-0.023339413 0.07236276 0.048578307 -0.13564059 -0.106883734 -0.13316081 -0.04240184 0.100125164
-0.05948917 -0.11269734 -0.13024957 -0.12088976 0.013043633 -0.10335461 0.09698888 -0.15835503
0.10658496 0.18220302 -0.19536099 0.22496554
00000000: 652f f03d 7638 f1bd 2b53 e63d 92cb 903d
00000010: 91a6 3fbc c46b 693e 7591 623e 473b c8bd
00000020: 7eb6 44be 1614 1dbd 14b5 28be 269d 5fbe
00000030: 6152 b5bd 86dc 033e c559 39bd 0148 2bbe
00000040: 4c32 bfbc ed32 943d 0cfa 463d 5ee5 0abe
00000050: dce5 dabd 4f5b 08be 8dad 2dbd 6c0e cd3d
00000060: eaaa 73bd ddcd e6bd 2560 05be 0d95 f7bd
00000070: f6b4 553c 95ab d3bd 1ba2 c63d d227 22be
00000080: 3749 da3d 6e93 3a3e b60c 48be 5e5d 663e

conv_block_1.5.bias f4 [2]
-0.20826246 -0.10784156
00000000: c142 55be 09dc dcbd

conv_block_2.0.weight f4 [2]
1.0025009 0.9974973
00000000: f351 803f fc5b 7f3f

conv_block_2.0.bias f4 [2]
-0.0007289646 -0.0022585671
00000000: fc17 3fba 7804 14bb

conv_block_2.0.running_mean f4 [2]
-0.13930236 -0.12965839
00000000: 47a5 0ebe 2bc5 04be

conv_block_2.0.running_var f4 [2]
0.15900402 0.17465773
00000000: f3d1 223e 7ad9 323e

conv_block_2.2.weight f4 [4, 2, 3, 3]
-0.16591051 -0.1154774 0.07519035 0.07373675 0.115568 -0.08998627 0.1713527 -0.15121822
-0.1701502 0.17985767 0.00020876879 -0.17358209 -0.18568252 -0.083375044 -0.19823244 -0.023180723
0.13074224 -0.10945531 -0.0113598 -0.12628694 -0.18386567 -0.11943893 0.125234 0.029058874
-0.059736036 0.11088797 0.062548585 0.012373235 -0.016440667 -0.044622783 0.06385918 -0.21755618
0.09902598 0.20595317 0.22191454 -0.10304633 0.13912489 -0.20945804 -0.16912848 -0.19077913
-0.01925454 0.027382191 0.13693662 0.18191497 -0.031011518 0.016547259 -0.093420565 0.19474736
0.10542841 -0.16417152 0.18884946 0.08317461 0.13511047 0.08577395 0.19154891 0.07319155
0.07868732 0.0492405 0.16541316 0.2051296 0.008157922 0.15042798 -0.13380125 0.0795154
-0.09482278 0.042198524 -0.056840785 0.11391981 -0.13729058 -0.124077335 -0.14122106 0.22101204
00000000: 72e4 29be 6a7f ecbd 66fd 993d 4b03 973d
00000010: eaae ec3d b94a b8bd 1577 2f3e f3d8 1abe
00000020: db3b 2ebe 9c2c 383e f2e8 5a39 81bf 31be
00000030: 8f23 3ebe 89c0 aabd 72fd 4abe 80e5 bdbc
00000040: 4be1 053e 1b2a e0bd 741e 3abc 5d51 01be
00000050: 4847 3cbe 669c f4bd 573d 003e e00c ee3c
00000060: c6ad 74bd 3b19 e33d 7919 803d 1cb9 4a3c
00000070: 94ae 86bc 61c6 36bd 9ac8 823d 0cc7 5ebe
00000080: 22ce ca3d 63e5 523e 913d 633e f409 d3bd
00000090: c176 0e3e 2b7c 56be 0430 2dbe 9b5b 43be
000000a0: b2bb 9dbc 9e50 e03c 1d39 0c3e eb47 3a3e
000000b0: de0b febc 1e8e 873c 4853 bfbd da6b 473e
000000c0: daea d73d 941c 28be c161 413e 7357 aa3d
000000d0: 665a 0a3e 41aa af3d 6625 443e 74e5 953d
000000e0: d126 a13d 68b0 493d 1162 293e 7e0d 523e
000000f0: cea8 053c cb09 1a3e 3203 09be f8d8 a23d
00000100: 7232 c2bd 5cd8 2c3d e2d1 68bd ca4e e93d
00000110: e795 0cbe 421c febd 419c 10be fb50 623e

conv_block_2.2.bias f4 [4]
0.046944994 -0.09807158 -0.00835029 0.055933684
00000000: 6549 403d c1d9 c8bd a8cf 08bc b81a 653d

conv_block_2.3.weight f4 [4]
0.99877656 0.99858564 1.0003111 1.001494
00000000: d2af 7f3f 4fa3 7f3f 320a 803f f530 803f

conv_block_2.3.bias f4 [4]
-0.0009814244 -0.001671484 -0.0008382179 -0.0001733356
00000000: 23a3 80ba b215 dbba dabb 5bba 6cc1 35b9

conv_block_2.3.running_mean f4 [4]
-0.15730731 -0.09121551 0.0905819 0.28068435
00000000: 2b15 21be 33cf babd 0183 b93d dcb5 8f3e

conv_block_2.3.running_var f4 [4]
0.08587505 0.084928825 0.10583854 0.4088905
00000000: 42df af3d 2aef ad3d e0c1 d83d 185a d13e

conv_block_2.5.weight f4 [4, 4, 3, 3]
0.005496637 0.13322319 0.10251635 -0.14177726 0.07736794 0.057249624 -0.1456442 -0.049905874
-0.07262219 0.005690376 -0.07547623 -0.020653961 -0.03133649 0.08316266 -0.0013114235 -0.080571815
-0.057780538 -0.014868358 -0.10198382 -0.10170201 -0.010327512 -0.16722886 0.04928642 -0.14600606
0.014174545 0.1589389 0.032793287 -0.07808521 -0.10319984 0.07298894 0.13226509 0.12206326
0.09661088 -0.07376603 0.101526655 0.11763251 0.11190487 0.10561507 -0.117263265 -0.10175669
-0.10681526 0.014714057 -0.040247515 0.07540807 0.06716566 -0.081132516 -0.12355137 -0.030881561
-0.050690174 0.0069326195 0.08937705 -0.10738919 0.16547497 0.12889585 -0.0830556 -0.040358342
0.060264237 0.06649617 -0.062960014 -0.004124524 0.042650186 -0.16673188 0.032622527 -0.10561591
0.03901652 -0.1585276 0.1653663 -0.16604955 -0.06404964 0.099016644 0.12630688 0.041569628
-0.16387627 0.12480293 -0.06019835 -0.043630958 -0.084261306 0.01794475 0.097258754 0.12530142
0.08276476 0.1595574 -0.00808799 0.08298377 0.011313788 -0.15938208 0.049678072 0.10833479
0.09712593 -0.020867767 0.14849259 0.03425039 0.1624084 0.05663329 -0.13533959 0.035094213
-0.020533036 0.12402179 0.10117358 -0.10775036 0.031078923 0.071875066 0.084615886 -0.06354969
0.09262126 0.010337236 0.06371957 0.0049163885 -0.13746582 -0.15716909 -0.09535898 0.05512704
-0.13915905 -0.03613264 -0.15344575 -0.026378173 -0.11940793 0.017544234 -0.16293038 0.09768161
0.05973925 0.028593626 -0.038733546 -0.108793184 0.1649306 -0.13296928 -0.047864713 0.075138256
-0.022949439 -0.039025933 0.109903045 -0.11861623 0.08564542 0.14338692 0.051021084 -0.028285341
0.16531721 0.11814561 -0.13662942 -0.021831108 -0.13483591 -0.16147208 -0.11661384 -0.15648791
00000000: 221d b43b a96b 083e 18f4 d13d 0f2e 11be
00000010: 1573 9e3d 957e 6a3d c123 15be 1a6a 4cbd
00000020: f1ba 94bd 5576 ba3b 4893 9abd 7f32 a9bc
00000030: b15a 00bd 2f51 aa3d 12e4 abba d602 a5bd
00000040: 49ab 6cbd 6a9a 73bc e5dc d0bd 2549 d0bd
00000050: ba34 29bc 0b3e 2bbe 8fe0 493d 9d82 15be
00000060: 5a3c 683c e1c0 223e 4152 063d 23eb 9fbd
00000070: 705a d3bd 3a7b 953d 8070 073e 4dfc f93d
00000080: eddb c53d a512 97bd 35ed cf3d 50e9 f03d
00000090: 612e e53d b74c d83d b927 f0bd d065 d0bd
000000a0: f6c1 dabd 3a13 713c 94da 24bd 8c6f 9a3d
000000b0: 268e 893d ce28 a6bd 8008 fdbd 54fb fcbc
000000c0: 80a0 4fbd 072b e33b 510b b73d ddee dbbd
000000d0: 4572 293e 46fd 033e 0e19 aabd ca4e 25bd
000000e0: a2d7 763d 252f 883d 2ef1 80bd 0427 87bb
000000f0: f6b1 2e3d c3bb 2abe 339f 053d 274d d8bd
00000100: c9cf 1f3d 0f55 22be c955 293e e508 2abe
00000110: 752c 83bd 3dc9 ca3d 9756 013e ea44 2a3d
00000120: 2ecf 27be ae98 ff3d 8c92 76bd 60b6 32bd
00000130: 3191 acbd de00 933c 992f c73d 044f 003e
00000140: 9280 a93d 0463 233e 7d83 04bc 65f3 a93d
00000150: 775d 393c 0e35 23be 3c7b 4b3d a1de dd3d
00000160: f6e9 c63d e1f2 aabc 710e 183e 234a 0c3d
00000170: 634e 263e 4ff8 673d 7696 0abe f3be 0f3d
00000180: e634 a8bc 23ff fd3d 1834 cf3d 39ac dcbd
00000190: 3a99 fe3c 3c33 933d 184b ad3d 5726 82bd
000001a0: 37b0 bd3d 835d 293c 687f 823d a819 a13b
000001b0: d7c3 0cbe eff0 20be 924b c3bd e4cc 613d
000001c0: b67f 0ebe d2ff 13bd e220 1dbe 0a17 d8bc
000001d0: 258c f4bd edb8 8f3c 39d7 26be 4c0d c83d
000001e0: 25b1 743d 2e3d ea3c 11a7 1ebd f6ce debd
000001f0: 91e3 283e 1929 08be ca0d 44bd 16e2 993d
00000200: 7600 bcbc a8d9 1fbd d914 e13d 11ed f2bd
00000210: de66 af3d 05d4 123e 7cfb 503d a9b6 e7bc
00000220: ea48 293e 53f6 f13d 95e8 0bbe 27d7 b2bc
00000230: 6d12 0abe f058 25be 3dd3 eebd 5e3e 20be

conv_block_2.5.bias f4 [4]
0.15611824 0.07019808 -0.10280861 -0.06166188
00000000: 76dd 1f3e 03c4 8f3d 528d d2bd 2b91 7cbd

conv_block_3.0.weight f4 [4]
0.99969673 1.0005807 0.9995811 1.0002164
00000000: 20ec 7f3f 0713 803f 8ce4 7f3f 1707 803f

conv_block_3.0.bias f4 [4]
-0.0001790402 -0.0010232998 -0.00047269106 0.00010439138
00000000: bdbc 3bb9 3e20 86ba 85d3 f7b9 b2ec da38

conv_block_3.0.running_mean f4 [4]
0.23656845 0.12428878 0.36594936 -0.26452067
00000000: 003f 723e 1e8b fe3d b75d bb3e 416f 87be

conv_block_3.0.running_var f4 [4]
0.18607031 0.058870338 0.12082147 0.16422023
00000000: 3789 3e3e 0622 713d 3f71 f73d 5929 283e

conv_block_3.2.weight f4 [8, 4, 3, 3]
-0.1256506 0.048425484 -0.11635663 -0.029560484 -0.061584793 -0.14731865 -0.10523073 0.074684106
-0.1336295 0.101187676 0.14853112 0.07782039 -0.13897519 -0.010498247 -0.09902037 0.16150174
-0.15458313 -0.1267263 -0.13917683 -0.01640969 0.036060944 -0.14561924 -0.13609478 -0.052935522
-0.15880534 0.0857208 0.0029384247 0.08969547 0.012610255 0.068442084 0.0058627487 -0.010407729
0.040366784 0.13717839 0.06560401 0.16454458 0.0023205176 0.09295748 -0.05320804 0.11975507
-0.14891028 -0.10541592 -0.008410595 -0.121560596 0.0568211 -0.15249339 0.10908949 0.1377676
-0.083675444 -0.091233835 0.096166976 0.14476997 0.06706469 -0.121307306 0.09779572 -0.00034847186
0.1661814 0.1309651 0.016529594 0.04664071 -0.07630421 0.09518128 -0.073513 0.1376496
0.05576734 0.025289906 0.05495842 0.03845087 0.055172876 -0.11356921 0.110052116 -0.044407982
0.068491496 -0.082159206 0.10454456 -0.08756939 -0.13910209 0.10003914 0.031322595 0.006398362
-0.07241291 -0.047740843 -0.10495581 0.16368656 -0.12227646 0.09966403 0.04697272 0.1441242
0.10193635 -0.13859756 -0.07084471 -0.007345451 -0.10202977 0.09908313 -0.11701896 0.008835331
-0.0018182325 0.08849671 -0.05659305 0.11697653 0.10260158 -0.10466508 -0.044544652 -0.10777472
-0.06314602 0.05817444 -0.05241736 -0.039042693 -0.050017543 0.10612577 -0.10079002 -0.1492684
-0.027671888 -0.110434085 0.1655819 0.060634006 -0.10542705 0.060912974 0.06387212 -0.028571043
0.01742537 -0.07172738 0.056572102 0.07518209 -0.14730479 -0.14465502 0.050464727 0.038773388
0.073380545 -0.105467826 0.10521307 0.16604887 -0.06386755 -0.09259846 0.07578122 -0.14052826
0.033911202 -0.045970276 0.050445102 0.098285355 0.08264974 0.1065474 -0.033639107 -0.089932285
-0.16774963 -0.05030394 0.012465746 -0.090060994 0.13139664 0.024404325 0.0781699 -0.11519659
0.1263362 0.12542953 -0.0031872564 0.044078484 -0.06431996 -0.09070839 0.12336716 0.1329075
-0.0029394492 0.002549512 -0.022682808 -0.040291283 -0.10259879 -0.0169509 0.058165167 0.07872522
0.065120496 -0.054188896 -0.06676239 -0.069785364 0.1525375 0.05889697 0.14356604 0.09965726
-0.08059002 0.1503209 0.0028153274 0.03711352 0.106688745 0.15388064 0.13031092 -0.14592287
-0.015235489 0.063108645 -0.051510554 0.14258403 0.13486421 0.07120654 0.0779297 0.074280836
0.024253745 0.083218284 -0.02508974 -0.11637764 -0.017074883 -0.101292096 0.10082078 -0.14788063
-0.048009973 0.064120755 -0.12098988 -0.0041494654 0.09991535 0.09868812 -0.14057271 -0.040159114
-0.031727377 0.08517261 -0.02208504 -0.02526413 0.0032675394 0.007523051 -0.08895692 0.08446626
-0.01095498 0.07609299 -0.10262488 0.08378909 -0.060144182 -0.12626818 0.13181858 0.034053676
0.16233335 0.020195365 -0.0024262832 0.023476295 0.11307552 0.00024296697 -0.16237402 0.031679373
-0.067449644 0.093146496 0.16324225 -0.1179123 0.03478094 0.14320937 -0.16673358 0.15415849
0.13802901 0.09153646 -0.08092124 0.05531635 -0.13466528 -0.16550139 0.15547681 0.15650894
0.1560338 0.14695781 0.07917576 -0.14830641 0.08300625 0.14919318 -0.16317138 -0.05516698
00000000: 8daa 00be cd59 463d 634c eebd d428 f2bc
00000010: 5640 7cbd b3da 16be 3583 d7bd fbf3 983d
00000020: 2cd6 08be 7c3b cf3d 8b18 183e 4c60 9f3d
00000030: 834f 0ebe d700 2cbc 31cb cabd b660 253e
00000040: 0a4b 1ebe 8ac4 01be 5f84 0ebe 9d6d 86bc
00000050: a4b4 133d 361d 15be 6e5c 0bbe ebd2 58bd
00000060: de9d 22be 638e af3d 9692 403b 42b2 b73d
00000070: 3e9b 4e3c 5d2b 8c3d 4d1c c03b 2e85 2abc
00000080: a457 253d 7e78 0c3e 655b 863d 607e 283e
00000090: d313 183b 7e60 be3d acf0 59bd 2542 f53d
000000a0: f07b 18be 4de4 d7bd 98cc 09bc c3f4 f8bd
000000b0: 3ebd 683d 3a27 1cbe 4f6a df3d f312 0d3e
000000c0: 085e abbd ced8 babd 31f3 c43d 943e 143e
000000d0: 3659 893d f76f f8bd 1f49 c83d 1ab3 b6b9
000000e0: 752b 2a3e b71b 063e 1269 873c 540a 3f3d
000000f0: 6245 9cbd 67ee c23d fc8d 96bd 04f4 0c3e
00000100: 4b6c 643d c72c cf3c 151c 613d a97e 1d3d
00000110: f4fc 613d f996 e8bd 0163 e13d 25e5 35bd
00000120: 4545 8c3d 1643 a8bd 751b d63d 9557 b3bd
00000130: c770 0ebe 52e1 cc3d 1f4c 003d 5aa9 d13b
00000140: 384d 94bd e78b 43bd 12f3 d6bd 739d 273e
00000150: 156c fabd a81c cc3d 7866 403d 4b95 133e
00000160: 01c4 d03d 85ec 0dbe 0817 91bd 1cb2 f0bb
00000170: fcf4 d0bd 19ec ca3d a3a7 efbd 10c2 103c
00000180: c251 eeba c33d b53d 1dce 67bd 6491 ef3d
00000190: c720 d23d a55a d6bd 7474 36bd feb8 dcbd
000001a0: b352 81bd 5248 6e3d 96b3 56bd 3beb 1fbd
000001b0: 32df 4cbd 7858 d93d ff6a cebd d1d9 18be
000001c0: 28b0 e2bc 442b e2bd 4d8e 293e 5d5b 783d
000001d0: 23ea d7bd e27f 793d 63cf 823d d20d eabc
000001e0: a6bf 8e3c cee5 92bd 26b8 673d 11f9 993d
000001f0: 11d7 16be 7220 14be 1ab4 4e3d d8d0 1e3d
00000200: 8a48 963d 84ff d7bd f379 d73d b708 2a3e
00000210: fdcc 82bd 43a4 bdbd 2f33 9b3d a4e6 0fbe
00000220: 79e6 0a3d 544b 3cbd 869f 4e3d d549 c93d
00000230: 4444 a93d 8635 da3d 29c9 09bd 6b2e b8bd
00000240: 8fc6 2bbe 810b 4ebd 213d 4c3c e671 b8bd
00000250: d78c 063e 94eb c73c 8a17 a03d 31ec ebbd
00000260: 475e 013e 9970 003e 4ae1 50bb a48b 343d
00000270: 2fba 83bd 52c5 b9bd eca7 fc3d e718 083e
00000280: c6a3 40bb b715 273b 4cd1 b9bc 7908 25bd
00000290: 501f d2bd 9ddc 8abc 993e 6e3d b03a a13d
000002a0: e55d 853d 2df5 5dbd b8ba 88bd a1eb 8ebd
000002b0: ca32 1c3e f33d 713d fa02 133e 1b19 cc3d
000002c0: 610c a5bd b9ed 193e 5b81 383b 5904 183d
000002d0: a17f da3d e392 1d3e 3a70 053e ce6c 15be
000002e0: 469e 79bc 1b3f 813d bbfc 52bd 8c01 123e
000002f0: d819 0a3e bcd4 913d 9b99 9f3d 8d20 983d
00000300: caaf c63c 596e aa3d 0089 cdbc 6657 eebd
00000310: a0e0 8bbc 3b72 cfbd 207b ce3d 056e 17be
00000320: 1ba6 44bd be51 833d 8bc9 f7bd 3df8 87bb
00000330: 6ba0 cc3d ff1c ca3d 4bf2 0fbe e27d 24bd
00000340: 91f4 01bd fa6e ae3d b0eb b4bc b9f6 cebc
00000350: 3724 563b ed83 f63b 0c2f b6bd a6fc ac3d
00000360: 847c 33bc a4d6 9b3d fe2c d2bd 9d99 ab3d
00000370: bf59 76bd 724c 01be 73fb 063e de7b 0b3d
00000380: b73a 263e c070 a53c 4702 1fbb 5c51 c03c
00000390: 2394 e73d f3c4 7e39 6045 26be 3bc2 013d
000003a0: 0a23 8abd 97c3 be3d fa28 273e 017c f1bd
000003b0: 7576 0e3d 7aa5 123e 35bc 2abe b9db 1d3e
000003c0: 7a57 0d3e 7877 bb3d 09ba a5bd 6693 623d
000003d0: b2e5 09be 3279 29be 5035 1f3e e143 203e
000003e0: 53c7 1f3e 1c7c 163e e726 a23d a3dd 17be
000003f0: 2eff a93d 19c6 183e 6616 27be c5f6 61bd

conv_block_3.2.bias f4 [8]
0.14799517 0.092124 0.1145732 0.06986557 -0.13896865 -0.16595444 -0.117178105 0.15687951
00000000: 0c8c 173e 82ab bc3d 5ba5 ea3d ae15 8f3d
00000010: cc4d 0ebe f6ef 29be 13fb efbd 06a5 203e

conv_block_3.3.weight f4 [8]
0.99946964 1.0003461 1.0006958 0.99917567 0.99851215 0.9995287 1.000771 0.99959636
00000000: 3edd 7f3f 570b 803f cd16 803f fac9 7f3f
00000010: 7e9e 7f3f 1de1 7f3f 4419 803f 8ce5 7f3f

conv_block_3.3.bias f4 [8]
0.00016622194 0.00042297854 0.00015519909 -0.0007341562 -0.0006487048 0.00016780145 0.00035788535 -0.0002684885
00000000: dd4b 2e39 38c3 dd39 f0bc 2239 6374 40ba
00000010: d80d 2aba dcf3 2f39 8fa2 bb39 ebc3 8cb9

conv_block_3.3.running_mean f4 [8]
-0.036608256 0.31541643 0.02769822 0.07358542 0.067085594 -0.021423738 0.18314497 0.06784358
00000000: 8af2 15bd 437e a13e 61e7 e23c f4b3 963d
00000010: 2c64 893d d680 afbc 5b8a 3b3e 93f1 8a3d

conv_block_3.3.running_var f4 [8]
0.51895964 0.16963983 0.10738756 0.10990426 0.109132774 0.21211806 0.22220002 0.24541795
00000000: 8ada 043f 10b6 2d3e 02ee db3d 7c15 e13d
00000010: 0181 df3d 7a35 593e 6788 633e d84e 7b3e

conv_block_3.5.weight f4 [8, 8, 3, 3]
0.06623022 0.08936676 -0.1023237 0.112988666 -0.06605516 -0.05324571 0.014774304 0.11231287
0.045001008 -0.062310386 0.0688342 0.06982834 -0.050329868 0.063277826 0.09094379 0.058141306
0.021668173 -0.059337433 -0.047543973 -0.069452815 0.006951633 -0.03753867 0.11671098 0.012475456
0.089434475 0.10891251 -0.020865705 -0.110428214 0.073570825 -0.07012109 0.09582642 -0.11221718
-0.059647996 -0.03944976 0.08446082 0.07191242 -0.016637918 -0.061615914 -0.05257618 -0.06564517
-0.05967019 0.018230993 0.0412895 0.04954599 -0.008402893 0.03003035 0.012702207 -0.053352226
0.009307337 -0.067190275 -0.10401213 0.1115075 0.06256998 -0.08083586 0.017434297 0.07937723
0.04672766 -0.07700087 -0.023134725 -0.079835124 -0.10973176 -0.038027298 -0.10861843 0.088606015
-0.04929114 -0.10671785 0.11607466 -0.002402229 -0.0905497 0.11623927 0.035173357 0.07331897
0.087011285 0.07076232 -0.11276245 -0.05869208 -0.08273938 -0.021871496 0.08774032 -0.058649734
-0.04025189 -0.016031096 -0.08355868 -0.10377142 -0.016555555 -0.05425895 0.069271445 0.012934603
0.00020420097 -0.054179925 -0.088227995 -0.04324703 -0.08939524 0.062458154 -0.0020495385 -0.022798354
-0.07089533 -0.054511677 0.09292424 -0.027720096 -0.09832241 -0.11182156 0.10268571 -0.05496432
-0.0093446 0.11675567 -0.04335644 -0.08242873 0.055483997 -0.08294859 0.029623946 -0.083473094
0.09540386 0.105724685 -0.03142649 -0.04135283 0.028530695 0.058987312 0.086991854 0.07974826
-0.044013336 -0.017010488 0.09585297 0.04546873 -0.049604747 -0.06379592 -0.029400028 0.028544964
0.06225661 -0.02449214 0.052921478 0.0024766615 -0.027035622 -0.09876775 -0.034572203 -0.062709294
-0.11166828 0.06316923 -0.01514509 -0.054169 -0.059820253 -0.07140431 -0.049268518 0.055405583
-0.014713176 -0.01690516 0.109695904 -0.0759105 -0.11514909 -0.052124057 0.07429776 0.091473825
0.014380885 -0.090192325 -0.11068584 -0.0376112 -0.002882129 -0.017955175 -0.09901302 -0.050726164
0.066909924 -0.09429365 -0.010704016 0.105322555 -0.02313805 0.06212946 0.033745054 0.0076051503
-0.07663557 -0.10276089 0.108063936 0.0014790891 -0.07267993 -0.10387493 -0.013428653 -0.1178501
-0.092447385 0.046859674 -0.106924504 0.027478334 -0.014254229 0.051896352 0.06463385 0.032398213
0.05033403 -0.06720489 0.027658343 -0.013173688 0.047193177 0.029287253 -0.10836698 -0.074260026
-0.0010143594 0.015214811 -0.02242814 -0.061708882 -0.062445626 -0.06641965 0.028737782 0.04837899
0.09624184 0.02183511 -0.078657985 0.024626698 -0.05126342 -0.10049836 -0.0126396585 0.03119591
0.026310002 0.046668097 0.012511911 0.105885856 -0.10832766 -0.07548828 -0.0083005885 -0.022122342
0.04383655 0.0723191 -0.04924278 0.01580082 0.04567852 0.011608395 -0.041753925 0.0009616497
0.08358695 -0.11457036 0.085968144 -0.108882725 0.11068395 0.11245731 -0.03398375 0.11143362
0.055736694 -0.049579594 0.09096649 0.041928988 -0.059736196 -0.058023516 -0.015614923 -0.0024757555
0.069783404 0.012236975 0.02192502 -0.04806794 0.04106997 0.023638923 -0.010233294 0.058092482
-0.1037374 0.0037674014 -0.0410878 0.10599051 -0.056863714 0.04820441 0.06901904 0.021053132
00000000: b6a3 873d eb05 b73d 178f d1bd 9a66 e73d
00000010: ed47 87bd 2c18 5abd ec0f 723c 4a04 e63d
00000020: fa52 383d 2d39 7fbd f2f8 8c3d 2902 8f3d
00000030: b126 4ebd ce97 813d bd40 ba3d 9425 6e3d
00000040: 7481 b13c cf0b 73bd 78bd 42bd 473d 8ebd
00000050: 86ca e33b 26c2 19bd 2b06 ef3d db65 4c3c
00000060: 6c29 b73d 860d df3d 8eee aabc 3028 e2bd
00000070: 4dac 963d a59b 8fbd a440 c43d 1fd2 e5bd
00000080: 7551 74bd 1296 21bd cbf9 ac3d d246 933d
00000090: 3e4c 88bc f860 7cbd 1f5a 57bd fa70 86bd
000000a0: bb68 74bd 2a59 953c 2e1f 293d bcf0 4a3d
000000b0: 4aac 09bc 3502 f63c eb1c 503c dd87 5abd
000000c0: cd7d 183c 0e9b 89bd 5004 d5bd 0b5e e43d
000000d0: b124 803d 458d a5bd 5fd2 8e3c 8790 a23d
000000e0: 8165 3f3d a2b2 9dbd 0985 bdbc 9980 a3bd
000000f0: 0cbb e0bd 83c2 1bbd 5773 debd 1277 b53d
00000100: 82e5 49bd e38e dabd 8db8 ed3d b76e 1dbb
00000110: 1f72 b9bd db0e ee3d f011 103d 4228 963d
00000120: f932 b23d d6eb 903d 00f0 e6bd 1b67 70bd
00000130: 4473 a9bd da2b b3bc 32b1 b33d b43a 70bd
00000140: 2adf 24bd a553 83bc d020 abbd 1c86 d4bd
00000150: 849f 87bc a23e 5ebd 30de 8d3d a8eb 533c
00000160: c81e 5639 c5eb 5dbd e1b0 b4bd cc23 31bd
00000170: da14 b7bd 1fd4 7f3d 8d51 06bb 9dc3 babc
00000180: 9231 91bd a347 5fbd 104f be3d 4115 e3bc
00000190: 425d c9bd b402 e5bd e34c d23d 4422 61bd
000001a0: 181a 19bc 991d ef3d 8696 31bd 65d0 a8bd
000001b0: 3043 633d f3e0 a9bd ebad f23c f1f3 aabd
000001c0: 1963 c33d 2f86 d83d 10b9 00bd 9661 29bd
000001d0: 34b9 e93c ae9c 713d c928 b23d 0e53 a33d
000001e0: 5447 34bd 9459 8bbc 904e c43d 6b3d 3a3d
000001f0: 592e 4bbd 6fa7 82bd 54d8 f0bc 21d7 e93c
00000200: c900 7f3d bea3 c8bc 31c4 583d 7c4f 223b
00000210: cf79 ddbc bf46 cabd 959b 0dbd bb6d 80bd
00000220: 57b2 e4bd df5e 813d 1d23 78bc 50e0 5dbd
00000230: 1506 75bd 6c3c 92bd c9cd 49bd f7f0 623d
00000240: 880f 71bc b17c 8abc 3fa8 e03d f776 9bbd
00000250: 49d3 ebbd 0980 55bd 6d29 983d a156 bb3d
00000260: ce9d 6b3c c1b6 b8bd 42af e2bd 340e 1abd
00000270: 1ae2 3cbb bb16 93bc 57c7 cabd 3dc6 4fbd
00000280: 1208 893d 071d c1bd e65f 2fbc 5ab3 d73d
00000290: 028c bdbc 767b 7e3d 4138 0a3d a034 f93b
000002a0: 1cf3 9cbd 4d74 d2bd a050 dd3d ffdd c13a
000002b0: 37d9 94bd 61bc d4bd da03 5cbc 655b f1bd
000002c0: 0e55 bdbd eeef 3f3d 3cfb dabd 3e1a e13c
000002d0: 928a 69bc 4591 543d c05e 843d fdb3 043d
000002e0: 0e2b 4e3d b8a2 89bd c093 e23c 74d6 57bc
000002f0: a24d 413d d2eb ef3c 82ef ddbd a415 98bd
00000300: 41f4 84ba 8b47 793c 38bb b7bc 74c2 7cbd
00000310: fcc6 7fbd 0707 88bd 7f6b eb3c 0c29 463d
00000320: 711a c53d 8bdf b23c 7017 a1bd eebd c93c
00000330: 98f9 51bd 16d2 cdbd 9216 4fbc 918e ff3c
00000340: 1388 d73c 0c27 3f3d c2fe 4c3c afda d83d
00000350: e4da ddbd 9999 9abd 31ff 07bc ea39 b5bc
00000360: f48d 333d 091c 943d ccb2 49bd b970 813c
00000370: 6619 3b3d 2331 3e3c 2a06 2bbd 3817 7c3a
00000380: a32f ab3d dda3 eabd 1110 b03d e8fd debd
00000390: 44ae e23d 0550 e63d 8b32 0bbd 4f37 e43d
000003a0: 294c 643d f913 4bbd a44c ba3d bbbd 2b3d
000003b0: f1ad 74bd 11aa 6dbd bcd5 7fbc 4940 22bb
000003c0: 9aea 8e3d 987d 483c 199c b33c e3e2 44bd
000003d0: fc38 283d 6aa6 c13c 8ca9 27bc 62f2 6d3d
000003e0: 4674 d4bd 82e6 763b ae4b 28bd 8d11 d93d
000003f0: ede9 68bd fd71 453d db59 8d3d 9e77 ac3c

conv_block_3.5.bias f4 [8]
0.030758213 -0.047440343 0.020425027 -0.06067001 -0.0061498303 -0.10481074 0.003854303 -0.053637296
00000000: a6f8 fb3c ce50 42bd 6352 a73c 1e81 78bd
00000010: 8484 c9bb 03a7 d6bd 7998 7c3b c8b2 5bbd

conv_block_4.0.weight f4 [8]
1.0000992 0.99964637 1.0000087 1.0004256 0.99851584 1.0005615 1.0010058 0.99917346
00000000: 4003 803f d3e8 7f3f 4900 803f f20d 803f
00000010: bc9e 7f3f 6612 803f f520 803f d5c9 7f3f

conv_block_4.0.bias f4 [8]
-0.0007754484 3.3585042e-05 -0.00016741194 -0.00084455026 -0.0009283156 0.0002184685 0.00032985813 0.00011032179
00000000: 7647 4bba aadd 0c38 4d8b 2fb9 cf64 5dba
00000010: 355a 73ba b114 6539 cff0 ac39 8f5c e738

conv_block_4.0.running_mean f4 [8]
0.22804633 -0.15753895 -0.12152007 0.4346618 0.1552559 0.24821287 0.24504814 -0.15801316
00000000: fa84 693e e451 21be 84df f8bd fe8b de3e
00000010: 67fb 1e3e 842b 7e3e e6ed 7a3e 34ce 21be

conv_block_4.0.running_var f4 [8]
0.07428254 0.09843545 0.13536741 0.2049006 0.098293476 0.111026324 0.113708146 0.10163403
00000000: 7221 983d 8698 c93d c19d 0a3e 76d1 513e
00000010: 174e c93d c561 e33d d1df e83d 8125 d03d

conv_block_4.2.weight f4 [16, 8, 3, 3]
0.05366175 -0.023651784 -0.1134965 0.027040297 -0.0037824693 0.01701717 0.07898411 0.016629655
-0.06948392 -0.06759739 -0.106213965 0.036639426 0.055067815 -0.07416404 -0.06495617 -0.0956416
-0.028865192 -0.003271845 0.05277287 -0.007837548 0.043194372 0.0082160095 -0.07278769 -0.015097418
-0.054357592 0.049727425 0.06823238 -0.10571923 -0.0052589485 -0.07614898 0.012904658 0.05032034
-0.017861668 -0.05645157 -0.033340644 0.034665015 0.10949988 -0.07009458 -0.063545726 0.1081402
0.08662967 -0.024842778 0.11289036 -0.014894294 0.09175104 0.079830036 -0.03417515 0.11679921
0.06097702 -0.018228555 -0.031117314 -0.018676218 -0.0123126265 -0.07785144 0.039641377 -0.06254484
0.039406147 0.0040035793 -0.04126696 0.09101027 0.08008033 -0.02951475 0.03665882 -0.053265024
0.035951227 -0.045156747 0.07737412 0.0282735 0.075114906 0.07907955 0.1021826 0.052146986
-0.10425894 0.05148058 0.0813566 0.08485332 -0.036641404 -0.086186305 0.0395465 0.07807562
-0.04448054 0.112583995 -0.105328165 0.10683443 -0.029541709 0.011066431 -0.051660936 0.041330572
-0.041032795 -0.055033743 0.08544236 0.10169076 -0.110853314 -0.050825093 -0.009848165 0.000780606
0.011180305 0.04799597 0.03286644 -0.11647146 0.06039604 -0.028067311 0.097203344 0.088232726
-0.09429768 -0.0742129 -0.06975578 0.03308548 -0.049032442 0.068151526 0.023140034 0.03961544
0.1160539 -0.027819244 0.038391266 0.05686633 -0.11560042 -0.07894976 0.08287474 -0.117763594
-0.04774 0.064749256 -0.10419779 -0.08774252 0.030514115 -0.09876685 0.048164733 -0.036177386
-0.090312354 -0.034645576 -0.07429611 -0.03125273 -0.08028165 0.10998375 -0.11667704 -0.057715293
-0.0011751513 0.03415542 0.06927839 0.001541701 0.044199307 0.067077756 -0.0022836027 0.041836973
-0.049695622 -0.038943376 0.097439125 -0.0073835286 -0.05618173 -0.0003698631 -0.067937985 -0.096731655
-0.10209456 0.0050217104 -0.11589554 -0.04819429 0.05133148 0.109538645 -0.09269016 0.021233683
0.018563414 -0.044701356 -0.043241512 -0.010472811 -0.0040803533 0.062621504 -0.09525541 -0.036165874
0.09703281 -0.1016203 -0.010977439 0.07164397 -0.088106744 -0.012606494 0.054389633 -0.024881424
0.05634388 -0.00449132 0.088321336 0.03746792 0.075108044 0.071722835 -0.0028808229 0.09536143
0.09339792 -0.01423555 0.07344358 -0.047637045 0.068989776 0.0065421145 0.107261986 0.022921735
0.008638343 0.06593254 0.01513998 -0.10527501 -0.015009615 0.03810892 -0.10160586 -0.055546954
-0.0980528 0.07305058 0.014825752 0.048802692 -0.07534669 -0.035981104 0.03615366 0.02442638
-0.104330994 0.09559891 -0.09533872 0.06523205 -0.09844939 0.00013180608 -0.015398096 0.021090174
0.042952754 0.08275182 0.109324746 0.016097164 -0.07074945 -0.1169088 -0.081864014 -0.021167321
0.054228738 0.08194352 0.020072995 -0.081400625 0.110874906 -0.11664266 0.028636621 -0.004063657
0.05197642 0.07581727 -0.09351691 -0.11369022 -0.0060301907 -0.093815744 0.09328946 0.0065129446
0.03580672 -0.014970456 0.035879634 -0.00502989 -0.10940216 0.10851632 -0.100725345 -0.06989538
-0.097141586 0.050456714 0.016417451 -0.044457022 0.039841354 -0.03014917 0.08387105 -0.08115722
00000000: 6ccc 5b3d 63c1 c1bc da70 e8bd 9d83 dd3c
00000010: 4ee3 77bb 9867 8b3c 6cc2 a13d ea3a 883c
00000020: 964d 8ebd 8070 8abd b586 d9bd 3913 163d
00000030: ca8e 613d 51e3 97bd be07 85bd bedf c3bd
00000040: b276 ecbc 736c 56bb 5d28 583d 0f69 00bc
00000050: 95ec 303d 719c 063c b611 95bd 295b 77bc
00000060: 11a6 5ebd fcae 4b3d 6bbd 8b3d 5383 d8bd
00000070: 4253 acbb fff3 9bbd 0f6e 533c b31c 4e3d
00000080: a252 92bc c339 67bd 3390 08bd e7fc 0d3d
00000090: 7941 e03d bf8d 8fbd 4324 82bd 9c78 dd3d
000000a0: e56a b13d 1583 cbbc 1033 e73d 3207 74bc
000000b0: f8e7 bb3d ee7d a33d 3efb 0bbd 6d34 ef3d
000000c0: 0ac3 793d 0d54 95bc bde9 febc defe 98bc
000000d0: e6ba 49bc 9370 9fbd ff5e 223d 8217 80bd
000000e0: 5768 213d 7530 833b 8b07 29bd 9863 ba3d
000000f0: 2801 a43d ebc8 f1bc 8f27 163d 6d2c 5abd
00000100: 9841 133d 48f6 38bd 5376 9e3d d49d e73c
00000110: d8d5 993d 76f4 a13d 1c45 d13d 1498 553d
00000120: b685 d5bd 4ddd 523d 4a9e a63d 94c7 ad3d
00000130: 4c15 16bd 7282 b0bd 83fb 213d 1ce6 9f3d
00000140: 3a31 36bd 7092 e63d 4bb6 d7bd 02cc da3d
00000150: 7401 f2bc fa4f 353c 6b9a 53bd 3f4a 293d
00000160: 0112 28bd 106b 61bd 67fc ae3d 3f43 d03d
00000170: 1007 e3bd f92d 50bd 335a 21bc 95a1 4c3a
00000180: 992d 373c 6c97 443d f69e 063d 9788 eebd
00000190: d761 773d 6bed e5bc 8c12 c73d 5cb3 b43d
000001a0: 241f c1bd effc 97bd 1edc 8ebd a484 073d
000001b0: 3ed6 48bd 0793 8b3d 2b90 bd3c cd43 223d
000001c0: abad ed3d 2fe5 e3bc 2940 1d3d abec 683d
000001d0: eabf ecbd 69b0 a1bd 3bba a93d 0a2e f1bd
000001e0: 058b 43bd 429b 843d a765 d5bd 5ab2 b3bd
000001f0: bdf8 f93c 4646 cabd 6248 453d bd2e 14bd
00000200: aff5 b8bd 85e8 0dbd 8f28 98bd dd02 00bd
00000210: b56a a4bd 293f e13d 5ff4 eebd df66 6cbd
00000220: 8907 9aba 8ee6 0b3d d4e1 8d3d e712 ca3a
00000230: 550a 353d 1060 893d 7fa8 15bb 3f5d 2b3d
00000240: a38d 4bbd 1783 1fbd 2a8e c73d 87f1 f1bb
00000250: d01e 66bd 2fea c1b9 1223 8bbd 3f1b c6bd
00000260: f416 d1bd 298d a43b a45a edbd 6067 45bd
00000270: f540 523d cc55 e03d 57d4 bdbd 43f2 ad3c
00000280: 4d12 983c c518 37bd 031e 31bd 2796 2bbc
00000290: 7cb4 85bb b43f 803d 4515 c3bd ab22 14bd
000002a0: 23b9 c63d 4e1e d0bd b7da 33bc 13ba 923d
000002b0: 4f71 b4bd 788b 4ebc aac7 5e3d 21d4 cbbc
000002c0: d7c8 663d ec2b 93bb d1e1 b43d f677 193d
000002d0: 3fd2 993d 6ce3 923d 30cc 3cbb da4c c33d
000002e0: 6947 bf3d 393c 69bc 9669 963d 101f 43bd
000002f0: 834a 8d3d 3c5f d63b 2cac db3d 5dc6 bb3c
00000300: d687 0d3c a407 873d ae0d 783c 6d9a d7bd
00000310: e3ea 75bc 1918 1c3d bc16 d0bd 3485 63bd
00000320: e8cf c8bd 8b9b 953d b6e7 723c 55e5 473d
00000330: 5e4f 9abd ec60 13bd dc15 143d d519 c83c
00000340: 7dab d5bd 5cc9 c33d f240 c3bd 6298 853d
00000350: d59f c9bd 6d35 0a39 4c48 7cbc 4dc5 ac3c
00000360: 3aef 2f3d c979 a93d a7e5 df3d 33de 833c
00000370: 16e5 90bd e26d efbd 52a8 a7bd 1767 adbc
00000380: f41e 5e3d 01d2 a73d 1f70 a43c 5fb5 a6bd
00000390: 6212 e33d 59e2 eebd 5997 ea3c 6d28 85bb
000003a0: 3ae5 543d 1646 9b3d cb85 bfbd 6bd6 e8bd
000003b0: e898 c5bb 7822 c0bd 8b0e bf3d 8a6a d53b
000003c0: 11aa 123d a546 75bc 86f6 123d c7d1 a4bb
000003d0: 3d0e e0bd ce3d de3d 1749 cebd 4f25 8fbd
000003e0: 2bf2 c6bd b3ab 4e3d e47d 863c 9118 36bd
000003f0: b030 233d 64fb f6bc 96c4 ab3d c235 a6bd

conv_block_4.2.bias f4 [16]
0.00706075 0.028953653 0.093528494 -0.10233144 0.041257214 0.06760237 0.07198018 0.038122904
0.05267658 -0.05192079 0.007992314 -0.04778169 0.09114845 0.050320823 0.005747642 -0.07306971
00000000: dd5d e73b 3630 ed3c de8b bf3d 2593 d1bd
00000010: 53fd 283d 1d73 8a3d 586a 933d c326 1c3d
00000020: 66c3 573d e5aa 54bd 32f2 023c bcb6 43bd
00000030: 0aac ba3d 351d 4e3d b756 bc3b 92a5 95bd

conv_block_4.3.weight f4 [16]
1.0000542 0.99880594 0.99964947 0.9996646 0.9998659 1.0005078 0.999469 0.99955404
0.9998391 1.0006306 0.9994473 1.0011941 0.99999005 0.99992514 0.9998079 1.0005771
00000000: c701 803f bfb1 7f3f 07e9 7f3f 05ea 7f3f
00000010: 36f7 7f3f a410 803f 33dd 7f3f c6e2 7f3f
00000020: 75f5 7f3f aa14 803f c7db 7f3f 2127 803f
00000030: 59ff 7f3f 18fb 7f3f 69f3 7f3f e912 803f

conv_block_4.3.bias f4 [16]
0.0005622355 -0.0006666689 -0.0006390307 0.0012134543 -0.00024200577 -1.2329552e-05 0.0007201518 -0.0009341629
-6.809596e-05 3.240504e-05 -6.8197805e-06 0.0008689357 0.0001278794 9.804025e-06 -2.4751553e-05 0.00036683472
00000000: fc62 133a 64c3 2eba a084 27ba c50c 9f3a
00000010: eec2 7db9 06db 4eb7 92c8 3c3a 9ce2 74ba
00000020: bdce 8eb8 a6ea 0738 78d5 e4b6 4ac9 633a
00000030: 5d17 0639 f77b 2437 8ea1 cfb7 b953 c039

conv_block_4.3.running_mean f4 [16]
0.12584788 -0.060242314 0.04851595 -0.29874927 0.381832 0.46382442 0.20885545 -0.11735741
-0.07391348 -0.08067872 -0.08755684 0.12337404 -0.15405339 -0.096944615 -0.10505092 0.095893234
00000000: 44de 003e a5c0 76bd a9b8 463d aaf5 98be
00000010: 7c7f c33e 657a ed3e 34de 553e 1559 f0bd
00000020: f35f 97bd e23a a5bd 0051 b3bd 87ab fc3d
00000030: 2cc0 1dbe e68a c6bd f024 d7bd ac63 c43d

conv_block_4.3.running_var f4 [16]
0.14343344 0.19472124 0.17847715 0.20687605 0.33724147 0.21555477 0.1633949 0.121939465
0.16912755 0.12444952 0.17502871 0.12192274 0.14254512 0.11166735 0.119770184 0.2925816
00000000: 37e0 123e 0165 473e b7c2 363e 51d7 533e
00000010: eaaa ac3e 64ba 5c3e fe50 273e 66bb f93d
00000020: c62f 2d3e 64df fe3d ba3a 333e a1b2 f93d
00000030: 59f7 113e dab1 e43d 124a f53d 41cd 953e

conv_block_4.5.weight f4 [16, 16, 3, 3]
-0.06978745 0.014403793 0.0030144558 -0.0654812 0.05160939 -0.059344616 -0.05547387 0.054990504
-0.072509035 -0.03774304 -0.017572295 -0.054867137 0.07507104 -0.056109905 -0.06469502 0.057772487
0.008994621 -0.051511712 -0.021391481 -0.074185796 -0.06774865 0.026423585 0.006212916 0.010774121
0.02680021 -0.023866275 0.017827312 -0.07540284 0.035599228 -0.06949849 0.0152722895 0.03630093
-0.059087474 -0.0057296385 0.055052288 -0.051937506 0.030411778 0.04678406 -0.030276768 0.029255662
-0.02994259 -0.037820607 0.034157846 0.018492952 0.019411812 0.030141655 -0.07072751 -0.06938235
-0.003937318 0.06568897 0.07296279 0.03170782 -0.036997642 0.025503634 0.051684722 0.037827093
0.054264113 0.06303168 0.016149612 -0.040773746 0.017567195 0.08158203 0.02427046 0.052605223
0.042090435 0.05274861 0.03789517 0.022081057 -0.030105062 -0.05832723 0.011811406 0.04944637
0.05550369 -0.036743086 0.06890427 -0.07593331 0.06497524 -0.027893616 -0.0009799227 -0.06374216
0.042049687 0.04426514 0.046835054 -0.028065156 -0.033664297 -0.06380518 0.030551141 -0.037587516
0.013248308 -0.042410973 0.046872772 0.056000385 -0.041252922 0.077649064 -0.033290382 0.0819723
0.065803684 0.07357377 0.06623411 -0.027994547 -0.045992468 0.032708917 0.039838184 0.057036
0.07260952 0.08085562 -0.057512973 0.08004387 -0.06577629 0.009610617 0.004714385 0.016193517
0.022619525 -0.0641568 -0.080561146 0.0029569888 0.055593405 0.073267326 0.033001814 -0.060380872
-0.06751893 0.04243909 -0.0653003 -0.07913374 -0.069458835 -0.022397576 -0.05069719 0.048900306
-0.0422792 0.041885763 -0.052746084 -0.033354457 0.00608583 0.05254271 0.01595758 0.056828428
-0.037245788 0.049940947 0.033716746 0.044249564 0.009995669 -0.078963496 0.017182626 -0.037913
0.03427804 -0.021110067 -0.07210886 -0.04305958 -0.056284707 -0.0745443 -0.055777166 0.051760208
0.03793841 0.04870403 0.03269365 -0.042475455 0.0016424878 -0.004550042 0.040832143 0.019995412
-0.06619558 0.062976025 -0.00944518 0.07324489 0.036442026 -0.0634089 0.080371775 -0.0346075
-0.04675636 0.05998872 0.07188074 -0.022264216 -0.028491497 -0.011660624 0.049702253 0.0016061901
0.0039054789 0.08137069 -0.057243463 0.030170565 -0.008660216 -0.07186884 0.06952343 -0.064786874
0.0017728626 0.025507 -0.07802564 -0.0074262535 0.02127733 -0.016790072 -0.05201318 0.006063815
0.07571924 0.06430285 -0.004931821 -0.06534633 -0.02127174 0.026170135 0.025963347 -0.07299294
-0.075329974 0.006201676 0.001687094 -0.015250495 -0.025216375 -0.02901046 0.082999654 0.025566634
0.049513143 0.071209714 -0.022307662 -0.01545722 0.018987948 -0.028834576 0.006862162 -0.037094984
-0.068228394 -0.034050807 0.026447443 0.065405264 -0.08156144 -0.053010453 0.04508049 -0.0567015
-0.043637622 0.0016423061 0.005311256 -0.077688284 0.059516765 0.042481806 0.006852282 -0.055179242
0.06501927 -0.043682706 0.02172511 0.017898954 0.03803347 -0.076738484 0.04817256 0.0019781596
-0.071757704 -0.07606231 -0.07041431 -0.06055475 0.07786308 -0.0074114674 -0.0087135825 -0.018377852
-0.05026889 0.049120415 -0.078199334 -0.024170505 0.083349444 -0.05447504 -0.04534333 -0.023115097
00000000: b9ec 8ebd e3fd 6b3c 2d8e 453b 021b 86bd
00000010: 5e64 533d 5713 73bd 9238 63bd b93d 613d
00000020: 9e7f 94bd 7298 1abd c6f3 8fbc 5dbc 60bd
00000030: d8be 993d 80d3 65bd d37e 84bd d8a2 6c3d
00000040: 2d5e 133c f2fd 52bd 303d afbc b9ee 97bd
00000050: cebf 8abd 4676 d83c b895 cb3b f085 303c
00000060: 1d8c db3c 3583 c3bc 950a 923c ce6c 9abd
00000070: 7fd0 113d 3955 8ebd a038 7a3c 49b0 143d
00000080: b505 72bd b1bf bbbb 827e 613d 6cbc 54bd
00000090: 1f22 f93c a4a0 3f3d fc06 f8bc 92a9 ef3c
000000a0: 2a4a f5bc c8e9 1abd 19e9 0b3d 887e 973c
000000b0: 8505 9f3c a2eb f63c 96d9 90bd 5518 8ebd
000000c0: 9e04 81bb f087 863d 846d 953d 0fe0 013d
000000d0: d78a 17bd ffec d03c 5cb3 533d 95f0 1a3d
000000e0: 0c44 5e3d c116 813d 314c 843c 5f02 27bd
000000f0: 14e9 8f3c 7b14 a73d d8d2 c63c 9378 573d
00000100: 0567 2c3d ed0e 583d f737 1b3d 55e3 b43c
00000110: e49e f6bc 89e8 6ebd a184 413c 4788 4a3d
00000120: d657 633d eb7f 16bd af1d 8d3d ec82 9bbd
00000130: bd11 853d 2781 e4bc c070 80ba 408b 82bd
00000140: 4b3c 2c3d 5d4f 353d 1dd6 3f3d e6e8 e5bc
00000150: 93e3 09bd 4aac 82bd 6346 fa3c 5ef5 19bd
00000160: 6e0f 593c 21b7 2dbd aafd 3f3d a960 653d
00000170: d3f8 28bd 7906 9f3d 7f5b 08bd 18e1 a73d
00000180: 15c4 863d d8ad 963d c0a5 873d d254 e5bc
00000190: 9962 3cbd c9f9 053d 5d2d 233d 959e 693d
000001a0: 4db4 943d a297 a53d b992 6bbd 0aee a33d
000001b0: b8b5 86bd d975 1d3c 217b 9a3b 44a8 843c
000001c0: 954c b93c a464 83bd 3efd a4bd 0aca 413b
000001d0: e9b5 633d 2e0d 963d e92c 073d ef51 77bd
000001e0: 5d47 8abd 9cd4 2d3d 2abc 85bd df10 a2bd
000001f0: 6f40 8ebd 1f7b b7bc dba7 4fbd b04b 483d
00000200: f42c 2dbd 6890 2b3d 470c 58bd af9e 08bd
00000210: a46b c73b 0637 573d 79b9 823c edc4 683d
00000220: 0a8f 18bd e18e 4c3d 921a 0a3d 083f 353d
00000230: e0c4 233c 9db7 a1bd 94c2 8c3c a94a 1bbd
00000240: 2167 0c3d 05ef acbc cfad 93bd 3e5f 30bd
00000250: cb8a 66bd afaa 98bd 9976 64bd 8302 543d
00000260: 4e65 1b3d e17d 473d c7e9 053d befa 2dbd
00000270: bf48 d73a 8518 95bb 9b3f 273d 6bcd a33c
00000280: 8c91 87bd 93f9 803d f5bf 1abc 6b01 963d
00000290: 3c44 153d 86dc 81bd f599 a43d 98c0 0dbd
000002a0: 9983 3fbd bbb6 753d 3636 933d 7263 b6bc
000002b0: 0067 e9bc 340c 3fbc 9794 4b3d cc86 d23a
000002c0: 10f3 7f3b ada5 a63d 1f78 6abd 4328 f73c
000002d0: 94e3 0dbc f82f 93bd 4d62 8e3d fbae 84bd
000002e0: 665f e83a 0ef4 d03c e8cb 9fbd ee57 f3bb
000002f0: cc4d ae3c 558b 89bc c60b 55bd f8b2 c63b
00000300: b012 9b3d 36b1 833d 1d9b a1bb 4cd4 85bd
00000310: 1242 aebc c062 d63c 16b1 d43c 537d 95bd
00000320: 9a46 9abd 6e37 cb3b 7b21 dd3a 36dd 79bc
00000330: 9292 cebc 58a7 edbc b9fb a93d 1e71 d13c
00000340: 4bce 4a3d 66d6 913d 8fbe b6bc 4840 7dbc
00000350: 9d8c 9b3c 7d36 ecbc fddb e03b e9f0 17bd
00000360: 54bb 8bbd dc78 0bbd 4fa8 d83c 32f3 853d
00000370: af09 a7bd 7d21 59bd 52a6 383d d53f 68bd
00000380: 5dbd 32bd a642 d73a 0b0a ae3b 091b 9fbd
00000390: dac7 733d 6701 2e3d 1c89 e03b a103 62bd
000003a0: d328 853d a3ec 32bd dcf8 b13c d4a0 923c
000003b0: fcc8 1b3d 1129 9dbd 9750 453d 03a4 013b
000003c0: b4f5 92bd 8ec6 9bbd 6135 90bd 4208 78bd
000003d0: ae76 9f3d e5db f2bb 6ac3 0ebc 268d 96bc
000003e0: c0e6 4dbd 7d32 493d f926 a0bd 3901 c6bc
000003f0: 1db3 aa3d 3821 5fbd edb9 39bd df5b bdbc

conv_block_4.5.bias f4 [16]
-0.072370835 -0.050845828 -0.05314288 -0.058616105 -0.032397583 -0.017668325 -0.08326534 -0.040360052
-0.057145067 0.057199504 0.064209945 0.062230945 0.011144186 0.0066612284 0.040285427 0.022552636
00000000: 2937 94bd b743 50bd 59ac 59bd 7117 70bd
00000010: 54b3 04bd 2abd 90bc 0587 aabd 9550 25bd
00000020: f210 6abd 074a 6a3d 8180 833d e0e5 7e3d
00000030: 1b96 363c 6f46 da3b 5502 253d 4ec0 b83c

conv_block_5.0.weight f4 [16]
0.9992921 0.9993689 0.9999976 1.000638 0.99982685 0.9997037 1.0008693 0.9991484
0.99919695 1.00101 1.000808 1.0001036 0.9998275 1.000113 1.0009627 0.99947715
00000000: 9bd1 7f3f a4d6 7f3f d8ff 7f3f e814 803f
00000010: a7f4 7f3f 95ec 7f3f 7c1c 803f 31c8 7f3f
00000020: 5fcb 7f3f 1821 803f 7a1a 803f 6503 803f
00000030: b2f4 7f3f b403 803f 8c1f 803f bcdd 7f3f

conv_block_5.0.bias f4 [16]
-0.0003391663 -6.40693e-06 -5.1376206e-05 -0.0002864519 -0.00045398163 0.00045379487 8.363434e-05 -0.0012948068
0.00012647774 0.0010615541 0.00057301525 -0.00013764006 -0.0009640399 0.00027879747 0.00023929651 -0.00071445643
00000000: 21d2 b1b9 1cfb d6b6 c87c 57b8 ec2e 96b9
00000010: 6204 eeb9 51eb ed39 d864 af38 82b6 a9ba
00000020: 1c9f 0439 d823 8b3a 6736 163a 7953 10b9
00000030: 9fb7 7cba 902b 9239 abeb 7a39 5c4a 3bba

conv_block_5.0.running_mean f4 [16]
0.24298263 -0.042399153 0.2064077 0.12074624 0.32683027 0.12329181 0.16365202 0.005151096
0.24672258 -0.071372755 0.11553286 0.2814903 0.12905201 0.21917304 0.36141962 0.26588896
00000000: 70d0 783e bcaa 2dbd 8a5c 533e ce49 f73d
00000010: 4c56 a73e 6b80 fc3d 6594 273e 86ca a83b
00000020: d8a4 7c3e e12b 92bd 7e9c ec3d 7f1f 903e
00000030: 3626 043e e66e 603e fe0b b93e 9922 883e

conv_block_5.0.running_var f4 [16]
0.18041953 0.0627925 0.08768867 0.09234931 0.16920787 0.077876315 0.058564395 0.07022317
0.13028544 0.13264589 0.09230006 0.08072087 0.13272072 0.08098215 0.19367772 0.08612939
00000000: e6bf 383e 5b99 803d 1e96 b33d a321 bd3d
00000010: d444 2d3e 9e7d 9f3d 38e1 6f3d 2ad1 8f3d
00000020: 8c69 053e 53d4 073e d007 bd3d fc50 a53d
00000030: f1e7 073e f8d9 a53d 7453 463e 9b64 b03d

conv_block_5.2.weight f4 [32, 16, 3, 3]
0.04266102 0.046308424 -0.07573234 -0.022446746 -0.06037309 0.014321962 0.029441416 0.030950472
-0.07367799 0.049893506 0.022288091 0.027723847 -0.064150006 0.08039049 0.029458215 -0.023460649
-0.055802964 -0.042460263 0.075273246 -0.06464953 -0.006155838 0.0058929203 -0.056145377 0.05533721
0.021460718 -0.067123294 -0.060968842 0.030284902 0.018061696 -0.073561706 -0.076069705 0.053874068
-0.042985644 -0.00091076456 -0.05682796 -0.026489941 0.0020656607 0.05240733 -0.0817479 -0.025350723
-0.0039701723 -0.042124577 -0.059366435 -0.004658386 -0.04069071 -0.049086984 -0.08060365 0.0032114617
0.056087334 0.03095331 -0.056342445 -0.048154797 -0.020652616 0.06318354 -0.036192935 0.0031593011
0.05078775 -0.033361778 0.07327331 0.047250155 0.040968116 -0.071296506 0.049251452 -0.0026531562
0.07235886 -0.053234242 0.045943636 -0.02125822 -0.03001715 0.020426653 0.020725703 0.058338076
0.017070245 -0.030860687 0.029957423 0.047020253 0.036144823 0.04013632 0.07867071 -0.0072737974
0.0473112 4.8979433e-05 -0.06868764 -0.06861338 0.04869507 0.030501198 -0.0629408 -0.0036427414
-0.050114755 0.051524572 -0.06695877 0.00046256022 -0.053682826 -0.019923802 0.061948664 -0.046341445
0.08132315 -0.080128066 0.040737156 0.0068172556 0.01084693 0.020957584 0.064692475 -0.0031462328
-0.016355928 -0.07131363 -0.021715632 -0.07809508 -0.07002577 -0.016204739 0.023783507 0.023969203
-0.0056207837 0.028378276 0.043299608 -0.053435158 -0.062197722 0.07896733 -0.046782225 0.022512315
0.0752116 0.033496358 -0.03960121 -0.01463604 -0.029689502 0.022773871 0.0071251937 -0.07308976
-0.06249012 -0.07480978 0.057109047 -0.0022834153 -0.028556246 0.04230857 -0.03786473 0.04903101
0.076850705 -0.07643152 -0.009886884 0.034994557 -0.03898649 0.051241253 -0.002466957 0.04440118
0.016138308 -0.0037038347 0.08005991 -0.07625137 -0.0332707 -0.03171658 0.038605902 -0.08283161
-0.036402136 -0.024397515 0.06430458 -0.06162622 -0.044250343 -0.05298812 0.04295416 -0.03335823
-0.05099708 0.032256957 0.05110703 0.055645738 -0.008649926 0.024276352 -0.064761594 -0.075128116
-0.045826774 0.042973053 0.022439064 -0.00613786 -0.054788776 -0.0015831913 -0.05863027 0.080626726
0.046380363 -0.008543205 0.051861994 0.032975882 -0.0748324 -0.0060478863 0.025358474 -0.028851204
0.051057126 0.04334712 0.021603169 -0.037088644 0.07778006 0.030782407 0.065305814 -0.025214242
-0.030124636 -0.009410216 -0.017092526 -0.06154178 0.02282392 -0.07403575 0.0054773 -0.08067096
-0.020665443 0.010648293 0.07230079 -0.029483188 0.006780753 0.073210426 -0.048903324 0.02915894
-0.011600842 0.010991438 -0.08054902 0.076395154 -0.053276964 -0.018334707 -0.009636381 -0.041645948
-0.0740942 0.042488847 -0.029711016 0.06678917 0.066235654 -0.043192644 -0.02325255 0.025693707
-0.06281997 -0.056840412 -0.08191216 -0.079253115 0.03722039 -0.033770796 -0.03589575 -0.033441607
-0.073847175 0.028406164 0.019706843 -0.064377986 0.054681774 -0.03107446 0.033158306 0.04523365
0.035099745 -0.074863024 0.05232327 0.026558343 0.009739778 -0.073413484 -0.037652023 -0.049797878
0.0030823883 0.032311276 0.00013249843 0.0047333636 0.05369458 0.042577226 -0.043742828 0.06824276
00000000: 52bd 2e3d e7ad 3d3d 8f19 9bbd 3de2 b7bc
00000010: c649 77bd aaa6 6a3c 202f f13c d88b fd3c
00000020: 7ce4 96bd 225d 4c3d 8495 b63c 1f1d e33c
00000030: 1461 83bd c5a3 a43d 5b52 f13c 8c30 c0bc
00000040: a691 64bd d0ea 2dbd dc28 9a3d f966 84bd
00000050: e9b6 c9bb 6619 c13b b2f8 65bd 45a9 623d
00000060: 63ce af3c f077 89bd 77ba 79bd 0b18 f83c
00000070: 1ff6 933c 85a7 96bd 6fca 9bbd 0eab 5c3d
00000080: b711 30bd 60c0 6eba 6fc4 68bd 6f01 d9bc
00000090: 0960 073b 12a9 563d 716b a7bd 52ac cfbc
000000a0: 3818 82bb d28a 2cbd 382a 73bd 60a5 98bb
000000b0: 4dab 26bd 6f0f 49bd 8713 a5bd 6377 523b
000000c0: d5bb 653d cc91 fd3c 56c7 66bd f73d 45bd
000000d0: ad2f a9bc 5f66 813d 0b3f 14bd 470c 4f3b
000000e0: d106 503d 5ca6 08bd 5110 963d 6189 413d
000000f0: 2fce 273d e703 92bd e4bb 493d 93e0 2dbb
00000100: e230 943d 260c 5abd 652f 3c3d b825 aebc
00000110: 87e6 f5bc cc55 a73c f3c8 a93c e8f3 6e3d
00000120: e6d6 8b3c 8dcf fcbc 4569 f53c 4f98 403d
00000130: 980c 143d fb65 243d 1c1e a13d 0959 eebb
00000140: 64c9 413d 446f 4d38 1bac 8cbd 2c85 8cbd
00000150: 7b74 473d a6dd f93c 1be7 80bd 0fbb 6ebb
00000160: 2145 4dbd 6e0b 533d ae21 89bd c883 f239
00000170: 86e2 5bbd 3e37 a3bc e2bd 7d3d 87d0 3dbd
00000180: c08c a63d 2f1a a4bd 01dc 263d 4963 df3b
00000190: 52b7 313c 3daf ab3c 7d7d 843d 0731 4ebb
000001a0: defc 85bc e10c 92bd fbe4 b1bc 50f0 9fbd
000001b0: ac69 8fbd cdbf 84bc a1d5 c23c 105b c43c
000001c0: 8d2e b8bb 8f79 e83c ee5a 313d d3de 5abd
000001d0: 0ac3 7ebd a0b9 a13d b89e 3fbd bf6b b83c
000001e0: 8a08 9a3d 7a33 093d e134 22bd 00cc 6fbc
000001f0: 6637 f3bc 4590 ba3c 757a e93b 16b0 95bd
00000200: a4f5 7fbd df35 99bd 2deb 693d 5aa5 15bb
00000210: caee e9bc c04b 2d3d 0c18 1bbd bed4 483d
00000220: e763 9d3d 2188 9cbd 99fc 21bc 7456 0f3d
00000230: 4cb0 1fbd 59e2 513d acac 21bb 03de 353d
00000240: 7c34 843c 09bc 72bb 73f6 a33d ae29 9cbd
00000250: dc46 08bd 3fe9 01bd 3921 1e3d 9fa3 a9bd
00000260: 681a 15bd 4cdd c7bc 1fb2 833d c66b 7cbd
00000270: d93f 35bd 120a 59bd b4f0 2f3d a4a2 08bd
00000280: 50e2 50bd df1f 043d 9b55 513d c9ec 633d
00000290: 6bb8 0dbc 33df c63c baa1 84bd c5dc 99bd
000002a0: dbb4 3bbd 8304 303d 21d2 b73c 1a20 c9bb
000002b0: 326a 60bd 1683 cfba 4b26 70bd a01f a53d
000002c0: 56f9 3d3d cdf8 0bbc 3e6d 543d b811 073d
000002d0: bb41 99bd 592d c6bb 93bc cf3c 5c59 ecbc
000002e0: 4721 513d c08c 313d 21f9 b03c 43ea 17bd
000002f0: 274b 9f3d 632b fc3c 0ebf 853d 198e cebc
00000300: f1c7 f6bc 4e2d 1abc a005 8cbc 3c13 7cbd
00000310: 3bf9 ba3c 0ea0 97bd ec7a b33b d136 a5bd
00000320: 934a a9bc 2e76 2e3c 7012 943d ba86 f1bc
00000330: 1431 de3b 59ef 953d da4e 48bd bbde ee3c
00000340: 7511 3ebc 6f15 343c e2f6 a4bd 1075 9c3d
00000350: f238 5abd ab32 96bc e9e1 1dbc f194 2abd
00000360: b3be 97bd c908 2e3d 8464 f3bc c3c8 883d
00000370: 8fa6 873d c5ea 30bd 227c bebc 9c7b d23c
00000380: c2a7 80bd 7ed1 68bd 90c1 a7bd 754f a2bd
00000390: 6874 183d 3f53 0abd 6c07 13bd 11fa 08bd
000003a0: 303d 97bd 0bb4 e83c 3f70 a13c 9bd8 83bd
000003b0: fff9 5f3d de8f febc 01d1 073d eb46 393d
000003c0: c0c4 0f3d c951 99bd ed50 563d e290 d93c
000003d0: 9793 1f3c cf59 96bd 0239 1abd dcf8 4bbd
000003e0: e501 4a3b d458 043d 47ef 0a39 551a 9b3b
000003f0: d9ee 5b3d 7565 2e3d ae2b 33bd dcc2 8b3d

conv_block_5.2.bias f4 [32]
-0.019005908 -0.0284347 -0.014029207 -0.06757686 0.07812135 0.020954303 -0.024818247 -0.07406592
-0.078859024 0.07394049 0.052909788 -0.074376404 -0.035128757 0.01518537 0.051382042 0.013097606
0.0027487846 0.064296104 -0.054325946 -0.040507168 -0.037347436 -0.04371744 -0.06621887 0.026881175
-0.017730301 0.042935025 -0.07755518 0.020597553 0.04080636 -0.03278181 0.035649456 0.009048496
00000000: 47b2 9bbc e3ef e8bc c2da 65bc bd65 8abd
00000010: 16fe 9f3d 5ca8 ab3c a34f cbbc e0af 97bd
00000020: d780 a1bd 1d6e 973d efb7 583d a852 98bd
00000030: 2ce3 0fbd 0fcc 783c fa75 523d 5797 563c
00000040: f424 343b adad 833d e284 5ebd d8ea 25bd
00000050: a0f9 18bd 0f11 33bd c29d 87bd e935 dc3c
00000060: 233f 91bc a3dc 2f3d 40d5 9ebd 33bc a83c
00000070: 9224 273d 3846 06bd 2a05 123d 2540 143c

conv_block_5.3.weight f4 [32]
0.9999976 0.9994322 0.9998747 0.99975806 0.99915695 0.99865824 1.0009565 0.9989343
0.9996178 1.0011148 1.0007402 1.0008718 0.99906623 1.0015845 1.000282 0.99964213
0.99968714 1.0006717 1.000607 0.99983597 0.9999721 1.0004802 0.9994069 0.9988436
0.9999263 0.99902016 1.0005026 0.99982226 0.99878764 0.99991924 0.99924654 1.000417
00000000: d8ff 7f3f cada 7f3f caf7 7f3f 25f0 7f3f
00000010: c0c8 7f3f 11a8 7f3f 581f 803f 29ba 7f3f
00000020: f4e6 7f3f 8824 803f 4118 803f 911c 803f
00000030: cec2 7f3f ec33 803f 3e09 803f 8ce8 7f3f
00000040: 7feb 7f3f 0316 803f e413 803f 40f5 7f3f
00000050: 2cfe 7f3f bc0f 803f 21d9 7f3f 37b4 7f3f
00000060: 2cfb 7f3f c9bf 7f3f 7810 803f 5af4 7f3f
00000070: 8cb0 7f3f b5fa 7f3f 9fce 7f3f aa0d 803f

conv_block_5.3.bias f4 [32]
0.0009407177 -0.00046557002 0.0004118953 -0.00026124687 -0.00036489122 -0.0018308121 0.00046239706 0.00031896716
-4.7308367e-07 0.0013550733 0.00028043814 0.00032349429 -0.0004989514 0.0011040859 8.232193e-05 -4.3470653e-05
-0.0009353975 0.0012122673 0.0012641636 -0.00032937678 0.0006597593 0.0006671468 -0.00072650006 -0.0008651386
3.6595986e-05 -0.0010067219 0.0003303717 -0.00071865314 -0.00089819566 -0.00022459692 -0.00024086273 -0.00019253939
00000000: 7f9a 763a c017 f4b9 a7f3 d739 f6f7 88b9
00000010: df4e bfb9 dcf7 efba e26d f239 0c3b a739
00000020: 20fc fdb4 b79c b13a c507 9339 ab9a a939
00000030: 10cc 02ba fab6 903a 40a4 ac38 4254 36b8
00000040: 7735 75ba f1e4 9e3a 4bb2 a53a 34b0 acb9
00000050: b2f3 2c3a 77e3 2e3a 9872 3eba 78ca 62ba
00000060: a47e 1938 fbf3 83ba bd35 ad39 ff63 3cba
00000070: e474 6bba c781 6bb9 1990 7cb9 66e4 49b9

conv_block_5.3.running_mean f4 [32]
-0.16449167 -0.23637058 -0.016471501 -0.36644477 -0.17416115 0.00010359252 -0.17147805 -0.12610473
-0.13712998 0.110992014 0.22491062 -0.06726555 -0.25856686 0.14654902 -0.122767895 0.0038657717
-0.22829618 0.1630139 -0.44693792 -0.34108958 -0.3669769 -0.43791384 0.29331493 0.18266813
0.39311296 -0.35945904 -0.098511286 -0.097841255 0.19935687 -0.12851886 0.37979606 0.026096893
00000000: 8170 28be 210b 72be 3eef 86bc a69e bbbe
00000010: 4d57 32be d03f d938 f197 2fbe 9921 01be
00000020: cd6b 0cbe c84f e33d f84e 663e 85c2 89bd
00000030: e062 84be f210 163e bc6d fbbd e358 7d3b
00000040: 79c6 69be 1eed 263e 0cd5 e4be 4ba3 aebe
00000050: 65e4 bbbe 3e36 e0be 602d 963e 5b0d 3b3e
00000060: 1a46 c93e 040b b8be 49c0 c9bd ff60 c8bd
00000070: 3524 4c3e 739a 03be a174 c23e 27c9 d53c
