cloud-detection-code/tests/test_artifacts/test_dice_loss/model_checkpoint_3.pt (torch, 439769 bytes, 347 tensors)

input_conv_block.0.weight f4 [3]
0	0x3f7fc5f3	0.9991142
1	0x3f801eeb	1.0009435
2	0x3f80183d	1.0007397

input_conv_block.0.bias f4 [3]
0	0xba8d4a3d	-0.0010779571
1	0x3a144aaa	0.0005656878
2	0xba354c7e	-0.0006916

input_conv_block.0.running_mean f4 [3]
0	0x3ebba942	0.3665257
1	0x3eb991f6	0.36244172
2	0x3e9d381d	0.30706874

input_conv_block.0.running_var f4 [3]
0	0x3e33da05	0.17563637
1	0x3e302bd1	0.17204215
2	0x3e2cf129	0.1688887

input_conv_block.2.weight f4 [2, 3, 1, 1]
0	0x3ecab2e1	0.395896
1	0xbf0c9f9f	-0.5493106
2	0xbea0ca7c	-0.31404483
3	0xbef7e3a3	-0.4841586
4	0x3e931e4e	0.28734058
5	0x3f0cc0eb	0.5498187

conv_block_1.0.weight f4 [2]
0	0x3f7f9c3c	0.9984777
1	0x3f8031df	1.001522

conv_block_1.0.bias f4 [2]
0	0x398af14d	0.00026501194
1	0xbaa01fe7	-0.0012216539

conv_block_1.0.running_mean f4 [2]
0	0xbe1db49f	-0.15400933
1	0x3de03bb2	0.10948886

conv_block_1.0.running_var f4 [2]
0	0x3e7bf9c5	0.24606998
1	0x3e6ca6a8	0.2311045

conv_block_1.2.weight f4 [2, 2, 3, 3]
0	0xbd339eee	-0.04385274
1	0x3e5aa4d2	0.21351936
2	0xbc7418c8	-0.014898486
3	0x3d6a4054	0.057190254
4	0xbe674310	-0.22584176
5	0xbe2caed7	-0.16863571
6	0x3e55a67b	0.20864289
7	0x3d7cf670	0.06175846
8	0xbd06c500	-0.032902718
9	0x3ccec76e	0.02524158
10	0x3df9009b	0.121583186
11	0x3e4560f4	0.19275266
12	0xbe4ec101	-0.20190813
13	0x3e37cdfa	0.17949668
14	0x3d05be12	0.03265197
15	0x3d149935	0.036278922
16	0x3e3faaef	0.1871755
17	0xbe5d983c	-0.21640104
18	0xbdb56dc1	-0.088588245
19	0x3df9f260	0.122044325
20	0x3d0254ce	0.031819157
21	0xbe242b47	-0.16032134
22	0xba09c82f	-0.0005255965
23	0xbdeaa8b2	-0.11457957
24	0x3d3e4cf6	0.046460114
25	0x3e632afc	0.22184366
26	0x3dd74aad	0.1051229
27	0xbcd0580a	-0.025432605
28	0x3cf3055c	0.029665641
29	0x3cd9d06b	0.02658864
30	0x3e026699	0.1273445
31	0xbd9ca07e	-0.07647799
32	0x3d91a8f0	0.071123004
33	0x3d9a1c69	0.0752495
34	0xbe4a2086	-0.19738969
35	0xbdc71eb4	-0.09722653

conv_block_1.2.bias f4 [2]
0	0xbe673fa9	-0.22582878
1	0x3e17a8af	0.14810441

conv_block_1.3.weight f4 [2]
0	0x3f802221	1.0010415
1	0x3f7fbbb3	0.9989578

conv_block_1.3.bias f4 [2]
0	0xba1351d0	-0.0005619796
1	0xbaa43fdb	-0.0012531237

conv_block_1.3.running_mean f4 [2]
0	0xbd93be7d	-0.07214067
1	0x3e20d2ae	0.15705368

conv_block_1.3.running_var f4 [2]
0	0x3e6c9232	0.23102644
1	0x3e2d9865	0.16952665

conv_block_1.5.weight f4 [2, 2, 3, 3]
0	0x3df0c099	0.11755485
1	0xbdf18442	-0.11792804
2	0x3de5fd12	0.1122991
3	0x3d906fed	0.07052598
4	0xbc454ae6	-0.012041783
5	0x3e690614	0.22756225
6	0x3e633249	0.22187151
7	0xbdc7b7df	-0.097518675
8	0xbe4498d6	-0.19198927
9	0xbd1d38ce	-0.03838425
10	0xbe283281	-0.16425516
11	0xbe5f8c6e	-0.21830913
12	0xbdb6ab27	-0.089193635
13	0x3e03ad15	0.12858994
14	0xbd3b195a	-0.045678474
15	0xbe2b52f7	-0.16730867
16	0xbcbec7c5	-0.023288617
17	0x3d9452ea	0.07242377
18	0x3d46b9bf	0.048516985
19	0xbe0a77e8	-0.13522303
20	0xbdda382a	-0.10655244
21	0xbe07f244	-0.13276011
22	0xbd2c7f1b	-0.042113405
23	0x3dce0b40	0.100607395
24	0xbd733bb5	-0.059383113
25	0xbde6d24c	-0.1127058
26	0xbe04b57b	-0.12959854
27	0xbdf7fd00	-0.12108803
28	0x3c5127e1	0.0127658555
29	0xbdd34c1a	-0.103172496
30	0x3dc6c9fa	0.09706493
31	0xbe21dbe8	-0.15806544
32	0x3ddba533	0.107248686
33	0x3e3a95b5	0.18221171
34	0xbe479d40	-0.1949358
35	0x3e66fc5e	0.22557208

conv_block_1.5.bias f4 [2]
0	0xbe554230	-0.2082603
1	0xbddcd464	-0.10782698

conv_block_2.0.weight f4 [2]
0	0x3f80353e	1.0016248
1	0x3f7f957b	0.99837464

conv_block_2.0.bias f4 [2]
0	0xb983aa49	-0.0002511314
1	0xbabda398	-0.001446831

conv_block_2.0.running_mean f4 [2]
0	0xbdfa687c	-0.1222696
1	0xbdec06f6	-0.11524765

conv_block_2.0.running_var f4 [2]
0	0x3e830dc8	0.25596452
1	0x3e8588a8	0.26080823

conv_block_2.2.weight f4 [4, 2, 3, 3]
0	0xbe29f245	-0.16596325
1	0xbdec4649	-0.11536843
2	0x3d9a72b7	0.07541411
3	0x3d971756	0.07377498
4	0x3dece5b2	0.115672484
5	0xbdb7a97f	-0.08967876
6	0x3e2f97a8	0.17147696
7	0xbe1a85dc	-0.15090126
8	0xbe2dba73	-0.16965656
9	0x3e3863ec	0.18006867
10	0xb8a28adb	-7.750626e-05
11	0xbe32437b	-0.17408554
12	0xbe3e2df0	-0.18572211
13	0xbdabafd0	-0.08383143
14	0xbe4b6d6f	-0.19865964
15	0xbcbd9415	-0.0231419
16	0x3e05aade	0.13053462
17	0xbde0dfdf	-0.109802
18	0xbc3f47d8	-0.011674844
19	0xbe01a261	-0.12659599
20	0xbe3cb326	-0.18427715
21	0xbdf5c377	-0.120001726
22	0x3dfee3b5	0.124457754
23	0x3ce76f7c	0.028251402
24	0xbd77bcd6	-0.060482822
25	0x3de16b74	0.11006823
26	0x3d7ce8cd	0.061745454
27	0x3c58b725	0.013227259
28	0xbc7ecb5f	-0.015551417
29	0xbd3325af	-0.04373711
30	0x3d8468dc	0.06465313
31	0xbe5dc1cd	-0.2165596
32	0x3dcce208	0.100040495
33	0x3e53d1a1	0.20685436
34	0x3e64438b	0.2229139
35	0xbdd1298e	-0.10213004
36	0x3e0d93b9	0.13825883
37	0xbe573f8d	-0.21020336
38	0xbe2de096	-0.16980204
39	0xbe4441cc	-0.19165725
40	0xbca3ed6b	-0.02001067
41	0x3cdc0996	0.02686004
42	0x3e0b4331	0.1359985
43	0x3e397393	0.18110494
44	0xbd019d86	-0.031644367
45	0x3c8dc600	0.017306328
46	0xbdbe7d61	-0.09301258
47	0x3e47cd6b	0.19511954
48	0x3dd977e9	0.10618574
49	0xbe2792ed	-0.16364641
50	0x3e41b6f3	0.18917446
51	0x3dac1236	0.08401911
52	0x3e0ade4f	0.13561366
53	0x3db02fcb	0.08602866
54	0x3e44ac83	0.19206433
55	0x3d9690b0	0.07351816
56	0x3da0cfbd	0.07852123
57	0x3d4a2f20	0.04936135
58	0x3e28fe40	0.16503239
59	0x3e51890a	0.20462433
60	0x3c079e88	0.008277543
61	0x3e1a2d66	0.1505638
62	0xbe08ef5f	-0.13372563
63	0x3da18098	0.078858554
64	0xbdc20387	-0.09473329
65	0x3d2e3058	0.042526573
66	0xbd6b9cff	-0.05752277
67	0x3de938c1	0.11387778
68	0xbe0c5e87	-0.13707934
69	0xbdff2e5e	-0.12460016
70	0xbe10b85b	-0.14132826
71	0x3e625db8	0.22106063

conv_block_2.2.bias f4 [4]
0	0x3d404e2a	0.046949543
1	0xbdc8d631	-0.09806479
2	0xbc08f8d9	-0.008360111
3	0x3d651878	0.05593154

conv_block_2.3.weight f4 [4]
0	0x3f7fd18f	0.99929136
1	0x3f7fc8c0	0.99915695
2	0x3f800285	1.0000769
3	0x3f801e06	1.0009162

conv_block_2.3.bias f4 [4]
0	0xba215eed	-0.00061558076
1	0xba6c7456	-0.0009020021
2	0xba07e68b	-0.0005184195
3	0xb78ea1c8	-1.7003054e-05

conv_block_2.3.running_mean f4 [4]
0	0xbe132ae5	-0.14371832
1	0xbda3bc5d	-0.07994912
2	0x3daa1d9f	0.08306431
3	0x3e814c7f	0.25253674

conv_block_2.3.running_var f4 [4]
0	0x3e404253	0.187753
1	0x3e424038	0.1896981
2	0x3e5642a8	0.20923865
3	0x3ef04575	0.46927992

conv_block_2.5.weight f4 [4, 4, 3, 3]
0	0x3bb94af5	0.0056546875
1	0x3e0897ff	0.13339232
2	0x3dd273db	0.10276004
3	0xbe119cd7	-0.14219986
4	0x3d9e4e1a	0.077297404
5	0x3d6b0c0d	0.05738454
6	0xbe15ad2c	-0.14616841
7	0xbd4e634a	-0.05038766
8	0xbd94e80e	-0.072708234
9	0x3baf8404	0.0053563137
10	0xbd9b242f	-0.07575261
11	0xbca801b8	-0.020508632
12	0xbd01d7d5	-0.031699974
13	0x3daa1ca5	0.08306245
14	0xba8a007b	-0.0010528708
15	0xbda65c05	-0.0812302
16	0xbd6f18b6	-0.058373176
17	0xbc791a16	-0.015203973
18	0xbdcff34a	-0.101538256
19	0xbdcf4504	-0.101205856
20	0xbc1fe399	-0.009758853
21	0xbe2b32cd	-0.16718598
22	0x3d4bcc86	0.049755596
23	0xbe151150	-0.14557385
24	0x3c6b1785	0.014348869
25	0x3e231043	0.15924172
26	0x3d077a2c	0.033075497
27	0xbd9f307a	-0.07772918
28	0xbdd3239c	-0.10309526
29	0x3d94d9b3	0.07268085
30	0x3e07decc	0.13268584
31	0x3dfa31f8	0.12216562
32	0x3dc4fa70	0.0961808
33	0xbd96836b	-0.07349285
34	0x3dd01f1c	0.10162184
35	0x3df0542a	0.11734803
36	0x3de588eb	0.11207756
37	0x3dd9a007	0.10626226
38	0xbdef7d9a	-0.116938785
39	0xbdd0325f	-0.101658575
40	0xbdd980b0	-0.10620248
41	0x3c76e2fe	0.015068768
42	0xbd261277	-0.040544953
43	0x3d9a4209	0.075321265
44	0x3d88e408	0.066841185
45	0xbda5f930	-0.08104169
46	0xbdfda2cb	-0.12384566
47	0xbcfe0222	-0.031006876
48	0xbd4ff970	-0.05077499
49	0x3bd57083	0.0065136566
50	0x3db662d5	0.089055695
51	0xbddc4264	-0.107548505
52	0x3e2956e4	0.16537052
53	0x3e04181a	0.12899819
54	0xbda9edf3	-0.08297338
55	0xbd2537e6	-0.040336512
56	0x3d774ec6	0.06037786
57	0x3d87d8fc	0.06633183
58	0xbd812feb	-0.06307968
59	0xbb8cc841	-0.004296333
60	0x3d3013f7	0.04298779
61	0xbe2a27a2	-0.16616681
62	0x3d073068	0.03300515
63	0xbdd84331	-0.10559691
64	0x3d1fe250	0.039034188
65	0xbe227003	-0.15863042
66	0x3e2987fc	0.1655578
67	0xbe29f28a	-0.16596428
68	0xbd838110	-0.06421101
69	0x3dcb2c2d	0.09920535
70	0x3e015597	0.12630306
71	0x3d28c7a4	0.041206017
72	0xbe279bfb	-0.16368096
73	0x3dff4f41	0.12466288
74	0xbd7981c2	-0.060914762
75	0xbd34ee72	-0.04417271
76	0xbdad93bc	-0.08475444
77	0x3c8dcf7c	0.01731085
78	0x3dc81f20	0.097715616
79	0x3e00d37f	0.1258068
80	0x3da98ecf	0.08279192
81	0x3e24475f	0.16042851
82	0xbbf4742f	-0.007460139
83	0x3daa05b3	0.08301868
84	0x3c44595f	0.011984198
85	0xbe227973	-0.15866642
86	0x3d4d5bff	0.050136562
87	0x3ddfd61b	0.10929509
88	0x3dc8de86	0.09808068
89	0xbca59505	-0.02021266
90	0x3e1814a1	0.1485162
91	0x3d0a5856	0.03377565
92	0x3e26068b	0.16213433
93	0x3d69e57f	0.05710363
94	0xbe0a5a8c	-0.13511103
95	0x3d1011c1	0.03517318
96	0xbca2eccf	-0.01988831
97	0x3dfe601b	0.124206744
98	0x3dcf2b9f	0.10115742
99	0xbdddfc05	-0.108390845
100	0x3cfa79e5	0.030575702
101	0x3d926982	0.0714903
102	0x3dabb6c3	0.083844684
103	0xbd8385d9	-0.06422014
104	0x3dbc93ee	0.09207903
105	0x3c1d0116	0.009582778
106	0x3d811361	0.06302524
107	0x3b8e542c	0.00434353
108	0xbe0ca916	-0.13736376
109	0xbe20f5f1	-0.15718819
110	0xbdc2d460	-0.095131636
111	0x3d613ab7	0.054987635
112	0xbe0eac07	-0.1393281
113	0xbd144097	-0.03619441
114	0xbe1d8ca1	-0.15385677
115	0xbcdbfa42	-0.02685273
116	0xbdf52865	-0.11970595
117	0x3c9458fa	0.018108834
118	0xbe262e4d	-0.162286
119	0x3dc912d5	0.09818045
120	0x3d76de2d	0.060270477
121	0x3ceefe70	0.02917406
122	0xbd1c5b41	-0.038172964
123	0xbdddbf91	-0.10827554
124	0x3e2939d6	0.16525969
125	0xbe07ee98	-0.1327461
126	0xbd413314	-0.047167853
127	0x3d9b7bf4	0.075920016
128	0xbcb7975d	-0.022411043
129	0xbd1dcef0	-0.03852743
130	0x3de2d2f3	0.110753916
131	0xbdf19291	-0.117955334
132	0x3db03104	0.08603099
133	0x3e1345e0	0.14382124
134	0x3d524a06	0.051340126
135	0xbceb2846	-0.028705727
136	0x3e28d772	0.16488436
137	0x3df1168c	0.117718786
138	0xbe0c38b4	-0.13693506
139	0xbcb55d5a	-0.02213924
140	0xbe0a563a	-0.13509455
141	0xbe257440	-0.16157627
142	0xbdeedb3b	-0.11662909
143	0xbe203337	-0.15644537

conv_block_2.5.bias f4 [4]
0	0x3e1fdf78	0.1561259
1	0x3d8fc8f7	0.07020753
2	0xbdd29176	-0.10281651
3	0xbd7c8f10	-0.061659873

conv_block_3.0.weight f4 [4]
0	0x3f7fe954	0.99965405
1	0x3f800ff4	1.0004869
2	0x3f7fefd8	0.9997535
3	0x3f800427	1.0001267

conv_block_3.0.bias f4 [4]
0	0x38288f79	4.018794e-05
1	0xba73f947	-0.00093068596
2	0xb8ffbfc1	-0.000121950645
3	0xb75acbec	-1.3041292e-05

conv_block_3.0.running_mean f4 [4]
0	0x3e5913fb	0.21199028
1	0x3de4dd06	0.111749694
2	0x3ea9d871	0.33172944
3	0xbe71fc95	-0.23631509

conv_block_3.0.running_var f4 [4]
0	0x3e8e7f93	0.27831706
1	0x3e286cb2	0.16447714
2	0x3e5dc5fb	0.21657555
3	0x3e85bb26	0.26119345

conv_block_3.2.weight f4 [8, 4, 3, 3]
0	0xbe008329	-0.12550034
1	0x3d4742ae	0.048647575
2	0xbded957f	-0.1160078
3	0xbcef8274	-0.02923701
4	0xbd7b6df1	-0.061384145
5	0xbe16998f	-0.14707015
6	0xbdd64abc	-0.10463473
7	0x3d99ff44	0.07519391
8	0xbe0844b5	-0.1330746
9	0x3dceb1aa	0.100924805
10	0x3e18055b	0.14845793
11	0x3d9f8963	0.07789876
12	0xbe0e80ce	-0.13916323
13	0xbc259dde	-0.010108439
14	0xbdca0c3b	-0.09865614
15	0x3e257267	0.16156922
16	0xbe1dcdf4	-0.15410596
17	0xbe018494	-0.12648231
18	0xbe0e97e3	-0.13925128
19	0xbc85ebb1	-0.016347738
20	0x3d1483f1	0.03625864
21	0xbe14d874	-0.14535695
22	0xbe0ae085	-0.1356221
23	0xbd568399	-0.052371595
24	0xbe228152	-0.15869644
25	0x3db06c1b	0.086143695
26	0x3b6806a3	0.0035404346
27	0x3db81d32	0.089899436
28	0x3c585c00	0.013205528
29	0x3d8dc472	0.069222346
30	0x3bc97dab	0.006149014
31	0xbc1d7678	-0.009610765
32	0x3d28bdb0	0.041196525
33	0x3e0ca59e	0.13735053
34	0x3d87bc9a	0.0662777
35	0x3e293e38	0.16527641
36	0x3b0ea13a	0.002176358
37	0x3dbe452a	0.09290536
38	0xbd59d8bd	-0.053185213
39	0x3df5409c	0.11975214
40	0xbe1862cb	-0.14881437
41	0xbdd7abce	-0.10530816
42	0xbc0914ea	-0.008366803
43	0xbdf8afaf	-0.12142884
44	0x3d696222	0.056978352
45	0xbe1cb23b	-0.15302365
46	0x3dde8788	0.10865694
47	0x3e0cafb6	0.13738903
48	0xbdac7fd6	-0.0842282
49	0xbdbbc466	-0.091683194
50	0x3dc464e9	0.095895596
51	0x3e13ad3d	0.14421554
52	0x3d886752	0.06660332
53	0xbdf9328a	-0.12167843
54	0x3dc7d508	0.09757429
55	0xb9e53d07	-0.00043723753
56	0x3e2a38b7	0.16623197
57	0x3e0608a4	0.13089234
58	0x3c870fbe	0.016486999
59	0x3d3eeb8d	0.046611357
60	0xbd9ca58b	-0.07648762
61	0x3dc2b6d7	0.0950753
62	0xbd96a183	-0.07355025
63	0x3e0d6924	0.13809639
64	0x3d668b72	0.05628533
65	0x3cd36d36	0.025808912
66	0x3d61ca3d	0.05512451
67	0x3d1f029a	0.03882084
68	0x3d63debc	0.055632338
69	0xbde7d0d0	-0.11319125
70	0x3de22797	0.110427074
71	0xbd34c644	-0.044134393
72	0x3d8ba86c	0.06819233
73	0xbda8cd99	-0.0824234
74	0x3dd5cef1	0.104398616
75	0xbdb41c5d	-0.08794472
76	0xbe0ecf99	-0.1394638
77	0x3dcc5a98	0.09978217
78	0x3cfd6089	0.03092982
79	0x3bc0ccf9	0.0058838096
80	0xbd95177e	-0.072798714
81	0xbd444c83	-0.04792453
82	0xbdd7ed91	-0.10543359
83	0x3e273689	0.16329397
84	0xbdfb59bf	-0.12272977
85	0x3dca9def	0.09893405
86	0x3d3ef3c0	0.046619177
87	0x3e1393d5	0.14411862
88	0x3dd0111f	0.101595156
89	0xbe0e385c	-0.13888687
90	0xbd91dfd7	-0.07122772
91	0xbbfc7005	-0.0077037835
92	0xbdd19188	-0.10232836
93	0x3dca52fd	0.0987911
94	0xbdf06a4d	-0.11739025
95	0x3c08d49d	0.008351472
96	0xbb0e16f6	-0.0021681166
97	0x3db49831	0.08818091
98	0xbd696c8b	-0.05698828
99	0x3deed9d7	0.116626434
100	0x3dd1392d	0.102159835
101	0xbdd7285b	-0.10505744
102	0xbd38600e	-0.04501348
103	0xbddd40c1	-0.108033665
104	0xbd8114ae	-0.063027725
105	0x3d6d29e9	0.057901297
106	0xbd560499	-0.05225048
107	0xbd1e52f6	-0.038653336
108	0xbd4d3f4d	-0.050109196
109	0x3dd96069	0.10614092
110	0xbdce0967	-0.10060387
111	0xbe18f6b2	-0.14937857
112	0xbce33cf7	-0.027739031
113	0xbde2112b	-0.11038431
114	0x3e298410	0.16554284
115	0x3d786e0d	0.060651828
116	0xbdd7d0dd	-0.105378844
117	0x3d786fe4	0.060653582
118	0x3d823f36	0.06359713
119	0xbced2bca	-0.028951544
120	0x3c8f6496	0.017504018
121	0xbd929e73	-0.07159128
122	0x3d666f30	0.05625838
123	0x3d9a56b7	0.07536071
124	0xbe16a681	-0.14711954
125	0xbe13ebc9	-0.14445414
126	0x3d4dfd80	0.050290585
127	0x3d1f4c7e	0.038891308
128	0x3d96f54b	0.07371005
129	0xbdd851eb	-0.105624996
130	0x3dd78afd	0.10524557
131	0x3e2a2fa7	0.1661974
132	0xbd82f1b6	-0.06393759
133	0xbdbd88e5	-0.09254626
134	0x3d9b82f5	0.075933374
135	0xbe0fd434	-0.14045793
136	0x3d0bd5e7	0.03413954
137	0xbd3c3fb3	-0.045959186
138	0x3d4eedfd	0.050519932
139	0x3dc93465	0.098244466
140	0x3da8db3b	0.0824494
141	0x3dda286f	0.10652243
142	0xbd0a66dd	-0.033789504
143	0xbdb8dcf8	-0.090265214
144	0xbe2b06c1	-0.16701795
145	0xbd4b905d	-0.049698222
146	0x3c544284	0.012955312
147	0xbdb70d12	-0.0893804
148	0x3e072bf0	0.13200355
149	0x3ccba042	0.02485669
150	0x3da15f3c	0.07879493
151	0xbdead0a9	-0.1146558
152	0x3e01b9db	0.12668554
153	0x3e00df57	0.12585197
154	0xbb35ce69	-0.0027741438
155	0x3d362c02	0.044475563
156	0xbd8324e4	-0.06403521
157	0xbdb8cf85	-0.09023956
158	0x3dfd3fe4	0.12365702
159	0x3e08d1af	0.13361238
160	0xbb186f57	-0.0023259723
161	0x3b44bcfc	0.003001987
162	0xbcb3c46c	-0.021944247
163	0xbd22376c	-0.039603636
164	0xbdd15851	-0.10221923
165	0xbc8504be	-0.016237613
166	0x3d70c4ce	0.058781438
167	0x3da1f4f8	0.07908052
168	0x3d87118b	0.06595143
169	0xbd5af8f7	-0.053460088
170	0xbd87cd0b	-0.06630906
171	0xbd8f0886	-0.069840476
172	0x3e1bd6b7	0.15218626
173	0x3d6f50f2	0.058426805
174	0x3e12efea	0.14349332
175	0x3dcb6551	0.09931434
176	0xbda57f47	-0.08080917
177	0x3e199da0	0.15001535
178	0x3b284887	0.0025677995
179	0x3d179807	0.03701022
180	0x3ddb2bce	0.107017145
181	0x3e1deac2	0.15421584
182	0x3e05ab26	0.13053569
183	0xbe150ebf	-0.14556406
184	0xbc75ab46	-0.014994448
185	0x3d8179b5	0.06322042
186	0xbd5357ba	-0.051597334
187	0x3e11bb43	0.14231591
188	0x3e09fa5d	0.13474412
189	0x3d923021	0.07138086
190	0x3d9fd265	0.078038014
191	0x3d97e1ca	0.07416113
192	0x3cc7a28e	0.024369504
193	0x3daa50e7	0.08316212
194	0xbccd65be	-0.025072929
195	0xbdee01a6	-0.11621408
196	0xbc8c27f6	-0.017108899
197	0xbdcef666	-0.101055905
198	0x3dcf28e4	0.10115221
199	0xbe17307e	-0.14764592
200	0xbd443793	-0.047904562
201	0x3d83b982	0.06431867
202	0xbdf784f3	-0.12085905
203	0xbb84765b	-0.0040424294
204	0x3dccaff7	0.099945
205	0x3dca694c	0.09883365
206	0xbe0fb1b2	-0.14032629
207	0xbd267680	-0.040640354
208	0xbd02aba4	-0.03190197
209	0x3dae2529	0.085031815
210	0xbcb6ac97	-0.022299094
211	0xbccfd7b0	-0.025371403
212	0x3b579b8b	0.0032899107
213	0x3bf9415a	0.0076066675
214	0xbdb5a575	-0.08869449
215	0x3dadd000	0.084869385
216	0xbc353620	-0.011060268
217	0x3d9b652b	0.07587656
218	0xbdd314f4	-0.10306731
219	0x3daba3ec	0.08380875
220	0xbd7660c5	-0.06015088
221	0xbe017766	-0.12643203
222	0x3e06f61d	0.13179822
223	0x3d0af746	0.033927225
224	0x3e260390	0.16212296
225	0x3ca7da89	0.020489948
226	0xbb11f497	-0.002227103
227	0x3cbee306	0.023301613
228	0x3de82db6	0.11336844
229	0x3931ae8b	0.00016945058
230	0xbe26884a	-0.16262928
231	0x3d024366	0.031802557
232	0xbd8a5093	-0.067536496
233	0x3dbe9771	0.09306229
234	0x3e2737f0	0.16329932
235	0xbdf16d63	-0.11788442
236	0x3d0e2e1c	0.034711942
237	0x3e12fc44	0.14354044
238	0xbe2aaa92	-0.1666663
239	0x3e1daeee	0.15398762
240	0x3e0d58e4	0.1380344
241	0x3dbaea75	0.091267504
242	0xbda64c8c	-0.08120069
243	0x3d6270d7	0.055283394
244	0xbe09f4f3	-0.13472347
245	0xbe299d53	-0.1656392
246	0x3e1f0384	0.15528685
247	0x3e1ff3d7	0.15620361
248	0x3e1f6715	0.15566666
249	0x3e165cfb	0.14683907
250	0x3da2193a	0.07914968
251	0xbe17e4c1	-0.14833356
252	0x3da9694c	0.08272037
253	0x3e186197	0.14880978
254	0xbe27721a	-0.1635212
255	0xbd635c5f	-0.055508014

conv_block_3.2.bias f4 [8]
0	0x3e178d26	0.14799938
1	0x3dbcab1b	0.09212323
2	0x3deaa6eb	0.11457618
3	0x3d8f1529	0.06986458
4	0xbe0e4e32	-0.13897017
5	0xbe29f065	-0.1659561
6	0xbdeffc98	-0.117181
7	0x3e20a35d	0.15687318

conv_block_3.3.weight f4 [8]
0	0x3f7ff4e3	0.9998304
1	0x3f7ff821	0.9998799
2	0x3f800e72	1.0004408
3	0x3f7feb23	0.99968165
4	0x3f7fca0a	0.9991766
5	0x3f7fe7f6	0.9996332
6	0x3f801504	1.0006413
7	0x3f7ff5c4	0.99984384

conv_block_3.3.bias f4 [8]
0	0x39a8c6ff	0.0003219172
1	0xb792de2e	-1.7508017e-05
2	0x39525790	0.0002005978
3	0xb9cb622c	-0.0003879232
4	0xb9b45133	-0.00034392774
5	0x382598ba	3.9481303e-05
6	0x39cc89b8	0.0003901252
7	0x38ed881e	0.000113263945

conv_block_3.3.running_mean f4 [8]
0	0xbd0551f8	-0.032548875
1	0x3e910150	0.28321314
2	0x3ca1f679	0.019770848
3	0x3d857763	0.06516912
4	0x3d834c85	0.06411079
5	0xbc80082a	-0.015628893
6	0x3e2b5f0e	0.16735479
7	0x3d6b2610	0.057409346

conv_block_3.3.running_var f4 [8]
0	0x3f0c6172	0.5483619
1	0x3e892693	0.26787242
2	0x3e555c20	0.20835924
3	0x3e59fd00	0.21287918
4	0x3e56245e	0.2091231
5	0x3e9bd34d	0.30434647
6	0x3e9ba3d6	0.30398434
7	0x3ea60ae5	0.32430187

conv_block_3.5.weight f4 [8, 8, 3, 3]
0	0x3d885294	0.066563755
1	0x3db7cfca	0.089751795
2	0xbdd0949c	-0.10184595
3	0x3de84333	0.11340942
4	0xbd8626b9	-0.065503545
5	0xbd57bcda	-0.052670337
6	0x3c77fdde	0.01513621
7	0x3de70f1b	0.11282178
8	0x3d3a51b6	0.045488082
9	0xbd800e68	-0.06252748
10	0x3d8c6852	0.06855835
11	0x3d8eae1a	0.06966801
12	0xbd4efce4	-0.050534144
13	0x3d81338a	0.063086584
14	0x3dba0cd0	0.09084475
15	0x3d6d7086	0.05796864
16	0x3cb0c633	0.021578884
17	0xbd72fe47	-0.05932453
18	0xbd44f94a	-0.048089303
19	0xbd8e9f54	-0.06963983
20	0x3bde99fb	0.0067932582
21	0xbd1b01d8	-0.037843555
22	0x3dedf19d	0.1161835
23	0x3c45f41e	0.012082128
24	0x3db64be5	0.089011945
25	0x3dde699b	0.108599864
26	0xbcac5edd	-0.021041328
27	0xbde2da39	-0.11076779
28	0x3d95ffc4	0.07324174
29	0xbd900275	-0.07031719
30	0x3dc3c310	0.095586896
31	0xbde5e9cc	-0.11226234
32	0xbd742434	-0.05960484
33	0xbd213e16	-0.03936585
34	0x3dad743b	0.08469435
35	0x3d9393fe	0.07205962
36	0xbc8a2170	-0.016861647
37	0xbd7c99d7	-0.06167015
38	0xbd561221	-0.052263383
39	0xbd86fd9a	-0.065913394
40	0xbd7465f7	-0.059667554
41	0x3c980f31	0.018561931
42	0x3d289b87	0.041163947
43	0x3d4bee8c	0.049788043
44	0xbc04046b	-0.008057694
45	0x3cf58f88	0.029975668
46	0x3c4ef418	0.012631439
47	0xbd5acd9a	-0.053418733
48	0x3c16f5bb	0.00921386
49	0xbd89f04b	-0.06735285
50	0xbdd571b5	-0.104220785
51	0x3de40b57	0.111349754
52	0x3d7f7368	0.06236592
53	0xbda609b4	-0.081073195
54	0x3c8d271b	0.017230561
55	0x3da24195	0.07922665
56	0x3d3ec4e0	0.046574473
57	0xbd9e15ea	-0.077190235
58	0xbcbef145	-0.023308406
59	0xbda3cb2e	-0.07997738
60	0xbde0c58f	-0.10975181
61	0xbd1c0ce5	-0.038098235
62	0xbdde9d19	-0.10869808
63	0x3db594d7	0.088662796
64	0xbd491866	-0.049095534
65	0xbdd9cf84	-0.106352836
66	0x3dee0e08	0.1162377
67	0xbb0f9c0a	-0.0021913075
68	0xbdb8c853	-0.09022584
69	0x3deee680	0.11665058
70	0x3d12456a	0.03571073
71	0x3d96fb88	0.073721945
72	0x3db1bbdc	0.086784095
73	0x3d9040b9	0.07043595
74	0xbde7800f	-0.11303722
75	0xbd719d3c	-0.05898784
76	0xbdaa1da2	-0.08306433
77	0xbcb48475	-0.022035817
78	0x3db34c18	0.08754748
79	0xbd71c909	-0.059029613
80	0xbd2572b9	-0.04039261
81	0xbc7ede61	-0.015555949
82	0xbdaa4bfa	-0.08315273
83	0xbdd38902	-0.103288665
84	0xbc842227	-0.016129566
85	0xbd5c95c6	-0.053853773
86	0x3d8e653a	0.06952901
87	0x3c59390f	0.013258233
88	0x3a1f9603	0.0006087722
89	0xbd5c2be1	-0.053752784
90	0xbdb54505	-0.08851055
91	0xbd3260b2	-0.043549247
92	0xbdb743c4	-0.08948472
93	0x3d80579a	0.06266709
94	0xbaee8620	-0.0018197931
95	0xbcbd3e1a	-0.023100901
96	0xbd916ed6	-0.071012184
97	0xbd5fbc77	-0.054623093
98	0x3dbdf069	0.0927437
99	0xbcdf06a4	-0.027224846
100	0xbdc89e0d	-0.09795771
101	0xbde49fdc	-0.11163303
102	0x3dd33032	0.10311927
103	0xbd5ffd8d	-0.054685164
104	0xbc15a144	-0.009132687
105	0x3defd3f9	0.117103525
106	0xbd305545	-0.04305007
107	0xbda7f237	-0.08200496
108	0x3d626ca6	0.055279396
109	0xbda9ee38	-0.0829739
110	0x3cf34566	0.029696178
111	0xbdaa9a66	-0.083302304
112	0x3dc3c9b6	0.09559958
113	0x3dd876bf	0.10569524
114	0xbd00e533	-0.03146858
115	0xbd2a0074	-0.04150434
116	0x3ce8aa58	0.028401539
117	0x3d71efc5	0.059066553
118	0x3db229ae	0.08699356
119	0x3da3982f	0.07988011
120	0xbd347013	-0.044052195
121	0xbc8bd69a	-0.017070103
122	0x3dc44e64	0.09585264
123	0x3d39e565	0.045384783
124	0xbd4b3ec7	-0.049620416
125	0xbd82cbd3	-0.06386533
126	0xbced319e	-0.028954323
127	0x3ceda39e	0.029008683
128	0x3d800dbe	0.06252621
129	0xbcc724cd	-0.02430954
130	0x3d5987ad	0.053107906
131	0x3b3042e0	0.002689533
132	0xbcddb8a3	-0.02706558
133	0xbdc9f9d3	-0.09862103
134	0xbd0d88ff	-0.034554478
135	0xbd7ff027	-0.062484886
136	0xbde42b75	-0.11141101
137	0x3d819f5f	0.06329226
138	0xbc778285	-0.015106802
139	0xbd5df077	-0.054184403
140	0xbd7578fb	-0.05992983
141	0xbd92605e	-0.07147287
142	0xbd498ac5	-0.049204607
143	0x3d642563	0.055699717
144	0xbc74fe45	-0.014953201
145	0xbc8ce407	-0.017198576
146	0x3ddfe162	0.1093166
147	0xbd9c1f47	-0.07623153
148	0xbdec6ce5	-0.115442075
149	0xbd573935	-0.05254479
150	0x3d972ceb	0.07381614
151	0x3dba5f7a	0.09100242
152	0x3c62981d	0.013830212
153	0xbdb85f0b	-0.09002503
154	0xbde23c50	-0.1104666
155	0xbd198951	-0.03748447
156	0xbb2b30d0	-0.0026121624
157	0xbc8fa596	-0.017535012
158	0xbdca2990	-0.09871209
159	0xbd507f1a	-0.050902463
160	0x3d89e3d7	0.0673291
161	0xbdc00664	-0.09376219
162	0xbc2c1a6d	-0.010504347
163	0x3dd89247	0.10574775
164	0xbcb97d59	-0.022642778
165	0x3d7f7cd6	0.062374912
166	0x3d0c4fc5	0.03425576
167	0x3c0611f5	0.008182992
168	0xbd9d16f3	-0.07670393
169	0xbdd1627f	-0.10223865
170	0x3dde19d8	0.10844773
171	0x3af21479	0.0018469236
172	0xbd952f3a	-0.072843984
173	0xbdd50c85	-0.104027785
174	0xbc57c48d	-0.01316942
175	0xbdf125fc	-0.11774823
176	0xbdbd626c	-0.09247288
177	0x3d3fa47c	0.046787724
178	0xbddae7de	-0.106887564
179	0x3ce064b3	0.027391767
180	0xbc66f963	-0.014097544
181	0x3d559483	0.052143585
182	0x3d84d222	0.06485392
183	0x3d065c92	0.032803126
184	0x3d508de3	0.050916564
185	0xbd88a1ee	-0.06671511
186	0x3ce3438b	0.027742168
187	0xbc504d3e	-0.0127137285
188	0x3d42c0bf	0.0475471
189	0x3cf0db01	0.029401304
190	0xbdddca11	-0.10829557
191	0xbd977f01	-0.07397271
192	0xba71ea9f	-0.00092283817
193	0x3c7a6cfa	0.015284771
194	0xbcb597a9	-0.022167044
195	0xbd7bf992	-0.061517306
196	0xbd7ee7f5	-0.06223293
197	0xbd873fd2	-0.0660397
198	0x3cedd22f	0.029030887
199	0x3d487ee0	0.048949122
200	0x3dc60d39	0.09670491
201	0x3cb57392	0.022149835
202	0xbda02038	-0.07818645
203	0x3ccdcced	0.02512213
204	0xbd512933	-0.05106468
205	0xbdcd14cf	-0.100137345
206	0xbc48c3ad	-0.012253684
207	0x3cfd398f	0.030911235
208	0x3cd6f8d0	0.02624169
209	0x3d3f3476	0.04668089
210	0x3c48dc2d	0.012259525
211	0x3dd8439f	0.10559773
212	0xbdde5b39	-0.10857243
213	0xbd9ba83b	-0.07600447
214	0xbc12a342	-0.0089500565
215	0xbcba759a	-0.022761155
216	0x3d35b65a	0.044363357
217	0x3d9582a4	0.07300308
218	0xbd46c741	-0.048529867
219	0x3c856fae	0.016288605
220	0x3d3d5bd7	0.046230163
221	0x3c481ad3	0.012213427
222	0xbd2809d4	-0.041024998
223	0x3acc26aa	0.0015575488
224	0x3dac285e	0.08406137
225	0xbdeb670d	-0.11494265
226	0x3daf63a1	0.085639246
227	0xbddfe8e8	-0.10933095
228	0x3de1f6cd	0.11033402
229	0x3de63abc	0.112416714
230	0xbd0bbf5b	-0.034118038
231	0x3de35f9a	0.11102219
232	0x3d64553b	0.055745345
233	0xbd4a9d8a	-0.049466647
234	0x3dbaa8bd	0.091142155
235	0x3d2b137e	0.041766636
236	0xbd754cf8	-0.059887856
237	0xbd6d98d7	-0.058007088
238	0xbc7ea44f	-0.015542104
239	0xbb1d28b4	-0.002398056
240	0x3d8e70c1	0.069551
241	0x3c468934	0.012117673
242	0x3cb1b9ad	0.021694982
243	0xbd454abd	-0.04816698
244	0x3d293213	0.04130752
245	0x3cc2f9a7	0.023800684
246	0xbc269e80	-0.010169625
247	0x3d6f5839	0.058433745
248	0xbdd4033b	-0.10352179
249	0x3b8d8e6e	0.0043199575
250	0xbd273e01	-0.040830616
251	0x3dd95e28	0.10613662
252	0xbd6afdd3	-0.057370972
253	0x3d44b9cc	0.048028752
254	0x3d8d14ab	0.06888708
255	0x3caa8721	0.020816388

conv_block_3.5.bias f4 [8]
0	0x3cfc03e8	0.030763581
1	0xbd425377	-0.04744288
2	0x3ca759f6	0.020428639
3	0xbd787fbd	-0.060668696
4	0xbbc98e73	-0.0061510145
5	0xbdd6a672	-0.10480966
6	0x3b7c97d4	0.0038542645
7	0xbd5bb1ca	-0.05363635

conv_block_4.0.weight f4 [8]
0	0x3f7ff88c	0.9998863
1	0x3f7fde1b	0.9994828
2	0x3f7ff557	0.99983734
3	0x3f800fe5	1.0004851
4	0x3f7fbc51	0.99896723
5	0x3f801032	1.0004942
6	0x3f801bae	1.0008447
7	0x3f7fd442	0.99933255

conv_block_4.0.bias f4 [8]
0	0xba0479b6	-0.0005053537
1	0xb8df7d4c	-0.00010656807
2	0xb90f67a3	-0.0001367615
3	0xba5ab4e7	-0.00083429966
4	0xb98a2ec2	-0.00026356248
5	0x3988a8f1	0.00026065813
6	0x3927fa80	0.0001601968
7	0xb8b23d6c	-8.499142e-05

conv_block_4.0.running_mean f4 [8]
0	0x3e524ff6	0.20538315
1	0xbe0e2c11	-0.13883997
2	0xbddb9ac6	-0.1072288
3	0x3ec7dc90	0.39035463
4	0x3e119951	0.14218642
5	0x3e63f87c	0.22262758
6	0x3e626c87	0.22111712
7	0xbe0b5505	-0.13606651

conv_block_4.0.running_var f4 [8]
0	0x3e370bf3	0.17875652
1	0x3e514270	0.204355
2	0x3e697598	0.22798765
3	0x3e922368	0.28542638
4	0x3e4e5b8b	0.20152108
5	0x3e565345	0.20930202
6	0x3e59678f	0.2123091
7	0x3e4d71a0	0.20062876

conv_block_4.2.weight f4 [16, 8, 3, 3]
0	0x3d5a0ab2	0.053232856
1	0xbcc39f02	-0.023879532
2	0xbde8488d	-0.11341963
3	0x3cd956c1	0.026530625
4	0xbb83f862	-0.0040274123
5	0x3c8f8cc1	0.017523171
6	0x3da18fb0	0.07888734
7	0x3c850205	0.016236315
8	0xbd8e19b0	-0.06938493
9	0xbd8a6495	-0.06757466
10	0xbdd97404	-0.10617831
11	0x3d16408f	0.03668266
12	0x3d61725d	0.055040706
13	0xbd97e181	-0.07416058
14	0xbd84be9e	-0.0648167
15	0xbdc38c9b	-0.09548303
16	0xbcea53c9	-0.028604405
17	0xbb4684d7	-0.003029158
18	0x3d584f2f	0.05280989
19	0xbbfc2a9d	-0.0076955096
20	0x3d323e77	0.043516602
21	0x3c03d689	0.008046755
22	0xbd953844	-0.072861224
23	0xbc77b9ca	-0.015119979
24	0xbd5fb4e7	-0.05461588
25	0x3d4b5dbc	0.04964994
26	0x3d8b1818	0.06791705
27	0xbdd82604	-0.10554126
28	0xbba71759	-0.005099219
29	0xbd9bae92	-0.07601656
30	0x3c5a968b	0.013341556
31	0x3d4fcdad	0.050733257
32	0xbc8f7744	-0.017512925
33	0xbd653fa8	-0.05596891
34	0xbd06d196	-0.03291472
35	0x3d0f6f20	0.035018086
36	0x3de052a7	0.10953265
37	0xbd8ecfab	-0.06973203
38	0xbd810bba	-0.06301065
39	0x3dde755f	0.108622305
40	0x3db2702b	0.087128006
41	0xbcc772d2	-0.024346743
42	0x3de7f51e	0.11326049
43	0xbc6ba6aa	-0.0143829975
44	0x3dbcdf6a	0.092223
45	0x3da37074	0.07980433
46	0xbd0bbb52	-0.03411419
47	0x3deee141	0.116640575
48	0x3d7a36b3	0.06108732
49	0xbc93a444	-0.018022664
50	0xbcfec438	-0.031099424
51	0xbc96a54f	-0.018389372
52	0xbc41b9f6	-0.011824122
53	0xbd9e7c8a	-0.07738598
54	0x3d23f7ab	0.040031116
55	0xbd7ff286	-0.062487148
56	0x3d201a54	0.03908761
57	0x3b95771d	0.0045613186
58	0xbd2832fb	-0.041064244
59	0x3dbacd1d	0.091211535
60	0x3da49c00	0.08037567
61	0xbcf10cb2	-0.029424999
62	0x3d17de8d	0.037077475
63	0xbd5c756e	-0.053822927
64	0x3d13d59e	0.036092393
65	0xbd388405	-0.04504778
66	0x3d9d787a	0.07688995
67	0x3ce6157b	0.028086415
68	0x3d9957fc	0.07487485
69	0x3da160d8	0.078797996
70	0x3dd0f732	0.10203399
71	0x3d54dede	0.051970355
72	0xbdd52985	-0.1040831
73	0x3d52f0d6	0.05149921
74	0x3da63683	0.08115866
75	0x3dae36f9	0.08506579
76	0xbd17dd14	-0.03707607
77	0xbdb0e627	-0.08637648
78	0x3d2223a7	0.039584782
79	0x3d9fabc6	0.07796435
80	0xbd36a860	-0.04459417
81	0x3de65caa	0.11248143
82	0xbdd7ab7f	-0.10530757
83	0x3ddac396	0.10681836
84	0xbcf5b779	-0.029994713
85	0x3c32dcf3	0.010916936
86	0xbd53d8cf	-0.051720437
87	0x3d27c210	0.040956557
88	0xbd29497d	-0.04132985
89	0xbd610cf9	-0.054944012
90	0x3dae2247	0.08502632
91	0x3dcffa73	0.10155191
92	0xbde34913	-0.11097922
93	0xbd5179bc	-0.051141486
94	0xbc22917f	-0.009922384
95	0x3a81cb6b	0.0009902542
96	0x3c38ac0c	0.011271488
97	0x3d449c9f	0.048000928
98	0x3d07c9e9	0.03315154
99	0xbdede058	-0.11615056
100	0x3d78cd04	0.060742393
101	0xbce41100	-0.027840137
102	0x3dc8839d	0.09790728
103	0x3db587c5	0.088637866
104	0xbdc08da5	-0.094020166
105	0xbd96ccd7	-0.07363289
106	0xbd8e7093	-0.069550656
107	0x3d075f15	0.03304966
108	0xbd49d50c	-0.049275443
109	0x3d8bab33	0.06819763
110	0x3cbe2e22	0.023215357
111	0x3d22a014	0.039703444
112	0x3dee7afa	0.1164455
113	0xbce244c6	-0.027620684
114	0x3d1e4a05	0.03864481
115	0x3d6a5bc8	0.057216436
116	0xbdebc573	-0.1151227
117	0xbda11ac3	-0.078664325
118	0x3da9eb46	0.08296828
119	0xbdf0cb8c	-0.117575735
120	0xbd42ee82	-0.04759074
121	0x3d84c9f2	0.064838305
122	0xbdd57cff	-0.10424232
123	0xbdb39fef	-0.08770739
124	0x3cfa5e12	0.030562434
125	0xbdca50a7	-0.098786645
126	0x3d4619d8	0.04836449
127	0xbd13a8f1	-0.036049787
128	0xbdb8be47	-0.090206675
129	0xbd0d73c1	-0.03453422
130	0xbd9786e5	-0.07398776
131	0xbcfeb4ac	-0.03109201
132	0xbda39612	-0.07987608
133	0x3de2414d	0.110476114
134	0xbdef3a77	-0.11681073
135	0xbd6cbacb	-0.057795327
136	0xba848343	-0.001010992
137	0x3d0d4c05	0.034496326
138	0x3d8d8f2d	0.06912074
139	0x3ac6f270	0.0015178453
140	0x3d347a14	0.044061735
141	0x3d88daf6	0.066823885
142	0xbb26cbbf	-0.0025451032
143	0x3d2ae8d4	0.04172595
144	0xbd4976ee	-0.049185686
145	0xbd1df6be	-0.03856539
146	0x3dc7922d	0.09744678
147	0xbbe9af71	-0.00713151
148	0xbd670dbb	-0.05640958
149	0xba2a617c	-0.00064995117
150	0xbd8b4148	-0.06799561
151	0xbdc72c15	-0.09725205
152	0xbdd1dbff	-0.10247039
153	0x3ba01260	0.004885003
154	0xbded5e94	-0.11590305
155	0xbd44f32a	-0.04808346
156	0x3d4ff8a1	0.05077422
157	0x3ddf86cf	0.109143846
158	0xbdbdc563	-0.09266164
159	0x3ca93ccd	0.020658875
160	0x3c9464ce	0.018114474
161	0xbd37685f	-0.04477727
162	0xbd311cc2	-0.043240316
163	0xbc29b08e	-0.010357035
164	0xbb7da2da	-0.0038701803
165	0x3d804d1e	0.06264709
166	0xbdc335de	-0.09531759
167	0xbd13f36b	-0.036120813
168	0x3dc5de9c	0.096616
169	0xbdd08103	-0.10180857
170	0xbc339359	-0.010960423
171	0x3d92dd35	0.07171098
172	0xbdb58af7	-0.08864396
173	0xbc56ddd6	-0.013114413
174	0x3d6045af	0.054753955
175	0xbcce7422	-0.02520186
176	0x3d64b6fb	0.055838566
177	0xbb7c91ea	-0.003853912
178	0x3db55b8c	0.08855352
179	0x3d183313	0.037158083
180	0x3d996433	0.074898146
181	0x3d91bfb0	0.071166396
182	0xbb584224	-0.0032998407
183	0x3dc36949	0.09541566
184	0x3dbf09f7	0.093280725
185	0xbc6f2667	-0.014596558
186	0x3d97c19c	0.07409975
187	0xbd40bfb5	-0.047057826
188	0x3d8db40e	0.06919108
189	0x3bd83250	0.0065977946
190	0x3ddb5c91	0.10711015
191	0x3cbac028	0.022796705
192	0x3c0d9fb7	0.008644036
193	0x3d86e0ff	0.06585883
194	0x3c720746	0.014772242
195	0xbdd890e6	-0.10574512
196	0xbc7fb76e	-0.015607698
197	0x3d1a0794	0.037604883
198	0xbdcf1c44	-0.10112813
199	0xbd62e79e	-0.05539667
200	0xbdc9d290	-0.09854615
201	0x3d96e7cf	0.07368433
202	0x3c7c44db	0.015397276
203	0x3d4785d8	0.048711628
204	0xbd9904c2	-0.074716106
205	0xbd117851	-0.035515133
206	0x3d14173d	0.036154974
207	0x3cc88788	0.024478689
208	0xbdd58c77	-0.10427182
209	0x3dc46947	0.095903926
210	0xbdc439b6	-0.0958132
211	0x3d8539fb	0.065051995
212	0xbdc9602f	-0.09832799
213	0xb982a6a4	-0.0002491969
214	0xbc818056	-0.015808266
215	0x3caa71ab	0.020806154
216	0x3d2efb5c	0.042720184
217	0x3da8f39e	0.08249591
218	0x3de002cb	0.10938033
219	0x3c8292d4	0.015939154
220	0xbd914665	-0.07093505
221	0xbdeef711	-0.11668218
222	0xbda8b1da	-0.082370475
223	0xbcad876b	-0.021182736
224	0x3d5e5f6a	0.054290213
225	0x3da788d7	0.08180397
226	0x3ca4a71e	0.020099219
227	0xbda6dcb3	-0.08147564
228	0x3de2c57a	0.11072822
229	0xbdeef39a	-0.11667557
230	0x3ce9599f	0.028485117
231	0xbb8b0c55	-0.0042434135
232	0x3d53d7a0	0.051719308
233	0x3d9ae5b1	0.075633414
234	0xbdbf66df	-0.09345793
235	0xbde85b68	-0.11345559
236	0xbbc457fb	-0.0059919334
237	0xbdc036ed	-0.09385476
238	0x3dbf2ab4	0.09334317
239	0x3bdb5ca0	0.0066943914
240	0x3d11e557	0.035619106
241	0xbc771a88	-0.015082009
242	0x3d13c209	0.03607372
243	0xbba40784	-0.0050057787
244	0xbddf9591	-0.109171994
245	0x3ddeb8a9	0.10875065
246	0xbdce17c3	-0.10063126
247	0xbd8f8a69	-0.070088215
248	0xbdc74813	-0.09730544
249	0x3d4f9d60	0.050687194
250	0x3c886ed9	0.016654419
251	0xbd35e91f	-0.044411775
252	0x3d23d626	0.03999915
253	0xbcf542eb	-0.029939136
254	0x3dac93d6	0.08426635
255	0xbda6850e	-0.08130847

conv_block_4.2.bias f4 [16]
0	0x3be7551c	0.0070597064
1	0x3ced327f	0.028954742
2	0x3dbf8ad7	0.093526535
3	0xbdd1937e	-0.1023321
4	0x3d28fd46	0.041257165
5	0x3d8a7338	0.067602575
6	0x3d936abe	0.07198094
7	0x3d1c26d2	0.03812296
8	0x3d57c27d	0.052675713
9	0xbd54abdd	-0.051921714
10	0x3c02ebe4	0.007990811
11	0xbd43b83c	-0.04778312
12	0x3dbaaa94	0.091145664
13	0x3d4e1c81	0.050320152
14	0x3bbc48cd	0.005745983
15	0xbd95a69a	-0.07307167

conv_block_4.3.weight f4 [16]
0	0x3f800d28	1.0004015
1	0x3f7fd046	0.99927175
2	0x3f7fdd5e	0.99947155
3	0x3f7fe3cd	0.9995697
4	0x3f7fe3f8	0.9995723
5	0x3f800d86	1.0004127
6	0x3f7fd7e3	0.9993879
7	0x3f7ffa71	0.9999152
8	0x3f7fed20	0.999712
9	0x3f800cad	1.0003868
10	0x3f7ff38c	0.99981
11	0x3f801aee	1.0008218
12	0x3f800d6f	1.00041
13	0x3f7fe6c3	0.9996149
14	0x3f7ff850	0.9998827
15	0x3f8014f3	1.0006393

conv_block_4.3.bias f4 [16]
0	0x3a27fdf0	0.0006408384
1	0xba003dea	-0.00048920384
2	0xb9d55b0a	-0.00040694355
3	0x3a583fb2	0.00082492374
4	0xb9a47eaa	-0.0003137489
5	0x3904f304	0.00012679031
6	0x39ef9958	0.00045699882
7	0xba054562	-0.0005083886
8	0xb99538dc	-0.00028461858
9	0xb972d95e	-0.00023159894
10	0xb8dbd7cd	-0.0001048293
11	0x3a36d0fe	0.0006973891
12	0x39b41cec	0.00034353824
13	0xb9bb746d	-0.00035754163
14	0x39288765	0.00016072167
15	0x3a13fb06	0.00056450104

conv_block_4.3.running_mean f4 [16]
0	0x3de8b670	0.11362922
1	0xbd4a3f4a	-0.049376763
2	0x3d2206be	0.03955721
3	0xbe887dd3	-0.26658496
4	0x3eadd555	0.33951822
5	0x3ed45bcd	0.41476288
6	0x3e3f0344	0.1865359
7	0xbde193ac	-0.11014494
8	0xbd83e331	-0.06439818
9	0xbd97ff66	-0.0742176
10	0xbda33856	-0.079697296
11	0x3de61997	0.112353496
12	0xbe1330e7	-0.14374124
13	0xbdb7bde6	-0.08971767
14	0xbdc32d5e	-0.095301375
15	0x3db5d1b2	0.08877887

conv_block_4.3.running_var f4 [16]
0	0x3e756092	0.2396262
1	0x3e89fd83	0.26951227
2	0x3e87c5fe	0.26518244
3	0x3e935371	0.28774598
4	0x3ec7d622	0.39030558
5	0x3e95aeb9	0.29234865
6	0x3e8246ea	0.25444728
7	0x3e5dc1cb	0.21655957
8	0x3e85ce4c	0.26133955
9	0x3e63a74c	0.22231787
10	0x3e8a6da1	0.27036765
11	0x3e620f4e	0.22076151
12	0x3e70126c	0.23444527
13	0x3e58376d	0.21114893
14	0x3e60bd0c	0.21947116
15	0x3ebb001c	0.3652352

conv_block_4.5.weight f4 [16, 16, 3, 3]
0	0xbd8ec9f7	-0.069721155
1	0x3c6b9506	0.014378792
2	0x3b390e0b	0.002823713
3	0xbd87610b	-0.06610306
4	0x3d52073c	0.05127643
5	0xbd74965c	-0.059713706
6	0xbd66095e	-0.056161277
7	0x3d5f8c6c	0.054577276
8	0xbd956fe9	-0.07296736
9	0xbd18ee7a	-0.037336804
10	0xbc8f69ab	-0.017506441
11	0xbd5fcfed	-0.054641653
12	0x3d9a5e81	0.075375564
13	0xbd65bbe5	-0.056087393
14	0xbd84b776	-0.06480305
15	0x3d6de943	0.058083784
16	0x3c11bda8	0.008895315
17	0xbd53e392	-0.0517307
18	0xbcaf4b30	-0.021398157
19	0xbd9819b0	-0.074267745
20	0xbd8a6849	-0.06758172
21	0x3cd5e1a1	0.026108565
22	0x3bbdd3bf	0.0057930644
23	0x3c2edab6	0.010672262
24	0x3cd85161	0.026405992
25	0xbcc714a8	-0.024301842
26	0x3c8f5913	0.017498529
27	0xbd99931d	-0.07498763
28	0x3d12f189	0.035874877
29	0xbd8dc653	-0.06922593
30	0x3c821cd9	0.015882896
31	0x3d16f9ef	0.03685945
32	0xbd71c42c	-0.059024975
33	0xbbae55fe	-0.0053203097
34	0x3d633c66	0.055477522
35	0xbd52b87c	-0.05144547
36	0x3cfc0b2e	0.03076705
37	0x3d40b094	0.047043398
38	0xbcf70323	-0.030152863
39	0x3cf13472	0.029443953
40	0xbcf312be	-0.029672023
41	0xbd1a7ff0	-0.037719667
42	0x3d0b12aa	0.033953346
43	0x3c989bb1	0.018628927
44	0x3c9f4f15	0.019446889
45	0x3cf8053b	0.030275932
46	0xbd906159	-0.070498176
47	0xbd8da559	-0.06916303
48	0xbb755e0d	-0.0037440092
49	0x3d877bfd	0.06615446
50	0x3d96145b	0.07328101
51	0x3d01007f	0.031494614
52	0xbd17c01b	-0.03704844
53	0x3ccf9309	0.025338667
54	0x3d52e3e9	0.051486883
55	0x3d197987	0.037469413
56	0x3d5e9570	0.054341733
57	0x3d8112c0	0.063024044
58	0x3c837cc5	0.016050706
59	0xbd27e3e4	-0.040988818
60	0x3c8e2805	0.017353067
61	0x3da6a3b8	0.081366956
62	0x3cc49d79	0.02400087
63	0x3d586804	0.052833572
64	0x3d2cdc68	0.042202383
65	0x3d59cd7d	0.053174485
66	0x3d1b6757	0.03794035
67	0x3cb4133c	0.021981828
68	0xbcf33939	-0.029690372
69	0xbd6f2a76	-0.058390103
70	0x3c3c7c4d	0.011504245
71	0x3d4b5032	0.049637027
72	0x3d64723c	0.055773005
73	0xbd15e841	-0.036598448
74	0x3d8d24d0	0.06891787
75	0xbd9ae213	-0.075626515
76	0x3d85c3e2	0.06531502
77	0xbce4969c	-0.027903847
78	0xba8a64a9	-0.0010558564
79	0xbd82e9e5	-0.06392268
80	0x3d2ab4ff	0.041676518
81	0x3d33e72e	0.043921642
82	0x3d3eb679	0.04656074
83	0xbce670c3	-0.02812994
84	0xbd0b527c	-0.03401421
85	0xbd83c475	-0.064339556
86	0x3cf686b3	0.030093526
87	0xbd1c61f2	-0.038179345
88	0x3c4e2b23	0.012583527
89	0xbd30521f	-0.043047067
90	0x3d3e7c0f	0.04650503
91	0x3d64a64e	0.055822663
92	0xbd296773	-0.041358422
93	0x3d9e610f	0.07733356
94	0xbd08e256	-0.033418976
95	0x3da65ee0	0.08123565
96	0x3d855a2f	0.06511342
97	0x3d95be1a	0.073116496
98	0x3d86fd88	0.06591326
99	0xbce493b1	-0.027902456
100	0xbd3cb6d6	-0.046072803
101	0x3d06252d	0.032750297
102	0x3d21c51d	0.039494622
103	0x3d68b171	0.056809846
104	0x3d946dc9	0.07247502
105	0x3da46f07	0.08028989
106	0xbd6c9b4b	-0.057765286
107	0x3da3a0fd	0.079896905
108	0xbd87e787	-0.06635957
109	0x3c1b3882	0.009473922
110	0x3b9c67f6	0.0047731353
111	0x3c7f983b	0.015600259
112	0x3cb500da	0.022095133
113	0xbd842d1e	-0.06453918
114	0xbda6190b	-0.08110245
115	0x3b234c3b	0.0024917263
116	0x3d6282d9	0.055300567
117	0x3d964c5d	0.07338784
118	0x3d08132f	0.03322142
119	0xbd75f180	-0.060044765
120	0xbd8a0482	-0.06739141
121	0x3d2f27d8	0.042762607
122	0xbd859279	-0.06522078
123	0xbda2a30c	-0.07941255
124	0xbd8d55d7	-0.06901138
125	0xbcb48e47	-0.0220405
126	0xbd5198f5	-0.05117126
127	0x3d483d56	0.04888662
128	0xbd2eb6ff	-0.042654987
129	0x3d29841b	0.04138575
130	0xbd5a3d57	-0.053281154
131	0xbd0a3563	-0.03374232
132	0x3bc228fa	0.005925295
133	0x3d559390	0.05214268
134	0x3c805876	0.015667181
135	0x3d68db78	0.056849927
136	0xbd188625	-0.037237305
137	0x3d4cba71	0.049982492
138	0x3d0a2f89	0.03373674
139	0x3d34d983	0.044152748
140	0x3c1fed66	0.00976119
141	0xbda2b2af	-0.079442374
142	0x3c8a7cdf	0.016905246
143	0xbd1c5d57	-0.038174953
144	0x3d0bf7ef	0.034171995
145	0xbcae3ca1	-0.021269144
146	0xbd936209	-0.07196433
147	0xbd32beec	-0.04363911
148	0xbd694ef9	-0.05696008
149	0xbd994db9	-0.074855275
150	0xbd64f06f	-0.055893358
151	0x3d51b9f6	0.051202737
152	0x3d196510	0.037449896
153	0x3d48112e	0.04884451
154	0x3d073588	0.033010036
155	0xbd2bbbbe	-0.04192709
156	0x3ad63540	0.0016342774
157	0xbb932815	-0.004490862
158	0x3d288e0f	0.041151103
159	0x3ca2d657	0.019877596
160	0xbd87888d	-0.06617842
161	0x3d818707	0.063245825
162	0xbc1ec505	-0.009690528
163	0x3d9562ce	0.07294236
164	0x3d15abb1	0.03654069
165	0xbd829be7	-0.06377392
166	0x3da3d371	0.079993136
167	0xbd0dc5a2	-0.034612305
168	0xbd40161e	-0.046896093
169	0x3d74fe14	0.05981262
170	0x3d92b77f	0.07163905
171	0xbcb79451	-0.02240959
172	0xbce9f0d9	-0.028557228
173	0xbc3dc142	-0.011581721
174	0x3d4c26aa	0.04984156
175	0x3abbfca5	0.0014342262
176	0x3b844fca	0.004037832
177	0x3da65910	0.08122456
178	0xbd6aa843	-0.057289373
179	0x3cf8d358	0.030374214
180	0xbc0f2995	-0.008737941
181	0xbd93ba04	-0.07213214
182	0x3d8dda74	0.06926432
183	0xbd854901	-0.06508065
184	0x3ac638b4	0.00151231
185	0x3ccec8ef	0.025242297
186	0xbda07678	-0.07835096
187	0xbc003354	-0.007824738
188	0x3caa63bf	0.020799516
189	0xbc8b24f0	-0.016985387
190	0xbd5504da	-0.05200658
191	0x3bc57148	0.006025467
192	0x3d9a45d5	0.07532851
193	0x3d82f150	0.06393683
194	0xbba55e06	-0.005046609
195	0xbd8673a1	-0.06565023
196	0xbcb15fe7	-0.021652175
197	0x3cd48859	0.025943922
198	0x3cd24243	0.025666362
199	0xbd94f59c	-0.07273409
200	0xbd9a6aed	-0.07539926
201	0x3bcac9fb	0.0061886287
202	0x3b04e43a	0.0020277635
203	0xbc7aed03	-0.015315297
204	0xbcd1e581	-0.025622131
205	0xbcebd9c4	-0.028790362
206	0x3da9ff41	0.08300639
207	0x3cd2fef1	0.025756331
208	0x3d4c387e	0.049858563
209	0x3d91e577	0.07123845
210	0xbcb5940e	-0.022165325
211	0xbc7b31f2	-0.015331732
212	0x3c9e52b4	0.019326545
213	0xbceab7cd	-0.028652096
214	0x3be696e1	0.007037029
215	0xbd16edc1	-0.036847834
216	0xbd8b33af	-0.06796967
217	0xbd097d10	-0.033566535
218	0x3cda7777	0.026668293
219	0x3d86a56b	0.0657452
220	0xbda6a439	-0.08136792
221	0xbd59cbc6	-0.05317285
222	0x3d393394	0.045215204
223	0xbd67795f	-0.056512233
224	0xbd32d4fc	-0.04366015
225	0x3ac937b5	0.0015351685
226	0x3ba2cf0c	0.0049685296
227	0xbd9ff91c	-0.07811186
228	0x3d72d836	0.059288226
229	0x3d2ca857	0.04215273
230	0x3bd5802c	0.0065155234
231	0xbd63e36a	-0.0556368
232	0x3d841d3e	0.0645089
233	0xbd34eb26	-0.044169568
234	0x3cb5b16b	0.022179326
235	0x3c941e71	0.018080922
236	0x3d1a78b4	0.037712768
237	0xbd9ceece	-0.07662736
238	0x3d44dd51	0.048062626
239	0x3ad0db84	0.0015934561
240	0xbd930ac4	-0.07179788
241	0xbd9cbe94	-0.076535374
242	0xbd90da8c	-0.070729345
243	0xbd77fcc9	-0.06054381
244	0x3d9f7602	0.0778618
245	0xbbee5917	-0.007273804
246	0xbc0fddfd	-0.0087809535
247	0xbc9767ca	-0.018482108
248	0xbd4ddab9	-0.05025742
249	0x3d47ff74	0.048827603
250	0xbda08fdc	-0.07839939
251	0xbcc76a9c	-0.024342827
252	0x3daa11da	0.08304186
253	0xbd6049c5	-0.054757852
254	0xbd3b75e0	-0.04576671
255	0xbcbf82da	-0.023377825

conv_block_4.5.bias f4 [16]
0	0xbd943732	-0.0723709
1	0xbd504319	-0.05084524
2	0xbd59aac1	-0.05314136
3	0xbd7016c2	-0.058615454
4	0xbd04b463	-0.032398593
5	0xbc90c231	-0.017670723
6	0xbdaa8875	-0.08326808
7	0xbd254f2d	-0.04035871
8	0xbd6a1164	-0.05714549
9	0x3d6a4a2a	0.057199635
10	0x3d838076	0.06420986
11	0x3d7ee8e0	0.062233806
12	0x3c369523	0.011143955
13	0x3bda5124	0.0066625047
14	0x3d250141	0.0402844
15	0x3cb8c246	0.022553574

conv_block_5.0.weight f4 [16]
0	0x3f7ff7c7	0.99987453
1	0x3f7fd768	0.9993806
2	0x3f7ff899	0.99988705
3	0x3f800e9f	1.0004462
4	0x3f8005c3	1.0001758
5	0x3f7fea65	0.9996703
6	0x3f8019c3	1.0007862
7	0x3f7fe264	0.9995482
8	0x3f7fe2ac	0.9995525
9	0x3f8012a9	1.0005695
10	0x3f80134c	1.0005889
11	0x3f80054f	1.000162
12	0x3f7ff619	0.9998489
13	0x3f7ffe0a	0.9999701
14	0x3f80111d	1.0005223
15	0x3f7fd5da	0.99935687

conv_block_5.0.bias f4 [16]
0	0xb96d6063	-0.00022637988
1	0xb97b7849	-0.00023982035
2	0xb7c81d00	-2.3855362e-05
3	0xb8b2734b	-8.5091764e-05
4	0xb84bffb6	-4.863712e-05
5	0x39bab3a6	0.00035610533
6	0x38f5e5c2	0.00011725306
7	0xba649390	-0.00087194983
8	0x39827031	0.0002487912
9	0x3a610c18	0.0008584871
10	0x399a6b99	0.00029453335
11	0xb8857989	-6.364572e-05
12	0xba036876	-0.00050128193
13	0x3978c39a	0.0002372399
14	0x39975907	0.00028867295
15	0xba00ed03	-0.000491813

conv_block_5.0.running_mean f4 [16]
0	0x3e5ea667	0.21743165
1	0xbd240de6	-0.040052317
2	0x3e4417e8	0.19149745
3	0x3de5cb29	0.1122039
4	0x3e9855f9	0.29753092
5	0x3de1a6b1	0.11018122
6	0x3e190f17	0.14947163
7	0x3bc63a32	0.006049418
8	0x3e5dbb65	0.21653517
9	0xbd7074c5	-0.05870511
10	0x3dd83fcd	0.10559044
11	0x3e84373e	0.25823396
12	0x3df6ca11	0.1205026
13	0x3e4d9edf	0.20080136
14	0x3ea77c6d	0.32712117
15	0x3e7a477d	0.24441333

conv_block_5.0.running_var f4 [16]
0	0x3e81e7a4	0.2537204
1	0x3e2c5e1c	0.16832775
2	0x3e436e5e	0.1908507
3	0x3e43fe55	0.19139989
4	0x3e805871	0.25067475
5	0x3e38d50f	0.18050025
6	0x3e28e8d7	0.16495071
7	0x3e30b3c0	0.17256069
8	0x3e5f55cc	0.21810073
9	0x3e66efd7	0.22552429
10	0x3e452820	0.19253588
11	0x3e3c028e	0.1836035
12	0x3e71f5c5	0.2362891
13	0x3e3c24b4	0.18373376
14	0x3e8aeed8	0.27135348
15	0x3e42a909	0.19009794

conv_block_5.2.weight f4 [32, 16, 3, 3]
0	0x3d2e455a	0.042546608
1	0x3d3e7f03	0.046507847
2	0xbd9abbe5	-0.07555369
3	0xbcb8c9f0	-0.022557229
4	0xbd77809b	-0.060425382
5	0x3c669881	0.014074446
6	0x3cf28833	0.02960596
7	0x3cfb6a0f	0.030690221
8	0xbd97e220	-0.07416177
9	0x3d4e8bfb	0.050426465
10	0x3cba6dee	0.022757497
11	0x3ce49f09	0.027907865
12	0xbd8420b0	-0.06451547
13	0x3da417b9	0.08012337
14	0x3cedb891	0.029018672
15	0xbcc2e919	-0.02379279
16	0xbd655af9	-0.05599496
17	0xbd2f74bb	-0.042835932
18	0x3d9997f7	0.07499688
19	0xbd8445e5	-0.06458644
20	0xbbc5ae09	-0.0060327095
21	0x3bb43eca	0.005500649
22	0xbd660356	-0.056155525
23	0x3d6312d9	0.055437896
24	0x3cb02ac2	0.021504764
25	0xbd8a09e8	-0.06740171
26	0xbd7957a8	-0.06087461
27	0x3cf95009	0.030433672
28	0x3c964752	0.018344555
29	0xbd96b7db	-0.073592864
30	0xbd9af547	-0.07566314
31	0x3d5d0a6c	0.053965017
32	0xbd30a41d	-0.04312526
33	0xba3c7b33	-0.0007189989
34	0xbd693c85	-0.05694248
35	0xbcdacc12	-0.026708636
36	0x3aeff950	0.0018308554
37	0x3d57a4fd	0.05264758
38	0xbda6c982	-0.08143903
39	0xbcd16e21	-0.025565209
40	0xbb7c40fb	-0.003849088
41	0xbd2bfeb0	-0.041990936
42	0xbd72ebd5	-0.05930694
43	0xbba3e7de	-0.005002006
44	0xbd2865c0	-0.04111266
45	0xbd471ea0	-0.04861319
46	0xbda44e15	-0.080227055
47	0x3b57baa5	0.0032917645
48	0x3d66b7f2	0.056327768
49	0x3cfcd47b	0.030863037
50	0xbd692c05	-0.056926746
51	0xbd458300	-0.048220634
52	0xbcaab1f6	-0.020836812
53	0x3d804aa2	0.06264235
54	0xbd156391	-0.036471907
55	0x3b5db849	0.0033831766
56	0x3d510e41	0.051038984
57	0xbd083d35	-0.033261497
58	0x3d960ebd	0.0732703
59	0x3d41fb83	0.047359
60	0x3d276509	0.04086784
61	0xbd92048c	-0.071297735
62	0x3d4aa3e0	0.04947269
63	0xbb28a919	-0.0025735556
64	0x3d9436f1	0.07237042
65	0xbd5a6a2e	-0.053323917
66	0x3d3d8f27	0.0462791
67	0xbcaf3d09	-0.021391409
68	0xbcf96853	-0.030445253
69	0x3ca6c52f	0.020357696
70	0x3ca54531	0.020174595
71	0x3d6ecdd2	0.058301754
72	0x3c8cc06f	0.017181603
73	0xbcfb984b	-0.030712267
74	0x3cf6a7df	0.030109344
75	0x3d40605f	0.046966907
76	0x3d139933	0.036034774
77	0x3d23ec8d	0.040020514
78	0x3da091f3	0.078403376
79	0xbbfc882e	-0.0077066636
80	0x3d411722	0.0471412
81	0xb8cf5f58	-9.888288e-05
82	0xbd8cc240	-0.06872988
83	0xbd8cd7ea	-0.0687712
84	0x3d4707eb	0.048591536
85	0x3cfa5b9f	0.030561266
86	0xbd80db17	-0.06291788
87	0xbb64855f	-0.0034869534
88	0xbd4b38f0	-0.049614847
89	0x3d54a5bd	0.051915873
90	0xbd89639e	-0.067084536
91	0x3a2c91ba	0.0006582994
92	0xbd5ac20a	-0.053407706
93	0xbca83872	-0.020534728
94	0x3d7d174e	0.061789803
95	0xbd3d5846	-0.046226762
96	0x3da5b736	0.08091585
97	0xbda441d1	-0.08020366
98	0x3d26939e	0.040668122
99	0x3bdedc5a	0.0068011703
100	0x3c30fd6d	0.010802609
101	0x3cad4080	0.02114892
102	0x3d84a823	0.06477382
103	0xbb4c14b2	-0.0031140265
104	0xbc874b32	-0.016515348
105	0xbd9131ee	-0.070896015
106	0xbcaff335	-0.021478275
107	0xbda02b36	-0.07820742
108	0xbd8ee04d	-0.06976376
109	0xbc8138a0	-0.015774071
110	0x3cc59e78	0.024123415
111	0x3cca3819	0.024684953
112	0xbba8f94a	-0.0051566707
113	0x3ce7f235	0.028313735
114	0x3d3209e6	0.04346647
115	0xbd5afbd8	-0.053462833
116	0xbd7f0e78	-0.062269658
117	0x3da2613c	0.07928702
118	0xbd3f2520	-0.046666265
119	0x3cb6a66b	0.022296151
120	0x3d9a67ca	0.075393274
121	0x3d091c4b	0.033474248
122	0xbd2315a0	-0.039815545
123	0xbc75ae17	-0.01499512
124	0xbcf62db0	-0.030051082
125	0x3cb9b90b	0.022671243
126	0x3bf1d1fc	0.0073797684
127	0xbd94a2f5	-0.07257644
128	0xbd7e4f8c	-0.06208758
129	0xbd993cb8	-0.07482284
130	0x3d69c636	0.057073794
131	0xbb0bd56c	-0.0021336926
132	0xbcedc116	-0.029022735
133	0x3d2b3979	0.041802857
134	0xbd1c1262	-0.03810347
135	0x3d486363	0.048922908
136	0x3d9dcf64	0.07705572
137	0xbd9bdb14	-0.07610145
138	0xbc2239f3	-0.0099015115
139	0x3d1013a5	0.035174984
140	0xbd1ec25a	-0.038759567
141	0x3d53748b	0.051624816
142	0xbb2485c0	-0.0025104135
143	0x3d352b65	0.044230837
144	0x3c84ebb0	0.016225666
145	0xbb56980f	-0.0032744443
146	0x3da53513	0.08066764
147	0xbd9bf958	-0.07615918
148	0xbd06146a	-0.032734312
149	0xbcfe568c	-0.031047128
150	0x3d1ed124	0.03877367
151	0xbda865f8	-0.08222574
152	0xbd1372e8	-0.035998255
153	0xbcc4f986	-0.024044763
154	0x3d844487	0.06458383
155	0xbd7b5f90	-0.061370432
156	0xbd35102e	-0.044204883
157	0xbd5843c6	-0.05279901
158	0x3d2f4a07	0.042795207
159	0xbd0738ac	-0.03301303
160	0xbd505360	-0.050860763
161	0x3d04facc	0.03246574
162	0x3d5115ed	0.0510463
163	0x3d65dfb4	0.056121543
164	0xbc0cf6df	-0.0086037805
165	0x3cc5b233	0.024132824
166	0xbd83ce3e	-0.06435822
167	0xbd98b4b0	-0.074563384
168	0xbd3bf34d	-0.045886327
169	0x3d2ff1bf	0.042955156
170	0x3cb64c0e	0.022253063
171	0xbbc4526a	-0.00599127
172	0xbd5f4b9c	-0.054515466
173	0xba56e865	-0.00081980816
174	0xbd6f3d74	-0.058408216
175	0x3da61920	0.08110261
176	0x3d415e20	0.047208905
177	0xbc09edee	-0.008418543
178	0x3d55a64b	0.052160542
179	0x3d092867	0.033485796
180	0xbd994447	-0.07483726
181	0xbbbd069f	-0.0057686116
182	0x3cd25d20	0.025679171
183	0xbceb2a77	-0.028706772
184	0x3d52b7d2	0.051444836
185	0x3d33c0d0	0.043885052
186	0x3cb2ce8f	0.02182701
187	0xbd15ad63	-0.036542308
188	0x3da017a4	0.07817009
189	0x3cfacbc6	0.030614745
190	0x3d85d4bd	0.06534717
191	0xbccadf25	-0.024764607
192	0xbcf56204	-0.029953964
193	0xbc14c7fa	-0.009080881
194	0xbc87d175	-0.01657937
195	0xbd7b16d6	-0.061301075
196	0x3cbf5179	0.023354279
197	0xbd976e47	-0.073940806
198	0x3bb55329	0.005533595
199	0xbda4f734	-0.08054963
200	0xbca9fa03	-0.020749098
201	0x3c2f78c1	0.010709942
202	0x3d93e53b	0.072214566
203	0xbcef36d3	-0.029200947
204	0x3bdab226	0.006674069
205	0x3d965b0a	0.07341583
206	0xbd47bf15	-0.048766214
207	0x3cf03d85	0.02932621
208	0xbc3fa2be	-0.011696516
209	0x3c3e56f2	0.011617409
210	0xbda4a110	-0.08038533
211	0x3d9c6cc0	0.0763793
212	0xbd582750	-0.052771866
213	0xbc9611ae	-0.018318977
214	0xbc1ff76e	-0.009763582
215	0xbd2b7cce	-0.04186707
216	0xbd96e518	-0.07367915
217	0x3d30acea	0.043133654
218	0xbcf00ed8	-0.029303953
219	0x3d8a03ad	0.06738982
220	0x3d8945e0	0.06702781
221	0xbd2ec5ed	-0.042669225
222	0xbcb8fd14	-0.022581615
223	0x3cd6cd05	0.026220808
224	0xbd805068	-0.06265336
225	0xbd6933be	-0.05693411
226	0xbda85bd0	-0.08220637
227	0xbda26f20	-0.07931352
228	0x3d16da99	0.036829565
229	0xbd0bfdaa	-0.03417746
230	0xbd155601	-0.036458973
231	0xbd09f881	-0.033684257
232	0xbd97e6d8	-0.07417077
233	0x3ce8aece	0.028403666
234	0x3ca3aa38	0.019978628
235	0xbd82d85c	-0.063889235
236	0x3d5fa06d	0.054596353
237	0xbcfdd94a	-0.0309874
238	0x3d09f5a4	0.033681527
239	0x3d3ac61a	0.04559908
240	0x3d1180bc	0.03552316
241	0xbd981179	-0.07425208
242	0x3d57cca8	0.05268541
243	0x3cda841b	0.02667432
244	0x3c1c47d1	0.009538607
245	0xbd961df2	-0.0732993
246	0xbd194e3e	-0.037428133
247	0xbd4b8a27	-0.0496923
248	0x3b5fcdc5	0.0034149748
249	0x3d0630a0	0.032761216
250	0x39a2dd37	0.00031063866
251	0x3ba1f650	0.004942693
252	0x3d5c2251	0.053743664
253	0x3d2e7654	0.042593315
254	0xbd30d3db	-0.04317079
255	0x3d8c7ba5	0.06859521
