cloud-detection-code/tests/test_artifacts/test_class_weighted_loss/model_checkpoint_6.pt (torch, 439769 bytes, 347 tensors)

input_conv_block.0.weight f4 [3]
00000000: b936 803f 848b 7f3f 1437 803f
1.00167 0.9982226 1.0016809

input_conv_block.0.bias f4 [3]
00000000: 805d acba 2a3c d6b8 df3a 93ba
-0.0013150424 -0.000102155216 -0.0011232755

input_conv_block.0.running_mean f4 [3]
00000000: 3788 d53e 0388 d43e e5bf b33e
0.41705486 0.4151002 0.3510734

input_conv_block.0.running_var f4 [3]
00000000: d612 533d 9e31 433d 5780 363d
0.051531635 0.04765474 0.04455599

input_conv_block.2.weight f4 [2, 3, 1, 1]
00000000: 98a6 d43e 392c 01bf f49b 823e 5497 853e
00000010: 9ddb 6c3e eed5 353e
0.4153335 -0.50458103 0.25509608 0.26092017 0.23130651 0.17757389

conv_block_1.0.weight f4 [2]
00000000: 7ee4 7f3f bb0d 803f
0.99958026 1.000419

conv_block_1.0.bias f4 [2]
00000000: 0d19 d6ba 20ea 84ba
-0.001633437 -0.0010140575

conv_block_1.0.running_mean f4 [2]
00000000: e51d 7d3d 9891 863e
0.061796088 0.26282954

conv_block_1.0.running_var f4 [2]
00000000: c233 2d3d afe4 3f3e
0.04228569 0.1873958

conv_block_1.2.weight f4 [2, 2, 3, 3]
00000000: b16f 84bc 083b 983d cdcf a9bd 2103 253e
00000010: be00 f13d 5f05 193e 89d7 19be ae4e 21be
00000020: d5e5 ca3d afce 78bd 39f0 13bd 604e 48be
00000030: f6ca b9bd 686d df3d 06b3 13be 5789 b4bd
00000040: b2aa 073e 49ec 58be fa88 433e 149d 1fbd
00000050: d989 bcbd 40be 83bd e593 2c3c d1f2 113e
00000060: 5a75 0cbe b5af c03c 4d12 39bd 38d6 483e
00000070: 8564 09bd 965f b3bd d042 5ebe 9069 ef3d
00000080: 8a13 9dbd 638b 4c3e 9b9b 40bd 4d60 5f3d
-0.01616654 0.07433134 -0.08291588 0.16114475 0.1176772 0.14943455 -0.15023626 -0.1575267
0.09907118 -0.060743984 -0.036117766 -0.19561148 -0.09071915 0.109095395 -0.14423761 -0.08815258
0.13248709 -0.21183886 0.19095221 -0.03896816 -0.0920598 -0.06432772 0.010533308 0.14252783
-0.13716641 0.023521284 -0.04518347 0.19612968 -0.03354313 -0.08758466 -0.21705174 0.11690056
-0.076697424 0.19975047 -0.047023397 0.0545352

conv_block_1.2.bias f4 [2]
00000000: 18df 21be 808f 5dbe
-0.1580776 -0.21636772

conv_block_1.3.weight f4 [2]
00000000: d98c 7f3f 9239 803f
0.9982429 1.0017569

conv_block_1.3.bias f4 [2]
00000000: 9fa8 c6ba 4115 13b9
-0.0015156454 -0.0001402693

conv_block_1.3.running_mean f4 [2]
00000000: 4672 97be ba58 33be
-0.2957937 -0.17514315

conv_block_1.3.running_var f4 [2]
00000000: 6f4a 0e3e 1cc1 393d
0.13895582 0.04535018

conv_block_1.5.weight f4 [2, 2, 3, 3]
00000000: 9bbb 65be 9697 1b3d 03be a9bd b08c 4c3e
00000010: c038 0dbe dff1 953d 39c6 2bbd b8fc 24be
00000020: 2656 5c3e 0480 883c cda0 513e 9d24 95bd
00000030: 3983 1ebe fd3e 33be 0ea4 c8bd e16e 29be
00000040: ceb3 03bc 8cb6 3dbe f3e5 913d b644 e1bb
00000050: ae37 3c3e 9715 c5bd 9ba1 64be bfd0 a13d
00000060: b86d 643e 57d0 3f3e 1fc2 c4bd bb70 8f3d
00000070: 27ec 40be a29e 213e 108b 383d d2da ddbd
00000080: 8202 6d3d c48c 21be 7ba4 f63d 725b 43be
-0.22434847 0.03798636 -0.08288195 0.19975543 -0.1379118 0.07321524 -0.041937087 -0.1611203
0.21517238 0.016662605 0.20471497 -0.07282374 -0.15479745 -0.17504497 -0.09796916 -0.16546203
-0.008038474 -0.18526667 0.071239375 -0.006874646 0.18380615 -0.096232586 -0.22327273 0.07901143
0.2230748 0.18731819 -0.09607338 0.070039235 -0.18840085 0.1578317 0.045054495 -0.10832752
0.05786372 -0.15776354 0.12043091 -0.19077852

conv_block_1.5.bias f4 [2]
00000000: 3a11 9e3a 6954 28be
0.0012059577 -0.1643845

conv_block_2.0.weight f4 [2]
00000000: 27ed 7f3f 6709 803f
0.9997124 1.0002869

conv_block_2.0.bias f4 [2]
00000000: 7cf1 35b9 98d3 dfba
-0.00017351465 -0.001707661

conv_block_2.0.running_mean f4 [2]
00000000: 74c3 97bd bd6d 7d3d
-0.074103266 0.061872233

conv_block_2.0.running_var f4 [2]
00000000: 3b84 743d 5ce4 3f3d
0.059696417 0.04684864

conv_block_2.2.weight f4 [4, 2, 3, 3]
00000000: 2992 5b3e 4947 23bd 1410 633e 6a24 7f3d
00000010: 96e7 453e 2953 02be ce53 043e 7f5b 5d3e
00000020: f26e 64bd 1ae9 193d 9bd5 dcbd dff8 ef3d
00000030: 31f8 41be 99c4 23be d7b7 c83d 9d5b 4abe
00000040: 2aaf 68bd 90ae 2fbe af5f 663d 1342 5ebe
00000050: f78a ae3d 88fa 2c3e f04b 113e 9f5e 8cbd
00000060: 067d 653d 86a1 dd3c eff0 00be 0e65 113e
00000070: 84a7 5abd 8dbb 443e ffcd 663c 0c1d b6bd
00000080: 75cd 563e 6610 39be 1ccd be3d db6a 03be
00000090: 9ada 63be f67e 863d 4580 163e e6f9 2bbd
000000a0: 2163 9fbd 74bd 1d3e dbcb eb3b 08e7 1fbe
000000b0: ad3f 33be 049d 4b3e eb3c 383e 1d4d 1dbe
000000c0: 7e9d 3c3e ca5d 303e 7653 2ebe 0a89 e0bd
000000d0: 27da 89bd 8855 833d 8eaa 31be 7d96 50be
000000e0: 4cea 9b3b e207 683e 9a30 403d 52c2 d6bd
000000f0: adaf 33be 10f4 4e3d 06e6 ad3d c44b 303e
00000100: f0b9 3a3e 336d c73d 0231 49be ab8e 513e
00000110: 727e 753d 491c e8bc 2a1b 5cbe 3216 1ebe
0.21442474 -0.039862905 0.22174102 0.062290587 0.19326624 -0.12727036 0.12922594 0.21616934
-0.05576987 0.03757582 -0.107829295 0.1171739 -0.18942334 -0.15992965 0.0980069 -0.1976151
-0.056807674 -0.17156434 0.056243595 -0.21704893 0.08522599 0.16892445 0.14189124 -0.06853985
0.056027435 0.02705456 -0.12591909 0.14198706 -0.05338241 0.1921217 0.014087199 -0.08892259
0.20976813 -0.18072662 0.09316465 -0.12833731 -0.22251359 0.065671846 0.14697368 -0.04198637
-0.07782579 0.15404302 0.0071959323 -0.15615475 -0.17504759 0.19884115 0.17991988 -0.15361448
0.18419454 0.17223278 -0.17024025 -0.10963638 -0.067310624 0.06412798 -0.17350218 -0.20369907
0.004758155 0.22659257 0.04692135 -0.104862824 -0.17547484 0.050525725 0.08491139 0.17216402
0.18234992 0.09737625 -0.19647601 0.2046458 0.05993504 -0.0283338 -0.21494737 -0.15438154

conv_block_2.2.bias f4 [4]
00000000: 6103 5f3e 249a 673e e7db 62be 77f0 3f3e
0.21778633 0.22617394 -0.22154199 0.18744074

conv_block_2.3.weight f4 [4]
00000000: c5a5 7f3f de08 803f f324 803f 9bf9 7f3f
0.9986232 1.0002706 1.0011276 0.9999024

conv_block_2.3.bias f4 [4]
00000000: 3312 bfba 84eb 4aba 582f 97ba beed 99ba
-0.0014577567 -0.0007740783 -0.0011534495 -0.0011743826

conv_block_2.3.running_mean f4 [4]
00000000: d311 5a3e d80f a73e 70f5 44be 57c0 223e
0.21295862 0.32629275 -0.19234252 0.15893684

conv_block_2.3.running_var f4 [4]
00000000: d03e 333e 56fd a13d 019d eb3d f719 dc3d
0.1750443 0.07909648 0.115045555 0.1074714

conv_block_2.5.weight f4 [4, 4, 3, 3]
00000000: 9d0d 1abe 384d 433d 9152 203e f55e 523d
00000010: 790f 1cbe ce22 cabd 5929 ac3d 6dcd d8bd
00000020: 6503 f1bc f049 17be 2249 923d c397 0dbd
00000030: 0f88 14bd 6a06 f63d 6ae0 d23d c163 733d
00000040: dc3d 6ebc 98ef d7bd 7c5e c43d cef3 ab3d
00000050: 17d5 ec3d dbf8 523d 464b 80bd d18b 223e
00000060: 9c0b 163e 04b0 2b3d 61bc 8f3d 930e 23be
00000070: 4c6a 073e 1473 f53d 633e a1bd cebb bc3c
00000080: 9adc 83bd 5d1d 203e caf1 613d d12b d5bd
00000090: a08d 1abe eef5 b73d d7f4 f53d 839b d7bd
000000a0: 576e a13d 0f0a cebc 9038 b03c b8cd c53d
000000b0: 7432 033e 476d f8bd 796e 48bd 7e8d bc3d
000000c0: 3135 933d fbe3 8e3d 9467 85bd 9a85 e03d
000000d0: 7279 353d 4f83 a5bd 0e4a 05be fcea 4ebc
000000e0: 61b7 a43d 6dd0 8ebd 5b36 943d 02c2 34bd
000000f0: a950 4d39 f3a0 54bd e680 a6bd 0348 c2bd
00000100: 4ed9 9b3b d6ee adbc 04d6 1e3e 976b 2b3e
00000110: 7cd0 4c3c ab69 dc3d c938 a8bd 434f b8bd
00000120: d5eb 563d 9d17 5cbd f88b 9bbd 2253 a13c
00000130: 5a17 023c 743a da3d 4075 f9bd 7313 43bd
00000140: d8df 96bb bef0 9d3d bede 02be ca5b 583d
00000150: 1fa1 68bd a696 df3d 9646 9abd efd1 143e
00000160: a35f 173e f459 ab3d 3c9d 27be c3b6 ac3d
00000170: 03ae dabd 352c 223e 9e3c ee3c 9f2c c43d
00000180: c1b0 86bd 1e85 aebd 91de c63d 4e1d 1fbe
00000190: 3613 ab3d 987d a63d 1d12 6cba 3ce3 44bd
000001a0: 87ef 08bc 20aa 033e 1009 d8bd 0c80 f63d
000001b0: 00ea 583d 1690 7ebc cd15 803d 68f5 f53d
000001c0: f304 46bd 4898 a83d ba6c cd3c f9c4 583c
000001d0: a46c d3bc a898 00bc bcbd 1abe ac3f 14be
000001e0: 5fe3 4a3d 9c65 13be 17ed b3bd 6434 debd
000001f0: d6ad 0fbe 1b70 163d 6e29 ae3c c470 d73d
00000200: d081 203e 0133 ed3d c6c8 d33d 8d4a 9d3c
00000210: 2c57 15be 7311 293c 550a 8bbd 81f4 1abd
00000220: d38a fdbd ed14 a2bd 81ce be3d c674 d2bd
00000230: 74ce 1fbe 211b 0abe 6f8f f6bd 25e1 fabc
-0.15044256 0.047681063 0.15656497 0.05136009 -0.15240277 -0.0986992 0.08406324 -0.10586057
-0.029420564 -0.14774299 0.07142855 -0.03456856 -0.036262568 0.12012942 0.1029671 0.059421305
-0.014541116 -0.10543746 0.09588334 0.083961114 0.11564081 0.05150686 -0.06264357 0.15873648
0.14652866 0.04191591 0.07018352 -0.15923528 0.13224143 0.1198484 -0.078732274 0.023038771
-0.06438561 0.15636201 0.05516223 -0.10408748 -0.15093088 0.08982454 0.1200959 -0.105277084
0.07882374 -0.02515128 0.021511346 0.09658378 0.12812215 -0.12130218 -0.04893348 0.09206675
0.0718788 0.069770776 -0.065138966 0.109629825 0.044305272 -0.08081686 -0.13016531 -0.012629267
0.08042789 -0.06973348 0.0723693 -0.044130333 0.00019580372 -0.051911306 -0.08130054 -0.094863914
0.0047561293 -0.02123205 0.15511328 0.16740261 0.012500878 0.10762342 -0.08213956 -0.08999493
0.052471 -0.053733457 -0.07595056 0.019692961 0.007940138 0.1065568 -0.12180567 -0.04762597
-0.004604321 0.077119336 -0.12780282 0.052821912 -0.056794282 0.10917406 -0.075329944 0.14533208
0.14782576 0.083667666 -0.16368574 0.084332965 -0.10677721 0.15837176 0.029081639 0.09578823
-0.06576682 -0.08521484 0.0971042 -0.15538523 0.083532736 0.08129424 -0.00090053846 -0.04806827
-0.008357889 0.12857866 -0.105486035 0.12036142 0.052957535 -0.015537282 0.06254158 0.12009698
-0.048344564 0.0823217 0.025076259 0.013230556 -0.02580864 -0.007848896 -0.1511144 -0.14477414
0.049533244 -0.1439423 -0.08785456 -0.108498365 -0.14031157 0.036728006 0.02125999 0.10519555
0.1567452 0.11581994 0.10341029 0.019200588 -0.14584035 0.010319102 -0.0678908 -0.037830833
-0.12379994 -0.079141475 0.09316731 -0.10276179 -0.156061 -0.13486911 -0.120390765 -0.030624935

conv_block_2.5.bias f4 [4]
00000000: 94db 443d 953e 233e 01e0 8abb b9e9 17bd
0.04806097 0.15941842 -0.004238129 -0.03708813

conv_block_3.0.weight f4 [4]
00000000: d419 803f 87e8 7f3f fce6 7f3f 4cfe 7f3f
1.0007882 0.99964184 0.9996183 0.999974

conv_block_3.0.bias f4 [4]
00000000: 7311 eeb9 9fd9 67ba 271b 83b9 bf1b bf39
-0.00045407898 -0.0008844379 -0.00025006497 0.0003645103

conv_block_3.0.running_mean f4 [4]
00000000: 09a0 dc3e 2622 d13e a531 9e3e 799a 6ebd
0.43090847 0.40846366 0.3089725 -0.058252785

conv_block_3.0.running_var f4 [4]
00000000: e31e 923e f7cc 913d 445a 493e 0e16 c93d
0.2853919 0.07119172 0.1966334 0.0981866

conv_block_3.2.weight f4 [8, 4, 3, 3]
00000000: 5bc8 08be 5d76 3cbc ff94 a93d 7b56 4abd
00000010: f0a8 7d3d 56da 26be ad1a ce3d 9643 6b3d
00000020: de41 0ebe d0b3 c6bd d0ca 57bc 4ae1 0e3e
00000030: a376 b0bd a9dc 0bbe e005 8b3d a224 fdbb
00000040: 1477 c03d 7acd 89bb f5b5 fdbd b6bb 923d
00000050: b0c8 24be 9357 a0bd 716c 0ebd 6c5a 063e
00000060: bb9c f7bd 448c 92bd 09f9 10be e7fe 663b
00000070: b5d6 26be 0cb8 483d 4154 66bd 7ef2 06be
00000080: 41dc d2bd d923 0abe 752b 8c3d 5b22 5dbd
00000090: 6e9f f63d e7b0 f0bb a26c af3d ec17 bebc
000000a0: ee95 8bbb 8e5c be3d 9a0f 9cbd 311c 823a
000000b0: c903 c5bd 58d0 133e d947 bfbc ff5b 85bd
000000c0: 6829 1fbe a672 fbbd ed20 a0bc dbc5 0ebe
000000d0: daed c23d 5880 b93d 188b 973d dc8b 203e
000000e0: d62e 0ebe a3ef a23d 537a 9e3d f5eb 003e
000000f0: cf78 4fbd 2314 683d 386c 23be 9980 0a3e
00000100: 05db 57bd 9eb8 29be 4391 9b3d 5c4c 913c
00000110: fc33 7c3d d18a fb3d 1b64 65bd 6411 fd3d
00000120: b096 f8bd 2deb f83d 8b15 95bb 8165 8d3d
00000130: baa4 be3d f1b0 6a3d 2029 843c 8195 f73c
00000140: 3a21 213e 1791 0e3e 1da4 d5bd c6d7 fa3d
00000150: 9687 04be 90ae febd 85d4 103d a039 2c3c
00000160: c31c 023e 8b72 c83d 70a9 173e f52b 11bb
00000170: 3eb3 95bd e6e3 0cbe 31a1 89bc eabf 36bc
00000180: ab75 07be 1d03 f23d 3fdc 40bd 4709 0d3e
00000190: 8c98 5b3d 5338 53bd 4322 51bb 5a94 12be
000001a0: f5b3 803d b974 52bc ccf3 0fbe 9d53 fdbd
000001b0: 0a72 43bd 33f7 113e 19e1 e7bc 9c66 033d
000001c0: 7ee9 813c 93a0 bbbd 1b97 f4bd 995c 5f3d
000001d0: 2d6f 87bd d7f4 06be 9007 0abe 3254 fcbd
000001e0: 4c28 46bd 132e 05be 7895 133e 43ca 193e
000001f0: 03ba c43c df71 e0bc 7784 cf3d 8dc8 b0bd
00000200: 6ceb 1e3e 6453 873c cea3 273e a488 acbd
00000210: 3266 803d 1a3b 16be f029 d63d 0dcc 153e
00000220: 271b 09be 9c04 8ebd 6019 f93d 3272 afbd
00000230: 2977 c53d 7bbf a83d 6627 dcbd 4994 9dbd
00000240: 34bf 063e 03e3 00be 3a2f 1c3e 9b51 e53d
00000250: 8b98 3e3d 132e 143c cf01 93bc a202 213d
00000260: 286a bf3d cbc9 85bd 1ffb ba3b 187c cb3d
00000270: 6068 8bbd 6e7b 23be b71c 8b3d c596 3d3d
00000280: 0a24 6fbd e357 f4bc 1335 15bd 0076 5cbc
00000290: a67a ae3d e549 27be a374 363c 88e0 30bd
000002a0: 3e4f 0bbd f5ac bfbd 37f5 04be 8871 0a3e
000002b0: 01f4 82bd e8c5 07be 5bd7 243e cabf 24bd
000002c0: 8cdb 103e a7b9 213e 688f a0bd a78a 0e3d
000002d0: e415 293e ffa4 8ebd a8b6 f63d c1ce b5bd
000002e0: e1f2 ac3d c9c6 26be 518a f3bd 005f 8dbc
000002f0: c336 22be 4b05 a03b bc9b a4bd 3e70 d13d
00000300: fe38 483d 566b 363d e613 61bd 42a1 e83d
00000310: f667 15bd 7027 033e c9e5 e6bd fef9 e1bd
00000320: 6cfd 17be a94b c4bb e287 0e3e c90e 81bd
00000330: fbcd 76bc bbe6 1b3e aa86 8f3d 5fb7 2a3e
00000340: c56d 2fbd 5dbf 073d afe7 b33d 4a9f 1e3e
00000350: 2394 4a3d ac0f 28be 70e8 d4bd 9a2d d1bd
00000360: 2d8f f5bc 896d e9bd 22ca f53d 6367 143e
00000370: 58b4 3f3d a94a eb3d bc30 a23d b57e 223e
00000380: 9df9 8bbd 09a6 14be 2b37 003e e6fa 0b3e
00000390: c554 033e 422d 803d 03e0 2abd d15d 85bc
000003a0: 479c 063e 6bf9 aa3d 6b90 283e 318c 1bbe
000003b0: 425b 06be 5675 8ebd 90c3 043e f624 58bd
000003c0: 6eae 86bd adce 6d3c 0b3f a23d 3839 febd
000003d0: f715 093e 60ea 163e 6c69 20be a39a 48bb
000003e0: 186e d3bd 8972 033e 5192 15be 2d07 e0bd
000003f0: 740c 6c3d 5151 3abd 4717 a8bd acaf abbc
-0.1335768 -0.011502829 0.08280372 -0.04939888 0.06192869 -0.16294226 0.10063682 0.0574375
-0.13892314 -0.09702265 -0.013170913 0.13953128 -0.08616378 -0.13658394 0.0678823 -0.0077253142
0.09397712 -0.004205403 -0.12388221 0.07164709 -0.16092181 -0.078292035 -0.034771387 0.1312043
-0.12090441 -0.0715566 -0.141575 0.0035247148 -0.16292842 0.049003646 -0.056232695 -0.13178441
-0.10295916 -0.13490237 0.06844226 -0.053987842 0.120421275 -0.007345307 0.08565642 -0.023204766
-0.0042598164 0.09294997 -0.07620163 0.0009926615 -0.096198626 0.14434946 -0.02334969 -0.065116875
-0.15543139 -0.12277727 -0.01954695 -0.13942663 0.09518023 0.09057683 0.07399577 0.15678352
-0.13885054 0.07955863 0.07738175 0.1259001 -0.05065232 0.05665983 -0.15959251 0.13525619
-0.052699108 -0.16574332 0.07596066 0.017736606 0.061573014 0.122823365 -0.05600367 0.123568326
-0.12138116 0.12154231 -0.0045496873 0.06904126 0.09308763 0.05729765 0.016132891 0.030222656
0.15735331 0.13922535 -0.10431693 0.12248187 -0.12942347 -0.12435639 0.035358924 0.010511786
0.12706284 0.09787472 0.14810729 -0.0022151445 -0.07309578 -0.13758811 -0.016800495 -0.011154154
-0.1322848 0.11817 -0.047085043 0.1377307 0.053612277 -0.051567387 -0.003191129 -0.14314404
0.06284324 -0.012845212 -0.14057845 -0.123694636 -0.047716178 0.14254455 -0.028305577 0.032080278
0.015858408 -0.091614865 -0.119428836 0.054531667 -0.06613002 -0.13179336 -0.13479447 -0.123207465
-0.048378274 -0.13005857 0.14412487 0.15018563 0.024014479 -0.027398048 0.101326875 -0.08632002
0.15519494 0.016519256 0.1637108 -0.084245 0.06269492 -0.14670983 0.10457218 0.1462862
-0.13389264 -0.06934473 0.12163043 -0.08566703 0.096418686 0.08239647 -0.10749702 -0.07694299
0.13158876 -0.12586598 0.1525239 0.11197206 0.046532195 0.009044188 -0.017945198 0.03930915
0.093464196 -0.065326296 0.0057062055 0.099357784 -0.06807017 -0.15965053 0.06792586 0.046286363
-0.05838398 -0.029827064 -0.03642757 -0.013455868 0.08519487 -0.16336782 0.011136207 -0.04318288
-0.034011118 -0.09359161 -0.12984167 0.13519871 -0.06394196 -0.13259089 0.16097777 -0.040221967
0.1414625 0.15793477 -0.078398526 0.034800198 0.16512257 -0.06965064 0.12046558 -0.08877326
0.08444763 -0.16286768 -0.11891616 -0.017257214 -0.15841202 0.0048834435 -0.080375165 0.102264866
0.048882477 0.044535957 -0.054950617 0.113588825 -0.036476098 0.12808013 -0.11274297 -0.1103401
-0.14842767 -0.0059904647 0.13919023 -0.06301648 -0.015063758 0.15224735 0.07008107 0.16671513
-0.042829294 0.033141483 0.087844245 0.15490451 0.04945768 -0.16412228 -0.103958964 -0.10213776
-0.029975498 -0.11397845 0.120014444 0.14492564 0.04680285 0.1148885 0.079194516 0.15868647
-0.06834719 -0.14516462 0.12521045 0.13669929 0.12825306 0.06258632 -0.04171754 -0.016280087
0.13145553 0.08348354 0.16461341 -0.15190198 -0.1312075 -0.06955974 0.12965226 -0.052769624
-0.065762386 0.014514607 0.07922181 -0.12413257 0.13387285 0.14737844 -0.15665215 -0.0030609749
-0.10323733 0.1283666 -0.14606597 -0.10938869 0.057629064 -0.045487706 -0.08207565 -0.02095779

conv_block_3.2.bias f4 [8]
00000000: 1e24 1ebd 77da 9abd 18f6 45bc 2835 9bbb
00000010: 51d3 14bd 9ba3 b9bd f04b abbd 58df cbbc
-0.038608663 -0.075612 -0.012082599 -0.0047365613 -0.03633434 -0.090644084 -0.08364093 -0.024886772

conv_block_3.3.weight f4 [8]
00000000: 29ad 7f3f fa12 803f 3241 803f 53ed 7f3f
00000010: 47d4 7f3f 070b 803f 8b90 7f3f e9f7 7f3f
0.99873596 1.0005791 1.0019896 0.99971503 0.99933285 1.0003365 0.9982993 0.99987656

conv_block_3.3.bias f4 [8]
00000000: 89fa e0ba 6452 96b9 dcac 9c3a 8973 5e39
00000010: b28b 9eba 44c9 333a 5951 f7ba 8465 2fba
-0.0017164509 -0.00028671615 0.0011953372 0.0002121461 -0.0012096076 0.0006858299 -0.0018868848 -0.0006690847

conv_block_3.3.running_mean f4 [8]
00000000: 8b5a f3be 968b 623d 69e1 8e3d 5ca7 35bd
00000010: b1c3 903c 5060 c0bd fb02 0c3e 4631 b4bd
-0.47530016 0.0553089 0.06976587 -0.04434906 0.017671438 -0.0939337 0.13673012 -0.08798461

conv_block_3.3.running_var f4 [8]
00000000: fc12 6c3e ac03 fd3d 2a17 1b3e 019c c23d
00000010: cf03 e03d 3bdc da3d 61f0 813e d349 2f3e
0.23054117 0.12354216 0.15145555 0.09502412 0.109382264 0.10686537 0.25378707 0.17118005

conv_block_3.5.weight f4 [8, 8, 3, 3]
00000000: facb b1bc 5aeb 353d ee7c eebc bb91 bb3c
00000010: 1395 de3d 2bd6 63bd 7454 823d 49b5 3b3b
00000020: fc87 153d 0033 23bd bc8a 80bd acf5 67bd
00000030: 7801 e4bd ada5 413d 2f24 8cbd a7f0 2e3b
00000040: 93ac f23d 5584 ba3d 392c 43bc 3eff ad3c
00000050: f083 86bc fd26 bfbc 575c 493d e3ad e03d
00000060: 005c 1b3b 9df5 7f3d d3ab e83d ec3c aabd
00000070: e40b a0bd 12a5 413d f3b6 a73c 30cb 84bd
00000080: da97 8f3c 81a3 933c bfaf b33b fb42 ebbd
00000090: c5f6 6dbd c7d2 e3bb 7c7a 1bbb fc65 a13c
000000a0: 91f4 a33d a560 b0bd d35b 8abd 8036 833c
000000b0: 1d18 e7bd 0acd e03d 4a14 c83d c15a 78bd
000000c0: 5e01 abbd 353c 8cbd a89e 15bd 9a97 23bc
000000d0: 9c51 bfbd 9a8a 95bd b402 353d f759 8d3d
000000e0: 2c2e a8bd df2d fb3a 5a56 2f3c 01ea 6ebd
000000f0: cc03 dbbd 74ff 78bd dad7 b9bd b7d9 24bd
00000100: 54e6 b5bd 06a5 fa3c f44e 0e3d 2737 f33d
00000110: 0895 a9bd 34e8 b0bc 0aa6 673d 89d2 83bd
00000120: ebba d5bd a2b3 a3bd 9856 64bd 24e9 ae3d
00000130: 8f0b cabc 4a39 9ebd fd0c a4bd 0fdd 66bd
00000140: 61dc b13d d3dd 933d 7d72 543d b248 683c
00000150: 8782 d1bd 43eb da3d f4ad a4bd 3d5c a7bd
00000160: 0aff d8bd 9fec 783d 5558 193c 670e d53d
00000170: 026e 7cbd c1ea 013c 2686 a13d b881 eebd
00000180: 44dd 5d3c d7e8 bf3d 724b 84bb 8142 fa3c
00000190: c4a8 10bd 192b 2bbc 0d0b 53bd 6459 ed3d
000001a0: 9e90 7a3d 29a4 c7bd f5af 1dbd 5cc3 0b3d
000001b0: 76ce ccbb ff59 0cbd 97a4 a53d c6a2 ef3d
000001c0: 39c7 9d3d 9e2a 7fbb 6bdc a53d 46e3 313c
000001d0: ba6a c13d b311 8d3d d68e 373d dfa2 e43c
000001e0: d603 efbd b024 9cbc a752 b53c 2305 dd3c
000001f0: 701b e03d 61b3 253d e7e4 b5bc d40b a73c
00000200: 31fa 0cbb 77e1 cf3c fd8a 0c3d 538e e9bd
00000210: bf29 1b3d 5447 81bd aae5 263d 9ad2 d53d
00000220: 57e4 d3bd aa06 0cbd bffa bebd 2166 6b3d
00000230: 4521 4dbc f75d 963d c89c af3d e52c c0bd
00000240: 8a3c 08bd d574 26bd 2d35 c8bc 04cb ac3d
00000250: 37bb 133d 7503 1dbd 6736 1f3d 6c64 a4bd
00000260: 20b8 e63d b571 ec3d cfed 67bd dcd7 7a3d
00000270: 6614 afbd 73b7 14bb 47f6 d83d feb6 8dbc
00000280: 4e6d babd 006e 6c3d 8674 903d 10b5 a2bd
00000290: 7872 92bd 188c 793d 4b88 2a3d 5eb1 18bd
000002a0: 99e5 9c3d 8a44 893d 85c7 dfbd 2902 1cbd
000002b0: 0c1c aabd 8e6c 3dbc 2259 e9bd 1190 dd3d
000002c0: bb3d 7a3c bd92 55ba ef82 12bd f918 c13d
000002d0: f420 95bb 94fa d63d 972b da3d a2f8 433d
000002e0: 60bb 673d 8bd1 3d3d 30b6 a93d 7c15 683d
000002f0: 6a4c 4d3d 62f4 81bd 650a 0dbd 750b 9f3d
00000300: 3cd8 5d3d 530c 653d d40a ad3d a09b 783d
00000310: 6891 dbbd 3c83 413d f8aa 853c 1c63 83bc
00000320: 669f e9bd 612e 613d 5f66 bdbd 241a a7bd
00000330: b370 d53d 29b2 543b 25ba 86bd 2fa4 e0bd
00000340: a6ec a13d a064 ef3c 1655 e03c adf6 823d
00000350: 6fe8 373d 26c9 b6bd 2179 4fbd b637 d7bc
00000360: 408f b0bc 4bd7 ab3d 6111 843a 4b99 573d
00000370: 70e6 31bd e7b2 06bd ad76 f23b 11c5 073d
00000380: aee1 05bd 0486 9c3c 638f bbbd 89a3 b4bd
00000390: 00a7 10bd 48a5 f9bc ad66 b4bc e9fc dcbd
000003a0: 31fe aa3d 9f58 f23d b481 ec3d af77 413c
000003b0: 14ac 20bc c4a9 953d abfc 803d 939b 713d
000003c0: 52f9 c1bd 66f2 963c eebb c3bd 15de 9bbd
000003d0: 9507 ed3d 31cd 253d 3246 e03d 6ca6 7fbd
000003e0: ab6e 0b3d 0b6c 4ebd abb8 8e3d 316f 5bbc
000003f0: f2ba 3b3c d1b4 11bd ddd1 d33d 032b 5c3d
-0.021703709 0.044413902 -0.029112305 0.022896638 0.108682774 -0.05562417 0.063637644 0.002864199
0.036506638 -0.03984356 -0.062764615 -0.056630775 -0.11133093 0.04727714 -0.06842839 0.0026693733
0.11849322 0.091072716 -0.011912399 0.021239873 -0.016420335 -0.02333402 0.049160328 0.10970666
0.002370596 0.062490094 0.11360898 -0.08312401 -0.07814768 0.047276564 0.02047298 -0.064840674
0.017528463 0.0180223 0.005483597 -0.11487385 -0.058096666 -0.006952617 -0.002372413 0.01970195
0.08005632 -0.086121835 -0.06755795 0.016017199 -0.11283896 0.10976608 0.09769495 -0.060633425
-0.0834987 -0.06847421 -0.03652826 -0.009984875 -0.09341738 -0.07301827 0.04419203 0.06901925
-0.082119316 0.0019163451 0.01070174 -0.058328632 -0.106940836 -0.060790494 -0.090743735 -0.04024669
-0.08881822 0.030596267 0.034743264 0.11875754 -0.082803786 -0.021595098 0.05655483 -0.06436641
-0.104360424 -0.079932466 -0.055746645 0.08540562 -0.024663715 -0.07725771 -0.0801029 -0.05636316
0.08684612 0.07220044 0.051866997 0.014177488 -0.10229974 0.10689404 -0.080409914 -0.0817189
-0.1059552 0.060772534 0.009359439 0.10403138 -0.06162835 0.007929505 0.07886915 -0.11645836
0.013541523 0.093705826 -0.004037314 0.03054929 -0.035317197 -0.010447287 -0.05152421 0.115893155
0.061173074 -0.09748108 -0.038497884 0.034121856 -0.006250198 -0.034265514 0.08088034 0.117009684
0.07704014 -0.0038935314 0.08098682 0.010857409 0.094441846 0.068881415 0.044813953 0.027909694
-0.116706535 -0.019060463 0.022134138 0.026979988 0.10942733 0.040454272 -0.022203876 0.020391382
-0.002151143 0.025376065 0.034312237 -0.11404099 0.03788161 -0.06312433 0.04074637 0.1044056
-0.10346287 -0.034186043 -0.0932517 0.057470445 -0.012520139 0.07342141 0.085748255 -0.09383563
-0.03326086 -0.040638763 -0.024439419 0.0843716 0.036067214 -0.038333375 0.03887024 -0.080269665
0.11265588 0.115451254 -0.056623276 0.061241016 -0.085488126 -0.0022692352 0.10593849 -0.017299172
-0.091028795 0.05772209 0.07053475 -0.07944691 -0.071507394 0.06092462 0.041633885 -0.037278526
0.0766098 0.06702526 -0.10926727 -0.038087998 -0.08306131 -0.011561526 -0.11393954 0.10818494
0.015273507 -0.0008147171 -0.0357694 0.09428591 -0.0045510475 0.10497013 0.10652845 0.047844537
0.05657518 0.046342414 0.08286703 0.056661114 0.050121702 -0.063454404 -0.03443374 0.07765857
0.054161295 0.055919956 0.08449331 0.06069529 -0.107210934 0.047244295 0.016316876 -0.01603847
-0.11407356 0.05497587 -0.09248041 -0.08159283 0.10421886 0.0032454825 -0.06578473 -0.109688155
0.07906465 0.029222786 0.027384322 0.06394706 0.0448994 -0.08925085 -0.050652627 -0.026271682
-0.021552682 0.08390673 0.001007598 0.052636426 -0.043432653 -0.03288546 0.007399401 0.03314692
-0.032685928 0.019106872 -0.09158208 -0.08820254 -0.035315514 -0.03047432 -0.022021616 -0.10790426
0.083492644 0.118333094 0.115481764 0.01180832 -0.009806652 0.07307771 0.062981926 0.058986258
-0.09471382 0.018426131 -0.09557329 -0.07610718 0.11573712 0.04047889 0.10950889 -0.06241457
0.034041088 -0.050396007 0.06968816 -0.013393209 0.011458145 -0.03557283 0.103427626 0.053751957

conv_block_3.5.bias f4 [8]
00000000: e041 013c 56d4 22bd 3b11 ccbb 11a9 d33d
00000010: bf57 d03d 01ec 4638 ba7f 5bbd 5122 a63d
0.007889241 -0.03975328 -0.00622764 0.10334981 0.10172986 4.7426674e-05 -0.053588606 0.08112014

conv_block_4.0.weight f4 [8]
00000000: d92b 803f a807 803f 26de 7f3f c1f6 7f3f
00000010: 8c19 803f fdf2 7f3f 64c3 7f3f 8007 803f
1.0013381 1.0002337 0.99948347 0.9998589 1.0007796 0.99980146 0.9990752 1.0002289

conv_block_4.0.bias f4 [8]
00000000: e07b 7e3a 2dc4 9339 44e2 e6b9 d185 8bb9
00000010: 1b04 15ba 311d ceb9 db03 48ba dfb1 8139
0.000970779 0.00028184187 -0.000440376 -0.00026611847 -0.00056845107 -0.0003931313 -0.0007629969 0.00024737322

conv_block_4.0.running_mean f4 [8]
00000000: 19e1 033c 6220 833e 6342 bb3e d5be 263e
00000010: 17eb a43e 0669 973e b1ae 243e 885d 9d3d
0.008049273 0.25610644 0.36574087 0.16283734 0.3221061 0.29572314 0.16082264 0.07683855

conv_block_4.0.running_var f4 [8]
00000000: 1a7c 213d fe30 c23d c804 703d 47de 5e3d
00000010: 265d d63d 7d75 a63d 01b8 a33e c27e d53d
0.039424993 0.09482001 0.05859831 0.0544112 0.104669854 0.08127878 0.3197632 0.10424568

conv_block_4.2.weight f4 [16, 8, 3, 3]
00000000: d2da de3d ab74 293d 9f1f b13d 804a dc3d
00000010: 8f98 9dbd 4185 f2bc f7a6 2a3d 8b3c abba
00000020: 2e41 8b3d e1ee 903d 7c07 273c 68d4 fbbb
00000030: 0598 9dbc bc2b 6d3d 07f4 793c 9b5f c83d
00000040: 9442 e63d 4c80 d9bd 4619 c63d 4e6d be3d
00000050: 6cb1 73bd 1b7a 533b 2bae 06bd 3ec4 9fbd
00000060: 6268 c4bc 8781 8cbd d7e6 cfbc dfb1 4c3d
00000070: a909 b5bc b1f7 87bc 0907 ecbd 11a5 8c3b
00000080: a373 6fbc e891 1ebd 5a7e aebd 72e9 ac3d
00000090: 42b9 993d bb82 1c3d 6ec6 c3bd 25dc ba3d
000000a0: 4ead 883b 4f51 cfbd 971b 1f3c 2571 b23d
000000b0: e445 4bbd 3161 303c a932 2abc 8f05 bcbd
000000c0: 7c1d 063d da88 a1bd 6113 ea3d e940 083d
000000d0: 0e8a 9cbd d161 95bd 79f3 99bc fa7f 613c
000000e0: 8021 dd3c a0fc 023d 20b3 cd3d 4fe7 cebd
000000f0: ae58 0b3d 9a72 853d ab70 c6bd 0700 c3bd
00000100: 0a28 88bd af99 b6bc 1fbe 5dbd 4175 f939
00000110: 545f dabc 80c1 5e3c d03f c23b 7925 873d
00000120: c24a 943d b9fe ef3d 5f40 cd3d 98ad d03d
00000130: 8d93 ed3c f968 9dbd 2b9d c23d 1cd7 eb3d
00000140: d56b f3bd 7631 e6bd 520e 593d db32 85bd
00000150: 5f90 8e3d 827e 8f3d d5e1 c9bd 893e d5bd
00000160: b39a 4e3c 4f9e a73d 01f8 e8bd 9627 90bd
00000170: 3315 a4bd a4d7 e13c d9c0 453d 6dd9 c3bd
00000180: 7492 8abd 88ef 053d 7335 14bd ed3d 813d
00000190: 0778 b8bd 027b 12bc 01cd e43d d90c 43bc
000001a0: aff2 02bd 3728 d9bd 6484 b63d bde0 7abd
000001b0: 0db7 bb3d 7694 1fbc b522 edbd db97 833c
000001c0: 01a3 8cbc 93bc f1bc 548c 29bd efb8 2e3d
000001d0: e4f4 cb3d 18d5 ebbd de49 b53d 13f0 b7bd
000001e0: ee43 57bd 4cd1 573d 0670 9a3d 25aa ac3d
000001f0: c869 44bd 0ab6 e8bd fa65 a0bc 162c 373d
00000200: c5c3 6cbd a4e7 79bc e0aa 8c3d cfc4 213d
00000210: ab13 47bd 1a62 333d 7fa3 783b 9aab 48bd
00000220: 6c9a 3cbc dd1d 0f3d feac bfbd 7f0d 23bd
00000230: 0c3f 39bb 1a79 b03c ba7e a03d fc78 dbbd
00000240: 8ef5 ae3d 307c 93bc 273c ce3d a0c9 91bd
00000250: ff91 bb3d 414e cd3c 770c acbd 7c80 c43d
00000260: e9f8 7cbd a9dd 3fbd a833 d0bd e42f 9bbd
00000270: 3cf3 c6bd e78f 973c 6b70 b73b 2c88 abbc
00000280: 7b24 bfbd 4ab3 9d3d 963b 153d 643a a63c
00000290: 5da2 9b3d bf67 a73d bcf1 363d 652b e73d
000002a0: c782 cdbd 8496 dbbd dccd 66bc 34db babd
000002b0: c4a9 babd 9f7f 63bc 07b0 b43b 28c5 91bd
000002c0: f718 f43c 3e22 d1bd 2fcb b2bd 1a56 e8bd
000002d0: 6d0a ec3d d5cc e1bd 0c48 b43d 50f1 59bd
000002e0: 607a d33d 1c3c 643d 6840 3e3d e0cc c1bc
000002f0: 400d 4dbd 7168 e03d 9214 d43d e9da e9bd
00000300: d16a cd3d 2de7 d8bd f0ea cfbd 0d8e 50bd
00000310: b7d0 9abd 23b8 bb3d 1cd4 f7bc cf24 7fbc
00000320: 5598 ef3d c144 dd3d f509 aebd 84bf 40bd
00000330: 810c dbba 6875 adbd 273c b4bd 453a d33d
00000340: 716b b63d 2c99 823d 6917 a0bd d69e 423d
00000350: 2aaa 43bd 0d75 92bd 6dc8 ec3d c657 a53d
00000360: b808 ddbc ec49 12bc 118d 6bbd a540 873d
00000370: 0de0 9c3c d515 4e3d cdd7 acbd 767e 8b3d
00000380: bb1b 5b3d 50c6 3c3d 4516 a7bd 02a1 553d
00000390: 5412 a93d 1dc8 7a3c d7c4 ecbd 0d32 e23d
000003a0: 3f84 d6bd 4a8e 923d 5274 d3bc 3384 0d3c
000003b0: 0929 2b3d f526 af3d 1f7f d6bd 627b 7d3d
000003c0: a422 063d e355 b3bc 0b29 a93d 92a0 bebc
000003d0: 05b9 dc3d 3f8d e6bd 26c2 9abb 0402 22bc
000003e0: 0bad 1abd c86a 35bc f8aa 6bbb 9fbc 68bd
000003f0: 375b aabd 337f 2bbd 0e7d 853d 813b 35bd
0.108815804 0.04137103 0.08648609 0.10756397 -0.07695114 -0.029604556 0.041663136 -0.0013064308
0.067995414 0.070768125 0.0101946555 -0.007685233 -0.019237528 0.057903036 0.015255935 0.0978386
0.112431675 -0.10620174 0.09672789 0.09298192 -0.059495375 0.0032268825 -0.032880943 -0.07801102
-0.023975555 -0.06860643 -0.025378628 0.04997432 -0.022099333 -0.0165976 -0.11524779 0.0042921384
-0.014614972 -0.038713366 -0.085201934 0.08442964 0.07506038 0.03821061 -0.09559332 0.091240205
0.00417105 -0.1012293 0.009711168 0.08712987 -0.0496272 0.01076536 -0.010388055 -0.09180748
0.032742962 -0.078874305 0.114294775 0.03326503 -0.07643519 -0.072940476 -0.018792855 0.013763422
0.026993513 0.031979203 0.10043931 -0.10102712 0.03402012 0.06515999 -0.096894585 -0.095214896
-0.06648262 -0.022290079 -0.05413639 0.00047580342 -0.026656784 0.013595939 0.005928017 0.06598944
0.072408214 0.11718506 0.100220434 0.101893604 0.029001022 -0.076860376 0.09502634 0.11515638
-0.11885802 -0.11239903 0.052992173 -0.065038405 0.0696113 0.07006551 -0.09857527 -0.10412318
0.012610125 0.08184492 -0.11375428 -0.070388004 -0.08011856 0.027568646 0.048279617 -0.09562955
-0.06766215 0.032699138 -0.036183786 0.063106395 -0.090072684 -0.00894046 0.11171914 -0.011904919
-0.031969722 -0.106033735 0.0891197 -0.061249483 0.091657735 -0.009739986 -0.115788855 0.016063621
-0.01716757 -0.029508865 -0.041393593 0.042656835 0.099588186 -0.11515254 0.0885198 -0.089813374
-0.052555017 0.052689835 0.07540898 0.0843089 -0.047952443 -0.11362846 -0.019579876 0.044719778
-0.057803888 -0.015252981 0.06868529 0.039494332 -0.04860274 0.04379473 0.0037939248 -0.048991777
-0.011511426 0.03494059 -0.093591675 -0.039807793 -0.0028266339 0.02154212 0.07836671 -0.10716435
0.085429296 -0.018003553 0.10070067 -0.07118535 0.09158706 0.025061728 -0.08400815 0.09594819
-0.061760817 -0.04684225 -0.10166103 -0.07577494 -0.09714362 0.018501235 0.005598118 -0.020938955
-0.0933313 0.07700212 0.03643378 0.020291515 0.07599328 0.08174085 0.04466413 0.11287574
-0.100347094 -0.10722068 -0.014087167 -0.09123841 -0.091144115 -0.013885408 0.005514148 -0.07117683
0.02979706 -0.10211609 -0.087301604 -0.113445476 0.11525426 -0.11025397 0.08802804 -0.05320865
0.103260756 0.055721387 0.04644814 -0.023657262 -0.050061464 0.109574206 0.10355486 -0.11418707
0.10030139 -0.10590968 -0.10152233 -0.05091672 -0.075593404 0.09165981 -0.030252509 -0.015572741
0.11698977 0.108041294 -0.08497993 -0.047057644 -0.00167121 -0.08469659 -0.08800536 0.103138484
0.089072116 0.063768715 -0.07816965 0.04751476 -0.047769703 -0.07151232 0.11561666 0.08073382
-0.026981696 -0.008928757 -0.05750758 0.06604127 0.019149804 0.05031379 -0.08439598 0.0681123
0.053493243 0.046087563 -0.081585445 0.052155502 0.08255449 0.0153065 -0.11560982 0.11044703
-0.10474443 0.07156046 -0.025812302 0.008637476 0.04178718 0.08552352 -0.10473465 0.061885245
0.03274788 -0.02189154 0.082597815 -0.023269925 0.10777477 -0.11257409 -0.0047228513 -0.009888176
-0.037762683 -0.011072822 -0.003596006 -0.056820508 -0.08318179 -0.041869354 0.06517993 -0.0442462

conv_block_4.2.bias f4 [16]
00000000: 9bb7 86bd 438d ef3d 764b 27bd 6537 693d
00000010: 50b5 313d fc39 87bd 895d 11bc 96be 543d
00000020: a483 323c fce9 733d 2f23 b6bd 6698 9e3c
00000030: 56c0 a2bd 7599 52bd 0917 25bd 1386 593a
-0.06577989 0.116968654 -0.04084345 0.056937594 0.043385804 -0.066028565 -0.008872398 0.05193957
0.010895643 0.059549317 -0.088934295 0.019359779 -0.079468414 -0.05141588 -0.04030517 0.00082978717

conv_block_4.3.weight f4 [16]
00000000: e0f0 7f3f 94fb 7f3f 0410 803f 65ea 7f3f
00000010: c908 803f f527 803f 7702 803f 750f 803f
00000020: e7bb 7f3f a212 803f e5f4 7f3f fefc 7f3f
00000030: ba14 803f 53b9 7f3f 65b0 7f3f ec00 803f
0.9997692 0.9999325 1.0004888 0.9996703 1.0002681 1.0012194 1.0000752 1.0004717
0.9989609 1.0005686 0.99983054 0.9999541 1.0006325 0.9989216 0.9987853 1.0000281

conv_block_4.3.bias f4 [16]
00000000: ae7e 7e3a 4f18 0dba eeea 243a 1691 c7b9
00000010: ab80 efb9 45b9 2c3a 099b 4dba fbef bc38
00000020: 5b4d f3b9 ac5b be38 6579 b7b8 9795 f7b8
00000030: 585c 343a 3100 3aba aacf 02ba 7153 9339
0.0009708208 -0.00053823454 0.0006291111 -0.00038064335 -0.00045681497 0.00065888866 -0.00078432314 9.0092384e-05
-0.00046406206 9.076981e-05 -8.7487315e-05 -0.00011805741 0.00068802154 -0.00070953654 -0.0004990051 0.00028100194

conv_block_4.3.running_mean f4 [16]
00000000: f3e0 a5bc 1067 093d e5a8 e5bd 018e 37be
00000010: 9260 493c 3f50 833e 0423 b73d 9195 273e
00000020: 9d8f a8bd 733d ddbd 845d d0be 0a03 46bd
00000030: b9d5 84be 0a7a 14be bd69 44bd e6e9 b4bc
-0.020248866 0.033545554 -0.11213855 -0.17925264 0.012291091 0.2564716 0.089422256 0.16365649
-0.08230517 -0.10802736 -0.40696347 -0.048342742 -0.25944307 -0.14499679 -0.047952402 -0.022084188

conv_block_4.3.running_var f4 [16]
00000000: 9ecc 3d3e 88f6 443e e93e 223e 06dc 4e3e
00000010: 9919 1f3e 980c bd3e 4f16 de3d bdc8 023e
00000020: 9aef be3d eaae cf3d 430b 883e e37f 1e3e
00000030: 9454 e13d d163 d83d ac6d ef3d 7a73 f73d
0.18535087 0.19234669 0.15844311 0.2020112 0.15537108 0.3692367 0.10844099 0.12771888
0.09323044 0.10140784 0.26571092 0.15478472 0.1100246 0.105659135 0.1169084 0.12082572

conv_block_4.5.weight f4 [16, 16, 3, 3]
00000000: d24e a83d ba4b e0bb e4d0 31bd a31a 70bc
00000010: c6b3 1f3b fec0 fdbc 0db2 143d 41ed 97bc
00000020: 2d8c 0ebb 1d5e 15bd e300 383d 0b4c 1abd
00000030: a98c 943d 6da1 a93b 5a48 80bc a87a 30bd
00000040: aef4 843d fd55 4bbd 3734 743c 8b11 8c3d
00000050: 404b 963d 11b7 21bd 12a9 893c 7bef 893d
00000060: 07e0 bbbc 3e00 f73c d42a 2dbd b4f7 bfbc
00000070: 3bda fb3b 5d4f 86bd e60b a83c 40fe 0ebc
00000080: 4cbd 593d bf01 4fbd dbe6 c73b e594 fa3a
00000090: 210f 843c 30d2 b9ba 55e0 81bd 12ff 4e3d
000000a0: 3a1e f7b9 04a9 2bbd 05e3 2bbd caf5 a63d
000000b0: 6545 75bd 57e5 68bd 2d17 813d 009b 32bd
000000c0: d22f b43c f722 4cbd 8a69 97bd 5449 b7bc
000000d0: 739c 5d3d 9f55 313c ac46 a63d a658 6dbd
000000e0: e146 9abd eede 25bd 6408 f13c 8a3c 91bd
000000f0: 0a8c cf3c 17cf 4ebc 1a63 01bd 08a2 6c3d
00000100: f309 1c3c a2ea a43d 1d95 8ebd 1bfc 96bd
00000110: 05c2 89bc 351a 0cbc 1e50 83bd 02c9 57bd
00000120: 3a2f 41bd 86cd 4b3c ee11 a53d 4cdf 0e3d
00000130: a20d 9e3d 52b9 85bd 4488 1d3d 5253 5dbd
00000140: 5b25 143d e1b9 883d 19f0 9abc 3c7b a3bd
00000150: 1b3e 39bd 5726 ee3c 3285 703d c50f 5a3d
00000160: 0853 c43c 6d00 5e3d 1428 3ebd daef 9bbd
00000170: b603 f63c 654a dfbc 685e 88bd a6a2 1d3d
00000180: 6212 a6bd 758c 49bd c671 85bd 58f8 c0bc
00000190: 9a05 953d 811f 253b 46c1 823d 2b16 1f3d
000001a0: 5b3b b63c 1034 a0bc 5858 3abd 8d31 c63c
000001b0: 76c2 fd3c f655 bebc 00f7 903d f4e3 f0bc
000001c0: 90e0 5b36 7bb7 3fbd 5f89 743d a0be 953d
000001d0: 941d ab3a 15c6 a03d 4d02 0bbd 2e17 0dbb
000001e0: c619 8abd d3ef c63c c6b4 233d 6ca8 a23d
000001f0: 038e e7bc 9219 8a3d f0c4 103d b19e 993d
00000200: c999 98bd 5b34 503d 0eba f03c 5771 9e3d
00000210: b46d 033b 752a 86bc c757 79bd ecad edbc
00000220: 5db5 38bc e400 083d 807f 833d 6a77 58bd
00000230: cdf4 9b3d 278f bebc 5e2b 8fbc 1bd1 5d3d
00000240: f4bc 2638 1cf8 1d3d 97cd a0bd f3a9 9dbd
00000250: 93f1 1fbd 7e89 0d3d 51df 6cbd 52e1 c13c
00000260: c11f b83c 393a 9cbd 8d36 0fbc 0f63 e2bc
00000270: c256 99bd bdef 2cbb 36ca a03d ad23 583c
00000280: 563c 693d f327 9ebd 1030 a43c 219e 1f3c
00000290: ff90 69bd 5589 00bd 5982 813d 3f7a 2ebc
000002a0: 423a 283c e8c7 583d cd89 27bd b852 a6bd
000002b0: 6795 6c3c 077b 9a3d 1d94 0ebd 4bae 9dbd
000002c0: 3ea2 29bd 74c9 24bd e84d a03d e496 53bc
000002d0: 9535 19bd 0e6b 6dbd fe0f 2f3d f1b3 a23d
000002e0: d1ce 4b3d f950 7cbc 0155 093d d94d 20bd
000002f0: 861d 8abc bfbf 163d 9c3f fe3c 0296 2bbd
00000300: 676d f4bc 91d0 ea3c 4db9 4cbd ff7e 17bd
00000310: b7c6 48bd eb93 8bbc 0e15 e2bc bb5b 44bc
00000320: bdff 133d 21aa b2bc 7f82 93bd 5c6b 92bd
00000330: a48f 0ebd b6c7 f03c a153 463d 0bc4 8d3d
00000340: ede5 96bd 7b95 df3b c91c 7bbd 7312 bb3c
00000350: 01db 773c 2b81 5b3c 79a3 7b3d d9ae 18bd
00000360: 0d66 1cbd 293c 81bd c881 683d a5fd 863c
00000370: a381 e73c c09d 933c 3c8e a8bd fe42 9bbd
00000380: 24d7 8d3d 041a df3a d795 363d e7f5 703d
00000390: 26da 0d3d 382b 003d dbc2 1f3d 3a13 243d
000003a0: 2011 633d 30d1 afbc daf0 153d 53ce 4dbd
000003b0: 7778 9d3c caae f63c 5aeb 68bd 2f93 363d
000003c0: ba98 cabc 7480 73bc 5e24 a0bd 3f1b ec3b
000003d0: 3ebf 403b b482 2bbd 0a07 42bd ec99 f43c
000003e0: 14ea 3d3c 2a9a a23d a51f 8abd 04fd 1abd
000003f0: a3e2 713c 9d27 913d 3294 55bd a774 9b3c
0.08218159 -0.006844965 -0.043412104 -0.014654788 0.0024368628 -0.030975815 0.036302615 -0.018545749
-0.0021751032 -0.036466707 0.04492272 -0.037670176 0.07253391 0.005176714 -0.0156595 -0.043085724
0.064919814 -0.04964255 0.014905027 0.068392836 0.073385715 -0.039481226 0.016804252 0.067351304
-0.022933973 0.030151483 -0.042277172 -0.023433544 0.007685927 -0.06558106 0.020513486 -0.00872761
0.053159043 -0.050538775 0.006100518 0.001911786 0.016120495 -0.0014177021 -0.06341616 0.050536223
-0.00047134032 -0.041909233 -0.04196455 0.08152349 -0.059880633 -0.05685934 0.063032486 -0.04360485
0.021995459 -0.049838033 -0.07393177 -0.022373833 0.05410428 0.010823636 0.08118948 -0.05794587
-0.0753305 -0.040495805 0.029422946 -0.07091625 0.02533533 -0.012622616 -0.03158865 0.057771713
0.009523856 0.08052565 -0.06962035 -0.07372304 -0.016816149 -0.00855117 -0.064117655 -0.05268193
-0.04716418 0.012439137 0.080600604 0.03488092 0.07717444 -0.06529488 0.03846003 -0.05403454
0.036168437 0.066760786 -0.018913316 -0.079824895 -0.045225244 0.029071016 0.058720775 0.053237695
0.023965374 0.054199625 -0.04642494 -0.076141074 0.030031066 -0.027257154 -0.066586316 0.03848519
-0.08108975 -0.049206216 -0.06515841 -0.02355592 0.07276459 0.002519578 0.0638452 0.0388395
0.0222451 -0.019556075 -0.045494407 0.02419355 0.030976515 -0.023234349 0.070783615 -0.029405572
3.2764256e-06 -0.04680584 0.05970132 0.073117495 0.001305508 0.07850281 -0.03393774 -0.0021528709
-0.06743197 0.024284279 0.03996732 0.0794228 -0.028265959 0.067431584 0.035344064 0.07500971
-0.07451207 0.05083118 0.029385593 0.077364616 0.0020054402 -0.016377667 -0.060874727 -0.029013596
-0.011273709 0.033203974 0.06420803 -0.052848257 0.076150514 -0.02326162 -0.017476734 0.054154497
3.975346e-05 0.038566694 -0.07851713 -0.07698431 -0.039048743 0.03455495 -0.05783016 0.023667011
0.022476079 -0.076282926 -0.008741033 -0.027635125 -0.07487251 -0.0026388012 0.07851069 0.0131920995
0.056942306 -0.077224635 0.02004245 0.009742291 -0.057023045 -0.03138097 0.0632369 -0.010649263
0.010267796 0.05292502 -0.0409029 -0.08121246 0.014439917 0.07542997 -0.03480922 -0.07699259
-0.04141449 -0.040231183 0.078273594 -0.012914393 -0.037404615 -0.057963423 0.04273986 0.07944477
0.049757782 -0.015400165 0.03352833 -0.03913674 -0.016859781 0.036803957 0.03103619 -0.041891105
-0.029837323 0.028663905 -0.049981404 -0.036986347 -0.049017634 -0.017038306 -0.02759793 -0.011984761
0.036132563 -0.02180964 -0.072026245 -0.071493834 -0.034804955 0.029392105 0.0484196 0.06922158
-0.073680736 0.0068232394 -0.06130675 0.022835946 0.015127898 0.013397495 0.061435197 -0.037276123
-0.03818326 -0.06310303 0.056764394 0.016478369 0.028260058 0.018019557 -0.08230254 -0.07581137
0.069258004 0.0017021303 0.044576492 0.05882826 0.03463187 0.031291217 0.039004188 0.0400574
0.055436254 -0.021462053 0.036606647 -0.050245594 0.019222481 0.030112643 -0.056865074 0.04457396
-0.024731029 -0.014862169 -0.078194365 0.0072053964 0.0029410864 -0.041872695 -0.047369994 0.029858552
0.011591453 0.07939561 -0.06744317 -0.03783895 0.014763507 0.07087634 -0.052143283 0.018976523

conv_block_4.5.bias f4 [16]
00000000: 4867 66bc fb6c 43bd 496f 4abd 01bf a53d
00000010: a497 0e3c b59d 143d 327e cebc 891b 183d
00000020: e6f6 663d b7a2 00bd 85c6 733d 594d 883d
00000030: dfb6 5bbd fd93 843c c1aa cb3a c01e 993d
-0.01406271 -0.047711354 -0.049422536 0.08093072 0.008703146 0.036283214 -0.025206659 0.037135635
0.056387804 -0.031405177 0.059515495 0.06655378 -0.053641196 0.016183848 0.001553856 0.07476568

conv_block_5.0.weight f4 [16]
00000000: b90b 803f b8f4 7f3f 3424 803f 6beb 7f3f
00000010: fbd5 7f3f b613 803f 980b 803f cf05 803f
00000020: c001 803f 5df6 7f3f 06fc 7f3f 64d8 7f3f
00000030: e801 803f 2402 803f d80b 803f 30d8 7f3f
1.0003577 0.99982786 1.0011048 0.99968594 0.99935883 1.0006015 1.0003538 1.0001773
1.0000534 0.99985296 0.9999393 0.9993956 1.0000582 1.0000653 1.0003614 0.9993925

conv_block_5.0.bias f4 [16]
00000000: b655 9ab9 2688 5038 6fb7 12ba e690 adb8
00000010: d67f f0b9 92fb 783a 0dcf 86b7 a4c5 02ba
00000020: 1d72 483a c21b 59b9 5114 3639 70f3 e3b9
00000030: d368 8fb9 8775 58ba 7cb4 1dba 43b3 03ba
-0.0002943703 4.9717863e-05 -0.0005596792 -8.276272e-05 -0.00045871612 0.0009497936 -1.607046e-05 -0.0004988557
0.0007646399 -0.00020705073 0.00017364441 -0.0004347819 -0.00027353186 -0.0008257259 -0.0006015969 -0.00050239655

conv_block_5.0.running_mean f4 [16]
00000000: 656b 833e 10b6 213e 665c b03d d035 c93e
00000010: 6573 193d 4358 ae3e 5adc bcbd f447 b0bd
00000020: bf38 e03e 7086 ddbc 1a1f 273e 16c6 943d
00000030: 45ff 0dbc fc05 b43e 3235 3b3e 4dce 643e
0.25667873 0.15792108 0.086113736 0.39298868 0.037463564 0.34051713 -0.09221716 -0.08607474
0.43793294 -0.027041644 0.16320458 0.072643444 -0.008666818 0.35160816 0.18282011 0.22344323

conv_block_5.0.running_var f4 [16]
00000000: 5956 6c3d 8a78 333d a078 893d 6140 bb3d
00000010: b932 113d 8e78 063e 5a08 713d 8fd9 073d
00000020: 93b7 733d 6edf 413d ba8d 2c3d 49ff 9b3d
00000030: 7305 393d ffea e73d 5b24 8d3d 1cdd 5f3d
0.057699535 0.043816127 0.067124605 0.09143139 0.035448764 0.13131925 0.058845855 0.033166464
0.059501242 0.04733222 0.04212735 0.07617051 0.045171212 0.11324119 0.068917 0.054654226

conv_block_5.2.weight f4 [32, 16, 3, 3]
00000000: d4d1 5e3d 6c91 333d e665 82bc 3a26 9b3d
00000010: 3040 60bd 0095 683d d9fd 91bd 8983 393d
00000020: 344d 273d 5737 2ebc 4b8a f93a e0a4 403d
00000030: 50b3 f6bc 1f10 4d3c 6d6c 103d 29f7 dd3a
00000040: 56dd 00bd 1ebf 22bd f05c 933d 1307 63bd
00000050: c931 083d c873 88bd ef24 813d 2bd6 803d
00000060: ca91 c2bc ad46 40bc d06a 9d3d b8f0 99bd
00000070: 6cd0 683d 05c8 a9bb 8d01 ed3c 5ad2 81bd
00000080: ef03 7b3d cda5 b53b 8a43 efbc 0a11 df39
00000090: f218 7f3d e64f 5cbc 84f7 06bc ca62 823d
000000a0: f312 f0bb 6656 47bc adfa a73c cc4f 273d
000000b0: 3695 fbbb fb28 323c 3584 c8bb ad2e 87bd
000000c0: 5838 853d 5064 a23c 9a67 543d 2935 093d
000000d0: 8ea0 2a39 dc82 893d 21cd bc3c 14cb 833d
000000e0: 04ec a53d e401 22bd 3071 8e3c e07c 8ebd
000000f0: f417 32bd d1ff 9d3d 1352 ecbc 9206 a0bd
00000100: 7bc9 cdbc 2158 6f3d 3edc 51bd 820f 273a
00000110: 91ea 003d 9dba 033c e1f9 a13d 6d0a a23d
00000120: 42a5 9c3d d2c6 283d b106 723d c67b 06bd
00000130: f853 5abd 0b7a 09bd a092 31bd cb7d 1a3b
00000140: ffe3 323d 1c70 2dbc 09cb 1f3d db04 a8bd
00000150: ce77 59bd 872d 6fbb 3a24 0ebd 785f 75bd
00000160: da87 a9bd bd43 8ebd e559 a23d 4b56 04bd
00000170: bd57 303d 571b 31bd d7fd cf3c 6f7b a63c
00000180: 6a8a 52bd 101d 8d3d 1f7e 903a d019 213d
00000190: 4732 3fbc c3b9 d0bc 48d7 9dbd 61d5 88bd
000001a0: 40e7 a33d f031 683c e9ed abbc edfa 293d
000001b0: 1c6c 85bd 81ab 56bd 802b 99bd 0110 b0bb
000001c0: 1ffb 1a3d bdd9 3d3d 5a0f b7bc febc b73c
000001d0: 3470 16bd 7036 c73a fe1d 5d3d 7714 09bc
000001e0: 4d29 f9bc fb1c 033d 25e3 023d 0d98 253d
000001f0: c45b 8dbd ddb4 c8bc ec8e e8bb 7e8b 883d
00000200: 5e0e 51bd 1763 413b 56a6 79bd 6817 29bd
00000210: b71c e13b e54d 543d 5b67 a53c 94c0 573d
00000220: 18c2 6dbd bac8 a4bd 8c82 733d 79da 253d
00000230: 7deb e4bb 0052 34bd 6a9c 14bd b68f 2d3d
00000240: ccc5 a03d abf1 a83d 12fd 94bc 9362 153d
00000250: 584c 3abd 84cf 90bd b742 4abd d463 a03c
00000260: 035e 3dbd 1cd7 4bbd bb5c babc fdc4 e8bc
00000270: 7d13 133c 9435 0ebc 898d a03d 2586 3a3d
00000280: 558e 88bd 90af 633d 5ba0 9c3d b1af 753c
00000290: b0cd 0c3d e218 b23c 1802 573d cb6e e63c
000002a0: 37c2 55bd 9e94 5dbd 9f55 1c3d 18f0 ac3b
000002b0: 4e40 56bd 0df5 b43b 1ed1 173d 0afc 763d
000002c0: 2fb7 afbc 5bd7 59bd ab00 bdbc 3f1f 213d
000002d0: 6d6f 9fbc dc33 313d f4d3 52bd 6737 d4bc
000002e0: 5e3c 413d ec78 613d 6862 9e3c 9322 8ebd
000002f0: f106 a9bd fc53 343c 6494 843d 0981 723d
00000300: c3ac 88bd 38f6 963d 1d37 f2bc 45f1 123d
00000310: a12c 263d c12e 7c3d 1415 29bd c130 7abd
00000320: e060 8ebc 0cd7 aabd 7183 6d3d d196 ad3c
00000330: 1ac1 64bd f128 823d 2417 a0bd cf69 a5bd
00000340: c3ba 2a3d 65d8 8ebd 71df 603d 7806 cdbb
00000350: b913 283d 629f 9e3c fa54 4b3d 26b0 413d
00000360: c6f0 aaba 375f 06bd ae49 77bc a6b7 62bb
00000370: ab80 a33d 8eaf da3c c59f 523c 0105 583d
00000380: d7b6 803d 0582 c1bc 9414 65bd 345d 713d
00000390: 9de2 863d b972 353d 74db 2bbd dda9 e0bc
000003a0: 051c 743d ce36 013d 2484 773d c779 0cbd
000003b0: 6b58 ae3c a818 23bd 717f 69bd 2edc 1fbd
000003c0: a9cc 89bd 3680 5ebd 42bf 42bd 8d6b 12bd
000003d0: ed2b 773d 4e71 7ebd a36c 5f3d 9a20 8d3d
000003e0: 03a6 84bd f76d ae3b 29e0 4dbd 915e 9e3c
000003f0: 4d1b d13b d326 11bd 3980 d53c 80a6 bbbb
0.054399326 0.043839857 -0.01591773 0.075756505 -0.054748714 0.056782722 -0.07128496 0.045291457
0.04084511 -0.010633311 0.0019038407 0.047032237 -0.0301148 0.012516051 0.035259653 0.0016934621
-0.031461082 -0.039733045 0.07195461 -0.05542667 0.033250604 -0.066627085 0.06305873 0.06290849
-0.023751158 -0.0117356 0.076863885 -0.075166166 0.05683939 -0.005181315 0.028931404 -0.063389495
0.06128305 0.0055434466 -0.02920701 0.0004254657 0.06227965 -0.013446784 -0.008237723 0.06366499
-0.0073264777 -0.012166595 0.020505274 0.040847585 -0.0076776994 0.010874028 -0.006119276 -0.066006996
0.06504887 0.019823223 0.051856615 0.033497963 0.00016272275 0.067144126 0.023047032 0.064352185
0.08101657 -0.039552584 0.017387956 -0.06957412 -0.043479875 0.07714809 -0.02884773 -0.07813753
-0.025120487 0.058433656 -0.05123543 0.0006372855 0.0314737 0.008040098 0.07908989 0.07912145
0.07648708 0.041205235 0.059088413 -0.032832883 -0.053302735 -0.033563655 -0.043352723 0.0023573514
0.043674465 -0.010585811 0.03901199 -0.08204051 -0.05309277 -0.0036495642 -0.034702517 -0.0599055
-0.08277865 -0.06946514 0.07927302 -0.032308858 0.043052424 -0.043238964 0.025389595 0.02032253
-0.051401533 0.06890309 0.0011023915 0.039331257 -0.011669702 -0.025479203 -0.07707077 -0.06681324
0.08003092 0.014172062 -0.020987468 0.041499067 -0.06514761 -0.052409653 -0.07479 -0.0053730016
0.037837144 0.04635023 -0.022346187 0.022428986 -0.0367281 0.0015198719 0.05398368 -0.008366696
-0.030415202 0.03201006 0.031954903 0.04042821 -0.069022685 -0.024500305 -0.0070971157 0.06667231
-0.051039092 0.0029508525 -0.060949646 -0.041282088 0.006869878 0.0518321 0.020190885 0.05267389
-0.05804643 -0.08046098 0.05945067 0.040491555 -0.00698608 -0.044023514 -0.03628198 0.04237338
0.07850227 0.082492195 -0.01818708 0.03647096 -0.045482963 -0.070708305 -0.04938003 0.019578852
-0.046232235 -0.04976569 -0.022749295 -0.028414244 0.008976814 -0.008679766 0.07839496 0.045538086
-0.06667773 0.05558735 0.07647773 0.014995501 0.034375846 0.02174038 0.05249223 0.028129002
-0.05218717 -0.05409681 0.038167592 0.005277645 -0.05230742 0.0055223764 0.037064664 0.060298957
-0.021449653 -0.053183895 -0.023071608 0.03933644 -0.019462312 0.043262348 -0.051471666 -0.025905324
0.04717671 0.05504696 0.019334033 -0.06940188 -0.08253277 0.011006352 0.06473616 0.05920509
-0.06673577 0.07371181 -0.029567296 0.035874624 0.040569905 0.061568025 -0.041279867 -0.06108165
-0.017380178 -0.08341798 0.05798668 0.021190079 -0.05584822 0.06355465 -0.07816914 -0.08076822
0.041682016 -0.06974868 0.05490059 -0.0062568747 0.041034434 0.019363109 0.049641587 0.04728713
-0.0013041727 -0.032805648 -0.01509325 -0.0034594326 0.07983526 0.02669504 0.012855475 0.052739147
0.06284874 -0.023621568 -0.055927828 0.058926776 0.06586192 0.04429886 -0.041957334 -0.027424747
0.059597034 0.031546406 0.060428753 -0.034295823 0.021282395 -0.039818436 -0.057006303 -0.03902834
-0.06728489 -0.05432149 -0.04754568 -0.0357471 0.060344625 -0.062119775 0.054546963 0.06890984
-0.06476977 0.0053231674 -0.050262604 0.019332202 0.0063814283 -0.035437416 0.026062118 -0.0057266355

conv_block_5.2.bias f4 [32]
00000000: 7125 863d 7cf2 9b3c e7e8 083d 7b5b 36bd
00000010: 38ff f33c 9cc3 7d3d 2d46 82bc 7ca1 a6bd
00000020: 1ca2 a4bd 9ec7 36bd 2847 a0bd 8431 993d
00000030: f02b a13d 1815 21bd 20c4 dfbc a055 453d
00000040: fa45 13bd fa20 913d 1a29 ed3c 2406 243d
00000050: c0c2 debb 3cb3 86bb ed02 243d 54a2 463d
00000060: 4aff 70bd 7417 60bd 762a d03c 78f9 d33a
00000070: d955 983d 5528 a9bd 9c86 79bd 6c47 5d3d
0.0655011 0.019036524 0.033425238 -0.044520836 0.029784784 0.061954126 -0.015902603 -0.081362695
-0.080387324 -0.044623964 -0.07826072 0.074801475 0.078697085 -0.039326757 -0.0273152 0.04817736
-0.035955407 0.07086368 0.028950263 0.04004492 -0.0067981184 -0.004110722 0.040041853 0.048494652
-0.058837213 -0.054709867 0.025410872 0.001617237 0.07438249 -0.08259646 -0.06091939 0.05402319

conv_block_5.3.weight f4 [32]
00000000: 66f0 7f3f cbc4 7f3f 30e6 7f3f 6d25 803f
00000010: 110e 803f b304 803f 550b 803f 0101 803f
00000020: f51c 803f 4504 803f 8ed3 7f3f 1d06 803f
00000030: 8d08 803f 6ffa 7f3f b1e1 7f3f d8b6 7f3f
00000040: ec01 803f 1212 803f bee8 7f3f 60ee 7f3f
00000050: 77e4 7f3f 451b 803f 17f6 7f3f 5208 803f
00000060: d31a 803f 14f4 7f3f f813 803f 0df7 7f3f
00000070: d5f4 7f3f 94bf 7f3f 11b8 7f3f 35dc 7f3f
0.99976194 0.9990966 0.99960613 1.0011421 1.0004293 1.0001434 1.0003458 1.0000306
1.0008837 1.0001303 0.9993218 1.0001866 1.000261 0.99991506 0.9995375 0.9988837
1.0000587 1.0005515 0.9996451 0.99973106 0.99957985 1.0008322 0.9998488 1.0002539
1.0008186 0.9998181 1.0006094 0.99986345 0.9998296 0.999017 0.9989024 0.99945384

conv_block_5.3.bias f4 [32]
00000000: 904c 203a 842d 09b7 5f60 9639 3db1 7a3a
00000010: 00ae d5b9 2bce 59ba dce5 203a ce96 0339
00000020: 7ad8 273a 20da 8c39 662c e6b9 ed21 f637
00000030: 1089 903a 693a b5b7 b091 12ba deff b2ba
00000040: 96e4 dbb9 080b 2f3a 8c33 41ba 123f 6ab8
00000050: 3de2 63b9 dbd5 303a 8ac9 8338 274e 383a
00000060: cabe 19b9 3903 8539 4d07 c7b8 449d 3839
00000070: 3755 52ba 9613 8eba bbaa 12ba d284 c43a
0.00061149243 -8.176434e-06 0.00028682032 0.0009563154 -0.00040756166 -0.00083086145 0.00061377673 0.00012549313
0.0006402802 0.00026865397 -0.00043902098 2.9341283e-05 0.0011027176 -2.160408e-05 -0.0005591167 -0.0013656577
-0.00041941245 0.0006677364 -0.0007370047 -5.5848686e-05 -0.00021732687 0.0006745734 6.284106e-05 0.00070306886
-0.00014662292 0.00025370138 -9.490419e-05 0.00017606193 -0.0008023562 -0.0010839577 -0.0005594899 0.0014993197

conv_block_5.3.running_mean f4 [32]
00000000: ea11 593e 894e 5f3e a517 883e ef19 933d
00000010: cfc9 ae3d f264 eebc 9d71 633e 0ebc 9a3d
00000020: 00e6 66bd 3472 d83e 3d4b f7bd 9c03 433e
00000030: 3d3b 5d3e e8d6 f2be 089e 613e 61aa b43d
00000040: ae76 963d a71f 873e 5caa 323e bc48 943d
00000050: 5b5b cf3e f121 93be 13f8 7e3d 2afd 55bd
00000060: e9cc 1f3d 0f2e 60bd 7010 bc3e ad1d 3dbe
00000070: 4564 b2bd 90b8 4ebb 226b 39be ba15 1ebd
0.2119824 0.21807303 0.2658054 0.07182681 0.08534586 -0.029100869 0.22211309 0.075554
-0.05637169 0.4227463 -0.120748974 0.19044346 0.21604629 -0.47429585 0.2203294 0.0882156
0.07346855 0.26391336 0.174478 0.072404355 0.40499386 -0.28736833 0.0622483 -0.05224339
0.039013777 -0.054731425 0.3673129 -0.18468352 -0.08710531 -0.0031543113 -0.18107274 -0.03859494
