cloud-detection-code/tests/test_artifacts/test_class_weighted_loss/model_checkpoint_5.pt (torch, 439769 bytes, 347 tensors)

input_conv_block.0.weight f4 [3]
0	0x3f803395	1.0015742
1	0x3f7f99e7	0.9984421
2	0x3f802c62	1.0013545

input_conv_block.0.bias f4 [3]
0	0xba9bbfb7	-0.0011882697
1	0xb8d01472	-9.922021e-05
2	0xba8c3b87	-0.0010698893

input_conv_block.0.running_mean f4 [3]
0	0x3ed02525	0.4065334
1	0x3ecf969b	0.4054459
2	0x3eb068f2	0.34455067

input_conv_block.0.running_var f4 [3]
0	0x3d90eae7	0.07076054
1	0x3d89d435	0.067299284
2	0x3d844457	0.06458347

input_conv_block.2.weight f4 [2, 3, 1, 1]
0	0x3ed497e6	0.4152214
1	0xbf013a8f	-0.5047998
2	0x3e8274da	0.25479776
3	0x3e85aa97	0.26106712
4	0x3e6cf046	0.23138532
5	0x3e35a90f	0.17740272

conv_block_1.0.weight f4 [2]
0	0x3f7fe757	0.9996237
1	0x3f800c4f	1.0003756

conv_block_1.0.bias f4 [2]
0	0xbac7fb68	-0.001525742
1	0xba7cb239	-0.00096395944

conv_block_1.0.running_mean f4 [2]
0	0x3d74fe71	0.059812967
1	0x3e838006	0.25683612

conv_block_1.0.running_var f4 [2]
0	0x3d7de883	0.06198932
1	0x3e55b9c8	0.20871651

conv_block_1.2.weight f4 [2, 2, 3, 3]
0	0xbc837e7a	-0.01605152
1	0x3d985ac8	0.0743919
2	0xbda9c7a4	-0.082900316
3	0x3e250f38	0.16119087
4	0x3df10f97	0.11770552
5	0x3e1918a7	0.1495081
6	0xbe19d857	-0.15023933
7	0xbe21592e	-0.15756676
8	0x3dcafdc0	0.0991168
9	0xbd785494	-0.060627535
10	0xbd13c2ce	-0.036074452
11	0xbe483d9f	-0.19554757
12	0xbdb9ed69	-0.090784855
13	0x3ddf20da	0.10894938
14	0xbe13c185	-0.1442929
15	0xbdb49144	-0.0881677
16	0x3e079ac6	0.13242635
17	0xbe58dc03	-0.21177678
18	0x3e43a66e	0.19106457
19	0xbd1f89f7	-0.038949933
20	0xbdbc248f	-0.091866605
21	0xbd835001	-0.06411744
22	0x3c2dc9cb	0.010607193
23	0x3e124d03	0.1428719
24	0xbe0c293d	-0.13687606
25	0x3cc22c92	0.023702893
26	0xbd37c42c	-0.04486482
27	0x3e48ea5d	0.19620652
28	0xbd09707f	-0.03355455
29	0xbdb3092f	-0.08741986
30	0xbe5e1028	-0.2168585
31	0x3def7cad	0.11693702
32	0xbd9ca24a	-0.07648142
33	0x3e4ce198	0.20007932
34	0xbd3fdd9f	-0.046842214
35	0x3d603196	0.05473479

conv_block_1.2.bias f4 [2]
0	0xbe21d659	-0.15804423
1	0xbe5d964a	-0.21639362

conv_block_1.3.weight f4 [2]
0	0x3f7f9425	0.99835426
1	0x3f8035ec	1.0016456

conv_block_1.3.bias f4 [2]
0	0xbabc1341	-0.0014349
1	0x36ce5758	6.1494466e-06

conv_block_1.3.running_mean f4 [2]
0	0xbe9371d7	-0.2879779
1	0xbe2f08e0	-0.1709323

conv_block_1.3.running_var f4 [2]
0	0x3e22a00d	0.15881367
1	0x3d84e804	0.06489566

conv_block_1.5.weight f4 [2, 2, 3, 3]
0	0xbe65c833	-0.22439651
1	0x3d1b7dc0	0.03796172
2	0xbda9ac5a	-0.082848266
3	0x3e4c987c	0.19980043
4	0xbe0d48dc	-0.13797325
5	0x3d95dff8	0.07318109
6	0xbd2bfc0b	-0.041988414
7	0xbe251122	-0.16119817
8	0x3e5c4170	0.21509337
9	0x3c8792c2	0.016549472
10	0x3e517b54	0.20457202
11	0xbd956d48	-0.07296234
12	0xbe1e9480	-0.15486336
13	0xbe335e59	-0.1751646
14	0xbdc8ebee	-0.09810625
15	0xbe2979a9	-0.16550316
16	0xbc04a5b5	-0.008096148
17	0xbe3dc4f3	-0.18532161
18	0x3d91c33e	0.071173176
19	0xbbdd90fa	-0.0067616673
20	0x3e3c529f	0.18390892
21	0xbdc51499	-0.09623069
22	0xbe647172	-0.22308901
23	0x3da1f2f1	0.079076655
24	0x3e6485fe	0.22316739
25	0x3e400137	0.18750463
26	0xbdc4b88d	-0.09605513
27	0x3d8f5dcf	0.070003144
28	0xbe40eab5	-0.18839534
29	0x3e217824	0.15768486
30	0x3d37e45c	0.044895515
31	0xbdde5160	-0.10855365
32	0x3d6c9236	0.057756625
33	0xbe21d469	-0.15803684
34	0x3df6877a	0.12037559
35	0xbe4348e5	-0.19070776

conv_block_1.5.bias f4 [2]
0	0x3a94a66b	0.00113411
1	0xbe2854f3	-0.16438656

conv_block_2.0.weight f4 [2]
0	0x3f7fe134	0.9995301
1	0x3f800f62	1.0004694

conv_block_2.0.bias f4 [2]
0	0xb88a6333	-6.59883e-05
1	0xbabb1874	-0.0014274255

conv_block_2.0.running_mean f4 [2]
0	0xbd9971e2	-0.074924245
1	0x3d6ed841	0.058311705

conv_block_2.0.running_var f4 [2]
0	0x3da7c8f8	0.081926286
1	0x3d88dbbc	0.06682536

conv_block_2.2.weight f4 [4, 2, 3, 3]
0	0x3e5ba625	0.21450098
1	0xbd237f27	-0.039916184
2	0x3e6315d0	0.2217629
3	0x3d7eef1c	0.06223975
4	0x3e45f4d9	0.19331683
5	0xbe02511a	-0.1272625
6	0x3e0458ab	0.12924449
7	0x3e5d5e1a	0.21617928
8	0xbd642ced	-0.055706907
9	0x3d19e936	0.037575923
10	0xbddcb4f2	-0.107767
11	0x3deffaa3	0.11717727
12	0xbe41f0ff	-0.18939589
13	0xbe23b6e6	-0.15987739
14	0x3dc8b531	0.098001845
15	0xbe4a4da6	-0.19756183
16	0xbd686b84	-0.05674316
17	0xbe2fb72f	-0.17159723
18	0x3d64fb36	0.055903636
19	0xbe5e8a75	-0.21732505
20	0x3daec248	0.0853315
21	0x3e2cb098	0.1686424
22	0x3e10fe5f	0.14159535
23	0xbd8c8b54	-0.06862512
24	0x3d64b32a	0.055834927
25	0x3cdca1e9	0.026932674
26	0xbe0103c5	-0.12599094
27	0x3e115692	0.1419318
28	0xbd5ac328	-0.05340877
29	0x3e44e744	0.19228846
30	0x3c671e67	0.01410637
31	0xbdb61483	-0.08890631
32	0x3e56f4f9	0.20991887
33	0xbe38fb9c	-0.18064731
34	0x3dbee5c2	0.093211666
35	0xbe0385fd	-0.12844081
36	0xbe63b4fc	-0.22237009
37	0x3d864c83	0.06557562
38	0x3e164bd3	0.14677362
39	0xbd2bb307	-0.04191878
40	0xbd9f59b8	-0.07780784
41	0x3e1da726	0.15395793
42	0x3bf10c88	0.00735623
43	0xbe1fb21b	-0.15595286
44	0xbe33406d	-0.17505045
45	0x3e4bd7fa	0.19906607
46	0x3e386d6f	0.18010496
47	0xbe1d4863	-0.15359645
48	0x3e3cb9c4	0.18430239
49	0x3e3057a1	0.17220928
50	0xbe2e5e19	-0.17028083
51	0xbde071d1	-0.10959209
52	0xbd89e020	-0.067322016
53	0x3d836778	0.064162195
54	0xbe31c885	-0.17361648
55	0xbe50d84e	-0.20395014
56	0x3b9a0625	0.0047004395
57	0x3e67d6d0	0.22640538
58	0x3d3f5366	0.046710394
59	0xbdd6df59	-0.10491819
60	0xbe33eb15	-0.17570145
61	0x3d4e61e0	0.05038631
62	0x3dadb171	0.0848111
63	0x3e30347f	0.17207526
64	0x3e3a9889	0.1822225
65	0x3dc72580	0.097239494
66	0xbe4943e0	-0.19654799
67	0x3e51732b	0.2045409
68	0x3d74e93c	0.059792742
69	0xbce7fb2c	-0.02831801
70	0xbe5c358b	-0.215048
71	0xbe1e4f62	-0.1545997

conv_block_2.2.bias f4 [4]
0	0x3e5f0398	0.21778715
1	0x3e679719	0.22616233
2	0xbe62dbd2	-0.22154167
3	0x3e3ff3a7	0.1874529

conv_block_2.3.weight f4 [4]
0	0x3f7fb061	0.9987851
1	0x3f800373	1.0001053
2	0x3f8026ba	1.0011818
3	0x3f7ff3eb	0.99981564

conv_block_2.3.bias f4 [4]
0	0xbaa612af	-0.0012670363
1	0xba12dc54	-0.00056022895
2	0xba8f103b	-0.0010914871
3	0xba7cc282	-0.0009642021

conv_block_2.3.running_mean f4 [4]
0	0x3e54f857	0.20797859
1	0x3ea390d6	0.3194644
2	0xbe40dd91	-0.18834521
3	0x3e1f312e	0.15546104

conv_block_2.3.running_var f4 [4]
0	0x3e41336c	0.18867272
1	0x3dc57dbd	0.09643123
2	0x3e0504d4	0.12990123
3	0x3dff78fb	0.12474247

conv_block_2.5.weight f4 [4, 4, 3, 3]
0	0xbe1a3516	-0.15059313
1	0x3d428f9f	0.04750025
2	0x3e201906	0.15634546
3	0x3d523756	0.051322304
4	0xbe1c1755	-0.15243275
5	0xbdca4a92	-0.098775044
6	0x3dac4c93	0.08413043
7	0xbdd8b9b4	-0.10582295
8	0xbcf0c181	-0.029389145
9	0xbe1744c4	-0.14772326
10	0x3d9269f3	0.071491145
11	0xbd0da794	-0.034583643
12	0xbd13f350	-0.036120713
13	0x3df60921	0.1201346
14	0x3dd2adbf	0.10287046
15	0x3d733e79	0.05938575
16	0xbc70e09a	-0.014701987
17	0xbdd840c6	-0.105592296
18	0x3dc45f73	0.09588518
19	0x3dabde3b	0.083919965
20	0x3decfc85	0.11571602
21	0x3d532832	0.051552005
22	0xbd801a2d	-0.06254993
23	0x3e229e95	0.15880807
24	0x3e1629f7	0.14664446
25	0x3d2b71fd	0.041856755
26	0x3d8f5af3	0.06999769
27	0xbe22eb04	-0.15909964
28	0x3e077caa	0.1323115
29	0x3df5d007	0.12002569
30	0xbda0efd0	-0.078582406
31	0x3cbeb5cd	0.023280049
32	0xbd83adcb	-0.06429633
33	0x3e1ff6d7	0.15621506
34	0x3d615d08	0.055020362
35	0xbdd57178	-0.10422033
36	0xbe1a77e8	-0.15084803
37	0x3db84477	0.08997434
38	0x3df66915	0.120317616
39	0xbdd76d37	-0.10518878
40	0x3da17ccb	0.078851305
41	0xbccd62dd	-0.025071556
42	0x3cb006f2	0.021487687
43	0x3dc5ff3b	0.09667822
44	0x3e034787	0.12820254
45	0xbdf8f201	-0.121555336
46	0xbd498620	-0.049200177
47	0x3dbca650	0.09211409
48	0x3d926c60	0.07149577
49	0x3d8e12ad	0.06937156
50	0xbd85f0fd	-0.065401055
51	0x3ddfae58	0.10921925
52	0x3d342830	0.04398364
53	0xbda6236f	-0.08112227
54	0xbe058901	-0.13040544
55	0xbc535f81	-0.012901188
56	0x3da425fd	0.08015058
57	0xbd8f8230	-0.07007253
58	0x3d936bf2	0.07198323
59	0xbd362ed4	-0.044478253
60	0xb929f728	-0.00016209169
61	0xbd560bcf	-0.052257355
62	0xbda732fb	-0.08164021
63	0xbdc2e1de	-0.09515737
64	0x3b9390db	0.004503352
65	0xbcae4efb	-0.021277895
66	0x3e1eaadc	0.15494865
67	0x3e2b2b50	0.16715741
68	0x3c49c347	0.012314624
69	0x3ddba43d	0.10724685
70	0xbda8dd1a	-0.08245297
71	0xbdb8ca09	-0.0902291
72	0x3d55c6ca	0.052191533
73	0xbd5d5fd2	-0.05404646
74	0xbd9ba46a	-0.07599719
75	0x3c9ee919	0.019398259
76	0x3bfce92b	0.0077182255
77	0x3dd9d2f8	0.10635942
78	0xbdfa4bee	-0.12221514
79	0xbd447300	-0.047961235
80	0xbba34fa1	-0.0049838577
81	0x3d9dbc52	0.07701935
82	0xbe030022	-0.1279302
83	0x3d58de3b	0.05294631
84	0xbd69d306	-0.057086013
85	0x3ddf6052	0.109070435
86	0xbd9aa8cc	-0.07551727
87	0x3e147d7a	0.1450099
88	0x3e17289c	0.14761585
89	0x3dab13b7	0.0835337
90	0xbe27a351	-0.16370894
91	0x3daca014	0.0842897
92	0xbddafe9a	-0.10693093
93	0x3e221a40	0.15830326
94	0x3cedc17b	0.029022923
95	0x3dc41ec7	0.09576183
96	0xbd86ae36	-0.06576197
97	0xbdae9696	-0.08524816
98	0x3dc6f772	0.09715165
99	0xbe1f4d50	-0.15556836
100	0x3daa9d07	0.08330732
101	0x3da65567	0.08121758
102	0xba90c793	-0.0011045806
103	0xbd45e7e2	-0.048316844
104	0xbc0a4688	-0.0084396675
105	0x3e0382f9	0.12842931
106	0xbdd87607	-0.10569387
107	0x3df649ed	0.12025819
108	0x3d58e36f	0.052951273
109	0xbc7f6923	-0.015589031
110	0x3d7f97d1	0.062400643
111	0x3df6393f	0.120226376
112	0xbd461b73	-0.04836602
113	0x3da87aa0	0.08226514
114	0x3cce52a8	0.025185898
115	0x3c59f3f9	0.0133027965
116	0xbcd3b239	-0.02584182
117	0xbc0129bb	-0.0078834845
118	0xbe1ac721	-0.15115024
119	0xbe14590d	-0.14487095
120	0x3d4aec70	0.04954189
121	0xbe13765d	-0.14400621
122	0xbdb40efe	-0.08791922
123	0xbdde6cd5	-0.10860602
124	0xbe0fa7a3	-0.14028792
125	0x3d1672ea	0.036730684
126	0x3cadad30	0.021200746
127	0x3dd73ecc	0.105100244
128	0x3e20660b	0.15663926
129	0x3ded25b1	0.11579455
130	0x3dd39290	0.10330689
131	0x3c9b75f0	0.018977135
132	0xbe155b6f	-0.1458566
133	0x3c262832	0.010141419
134	0xbd8b94d3	-0.06815495
135	0xbd1afdb5	-0.03783961
136	0xbdfd9b81	-0.12383176
137	0xbda2326e	-0.07919775
138	0x3dbee49d	0.09320948
139	0xbdd27ffe	-0.10278319
140	0xbe1fe7d9	-0.15615787
141	0xbe0a29eb	-0.13492553
142	0xbdf6a5ee	-0.12043367
143	0xbcfaa88d	-0.03059795

conv_block_2.5.bias f4 [4]
0	0x3d44daed	0.048060346
1	0x3e234336	0.15943608
2	0xbb8ad5c1	-0.004236907
3	0xbd17ec43	-0.03709055

conv_block_3.0.weight f4 [4]
0	0x3f801c16	1.0008571
1	0x3f7fe657	0.99960846
2	0x3f7fe4bd	0.999584
3	0x3f7ffc6d	0.99994546

conv_block_3.0.bias f4 [4]
0	0xb9bfeac0	-0.0003660526
1	0xba3b274b	-0.0007139339
2	0xb995a406	-0.00028541702
3	0x39931873	0.0002805624

conv_block_3.0.running_mean f4 [4]
0	0x3ed7dcb0	0.4216056
1	0x3ecbf55e	0.39835638
2	0x3e9abd46	0.3022253
3	0xbd6b5bea	-0.057460703

conv_block_3.0.running_var f4 [4]
0	0x3e97d2f2	0.29653126
1	0x3db5721b	0.088596545
2	0x3e59ad9e	0.21257636
3	0x3def546f	0.11686026

conv_block_3.2.weight f4 [8, 4, 3, 3]
0	0xbe08d692	-0.13363102
1	0xbc3e0b6e	-0.011599405
2	0x3da93e6e	0.08263861
3	0xbd4a60e6	-0.049408816
4	0x3d7d6bca	0.061870374
5	0xbe27058d	-0.16310711
6	0x3dce0948	0.10060364
7	0x3d6b1ae4	0.05739869
8	0xbe0e5ae3	-0.13901858
9	0xbdc6a975	-0.0970029
10	0xbc581875	-0.013189425
11	0x3e0ec7d4	0.13943416
12	0xbdb07e4e	-0.08617841
13	0xbe0bf1e1	-0.13666488
14	0x3d8ae976	0.067828104
15	0xbbf99ec5	-0.0076178038
16	0x3dc0736b	0.09397014
17	0xbb8b617a	-0.0042535635
18	0xbdfda522	-0.12385012
19	0x3d927b1e	0.07152389
20	0xbe24f74d	-0.16109963
21	0xbda03d93	-0.07824244
22	0xbd0ed67f	-0.03487253
23	0x3e0625f6	0.13100418
24	0xbdf7953f	-0.12089013
25	0xbd92992b	-0.07158121
26	0xbe1107a5	-0.14163072
27	0x3b682f7c	0.0035428694
28	0xbe26acc7	-0.16276847
29	0x3d491a84	0.049097553
30	0xbd6656e9	-0.056235228
31	0xbe06ee09	-0.1317674
32	0xbdd2fa2a	-0.10301621
33	0xbe0a2e7e	-0.13494298
34	0x3d8c1dde	0.06841634
35	0xbd5d6021	-0.054046754
36	0x3df6904d	0.12039242
37	0xbbf0ea15	-0.0073521235
38	0x3daf4ad2	0.08559193
39	0xbcbd8b25	-0.023137638
40	0xbb8cb11a	-0.004293573
41	0x3dbe140a	0.09281166
42	0xbd9c1cd6	-0.076226875
43	0x3a766dd2	0.000940052
44	0xbdc5639f	-0.09638142
45	0x3e13c577	0.14430796
46	0xbcbf54e3	-0.023355907
47	0xbd8591c3	-0.065219425
48	0xbe1f235c	-0.15540832
49	0xbdfb68a1	-0.12275816
50	0xbc9fdb32	-0.0195137
51	0xbe0eca1b	-0.13944285
52	0x3dc2f0ec	0.095186085
53	0x3db96c44	0.09053853
54	0x3d97a51a	0.074045375
55	0x3e208356	0.156751
56	0xbe0e5310	-0.13898873
57	0x3da2ffc3	0.07958939
58	0x3d9e6ed7	0.07735985
59	0x3e00bd3e	0.1257219
60	0xbd4f95f8	-0.05068013
61	0x3d67fcb4	0.05663748
62	0xbe238698	-0.15969312
63	0x3e0a8c2c	0.13530034
64	0xbd588a8f	-0.052866515
65	0xbe29b0e8	-0.1657139
66	0x3d9b5959	0.07585401
67	0x3c926813	0.017871892
68	0x3d7c9616	0.06166657
69	0x3dfb9778	0.1228475
70	0xbd64b7eb	-0.05583946
71	0x3dfd45ec	0.12366852
72	0xbdf898e6	-0.12138538
73	0x3df90ace	0.12160264
74	0xbb93edf6	-0.004514451
75	0x3d8d78ca	0.06907804
76	0x3dbe981e	0.09306358
77	0x3d6a2395	0.05716284
78	0x3c840d72	0.016119692
79	0x3cf6a623	0.030108517
80	0x3e20e0ef	0.15710805
81	0x3e0ea150	0.13928723
82	0xbdd5693d	-0.10420463
83	0x3dfb3a67	0.12266999
84	0xbe0481fc	-0.1294021
85	0xbdfeb931	-0.12437666
86	0x3d10d9f8	0.03536412
87	0x3c2e5436	0.010640195
88	0x3e020ed2	0.12700966
89	0x3dc869dc	0.09785816
90	0x3e17b0e4	0.14813572
91	0xbb0f6dd4	-0.002188553
92	0xbd957d97	-0.07299345
93	0xbe0cef55	-0.13763173
94	0xbc8acb54	-0.016942658
95	0xbc39a31e	-0.011330394
96	0xbe0784a3	-0.1323419
97	0x3df19a95	0.11797062
98	0xbd42012f	-0.04736441
99	0x3e0d0ee6	0.13775215
100	0x3d5b1abc	0.053492293
101	0xbd53bf5f	-0.051696178
102	0xbb4c761b	-0.0031198326
103	0xbe12b930	-0.14328456
104	0x3d806dbf	0.062709324
105	0xbc51655f	-0.012780516
106	0xbe1014a0	-0.14070368
107	0xbdfd7ba5	-0.12377099
108	0xbd43e82e	-0.047828846
109	0x3e11fb47	0.14256011
110	0xbce7ddf7	-0.028304083
111	0x3d02e9c7	0.03196123
112	0x3c8144c0	0.015779853
113	0xbdbba4bc	-0.0916228
114	0xbdf4b80e	-0.11949168
115	0x3d5f3d61	0.054501895
116	0xbd8771b5	-0.06613485
117	0xbe072160	-0.13196325
118	0xbe0a0739	-0.13479318
119	0xbdfc6855	-0.12324587
120	0xbd470a7d	-0.048593987
121	0xbe053c36	-0.1301125
122	0x3e13916e	0.14410946
123	0x3e19982d	0.14999457
124	0x3cc435b0	0.023951381
125	0xbce09ce8	-0.027418569
126	0x3dcf6a8e	0.101277456
127	0xbdb0b2a7	-0.08627825
128	0x3e1ef8ea	0.1552464
129	0x3c85bbce	0.016324904
130	0x3e2799e6	0.16367301
131	0xbdac7090	-0.08419907
132	0x3d8039ec	0.06261048
133	0xbe163a92	-0.1467078
134	0x3dd65175	0.104647554
135	0x3e15a17a	0.1461238
136	0xbe093ffd	-0.13403316
137	0xbd8ded36	-0.0693001
138	0x3df91c71	0.12163628
139	0xbdaf422b	-0.085575424
140	0x3dc5b5f8	0.096538484
141	0x3da90be6	0.082542226
142	0xbddc0f94	-0.10745159
143	0xbd9d8990	-0.076922536
144	0x3e06d22d	0.13166113
145	0xbe00d283	-0.12580304
146	0x3e1c443e	0.15260407
147	0x3de580e2	0.11206223
148	0x3d3eef35	0.046614844
149	0x3c15097b	0.009096499
150	0xbc920be6	-0.01782794
151	0x3d216d31	0.039410774
152	0x3dbf87e6	0.093520924
153	0xbd85bf20	-0.06530595
154	0x3bb788cb	0.005601024
155	0x3dcb3efc	0.09924123
156	0xbd8b9fb0	-0.06817567
157	0xbe238bc2	-0.15971282
158	0x3d8ae405	0.067817725
159	0x3d3d64bf	0.046238657
160	0xbd6f6ddf	-0.05845439
161	0xbcf51dde	-0.029921468
162	0xbd14f1f4	-0.036363557
163	0xbc5c7037	-0.0134544885
164	0x3dae88ad	0.085221626
165	0xbe2733f0	-0.16328406
166	0x3c371244	0.011173788
167	0xbd30afa1	-0.043136243
168	0xbd0aef97	-0.033919897
169	0xbdbf9318	-0.09354228
170	0xbe04e576	-0.12978157
171	0x3e0a7628	0.13521636
172	0xbd830117	-0.06396692
173	0xbe07c85f	-0.1326003
174	0x3e24cacb	0.16092984
175	0xbd25515b	-0.04036079
176	0x3e10bf39	0.14135446
177	0x3e21a178	0.15784252
178	0xbda0ca1d	-0.0785105
179	0x3d0e39bd	0.034723032
180	0x3e291014	0.1651004
181	0xbd8edd77	-0.06975835
182	0x3df68052	0.12036194
183	0xbdb5df37	-0.088804655
184	0x3dacfe84	0.084469825
185	0xbe26c3c7	-0.1628562
186	0xbdf395d5	-0.118938126
187	0xbc8d12a9	-0.017220812
188	0xbe221eb7	-0.1583203
189	0x3ba18e52	0.004930296
190	0xbda4b8ce	-0.08043061
191	0x3dd1835c	0.10230133
192	0x3d481034	0.048843578
193	0x3d3664c7	0.044529703
194	0xbd611c4c	-0.054958627
195	0x3de8736c	0.1135014
196	0xbd15ec96	-0.03660258
197	0x3e030a2f	0.12796853
198	0xbde6ef16	-0.11276071
199	0xbde1fe46	-0.11034827
200	0xbe1810e1	-0.14850189
201	0xbbc364b8	-0.0059629343
202	0x3e0ea734	0.1393097
203	0xbd80d450	-0.062904954
204	0xbc77325d	-0.015087691
205	0x3e1bfe83	0.15233807
206	0x3d8fc79d	0.07020495
207	0x3e2ab97f	0.16672324
208	0xbd2fdff1	-0.042938177
209	0x3d076728	0.03305736
210	0x3db382dd	0.087651946
211	0x3e1e9529	0.15486588
212	0x3d4b18ce	0.049584202
213	0xbe2821e3	-0.16419177
214	0xbdd4b88b	-0.10386761
215	0xbdd1023e	-0.10205506
216	0xbcf5c29d	-0.030000025
217	0xbde96849	-0.11396844
218	0x3df5e56c	0.120066494
219	0x3e1474a4	0.1449762
220	0x3d400560	0.046880126
221	0x3deb830e	0.11499606
222	0x3da27ae7	0.07933598
223	0x3e228d4a	0.1587421
224	0xbd8bde32	-0.0682949
225	0xbe14af71	-0.1452005
226	0x3e003b0a	0.12522522
227	0x3e0c20d8	0.13684404
228	0x3e0357e4	0.12826496
229	0x3d806bb1	0.062705405
230	0xbd2a2a1c	-0.041544065
231	0xbc850f9e	-0.016242798
232	0x3e069ba4	0.1314531
233	0x3daae76c	0.083449215
234	0x3e2895f7	0.16463457
235	0xbe1b783b	-0.15182583
236	0xbe06295e	-0.13101718
237	0xbd8e0f7f	-0.069365494
238	0x3e04d865	0.12973173
239	0xbd57a8b1	-0.05265111
240	0xbd86658b	-0.065623365
241	0x3c6d853b	0.014497097
242	0x3da228d2	0.07917942
243	0xbdfe5d42	-0.12420131
244	0x3e0911fd	0.13385768
245	0x3e16c719	0.14724387
246	0xbe205940	-0.15659046
247	0xbb467783	-0.0030283637
248	0xbdd3aa31	-0.10335196
249	0x3e03866d	0.12844248
250	0xbe155517	-0.1458324
251	0xbddfdb0d	-0.109304525
252	0x3d6c2746	0.05765464
253	0xbd3a241a	-0.045444585
254	0xbda7fb6e	-0.08202253
255	0xbcab9dee	-0.02094933

conv_block_3.2.bias f4 [8]
0	0xbd1e27f8	-0.038612336
1	0xbd9ad921	-0.07560945
2	0xbc45e0d4	-0.012077529
3	0xbb9b1141	-0.0047322814
4	0xbd14d7b0	-0.036338508
5	0xbdb9a6be	-0.09065007
6	0xbdab4d5e	-0.08364366
7	0xbccbe16f	-0.024887769

conv_block_3.3.weight f4 [8]
0	0x3f7fb985	0.99892455
1	0x3f801087	1.0005044
2	0x3f803b9f	1.0018195
3	0x3f7fe957	0.99965423
4	0x3f7fdbe6	0.99944913
5	0x3f8001fa	1.0000603
6	0x3f7f9da0	0.9984989
7	0x3f7ffdf1	0.9999686

conv_block_3.3.bias f4 [8]
0	0xbac3a1c9	-0.0014925535
1	0xb9be405b	-0.00036287573
2	0x3aaae8e4	0.0013039378
3	0x3970c912	0.00022963088
4	0xba96edef	-0.0011515002
5	0x3a0423f0	0.00050407555
6	0xbae2e66d	-0.0017311104
7	0xba27ad4c	-0.00063963677

conv_block_3.3.running_mean f4 [8]
0	0xbeeffcb6	-0.4687249
1	0x3d5f43ef	0.054508146
2	0x3d8a1b2c	0.06743464
3	0xbd32f490	-0.043690264
4	0x3c98f025	0.018669197
5	0xbdba389a	-0.09092827
6	0x3e0a2bfe	0.13493344
7	0xbdb13f39	-0.08654637

conv_block_3.3.running_var f4 [8]
0	0x3e78c024	0.24292046
1	0x3e11412a	0.14185014
2	0x3e2bfd4a	0.16795841
3	0x3dea3392	0.114356175
4	0x3e032fc8	0.12811196
5	0x3e010983	0.12601285
6	0x3e896786	0.26836795
7	0x3e425166	0.18976364

conv_block_3.5.weight f4 [8, 8, 3, 3]
0	0xbcb1c706	-0.021701347
1	0x3d369f99	0.044585798
2	0xbced4f1c	-0.028968386
3	0x3cbc9b6c	0.02302333
4	0x3ddeef0a	0.10885437
5	0xbd634400	-0.05548477
6	0x3d82874b	0.06373461
7	0x3b3f64cf	0.0029204374
8	0x3d15dd14	0.03658779
9	0xbd2341dc	-0.03985773
10	0xbd8093a5	-0.06278161
11	0xbd67ebd6	-0.056621395
12	0xbde452a5	-0.11148576
13	0x3d416531	0.047215644
14	0xbd8c3e90	-0.0684787
15	0x3b2f12da	0.0026714117
16	0x3df281c1	0.11841155
17	0x3dba418a	0.09094532
18	0xbc43c41e	-0.011948613
19	0x3cadc871	0.021213742
20	0xbc8684a3	-0.016420668
21	0xbcbfb48a	-0.023401517
22	0x3d48da00	0.049036026
23	0x3de07b3f	0.10961007
24	0x3b13e4c4	0.0022566775
25	0x3d7f7a78	0.062372655
26	0x3de86ea6	0.113492295
27	0xbdaa82a9	-0.08325703
28	0xbda03b68	-0.07823831
29	0x3d416d37	0.047223296
30	0x3ca70926	0.020390105
31	0xbd84bf30	-0.064817786
32	0x3c8ffcaa	0.017576534
33	0x3c9338fd	0.01797151
34	0x3bb0d862	0.0053968886
35	0xbdeb3647	-0.11484962
36	0xbd6e4cf9	-0.058178876
37	0xbbe2fb8d	-0.00692696
38	0xbb23464b	-0.0024913724
39	0x3ca0ecf8	0.019644246
40	0x3da3b02e	0.07992588
41	0xbdb09ef5	-0.08624069
42	0xbd8aacb6	-0.06771223
43	0x3c82a6c3	0.015948659
44	0xbde72445	-0.11286215
45	0x3de0db54	0.109793335
46	0x3dc80bc7	0.09767871
47	0xbd78a2bb	-0.060702067
48	0xbdab1d8b	-0.08355244
49	0xbd8c4dc2	-0.068507686
50	0xbd15ef7c	-0.036605343
51	0xbc215b47	-0.009848422
52	0xbdbf0086	-0.09326272
53	0xbd953de8	-0.07287198
54	0x3d3462b5	0.044039447
55	0x3d8d268e	0.06892119
56	0xbda84eb9	-0.0821814
57	0x3af0259d	0.0018321757
58	0x3c2e044c	0.010621142
59	0xbd6f7bd4	-0.0584677
60	0xbddb2a3e	-0.107014164
61	0xbd7986c5	-0.060919542
62	0xbdba2e2f	-0.0909084
63	0xbd252bd9	-0.04032502
64	0xbdb612a9	-0.08890278
65	0x3cf9b3f5	0.030481318
66	0x3d0e5fb3	0.034759235
67	0x3df30950	0.118670106
68	0xbda9d780	-0.082930565
69	0xbcb14bbe	-0.021642562
70	0x3d678f60	0.056533217
71	0xbd8412d5	-0.064489044
72	0xbdd58e8c	-0.10427579
73	0xbda38d14	-0.07985893
74	0xbd63fb13	-0.055659365
75	0x3daf244e	0.085518464
76	0xbcc9b3cc	-0.024621867
77	0xbd9e711a	-0.07736416
78	0xbda44205	-0.08020405
79	0xbd6780f4	-0.056519464
80	0x3db16f02	0.08663751
81	0x3d937ae3	0.07201173
82	0x3d541982	0.05178214
83	0x3c677476	0.014126888
84	0xbdd1d054	-0.102448136
85	0x3ddaa9df	0.106769316
86	0xbda4b418	-0.08042163
87	0xbda71ffa	-0.08160396
88	0xbdd8c9d7	-0.10585373
89	0x3d790f2b	0.06080548
90	0x3c18ab46	0.0093181785
91	0x3dd514a6	0.10404329
92	0xbd7c70a1	-0.06163085
93	0x3c0364a3	0.008019599
94	0x3da199d0	0.078906655
95	0xbdee71f1	-0.11642826
96	0x3c5f97e7	0.013647056
97	0x3dc0183c	0.09379622
98	0xbb841230	-0.0040304884
99	0x3cfb8c63	0.03070659
100	0xbd103ecf	-0.03521615
101	0xbc2c0347	-0.010498828
102	0xbd529cad	-0.05141895
103	0x3dedd3b3	0.11612644
104	0x3d7a6253	0.061128926
105	0xbdc71540	-0.0972085
106	0xbd1cf259	-0.03831706
107	0x3d0b8fff	0.034072872
108	0xbbcd2fbf	-0.0062617953
109	0xbd0c08be	-0.034188025
110	0x3da59add	0.080861785
111	0x3def3046	0.11679129
112	0x3d9dbd56	0.077021286
113	0xbb82c899	-0.0039911983
114	0x3da608df	0.08107161
115	0x3c336280	0.010948777
116	0x3dc13e86	0.094357535
117	0x3d8d2fc1	0.06893874
118	0x3d37cf3d	0.044875372
119	0x3ce3f279	0.02782558
120	0xbdeec28a	-0.11658199
121	0xbc9ac9a8	-0.018894985
122	0x3cb615c2	0.022227172
123	0x3cdd4909	0.027012365
124	0x3de06525	0.10956792
125	0x3d263770	0.040580213
126	0xbcb60292	-0.022218022
127	0x3ca6b9f9	0.02035235
128	0xbb0ee621	-0.0021804648
129	0x3cd136be	0.025538798
130	0x3d0cdaf7	0.03438851
131	0xbde9809d	-0.11401484
132	0x3d1c20b0	0.03811711
133	0xbd80fccd	-0.06298218
134	0x3d279158	0.040910095
135	0x3dd6424d	0.104618646
136	0xbdd3a9e0	-0.103351355
137	0xbd0ba149	-0.03408936
138	0xbdbe732f	-0.09299313
139	0x3d6c0ca2	0.057629235
140	0xbc4ae09f	-0.012382655
141	0x3d96becc	0.0736061
142	0x3daff228	0.085911095
143	0xbdbfef58	-0.09371823
144	0xbd0847b7	-0.033271518
145	0xbd26ae97	-0.040693846
146	0xbcc81eff	-0.024428843
147	0x3dacca1e	0.08436988
148	0x3d141e51	0.036161724
149	0xbd1cd4f3	-0.03828902
150	0x3d1f4179	0.0388808
151	0xbda43c51	-0.08019317
152	0x3de6caae	0.11269127
153	0x3decb366	0.11557655
154	0xbd66da07	-0.05636027
155	0x3d7b9462	0.061420806
156	0xbdaf49f4	-0.08559027
157	0xbb0fadb5	-0.0021923606
158	0x3dd913bd	0.10599468
159	0xbc8ef7a7	-0.017452074
160	0xbdba85d2	-0.091075554
161	0x3d6c27fe	0.057655327
162	0x3d906ac5	0.07051615
163	0xbda29d12	-0.07940115
164	0xbd924918	-0.07142848
165	0x3d78f707	0.06078246
166	0x3d2a17e6	0.041526698
167	0xbd191206	-0.037370704
168	0x3d9ca0bb	0.076478444
169	0x3d8929c6	0.06697421
170	0xbddfd235	-0.10928766
171	0xbd1c5410	-0.038166106
172	0xbdaa4fe0	-0.08316016
173	0xbc3c1851	-0.011480407
174	0xbde9d107	-0.11416822
175	0x3ddd2c0f	0.10799419
176	0x3c757a04	0.014982704
177	0xba746b31	-0.0009323834
178	0xbd12f69e	-0.035879724
179	0x3dc0f73a	0.09422155
180	0xbb976bc9	-0.0046210033
181	0x3dd6fa4f	0.10496961
182	0x3dda53ef	0.1066054
183	0x3d4440be	0.047913305
184	0x3d689879	0.056786034
185	0x3d3e0416	0.046390615
186	0x3da9c424	0.08289364
187	0x3d686d1e	0.056744687
188	0x3d4d4de8	0.050123125
189	0xbd8291b8	-0.0637545
190	0xbd0e1282	-0.03468562
191	0x3d9ebe7f	0.07751178
192	0x3d5ccf87	0.05390885
193	0x3d63d0bc	0.055618986
194	0x3dac7e82	0.08422567
195	0x3d78ace4	0.060711756
196	0xbddb95a5	-0.10721902
197	0x3d40e545	0.04709365
198	0x3c85c29c	0.016328149
199	0xbc834901	-0.016026022
200	0xbde99832	-0.11405982
201	0x3d607843	0.05480219
202	0xbdbde160	-0.092715025
203	0xbda78dde	-0.08181356
204	0x3dd52cac	0.10408911
205	0x3b45c079	0.0030174537
206	0xbd874400	-0.06604767
207	0xbde0f9d1	-0.10985149
208	0x3da1ad6d	0.078944065
209	0x3cee81b4	0.029114582
210	0x3cdfafd8	0.027305529
211	0x3d827b51	0.06371177
212	0x3d36c723	0.044623505
213	0xbdb6e021	-0.08929468
214	0xbd5006c6	-0.05078771
215	0xbcd89fc2	-0.026443366
216	0xbcb00104	-0.02148486
217	0x3dac0189	0.0839873
218	0x3a88af9c	0.0010428312
219	0x3d57c1e4	0.052675143
220	0xbd313f67	-0.043273356
221	0xbd062e52	-0.03275902
222	0x3befa156	0.007312934
223	0x3d082e0a	0.03324703
224	0xbd052cb2	-0.032513328
225	0x3c9c1af3	0.01905582
226	0xbdbb9752	-0.091597214
227	0xbdb4aa30	-0.08821523
228	0xbd10d473	-0.035358857
229	0xbcfa073e	-0.030521031
230	0xbcb47f3c	-0.022033326
231	0xbddd38d6	-0.10801856
232	0x3daab6df	0.08335661
233	0x3df22524	0.1182349
234	0x3dec2fde	0.115325674
235	0x3c400bcc	0.011721563
236	0xbc1f1ef5	-0.009711971
237	0x3d958486	0.073006675
238	0x3d80ef18	0.062956035
239	0x3d71d0bf	0.059036966
240	0xbdc1eb7e	-0.09468745
241	0x3c9728b7	0.018452032
242	0xbdc3b1f2	-0.09555425
243	0xbd9be591	-0.07612146
244	0x3ded1c11	0.11577619
245	0x3d253a1b	0.040338617
246	0x3ddff48b	0.10935315
247	0xbd8015b7	-0.06254142
248	0x3d0b4dea	0.03400985
249	0xbd4ea405	-0.05044939
250	0x3d8edf4d	0.06976185
251	0xbc5af7b2	-0.013364719
252	0x3c3c592f	0.011495872
253	0xbd113659	-0.03545222
254	0x3dd41fb5	0.1035761
255	0x3d5c472e	0.05377882

conv_block_3.5.bias f4 [8]
0	0x3c01342c	0.007885974
1	0xbd22d3e1	-0.039752845
2	0xbbcc485e	-0.006234213
3	0x3dd3ac76	0.10335629
4	0x3dd0575c	0.101729125
5	0x3844b369	4.689713e-05
6	0xbd5b805a	-0.053589202
7	0x3da61fb7	0.08111518

conv_block_4.0.weight f4 [8]
0	0x3f802696	1.0011775
1	0x3f8004cb	1.0001463
2	0x3f7fe5a5	0.99959785
3	0x3f8006ce	1.0002077
4	0x3f801a22	1.0007975
5	0x3f7fed5f	0.99971575
6	0x3f7fbebd	0.9990042
7	0x3f800493	1.0001396

conv_block_4.0.bias f4 [8]
0	0x3a5defa7	0.0008466192
1	0x3945f111	0.00018877188
2	0xb9d55b61	-0.00040694608
3	0x37b155cc	2.1139997e-05
4	0xb9d7ea79	-0.0004118269
5	0xb9cf9f6a	-0.0003960089
6	0xba38818e	-0.0007038348
7	0x3913c77d	0.00014093328

conv_block_4.0.running_mean f4 [8]
0	0x3bc81438	0.006105926
1	0x3e8178ec	0.2528757
2	0x3eb7a806	0.3587038
3	0x3e21b9c8	0.15793526
4	0x3ea248a4	0.31696045
5	0x3e94fceb	0.2909921
6	0x3e246b0b	0.16056459
7	0x3d999e01	0.0750084

conv_block_4.0.running_var f4 [8]
0	0x3d71fc6e	0.059078626
1	0x3de7cbe3	0.11318185
2	0x3d9ef799	0.07762069
3	0x3d975b42	0.07390453
4	0x3dfa0f8d	0.12209997
5	0x3dce08c1	0.100602634
6	0x3eabcb9a	0.33553773
7	0x3df7f65b	0.121075355

conv_block_4.2.weight f4 [16, 8, 3, 3]
0	0x3dded041	0.10879565
1	0x3d28f9d9	0.0412539
2	0x3db0b21f	0.08627724
3	0x3ddc61ac	0.10760817
4	0xbd9d865e	-0.07691644
5	0xbcf237fd	-0.029567713
6	0x3d2b5f70	0.041839063
7	0xba9a345e	-0.0011764874
8	0x3d8b41f4	0.06799689
9	0x3d91080e	0.070816144
10	0x3c2705af	0.010194226
11	0xbbfce90f	-0.0077182124
12	0xbc9c6614	-0.019091643
13	0x3d6d7b57	0.057978954
14	0x3c7a1757	0.015264354
15	0x3dc8acc9	0.09798581
16	0x3de64e24	0.11245373
17	0xbdd95d74	-0.10613528
18	0x3dc669f2	0.09688176
19	0x3dbe8703	0.09303095
20	0xbd735aa7	-0.059412625
21	0x3b62c939	0.0034604801
22	0xbd062c8e	-0.032757334
23	0xbd9faac6	-0.07796244
24	0xbcc35557	-0.023844404
25	0xbd8c4feb	-0.06851181
26	0xbccf2d81	-0.025290253
27	0x3d4d2ce9	0.050091658
28	0xbcb462ff	-0.022019861
29	0xbc883f9a	-0.01663189
30	0xbdec1c2a	-0.11528809
31	0x3b8d964a	0.0043208944
32	0xbc70386e	-0.014661891
33	0xbd1e31a7	-0.03862157
34	0xbdae66cd	-0.085157014
35	0x3dad5592	0.08463587
36	0x3d9994c9	0.07499082
37	0x3d1bbf2e	0.03802412
38	0xbdc3eadc	-0.0956628
39	0x3dbad06d	0.09121785
40	0x3b87d56d	0.0041453154
41	0xbdcf6030	-0.10125768
42	0x3c201601	0.009770871
43	0x3db28501	0.08716775
44	0xbd4acdef	-0.0495128
45	0x3c2e7dd6	0.010650119
46	0xbc2c2317	-0.010506413
47	0xbdbc4b88	-0.09194094
48	0x3d065a31	0.032800857
49	0xbda17063	-0.07882764
50	0x3de9e792	0.11421122
51	0x3d08b905	0.033379573
52	0xbd9c4c93	-0.07631793
53	0xbd9527fc	-0.07283017
54	0xbc9a3f43	-0.018828994
55	0x3c5fb6dd	0.013654438
56	0x3cdc831f	0.026917992
57	0x3d033cde	0.03204047
58	0x3dcdb205	0.1004372
59	0xbdcee57d	-0.10102365
60	0x3d0b4c1c	0.03400813
61	0x3d857ceb	0.06517967
62	0xbdc645e6	-0.09681301
63	0xbdc30b26	-0.09523611
64	0xbd8818ac	-0.06645331
65	0xbcb6e5c4	-0.022326358
66	0xbd5dd907	-0.05416205
67	0x3a022556	0.000496467
68	0xbcdac6bf	-0.026706098
69	0x3c5ebde9	0.013595083
70	0x3bc47235	0.00599506
71	0x3d87a0a8	0.066224396
72	0x3d940e1c	0.07229254
73	0x3defd859	0.11711187
74	0x3dcd1ea4	0.1001561
75	0x3dd04d81	0.10171033
76	0x3cee258c	0.029070638
77	0xbd9d1c40	-0.07671404
78	0x3dc2a20e	0.09503566
79	0x3debe5c0	0.11518431
80	0xbdf34ac8	-0.11879498
81	0xbde6a1d4	-0.11261335
82	0x3d58105d	0.05274998
83	0xbd85dc87	-0.06536203
84	0x3d8e4112	0.06946005
85	0x3d8f279c	0.06989977
86	0xbdca273c	-0.098707646
87	0xbdd5932d	-0.10428462
88	0x3c4d807b	0.012542839
89	0x3da7b0dc	0.0818803
90	0xbde964c9	-0.11396176
91	0xbd90c45d	-0.07068703
92	0xbda48b4a	-0.0803438
93	0x3ce1e926	0.027576994
94	0x3d44e4df	0.04806983
95	0xbdc421ab	-0.09576734
96	0xbd8aa171	-0.06769074
97	0x3d056441	0.032566313
98	0xbd140b54	-0.036143616
99	0x3d80e17e	0.06293009
100	0xbdb8b158	-0.09018201
101	0xbc14d2b6	-0.0090834405
102	0x3de4850a	0.11158188
103	0xbc4370de	-0.011928765
104	0xbd037a9b	-0.032099348
105	0xbdd96cce	-0.10616456
106	0x3db6407e	0.0889902
107	0xbd7ae67b	-0.06125496
108	0x3dbb5d4b	0.091486536
109	0xbc22eb6c	-0.009943824
110	0xbded9299	-0.11600227
111	0x3c8344fc	0.016024105
112	0xbc8d1d8f	-0.017226009
113	0xbcf1bc86	-0.02950884
114	0xbd297588	-0.041371852
115	0x3d2e5c34	0.0425684
116	0x3dcbe9cf	0.09956705
117	0xbdebf996	-0.11522214
118	0x3db5120b	0.08841332
119	0xbdb84a39	-0.08998532
120	0xbd574be4	-0.05256261
121	0x3d57ba0d	0.052667666
122	0x3d9a97b1	0.07548464
123	0x3daccdf8	0.08437723
124	0xbd445a56	-0.047937714
125	0xbde86c39	-0.11348767
126	0xbca12f7a	-0.019675959
127	0x3d36ba6d	0.044611383
128	0xbd6d7a0e	-0.05797773
129	0xbc7b71c6	-0.01534695
130	0x3d8c94e4	0.06864336
131	0x3d21dead	0.039519
132	0xbd472d72	-0.048627324
133	0x3d331f79	0.043731187
134	0x3b76004f	0.0037536805
135	0xbd494438	-0.049137324
136	0xbc3f6f74	-0.011684287
137	0x3d0e5148	0.034745485
138	0xbdbfd8bb	-0.0936751
139	0xbd2336bb	-0.039847117
140	0xbb3c74ee	-0.002875622
141	0x3caf59bf	0.021405099
142	0x3da02514	0.07819572
143	0xbddb969b	-0.10722085
144	0x3daf0bd2	0.085471764
145	0xbc94ca43	-0.018162852
146	0x3dcdd622	0.10050608
147	0xbd91a19f	-0.07110905
148	0x3dbb5007	0.091461234
149	0x3ccbd0a9	0.02487977
150	0xbdac533c	-0.08414313
151	0x3dc42e81	0.095791824
152	0xbd7d3270	-0.06181568
153	0xbd3ffb3f	-0.046870466
154	0xbdd00b40	-0.10158396
155	0xbd9b0212	-0.07568754
156	0xbdc6ffdd	-0.09716771
157	0x3c98315a	0.01857822
158	0x3bb76581	0.005596817
159	0xbcab91ac	-0.020943485
160	0xbdbeff5c	-0.0932605
161	0x3d9d71d1	0.076877244
162	0x3d14d449	0.036335263
163	0x3ca630c7	0.02028693
164	0x3d9bc309	0.076055594
165	0x3da76040	0.08172655
166	0x3d3707c2	0.044685133
167	0x3de768f1	0.11299313
168	0xbdcdaf5b	-0.10043212
169	0xbddba7eb	-0.10725387
170	0xbc68f093	-0.014217514
171	0xbdbad511	-0.091226704
172	0xbdbacf1a	-0.09121533
173	0xbc65dffd	-0.014030454
174	0x3bb75660	0.0055950135
175	0xbd921be5	-0.07134227
176	0x3cf231eb	0.029564818
177	0xbdd0d10e	-0.10196124
178	0xbdb32614	-0.08747497
179	0xbde90a7a	-0.11378951
180	0x3debfe28	0.11523086
181	0xbde19acc	-0.11015853
182	0x3db47bb5	0.08812658
183	0xbd59f1f5	-0.053209264
184	0x3dd3ba1f	0.10338234
185	0x3d644919	0.055733774
186	0x3d3eaa76	0.046549283
187	0xbcc0afec	-0.023521386
188	0xbd4d42cf	-0.05011254
189	0x3de05adb	0.10954829
190	0x3dd423a9	0.10358364
191	0xbde9c20a	-0.11413963
192	0x3dcd744b	0.10031947
193	0xbdd8d2c0	-0.10587072
194	0xbdd00bf9	-0.101585336
195	0xbd501c77	-0.050808396
196	0xbd9ab1a9	-0.07553417
197	0x3dbbb17f	0.09164714
198	0xbcf831d9	-0.030297207
199	0xbc7e0352	-0.015503721
200	0x3defaade	0.11702512
201	0x3ddd548b	0.10807141
202	0xbdadbe9b	-0.08483621
203	0xbd40ce8c	-0.04707198
204	0xbace0aba	-0.001571975
205	0xbdad2e1f	-0.084560625
206	0xbdb43969	-0.088000126
207	0x3dd356bc	0.10319278
208	0x3db6a218	0.08917636
209	0x3d82715f	0.0636928
210	0xbd9fe39c	-0.07807085
211	0x3d42a1ab	0.04751746
212	0xbd447cd6	-0.047970615
213	0xbd9248f2	-0.071428195
214	0x3decae22	0.11556651
215	0x3da506ff	0.08057975
216	0xbcdd3b10	-0.027005702
217	0xbc131ac4	-0.008978549
218	0xbd6bf023	-0.05760206
219	0x3d871789	0.06596286
220	0x3c9bef65	0.01903505
221	0x3d4e64a6	0.050388955
222	0xbdacbbf9	-0.084342904
223	0x3d8b6dcd	0.06808052
224	0x3d5b2dfa	0.053510644
225	0x3d3d84ec	0.046269342
226	0xbda6b380	-0.08139706
227	0x3d561aa8	0.052271515
228	0x3da982cf	0.08276903
229	0x3c7c4b96	0.0153988805
230	0xbdece7d8	-0.11567658
231	0x3de27591	0.1105758
232	0xbdd699cd	-0.10478554
233	0x3d926d9f	0.07149815
234	0xbcd2486e	-0.025669303
235	0x3c11972f	0.008886143
236	0x3d2bae97	0.04191455
237	0x3dafa96f	0.08577239
238	0xbdd63c48	-0.104607165
239	0x3d7d5534	0.061848834
240	0x3d0660e1	0.032807235
241	0xbcb30e08	-0.021857277
242	0x3da904ec	0.08252892
243	0xbcbe17ae	-0.02320465
244	0x3ddcb054	0.107758194
245	0xbde6b39b	-0.11264726
246	0xbb9e7ab6	-0.0048364056
247	0xbc224062	-0.009903045
248	0xbd1b132c	-0.03786008
249	0xbc370a35	-0.011171867
250	0xbb6d1c0e	-0.0036180052
251	0xbd68c24b	-0.056825917
252	0xbda9de36	-0.082943365
253	0xbd2b3504	-0.041798607
254	0x3d85a407	0.06525426
255	0xbd34415a	-0.044007637

conv_block_4.2.bias f4 [16]
0	0xbd86b889	-0.06578166
1	0x3def8d9f	0.11696934
2	0xbd274c0b	-0.040844005
3	0x3d69373f	0.056937452
4	0x3d31b2e1	0.043383483
5	0xbd8739b4	-0.06602803
6	0xbc115bd3	-0.00887199
7	0x3d54bdc3	0.051938783
8	0x3c329955	0.010900815
9	0x3d73ec43	0.05955149
10	0xbdb62257	-0.088932686
11	0x3c9e9787	0.019359363
12	0xbda2c0d8	-0.07946938
13	0xbd5298d7	-0.05141529
14	0xbd251941	-0.040307287
15	0x3a59a602	0.000830263

conv_block_4.3.weight f4 [16]
0	0x3f7ff56a	0.9998385
1	0x3f8001d1	1.0000554
2	0x3f800e54	1.0004373
3	0x3f7feb44	0.9996836
4	0x3f800ae8	1.0003328
5	0x3f802378	1.0010824
6	0x3f800262	1.0000727
7	0x3f800f0f	1.0004596
8	0x3f7fbfa5	0.999018
9	0x3f800faf	1.0004786
10	0x3f7ff8bb	0.9998891
11	0x3f7ff11c	0.9997728
12	0x3f80116f	1.000532
13	0x3f7fbaef	0.99894613
14	0x3f7fbb01	0.9989472
15	0x3f8002b2	1.0000823

conv_block_4.3.bias f4 [16]
0	0x3a6f8647	0.00091371353
1	0xb99508ce	-0.00028426055
2	0x3a14ada0	0.0005671624
3	0xb9ff6c4b	-0.00048718075
4	0xb9ae90e7	-0.00033295827
5	0x3a29e2b9	0.00064806227
6	0xba395671	-0.0007070071
7	0x38deafc7	0.00010618526
8	0xb9e44d57	-0.00043545172
9	0x383aece6	4.4566485e-05
10	0xb91a0c72	-0.0001469122
11	0xb8b27c6c	-8.510877e-05
12	0x3a0cc4a8	0.000536988
13	0xba20f14f	-0.00061394734
14	0xb9d8129f	-0.00041212604
15	0x399e85cb	0.00030235792

conv_block_4.3.running_mean f4 [16]
0	0xbc9b9be6	-0.018995237
1	0x3cff1bf2	0.031141255
2	0xbddac618	-0.10682315
3	0xbe355123	-0.17706732
4	0x3c2e9f1e	0.010658054
5	0x3e81052a	0.25199252
6	0x3db336dc	0.08750698
7	0x3e239cee	0.15977833
8	0xbda84016	-0.082153484
9	0xbdd8ec99	-0.105920024
10	0xbece0939	-0.4024141
11	0xbd459c94	-0.048245028
12	0xbe82ae02	-0.25523382
13	0xbe101e86	-0.14074144
14	0xbd3aa4cf	-0.04556733
15	0xbcb71742	-0.022349957

conv_block_4.3.running_var f4 [16]
0	0x3e4fef9d	0.20306249
1	0x3e56a338	0.209607
2	0x3e34adab	0.17644374
3	0x3e5d9a0d	0.21640797
4	0x3e31438a	0.1731092
5	0x3ec0b304	0.37636578
6	0x3e00ead6	0.12589583
7	0x3e142fb4	0.14471322
8	0x3de7b1e2	0.11313225
9	0x3df2346a	0.118264034
10	0x3e8c64e7	0.27420732
11	0x3e31a8ca	0.17349544
12	0x3e020e28	0.12700713
13	0x3dfb7d77	0.1227979
14	0x3e0a1420	0.1348424
15	0x3e0e6927	0.139073

conv_block_4.5.weight f4 [16, 16, 3, 3]
0	0x3da8064d	0.08204327
1	0xbbe61a27	-0.0070221606
2	0xbd3289da	-0.043588497
3	0xbc70c7c4	-0.014696065
4	0x3b13ae34	0.0022534253
5	0xbcfe6f9f	-0.031059084
6	0x3d149b87	0.036281135
7	0xbc995886	-0.01871897
8	0xbb1219f9	-0.0022293313
9	0xbd156b0c	-0.03647904
10	0x3d37de5e	0.0448898
11	0xbd1a4d84	-0.03767158
12	0x3d944a4d	0.07240734
13	0x3ba9dd66	0.0051838635
14	0xbc8042be	-0.015656825
15	0xbd3080c5	-0.043091554
16	0x3d851f03	0.06500056
17	0xbd4b7ba4	-0.04967846
18	0x3c74b5bc	0.014935907
19	0x3d8c57b4	0.068526655
20	0x3d964fc5	0.073394336
21	0xbd21cf81	-0.03950453
22	0x3c88eda0	0.01671487
23	0x3d89e541	0.0673318
24	0xbcbcf024	-0.023063727
25	0x3cf69908	0.030102268
26	0xbd2dc2bb	-0.042422038
27	0xbcbe4257	-0.023224993
28	0x3c0033cc	0.007824849
29	0xbd865b6d	-0.06560407
30	0x3ca93bf5	0.020658473
31	0xbc0eceb9	-0.008716279
32	0x3d5986bd	0.053107012
33	0xbd4f0592	-0.05054242
34	0x3bc7017d	0.0060731755
35	0x3af19091	0.0018429925
36	0x3c847ce6	0.016172837
37	0xbac96882	-0.0015366229
38	0xbd82193b	-0.063524686
39	0x3d4fa5cb	0.050695222
40	0xba13852a	-0.0005627448
41	0xbd2c451f	-0.042058107
42	0xbd2c198c	-0.04201655
43	0x3da6d0bb	0.08145281
44	0xbd75c835	-0.060005385
45	0xbd698e00	-0.057020187
46	0x3d80b137	0.06283801
47	0xbd331701	-0.04372311
48	0x3cb2c91c	0.021824412
49	0xbd4c9dec	-0.049955294
50	0xbd977bd2	-0.07396664
51	0xbcb90fc7	-0.022590531
52	0x3d5d1d08	0.053982764
53	0x3c2ff06c	0.010738473
54	0x3da673c5	0.0812755
55	0xbd6cd1ea	-0.057817377
56	0xbd9a4390	-0.07532418
57	0xbd25fe5d	-0.040525783
58	0x3cf1b8e2	0.029507104
59	0xbd90efb8	-0.07076973
60	0x3cced12b	0.025246223
61	0xbc4ed6b9	-0.012624436
62	0xbd011f44	-0.031523958
63	0x3d6cbb48	0.057795793
64	0x3c18a26f	0.009316071
65	0x3da496fb	0.0803661
66	0xbd8ee26a	-0.06976779
67	0xbd973c55	-0.07384554
68	0xbc8b42f4	-0.0169997
69	0xbc0e6cab	-0.008692901
70	0xbd83a069	-0.0642708
71	0xbd5897ae	-0.052879028
72	0xbd4185a4	-0.04724659
73	0x3c4a22cb	0.012337397
74	0x3da4d2cd	0.080480196
75	0x3d0e518e	0.034745745
76	0x3d9dca9a	0.07704659
77	0xbd85e2f3	-0.06537428
78	0x3d1cbfd2	0.03826887
79	0xbd5e54e9	-0.054280195
80	0x3d13cefb	0.036086064
81	0x3d88cef2	0.06680097
82	0xbc9b89e1	-0.018986644
83	0xbda39b55	-0.079886116
84	0xbd390a0e	-0.045175605
85	0x3cede0ce	0.02903786
86	0x3d70a121	0.058747414
87	0x3d59cddf	0.05317485
88	0x3cc49907	0.02399875
89	0x3d5df23f	0.054186102
90	0xbd3d8640	-0.04627061
91	0xbd9ba2e7	-0.075994305
92	0x3cf71dc6	0.030165564
93	0xbcde62d1	-0.027146729
94	0xbd881ba6	-0.066458985
95	0x3d1e2eca	0.03861884
96	0xbda60c13	-0.08107772
97	0xbd4922da	-0.049105503
98	0xbd855fde	-0.06512426
99	0xbcc26138	-0.023727998
100	0x3d9488ef	0.072526805
101	0x3b1b5429	0.0023701286
102	0x3d82779b	0.06370469
103	0x3d1e1dd7	0.038602676
104	0x3cb55c8b	0.022138854
105	0xbca10e3d	-0.01966011
106	0xbd3af0a4	-0.04563965
107	0x3cc6e050	0.024276882
108	0x3cfe1708	0.031016842
109	0xbcbfae3b	-0.02339851
110	0x3d90b0a8	0.070649445
111	0xbcf0169f	-0.029307662
112	0xb92fe564	-0.00016774755
113	0xbd3fe927	-0.04685321
114	0x3d74a7f6	0.059730493
115	0x3d9610ac	0.07327399
116	0x3ac15632	0.001475042
117	0x3da0d8ce	0.07853852
118	0xbd0b5993	-0.03402097
119	0xbb11d5a3	-0.0022252582
120	0xbd8a096e	-0.0674008
121	0x3cc6a26e	0.024247374
122	0x3d235858	0.039879173
123	0x3da29d57	0.079401664
124	0xbce7b0a4	-0.028282471
125	0x3d8a29c4	0.067462474
126	0x3d119bcc	0.03554897
127	0x3d99a3fc	0.07501981
128	0xbd9918bc	-0.07475421
129	0x3d503aa9	0.050837193
130	0x3cf13f13	0.029449021
131	0x3d9e352a	0.07724984
132	0x3afa076a	0.0019075696
133	0xbc867ac1	-0.016415955
134	0xbd793fc4	-0.060851827
135	0xbcee2813	-0.029071843
136	0xbc3bf02c	-0.011470836
137	0x3d07666a	0.033056654
138	0x3d83738c	0.06418523
139	0xbd58dc8b	-0.0529447
140	0x3d9b639c	0.07587358
141	0xbcbe67b3	-0.023242807
142	0xbc8fad8d	-0.01753881
143	0x3d5dc6b2	0.05414457
144	0x38228a94	3.875287e-05
145	0x3d1e7718	0.038687795
146	0xbda099ba	-0.07841821
147	0xbd9da430	-0.07697332
148	0xbd1f5c31	-0.03890628
149	0x3d0df8f0	0.034661233
150	0xbd6d2db3	-0.05790491
151	0x3cc23e78	0.023711428
152	0x3cb82950	0.022480637
153	0xbd9c0afe	-0.07619284
154	0xbc0f1cb5	-0.008734872
155	0xbce34dec	-0.027747117
156	0xbd994f33	-0.07485809
157	0xbb2df148	-0.002654152
158	0x3da0af4d	0.07845936
159	0x3c581c9b	0.013190414
160	0x3d68b8ae	0.05681675
161	0xbd9e4d30	-0.07729566
162	0x3ca3bf8b	0.019988796
163	0x3c21b11b	0.009868885
164	0xbd69afe5	-0.05705251
165	0xbd002bf0	-0.031291902
166	0x3d81d988	0.06340319
167	0xbc2ec234	-0.010666419
168	0x3c29833b	0.010346229
169	0x3d591be0	0.0530051
170	0xbd27cb99	-0.04096565
171	0xbda66500	-0.08124733
172	0x3c6a702b	0.0143089695
173	0x3d9a4ec3	0.07534554
174	0xbd0eb2ee	-0.03483861
175	0xbd9dc334	-0.07703248
176	0xbd29c955	-0.04145177
177	0xbd25324a	-0.040331163
178	0x3da05028	0.078277886
179	0xbc546215	-0.012962838
180	0xbd19655c	-0.03745018
181	0xbd6db4c8	-0.058033735
182	0x3d2f0069	0.042725
183	0x3da2dab2	0.07951869
184	0x3d4b91be	0.049699537
185	0xbc7be27e	-0.015373824
186	0x3d09905e	0.033584945
187	0xbd1fc816	-0.039009176
188	0xbc89ebc4	-0.016836055
189	0x3d178167	0.036988642
190	0x3d0004e4	0.031254664
191	0xbd2a75c8	-0.04161623
192	0xbcf32d5a	-0.029684711
193	0x3cec3114	0.028831996
194	0xbd4c3c00	-0.049861908
195	0xbd170649	-0.03687123
196	0xbd4840a8	-0.048889786
197	0xbc8a8851	-0.016910704
198	0xbce0f7da	-0.027461935
199	0xbc4410cb	-0.011966894
200	0x3d1454ca	0.036213674
201	0xbcb0bd95	-0.021574775
202	0xbd931b6a	-0.07182963
203	0xbd9262ed	-0.07147775
204	0xbd0e836a	-0.034793295
205	0x3cf114ee	0.029428925
206	0x3d46800b	0.048461955
207	0x3d8de801	0.06929017
208	0xbd967f30	-0.07348478
209	0x3be1602c	0.0068779197
210	0xbd7a9dfa	-0.061185814
211	0x3cbbaa9c	0.022908501
212	0x3c7a1007	0.01526261
213	0x3c5e57d8	0.013570748
214	0x3d7cbe42	0.06170488
215	0xbd17be9f	-0.037047025
216	0xbd1c1878	-0.038109273
217	0xbd814ca5	-0.06313447
218	0x3d6907e6	0.0568923
219	0x3c88836c	0.01666423
220	0x3ce74e2c	0.028235517
221	0x3c92fe2c	0.017943464
222	0xbda878b9	-0.08226151
223	0xbd9b2964	-0.07576254
224	0x3d8dda7d	0.06926439
225	0x3ae0def9	0.0017156295
226	0x3d367001	0.04454041
227	0x3d715683	0.058920395
228	0x3d0dbc43	0.03460337
229	0x3d002154	0.031281784
230	0x3d1fe589	0.03903726
231	0x3d2441a0	0.040101647
232	0x3d62a839	0.05533621
233	0xbcaf954b	-0.021433493
234	0x3d15a308	0.03653243
235	0xbd4e0696	-0.05029925
236	0x3c9c9d0e	0.019117858
237	0x3cf65df2	0.030074093
238	0xbd68defd	-0.056853283
239	0x3d369e94	0.044584826
240	0xbccab543	-0.024744635
241	0xbc7506aa	-0.014955202
242	0xbda011be	-0.07815884
243	0x3bf0c5b5	0.0073477873
244	0x3b477924	0.0030437196
245	0xbd2a9e33	-0.041654777
246	0xbd417927	-0.04723468
247	0x3cf55a05	0.029950151
248	0x3c3dc6a2	0.011583002
249	0x3da2cacd	0.079488374
250	0xbd89c73d	-0.06727455
251	0xbd1a5ab9	-0.037684176
252	0x3c746216	0.014915964
253	0x3d9115de	0.07084249
254	0xbd556cb0	-0.052105606
255	0x3c9bd4a4	0.019022293

conv_block_4.5.bias f4 [16]
0	0xbc665cec	-0.01406024
1	0xbd436d42	-0.04771162
2	0xbd4a6ed9	-0.04942212
3	0x3da5bf2a	0.08093102
4	0x3c0e959b	0.008702661
5	0x3d149d21	0.036282662
6	0xbcce7db9	-0.025206434
7	0x3d1817c6	0.037132047
8	0x3d66f764	0.056388274
9	0xbd00a66e	-0.03140872
10	0x3d73c59b	0.059514623
11	0x3d884d23	0.06655338
12	0xbd5bb605	-0.053640384
13	0x3c8492f7	0.01618336
14	0x3acbb455	0.0015541414
15	0x3d991e01	0.07476426

conv_block_5.0.weight f4 [16]
0	0x3f800d0e	1.0003984
1	0x3f7ff630	0.9998503
2	0x3f802661	1.0011712
3	0x3f7ff1cb	0.9997832
4	0x3f7fd3d6	0.9993261
5	0x3f801272	1.0005629
6	0x3f800a50	1.0003147
7	0x3f8004aa	1.0001423
8	0x3f80012f	1.0000361
9	0x3f7ff368	0.99980783
10	0x3f7ffb8d	0.9999321
11	0x3f7fd5e7	0.99935764
12	0x3f7fff64	0.9999907
13	0x3f800306	1.0000923
14	0x3f800d60	1.0004082
15	0x3f7fd8bd	0.9994009

conv_block_5.0.bias f4 [16]
0	0xb988e93a	-0.0002611371
1	0xb78146e2	-1.5411006e-05
2	0xb9aa8273	-0.0003252212
3	0xb8e4d0ad	-0.00010910756
4	0xba0870e9	-0.0005204813
5	0x3a5281ab	0.0008030186
6	0x372dc672	1.0357808e-05
7	0xba221495	-0.00061828765
8	0x3a255b33	0.000630784
9	0xb9958e97	-0.00028525732
10	0x39812b8e	0.00024637248
11	0xb9df40c4	-0.0004258213
12	0xb96aad42	-0.00022380523
13	0xba60b6f2	-0.0008572183
14	0xba03639b	-0.0005012096
15	0xb9f8da77	-0.00047465015

conv_block_5.0.running_mean f4 [16]
0	0x3e811978	0.25214744
1	0x3e1eefa3	0.15521102
2	0x3da9be79	0.08288283
3	0x3ec653f1	0.38735917
4	0x3d149dc4	0.03628327
5	0x3eab1dba	0.33421117
6	0xbdb80229	-0.08984787
7	0xbdaf575c	-0.08561584
8	0x3edbb08e	0.42908138
9	0xbcdcf421	-0.026971878
10	0x3e222813	0.158356
11	0x3d8d480f	0.0689851
12	0xbbe3143b	-0.006929902
13	0x3eb01a0b	0.3439487
14	0x3e3a8d07	0.1821786
15	0x3e5ff12e	0.21869346

conv_block_5.0.running_var f4 [16]
0	0x3d9ea97b	0.077471696
1	0x3d81afbe	0.06332348
2	0x3db58670	0.088635325
3	0x3dde4cd8	0.108545005
4	0x3d604018	0.054748625
5	0x3e1510a9	0.14557137
6	0x3da18a14	0.078876644
7	0x3d5897dd	0.052879203
8	0x3d9e8a97	0.07741278
9	0x3d869d3d	0.065729596
10	0x3d7c7060	0.061630607
11	0x3dc21c42	0.09478046
12	0x3d82ee96	0.06393163
13	0x3e02ca11	0.12772395
14	0x3db5d32e	0.0887817
15	0x3d97be8a	0.07409389

conv_block_5.2.weight f4 [32, 16, 3, 3]
0	0x3d5e3dd1	0.05425817
1	0x3d33682b	0.043800514
2	0xbc81503d	-0.01578533
3	0x3d9ae34b	0.07562884
4	0xbd6031f5	-0.054735143
5	0x3d692ae6	0.056925677
6	0xbd9221a2	-0.07135321
7	0x3d39ef92	0.045394488
8	0x3d27b88e	0.04094749
9	0xbc30d128	-0.010792054
10	0x3b022229	0.0019856787
11	0x3d40a4e7	0.047032263
12	0xbcf6cc2b	-0.030126652
13	0x3c4ccc34	0.012499858
14	0x3d106b02	0.0352583
15	0x3ae15033	0.0017190039
16	0xbd00eada	-0.031473972
17	0xbd23108e	-0.03981071
18	0x3d932f08	0.07186705
19	0xbd62fad3	-0.055414986
20	0x3d081ea2	0.03323234
21	0xbd88aa58	-0.066731155
22	0x3d815507	0.06315046
23	0x3d810a3d	0.06300781
24	0xbcc2d69c	-0.023783974
25	0xbc3f265c	-0.01166686
26	0x3d9d503d	0.0768132
27	0xbd9a0e83	-0.07522299
28	0x3d695e9f	0.056975003
29	0xbba59889	-0.005053584
30	0x3cecdb93	0.028913295
31	0xbd819a78	-0.06328291
32	0x3d7b6aa1	0.061380986
33	0x3bb63448	0.0055604316
34	0xbcef25f7	-0.029192908
35	0x3a02dcf1	0.0004992029
36	0x3d7f1953	0.06228001
37	0xbc5d12af	-0.013493224
38	0xbc081d15	-0.008307715
39	0x3d826574	0.06367007
40	0xbbf245c1	-0.007393569
41	0xbc4740ad	-0.012161416
42	0x3ca6f4ff	0.020380495
43	0x3d26a1b8	0.04068157
44	0xbc0062ef	-0.007836088
45	0x3c32ff1e	0.0109250825
46	0xbbc365c3	-0.0059630587
47	0xbd86e966	-0.06587486
48	0x3d854279	0.06506819
49	0x3ca3bd6c	0.019987784
50	0x3d5500d1	0.05200273
51	0x3d09a076	0.033600293
52	0x39975a86	0.0002886841
53	0x3d899299	0.067174144
54	0x3cbc203c	0.02296459
55	0x3d8397e6	0.06425457
56	0x3da5581b	0.080734454
57	0xbd22b337	-0.039721694
58	0x3c8da5a4	0.017290898
59	0xbd8eec02	-0.06978609
60	0xbd32a8df	-0.04361808
61	0x3d9dd6d3	0.0770699
62	0xbcecea5b	-0.028920343
63	0xbd9f8a5c	-0.07790062
64	0xbccca85b	-0.024982622
65	0x3d6f0ccc	0.058361813
66	0xbd51dc18	-0.05123529
67	0x3a3e93bc	0.0007269939
68	0x3d007b31	0.031367484
69	0x3c04a93d	0.00809699
70	0x3da22882	0.079178825
71	0x3da221a8	0.07916576
72	0x3d9c8a9f	0.076436274
73	0x3d29193e	0.04128384
74	0x3d72523d	0.05916046
75	0xbd062445	-0.032749433
76	0xbd5a58ef	-0.05330747
77	0xbd09b336	-0.033618174
78	0xbd3174b3	-0.043324184
79	0x3b1b32ca	0.0023681396
80	0x3d327a07	0.043573406
81	0xbc2d9f53	-0.010597068
82	0x3d2089ac	0.039193794
83	0xbda7c33c	-0.08191535
84	0xbd595fb4	-0.053069785
85	0xbb67c62f	-0.003536593
86	0xbd0df7f8	-0.03466031
87	0xbd752d76	-0.059857808
88	0xbda9506d	-0.08267293
89	0xbd8e5aca	-0.069509104
90	0x3da23a85	0.07921318
91	0xbd048603	-0.032354366
92	0x3d30d7ff	0.04317474
93	0xbd30f6c8	-0.0432041
94	0x3cd09b1a	0.025464583
95	0x3ca50989	0.020146148
96	0xbd524b38	-0.051341265
97	0x3d8d1b0d	0.06889925
98	0x3a80f0df	0.000983741
99	0x3d20f2e0	0.039294124
100	0xbc3fffc8	-0.011718698
101	0xbccff5b8	-0.025385723
102	0xbd9df24f	-0.07712232
103	0xbd88d8b9	-0.066819616
104	0x3da4188a	0.08012493
105	0x3c66accb	0.014079283
106	0xbcab98c2	-0.020946864
107	0x3d2a414a	0.04156617
108	0xbd85478c	-0.06507787
109	0xbd5745d3	-0.052556824
110	0xbd996e36	-0.07491724
111	0xbbb3f26e	-0.0054915464
112	0x3d1a86aa	0.037726082
113	0x3d3d8d14	0.04627712
114	0xbcb6f290	-0.02233246
115	0x3cb72727	0.022357536
116	0xbd166a23	-0.036722314
117	0x3abf9b74	0.0014618472
118	0x3d5d81d8	0.054078907
119	0xbc080179	-0.008301132
120	0xbcf97b4d	-0.030454302
121	0x3d0348ca	0.03205184
122	0x3d0344f8	0.032048196
123	0x3d25e030	0.040497005
124	0xbd8d3324	-0.0689452
125	0xbcc7fa38	-0.024411306
126	0xbbed7892	-0.007247039
127	0x3d885378	0.066565454
128	0xbd50a764	-0.050940886
129	0x3b39c19c	0.002834416
130	0xbd79a465	-0.060947794
131	0xbd2875d8	-0.04112801
132	0x3bdc3ff5	0.0067214915
133	0x3d5477f1	0.051872198
134	0x3ca5e0a5	0.02024872
135	0x3d58420b	0.05279736
136	0xbd6dc4e3	-0.058049094
137	0xbda49c9f	-0.080376856
138	0x3d73697f	0.05942678
139	0x3d2612c8	0.040545255
140	0xbbe74e9c	-0.0070589315
141	0xbd348025	-0.04406752
142	0xbd149267	-0.036272433
143	0x3d2de495	0.04245432
144	0x3da06b7a	0.078329995
145	0x3da8d7a3	0.082442544
146	0xbc95036e	-0.018190112
147	0x3d156f21	0.036482934
148	0xbd3a67f9	-0.045509312
149	0xbd90929f	-0.07059216
150	0xbd4a1460	-0.049335837
151	0x3ca02147	0.019547118
152	0xbd3d7608	-0.04625514
153	0xbd4c773b	-0.049918395
154	0xbcba6630	-0.022753805
155	0xbce838d4	-0.02834741
156	0x3c12bf44	0.008956734
157	0xbc0f28a7	-0.00873772
158	0x3da07969	0.07835657
159	0x3d3a3540	0.04546094
160	0xbd88c8bd	-0.06678913
161	0x3d6323ee	0.055454187
162	0x3d9c223a	0.07623716
163	0x3c72af39	0.014812284
164	0x3d0cca5f	0.034372684
165	0x3cb1466f	0.02164003
166	0x3d56d9c8	0.052453786
167	0x3ce67112	0.028130088
168	0xbd559ac3	-0.052149545
169	0xbd5e2767	-0.054236796
170	0x3d1bc4d4	0.038029507
171	0x3ba990f0	0.0051747486
172	0xbd56fa60	-0.05248487
173	0x3bb70d28	0.005586285
174	0x3d17c31a	0.037051298
175	0x3d769dec	0.0602092
176	0xbcaff79d	-0.021480376
177	0xbd58f332	-0.052966304
178	0xbcbc7de2	-0.023009244
179	0x3d21113d	0.03932308
180	0xbc9de438	-0.019273862
181	0x3d316261	0.043306712
182	0xbd52b493	-0.05144174
183	0xbcd58038	-0.026062116
184	0x3d404723	0.04694284
185	0x3d61b675	0.055105645
186	0x3c9ee348	0.019395486
187	0xbd8e6dd5	-0.069545425
188	0xbda913dc	-0.08255741
189	0x3c31a2d3	0.010842043
190	0x3d840129	0.06445534
191	0x3d72b912	0.059258528
192	0xbd889b93	-0.066702984
193	0x3d96e94a	0.07368715
194	0xbcf22407	-0.029558195
195	0x3d13a8be	0.036049597
196	0x3d27056c	0.040776655
197	0x3d7c6c6c	0.061626837
198	0xbd29a3bd	-0.04141592
199	0xbd7aa6bf	-0.061194178
200	0xbc906250	-0.017625004
201	0xbdab08b1	-0.08351267
202	0x3d6cc2ef	0.05780309
203	0x3cabfde1	0.020995082
204	0xbd6536ab	-0.05596034
205	0x3d81cae6	0.06337528
206	0xbda06b48	-0.07832962
207	0xbda53c3a	-0.08068128
208	0x3d2afc87	0.041744735
209	0xbd8e85cc	-0.069591135
210	0x3d611d36	0.0549595
211	0xbbcce02d	-0.00625231
212	0x3d27c91e	0.040963285
213	0x3c9e8ba5	0.019353697
214	0x3d4b7faa	0.049682297
215	0x3d41054f	0.047124203
216	0xbac7ea0f	-0.001525225
217	0xbd06d602	-0.032918938
218	0xbc758dd0	-0.014987424
219	0xbb68e2c8	-0.0035535563
220	0x3da34673	0.079724215
221	0x3cdad63d	0.026713485
222	0x3c551672	0.01300584
223	0x3d5810cd	0.052750397
224	0x3d80ace6	0.06282978
225	0xbcc15867	-0.023601724
226	0xbd654f10	-0.055983603
227	0x3d7124e1	0.05887306
228	0x3d86d77c	0.06584069
229	0x3d35ccb7	0.044384684
230	0xbd2c23ac	-0.042026207
231	0xbce0222d	-0.027360046
232	0x3d746613	0.059667658
233	0x3d00e81f	0.031471368
234	0x3d7678af	0.060173687
235	0xbd0d7542	-0.034535654
236	0x3cae88e9	0.021305518
237	0xbd23a158	-0.03994879
238	0xbd6a2827	-0.0571672
239	0xbd201d47	-0.03909042
240	0xbd89914b	-0.067171656
241	0xbd5e5f27	-0.054289963
242	0xbd435d9d	-0.0476967
243	0xbd128062	-0.035766967
244	0x3d772896	0.06034144
245	0xbd7de394	-0.061984614
246	0x3d5fb10b	0.0546122
247	0x3d8d69df	0.06904959
248	0xbd846389	-0.06464297
249	0x3bb11753	0.005404392
250	0xbd4d9526	-0.050191067
251	0x3c9f9fc4	0.019485362
252	0x3bd31e8e	0.0064428514
253	0xbd11996d	-0.03554671
254	0x3cd5378f	0.026027469
255	0xbbbc0b7c	-0.0057386737
