cloud-detection-code/tests/test_artifacts/test_class_weighted_iou/model_checkpoint_1.pt (torch, 160963 bytes, 153 tensors)

input_conv_block.0.weight f4 [3]
1.0 1.0 1.0
00000000: 0000 803f 0000 803f 0000 803f

input_conv_block.0.bias f4 [3]
0.0 0.0 0.0
00000000: 0000 0000 0000 0000 0000 0000

input_conv_block.0.running_mean f4 [3]
0.2017047 0.19796285 0.1685011
00000000: ad8b 4e3e c6b6 4a3e 8d8b 2c3e

input_conv_block.0.running_var f4 [3]
0.54549813 0.5437752 0.541923
00000000: c4a5 0b3f da34 0b3f 77bb 0a3f

input_conv_block.2.weight f4 [2, 3, 1, 1]
-0.043201208 -0.44426125 -0.28579828 -0.26175272 0.3438332 0.094212174
00000000: c0f3 30bd 3676 e3be 2754 92be 7404 86be
00000010: e80a b03e 50f2 c03d

conv_block_1.0.weight f4 [2]
1.0 1.0
00000000: 0000 803f 0000 803f

conv_block_1.0.bias f4 [2]
0.0 0.0
00000000: 0000 0000 0000 0000

conv_block_1.0.running_mean f4 [2]
-0.14458272 0.03215034
00000000: 7e0d 14be 13b0 033d

conv_block_1.0.running_var f4 [2]
0.64550513 0.5406352
00000000: d33f 253f 1267 0a3f

conv_block_1.2.weight f4 [2, 2, 3, 3]
0.14846106 0.1528111 0.16843276 0.20142673 -0.02127786 -0.03544131 0.16046281 -0.1060147
0.014942482 0.19255619 0.23274572 -0.106880724 -0.0402707 -0.1512996 -0.21917716 -0.1188744
0.16704305 -0.116477564 0.19014408 0.18539931 0.07360108 -0.21966997 0.121285215 -0.08061695
-0.15617532 -0.085421294 -0.093649656 0.22810303 0.09933932 -0.18013863 0.15960522 -0.07224776
0.13726802 0.06741847 0.061658576 0.10087086
00000000: 2d06 183e 837a 1c3e a379 2c3e cf42 4e3e
00000010: e84e aebc e82a 11bd 5d50 243e 3c1e d9bd
00000020: 50d1 743c 732d 453e e554 6e3e 48e4 dabd
00000030: e4f2 24bd 48ee 1abe fa6f 60be 6c74 f3bd
00000040: 550d 2b3e ca8b eebd 21b5 423e 51d9 3d3e
00000050: 2abc 963d 2af1 60be 6264 f83d 801a a5bd
00000060: 6cec 1fbe 5cf1 aebd 64cb bfbd d793 693e
00000070: 6a72 cb3d 4376 38be 8d6f 233e a2f6 93bd
00000080: fd8f 0c3e b212 8a3d b48d 7c3d 6295 ce3d

conv_block_1.2.bias f4 [2]
-0.06932226 0.075159445
00000000: d4f8 8dbd 32ed 993d

conv_block_1.3.weight f4 [2]
1.0 1.0
00000000: 0000 803f 0000 803f

conv_block_1.3.bias f4 [2]
0.0 0.0
00000000: 0000 0000 0000 0000

conv_block_1.3.running_mean f4 [2]
0.05785326 0.12775688
00000000: 8af7 6c3d b3d2 023e

conv_block_1.3.running_var f4 [2]
0.57805806 0.6307143
00000000: 9dfb 133f 7e76 213f

conv_block_1.5.weight f4 [2, 2, 3, 3]
-0.13080296 -0.1978232 0.12168695 0.013035849 -0.16196036 0.19449206 -0.088458 0.13203774
-0.06912437 -0.099348724 0.10534187 -0.19537531 -0.22734092 0.20152114 -0.23104098 0.044945195
0.19074945 -0.18023945 -0.123052835 0.13742922 -0.041152805 -0.1876857 -0.10917975 0.11740087
-0.14070332 0.17375521 0.12370305 -0.101484075 -0.22803724 -0.11740075 -0.14935556 0.09067659
0.03982614 -0.19879188 0.11074467 -0.20544004
00000000: 36f1 05be 2a92 4abe 0237 f93d 5094 553c
00000010: f0d8 25be ed28 473e 7829 b5bd e734 073e
00000020: 1491 8dbd 5877 cbbd 7abd d73d 7710 48be
00000030: 0fcc 68be 8f5b 4e3e 0296 6cbe 7418 383d
00000040: d353 433e b190 38be 2003 fcbd 3fba 0c3e
00000050: d88f 28bd ae30 40be a299 dfbd de6f f03d
00000060: 8814 10be e3ec 313e 0658 fd3d e2d6 cfbd
00000070: 9882 69be ce6f f0bd aaf0 18be a6b4 b93d
00000080: bc20 233d 1990 4bbe 1ace e23d e05e 52be

conv_block_1.5.bias f4 [2]
0.1791666 -0.06286205
00000000: 7377 373e d2bd 80bd

conv_block_2.0.weight f4 [2]
1.0 1.0
00000000: 0000 803f 0000 803f

conv_block_2.0.bias f4 [2]
0.0 0.0
00000000: 0000 0000 0000 0000

conv_block_2.0.running_mean f4 [2]
0.03302878 -0.11747687
00000000: 3049 073d b797 f0bd

conv_block_2.0.running_var f4 [2]
0.55685157 0.6435424
00000000: d38d 0e3f 32bf 243f

conv_block_2.2.weight f4 [4, 2, 3, 3]
-0.13964574 0.1825655 -0.056031123 0.14346148 0.035248175 0.22745325 -0.19816533 -0.027788818
0.20734082 -0.21228915 -0.22768205 0.23278986 -0.12307236 0.15234162 -0.15794241 0.13912071
-0.18277586 -0.22256549 0.09578459 -0.16907722 -0.09459655 0.19939213 0.15460415 -0.027930692
0.104049936 0.19953619 0.094457105 -0.15886372 0.053827837 -0.040563807 -0.15675265 0.049757794
0.029579327 -0.05154188 -0.0012434721 0.14147453 0.068723395 0.006530568 0.1723174 0.17227615
0.069652066 0.122093424 -0.078956306 0.08006342 0.078450784 -0.00010044873 0.024031475 0.052826717
0.090137765 0.0053340495 -0.06316456 0.23237683 0.16668431 0.14264433 -0.033233628 -0.10699913
0.23323305 -0.13503297 -0.20528992 -0.031313345 0.038618013 0.1397682 -0.22595745 -0.011250034
0.09637706 -0.16064084 -0.20812558 0.012145564 0.082397625 0.15782522 -0.21655458 0.074126855
00000000: 4bff 0ebe 73f2 3a3e e480 65bd 91e7 123e
00000010: 6460 103d 81e9 683e daeb 4abe 60a5 e3bc
00000020: 2751 543e 5462 59be 7c25 69be 7760 6e3e
00000030: 5d0d fcbd 71ff 1b3e a8bb 21be a975 0e3e
00000040: 9829 3bbe 35e8 63be b62a c43d 9422 2dbe
00000050: d6bb c1bd 732d 4c3e 8d50 1e3e e8ce e4bc
00000060: 2218 d53d 3753 4c3e ba72 c13d 2cad 22be
00000070: 947a 5c3d 3c26 26bd c483 20be d4ce 4b3d
00000080: 5850 f23c 941d 53bd 00fc a2ba b3de 103e
00000090: dabe 8c3d 60fe d53b f973 303e 2969 303e
000000a0: bea5 8e3d 1e0c fa3d d8b3 a1bd 4af8 a33d
000000b0: ceaa a03d 00a8 d2b8 a8dd c43c d460 583d
000000c0: 269a b83d 40c9 ae3b 6c5c 81bd 31f4 6d3e
000000d0: 4baf 2a3e 5b11 123e fc1f 08bd 5c22 dbbd
000000e0: a5d4 6e3e 1546 0abe 8537 52be 6c42 00bd
000000f0: ec2d 1e3d 651f 0f3e 6461 67be 1052 38bc
00000100: 5661 c53d 087f 24be df1e 55be 30fe 463c
00000110: 16c0 a83d ef9c 213e 7cc0 5dbe d2cf 973d

conv_block_2.2.bias f4 [4]
-0.042160004 -0.11773905 -0.15869053 1.7538667e-05
00000000: f8af 2cbd 2c21 f1bd c57f 22be 0020 9337

conv_block_2.3.weight f4 [4]
1.0 1.0 1.0 1.0
00000000: 0000 803f 0000 803f 0000 803f 0000 803f

conv_block_2.3.bias f4 [4]
0.0 0.0 0.0 0.0
00000000: 0000 0000 0000 0000 0000 0000 0000 0000

conv_block_2.3.running_mean f4 [4]
-0.056544267 -0.0021465705 0.106920116 -0.06748215
00000000: f69a 67bd 7aad 0cbb eff8 da3d 1534 8abd

conv_block_2.3.running_var f4 [4]
0.54746926 0.5512327 0.56099945 0.5414474
00000000: f226 0c3f 961d 0d3f a99d 0f3f 4c9c 0a3f

conv_block_2.5.weight f4 [4, 4, 3, 3]
0.11436097 0.016098037 -0.019101039 -0.009673655 0.1552854 -0.07616095 -0.07526134 0.08021887
-0.14544636 -0.06284317 -0.06364226 0.10461022 0.06070222 0.15450446 -0.06077727 -0.05651574
-0.16006218 -0.069927454 -0.08643641 0.048795417 0.104987845 0.14321353 0.092177376 -0.12050831
-0.16584724 0.0038702488 -0.117931366 0.019774005 0.0033432245 0.06041336 -0.03659214 0.008587465
0.110929266 -0.16273382 0.043351367 -0.050655566 0.12559591 0.14518242 -0.12449561 -0.004704416
0.16637678 -0.14301036 -0.11194986 0.068715855 -0.009589687 0.10574241 0.07991953 0.14635344
-0.1211917 0.03277737 0.08330615 -0.021770194 0.156374 -0.074887596 0.075512275 0.06338018
-0.1382497 -0.077293456 0.03003861 -0.15277235 -0.10285529 0.09979682 -0.02636309 -0.0075169206
-0.044667564 0.0114706755 -0.095914945 0.13423307 0.12384929 0.13807149 -0.15634045 0.11069085
0.111105695 0.12293865 -0.08717196 -0.024824068 0.049149558 -0.021624207 0.08037569 -0.08632623
-0.011965871 0.04866378 -0.120303854 0.16488703 0.017353758 0.097871855 0.14401267 -0.022291884
-0.010638595 -0.08724421 -0.13148074 -0.05269669 -0.05082202 0.11450429 -0.16304442 -0.11582929
0.10365857 0.08832596 -0.08486138 -0.028254494 0.0023024082 -0.014791504 -0.078429125 -0.035914555
0.088031426 0.09796961 0.091476336 -0.09038393 -0.13570914 -0.10215764 -0.03788258 0.09993528
0.1430357 0.10825841 0.13330542 -0.10194956 0.058478296 -0.09843981 0.020907357 0.09404077
0.002245739 -0.1352731 0.08397214 -0.042123497 -0.10513614 0.018846273 -0.0893753 -0.12630497
-0.053317547 -0.009253785 0.0757855 -0.16483703 -0.1519992 -0.078123674 0.002755478 0.00983052
-0.014853343 0.13962208 -0.074356854 -0.06784159 -0.015914738 -0.13425675 -0.027168468 -0.112285554
00000000: 1636 ea3d 08e0 833c c879 9cbc 407e 1ebc
00000010: 2303 1f3e 46fa 9bbd 9e22 9abd ca49 a43d
00000020: e4ef 14be ebb3 80bd e056 82bd e23d d63d
00000030: e4a2 783d 6b36 1e3e 96f1 78bd 0c7d 67bd
00000040: 57e7 23be 2036 8fbd 9305 b1bd b4dd 473d
00000050: de03 d73d 91a6 123e 7ec7 bc3d 10cd f6bd
00000060: dcd3 29be 00a4 7d3b 0086 f1bd 18fd a13c
00000070: 001a 5b3b 0074 773d a4e1 15bd 70b2 0c3c
00000080: e22e e33d b2a3 26be 3491 313d 367c 4fbd
00000090: 379c 003e b3aa 143e 8ef7 febd 8027 9abb
000000a0: ad5e 2a3e 4f71 12be f845 e5bd e6ba 8c3d
000000b0: 101e 1dbc 7a8f d83d daac a33d addd 153e
000000c0: 5b33 f8bd 9041 063d 6a9c aa3d 6857 b2bc
000000d0: 8120 203e ab5e 99bd 2ea6 9a3d 78cd 813d
000000e0: 5491 0dbe 084c 9ebd 8813 f63c 5b70 1cbe
000000f0: cba5 d2bd 4662 cc3d 68f7 d7bc 8050 f6bb
00000100: 56f5 36bd 80ef 3b3c 0e6f c4bd 6574 093e
00000110: b2a4 fd3d 9d62 0d3e b617 20be e2b1 e23d
00000120: 628b e33d 42c7 fb3d 3687 b2bd d85b cbbc
00000130: 0c51 493d 4025 b1bc 029c a43d cecb b0bd
00000140: 800c 44bc ac53 473d de61 f6bd 25d8 283e
00000150: 7829 8e3c 0a71 c83d 0f78 133e 789d b6bc
00000160: 804d 2ebc 18ad b2bd e3a2 06be 7cd8 57bd
00000170: c02a 50bd 3a81 ea3d 1ef5 26be e837 edbd
00000180: f24a d43d 3ee4 b43d cecb adbd f875 e7bc
00000190: 00e4 163b 1058 72bc 739f a0bd 241b 13bd
000001a0: d249 b43d 4aa4 c83d f257 bb3d 361b b9bd
000001b0: 56f7 0abe 0638 d1bd c42a 1bbd deaa cc3d
000001c0: f377 123e 96b6 dd3d 3781 083e eeca d0bd
000001d0: f086 6f3d d09a c9bd e845 ab3c 7298 c03d
000001e0: 402d 133b 0885 0abe 96f9 ab3d b089 2cbd
000001f0: 9e51 d7bd 8063 9a3c 660a b7bd 1756 01be
00000200: 8063 5abd 309d 17bc 6e35 9b3d 0acb 28be
00000210: aea5 1bbe 4eff 9fbd 4095 343b 3010 213c
00000220: 705b 73bc 17f9 0e3e 6848 98bd 88f0 8abd
00000230: a05f 82bc 9a7a 09be 6890 debc f8f5 e5bd

conv_block_2.5.bias f4 [4]
-0.16128066 0.1231624 -0.015127137 -0.012435749
00000000: c226 25be 923c fc3d d0d7 77bc 50bf 4bbc

conv_block_3.0.weight f4 [4]
1.0 1.0 1.0 1.0
00000000: 0000 803f 0000 803f 0000 803f 0000 803f

conv_block_3.0.bias f4 [4]
0.0 0.0 0.0 0.0
00000000: 0000 0000 0000 0000 0000 0000 0000 0000

conv_block_3.0.running_mean f4 [4]
-0.050742026 0.23450196 0.06904556 -0.10508269
00000000: dfd6 4fbd 4821 703e c267 8d3d 9835 d7bd

conv_block_3.0.running_var f4 [4]
0.54065126 0.59484994 0.55671227 0.56234354
00000000: 1f68 0a3f 1648 183f b284 0e3f bff5 0f3f

conv_block_3.2.weight f4 [8, 4, 3, 3]
0.08531438 0.03587152 -0.07358851 -0.054893836 0.056667507 -0.037487686 0.08860715 0.09608053
-0.09635979 -0.12745236 0.13641174 0.048984647 0.01671426 0.09771837 -0.10698938 0.14219178
0.08838411 -0.12784682 -0.040313706 -0.04585515 0.015160605 -0.037564293 0.14599203 -0.054081544
0.021558762 0.09973781 -0.042086348 -0.009996578 -0.1556288 0.039768234 0.124923244 -0.088112116
-0.00839144 0.14045314 -0.105995774 0.0036997348 -0.0981279 0.034816727 0.014660761 -0.11160972
-0.13194124 0.029314145 -0.08529216 0.12763111 -0.046834968 -0.11226394 -0.05013784 0.06570725
-0.13707447 0.08743228 -0.07630013 0.06289314 0.12317698 0.11254628 0.16207518 0.07617879
0.014428005 0.069597304 -0.14791754 -0.08218217 -0.052636527 -0.01147455 0.125434 0.0051402897
-0.09895371 0.12698995 0.112442985 -0.15750109 -0.10871726 -0.014934897 -0.054872833 -0.14307833
-0.0841735 -0.008455589 -0.13687949 0.16000183 0.014706448 0.024639353 0.16100873 -0.1370986
-0.018069685 0.16501607 -0.077038094 -0.045612477 -0.11704463 -0.094810724 0.04945256 -0.14507847
0.05869399 -0.12288314 -0.0988581 -0.12470935 0.08698465 0.14492951 -0.087705396 0.06973457
-0.07648258 -0.08134969 0.15135892 0.03034781 0.019725606 -0.08284321 -0.10891958 -0.14377514
0.110166684 -0.112746835 -0.13942015 0.13699053 0.10768382 -0.008405879 -0.09705788 -0.11832254
-0.05702337 0.0199427 -0.008635357 0.009199798 0.14931487 0.1567731 0.03961347 -0.05106481
-0.019917205 -0.11632439 0.076489255 -0.040999755 0.117386386 0.016581312 0.10510935 0.05990465
-0.08153123 0.11327036 -0.066196226 -0.09362066 -0.007881165 0.032796845 0.09099452 0.098083034
0.11896284 0.087558225 -0.059579298 0.0759909 0.028132126 0.024451956 -0.022471324 0.14158948
0.11100437 0.09930919 -0.050151885 -0.06916124 -0.06811385 0.15505745 0.038807735 0.1038975
-0.13843565 -0.00010661781 0.06724532 -0.06545963 -0.1361435 -0.039558247 -0.036716983 -0.12840132
0.0008969754 -0.038869455 0.014669836 -0.014879003 -0.11183479 0.014727011 0.14701806 0.06141317
-0.16582394 0.08228676 0.088223144 0.033486426 -0.11368819 0.05891134 -0.093905985 -0.14346872
0.102172896 0.14326192 0.043322876 -0.06716119 -0.16337167 -0.11414991 0.15302856 -0.09857595
-0.15312132 -0.10298638 -0.024624065 0.061404884 -0.052590787 0.12252124 0.105141625 0.06899981
0.026514992 0.12799387 0.15389271 0.13600464 -0.019992903 -0.02034767 0.02283518 -0.021077871
-0.08483225 0.16215958 0.019514814 0.04220307 -0.12709263 0.019838199 0.1566485 0.022430956
-0.12282233 0.09376468 -0.033637777 -0.015216604 0.14284809 -0.13610354 -0.0053426176 0.111073926
-0.08193831 -0.034815386 -0.14971948 -0.16209023 -0.068968914 0.12304185 0.025814474 -0.15483122
-0.067765996 0.15889119 0.10929574 0.07229702 -0.1637609 0.06546217 -0.019294724 -0.051557206
-0.08878239 0.07526843 -0.10340254 0.0033103228 0.087892875 -0.11269542 0.018267944 0.0760265
-0.04448551 -0.12141311 -0.01714778 -0.08386499 -0.14279895 0.012904391 0.12420501 -0.045062765
-0.10230484 0.08959706 -0.16072053 -0.0058324784 -0.030831799 0.13479291 0.11421223 -0.15646741
00000000: 4eb9 ae3d 04ee 123d 93b5 96bd 5cd8 60bd
00000010: 301c 683d b08c 19bd aa77 b53d dec5 c43d
00000020: 4858 c5bd df82 02be 85af 0b3e 20a4 483d
00000030: 58ec 883c 9220 c83d 401d dbbd b99a 113e
00000040: ba02 b53d 47ea 02be fc1f 25bd 9cd2 3bbd
00000050: 3064 783c 04dd 19bd ef7e 153e 9c84 5dbd
00000060: 009c b03c 5643 cc3d bc62 2cbd b0c8 23bc
00000070: 285d 1fbe 04e4 223d c2d7 ff3d 2074 b4bd
00000080: 407c 09bc f3d2 0f3e 5014 d9bd 4077 723b
00000090: 48f7 c8bd fc9b 0e3d b033 703c a393 e4bd
000000a0: 9b1b 07be 3824 f03c a8ad aebd bbb1 023e
000000b0: 06d6 3fbd a3ea e5bd 565d 4dbd 8691 863d
000000c0: 405d 0cbe b20f b33d 3e43 9cbd 1ece 803d
000000d0: 3644 fc3d aa7e e63d 09f7 253e a003 9c3d
000000e0: 7063 6c3c 0889 8e3d b277 17be 204f a8bd
000000f0: 6699 57bd c0ff 3bbc c571 003e e06f a83b
00000100: 3ea8 cabd a709 023e 8248 e63d f747 21be
00000110: 28a7 debd 80b1 74bc 56c2 60bd 2083 12be
00000120: 2863 acbd 5089 0abc 232a 0cbe 85d7 233e
00000130: 50f3 703c 78d8 c93c 79df 243e 9363 0cbe
00000140: e006 94bc f9f9 283e 26c6 9dbd 26d4 3abd
00000150: 18b5 efbd 202c c2bd c48e 4a3d 738f 14be
00000160: 1c69 703d 28aa fbbd 1e76 cabd 9e67 ffbd
00000170: 0225 b23d 6768 143e e39e b3bd 00d1 8e3d
00000180: e6a2 9cbd ab9a a6bd d5fd 1a3e f89b f83c
00000190: 9897 a13c b3a9 a9bd 3b11 dfbd ca39 13be
000001a0: 129f e13d d0e7 e6bd 28c4 0ebe 3f47 0c3e
000001b0: 5689 dc3d d0b8 09bc 48c6 c6bd 1653 f2bd
000001c0: 5691 69bd e05e a33c 507b 0dbc c0ba 163c
000001d0: ffe5 183e 2189 203e bc41 223d 5629 51bd
000001e0: 6829 a3bc 7b3b eebd 66a6 9c3d 5cef 27bd
000001f0: 4668 f03d 88d5 873c 9243 d73d 945e 753d
00000200: d8f9 a6bd 4afa e73d e391 87bd 30bc bfbd
00000210: 0020 01bc fc55 063d 565b ba3d c2df c83d
00000220: caa2 f33d ba51 b33d 6c09 74bd 1ea1 9b3d
00000230: 5875 e63c 784f c83c c815 b8bc d5fc 103e
00000240: 4256 e33d 9e62 cb3d 106c 4dbd 68a4 8dbd
00000250: 467f 8bbd 61c7 1e3e dcf4 1e3d 36c8 d43d
00000260: 13c2 0dbe 0098 dfb8 eab7 893d b30f 86bd
00000270: 3469 0bbe d407 22bd 8c64 16bd a37b 03be
00000280: 0023 6b3a 9435 1fbd c059 703c 10c7 73bc
00000290: a309 e5bd 9049 713c e78b 163e 608c 7b3d
000002a0: c0cd 29be f685 a83d 56ae b43d 1029 093d
000002b0: 5bd5 e8bd 044d 713d c851 c0bd 77e9 12be
000002c0: 0640 d13d 41b3 123e 5473 313d ce8b 89bd
000002d0: e74a 27be 6ec7 e9bd 85b3 1c3e 30e2 c9bd
000002e0: d6cb 1cbe 86ea d2bd 68b8 c9bc b083 7b3d
000002f0: 7069 57bd 6aec fa3d 7e54 d73d c64f 8d3d
00000300: f835 d93c d310 033e 0d96 1d3e cd44 0b3e
00000310: 28c8 a3bc 28b0 a6bc d810 bb3c 80ab acbc
00000320: 88bc adbd 290d 263e 88dd 9f3c 20dd 2c3d
00000330: 9224 02be b883 a23c 7768 203e 20c1 b73c
00000340: 468a fbbd b207 c03d c4c7 09bd 104f 79bc
00000350: c546 123e ba5e 0bbe 2011 afbb ba7a e33d
00000360: 46cf a7bd 949a 0ebd 1050 19be fbfa 25be
00000370: 933f 8dbd 5efd fb3d e078 d33c 138c 1ebe
00000380: e6c8 8abd 5fb4 223e 72d6 df3d 7610 943d
00000390: f0b0 27be 0811 863d f80f 9ebc a62d 53bd
000003a0: 8bd3 b5bd 5626 9a3d b6c4 d3bd 00f2 583b
000003b0: 2e01 b43d dbcc e6bd a8a6 953c c8b3 9b3d
000003c0: 7036 36bd 70a7 f8bd 8079 8cbc 68c1 abbd
000003d0: e339 12be f06c 533c 325f fe3d bc93 38bd
000003e0: 3385 d1bd aa7e b73d ec93 24be 601e bfbb
000003f0: f892 fcbc 2707 0a3e 1ae8 e93d fe38 20be

conv_block_3.2.bias f4 [8]
0.05689639 -0.07415178 -0.08694228 0.02967821 0.09646489 -0.052367732 -0.10187527 -0.06838362
00000000: 300c 693d e3dc 97bd cb0e b2bd b81f f33c
00000010: 628f c53d 8c7f 56bd fba3 d0bd b60c 8cbd

conv_block_3.3.weight f4 [8]
1.0 1.0 1.0 1.0 1.0 1.0 1.0 1.0
00000000: 0000 803f 0000 803f 0000 803f 0000 803f
00000010: 0000 803f 0000 803f 0000 803f 0000 803f

conv_block_3.3.bias f4 [8]
0.0 0.0 0.0 0.0 0.0 0.0 0.0 0.0
00000000: 0000 0000 0000 0000 0000 0000 0000 0000
00000010: 0000 0000 0000 0000 0000 0000 0000 0000

conv_block_3.3.running_mean f4 [8]
0.06983392 -0.09526816 -0.14577325 0.14444795 0.027748022 0.048607834 -0.19545293 0.0222665
00000000: 1605 8f3d f41b c3bd 9545 15be 2aea 133e
00000010: d24f e33c 0219 473d d024 48be 3c68 b63c

conv_block_3.3.running_var f4 [8]
0.6304848 0.56739473 0.59901935 0.5984624 0.5671923 0.60774326 0.6257915 0.5636372
00000000: 7467 213f c840 113f 5559 193f d534 193f
00000010: 8433 113f 1095 1b3f df33 203f 874a 103f

conv_block_3.5.weight f4 [8, 8, 3, 3]
0.1075154 0.083954014 0.011137493 0.09454145 0.0032652318 -0.03905876 -0.09348875 -0.02280952
-0.056738522 -0.04282467 0.0958978 0.028024085 -0.0040944144 -0.11126401 0.048921548 0.010811649
-0.055249207 -0.0010457337 0.107148014 0.02753938 -0.0010901019 0.05642625 0.09086809 -0.075801164
0.08482463 0.11338625 0.045819692 0.0942202 0.037749164 -0.052829124 -0.027445987 0.040984876
-0.067940705 0.022171415 -0.10745566 0.06531974 -0.035071112 0.052358888 -0.10091326 0.021006517
-0.035057172 0.016356729 -0.06944941 0.090898626 0.0034849942 -0.0015401691 -0.06808843 -0.0154315755
0.08090877 -0.100627385 -0.069113165 -0.10434069 0.011188082 -0.061849546 0.07382206 0.0687288
-0.044350736 0.07572731 -0.023000479 -0.055765957 0.03822591 -0.010865107 0.020459734 -0.050438635
-0.06370318 -0.010855891 0.0083879605 -0.06860639 -0.103734635 -0.012328021 0.11761213 0.10271139
0.044983767 -0.01160644 0.07339934 0.10682721 0.03000515 -0.11654427 0.051259436 0.011460759
-0.056903835 -0.051796593 0.038975768 -0.032973744 -0.0127083585 0.021229722 -0.012180522 0.05673235
-0.09972201 -0.08084978 -0.023450464 -0.01068449 0.032225348 0.057293497 -0.027364194 -0.07277766
0.009348325 -0.026036002 -0.025390796 -0.00041993707 -0.063644156 -0.06544277 0.117300846 -0.10966377
-0.111985005 0.053411745 0.0075493082 -0.081229284 -0.09513529 0.08028447 -0.041443966 -0.02444221
0.069321625 0.002578728 0.034015797 0.08626508 0.04814551 -0.06740666 -0.0827954 -0.0027754158
-0.025484905 -0.052700378 0.11236247 0.009205721 -0.04996874 -0.004897788 -0.0658534 0.01878988
-0.11002287 0.008081682 -0.0962787 -0.088844754 0.054403283 0.09313471 -0.08764666 -0.051951386
-0.07968345 0.0225709 -0.059530444 0.01881773 0.09643435 0.030449785 -0.10675204 -0.05582055
0.0013385117 -0.024458349 -0.047907062 0.06945007 0.02915866 -0.11553294 0.084660746 0.078620665
0.11397795 0.037880562 0.00056372583 -0.081937686 -0.074914366 0.043833442 0.038677834 -0.0971561
0.039130263 0.04425647 -0.015464015 0.11306789 0.0383733 -0.073374234 -0.038466893 0.058546893
-0.017061576 0.011827372 -0.07819715 0.0584184 0.08744047 0.09307792 -0.08552495 -0.04602027
0.0023210421 0.019598387 -0.06745084 0.090261884 -0.028934442 -0.09248787 0.012875833 -0.009680904
-0.08840564 -0.0037218034 -0.10611509 -0.012347497 0.055438347 -0.10479262 0.020666532 0.0631708
0.11589154 -0.0985139 0.05391387 -0.007999644 0.076311864 0.088592686 -0.02332224 -0.09681401
0.018482588 -0.05526264 -0.012938097 -0.09466438 0.046951227 -0.044510335 0.11002455 0.07620137
-0.020486742 0.1021016 -0.06125481 -0.03223776 -0.10523054 0.04605619 0.052336924 0.09100101
-0.09782027 -0.040891796 -0.057233006 -0.0060560703 0.06071713 0.020013161 -0.10542676 0.06468185
0.10022739 -0.021967918 0.11223208 0.0049541667 0.0044144616 -0.07285101 -0.016517743 -0.06543794
-0.012390047 0.013234444 0.058206923 -0.038262725 0.0716827 -0.1178257 -0.042540684 0.11320289
-0.008411333 0.015146889 0.09465475 0.022496961 -0.062041495 -0.1174551 0.10588261 0.033549942
-0.030835256 -0.002700895 0.10997931 0.030254118 -0.058083765 0.09631743 -0.11131216 0.050044663
00000000: 0931 dc3d 15f0 ab3d 087a 363c f39e c13d
00000010: 80fd 553b 14fc 1fbd 0877 bfbd 08db babc
00000020: a766 68bd ec68 2fbd 1166 c43d c492 e53c
00000030: 702a 86bb 63de e3bd f661 483d 5823 313c
00000040: fe4c 62bd 0011 89ba 6b70 db3d 449a e13c
00000050: c0e1 8eba 361f 673d 0d19 ba3d a43d 9bbd
00000060: 89b8 ad3d 0d37 e83d 6ead 3b3d 85f6 c03d
00000070: de9e 1a3d 5a63 58bd 68d6 e0bc c2df 273d
00000080: 7f24 8bbd d4a0 b53c b711 dcbd 5bc6 853d
00000090: baa6 0fbd 4676 563d 9cab cebd dc15 ac3c
000000a0: 1c98 0fbd 8cfe 853c 7e3b 8ebd 0f29 ba3d
000000b0: 8064 643b 80df c9ba f271 8bbd b8d4 7cbc
000000c0: 7fb3 a53d bb15 cebd 348b 8dbd 92b0 d5bd
000000d0: 384e 373c f355 7dbd 0530 973d afc1 8c3d
000000e0: 1ea9 35bd eb16 9b3d 806b bcbc d86a 64bd
000000f0: c692 1c3d 9003 32bc 2c9b a73c be98 4ebd
00000100: d076 82bd e8dc 31bc a86d 093c 8281 8cbd
00000110: d372 d4bd 78fb 49bc a1de f03d 595a d23d
00000120: e640 383d f028 3ebc 6552 963d 39c8 da3d
00000130: 5ccd f53c c3ae eebd 6af5 513d e8c5 3b3c
00000140: ff13 69bd aa28 54bd 0ea5 1f3d 7a0f 07bd
00000150: b836 50bc f4e9 ad3c d090 47bc 2e60 683d
00000160: 0e3b ccbd 9294 a5bd 301b c0bc 000e 2fbc
00000170: bafe 033d 96ac 6a3d e02a e0bc 740c 95bd
00000180: b829 193c 7449 d5bc 5c00 d0bc 002b dcb9
00000190: de57 82bd dc06 86bd 6d3b f03d 6697 e0bd
000001a0: 6558 e5bd 46c6 5a3d 3060 f73b 8a5b a6bd
000001b0: 4ad6 c2bd 2f6c a43d 26c1 29bd 083b c8bc
000001c0: 7ff8 8d3d e0ff 283b 2654 0b3d bfab b03d
000001d0: 3a34 453d 810c 8abd a290 a9bd c0e3 35bb
000001e0: b8c5 d0bc 5adc 57bd 4b1e e63d 98d3 163c
000001f0: 06ac 4cbd a07d a0bb 26de 86bd 3ced 993c
00000200: ac53 e1bd 0869 043c c42d c5bd 3df4 b5bd
00000210: fad5 5e3d 69bd be3d 1880 b3bd faca 54bd
00000220: 1431 a3bd 9ce6 b83c 32d6 73bd a427 9a3c
00000230: 5f7f c53d d471 f93c d0a0 dabd 17a4 64bd
00000240: 0071 af3a e05c c8bc 323a 44bd d73b 8e3d
00000250: 24de ee3c 899c ecbd 9d62 ad3d df03 a13d
00000260: 456d e93d a628 1b3d 00c7 133a f2ce a7bd
00000270: b46c 99bd b28a 333d a66c 1e3d c7f9 c6bd
00000280: 0e47 203d 4646 353d c85c 7dbc 2390 e73d
00000290: 522d 1d3d 3b45 96bd 768f 1dbd dece 6f3d
000002a0: b8c4 8bbc 98c7 413c d425 a0bd 2248 6f3d
000002b0: fd13 b33d a39f be3d b427 afbd c07f 3cbd
000002c0: a01c 183b cc8c a03c aa23 8abd 39db b83d
000002d0: ec07 edbc 486a bdbd 28f5 523c a89c 1ebc
000002e0: 040e b5bd 80e9 73bb de52 d9bd 284d 4abc
000002f0: 5213 633d 839d d6bd dc4c a93c b15f 813d
00000300: 8b58 ed3d a8c1 c9bd cad4 5c3d f010 03bc
00000310: 6549 9c3d 1570 b53d 480e bfbc 6c46 c6bd
00000320: cc68 973c 145b 62bd 50fa 53bc 66df c1bd
00000330: ee4f 403d 7850 36bd 8d54 e13d 770f 9c3d
00000340: d0d3 a7bc a51a d13d 53e6 7abd be0b 04bd
00000350: 1c83 d7bd 6aa5 3c3d 3e5f 563d bd5e ba3d
00000360: fe55 c8bd 287e 27bd 286d 6abd 0072 c6bb
00000370: 86b2 783d a4f2 a33c fce9 d7bd eb77 843d
00000380: 0544 cd3d 10f6 b3bc efd9 e53d 9056 a23b
00000390: 30a7 903b e932 95bd 3850 87bc 5404 86bd
000003a0: a0ff 4abc 48d5 583c 626a 6e3d 60b9 1cbd
000003b0: 61ce 923d 9a4e f1bd 243f 2ebd ebd6 e73d
000003c0: b0cf 09bc a82a 783c 59da c13d 8c4b b83c
000003d0: 391f 7ebd 4d8c f0bd fbd8 d83d aa6b 093d
000003e0: 389a fcbc 8001 31bb d53c e13d 7cd7 f73c
000003f0: 3ee9 6dbd 1342 c53d a1f7 e3bd a2fb 4c3d

conv_block_3.5.bias f4 [8]
-0.03723976 0.041311212 -0.11033011 -0.11674545 0.05215264 -0.03727133 -0.0096789 0.019651271
00000000: b888 18bd f235 293d c1f4 e1bd 3d18 efbd
00000010: 029e 553d d2a9 18bd 4094 1ebc b4fb a03c

conv_block_4.0.weight f4 [8]
1.0 1.0 1.0 1.0 1.0 1.0 1.0 1.0
00000000: 0000 803f 0000 803f 0000 803f 0000 803f
00000010: 0000 803f 0000 803f 0000 803f 0000 803f

conv_block_4.0.bias f4 [8]
0.0 0.0 0.0 0.0 0.0 0.0 0.0 0.0
00000000: 0000 0000 0000 0000 0000 0000 0000 0000
00000010: 0000 0000 0000 0000 0000 0000 0000 0000

conv_block_4.0.running_mean f4 [8]
0.09093852 -0.04003934 0.07376392 0.088396154 0.13234115 -0.103994735 0.030266797 0.09340435
00000000: fa3d ba3d 4a00 24bd 8a11 973d 0b09 b53d
00000010: 7084 073e 31fb d4bd 13f2 f73c c84a bf3d

conv_block_4.0.running_var f4 [8]
0.5446111 0.5436609 0.6157543 0.56462127 0.54478776 0.54372454 0.5516291 0.5832542
00000000: a26b 0b3f 5c2d 0b3f 13a2 1d3f 058b 103f
00000010: 3677 0b3f 8831 0b3f 9137 0d3f 2650 153f

conv_block_4.2.weight f4 [16, 8, 3, 3]
-0.114952244 -0.009426467 0.07435725 0.012426995 -0.023724154 0.04432457 0.1014216 0.011800744
-0.090799585 -0.051732324 0.0056622475 -0.008538611 0.07919601 0.11240742 0.042742915 -0.004170403
-0.044154316 -0.068368316 -0.101153955 -0.103379756 0.096620135 -0.05974018 0.012536518 -0.036104664
0.11256658 0.0068535134 0.017385758 0.028692521 0.0023785979 -0.07051583 0.051548846 -0.00856486
0.09006619 0.02628728 -0.0083272755 -0.0531947 -0.019844435 -0.074748196 0.07217655 0.09928148
-0.10624961 -0.03408447 -0.030128404 -0.11141922 0.06614777 0.11517323 -0.05952124 -0.10707814
0.100839935 -0.11774554 -0.012220368 0.028271995 0.07106545 0.08567139 -0.08445127 -0.066084474
-0.07914023 0.023353316 0.00079759955 0.0056428164 0.1046362 0.020219214 -0.006989844 -0.069199145
-0.05563755 0.06761027 -0.05353573 0.006989546 0.09424167 0.11225777 -0.11718872 0.080550306
0.00071306527 0.031874694 0.037779413 -0.11175191 0.07824088 0.04545621 0.025205813 -0.11458867
0.0015286356 -0.017004073 0.084946655 0.068275325 -0.019385539 -0.009573795 -0.0029859096 -0.026739523
0.028285109 0.11477282 -0.0020399392 -0.049337566 -0.105600335 0.08850578 0.061699368 0.027149655
-0.0043802485 0.05579429 0.08095787 -0.032953963 -0.011183567 0.0405462 -0.040485166 -0.015895233
0.11298772 0.08255071 -0.020885333 -0.026252821 -0.09918511 -0.06377068 0.09424975 -0.07850249
0.013014205 -0.09915455 -0.099669665 -0.06547603 0.06076882 0.069284715 -0.052419566 0.07670105
0.040741615 -0.017931432 -0.07017486 0.013414793 0.005677797 0.016612776 0.0806314 0.07357212
-0.0994905 -0.088109575 -0.011419632 -0.11000648 0.09132361 -0.05070082 0.010224052 0.10352547
-0.075584024 0.057351984 0.08834412 -0.00920587 0.006267011 -0.03830578 0.10827177 -0.0018975884
0.07286378 0.016727425 0.10653301 0.025023498 -0.04374753 0.015728883 -0.03237985 0.09647807
0.012624718 0.044716083 -0.08740756 -0.07927056 0.1115104 -0.10496786 -0.058693 -0.07912548
-0.02367577 0.037315793 0.04358112 0.02325458 0.05901646 -0.011403628 0.0023598745 0.054470785
-0.049532548 0.105583586 0.0905552 -0.04322391 0.046451442 0.10225295 0.022256143 -0.0023540258
0.106411465 0.034821354 0.093733855 -0.033392273 -0.107034996 -0.09312152 0.025626205 0.0084274635
-0.059999637 -0.0365697 0.040904634 -0.035915002 0.06661374 0.08229218 -0.11610722 0.050308786
0.047483183 -0.05604935 0.010593198 -0.037421793 0.03378179 0.04363943 0.09010937 0.06107167
0.09265249 -0.07014764 0.10799601 0.09512391 0.08942164 0.06988884 0.05245564 0.07445968
-0.032474034 0.031012483 0.09967739 -0.0051166117 0.017074086 -0.062306795 -0.021589428 -0.014141895
-0.1109046 -0.102681 0.04856979 -0.100424886 0.07265679 0.083328865 0.0148354545 -0.03693424
0.0889503 0.035703592 0.018625312 0.02675151 0.03170859 -0.022362009 0.027722813 -0.039683744
-0.020288877 0.106283404 0.0046092793 0.11553737 -0.1100592 -0.054274186 -0.038112693 0.007908545
-0.10379139 0.08701853 -0.0153054595 -0.0027364716 -0.036647722 -0.087651804 -0.07974559 0.00010035187
-0.11388586 0.115107186 -0.0027140751 -0.017084323 -0.10413094 -0.0063796565 0.08439947 -0.0033483952
00000000: 156c ebbd 7871 1abc 9d48 983d 989a 4b3c
00000010: 2859 c2bc ae8d 353d 21b6 cf3d e857 413c
00000020: 22f5 b9bd 46e5 53bd 608a b93b 88e5 0bbc
00000030: 8531 a23d dd35 e63d 3213 2f3d e0a7 88bb
00000040: 28db 34bd b004 8cbd ce29 cfbd c4b8 d3bd
00000050: c7e0 c53d 1eb2 74bd f865 4d3c 7ce2 13bd
00000060: 4f89 e63d 7093 e03b 946c 8e3c 940c eb3c
00000070: 40e2 1b3b 9a6a 90bd e224 533d a053 0cbc
00000080: 9f74 b83d 6c58 d73c 206f 08bc b0e2 59bd
00000090: cc90 a2bc 9515 99bd 4dd1 933d 1754 cb3d
000000a0: 6599 d9bd 289c 0bbd d8cf f6bc c32f e4bd
000000b0: 7b78 873d f1df eb3d 8bcc 73bd c94b dbbd
000000c0: 2b85 ce3d 9324 f1bd f037 48bc ac9a e73c
000000d0: c38a 913d 7b74 af3d caf4 acbd 4c57 87bd
000000e0: 4614 a2bd 744f bf3c 0016 513a 60e7 b83b
000000f0: 814b d63d c4a2 a53c 100b e5bb 48b8 8dbd
00000100: 33e4 63bd 4177 8a3d 4848 5bbd 9008 e53b
00000110: c701 c13d 67e7 e53d a400 f0bd 8ff7 a43d
00000120: 00ed 3a3a 0a8f 023d 96be 1a3d 2fde e4bd
00000130: c13c a03d 4a30 3a3d 6c7c ce3c 77ad eabd
00000140: 805c c83a 204c 8bbc 83f8 ad3d efd3 8b3d
00000150: 6cce 9ebc 68db 1cbc 40af 43bb d80c dbbc
00000160: 2cb6 e73c 030e eb3d 80b0 05bb 3016 4abd
00000170: fd44 d8bd 8542 b53d 7ab8 7c3d f468 de3c
00000180: 3088 8fbb 8e88 643d 3dcd a53d bcfa 06bd
00000190: 483b 37bc c613 263d c6d3 25bd b836 82bc
000001a0: 1b66 e73d 5910 a93d b817 abbc 2810 d7bc
000001b0: 9021 cbbd 349a 82bd 0306 c13d eac5 a0bd
000001c0: 8839 553c 8a11 cbbd 9c1f ccbd 4c18 86bd
000001d0: bae8 783d 25e5 8d3d e6b5 56bd 7115 9d3d
000001e0: aee0 263d f0e4 92bc d6b7 8fbd b8c9 5b3c
000001f0: d00c ba3b 8417 883c 1322 a53d fbac 963d
00000200: adc1 cbbd cb72 b4bd 6819 3bbc 144b e1bd
00000210: df07 bb3d aaab 4fbd c882 273c 2905 d43d
00000220: cccb 9abd eae9 6a3d c3ed b43d 38d4 16bc
00000230: 805b cd3b 86e6 1cbd 97bd dd3d 80b8 f8ba
00000240: 9b39 953d f407 893c fb2d da3d 14fe cc3c
00000250: 9c30 33bd dcd9 803c bca0 04bd 4b96 c53d
00000260: e8d7 4e3c 3628 373d bc02 b3bd 9a58 a2bd
00000270: 915f e43d 64f9 d6bd 1268 70bd 8a0c a2bd
00000280: b0f3 c1bc 72d8 183d 1e82 323d 6480 be3c
00000290: 3ebb 713d 48d6 3abc 20a8 1a3b c21c 5f3d
000002a0: a4e2 4abd 353c d83d 0175 b93d 8e0b 31bd
000002b0: de43 3e3d ff69 d13d 8452 b63c 0046 1abb
000002c0: 41ee d93d d6a0 0e3d 89f7 bf3d 56c6 08bd
000002d0: 2a35 dbbd 7fb6 bebd 0cee d13c 5813 0a3c
000002e0: 2ec2 75bd 1cca 15bd 9e8b 273d 9c1b 13bd
000002f0: c96c 883d cd88 a83d 9fc9 edbd 9610 4e3d
00000300: ba7d 423d 0194 65bd 188f 2d3c 9847 19bd
00000310: c65e 0a3d 42bf 323d 438b b83d 4a26 7a3d
00000320: 97c0 bd3d 91a9 8fbd 032d dd3d 53d0 c23d
00000330: b122 b73d e121 8f3d badb 563d 517e 983d
00000340: 7e03 05bd e40d fe3c a923 cc3d 40a9 a7bb
00000350: f4de 8b3c 6935 7fbd 50dc b0bc 68b3 67bc
00000360: f321 e3bd 6b4a d2bd 1ef1 463d 90ab cdbd
00000370: 15cd 943d 53a8 aa3d 6810 733c 5c48 17bd
00000380: 932b b63d ee3d 123d 1c94 983c fc25 db3c
00000390: dee0 013d 8830 b7bc f41a e33c 6c8b 22bd
000003a0: dc34 a6bc 1dab d93d 7009 973b db9e ec3d
000003b0: b866 e1bd 9c4e 5ebd 0e1c 1cbd d892 013c
000003c0: 9590 d4bd c536 b23d c0c3 7abc 6056 33bb
000003d0: ec1b 16bd ca82 b3bd a851 a3bd 0074 d238
000003e0: fd3c e9bd 51bd eb3d a0de 31bb 6cf4 8bbc
000003f0: 9a42 d5bd 700c d1bb a1d9 ac3d c070 5bbb

conv_block_4.2.bias f4 [16]
0.094022326 0.018065624 0.016459696 -0.11767316 0.103667565 -0.06234567 -0.08673671 -0.051631846
0.08757741 0.10556734 -0.10392397 0.0062824786 0.08308873 -0.11761856 -0.1107043 -0.007780671
00000000: c78e c03d 5cfe 933c 7cd6 863c a0fe f0bd
00000010: a94f d43d 2c5e 7fbd 04a3 b1bd ea7b 53bd
00000020: c95b b33d b133 d83d 17d6 d4bd 40dd cd3b
00000030: 6d2a aa3d 00e2 f0bd f0b8 e2bd 00f5 febb

conv_block_4.3.weight f4 [16]
1.0 1.0 1.0 1.0 1.0 1.0 1.0 1.0
1.0 1.0 1.0 1.0 1.0 1.0 1.0 1.0
00000000: 0000 803f 0000 803f 0000 803f 0000 803f
00000010: 0000 803f 0000 803f 0000 803f 0000 803f
00000020: 0000 803f 0000 803f 0000 803f 0000 803f
00000030: 0000 803f 0000 803f 0000 803f 0000 803f

conv_block_4.3.bias f4 [16]
0.0 0.0 0.0 0.0 0.0 0.0 0.0 0.0
0.0 0.0 0.0 0.0 0.0 0.0 0.0 0.0
00000000: 0000 0000 0000 0000 0000 0000 0000 0000
00000010: 0000 0000 0000 0000 0000 0000 0000 0000
00000020: 0000 0000 0000 0000 0000 0000 0000 0000
00000030: 0000 0000 0000 0000 0000 0000 0000 0000

conv_block_4.3.running_mean f4 [16]
0.045603864 0.060596354 0.19611995 -0.034652483 0.0012890005 -0.074543245 -0.20467941 -0.13628486
0.075880066 -0.06395944 -0.086703055 0.061327897 0.08671918 -0.19718307 -0.07674873 -0.00033149123
00000000: 1ecb 3a3d e233 783d abd3 483e c3ef 0dbd
00000010: aef3 a83a 21aa 98bd 7b97 51be 428e 0bbe
00000020: 0267 9b3d 2bfd 82bd 5f91 b1bd f632 7b3d
00000030: d399 b13d 5cea 49be 702e 9dbd 00cc adb9

conv_block_4.3.running_var f4 [16]
0.57340497 0.5692863 0.5857911 0.5542199 0.5738252 0.6056642 0.6757299 0.5793618
0.58093417 0.5643255 0.5762492 0.6940619 0.5667549 0.5725541 0.5925993 0.57606125
00000000: abca 123f bfbc 113f 68f6 153f 5be1 0d3f
00000010: 35e6 123f cf0c 1b3f a2fc 2c3f 0e51 143f
00000020: 1ab8 143f a377 103f 1185 133f 0aae 313f
00000030: d916 113f e892 123f 96b4 173f c078 133f

conv_block_4.5.weight f4 [16, 16, 3, 3]
0.055711396 0.06648993 0.056222446 -0.0550872 -0.030258756 -0.07614931 0.02262164 0.022321679
-0.025454156 -0.0605479 -0.058810703 -0.060043506 -0.0422706 0.048899688 0.04827059 -0.010169841
0.030218981 0.060296677 0.053232037 0.07603828 0.05373133 0.07072445 -0.00836087 -0.014208727
-0.0100858435 0.062668376 0.06784243 -0.00668028 0.027840346 -0.031975638 -0.06296449 0.08140128
-0.061553936 0.056391142 0.010653935 -0.038988136 0.06835363 -0.07791921 0.044557445 -0.024077129
-0.035261326 -0.048492193 -0.081632875 0.025515012 -0.05462593 -0.05735317 0.030626506 0.07019926
-0.0820986 -0.07221743 0.0543508 -0.022119623 -0.037162237 0.004547395 -0.021025341 0.0012054667
-0.053239666 -0.049081497 -0.06804448 0.01118803 0.02882424 0.017965846 0.042536207 -0.010287888
0.018749632 0.06447949 -0.022191577 0.07008969 -0.027037084 0.029980354 0.029185943 -0.041401666
-0.066191524 0.055815674 -0.04862731 0.055310674 -0.00916487 0.013049841 -0.02587865 -0.055937063
0.019867599 0.08100679 0.08065129 -0.032076668 0.006631285 0.08239443 -0.079913914 -0.033445686
-0.0074234903 0.044924386 -0.019619346 0.069357805 0.035148196 0.015036903 -0.012973547 0.028722823
-0.028052956 -0.056169234 -0.082300946 -0.018857934 -0.03188498 -0.025038987 -0.07644157 0.045438044
0.045900427 0.019148417 -0.06213523 -0.08124429 -0.06443032 0.026668213 0.03921619 -0.04014346
-0.024270028 0.047115378 -0.08294054 -0.07698485 0.06489279 0.05765871 -0.056459337 0.03493312
0.0045514703 0.037090056 -0.038891803 0.016618311 -0.033279568 -0.043752044 -0.081447564 -0.040150195
-0.026532374 0.069536276 -0.047883987 0.05830086 0.0030455291 -0.063377395 0.047185145 -0.031380832
-0.059075546 -0.061290406 0.056612097 0.033583842 0.054726787 -0.033925097 0.004534431 -0.034027785
-0.040323388 -0.030333996 0.043512158 0.05345466 0.005107753 0.08145646 0.047475018 0.040520817
-0.02346469 0.062230475 0.055134572 -0.07524228 0.042386927 0.0659985 0.022852212 -0.030456625
-0.079971954 0.031093054 -0.053774506 0.05326528 0.03833574 0.07319171 0.043634154 0.0050018653
0.07475408 0.08219493 0.0034641698 0.057636745 -0.06601566 0.03455583 -0.08068025 -0.054731004
0.04929308 -0.010336608 0.036620863 -0.061813485 -0.043928795 -0.031045698 -0.073055044 0.075655855
0.040829726 -0.0003086999 0.010757707 -0.07611537 0.03341285 0.08063259 -0.06578334 0.055726714
-0.039330613 0.0036628768 0.035941392 0.036028624 0.07397572 -0.07275908 0.06342288 -0.018995464
0.062614076 0.026688047 -0.003354676 -0.02578972 0.053088315 0.020760752 -0.06973845 -0.07115747
-0.047638338 -0.07174014 0.036666803 0.054072253 0.030105472 -0.041251175 0.014830507 -0.052254867
0.009314738 0.0629547 -0.023783647 -0.07596305 -0.010217898 0.06758929 -0.07125451 0.015368022
-0.024077903 -0.01410991 0.06153553 0.012570322 -0.039138995 -0.076185346 -0.06501973 -0.08288126
-0.018506259 -0.0644699 0.029661395 0.016031854 0.052545838 -0.07692693 0.052603714 -0.008398272
-0.070441775 -0.07879831 -0.08172755 0.0020821989 -0.04477351 -0.025977246 -0.02692796 0.058341943
0.061778553 -0.076898456 0.04324604 -0.042871952 0.06202046 0.016539603 0.04155606 -0.0044086203
00000000: a231 643d df2b 883d 8249 663d 1ea3 61bd
00000010: 36e1 f7bc 2bf4 9bbd 0451 b93c f4db b63c
00000020: 3c85 d0bc 1301 78bd 7ee3 70bd 2ef0 75bd
00000030: f023 2dbd 0a4b 483d 62b7 453d 689f 26bc
00000040: cc8d f73c a6f9 763d d609 5a3d f5b9 9b3d
00000050: 6215 5c3d fbd7 903d 08fc 08bc b8cb 68bc
00000060: 183f 25bc 4758 803d f9f0 8a3d 40e6 dabb
00000070: 7011 e43c e3f8 02bd 87f3 80bd b7b5 a63d
00000080: fb1f 7cbd 66fa 663d d88d 2e3c 06b2 1fbd
00000090: fdfc 8b3d 1b94 9fbd de81 363d 663d c5bc
000000a0: 2e6e 10bd c09f 46bd 232f a7bd dc04 d13c
000000b0: 70bf 5fbd 28eb 6abd 70e4 fa3c a1c4 8f3d
000000c0: 5023 a8bd bbe6 93bd f29e 5e3d 3634 b5bc
000000d0: 6e37 18bd 5002 953b 563d acbc c000 9e3a
000000e0: d611 5abd ae09 49bd e85a 8bbd 004e 373c
000000f0: d020 ec3c 1c2d 933c 723a 2e3d 888e 28bc
00000100: d498 993c d30d 843d 1ccb b5bc 2f8b 8f3d
00000110: e07c ddbc 5c99 f53c 5c17 ef3c cb94 29bd
00000120: 6c8f 87bd fa9e 643d 6e2d 47bd 728d 623d
00000130: 4028 16bc 00cf 553c 76ff d3bc 431e 65bd
00000140: 60c1 a23c e3e6 a53d 812c a53d d362 03bd
00000150: 404b d93b 69be a83d e8a9 a3bd 58fe 08bd
00000160: c040 f3bb a202 383d c0b8 a0bc 770b 8e3d
00000170: 8ef7 0f3d 585d 763c 008f 54bc 204c eb3c
00000180: 50cf e5bc b611 66bd 668d a8bd f47b 9abc
00000190: d399 02bd 901e cdbc 668d 9cbd 3e1d 3a3d
000001a0: 1602 3c3d 24dd 9c3c 8381 7ebd 6863 a6bd
000001b0: 0bf4 83bd 4c77 da3c 28a1 203d 786d 24bd
000001c0: f0d1 c6bc 0efc 403d bbdc a9bd 3caa 9dbd
000001d0: 83e6 843d 8a2b 6c3d e841 67bd 0816 0f3d
000001e0: 8024 953b beeb 173d 034d 1fbd 2023 883c
000001f0: 2850 08bd 5835 33bd fbcd a6bd 8874 24bd
00000200: 6c5a d9bc 0969 8e3d 0022 44bd e2cc 6e3d
00000210: 8097 473b 02cc 81bd 3645 413d 3089 00bd
00000220: 33f9 71bd a60b 7bbd 16e2 673d 368f 093d
00000230: 3229 603d 0bf5 0abd 9095 943b b860 0bbd
00000240: 232a 25bd 007f f8bc ce39 323d 46f3 5a3d
00000250: f05e a73b a5d2 a63d 2a75 423d 28f9 253d
00000260: 0639 c0bc 62e5 7e3d cad4 613d a018 9abd
00000270: ea9d 2d3d 392a 873d 9034 bb3c 2c80 f9bc
00000280: 56c8 a3bd dcb6 fe3c a842 5cbd b22c 5a3d
00000290: f005 1d3d 89e5 953d bab9 323d b0e6 a33b
000002a0: ab18 993d d155 a83d 2007 633b 8214 6c3d
000002b0: 3833 87bd 6a8a 0d3d b03b a5bd 9e2d 60bd
000002c0: 8ae7 493d e05a 29bc c2ff 153d 2330 7dbd
000002d0: aeee 33bd 8c53 febc e29d 95bd 75f1 9a3d
000002e0: 123d 273d 00d9 a1b9 1841 303c 60e2 9bbd
000002f0: eadb 083d b322 a53d 6ab9 86bd b241 643d
00000300: 2319 21bd e00c 703b 4837 133d c092 133d
00000310: 9580 973d b602 95bd dbe3 813d 609c 9bbc
00000320: cf3b 803d e4a0 da3c 20da 5bbb f644 d3bc
00000330: 2273 593d 7412 aa3c 08d3 8ebd 02bb 91bd
00000340: 6b20 43bd 7fec 92bd ee2f 163d de7a 5d3d
00000350: c09f f63c fef6 28bd a8fb 723c 3309 56bd
00000360: d89c 183c 65ee 803d ecd5 c2bc 8492 9bbd
00000370: f868 27bc 416c 8a3d e2ed 91bd 28ca 7b3c
00000380: 063f c5bc 402d 67bc ae0c 7c3d c0f3 4d3c
00000390: 3650 20bd 1007 9cbd 1029 85bd a6bd a9bd
000003a0: 709a 97bc cc08 84bd 74fc f23c 3c55 833c
000003b0: 4e3a 573d de8b 9dbd fe76 573d e898 09bc
000003c0: c743 90bd 0261 a1bd c660 a7bd 8075 083b
000003d0: 6e64 37bd 3cce d4bc 0698 dcbc f6f7 6e3d
000003e0: 820b 7d3d f07c 9dbd c222 313d 809a 2fbd
000003f0: 2a09 7e3d 107e 873c b036 2a3d 3076 90bb

conv_block_4.5.bias f4 [16]
0.08319185 0.041214734 0.010529548 0.0019820556 -0.06421959 0.019535385 -0.055434138 -0.0020773634
-0.030937612 0.016589098 -0.047220163 -0.051617473 0.0492687 -0.012021959 -0.018562049 -0.04055366
00000000: 7d60 aa3d c8d0 283d 2084 2c3c 60e5 013b
00000010: 8f85 83bd ac08 a03c e80e 63bd 6024 08bb
00000020: e070 fdbc dce5 873c ee69 41bd d86c 53bd
00000030: facd 493d c0f7 44bc 700f 98bc 981b 26bd

conv_block_5.0.weight f4 [16]
1.0 1.0 1.0 1.0 1.0 1.0 1.0 1.0
1.0 1.0 1.0 1.0 1.0 1.0 1.0 1.0
00000000: 0000 803f 0000 803f 0000 803f 0000 803f
00000010: 0000 803f 0000 803f 0000 803f 0000 803f
00000020: 0000 803f 0000 803f 0000 803f 0000 803f
00000030: 0000 803f 0000 803f 0000 803f 0000 803f

conv_block_5.0.bias f4 [16]
0.0 0.0 0.0 0.0 0.0 0.0 0.0 0.0
0.0 0.0 0.0 0.0 0.0 0.0 0.0 0.0
00000000: 0000 0000 0000 0000 0000 0000 0000 0000
00000010: 0000 0000 0000 0000 0000 0000 0000 0000
00000020: 0000 0000 0000 0000 0000 0000 0000 0000
00000030: 0000 0000 0000 0000 0000 0000 0000 0000

conv_block_5.0.running_mean f4 [16]
0.07125345 0.09608853 -0.023223558 0.32177064 0.18955132 0.056989662 0.24291725 0.26183
0.035686094 0.19625711 -0.020450607 -0.0024056293 0.044332813 0.22416763 0.1514425 0.036735088
00000000: 54ed 913d 10ca c43d 553f bebc 1fbf a43e
00000010: be19 423e fe6d 693d 4dbf 783e 950e 863e
00000020: 952b 123d a0f7 483e 0888 a7bc c3a7 1dbb
00000030: 5396 353d 338c 653e be13 1b3e 8877 163d

conv_block_5.0.running_var f4 [16]
0.5431216 0.57053834 0.54185104 0.5700162 0.5941289 0.5509478 0.5979585 0.58343077
0.57115656 0.606556 0.56305355 0.5538596 0.55632246 0.57116544 0.55929035 0.54003507
00000000: 040a 0b3f cd0e 123f c0b6 0a3f 95ec 113f
00000010: d518 183f ea0a 0d3f cf13 193f b85b 153f
00000020: 5137 123f 4147 1b3f 4724 103f bec9 0d3f
00000030: 266b 0e3f e637 123f a72d 0f3f bd3f 0a3f

conv_block_5.2.weight f4 [32, 16, 3, 3]
-0.023011249 0.02826973 0.053622194 0.012427293 -0.008628964 -0.05769567 0.08146236 -0.06373672
-0.016154714 0.01340168 0.008284904 0.045674346 -0.08115756 -0.07763708 0.00590837 -0.07162285
-0.007760167 0.02413655 0.05051706 0.0050808117 0.033807494 -0.056526802 0.02145601 0.03228125
0.03306455 -0.023292154 -0.01716584 -0.062665254 -0.06886862 0.06438524 0.033695884 -0.07388589
-0.07930716 0.04266534 0.02331552 0.051155366 -0.02328397 0.027907692 0.06268195 0.02439788
0.0074053705 0.010576926 0.009483449 0.01587484 0.05329933 -0.02039712 -0.023681365 0.04361313
0.0041207075 -0.040180635 -0.076226026 0.0032184124 -0.08085154 -0.065732375 0.06818042 0.03170649
0.010432966 0.009117521 -0.06695791 -0.05415722 0.0096388385 0.052911855 -0.07998569 -0.07689598
0.0729493 -0.02789282 -0.017251104 -0.05871297 -0.07351814 0.0046150684 -0.06516597 0.05898925
0.06144292 -0.06620623 -0.076546155 0.035224818 -0.04811309 0.020926513 0.029487051 -0.0053562224
-0.067367606 -0.08171651 0.0268173 -0.048446964 -0.066340774 -0.05947724 -0.077206455 -0.062637076
-0.042042088 -0.0044095814 0.02890239 0.035191536 -0.01998543 -0.073722035 -0.07961947 0.0785043
0.082195796 -0.080485016 0.009493433 0.06901758 0.039614566 0.037580095 0.02856686 0.05960051
0.014491044 0.0012282729 0.082419835 -0.023657046 -0.018629856 0.04778806 -0.03797876 0.065937825
0.0062912405 -0.05396369 -0.04200278 -0.008675508 0.00513988 -0.05303241 0.059539117 0.023807935
0.08092631 -0.040860295 -0.043923687 -0.040586732 0.012313046 -0.04665476 0.012461036 -0.04068934
-0.029716097 0.00324779 -0.047034353 0.03183502 0.03260588 -0.0038850307 -0.06969944 0.02122876
0.043739162 0.015176266 -0.027015965 0.023001693 0.046603538 -0.034446448 0.013261639 0.020922862
-0.045145392 -0.04108302 0.008598752 0.028157353 0.056038536 0.032618783 0.05448828 0.0390324
-0.046891123 0.04355634 0.013916768 -0.020860158 -0.033547215 0.06628872 -0.0015412495 -0.01962196
-0.05599324 0.023891427 0.07364071 -0.030654602 0.05769191 0.039659224 -0.07508554 0.07931278
-0.023690313 -0.04366995 0.02457615 -0.02401039 0.015610166 -0.042455535 0.05041901 -0.009625606
0.028946579 0.0123312175 0.057511754 0.0066801608 0.02372355 0.046230845 0.021089144 0.025839478
0.0025367513 -0.030459136 0.012921669 0.01190877 0.066148706 -0.0657154 0.079774134 0.023810387
0.06945569 0.030004375 0.036613785 -0.07164666 -0.066577405 0.025991172 -0.05839942 0.025929756
0.024383329 0.035919696 0.03392043 -0.07688986 0.0004403293 -0.05731734 0.07046948 -0.0039201975
-0.05988468 0.07407073 -0.049052916 0.026770085 -0.028178047 0.049078383 -0.0056997016 0.028745145
0.03461355 0.025447614 0.025817104 0.082824655 0.053912662 0.00100521 0.017329387 0.0114720985
0.0067289695 0.050816216 -0.083061956 0.035291046 -0.008842282 0.017912023 0.0067675486 0.026171722
-0.050336372 0.025015198 0.005989641 0.019836314 0.0029531121 -0.02605955 0.030298121 0.04232631
-0.0602943 0.06378154 -0.04991023 0.053149886 -0.0055076107 -0.032991968 -0.022729576 0.001175262
0.0660686 0.05232496 -0.0062611997 -0.05799569 0.047696717 0.014354341 -0.016271777 -0.012524791
00000000: 1682 bcbc ec95 e73c f2a2 5b3d d89b 4b3c
00000010: 8060 0dbc 4b52 6cbd bdd5 a63d 6688 82bd
00000020: e456 84bc b892 5b3c 68bd 073c 0615 3b3d
00000030: ef35 a6bd 3000 9fbd 009b c13b 00af 92bd
00000040: 0049 febb 04ba c53c faea 4e3d f07c a63b
00000050: ba79 0a3d a688 67bd 84c4 af3c 5839 043d
00000060: b26e 073d 30cf bebc 609f 8cbc a456 80bd
00000070: fe0a 8dbd 69dc 833d b204 0a3d 7c51 97bd
00000080: cb6b a2bd dac1 2e3d 3000 bf3c 4a88 513d
00000090: 06be bebc ac9e e43c 655f 803d 10de c73c
000000a0: c0a8 f23b d84a 2d3c 7860 1b3c f40b 823c
000000b0: 6650 5a3d dc17 a7bc 6cff c1bc aea3 323d
000000c0: 0007 873b 7394 24bd 641c 9cbd 00ec 523b
000000d0: 7e95 a5bd b29e 86bd 2da2 8b3d aade 013d
000000e0: 08ef 2a3c a861 153c 3b21 89bd f6d3 5dbd
000000f0: 38ec 1d3c 1aba 583d 8acf a3bd a47b 9dbd
00000100: 7166 953d 7c7f e4bc 3052 8dbc 037d 70bd
00000110: ae90 96bd 003a 973b bc75 85bd b69e 713d
00000120: 92ab 7b3d 2297 87bd 3bc4 9cbd e647 103d
00000130: 3b12 45bd 146e ab3c d48e f13c 4083 afbb
00000140: 07f8 89bd fc5a a7bd f4af db3c 5370 46bd
00000150: acdd 87bd 689e 73bd 6b1e 9ebd de47 80bd
00000160: 5334 2cbd 407e 90bb b4c4 ec3c 0025 103d
00000170: 7cb8 a3bc 94fb 96bd 880f a3bd ddc6 a03d
00000180: 4556 a83d 54d5 a4bd 588a 1b3c 1759 8d3d
00000190: e242 223d 96ed 193d 0c05 ea3c aa1f 743d
000001a0: d86b 6d3c 00fe a03a bbcb a83d 6ccc c1bc
000001b0: a49d 98bc 6abd 433d 9e8f 1bbd 690a 873d
000001c0: c026 ce3b 0809 5dbd 1b0b 2cbd b823 0ebc
000001d0: 706c a83b 8338 59bd 4adf 733d dc08 c33c
000001e0: b1bc a53d 205d 27bd 53e9 33bd 463e 26bd
000001f0: a8bc 493c 1019 3fbd 6029 4c3c dea9 26bd
00000200: 2c6f f3bc e0d8 543b 18a7 40bd 7065 023d
00000210: be8d 053d 009c 7ebb 94be 8ebd f0e7 ad3c
00000220: d627 333d e0a5 783c 9650 ddbc 0c6e bc3c
00000230: 5ae3 3e3d b817 0dbd 5847 593c 6c66 ab3c
00000240: 60ea 38bd ab46 28bd c8e1 0c3c 40aa e63c
00000250: aa88 653d 469b 053d 1a2f 5f3d 70e0 1f3d
00000260: e810 40bd 2268 323d 2803 643c ece2 aabc
00000270: ce68 09bd 61c2 873d c003 caba 3cbe a0bc
00000280: 2b59 65bd f4b7 c33c f1d0 963d 5c1f fbbc
00000290: 5a4e 6c3d b671 223d 73c6 99bd bd6e a23d
000002a0: 3012 c2bc 43df 32bd ec53 c93c 70b1 c4bc
000002b0: c8c1 7f3c dbe5 2dbd 2a84 4e3d b8b4 1dbc
000002c0: 6021 ed3c e008 4a3c 7291 6b3d 40e5 da3b
000002d0: e457 c23c 8e5c 3d3d 24c3 ac3c 50ad d33c
000002e0: a03f 263b 7085 f9bc 68b5 533c 001d 433c
000002f0: f978 873d cc95 86bd 9f60 a33d 000e c33c
00000300: c93e 8e3d bccb f53c 56f8 153d 7cbb 92bd
00000310: bc59 88bd 70eb d43c 3b34 6fbd a46a d43c
00000320: 8cbf c73c 8820 133d 26f0 0a3d 6e78 9dbd
00000330: 00dc e639 96c5 6abd 4d52 903d 0075 80bb
00000340: a349 75bd 65b2 973d b6eb 48bd f04c db3c
00000350: a6d5 e6bc 6a06 493d 90c4 babb f07a eb3c
00000360: f0c6 0d3d 8477 d03c 647e d33c f99f a93d
00000370: 86d3 5c3d 40c1 833a 5cf6 8d3c 78f5 3b3c
00000380: b07e dc3b aa24 503d 631c aabd 588d 103d
00000390: 38df 10bc 3cbc 923c 50c2 dd3b 1466 d63c
000003a0: 832d 4ebd acec cc3c c044 c43b c47f a23c
000003b0: 0089 413b d67a d5bc c433 f83c 5a5e 2d3d
000003c0: 28f7 76bd e59f 823d ab6e 4cbd b2b3 593d
000003d0: 3079 b4bb 9622 07bd 6033 babc 400b 9a3a
000003e0: f94e 873d b252 563d c02a cdbb e38c 6dbd
000003f0: a25d 433d 782e 6b3c 644c 85bc c834 4dbc

conv_block_5.2.bias f4 [32]
-0.068983905 -0.057470344 0.003112398 0.06992882 -0.0021600202 0.037525862 -0.019165523 -0.027662665
-0.0101377 0.049251445 -0.03933558 0.042996354 0.07007108 -0.0068932697 0.048088215 -0.05769661
0.046303086 -0.041786224 -0.08276509 -0.061216347 -0.062073987 0.071426265 -0.06469962 0.043745197
0.018502831 0.06835111 -0.038193315 -0.05240222 0.057042576 -0.019309454 -0.008177169 0.00036272407
00000000: 6f47 8dbd 0666 6bbd 60f9 4b3b d736 8f3d
00000010: 208f 0dbb b8b4 193d 0401 9dbc d09c e2bc
00000020: 9818 26bc e2bb 493d 581e 21bd f21c 303d
00000030: 6d81 8f3d f0e0 e1bb 26f8 443d 4853 6cbd
00000040: 4ea8 3d3d 0828 2bbd be80 a9bd febd 7abd
00000050: 4b41 7ebd ef47 923d 3c81 84bd 2a2e 333d
00000060: 4093 973c abfb 8b3d 9870 1cbd b6a3 56bd
00000070: 7aa5 693d dc2e 9ebc 88f9 05bc 002c be39

conv_block_5.3.weight f4 [32]
1.0 1.0 1.0 1.0 1.0 1.0 1.0 1.0
1.0 1.0 1.0 1.0 1.0 1.0 1.0 1.0
1.0 1.0 1.0 1.0 1.0 1.0 1.0 1.0
1.0 1.0 1.0 1.0 1.0 1.0 1.0 1.0
00000000: 0000 803f 0000 803f 0000 803f 0000 803f
00000010: 0000 803f 0000 803f 0000 803f 0000 803f
00000020: 0000 803f 0000 803f 0000 803f 0000 803f
00000030: 0000 803f 0000 803f 0000 803f 0000 803f
00000040: 0000 803f 0000 803f 0000 803f 0000 803f
00000050: 0000 803f 0000 803f 0000 803f 0000 803f
00000060: 0000 803f 0000 803f 0000 803f 0000 803f
00000070: 0000 803f 0000 803f 0000 803f 0000 803f

conv_block_5.3.bias f4 [32]
0.0 0.0 0.0 0.0 0.0 0.0 0.0 0.0
0.0 0.0 0.0 0.0 0.0 0.0 0.0 0.0
0.0 0.0 0.0 0.0 0.0 0.0 0.0 0.0
0.0 0.0 0.0 0.0 0.0 0.0 0.0 0.0
00000000: 0000 0000 0000 0000 0000 0000 0000 0000
00000010: 0000 0000 0000 0000 0000 0000 0000 0000
00000020: 0000 0000 0000 0000 0000 0000 0000 0000
00000030: 0000 0000 0000 0000 0000 0000 0000 0000
00000040: 0000 0000 0000 0000 0000 0000 0000 0000
00000050: 0000 0000 0000 0000 0000 0000 0000 0000
00000060: 0000 0000 0000 0000 0000 0000 0000 0000
00000070: 0000 0000 0000 0000 0000 0000 0000 0000

conv_block_5.3.running_mean f4 [32]
-0.15361843 0.077580884 -0.044636354 0.13755886 0.03750786 0.029437033 -0.030703558 -0.07173162
0.03131758 -0.005709713 0.017601486 -0.011600429 -0.042755168 0.054788053 -0.035548232 -0.065847784
-0.03635136 0.0010763891 0.03423343 0.014528244 0.057710413 -0.041208655 0.104502976 0.0043743667
-0.09069858 0.09152585 -0.0066782488 -0.021116976 0.12051979 0.02613981 -0.004912602 0.030729704
00000000: 264e 1dbe bae2 9e3d 9cd4 36bd 3bdc 0c3e
00000010: d8a1 193d ef25 f13c 0786 fbbc 07e8 92bd
00000020: dd46 003d 8b18 bbbb fe30 903c ba0f 3ebc
00000030: 0b20 2fbd 7069 603d 069b 11bd 34db 86bd
00000040: 2ae5 14bd a015 8d3a 5a38 0c3d df07 6e3c
00000050: c161 6c3d 68ca 28bd a805 d63d d956 8f3b
00000060: 2dc0 b9bd e871 bb3d 36d5 dabb 82fd acbc
00000070: 14d3 f63d 2823 d63c e4f9 a0bb dcbc fb3c

conv_block_5.3.running_var f4 [32]
0.788638 0.5875292 0.5907527 0.60689723 0.5678291 0.5818993 0.5792901 0.55899537
0.60535175 0.56307876 0.6155188 0.6294977 0.6076919 0.5888673 0.5956777 0.57934403
0.56542575 0.6213919 0.582782 0.62341756 0.5970273 0.581888 0.68263304 0.62758374
0.6030178 0.59283006 0.5797889 0.5698172 0.598585 0.5814198 0.5857977 0.6180889
00000000: 2ee4 493f 5068 163f 923b 173f 9e5d 1b3f
00000010: 3f5d 113f 5af7 143f 5b4c 143f 521a 0f3f
00000020: 55f8 1a3f ee25 103f a492 1d3f c326 213f
00000030: b291 1b3f 02c0 163f 557e 183f e44f 143f
00000040: bebf 103f 8a13 1f3f 3331 153f 4b98 1f3f
00000050: c8d6 183f 9df6 143f 0ac1 2e3f 54a9 203f
00000060: 605f 1a3f b6c3 173f 0c6d 143f 8adf 113f
00000070: de3c 193f eed7 143f d7f6 153f 133b 1e3f
