cloud-detection-code/tests/test_artifacts/test_multiclass/model_checkpoint_2.pt (torch, 287733 bytes, 260 tensors)

input_conv_block.0.weight f4 [3]
0	0x3f7fffcf	0.9999971
1	0x3f800016	1.0000026
2	0x3f7fffff	0.99999994

input_conv_block.0.bias f4 [3]
0	0x3664e720	3.410918e-06
1	0xb6408c73	-2.8691982e-06
2	0xb6a6176f	-4.9499135e-06

input_conv_block.0.running_mean f4 [3]
0	0x3cb244eb	0.021761378
1	0x3ccdc456	0.025118034
2	0x3ce23898	0.027614877

input_conv_block.0.running_var f4 [3]
0	0x3f4f5f8e	0.8100518
1	0x3f4f5ec0	0.8100395
2	0x3f4f5ec8	0.81004

input_conv_block.2.weight f4 [2, 3, 1, 1]
0	0x3f0dbeb4	0.55369115
1	0x3f01f368	0.50762033
2	0xbdcee12b	-0.10101541
3	0xbd03d6a2	-0.03218711
4	0x3f0bc567	0.5459809
5	0x3ee7d4c5	0.45279518

conv_block_1.0.weight f4 [2]
0	0x3f80007a	1.0000145
1	0x3f7fff08	0.9999852

conv_block_1.0.bias f4 [2]
0	0x37552525	1.2704438e-05
1	0xb7951f2c	-1.77767e-05

conv_block_1.0.running_mean f4 [2]
0	0x3d82c41a	0.0638506
1	0x3d83fbe2	0.06444527

conv_block_1.0.running_var f4 [2]
0	0x3f6c57b6	0.92321336
1	0x3f6c4d75	0.9230569

conv_block_1.2.weight f4 [2, 2, 3, 3]
0	0xbdac50eb	-0.084138714
1	0xbe0de66e	-0.13857433
2	0xbe6880f0	-0.22705436
3	0x3e5cdb15	0.21567948
4	0xbdbb5ae5	-0.09148196
5	0x3e22743e	0.15864655
6	0x3df82d42	0.12118007
7	0x3e1fa5f2	0.15590647
8	0x3e4872bc	0.19575018
9	0xbe4f2914	-0.20230514
10	0xbe384522	-0.17995122
11	0xbd83a121	-0.06427217
12	0xbdea2260	-0.11432338
13	0xbd243ca3	-0.04009689
14	0xbda2241a	-0.07917042
15	0xbe3726f7	-0.17885958
16	0xbe393888	-0.18087971
17	0x3e447b73	0.19187717
18	0xbda1c376	-0.07898609
19	0xbd430dbd	-0.047620524
20	0xbd1f2e11	-0.03886229
21	0x3e70ba14	0.23508483
22	0x3cf81969	0.030285554
23	0xbb7b75fb	-0.0038369882
24	0x3e508d24	0.20366341
25	0x3e0dd938	0.13852394
26	0xbd6017a3	-0.05471004
27	0xbd971366	-0.07376747
28	0xbd94a7b8	-0.07258552
29	0xbdce2302	-0.10065271
30	0xbddf052d	-0.10889659
31	0xbe6837b3	-0.22677498
32	0xbe5332c9	-0.20624842
33	0xbe070f25	-0.13189371
34	0xbca85ec4	-0.020553
35	0xbd256f10	-0.04038912

conv_block_1.2.bias f4 [2]
0	0x3dc5e710	0.09663212
1	0xbc6f91de	-0.01462218

conv_block_1.3.weight f4 [2]
0	0x3f7ffe0a	0.9999701
1	0x3f8000f8	1.0000296

conv_block_1.3.bias f4 [2]
0	0xb60b36c2	-2.0744487e-06
1	0x3824be5a	3.9277926e-05

conv_block_1.3.running_mean f4 [2]
0	0xbc7e35e8	-0.015515782
1	0xbd26a5e0	-0.040685534

conv_block_1.3.running_var f4 [2]
0	0x3f5cd17a	0.86257136
1	0x3f5c279e	0.8599795

conv_block_1.5.weight f4 [2, 2, 3, 3]
0	0x3dc7ce66	0.09756164
1	0xbe0a392a	-0.13498369
2	0xbe6e038b	-0.23243539
3	0x3e4c7736	0.1996735
4	0x3e1b88d1	0.1518891
5	0xbe2b7da3	-0.16747145
6	0xbd40f802	-0.04711152
7	0x3e0ec112	0.13940838
8	0x3e69f611	0.22847773
9	0xbdfc0d5e	-0.12307237
10	0xbe5d1d15	-0.21593125
11	0xbcf34430	-0.0296956
12	0x3adb3bd4	0.0016726204
13	0xbe41d757	-0.18929802
14	0x3c3abec1	0.011398018
15	0xbe4ea6fd	-0.20180888
16	0xbe12b2ad	-0.14325972
17	0x3e07146d	0.13191386
18	0x3d72d6f3	0.059287023
19	0xbd356715	-0.04428776
20	0xbe15d926	-0.14633617
21	0xbd9aab3f	-0.07552194
22	0xbd9c96d8	-0.07645959
23	0x3ddfcf34	0.10928193
24	0x3de57304	0.11203578
25	0x3e598107	0.21240626
26	0x3a8f62a1	0.0010939428
27	0x3e05f037	0.13079916
28	0xbd69cbd6	-0.05707916
29	0x3d57a39a	0.052646257
30	0x3e58df9d	0.21179052
31	0x3e1d5a95	0.15366586
32	0xbe48ffb5	-0.19628794
33	0x3d0c1ecf	0.03420907
34	0x3c91e7d3	0.017810738
35	0xbc139411	-0.00900747

conv_block_1.5.bias f4 [2]
0	0x3e019510	0.12654519
1	0x3e3fccbd	0.18730445

conv_block_2.0.weight f4 [2]
0	0x3f800023	1.0000042
1	0x3f7fffb6	0.9999956

conv_block_2.0.bias f4 [2]
0	0x369652a4	4.479969e-06
1	0x36f4e4f8	7.298422e-06

conv_block_2.0.running_mean f4 [2]
0	0xbb0702eb	-0.0020601104
1	0x3d8af983	0.06785872

conv_block_2.0.running_var f4 [2]
0	0x3f5038b9	0.8133655
1	0x3f4fa406	0.81109655

conv_block_2.2.weight f4 [4, 2, 3, 3]
0	0x3e46e69e	0.19423911
1	0x3ce057f4	0.02738569
2	0x3e7035da	0.23458043
3	0x3e40acf8	0.18815982
4	0xbe53653d	-0.20644088
5	0x3d1c0fa7	0.038100865
6	0xbe254936	-0.16141209
7	0xbdfa4896	-0.12220876
8	0xbd174f6a	-0.03694097
9	0x3e43ca01	0.19120027
10	0x3ba5a910	0.005055554
11	0xbe49b0f6	-0.19696411
12	0xbe6826e3	-0.22671084
13	0x3e45d1b1	0.19318272
14	0xbd9bdfb3	-0.076110266
15	0xbe05d20f	-0.13068412
16	0xbdd53130	-0.104097724
17	0xbe0427d0	-0.12905812
18	0xbce344be	-0.02774274
19	0xbb9ea6cc	-0.004841661
20	0x3dc5d95e	0.096606
21	0xbe016b3e	-0.12638566
22	0xbe3faf7c	-0.18719286
23	0x3c391e8f	0.01129879
24	0x3de93e47	0.113888316
25	0xbd295187	-0.041337516
26	0x3c75f5c4	0.015012208
27	0xbe4e3bcc	-0.20139998
28	0xbe13eae3	-0.14445071
29	0x3e1248b5	0.14285548
30	0xbda22197	-0.07916563
31	0xbe6a2cd4	-0.22868663
32	0xbc801fda	-0.015640188
33	0xbe55d02b	-0.20880191
34	0xbe37e5c3	-0.17958741
35	0xbda902ba	-0.08252473
36	0xbd8d80c0	-0.06909323
37	0xbdf2ae4c	-0.11849651
38	0x3e5bfd5e	0.2148337
39	0xbe2f5d1a	-0.17125359
40	0x3d9726ac	0.07380423
41	0xbd5fe57e	-0.05466222
42	0xbcd3071d	-0.025760228
43	0x3dd4fc61	0.103997
44	0x3cb9e7ea	0.022693593
45	0x3d702347	0.058627393
46	0xbd868036	-0.06567423
47	0xbd47ccc8	-0.04877928
48	0xbde8a1d2	-0.1135899
49	0x3e55d07c	0.20880312
50	0x3d706fb0	0.058700264
51	0xbe04f3b9	-0.12983598
52	0xbe542e52	-0.20720795
53	0x3e125f32	0.14294127
54	0xbde59533	-0.11210098
55	0x3e3f3f3b	0.18676464
56	0x3e34299a	0.17593995
57	0xbe3777fe	-0.17916867
58	0x3da8b0fb	0.08236881
59	0xbe475827	-0.19467221
60	0xbd7435e4	-0.059621707
61	0x3dc88c66	0.09792404
62	0x3e528efc	0.20562357
63	0x3e0914ce	0.13386843
64	0x3dc29f15	0.09502999
65	0xbe1e6252	-0.15467194
66	0xbcdd5767	-0.027019216
67	0x3d97b46d	0.0740746
68	0xbdb507e1	-0.088393934
69	0xba21a63c	-0.00061664334
70	0xbdbeb515	-0.093118824
71	0x3da3b46c	0.07993397

conv_block_2.2.bias f4 [4]
0	0xbe04eeab	-0.1298167
1	0x3e1f803f	0.15576266
2	0xbdac7d34	-0.08422318
3	0x3dc8419c	0.09778139

conv_block_2.3.weight f4 [4]
0	0x3f7fff5c	0.9999902
1	0x3f7ffff3	0.9999992
2	0x3f800030	1.0000057
3	0x3f800024	1.0000043

conv_block_2.3.bias f4 [4]
0	0xb6ab7eb2	-5.1109464e-06
1	0x3644d7a8	2.9331804e-06
2	0x368ecebe	4.2559977e-06
3	0x378f197d	1.7058797e-05

conv_block_2.3.running_mean f4 [4]
0	0xbd1d9bc1	-0.038478617
1	0xbd0d2fee	-0.034469537
2	0xbcb3cc44	-0.021947987
3	0x3d11cb3e	0.035594217

conv_block_2.3.running_var f4 [4]
0	0x3f56264c	0.83652186
1	0x3f5d365b	0.86411065
2	0x3f50fd9e	0.8163699
3	0x3f525e3e	0.8217505

conv_block_2.5.weight f4 [4, 4, 3, 3]
0	0x3dbca47e	0.09211062
1	0x3e02c05a	0.12768689
2	0x3de4a9ae	0.11165176
3	0xbdefcf52	-0.11709465
4	0x3dd99e04	0.10625842
5	0xbdfea2f3	-0.12433424
6	0x3d869771	0.06571854
7	0xbc31b118	-0.010845445
8	0x3d026e33	0.031843375
9	0xbd0d2588	-0.03445962
10	0x3d2b518d	0.04182582
11	0x3daa82b0	0.08325708
12	0xbd72aced	-0.059246946
13	0xbdb0d10e	-0.08633624
14	0x3cfaf96f	0.030636517
15	0x3d40d1b0	0.047074974
16	0xbdaed0b3	-0.085359
17	0x3db47f78	0.08813375
18	0x3df9b4b5	0.1219267
19	0x3e09be1f	0.13451432
20	0x3baa7324	0.005201714
21	0xbcb93903	-0.022610193
22	0x3df0dc41	0.1176076
23	0xbde02c6c	-0.10945973
24	0xbc1f4d03	-0.009722951
25	0x3e04c763	0.12966685
26	0xbd361464	-0.04445304
27	0xbcd47ef7	-0.025939448
28	0x3d16492a	0.03669087
29	0xbe1892bb	-0.14899723
30	0x3e07b9f8	0.13254535
31	0x3d7174aa	0.05894915
32	0xbe00a07a	-0.12561217
33	0x3cfd4f18	0.030921504
34	0xbe0d5818	-0.13803136
35	0x3dc86380	0.09784603
36	0xbe05a05e	-0.13049456
37	0xbda21cd1	-0.079156525
38	0xbe09fb33	-0.13474731
39	0xbe1083eb	-0.14112823
40	0xbd9601b2	-0.07324542
41	0xbe069668	-0.13143313
42	0xbd0bd65a	-0.03413997
43	0x3dec112f	0.11526715
44	0xbc274784	-0.010209922
45	0x3e0124e3	0.12611727
46	0x3bdf9c25	0.006824034
47	0xbdd14b04	-0.10219386
48	0x3d01b985	0.031671066
49	0xbdc24263	-0.094853185
50	0xba33616b	-0.00068428245
51	0xbcf78cab	-0.030218443
52	0xbdc12a61	-0.09431911
53	0x3dbbf352	0.09177269
54	0x3dcec0d2	0.10095371
55	0x3e031e1a	0.12804452
56	0xbdb8681a	-0.09004231
57	0x3e06a3cc	0.13148421
58	0xbdd6c412	-0.10486616
59	0xbe27855f	-0.16359471
60	0x3cd07754	0.025447525
61	0xbdb2d293	-0.0873157
62	0x3e25574c	0.16146582
63	0x3e0cbb4f	0.13743328
64	0x3d03cd2c	0.03217809
65	0xbe13e1d1	-0.14441611
66	0x3caf1293	0.021371162
67	0xbd61bc87	-0.055111434
68	0x3e140e6d	0.14458628
69	0xbd1cdd6c	-0.0382971
70	0x3d726a52	0.059183426
71	0xbc35fc4e	-0.011107517
72	0x3bb19d5b	0.0054203696
73	0xbc7a7bb4	-0.015288282
74	0x3d588344	0.05285956
75	0x3e02c672	0.12771013
76	0x3e01aa22	0.12662557
77	0x3dbb5634	0.09147301
78	0xbe05c38f	-0.13062881
79	0x3c15bd7d	0.009139416
80	0x3e09dc8e	0.13463041
81	0x3e14e877	0.14541803
82	0xbd830afc	-0.063985795
83	0xbac92cc1	-0.0015348421
84	0x3e0cc666	0.13747558
85	0xbd07a094	-0.033112124
86	0x3e22d7e5	0.1590267
87	0xbe175652	-0.14779022
88	0x3dbf6e65	0.09347228
89	0xbd60ea5a	-0.054910995
90	0xbdb4c457	-0.08826511
91	0x3d9a23c6	0.075263545
92	0x3d046563	0.032323252
93	0x3debdb49	0.11516435
94	0xbd925cc1	-0.07146598
95	0x3df2696f	0.11836516
96	0x3dad5a64	0.08464506
97	0x3c8bfaad	0.017087305
98	0x3c1bd565	0.009511326
99	0x3e1e0074	0.1542986
100	0x3d360ca7	0.04444566
101	0x3dcd52db	0.10025569
102	0x3ca12f36	0.019675832
103	0x3d864a84	0.065571815
104	0xbe06f03d	-0.13177581
105	0xbe0a450b	-0.135029
106	0x3db3371d	0.087507464
107	0xbdafe2a8	-0.08588153
108	0xbdd03097	-0.10165518
109	0x3dba199d	0.090869166
110	0x3c844294	0.016145028
111	0x3a9c0eef	0.0011906306
112	0xbd7497ca	-0.05971507
113	0xbd583d09	-0.052792583
114	0x3c849aa2	0.016187016
115	0x3db59da7	0.088679604
116	0xbd600775	-0.05469461
117	0xbd8b8586	-0.06812577
118	0xbd7968dd	-0.06089102
119	0x3d36fcd2	0.044674702
120	0xbdbd362c	-0.09238848
121	0x3cfa002e	0.030517664
122	0x3e05828d	0.13038082
123	0x3c979b3a	0.018506635
124	0xbd1eda56	-0.03878244
125	0x3e077b32	0.13230589
126	0x3c917797	0.01775722
127	0xbd8070e3	-0.062715314
128	0xbe0039c9	-0.12522043
129	0xbe08cc1c	-0.13359112
130	0xbdccaa1b	-0.099933825
131	0x3e01afdf	0.12664746
132	0x3de675ef	0.11252963
133	0x3be76178	0.0070611797
134	0x3d48be20	0.049009442
135	0x3debd040	0.1151433
136	0x3e0e1444	0.13874918
137	0x3df08b68	0.1174534
138	0x3dcaa3b3	0.098945044
139	0x3e1be859	0.15225352
140	0x3df0ea1b	0.11763402
141	0xbdb91fb2	-0.090392485
142	0x3ca1404a	0.019683976
143	0xbd7ac386	-0.061221622

conv_block_2.5.bias f4 [4]
0	0x3e03fc10	0.12889123
1	0xbd17653b	-0.036961775
2	0xbda0ffd9	-0.07861299
3	0x3d8530a9	0.06503422

conv_block_3.0.weight f4 [4]
0	0x3f7ffda9	0.9999643
1	0x3f800074	1.0000138
2	0x3f8000ca	1.0000241
3	0x3f7fffd0	0.99999714

conv_block_3.0.bias f4 [4]
0	0xb76b2101	-1.4014776e-05
1	0x37b4c3bd	2.154882e-05
2	0x37d0c6dd	2.4888135e-05
3	0x379e8aea	1.8899755e-05

conv_block_3.0.running_mean f4 [4]
0	0x3d864eda	0.065580085
1	0x3b6dd0ee	0.0036287862
2	0x3d531460	0.051533103
3	0x3d8bec81	0.06832219

conv_block_3.0.running_var f4 [4]
0	0x3f53a094	0.826669
1	0x3f525c87	0.82172436
2	0x3f57d202	0.8430482
3	0x3f5a3a71	0.85245425

conv_block_3.2.weight f4 [8, 4, 3, 3]
0	0x3cfc2c9a	0.030782986
1	0xbcb7c01d	-0.022430474
2	0x3d24f71b	0.04027472
3	0x3dc3ec5c	0.09566566
4	0xbdab9eaa	-0.08379872
5	0xbda60827	-0.08107024
6	0x3e0c2d18	0.13689077
7	0xbde92fd3	-0.11386075
8	0x3d6ee2e8	0.058321863
9	0x3de79e87	0.113095336
10	0xbdc2d9e4	-0.095142156
11	0x3de58a3c	0.11208007
12	0xbe008ede	-0.125545
13	0xbc3e0bd0	-0.011599496
14	0x3dc39cf0	0.09551418
15	0xbcd66ce3	-0.026174968
16	0x3d715a7d	0.058924187
17	0xbdb1f8fc	-0.08690068
18	0xbddc5dc5	-0.107600726
19	0xbc52e944	-0.012872998
20	0x3d9e8464	0.07740095
21	0xbdb9fe5e	-0.0908172
22	0x3d8fe0ae	0.07025276
23	0xbc3bb63f	-0.011457025
24	0xbdb9d9d8	-0.090747535
25	0x3de16517	0.110056095
26	0x3d4b0601	0.049566273
27	0xbd3942ba	-0.04522965
28	0xbe2474b4	-0.16060144
29	0xbe0681fc	-0.13135523
30	0x3d854389	0.06507022
31	0xbd86d825	-0.06584195
32	0x3d9edc3d	0.07756851
33	0xbe1f5f08	-0.15563595
34	0xbd3fd466	-0.04683342
35	0x3dd8d395	0.10587231
36	0x3dc4eb26	0.096151635
37	0xbe04308e	-0.12909147
38	0xbdcddd57	-0.10051983
39	0xbcb2ef1c	-0.021842532
40	0xbe0fc490	-0.14039826
41	0xbd2f76f6	-0.04283806
42	0x3e088b02	0.13334277
43	0x3e0fad16	0.14030871
44	0x3e1ba8fc	0.15201181
45	0xbcca8100	-0.024719715
46	0x3beb1a9c	0.007174803
47	0x3b8d39c0	0.004309863
48	0x3e142494	0.14467078
49	0xbdde6486	-0.10859017
50	0xbdcb18bf	-0.09916829
51	0x3d16bdfc	0.036802277
52	0x3d9d3743	0.07676556
53	0x3d9fe8b5	0.07808057
54	0xbe29ce47	-0.16582595
55	0xbcb2ae8d	-0.021811748
56	0x3c30d72f	0.010793491
57	0xbdb3ae46	-0.087734744
58	0xbb58dacb	-0.0033089395
59	0x3e1f07e3	0.15530352
60	0x3e03db32	0.12876585
61	0xbc75e75b	-0.015008773
62	0xbe235f66	-0.1595436
63	0xbe2570af	-0.16156267
64	0x3e236444	0.15956217
65	0xbbf58894	-0.007493088
66	0xbd533715	-0.051566202
67	0xbe042a70	-0.12906814
68	0x3dda75c6	0.10666995
69	0x3dac288b	0.084061705
70	0x3e27717e	0.16351888
71	0xbe076b99	-0.13224639
72	0x3dac21b2	0.08404864
73	0x3dc470b5	0.0959181
74	0x3db76ce1	0.08956314
75	0xbd20017f	-0.039063927
76	0xbd596453	-0.053074192
77	0xbdcbc106	-0.09948926
78	0x3df000a6	0.11718874
79	0x3d94cdd1	0.07265819
80	0xbe016dc3	-0.12639527
81	0xbe29012f	-0.16504358
82	0xbe2a2f8a	-0.16619697
83	0x3dd3cc26	0.103416726
84	0xbd887e31	-0.06664694
85	0x3d9d31e5	0.07675532
86	0x3d12733c	0.035754427
87	0xbe2a1663	-0.16610102
88	0xbd4074c3	-0.046986353
89	0x3de2e26d	0.110783435
90	0x3e1dcfed	0.15411349
91	0x3e1b8e30	0.15190959
92	0x3dce60c6	0.10077052
93	0xbddaa9fa	-0.10676952
94	0xbd37a729	-0.04483715
95	0x3dca5895	0.09880177
96	0xbd92fa94	-0.071767
97	0x3defe2d3	0.11713185
98	0xbceaf47f	-0.028681038
99	0x3e04fc4b	0.12986867
100	0x3ceac46e	0.028658118
101	0xbe03d5e8	-0.12874568
102	0xbd53b3e8	-0.051685244
103	0x3c7f63fd	0.015587804
104	0xbc632f27	-0.013866222
105	0x3cffa473	0.031206345
106	0xbddf7fcc	-0.10913047
107	0x3da099b8	0.078418195
108	0x3d8671e3	0.06564691
109	0xbdbe2997	-0.092852764
110	0x3e1acd7b	0.15117447
111	0xbdcedd0b	-0.10100754
112	0xbd411f57	-0.04714903
113	0x3bd85c6a	0.0066028135
114	0x3d8243c9	0.06360585
115	0xbd8f63cd	-0.07001457
116	0x3e1b1d5d	0.1514792
117	0xbd337ab4	-0.04381819
118	0x3d6d715b	0.057969432
119	0xbdf6a328	-0.12042838
120	0x3da86575	0.082224764
121	0x3ca8d4fd	0.020609373
122	0xbd96bf38	-0.07360691
123	0xbbc1298d	-0.005894846
124	0x3d166336	0.03671571
125	0x3e2626cd	0.16225739
126	0xbca411e3	-0.02002806
127	0xbe0bcb50	-0.13651776
128	0xbd6e3f14	-0.058165625
129	0x3cbdbd54	0.023161568
130	0xbdf7c695	-0.120984234
131	0x3dee2662	0.11628415
132	0xbd549f31	-0.05190963
133	0x3c2a249d	0.010384706
134	0x3e1904bf	0.14943217
135	0x3ddb7337	0.10715335
136	0x3e087c5c	0.1332869
137	0x3daf3f83	0.08557036
138	0xbe271c11	-0.163193
139	0x3e244dfa	0.1604537
140	0xbdae98db	-0.085252486
141	0xbd2f2a5c	-0.042765006
142	0x3dbc44d1	0.09192813
143	0xbd8b4ceb	-0.0680178
144	0xbc0fc4b1	-0.008774922
145	0x3d9712b1	0.07376612
146	0x3d946d97	0.07247465
147	0xbe2062ae	-0.15662643
148	0xbd414dff	-0.047193523
149	0xbe089fac	-0.1334216
150	0xbe0a8cf7	-0.13530336
151	0x3d40b1b8	0.047044486
152	0x3d533a6d	0.05156939
153	0x3d8b5e13	0.068050526
154	0xbd5b8073	-0.053589296
155	0x3e261f95	0.16222985
156	0xbdf8c19f	-0.12146305
157	0xbd91d88a	-0.0712138
158	0xbc00c843	-0.007860246
159	0x3e1b9045	0.15191753
160	0x3d8b2e70	0.067959666
161	0x3d47cad5	0.04877742
162	0x3d5533f6	0.052051507
163	0xbd86de4e	-0.0658537
164	0x3d960892	0.073258534
165	0x3dcac46b	0.09900745
166	0x3d64caee	0.05585759
167	0xbdf80554	-0.12110391
168	0xbdb30059	-0.08740301
169	0xbc3f25cd	-0.011666727
170	0x3ce140d0	0.027496725
171	0x3d25b543	0.040456068
172	0x3cfe26e0	0.031024396
173	0x3d7ad81f	0.061241265
174	0x3c8e9e51	0.017409476
175	0xbd7f4758	-0.062323898
176	0x3d501e33	0.05081005
177	0xbe17b50e	-0.1481516
178	0x3e13db80	0.14439201
179	0xbe055fa3	-0.13024764
180	0x3d344086	0.044006847
181	0xbc6a76aa	-0.014310518
182	0x3d9bb25d	0.076023795
183	0xbcad2a43	-0.021138316
184	0x3e1bfbd3	0.15232782
185	0x3cce74d7	0.025202198
186	0xbde91cb7	-0.1138243
187	0x3d08e549	0.03342179
188	0x3d115b99	0.035487745
189	0x3db40390	0.08789742
190	0x3de8e4af	0.11371743
191	0xbdf1faa7	-0.11815386
192	0x3dea8359	0.11450834
193	0xbe01c638	-0.1267327
194	0xbe27f321	-0.1640134
195	0x3e291a30	0.16513896
196	0xbde11aef	-0.10991465
197	0xbd632ffc	-0.055465683
198	0xbc5ced13	-0.013484257
199	0xbd70b8be	-0.058769934
200	0xbdf236c1	-0.1182685
201	0xbe0fa87a	-0.14029112
202	0x3df82012	0.12115492
203	0xbdfd0741	-0.12354899
204	0x3e05f6b7	0.13082395
205	0xbe1ffc03	-0.15623479
206	0x3e017bd4	0.12644893
207	0xbdcfd988	-0.10148913
208	0xbd9fb3f8	-0.07797998
209	0xbdc27e55	-0.09496752
210	0xbdac4d06	-0.084131286
211	0xbe0b2406	-0.1358796
212	0x3de1f89e	0.11033748
213	0xbdf4cc44	-0.11953023
214	0xbdc26e68	-0.094937146
215	0x3c4c278b	0.0124606
216	0x3db1b84a	0.086777285
217	0xbce69d7d	-0.028151268
218	0xbddbdd3c	-0.107355565
219	0xbce27e7c	-0.027648203
220	0xbda431d3	-0.08017316
221	0xbde109d3	-0.10988202
222	0x3e153c93	0.14573888
223	0xbe13bb9d	-0.14427038
224	0xbda2911c	-0.07937834
225	0x3dcadb9d	0.09905169
226	0x3dcbe0c8	0.09954983
227	0x3e2228ed	0.15835924
228	0xbd0a0f49	-0.033705983
229	0xbdd4a842	-0.10383655
230	0x3de3d3a3	0.11124351
231	0xbcb31b91	-0.02186373
232	0x3df86272	0.12128152
233	0xbc48ee2e	-0.012263818
234	0xbb83845d	-0.0040135817
235	0xbd4654f3	-0.048420858
236	0x3d92a66c	0.07160649
237	0xbdbe93ec	-0.093055576
238	0xbda59e2d	-0.0808681
239	0xbe0b11a5	-0.1358095
240	0x3e007557	0.12544762
241	0x3ccc17c1	0.02491367
242	0xbe1094a6	-0.14119205
243	0x3da7e5c9	0.08198125
244	0x3e11bc6f	0.14232038
245	0xbdd41c47	-0.10356956
246	0xbdd1151f	-0.10209107
247	0xbde67147	-0.11252075
248	0xbd0bcf8a	-0.03413347
249	0xbd90369d	-0.07041667
250	0xbdded932	-0.108812705
251	0xbc3cae5b	-0.011516179
252	0xbd775882	-0.060387142
253	0xbcef1c71	-0.029188367
254	0x3dca8122	0.098879114
255	0x3d8f792d	0.07005534

conv_block_3.2.bias f4 [8]
0	0x3e05fab2	0.13083914
1	0x3d360c9e	0.044445626
2	0xbdf8be68	-0.12145692
3	0x3e1a6027	0.15075742
4	0x3dc23b8c	0.09484014
5	0xbe198686	-0.14992723
6	0xbe200644	-0.1562739
7	0x3da423b6	0.08014624

conv_block_3.3.weight f4 [8]
0	0x3f80004d	1.0000092
1	0x3f7fffe8	0.99999857
2	0x3f7fff6c	0.9999912
3	0x3f7ffefb	0.99998444
4	0x3f8000a5	1.0000197
5	0x3f800057	1.0000104
6	0x3f800019	1.000003
7	0x3f7ffed9	0.9999824

conv_block_3.3.bias f4 [8]
0	0x37531886	1.258229e-05
1	0x352eaf93	6.5075545e-07
2	0x370771a0	8.073082e-06
3	0xb7542b89	-1.2646321e-05
4	0xb31a5f70	-3.594272e-08
5	0x37865b6c	1.6016616e-05
6	0x36e77104	6.897493e-06
7	0x35c2018d	1.4454578e-06

conv_block_3.3.running_mean f4 [8]
0	0x3bd87378	0.006605562
1	0x3c2c1653	0.010503369
2	0xbb70a27b	-0.003671794
3	0x3d57dbcb	0.052699845
4	0x3c920744	0.01782573
5	0xbd9840bd	-0.07434223
6	0xbd979f64	-0.07403448
7	0x3d191775	0.037375886

conv_block_3.3.running_var f4 [8]
0	0x3f54b49c	0.8308809
1	0x3f5757c6	0.84118307
2	0x3f55c2e7	0.8350052
3	0x3f54d132	0.83131707
4	0x3f51f51a	0.8201462
5	0x3f5a227d	0.85208875
6	0x3f5b6960	0.85707664
7	0x3f546d77	0.8297953

conv_block_3.5.weight f4 [8, 8, 3, 3]
0	0x3d4f5639	0.050619338
1	0x3dd35634	0.10319176
2	0x3d6dd490	0.058064044
3	0xbd4385cc	-0.04773502
4	0xbc55ba36	-0.013044884
5	0xbde80b9a	-0.11330338
6	0x3c9f887d	0.019474262
7	0x3d766eaf	0.06016415
8	0xbde5708b	-0.112031065
9	0xbcf3a95c	-0.029743843
10	0xbd6e1eb9	-0.05813477
11	0xbd95b090	-0.07309067
12	0xbdcef588	-0.10105425
13	0x3dc53887	0.09629922
14	0xbc5f9d2a	-0.013648311
15	0x3af0cad3	0.0018370993
16	0x3c75acf1	0.014994846
17	0x3d94878f	0.07252418
18	0xbcb192b5	-0.0216764
19	0x3d843ce2	0.06456925
20	0x3d5bda39	0.05367491
21	0x3ddba486	0.1072474
22	0xbc1d3096	-0.009594103
23	0x3bffe2c6	0.007809016
24	0x3d50f128	0.051011235
25	0xbd3bb0a9	-0.045822773
26	0xbcca940d	-0.0247288
27	0x3de180e1	0.1101091
28	0xbd5ca2d4	-0.053866223
29	0xbd60ca8c	-0.054880664
30	0xbd2e0f4d	-0.04249506
31	0x3d5270ec	0.051377222
32	0x3d612031	0.05496234
33	0x3d5faa4c	0.054605767
34	0xbb10b2df	-0.0022079272
35	0x3cc242eb	0.02371355
36	0x3d895fa4	0.06707695
37	0xbda6a686	-0.081372306
38	0x3cae433c	0.021272294
39	0xbdb785a2	-0.08961035
40	0x3ce64a40	0.028111577
41	0x3b343940	0.0027499944
42	0x3c6eddc2	0.014579238
43	0x3d345cae	0.0440337
44	0xbda28309	-0.07935149
45	0xbdeb88e5	-0.1150072
46	0x3cb053b2	0.021524284
47	0xbdd1cb37	-0.10243838
48	0xbd7825b0	-0.060582817
49	0x3db568dc	0.08857891
50	0xbb18e51b	-0.0023329917
51	0xbd72521c	-0.059160337
52	0xbcb589a8	-0.022160366
53	0x3ced89d3	0.028996384
54	0xbd2015ac	-0.039083168
55	0x3d209eb9	0.03921387
56	0x3dd87c82	0.10570623
57	0xbd5b4bc0	-0.053539038
58	0x3dcbdd1c	0.09954283
59	0xbdeb1a5d	-0.11479638
60	0xbcb785bb	-0.022402635
61	0x3d751bb3	0.05984087
62	0x3de02d7c	0.109461755
63	0xbd67a685	-0.05655529
64	0x3d5c4b13	0.053782534
65	0xbddfcffa	-0.1092834
66	0x3dbcf374	0.092261225
67	0xbc5dce77	-0.013537995
68	0x3d01450e	0.031559996
69	0x3d8c6367	0.06854897
70	0x3d48a41f	0.048984643
71	0x3cf6889d	0.03009444
72	0xbdd3f0e7	-0.10348683
73	0x3c01931f	0.007908612
74	0xbdb0b2f0	-0.086278796
75	0xbdb6be40	-0.08923006
76	0x3d922e6e	0.07137762
77	0xbd521928	-0.051293522
78	0x3de9a235	0.11407892
79	0x3cd79df9	0.026320444
80	0xbc543d16	-0.012954017
81	0xbb925b70	-0.0044664666
82	0xbd69e893	-0.057106566
83	0x3d3a399f	0.045465108
84	0x3d6e4e29	0.058180008
85	0xbdd5850e	-0.10425769
86	0x3d4dff81	0.050292496
87	0xbdb8f03a	-0.090301946
88	0xbca257b5	-0.019817213
89	0x3d932021	0.071838625
90	0xbde17364	-0.11008337
91	0xbc300a15	-0.010744591
92	0xbdbf53e5	-0.093421735
93	0x3d3e9002	0.046524055
94	0xbdd7b7d1	-0.10533107
95	0x3da41131	0.080110915
96	0x3cf7943b	0.030222049
97	0xbbfd8985	-0.007737341
98	0x3ccea599	0.025225447
99	0xbdc6581b	-0.096847735
100	0xbd485729	-0.048911247
101	0x3d927ef5	0.071531214
102	0x3cd44130	0.02590999
103	0xbd681bd4	-0.056667164
104	0x3ba01592	0.004885384
105	0xbdf0109b	-0.11721917
106	0x3ce35512	0.027750526
107	0x3deef63d	0.1166806
108	0xbd6cbe41	-0.057798628
109	0xbd957916	-0.07298486
110	0x3d8c794b	0.06859072
111	0x3d73ea6e	0.05954974
112	0x3d89b8eb	0.067247234
113	0xbc388a75	-0.0112634795
114	0x3c6fbae7	0.014631963
115	0x3ded5582	0.11588575
116	0x3dc27cef	0.094964854
117	0x3d6f9a04	0.05849649
118	0xbcfd4380	-0.030915976
119	0x3d694517	0.056950655
120	0x3bb49389	0.0055107516
121	0xbdf016ac	-0.11723074
122	0x3cbd2484	0.023088701
123	0x3d65e07b	0.056122284
124	0x3c0900a7	0.008361972
125	0x3dd92eb8	0.10604614
126	0x3d278792	0.040900774
127	0xbdaf938b	-0.085730635
128	0x3d6f646c	0.05844538
129	0x3bf49aa9	0.007464726
130	0x3cad0e64	0.021125026
131	0x3c8ac581	0.01693988
132	0xbcd03f6d	-0.025420869
133	0x3db1c0c9	0.08679349
134	0xbc013ffb	-0.007888789
135	0x3bf43a3c	0.007453231
136	0xbd1c55b5	-0.038167674
137	0xbde068c9	-0.10957486
138	0x3dd470ff	0.10373115
139	0xbdb96c85	-0.090539016
140	0xbc3d779c	-0.011564162
141	0xbdb0be74	-0.08630076
142	0x3c518243	0.0127874045
143	0xbd33db88	-0.043910533
144	0xbce3a434	-0.02778826
145	0x3ca4be2d	0.020110214
146	0xbd114bee	-0.035472803
147	0x3d68e207	0.05685618
148	0xbcf7173a	-0.030162442
149	0xbd2ed3dc	-0.042682514
150	0xbb9f131d	-0.0048545734
151	0x3d9de3d3	0.0770947
152	0xbd44f032	-0.04808063
153	0xbda7bcf0	-0.08190334
154	0xbc822222	-0.015885416
155	0x3deed87d	0.116623856
156	0xbd9ac1e8	-0.07556516
157	0x3ded2f28	0.1158126
158	0x3a0f2cfd	0.0005461721
159	0xbd771eb0	-0.060332
160	0x3d876e2e	0.06612812
161	0xbdb7a9b3	-0.089679144
162	0xbdedb84e	-0.11607419
163	0xbde94885	-0.11390785
164	0xbde78906	-0.11305432
165	0xba1a7026	-0.0005891345
166	0x3d87fcd0	0.06640017
167	0x3d5836f2	0.052786775
168	0x3d14a9f1	0.03629488
169	0x3db3081b	0.0874178
170	0xbdef582f	-0.116867416
171	0x3d68016f	0.056641992
172	0xbd8dce82	-0.06924154
173	0x3db6a36b	0.08917888
174	0xbd92f7ef	-0.07176196
175	0x3d8ce30f	0.068792455
176	0x3cab00d1	0.020874413
177	0x3d415164	0.04719676
178	0xbd9e0836	-0.0771641
179	0x3d7c1436	0.061542712
180	0xbc86cbc3	-0.016454583
181	0x3d321e94	0.043486193
182	0xbd912db3	-0.070887946
183	0x3dbeb336	0.093115255
184	0x3db4f1f1	0.08835209
185	0xbd675351	-0.05647594
186	0x3d961ac7	0.07329326
187	0xbda86d35	-0.082239546
188	0x3cbfbb5b	0.023404768
189	0xbdaddbc4	-0.084891826
190	0x3c90d664	0.017680354
191	0xbd84ec8f	-0.064904325
192	0xbdc880df	-0.09790205
193	0xbda5015a	-0.080568984
194	0xbdaffe8b	-0.08593472
195	0x3c0a3083	0.008434418
196	0x3d8cdbf9	0.06877894
197	0xbd2965bd	-0.04135679
198	0xbd1b08b9	-0.037850115
199	0xbd7f4c88	-0.062328845
200	0x3de30ff4	0.11087027
201	0x3d3ccbd9	0.04609284
202	0x3d2c2d0b	0.042035144
203	0x3dbdc146	0.092653796
204	0x3a4ec7fa	0.0007888075
205	0xbcb900e4	-0.022583432
206	0xbda75bff	-0.08171844
207	0x3d333a68	0.043756872
208	0x3db763c2	0.08954574
209	0xbaf8cf42	-0.0018982666
210	0xbc409b9f	-0.011755853
211	0xbdf0ac8c	-0.11751661
212	0x3d15a9bf	0.036538836
213	0xbd389487	-0.04506352
214	0xbd3d960a	-0.046285667
215	0xbdd06f35	-0.10177461
216	0xbd02092a	-0.03174702
217	0xbcd34b75	-0.025792817
218	0x3c806ef2	0.015677903
219	0x3d3e7cfb	0.04650591
220	0x3dd07174	0.101778895
221	0xbdbe1b22	-0.09282519
222	0x3c656fa4	0.014003668
223	0x3d439a80	0.047754765
224	0xbd582ce3	-0.052777182
225	0xbdd13c84	-0.102166206
226	0x3d12d048	0.035843164
227	0x3da307f5	0.07960502
228	0xba417600	-0.0007379949
229	0x3dc8cc8e	0.09804641
230	0x3cac127f	0.021004913
231	0xbcf1df77	-0.029525502
232	0xbcd23a5f	-0.0256626
233	0x3d3b8c73	0.04578824
234	0x3d9bb1eb	0.076022945
235	0x3dd9eca3	0.10640838
236	0x3bde0bf7	0.0067763287
237	0x3ddadab6	0.10686247
238	0x3d2e5d3f	0.042569395
239	0xbc3185eb	-0.010835151
240	0xbcb8986c	-0.022533618
241	0xbd35312f	-0.04423636
242	0xbbc71715	-0.0060757496
243	0xbc45cd29	-0.01207284
244	0x3ca1e146	0.019760739
245	0x3cf7dde8	0.03025718
246	0x3da20b9e	0.07912372
247	0x3d3d9b82	0.046290882
248	0x3d5401f7	0.051759686
249	0x3d08ff42	0.033446558
250	0x3da440e1	0.08020187
251	0xbc36c0cc	-0.011154365
252	0xbdcdf295	-0.100560345
253	0xbdb1aa52	-0.08675064
254	0xbb625d52	-0.0034540487
255	0x3d5de619	0.054174516

conv_block_3.5.bias f4 [8]
0	0x3d511ce0	0.051052928
1	0x3d0b3919	0.03399
2	0xbd198c26	-0.03748717
3	0xbdbf998a	-0.09355457
4	0x3d3f3970	0.046685636
5	0x3dc027db	0.09382602
6	0xbda2d64d	-0.07951031
7	0x3dd2e193	0.10296931

conv_block_4.0.weight f4 [8]
0	0x3f800036	1.0000064
1	0x3f7fff52	0.9999896
2	0x3f800019	1.000003
3	0x3f7fffe0	0.9999981
4	0x3f7ffff3	0.9999992
5	0x3f7fff98	0.9999938
6	0x3f80000b	1.0000013
7	0x3f80003f	1.0000075

conv_block_4.0.bias f4 [8]
0	0xb64ebfc6	-3.080802e-06
1	0xb487db66	-2.5305343e-07
2	0x3669f964	3.486487e-06
3	0xb6972378	-4.50428e-06
4	0x370c018a	8.345009e-06
5	0x36380179	2.7418994e-06
6	0x365f8aa8	3.3310298e-06
7	0x372f4ed8	1.044917e-05

conv_block_4.0.running_mean f4 [8]
0	0x3d5d66df	0.054053184
1	0x3cd457fc	0.02592086
2	0xbc2fbace	-0.01072569
3	0x3dd07b82	0.10179807
4	0x3d2a0eff	0.041518208
5	0x3dc48f32	0.09597625
6	0x3d833f50	0.0640856
7	0x3d951cf6	0.072809145

conv_block_4.0.running_var f4 [8]
0	0x3f554659	0.83310467
1	0x3f50af95	0.81517917
2	0x3f518754	0.8184712
3	0x3f6444b3	0.89167327
4	0x3f4fedd5	0.8122228
5	0x3f5e2617	0.8677687
6	0x3f6964ce	0.9116944
7	0x3f4feca0	0.81220436

conv_block_4.2.weight f4 [16, 8, 3, 3]
0	0x3d27a331	0.040927116
1	0x3de202c1	0.110356815
2	0xbd9a18f6	-0.07524292
3	0x3d5efe4c	0.054441735
4	0xbdd72135	-0.105043806
5	0x3c346578	0.01101052
6	0xbde8d633	-0.1136898
7	0x3d72e6f5	0.05930229
8	0x3c10a928	0.0088293925
9	0x3d1b6481	0.037937645
10	0xbdf12e74	-0.11776438
11	0x3d57f39f	0.05272257
12	0x3ce0abe7	0.02742572
13	0xbd0236e3	-0.031790625
14	0xbde11fc5	-0.10992388
15	0x3dd393ab	0.103309
16	0xbcaf51ab	-0.021401247
17	0xbdd361e7	-0.10321408
18	0xbc8b287e	-0.016987082
19	0xbcbede8f	-0.023299484
20	0xbdb46ac9	-0.0880943
21	0xbc9ce63d	-0.019152755
22	0xbdc33bd1	-0.095328934
23	0xbcfcb8d3	-0.03084985
24	0xbc0879cd	-0.008329821
25	0xbd3d4d33	-0.0462162
26	0x3cdc80c2	0.026916865
27	0xbc2a308e	-0.010387553
28	0x3d1c7411	0.038196627
29	0xbda6b347	-0.08139663
30	0x3d3e9b16	0.04653462
31	0xbd6e7997	-0.058221426
32	0x3d403045	0.046921033
33	0x3d67f3a5	0.056628842
34	0x3d961f25	0.07330159
35	0xbdbb5a2e	-0.0914806
36	0xbcca02d3	-0.02465955
37	0xbdb94480	-0.090462685
38	0x3dc0a9d1	0.0940739
39	0xbde625e6	-0.11237697
40	0x3d5939e8	0.05303374
41	0xbd6722e1	-0.056429747
42	0x3c1a0b00	0.009402037
43	0xbc9dcc82	-0.019262556
44	0xbd8ec569	-0.06971247
45	0xbdf14cb1	-0.11782206
46	0x3d140521	0.036137704
47	0xbdced045	-0.10098318
48	0xbd6d484d	-0.05793028
49	0x3dc49482	0.09598638
50	0x3de0e113	0.109804295
51	0xbdb07d8a	-0.08617695
52	0x3bada350	0.0052990094
53	0x3d3606f9	0.044440243
54	0x3dc192db	0.094518386
55	0x3dbb1770	0.0913533
56	0xbdbfd5b4	-0.093669325
57	0x3d7bdc12	0.061489172
58	0x3dd90a6e	0.105976924
59	0x3c9ee589	0.01939656
60	0xbd324fa1	-0.04353297
61	0xbd887648	-0.06663185
62	0x3dc44457	0.09583347
63	0x3d0c04ce	0.03418427
64	0x3da7bea2	0.08190657
65	0xbde6efb4	-0.112761885
66	0x3d162fac	0.036666557
67	0x3c48b05a	0.012249077
68	0xbcbd3406	-0.023096096
69	0xbd867260	-0.06564784
70	0x3cae15da	0.021250654
71	0xbd046c6a	-0.032329954
72	0xbd229daa	-0.03970114
73	0xbdd8dd36	-0.10589068
74	0x3de5c211	0.11218656
75	0xbca156ef	-0.019694773
76	0x3dd95e52	0.10613693
77	0xbdcdfeac	-0.100583404
78	0xbdde354d	-0.1085001
79	0x3ddebdc4	0.10876039
80	0x3dddb285	0.108250655
81	0x3d0e3bb6	0.034724914
82	0xbda2889f	-0.07936215
83	0x3d96784e	0.07347165
84	0x3d870dda	0.06594439
85	0x3dd01363	0.10159948
86	0xbdd1896a	-0.10231288
87	0xbc32073f	-0.010865985
88	0x3dcf4b3e	0.10121773
89	0x3beee47e	0.007290422
90	0x3cf3e092	0.02977017
91	0xbd6fe66e	-0.058569364
92	0xbdd8a64f	-0.10578596
93	0xbd331158	-0.043717712
94	0xbd8a9c1b	-0.06768056
95	0x3d90b748	0.07066208
96	0xbbbc87ba	-0.0057534846
97	0x3de18521	0.110117204
98	0xbc9c1b6b	-0.019056043
99	0xbdc33ab0	-0.09532678
100	0xbd4f9169	-0.050675783
101	0x3cd99d05	0.02656413
102	0x3c876738	0.01652871
103	0xbdaea0f7	-0.08526795
104	0xbd620694	-0.055182055
105	0xbd9bb184	-0.07602218
106	0x3d844e72	0.06460275
107	0xbd280ba7	-0.041026738
108	0x3d78cb71	0.06074089
109	0x3b89ff3f	0.004211336
110	0x3dbdc7c5	0.09266619
111	0x3d5e0959	0.054208133
112	0xbd256d8e	-0.040387683
113	0xbdc0959a	-0.09403534
114	0x3dbc20c3	0.09185936
115	0xbb83339c	-0.004003955
116	0x3d670bd0	0.05640775
117	0xbda38141	-0.079836376
118	0xbd32c05a	-0.043640472
119	0x3d06abe4	0.03287877
120	0xbd33bc62	-0.043880828
121	0x3d03cbeb	0.032176893
122	0x3d8bc532	0.068247214
123	0x3de13155	0.109957375
124	0x3da90174	0.0825223
125	0x3cc35306	0.0238433
126	0xbd5205d6	-0.051275097
127	0x3da3be23	0.0799525
128	0x3c957aa1	0.01824695
129	0x3d47ba63	0.048761737
130	0x3da4e205	0.08050922
131	0x3c67d0d3	0.014148909
132	0xbdc331f6	-0.09531014
133	0xbcc824e8	-0.02443166
134	0xbd5c77ea	-0.053825296
135	0x3daaf2a9	0.08347065
136	0xbd07f5d8	-0.03319344
137	0xbced8577	-0.028994305
138	0x3d29754c	0.04137163
139	0x3d4fc717	0.050726976
140	0xbd133c48	-0.03594616
141	0xbc92f326	-0.017938208
142	0xbd96889f	-0.07350277
143	0xbda696ae	-0.081342086
144	0xbd1175fe	-0.035512917
145	0x3c30ccbc	0.010791
146	0xbda01411	-0.07816327
147	0xbded5451	-0.11588348
148	0xbd876570	-0.066111445
149	0x3dd9bafd	0.10631368
150	0xbc6fba97	-0.014631889
151	0xbde75508	-0.11295515
152	0x3dee5b5f	0.116385214
153	0xbdc0dcc8	-0.09417111
154	0xbd6eb7b0	-0.058280647
155	0x3d7f3b16	0.062312208
156	0x3de7b116	0.11313073
157	0xbd828d45	-0.06374601
158	0x3d84c139	0.06482167
159	0x3db4038e	0.087897405
160	0xbdba0d7e	-0.09084605
161	0xbdb43230	-0.08798635
162	0xbd687012	-0.056747504
163	0x3b22c6dc	0.0024837768
164	0x3dbbb594	0.09165493
165	0x3da97779	0.08274741
166	0xbc2e3093	-0.010631698
167	0xbd216b23	-0.039408814
168	0x3cdb3997	0.02676086
169	0x3d2b8aff	0.041880604
170	0x3dd65275	0.10464946
171	0x3d03ac94	0.032147005
172	0xbd1556ea	-0.03645984
173	0xbdccaca1	-0.09993864
174	0x3decd57d	0.11564157
175	0x3c77ad67	0.015117026
176	0xbcef197c	-0.029186957
177	0x3d178b70	0.036998212
178	0x3d5590e7	0.052140143
179	0x3d3e40d1	0.046448532
180	0xbbf1c82b	-0.007378598
181	0xbd781afe	-0.060572617
182	0xbde13af6	-0.10997574
183	0xbd98bd18	-0.07457942
184	0xbd1a5538	-0.037678927
185	0xbcd7f2b4	-0.026360847
186	0x3cd2bdb5	0.025725225
187	0xbdebc0c0	-0.115113735
188	0x3ddf5aed	0.109060146
189	0x3cbf11bf	0.023323892
190	0x3c2b6c2a	0.0104628
191	0xbd92ede7	-0.071742825
192	0x3dc41400	0.09574127
193	0x3d2f684e	0.042824082
194	0xbde88fe3	-0.11355569
195	0x3db73b28	0.0894683
196	0xbb36660e	-0.0027831825
197	0xbda733c0	-0.081641674
198	0x3db4ddba	0.088313535
199	0x3c8e83b5	0.017396787
200	0xbd0d04a9	-0.034428272
201	0xbdbcef1a	-0.092252925
202	0x3db1a30c	0.08673677
203	0x3d11d04d	0.03559904
204	0x3cb3f603	0.021967893
205	0xbdd7fffb	-0.10546871
206	0xbc3419de	-0.010992495
207	0x3daf3fd6	0.085570976
208	0x3d008aa5	0.03138222
209	0xbc20c45c	-0.009812441
210	0x3de4e1a1	0.11175848
211	0xbdb54185	-0.088503875
212	0x3d4a90b7	0.049454417
213	0x3dae5ad7	0.0851342
214	0xbdd4c778	-0.10389608
215	0x3ca08847	0.019596232
216	0xbdea2b21	-0.114340074
217	0xbd6799c7	-0.056543138
218	0xbd8c4c51	-0.06850494
219	0xbdc18a2e	-0.09450184
220	0xbcd13c5b	-0.025541475
221	0xbd9bbe26	-0.07604627
222	0x3dc68d29	0.09694893
223	0x3dbaea2d	0.09126697
224	0x3c47cd39	0.012194925
225	0x3d479518	0.04872617
226	0x3dcb5ae5	0.09929446
227	0x3da15599	0.078776546
228	0xbdc27114	-0.09494224
229	0xbdacfecd	-0.08447037
230	0x3cd9fb26	0.026609015
231	0x3c67454e	0.014115645
232	0xbde2b9b6	-0.11070578
233	0x3c5ceb0f	0.013483777
234	0x3d0b760b	0.03404812
235	0x3d379852	0.044823
236	0xbcbecd5d	-0.023291284
237	0x3dea4cae	0.11440407
238	0xbd535900	-0.05159855
239	0x3dbe684e	0.09297238
240	0x3c49098a	0.012270341
241	0xbdb9959d	-0.090617396
242	0x3daba542	0.0838113
243	0x3d945551	0.07242835
244	0x3dc2ad49	0.09505708
245	0xbd9b8d37	-0.07595294
246	0xbda817da	-0.08207674
247	0x3dde4b9e	0.108542666
248	0xbcee756e	-0.02910873
249	0x3deac2af	0.11462914
250	0xbd89d385	-0.06729797
251	0x3d4b9f8c	0.049712703
252	0xbddb8701	-0.10719109
253	0x3dc7333b	0.09726568
254	0xbde6fdcc	-0.11278877
255	0x3d928ce3	0.07155778

conv_block_4.2.bias f4 [16]
0	0xbde153b4	-0.11002293
1	0xbdb30dbf	-0.08742856
2	0xbda2c6b7	-0.07948058
3	0x3ac529be	0.0015042347
4	0xbdc67181	-0.09689618
5	0xbd81cf7d	-0.063384034
6	0xbd6a0932	-0.057137676
7	0xbddee7ff	-0.108840935
8	0xbab2d57e	-0.0013643948
9	0xbd25c1fc	-0.0404682
10	0xbde16b13	-0.11006751
11	0xbdeaccf0	-0.1146487
12	0xbd8867e9	-0.06660444
13	0xbdd949ed	-0.10609803
14	0xbd7dcb7b	-0.061961632
15	0x3b8491cf	0.004045702

conv_block_4.3.weight f4 [16]
0	0x3f800013	1.0000023
1	0x3f7fffdb	0.9999978
2	0x3f7ffffa	0.99999964
3	0x3f7fff81	0.99999243
4	0x3f800006	1.0000007
5	0x3f7fffa7	0.9999947
6	0x3f7fffc8	0.99999666
7	0x3f800037	1.0000066
8	0x3f7fffde	0.999998
9	0x3f80000c	1.0000014
10	0x3f7fffdc	0.99999785
11	0x3f800043	1.000008
12	0x3f7fffb3	0.9999954
13	0x3f80001f	1.0000037
14	0x3f800003	1.0000004
15	0x3f800013	1.0000023

conv_block_4.3.bias f4 [16]
0	0x350d8c33	5.273061e-07
1	0x368d0115	4.2022534e-06
2	0x36b3d4a6	5.3593712e-06
3	0xb618e412	-2.278252e-06
4	0xb5cb3987	-1.5141421e-06
5	0xb6b44c0f	-5.3732724e-06
6	0x3687592b	4.033694e-06
7	0x3771772c	1.4392466e-05
8	0x32d0b12f	2.429496e-08
9	0x36e78d72	6.900803e-06
10	0xb6aa3623	-5.072697e-06
11	0x33bf8287	8.9178734e-08
12	0xb5fe3a87	-1.8941508e-06
13	0x36adec85	5.1833363e-06
14	0x3688c2cb	4.0757927e-06
15	0x35050851	4.9558463e-07

conv_block_4.3.running_mean f4 [16]
0	0xbd45af84	-0.048263088
1	0xbbe79ae1	-0.0070680236
2	0xbc84feb8	-0.01623474
3	0x3d2d33c4	0.042285696
4	0xbd657acb	-0.056025308
5	0xbd2ad5b3	-0.041707706
6	0xbbd34bd4	-0.0064482484
7	0xbd6275c3	-0.055288088
8	0xbd06956b	-0.03285734
9	0xbc91c9c9	-0.017796414
10	0xbd4b1eba	-0.04958985
11	0xbd1a232b	-0.037631195
12	0xbd10d608	-0.035360366
13	0xbd758b31	-0.059947196
14	0xbd147a10	-0.03624922
15	0xbd94009e	-0.0722668

conv_block_4.3.running_var f4 [16]
0	0x3f53239d	0.82476217
1	0x3f540f54	0.8283589
2	0x3f540c41	0.828312
3	0x3f581b32	0.84416497
4	0x3f570e50	0.84006214
5	0x3f54ebcd	0.83172303
6	0x3f542a64	0.8287718
7	0x3f59cff8	0.8508296
8	0x3f591a0f	0.8480539
9	0x3f53007b	0.8242261
10	0x3f5bf99f	0.85927767
11	0x3f567cb0	0.8378401
12	0x3f567422	0.83770955
13	0x3f579f26	0.84227216
14	0x3f557135	0.83375865
15	0x3f637d06	0.88862646

conv_block_4.5.weight f4 [16, 16, 3, 3]
0	0xbc83206e	-0.016006675
1	0x3d51c71f	0.051215287
2	0x3d823392	0.063574925
3	0x3d413354	0.04716809
4	0x3d65934f	0.056048688
5	0x3d3c16dc	0.045920238
6	0x3d82ca5a	0.06386252
7	0xbccf3919	-0.025295781
8	0x3a7a0af8	0.00095383776
9	0xbd896098	-0.06707877
10	0x3d894dc4	0.06704286
11	0x3d0dfe57	0.034666386
12	0x3d85b23c	0.06528136
13	0x3d123425	0.03569426
14	0xbd4a8e41	-0.04945207
15	0xbd947f7e	-0.0725088
16	0x3d274e74	0.040846303
17	0xbd2b30c2	-0.041794546
18	0xbd8bcecb	-0.06826552
19	0x3da56456	0.08075778
20	0xbda46f51	-0.080290444
21	0xbd87865f	-0.06617426
22	0x3d884776	0.06654255
23	0xbda7f048	-0.08200127
24	0xbcc81775	-0.024425248
25	0x3d3be8e4	0.0458764
26	0x3aa3c945	0.0012495896
27	0xbd9d305f	-0.07675242
28	0x3d7c2e64	0.06156768
29	0x3c74b381	0.014935375
30	0x3d93f77e	0.0722494
31	0x3d13ca26	0.036081456
32	0x3ceaddaf	0.02867016
33	0xbc25b088	-0.010112889
34	0xbda35a14	-0.079761654
35	0xbc0974cd	-0.008389664
36	0x3d3e5111	0.04646403
37	0x3c41c420	0.011826545
38	0x3d9ce4f4	0.07660857
39	0xbd8b57e4	-0.06803873
40	0x3d2e1edc	0.0425099
41	0x3da68aa1	0.0813191
42	0xbce388f6	-0.027775269
43	0x3d88065d	0.06641839
44	0x3cc56a19	0.024098443
45	0x3c916927	0.017750336
46	0xbd03a2a5	-0.03213753
47	0x3c99c8d1	0.018772515
48	0xbd385f2b	-0.045012634
49	0x3d887d95	0.06664578
50	0x3cf85a59	0.030316519
51	0x3cd8c183	0.026459461
52	0x3d47c289	0.048769508
53	0x3d673385	0.056445617
54	0xbabdc567	-0.0014478386
55	0x3d3572f2	0.044299074
56	0x3d2ce27d	0.042208184
57	0xbce147de	-0.02750009
58	0xbd110b65	-0.035411257
59	0xbcc2c61c	-0.023776107
60	0xbd644209	-0.05572704
61	0x3d8408ef	0.064470164
62	0x3d29d3d2	0.041461773
63	0x3d4eb142	0.050462015
64	0xbd49315b	-0.049119335
65	0xbd1f5059	-0.038894985
66	0x3d960821	0.07325769
67	0xbd9afedb	-0.07568141
68	0x3d6dce40	0.058058023
69	0xbd8076ce	-0.0627266
70	0x3d76095f	0.06006753
71	0xbd89a17b	-0.06720253
72	0x3c2b896b	0.010469775
73	0xbd85583e	-0.065109715
74	0x3bc29d4d	0.005939162
75	0xbd09ce80	-0.0336442
76	0x3d4396b1	0.047751132
77	0xbd479f86	-0.048736118
78	0x3d66902c	0.056289837
79	0x3d0d153e	0.034444086
80	0x3d2f60f9	0.04281709
81	0x3b32dc71	0.0027292038
82	0xbcdc90cc	-0.026924513
83	0x3c8a36e7	0.016871883
84	0xbd34f5e3	-0.04417981
85	0xbd87e377	-0.06635182
86	0xbd9f1d96	-0.07769315
87	0x3d54ecaf	0.05198353
88	0x3aaa608b	0.0012998743
89	0x3c873f20	0.016509593
90	0x3d5ff7b5	0.05467959
91	0x3bc04d40	0.005868584
92	0x3d966c29	0.07344849
93	0xbd9d5a81	-0.07683278
94	0x3cfce784	0.030872114
95	0x3d4990fb	0.04921053
96	0x3c6d8d6f	0.014499052
97	0xbd9fec66	-0.07808761
98	0xbd3d305c	-0.046188697
99	0x3ce2abac	0.02766975
100	0x3da013dc	0.07816288
101	0xbb932832	-0.0044908756
102	0xbd0633a6	-0.0327641
103	0x3bad55be	0.0052897623
104	0x3d3d9a39	0.046289656
105	0xbbaacce1	-0.0052124118
106	0x3b82160f	0.0039699147
107	0x3d792792	0.060828753
108	0xbd9557c6	-0.07292132
109	0x3c4c66dd	0.012475696
110	0x3c06f3e5	0.00823686
111	0xbb7a0ab4	-0.0038153352
112	0xbd2a56cb	-0.04158668
113	0x3daa2ea3	0.083096765
114	0x3d26c180	0.04071188
115	0x3d98b6f1	0.07456768
116	0xbd2aced5	-0.041701157
117	0x3d4514d8	0.04811558
118	0xbd78822a	-0.06067101
119	0xbd17b23b	-0.03703521
120	0xbd9dfb17	-0.07713907
121	0xbd7c11a2	-0.061540253
122	0xbd87958b	-0.0662032
123	0x3d985d85	0.074397124
124	0x3d6d9161	0.057999972
125	0x3d9ec7d7	0.0775296
126	0xba8ea9a4	-0.0010884297
127	0xbd6316b9	-0.055441592
128	0x3d9f7786	0.07786469
129	0x3d15a19c	0.036531076
130	0x3c708b29	0.014681616
131	0xbd16c794	-0.036811426
132	0xbd97c49b	-0.074105464
133	0xbd971ac1	-0.0737815
134	0x3c6c5c1c	0.014426257
135	0x3d01fb67	0.031733897
136	0x3d516bbc	0.051128134
137	0x3d05ee7c	0.03269814
138	0x3cf0adfc	0.029379837
139	0x3d6c99c1	0.05776382
140	0x3d9103ca	0.07080801
141	0xbd85a8bb	-0.065263234
142	0x3d9537e6	0.072860524
143	0xbd7a241a	-0.061069585
144	0x3b698aa2	0.003563561
145	0x3d358542	0.044316538
146	0x3b848394	0.0040440056
147	0x3d503839	0.050834868
148	0x3ca0018a	0.019531984
149	0xbda0137e	-0.07816218
150	0xbc7abc04	-0.0153036155
151	0xbd854810	-0.065078855
152	0x3cffc214	0.031220473
153	0xbcafeb64	-0.021474548
154	0xbd6ad9ce	-0.05733662
155	0x3cea1b23	0.028577393
156	0xbd8d3c0e	-0.0689622
157	0xbd9d03e8	-0.07666761
158	0xbbd4a743	-0.0064896657
159	0x3c57ec6e	0.013178928
160	0x3d919eee	0.071103916
161	0x3d17fc63	0.03710593
162	0xbd6354cc	-0.05550079
163	0x3d91734a	0.07102068
164	0xbccdc9eb	-0.025120696
165	0xbb4b40a3	-0.0031013868
166	0xbd684602	-0.05670739
167	0xbba3dbad	-0.0050005526
168	0xbbb38411	-0.00547839
169	0xbbb1f9b2	-0.0054313773
170	0xbd26802a	-0.04064957
171	0x3d618eac	0.055067703
172	0x3d76fee7	0.060301688
173	0xbd119377	-0.035541024
174	0xbd9836f8	-0.074323595
175	0x3c4b7991	0.01241912
176	0xbd93c27a	-0.07214828
177	0x3d3fec84	0.04685642
178	0x3d9b55c1	0.07584716
179	0x3cb34a55	0.02188603
180	0xbb09eb68	-0.0021044854
181	0xbcd99c50	-0.026563793
182	0x3c223fef	0.009902938
183	0x3c8d7d5b	0.017271688
184	0x3d819a9c	0.063283175
185	0x3d5f7b67	0.054561045
186	0xbd541374	-0.051776364
187	0xbd583f5c	-0.0527948
188	0xbb11fcee	-0.0022276002
189	0x3bc809a2	0.006104664
190	0xbcc6af9b	-0.024253657
191	0xbd3ffc24	-0.04687132
192	0xbd887db0	-0.06664598
193	0x3c420004	0.011840824
194	0xbd897740	-0.06712198
195	0x3d6e8a4f	0.05823737
196	0xbc36a031	-0.011146591
197	0x3d085de2	0.03329266
198	0xbce0c3e1	-0.027437152
199	0x3d56cc68	0.05244103
200	0x3bac1eb7	0.005252685
201	0x3d249133	0.040177535
202	0xbd7eba70	-0.06218952
203	0x3d236acf	0.039896782
204	0xbd6a6e34	-0.057234004
205	0xbcf8994a	-0.030346531
206	0x3d0cd7f4	0.034385636
207	0xbc775c5c	-0.015097704
208	0x3d62e8fd	0.055397976
209	0x3c0636ed	0.008191806
210	0x3d4fdc1e	0.05074703
211	0xbc6659dc	-0.01405951
212	0xbd3a9937	-0.045556273
213	0x3d9bc3f3	0.07605734
214	0x3d0d4f47	0.034499433
215	0x3d3858a7	0.04500642
216	0x3ce35ea1	0.027755084
217	0x3d496f0c	0.04917817
218	0x3c634405	0.013871198
219	0x3c969b59	0.018384622
220	0x3d4d0f13	0.050063204
221	0x3d5514a8	0.052021652
222	0xbd624d09	-0.055249248
223	0x3c0c1a45	0.008551185
224	0x3d522623	0.0513059
225	0xbd8875d2	-0.066630974
226	0x3caa610e	0.020798232
227	0x3d88519b	0.0665619
228	0x3d808848	0.062759936
229	0xbc468e86	-0.012118941
230	0x3d6b7c33	0.057491492
231	0x3d97aeb0	0.07406366
232	0x3d33786d	0.04381602
233	0x3c9335f8	0.01797007
234	0xbd8320ee	-0.06402765
235	0x3d39311e	0.045212857
236	0x3d1fa100	0.0389719
237	0xbcb344ce	-0.021883395
238	0xbb8641ad	-0.0040971846
239	0xbd9dd456	-0.077065155
240	0xbcdfc071	-0.027313443
241	0x3be73bfa	0.0070567103
242	0xbd960b63	-0.073263906
243	0x3d50044a	0.05078534
244	0xbd7b5d5e	-0.06136834
245	0x3b83b749	0.004019652
246	0x3cb9a25d	0.022660429
247	0xbd3341e5	-0.043764014
248	0x3cdd29d0	0.026997477
249	0xbc4105a5	-0.011781131
250	0x3bdc68fd	0.0067263828
251	0xbd889970	-0.06669891
252	0xbd802ac5	-0.06258158
253	0x3d45db24	0.048304692
254	0xbd5716b1	-0.052511875
255	0x3cc744ed	0.024324859

conv_block_4.5.bias f4 [16]
0	0xbd605521	-0.054768685
1	0x3d487854	0.04894288
2	0xbc027a3f	-0.007963716
3	0x3b8b524f	0.0042517553
4	0x3cb68092	0.022278104
5	0x3c9fe85e	0.019519981
6	0x3d398a18	0.045297712
7	0xbb9a598e	-0.004710383
8	0xbd8dea31	-0.06929434
9	0x3b13b07f	0.002253562
10	0xbd3f0fe4	-0.046646014
11	0x3c8a76d3	0.016902363
12	0xbcb04f4a	-0.021522183
13	0xbcb46154	-0.022019066
14	0xbd6b15d9	-0.057393882
15	0x3d9ee7eb	0.077590786

conv_block_5.0.weight f4 [16]
0	0x3f80001e	1.0000036
1	0x3f800012	1.0000021
2	0x3f7ffffd	0.9999998
3	0x3f800016	1.0000026
4	0x3f7fffb3	0.9999954
5	0x3f7fffca	0.9999968
6	0x3f800013	1.0000023
7	0x3f7fffcb	0.99999684
8	0x3f7fffd4	0.9999974
9	0x3f7ffff4	0.9999993
10	0x3f80000a	1.0000012
11	0x3f7fffe6	0.99999845
12	0x3f7fffc9	0.9999967
13	0x3f7ffff7	0.99999946
14	0x3f800019	1.000003
15	0x3f800018	1.0000029

conv_block_5.0.bias f4 [16]
0	0x364e6ffb	3.0761573e-06
1	0x34c95c9a	3.7506544e-07
2	0x36147fa2	2.212801e-06
3	0x3517623f	5.639485e-07
4	0xb5321f00	-6.635528e-07
5	0x3592e592	1.0944661e-06
6	0xb59201ed	-1.0878408e-06
7	0xb6755a5d	-3.6560443e-06
8	0xb6399c2c	-2.7658052e-06
9	0x3577a592	9.2255607e-07
10	0x35927e90	1.0914682e-06
11	0xb45ef9a2	-2.0766177e-07
12	0x34da037f	4.0608208e-07
13	0xb5aa59f0	-1.2692162e-06
14	0xb5ecf78e	-1.7655418e-06
15	0x359c4574	1.1643119e-06

conv_block_5.0.running_mean f4 [16]
0	0x3da57be6	0.080802724
1	0x3d91bd94	0.07116237
2	0xbc0238b2	-0.0079480875
3	0x3c8355ec	0.016032182
4	0x3ce861f0	0.028367013
5	0x3d864db9	0.06557793
6	0x3dc75478	0.09732908
7	0xbd15cf3d	-0.03657459
8	0xbd72441b	-0.05914698
9	0x3d8157d6	0.063155815
10	0x3d44c714	0.04804142
11	0xbcc5937a	-0.024118174
12	0x3ccdf248	0.025139943
13	0x3ce2d621	0.027689995
14	0x3c1e2d8c	0.009654414
15	0x3d99663d	0.074902035

conv_block_5.0.running_var f4 [16]
0	0x3f51e486	0.81989324
1	0x3f50aed0	0.8151674
2	0x3f50bcf7	0.8153834
3	0x3f517ae0	0.8182812
4	0x3f50c7b6	0.81554735
5	0x3f53752e	0.82600677
6	0x3f531c14	0.8246472
7	0x3f50268b	0.8130881
8	0x3f52ca6f	0.8234014
9	0x3f52060d	0.8204048
10	0x3f51788c	0.81824565
11	0x3f50e78f	0.8160333
12	0x3f506677	0.8140635
13	0x3f511e22	0.81686604
14	0x3f4ffab8	0.8124194
15	0x3f524aab	0.82145184

conv_block_5.2.weight f4 [32, 16, 3, 3]
0	0xbc2a9969	-0.010412552
1	0x3d58524e	0.052812867
2	0x3da4387c	0.08018586
3	0x3c27246b	0.010201554
4	0x3c2d76b1	0.01058738
5	0x3c9ec337	0.019380195
6	0xbd8be221	-0.0683024
7	0xbbd75b8c	-0.0065721925
8	0x3d3d1f09	0.046172176
9	0xbd952427	-0.07282286
10	0xbb75a8bb	-0.0037484604
11	0xbd557816	-0.052116476
12	0xbbdb24ef	-0.0066877524
13	0x3a083d71	0.0005197144
14	0x3d5d1487	0.053974655
15	0xbd2942b5	-0.041323382
16	0xbd9be1ef	-0.07611453
17	0x3d024560	0.031804442
18	0xbda97b0c	-0.082754225
19	0xbc91b62e	-0.017787065
20	0x3d1f62aa	0.038912453
21	0x3d93c696	0.07215612
22	0xbd80a0fa	-0.06280704
23	0x3d8b60a8	0.06805545
24	0xbcc90b10	-0.024541408
25	0xbd54e024	-0.05197157
26	0xbd2b974e	-0.041892342
27	0x3c92f2ad	0.017937982
28	0xbd4db5ad	-0.050222088
29	0xbcfef12d	-0.031120861
30	0x3d391cef	0.04519361
31	0xbb28b372	-0.0025741723
32	0xbcd17d0e	-0.025572326
33	0xbda10bb3	-0.078635596
34	0x3da81520	0.08207154
35	0xbd2cc797	-0.04218253
36	0x3d9f6ed4	0.07784811
37	0xbd9e8df7	-0.077419214
38	0xbcf1a695	-0.029498378
39	0x3da60fe1	0.081084974
40	0x3d31be4b	0.04339437
41	0xbd6184cc	-0.055058286
42	0x3da3fcbd	0.080071904
43	0xbc8653e0	-0.016397417
44	0xbd7acc22	-0.061229832
45	0x3d881366	0.06644325
46	0x3c23a5b1	0.009988234
47	0x3c85e8a9	0.016346293
48	0xbd11314d	-0.035447408
49	0xbbc7acf6	-0.0060936166
50	0xbc85e7d6	-0.0163459
51	0x3cb6786e	0.022274222
52	0xbd8ad976	-0.06779759
53	0xbcea85f9	-0.028628336
54	0xbd409e68	-0.047026068
55	0xbc89b994	-0.016812123
56	0xbc199671	-0.009374247
57	0xbd37cf5e	-0.044875495
58	0x3d17697f	0.036965843
59	0xbcf24af1	-0.02957675
60	0xbc415e18	-0.011802219
61	0x3d2f918a	0.042863406
62	0x3d1b96aa	0.03798548
63	0x3c8e7af5	0.017392615
64	0xbc9fbb68	-0.019498542
65	0x3cc44681	0.0239594
66	0x3d9b0dd4	0.07570997
67	0xbd06ce2f	-0.032911476
68	0x3da522b2	0.08063258
69	0xbcbef858	-0.023311779
70	0x3d44c5a9	0.048040066
71	0x3c01da3e	0.007925568
72	0xbcb85ef2	-0.022506211
73	0xbd793820	-0.06084454
74	0x3c549c49	0.012976714
75	0x3d8823ac	0.06647429
76	0x3d82aef2	0.063810244
77	0xbd2f3068	-0.042770773
78	0xbc8899f9	-0.016674982
79	0xbd06b5d4	-0.03288825
80	0xbce72b40	-0.028218865
81	0xbc11c57c	-0.008897182
82	0x3d7f8eec	0.06239216
83	0xbd808d52	-0.06276955
84	0x3d2c3c53	0.042049717
85	0x3d93bf3f	0.07214212
86	0xbd2931c6	-0.041307233
87	0xbd7f100d	-0.062271167
88	0xbd80cf4d	-0.062895395
89	0xbd9410fc	-0.07229802
90	0x3d390f37	0.045180526
91	0xbc8bf873	-0.017086243
92	0xbd1bbc8d	-0.038021613
93	0xbd9e59cd	-0.07731972
94	0x3d9e6fdc	0.07736179
95	0xbd67c872	-0.056587644
96	0xbd6d5047	-0.057937887
97	0x3ccd2ac1	0.0250448
98	0xbd9d1827	-0.07670622
99	0xbcee5408	-0.029092804
100	0x3b00b562	0.0019639363
101	0xbd9143f4	-0.07093039
102	0xbd4d827a	-0.05017326
103	0xbc180155	-0.009277661
104	0xbabcb06b	-0.0014395838
105	0x3d6cbbb1	0.057796184
106	0x3d5d4cb9	0.054028247
107	0x3d8ee3fa	0.06977077
108	0xbd8ad25c	-0.06778404
109	0xbd0387a9	-0.032111797
110	0x3da5218a	0.08063038
111	0xbcfae683	-0.030627495
112	0x3d02c3fc	0.031925187
113	0xbb2cf61a	-0.0026391805
114	0x3d856ed3	0.06515279
115	0xbc589c89	-0.013220915
116	0xbd62758d	-0.055287886
117	0xbd7e127d	-0.06202935
118	0xbd852a95	-0.065022625
119	0xbd3b765d	-0.045767177
120	0xbc1c694b	-0.009546588
121	0x3ccc96d9	0.024974274
122	0x3c940431	0.018068405
123	0x3c3f65fd	0.011682031
124	0xbd9976a6	-0.074933335
125	0x3cecd254	0.028908886
126	0x3bf9171e	0.0076016327
127	0xbd32bf55	-0.0436395
128	0xbd602213	-0.054719996
129	0xbce3dc46	-0.027814995
130	0x3c9b1e85	0.018935451
131	0x3d81012e	0.06299053
132	0x3d7f365c	0.0623077
133	0xbd2bd1ad	-0.04194801
134	0x3d9cf654	0.07664171
135	0xbd32fdff	-0.04369926
136	0xbd95b6ba	-0.07310243
137	0x3d8df26d	0.06931005
138	0x3d158c64	0.03651084
139	0x3d2aada6	0.04166951
140	0xbd06505e	-0.032791488
141	0x3d044030	0.032287776
142	0xbda89133	-0.082308196
143	0xbbd2a44d	-0.0064282776
144	0xbc67d3ee	-0.014149649
145	0xbd2c6b00	-0.04209423
146	0xbbca3c8d	-0.006171769
147	0xbd3c72f7	-0.046008077
148	0xbd9c5de6	-0.07635097
149	0x3d8c548a	0.06852062
150	0x3cfd9314	0.030953921
151	0x3b916dff	0.0044381614
152	0xbd288d81	-0.041150574
153	0x3d58b57c	0.052907452
154	0x3d1c9a90	0.03823334
155	0x3c5a2cb6	0.013316324
156	0x3d92e3b7	0.071723394
157	0xbc6f47b0	-0.014604494
158	0x3afb752b	0.0019184699
159	0x3d8aefa9	0.06783993
160	0xbd1a4359	-0.037661884
161	0x3d9329e9	0.07185728
162	0xbc9ddbd4	-0.019269861
163	0x3d400c0b	0.046886485
164	0x3cf541bf	0.029938577
165	0xbd3b1f6b	-0.04568426
166	0x3d5ca028	0.053863674
167	0xbd89d06c	-0.067292064
168	0xbc70bc46	-0.014693325
169	0xbd04e725	-0.032447
170	0x3d39cbc0	0.045360327
171	0x3d1d6b37	0.038432326
172	0xbd3d0b2a	-0.046153225
173	0x3da974b0	0.082742095
174	0xbb32bafb	-0.0027272094
175	0x3d93715b	0.07199355
176	0x3ca72cf7	0.020407183
177	0xbd9ed119	-0.07754726
178	0x3ceb94fb	0.028757563
179	0x3cd8e874	0.02647803
180	0x3d8070dc	0.06271526
181	0xbd18f83f	-0.03734612
182	0xbd801a66	-0.06255035
183	0x3d6b0af7	0.057383504
184	0xbd99b259	-0.0750472
185	0xbd6cf506	-0.05785086
186	0x3d4d2c25	0.050090928
187	0x3da161b4	0.078799635
188	0x3d9e87b9	0.07740731
189	0xbcfe2a00	-0.031025887
190	0xbcd8de9b	-0.026473334
191	0xbd2774ae	-0.04088276
192	0x3d98f0ef	0.074678294
193	0x3d9b4b4e	0.075827226
194	0xbd990070	-0.074707866
195	0x3d76f38f	0.06029087
196	0xbd928e56	-0.07156055
197	0xbc42500d	-0.011859906
198	0xbda9c8b3	-0.082902335
199	0xbc5c5bdd	-0.013449636
200	0x3da16a30	0.07881582
201	0xbd8c21d6	-0.06842391
202	0x3da52bdc	0.08065006
203	0x3d8653cf	0.06558954
204	0xbc4cd80c	-0.012502681
205	0xbd366c3b	-0.04453681
206	0xbd451aeb	-0.048121374
207	0x3d12be14	0.035825804
208	0xbd170044	-0.036865488
209	0x3da26ac6	0.07930522
210	0x3c6c1b96	0.014410874
211	0xbda0d8e2	-0.07853867
212	0x3cc3892a	0.023869116
213	0x3d1ddb1c	0.038539037
214	0xbd203f7a	-0.039123036
215	0x3d423a78	0.04741904
216	0xbbc16010	-0.005901344
217	0xbc79b9e5	-0.015242075
218	0xbc104945	-0.008806531
219	0x3cec74cc	0.028864287
220	0xbd387486	-0.045033
221	0x3a92f935	0.0011213185
222	0xbb4f9477	-0.0031674185
223	0x3d61b933	0.05510826
224	0xbd0f2c70	-0.03495449
225	0xbd210d4d	-0.039319325
226	0xbc3b01fe	-0.011414049
227	0xbbdd5ee7	-0.006755698
228	0x3d979f24	0.074034005
229	0xb97f54ad	-0.00024350239
230	0xbc4f177d	-0.012639877
231	0xbd11e813	-0.035621714
232	0x3d726ea4	0.059187546
233	0x3d9175d1	0.0710255
234	0x3b8d74be	0.0043168953
235	0x3d1070cb	0.035263818
236	0x3c6d9f9b	0.014503385
237	0x3d84187c	0.064499825
238	0xbd890e6a	-0.066922024
239	0x3d1e8ace	0.038706593
240	0xbd2caa19	-0.042154405
241	0x3d1eef1a	0.038802244
242	0xbd64f653	-0.055898976
243	0x3c7ea103	0.015541318
244	0x3bc28dcf	0.005937315
245	0x3d73ba32	0.05950374
246	0x3d0753d7	0.03303894
247	0x3c0a7197	0.0084499335
248	0x3c0a9667	0.00845871
249	0xbc70ee7c	-0.014705297
250	0xbd9e0af3	-0.07716932
251	0xbd88050d	-0.06641588
252	0xbbca7302	-0.006178261
253	0xbb90d8ac	-0.0044203606
254	0xbbb7e75c	-0.005612297
255	0x3c9bccb0	0.019018501
