cloud-detection-code/tests/test_artifacts/test_multiclass/model_checkpoint_6.pt (torch, 287733 bytes, 260 tensors)

input_conv_block.0.weight f4 [3]
0	0x3f7fff64	0.9999907
1	0x3f800028	1.0000048
2	0x3f800011	1.000002

input_conv_block.0.bias f4 [3]
0	0x38097068	3.276803e-05
1	0xb809993c	-3.2806056e-05
2	0xb863e067	-5.433001e-05

input_conv_block.0.running_mean f4 [3]
0	0x3d598f68	0.05311528
1	0x3d7bbedc	0.061461315
2	0x3d8a60d9	0.067567535

input_conv_block.0.running_var f4 [3]
0	0x3f0813eb	0.5315539
1	0x3f081227	0.531527
2	0x3f081242	0.5315286

input_conv_block.2.weight f4 [2, 3, 1, 1]
0	0x3f0dbdfb	0.5536801
1	0x3f01f3da	0.5076271
2	0xbdceecb3	-0.101037405
3	0xbd03dddb	-0.032194
4	0x3f0bc548	0.545979
5	0x3ee7d4e1	0.452796

conv_block_1.0.weight f4 [2]
0	0x3f800399	1.0001098
1	0x3f7ff8b4	0.99988866

conv_block_1.0.bias f4 [2]
0	0x38d337a9	0.000100716316
1	0xb92814ea	-0.0001602952

conv_block_1.0.running_mean f4 [2]
0	0x3e19bd32	0.15013579
1	0x3e1b2c4a	0.15153614

conv_block_1.0.running_var f4 [2]
0	0x3f520d4a	0.8205153
1	0x3f51f0d9	0.8200813

conv_block_1.2.weight f4 [2, 2, 3, 3]
0	0xbdac3cf7	-0.084100656
1	0xbe0ddfd5	-0.13854916
2	0xbe688505	-0.22706993
3	0x3e5cdf7f	0.21569632
4	0xbdbb663c	-0.09150359
5	0x3e2275df	0.15865277
6	0x3df81d11	0.12114919
7	0x3e1f9245	0.15583141
8	0x3e487883	0.19577222
9	0xbe4f1d8f	-0.2022612
10	0xbe383e9d	-0.17992635
11	0xbd83a4d0	-0.0642792
12	0xbdea1810	-0.11430371
13	0xbd2455e5	-0.040120978
14	0xbda221db	-0.07916614
15	0xbe372ed3	-0.17888956
16	0xbe3948f1	-0.18094231
17	0x3e4482b3	0.19190483
18	0xbda189aa	-0.078875855
19	0xbd42e504	-0.047581688
20	0xbd1ef0a9	-0.03880373
21	0x3e70ed64	0.23528057
22	0x3cf8de31	0.030379387
23	0xbb77363a	-0.003772153
24	0x3e50d1e5	0.20392568
25	0x3e0df905	0.13864525
26	0xbd5fe468	-0.054661185
27	0xbd96dc25	-0.07366208
28	0xbd9496d9	-0.072553344
29	0xbdce04c3	-0.10059502
30	0xbddea604	-0.10871509
31	0xbe682249	-0.22669329
32	0xbe5323b6	-0.20619091
33	0xbe06cdd7	-0.13164459
34	0xbca75ab8	-0.020429
35	0xbd253a89	-0.040339027

conv_block_1.2.bias f4 [2]
0	0x3dc5e706	0.09663205
1	0xbc6f91d2	-0.014622169

conv_block_1.3.weight f4 [2]
0	0x3f7ffcba	0.99995005
1	0x3f800193	1.000048

conv_block_1.3.bias f4 [2]
0	0xb88db5c8	-6.757263e-05
1	0x37d39103	2.5220686e-05

conv_block_1.3.running_mean f4 [2]
0	0xbd1088b3	-0.035286617
1	0xbdc6a37b	-0.0969915

conv_block_1.3.running_var f4 [2]
0	0x3f29b18b	0.66286534
1	0x3f2864ca	0.6577879

conv_block_1.5.weight f4 [2, 2, 3, 3]
0	0x3dc7d04b	0.097565256
1	0xbe0a3c60	-0.13499594
2	0xbe6e1029	-0.23248352
3	0x3e4c77fc	0.19967645
4	0x3e1b7d27	0.1518446
5	0xbe2b8eba	-0.16753665
6	0xbd4129f9	-0.04715917
7	0x3e0e993d	0.13925643
8	0x3e69d2a6	0.22834262
9	0xbdfc260d	-0.12311945
10	0xbe5d217c	-0.21594805
11	0xbcf35336	-0.029702764
12	0x3ad125c1	0.0015956686
13	0xbe41e260	-0.18934011
14	0x3c3ae450	0.011406973
15	0xbe4eb539	-0.20186318
16	0xbe12c157	-0.14331566
17	0x3e070a8c	0.13187617
18	0x3d725b5a	0.05916915
19	0xbd35fe64	-0.04443206
20	0xbe161012	-0.14654568
21	0xbd9af8c1	-0.07566977
22	0xbd9cd5a2	-0.07657935
23	0x3ddfa517	0.1092016
24	0x3de51624	0.111858636
25	0x3e59755e	0.21236178
26	0x3a9d745f	0.0012012831
27	0x3e05e066	0.13073882
28	0xbd6a5606	-0.057210945
29	0x3d56f8d2	0.052483387
30	0x3e58d0f5	0.21173461
31	0x3e1d47b7	0.15359388
32	0xbe491e6a	-0.19640508
33	0x3d0bb16d	0.034104753
34	0x3c917c33	0.017759418
35	0xbc150b30	-0.009096906

conv_block_1.5.bias f4 [2]
0	0x3e01950a	0.1265451
1	0x3e3fccb3	0.1873043

conv_block_2.0.weight f4 [2]
0	0x3f7ffe4d	0.9999741
1	0x3f8000cb	1.0000242

conv_block_2.0.bias f4 [2]
0	0xb7690611	-1.3889295e-05
1	0xb82120ea	-3.8416045e-05

conv_block_2.0.running_mean f4 [2]
0	0xbbb3832a	-0.0054782825
1	0x3e27b9da	0.1637949

conv_block_2.0.running_var f4 [2]
0	0x3f09eb2f	0.53874487
1	0x3f08aec2	0.5339166

conv_block_2.2.weight f4 [4, 2, 3, 3]
0	0x3e46c723	0.19411902
1	0x3cdf3ec3	0.027251607
2	0x3e70225a	0.23450604
3	0x3e4087f8	0.18801868
4	0xbe5382d1	-0.20655371
5	0x3d1bc9bf	0.038034197
6	0xbe25730b	-0.16157167
7	0xbdfa83f7	-0.122322015
8	0xbd1791cf	-0.03700429
9	0x3e43a6b1	0.19106556
10	0x3ba47b94	0.0050196145
11	0xbe49b4b5	-0.1969784
12	0xbe683a5c	-0.22678512
13	0x3e45c04c	0.19311637
14	0xbd9c00e4	-0.076173574
15	0xbe05dc7b	-0.13072388
16	0xbdd551f8	-0.10416025
17	0xbe043d44	-0.12913996
18	0xbce3861c	-0.02777391
19	0xbb9ff8e2	-0.004881964
20	0x3dc5bb2c	0.09654841
21	0xbe017553	-0.12642412
22	0xbe3fb9dd	-0.18723245
23	0x3c3831a9	0.011242309
24	0x3de92a46	0.11385016
25	0xbd297838	-0.041374415
26	0x3c752227	0.014961756
27	0xbe4e3b00	-0.20139694
28	0xbe13e8d2	-0.14444283
29	0x3e1242c3	0.1428328
30	0xbda221c1	-0.07916594
31	0xbe6a2eda	-0.22869435
32	0xbc805dac	-0.015669666
33	0xbe55cf12	-0.20879772
34	0xbe37e613	-0.1795886
35	0xbda9004e	-0.08252011
36	0xbd8d238a	-0.06891544
37	0xbdf26579	-0.118357606
38	0x3e5c0977	0.21487986
39	0xbe2f4568	-0.1711632
40	0x3d974b3f	0.07387399
41	0xbd5fa12b	-0.05459706
42	0xbcd2a715	-0.025714437
43	0x3dd4f31c	0.10397932
44	0x3cba4d6e	0.022742
45	0x3d7123df	0.0588721
46	0xbd85f120	-0.065401316
47	0xbd47825f	-0.048708316
48	0xbde857bb	-0.11344858
49	0x3e55d2b1	0.20881154
50	0x3d70c09d	0.05877744
51	0xbe04f6f7	-0.12984835
52	0xbe544889	-0.20730795
53	0x3e129467	0.14314424
54	0xbde54ca5	-0.111962594
55	0x3e3f68de	0.18692347
56	0x3e34517a	0.17609206
57	0xbe374510	-0.17897439
58	0x3da907b1	0.0825342
59	0xbe473f4a	-0.19457737
60	0xbd73c8d7	-0.059517708
61	0x3dc8be26	0.09801893
62	0x3e5295b7	0.20564924
63	0x3e0929c5	0.1339484
64	0x3dc2e52a	0.09516366
65	0xbe1e307f	-0.15448187
66	0xbcdc7385	-0.026910553
67	0x3d980f8d	0.07424841
68	0xbdb4c36c	-0.08826336
69	0xba14983c	-0.00056684366
70	0xbdbeaf98	-0.093108356
71	0x3da3acab	0.07991918

conv_block_2.2.bias f4 [4]
0	0xbe04eea5	-0.1298166
1	0x3e1f8038	0.15576255
2	0xbdac7d2b	-0.084223114
3	0x3dc84192	0.097781315

conv_block_2.3.weight f4 [4]
0	0x3f7ffab8	0.9999194
1	0x3f7fff8a	0.99999297
2	0x3f800182	1.000046
3	0x3f80013f	1.000038

conv_block_2.3.bias f4 [4]
0	0xb88b0562	-6.629039e-05
1	0x36c29ad0	5.799673e-06
2	0x36ec19b7	7.0363417e-06
3	0x38141cc7	3.531275e-05

conv_block_2.3.running_mean f4 [4]
0	0xbdbd140f	-0.092323415
1	0xbd9cc4d0	-0.076547265
2	0xbd5a6e9b	-0.053328138
3	0x3daf3c84	0.08556464

conv_block_2.3.running_var f4 [4]
0	0x3f1abf0d	0.6044777
1	0x3f2e54bf	0.6809806
2	0x3f0c4e8d	0.5480736
3	0x3f0f76e1	0.5604077

conv_block_2.5.weight f4 [4, 4, 3, 3]
0	0x3dbc798d	0.092028715
1	0x3e02b81d	0.12765546
2	0x3de4ae67	0.11166077
3	0xbdefd346	-0.11710219
4	0x3dd99b02	0.106252685
5	0xbdfe94ad	-0.124307014
6	0x3d8692b2	0.06570949
7	0xbc311ba3	-0.010809812
8	0x3d02baad	0.03191631
9	0xbd0d08a0	-0.034432054
10	0x3d2b58b9	0.04183266
11	0x3daa8218	0.08325595
12	0xbd72826d	-0.059206415
13	0xbdb0c178	-0.08630651
14	0x3cfaefc1	0.030631902
15	0x3d40d090	0.0470739
16	0xbdaeccde	-0.08535169
17	0x3db47d7d	0.088129975
18	0x3df9b725	0.12193135
19	0x3e09d5d4	0.13460475
20	0x3bada76b	0.005299499
21	0xbcb8c35f	-0.022554098
22	0x3df12e6a	0.11776431
23	0xbddff38d	-0.109351255
24	0xbc1e823e	-0.009674607
25	0x3e04f74a	0.12984958
26	0xbd3550e7	-0.044266608
27	0xbcd4271c	-0.025897555
28	0x3d166204	0.03671457
29	0xbe188e2c	-0.14897984
30	0x3e07aa8a	0.13248649
31	0x3d720ab0	0.059092224
32	0xbe006ce5	-0.1254154
33	0x3cfd6fab	0.030937036
34	0xbe0d3d2b	-0.13792865
35	0x3dc8ef96	0.098113224
36	0xbe05800d	-0.13037129
37	0xbda1dd81	-0.07903577
38	0xbe09e270	-0.13465285
39	0xbe106569	-0.14101185
40	0xbd95ce31	-0.073147185
41	0xbe06889e	-0.13138053
42	0xbd0b4e80	-0.03401041
43	0x3dec684e	0.11543332
44	0xbc256bbb	-0.010096486
45	0x3e01193d	0.12607284
46	0x3bde4792	0.006783434
47	0xbdd15a98	-0.102223575
48	0x3d0189da	0.031625606
49	0xbdc25238	-0.09488338
50	0xba38ae0c	-0.0007044978
51	0xbcf7df9d	-0.030257994
52	0xbdc13265	-0.0943344
53	0x3dbbe91c	0.091753215
54	0x3dcebfe9	0.10095198
55	0x3e031829	0.12802185
56	0xbdb86328	-0.090032876
57	0x3e06c412	0.13160732
58	0xbdd6c0a7	-0.10485964
59	0xbe2794e4	-0.16365391
60	0x3cd0e60f	0.025500325
61	0xbdb2eecb	-0.087369524
62	0x3e253160	0.16132116
63	0x3e0d236c	0.13783044
64	0x3d049611	0.032369677
65	0xbe13cf2f	-0.14434503
66	0x3cb15579	0.021647202
67	0xbd615ba2	-0.05501903
68	0x3e141aa7	0.14463292
69	0xbd1c1402	-0.03810502
70	0x3d72843c	0.05920814
71	0xbc356082	-0.011070373
72	0x3bb1d249	0.0054266793
73	0xbc7a45de	-0.015275447
74	0x3d58c96e	0.052926473
75	0x3e02bad0	0.12766576
76	0x3e01a5ee	0.12660953
77	0x3dbb6551	0.09150184
78	0xbe05c472	-0.13063219
79	0x3c15bfa5	0.00913993
80	0x3e09e03f	0.1346445
81	0x3e14ebbf	0.14543055
82	0xbd830488	-0.06397349
83	0xbac91b71	-0.0015343261
84	0x3e0cc67e	0.13747594
85	0xbd079b28	-0.033106953
86	0x3e22d957	0.15903221
87	0xbe175686	-0.147791
88	0x3dbf6dd6	0.093471214
89	0xbd60f08d	-0.054916907
90	0xbdb4b3f0	-0.08823383
91	0x3d9a320e	0.075290784
92	0x3d0472e3	0.032336127
93	0x3debe787	0.1151877
94	0xbd925b8c	-0.071463674
95	0x3df263da	0.118354514
96	0x3dad735d	0.084692694
97	0x3c8c21ec	0.017106019
98	0x3c1b6ae0	0.00948593
99	0x3e1df132	0.1542404
100	0x3d35d959	0.044396732
101	0x3dcd70c7	0.10031276
102	0x3ca0daa7	0.019635512
103	0x3d862c65	0.06551436
104	0xbe06f120	-0.1317792
105	0xbe0a45d7	-0.13503204
106	0x3db32652	0.087475434
107	0xbdaffa24	-0.085926324
108	0xbdd02299	-0.10162849
109	0x3dba1eaf	0.09087884
110	0x3c848d00	0.016180515
111	0x3a9f50ef	0.0012154857
112	0xbd748346	-0.059695505
113	0xbd5825db	-0.052770477
114	0x3c84b6be	0.01620042
115	0x3db5b093	0.088715695
116	0xbd5fcb55	-0.054637272
117	0xbd8b8654	-0.068127304
118	0xbd79713a	-0.060898997
119	0x3d36f69f	0.04466879
120	0xbdbd36f8	-0.09239
121	0x3cf9f6c3	0.030513173
122	0x3e0581a5	0.13037737
123	0x3c978c47	0.018499507
124	0xbd1ee14e	-0.038789086
125	0x3e077a80	0.13230324
126	0x3c91eb77	0.017812474
127	0xbd808b6e	-0.06276594
128	0xbe0047bc	-0.12527364
129	0xbe08c6e5	-0.13357122
130	0xbdccd42c	-0.10001406
131	0x3e019992	0.12656239
132	0x3de66f50	0.112517
133	0x3be4639d	0.0069698826
134	0x3d48524f	0.04890662
135	0x3dec0e4c	0.115261644
136	0x3e0e2035	0.13879474
137	0x3df06eff	0.11739921
138	0x3dcabae8	0.09898931
139	0x3e1be6cc	0.15224761
140	0x3df0c30c	0.11755952
141	0xbdb9076a	-0.09034617
142	0x3ca180e5	0.019714782
143	0xbd7acabc	-0.0612285

conv_block_2.5.bias f4 [4]
0	0x3e03fc0a	0.12889114
1	0xbd176534	-0.03696175
2	0xbda0ffd2	-0.07861294
3	0x3d8530a2	0.065034166

conv_block_3.0.weight f4 [4]
0	0x3f7ffa23	0.99991053
1	0x3f800179	1.000045
2	0x3f80014a	1.0000393
3	0x3f80000e	1.0000017

conv_block_3.0.bias f4 [4]
0	0xb7fe286d	-3.0297984e-05
1	0x387681a6	5.8771715e-05
2	0x3808b731	3.2595537e-05
3	0x380e4afb	3.392527e-05

conv_block_3.0.running_mean f4 [4]
0	0x3e1b8b91	0.15189959
1	0x3bb5240b	0.0055279783
2	0x3de8e57d	0.113718964
3	0x3e2488e8	0.1606785

conv_block_3.0.running_var f4 [4]
0	0x3f1291b7	0.57253593
1	0x3f0f2ce2	0.5592786
2	0x3f1d9c23	0.6156637
3	0x3f245f2f	0.6420774

conv_block_3.2.weight f4 [8, 4, 3, 3]
0	0x3cfbeddc	0.030753069
1	0xbcb78a88	-0.022404924
2	0x3d25384d	0.040336896
3	0x3dc3dd53	0.095636986
4	0xbdab89fa	-0.08375926
5	0xbda5ece9	-0.08101828
6	0x3e0c321c	0.1369099
7	0xbde91a4b	-0.11381968
8	0x3d6ee0a4	0.058319703
9	0x3de7a7e6	0.11311321
10	0xbdc2c8ee	-0.095109805
11	0x3de5b02c	0.11215243
12	0xbe008f30	-0.12554622
13	0xbc3df9b5	-0.011595179
14	0x3dc3c21f	0.0955851
15	0xbcd635dc	-0.026148729
16	0x3d717541	0.058949713
17	0xbdb1ffeb	-0.086913906
18	0xbddc5fff	-0.10760497
19	0xbc528554	-0.012849171
20	0x3d9ea17e	0.07745646
21	0xbdb9ffb0	-0.09081972
22	0x3d8ff311	0.07028783
23	0xbc3ab7f4	-0.011396397
24	0xbdb9ce24	-0.09072521
25	0x3de1734e	0.11008321
26	0x3d4b3315	0.049609262
27	0xbd3935c1	-0.04521728
28	0xbe246cc6	-0.16057119
29	0xbe067595	-0.13130791
30	0x3d854c32	0.06508674
31	0xbd86c4dc	-0.06580517
32	0x3d9eea84	0.07759574
33	0xbe1f5739	-0.15560617
34	0xbd3fc6f5	-0.0468206
35	0x3dd8dd17	0.105890445
36	0x3dc4ce53	0.09609666
37	0xbe043956	-0.12912497
38	0xbdcdee68	-0.10055238
39	0xbcb32bad	-0.021871412
40	0xbe0fcb2f	-0.14042352
41	0xbd2fd176	-0.042924367
42	0x3e088d0e	0.13335058
43	0x3e0fa19e	0.14026496
44	0x3e1b8ee5	0.15191229
45	0xbccae2aa	-0.024766285
46	0x3be9ef6c	0.007139137
47	0x3b8c4a55	0.004281322
48	0x3e141d3b	0.14464276
49	0xbdde6313	-0.10858741
50	0xbdcb3052	-0.09921326
51	0x3d16d85c	0.03682743
52	0x3d9d4708	0.07679564
53	0x3d9fc780	0.078017235
54	0xbe29dd02	-0.16588214
55	0xbcb30453	-0.021852648
56	0x3c305264	0.010761831
57	0xbdb3c20a	-0.087772444
58	0xbb5c80d9	-0.0033646135
59	0x3e1ef360	0.15522528
60	0x3e03d46a	0.12873998
61	0xbc76f854	-0.0150738545
62	0xbe237617	-0.15963016
63	0xbe257b55	-0.16160329
64	0x3e2357c4	0.15951449
65	0xbbf6eb35	-0.007535363
66	0xbd5353bb	-0.051593523
67	0xbe0436c5	-0.12911518
68	0x3dda53af	0.10660493
69	0x3dac1b30	0.08403623
70	0x3e276390	0.16346574
71	0xbe077d4b	-0.13231389
72	0x3dabcea2	0.083890215
73	0x3dc45bfe	0.095878586
74	0x3db77dcd	0.089595415
75	0xbd20899b	-0.03919373
76	0xbd593947	-0.05303314
77	0xbdcb9787	-0.09941011
78	0x3defe3b9	0.117133565
79	0x3d94e7e5	0.07270793
80	0xbe0156d3	-0.12630777
81	0xbe29192d	-0.1651351
82	0xbe2a3a84	-0.16623884
83	0x3dd3bf96	0.103392765
84	0xbd888f6d	-0.06667981
85	0x3d9d6e13	0.076870106
86	0x3d135a20	0.03597462
87	0xbe2a0e68	-0.16607058
88	0xbd3f9f66	-0.046782874
89	0x3de37323	0.11105945
90	0x3e1da97c	0.15396684
91	0x3e1b7a1e	0.15183303
92	0x3dce517c	0.10074136
93	0xbddae299	-0.10687751
94	0xbd37b8d4	-0.044854
95	0x3dca5f1a	0.098814204
96	0xbd93145e	-0.07181619
97	0x3deff99e	0.117175326
98	0xbcea2f3a	-0.028586973
99	0x3e04dbc1	0.12974454
100	0x3cea5e77	0.028609497
101	0xbe03e2b9	-0.12879457
102	0xbd54146b	-0.051777285
103	0x3c7f71b0	0.01559107
104	0xbc62ecc4	-0.013850395
105	0x3cff254c	0.031145714
106	0xbddf6ca4	-0.109093934
107	0x3da0d43e	0.07852982
108	0x3d86875a	0.06568785
109	0xbdbe240c	-0.09284219
110	0x3e1aca8e	0.15116331
111	0xbdcebeac	-0.100949615
112	0xbd4119f0	-0.047143877
113	0x3bd7c071	0.00658422
114	0x3d825a12	0.06364836
115	0xbd8f5dad	-0.07000289
116	0x3e1b1f65	0.15148695
117	0xbd3391f7	-0.043840375
118	0x3d6d656e	0.05795806
119	0xbdf6928f	-0.120396726
120	0x3da86881	0.082230575
121	0x3ca957a9	0.020671682
122	0xbd96abca	-0.07356985
123	0xbbc03e18	-0.005866777
124	0x3d16b8b9	0.03679726
125	0x3e263089	0.16229452
126	0xbca3b36c	-0.019983016
127	0xbe0bcd6c	-0.13652581
128	0xbd6e8ae5	-0.05823793
129	0x3cbe026f	0.02319452
130	0xbdf7ce46	-0.120998904
131	0x3dee0bd7	0.11623352
132	0xbd5487da	-0.05188737
133	0x3c2a7b15	0.010405322
134	0x3e190693	0.14943914
135	0x3ddb9861	0.10722423
136	0x3e0880cb	0.1333038
137	0x3daf117b	0.08548256
138	0xbe270f70	-0.16314483
139	0x3e2450c4	0.16046435
140	0xbdaea2c0	-0.08527136
141	0xbd2f084b	-0.04273252
142	0x3dbc54f7	0.09195893
143	0xbd8b3ec5	-0.06799082
144	0xbc0e319a	-0.008678818
145	0x3d97503d	0.07388351
146	0x3d9483e6	0.0725172
147	0xbe205319	-0.15656699
148	0xbd413f8b	-0.04717974
149	0xbe089e87	-0.13341723
150	0xbe0a8472	-0.13527086
151	0x3d40c894	0.047066286
152	0x3d532226	0.05154624
153	0x3d8b8b57	0.06813686
154	0xbd5b1afa	-0.053492524
155	0x3e26147e	0.16218755
156	0xbdf8ab4b	-0.121420465
157	0xbd91d1ff	-0.07120132
158	0xbc024167	-0.007950163
159	0x3e1b92f2	0.15192774
160	0x3d8b303d	0.0679631
161	0x3d47b595	0.048757154
162	0x3d559e27	0.05215278
163	0xbd869ea8	-0.0657323
164	0x3d962b8e	0.07332526
165	0x3dcadb86	0.09905152
166	0x3d64e871	0.055885736
167	0xbdf81314	-0.12113014
168	0xbdb2e90a	-0.08735855
169	0xbc3edd7c	-0.011649486
170	0x3ce0b4ff	0.027430056
171	0x3d2607a0	0.040534616
172	0x3cfef871	0.031124325
173	0x3d7b13fd	0.06129836
174	0x3c8ede9e	0.017440137
175	0xbd7f10e1	-0.062271956
176	0x3d501288	0.050798923
177	0xbe17a761	-0.14809944
178	0x3e13e7d2	0.14443901
179	0xbe056811	-0.1302798
180	0x3d342a20	0.043985486
181	0xbc6ac347	-0.014328784
182	0x3d9babcb	0.07601126
183	0xbcad5b40	-0.021161675
184	0x3e1bf67d	0.15230747
185	0x3cce7963	0.025204366
186	0xbde9356d	-0.11387143
187	0x3d08cd66	0.03339901
188	0x3d116a70	0.035501897
189	0x3db3f192	0.0878631
190	0x3de8d8a7	0.11369448
191	0xbdf1f55e	-0.11814378
192	0x3dea73cb	0.11447867
193	0xbe01c815	-0.12673981
194	0xbe27ef0a	-0.1639978
195	0x3e290f82	0.16509822
196	0xbde123e6	-0.10993175
197	0xbd6326ff	-0.05545711
198	0xbc5d2c4a	-0.013499329
199	0xbd70c532	-0.05878181
200	0xbdf241aa	-0.11828931
201	0xbe0faf68	-0.14031756
202	0x3df816a9	0.12113697
203	0xbdfd05b8	-0.123546064
204	0x3e05ee3c	0.1307916
205	0xbe1ffe9a	-0.15624467
206	0x3e018222	0.12647298
207	0xbdcfe107	-0.101503424
208	0xbd9fb6d5	-0.07798544
209	0xbdc2811e	-0.094972834
210	0xbdac5994	-0.08415523
211	0xbe0b277d	-0.13589282
212	0x3de1fe7f	0.110348694
213	0xbdf4d874	-0.11955348
214	0xbdc271b4	-0.094943434
215	0x3c4c8c26	0.012484586
216	0x3db1c2fb	0.08679768
217	0xbce677c1	-0.028133275
218	0xbddbd1e4	-0.10733393
219	0xbce286ed	-0.027652228
220	0xbda43177	-0.08017247
221	0xbde10409	-0.10987098
222	0x3e1536df	0.14571713
223	0xbe13c009	-0.14428724
224	0xbda2951e	-0.07938598
225	0x3dcad6a1	0.099042185
226	0x3dcbe21b	0.099552356
227	0x3e222b46	0.1583682
228	0xbd0a24fa	-0.03372667
229	0xbdd4b087	-0.103852324
230	0x3de3d23d	0.11124084
231	0xbcb36164	-0.021897025
232	0x3df85234	0.12125054
233	0xbc493c43	-0.012282434
234	0xbb82b27d	-0.0039885626
235	0xbd4639a8	-0.04839483
236	0x3d92b2f8	0.07163042
237	0xbdbe95c6	-0.09305911
238	0xbda59dbd	-0.08086727
239	0xbe0b0fb8	-0.13580215
240	0x3e007026	0.12542781
241	0x3ccbfe83	0.024901634
242	0xbe1094a3	-0.141192
243	0x3da7f2c1	0.082005985
244	0x3e11c2ce	0.14234468
245	0xbdd40e58	-0.10354298
246	0xbdd119bb	-0.10209986
247	0xbde67113	-0.11252036
248	0xbd0bc6e0	-0.03412521
249	0xbd903e01	-0.07043076
250	0xbddede7f	-0.108822815
251	0xbc3c8fe9	-0.01150892
252	0xbd774e20	-0.06037724
253	0xbceedc85	-0.029157886
254	0x3dcaac65	0.09896163
255	0x3d8f8af3	0.07008924

conv_block_3.2.bias f4 [8]
0	0x3e05faab	0.13083903
1	0x3d360c95	0.044445593
2	0xbdf8be5c	-0.12145683
3	0x3e1a6020	0.15075731
4	0x3dc23b82	0.094840065
5	0xbe19867f	-0.14992712
6	0xbe20063d	-0.1562738
7	0x3da423ae	0.08014618

conv_block_3.3.weight f4 [8]
0	0x3f800117	1.0000333
1	0x3f7ffe7d	0.99997693
2	0x3f7ffeeb	0.9999835
3	0x3f800079	1.0000144
4	0x3f800193	1.000048
5	0x3f800093	1.0000175
6	0x3f7fffea	0.9999987
7	0x3f7ffacc	0.9999206

conv_block_3.3.bias f4 [8]
0	0x38120356	3.481222e-05
1	0xb6579a64	-3.2127364e-06
2	0x374f3c08	1.2352139e-05
3	0xb70ed052	-8.512363e-06
4	0x376ecb5e	1.4233256e-05
5	0x381a7c74	3.6832367e-05
6	0x36bf1e7b	5.695792e-06
7	0xb769d547	-1.393754e-05

conv_block_3.3.running_mean f4 [8]
0	0x3c8bc00e	0.017059352
1	0x3cc8dfe3	0.02452082
2	0xbc2a7382	-0.010403516
3	0x3e019bea	0.12657133
4	0x3d300e2b	0.04298226
5	0xbe381a09	-0.17978682
6	0xbe383906	-0.17990503
7	0x3db9bd8d	0.09069357

conv_block_3.3.running_var f4 [8]
0	0x3f151012	0.58227646
1	0x3f1cffdf	0.6132793
2	0x3f1841f8	0.5947566
3	0x3f163334	0.5867188
4	0x3f0ef244	0.5583842
5	0x3f2448e0	0.641737
6	0x3f28287b	0.6568677
7	0x3f152906	0.5826572

conv_block_3.5.weight f4 [8, 8, 3, 3]
0	0x3d4f616f	0.05063003
1	0x3dd35923	0.10319736
2	0x3d6dc8de	0.05805289
3	0xbd43779f	-0.0477215
4	0xbc559ffe	-0.013038633
5	0xbde80f6d	-0.11331067
6	0x3c9fb036	0.019493204
7	0x3d766d79	0.060162995
8	0xbde56d94	-0.11202541
9	0xbcf35c74	-0.029707171
10	0xbd6dfac7	-0.058100488
11	0xbd959c10	-0.07305157
12	0xbdcef7e0	-0.10105872
13	0x3dc53e36	0.096310064
14	0xbc5f119c	-0.013615038
15	0x3aee5c42	0.0018185454
16	0x3c759246	0.014988488
17	0x3d949726	0.07255392
18	0xbcb1b800	-0.021694183
19	0x3d842f49	0.064543314
20	0x3d5ba85b	0.053627353
21	0x3ddb9e69	0.10723574
22	0xbc1d8726	-0.009614741
23	0x3bff069b	0.00778277
24	0x3d50e35d	0.05099808
25	0xbd3bd0b0	-0.045853317
26	0xbccae526	-0.02476747
27	0x3de193ba	0.11014505
28	0xbd5c9a56	-0.053858124
29	0xbd60c6ca	-0.05487708
30	0xbd2df5d2	-0.04247076
31	0x3d5273af	0.051379856
32	0x3d612d2e	0.054974727
33	0x3d5fb2d7	0.054613914
34	0xbb0f9997	-0.0021911615
35	0x3cc24707	0.02371551
36	0x3d895dce	0.06707345
37	0xbda6ac56	-0.08138339
38	0x3cae0886	0.021244299
39	0xbdb788db	-0.0896165
40	0x3ce623ba	0.028093208
41	0x3b328bdc	0.0027244007
42	0x3c6f0ac0	0.014589965
43	0x3d34538a	0.04402498
44	0xbda286e8	-0.079358876
45	0xbdeb840c	-0.11499795
46	0x3cb06483	0.021532303
47	0xbdd1c8d5	-0.10243384
48	0xbd7817d4	-0.0605696
49	0x3db56cbb	0.08858629
50	0xbb189356	-0.0023281178
51	0xbd72447f	-0.059147354
52	0xbcb57734	-0.022151567
53	0x3ced912d	0.02899989
54	0xbd200f4e	-0.039077096
55	0x3d20a01a	0.039215185
56	0x3dd87d88	0.10570818
57	0xbd5b454b	-0.05353288
58	0x3dcbde16	0.09954469
59	0xbdeb1937	-0.11479419
60	0xbcb77b27	-0.02239759
61	0x3d751e3b	0.059843283
62	0x3de029c7	0.109454684
63	0xbd67a48e	-0.056553416
64	0x3d5c4397	0.053775396
65	0xbddfe0ec	-0.10931572
66	0x3dbd03e1	0.092292555
67	0xbc5de376	-0.013543
68	0x3d011fb9	0.031524394
69	0x3d8c6be6	0.068565175
70	0x3d48b126	0.048997067
71	0x3cf634fe	0.030054566
72	0xbdd3f421	-0.10349298
73	0x3c016398	0.00789728
74	0xbdb0b91b	-0.08629056
75	0xbdb6b6df	-0.08921599
76	0x3d922e22	0.071377054
77	0xbd522319	-0.051303003
78	0x3de99b79	0.11406607
79	0x3cd7adf7	0.02632807
80	0xbc545bed	-0.01296137
81	0xbb926bba	-0.0044684084
82	0xbd6a191c	-0.057152852
83	0x3d3a05d5	0.045415718
84	0x3d6e223e	0.058138125
85	0xbdd59922	-0.104295984
86	0x3d4ddc8a	0.05025915
87	0xbdb90724	-0.09034565
88	0xbca2ebb1	-0.019887777
89	0x3d92f0bd	0.071748234
90	0xbde193ee	-0.110145435
91	0xbc302898	-0.010751866
92	0xbdbf62d7	-0.09345024
93	0x3d3e6079	0.046478722
94	0xbdd7bd15	-0.105341114
95	0x3da3ea11	0.08003629
96	0x3cf77531	0.030207248
97	0xbbff6491	-0.007793971
98	0x3ccd904f	0.025093226
99	0xbdc67e53	-0.09692063
100	0xbd489efe	-0.04897975
101	0x3d9271fb	0.07150646
102	0x3cd3a6fd	0.025836462
103	0xbd682d01	-0.056683544
104	0x3ba0bdc0	0.0049054325
105	0xbdf0388b	-0.11729535
106	0x3ce2e159	0.027695345
107	0x3deeedff	0.11666488
108	0xbd6cfa94	-0.057856157
109	0xbd957a4e	-0.072987184
110	0x3d8c7488	0.06858164
111	0x3d73c6ce	0.059515767
112	0x3d89ab9f	0.06722187
113	0xbc38e765	-0.0112856375
114	0x3c6e81cf	0.014557316
115	0x3ded2b76	0.11580555
116	0x3dc255f7	0.09489053
117	0x3d6f9e49	0.058500562
118	0xbcfd432b	-0.030915817
119	0x3d694b35	0.05695649
120	0x3bb4f539	0.005522397
121	0xbdf014f5	-0.11722747
122	0x3cbd2c5b	0.02309244
123	0x3d65f3d2	0.05614073
124	0x3c0924d5	0.008370598
125	0x3dd9356d	0.10605893
126	0x3d27981a	0.04091654
127	0xbdaf902a	-0.08572419
128	0x3d6f687b	0.05844925
129	0x3bf56e64	0.007489966
130	0x3cad26e8	0.021136716
131	0x3c8adba1	0.01695043
132	0xbcd0004e	-0.02539077
133	0x3db1ce41	0.08681918
134	0xbc00f0dd	-0.007869926
135	0x3bf0ab40	0.0073446333
136	0xbd1c9124	-0.038224354
137	0xbde07014	-0.10958877
138	0x3dd43ea6	0.10363512
139	0xbdb97abf	-0.09056615
140	0xbc3d87bc	-0.011568006
141	0xbdb0e6d0	-0.08637774
142	0x3c50dd41	0.012748064
143	0xbd33de5e	-0.043913238
144	0xbce3ed03	-0.027822977
145	0x3ca43a74	0.020047404
146	0xbd11680a	-0.03549961
147	0x3d68896f	0.056771692
148	0xbcf798b8	-0.03022419
149	0xbd2ef4cb	-0.04271392
150	0xbba0ffe8	-0.004913319
151	0x3d9dd385	0.0770636
152	0xbd450a1a	-0.048105337
153	0xbda7ca00	-0.08192825
154	0xbc82235b	-0.015886
155	0x3deeb41a	0.116554454
156	0xbd9ac0e9	-0.07556326
157	0x3ded2e2e	0.11581074
158	0x3a11535c	0.00055437325
159	0xbd76fb49	-0.060298238
160	0x3d877b53	0.06615319
161	0xbdb79b2f	-0.08965146
162	0xbdeda011	-0.11602796
163	0xbde949b4	-0.11391011
164	0xbde77114	-0.11300865
165	0xba0362a9	-0.0005011955
166	0x3d8827ae	0.06648193
167	0x3d58a8ae	0.05289524
168	0x3d14d249	0.036333356
169	0x3db31f22	0.087461725
170	0xbdef4058	-0.116821945
171	0x3d68100d	0.056655932
172	0xbd8ded07	-0.06929975
173	0x3db6804b	0.08911189
174	0xbd92cdbf	-0.07168149
175	0x3d8cdb05	0.06877712
176	0x3caa920b	0.020821592
177	0x3d41c0c3	0.047302973
178	0xbd9dfb37	-0.07713931
179	0x3d7c450d	0.06158929
180	0xbc865f06	-0.016402733
181	0x3d3205fd	0.043462742
182	0xbd913960	-0.070910215
183	0x3dbece95	0.09316746
184	0x3db4fbb8	0.08837074
185	0xbd674a16	-0.05646714
186	0x3d962591	0.07331384
187	0xbda882de	-0.08228086
188	0x3cbf8b42	0.023381833
189	0xbdadea6a	-0.084919766
190	0x3c90b234	0.017663099
191	0xbd84f71d	-0.064924456
192	0xbdc88d41	-0.09792567
193	0xbda5098c	-0.080584615
194	0xbdb008f5	-0.085954584
195	0x3c09efa1	0.008418948
196	0x3d8cd658	0.0687682
197	0xbd296fd0	-0.0413664
198	0xbd1b28df	-0.037880775
199	0xbd7f66ea	-0.062354006
200	0x3de30555	0.110850014
201	0x3d3cb51e	0.046071164
202	0x3d2c23f2	0.042026468
203	0x3dbdc0e3	0.09265306
204	0x3a491615	0.0007670832
205	0xbcb913b0	-0.022592396
206	0xbda75eef	-0.08172404
207	0x3d33718d	0.043809462
208	0x3db748c3	0.08949425
209	0xbafe3f3d	-0.0019397509
210	0xbc3ffa46	-0.011717385
211	0xbdf0b532	-0.1175331
212	0x3d158358	0.036502212
213	0xbd386f59	-0.045028064
214	0xbd3dbd34	-0.046323016
215	0xbdd0612a	-0.101747826
216	0xbd021bd8	-0.031764835
217	0xbcd36ccb	-0.025808712
218	0x3c805524	0.015665598
219	0x3d3e6c66	0.046490096
220	0x3dd07057	0.10177677
221	0xbdbe2298	-0.09283942
222	0x3c656ecd	0.014003468
223	0x3d438fb3	0.047744464
224	0xbd583b57	-0.052790966
225	0xbdd13e0a	-0.10216911
226	0x3d12c0d2	0.03582842
227	0x3da2fdbe	0.07958554
228	0xba42a807	-0.0007425551
229	0x3dc8c9b1	0.098040946
230	0x3cac14cd	0.021006012
231	0xbcf1d7d5	-0.029521862
232	0xbcd23391	-0.025659354
233	0x3d3b91ec	0.04579346
234	0x3d9bb7dc	0.07603428
235	0x3dda00e1	0.10644699
236	0x3bdf19fa	0.0068085166
237	0x3ddadf09	0.10687072
238	0x3d2e92a0	0.0426203
239	0xbc310792	-0.010805028
240	0xbcb87a67	-0.022519303
241	0xbd351b83	-0.04421569
242	0xbbc7b866	-0.00609498
243	0xbc45c6d6	-0.012071332
244	0x3ca1d5db	0.019755295
245	0x3cf79b10	0.030225307
246	0x3da20f6b	0.07913097
247	0x3d3d8bff	0.04627609
248	0x3d53eac3	0.051737558
249	0x3d08fb94	0.03344305
250	0x3da43d61	0.080195196
251	0xbc36d952	-0.011160212
252	0xbdcdecf6	-0.10054962
253	0xbdb19eeb	-0.08672889
254	0xbb61158f	-0.0034345125
255	0x3d5df5e5	0.05418958

conv_block_3.5.bias f4 [8]
0	0x3d511cd6	0.05105289
1	0x3d0b3912	0.033989973
2	0xbd198c1f	-0.037487146
3	0xbdbf9980	-0.0935545
4	0x3d3f3966	0.0466856
5	0x3dc027d1	0.093825944
6	0xbda2d645	-0.07951025
7	0x3dd2e189	0.10296924

conv_block_4.0.weight f4 [8]
0	0x3f800164	1.0000424
1	0x3f7ffe9a	0.99997866
2	0x3f800002	1.0000002
3	0x3f7ffd2b	0.9999568
4	0x3f800069	1.0000125
5	0x3f7ffec1	0.999981
6	0x3f7fffd2	0.99999726
7	0x3f8000ca	1.0000241

conv_block_4.0.bias f4 [8]
0	0xb6f99d70	-7.4391064e-06
1	0xb5844b0a	-9.856606e-07
2	0x375f9f29	1.3328893e-05
3	0xb78bfbdb	-1.668737e-05
4	0x37949618	1.7712868e-05
5	0x37953f9e	1.7791808e-05
6	0xb322fdd8	-3.7949434e-08
7	0x37df803d	2.6643387e-05

conv_block_4.0.running_mean f4 [8]
0	0x3dfd1b51	0.12358726
1	0x3d7a5bdf	0.06112277
2	0xbcf397d8	-0.02973549
3	0x3e6f570a	0.23373047
4	0x3dccbbd2	0.099967614
5	0x3e66c069	0.22534336
6	0x3e140370	0.14454436
7	0x3e32905f	0.17437886

conv_block_4.0.running_var f4 [8]
0	0x3f16e1e9	0.5893846
1	0x3f0b1163	0.54323405
2	0x3f0d1aa4	0.55118775
3	0x3f3f0f81	0.7463303
4	0x3f095b04	0.53654504
5	0x3f2d6c2c	0.6774318
6	0x3f4b3c6e	0.79389083
7	0x3f09e23d	0.5386084

conv_block_4.2.weight f4 [16, 8, 3, 3]
0	0x3d27af81	0.040938858
1	0x3de20f23	0.11038043
2	0xbd9a1734	-0.07523957
3	0x3d5f0462	0.05444754
4	0xbdd71c28	-0.10503417
5	0x3c34799a	0.01101532
6	0xbde8d661	-0.113690145
7	0x3d72eafb	0.059306126
8	0x3c10bc9f	0.008834033
9	0x3d1b57ba	0.03792546
10	0xbdf13850	-0.11778319
11	0x3d57ec31	0.052715484
12	0x3ce0b19a	0.027428437
13	0xbd022e71	-0.03178257
14	0xbde11bfd	-0.109916665
15	0x3dd392ea	0.10330756
16	0xbcaf2f82	-0.021384958
17	0xbdd35b1f	-0.10320114
18	0xbc8b1486	-0.01697756
19	0xbcbe9059	-0.02326219
20	0xbdb46691	-0.088086255
21	0xbc9cad7a	-0.019125689
22	0xbdc328b8	-0.09529251
23	0xbcfc7c6d	-0.03082105
24	0xbc085253	-0.008320409
25	0xbd3d4406	-0.04620745
26	0x3cdc95a1	0.026926817
27	0xbc29b88c	-0.010358941
28	0x3d1c9e37	0.038236823
29	0xbda6af95	-0.08138958
30	0x3d3eb77f	0.046561714
31	0xbd6e6365	-0.05820026
32	0x3d403322	0.046923764
33	0x3d67fccb	0.056637567
34	0x3d962368	0.07330972
35	0xbdbb5655	-0.09147326
36	0xbcca1940	-0.024670243
37	0xbdb947ec	-0.09046921
38	0x3dc0ac57	0.09407871
39	0xbde62dd7	-0.11239212
40	0x3d59542b	0.053058784
41	0xbd671955	-0.056420643
42	0x3c19e95c	0.009394016
43	0xbc9dce71	-0.019263478
44	0xbd8ecada	-0.069722846
45	0xbdf14035	-0.11779825
46	0x3d142653	0.03616936
47	0xbdcecb66	-0.10097389
48	0xbd6d2bac	-0.057902977
49	0x3dc49def	0.09600436
50	0x3de0dfed	0.109802105
51	0xbdb06faf	-0.08615052
52	0x3badcd78	0.005304035
53	0x3d35f7d7	0.04442581
54	0x3dc19fb7	0.09454291
55	0x3dbb2aee	0.091390476
56	0xbdbfcea6	-0.09365587
57	0x3d7bfc13	0.061519694
58	0x3dd91a17	0.10600679
59	0x3c9ee84a	0.019397873
60	0xbd323d2c	-0.04351537
61	0xbd88704e	-0.066620454
62	0x3dc440d8	0.095826805
63	0x3d0bfa4c	0.03417425
64	0x3da7c758	0.08192319
65	0xbde6ec19	-0.11275501
66	0x3d16476b	0.036689203
67	0x3c49ac1f	0.012309103
68	0xbcbcdc45	-0.023054251
69	0xbd865b91	-0.06560434
70	0x3cae97fd	0.021312708
71	0xbd044309	-0.032290492
72	0xbd22812f	-0.03967398
73	0xbdd8d302	-0.105871215
74	0x3de5c1f6	0.11218636
75	0xbca131cc	-0.019677065
76	0x3dd9680a	0.10615547
77	0xbdcdf164	-0.10055807
78	0xbdde388a	-0.10850628
79	0x3ddec986	0.10878281
80	0x3dddca87	0.10829645
81	0x3d0e6ec6	0.03477361
82	0xbda27942	-0.07933284
83	0x3d967cf4	0.07348052
84	0x3d870c7f	0.0659418
85	0x3dd00f19	0.1015913
86	0xbdd1811a	-0.10229702
87	0xbc322648	-0.010873385
88	0x3dcf5b98	0.10124892
89	0x3bf03374	0.0073303524
90	0x3cf438a5	0.029812166
91	0xbd6fcbe8	-0.05854407
92	0xbdd89ae5	-0.10576419
93	0xbd32e4da	-0.04367528
94	0xbd8a8de3	-0.06765344
95	0x3d90c1c9	0.070682116
96	0xbbbba8c8	-0.0057269074
97	0x3de19678	0.11015028
98	0xbc9c0a05	-0.019047746
99	0xbdc32849	-0.09529168
100	0xbd4f6d8e	-0.05064159
101	0x3cd9d8a9	0.02659257
102	0x3c879da6	0.016554665
103	0xbdae9011	-0.08523572
104	0xbd61e298	-0.055147737
105	0xbd9bb2de	-0.076024756
106	0x3d8457de	0.06462072
107	0xbd27e5b0	-0.04099053
108	0x3d78fcbb	0.060787898
109	0x3b8ae7bf	0.004239052
110	0x3dbdcd64	0.09267691
111	0x3d5e39a4	0.05425419
112	0xbd255fdc	-0.04037462
113	0xbdc07ceb	-0.09398826
114	0x3dbc19df	0.09184622
115	0xbb834712	-0.004006275
116	0x3d6721a6	0.056428574
117	0xbda3713d	-0.07980583
118	0xbd32adb5	-0.04362269
119	0x3d06c852	0.032905884
120	0xbd33a498	-0.04385814
121	0x3d03ea81	0.032206062
122	0x3d8bd3a1	0.068274744
123	0x3de131f9	0.1099586
124	0x3da907dd	0.08253453
125	0x3cc3732f	0.023858635
126	0xbd51e35d	-0.05124222
127	0x3da3c427	0.079963975
128	0x3c959aed	0.018262351
129	0x3d47e4c2	0.048802145
130	0x3da4f099	0.08053703
131	0x3c683a47	0.014174051
132	0xbdc32c7a	-0.095299676
133	0xbcc80822	-0.02441794
134	0xbd5c6206	-0.05380442
135	0x3dab0889	0.08351237
136	0xbd07ff06	-0.033202194
137	0xbceda6c6	-0.029010188
138	0x3d298f7f	0.041396614
139	0x3d4fb31e	0.05070793
140	0xbd132da5	-0.035932202
141	0xbc92b293	-0.017907416
142	0xbd9680f3	-0.07348814
143	0xbda68e6a	-0.08132632
144	0xbd116988	-0.035501033
145	0x3c313c43	0.01081759
146	0xbda00828	-0.07814056
147	0xbded560a	-0.11588676
148	0xbd875669	-0.06608278
149	0x3dd9d1e7	0.10635739
150	0xbc7040d3	-0.014663893
151	0xbde74c47	-0.112938456
152	0x3dee7077	0.11642545
153	0xbdc0e06c	-0.09417805
154	0xbd6e7731	-0.05821914
155	0x3d7f4b19	0.062327478
156	0x3de7b07d	0.11312959
157	0xbd827b0d	-0.06371126
158	0x3d84cf2e	0.06484829
159	0x3db3f85a	0.08787604
160	0xbdba0c21	-0.09084345
161	0xbdb42fc2	-0.087981716
162	0xbd680649	-0.05664662
163	0x3b285270	0.0025683902
164	0x3dbbb9b4	0.091662794
165	0x3da983c2	0.08277084
166	0xbc2d634e	-0.010582758
167	0xbd2140a1	-0.039368276
168	0x3cdaf4d6	0.026728075
169	0x3d2b7094	0.04185541
170	0x3dd65c34	0.10466805
171	0x3d03d218	0.032182783
172	0xbd153c24	-0.036434308
173	0xbdcca8d5	-0.0999314
174	0x3decd57a	0.11564155
175	0x3c781e46	0.0151439365
176	0xbceed619	-0.029154824
177	0x3d176065	0.036957163
178	0x3d5592a5	0.052141804
179	0x3d3e6bb1	0.04648942
180	0xbbf1bc8b	-0.0073772124
181	0xbd77fad2	-0.060541935
182	0xbde1309a	-0.10995598
183	0xbd98aa2b	-0.07454332
184	0xbd1a48e3	-0.037667166
185	0xbcd829da	-0.026387144
186	0x3cd31231	0.02576551
187	0xbdebb40a	-0.11508949
188	0x3ddf6152	0.10907234
189	0x3cbf8304	0.023377903
190	0x3c2bf9b2	0.010496544
191	0xbd92ec55	-0.07173983
192	0x3dc418ee	0.095750675
193	0x3d2f7d47	0.042844083
194	0xbde88a25	-0.11354474
195	0x3db727fc	0.08943173
196	0xbb35dc05	-0.002774955
197	0xbda72c04	-0.08162692
198	0x3db4fa23	0.08836772
199	0x3c8ecd4e	0.017431881
200	0xbd0d04be	-0.03442835
201	0xbdbce6ef	-0.092237346
202	0x3db1addc	0.08675739
203	0x3d11d6df	0.035605308
204	0x3cb3f104	0.021965511
205	0xbdd7fbfc	-0.10546109
206	0xbc33cca8	-0.010974087
207	0x3daf6102	0.08563425
208	0x3d00aa85	0.03141262
209	0xbc20ec3e	-0.0098219495
210	0x3de4f769	0.11180002
211	0xbdb53188	-0.08847338
212	0x3d4aaf27	0.049483445
213	0x3dae5258	0.085117996
214	0xbdd4d0bc	-0.103913754
215	0x3ca09baa	0.019605476
216	0xbdea3237	-0.11435359
217	0xbd678347	-0.05652168
218	0xbd8c57fa	-0.06852718
219	0xbdc1910e	-0.09451495
220	0xbcd101ee	-0.025513615
221	0xbd9bc788	-0.07606417
222	0x3dc68351	0.09693015
223	0x3dbaf5f7	0.09128945
224	0x3c47bcc3	0.012191
225	0x3d47ad84	0.04874946
226	0x3dcb5e1d	0.0993006
227	0x3da14a90	0.0787555
228	0xbdc25f3f	-0.09490823
229	0xbdacf8fe	-0.08445929
230	0x3cd9fc43	0.026609546
231	0x3c6779aa	0.014128128
232	0xbde2ab1c	-0.11067793
233	0x3c5d5226	0.013508355
234	0x3d0b3dd5	0.033994514
235	0x3d377874	0.044792607
236	0xbcbf42d0	-0.023347288
237	0x3dea303e	0.11434983
238	0xbd53661a	-0.051611044
239	0x3dbe55fb	0.09293743
240	0x3c487061	0.0122338245
241	0xbdb989d4	-0.09059492
242	0x3dabacae	0.083825454
243	0x3d944b3c	0.07240912
244	0x3dc2b48c	0.09507093
245	0xbd9b9709	-0.07597167
246	0xbda81922	-0.08207919
247	0x3dde604b	0.1085821
248	0xbcee8efd	-0.029120917
249	0x3deac622	0.11463572
250	0xbd89bc3d	-0.06725357
251	0x3d4ba07c	0.049713597
252	0xbddb95e3	-0.10721948
253	0x3dc72461	0.097237356
254	0xbde700b2	-0.112794295
255	0x3d928839	0.07154889

conv_block_4.2.bias f4 [16]
0	0xbde153a9	-0.11002285
1	0xbdb30db6	-0.087428495
2	0xbda2c6b0	-0.07948053
3	0x3ac529b4	0.0015042336
4	0xbdc67177	-0.096896105
5	0xbd81cf77	-0.06338399
6	0xbd6a0926	-0.05713763
7	0xbddee7f4	-0.10884085
8	0xbab2d575	-0.0013643937
9	0xbd25c1f4	-0.04046817
10	0xbde16b08	-0.11006743
11	0xbdeacce4	-0.11464861
12	0xbd8867e2	-0.06660439
13	0xbdd949e3	-0.10609796
14	0xbd7dcb6f	-0.061961588
15	0x3b8491c9	0.0040456993

conv_block_4.3.weight f4 [16]
0	0x3f800044	1.0000081
1	0x3f800046	1.0000083
2	0x3f800018	1.0000029
3	0x3f7ffe04	0.9999697
4	0x3f800053	1.0000099
5	0x3f7fff3b	0.99998826
6	0x3f7ffe64	0.99997544
7	0x3f8000bc	1.0000224
8	0x3f7fffbb	0.9999959
9	0x3f800066	1.0000122
10	0x3f7ffefb	0.99998444
11	0x3f8000b8	1.0000219
12	0x3f7ffea7	0.99997944
13	0x3f800071	1.0000135
14	0x3f7fff5b	0.99999017
15	0x3f800018	1.0000029

conv_block_4.3.bias f4 [16]
0	0x368047d0	3.8230573e-06
1	0x36c24551	5.78972e-06
2	0x37950cdb	1.776817e-05
3	0xb792f151	-1.7516928e-05
4	0xb73eb6ee	-1.1367474e-05
5	0xb782d450	-1.5596073e-05
6	0x377a172d	1.4906557e-05
7	0x38560932	5.103014e-05
8	0x37807aed	1.531603e-05
9	0x37f9efb5	2.9794735e-05
10	0xb7c954c9	-2.4000548e-05
11	0x35cc3e59	1.521733e-06
12	0xb7409580	-1.14789e-05
13	0x379dc27e	1.8806426e-05
14	0x375c8ce0	1.3145822e-05
15	0xb64349a0	-2.910012e-06

conv_block_4.3.running_mean f4 [16]
0	0xbde840ba	-0.113404706
1	0xbcace7bb	-0.021106591
2	0xbd2374bb	-0.039906245
3	0x3dbc077b	0.09181114
4	0xbe07c7d1	-0.13259818
5	0xbdcfd188	-0.10147387
6	0xbc399836	-0.011327794
7	0xbe08035f	-0.13282536
8	0xbd8ad986	-0.067797706
9	0xbd24f2fb	-0.040270787
10	0xbdf751c9	-0.12076146
11	0xbdaee0d5	-0.08538977
12	0xbda40e3c	-0.080105275
13	0xbe115f1d	-0.14196439
14	0xbdb1b7cb	-0.08677634
15	0xbe2818d6	-0.16415724

conv_block_4.3.running_var f4 [16]
0	0x3f12121f	0.570589
1	0x3f13ce3f	0.5773658
2	0x3f13c4a1	0.57721907
3	0x3f1f8275	0.62308437
4	0x3f1d3edf	0.6142406
5	0x3f16446e	0.58698165
6	0x3f13a22b	0.57669324
7	0x3f236012	0.63818467
8	0x3f200241	0.6250344
9	0x3f10d72c	0.56578326
10	0x3f276b42	0.6539804
11	0x3f1b6374	0.6069863
12	0x3f1a1247	0.6018414
13	0x3f20c25f	0.62796587
14	0x3f15e6bd	0.58555204
15	0x3f3f9db5	0.74850017

conv_block_4.5.weight f4 [16, 16, 3, 3]
0	0xbc8315b8	-0.016001567
1	0x3d51c5fa	0.051214196
2	0x3d823518	0.06357783
3	0x3d413169	0.04716626
4	0x3d658961	0.056039218
5	0x3d3c338d	0.0459476
6	0x3d82c962	0.06386067
7	0xbccf5575	-0.025309304
8	0x3a791bd8	0.0009502745
9	0xbd896a78	-0.067097604
10	0x3d8958d2	0.06706394
11	0x3d0e0112	0.03466899
12	0x3d859a0a	0.06523521
13	0x3d1218f5	0.035668332
14	0xbd4a932a	-0.049456753
15	0xbd947edc	-0.07250759
16	0x3d277043	0.040878545
17	0xbd2b1da4	-0.041776314
18	0xbd8bcef0	-0.068265796
19	0x3da56e6f	0.08077704
20	0xbda4635f	-0.08026766
21	0xbd878ff5	-0.066192545
22	0x3d884163	0.066530965
23	0xbda7f09d	-0.0820019
24	0xbcc825f5	-0.024432162
25	0x3d3be355	0.045871098
26	0x3a9f0c56	0.0012134414
27	0xbd9d2ba4	-0.076743394
28	0x3d7c2076	0.061554395
29	0x3c748878	0.014925115
30	0x3d93f62f	0.0722469
31	0x3d13b778	0.03606364
32	0x3ceab72a	0.028651793
33	0xbc264bee	-0.010149939
34	0xbda36746	-0.07978682
35	0xbc09b651	-0.008405284
36	0x3d3e4e19	0.0464612
37	0x3c416ba8	0.011805452
38	0x3d9cd923	0.07658603
39	0xbd8b4cb2	-0.06801738
40	0x3d2e2da3	0.04252399
41	0x3da68d32	0.081323996
42	0xbce35452	-0.027750168
43	0x3d8816d1	0.06644977
44	0x3cc569a5	0.024098227
45	0x3c913a3c	0.017727964
46	0xbd03a4ac	-0.032139465
47	0x3c99dc72	0.018781874
48	0xbd3864ec	-0.04501812
49	0x3d887db4	0.06664601
50	0x3cf867ca	0.030322928
51	0x3cd8da4b	0.026471278
52	0x3d47ce82	0.048780926
53	0x3d67395d	0.05645119
54	0xbab4f484	-0.0013805781
55	0x3d3597fe	0.044334404
56	0x3d2ce756	0.042212807
57	0xbce0c3cc	-0.027437113
58	0xbd10c9e5	-0.03534879
59	0xbcc28065	-0.023742864
60	0xbd6433f5	-0.055713613
61	0x3d8410bd	0.06448505
62	0x3d29d7e5	0.04146566
63	0x3d4eaf46	0.050460123
64	0xbd49366d	-0.04912417
65	0xbd1f534a	-0.03889779
66	0x3d960509	0.07325179
67	0xbd9afe12	-0.07567991
68	0x3d6dc582	0.058049686
69	0xbd807527	-0.06272345
70	0x3d761065	0.06007423
71	0xbd89a37b	-0.067206345
72	0x3c2bae97	0.010478637
73	0xbd855217	-0.06509798
74	0x3bc26f89	0.005933706
75	0xbd09b706	-0.03362181
76	0x3d43bcbb	0.04778741
77	0xbd4792a7	-0.048723843
78	0x3d669e16	0.056303106
79	0x3d0d17c5	0.034446497
80	0x3d2f46ce	0.042792134
81	0x3b3406d9	0.0027469902
82	0xbcdc68b7	-0.0269054
83	0x3c8a0f4e	0.016853001
84	0xbd34e367	-0.04416218
85	0xbd87d6d1	-0.0663277
86	0xbd9f26a1	-0.0777104
87	0x3d54de32	0.051969714
88	0x3aa9e8c5	0.0012963047
89	0x3c873f1a	0.016509581
90	0x3d5ff21f	0.054674264
91	0x3bc0808f	0.0058747004
92	0x3d966419	0.07343311
93	0xbd9d56a0	-0.07682538
94	0x3cfcfa74	0.030881144
95	0x3d4993ad	0.0492131
96	0x3c6d9ba5	0.014502441
97	0xbd9fe68a	-0.07807644
98	0xbd3d28eb	-0.0461816
99	0x3ce2c876	0.027683478
100	0x3da013ee	0.07816301
101	0xbb938c02	-0.004502774
102	0xbd060faf	-0.0327298
103	0x3bae2dd2	0.005315521
104	0x3d3db377	0.04631373
105	0xbba9a8a3	-0.0051775738
106	0x3b839651	0.004015722
107	0x3d795879	0.06087539
108	0xbd954e4a	-0.07290323
109	0x3c4c434c	0.012467217
110	0x3c06bca5	0.008223687
111	0xbb78fdc1	-0.0037993046
112	0xbd2a4de3	-0.041578185
113	0x3daa307a	0.083100274
114	0x3d26cb60	0.040721297
115	0x3d98b4e8	0.0745638
116	0xbd2ad8c6	-0.041710638
117	0x3d450973	0.048104715
118	0xbd788680	-0.060675144
119	0xbd17b439	-0.037037108
120	0xbd9df8a8	-0.07713443
121	0xbd7c13de	-0.061542384
122	0xbd879a1f	-0.06621193
123	0x3d986cc8	0.074426234
124	0x3d6db7c8	0.058036596
125	0x3d9ed3b0	0.0775522
126	0xba90f640	-0.0011059716
127	0xbd6313f5	-0.055438954
128	0x3d9f7ac2	0.07787086
129	0x3d157d7e	0.03649663
130	0x3c7019a3	0.01465455
131	0xbd16d2fb	-0.0368223
132	0xbd97c53b	-0.074106656
133	0xbd971893	-0.07377734
134	0x3c6c9cde	0.014441697
135	0x3d01eb4a	0.03171853
136	0x3d5161c4	0.051118627
137	0x3d05ec55	0.032696087
138	0x3cf0bb76	0.029386263
139	0x3d6ca9e6	0.057779215
140	0x3d9105d1	0.070811875
141	0xbd859e9d	-0.06524394
142	0x3d954290	0.072880864
143	0xbd7a2687	-0.0610719
144	0x3b6b1277	0.003586916
145	0x3d35a0e3	0.044342887
146	0x3b848d5e	0.0040451726
147	0x3d5034ba	0.050831534
148	0x3ca0276b	0.019550046
149	0xbda015b7	-0.07816642
150	0xbc7ac388	-0.015305407
151	0xbd8544d2	-0.06507267
152	0x3cffd934	0.0312315
153	0xbcb062ed	-0.021531546
154	0xbd6af9c6	-0.05736711
155	0x3ce9d556	0.02854411
156	0xbd8d4e7f	-0.068997376
157	0xbd9d1dcb	-0.07671698
158	0xbbd69220	-0.006548181
159	0x3c57a998	0.013162993
160	0x3d917d5b	0.07103988
161	0x3d17c604	0.037054077
162	0xbd639c84	-0.055569187
163	0x3d9146cb	0.07093581
164	0xbccde2c3	-0.025132542
165	0xbb4e3568	-0.0031464938
166	0xbd688c47	-0.056774404
167	0xbba612e5	-0.0050681704
168	0xbbb5bfdf	-0.0055465545
169	0xbbb4587d	-0.0055037127
170	0xbd26a865	-0.040687937
171	0x3d614307	0.054995563
172	0x3d76b022	0.060226567
173	0xbd11c632	-0.035589404
174	0xbd9876ee	-0.07444559
175	0x3c49d0e3	0.012317869
176	0xbd93eb72	-0.07222642
177	0x3d3f7aac	0.04674785
178	0x3d9b2289	0.075749464
179	0x3cb282b5	0.021790842
180	0xbb084d2c	-0.002079795
181	0xbcd979b6	-0.026547294
182	0x3c22ff03	0.009948495
183	0x3c8dcbf5	0.017309168
184	0x3d81a365	0.06329993
185	0x3d5f991e	0.054589383
186	0xbd540db9	-0.0517709
187	0xbd5833bd	-0.052783716
188	0xbb10e683	-0.0022110052
189	0x3bc8422d	0.0061114044
190	0xbcc6971e	-0.02424198
191	0xbd3ff5d6	-0.046865307
192	0xbd887c40	-0.06664324
193	0x3c41ec89	0.0118361795
194	0xbd89782c	-0.06712374
195	0x3d6e9b0a	0.058253326
196	0xbc3606ad	-0.01110999
197	0x3d086ead	0.033308674
198	0xbce0909e	-0.027412709
199	0x3d570f5a	0.052504875
200	0x3bae2954	0.0053149853
201	0x3d247c39	0.04015753
202	0xbd7eabd9	-0.062175605
203	0x3d236b20	0.039897084
204	0xbd6a9fcf	-0.05728131
205	0xbcf9070f	-0.030398874
206	0x3d0cb117	0.034348574
207	0xbc776040	-0.015098631
208	0x3d62e9c3	0.055398714
209	0x3c061224	0.008183036
210	0x3d4fc72b	0.05072705
211	0xbc6649ed	-0.014055711
212	0xbd3a85c8	-0.04553774
213	0x3d9bc287	0.076054625
214	0x3d0d6271	0.03451771
215	0x3d387e72	0.045042463
216	0x3ce37e76	0.027770262
217	0x3d49895c	0.04920326
218	0x3c63e9b7	0.013910702
219	0x3c96ac6f	0.01839277
220	0x3d4d0c9c	0.050060853
221	0x3d5533b6	0.05205127
222	0xbd62486c	-0.055244848
223	0x3c0bed46	0.008540457
224	0x3d522af9	0.051310513
225	0xbd886b78	-0.06661123
226	0x3caaa2b2	0.020829532
227	0x3d8862aa	0.06659444
228	0x3d807ad5	0.06273428
229	0xbc46f98d	-0.0121444585
230	0x3d6b7338	0.057482928
231	0x3d97a716	0.07404916
232	0x3d3362c6	0.04379537
233	0x3c932f37	0.01796685
234	0xbd832bfa	-0.06404872
235	0x3d390fa9	0.04518095
236	0x3d1f9404	0.038959518
237	0xbcb38881	-0.021915676
238	0xbb87a45b	-0.0041394657
239	0xbd9dd939	-0.077074476
240	0xbcdfe27e	-0.02732968
241	0x3be70309	0.0070499224
242	0xbd96088c	-0.07325849
243	0x3d501fc5	0.050811548
244	0xbd7b31d0	-0.0613268
245	0x3b855618	0.004069101
246	0x3cb9a09e	0.022659596
247	0xbd33271a	-0.043738462
248	0x3cdd74ed	0.027033294
249	0xbc418f56	-0.011813959
250	0x3bdb62f8	0.0066951476
251	0xbd889b80	-0.06670284
252	0xbd802c10	-0.06258404
253	0x3d45d7ee	0.04830163
254	0xbd57023a	-0.052492358
255	0x3cc7386c	0.024318896

conv_block_4.5.bias f4 [16]
0	0xbd605516	-0.054768644
1	0x3d48784a	0.04894284
2	0xbc027a39	-0.00796371
3	0x3b8b5248	0.004251752
4	0x3cb68089	0.022278087
5	0x3c9fe857	0.019519968
6	0x3d398a0f	0.04529768
7	0xbb9a5987	-0.0047103795
8	0xbd8dea2a	-0.06929429
9	0x3b13b078	0.0022535603
10	0xbd3f0fda	-0.046645977
11	0x3c8a76cc	0.01690235
12	0xbcb04f41	-0.021522166
13	0xbcb4614b	-0.02201905
14	0xbd6b15cd	-0.057393838
15	0x3d9ee7e4	0.077590734

conv_block_5.0.weight f4 [16]
0	0x3f800090	1.0000172
1	0x3f80006a	1.0000126
2	0x3f80001f	1.0000037
3	0x3f7fffc1	0.99999624
4	0x3f7ffed4	0.9999821
5	0x3f7fff26	0.999987
6	0x3f7fffe4	0.99999833
7	0x3f7fffae	0.9999951
8	0x3f7fffa7	0.9999947
9	0x3f7fffd4	0.9999974
10	0x3f7fffac	0.999995
11	0x3f7fff84	0.9999926
12	0x3f7fffcb	0.99999684
13	0x3f800032	1.000006
14	0x3f7fffdf	0.99999803
15	0x3f80006e	1.0000131

conv_block_5.0.bias f4 [16]
0	0x378682fc	1.603504e-05
1	0x35cae2f1	1.5116221e-06
2	0x3711abea	8.6827e-06
3	0xb6a8b150	-5.027432e-06
4	0xb6b26a82	-5.3172125e-06
5	0xb3ec063a	-1.0990739e-07
6	0xb6e7b362	-6.9052194e-06
7	0xb6f6b4e3	-7.3524293e-06
8	0xb6db5250	-6.536291e-06
9	0x36ab25e4	5.100608e-06
10	0xb62c1850	-2.564415e-06
11	0x35b6ba01	1.3614191e-06
12	0xb4961e43	-2.7961696e-07
13	0x3646d998	2.9630955e-06
14	0xb79b2588	-1.8494917e-05
15	0x372f07b5	1.0432607e-05

conv_block_5.0.running_mean f4 [16]
0	0x3e4355e8	0.1907574
1	0x3e242d0b	0.16032808
2	0xbc93dae0	-0.018048704
3	0x3cea7509	0.02862026
4	0x3d8a55f2	0.06754674
5	0x3e154a86	0.1457921
6	0x3e68a154	0.22717792
7	0xbdbef86a	-0.09324725
8	0xbe100f3c	-0.14068311
9	0x3e0eebea	0.13957182
10	0x3dd6b1e2	0.10483147
11	0xbd77ccb0	-0.06049794
12	0x3d5a2fb9	0.053268168
13	0x3d5a778f	0.053336676
14	0x3c9a7467	0.018854333
15	0x3e2d24ca	0.16908565

conv_block_5.0.running_var f4 [16]
0	0x3f0e1c91	0.5551234
1	0x3f0b3ed1	0.54392725
2	0x3f0b3c69	0.54389054
3	0x3f0cc4c1	0.5498772
4	0x3f0ac18e	0.5420159
5	0x3f129625	0.5726035
6	0x3f10b203	0.56521624
7	0x3f09d53a	0.5384098
8	0x3f112b51	0.5670672
9	0x3f0e0ef2	0.55491555
10	0x3f0ca81e	0.54944026
11	0x3f0b8569	0.5450044
12	0x3f0a961e	0.5413531
13	0x3f0ca357	0.54936737
14	0x3f09e2b5	0.5386155
15	0x3f0fc7bf	0.56164163

conv_block_5.2.weight f4 [32, 16, 3, 3]
0	0xbc2a6949	-0.0104010785
1	0x3d5865fa	0.052831627
2	0x3da43e4a	0.08019693
3	0x3c273e68	0.01020775
4	0x3c2d8d2e	0.010592742
5	0x3c9eadb5	0.01936994
6	0xbd8be115	-0.0683004
7	0xbbd76a42	-0.006573946
8	0x3d3d139f	0.04616129
9	0xbd951d05	-0.07280926
10	0xbb743e5b	-0.0037268612
11	0xbd55656c	-0.052098677
12	0xbbdaf4a6	-0.0066819964
13	0x3a0a2865	0.00052703015
14	0x3d5d1208	0.053972274
15	0xbd294233	-0.041322898
16	0xbd9be377	-0.07611745
17	0x3d023cd2	0.031796284
18	0xbda977f1	-0.0827483
19	0xbc91b95d	-0.017788583
20	0x3d1f5e3e	0.038908236
21	0x3d93c8de	0.07216047
22	0xbd80a4a6	-0.06281404
23	0x3d8b5bc9	0.06804616
24	0xbcc9020e	-0.024537113
25	0xbd54e15c	-0.051972732
26	0xbd2b9c74	-0.041897252
27	0x3c92f580	0.01793933
28	0xbd4db10a	-0.050217666
29	0xbcfed993	-0.031109607
30	0x3d392237	0.045198645
31	0xbb2863ce	-0.0025694254
32	0xbcd17aa3	-0.025571173
33	0xbda10a14	-0.078632504
34	0x3da81579	0.082072206
35	0xbd2cc7bd	-0.042182673
36	0x3d9f7455	0.077858604
37	0xbd9e8a24	-0.07741192
38	0xbcf1a9fd	-0.029500002
39	0x3da61359	0.08109159
40	0x3d31c42c	0.043399975
41	0xbd618361	-0.055056933
42	0x3da4005a	0.080078796
43	0xbc864e22	-0.016394679
44	0xbd7ac8bd	-0.061226595
45	0x3d8812c3	0.066442035
46	0x3c23cba5	0.009997283
47	0x3c861567	0.016367627
48	0xbd112979	-0.035439942
49	0xbbc7846e	-0.006088785
50	0xbc85e7a2	-0.016345803
51	0x3cb68d4d	0.022284174
52	0xbd8ad64a	-0.06779154
53	0xbcea8c05	-0.02863122
54	0xbd4095c0	-0.047017813
55	0xbc89a3d5	-0.016801754
56	0xbc198422	-0.009369882
57	0xbd37c8e9	-0.044869337
58	0x3d17691d	0.03696548
59	0xbcf25ff2	-0.029586766
60	0xbc4148e7	-0.011797166
61	0x3d2f9227	0.04286399
62	0x3d1b8e3a	0.037977435
63	0x3c8e74c9	0.017389672
64	0xbc9fc4c2	-0.019503001
65	0x3cc45380	0.023965597
66	0x3d9b0b05	0.07570461
67	0xbd06cc82	-0.032909878
68	0x3da52a44	0.08064702
69	0xbcbeed30	-0.02330646
70	0x3d44d107	0.048050907
71	0x3c020689	0.007936128
72	0xbcb86381	-0.022508385
73	0xbd7941d4	-0.060853794
74	0x3c547825	0.012968098
75	0x3d8822e4	0.0664728
76	0x3d82ac1c	0.063804835
77	0xbd2f3330	-0.042773426
78	0xbc889b4e	-0.016675618
79	0xbd06b197	-0.032884207
80	0xbce71d35	-0.02821217
81	0xbc11b6d4	-0.008893687
82	0x3d7f9cb8	0.062405318
83	0xbd8084c3	-0.06275322
84	0x3d2c44c1	0.042057756
85	0x3d93c44b	0.07215174
86	0xbd2931d4	-0.041307285
87	0xbd7f04c9	-0.062260423
88	0xbd80ccd8	-0.06289071
89	0xbd940f8e	-0.07229529
90	0x3d3918a6	0.045189522
91	0xbc8bf163	-0.017082876
92	0xbd1bbc8a	-0.0380216
93	0xbd9e5786	-0.077315375
94	0x3d9e7516	0.07737176
95	0xbd67c7ef	-0.056587156
96	0xbd6d4c05	-0.057933826
97	0x3ccd3a44	0.025052197
98	0xbd9d19f0	-0.07670963
99	0xbcee2daf	-0.029074518
100	0x3b01edea	0.0019825646
101	0xbd913e5c	-0.07091972
102	0xbd4d75b7	-0.05016109
103	0xbc17e378	-0.009270541
104	0xbabb6c1b	-0.0014299186
105	0x3d6cc61d	0.057806123
106	0x3d5d51eb	0.0540332
107	0x3d8ee64f	0.06977522
108	0xbd8acb20	-0.06777024
109	0xbd0378ae	-0.03209751
110	0x3da52c3c	0.08065078
111	0xbcfacb9a	-0.030614663
112	0x3d02d52b	0.031941574
113	0xbb2c12bc	-0.0026256284
114	0x3d857401	0.065162666
115	0xbc5881ae	-0.013214512
116	0xbd6270cd	-0.055283356
117	0xbd7e09b7	-0.062020984
118	0xbd85226f	-0.06500708
119	0xbd3b6acb	-0.045756143
120	0xbc1c401a	-0.009536767
121	0x3ccca9cc	0.02498331
122	0x3c93f78c	0.018062375
123	0x3c3f95bf	0.011693417
124	0xbd997456	-0.074928924
125	0x3cecc82a	0.02890404
126	0x3bf969f0	0.0076115057
127	0xbd32b8bf	-0.04363322
128	0xbd602505	-0.054722805
129	0xbce3d375	-0.027810792
130	0x3c9b2035	0.018936256
131	0x3d810230	0.06299245
132	0x3d7f4327	0.0623199
133	0xbd2bcf64	-0.04194583
134	0x3d9cf755	0.07664362
135	0xbd330450	-0.043705285
136	0xbd95afc4	-0.07308915
137	0x3d8e043a	0.069344
138	0x3d158879	0.036507104
139	0x3d2ab396	0.041675173
140	0xbd063e39	-0.032774184
141	0x3d044b74	0.03229852
142	0xbda88ff3	-0.08230581
143	0xbbd2ab6a	-0.0064291256
144	0xbc67c350	-0.014145687
145	0xbd2c67e5	-0.04209127
146	0xbbca07dd	-0.006165488
147	0xbd3c72d8	-0.04600796
148	0xbd9c5ae2	-0.07634522
149	0x3d8c58c8	0.06852871
150	0x3cfd8fa8	0.03095229
151	0x3b91821e	0.00444056
152	0xbd288b99	-0.041148756
153	0x3d58b11e	0.052903287
154	0x3d1ca1d3	0.038240265
155	0x3c5a4c62	0.013323875
156	0x3d92e5cb	0.07172736
157	0xbc6f4804	-0.014604572
158	0x3afb9347	0.0019193672
159	0x3d8af0ae	0.06784187
160	0xbd1a41e4	-0.037660494
161	0x3d932aae	0.07185875
162	0xbc9ddd42	-0.019270543
163	0x3d400c58	0.046886772
164	0x3cf5484f	0.029941706
165	0xbd3b2564	-0.045689955
166	0x3d5c9c8a	0.053860225
167	0xbd89d321	-0.06729723
168	0xbc70a90d	-0.014688742
169	0xbd04e904	-0.032448784
170	0x3d39c28d	0.045351554
171	0x3d1d6cca	0.038433827
172	0xbd3cfd02	-0.046139725
173	0x3da9840b	0.08277138
174	0xbb332a1a	-0.0027338327
175	0x3d936c5b	0.071984015
176	0x3ca72990	0.02040556
177	0xbd9ed02b	-0.07754549
178	0x3ceb8401	0.028749468
179	0x3cd8ce62	0.026465598
180	0x3d806d47	0.06270843
181	0xbd18f9b9	-0.03734753
182	0xbd801d98	-0.062556446
183	0x3d6b0b1f	0.057383653
184	0xbd99af75	-0.07504169
185	0xbd6cf801	-0.057853702
186	0x3d4d2e55	0.050093014
187	0x3da165f8	0.07880777
188	0x3d9e8454	0.07740083
189	0xbcfe270f	-0.031024484
190	0xbcd8cd53	-0.026465094
191	0xbd276091	-0.040863577
192	0x3d98ed1e	0.074671015
193	0x3d9b4b81	0.075827606
194	0xbd98f91a	-0.07469387
195	0x3d76f1ef	0.06028932
196	0xbd928efd	-0.07156179
197	0xbc426666	-0.011865234
198	0xbda9c752	-0.082899705
199	0xbc5c48f3	-0.013445127
200	0x3da16f65	0.07882575
201	0xbd8c23e2	-0.068427816
202	0x3da52dae	0.08065353
203	0x3d865a13	0.06560149
204	0xbc4cc17b	-0.012497301
205	0xbd366a49	-0.044534955
206	0xbd452148	-0.048127443
207	0x3d12bec9	0.03582648
208	0xbd17077f	-0.036872383
209	0x3da26caa	0.07930882
210	0x3c6be199	0.014397048
211	0xbda0dfb8	-0.07855171
212	0x3cc39460	0.023874462
213	0x3d1dd4fb	0.038533192
214	0xbd203eab	-0.039122265
215	0x3d424a71	0.047434274
216	0xbbc16c28	-0.005902786
217	0xbc79a722	-0.0152376015
218	0xbc1046ad	-0.008805913
219	0x3cec7106	0.028862488
220	0xbd387a38	-0.045038432
221	0x3a92af6e	0.0011191198
222	0xbb4fc341	-0.0031702074
223	0x3d61b714	0.055106238
224	0xbd0f2615	-0.034948427
225	0xbd2113b0	-0.039325416
226	0xbc3ae37b	-0.011406775
227	0xbbdc9737	-0.0067318934
228	0x3d97a0f2	0.07403745
229	0xb9762d5d	-0.00023477287
230	0xbc4ed2dd	-0.012623516
231	0xbd11e0fa	-0.035614945
232	0x3d7277de	0.059196346
233	0x3d917262	0.07101895
234	0x3b8d32c0	0.0043090284
235	0x3d1064e3	0.035252463
236	0x3c6d9409	0.014500626
237	0x3d841ab2	0.06450404
238	0xbd890d6d	-0.06692014
239	0x3d1e8dd6	0.038709484
240	0xbd2ca597	-0.042150106
241	0x3d1efbdd	0.038814414
242	0xbd64f753	-0.05589993
243	0x3c7ec388	0.015549548
244	0x3bc2c202	0.0059435377
245	0x3d73b575	0.059499223
246	0x3d07572e	0.033042125
247	0x3c0a5d47	0.008445091
248	0x3c0a8dc9	0.008456656
249	0xbc70f76b	-0.014707427
250	0xbd9e0cdd	-0.07717297
251	0xbd8805c1	-0.066417225
252	0xbbca9d84	-0.006183328
253	0xbb9135e0	-0.004431471
254	0xbbb8627c	-0.0056269746
255	0x3c9bc5e7	0.019015266
