cloud-detection-code/tests/test_artifacts/test_multiclass/model_checkpoint_4.pt (torch, 287733 bytes, 260 tensors)

input_conv_block.0.weight f4 [3]
00000000: 9fff 7f3f 2700 803f ffff 7f3f
0.9999942 1.0000046 0.99999994

input_conv_block.0.bias f4 [3]
00000000: c468 8437 c27f 93b7 9fbc e5b7
1.5784412e-05 -1.7583257e-05 -2.738676e-05

input_conv_block.0.running_mean f4 [3]
00000000: e9a1 203d f099 393d f0ff 4b3d
0.03921691 0.045312822 0.049804628

input_conv_block.0.running_var f4 [3]
00000000: 27fc 273f bafa 273f cffa 273f
0.6561913 0.65616953 0.6561708

input_conv_block.2.weight f4 [2, 3, 1, 1]
00000000: 60be 0d3f 9ff3 013f 07e6 cebd 99d9 03bd
00000010: 76c5 0b3f 8dd4 e73e
0.55368614 0.5076236 -0.10102468 -0.03218994 0.54598176 0.4527935

conv_block_1.0.weight f4 [2]
00000000: ef01 803f 15fc 7f3f
1.000059 0.9999402

conv_block_1.0.bias f4 [2]
00000000: 4608 5838 058f afb8
5.150612e-05 -8.37129e-05

conv_block_1.0.running_mean f4 [2]
00000000: d252 e73d 4d80 e93d
0.112950936 0.114014246

conv_block_1.0.running_var f4 [2]
00000000: 89d3 5d3f 72ca 5d3f
0.866509 0.8663703

conv_block_1.2.weight f4 [2, 2, 3, 3]
00000000: 6244 acbd d1e2 0dbe 9a84 68be 75df 5c3e
00000010: ff5b bbbd 8573 223e c72c f83d 48a2 1f3e
00000020: 6d77 483e d021 4fbe fa40 38be b0a5 83bd
00000030: 6f18 eabd 0441 24bd 4a26 a2bd 1027 37be
00000040: 073b 39be bf80 443e 19aa a1bd c300 43bd
00000050: d217 1fbd 91cf 703e 0a63 f83c 69c5 79bb
00000060: 96a7 503e 49e5 0d3e b502 60bd f3fa 96bd
00000070: 1ba3 94bd a117 cebd 8fdd debd 7f2f 68be
00000080: e12c 53be c0f5 06be f8f4 a7bc a459 25bd
-0.084114805 -0.13856055 -0.22706833 0.21569617 -0.09148406 0.1586438 0.121179156 0.15589249
0.19576807 -0.20227742 -0.17993537 -0.06428087 -0.114304416 -0.040101066 -0.07917459 -0.17885995
-0.18088923 0.19189738 -0.07893772 -0.04760815 -0.038841076 0.2351668 0.030320663 -0.003811205
0.20376429 0.13856997 -0.05469008 -0.073720835 -0.072576724 -0.100631006 -0.10882103 -0.22674368
-0.20622589 -0.13179684 -0.020502552 -0.04036869

conv_block_1.2.bias f4 [2]
00000000: 0ce7 c53d d991 6fbc
0.09663209 -0.014622175

conv_block_1.3.weight f4 [2]
00000000: 8afd 7f3f 3301 803f
0.99996245 1.0000366

conv_block_1.3.bias f4 [2]
00000000: 0ac0 d0b7 89fb 0b38
-2.4884957e-05 3.3374443e-05

conv_block_1.3.running_mean f4 [2]
00000000: da1a debc 3c90 94bd
-0.027112413 -0.07254073

conv_block_1.3.running_var f4 [2]
00000000: 1f56 403f 5d67 3f3f
0.7513141 0.74767095

conv_block_1.5.weight f4 [2, 2, 3, 3]
00000000: f1c3 c73d d43d 0abe 0c0b 6ebe 9175 4c3e
00000010: 8181 1b3e 9e87 2bbe be0d 41bd c2ae 0e3e
00000020: 00e5 693e c11a fcbd 5e1f 5dbe 554e f3bc
00000030: ae4c d63a 53dc 41be fdd5 3a3c 39ad 4ebe
00000040: 2eb9 12be 4411 073e b7a4 723d 57b0 35bd
00000050: 6af5 15be 03cd 9abd 1cb3 9cbd 38b8 df3d
00000060: 0a4e e53d fd7b 593e 79e2 943a ade7 053e
00000070: e60f 6abd 3050 573d c9d6 583e 3151 1d3e
00000080: 730e 49be f1e4 0b3d f6b4 913c 5c2e 14bc
0.0975417 -0.13500148 -0.23246402 0.19966723 0.1518612 -0.16750953 -0.047132246 0.13933852
0.22841263 -0.123097904 -0.21593997 -0.029700438 0.0016349757 -0.18931703 0.011403558 -0.20183267
-0.14328453 0.1319018 0.059239116 -0.044357624 -0.146444 -0.07558634 -0.0765135 0.10923809
0.111965254 0.21238704 0.0011358998 0.13076659 -0.05714407 0.052566707 0.21175684 0.15363003
-0.19634418 0.034153882 0.017786484 -0.009044256

conv_block_1.5.bias f4 [2]
00000000: 0e95 013e b9cc 3f3e
0.12654516 0.18730439

conv_block_2.0.weight f4 [2]
00000000: afff 7f3f 2100 803f
0.9999952 1.0000039

conv_block_2.0.bias f4 [2]
00000000: 2a4a 1db6 d8aa 79b7
-2.3437992e-06 -1.4881334e-05

conv_block_2.0.running_mean f4 [2]
00000000: 6a70 95bb 74c8 f83d
-0.00456052 0.121476084

conv_block_2.0.running_var f4 [2]
00000000: 2866 293f 1872 283f
0.66171503 0.65799093

conv_block_2.2.weight f4 [4, 2, 3, 3]
00000000: 02da 463e dce5 df3c 1730 703e 449e 403e
00000010: 9070 53be 82fb 1b3d 905c 25be 3e62 fabd
00000020: 5b63 17bd 09bb 433e 4e3b a53b 8bb0 49be
00000030: 232d 68be 9ecc 453e b6ea 9bbd 4cd5 05be
00000040: b63b d5bd d92f 04be 846b e3bc 3257 9fbb
00000050: 54ca c53d b070 01be bcb4 3fbe 25aa 383c
00000060: ec33 e93d b165 29bd dc92 753c 4c3b 4ebe
00000070: 76e9 13be 5146 123e 9f21 a2bd 862d 6abe
00000080: c73f 80bc 84cf 55be e3e5 37be e101 a9bd
00000090: 504e 8dbd b285 f2bd d005 5c3e a053 2fbe
000000a0: 6833 973d fec2 5fbd e5df d2bc fcf8 d43d
000000b0: 513e ba3c d8a8 703d 4731 86bd 9ea0 47bd
000000c0: 0181 e8bd d1ce 553e 8b8a 703d f9f5 04be
000000d0: c53a 54be 127c 123e 056c e5bd 2d56 3f3e
000000e0: 3f3c 343e c75b 37be bfdb a83d 924d 47be
000000f0: f5e9 73bd 88ad c83d 5492 523e d11e 093e
00000100: 5ebd c23d 204d 1ebe f5da dcbc 3fdc 973d
00000110: fbeb b4bd d878 19ba 73ab bebd 62b5 a33d
0.19419101 0.027331285 0.23455845 0.18810374 -0.20648408 0.038081653 -0.16148591 -0.122257695
-0.036959987 0.19114317 0.00504247 -0.19696252 -0.22673468 0.19316337 -0.07613127 -0.13069648
-0.104117796 -0.12908877 -0.027761228 -0.0048626894 0.09657732 -0.12640643 -0.18721288 0.011271034
0.113868564 -0.041356746 0.014988627 -0.20139807 -0.14444527 0.14284636 -0.07916569 -0.22868928
-0.015655411 -0.20879942 -0.17958789 -0.082523115 -0.068997025 -0.118419066 0.21486592 -0.17121744
0.07382852 -0.05462932 -0.025741527 0.103990525 0.022734793 0.058754772 -0.06552368 -0.04873716
-0.113527305 0.20879675 0.058725875 -0.12984456 -0.20725544 0.14305142 -0.11202244 0.18685217
0.17601107 -0.17906104 0.08245038 -0.19463184 -0.05954929 0.097987235 0.20563632 0.13390662
0.09508775 -0.15459108 -0.026959876 0.074150555 -0.08834072 -0.0005854494 -0.09310045 0.079935804

conv_block_2.2.bias f4 [4]
00000000: a9ee 04be 3c80 1f3e 307d acbd 9841 c83d
-0.12981667 0.15576261 -0.08422315 0.09778136

conv_block_2.3.weight f4 [4]
00000000: 43fd 7f3f b9ff 7f3f d600 803f 9d00 803f
0.9999582 0.99999577 1.0000255 1.0000187

conv_block_2.3.bias f4 [4]
00000000: 34af 07b8 fbc5 3436 1485 fc36 8cc5 f337
-3.234968e-05 2.693733e-06 7.5256776e-06 2.9059847e-05

conv_block_2.3.running_mean f4 [4]
00000000: 7097 8dbd 3642 77bd 0c20 22bd 6b9c 813d
-0.0691365 -0.060365878 -0.039581344 0.063286625

conv_block_2.3.running_var f4 [4]
00000000: afb9 343f f9ee 413f 8ffe 2a3f dd4f 2d3f
0.7059583 0.7575527 0.66794676 0.67699987

conv_block_2.5.weight f4 [4, 4, 3, 3]
00000000: 2692 bc3d 1bbe 023e 78ad e43d b7d0 efbd
00000010: 5b98 d93d 40a0 febd c193 863d fe7e 31bc
00000020: bf8b 023d 7d18 0dbd 4955 2b3d 8d82 aa3d
00000030: 5797 72bd 2fc9 b0bd d8f4 fa3c 61d3 403d
00000040: 82cd aebd ea7e b43d 96b0 f93d cecb 093e
00000050: 1b47 ac3b 4513 b9bc 6305 f13d 590b e0bd
00000060: 9bed 1ebc 29e0 043e 53ba 35bd eb40 d4bc
00000070: 1151 163d 4a90 18be 88b0 073e 60a6 713d
00000080: da87 00be 4f42 fd3c 4f4a 0dbe 0ab2 c83d
00000090: 7d90 05be 8dfe a1bd d0ef 09be db75 10be
000000a0: 85eb 95bd 8991 06be 1194 0bbd 043b ec3d
000000b0: 8154 26bc d51e 013e 5cf1 de3b 5752 d1bd
000000c0: daa0 013d 834b c2bd a299 36ba d5b5 f7bc
000000d0: 4f2e c1bd fded bb3d 57be ce3d b517 033e
000000e0: 5e66 b8bd 03b4 063e d4bf d6bd eb8c 27be
000000f0: 0dba d03c e6df b2bd a845 253e bef0 0c3e
00000100: 4d2e 043d 9dd9 13be 0734 b03c 6090 61bd
00000110: 2610 143e 5375 1cbd 207c 723d bc99 35bc
00000120: 5ba9 b13b 0577 7abc 27a2 583d 20c0 023e
00000130: 4ca7 013e a75c bb3d e4c3 05be 75c7 153c
00000140: 44df 093e f6e9 143e cd08 83bd 2d78 c9ba
00000150: 1fc6 0c3e 18a0 07bd 04d8 223e b756 17be
00000160: ff6c bf3d 7fef 60bd 35ba b4bd 582c 9a3d
00000170: 8d6c 043d 25e7 eb3d e456 92bd a566 f23d
00000180: 0a6c ad3d 6423 8c3c 7cb9 1b3c 75f7 1d3e
00000190: 84fa 353d 6e66 cd3d b4ff a03c e63f 863d
000001a0: ecee 06be d344 0abe 1c32 b33d 07e9 afbd
000001b0: 9d28 d0bd 0e1d ba3d 086c 843c 5125 9e3a
000001c0: 6088 74bd 762c 58bd 88b1 843c c9a9 b53d
000001d0: 7fe4 5fbd b586 8bbd 096d 79bd 9ef9 363d
000001e0: e436 bdbd c6fa f93c e481 053e c793 973c
000001f0: 1add 1ebd dc7a 073e 78b1 913c 5f7f 80bd
00000200: 4441 00be 4ac9 08be 73c0 ccbd 78a4 013e
00000210: 9771 e63d 72bd e53b 8486 483d 7ff2 eb3d
00000220: c119 0e3e 4c7c f03d dfb3 ca3d dbe6 1b3e
00000230: 58d5 f03d da11 b9bd 3555 a13c 45ca 7abd
0.09207563 0.12767832 0.11165899 -0.11709731 0.106247626 -0.12432909 0.065711506 -0.0108335
0.031871554 -0.034447182 0.04182938 0.08325682 -0.05922636 -0.08632123 0.030634329 0.047076587
-0.08535291 0.088132694 0.12191884 0.13456652 0.0052575 -0.022592196 0.117686056 -0.109396644
-0.009700204 0.12976135 -0.044367146 -0.025909862 0.036698405 -0.14898792 0.13250935 0.05899656
-0.12551823 0.030915407 -0.13797878 0.09799583 -0.13043399 -0.0790988 -0.13470387 -0.14107458
-0.073203124 -0.13141455 -0.034076754 0.11534694 -0.010151983 0.12609418 0.0068036746 -0.10220783
0.03164754 -0.09487059 -0.0006965642 -0.030238071 -0.09432661 0.09176252 0.10094898 0.12802012
-0.090039 0.13154607 -0.10485807 -0.1636235 0.02547934 -0.087341115 0.16139853 0.13763711
0.03227072 -0.14438482 0.021509184 -0.055069327 0.14459285 -0.038197827 0.059200406 -0.011084016
0.0054218 -0.0152871655 0.052889016 0.12768602 0.12661475 0.091485314 -0.13063008 0.009141793
0.13464075 0.14542374 -0.06398163 -0.0015370898 0.13747452 -0.03311166 0.15902716 -0.14779173
0.09346961 -0.0549159 -0.08824579 0.07527989 0.032330085 0.11518697 -0.07145479 0.11835984
0.084678724 0.01710672 0.009504672 0.15426429 0.044428363 0.100293025 0.019653179 0.065551564
-0.13177079 -0.13502817 0.08749792 -0.08589368 -0.10163996 0.09087573 0.016164795 0.0012065565
-0.05970037 -0.052776776 0.016197935 0.088702746 -0.05466127 -0.06812803 -0.060895 0.044671647
-0.09238985 0.030515086 0.1303783 0.018503083 -0.038785078 0.13230461 0.017784819 -0.06274294
-0.12524897 -0.13358036 -0.09997644 0.12660396 0.11252134 0.007011109 0.04895641 0.11520862
0.13877012 0.11742458 0.09897589 0.15224783 0.11759442 -0.09036608 0.01969395 -0.061228056

conv_block_2.5.bias f4 [4]
00000000: 0efc 033e 3865 17bd d6ff a0bd a630 853d
0.1288912 -0.036961764 -0.07861297 0.065034196

conv_block_3.0.weight f4 [4]
00000000: b1fb 7f3f f400 803f 4201 803f c5ff 7f3f
0.99993426 1.0000291 1.0000384 0.9999965

conv_block_3.0.bias f4 [4]
00000000: ce10 dab7 21d5 3338 2cfe 1438 ae56 f437
-2.599545e-05 4.2875417e-05 3.5522666e-05 2.912743e-05

conv_block_3.0.running_mean f4 [4]
00000000: c797 e93d 7b10 823b 3ac9 b33d 640f f63d
0.11405902 0.00396925 0.08778615 0.12014654

conv_block_3.0.running_var f4 [4]
00000000: 7fb4 2f3f 5c45 2d3f 4bc5 373f 692f 3c3f
0.6863479 0.6768396 0.7178542 0.7350984

conv_block_3.2.weight f4 [8, 4, 3, 3]
00000000: 9414 fc3c fc9c b7bc b21f 253d abe4 c33d
00000010: bf93 abbd b7f7 a5bd b62e 0c3e e023 e9bd
00000020: 86e3 6e3d 0da2 e73d 49d0 c2bd 2da2 e53d
00000030: 5c8f 00be bffe 3dbc 39b1 c33d fc61 d6bc
00000040: 3968 713d d8f9 b1bd a15c dcbd 32a0 52bc
00000050: a997 9e3d 79fe b9bd 48eb 8f3d 9117 3bbc
00000060: f4d4 b9bd e06c e13d 5b1f 4b3d 223a 39bd
00000070: bc6f 24be cd79 06be 1747 853d 62cd 86bd
00000080: d5e6 9e3d e85b 1fbe bcd0 3fbd 76d9 d83d
00000090: dce0 c43d a432 04be 00e1 cdbd 46ff b2bc
000000a0: 56c6 0fbe 51a2 2fbd c58d 083e b3a8 0f3e
000000b0: db9a 1b3e aaa2 cabc 74b8 ea3b 1d0c 8d3b
000000c0: 1823 143e 1563 debd 8d25 cbbd 42cd 163d
000000d0: cd3e 9d3d fcd1 9f3d aad3 29be 65c3 b2bc
000000e0: 4ac5 303c 92b4 b3bd c433 5abb 3eff 1e3e
000000f0: 1cda 033e 4b5b 76bc 3a6b 23be b273 25be
00000100: e960 233e 47e6 f5bb d23b 53bd ec2e 04be
00000110: f166 da3d 6f26 ac3d ff6a 273e 3475 07be
00000120: b2fc ab3d d466 c43d fc75 b73d 3538 20bd
00000130: 2a49 59bd 7caa cbbd 13f6 ef3d f9dc 943d
00000140: 1861 01be 820b 29be fd33 2abe 72c7 d33d
00000150: 5f86 88bd e852 9d3d b5e6 123d a912 2abe
00000160: c702 40bd b12c e33d adbe 1d3e 9084 1b3e
00000170: d65a ce3d 42c0 dabd 15ab 37bd 635f ca3d
00000180: 9a04 93bd c1ef ef3d 5385 eabc a5ed 043e
00000190: 0f9e ea3c 2eda 03be 61db 53bd 867b 7f3c
000001a0: 87e9 62bc c16b ff3c b373 dfbd 97bb a03d
000001b0: b37a 863d 252c bebd 49c8 1a3e 16d0 cebd
000001c0: 8922 41bd 18c4 d73b b04c 823d 7b62 8fbd
000001d0: 9e1e 1b3e 3683 33bd 0464 6d3d 93a1 f6bd
000001e0: 4a66 a83d 001f a93c 55b3 96bd b6ce c0bb
000001f0: ea8b 163d bc2e 263e 41f0 a3bc eacf 0bbe
00000200: c073 6ebd 3cdb bd3c 78ce f7bd eb12 ee3d
00000210: 7b97 54bd 024c 2a3c 4206 193e 4282 db3d
00000220: 477b 083e 6b20 af3d 2116 27be d84c 243e
00000230: 53a2 aebd 2a1a 2fbd c54b bc3d a944 8bbd
00000240: 83f1 0ebc 0238 973d b77c 943d de58 20be
00000250: eb3a 41bd 959d 08be bd85 0abe d3cb 403d
00000260: 2435 533d 337a 8b3d 4b3f 5bbd 451a 263e
00000270: 3eb1 f8bd 92d0 91bd a587 01bc 2d95 1b3e
00000280: 3a35 8b3d 65b9 473d 2c72 553d 3cb6 86bd
00000290: 731e 963d f0d5 ca3d 4ee7 643d 3108 f8bd
000002a0: 31ee b2bd cfd0 3ebc f40b e13c d2ec 253d
000002b0: 78b2 fe3c bd01 7b3d e0d8 8e3c c81c 7fbd
000002c0: 3425 503d faaa 17be 44e5 133e ec61 05be
000002d0: 2134 343d 7ba9 6abc cbac 9b3d 9e44 adbc
000002e0: ddf8 1b3e af73 ce3c 6229 e9bd f7d8 083d
000002f0: 6063 113d 2afa b33d 5cde e83d 4ef7 f1bd
00000300: f17a ea3d cfc6 01be 8cf0 27be e714 293e
00000310: 981e e1bd 4e2a 63bd c314 5dbc ebc2 70bd
00000320: d73e f2bd 37ac 0fbe b51a f83d 0207 fdbd
00000330: 4ef2 053e 64fd 1fbe 297f 013e 51dd cfbd
00000340: 61b6 9fbd 7280 c2bd a353 acbd e125 0bbe
00000350: e7fb e13d f2d2 f4bd 0170 c2bd 8f5e 4c3c
00000360: e0bd b13d 1489 e6bc 34d9 dbbd d17f e2bc
00000370: 5931 a4bd 7507 e1bd 723a 153e 9abd 13be
00000380: bf92 a2bd 8fd9 ca3d 96e1 cb3d 1d2a 223e
00000390: 9118 0abd 7bac d4bd 83d2 e33d a23c b3bc
000003a0: 065b f83d 0d0f 49bc ef0f 83bb 9646 46bd
000003b0: 05ac 923d 6794 bebd 009e a5bd 5810 0bbe
000003c0: 8873 003e 2c0d cc3c 2694 10be a5ec a73d
000003d0: c8bf 113e cd14 d4bd bd16 d1bd fd70 e6bd
000003e0: c0c8 0bbd 2d39 90bd 76db debd 0e98 3cbc
000003f0: 6149 77bd fff0 eebc b79b ca3d 4683 8f3d
0.030771531 -0.022413723 0.04031343 0.09565099 -0.0837779 -0.081038885 0.13689694 -0.11383796
0.058322452 0.113102056 -0.095123835 0.11212573 -0.12554687 -0.011596381 0.09555287 -0.02616977
0.058937285 -0.08690232 -0.10759855 -0.012855576 0.07743771 -0.0908174 0.07027298 -0.011419193
-0.09073821 0.110070944 0.04959045 -0.045221455 -0.16058248 -0.13132401 0.065077 -0.065821424
0.077588715 -0.15562403 -0.046829924 0.105883524 0.09613201 -0.12909943 -0.10052681 -0.02185024
-0.14040503 -0.042879406 0.13335331 0.14029197 0.15195791 -0.024735767 0.007163102 0.0043044225
0.14466512 -0.10858742 -0.099192716 0.036816843 0.07677994 0.07803723 -0.1658465 -0.021821687
0.010789225 -0.087746754 -0.0033295015 0.15527055 0.12876171 -0.015036414 -0.15958872 -0.16157416
0.15954937 -0.007504258 -0.05157072 -0.12908524 0.10664166 0.08405768 0.1634941 -0.13228303
0.08397807 0.095899254 0.089580506 -0.039116103 -0.05304829 -0.09944627 0.11716857 0.0726871
-0.12634695 -0.16508296 -0.16621394 0.103407755 -0.06666254 0.07681829 0.03586455 -0.16608681
-0.04687765 0.110925086 0.15404768 0.15187287 0.10075919 -0.106812015 -0.04484089 0.09881475
-0.07178612 0.11715651 -0.028628027 0.12981279 0.028639821 -0.12876198 -0.051722888 0.015593415
-0.013849623 0.03117931 -0.1091074 0.0784828 0.06566372 -0.09285764 0.15115465 -0.10098283
-0.047152076 0.0065846555 0.06362283 -0.070012055 0.15148398 -0.043826304 0.05795671 -0.120425366
0.08222635 0.020644665 -0.073584236 -0.005884017 0.036754526 0.16228765 -0.020012023 -0.13653532
-0.058215857 0.023175828 -0.12099928 0.11624702 -0.051902276 0.010394098 0.14943793 0.10718204
0.13328277 0.08551105 -0.16317035 0.16044939 -0.08527055 -0.04274956 0.091941394 -0.06800205
-0.008724573 0.073837295 0.0725035 -0.156589 -0.04717533 -0.13341363 -0.1352758 0.047069382
0.05156435 0.06810417 -0.053527158 0.16220959 -0.12143181 -0.0711986 -0.007905875 0.15193625
0.067972615 0.04876079 0.052110836 -0.06577727 0.073300265 0.099040866 0.05588465 -0.121109374
-0.08736838 -0.011646464 0.02747152 0.040509053 0.03109096 0.061280955 0.017437398 -0.062283307
0.05081673 -0.14811316 0.14442927 -0.13025635 0.043995026 -0.014322634 0.07601317 -0.021150883
0.15231653 0.025201647 -0.11384846 0.03341004 0.035495162 0.087879494 0.11370537 -0.11814748
0.114492305 -0.12673496 -0.16400355 0.1651188 -0.109921634 -0.055460267 -0.0134937195 -0.05877964
-0.11828392 -0.14030538 0.12114469 -0.12354852 0.13080713 -0.15624005 0.12646164 -0.10149635
-0.07798458 -0.09497155 -0.0841439 -0.13588668 0.11034375 -0.11954297 -0.09494019 0.012473716
0.08678794 -0.028141536 -0.107347876 -0.027648838 -0.08017225 -0.109877504 0.14573076 -0.14427796
-0.07938146 0.09904777 0.099551365 0.15836377 -0.033714835 -0.103844605 0.11124136 -0.021879498
0.12126736 -0.012271655 -0.003999702 -0.04840716 0.07161716 -0.09305649 -0.08086777 -0.13580453
0.12544072 0.024908625 -0.14119014 0.08199433 0.14233315 -0.1035553 -0.10209415 -0.112520196
-0.034126997 -0.070421554 -0.108817026 -0.011510862 -0.060372714 -0.02916765 0.098929815 0.0700746

conv_block_3.2.bias f4 [8]
00000000: affa 053e 9a0c 363d 63be f8bd 2460 1a3e
00000010: 883b c23d 8386 19be 4106 20be b323 a43d
0.1308391 0.04444561 -0.121456884 0.15075737 0.09484011 -0.14992718 -0.15627386 0.080146216

conv_block_3.3.weight f4 [8]
00000000: b700 803f 81ff 7f3f dffe 7f3f 61ff 7f3f
00000010: 0d01 803f 8500 803f 1600 803f 44fd 7f3f
1.0000218 0.99999243 0.9999828 0.9999905 1.0000321 1.0000159 1.0000026 0.9999583

conv_block_3.3.bias f4 [8]
00000000: ba05 ca37 3405 9835 329d 5937 f110 8db7
00000010: 413d 4c36 adce f437 5541 2537 0074 02b6
2.4082943e-05 1.1326397e-06 1.2970808e-05 -1.6816399e-05 3.0434023e-06 2.9183308e-05 9.849978e-06 -1.943903e-06

conv_block_3.3.running_mean f4 [8]
00000000: e4d3 463c b69d 933c 3e35 e7bb 3e6d bf3d
00000010: 78d0 fe3c 4c3a 08be 8f5c 09be 1015 8a3d
0.01213548 0.018019538 -0.0070559075 0.09347008 0.031105265 -0.13303488 -0.13414215 0.067422986

conv_block_3.3.running_var f4 [8]
00000000: 7585 313f 5b43 373f 2dd8 333f a1f9 313f
00000010: 0b10 2d3f 533f 3c3f 1e45 3f3f 61af 313f
0.69344264 0.7158715 0.70251733 0.6952153 0.67602605 0.73534125 0.7471484 0.6940823

conv_block_3.5.weight f4 [8, 8, 3, 3]
00000000: 805b 4f3d dc57 d33d c6cf 6d3d 627d 43bd
00000010: db9e 55bc 550c e8bd 6a9f 9f3c ca72 763d
00000020: 466e e5bd d785 f3bc ca0d 6ebd 58a5 95bd
00000030: 1df8 cebd 513a c53d 544a 5fbc a14f ef3a
00000040: 5894 753c 548f 943d 21a3 b1bc 2136 843d
00000050: 6cbb 5b3d 3fa3 db3d 3d5d 1dbc d86b ff3b
00000060: 46ec 503d 9fc0 3bbd 96b7 cabc 2289 e13d
00000070: 50a0 5cbd 77c4 60bd 1306 2ebd 6871 523d
00000080: 9e31 613d eda8 5f3d 201c 10bb b362 c23c
00000090: 6f5f 893d 28ab a6bd 1920 ae3c 0d85 b7bd
000000a0: fc2e e63c e472 333b 16f7 6e3c 7f57 343d
000000b0: 5484 a2bd 2086 ebbd d15c b03c 07ca d1bd
000000c0: 1a1e 78bd c16a b53d 12c5 18bb 1f4b 72bd
000000d0: 9c81 b5bc aa8c ed3c 4911 20bd 07a0 203d
000000e0: 727d d83d f546 5bbd 11de cb3d e719 ebbd
000000f0: 0f7f b7bc 141d 753d 712b e03d 13a8 67bd
00000100: 4e43 5c3d e2d9 dfbd aef9 bc3d d6d5 5dbc
00000110: 2137 013d 7d65 8c3d 65ad 483d 4674 f63c
00000120: 99f3 d3bd 2a62 013c 5fb8 b0bd 4eba b6bd
00000130: d529 923d c324 52bd d89b e93d c193 d73c
00000140: 0c62 54bc 029f 92bb ae07 6abd 4819 3a3d
00000150: aa31 6e3d f292 d5bd 70e4 4d3d 5bfc b8bd
00000160: 80af a2bc e801 933d 7285 e1bd bb32 30bc
00000170: b85f bfbd 3574 3e3d 55bd d7bd 8af6 a33d
00000180: d47a f73c 79dc febb 07f2 cd3c ea6e c6bd
00000190: 508e 48bd 9668 923d 04d7 d33c 9836 68bd
000001a0: 5078 9f3b 7f2b f0bd 6af0 e23c 47e1 ee3d
000001b0: bce1 6cbd 7f7c 95bd e76f 8c3d 6dd8 733d
000001c0: a7ad 893d ae03 39bc 041d 6f3c c93b ed3d
000001d0: 9d61 c23d dd9e 6f3d 333a fdbc 6d4e 693d
000001e0: 02e0 b43b 5213 f0bd de34 bd3c efeb 653d
000001f0: 6227 093c 3d35 d93d 2191 273d 0c90 afbd
00000200: ac6b 6f3d 4b11 f53b 7721 ad3c f9db 8a3c
00000210: 371a d0bc 5cc9 b13d b801 01bc 372c f23b
00000220: 1e81 1cbd 6e79 e0bd 6152 d43d 977b b9bd
00000230: a5f9 3dbc f0d8 b0bd a9cd 503c 6500 34bd
00000240: 1ebd e3bc 527a a43c 615a 11bd 5bba 683d
00000250: 7551 f7bc 18e6 2ebd eed7 9fbb c5db 9d3d
00000260: 56fe 44bd e8c2 a7bd 830f 82bc 12cc ee3d
00000270: 7abf 9abd e92f ed3d 6fc6 103a 6d0a 77bd
00000280: a574 873d 22a2 b7bd 7aad edbd a04b e9bd
00000290: 8282 e7bd bbc7 12ba 840d 883d 8e67 583d
000002a0: 1fb6 143d c515 b33d 064b efbd 670f 683d
000002b0: f6d6 8dbd 3891 b63d 4de0 92bd 2fe1 8c3d
000002c0: c6c1 aa3c 1a89 413d 8901 9ebd 2d2b 7c3d
000002d0: ef95 86bc fd10 323d 2035 91bd a7bd be3d
000002e0: b6f7 b43d 4454 67bd 0d21 963d 2575 a8bd
000002f0: d39c bf3c 59e3 adbd 5dc4 903c 96f1 84bd
00000300: 4f87 c8bd b705 a5bd 5203 b0bd af0e 0a3c
00000310: ebd8 8c3d ed6b 29bd b619 1bbd 9559 7fbd
00000320: 4b0b e33d fdbd 3c3d 3c26 2c3d 1ac1 bd3d
00000330: 62a0 4b3a 4b0f b9bc 9b5d a7bd 3e5f 333d
00000340: 885b b73d 3be2 fbba de26 40bc 54ac f0bd
00000350: 9499 153d 487e 38bd 169e 3dbd 6467 d0bd
00000360: 0b14 02bd b459 d3bc 1f66 803c 5074 3e3d
00000370: 7771 d03d 531e bebd 0373 653c 5996 433d
00000380: e132 58bd 063d d1bd aec9 123d e201 a33d
00000390: 435a 41ba d7cc c83d 251b ac3c 13d7 f1bc
000003a0: 0a2c d2bc a796 3b3d d4b0 9b3d 85f3 d93d
000003b0: 8981 de3b c0d9 da3d 4e72 2e3d 9955 31bc
000003c0: 428b b8bc 642b 35bd ea8e c7bb 99cc 45bc
000003d0: 6fd8 a13c 19be f73c 3d0e a23d a394 3d3d
000003e0: faf9 533d 6b00 093d 0642 a43d 89b8 36bc
000003f0: 11f1 cdbd 91a4 b1bd 1783 61bb 80eb 5d3d
0.05062437 0.10319492 0.058059476 -0.047726996 -0.013038362 -0.11330477 0.019485194 0.060168065
-0.112026736 -0.029726906 -0.05811862 -0.073069274 -0.101059176 0.096302636 -0.013628561 0.0018257984
0.014988981 0.072539 -0.021684231 0.06455637 0.053645536 0.10724496 -0.009604749 0.0077948384
0.051006578 -0.045837995 -0.024745744 0.11012484 -0.053863823 -0.054874863 -0.04248626 0.051377684
0.05497896 0.05460446 -0.002198942 0.023728704 0.06707656 -0.08138114 0.02125554 -0.08960924
0.028098576 0.0027381713 0.014585277 0.044028755 -0.07935396 -0.11500192 0.021528633 -0.10243612
-0.060575582 0.08858252 -0.0023310822 -0.059153672 -0.02215653 0.028997738 -0.039078984 0.039215114
0.10570802 -0.053534467 0.09954465 -0.1147955 -0.022399453 0.059842184 0.10945786 -0.056556772
0.053775124 -0.1093023 0.0922731 -0.013539752 0.031546716 0.06855295 0.048993487 0.03008474
-0.10349197 0.007896939 -0.08628916 -0.089222535 0.07136885 -0.05130459 0.11406678 0.026315572
-0.012962829 -0.0044745216 -0.05713623 0.045434266 0.058152832 -0.10428418 0.050266683 -0.09032508
-0.019859076 0.07178098 -0.11011781 -0.010754283 -0.09344429 0.046497542 -0.10534159 0.08006008
0.030209936 -0.007777747 0.025139822 -0.09689124 -0.048963845 0.071488544 0.025859363 -0.05669269
0.0048666373 -0.11727046 0.027702529 0.11664062 -0.057832465 -0.07299136 0.06857281 0.05953257
0.06722575 -0.011292381 0.01459432 0.11583669 0.094912745 0.058501113 -0.03091154 0.05695956
0.005519868 -0.11722435 0.023096498 0.056133207 0.008371206 0.106058575 0.04090989 -0.08572397
0.058452293 0.007478868 0.021134121 0.016950594 -0.025403125 0.086809844 -0.007873945 0.0073905247
-0.038209073 -0.10960661 0.10367275 -0.09056776 -0.011595164 -0.086351275 0.012744346 -0.04394569
-0.027800139 0.020077858 -0.035486583 0.056818347 -0.030190209 -0.042699903 -0.0048780357 0.07707933
-0.048094116 -0.08191472 -0.015876537 0.11660017 -0.075560525 0.11581404 0.0005522733 -0.060312677
0.06614045 -0.08966471 -0.11605354 -0.113913774 -0.11304189 -0.000559922 0.06643203 0.052833132
0.036306497 0.087443866 -0.116842315 0.056655314 -0.06925766 0.08914417 -0.07171688 0.06878888
0.020844352 0.04724989 -0.077151366 0.061564613 -0.016428916 0.043473233 -0.07090211 0.09313517
0.088363096 -0.056476846 0.07330523 -0.082254685 0.02339021 -0.08490629 0.017671758 -0.06491391
-0.09791433 -0.08057731 -0.08594383 0.008426352 0.06877311 -0.04136269 -0.037866317 -0.06234129
0.11086138 0.046079624 0.04202865 0.09265347 0.00077677344 -0.0225903 -0.08172151 0.043792002
0.08953005 -0.0019217202 -0.011728017 -0.11751619 0.036523417 -0.045042306 -0.04629334 -0.1017597
-0.031757396 -0.02579961 0.015673695 0.046497643 0.10177892 -0.09283128 0.014004472 0.047750805
-0.052782897 -0.102167174 0.035836868 0.079593435 -0.0007375816 0.09804695 0.021009037 -0.0295215
-0.025655765 0.04579797 0.07602087 0.10642151 0.006790344 0.10686064 0.04258948 -0.010823631
-0.02252734 -0.044230834 -0.0060900347 -0.012072706 0.019756524 0.030242013 0.07912872 0.04628433
0.051752068 0.033447664 0.080204055 -0.011152395 -0.100557454 -0.08673967 -0.003441041 0.05417967

conv_block_3.5.bias f4 [8]
00000000: dc1c 513d 1639 0b3d 238c 19bd 8699 bfbd
00000010: 6c39 3f3d d727 c03d 4ad6 a2bd 8fe1 d23d
0.051052913 0.03398999 -0.03748716 -0.09355454 0.04668562 0.09382599 -0.07951029 0.10296928

conv_block_4.0.weight f4 [8]
00000000: d800 803f 99fe 7f3f 1e00 803f 85fe 7f3f
00000010: 2900 803f 41ff 7f3f 0b00 803f 8900 803f
1.0000257 0.9999786 1.0000036 0.9999774 1.0000049 0.9999886 1.0000013 1.0000163

conv_block_4.0.bias f4 [8]
00000000: c39f aab6 c786 1ab6 955a 1837 ec34 45b7
00000010: d3c2 9237 706a 3b37 6bbb dc35 c4a1 9837
-5.0849935e-06 -2.302624e-06 9.080996e-06 -1.1754437e-05 1.7495278e-05 1.11708505e-05 1.6445823e-06 1.819514e-05

conv_block_4.0.running_mean f4 [8]
00000000: 70a9 bf3d 723b 413d 0776 a7bc 41a7 363e
00000010: 159d 993d 2fb6 2d3e 087f e33d d9bc 043e
0.093584895 0.047175832 -0.020442022 0.1783724 0.07500664 0.16964029 0.11108214 0.12962665

conv_block_4.0.running_var f4 [8]
00000000: 3863 323f 2e42 2a3f 50a2 2b3f 543a 4e3f
00000010: 28ff 283f 17d4 423f 98e0 563f 0416 293f
0.69682646 0.6650723 0.67044544 0.8055775 0.6601434 0.76104873 0.8393645 0.6604922

conv_block_4.2.weight f4 [16, 8, 3, 3]
00000000: 57ab 273d 360b e23d 5416 9abd 4505 5f3d
00000010: dd1b d7bd 4d78 343c d7d4 e8bd aeec 723d
00000020: e9b7 103c d962 1b3d b832 f1bd d8ed 573d
00000030: 80b1 e03c 1831 02bd 261e e1bd 2693 d33d
00000040: 0042 afbc e65e d3bd 3e0e 8bbc fdae bebc
00000050: 8067 b4bd ceca 9cbc 3930 c3bd 8b95 fcbc
00000060: 5b6f 08bc 004a 3dbd 118c dc3c bee8 29bc
00000070: c58e 1c3d 99af a6bd cbac 3e3d d267 6ebd
00000080: ce34 403d dcfa 673d ed22 963d cb57 bbbd
00000090: 7b0b cabc ea46 b9bd 2aae c03d 0727 e6bd
000000a0: 4a46 593d 191d 67bd 060a 1a3c 07c5 9dbc
000000b0: e4c8 8ebd 6c44 f1bd 9a1b 143d 9dcb cebd
000000c0: 2035 6dbd a09c c43d 22e2 e03d 0b75 b0bd
000000d0: e1e0 ad3b 2b01 363d 219b c13d 9223 bb3d
000000e0: d6cf bfbd afef 7b3d ca14 d93d 9eed 9e3c
000000f0: 3e43 32bd 2271 88bd 4c43 c43d d202 0c3d
00000100: 59c5 a73d ffeb e6bd 2d3d 163d 903b 493c
00000110: a1fd bcbc 9a67 86bd ea5d ae3c 3454 04bd
00000120: 3293 22bd 3ad8 d8bd 3cc1 e53d ae51 a1bc
00000130: 4161 d93d 22fa cdbd bd3b debd 97bf de3d
00000140: b7ba dd3d 8c58 0e3d e87f a2bd f67b 963d
00000150: 160c 873d 610f d03d 3888 d1bd ed2e 32bc
00000160: 0d50 cf3d 9b58 ef3b 81fe f33c 39de 6fbd
00000170: a9a2 d8bd ab00 33bd 8795 8abd febc 903d
00000180: 9f4f bcbb ca8d e13d 3a0a 9cbc 7434 c3bd
00000190: d782 4fbd eeb6 d93c e675 873c 1a9a aebd
000001a0: fef6 61bd 42b6 9bbd 7750 843d 88fe 27bd
000001b0: 3ae0 783d fa5e 8a3b 25ca bd3d ad19 5e3d
000001c0: 346a 25bd be89 c0bd 7919 bc3d a06d 83bb
000001d0: e615 673d 627b a3bd a2bb 32bd a3b4 063d
000001e0: 03b7 33bd 6bd8 033d 2acc 8b3d 2b2f e13d
000001f0: 0104 a93d 7960 c33c eff9 51bd d4be a33d
00000200: 9d84 953c 47c8 473d 10e7 a43d 1700 683c
00000210: ae32 c3bd f31f c8bc 126f 5cbd 36fc aa3d
00000220: b8fa 07bd 8794 edbc e479 293d d7b5 4f3d
00000230: 3338 13bd 91ee 92bc 0788 96bd 7f93 a6bd
00000240: 8b77 11bd 61ed 303c 5610 a0bd 6957 edbd
00000250: d25f 87bd aac5 d93d 1d00 70bc a24f e7bd
00000260: 4466 ee3d 3bdf c0bd 7f96 6ebd 0747 7f3d
00000270: e0ae e73d 8684 82bd f0c8 843d 1100 b43d
00000280: 4d0c babd 5431 b4bd a241 68bd 6465 253b
00000290: 87b8 bb3d c77a a93d 3dd7 2dbc 0f59 21bd
000002a0: ac11 db3c 817d 2b3d 4056 d63d 6ab6 033d
000002b0: 6e4e 15bd 61ac ccbd 65d2 ec3d 6ad2 773c
000002c0: 14fd eebc 2575 173d b492 553d a956 3e3d
000002d0: 21ee f1bb f911 78bd 8437 e1bd d4b7 98bd
000002e0: 8053 1abd db0f d8bc 7fde d23c 7cbb ebbd
000002f0: ae5c df3d a33c bf3c 449d 2b3c c9ee 92bd
00000300: 2913 c43d 796f 2f3d 2d8e e8bd dd30 b73d
00000310: 3510 36bb 1430 a7bd ece7 b43d 1d9f 8e3c
00000320: e907 0dbd 6cee bcbd 75a6 b13d dfd1 113d
00000330: 61ef b33c 45fe d7bd c8f3 33bc 844d af3d
00000340: c793 003d d0e6 20bc dce7 e43d d63e b5bd
00000350: a29b 4a3d eb53 ae3d 5bcd d4bd c28a a03c
00000360: 8e2d eabd 598f 67bd be53 8cbd ed8b c1bd
00000370: 1615 d1bc adc0 9bbd aa89 c63d 97f3 ba3d
00000380: 2fdc 473c a7a0 473d a45c cb3d bf4e a13d
00000390: d965 c2bd 24f8 acbd a8ff d93c 916f 673c
000003a0: 36b1 e2bd 4327 5d3c b35b 0b3d 4a83 373d
000003b0: ec16 bfbc 0f3f ea3d b161 53bd 1a5c be3d
000003c0: f4b7 483c 318f b9bd ceaa ab3d 7050 943d
000003d0: 40af c23d 8294 9bbd 3217 a8bd 4757 de3d
000003e0: 9283 eebc 5ec6 ea3d ecc3 89bd 8da5 4b3d
000003f0: c48e dbbd 822b c73d baff e6bd 688b 923d
0.040934887 0.110372946 -0.0752379 0.054448385 -0.105033614 0.01101501 -0.11368721 0.059307747
0.00883291 0.037936065 -0.11777252 0.05271706 0.027428389 -0.0317851 -0.109920785 0.10330801
-0.021393776 -0.10320835 -0.016974565 -0.0232768 -0.088088036 -0.019139674 -0.09530682 -0.030833026
-0.00832733 -0.04621315 0.026922258 -0.0103704315 0.038222093 -0.08138961 0.046551507 -0.05820448
0.04692536 0.056635723 0.0733088 -0.091476046 -0.024663677 -0.09046729 0.09408219 -0.112379126
0.05304555 -0.056424234 0.009401804 -0.019258989 -0.069719106 -0.117806286 0.036159135 -0.1009743
-0.057911992 0.09600186 0.109806314 -0.08616074 0.0053063487 0.044434708 0.094534166 0.09137644
-0.093658134 0.061507877 0.10599668 0.019400414 -0.04352116 -0.06662203 0.09583148 0.034182377
0.08191938 -0.112754814 0.036679436 0.012282267 -0.023070158 -0.06562729 0.021285016 -0.032306865
-0.039691158 -0.10588117 0.11218497 -0.019692268 0.10614253 -0.10057475 -0.10851238 0.108763866
0.10826629 0.034752414 -0.079345524 0.073478624 0.06594102 0.10159183 -0.1023106 -0.010875446
0.1012269 0.0073042638 0.029784443 -0.058561537 -0.105779 -0.04370181 -0.06766801 0.070672974
-0.0057467963 0.11013372 -0.019047845 -0.09531489 -0.050661888 0.026576485 0.01653571 -0.08525486
-0.05516719 -0.07603122 0.0646066 -0.041014224 0.060760714 0.004222748 0.09267072 0.054223705
-0.040384486 -0.09401272 0.09184546 -0.004010871 0.05641737 -0.07982518 -0.04363597 0.032887112
-0.043875705 0.032188814 0.068260506 0.10995325 0.08252717 0.023849713 -0.051263746 0.07995382
0.018251712 0.048774984 0.08051884 0.014160178 -0.09531151 -0.024429297 -0.053816862 0.08348887
-0.03319809 -0.029001487 0.04137601 0.050710525 -0.035942268 -0.017936023 -0.07350164 -0.081336014
-0.035514396 0.010798783 -0.07815616 -0.11588938 -0.06610073 0.106334046 -0.0146484645 -0.11294486
0.11640599 -0.09417578 -0.058248993 0.062323596 0.11312652 -0.06372933 0.06483638 0.08789075
-0.090843774 -0.08798471 -0.056703217 0.0025237435 0.09166055 0.08275371 -0.010610399 -0.039391574
0.026741825 0.041867737 0.1046567 0.032156385 -0.03645175 -0.09993816 0.11563567 0.01512585
-0.029173411 0.036976952 0.05214186 0.046469364 -0.0073831235 -0.060564015 -0.10996917 -0.074569374
-0.037677288 -0.026374748 0.02574086 -0.11510369 0.10906349 0.023344344 0.010474507 -0.07174451
0.09573967 0.042830918 -0.11355243 0.08944867 -0.0027780656 -0.08163467 0.08833298 0.017409855
-0.03443137 -0.09225163 0.08674327 0.03560054 0.02196473 -0.10546545 -0.010983415 0.08559707
0.03139093 -0.009820655 0.11177036 -0.08849876 0.04946483 0.085121 -0.10390731 0.019597415
-0.1143447 -0.05653319 -0.0685191 -0.09450517 -0.02552275 -0.07605109 0.09694226 0.09128492
0.012198492 0.048737194 0.09929779 0.07876348 -0.09492082 -0.084457666 0.026611164 0.014125721
-0.110689566 0.01349813 0.034022998 0.04480294 -0.02332636 0.11437809 -0.051606838 0.09294911
0.012250889 -0.09060515 0.08382188 0.07241905 0.095060825 -0.07596685 -0.08207549 0.108564906
-0.029115472 0.11463617 -0.06726822 0.04971843 -0.1072059 0.09725095 -0.11279245 0.07155496

conv_block_4.2.bias f4 [16]
00000000: af53 e1bd bb0d b3bd b4c6 a2bd ba29 c53a
00000010: 7d71 c6bd 7bcf 81bd 2d09 6abd fae7 debd
00000020: 7ad5 b2ba f9c1 25bd 0e6b e1bd ebcc eabd
00000030: e667 88bd e949 d9bd 76cb 7dbd cd91 843b
-0.110022895 -0.08742853 -0.07948056 0.0015042343 -0.09689615 -0.06338402 -0.057137657 -0.1088409
-0.0013643943 -0.04046819 -0.11006747 -0.11464866 -0.06660442 -0.106098 -0.061961614 0.004045701

conv_block_4.3.weight f4 [16]
00000000: 2600 803f 0900 803f e4ff 7f3f f3fe 7f3f
00000010: 2b00 803f 47ff 7f3f 2aff 7f3f 8c00 803f
00000020: c8ff 7f3f 3500 803f 87ff 7f3f 7b00 803f
00000030: 2aff 7f3f 5c00 803f bcff 7f3f 1200 803f
1.0000045 1.0000011 0.99999833 0.99998397 1.0000051 0.999989 0.99998724 1.0000167
0.99999666 1.0000063 0.9999928 1.0000147 0.99998724 1.000011 0.99999595 1.0000021

conv_block_4.3.bias f4 [16]
00000000: 6175 8db2 d883 9a36 4bbb 4637 20ae 0bb7
00000010: d54a 8ab6 bf51 59b7 e2d3 2337 2add 1a38
00000020: 550a f036 8879 9a37 2519 72b7 82d3 3335
00000030: 4be0 07b7 c0be 6437 6bb6 0737 d026 c2b5
-1.6467938e-08 4.6049063e-06 1.1845327e-05 -8.325587e-06 -4.121432e-06 -1.2953241e-05 9.76489e-06 3.6922436e-05
7.15376e-06 1.8414823e-05 -1.4430178e-05 6.699048e-07 -8.098849e-06 1.3634271e-05 8.0890995e-06 -1.4465422e-06

conv_block_4.3.running_mean f4 [16]
00000000: 8ab8 aabd 5b05 80bc faeb debc d21d 903d
00000010: 5be7 c8bd 0398 98bd f86f f5bb a9f6 ccbd
00000020: 75c7 51bd d409 ffbc 36ac b5bd 111f 7dbd
00000030: 8575 6ebd a7d0 dbbd 7cde 83bd b197 fdbd
-0.08335979 -0.015627554 -0.027212132 0.07036938 -0.098097526 -0.07450869 -0.0074901544 -0.10007984
-0.051215608 -0.031132616 -0.08870737 -0.061797205 -0.058217544 -0.10733157 -0.0643892 -0.123824485

conv_block_4.3.running_var f4 [16]
00000000: 710c 2f3f 19e6 303f 0b9b 303f fcd6 373f
00000010: 7ee0 363f ba3f 323f 8645 303f 9a4a 3b3f
00000020: c32c 393f 506a 2e3f 7425 3e3f 7a29 353f
00000030: fffb 333f e847 393f 2da8 323f 142e 4e3f
0.6837836 0.691011 0.68986577 0.71812415 0.714363 0.6962849 0.68856084 0.7316071
0.72333926 0.6813097 0.742759 0.70766413 0.7030639 0.72375345 0.69787866 0.8053906

conv_block_4.5.weight f4 [16, 16, 3, 3]
00000000: 4f1a 83bc 9cc5 513d 8c35 823d 6d31 413d
00000010: ae8d 653d ad24 3c3d 41c9 823d e04d cfbc
00000020: 13ce 793a b766 89bd 0654 893d 2dfc 0d3d
00000030: a7a5 853d 9a2a 123d 5d93 4abd 247e 94bd
00000040: ae5c 273d 1b29 2bbd d0cf 8bbd a965 a53d
00000050: 9469 a4bd d78a 87bd 2142 883d 21f1 a7bd
00000060: 8b1b c8bc 96e4 3b3d 90ae a13a a22d 9dbd
00000070: f127 7c3d f3b5 743c 5bf5 933d f8bf 133d
00000080: 4dd2 ea3c ee03 26bc 4f60 a3bd 1d94 09bc
00000090: 834e 3e3d 6b95 413c 50de 9c3d 3852 8bbd
000000a0: d126 2e3d 2c8b a63d a36f e3bc e60f 883d
000000b0: f06c c53c 6c53 913c ffa4 03bd 25d0 993c
000000c0: ca62 38bd 6d7d 883d 135d f83c 60cb d83c
000000d0: 8dc6 473d 7635 673d 7c0f b9ba ee88 353d
000000e0: 1de7 2c3d 70f9 e0bc 04e3 10bd 728f c2bc
000000f0: d337 64bd d10f 843d 6ddd 293d 86b2 4e3d
00000100: 2737 49bd d052 1fbd 0506 963d e6fe 9abd
00000110: 41ca 6d3d e476 80bd 940c 763d b3a2 89bd
00000120: 7594 2b3c 1256 85bd 1176 c23b 2bc0 09bd
00000130: a2ab 433d 5398 47bd aa98 663d 8916 0d3d
00000140: 9254 2f3d a53f 333b e775 dcbc eb2f 8a3c
00000150: fbef 34bd 32dc 87bd 2120 9fbd 05e2 543d
00000160: 67cf aa3a 613b 873c aef7 5f3d ce92 c03b
00000170: 5167 963d 1d58 9dbd bbf2 fc3c 4b92 493d
00000180: c79d 6d3c afe9 9fbd 532c 3dbd aaad e23c
00000190: ec0f a03d 4188 93bb e222 06bd 41c8 ad3b
000001a0: e8a8 3d3d 8c47 aabb ede3 823b 6c43 793d
000001b0: 3e52 95bd 5052 4c3c e3db 063c 6d3a 79bb
000001c0: 3851 2abd 8b2e aa3d 7ec8 263d 29b5 983d
000001d0: f9d5 2abd 2a0a 453d d389 78bd c3b7 17bd
000001e0: 48fc 9dbd 8214 7cbd ed98 87bd ae65 983d
000001f0: 4ba8 6d3d acd0 9e3d 5610 90ba cc18 63bd
00000200: 3879 9f3d 698d 153d 034c 703c 05cc 16bd
00000210: c3c4 97bd 6519 97bd 9f80 6c3c bcf0 013d
00000220: 5e63 513d d3ec 053d 3eb4 f03c d2a1 6c3d
00000230: f204 913d 3da4 85bd 073d 953d 0525 7abd
00000240: aa1d 6a3b aa90 353d 1680 843b c233 503d
00000250: 0b12 a03c 2914 a0bd afc7 7abc 0146 85bd
00000260: 06cc ff3c ff22 b0bc 8be7 6abd 8208 ea3c
00000270: fc43 8dbd 490e 9dbd e54c d5bb ced6 573c
00000280: 2f92 913d 2bea 173d 3f78 63bd 725c 913d
00000290: e2d7 cdbc e9a2 4cbb df66 68bd c6c9 a4bb
000002a0: 918d b4bb ee0f b3bb f48e 26bd eb6a 613d
000002b0: 15dc 763d b0a7 11bd f652 98bd aabf 4a3c
000002c0: efd4 93bd d1bb 3f3d 103f 9b3d acf7 b23c
000002d0: 6a44 09bb 2291 d9bc aa9a 223c 60a2 8d3c
000002e0: 4d9e 813d 418b 5f3d 2610 54bd 5b3a 58bd
000002f0: 1951 11bb 071e c83b c69c c6bc 78f5 3fbd
00000300: 447d 88bd f4fd 413c 8f76 89bd 8990 6e3d
00000310: bc52 36bc ab66 083d 64ba e0bc 3ded 563d
00000320: 0941 ad3b a587 243d 5ca9 7ebd 8775 233d
00000330: 7a80 6abd dabc f8bc 29d0 0c3d ae55 77bc
00000340: eeee 623d 7d32 063c d7d3 4f3d 6043 66bc
00000350: 718e 3abd 83c4 9b3d 9d59 0d3d a16c 383d
00000360: a767 e33c 107a 493d 6e8b 633c c9a0 963c
00000370: 5a0d 4d3d bd24 553d 8748 62bd e709 0c3c
00000380: ee2a 523d d871 88bd 1580 aa3c 6158 883d
00000390: eb82 803d 16c1 46bc dc75 6b3d 54ac 973d
000003a0: c270 333d f53b 933c 0225 83bd e322 393d
000003b0: 58a3 1f3d f262 b3bc aecd 86bb 81d3 9dbd
000003c0: 88cf dfbc 3c47 e73b d208 96bd aa0a 503d
000003d0: b94e 7bbd 2d44 843b 1e9c b93c 6e37 33bd
000003e0: 1745 dd3c c344 41bc 73eb db3b 3399 88bd
000003f0: 3c2b 80bd c5dc 453d 510d 57bd 333f c73c
-0.016003756 0.051213846 0.063578695 0.047166277 0.05604332 0.045933414 0.063860424 -0.025305688
0.00095293036 -0.067090444 0.06705479 0.03466432 0.06525736 0.03568516 -0.049456943 -0.07250622
0.04085987 -0.041787248 -0.068267465 0.08076031 -0.0802795 -0.066182785 0.06653238 -0.082002886
-0.024427196 0.045872293 0.0012335349 -0.076747194 0.06156153 0.014935958 0.07224532 0.036071748
0.028664732 -0.010132773 -0.07977354 -0.008397129 0.046461593 0.011815409 0.0765959 -0.06802791
0.042517487 0.08132014 -0.027763193 0.066436574 0.024099797 0.017739974 -0.032139774 0.018776009
-0.045016088 0.06664548 0.030317819 0.026464164 0.048773337 0.05644747 -0.0014118995 0.04432004
0.042212594 -0.027462691 -0.03537275 -0.02375004 -0.0557173 0.06448329 0.041470934 0.050463222
-0.049124863 -0.038897336 0.07325367 -0.07568149 0.058054212 -0.062726766 0.06007059 -0.067204855
0.010472407 -0.06510557 0.005934485 -0.03363053 0.047771104 -0.048729252 0.056297936 0.03444532
0.042805262 0.0027351168 -0.026911689 0.016868552 -0.044174176 -0.06633796 -0.077698 0.05197336
0.0013031781 0.016507806 0.054679565 0.0058768755 0.07343925 -0.07682822 0.030877462 0.04921178
0.014502949 -0.078082435 -0.04618485 0.0276707 0.07815537 -0.0045023267 -0.03274811 0.005303413
0.04630366 -0.0051965173 0.003994456 0.060855314 -0.07291077 0.012470797 0.008231136 -0.003802921
-0.041581362 0.083096586 0.040718548 0.074564286 -0.041707966 0.048105396 -0.060678314 -0.037040483
-0.077141345 -0.061542995 -0.06620965 0.07441269 0.058021825 0.07754645 -0.0010991197 -0.05544357
0.077867925 0.036511812 0.01466656 -0.036815662 -0.07410576 -0.073778905 0.0144349625 0.031723723
0.051120155 0.032696556 0.029382821 0.05777151 0.07081021 -0.065254666 0.07287031 -0.06107046
0.0035723248 0.044327416 0.0040435893 0.05083061 0.019539854 -0.07816345 -0.015306397 -0.06507493
0.031225216 -0.021501062 -0.057349723 0.02856851 -0.068977326 -0.0766874 -0.0065094107 0.013173772
0.071079604 0.037088554 -0.055534597 0.07097711 -0.025127355 -0.0031225032 -0.05673873 -0.005028936
-0.00551004 -0.0054645455 -0.040663674 0.055033606 0.06026848 -0.03556031 -0.074376985 0.012374798
-0.07218348 0.046809975 0.075803876 0.021846615 -0.002094532 -0.026558463 0.00992457 0.01728934
0.063290216 0.054576162 -0.051773213 -0.052790027 -0.0022173582 0.006107095 -0.024244677 -0.046864957
-0.066645175 0.011840332 -0.067120664 0.05824331 -0.011128124 0.033301037 -0.027432628 0.05247234
0.005287294 0.040168423 -0.062173232 0.039907005 -0.05725143 -0.030363489 0.034378204 -0.015096111
0.055403642 0.008190748 0.050739136 -0.014054149 -0.045546 0.07605841 0.03450929 0.04502547
0.027759386 0.049188673 0.013888223 0.018387215 0.05006156 0.05203699 -0.05524495 0.008547283
0.051310472 -0.06662339 0.020813027 0.06657482 0.062749706 -0.012130996 0.057485446 0.07405916
0.043808706 0.017972926 -0.06403543 0.045199286 0.038974136 -0.021897767 -0.0041138744 -0.07706357
-0.027320638 0.0070580523 -0.07325901 0.05079142 -0.061354373 0.0040364475 0.02265745 -0.043754034
0.027010484 -0.011796179 0.0067114173 -0.066698454 -0.06258246 0.048306245 -0.052502934 0.024322128

conv_block_4.5.bias f4 [16]
00000000: 1c55 60bd 5078 483d 3d7a 02bc 4c52 8b3b
00000010: 8e80 b63c 5be8 9f3c 148a 393d 8b59 9abb
00000020: 2eea 8dbd 7cb0 133b e00f 3fbd d076 8a3c
00000030: 464f b0bc 5061 b4bc d415 6bbd e8e7 9e3d
-0.054768667 0.048942864 -0.007963714 0.004251754 0.022278097 0.019519975 0.045297697 -0.0047103814
-0.06929432 0.0022535613 -0.046646 0.016902357 -0.021522176 -0.022019058 -0.057393864 0.07759076

conv_block_5.0.weight f4 [16]
00000000: 5400 803f 4800 803f 0900 803f fbff 7f3f
00000010: 46ff 7f3f 7dff 7f3f 1000 803f bfff 7f3f
00000020: b6ff 7f3f c8ff 7f3f d8ff 7f3f acff 7f3f
00000030: e3ff 7f3f 1300 803f 0800 803f 4400 803f
1.00001 1.0000086 1.0000011 0.9999997 0.9999889 0.9999922 1.0000019 0.9999961
0.9999956 0.99999666 0.9999976 0.999995 0.9999983 1.0000023 1.000001 1.0000081

conv_block_5.0.bias f4 [16]
00000000: 9909 1337 2f37 1435 1edd c936 e7eb 18b6
00000010: 6ebf 69b6 f7ad 7735 f07b 55b6 dd7f adb6
00000020: df85 9eb6 389b 4836 b656 8bb5 1f09 b733
00000030: d387 9d34 a977 1135 e895 29b7 9cb8 af36
8.764117e-06 5.52146e-07 6.0160082e-06 -2.2787078e-06 -3.4831132e-06 9.226782e-07 -3.1811614e-06 -5.170687e-06
-4.7243516e-06 2.9892672e-06 -1.0381543e-06 8.523261e-08 2.9342354e-07 5.419084e-07 -1.0108088e-05 5.236898e-06

conv_block_5.0.running_mean f4 [16]
00000000: ea4f 183e 2cc9 fb3d e71e 60bc 8aec d73c
00000010: 68ff 483d 6d1e e73d f443 323e b293 8dbd
00000020: 2058 dabd 3e34 da3d 5942 a93d 81fe 38bd
00000030: a60e 293d a677 353d 7b7d 7f3c a294 033e
0.14874235 0.1229423 -0.013679243 0.026357908 0.0490717 0.112851 0.17408735 -0.06912936
-0.1066134 0.10654496 0.08264608 -0.04516459 0.041273735 0.04430356 0.015593882 0.12849668

conv_block_5.0.running_var f4 [16]
00000000: 2cdf 2c3f 5956 2a3f 96ae 2a3f 03a1 2b3f
00000010: d2fc 293f 197c 2f3f b10b 2f3f 773a 293f
00000020: 5cea 2d3f a4d1 2b3f ee54 2b3f ba70 2a3f
00000030: d89d 293f 6690 2b3f 1f55 293f 4319 2d3f
0.67528033 0.66538006 0.66672647 0.6704256 0.664014 0.68548733 0.68377215 0.66104835
0.6793573 0.6711676 0.6692647 0.6657826 0.66256475 0.6701721 0.6614551 0.6761667

conv_block_5.2.weight f4 [32, 16, 3, 3]
00000000: ec85 2abc ac5a 583d 5d3a a43d ad2d 273c
00000010: 8a80 2d3c 26b8 9e3c eae1 8bbd 4164 d7bb
00000020: 221a 3d3d 4c21 95bd fb08 75bb 5c70 55bd
00000030: 761a dbbb 18ca 083a 5f13 5d3d 2943 29bd
00000040: cae2 9bbd 1942 023d 8d79 a9bd 55b7 91bc
00000050: a961 1f3d e1c7 933d bca2 80bd f65e 8b3d
00000060: 6106 c9bc 0de1 54bd 3e99 2bbd c6f3 923c
00000070: 92b4 4dbd 2fe7 febc 6f1e 393d b7af 28bb
00000080: 897a d1bc 060b a1bd c614 a83d 90c6 2cbd
00000090: 3271 9f3d 248c 9ebd 51a9 f1bc c011 a63d
000000a0: 84c0 313d 6784 61bd a5fe a33d 8e52 86bc
000000b0: 18cb 7abd 0113 883d 1fb3 233c d2fb 853c
000000c0: 082e 11bd fca4 c7bb 1ae9 85bc 9782 b63c
000000d0: 3cd8 8abd 9a87 eabc c59a 40bd 82b1 89bc
000000e0: 8790 19bc 76cc 37bd 9768 173d a354 f2bc
000000f0: b754 41bc 7090 2f3d 5b93 1b3d 2079 8e3c
00000100: d8bf 9fbc f84d c43c fa0b 9b3d 63ce 06bd
00000110: 0f27 a53d 4ff4 bebc c6c9 443d e3ef 013c
00000120: 3160 b8bc 853c 79bd 248b 543c 7823 883d
00000130: f8ad 823d 2931 2fbd 329a 88bc 19b3 06bd
00000140: ed22 e7bc 5bc3 11bc 4994 7f3d 4589 80bd
00000150: 463f 2c3d edc0 933d b930 29bd 110b 7fbd
00000160: 44ce 80bd a10f 94bd ab12 393d 7bf5 8bbc
00000170: 24bc 1bbd 0759 9ebd 2a72 9e3d 9fc6 67bd
00000180: 7a4e 6dbd f732 cd3c e318 9dbd 7d42 eebc
00000190: 8b44 013b a841 91bd 3f7c 4dbd 5af2 17bc
000001a0: f8f5 bbba e2c1 6c3d 7b4f 5d3d 17e5 8e3d
000001b0: eace 8abd 1980 03bd 4326 a53d 60db fabc
000001c0: b7cb 023d 4d84 2cbb 4472 853d e78c 58bc
000001d0: 5273 62bd e40d 7ebd bd26 85bd 7972 3bbd
000001e0: 3f54 1cbc 9e9d cc3c 3ffc 933c a880 3f3c
000001f0: 6375 99bd adcd ec3c 023e f93b 87bb 32bd
00000200: a422 60bd 26d8 e3bc b01c 9b3c 3901 813d
00000210: ad3c 7f3d 20d1 2bbd 33f7 9c3d 5c02 33bd
00000220: d0b3 95bd bdfa 8d3d 8a89 153d 54ae 2a3d
00000230: 1149 06bd 3646 043d e290 a8bd 9aa1 d2bb
00000240: 00d0 67bc cb69 2cbd ac2c cabb 0e72 3cbd
00000250: ff5b 9cbd 7d58 8c3d 668f fd3c 6173 913b
00000260: 048b 28bd c0b2 583d f69e 1c3d 713d 5a3c
00000270: 9fe4 923d 3445 6fbc 7ec2 fb3a 1af0 8a3d
00000280: ae42 1abd 112b 933d 65e2 9dbc 2c0c 403d
00000290: 1647 f53c 6c23 3bbd c49f 5c3d 00d2 89bd
000002a0: e5b0 70bc 52e7 04bd f7c5 393d ea6a 1d3d
000002b0: cb03 3dbd 7e7d a93d 07fe 32bb 226e 933d
000002c0: 172b a73c 91d1 9ebd 3d89 eb3c b8d9 d83c
000002d0: e76d 803d bbf8 18bd 501b 80bd 6b07 6b3d
000002e0: 43b1 99bd 99f4 6cbd 842d 4d3d 9c63 a13d
000002f0: ea86 9e3d 7629 febc 90d5 d8bc f468 27bd
00000300: efed 983d 134b 9b3d 60fc 98bd 84f1 763d
00000310: 1590 92bd 3a63 42bc 26c9 a9bd 3152 5cbc
00000320: 436d a13d 5f23 8cbd ed2c a53d f157 863d
00000330: 19d4 4cbc 9d6d 36bd 571e 45bd f0bf 123d
00000340: 4e02 17bd 4e6b a23d 79fe 6b3c b6dc a0bd
00000350: 458a c33c aad8 1d3d 2840 20bd a240 423d
00000360: 0a67 c1bb 5eb2 79bc cc46 10bc 9d73 ec3c
00000370: e677 38bd 0fd5 923a 00b2 4fbb e0b8 613d
00000380: 3029 0fbd 3e0f 21bd 86ed 3abc f8e4 dcbb
00000390: 14a0 973d 1f4a 7db9 b6f6 4ebc fce4 11bd
000003a0: 7d6f 723d 5173 913d 5449 8d3b 7e6a 103d
000003b0: 559d 6d3c 5618 843d 6d0f 89bd 118b 1e3d
000003c0: 0daa 2cbd a0f4 1e3d 57f6 64bd 33aa 7e3c
000003d0: 7e96 c23b cfb6 733d 9451 073d 805f 0a3c
000003e0: 7d8c 0a3c 35fd 70bc ba0b 9ebd c305 88bd
000003f0: 8a91 cabb 0406 91bb f41e b8bb 6bc1 9b3c
-0.010407906 0.052820846 0.080189444 0.010203761 0.010589728 0.019374918 -0.06830199 -0.0065732305
0.0461675 -0.072817415 -0.0037389386 -0.052109107 -0.006686504 0.00052181026 0.05397355 -0.041323815
-0.07611616 0.031801317 -0.08275137 -0.017787615 0.038911495 0.07215858 -0.06281039 0.06805222
-0.024539175 -0.051972438 -0.04189419 0.017938506 -0.050221033 -0.031116096 0.04519504 -0.00257395
-0.025571125 -0.07863431 0.08207087 -0.04218155 0.07785262 -0.077415735 -0.029499682 0.08108854
0.043396488 -0.05505791 0.08007554 -0.016396787 -0.06122884 0.0664425 0.009991436 0.016355429
-0.03544429 -0.0060926657 -0.016346503 0.022279067 -0.06779525 -0.028629113 -0.0470226 -0.016808275
-0.009372837 -0.044872724 0.03696498 -0.029581374 -0.011799983 0.042862356 0.037982326 0.017391741
-0.019500658 0.02396296 0.07570644 -0.03291167 0.080640905 -0.023309855 0.04804399 0.007930729
-0.022506805 -0.06084873 0.012972627 0.0664739 0.06380838 -0.042771492 -0.016675089 -0.032885645
-0.028214896 -0.008896674 0.062397275 -0.06276182 0.04205253 0.07214532 -0.04130623 -0.062266413
-0.06289342 -0.072295435 0.04518382 -0.017084828 -0.03802122 -0.07731824 0.07736619 -0.056585904
-0.05793617 0.025048716 -0.076707624 -0.029084438 0.0019724693 -0.07092601 -0.05016732 -0.00927409
-0.0014340272 0.05780209 0.054030877 0.06977289 -0.06777747 -0.032104585 0.080639385 -0.030622184
0.03193256 -0.0026323975 0.06515935 -0.0132171875 -0.05528576 -0.062024966 -0.06501529 -0.045763467
-0.00954157 0.024977501 0.018064616 0.011688389 -0.07493093 0.028906668 0.007606269 -0.04363587
-0.054720536 -0.027813029 0.018934578 0.06299061 0.062313724 -0.041947484 0.07664337 -0.043703422
-0.07309687 0.0693259 0.03650812 0.04167016 -0.032784525 0.03229352 -0.08230759 -0.006427956
-0.014148712 -0.04209308 -0.006169876 -0.04600721 -0.07634734 0.06852815 0.030952167 0.004438803
-0.0411482 0.052904844 0.038237534 0.013320313 0.07172512 -0.014603902 0.0019207743 0.06784077
-0.037661247 0.07185949 -0.019272992 0.046886608 0.029941123 -0.045688078 0.053863302 -0.067295074
-0.014690612 -0.032447167 0.04535481 0.03843204 -0.046146195 0.08275889 -0.0027312057 0.071987405
0.020406289 -0.07754815 0.028751964 0.026471004 0.06270962 -0.037346583 -0.062552094 0.05738012
-0.07504513 -0.057850454 0.050092235 0.07880327 0.077405766 -0.03102563 -0.026469022 -0.040871575
0.07467257 0.07582679 -0.07470012 0.06028892 -0.07156388 -0.011864478 -0.08290319 -0.01344733
0.07882168 -0.06842684 0.080652095 0.06559742 -0.01250174 -0.04453813 -0.048124637 0.035827577
-0.036867432 0.07930623 0.014403933 -0.07854597 0.023869643 0.038536705 -0.039123684 0.04742492
-0.005902176 -0.01524028 -0.008805942 0.028863722 -0.04503622 0.0011202412 -0.003169179 0.05510795
-0.03495139 -0.039321177 -0.011409169 -0.0067411624 0.07403579 -0.00024155572 -0.012632063 -0.035618767
0.059188355 0.07102073 0.00431172 0.03525781 0.014502843 0.06449954 -0.06692395 0.038706843
-0.04215436 0.03880751 -0.05589899 0.015543508 0.00593835 0.05950051 0.033036783 0.008445621
0.008456347 -0.014708807 -0.077170804 -0.06641724 -0.0061819004 -0.004425766 -0.0056189243 0.019013127

conv_block_5.2.bias f4 [32]
00000000: ddc0 1d3d 2cc0 393d ce12 cd3c 00a7 32bd
00000010: 420e 12bd fcd1 85bd dae5 07bd 36e9 be3c
00000020: 7429 583d 80a4 a23d 332f 1abc 4b3b a7bd
00000030: 4a4c ac3c 5a29 3a3b e3dc 91bd 8c56 0ebd
00000040: b846 f5bc f01c 97bd 08a8 893c 2442 103c
00000050: 0734 9ebd 4ec9 c33c 57d3 08bd 415a 193d
00000060: 42eb 0c3d 21b2 8c3d b62d babc fd6b 42bd
00000070: c4f7 a73d 7b4d 203c fc06 8bb9 3228 8abd
0.038514007 0.045349285 0.02503338 -0.043616295 -0.03565813 -0.06534192 -0.033178188 0.023304563
0.052773908 0.07941532 -0.009410667 -0.08165606 0.021032471 0.0028405995 -0.07122209 -0.034750506
-0.029940948 -0.07378566 0.016803756 0.008804832 -0.07724767 0.0238997 -0.033404674 0.03743959
0.034404047 0.06869913 -0.022726875 -0.047466267 0.082015544 0.009784098 -0.0002651735 -0.06745948

conv_block_5.3.weight f4 [32]
00000000: caff 7f3f 1400 803f 1e00 803f d2ff 7f3f
00000010: 0a00 803f 1700 803f b2ff 7f3f f7ff 7f3f
00000020: deff 7f3f 5aff 7f3f 0900 803f 0100 803f
00000030: faff 7f3f 0e00 803f 0600 803f 0e00 803f
00000040: 0c00 803f 1000 803f 0100 803f 6fff 7f3f
00000050: e0ff 7f3f e3ff 7f3f f1ff 7f3f 1500 803f
00000060: e4ff 7f3f 93ff 7f3f 5a00 803f 1d00 803f
00000070: 2d00 803f e0ff 7f3f 74ff 7f3f faff 7f3f
0.9999968 1.0000024 1.0000036 0.99999726 1.0000012 1.0000027 0.99999535 0.99999946
0.999998 0.9999901 1.0000011 1.0000001 0.99999964 1.0000017 1.0000007 1.0000017
1.0000014 1.0000019 1.0000001 0.99999136 0.9999981 0.9999983 0.9999991 1.0000025
0.99999833 0.9999935 1.0000107 1.0000035 1.0000054 0.9999981 0.99999166 0.99999964

conv_block_5.3.bias f4 [32]
00000000: 14a5 2fb6 f598 d634 2a7f 3ab6 51de 1ab6
00000010: d439 03b5 6aea 1936 848e aab6 c490 7536
00000020: 71db ba34 78e6 35b6 4956 8fb5 a96b dc36
00000030: 9686 ceb5 3a93 1236 25e6 9634 1e24 0f36
00000040: 7e0b 8236 8d62 b3b1 d71d 2136 5a21 8ab6
00000050: 8782 97b5 49bb 40b6 ffdb 5e35 3a1f 2336
00000060: e865 bcb5 a59c 5bb6 0c92 2d36 340e fbb5
00000070: 56ab c035 2d49 89b6 3ae5 93b5 3e60 6b35
-2.617312e-06 3.9971897e-07 -2.779018e-06 -2.3077193e-06 -4.8885454e-07 2.2935224e-06 -5.082986e-06 3.659211e-06
3.4804864e-07 -2.7105252e-06 -1.0679443e-06 6.569044e-06 -1.5387366e-06 2.1841392e-06 2.810713e-07 2.1329683e-06
3.87564e-06 -5.2207896e-09 2.4008239e-06 -4.116603e-06 -1.1288365e-06 -2.8719244e-06 8.302158e-07 2.430707e-06
-1.403675e-06 -3.2724722e-06 2.586402e-06 -1.8705091e-06 1.435498e-06 -4.091437e-06 -1.1019067e-06 8.768437e-07

conv_block_5.3.running_mean f4 [32]
00000000: d45c 67bd 1c4c 543d c481 223d 6179 21bd
00000010: 3460 6ebd 7126 f73b fee0 71bc dcd0 c5bc
00000020: fc79 323d 2c04 3c3d 3168 c4bc 4db9 ccbd
00000030: bf4b 863d 8319 d7bc 0bfc 333d b143 82bd
00000040: 81e4 583d bf34 4bbd 48c0 41bd 4e08 1abb
00000050: cb5e a5bd cd16 153e 6497 8ebd 50f8 f7bc
00000060: 3593 84bd 829c 98bd 2595 423d 38ca 0b3d
00000070: 381f 093e b0ab 003e 8cff d63c c853 1c3d
-0.056485012 0.051830396 0.039674535 -0.039422397 -0.058197215 0.0075424244 -0.014763115 -0.024147443
0.043573365 0.045902416 -0.023975464 -0.09996281 0.06557416 -0.026257282 0.04394154 -0.06360567
0.052952293 -0.04961085 -0.047302514 -0.0023503485 -0.08074721 0.14559479 -0.06962469 -0.030269772
-0.0647339 -0.074517265 0.047505517 0.034128398 0.13390815 0.12565494 0.026244901 0.038165838
