cloud-detection-code/tests/test_artifacts/test_sgd/model_checkpoint_6.pt (torch, 287733 bytes, 250 tensors)

input_conv_block.0.weight f4 [3]
0.9999922 0.9999922 0.9999922
00000000: 7dff 7f3f 7dff 7f3f 7dff 7f3f

input_conv_block.0.bias f4 [3]
0.0 0.0 0.0
00000000: 0000 0000 0000 0000 0000 0000

input_conv_block.0.running_mean f4 [3]
0.0 0.0 0.0
00000000: 0000 0000 0000 0000 0000 0000

input_conv_block.0.running_var f4 [3]
0.079766445 0.079766445 0.079766445
00000000: 975c a33d 975c a33d 975c a33d

input_conv_block.2.weight f4 [2, 3, 1, 1]
0.05358839 0.49778166 -0.13562593 0.024298118 -0.5696701 -0.24052854
00000000: 807f 5b3d 3ddd fe3e 86e1 0abe d90c c73c
00000010: e6d5 11bf 1d4d 76be

conv_block_1.0.weight f4 [2]
0.9999922 0.9999922
00000000: 7dff 7f3f 7dff 7f3f

conv_block_1.0.bias f4 [2]
0.0 0.0
00000000: 0000 0000 0000 0000

conv_block_1.0.running_mean f4 [2]
0.0 0.0
00000000: 0000 0000 0000 0000

conv_block_1.0.running_var f4 [2]
0.079766445 0.079766445
00000000: 975c a33d 975c a33d

conv_block_1.2.weight f4 [2, 2, 3, 3]
-0.032377243 -0.03341626 -0.008984571 -0.037825003 -0.0073441737 0.14466192 0.034043297 0.12652385
-0.0034923425 -0.10517011 0.092739545 -0.12571914 0.13553782 0.04979394 0.20750812 0.091564424
-0.11734431 -0.18465953 0.234775 0.09175399 0.17405827 -0.13358955 -0.07092204 -0.0743692
-0.22591467 -0.16421199 -0.020308943 0.028993662 0.0058501936 -0.1297253 0.014171235 0.1424954
-0.1008509 -0.04039887 -0.01404392 0.22232254
00000000: 009e 04bd 7ddf 08bd 0634 13bc 64ee 1abd
00000010: 65a7 f0bb 4122 143e fc70 0b3d 788f 013e
00000020: c9df 64bb 6d63 d7bd 3bee bd3d 85bc 00be
00000030: 6dca 0a3e bbf4 4b3d 027d 543e 2186 bb3d
00000040: 3752 f0bd 6317 3dbe dc68 703e 84e9 bb3d
00000050: 553c 323e b3cb 08be 933f 91bd e14e 98bd
00000060: 2d56 67be 3027 28be f15e a6bc 1e84 ed3c
00000070: fbb2 bf3b b6d6 04be 782e 683c 50ea 113e
00000080: eb8a cebd 4979 25bd 7818 66bc 85a8 633e

conv_block_1.2.bias f4 [2]
-0.06898481 -0.19134629
00000000: e847 8dbd 48f0 43be

conv_block_1.3.weight f4 [2]
0.9999922 0.9999922
00000000: 7dff 7f3f 7dff 7f3f

conv_block_1.3.bias f4 [2]
0.0 0.0
00000000: 0000 0000 0000 0000

conv_block_1.3.running_mean f4 [2]
-0.06348234 -0.17608386
00000000: 0703 82bd 544f 34be

conv_block_1.3.running_var f4 [2]
0.079766445 0.079766445
00000000: 975c a33d 975c a33d

conv_block_1.5.weight f4 [2, 2, 3, 3]
0.20607673 0.22793832 0.17926332 0.16869232 -0.03850714 -0.13186981 -0.121204935 -0.1486081
-0.07028548 -0.06652037 -0.21423534 0.033667345 0.23493248 -0.111203134 -0.0796108 -0.16566448
-0.038349755 -0.19463053 0.08566498 0.1118074 0.22274154 -0.025684992 0.2347602 -0.119895376
-0.18506823 -0.14043325 -0.07523101 0.08156427 -0.12296598 0.00058555143 0.21390139 -0.112414785
0.17711423 -0.16206941 0.13021085 0.09581223
00000000: c705 533e aa68 693e ce90 373e aebd 2c3e
00000010: aab9 1dbd e108 07be 4b3a f8bd b92c 18be
00000020: d5f1 8fbd d53b 88bd 8260 5bbe c5e6 093d
00000030: 2492 703e 78be e3bd fd0a a3bd f3a3 29be
00000040: a214 1dbd 3a4d 47be 1f71 af3d 47fb e43d
00000050: 5c16 643e 5569 d2bc fa64 703e b58b f5bd
00000060: 8782 3dbe bccd 0fbe b712 9abd 2b0b a73d
00000070: 96d5 fbbd b17f 193a f708 5b3e b939 e6bd
00000080: 6f5d 353e 86f5 25be fe55 053e 3439 c43d

conv_block_1.5.bias f4 [2]
0.008348742 0.061199766
00000000: 29c9 083c 9bac 7a3d

conv_block_2.0.weight f4 [2]
0.9999922 0.9999922
00000000: 7dff 7f3f 7dff 7f3f

conv_block_2.0.bias f4 [2]
0.0 0.0
00000000: 0000 0000 0000 0000

conv_block_2.0.running_mean f4 [2]
0.0076828175 0.056318264
00000000: 25c0 fb3b fbad 663d

conv_block_2.0.running_var f4 [2]
0.079766445 0.079766445
00000000: 975c a33d 975c a33d

conv_block_2.2.weight f4 [4, 2, 3, 3]
-0.14779861 0.22129087 0.042109948 -0.13895458 -0.12189594 0.013678175 -0.08067011 -0.08930308
0.12191959 -0.13944888 -0.106693685 0.17377532 -0.026698887 0.1369511 -0.17880502 0.19577701
-0.046748172 0.20361361 0.10042283 -0.029359514 0.034027234 -0.054863945 0.13861267 0.2045401
-0.20967539 0.0697539 0.02875292 -0.09222398 0.13415188 -0.18302906 0.21450962 0.029806394
-0.19245046 0.017170131 0.118825145 0.0936997 0.18721229 -0.21328178 0.08182802 -0.03549802
-0.024226906 0.00789353 -0.042895574 -0.015746975 -0.13053282 -0.061498486 0.07280188 0.010457567
-0.011602712 -0.062028665 -0.19525783 -0.1989151 -0.013633353 0.053875398 0.1438726 0.23383147
-0.047209214 0.22764839 -0.12861751 -0.03380226 0.14078721 -0.2049727 -0.012373126 0.20502588
-0.14213373 -0.14799482 -0.17225546 0.1637896 0.052257385 0.116731845 0.11411355 0.14471428
00000000: 8558 17be 139a 623e 7b7b 2c3d 1c4a 0ebe
00000010: 94a4 f9bd 6d1a 603c 5f36 a5bd 89e4 b6bd
00000020: fab0 f93d b0cb 0ebe 3882 dabd 28f2 313e
00000030: a0b7 dabc e93c 0c3e aa18 37be c579 483e
00000040: 037b 3fbd 1680 503e 7caa cd3d 5d83 f0bc
00000050: 2460 0b3d 04b9 60bd 7bf0 0d3e f672 513e
00000060: 25b5 56be 22db 8e3d 3e8b eb3c eddf bcbd
00000070: 1c5f 093e f86b 3bbe 69a8 5b3e 8a2c f43c
00000080: bc11 45be 60a8 8c3c 995a f33d a1e5 bf3d
00000090: 94b4 3f3e 8a66 5abe 7395 a73d 5f66 11bd
000000a0: 8177 c6bc dd53 013c 45b3 2fbd cdff 80bc
000000b0: 65aa 05be d6e5 7bbd 2719 953d 3756 2b3c
000000c0: 4d19 3ebc c511 7ebd abf1 47be 66b0 4bbe
000000d0: 6d5e 5fbc 73ac 5c3d 5753 133e 8471 6f3e
000000e0: 735e 41bd a91c 693e 4fb4 03be 3d74 0abd
000000f0: 862a 103e 5de4 51be a7b8 4abc 4ef2 513e
00000100: 818b 11be f48b 17be bc63 30be 76b8 273e
00000110: d70b 563d 1b11 ef3d 5db4 e93d fb2f 143e

conv_block_2.2.bias f4 [4]
0.037990555 0.16808161 -0.14573666 0.2211767
00000000: fc9b 1b3d 961d 2c3e fe3b 15be 257c 623e

conv_block_2.3.weight f4 [4]
0.9999922 0.9999922 0.9999922 0.9999922
00000000: 7dff 7f3f 7dff 7f3f 7dff 7f3f 7dff 7f3f

conv_block_2.3.bias f4 [4]
0.0 0.0 0.0 0.0
00000000: 0000 0000 0000 0000 0000 0000 0000 0000

conv_block_2.3.running_mean f4 [4]
0.0349603 0.15467484 -0.1341122 0.2035349
00000000: 8832 0f3d 1563 1e3e b554 09be 746b 503e

conv_block_2.3.running_var f4 [4]
0.079766445 0.079766445 0.079766445 0.079766445
00000000: 975c a33d 975c a33d 975c a33d 975c a33d

conv_block_2.5.weight f4 [4, 4, 3, 3]
-0.13170473 -0.08693576 0.030340673 0.0048647583 0.039484307 -0.03785719 -0.0026447712 -0.09726748
0.040619303 0.09914438 -0.07071034 -0.010156416 -0.001989945 -0.009355948 -0.100353286 -0.14574307
0.09826644 0.09497771 -0.11709678 -0.15417281 0.12655357 0.07028613 -0.031623352 -0.057812117
-0.031361256 -0.0100276265 0.008393654 -0.040599544 -0.06984232 -0.05000212 0.14090738 0.096294045
0.11176892 -0.08535838 0.128127 0.028978955 -0.16552563 0.07290813 -0.14465477 0.1442375
-0.057751544 0.11566675 0.15931547 -0.07310215 0.0492409 -0.049897064 0.026810244 -0.12899342
0.1023302 -0.028834116 -0.12115019 -0.12983772 0.13452896 0.08178211 -0.016240545 0.1434729
0.027758244 -0.053755995 0.15604416 -0.06609089 0.1028915 -0.04544803 -0.109267734 -0.13063428
-0.16202094 -0.06476503 -0.15995565 0.1361245 0.12123897 -0.070284024 0.12876545 -0.08109489
-0.08443271 0.052393626 0.048730124 0.012493334 0.15705544 -0.11043028 -0.079404265 0.14698227
0.009071102 -0.07929539 -0.104737304 0.119104534 0.11071727 0.14110303 -0.0779169 0.08116608
0.12460189 -0.15217677 0.00063025445 0.10941022 -0.11397556 0.07453401 -0.12450445 0.097995386
-0.12883113 -0.09879873 0.1043757 0.14963925 0.1426793 -0.0003841489 -0.08366322 -0.14433052
0.090268575 -0.011638922 0.037617166 -0.1061932 0.08040452 -0.08684202 0.06223393 0.028397039
-0.046743635 0.005410331 0.050919596 -0.025229538 0.033157576 -0.0011382761 0.098140195 -0.005961952
0.041814115 -0.1521035 -0.15552299 0.009805602 0.15247715 -0.068964124 0.093029134 0.043173227
0.03133512 -0.07919764 -0.15625514 -0.004704513 -0.15009756 -0.13249378 0.0203124 -0.02940596
0.0023079931 -0.012214758 -0.106509864 0.0815688 -0.09230155 -0.14253162 -0.12685116 0.16152704
00000000: 9bdd 06be 600b b2bd 018d f83c 8d68 9f3b
00000010: 4cba 213d 2410 1bbd e653 2dbb 2c34 c7bd
00000020: 6d60 263d 350c cb3d 95d0 90bd 1967 26bc
00000030: bd69 02bb b149 19bc 0686 cdbd ac3d 15be
00000040: ea3f c93d ac83 c23d 70d0 efbd 7adf 1dbe
00000050: 4297 013e 2df2 8f3d 7d87 01bd 66cc 6cbd
00000060: a974 00bd ea4a 24bc 8985 093c b54b 26bd
00000070: 7e09 8fbd 06cf 4cbd 064a 103e d035 c53d
00000080: 1be7 e43d 60d0 aebd b933 033e 4665 ed3c
00000090: 8d7f 29be dc50 953d 6120 14be ffb2 133e
000000a0: e28c 6cbd b0e2 ec3d 9823 233e 94b6 95bd
000000b0: d3b0 493d dd60 4cbd 28a1 db3c da16 04be
000000c0: 7f92 d13d 8635 ecbc 971d f8bd 2ef4 04be
000000d0: f6c1 093e 617d a73d e40a 85bc 8fea 123e
000000e0: 4265 e33c 3f2f 5cbd 0aca 1f3e a95a 87bd
000000f0: c7b8 d23d b727 3abd c3c7 dfbd fec4 05be
00000100: d1e8 25be 87a3 84bd 6acb 23be 3964 0b3e
00000110: 234c f83d 12f1 8fbd 17db 033e 1415 a6bd
00000120: 0feb acbd b39a 563d 3d99 473d d7b0 4c3c
00000130: 24d3 203e 4529 e2bd b49e a2bd 8582 163e
00000140: f69e 143c 9f65 a2bd 8380 d6bd 14ed f33d
00000150: bcbf e23d 507d 103e e592 9fbd 673a a63d
00000160: 472f ff3d 3ad4 1bbe a937 253a 7712 e03d
00000170: 056c e9bd 49a5 983d 30fc febd ceb1 c83d
00000180: 4fec 03be fd56 cabd edc2 d53d 083b 193e
00000190: 861a 123e 9867 c9b9 9f57 abbd 61cb 13be
000001a0: bbde b83d 2db1 3ebc 7514 1a3d d27b d9bd
000001b0: 20ab a43d 3bda b1bd 01e9 7e3d e8a0 e83c
000001c0: 4176 3fbd 2549 b13b 1191 503d 2dae cebc
000001d0: 3dd0 073d 3532 95ba bafd c83d 7a5c c3bb
000001e0: 4745 2b3d 05c1 1bbe 6b41 1fbe ada7 203c
000001f0: f822 1c3e 103d 8dbd 0f86 be3d 69d6 303d
00000200: 4159 003d 5f32 a2bd 5901 20be 5128 9abb
00000210: 2db3 19be 73ac 07be 3166 a63c c5e4 f0bc
00000220: b341 173b 6920 48bc d821 dabd 8b0d a73d
00000230: 9808 bdbd cff3 11be 45e5 01be 5867 253e

conv_block_2.5.bias f4 [4]
-0.059233617 -0.10255317 0.076554805 0.15047336
00000000: f39e 72bd 6507 d2bd c4c8 9c3d b015 1a3e

conv_block_3.0.weight f4 [4]
0.9999922 0.9999922 0.9999922 0.9999922
00000000: 7dff 7f3f 7dff 7f3f 7dff 7f3f 7dff 7f3f

conv_block_3.0.bias f4 [4]
0.0 0.0 0.0 0.0
00000000: 0000 0000 0000 0000 0000 0000 0000 0000

conv_block_3.0.running_mean f4 [4]
-0.054508943 -0.09437318 0.07044855 0.13847108
00000000: c544 5fbd ba46 c1bd 5447 903d 5dcb 0d3e

conv_block_3.0.running_var f4 [4]
0.079766445 0.079766445 0.079766445 0.079766445
00000000: 975c a33d 975c a33d 975c a33d 975c a33d

conv_block_3.2.weight f4 [8, 4, 3, 3]
0.075991675 0.1110065 0.064083144 0.081828244 0.16638675 0.14000854 -0.1275279 -0.019010497
-0.11847026 0.06564456 -0.1083538 0.08474225 -0.032723807 -0.06600357 -0.01125674 0.16236976
0.058473144 -0.0190185 -0.16440518 -0.05409799 0.041926038 0.11490017 -0.07727159 -0.023607945
-0.13978946 -0.058608968 -0.10317319 0.057573028 -0.052185964 -0.018043663 -0.110115595 -0.05213997
0.11167579 -0.016154297 0.104379304 0.11722734 0.046266828 0.08276474 -0.10049481 0.02950128
-0.14819042 -0.07805735 -0.16557033 -0.083243065 0.050589476 0.1293195 -0.01341787 -0.08349742
-0.13668732 -0.11885284 -0.10606547 -0.051373165 -0.124186315 -0.110429585 -0.11635617 0.016141154
-0.10323773 -0.033609364 -0.06506694 -0.117863044 -0.107847825 0.11962142 -0.08695866 -0.0719119
-0.1486199 -0.093108535 0.0029652924 0.03355174 0.0950726 -0.09295994 0.11594093 0.14006281
0.038456775 0.016551169 -0.11987478 -0.15795523 0.15677172 -0.07792034 0.021096958 0.11890957
-0.12702586 -0.11917907 -0.011507672 0.14523713 -0.09074631 -0.15058328 -0.13611326 0.1440001
-0.076395676 0.08521428 -0.10771751 0.09215873 -0.024509728 -0.10515452 -0.11315267 0.09415568
0.080111444 0.027910488 -0.04481935 -0.120590776 0.0542885 0.087170884 0.09870971 -0.08516153
0.1094916 -0.14243914 0.15643975 -0.13245033 0.15883563 -0.037206 0.13424537 -0.02147896
-0.13377921 -0.16547363 0.15437032 0.16149113 -0.117072485 0.0565131 0.07587902 -0.07153037
0.11621028 -0.12503922 -0.03238909 -0.03524245 -0.06422757 -0.058082923 -0.03741284 0.15208092
-0.04226119 -0.013876045 -0.11567375 0.03983995 -0.046190668 -0.0954382 0.11891934 0.10931959
0.12235979 0.062405158 -0.044019617 -0.053683124 0.07022745 0.140643 -0.16197723 -0.14443448
0.12102219 -0.15130514 -0.029622486 -0.12435534 0.049099475 0.107253775 -0.028691318 -0.14777343
-0.024166705 0.084650606 -0.040341455 -0.0020643903 -0.09986352 -0.10508977 -0.03241369 -0.08087646
-0.15498832 0.012872476 0.00012975828 -0.055706415 0.0854575 -0.018456673 -0.10128462 -0.15741213
-0.03608135 0.014676412 -0.1652727 -0.113591015 -0.046955016 -0.10742067 -0.036998402 0.04189418
-0.14323717 0.059298392 0.021185603 -0.012271203 -0.10107529 -0.041505497 -0.16649775 -0.06254793
0.07083184 -0.06191615 -0.05350709 0.1268852 0.047053557 -0.021957003 0.042102125 -0.16206293
0.023027817 0.028113022 -0.0278762 -0.15746331 -0.15721597 -0.062450062 0.063988306 -0.030965384
-0.030695599 -0.014025502 -0.05509713 -0.010921884 0.014269478 0.035556447 0.11623636 -0.020157756
0.012199723 -0.07845048 0.16611615 -0.074400544 0.11574626 -0.12780441 0.1650444 -0.11007838
0.13496312 0.14366157 -0.10236975 0.14878933 -0.09714227 0.044915747 0.050982807 0.13749893
0.009827954 -0.014075987 0.074255906 0.1294737 0.112651184 -0.16338469 0.10221293 0.109736905
-0.08081759 0.0098727755 -0.0044836802 0.025808012 0.038210087 -0.07588329 0.15963939 -0.13589703
0.14940596 -0.0196118 0.14826095 -0.0567459 -0.15829718 0.010636663 -0.10016931 -0.012208679
-0.093046665 0.050348718 0.14418237 -0.117259346 -0.15598862 -0.010244944 -0.09258425 0.019871749
00000000: 86a1 9b3d 6057 e33d 063e 833d 9195 a73d
00000010: 4a61 2a3e 665e 0f3e ac96 02be e7bb 9bbc
00000020: 89a0 f2bd a870 863d 99e8 ddbd 588d ad3d
00000030: 6609 06bd e12c 87bd 316e 38bc 4244 263e
00000040: 8981 6f3d afcc 9bbc d559 28be db95 5dbd
00000050: a3ba 2b3d c850 eb3d 9140 9ebd 7365 c1bc
00000060: f824 0fbe f50f 70bd 774c d3bd b2d1 6b3d
00000070: f3c0 55bd 4ed0 93bc 4984 e1bd b990 55bd
00000080: 47b6 e43d 0456 84bc d1c4 d53d e314 f03d
00000090: 4982 3d3d 8f80 a93d 39d0 cdbd abac f13c
000000a0: 3bbf 17be 88dc 9fbd 458b 29be 577b aabd
000000b0: e936 4f3d 556c 043e a0d6 5bbc b200 abbd
000000c0: c3f7 0bbe 1e69 f3bd da38 d9bd ab6c 52bd
000000d0: 6555 febd e828 e2bd 254c eebd 743a 843c
000000e0: 4e6e d3bd f9a9 09bd d141 85bd 2e62 f1bd
000000f0: 52df dcbd 13fc f43d 6217 b2bd 8c46 93bd
00000100: d12f 18be b0af bebd 5a55 423b 8d6d 093d
00000110: 6cb5 c23d c861 bebd 7072 ed3d a06c 0f3e
00000120: da84 1d3d 5196 873c e980 f5bd 04bf 21be
00000130: c488 203e b394 9fbd 87d3 ac3c dc86 f33d
00000140: 1113 02be 2814 f4bd ad8a 3cbc 0bb9 143e
00000150: 34d9 b9bd 8132 1abe 4661 0bbe c374 133e
00000160: 5675 9cbd d384 ae3d ff9a dcbd b7bd bc3d
00000170: a0c8 c8bc 415b d7bd 96bc e7bd b1d4 c03d
00000180: 7811 a43d 89a4 e43c 7f94 37bd 4cf8 f6bd
00000190: 9e5d 5e3d a686 b23d 5128 ca3d 2b69 aebd
000001a0: 223d e03d 91db 11be be31 203e 0fa1 07be
000001b0: cfa5 223e 5265 18bd 9e77 093e a5f4 afbc
000001c0: 6bfd 08be eb71 29be 4113 1e3e ee5d 253e
000001d0: b3c3 efbd 487a 673d 7666 9b3d 847e 92bd
000001e0: a8ff ed3d 480a 00be 6caa 04bd 635a 10bd
000001f0: bf89 83bd 5ce8 6dbd 353e 19bd 1abb 1b3e
00000200: 121a 2dbd 5a58 63bc 5ce6 ecbd 372f 233d
00000210: 6d32 3dbd 1a75 c3bd fc8b f33d f3e2 df3d
00000220: c597 fa3d 8d9c 7f3d ea4d 34bd d6e2 5bbd
00000230: 69d3 8f3d b804 103e 5cdd 25be a2e6 13be
00000240: 7bda f73d bcef 1abe dbaa f2bc 03ae febd
00000250: 881c 493d dea7 db3d 0e0a ebbc eb51 17be
00000260: 41f9 c5bc 4c5d ad3d 153d 25bd b94a 07bb
00000270: 3f85 ccbd 4e39 d7bd 38c4 04bd 8fa2 a5bd
00000280: 42b5 1ebe 14e7 523c b90f 0839 692c 64bd
00000290: 5704 af3d 7332 97bc 506e cfbd a530 21be
000002a0: 0aca 13bd 5575 703c 3f3d 29be 68a2 e8bd
000002b0: e753 40bd 5eff dbbd a38b 17bd 3b99 2b3d
000002c0: c4ac 12be dfe2 723d 6e8d ad3c 280d 49bc
000002d0: 9000 cfbd ab01 2abd 637e 2abe 2119 80bd
000002e0: 4910 913d ca9b 7dbd 402a 5bbd 32ee 013e
000002f0: 3bbb 403d 2cdf b3bc 4773 2c3d d3f3 25be
00000300: d5a4 bc3c 484d e63c a15c e4bc 103e 21be
00000310: 39fd 20be a3cb 7fbd 4d0c 833d 1eab fdbc
00000320: 5675 fbbc 38cb 65bc 87ad 61bd b4f1 32bc
00000330: 87ca 693c a3a3 113d 540d ee3d e121 a5bc
00000340: 59e1 473c a5aa a0bd 5a1a 2a3e 505f 98bd
00000350: 600c ed3d 29df 02be 6601 293e c670 e1bd
00000360: c633 0a3e 051c 133e 3ba7 d1bd 3b5c 183e
00000370: 87f2 c6bd 93f9 373d 59d3 503d 85cc 0c3e
00000380: 6d05 213c f89e 66bc 7b13 983d c194 043e
00000390: aab5 e63d 514e 27be 0355 d13d bebd e03d
000003a0: b183 a5bd 6cc1 213c d6eb 92bb 536b d33c
000003b0: 2e82 1c3d b368 9bbd 8278 233e 9728 0bbe
000003c0: e0fd 183e eda8 a0bc b8d1 173e 646e 68bd
000003d0: a818 22be 6645 2e3c 9125 cdbd e906 48bc
000003e0: 408f bebd 753a 4e3d 8ba4 133e ab25 f0bd
000003f0: 7bbb 1fbe 69da 27bc d09c bdbd 14ca a23c

conv_block_3.2.bias f4 [8]
-0.087009996 -0.034027785 -0.11356883 -0.053881507 -0.12462523 -0.05451746 0.08947421 0.15140189
00000000: 4c32 b2bd b860 0bbd c696 e8bd dbb2 5cbd
00000010: 833b ffbd b34d 5fbd 413e b73d 1909 1b3e

conv_block_3.3.weight f4 [8]
0.9999922 0.9999922 0.9999922 0.9999922 0.9999922 0.9999922 0.9999922 0.9999922
00000000: 7dff 7f3f 7dff 7f3f 7dff 7f3f 7dff 7f3f
00000010: 7dff 7f3f 7dff 7f3f 7dff 7f3f 7dff 7f3f

conv_block_3.3.bias f4 [8]
0.0 0.0 0.0 0.0 0.0 0.0 0.0 0.0
00000000: 0000 0000 0000 0000 0000 0000 0000 0000
00000010: 0000 0000 0000 0000 0000 0000 0000 0000

conv_block_3.3.running_mean f4 [8]
-0.08006978 -0.031313613 -0.10451019 -0.049583737 -0.11468469 -0.050168965 0.08233743 0.13932557
00000000: a0fb a3bd b442 00bd 7009 d6bd 5118 4bbd
00000010: cfdf eabd f97d 4dbd 87a0 a83d 5dab 0e3e

conv_block_3.3.running_var f4 [8]
0.079766445 0.079766445 0.079766445 0.079766445 0.079766445 0.079766445 0.079766445 0.079766445
00000000: 975c a33d 975c a33d 975c a33d 975c a33d
00000010: 975c a33d 975c a33d 975c a33d 975c a33d

conv_block_3.5.weight f4 [8, 8, 3, 3]
0.10988749 -0.038281552 0.07011184 -0.036363263 0.05655905 -0.059651945 -0.08612622 -0.04754124
-0.042102795 0.08336629 0.06953064 0.09503711 0.00842245 -0.08203847 -0.06760027 -0.10064242
-0.09876982 -0.014485253 -0.04376413 0.03370997 -0.00504103 -0.039650038 -0.08335128 0.07533353
-0.11390792 -0.031836297 -0.020271251 -0.069327444 -0.05970918 0.06812275 -0.061658416 0.075601704
0.056038864 -0.060021136 -0.055892628 0.073375486 0.08746835 0.023027064 0.007130559 0.072446726
-0.021084776 0.055524275 0.10036329 -0.10847911 0.022778248 0.09572383 -0.08796109 -0.074503526
0.097787865 0.10551063 0.039803777 -0.088027984 -0.007849325 0.05539848 -0.022663908 -0.09469161
-0.06778816 0.013113181 -0.017389357 0.06778798 0.070477396 -0.083652064 0.0054816175 0.09714654
0.07750068 0.079881415 0.052598212 -0.071665965 -0.030879702 -0.044877734 0.0018661323 -0.015977973
0.07019004 0.009227301 0.043979414 -0.08525526 0.09788955 -0.04540911 0.10866866 0.037834607
-0.09146594 0.063980415 0.06901503 0.091076836 0.104509324 0.080752075 0.0944047 -0.06234695
-0.042019907 0.04539771 0.058000118 -0.03375447 -0.042144705 -0.029735114 -0.09499161 0.017869506
-0.08804341 -0.09875264 0.00084291486 -0.10356067 0.04809162 -0.027376354 0.11527493 -0.09291029
-0.0121551985 0.104910225 0.028050847 0.06879852 -0.009594088 -0.10901686 -0.09389859 -0.09539432
-0.020110842 -0.047441304 0.0027748877 -0.019185152 -0.087644935 -0.01775421 0.055526108 -0.008498341
-0.10706313 -0.06333249 -0.03611227 -0.08644319 0.01377702 0.054299086 0.03029331 0.040462803
0.11049429 0.054067705 0.015375635 0.045924574 -0.08586649 0.0134826815 0.021767095 0.109432414
-0.057828773 -0.017197624 -0.08370679 0.0047127083 0.10698465 -0.10237425 0.02921361 -0.043004673
-0.032627065 -0.11620342 -0.029184805 0.057447657 -0.067476 0.066352695 -0.028502425 0.022750935
-0.022188485 -0.11386292 -0.11335171 -0.09991368 0.11469396 -0.0933277 -0.02438152 0.00593773
0.027086843 0.087943055 -0.08651573 0.04998224 -0.0736836 0.10505319 -0.07395128 0.0595019
-0.028249122 0.057864964 -0.08320205 -0.07655734 0.07127045 -0.019702638 -0.11232895 -0.04529472
-0.044051126 0.100423746 -0.015499269 0.025478574 -0.07419404 0.019535052 -0.028229274 -0.050435636
0.012246028 0.05259261 0.023113655 -0.032727174 -0.024901738 0.07590643 -0.06974868 0.058515098
0.022258386 -0.047042433 -0.037773646 0.014664915 0.032293938 0.013235519 -0.0155130075 -0.058677226
0.09024398 -0.032409534 0.07825695 -0.03625305 0.05841088 0.10643091 -0.042468518 0.04103915
0.012101204 -0.11359804 0.07256561 -0.090271294 -0.008288839 0.008908524 -0.03681468 -0.039837178
0.04486193 -0.11318749 -0.09988443 -0.030414559 0.042215053 0.11475847 -0.0073823123 -0.104441606
-0.021952756 -0.052937016 0.07483177 -0.07479129 0.058417585 0.084200636 -0.02172483 0.0034535998
0.01498405 0.027995104 -0.08756186 -0.109013036 -0.115652725 -0.057398636 0.10608349 0.06314576
-0.0076680845 0.07747453 -0.11289345 -0.02146116 -0.08435286 0.10405497 -0.0726692 -0.031255998
0.09512151 -0.008289584 0.10758309 -0.037838668 0.057533175 0.07172433 0.11181529 0.046254348
00000000: b10c e13d 1ecd 1cbd cc96 8f3d a5f1 14bd
00000010: 76aa 673d 9955 74bd f262 b0bd 9aba 42bd
00000020: fb73 2cbd f2bb aa3d 1566 8e3d d1a2 c23d
00000030: 51fe 093c c903 a8bd 0372 8abd 9d1d cebd
00000040: d547 cabd 8e53 6dbc 0442 33bd 7713 0a3d
00000050: 392f a5bb 1468 22bd 13b4 aabd 7748 9a3d
00000060: 8e48 e9bd c766 02bd e50f a6bc 8cfb 8dbd
00000070: 9d91 74bd f183 8b3d 898d 7cbd 11d5 9a3d
00000080: 0289 653d b9d8 75bd abef 64bd e345 963d
00000090: 9b22 b33d 41a3 bc3c 77a7 e93b f35e 943d
000000a0: fbb9 acbc 6c6d 633d 458b cd3d 4c2a debd
000000b0: 7399 ba3c db0a c43d f224 b4bd 4e95 98bd
000000c0: 0145 c83d f515 d83d 4909 233d 0448 b4bd
000000d0: 759a 00bc 84e9 623d a9a9 b9bc aded c1bd
000000e0: 85d4 8abd abd8 563c 2074 8ebc 6dd4 8a3d
000000f0: 7456 903d c651 abbd 249f b33b c4f4 c63d
00000100: adb8 9e3d de98 a33d 3971 573d 9bc5 92bd
00000110: 6ef7 fcbc b7d1 37bd 0299 f43a 3de4 82bc
00000120: ccbf 8f3d 1b2e 173c c223 343d 4f9a aebd
00000130: 517a c83d e7fe 39bd ad8d de3d 76f8 1a3d
00000140: 7f52 bbbd 2a08 833d c157 8d3d 7e86 ba3d
00000150: fc08 d63d 5861 a53d 4057 c13d 845f 7fbd
00000160: 111d 2cbd f3f2 393d 8891 6d3d 2142 0abd
00000170: ed9f 2cbd 0e97 f3bc f68a c2bd 1263 923c
00000180: 1a50 b4bd d33e cabd 0ff7 5c3a 9e17 d4bd
00000190: b8fb 443d 6044 e0bc 4315 ec3d c047 bebd
000001a0: 9926 47bc 2cdb d63d e4ca e53c 3de6 8c3d
000001b0: 8630 1dbc 3b44 dfbd e74d c0bd 195e c3bd
000001c0: 7ebf a4bc d051 42bd e4da 353b 2e2a 9dbc
000001d0: 307f b3bd 4771 91bc 586f 633d a03c 0bbc
000001e0: ea43 dbbd 77b4 81bd 76ea 13bd 2109 b1bd
000001f0: 03b9 613c b868 5e3d ad29 f83c 53bc 253d
00000200: d54a e23d 1976 5d3d 16ea 7b3c 681b 3c3d
00000210: c5da afbd 77e6 5c3c e850 b23c 1a1e e03d
00000220: dddd 6cbd 08e2 8cbc 776e abbd 106d 9a3b
00000230: c51a db3d 97a9 d1bd 6151 ef3c ab25 30bd
00000240: f5a3 05bd 0ffc edbd f914 efbc 3c4e 6b3d
00000250: db30 8abd ece3 873d eb7d e9bc 2b60 ba3c
00000260: a0c4 b5bc f630 e9bd f124 e8bd 8b9f ccbd
00000270: abe4 ea3d 9822 bfbd c1bb c7bc 4a91 c23b
00000280: 3ae5 dd3c 7d1b b43d 292f b1bd 2dba 4c3d
00000290: 6de7 96bd 2026 d73d c573 97bd 44b8 733d
000002a0: b46a e7bc d003 6d3d d665 aabd 18ca 9cbd
000002b0: 3ef6 913d 6d67 a1bc b80c e6bd f586 39bd
000002c0: f46e 34bd f7aa cd3d a5f0 7dbc 71b8 d03c
000002d0: 0bf3 97bd f907 a03c 1441 e7bc 9995 4ebd
000002e0: 90a3 483c 596b 573d d958 bd3c ee0c 06bd
000002f0: bbfe cbbc d574 9b3d 65d8 8ebd 87ad 6f3d
00000300: 3857 b63c 91af 40bd 8ab8 1abd 1d45 703c
00000310: a646 043d cad9 583c 452a 7ebc 8857 70bd
00000320: d6d1 b83d dcbf 04bd 2e45 a03d 147e 14bd
00000330: 3f40 6f3d 73f8 d93d 78f3 2dbd ab18 283d
00000340: 2144 463c 17a6 e8bd 479d 943d 28e0 b8bd
00000350: e9cd 07bc 0ff5 113c fdca 16bd 4f2c 23bd
00000360: 25c1 373d d8ce e7bd 3590 ccbd f427 f9bc
00000370: b1e9 2c3d 7d06 eb3d 53e7 f1bb 7be5 d5bd
00000380: 44d6 b3bc 7cd4 58bd 6641 993d 2d2c 99bd
00000390: 4747 6f3d 6271 ac3d 45f8 b1bc ca55 623b
000003a0: a97f 753c fd55 e53c a253 b3bd 3a42 dfbd
000003b0: 56db ecbd d51a 6bbd 4d42 d93d 9052 813d
000003c0: 8e44 fbbb f7aa 9e3d ae34 e7bd 51cf afbc
000003d0: 31c1 acbd c61a d53d 97d3 94bd 4a06 00bd
000003e0: 11cf c23d 09d1 07bc 8654 dc3d b8fc 1abd
000003f0: e8a7 6b3d 35e4 923d 6aff e43d 3375 3d3d

conv_block_3.5.bias f4 [8]
0.024048086 -0.03583722 0.076188385 0.06809143 -0.03681906 -0.018634701 0.06667736 0.040825453
00000000: 7e00 c53c 0cca 12bd a808 9c3d 8573 8b3d
00000010: 95cf 16bd cda7 98bc 248e 883d 9738 273d

conv_block_4.0.weight f4 [8]
0.9999922 0.9999922 0.9999922 0.9999922 0.9999922 0.9999922 0.9999922 0.9999922
00000000: 7dff 7f3f 7dff 7f3f 7dff 7f3f 7dff 7f3f
00000010: 7dff 7f3f 7dff 7f3f 7dff 7f3f 7dff 7f3f

conv_block_4.0.bias f4 [8]
0.0 0.0 0.0 0.0 0.0 0.0 0.0 0.0
00000000: 0000 0000 0000 0000 0000 0000 0000 0000
00000010: 0000 0000 0000 0000 0000 0000 0000 0000

conv_block_4.0.running_mean f4 [8]
0.022129929 -0.032978714 0.07011135 0.06266022 -0.033882245 -0.017148333 0.06135895 0.037569076
00000000: d349 b53c b014 07bd 8a96 8f3d 0054 803d
00000010: 1cc8 0abd a97a 8cbc 8653 7b3d 08e2 193d

conv_block_4.0.running_var f4 [8]
0.079766445 0.079766445 0.079766445 0.079766445 0.079766445 0.079766445 0.079766445 0.079766445
00000000: 975c a33d 975c a33d 975c a33d 975c a33d
00000010: 975c a33d 975c a33d 975c a33d 975c a33d

conv_block_4.2.weight f4 [16, 8, 3, 3]
-0.033920877 -0.017748674 -0.089179255 -0.010094189 0.015069329 -0.10609273 0.110627554 -0.044926282
-0.079401664 0.06913712 0.11037066 -0.08381312 -0.08335652 -0.03507116 -0.076088436 0.09907472
-0.11533726 -0.021553801 -0.03366341 0.006016542 0.058013603 -0.06584767 -0.11132333 0.054704916
0.02276442 -0.05148671 -0.114384755 -0.019871056 0.0062119174 -0.057169233 0.026286988 0.110546224
-0.008485287 -0.09753832 -0.03183585 -0.018149432 0.08234287 -0.0061623114 -0.11174095 -0.08654971
0.11224479 0.007818451 0.10942204 -0.079260275 -0.108565696 -0.062418938 0.07609424 0.03698762
0.100412 -0.10000832 -0.016369324 0.1174687 0.013884695 0.021243382 0.0331009 0.050950985
0.10132769 -0.09436569 -0.100455634 0.0029653148 0.01617223 0.01655593 -0.015954101 -0.00051150064
0.043350723 0.049325187 0.0953056 0.051238652 0.039591603 -0.057945672 0.10470384 -0.111892045
0.029768016 0.10012261 -0.018977344 0.07131797 -0.02376772 0.07654711 -0.08928901 -0.06320845
-0.061608095 0.095597036 -0.11698689 0.09976253 0.039708234 0.0639973 0.038775813 0.08116263
0.025591241 -0.10470195 0.08019493 0.08178474 -0.056023125 -0.06501402 0.11094429 -0.046557482
-0.031343874 0.003796421 -0.090887345 0.111672655 -0.020822158 0.11632031 0.08950758 -0.10671802
0.014907161 0.06586224 -0.06190288 -0.0731267 0.05247428 0.10904132 0.01674291 -0.021827824
-0.10845614 0.07358958 -0.011565787 0.07592929 -0.11295793 -0.07528565 0.00972033 -0.09762441
-0.05175605 -0.024541155 0.03288051 0.014386369 0.11062824 0.07396902 -0.06953204 -0.074321404
-0.015745895 0.054562014 -0.07934651 -0.07804964 0.04942823 -0.056021508 -0.09193598 0.052097607
0.074740276 -0.0059047393 -0.087390736 -0.11187241 -0.11211779 -0.044346824 0.013375722 0.08027647
-0.115875304 0.06887134 -0.051205885 -0.041615393 -0.07319903 -0.052469205 0.04734351 -0.031606022
0.109429866 0.022398693 0.08818934 0.095924504 -0.0016818437 -0.005479047 0.026667602 -0.10105157
-0.005175661 -0.05481538 -0.10681 -0.11400428 -0.05445778 0.040829804 -0.05363874 0.034932457
-0.0024340332 -0.070061095 -0.096472695 0.048133507 0.11553679 0.0052703354 0.10683126 -0.055054586
0.027365567 0.101506144 0.016363975 -0.0008162271 -0.06508907 -0.008072298 0.039351013 -0.09448394
0.030200208 0.040508326 -0.066502936 0.0013991635 -0.005131383 0.025242941 -0.11707034 -0.11148491
-0.061837893 0.095529296 -0.0055957227 0.024988463 -0.113371305 -0.04509106 0.025402041 -0.039701313
0.08677237 -0.10915989 -0.04284167 -0.10629741 -0.031870242 0.102011606 0.022071451 -0.10552851
0.1062135 0.067328826 0.08479472 -0.014528563 -0.015948394 0.09323731 0.014540595 -0.1171142
0.06282544 -0.061040632 -0.007533871 -0.11063418 0.101695314 -0.02362655 0.0597413 0.0024993445
-0.064485714 0.112888895 -0.1164066 0.07456505 -0.02730968 0.05317975 0.07525474 -0.062534794
-0.059695877 -0.091412894 0.10904428 0.031654146 0.09287676 -0.0910277 -0.086816676 0.055857804
-0.07802084 0.023302706 -0.02256872 -0.05943308 -0.0950979 -0.012199649 0.04879136 0.10740449
0.10594135 0.017636096 -0.07680802 -0.051732 -0.0629063 -0.080413535 -0.10185527 0.042330995
00000000: 9ef0 0abd ab65 91bc 9da3 b6bd 1962 25bc
00000010: 59e5 763c 2547 d9bd b390 e23d 9f04 38bd
00000020: 579d a2bd c397 8d3d 030a e23d 37a6 abbd
00000030: d3b6 aabd c7a6 0fbd 41d4 9bbd b0e7 ca3d
00000040: f135 ecbd 9991 b0bc a5e2 09bd 6a26 c53b
00000050: ac9f 6d3d 25db 86bd 7cfd e3bd 4312 603d
00000060: 737c ba3c bae3 52bd 8e42 eabd a0c8 a2bc
00000070: 578d cb3b 492a 6abd cf57 d73c 0f66 e23d
00000080: e005 0bbc 2cc2 c7bd 4f66 02bd 1eae 94bc
00000090: 61a3 a83d 37ed c9bb 70d8 e4bd f940 b1bd
000000a0: 99e0 e53d f618 003c aa18 e03d 3653 a2bd
000000b0: b157 debd 00ab 7fbd 4cd7 9b3d 5580 173d
000000c0: cfa4 cd3d 29d1 ccbd f618 86bc 6e93 f03d
000000d0: a27c 633c 9a06 ae3c cf94 073d fbb1 503d
000000e0: e484 cf3d cd42 c1bd afbb cdbd ba55 423b
000000f0: a07b 843c 4da0 873c 2db2 82bc 3a16 06ba
00000100: 8790 313d 3509 4a3d 952f c33d 9fdf 513d
00000110: ce2a 223d 7158 6dbd f86e d63d a827 e5bd
00000120: 0edc f33c 150d cd3d 6076 9bbc 280f 923d
00000130: 86b4 c2bc bbc4 9c3d 28dd b6bd 6f73 81bd
00000140: c558 7cbd 61c8 c33d d396 efbd 4c50 cc3d
00000150: 1aa5 223d 0411 833d 63d3 1e3d 9838 a63d
00000160: b9a4 d13c fa6d d6bd 3d3d a43d c27e a73d
00000170: 8178 65bd 1226 85bd c336 e33d 0fb3 3ebd
00000180: 6f62 00bd 60cd 783b 2523 babd a2b4 e43d
00000190: 3b93 aabc 5839 ee3d c04f b73d fa8e dabd
000001a0: 2a3d 743c c8e2 863d e08d 7dbd 74c3 95bd
000001b0: 45ef 563d 0e51 df3d 6d28 893c 44d0 b2bc
000001c0: 411e debd 22b6 963d 6d7e 3dbc d180 9b3d
000001d0: 7d56 e7bd 5d2f 9abd 0542 1f3c 4fef c7bd
000001e0: 27fe 53bd 880a c9bc b7ad 063d ceb4 6b3c
000001f0: 0f91 e23d 127d 973d d066 8ebd d235 98bd
00000200: 89fd 80bc 6b7c 5f3d 6c80 a2bd 7dd8 9fbd
00000210: 4175 4a3d cf76 65bd ee48 bcbd 4d64 553d
00000220: 6e11 993d 8b7c c1bb eaf9 b2bd 5d1d e5bd
00000230: 039e e5bd 04a5 35bd d825 5b3c fd67 a43d
00000240: 0850 edbd 6b0c 8d3d 43bd 51bd e774 2abd
00000250: 5fe9 95bd f3e9 56bd 45eb 413d 5175 01bd
00000260: c41c e03d 777d b73c 9d9c b43d 1174 c43d
00000270: 4f71 dcba 9489 b3bb 0476 da3c 20f4 cebd
00000280: 9798 a9bb 1886 60bd 34bf dabd 137b e9bd
00000290: 1f0f 5fbd 273d 273d 4cb4 5bbd 5615 0f3d
000002a0: 4d84 1fbb 317c 8fbd 7a93 c5bd a427 453d
000002b0: 8d9e ec3d c7b2 ac3b 59ca da3d eb80 61bd
000002c0: c12d e03c 74e2 cf3d be0d 863c 13f8 55ba
000002d0: 6b4d 85bd ac41 04bc 872e 213d cc80 c1bd
000002e0: 6d66 f73c 0fec 253d b132 88bd 2364 b73a
000002f0: 2925 a8bb 49ca ce3c 93c2 efbd 3352 e4bd
00000300: bb49 7dbd dda4 c33d 535c b7bb 9bb4 cc3c
00000310: 372f e8bd 67b1 38bd f117 d03c d89d 22bd
00000320: b6b5 b13d 388f dfbd bf7a 2fbd 75b2 d9bd
00000330: 5f8a 02bd 76eb d03d 30cf b43c 551f d8bd
00000340: 7786 d93d b2e3 893d dba8 ad3d 3609 6ebc
00000350: 35a6 82bc 34f3 be3d ad3b 6e3c 92d9 efbd
00000360: a0aa 803d be05 7abd b1de f6bb 2c94 e2bd
00000370: a245 d03d 778c c1bc 4bb3 743d 0bcc 233b
00000380: 1611 84bd 4b32 e73d 9566 eebd 90b5 983d
00000390: 8db8 dfbc 02d3 593d 281f 9a3d 3e12 80bd
000003a0: aa83 74bd af36 bbbd 9c52 df3d c7a7 013d
000003b0: 2c36 be3d bb6c babd f1cc b1bd 27cb 643d
000003c0: 64c9 9fbd 51e5 be3c 09e2 b8bc 1a70 73bd
000003d0: b0c2 c2bd 09e1 47bc 73d9 473d e3f6 db3d
000003e0: c7f7 d83d 9379 903c 864d 9dbd efe4 53bd
000003f0: 05d5 80bd daaf a4bd 7f99 d0bd 4463 2d3d

conv_block_4.2.bias f4 [16]
-0.07039673 0.05702481 -0.0011002038 0.109707125 -0.097768925 0.056583144 -0.012153142 -0.10369485
-0.06114378 0.070859686 -0.11615304 -0.09233743 0.06554184 0.017508214 0.113182165 0.08392212
00000000: 292c 90bd d992 693d b734 90ba 21ae e03d
00000010: 133b c8bd bac3 673d f91d 47bc f75d d4bd
00000020: e671 7abd e21e 913d a5e1 edbd 681b bdbd
00000030: cd3a 863d 636d 8f3c 0dcc e73d 5cdf ab3d

conv_block_4.3.weight f4 [16]
0.9999922 0.9999922 0.9999922 0.9999922 0.9999922 0.9999922 0.9999922 0.9999922
0.9999922 0.9999922 0.9999922 0.9999922 0.9999922 0.9999922 0.9999922 0.9999922
00000000: 7dff 7f3f 7dff 7f3f 7dff 7f3f 7dff 7f3f
00000010: 7dff 7f3f 7dff 7f3f 7dff 7f3f 7dff 7f3f
00000020: 7dff 7f3f 7dff 7f3f 7dff 7f3f 7dff 7f3f
00000030: 7dff 7f3f 7dff 7f3f 7dff 7f3f 7dff 7f3f

conv_block_4.3.bias f4 [16]
0.0 0.0 0.0 0.0 0.0 0.0 0.0 0.0
0.0 0.0 0.0 0.0 0.0 0.0 0.0 0.0
00000000: 0000 0000 0000 0000 0000 0000 0000 0000
00000010: 0000 0000 0000 0000 0000 0000 0000 0000
00000020: 0000 0000 0000 0000 0000 0000 0000 0000
00000030: 0000 0000 0000 0000 0000 0000 0000 0000

conv_block_4.3.running_mean f4 [16]
-0.06478164 0.05247632 -0.0010124478 0.10095651 -0.089970544 0.05206988 -0.011183767 -0.09542379
-0.05626674 0.06520766 -0.10688828 -0.08497229 0.060314003 0.016111698 0.10415437 0.0772282
00000000: 3dac 84bd 69f1 563d 1cb4 84ba 49c2 ce3d
00000010: 7a42 b8bd 3a47 553d 1e3c 37bc 8c6d c3bd
00000020: f477 66bd 988b 853d 3ee8 dabd f405 aebd
00000030: d10b 773d aefc 833c e34e d53d d229 9e3d

conv_block_4.3.running_var f4 [16]
0.079766445 0.079766445 0.079766445 0.079766445 0.079766445 0.079766445 0.079766445 0.079766445
0.079766445 0.079766445 0.079766445 0.079766445 0.079766445 0.079766445 0.079766445 0.079766445
00000000: 975c a33d 975c a33d 975c a33d 975c a33d
00000010: 975c a33d 975c a33d 975c a33d 975c a33d
00000020: 975c a33d 975c a33d 975c a33d 975c a33d
00000030: 975c a33d 975c a33d 975c a33d 975c a33d

conv_block_4.5.weight f4 [16, 16, 3, 3]
0.05515319 -0.0015417141 0.028057046 -0.058870845 0.07845919 0.013352409 -0.034347475 0.04648238
0.08127925 0.0074288636 -0.03147011 0.0188211 -0.03868318 -0.042601187 -0.082705244 -0.0804546
0.014040507 -0.017530186 0.00071266474 -0.08230789 0.04294556 -0.036734268 0.07482965 0.08078444
0.009550085 0.050399926 -0.08296067 -0.045604356 -0.009327696 0.039519854 -0.0813565 -0.03289251
0.046739507 0.052011985 0.030834813 0.03806672 0.061341107 0.008602552 -0.06972539 0.0122861415
0.054872565 0.07774882 0.05691365 0.08250174 0.070814535 0.03916608 0.036678664 0.0791715
0.055303082 0.08166008 -0.007340851 -0.034659754 -0.04544072 0.075475015 0.05577087 -0.03402394
-0.0009793189 -0.024794912 -0.07602479 -0.016942494 -0.007237087 -0.07598345 0.08144419 -0.058473635
-0.06476784 0.054988045 0.08094145 -0.04895749 0.072556056 -0.04154051 -0.07602086 -0.0071466668
0.056427024 0.07596249 0.06371491 -0.07317071 -0.00022059504 0.062175643 0.053123593 -0.073161855
0.060133886 -0.07831419 -0.024196314 -0.00836675 0.06406247 0.03992163 -0.06305742 0.034557022
0.017795166 -0.030802753 -0.07059182 0.06335853 -0.05117322 -0.048420224 -0.015672283 -0.06084031
-0.011303836 0.03463424 0.046560865 0.04279087 -0.0042576157 0.012661156 -0.032870766 -0.06585247
-0.00037535728 -0.040034395 0.05582137 -0.026559416 0.050797086 0.053301953 -0.027803231 0.07667198
-0.003338877 0.039338317 0.05376846 -0.038221017 0.05885958 -0.0014871836 0.07845281 -0.048610136
-0.07474034 -0.07657507 -0.014405174 0.067835666 0.034776807 0.023534855 0.05345113 0.04972597
-0.038067874 0.037751727 0.043999083 0.01759599 0.037765436 0.070447996 -0.06656199 -0.051528707
-0.07821369 -0.02596659 0.050055385 0.072434925 -0.048981935 0.0701628 0.07425104 -0.0063020014
-0.06810566 0.04676125 0.029001463 -0.010683899 0.03540765 -0.038870692 0.011369288 0.031010175
-0.07972238 -0.0017483617 -0.05876736 -0.05270142 0.077506684 0.015542333 0.042937856 -0.021965064
-0.032332197 0.0061803865 0.023922306 -0.055412747 0.024772545 0.031855997 -0.00047430026 -0.040794387
-0.035528924 -0.08051399 0.061606392 -0.065048374 0.022790996 0.01598646 -0.03208459 -0.05275494
0.011968764 -0.037120137 0.06452783 -0.04546251 -0.05693215 -0.008910141 -0.07535991 -1.9796034e-05
-0.06539584 0.03406831 0.046811897 0.067621246 0.028320186 -0.07800742 0.03255192 0.009085943
-0.01821624 0.038341396 0.033318963 -0.068542086 -0.06829727 0.051927228 0.059034605 -0.070165195
-0.005783236 0.02854832 0.021867678 0.07155555 -0.04596815 -0.007261078 -0.06728818 0.0017978109
-0.001241771 0.03676767 0.050267458 -0.066355206 0.027123395 -0.028855186 -0.054048445 0.015924001
0.0032235058 0.05655449 -0.057173453 -0.014075771 0.048379507 0.039575316 -0.062876575 -0.048197962
0.018259235 -0.06542711 0.0039775954 -0.048662577 -0.08246144 -0.0069118263 -0.041130994 0.062313806
-0.06343573 -0.01371387 0.042429775 -0.017086916 0.060642388 0.0826879 0.05471758 0.0397694
-0.07563871 0.04946368 -0.076854095 0.05375834 0.047646955 -0.033598687 0.0067423056 0.04697575
-0.021260116 -0.0044736145 -0.04705972 0.08272889 -0.07010544 -0.053092647 0.0022298747 0.04228297
00000000: 50e8 613d 5713 caba e4d7 e53c 8e22 71bd
00000010: 36af a03d 10c4 5a3c f0af 0cbd 4f64 3e3d
00000020: bc75 a63d d36d f33b cde6 00bd b52e 9a3c
00000030: 4172 1ebd 957e 2ebd 5e61 a9bd 62c5 a4bd
00000040: 280a 663c 779b 8fbc 1fd2 3a3a 0a91 a8bd
00000050: afe7 2f3d ac76 16bd 4a40 993d 5072 a53d
00000060: f677 1c3c 2770 4e3d 49e7 a9bd a2cb 3abd
00000070: 31d3 18bc 92df 213d 3d9e a6bd 4cba 06bd
00000080: ed71 3f3d 850a 553d 4a99 fc3c d9eb 1b3d
00000090: d040 7b3d b8f1 0c3c 2fcc 8ebd d04b 493c
000000a0: 0ec2 603d c63a 9f3d 4a1e 693d acf6 a83d
000000b0: 3607 913d 9d6c 203d 5e3c 163d ab24 a23d
000000c0: 7c85 623d 663d a73d 858b f0bb 63f7 0dbd
000000d0: 0c20 3abd a592 9a3d ff6f 643d b05c 0bbd
000000e0: 7d5c 80ba b31e cbbc e3b2 9bbd fcca 8abc
000000f0: 1625 edbb 369d 9bbd 36cc a63d 0d82 6fbd
00000100: 00a5 84bd 253b 613d a2c4 a53d a687 48bd
00000110: 4598 943d 6226 2abd d3b0 9bbd 962e eabb
00000120: 0620 673d 3992 9b3d f67c 823d 86da 95bd
00000130: 884f 67b9 e3ab 7e3d 2098 593d e2d5 95bd
00000140: f34e 763d 3163 a0bd 5937 c6bc b114 09bc
00000150: 2f33 833d dd84 233d 4024 81bd aa8b 0d3d
00000160: 2bc7 913c 0e56 fcbc 7292 90bd 1ec2 813d
00000170: 039b 51bd 4954 46bd 2963 80bc b033 79bd
00000180: b933 39bc a2dc 0d3d 9bb6 3e3d 7b45 2f3d
00000190: 7883 8bbb bd70 4f3c 7fa3 06bd a9dd 86bd
000001a0: 9acb c4b9 1bfb 23bd f3a4 643d 2293 d9bc
000001b0: 9b10 503d 2653 5a3d 9ac3 e3bc 3306 9d3d
000001c0: 10d1 5abb 3721 213d 513c 5c3d a48d 1cbd
000001d0: be16 713d 9aed c2ba deab a03d 6c1b 47bd
000001e0: 7711 99bd 64d3 9cbd ae03 6cbc 6ded 8a3d
000001f0: 2072 0e3d 2bcc c03c 92ef 5a3d 75ad 4b3d
00000200: 0fed 1bbd 8ea1 1a3d 6238 343d 7725 903c
00000210: eeaf 1a3d 0a47 903d a751 88bd c40f 53bd
00000220: 802e a0bd e3b7 d4bc e006 4d3d c358 943d
00000230: 48a1 48bd 84b1 8f3d ee10 983d 0581 cebb
00000240: fb7a 8bbd b988 3f3d 7a94 ed3c 850b 2fbc
00000250: 9d07 113d e036 1fbd 4046 3a3c 0d09 fe3c
00000260: 7d45 a3bd 4929 e5ba 0bb6 70bd 72dd 57bd
00000270: d3bb 9e3d 45a5 7e3c 9bdf 2f3d 14f0 b3bc
00000280: c46e 04bd d784 ca3b b6f8 c33c 7af8 62bd
00000290: cbef ca3c 6f7b 023d 81ab f8b9 0418 27bd
000002a0: c786 11bd 85e4 a4bd fc56 7c3d 1538 85bd
000002b0: 2fb4 ba3c 09f6 823c 226b 03bd 9015 58bd
000002c0: a218 443c 490b 18bd 2b27 843d e636 3abd
000002d0: b031 69bd d7fb 11bc 4c56 9abd a90f a6b7
000002e0: 41ee 85bd 368b 0b3d d5bd 3f3d 027d 8a3d
000002f0: bcff e73c 5bc2 9fbd 2955 053d 35dd 143c
00000300: 393a 95bc de0b 1d3d 7779 083d cb5f 8cbd
00000310: 70df 8bbd a5b1 543d 45ce 713d c5b2 8fbd
00000320: 4d81 bdbb 2bde e93c d823 b33c b78b 923d
00000330: 1949 3cbd 56ee edbb 63ce 89bd 86a4 eb3a
00000340: ecc2 a2ba b299 163d 40e5 4d3d 3de5 87bd
00000350: e231 de3c b661 ecbc e761 5dbd 0d73 823c
00000360: 7441 533b aea5 673d b62e 6abd 109e 66bc
00000370: 9729 463d ba19 223d 6fc5 80bd 3a6b 45bd
00000380: 6494 953c a6fe 85bd 7d56 823b 6952 47bd
00000390: 8be1 a8bd 9a7c e2bb f978 28bd c33c 7f3d
000003a0: 98ea 81bd 24b0 60bc d8ca 2d3d dcf9 8bbc
000003b0: 2764 783d 4658 a93d 8b1f 603d 3de5 223d
000003c0: 78e8 9abd 6d9a 4a3d ae65 9dbd b531 5c3d
000003d0: 7429 433d c79e 09bd 8fee dc3b a569 403d
000003e0: b229 aebc 6697 92bb b1c1 40bd c46d a93d
000003f0: 7193 8fbd ad77 59bd 1723 123b e830 2d3d

conv_block_4.5.bias f4 [16]
0.07825866 -0.02783821 -0.065895624 -0.046478886 0.038533114 -0.02693334 -0.02262828 -0.022201218
-0.02346182 -0.04215448 -0.024444636 -0.04787136 0.036161087 0.012335091 -0.06998981 -0.049412437
00000000: 1446 a03d f50c e4bc 49f4 86bd a560 3ebd
00000010: e6d4 1d3d 4fa3 dcbc f15e b9bc 54df b5bc
00000020: 0133 c0bc 2daa 2cbd 1e40 c8bc c214 44bd
00000030: a61d 143d 1f19 4a3c d156 8fbd b264 4abd

conv_block_5.0.weight f4 [16]
0.9999922 0.9999922 0.9999922 0.9999922 0.9999922 0.9999922 0.9999922 0.9999922
0.9999922 0.9999922 0.9999922 0.9999922 0.9999922 0.9999922 0.9999922 0.9999922
00000000: 7dff 7f3f 7dff 7f3f 7dff 7f3f 7dff 7f3f
00000010: 7dff 7f3f 7dff 7f3f 7dff 7f3f 7dff 7f3f
00000020: 7dff 7f3f 7dff 7f3f 7dff 7f3f 7dff 7f3f
00000030: 7dff 7f3f 7dff 7f3f 7dff 7f3f 7dff 7f3f

conv_block_5.0.bias f4 [16]
0.0 0.0 0.0 0.0 0.0 0.0 0.0 0.0
0.0 0.0 0.0 0.0 0.0 0.0 0.0 0.0
00000000: 0000 0000 0000 0000 0000 0000 0000 0000
00000010: 0000 0000 0000 0000 0000 0000 0000 0000
00000020: 0000 0000 0000 0000 0000 0000 0000 0000
00000030: 0000 0000 0000 0000 0000 0000 0000 0000

conv_block_5.0.running_mean f4 [16]
0.07201649 -0.02561774 -0.060639568 -0.042771574 0.035459585 -0.024785046 -0.02082337 -0.020430371
-0.021590428 -0.038792096 -0.02249485 -0.044052977 0.033276744 0.011351203 -0.064407185 -0.045471136
00000000: 627d 933d 4bdc d1bc 3261 78bd 3f31 2fbd
00000010: 123e 113d 020a cbbc c695 aabc 985d a7bc
00000020: 69de b0bc 76e4 1ebd 1f47 b8bc e570 34bd
00000030: 324d 083d 65fa 393c eae7 83bd f13f 3abd

conv_block_5.0.running_var f4 [16]
0.079766445 0.079766445 0.079766445 0.079766445 0.079766445 0.079766445 0.079766445 0.079766445
0.079766445 0.079766445 0.079766445 0.079766445 0.079766445 0.079766445 0.079766445 0.079766445
00000000: 975c a33d 975c a33d 975c a33d 975c a33d
00000010: 975c a33d 975c a33d 975c a33d 975c a33d
00000020: 975c a33d 975c a33d 975c a33d 975c a33d
00000030: 975c a33d 975c a33d 975c a33d 975c a33d

conv_block_5.2.weight f4 [32, 16, 3, 3]
0.04493575 0.026573755 0.02193901 -0.015216909 -0.054058887 0.0626747 -0.07681467 0.0031334436
-0.019102897 -0.060661998 -0.08283963 0.07829608 -0.014976972 0.0424684 -0.0022098625 0.0058587245
0.042335853 -0.02029782 0.03954281 0.0569626 -0.036974143 -0.0059394585 -0.03275304 -0.021365317
0.03977002 -0.045890406 -0.042553965 0.053084657 -0.0074775894 -0.0034727477 0.0003518658 0.0013369439
-0.0023923623 0.004047429 0.013071652 -0.0058092983 -0.033793315 -0.060134675 0.04047547 -0.08093602
-0.039767925 -0.068850264 -0.035822943 0.07943327 -0.057373635 0.006301778 -0.049140424 0.037806958
-0.062051773 -0.008227103 -0.05078162 0.027495636 0.046207856 0.006851418 0.07366547 -0.05172078
-0.06721163 0.019392433 -0.0026763466 -0.030925352 0.06974264 -0.02137229 -0.01039423 0.020289177
0.08028727 -0.051190984 0.06712918 0.011297801 0.028473549 0.0003265042 0.029349463 0.0031806056
-0.0066913366 -0.034494024 0.02415126 0.035103355 -0.022269296 -0.05313376 0.053819183 0.023712713
0.038900245 -0.07093116 -0.045006867 0.041642178 -0.05862415 -0.05795239 0.0141592175 0.061850443
0.05774091 -0.036748674 0.022319717 0.04615542 0.083196044 0.024023082 -0.012291163 0.080615744
0.060749672 0.04235649 -0.076832265 0.05989131 0.04887075 -8.0763646e-05 -0.044688594 -0.052077364
-0.07886814 -0.005239244 0.050257236 -0.045952156 -0.05162459 -0.023225116 0.037556406 0.041246478
-0.017867986 0.06605132 -0.0050326106 0.03376886 -0.079830244 0.0056388904 -0.030105622 0.06234994
0.07001391 -0.016555736 0.01689973 -0.014006823 0.007045161 0.0030783766 0.03291593 -0.058376044
0.0004810057 -0.04343943 0.028964642 0.07068807 -0.043100376 -0.053292286 -0.08054131 0.012553556
0.030719329 0.018923402 0.003057478 -0.024676556 0.056605004 0.031769436 -0.051401805 0.017057255
0.027389042 -0.07038961 0.050347935 0.0676164 0.039893966 -0.038465712 -0.021658381 -0.021401914
0.08082038 0.034689844 -0.011584726 0.07561798 0.024413029 -0.032744616 0.06595242 0.025338532
-0.007570595 0.025988584 0.071557574 -0.078218855 -0.016334755 -0.0440955 -0.06166686 -0.03368398
0.030977283 -0.047505744 -0.048874527 -0.065549776 -0.02292877 -0.06648778 -0.025946932 -0.06997708
0.053954963 -0.03444308 -0.012038277 0.027558764 0.035968743 0.07295642 0.028127745 0.042864036
-0.068481445 0.006042306 -0.055214513 -0.07969085 0.050259978 0.04257367 0.04884277 -0.014966213
-0.036775626 0.0695531 -0.05567616 0.04391045 0.03271164 0.019357044 -0.045020286 0.021266434
-0.07144576 0.049751822 -0.03705048 -0.033421103 0.009862196 -0.05356885 0.08008257 -0.04370825
-0.04617252 -0.06962152 0.038469404 0.067648925 -0.0733143 0.049351547 0.000991955 0.052613813
0.07509343 0.037007276 0.055407524 -0.060886513 -0.055247534 0.071825676 -0.016134515 0.07830477
0.05563529 -0.06812945 -0.06323084 -0.07296523 -0.059957292 0.042808022 -0.0064811422 -0.067355536
-0.013972015 0.06353441 0.005035382 -0.041700948 0.03693847 -0.0804286 -0.029638456 -0.03796662
0.009444229 -0.036272082 -0.037049066 0.04578227 -0.03278178 0.02184029 -0.07458642 -0.054846432
0.0543039 0.042859074 0.024373094 -0.07490138 0.041492928 0.05263348 0.073405094 -0.01331047
00000000: 8d0e 383d 34b1 d93c 70b9 b33c 5850 79bc
00000010: da6c 5dbd 985b 803d 0251 9dbd 765a 4d3b
00000020: ae7d 9cbc b778 78bd d3a7 a9bd b259 a03d
00000030: f961 75bc 58f3 2d3d 57d3 10bb 8bfa bf3b
00000040: 5c68 2d3d 9d47 a6bc a4f7 213d 9e51 693d
00000050: 3372 17bd ca9f c2bb 0d28 06bd 5106 afbc
00000060: e3e5 223d 94f7 3bbd 114d 2ebd 4c6f 593d
00000070: 9106 f5bb 0a97 63bb a17a b839 653c af3a
00000080: 2ec9 1cbb 4ca0 843b 7b2a 563c ed5b bebb
00000090: dc6a 0abd c74f 76bd 9bc9 253d c9c1 a5bd
000000a0: b1e3 22bd 5e01 8dbd 14bb 12bd e9ad a23d
000000b0: 9e00 6bbd 257f ce3b 7847 49bd 78db 1a3d
000000c0: 002a 7ebd f9ca 06bc 6300 50bd 873e e13c
000000d0: 7344 3d3d dc81 e03b ecdd 963d 2bd9 53bd
000000e0: 40a6 89bd e1dc 9e3c a565 2fbb 2a57 fdbc
000000f0: 3bd5 8e3d f114 afbc 8f4c 2abc 7d35 a63c
00000100: a76d a43d a3ad 51bd 067b 893d 691a 393c
00000110: 5c41 e93c a72e ab39 496e f03c b571 503b
00000120: 0043 dbbb 9b49 0dbd ddd8 c53c 89c8 0f3d
00000130: 196e b6bc c9a2 59bd 8171 5c3d 2a41 c23c
00000140: dd55 1f3d 5b44 91bd 1f59 38bd fd90 2a3d
00000150: e01f 70bd 7c5f 6dbd 10fc 673c e456 7d3d
00000160: bc81 6c3d c785 16bd d7d7 b63c 770d 3d3d
00000170: b062 aa3d 0ecc c43c e060 49bc de19 a53d
00000180: a6d4 783d 007e 2d3d 3c5a 9dbd 9750 753d
00000190: b22c 483d a75f a9b8 630b 37bd 134f 55bd
000001a0: 9f85 a1bd f7ad abbb 88da 4d3d 5438 3cbd
000001b0: 4e74 53bd 9942 bebc bfd4 193d 11f2 283d
000001c0: e25f 92bc ea45 873d 99e8 a4bb 3751 0a3d
000001d0: 0a7e a3bd 71c6 b83b 11a0 f6bc a762 7f3d
000001e0: 7463 8f3d e59f 87bc 4d71 8a3c e07c 65bc
000001f0: 18db e63b 97be 493b dbd2 063d b81b 6fbd
00000200: 7e2f fc39 8bed 31bd 4247 ed3c e8c4 903d
00000210: 058a 30bd 0349 5abd d8f2 a4bd 6ead 4d3c
00000220: 1aa7 fb3c 4005 9b3c f85f 483b 7d26 cabc
00000230: a6da 673d ab20 023d b38a 52bd a8bb 8b3c
00000240: fc5e e03c 6e28 90bd a339 4e3d 787a 8a3d
00000250: db67 233d 398e 1dbd eb6c b1bc 1153 afbc
00000260: 2885 a53d f016 0e3d ddcd 3dbc 99dd 9a3d
00000270: d5fd c73c 381f 06bd 1012 873d c192 cf3c
00000280: c112 f8bb 03e6 d43c c78c 923d 3531 a0bd
00000290: 77d0 85bc 7c9d 34bd 6496 7cbd 37f8 09bd
000002a0: 12c4 fd3c 6295 42bd a830 48bd f63e 86bd
000002b0: 1ed5 bbbc bf2a 88bd a98e d4bc 2550 8fbd
000002c0: e1ff 5c3d 3014 0dbd 323c 45bc ebc2 e13c
000002d0: f653 133d 2d6a 953d 286c e63c 3392 2f3d
000002e0: 0040 8cbd 89fe c53b 9d28 62bd f534 a3bd
000002f0: 68dd 4d3d bb61 2e3d 5b0f 483d d934 75bc
00000300: 0aa2 16bd db71 8e3d af0c 64bd 72db 333d
00000310: a4fc 053d aa92 9e3c 3167 38bd f236 ae3c
00000320: 2852 92bd 91c8 4b3d 3ec2 17bd 91e4 08bd
00000330: 0c95 213c 036b 5bbd 5502 a43d 6c07 33bd
00000340: 651f 3dbd ba95 8ebd 1892 1d3d 858b 8a3d
00000350: cf25 96bd d924 4a3d 7d04 823a 9581 573d
00000360: 96ca 993d f194 173d 00f3 623d 2364 79bd
00000370: 3d4b 62bd 5719 933d 882c 84bc 405e a03d
00000380: d4e1 633d 7487 8bbd 2c7f 81bd cb6e 95bd
00000390: c795 75bd 7757 2f3d c35f d4bb b3f1 89bd
000003a0: e1ea 64bc 541e 823d d9ff a43b 9dce 2abd
000003b0: cb4c 173d c0b7 a4bd 59cc f2bc e382 1bbd
000003c0: f8bb 1a3c 0992 14bd c3c0 17bd 3186 3b3d
000003d0: 3046 06bd 68ea b23c c4c0 98bd a7a6 60bd
000003e0: c46d 5e3d ff8c 2f3d 15aa c73c e565 99bd
000003f0: 7df4 293d 3496 573d 6955 963d 2814 5abc

conv_block_5.2.bias f4 [32]
0.045641754 -0.038616024 -0.01631157 -0.04651163 -0.00067383266 0.015510102 -0.05530692 -0.030793633
0.050119996 -0.054392558 -0.072014585 -0.03910808 0.026281921 -0.03396123 0.053625427 -0.08129243
-0.066374384 0.011667747 -0.057592258 0.04292917 -0.056250922 -0.0134983575 0.03196424 -0.038252376
0.06296392 0.050561618 -0.08200741 0.07950467 -0.044695996 0.08149138 -0.0039125294 -0.010988925
00000000: d9f2 3a3d d62b 1ebd d79f 85bc fb82 3ebd
00000010: 25a4 30ba 151e 7e3c 8289 62bd ee42 fcbc
00000020: a04a 4d3d bbca 5ebd 627c 93bd cb2f 20bd
00000030: 2f4d d73c ee1a 0bbd 56a6 5b3d a57c a6bd
00000040: 4bef 87bd 142a 3f3c dce5 6bbd 7fd6 2f3d
00000050: 5e67 66bd 3728 5dbc efec 023d 86ae 1cbd
00000060: 3af3 803d b319 4f3d 80f3 a7bd 58d3 a23d
00000070: 2613 37bd f4e4 a63d ad34 80bb e40a 34bc

conv_block_5.3.weight f4 [32]
0.9999922 0.9999922 0.9999922 0.9999922 0.9999922 0.9999922 0.9999922 0.9999922
0.9999922 0.9999922 0.9999922 0.9999922 0.9999922 0.9999922 0.9999922 0.9999922
0.9999922 0.9999922 0.9999922 0.9999922 0.9999922 0.9999922 0.9999922 0.9999922
0.9999922 0.9999922 0.9999922 0.9999922 0.9999922 0.9999922 0.9999922 0.9999922
00000000: 7dff 7f3f 7dff 7f3f 7dff 7f3f 7dff 7f3f
00000010: 7dff 7f3f 7dff 7f3f 7dff 7f3f 7dff 7f3f
00000020: 7dff 7f3f 7dff 7f3f 7dff 7f3f 7dff 7f3f
00000030: 7dff 7f3f 7dff 7f3f 7dff 7f3f 7dff 7f3f
00000040: 7dff 7f3f 7dff 7f3f 7dff 7f3f 7dff 7f3f
00000050: 7dff 7f3f 7dff 7f3f 7dff 7f3f 7dff 7f3f
00000060: 7dff 7f3f 7dff 7f3f 7dff 7f3f 7dff 7f3f
00000070: 7dff 7f3f 7dff 7f3f 7dff 7f3f 7dff 7f3f

conv_block_5.3.bias f4 [32]
0.0 0.0 0.0 0.0 0.0 0.0 0.0 0.0
0.0 0.0 0.0 0.0 0.0 0.0 0.0 0.0
0.0 0.0 0.0 0.0 0.0 0.0 0.0 0.0
0.0 0.0 0.0 0.0 0.0 0.0 0.0 0.0
00000000: 0000 0000 0000 0000 0000 0000 0000 0000
00000010: 0000 0000 0000 0000 0000 0000 0000 0000
00000020: 0000 0000 0000 0000 0000 0000 0000 0000
00000030: 0000 0000 0000 0000 0000 0000 0000 0000
00000040: 0000 0000 0000 0000 0000 0000 0000 0000
00000050: 0000 0000 0000 0000 0000 0000 0000 0000
00000060: 0000 0000 0000 0000 0000 0000 0000 0000
00000070: 0000 0000 0000 0000 0000 0000 0000 0000

conv_block_5.3.running_mean f4 [32]
0.042001214 -0.03553588 -0.015010503 -0.042801708 -0.00062008546 0.014272964 -0.050895452 -0.028337425
0.046122257 -0.05005403 -0.06627044 -0.03598869 0.024185583 -0.031252366 0.04934808 -0.07480827
-0.061080143 0.0107370885 -0.052998506 0.03950499 -0.05176416 -0.0124216825 0.029414667 -0.035201237
0.05794171 0.04652865 -0.075466216 0.07316311 -0.04113089 0.074991345 -0.003600453 -0.01011241
00000000: 7709 2c3d 128e 11bd 9dee 75bc d850 2fbd
00000010: 3b8d 22ba 26d9 693c c077 50bd e323 e8bc
00000020: b1ea 3c3d 7405 4dbd ccb8 87bd e068 13bd
00000030: d820 c63c 7b02 00bd 3621 4a3d 1435 99bd
00000040: 2c2f 7abd 9dea 2f3c f614 59bd fccf 213d
00000050: a806 54bd 5084 4bbc 07f7 f03c 2c2f 10bd
00000060: 4954 6d3d d394 3e3d 088e 9abd 8ad6 953d
00000070: dd78 28bd 1095 993d 94f5 6bbb 86ae 25bc

conv_block_5.3.running_var f4 [32]
0.079766445 0.079766445 0.079766445 0.079766445 0.079766445 0.079766445 0.079766445 0.079766445
0.079766445 0.079766445 0.079766445 0.079766445 0.079766445 0.079766445 0.079766445 0.079766445
0.079766445 0.079766445 0.079766445 0.079766445 0.079766445 0.079766445 0.079766445 0.079766445
0.079766445 0.079766445 0.079766445 0.079766445 0.079766445 0.079766445 0.079766445 0.079766445
00000000: 975c a33d 975c a33d 975c a33d 975c a33d
00000010: 975c a33d 975c a33d 975c a33d 975c a33d
00000020: 975c a33d 975c a33d 975c a33d 975c a33d
00000030: 975c a33d 975c a33d 975c a33d 975c a33d
00000040: 975c a33d 975c a33d 975c a33d 975c a33d
00000050: 975c a33d 975c a33d 975c a33d 975c a33d
00000060: 975c a33d 975c a33d 975c a33d 975c a33d
00000070: 975c a33d 975c a33d 975c a33d 975c a33d
