cloud-detection-code/tests/test_artifacts/test_shadow/model_checkpoint_3.pt (torch, 287733 bytes, 250 tensors)

input_conv_block.0.weight f4 [3]
00000000: 1400 803f feff 7f3f caff 7f3f
1.0000024 0.9999999 0.9999968

input_conv_block.0.bias f4 [3]
00000000: d67a e4b6 c1fd 88b7 e328 fb36
-6.8092295e-06 -1.6330627e-05 7.4851428e-06

input_conv_block.0.running_mean f4 [3]
00000000: 4eb8 023d c5d7 153d d773 243d
0.031914048 0.036582727 0.040149536

input_conv_block.0.running_var f4 [3]
00000000: 82a6 3a3f 03a5 3a3f f6a4 3a3f
0.7291032 0.7290804 0.7290796

input_conv_block.2.weight f4 [2, 3, 1, 1]
00000000: d7f2 92be 957d 803e 4b36 11bf 7576 d43e
00000010: 3362 b73e cea6 f7be
-0.28700897 0.2509581 -0.5672347 0.41496626 0.35817108 -0.4836945

conv_block_1.0.weight f4 [2]
00000000: 3000 803f 98ff 7f3f
1.0000057 0.9999938

conv_block_1.0.bias f4 [2]
00000000: 1a8c f237 b0eb 41b7
2.8913888e-05 -1.1558572e-05

conv_block_1.0.running_mean f4 [2]
00000000: bd7f 57bd aae6 c93c
-0.052612055 0.024646122

conv_block_1.0.running_var f4 [2]
00000000: 0e57 4b3f b8a4 3e3f
0.7942971 0.7447009

conv_block_1.2.weight f4 [2, 2, 3, 3]
00000000: 9464 41be d194 49be 31bd eb3b 2629 10be
00000010: f0f9 b03d 4fdc 06be 9909 0ebe b56d 383e
00000020: 4e79 c73d 59b5 3bbc 6451 cbbd f43c 9bbd
00000030: 01a4 5c3d ffd6 8bbd 5c04 59bd cbdd 85bc
00000040: 7eb6 b53c a69e 023e a90b 523e 3730 e3bd
00000050: 87e9 323c a6f5 263e 5b9d 5d3e d261 293e
00000060: ce8f 9a3d a61b 16be 1b39 03bb d5aa 193e
00000070: 3f81 3abd 78be 02be 0f73 b83c b8ed b03d
00000080: 1559 fabd ec45 47be 04f1 463e 35c6 44be
-0.18886024 -0.19685675 0.007194184 -0.14078197 0.08641422 -0.13169979 -0.13870849 0.180106
0.09739934 -0.011456811 -0.099276334 -0.07579985 0.053867344 -0.068281166 -0.052982673 -0.01634111
0.022181746 0.12755832 0.2051226 -0.110931806 0.010919935 0.16304645 0.21642058 0.16541222
0.0754696 -0.14658985 -0.0020023051 0.15006573 -0.045533415 -0.1276797 0.022515802 0.08639091
-0.12224022 -0.19460267 0.19427878 -0.19216235

conv_block_1.2.bias f4 [2]
00000000: 8e80 85bd fb5f a2bd
-0.065186605 -0.07928463

conv_block_1.3.weight f4 [2]
00000000: 5200 803f 53ff 7f3f
1.0000098 0.9999897

conv_block_1.3.bias f4 [2]
00000000: 881b d3b6 8867 91b7
-6.291495e-06 -1.7333557e-05

conv_block_1.3.running_mean f4 [2]
00000000: b7c5 7cbd 7afa ef3b
-0.061711993 0.0073235603

conv_block_1.3.running_var f4 [2]
00000000: 3e9f 3b3f 2852 403f
0.7328986 0.7512536

conv_block_1.5.weight f4 [2, 2, 3, 3]
00000000: ae0d 73bd 0091 f1bd db09 86bd 568b 5d3e
00000010: 232f 40be 256d 10be ac4d a03c 5937 8c3c
00000020: bef2 dfbd 7df5 0a3e ce2a 10be f6b2 b23d
00000030: 73b4 243e 9596 373e 3ccb 103e 46d5 acbc
00000040: d99b 12bd ceba 36bd 0294 2e3d 461c 4cbd
00000050: 7dc6 863b eb92 ca3d 97f8 dc3d 10d3 b9bd
00000060: c75f d33d 4a76 98bd 40b2 803d fb23 483b
00000070: 861d 9c3d 426a 603e 7661 e23b 2ca5 edbd
00000080: 981c 1abd 80df aa3d cd90 393e 2e4c 063e
-0.059339218 -0.11795235 -0.065448485 0.21635184 -0.18767981 -0.14104135 0.019568287 0.017116236
-0.10934971 0.13570209 -0.14078829 0.0872554 0.16084461 0.17928536 0.14140028 -0.02109779
-0.03579316 -0.044611745 0.04262162 -0.04983165 0.004113017 0.09891304 0.10789602 -0.0907346
0.103210025 -0.07444437 0.062839985 0.0030539024 0.07622819 0.21915534 0.006908591 -0.1160377
-0.037624925 0.083434105 0.18121643 0.13114998

conv_block_1.5.bias f4 [2]
00000000: 54cd abbc 0110 003e
-0.020971932 0.12506105

conv_block_2.0.weight f4 [2]
00000000: a5ff 7f3f 2900 803f
0.9999946 1.0000049

conv_block_2.0.bias f4 [2]
00000000: 403a 0bb6 7c40 f3b5
-2.074652e-06 -1.8123678e-06

conv_block_2.0.running_mean f4 [2]
00000000: b3b3 c73c 62a7 d93d
0.02437768 0.10627629

conv_block_2.0.running_var f4 [2]
00000000: 4319 3c3f 1550 3b3f
0.73476046 0.7316907

conv_block_2.2.weight f4 [4, 2, 3, 3]
00000000: 9541 14be 7785 5f3e f363 663d 83fb 1ebe
00000010: c43f 423d 700d a63d fa27 a13d ba21 c03d
00000020: 704a e93d 0f7e 1abd 10cf 423e 16dc bd3d
00000030: 0f72 fcbc aa6b bdbd 7d3b b6bb f275 443e
00000040: 5457 2ebd 333e 6bbe 398a 6dbe 474d 12be
00000050: 815b 30be e37b 05be 425d 0b3d 0535 5cbe
00000060: 19e8 b73c 0049 f23d 1a21 283c db4c adbc
00000070: f969 99bc 2547 153e 064b 5dbe 1050 6c3e
00000080: d102 e63d 9f1a 603d e08f c2bd 7eaa cf3d
00000090: 18da 92bc 32ed 45be ed57 adbd e9cc 01be
000000a0: a598 d0bd 9357 70be cf59 f6bc 4192 41bd
000000b0: f193 07bd aaa2 153e 3d2a 3b3e f3cc 1c3d
000000c0: e544 3ebb 2736 5bbe 273e b43d fb5d 363e
000000d0: 61e3 673e 863a 8f3c 96af 043e 07d9 d4bd
000000e0: 2490 29be e081 a1bb 22ed 373d 1ce5 2ebe
000000f0: 9159 193c 9df1 ad3d cdfa a53d 4559 353d
00000100: e896 5abe 461d d93d fbe7 123d 1545 573d
00000110: c510 90bd 3454 19be 8fd6 cc3c b629 22bd
-0.14478143 0.21828257 0.056247663 -0.15525632 0.047424093 0.08108032 0.07868953 0.09381433
0.11391151 -0.037717875 0.190243 0.09270494 -0.030816106 -0.09249051 -0.005561291 0.19185618
-0.04256375 -0.22972946 -0.23197259 -0.14287291 -0.17222406 -0.1303554 0.034024484 -0.215046
0.02244954 0.1183033 0.010261798 -0.021154812 -0.01872729 0.1457792 -0.2161065 0.23077416
0.11231006 0.054712888 -0.09500098 0.10139941 -0.01792626 -0.19328764 -0.08464036 -0.12675823
-0.10185365 -0.23470907 -0.030072121 -0.04725862 -0.033100072 0.14612833 0.18277831 0.038281392
-0.0029032764 -0.21407376 0.08800917 0.17809288 0.22645332 0.01748396 0.12957606 -0.10392957
-0.16558892 -0.0049288124 0.04490388 -0.17079586 0.009359733 0.0849335 0.08104477 0.044274587
-0.21346629 0.106012866 0.035865765 0.052556116 -0.070344485 -0.14973527 0.025004653 -0.03959056

conv_block_2.2.bias f4 [4]
00000000: 070d 373e befb c93d 8b6f 28be 0804 683d
0.17876063 0.09862469 -0.164488 0.05664447

conv_block_2.3.weight f4 [4]
00000000: 90ff 7f3f d7ff 7f3f 5400 803f deff 7f3f
0.9999933 0.99999756 1.00001 0.999998

conv_block_2.3.bias f4 [4]
00000000: e4aa 96b6 10ed 69b6 b0ba d533 a422 a435
-4.4902426e-06 -3.4857694e-06 9.952544e-08 1.2229034e-06

conv_block_2.3.running_mean f4 [4]
00000000: 5ee8 b03d 07a6 65bc 43ba 9cbd 27c2 f1bb
0.086380705 -0.014016635 -0.07652714 -0.007377881

conv_block_2.3.running_var f4 [4]
00000000: e2b8 3f3f 9db7 423f 7e81 453f 28fc 3c3f
0.74891484 0.7606142 0.77150714 0.7382226

conv_block_2.5.weight f4 [4, 4, 3, 3]
00000000: d8a6 b4bb abbc dcbd 6dfb 053e ab5b 82bd
00000010: 6d14 f33a 1dd5 173e 2c94 023e 6bdb 38bd
00000020: 4701 0dbd 37ba 4cbd 8c81 223e c40d b43d
00000030: 9f0c a33d a48e 943d cea6 a4bc ff9d dcbd
00000040: 6967 cf3c 9f05 a1bc 0d71 97bd 3b98 13be
00000050: 7687 18be a4c9 9c3b 39f0 033e 9c63 063e
00000060: 1832 463d 9835 ea3c b9b7 c03d d6b6 1dbe
00000070: e1a5 9cbb 0be3 433d 1db8 5abc 6c54 fe3d
00000080: 1559 103e 7915 103e 7118 de3d 4901 93bc
00000090: 8610 08bd 4e1a f13d e7fe 133e 0372 ab3d
000000a0: 6fdd 54bc bb14 e2bb dad2 03be 6c9f 0f3d
000000b0: 624c 1d3e d4ff 123e 586c bdbd a445 e6bd
000000c0: d12d 5bbd c1bf 62bd 9f51 8c3d d776 45bd
000000d0: a7a2 d5bd f14d debd c880 97bd b442 303d
000000e0: 2971 e33d 0661 233e a506 90bc faac 2d3d
000000f0: 9d0b 14bd a4ef be3d 231f d53c 4f48 0dbd
00000100: 057e e13c 8d3b 5ebd 6f2c e6bd e9d3 9c3d
00000110: 0a23 1e3e 53c2 163d f29d 43bc 85b4 1a3e
00000120: f049 cd3d 7a1e 9abd a49c debd a2ed be3d
00000130: 7697 033d 6786 08be ff52 85bd b883 8fbd
00000140: 5f39 5e3c 3359 1fbe 4b23 2e3d dda9 183e
00000150: 2036 be3d 54ec c7bd 6c89 0a3e a2f6 173d
00000160: ea01 8abd 6661 bfbd 3eec d5bd c150 693d
00000170: b800 b4bd d18e dbbd 2e3d 003e 89ab 5bbd
00000180: 651d ac3d 3b3d 05be 252e 923d edf8 213e
00000190: 75ec 513d c9d3 473d 03b5 06be 443e 8d3c
000001a0: d576 b4bc e413 1cbe bb0c e83d 8d4e e63a
000001b0: 8a1f 16be 76d2 013d 7fb4 b73d 841e d0bd
000001c0: b034 213e 9b2c d63d aa1b 44bd 6e4e a93c
000001d0: ada7 043e 22db 8ebb 2f2c 0b3e 3768 e1bd
000001e0: 9aff 6f3d c144 bb3d 2156 e5bd 2cbd 29bc
000001f0: f70b 97bd 61f1 003d f835 11be ef8b e73d
00000200: aecc a33d 32c8 e73d e0f0 1cbe 465f 273e
00000210: 2a0a c03d e9f9 053e be1a c33d 62fc 5dbc
00000220: 8395 21be 504c 073e c8bc 0ebe b448 25bd
00000230: 7b03 14bc 4449 1c3e 26aa 4a3d f890 c13d
-0.0055130534 -0.10778173 0.13084193 -0.063651405 0.0018545516 0.1482739 0.12751836 -0.04513113
-0.034425046 -0.049982276 0.1586973 0.08791688 0.07961392 0.07253769 -0.02009907 -0.10772323
0.025317864 -0.019656 -0.073946096 -0.1441354 -0.14895424 0.0047847796 0.12884606 0.13123935
0.048387617 0.028590009 0.09410042 -0.15401778 -0.0047805165 0.047823947 -0.01334956 0.12418446
0.14096482 0.14070691 0.108445056 -0.017944949 -0.033218883 0.11772595 0.14452706 0.083713554
-0.012992247 -0.006899444 -0.12873402 0.035064146 0.15361169 0.14355403 -0.092491806 -0.11243752
-0.05351049 -0.055358652 0.068515055 -0.048209038 -0.10431414 -0.1085471 -0.0739761 0.043032363
0.11105568 0.1595498 -0.017581293 0.04240129 -0.036143888 0.093230516 0.026015824 -0.034492787
0.027525911 -0.05425601 -0.11238944 0.07657606 0.15443054 0.036806416 -0.011939513 0.15107925
0.10023868 -0.07525344 -0.108697206 0.093226686 0.032126866 -0.1333252 -0.06509971 -0.07007545
0.013563483 -0.1556137 0.042514127 0.14908548 0.09287667 -0.09761873 0.13528985 0.03710044
-0.06738646 -0.09344749 -0.1044545 0.05696178 -0.087891996 -0.107205994 0.12523338 -0.053630386
0.08404044 -0.13011639 0.071377076 0.15817614 0.051250894 0.04878596 -0.13154988 0.017241605
-0.02202932 -0.15241963 0.11330553 0.0017571017 -0.14660469 0.03169485 0.08969974 -0.101620704
0.15742755 0.104577266 -0.047877945 0.020667281 0.12954588 -0.0043596188 0.13591073 -0.110062055
0.05859337 0.09143973 -0.111980684 -0.0103600435 -0.07375329 0.031480197 -0.14180744 0.11305987
0.07998024 0.11317481 -0.15326262 0.16344938 0.09376939 0.13083614 0.09526585 -0.013548942
-0.1577969 0.13212705 -0.13939202 -0.04035254 -0.009034033 0.15262324 0.049478672 0.09451479

conv_block_2.5.bias f4 [4]
00000000: 7b4c f63c 7e0e ab3d 3759 aabd 3c66 4fbc
0.030065766 0.083523735 -0.08317798 -0.012658652

conv_block_3.0.weight f4 [4]
00000000: 45ff 7f3f 0c00 803f d0ff 7f3f 6000 803f
0.99998885 1.0000014 0.99999714 1.0000114

conv_block_3.0.bias f4 [4]
00000000: b6cd a8b6 7682 8235 798f ad34 10e3 ba36
-5.030738e-06 9.723724e-07 3.232815e-07 5.5696655e-06

conv_block_3.0.running_mean f4 [4]
00000000: 8951 e33d cc6a d33d 664d 4fbb 20f1 e63d
0.11099536 0.10323104 -0.0031631826 0.1127646

conv_block_3.0.running_var f4 [4]
00000000: b01e 463f 0cac 423f d7c0 3b3f 1614 573f
0.77390575 0.7604377 0.73341125 0.84015024

conv_block_3.2.weight f4 [8, 4, 3, 3]
00000000: b3fb 863d b4e2 0abe 53ff 623d 2ff7 003b
00000010: 0f13 a0bc e168 c53d 5b68 c63c 6abf 153e
00000020: 40d7 f73d 8d26 25be 54db c3bd 55c2 213e
00000030: 607c 9ebd c029 8a3d dbeb 043e c5f1 eebd
00000040: 8d6a dc3d 46b3 86bd d5b3 2d3d 602a 983d
00000050: bccd e0bd e73f 3bbb fb65 dd3d 499d a83d
00000060: 61f3 dc3d ede0 203e 3949 b13d c396 263e
00000070: caaf 223e b057 9dbd 474e af3d 6fda 173e
00000080: e0f5 22be 769a c23d 32fe c9bd 7568 623d
00000090: bb03 b3bd c683 fd3d 03dc fc3d 05ef 073c
000000a0: 3b64 5d3d d1ae 993d e13a e63d 408b 08be
000000b0: 0f13 5c3d 9c60 13bd 37a0 bbbd 0652 593d
000000c0: ad71 e1bd c646 9e3d ce1b a33d 2b3a 92bd
000000d0: f87b 0d3d 13b1 28be bd26 063e 69ff cabc
000000e0: 68cc 0ebe 3a0e 2bbd 04ce 953d fd48 f33c
000000f0: 56fb b03d e00b af3c f8a7 c53d ccd0 d73d
00000100: 4e3f a33c dce1 80bd d63f fa3d 1d06 b93d
00000110: a1d1 debd 7491 4cbd 69f5 18be c4c6 573d
00000120: 53f9 43ba 6b40 453c 6b82 13be 6c15 fb3c
00000130: a759 67bb e37e fb3c e193 28bd c031 a3bd
00000140: f273 bcbd 7b7b e13d 14f0 c83c d601 b63d
00000150: c20e a3bc 0d5c ba3d 177a 483c df11 8cbd
00000160: d22d ef3c 5b99 1ebe 0000 aa3d 192b e33d
00000170: 20c2 673b 4332 b23d f12c 8cbd 77e6 483d
00000180: 1f7f 813c 6ad2 e63d d5e4 96bc 23eb a63d
00000190: e296 e73b 1a0d 143e a4fa 233e 24d5 e13c
000001a0: 3ea8 42bd 7671 003e 91e9 193e b707 5d3d
000001b0: 01f1 eabd 6f26 dabd 4c9d 05be a3c5 203e
000001c0: f76e 1dbd ef9a 88bd 6971 473b ac04 323c
000001d0: ff4c d73c 69f5 043e 7a34 68bb 1567 0c3e
000001e0: ae3a b43d ef5f e63c 8063 d83c 1d1b b2bd
000001f0: 5144 27be 23da f73c 8548 debc 45b7 0e3d
00000200: d1b9 d03d 4528 f7bd f539 063b 2fad c03d
00000210: bd68 16bd cbc4 b43c 8b64 6a3d 3cbc b6bd
00000220: be3d 11be dd5c 30bb 04bb 0c3d 7f33 87bd
00000230: 1a39 0c3e a6fa 1b3d 0826 20be 354d 673d
00000240: 23c7 d13d a2ec 99bc 7cf7 dcbb 08a1 3cbd
00000250: e5b2 d2bd 1650 2abe cb74 86bd 71f8 6abd
00000260: ed44 3abd 7004 a3bd eb51 ce3d baee d03b
00000270: 38a2 dabd a42c aa3d 0171 a3bc fe21 cf3b
00000280: 1d6d 9e3d 8ef8 05bd 048a 1cbe 9d24 a8bd
00000290: 4747 af3b 1aa6 1bbe e1e2 ae3d 99b9 f13d
000002a0: e267 783c d4aa f13c caf7 0e3e 9b26 0f3e
000002b0: 3b78 cf3d 41ba 193e 0813 4e3d a86a 1e3e
000002c0: 6787 963d 03e0 413d d708 a8bd 5a3e 01be
000002d0: 9fa8 58bd 3cb7 283e 59a9 23be 9b52 37bd
000002e0: 08a4 f83d 7f16 f03a 1016 083e 806c 6739
000002f0: a350 81bd bb07 73bd f600 8e3d d555 d43d
00000300: eb9f ab3d 36aa ec3d a7b4 a53d fd5d a3bc
00000310: 5050 1a3e a205 25bc 0997 b03d b04c 02be
00000320: 7515 e93d 7a22 b93c 20eb 41bd 824d e0bd
00000330: 5356 8c3d 9d0e 203e 2ed4 903d d914 e73d
00000340: b206 b23d 8ea8 38bd 66af 963b 2e2d e4bd
00000350: e0c5 10bd 739b 0f3e d46c 3cbd 6489 fcbc
00000360: 9506 e0bc 9ed0 213d a2e3 f6bd e2ac a2bc
00000370: 9158 fe3d f880 1abe 6c40 06be 542f a0bd
00000380: 55e6 fc3d b133 8b3d 2495 b6bd 5357 96bd
00000390: 0be8 c7bd 30bd c83d 1b63 1bbd 547b 88bd
000003a0: d64b d3bd 51a5 00be 5034 843d 9d9f b73d
000003b0: 2a88 20be 2194 143e 7605 973d d442 1c3e
000003c0: daaa 9cbc 819b f9bd da59 18be cbd5 9ebd
000003d0: 99f4 e1bd 8026 51bc b11b 233e 98b3 073e
000003e0: 6310 ebbd 2205 0e3e fc06 663d 794b 04be
000003f0: 362f 753d d869 a73d 5f6e 23bc 459b d3bd
0.065909766 -0.13563043 0.055419277 0.0019678583 -0.019540338 0.09639145 0.024219682 0.146238
0.121016026 -0.16127987 -0.09563318 0.15796788 -0.077385664 0.067462444 0.12980597 -0.11667208
0.107625104 -0.065771624 0.04240783 0.074299574 -0.10976741 -0.0028572024 0.10810467 0.08233125
0.10788608 0.15710802 0.08656544 0.16268449 0.1588737 -0.07682741 0.08559852 0.1482942
-0.15914106 0.09502117 -0.09862937 0.0552754 -0.08740946 0.123786494 0.123466514 0.008296733
0.054050665 0.07504047 0.11241699 -0.1333437 0.053729113 -0.035980806 -0.09161418 0.05305674
-0.1100801 0.07728343 0.07964288 -0.07140001 0.034542054 -0.16473798 0.13100715 -0.024779992
-0.13945162 -0.041761614 0.07314685 0.02969789 0.086416885 0.021367967 0.09651178 0.10537872
0.019927647 -0.06293079 0.12219207 0.09034369 -0.10879827 -0.049943402 -0.14937367 0.052679792
-0.0007475812 0.012039284 -0.1440522 0.030649863 -0.003530124 0.030700153 -0.041156653 -0.079684734
-0.09201802 0.1100988 0.02452854 0.08887069 -0.019904498 0.090995885 0.01223614 -0.06839346
0.029196654 -0.15488188 0.08300781 0.110922046 0.003536351 0.08700993 -0.068445094 0.049047913
0.015807686 0.11270602 -0.018419662 0.081503175 0.007067547 0.14458123 0.1601358 0.027567454
-0.04752373 0.12543282 0.15030505 0.053962436 -0.11471749 -0.10651862 -0.13048285 0.15700392
-0.038435902 -0.06670176 0.0030432588 0.010865372 0.026281832 0.12984242 -0.003543167 0.13711198
0.08800255 0.028121917 0.026414633 -0.08696578 -0.16334654 0.030255383 -0.02713419 0.03484275
0.10191692 -0.12068228 0.0020481322 0.09408032 -0.03672098 0.022066494 0.05722479 -0.089226216
-0.14183709 -0.002691082 0.03435804 -0.06601619 0.13693658 0.038080834 -0.15639508 0.056470115
0.102430604 -0.018789593 -0.0067433696 -0.04605201 -0.10288028 -0.16632113 -0.06565245 -0.05736584
-0.04547589 -0.07959831 0.10074218 0.0063761147 -0.10675472 0.08309296 -0.019951345 0.006321191
0.077356555 -0.032707743 -0.15287024 -0.082101084 0.005349073 -0.15200081 0.085393675 0.11802978
0.015161486 0.029500403 0.13961712 0.1397957 0.10130354 0.15012456 0.05031112 0.15470374
0.07350045 0.047332775 -0.08204811 -0.12621441 -0.052895185 0.16476148 -0.1598257 -0.044756513
0.121406615 0.0018317251 0.13289666 0.00022070296 -0.06314208 -0.059333544 0.06933777 0.10367934
0.08380111 0.11555903 0.08091097 -0.019942278 0.150697 -0.010072144 0.08622558 -0.12724566
0.11381046 0.022599448 -0.047343373 -0.109522834 0.068524025 0.15630575 0.0707172 0.11283273
0.08692683 -0.04508262 0.004598546 -0.1114143 -0.03534496 0.14024143 -0.046002224 -0.030827232
-0.027346889 0.039505593 -0.12055136 -0.019857828 0.124192365 -0.1508826 -0.13110512 -0.07821527
0.1234862 0.06796969 -0.08915165 -0.073408745 -0.097610556 0.0980171 -0.03793631 -0.06664148
-0.10317199 -0.12563063 0.0645529 0.08965991 -0.15676942 0.14509632 0.073740885 0.15259868
-0.019124437 -0.12187863 -0.14878026 -0.077556215 -0.110329814 -0.012765527 0.15928532 0.13252103
-0.11477735 0.13869146 0.056159005 -0.12919416 0.059859477 0.08174485 -0.009975045 -0.1033235

conv_block_3.2.bias f4 [8]
00000000: b1b4 023e 385a 03be 7d5a 9a3b b84f 8c3d
00000010: 925b 40bd 7c58 d3bc af1a 24be 52fe ed3d
0.12764241 -0.12827384 0.004710494 0.06851143 -0.04696233 -0.025799029 -0.16025804 0.116207734

conv_block_3.3.weight f4 [8]
00000000: 2400 803f 73ff 7f3f ecff 7f3f cdff 7f3f
00000010: 6800 803f 4cff 7f3f deff 7f3f 3600 803f
1.0000043 0.9999916 0.9999988 0.99999696 1.0000124 0.9999893 0.999998 1.0000064

conv_block_3.3.bias f4 [8]
00000000: 8a7a f5b5 1c8d 4bb5 5ad8 d135 8ca1 d133
00000010: 2be1 b536 fbaf bf35 74d0 a0b6 3eba feb5
-1.8289586e-06 -7.5828734e-07 1.563468e-06 9.761706e-08 5.4204334e-06 1.4281826e-06 -4.7926387e-06 -1.8978678e-06

conv_block_3.3.running_mean f4 [8]
00000000: de7a 103e 72c0 60bb aaea 9b3d 7c2c d43a
00000010: ade3 82bb cc25 8e3d 61c1 b6bd 9793 363d
0.1410937 -0.0034294394 0.07613118 0.0016187574 -0.003994426 0.06940803 -0.08923603 0.044574346

conv_block_3.3.running_var f4 [8]
00000000: 63b0 553f 416a 403f 7ddd 4a3f ed64 443f
00000010: 91ae 443f 6779 533f 9a16 4a3f 6d89 483f
0.8347227 0.7516213 0.79244214 0.767165 0.7682887 0.8260712 0.7894074 0.78334695

conv_block_3.5.weight f4 [8, 8, 3, 3]
00000000: 5dd6 aa3d 3eba c93c 8b1c d2bd 0239 b83c
00000010: 7152 dbbd b157 f53c f17c 29bd 0338 f0bd
00000020: c43a 973d 95fd e8bd 55e0 573d 89ef 813c
00000030: 65cc c33d 484e d13d 0ab2 b13d 9421 f5bc
00000040: 2b9c 193d 5e8c 3ebd 92e0 93bd 406b aa3d
00000050: 2a41 6fbd a1f0 b6bd 6de1 c63b 8b3e 95bd
00000060: dc75 38bd a43f ccbd afb8 02bd 4e32 c33d
00000070: 4153 6c3d f30e bdbc bc1c b2bd b412 86bc
00000080: c2f1 a4bd 8615 46bd 0d9e bd3b c350 dc3d
00000090: 7a18 2bbd a1fe d53c f73a 903d 1162 ddbb
000000a0: 16f3 cf3d 7f7c 39bb f135 8f3d e86c d13d
000000b0: 4b79 333c bed7 b13d 6e2a fdbc bd62 e7bd
000000c0: 13d0 f73c e09d 92bc b5bc bcbd 8f6c d03d
000000d0: 516a d6bc 9d0d 81bd ac35 2e3d 1b01 6dbc
000000e0: e768 babd 2d42 64bc 851e b4bd d909 833d
000000f0: 1161 27bd 3335 9cbd 58bf af3c 9a07 29bd
00000100: 6400 babc 6ce2 333d dcab 4dbd a6b9 b93d
00000110: cb33 82bd 201d 593b e44c 953d 91e7 40bc
00000120: c246 d7bd 01e8 aabd 3de0 c93d 6028 a9bb
00000130: 3baf 97bd 41bf 26bb 5de3 adbd ec61 843d
00000140: 92b8 f4bc cc5f 803d edbb d5bd b24e e1bc
00000150: 071d 6b3d 8a0d d33d 3c7a e03d 5883 e23c
00000160: aa39 e03d 26a0 86bc 2426 35bd 7d6c 4bbd
00000170: 7689 28bb 07b0 4cbd be75 273c c67e b0bb
00000180: 3906 9dbd 7857 c7bd ae39 de3c 1430 f3bc
00000190: f1a1 89bd 1e51 7b3d 20d4 d8bd 79f0 5e3d
000001a0: 3210 a6ba 6954 c6bd 1bb0 a9bc 8ce0 e23d
000001b0: d0c8 473d 48fb 88bd 7a97 cfbc 7b13 373d
000001c0: ed2f 683d 98c8 ce3d c450 803d 41ce a03b
000001d0: 1b24 cb3d b5bd 9fbd 7075 2f3c 84bd 4f3d
000001e0: 242b aabd cc33 b43d 4ba8 32bd 18dd b33d
000001f0: 5b65 a53c 8392 ab3d a6cd 47bc 35ef 2f3c
00000200: 8a0a a23d 5340 8b3d 62fa 20bd 9a81 f03d
00000210: cbeb 31bd b2b8 5c3d 9fc8 0a3d 5e85 41bd
00000220: 4173 d33d d91a 7cbd 2c17 02bd 64da 3b3d
00000230: 33f5 883d 6e33 9c3d fdbd 34bc 5830 1a3b
00000240: 22d1 94bc 24ed 48bd dabd 163d d4e1 813d
00000250: 596c 0a3c ac17 09bd 7175 d63d 2df1 993d
00000260: 0de9 323d 119d a53c 6a19 f7bc aef9 a63d
00000270: f8ec 9cbd 8273 aa3d db41 b43d 9597 6bbc
00000280: 9a13 923d 2ed7 20bd fb42 4fbd a5b3 473c
00000290: 97bb eb3d 967c 6a3d 531b 903b 6b4a afbd
000002a0: db51 b3bd 14e3 dfbd 104b 963d b042 81bd
000002b0: fae2 a8bd a781 4d3c 38a2 d9bd 6fc8 c23c
000002c0: 0281 c23d 8b28 153d 85e8 ac3d f9cf 10bd
000002d0: e928 96bd 75bb f7bb 38a3 9cbd a200 ef3c
000002e0: fe23 e93c 5a4e 2e3d efd9 b53d f370 0e3d
000002f0: 3da9 6ebd dc12 b63d c83f c2bd 8f61 d13d
00000300: a72d afbd 2aa7 d4bd cd47 17bd dc5c c03d
00000310: 6766 a83d 69e5 c2bd a272 e2bd cba3 1a3d
00000320: d4a7 33bd 1ac0 8cbd 4e94 adbd 3c07 4cbd
00000330: 6579 7b3d 2d28 39bd 5180 8bbd b58d 0dbd
00000340: c5b8 49bd 3763 ae3d 7ee1 34bc 45f2 bcbd
00000350: b0ee 60bd d772 283c f145 503d aa02 18bd
00000360: 3145 07bb 50c4 a13d 85fe 323d b38c 89bd
00000370: 7a2a d03c 00a0 debc e0b0 c6bd 61fc 54bd
00000380: 8d74 493d 855a 9abd 2a49 733d 2509 eeba
00000390: 01cc be3b 5fed 07bb 6c23 833d 05c0 e83d
000003a0: 2658 d4bd 7332 483d 4597 c23d 455c 15bd
000003b0: a555 3c3c a417 b9bd 61c9 5b3d bfcd ac3c
000003c0: 0139 e33c 1a3d f7bc 8acd 1fbc 3e5e 69bd
000003d0: 04b2 ea3d c037 bf3d e2c2 83bc 2097 cc3c
000003e0: d98f cbbd 62a6 5dbd d687 6d3d 87b6 ae3d
000003f0: c92c afbd e7bf a1bd 66b4 ddbd 5a50 183c
0.08341668 0.02462494 -0.102593504 0.022488121 -0.10709084 0.029949041 -0.04137892 -0.117294334
0.073842555 -0.11376492 0.052704174 0.01586129 0.095604695 0.10220009 0.086765364 -0.029923238
0.03750245 -0.046520583 -0.07220568 0.083212376 -0.058411755 -0.08932615 0.0060693533 -0.0728732
-0.045034274 -0.09973076 -0.03191441 0.09531079 0.057696585 -0.023078417 -0.08696887 -0.01636634
-0.08053924 -0.04836037 0.0057866634 0.107575916 -0.04177139 0.026122393 0.07042497 -0.006756075
0.10153787 -0.0028302965 0.069927104 0.1022585 0.0109542115 0.08683728 -0.030904021 -0.1129813
0.030250585 -0.017897546 -0.092156805 0.10176956 -0.026173742 -0.06301425 0.042531654 -0.014465596
-0.0910204 -0.013931793 -0.08794884 0.06398363 -0.040864054 -0.076273344 0.021453544 -0.041267015
-0.022705264 0.043917105 -0.050212726 0.09068613 -0.06357535 0.0033128932 0.07290056 -0.01177396
-0.10511543 -0.083450325 0.09857223 -0.005162284 -0.074064694 -0.0025443586 -0.08490632 0.064639896
-0.029873166 0.06268272 -0.104362346 -0.027503345 0.05740073 0.10305317 0.10960814 0.02765052
0.109484985 -0.016433787 -0.044225827 -0.04966401 -0.0025716699 -0.04997256 0.010220943 -0.0053862063
-0.076672025 -0.0973348 0.027127113 -0.029686011 -0.06720341 0.061356656 -0.10587335 0.05442855
-0.0012669622 -0.09684069 -0.020713856 0.11077985 0.048775494 -0.06688553 -0.025340784 0.044696312
0.05668633 0.10096854 0.06265405 0.0049074 0.09918996 -0.077998556 0.010709152 0.050717846
-0.0830901 0.08798942 -0.043617528 0.08782405 0.020189932 0.08377554 -0.0121950265 0.010738184
0.079121664 0.06799378 -0.039301284 0.117434695 -0.04343776 0.053887077 0.033882733 -0.04724633
0.10324717 -0.06154904 -0.03176038 0.04586257 0.06687393 0.07626997 -0.011031625 0.002352735
-0.018166129 -0.04905428 0.03680215 0.063419014 0.008448684 -0.03346984 0.10471619 0.07516704
0.043679286 0.020216497 -0.030163486 0.08153091 -0.07662386 0.083228126 0.088016234 -0.014379402
0.07132645 -0.03926771 -0.050600987 0.012188827 0.11510389 0.05724772 0.0043977886 -0.08559116
-0.08755847 -0.109319836 0.07338536 -0.06311548 -0.08246417 0.012543119 -0.10626644 0.023777215
0.094972625 0.036415618 0.08442787 -0.03535459 -0.07332022 -0.0075601884 -0.07648319 0.029175106
0.028459545 0.04255519 0.08879458 0.034775686 -0.058266867 0.08890316 -0.094848216 0.10223686
-0.08553629 -0.103834465 -0.03693371 0.093927115 0.08222657 -0.09516413 -0.11057021 0.03775386
-0.043861225 -0.06872578 -0.084755525 -0.049811587 0.061395068 -0.04520433 -0.06811584 -0.03455897
-0.049248476 0.085150175 -0.01104009 -0.09225897 -0.05491513 0.010281286 0.05084795 -0.037111916
-0.0020640607 0.07898772 0.04369976 -0.06716289 0.02541088 -0.027175903 -0.09701705 -0.0519985
0.049183417 -0.075367965 0.059395947 -0.0018160684 0.005822659 -0.002074085 0.064032406 0.1136475
-0.103683755 0.048876237 0.095015086 -0.03646495 0.011495029 -0.09037712 0.053658847 0.021094201
0.027737143 -0.030180503 -0.009753594 -0.056974642 0.11459735 0.09336805 -0.016084138 0.024974406
-0.09939546 -0.054113753 0.05799087 0.08530908 -0.08553464 -0.078979306 -0.10825424 0.009296501

conv_block_3.5.bias f4 [8]
00000000: bca7 d9bb 3c6b bd3b 44cd 383c 68bc b63c
00000010: d2c4 57bd 68a7 b0bc 5223 9f3d 061f 433d
-0.00664231 0.0057806056 0.011279408 0.022306636 -0.052677937 -0.0215642 0.07770409 0.047637008

conv_block_4.0.weight f4 [8]
00000000: 0600 803f b8ff 7f3f edff 7f3f 92ff 7f3f
00000010: 3300 803f c3ff 7f3f 1800 803f 1e00 803f
1.0000007 0.9999957 0.99999887 0.99999344 1.0000061 0.99999636 1.0000029 1.0000036

conv_block_4.0.bias f4 [8]
00000000: 8021 dfb1 516a 0536 43ca 0235 fef0 a7b5
00000010: f879 f234 9494 8cb6 eb50 3635 1627 3236
-6.4939627e-09 1.9880429e-06 4.8723103e-07 -1.2512608e-06 4.5164757e-07 -4.189622e-06 6.7918035e-07 2.6546818e-06

conv_block_4.0.running_mean f4 [8]
00000000: 097b 0f3c 2fa8 c03d bc7b 063d 6a76 b43c
00000010: 501c 8a3d 7ca8 34bc bdea cb3b 47b4 ff3d
0.008757361 0.094070785 0.032832846 0.02202912 0.067436814 -0.011026498 0.0062230513 0.12485557

conv_block_4.0.running_var f4 [8]
00000000: ea39 3c3f f3b2 443f 4d99 413f 580d 3d3f
00000010: e168 463f 2b68 3c3f 08a1 3c3f 4451 433f
0.7352587 0.76835555 0.75624543 0.73848486 0.7750378 0.7359645 0.73683214 0.76295877

conv_block_4.2.weight f4 [16, 8, 3, 3]
00000000: 0ffa 9bbd 7a15 9b3d 2d88 b13c f8ad 973d
00000010: 369f 96bd 745f 753d 400d d43d 6ee5 933d
00000020: dae7 aabd 55e7 0f3d 6d38 63bc 4705 1bbc
00000030: bb6a ba3a 8d73 a0bd e93e 42bd c2a0 863c
00000040: d224 f1bd 9355 ac3d b39d 413d d098 e53d
00000050: 31c9 88bd 7083 ca3d 84f4 2fbd 9e83 753d
00000060: 8237 a43d 45e2 ce3d c339 8d3d fb04 0e3d
00000070: 4846 733d 671a d2bc 0b03 eb3d d447 a6bd
00000080: cf3f 2cbd 2888 b3bd 24c5 ab3d 2232 513d
00000090: 386e b13d a6b0 d7bd 3c2e 383d 6adc d4bd
000000a0: 436a 0f3c 7e53 ddbd cfbe 8b3c eb33 6abd
000000b0: 2261 9d3d a05c 79bd cdd7 e33d c744 5bbd
000000c0: eb06 e2bd ab00 de3d a921 623d 8c4b b8bd
000000d0: 0293 d93c e726 a63d 6b23 bebd 3eaa 86bd
000000e0: 9068 653d 6844 023d a0e9 933c e3fe 813d
000000f0: 7fc9 013d b778 59bd ebdc e6bd 28dd 52bd
00000100: 05d5 4d3d 80a6 d43d 2c55 aebd 00d2 ed3d
00000110: 6d89 e63d abc4 593d 998c 8abd a8d0 b2bc
00000120: 0f23 20bd 4c78 af3d 6242 66bc 3200 8bbd
00000130: 5a91 123d 0ec3 0cbb 0bd8 c43d 603f 1cbd
00000140: 9075 d63c 5fc9 0fbd 1e1b 953d 6c84 28bd
00000150: f443 033d 889e c1bd 7012 b3bd 53f5 2e3d
00000160: c089 0cbc a45a 873d 09a1 67bd e08b 98bd
00000170: 0786 d7bd d5e3 663d d2e1 e7bc ad36 883b
00000180: 2f73 55bd acde 543d 02d0 c8bd 03d6 783d
00000190: 3a91 fe3c 5cbc 573d 269e 863d 0c00 b53d
000001a0: 7974 4dbd 9411 933d 3a2d 0c3d f699 9e3c
000001b0: b422 733d 714d 31bd e393 d1bd 63a4 313c
000001c0: f2fa ec3b 52ad 3c3c d537 8d3d 62b4 07bb
000001d0: 99d9 59bd 3579 96bd f408 293d 2872 bb3d
000001e0: 69b5 51bd f5bb 9bbd d733 c43d 7344 dabd
000001f0: 1e77 503d 149c 3cbd 7167 a73d 5c17 80bd
00000200: 90fe c03d db11 cf3c deb3 e9bc 93f2 d7bd
00000210: 584a 8dbd 16ea 883c 9baf bebd 3ade 883d
00000220: 4b38 3d3d 6434 97bb 43e5 4a3d b054 8bbd
00000230: 109a 2abd d219 a9bd 066a e93d 279d d2bd
00000240: 2a47 893d 21bd 183c b40c edbd 66f2 c6bd
00000250: de9b 60bd 7732 503d c1e6 cc3c 84d3 2f3d
00000260: 65cf 82bd 88dd 4ebc 32ef b5bd 1361 e2bd
00000270: 42cb 243d 9f38 4e3d e510 a23d b47d d4bd
00000280: 4225 813d c1a2 f33c c503 dabd 9e2f 46bd
00000290: fd16 7b3d 1898 cabd b6db d8bd 27c0 85bd
000002a0: e59a 713c 673e 45bd 19eb 753d 1e30 69bc
000002b0: 2000 eebd 8864 14bc 47c5 e3bd ba29 2c3d
000002c0: f9fa b2bd 9de0 373d 8ee2 47bd 7da0 a0bd
000002d0: cc10 e43d 6b84 563d 7d92 dfbd ec72 893d
000002e0: 2d8d 8f3b f024 bc3d c072 c43d d153 d83d
000002f0: e6a6 c03d 90ec 863c 3b1f f03c 584c e23c
00000300: 048a 853d caa0 1d3d 17d7 8e3c 36af c9bd
00000310: 2277 5fbd 5f0c a0bd 1311 f03c f1fc 53bd
00000320: 796c 14bd 13c2 833c b49c b9bd ddbe 323d
00000330: cab9 e1bd edfa 1bbc 8634 eabc 91e9 b3bd
00000340: 126e edbd 4774 9fbd 70ae af3d b04d 213d
00000350: 2b33 8bbc 73fc 943c d187 dabd 86b5 063d
00000360: d337 b73d 75bc 763d 4057 af3d 0fbe b6bc
00000370: e3b2 f8bc b1ec 833d 04d2 a4bd ab8e 92bd
00000380: 04b9 cf3d c136 ac3d 52b7 a1bd 7ee9 5ebd
00000390: ae3d 70bd 625e 693d b40d 62bc 391e a7bd
000003a0: b767 e1bb 490c 1fbc a9d0 8dbd 8e9c cbbd
000003b0: 0e7b 85bd f6ce e43d 9479 79bd 4f63 c83d
000003c0: 81ce 80bc 7ba1 c53d d647 893d a9b6 6f3d
000003d0: 48a5 98bd 29d6 1ebd 4863 0bbd 20a5 ac3d
000003e0: 934c 5a3d 280d e5bd 8060 c13c 1947 b1bd
000003f0: abb2 10bd fa94 d33d a3d0 bb3c d280 693d
-0.07616054 0.07572456 0.021671379 0.07406229 -0.07354586 0.059905484 0.1035409 0.072214946
-0.083450034 0.035132725 -0.013868433 -0.009461707 0.0014222482 -0.078345396 -0.047423277 0.016434077
-0.11774601 0.084147595 0.047269534 0.11210787 -0.06678999 0.09888351 -0.042957798 0.059939973
0.080184 0.10101751 0.06895783 0.03467272 0.059393197 -0.025647355 0.1147519 -0.08119169
-0.04205304 -0.08766204 0.08387211 0.0510732 0.08663601 -0.1053174 0.044965968 -0.10393603
0.008753362 -0.108069405 0.017058758 -0.05717842 0.07684542 -0.06087935 0.11125145 -0.053532388
-0.11036476 0.10839971 0.055207882 -0.089987844 0.026559357 0.08112889 -0.09284099 -0.0657544
0.05600792 0.03180352 0.018055737 0.06347444 0.031686302 -0.05309364 -0.112726055 -0.051480442
0.05025198 0.1038332 -0.08512339 0.1161232 0.11256681 0.053166073 -0.06765098 -0.02182801
-0.039095934 0.08567867 -0.014053913 -0.06787147 0.03578315 -0.0021478566 0.096115194 -0.038146377
0.026179105 -0.03510415 0.07280563 -0.041141912 0.032047227 -0.094540656 -0.08743751 0.04271443
-0.008577764 0.06609085 -0.05655006 -0.07448554 -0.105236106 0.05636962 -0.028305922 0.0041569085
-0.0521118 0.05197017 -0.09805299 0.060750972 0.031075109 0.052669868 0.06573133 0.088378996
-0.050159905 0.07181087 0.03422282 0.019360524 0.059359267 -0.043286745 -0.10233285 0.0108424155
0.0072320634 0.011515932 0.06895415 -0.0020706882 -0.053186033 -0.07347337 0.041268304 0.09152633
-0.051198397 -0.07604209 0.095802 -0.10657587 0.05089485 -0.046047285 0.08174027 -0.062544554
0.09423554 0.025277069 -0.02852815 -0.10544314 -0.068989456 0.016713183 -0.09310838 0.06683011
0.046196263 -0.0046143997 0.049535047 -0.06803262 -0.04165083 -0.08256878 0.113971755 -0.10283881
0.067030266 0.009322436 -0.115746886 -0.097142026 -0.054836147 0.050829377 0.025012376 0.042926326
-0.063872136 -0.012626059 -0.088835135 -0.11053672 0.040232904 0.050346967 0.079133786 -0.103755385
0.063059345 0.029740693 -0.1064525 -0.048385255 0.06130122 -0.09892291 -0.105887815 -0.06530791
0.014746402 -0.048155215 0.06003866 -0.014232663 -0.116211176 -0.009057172 -0.11121612 0.04203198
-0.087392755 0.044891942 -0.048800044 -0.07843111 0.11136016 0.052372377 -0.10916612 0.06711373
0.004380843 0.09186733 0.09592199 0.10562862 0.09406833 0.016470224 0.029311767 0.027624294
0.06520465 0.03848342 0.017436547 -0.09847872 -0.054556973 -0.078148596 0.029305017 -0.051754896
-0.03623626 0.016083753 -0.09063092 0.043639053 -0.110217646 -0.009520275 -0.028589498 -0.08784784
-0.1159326 -0.0778585 0.08578193 0.03938073 -0.016992172 0.018186783 -0.10670436 0.032887958
0.089461945 0.06023832 0.085615635 -0.022307424 -0.030358737 0.0644163 -0.0804787 -0.07156118
0.10142711 0.08408881 -0.07896294 -0.054421894 -0.058652572 0.056974776 -0.013797212 -0.081600614
-0.006878819 -0.009707519 -0.069245644 -0.0994197 -0.065176114 0.11172287 -0.06090696 0.097845666
-0.015723469 0.096499406 0.06703155 0.058523808 -0.074534 -0.038778458 -0.03403023 0.084299326
0.053295683 -0.1118415 0.023605585 -0.08656139 -0.03532664 0.103311494 0.022926634 0.05700762

conv_block_4.2.bias f4 [16]
00000000: 8961 1ebd dd3e 8c3d b925 883d 8292 533d
00000010: e0e5 a33d b406 5c3c 5a10 afbd 4049 df3c
00000020: d96e 7e3d 8195 a0bd bf61 883d b59f 213c
00000030: 22bf 353d bcd5 13bd 2619 86bc 1515 bd3d
-0.038667236 0.06847928 0.0664782 0.051653393 0.080028296 0.0134293325 -0.08548041 0.027256608
0.06211743 -0.078410156 0.066592686 0.009864737 0.04437173 -0.036092505 -0.016369414 0.09232537

conv_block_4.3.weight f4 [16]
00000000: 0200 803f edff 7f3f e4ff 7f3f 9dff 7f3f
00000010: 2500 803f e7ff 7f3f 0b00 803f f6ff 7f3f
00000020: 0c00 803f 0000 803f 0f00 803f 2800 803f
00000030: f1ff 7f3f 99ff 7f3f 1100 803f d4ff 7f3f
1.0000002 0.99999887 0.99999833 0.9999941 1.0000044 0.9999985 1.0000013 0.9999994
1.0000014 1.0 1.0000018 1.0000048 0.9999991 0.99999386 1.000002 0.9999974

conv_block_4.3.bias f4 [16]
00000000: ba49 7334 04ba ecb4 56e2 3fb6 1e7a 5eb4
00000010: 6994 3835 dee9 9935 27e3 5e36 0f93 1235
00000020: 9a9b 3bb2 4077 8d35 f176 05b4 3429 1036
00000030: d969 b1b5 e24b 0cb6 9af9 8734 3c04 6335
2.265796e-07 -4.409377e-07 -2.8592963e-06 -2.0719787e-07 6.8761307e-07 1.1467453e-06 3.3212798e-06 5.4603237e-07
-1.0920212e-08 1.0540025e-06 -1.2429861e-07 2.1481655e-06 -1.3218333e-06 -2.0905795e-06 2.5327319e-07 8.457025e-07

conv_block_4.3.running_mean f4 [16]
00000000: 0f35 443d c454 26bc f69b 70bd e482 8b3d
00000010: 538c 2c3d 1023 0b3d 3833 4fbc 5925 b63c
00000020: f492 dc3c af00 dbbd c6f8 ef3c 9a3d 893c
00000030: cd67 93bd 62dd ed3c b940 2dbd ab7d 0f3d
0.047902163 -0.010152046 -0.058742486 0.06812075 0.04212601 0.033968985 -0.012646489 0.022234606
0.026925541 -0.1069349 0.02929343 0.016753007 -0.07197533 0.029036228 -0.042298052 0.035031956

conv_block_4.3.running_var f4 [16]
00000000: 044b 463f 8ea3 433f ee34 4a3f 8787 433f
00000010: 29f4 433f 5c29 423f bef4 433f d6e7 433f
00000020: d6c9 423f 50a6 543f 21e7 413f 6b3a 413f
00000030: b4a6 473f 43f2 4d3f 7499 483f c753 443f
0.77458215 0.7642144 0.78987014 0.76378673 0.76544434 0.7584436 0.7654532 0.7652563
0.7608923 0.8306627 0.757433 0.75479764 0.77988744 0.8044779 0.7835915 0.76690334

conv_block_4.5.weight f4 [16, 16, 3, 3]
00000000: 23fb ae3b 4962 8a3d 9fd6 60bd a4c1 8b3c
00000010: 543f 15bd c24b 0d3d 1de6 a8bd a0fe 8cbb
00000020: bbc6 783d b3e4 9ebc 4404 573d 8389 78bd
00000030: 24e2 99bc a4aa 673d 8faa a2bc 7419 143d
00000040: bc06 0bbd 5473 133d ede6 db3c 1bf1 1c3c
00000050: 42e4 e4bc b60b 853c 57d3 653d 5c5c 363d
00000060: 0902 613d be64 813d 23f1 0e3d 18f0 053d
00000070: e224 b9bc d675 a23d 80a0 b73c 05e0 67bc
00000080: b769 48bd d50a 96bd 0d6f a1bd 772f 0bbd
00000090: bb32 18bd f141 8abc e6f1 83bc 4419 74bd
000000a0: 5b11 a7bd 827a 963d 0049 803d c581 a9bd
000000b0: 86ac 013d 27d7 da3c 7310 6e3d 8e80 493d
000000c0: 7672 513d c17b 15bd 9a42 8f3c 4bd4 eb3c
000000d0: 941a 653d 84e9 b4bc f8be 563d 8e5d 413d
000000e0: 22f6 2a3d cea4 363d f323 47bd fbc2 a23d
000000f0: a87d d1bb 6adc ff3a 7f10 623d d087 9d3d
00000100: f472 9d3d 8e00 aa3d ae40 27bc 72d3 5f3d
00000110: 46c6 6abd 7cb4 8bbc 6bac cdbc 2195 da3c
00000120: 769b 533d ffed 903d 8140 b83c 1c3d 39bc
00000130: d2e4 383d f7a9 89bd fa66 7a3d e19f 69bd
00000140: aa9b 00bd 8306 37bd 99f6 97bd 3ef5 32bc
00000150: 3537 e23c bfce d73c d896 71bd f131 86bd
00000160: 1614 80bc ca36 983d 7111 c2bc 5795 2b3d
00000170: aca9 a23d 78bd 3639 7816 8abd 1d26 8e3d
00000180: 4940 88bd f5d0 82bd b03d 3f3d 0657 293d
00000190: 8a03 513d 6d27 8c3d 2fc5 64bd 639d 7abb
000001a0: 0b5c 04bc 9535 09ba 5c7c 173d 0e56 c03c
000001b0: 87e1 10bd 8fe2 79bd c405 853c 3b6e ea3b
000001c0: d334 74bd 2ac1 a0bd b1bd 5c3b d0a8 27bb
000001d0: b9f3 08bd d1b5 a03d e1aa 58bd 5d43 413d
000001e0: e449 793d fbb4 87bc fd27 343d 1ee2 65bd
000001f0: 2edd 923a b70b a63d 2752 85bd 46f3 9abc
00000200: 6ae3 e33c 7b97 9abd 5599 933c 7196 9cbd
00000210: add7 9ebc fa37 f33c 858a bbbc e5a0 1a3d
00000220: b262 7e3d d011 123c 5160 6bbd 82b6 41bd
00000230: 8baf 353d 1e79 613d c9bf d83c d1ec 9b3c
00000240: e788 bfb9 1f2c 113d b244 96bd 9d4f 9d3c
00000250: 89b4 e53a 02e5 9abd c2b2 8a3d ef78 85bd
00000260: 8210 863c 6716 643c a6ad 933d 9227 4e3d
00000270: f57d 083d 5cf4 a0bd db0d 75bd e418 37bc
00000280: 6f9b 7c3d 2ea6 14bd b805 d4bb 7ab9 9f3d
00000290: 2c3c 9dbc c7a1 58bd 552d 3bbb d62e 0fbd
000002a0: 397a 75bd 751b cbbc d40b 33bb b608 41bc
000002b0: f95d c23c 73ae 35bd 3908 15bd 5830 f2bc
000002c0: 93e3 02bd 1072 19bd 5532 a63d ebfd 013c
000002d0: c832 d13c 2034 95bc 42cf 95bd f69e 583d
000002e0: 10bb 863c 61d0 3a3d 294b fc3c f4c6 86bd
000002f0: f91e c63c 9d55 893d 909b 973d fedc 7f3d
00000300: 2a3b f6bb 7a89 5d3d 99fc 86bd f82a 7f3d
00000310: b4a8 3abd cb31 44bd 4b3b 38bd 2a1b 903c
00000320: b30f b3bc b8b8 9abd 824b 273c a07e 6bbb
00000330: efc0 92bd 4fc9 53bd 3794 963c d6ac 423d
00000340: 0bf1 a4bd 3dae 4f3d 00eb 01bc 255b 893d
00000350: 4949 423d 7f3c bcbb 1a00 9cbc 1bc1 783d
00000360: d929 8fbd 74dc 0cbd ac4a eabc 3ddd 4cbd
00000370: 7f6c 60bc 38a7 ba3b 8af9 48bb 6ba8 693c
00000380: 5337 833d 8fef 16bd 566f 04bd 4bcc 7c3c
00000390: 4df7 a9bd e649 13bd 0448 803c 6998 7bbc
000003a0: eb9a 9abd 0242 6d3d 06dc f73b d290 d43c
000003b0: 85bb 9cbd 10a0 52bd b6a6 54bd fb01 aa3d
000003c0: f7f4 cbbb dd2b a63d 75fa ea3b ab5d f43a
000003d0: 160e 32bc 80b2 b4b7 a92a 603d 2ecb 4f3d
000003e0: afa4 9f3c d6fb 3bbc a8ef 0abc 869f 893d
000003f0: b1ef 873d 64eb 473b fa09 9abd e4e7 14bd
0.0053399964 0.06757028 -0.05489218 0.017060108 -0.036437348 0.034496076 -0.082470156 -0.0043028146
0.0607364 -0.019396162 0.052494302 -0.060678016 -0.01878459 0.05655922 -0.01985672 0.036157086
-0.03394197 0.035998657 0.026843512 0.009578968 -0.027940873 0.016240936 0.056109753 0.044521675
0.05493358 0.06318043 0.034897935 0.032699674 -0.022600595 0.07932632 0.0224154 -0.0141525315
-0.048928943 -0.07326285 -0.078825094 -0.033980813 -0.037157755 -0.016877146 -0.016106557 -0.059594408
-0.08157607 0.07347585 0.06263924 -0.08276705 0.03165867 0.02671392 0.058121156 0.049194865
0.05113455 -0.036494974 0.017487813 0.028787753 0.05593355 -0.022084005 0.052428216 0.04720836
0.041738637 0.044590764 -0.04861827 0.07947346 -0.006393153 0.0019520645 0.055191513 0.0769192
0.07687941 0.08300887 -0.010208292 0.05464501 -0.057317995 -0.017053835 -0.02510663 0.026682438
0.05166193 0.07076644 0.022491695 -0.0113060735 0.045140095 -0.06721871 0.061133362 -0.057037238
-0.031398453 -0.044683944 -0.07420082 -0.010922728 0.027614215 0.026343701 -0.058981746 -0.06552494
-0.015634578 0.07432325 -0.023689957 0.04189047 0.079425186 0.00017427455 -0.06742567 0.06940863
-0.066528864 -0.06387512 0.04668969 0.041342758 0.051028766 0.06843457 -0.05585211 -0.0038240782
-0.008078585 -0.00052341196 0.036983833 0.023478534 -0.03537133 -0.06100708 0.0162381 0.007154254
-0.05962069 -0.07849343 0.00336824 -0.0025582798 -0.033435557 0.07847179 -0.052897338 0.047183383
0.060861483 -0.01656579 0.04398345 -0.056123845 0.0011204833 0.08107703 -0.0650981 -0.01891483
0.0278184 -0.07548424 0.01801745 -0.07645882 -0.019389952 0.029689778 -0.0228932 0.037751097
0.062105842 0.00891538 -0.0574649 -0.047293194 0.044356864 0.055047147 0.026458638 0.019033821
-0.0003653236 0.035442468 -0.07337321 0.019203002 0.0017525117 -0.07563211 0.067723766 -0.06517207
0.016365293 0.013921357 0.07210855 0.050330706 0.033323247 -0.07859108 -0.059827667 -0.011175368
0.06167167 -0.036291294 -0.0064704083 0.07799049 -0.019193731 -0.052888658 -0.0028560956 -0.034956776
-0.059931014 -0.024793366 -0.0027320283 -0.011781862 0.02372645 -0.04435582 -0.036384795 -0.029564068
-0.031955313 -0.037462294 0.08115069 0.007934074 0.02553691 -0.018213332 -0.07314922 0.052885972
0.01644662 0.04560888 0.030797558 -0.06580916 0.02418469 0.067057826 0.07402718 0.062466614
-0.007514377 0.054086186 -0.06591148 0.062296838 -0.045571044 -0.04789905 -0.04497842 0.017591078
-0.021858072 -0.075547636 0.010210874 -0.0035933629 -0.071657054 -0.051705655 0.018381221 0.04752811
-0.08053788 0.050703276 -0.0079295635 0.067068376 0.04743317 -0.0057445164 -0.019043017 0.060731035
-0.06990404 -0.034389928 -0.02860006 -0.050015677 -0.0136977425 0.0056962036 -0.0030666315 0.014261345
0.06407037 -0.036849555 -0.03233274 0.015429567 -0.08299122 -0.035959147 0.01565934 -0.015356162
-0.075490795 0.057924278 0.0075640706 0.025947962 -0.07652954 -0.05142218 -0.0519168 0.08301159
-0.0062242704 0.08113835 0.00717097 0.0018643638 -0.010867616 -2.1540793e-05 0.054728184 0.050730877
0.019487707 -0.011473617 -0.00847999 0.0671988 0.066375144 0.0030505294 -0.07521434 -0.03635396

conv_block_4.5.bias f4 [16]
00000000: a90c 88bd ac3f 07bd d6a1 0a3d 8adb 5cbd
00000010: cc8a ab3c db48 1e3d 0c1c dd3c dd7d 283c
00000020: 6ca1 5dbd df28 853d 7ca0 b2bb ddce 94bd
00000030: c165 953d e5da 1cbc bfbb 6fbd 193f 16bd
-0.0664304 -0.033019707 0.033845745 -0.053920306 0.020940207 0.0386437 0.026990913 0.010283914
-0.054109022 0.06501936 -0.00545126 -0.072660185 0.07294799 -0.009573673 -0.058528658 -0.03668127

conv_block_5.0.weight f4 [16]
00000000: 0500 803f fbff 7f3f feff 7f3f 0500 803f
00000010: f3ff 7f3f d8ff 7f3f bfff 7f3f 0f00 803f
00000020: 0800 803f 1a00 803f e3ff 7f3f e2ff 7f3f
00000030: 0700 803f 1000 803f ecff 7f3f dbff 7f3f
1.0000006 0.9999997 0.9999999 1.0000006 0.9999992 0.9999976 0.9999961 1.0000018
1.000001 1.0000031 0.9999983 0.9999982 1.0000008 1.0000019 0.9999988 0.9999978

conv_block_5.0.bias f4 [16]
00000000: d46f 4eb5 6c81 2ab6 cb87 eb34 c211 b4b5
00000010: cfe2 f734 77b9 a8b5 3510 a8b5 659b 1135
00000020: 362c 6a35 2754 1a36 24f8 b2b5 3a55 3ab5
00000030: 21cb b835 b5c5 b135 415f 7bb5 7962 80b5
-7.690371e-07 -2.5407307e-06 4.3870963e-07 -1.3416213e-06 4.617236e-07 -1.2570953e-06 -1.2521692e-06 5.424284e-07
8.723613e-07 2.2996771e-06 -1.3334252e-06 -6.941442e-07 1.3768187e-06 1.3245068e-06 -9.36434e-07 -9.565402e-07

conv_block_5.0.running_mean f4 [16]
00000000: 0360 e33d 4934 533c b264 b03d 8f96 b23b
00000010: dd47 813d c6b0 ce3c de7c 223e 6472 b4bc
00000020: 3e7e f43c 5cb3 503d 2ace ef3d 95c7 2a3d
00000030: 83c8 773d d21e f23c c952 013d fa8b 6d3d
0.11102297 0.012890884 0.08612956 0.005450077 0.06312535 0.025230777 0.15867946 -0.022027202
0.029845353 0.0509523 0.117092445 0.041694243 0.060493957 0.029555712 0.03157309 0.05799482

conv_block_5.0.running_var f4 [16]
00000000: d5e1 573f bae8 3e3f f6b9 423f d35b 3b3f
00000010: 23dc 3f3f 7d5d 3f3f dfd2 453f 3f82 3e3f
00000020: 4249 413f 0e5c 3c3f 0ed2 413f 4677 433f
00000030: b9f3 433f 9064 3d3f b694 463f 34d2 3e3f
0.8432897 0.7457386 0.76065004 0.7318699 0.74945277 0.74752027 0.7727489 0.7441749
0.7550241 0.73577964 0.75711143 0.7635387 0.76543766 0.7398157 0.77570665 0.74539495

conv_block_5.2.weight f4 [32, 16, 3, 3]
00000000: 5631 f0bb bc15 653d 8f9e 13bc 08fb 2b3d
00000010: c691 423d 5268 abbc 6a94 843c efa1 9d3d
00000020: 9b78 a63c 7d43 713d 5074 ee3c fa70 08bc
00000030: 721f 543b 749c 883d 7c35 843d 513c 9bbb
00000040: 9a41 cc3c 73bd bf3c 1103 c83c 5db2 833d
00000050: b10f 363d bc34 dfbc 7403 933c 9ca7 133c
00000060: 1259 94bd 43f8 1a3c 3d19 843d 035b 80bd
00000070: 2788 9ebd ff5d 71bc 7bc0 a6bc b897 afbc
00000080: cea9 dabb 1bec 763d de1b 60bd 1d2a e9bb
00000090: ffa8 d93a fa08 883c e509 0c3d ee6c 20bd
000000a0: bd7a 693d d4a2 603d 6281 403d 8d8c 8c3c
000000b0: 6cf7 003d 0955 b73c fab7 71bd 1a87 913d
000000c0: a875 803d 9004 0dbd 1fe1 663d de75 dbbc
000000d0: ce5d 833d 9d47 b7bc 82e9 9d3c 3c45 613d
000000e0: 0522 75bc 172b 8b3d 8132 db3c 8de2 e6bc
000000f0: 6aab 213d b8f0 84bd be59 84bd 4671 8ebd
00000100: 7c0d a9bd 2a42 9dbd 634b 643d 49bc adbc
00000110: dd18 84bd 1ed7 6f3d d2fc 9e3c e66c 7cbc
00000120: 6242 8f3d 36e7 283d 3af9 9ebd 8796 0abd
00000130: 2170 efbc 5440 31bd e5f4 493d 011b a13c
00000140: d28f 92bb a4a0 a7bd 0ef7 313c 8cea 8b3c
00000150: 68d1 2a3d a58e 483d 82fb 91bc b17b 6f3d
00000160: 3d67 9a3d 7187 9d3d 7659 833d c99e 9dbd
00000170: 834e 983d 4e03 fcbc 5019 8c3d 5874 2cbd
00000180: 5d8d f83b ea94 863d 0607 cf3c 1eba 8e3d
00000190: 76f8 223d 3de5 d1bc 1a26 c93c 14e3 173d
000001a0: 78fe a5bc 937d 8a3d ba8e 85bd f9a5 1b3d
000001b0: 5bb1 7a3c 73e7 9ebd 30d4 19bd 10bf 5ebd
000001c0: d412 0cbd 59bb 39bd 853e 65bd 887a d7bc
000001d0: ae6e e6bb 2aaf 723d 0d30 37bc b939 c1bc
000001e0: bd95 7fbd b4db 8ebd 08f6 0f3d 36f5 30bc
000001f0: b415 04bd 10d7 093d d3ac 5cbd a94c 0b3c
00000200: 6e68 3bbd 879a 52bd 7f8b 6a3d 1d78 76bd
00000210: 0453 66bd fc21 413d e142 67bd 0301 5d3d
00000220: 15ea 913d e79b a73d ba6d 50bc b381 323d
00000230: 1edc df3c c778 f6bc 04f2 133c 0528 a4bd
00000240: 5870 66bd 9c7e 643d 652b 863c 8601 3abd
00000250: c487 a13d 02d0 4abd 21ba 66bc c591 203d
00000260: 20f1 3e3d c4b4 a6bd fb92 a7bd 5f83 a3bd
00000270: 5978 a4bd 4a2f 9b3c 24a9 54bc ca62 283d
00000280: bf24 523d 7afd 5fbd ba99 9bbc 611d a1bd
00000290: 9754 ce3b 7381 a9bc cc6c 97bc a787 6dbd
000002a0: 0268 9a3d cd4a 4cbd 3a89 ddbc 3c53 a7bc
000002b0: 2f65 8a3d 120f d03a 4d5e eb3c ccf8 80bc
000002c0: 4ddf eebc cd16 3e3c 23f5 683d 7f29 893d
000002d0: b9b2 dbbb 2c81 953d 7cca adbb 011e 88bd
000002e0: 3216 80bd d107 c33c 9993 60bd c2a2 373d
000002f0: dbad c33c 73f2 a0bd c3ea 2bbc 01b9 9dbd
00000300: 073d 97bd 01f8 12bc 7249 243d fe7c 73bd
00000310: 77f8 7cbd 2843 bd3c ba0d 9ebd 970e 6e3d
00000320: 5976 03bd 4db8 533d b24f a13d fc34 82bd
00000330: 7006 933c f8c7 053b 29a6 a33d afbb a53d
00000340: 34f7 02bd 108c 033d 1208 733c 4d57 d8bc
00000350: 6bf3 d7bc e8eb febb 27a1 623d 3f4f 62ba
00000360: ff4a 78bb 48ab 7f3d 9eb5 77bd 18c9 a7bd
00000370: badb 0e3d aede 063d 68c8 93bd feb2 9cbd
00000380: 442e 00bb 347a 183d d09b 38bd b1df 50bd
00000390: bc9f 34bd 03d8 203d d9f8 a8bd 39ad a6bd
000003a0: 4d2a 00bd cba2 a23c 8a3a 87bd 958b 51bd
000003b0: e2ae 933d f2b2 883d 3605 ee3c 8594 5dbd
000003c0: aa15 48bd 6ae7 30b8 a08b 0dbb 5fca 943d
000003d0: 6703 ba3c 1bc4 c43a 5d9d 823d d8a8 a4bd
000003e0: bbc9 dabc e841 79bc be2c 94bd 6cbe 87bd
000003f0: b20b 27bd 106e 4c3d 5c5c a73d bc9a 2ebd
-0.0073301 0.05592893 -0.009009971 0.04198745 0.0475023 -0.020923767 0.01618405 0.07696902
0.020321181 0.058902252 0.029108196 -0.008327717 0.0032367376 0.06670466 0.06455514 -0.004737415
0.024933625 0.023405766 0.024415525 0.064305045 0.04444856 -0.027246825 0.017945983 0.009012129
-0.07243551 0.009458604 0.06450126 -0.06267359 -0.07740813 -0.014731883 -0.020355454 -0.02143465
-0.0066730743 0.06028376 -0.054714076 -0.007115616 0.0016606151 0.016605843 0.034189124 -0.039166383
0.057001818 0.054842785 0.04699839 0.017156864 0.03148596 0.022379415 -0.059013344 0.07105847
0.06272441 -0.03442818 0.056367036 -0.026789602 0.06414376 -0.022373015 0.019276384 0.054997668
-0.014961724 0.06795328 0.02675748 -0.0281842 0.039470114 -0.06491226 -0.064624295 -0.06955199
-0.08254525 -0.076786354 0.055735957 -0.021207945 -0.06450055 0.05855476 0.019407663 -0.015406823
0.069950834 0.041236125 -0.0776238 -0.03383496 -0.029228272 -0.04327424 0.049305815 0.019666197
-0.004472711 -0.08184937 0.010862125 0.017079614 0.04170361 0.04896416 -0.017820124 0.05846757
0.075392224 0.07691849 0.06413548 -0.076963015 0.0743685 -0.030763295 0.068407655 -0.04210314
0.007585211 0.06571372 0.025271904 0.06969093 0.039787732 -0.025622005 0.024554301 0.037081793
-0.020262942 0.06762233 -0.065213636 0.03800008 0.015301074 -0.07758989 -0.037555873 -0.05438143
-0.034197643 -0.045344684 -0.055967826 -0.026303545 -0.007032237 0.05924908 -0.01118089 -0.023587095
-0.06239866 -0.06975499 0.035146743 -0.01080065 -0.03224726 0.033652365 -0.053875756 0.008502164
-0.04575389 -0.0514169 0.05726194 -0.060173143 -0.056231514 0.04715155 -0.056460265 0.053956043
0.07124726 0.08184033 -0.012721473 0.043580722 0.02732664 -0.030086888 0.009029869 -0.080154456
-0.056259483 0.055784807 0.016378114 -0.04541161 0.07887223 -0.049514778 -0.0140824625 0.039201517
0.046616673 -0.08139947 -0.08182331 -0.079840414 -0.08030767 0.018943448 -0.012979779 0.041109838
0.051304575 -0.054685093 -0.018994201 -0.07866932 0.006296705 -0.020691609 -0.018484496 -0.057990696
0.07539369 -0.049876023 -0.027042974 -0.020425431 0.067575805 0.0015873632 0.02873149 -0.015743636
-0.029159212 0.011602116 0.056874406 0.06697368 -0.006704655 0.07300028 -0.005303679 -0.06646348
-0.062542334 0.023807438 -0.05482826 0.044832952 0.023886612 -0.078587435 -0.010492983 -0.07701302
-0.07384687 -0.008970262 0.040109105 -0.059445374 -0.061760392 0.023103312 -0.07717462 0.058119383
-0.032095287 0.051689435 0.07876529 -0.06357762 0.017947406 0.002041338 0.07990677 0.080924384
-0.031974033 0.032115996 0.014833467 -0.026408816 -0.026361188 -0.007779587 0.055329468 -0.00086330244
-0.0037886498 0.062419206 -0.060475938 -0.081926525 0.034877516 0.032927208 -0.07215959 -0.076513276
-0.0019558826 0.037225917 -0.04507047 -0.05099458 -0.044097647 0.039268505 -0.08250589 -0.08138508
-0.03129034 0.019853016 -0.06602962 -0.051158506 0.072110906 0.06674756 0.02905522 -0.054096717
-0.048848785 -4.217719e-05 -0.0021598116 0.07265162 0.0227067 0.0015012057 0.06377671 -0.08040017
-0.02670752 -0.015213467 -0.072350964 -0.06628117 -0.040782638 0.04990965 0.08171913 -0.042628035

conv_block_5.2.bias f4 [32]
00000000: b56e 713d 56d3 08bd ccac b8bc 9304 7cbd
00000010: 7613 993d 9c72 bfbc 2a64 2bbd f544 84bd
00000020: 96b5 643d 2600 533d 4df7 8e3d be07 0ebd
00000030: 968f 13bd ae52 913b 6766 fe3c d337 933d
00000040: b72a 913d c0d2 9b3d 2e49 6b3d 442d 4a3c
00000050: fde1 763d 6cfd d9bb 8e37 123d f6d3 8fbd
00000060: c215 8abc 5d66 933d 3f4a 4fbd c601 5d3d
00000070: e745 4abd dcf9 3cbb 6e1f 77bd fa3a 92bd
0.05894347 -0.03340467 -0.022543333 -0.0615278 0.07474415 -0.02337008 -0.04184357 -0.06458465
0.055837236 0.051513813 0.06980763 -0.034675352 -0.036025606 0.004434905 0.031054689 0.07188382
0.07088225 0.07608557 0.057442836 0.012339894 0.060274113 -0.0066525247 0.035697512 -0.0702285
-0.016856078 0.071972586 -0.050607916 0.05395677 -0.04938307 -0.0028835451 -0.060332708 -0.07140155

conv_block_5.3.weight f4 [32]
00000000: f9ff 7f3f 0600 803f feff 7f3f e3ff 7f3f
00000010: fcff 7f3f fbff 7f3f f1ff 7f3f fbff 7f3f
00000020: f6ff 7f3f 0300 803f 0400 803f f7ff 7f3f
00000030: 0200 803f 0200 803f 0000 803f ecff 7f3f
00000040: 0100 803f faff 7f3f e7ff 7f3f 0200 803f
00000050: 0700 803f f1ff 7f3f f6ff 7f3f f5ff 7f3f
00000060: 0a00 803f eeff 7f3f 0100 803f e7ff 7f3f
00000070: 1100 803f fdff 7f3f e2ff 7f3f f9ff 7f3f
0.9999996 1.0000007 0.9999999 0.9999983 0.99999976 0.9999997 0.9999991 0.9999997
0.9999994 1.0000004 1.0000005 0.99999946 1.0000002 1.0000002 1.0 0.9999988
1.0000001 0.99999964 0.9999985 1.0000002 1.0000008 0.9999991 0.9999994 0.99999934
1.0000012 0.9999989 1.0000001 0.9999985 1.000002 0.9999998 0.9999982 0.9999996

conv_block_5.3.bias f4 [32]
00000000: 5ac1 23b5 7a44 8835 eb4f 6a35 a7df 0bb6
00000010: 502b 6c35 47ec d4b3 a841 1bb5 1eaf 9334
00000020: b7d3 36b5 5337 c934 dd8b d533 82be 43b4
00000030: 4505 ccb3 0716 8a35 f103 71b4 56eb acb4
00000040: 28de fa34 3ccd 3935 a5cb 5ab5 737d 2c35
00000050: 4721 ab35 0e4d 7db5 cedb 80b3 3764 b8b4
00000060: 53ee 1e36 853e f5b3 45fe 0e35 83c3 a5b4
00000070: f5d7 1e35 9930 8735 7858 5935 476a a1b4
-6.1003595e-07 1.0152719e-06 8.728809e-07 -2.0842797e-06 8.797988e-07 -9.914998e-08 -5.783754e-07 2.7508298e-07
-6.810837e-07 3.747942e-07 9.9440264e-08 -1.8230097e-07 -9.500449e-08 1.0288212e-06 -2.2446308e-07 -3.2208726e-07
4.672777e-07 6.9216526e-07 -8.150767e-07 6.4257546e-07 1.2750178e-06 -9.4361974e-07 -6.000447e-08 -3.4345587e-07
2.3682558e-06 -1.1420074e-07 5.3269133e-07 -3.0875898e-07 5.9173846e-07 1.0072428e-06 8.096754e-07 -3.0065914e-07

conv_block_5.3.running_mean f4 [32]
00000000: e0e7 9a3d dba3 d3bd 1f65 a7bd 8a71 82bd
00000010: 51e5 993d 94b7 91bd bb63 ddbd 7abe cdbc
00000020: 066e b0bd d356 2f3d f39b d63c 5519 063b
00000030: 00a7 d5bc f534 45bd a5dd e73c 5a26 903d
00000040: 7e11 8b3d aa25 a8bd b404 6ebc 3c39 9cbd
00000050: e5d8 4abd 0503 e6bb bb59 0d3d e29c 413d
00000060: ba59 00be a43f 4c3d 4515 0cbd 7fed 8d3d
00000070: a232 b03b 7372 a6bd a126 ffbb f01f 00be
0.07563758 -0.10333987 -0.08173584 -0.06369312 0.07514442 -0.07115093 -0.10810038 -0.02511524
-0.08614735 0.04280741 0.02619741 0.0020461876 -0.026080608 -0.048146207 0.02830393 0.07038565
0.06790446 -0.08210309 -0.0145274885 -0.07628104 -0.049523253 -0.007019403 0.0345094 0.047268756
-0.12534228 0.04986538 -0.03419997 0.069300644 0.0053771297 -0.08127298 -0.0077865873 -0.12512183
