cloud-detection-code/tests/test_artifacts/test_shadow/model_checkpoint_1.pt (torch, 287733 bytes, 250 tensors)

input_conv_block.0.weight f4 [3]
0.99999994 1.0 0.9999999
00000000: ffff 7f3f 0000 803f feff 7f3f

input_conv_block.0.bias f4 [3]
-3.2657674e-06 -3.426662e-06 -7.8202913e-07
00000000: 7529 5bb6 9bf5 65b6 a2ec 51b5

input_conv_block.0.running_mean f4 [3]
0.011082725 0.012895808 0.014187187
00000000: 5194 353c f048 533c 6071 683c

input_conv_block.0.running_var f4 [3]
0.9000165 0.9000125 0.90001273
00000000: 7b67 663f 3867 663f 3c67 663f

input_conv_block.2.weight f4 [2, 3, 1, 1]
-0.28700534 0.25096864 -0.5672321 0.41496238 0.35816345 -0.4837037
00000000: 5df2 92be f67e 803e 1f36 11bf f375 d43e
00000010: 3361 b73e 03a8 f7be

conv_block_1.0.weight f4 [2]
1.0000035 0.9999965
00000000: 1d00 803f c5ff 7f3f

conv_block_1.0.bias f4 [2]
1.3414794e-05 -3.602235e-06
00000000: 1a10 6137 edbd 71b6

conv_block_1.0.running_mean f4 [2]
-0.018556131 0.008409882
00000000: 0703 98bc 9ac9 093c

conv_block_1.0.running_var f4 [2]
0.92623293 0.906294
00000000: 9a1d 6d3f e202 683f

conv_block_1.2.weight f4 [2, 2, 3, 3]
-0.18885632 -0.19686255 0.0071889847 -0.1407795 0.08642179 -0.13169944 -0.13868895 0.18011521
0.09741424 -0.011600912 -0.09936171 -0.075935446 0.053755227 -0.06836809 -0.05316376 -0.01643331
0.022032697 0.12732843 0.20510866 -0.110948324 0.01090923 0.16304003 0.21641852 0.1654085
0.07547079 -0.14658807 -0.001999402 0.15011398 -0.04550544 -0.12766774 0.02253627 0.0864136
-0.12222753 -0.19458692 0.19429116 -0.19215637
00000000: 8d63 41be 5696 49be 9391 eb3b 8028 10be
00000010: e8fd b03d 38dc 06be 7a04 0ebe 1f70 383e
00000020: 1e81 c73d c011 3ebc 277e cbbd 0b84 9bbd
00000030: 712e 5c3d 9204 8cbd 3ec2 59bd 269f 86bc
00000040: ea7d b43c 6262 023e 0108 523e e038 e3bd
00000050: a1bc 323c f7f3 263e d19c 5d3e d960 293e
00000060: 6e90 9a3d 2f1b 16be 6608 03bb 7bb7 193e
00000070: ea63 3abd 55bb 02be fc9d b83c 9df9 b03d
00000080: 6d52 fabd cb41 47be 43f4 463e a4c4 44be

conv_block_1.2.bias f4 [2]
-0.06518662 -0.079284646
00000000: 9080 85bd fd5f a2bd

conv_block_1.3.weight f4 [2]
1.0000027 0.9999972
00000000: 1700 803f d1ff 7f3f

conv_block_1.3.bias f4 [2]
-1.2797348e-06 -6.854196e-06
00000000: 5ac3 abb5 18fd e5b6

conv_block_1.3.running_mean f4 [2]
-0.022495102 0.0026788155
00000000: a647 b8bc 118f 2f3b

conv_block_1.3.running_var f4 [2]
0.90129966 0.90811634
00000000: 93bb 663f 507a 683f

conv_block_1.5.weight f4 [2, 2, 3, 3]
-0.05936061 -0.11795979 -0.065447226 0.2163048 -0.18768579 -0.14104274 0.019525338 0.017102025
-0.109355465 0.1357133 -0.14078248 0.08726889 0.16086034 0.17929484 0.141413 -0.021091219
-0.035784967 -0.044607982 0.042660203 -0.04983066 0.004125249 0.09892942 0.10791553 -0.090706535
0.10319875 -0.07439445 0.06287289 0.0030370913 0.076217294 0.2191499 0.0069087907 -0.11604687
-0.037635203 0.083439715 0.18121961 0.1311469
00000000: 1c24 73bd e794 f1bd 3209 86bd 017f 5d3e
00000010: b430 40be 826d 10be 9af3 9f3c 8c19 8c3c
00000020: c2f5 dfbd 6df8 0a3e 4829 10be 08ba b23d
00000030: 93b8 243e 1199 373e 92ce 103e 7ec7 acbc
00000040: 4293 12bd dcb6 36bd 77bc 2e3d 3c1b 4cbd
00000050: 192d 873b 829b ca3d d102 dd3d 59c4 b9bd
00000060: de59 d33d 1e5c 98bd 80c3 803d f009 473b
00000070: d017 9c3d d568 603e 2363 e23b fba9 edbd
00000080: 5f27 1abd 71e2 aa3d a291 393e 5f4b 063e

conv_block_1.5.bias f4 [2]
-0.020971937 0.12506108
00000000: 57cd abbc 0310 003e

conv_block_2.0.weight f4 [2]
0.9999984 1.0000015
00000000: e5ff 7f3f 0d00 803f

conv_block_2.0.bias f4 [2]
-1.0310494e-06 2.3746826e-07
00000000: 9662 8ab5 c7fa 7e34

conv_block_2.0.running_mean f4 [2]
0.0089998115 0.036322035
00000000: f273 133c 6ac6 143d

conv_block_2.0.running_var f4 [2]
0.90135914 0.901033
00000000: 79bf 663f 19aa 663f

conv_block_2.2.weight f4 [4, 2, 3, 3]
-0.14477046 0.21829116 0.05625036 -0.15524697 0.047435254 0.08108641 0.0786972 0.09382086
0.11391879 -0.037720617 0.19022787 0.09269289 -0.030820616 -0.09250429 -0.0055715865 0.19185188
-0.042572793 -0.22973323 -0.23197116 -0.1428716 -0.17222296 -0.13035312 0.034024026 -0.21504158
0.022454182 0.11829798 0.010263575 -0.021140054 -0.018714556 0.14578746 -0.21610026 0.23077847
0.112325445 0.054718375 -0.095006034 0.10139702 -0.01793196 -0.19329256 -0.08464333 -0.12676264
-0.10185863 -0.23471405 -0.030079696 -0.047262434 -0.03310564 0.14612341 0.18277392 0.038277276
-0.002907417 -0.21407989 0.08799258 0.1780894 0.22644639 0.017481018 0.12958676 -0.10391909
-0.16558266 -0.0049241018 0.044917747 -0.17078958 0.009362295 0.08494474 0.08104767 0.044286363
-0.21345626 0.10600281 0.0358684 0.052552532 -0.070355155 -0.14974746 0.024999866 -0.03959981
00000000: b53e 14be b887 5f3e c766 663d 10f9 1ebe
00000010: 784b 423d a210 a63d ff2b a13d 2725 c03d
00000020: 414e e93d ef80 1abd 18cb 423e c5d5 bd3d
00000030: 847b fcbc e472 bdbd db91 b6bb d274 443e
00000040: cf60 2ebd 303f 6bbe d989 6dbe ef4c 12be
00000050: 375b 30be 4a7b 05be c75c 0b3d dc33 5cbe
00000060: d5f1 b73c 3646 f23d 8e28 283c e82d adbc
00000070: 454f 99bc 4f49 153e 6349 5dbe 3151 6c3e
00000080: e20a e63d 6020 603d 8692 c2bd 3ea9 cf3d
00000090: 0ce6 92bc 7cee 45be 7b59 adbd 11ce 01be
000000a0: 429b d0bd e158 70be b269 f6bc 4196 41bd
000000b0: c899 07bd 60a1 153e 1629 3b3e a2c8 1c3d
000000c0: 5d8a 3ebb c237 5bbe 7435 b43d 115d 363e
000000d0: 90e1 673e 5a34 8f3c 64b2 043e 88d3 d4bd
000000e0: 808e 29be 5c5a a1bb acfb 373d 77e3 2ebe
000000f0: 5064 193c 82f7 ad3d 52fc a53d 9e65 353d
00000100: 4794 5abe 0018 d93d beea 123d 5341 573d
00000110: 5d16 90bd 6657 19be 85cc cc3c 6933 22bd

conv_block_2.2.bias f4 [4]
0.17876068 0.09862471 -0.16448803 0.05664448
00000000: 0a0d 373e c1fb c93d 8d6f 28be 0b04 683d

conv_block_2.3.weight f4 [4]
0.99999857 0.99999976 1.0000017 0.9999998
00000000: e8ff 7f3f fcff 7f3f 0e00 803f fdff 7f3f

conv_block_2.3.bias f4 [4]
-7.5563713e-07 -5.199956e-07 -3.6905578e-07 3.408519e-07
00000000: fdd6 4ab5 d395 0bb5 a422 c6b4 54fe b634

conv_block_2.3.running_mean f4 [4]
0.031064276 -0.0033015893 -0.026217882 -0.0024693906
00000000: 827a fe3c 7a5f 58bb e2c6 d6bc 80d5 21bb

conv_block_2.3.running_var f4 [4]
0.9065159 0.91010433 0.91583097 0.90337193
00000000: 6d11 683f 99fc 683f e673 6a3f 6243 673f

conv_block_2.5.weight f4 [4, 4, 3, 3]
-0.005506479 -0.10776856 0.13085996 -0.06364671 0.0018672546 0.1482847 0.1275193 -0.045132853
-0.034429014 -0.049979378 0.15869528 0.0879252 0.079604 0.07252741 -0.020095574 -0.107737884
0.025300503 -0.019656902 -0.07395344 -0.1441402 -0.1489569 0.0047808136 0.12884143 0.13123332
0.048367187 0.028579596 0.094093174 -0.15401508 -0.0047795987 0.047824726 -0.013348945 0.124184586
0.1409634 0.1407067 0.10844596 -0.017941616 -0.03321576 0.117727615 0.1445239 0.08371401
-0.012989766 -0.006900954 -0.12872985 0.035070762 0.15361317 0.14355065 -0.092497334 -0.112445004
-0.053515784 -0.055363506 0.06851193 -0.048209496 -0.104318775 -0.10854847 -0.07398183 0.04302107
0.11104461 0.15954377 -0.017584857 0.04239447 -0.036149308 0.09322579 0.026017282 -0.034496322
0.027525568 -0.054260444 -0.112390414 0.07657398 0.15443178 0.036803517 -0.011937469 0.1510856
0.10022541 -0.07526278 -0.10870594 0.093227096 0.032125387 -0.13332883 -0.06510291 -0.07007902
0.013553523 -0.15562864 0.04250711 0.14908172 0.0928688 -0.09761749 0.13528763 0.037098434
-0.067385115 -0.09343823 -0.10445561 0.056957774 -0.08789266 -0.10719628 0.12523566 -0.05361986
0.084039375 -0.13010894 0.07139355 0.15818062 0.051254697 0.048789393 -0.13154769 0.01723829
-0.02202715 -0.15242004 0.113307096 0.0017615088 -0.14660285 0.03169849 0.08970456 -0.1016208
0.15743174 0.10458485 -0.047875937 0.020667434 0.12954718 -0.0043572197 0.1359108 -0.11006642
0.058595084 0.09143886 -0.11198681 -0.010362233 -0.073754534 0.031473536 -0.1417991 0.113065906
0.07998279 0.113177456 -0.15326092 0.16344976 0.093762636 0.1308262 0.09525872 -0.013551793
-0.1577989 0.132126 -0.13939701 -0.04035376 -0.009036396 0.15261848 0.049477194 0.09451277
00000000: b26f b4bb c3b5 dcbd 2700 063e 3559 82bd
00000010: abbe f43a f2d7 173e 6b94 023e 3add 38bd
00000020: 7005 0dbd 2db7 4cbd 0481 223e 2112 b43d
00000030: 6c07 a33d 4089 943d 799f a4bc aea5 dcbd
00000040: 0043 cf3c 8307 a1bc e774 97bd 7d99 13be
00000050: 2888 18be 5fa8 9c3b 02ef 033e 0762 063e
00000060: ac1c 463d c21f ea3c ecb3 c03d 21b6 1dbe
00000070: 2e9e 9cbb dce3 433d 89b5 5abc 7d54 fe3d
00000080: b658 103e 6b15 103e ea18 de3d 4cfa 92bc
00000090: 400d 08bd 2d1b f13d 13fe 133e 4072 ab3d
000000a0: 07d3 54bc 6621 e2bb c2d1 03be 5ca6 0f3d
000000b0: c54c 1d3e f1fe 123e 3e6f bdbd 9149 e6bd
000000c0: 5e33 5bbd d8c4 62bd fc4f 8c3d 5277 45bd
000000d0: 15a5 d5bd a94e debd c983 97bd dd36 303d
000000e0: 5b6b e33d 715f 233e 1e0e 90bc d3a5 2d3d
000000f0: 4c11 14bd 2aed be3d 3222 d53c 044c 0dbd
00000100: 4d7d e13c 3340 5ebd f22c e6bd d2d2 9c3d
00000110: 5d23 1e3e 49bf 163d 6095 43bc 2fb6 1a3e
00000120: fb42 cd3d 5f23 9abd 38a1 debd d9ed be3d
00000130: e995 033d 5a87 08be ad54 85bd 9785 8fbd
00000140: 990f 5e3c 1d5d 1fbe ef1b 2e3d e1a8 183e
00000150: ff31 be3d aeeb c7bd d788 0a3e 87f4 173d
00000160: 3501 8abd 8b5c bfbd d3ec d5bd 8e4c 693d
00000170: 1101 b4bd b989 dbbd c73d 003e 80a0 5bbd
00000180: d61c ac3d 473b 05be c836 923d 1afa 213e
00000190: 72f0 513d 63d7 473d 70b4 06be 5037 8d3c
000001a0: 4872 b4bc 0014 1cbe 8d0d e83d 6de2 e63a
000001b0: 0f1f 16be 47d6 013d 06b7 b73d 911e d0bd
000001c0: c935 213e 9530 d63d 8f19 44bd c04e a93c
000001d0: 04a8 043e 02c7 8ebb 332c 0b3e 816a e1bd
000001e0: 6601 703d 4c44 bb3d 5759 e5bd 5bc6 29bc
000001f0: 9e0c 97bd 65ea 003d c933 11be 198f e73d
00000200: 04ce a33d 95c9 e73d 6ef0 1cbe 605f 273e
00000210: a006 c03d 4ef7 053e 0117 c33d 5708 5ebc
00000220: 0996 21be 0a4c 073e 17be 0ebe fc49 25bd
00000230: 640d 14bc 0548 1c3e 99a8 4a3d e98f c13d

conv_block_2.5.bias f4 [4]
0.030065773 0.08352376 -0.083178 -0.012658655
00000000: 7f4c f63c 810e ab3d 3a59 aabd 3f66 4fbc

conv_block_3.0.weight f4 [4]
0.9999986 0.9999998 0.9999988 1.0000025
00000000: e9ff 7f3f fdff 7f3f ecff 7f3f 1500 803f

conv_block_3.0.bias f4 [4]
-2.527335e-07 -5.433846e-07 -1.6749944e-07 1.1607383e-06
00000000: 6eaf 87b4 1bdd 11b5 e5d9 33b4 aaca 9b35

conv_block_3.0.running_mean f4 [4]
0.03778463 0.03435133 -0.0019227387 0.03836812
00000000: 0ec4 1a3d fbb3 0c3d 6804 fcba e427 1d3d

conv_block_3.0.running_var f4 [4]
0.9212526 0.91362834 0.9013915 0.95558476
00000000: 36d7 6b3f 8ce3 693f 98c1 663f 34a1 743f

conv_block_3.2.weight f4 [8, 4, 3, 3]
0.06590863 -0.1356409 0.055408306 0.0019664015 -0.019544318 0.09638883 0.024222465 0.14624055
0.121021 -0.16127713 -0.09563658 0.15795477 -0.07738386 0.06746026 0.1297994 -0.11666975
0.10763089 -0.06576953 0.042400558 0.07429795 -0.109765224 -0.0028615023 0.10810151 0.08233523
0.10788339 0.15711346 0.08657585 0.16268621 0.15886529 -0.07684006 0.085600376 0.14829333
-0.1591452 0.095025405 -0.09862604 0.055277742 -0.08742896 0.12377807 0.12347021 0.008279158
0.054037806 0.07503607 0.11240309 -0.13335739 0.053720124 -0.03599017 -0.09162596 0.053063765
-0.11009437 0.07726452 0.07964039 -0.07140966 0.034523677 -0.16475159 0.13100094 -0.0247736
-0.13945256 -0.04175925 0.07314904 0.029687487 0.08642484 0.02136906 0.09650146 0.10536249
0.019912723 -0.062928066 0.122172855 0.090321995 -0.1088062 -0.04996105 -0.1493953 0.052665118
-0.0007472734 0.012037611 -0.14404862 0.030652491 -0.0035265484 0.030704552 -0.041155893 -0.07968311
-0.09201727 0.110104315 0.024522314 0.08886523 -0.019905265 0.09099827 0.012239854 -0.06839376
0.0292012 -0.15487863 0.08300312 0.110922076 0.0035324167 0.08700527 -0.068449795 0.0490447
0.015801482 0.11269846 -0.018422013 0.081506 0.0070673083 0.14458577 0.16013825 0.027572455
-0.047516517 0.12543613 0.15030894 0.053966094 -0.1147093 -0.10651572 -0.13048105 0.15701097
-0.038430117 -0.06669644 0.0030484812 0.010871659 0.026289506 0.12985973 -0.0035372553 0.13711125
0.08801802 0.028131314 0.026418433 -0.08695901 -0.16333672 0.030262556 -0.027133616 0.034846935
0.101918526 -0.12067905 0.0020512084 0.094084464 -0.036716167 0.02207092 0.057233684 -0.08921435
-0.14183354 -0.0026903132 0.034366973 -0.066009015 0.13694079 0.038087968 -0.15638587 0.056478046
0.10241829 -0.01881091 -0.006769197 -0.04606781 -0.102900945 -0.16634767 -0.06566704 -0.05737882
-0.04549368 -0.079600774 0.100727916 0.0063460045 -0.106758334 0.08307344 -0.019988403 0.0063089337
0.07733442 -0.032736506 -0.15288599 -0.08210405 0.0053463196 -0.15200835 0.08539454 0.118028775
0.015161524 0.029501984 0.13961205 0.13979162 0.1012865 0.15009387 0.05030173 0.15468465
0.07346926 0.04731866 -0.08206239 -0.12623651 -0.05289659 0.16475242 -0.1598381 -0.044758055
0.1213985 0.0018213654 0.13289101 0.00021153988 -0.06315266 -0.05933112 0.06933949 0.10366985
0.08380741 0.1155606 0.080903955 -0.019941842 0.15069465 -0.010079156 0.086222515 -0.12725066
0.11381641 0.022597205 -0.04734787 -0.10951683 0.06851588 0.15630424 0.070720755 0.11283364
0.08692258 -0.045097943 0.0045983945 -0.11141985 -0.035356883 0.1402379 -0.046010204 -0.030838193
-0.027345527 0.03950729 -0.12055126 -0.019856062 0.12419359 -0.15088257 -0.13110389 -0.07821595
0.12348497 0.06796892 -0.08915102 -0.073410094 -0.09760767 0.09802001 -0.037936013 -0.066638365
-0.10316999 -0.1256303 0.064554036 0.08966145 -0.15676612 0.1450967 0.07374167 0.15260215
-0.019126084 -0.12187801 -0.14877886 -0.07755613 -0.11032893 -0.012766285 0.15928666 0.13252278
-0.114777215 0.13869295 0.056158323 -0.12919497 0.05986354 0.08175302 -0.009968118 -0.1033186
00000000: 1bfb 863d 73e5 0abe d2f3 623d bede 003b
00000010: 681b a0bc 8267 c53d 316e c63c 15c0 153e
00000020: dcd9 f73d d525 25be 1cdd c3bd e5be 213e
00000030: 6e7b 9ebd 9b28 8a3d 22ea 043e 8df0 eebd
00000040: 966d dc3d 2db2 86bd 35ac 2d3d 8629 983d
00000050: 97cc e0bd 0b88 3bbb 5364 dd3d 609f a83d
00000060: f7f1 dc3d 5ae2 203e ae4e b13d 3797 263e
00000070: 95ad 223e 525e 9dbd 404f af3d 35da 173e
00000080: f6f6 22be ae9c c23d 73fc c9bd ea6a 623d
00000090: f40d b3bd 5b7f fd3d f3dd fc3d 4ea5 073c
000000a0: bf56 5d3d 83ac 993d 9733 e63d d78e 08be
000000b0: a209 5c3d 6e6a 13bd 64a6 bbbd 6459 593d
000000c0: 2879 e1bd dc3c 9e3d 801a a33d 3a3f 92bd
000000d0: b368 0d3d a4b4 28be 1c25 063e 01f2 cabc
000000e0: a7cc 0ebe bf0b 2bbd 2acf 953d 2c33 f33c
000000f0: 82ff b03d 2b0e af3c 8fa2 c53d 4ac8 d73d
00000100: 0220 a33c 6ee0 80bd c335 fa3d bdfa b83d
00000110: c9d5 debd f5a3 4cbd 15fb 18be 61b7 573d
00000120: abe4 43ba 6639 453c 7b81 13be ef1a fb3c
00000130: aa1d 67bb 1d88 fb3c 1593 28bd e630 a3bd
00000140: 8d73 bcbd 5f7e e13d 05e3 c83c f9fe b53d
00000150: 5e10 a3bc 4d5d ba3d ab89 483c 0712 8cbd
00000160: 5b37 ef3c 8198 1ebe 8afd a93d 1d2b e33d
00000170: 1e80 673b d22f b23d 682f 8cbd 18e3 483d
00000180: 1c72 813c 73ce e63d c3e9 96bc 9eec a63d
00000190: e194 e73b 4b0e 143e 48fb 233e a1df e13c
000001a0: aea0 42bd 5472 003e 96ea 193e 8d0b 5d3d
000001b0: b6ec eabd ea24 dabd d39c 05be 7cc7 203e
000001c0: e668 1dbd 2598 88bd 07c9 473b 0b1f 323c
000001d0: 175d d73c f3f9 043e 4cd1 67bb e466 0c3e
000001e0: cb42 b43d a473 e63c 786b d83c 9117 b2bd
000001f0: be41 27be 2ee9 f73c 5147 debc a9bb 0e3d
00000200: a9ba d03d 9426 f7bd 916d 063b 5baf c03d
00000210: b163 16bd 13ce b43c de6d 6a3d 03b6 b6bd
00000220: d03c 11be f74f 30bb 62c4 0c3d bc2f 87bd
00000230: 353a 0c3e 2102 1c3d 9e23 20be 8655 673d
00000240: aec0 d13d 5619 9abc 24d0 ddbb 9ab1 3cbd
00000250: bbbd d2bd 0b57 2abe 717c 86bd 0e06 6bbd
00000260: 9557 3abd bb05 a3bd 704a ce3d 25f2 cf3b
00000270: 1da4 dabd 6822 aa3d b8be a3bc 2cbb ce3b
00000280: 8261 9e3d b716 06bd 258e 1cbe 2b26 a8bd
00000290: 2e30 af3b 14a8 1bbe 55e3 ae3d 12b9 f13d
000002a0: 0a68 783c 25ae f13c 76f6 0e3e 8925 0f3e
000002b0: 4c6f cf3d 35b2 193e 3009 4e3d a765 1e3e
000002c0: 0d77 963d 36d1 413d 5410 a8bd 2544 01be
000002d0: 18aa 58bd dcb4 283e 99ac 23be 3954 37bd
000002e0: c79f f83d e2ba ee3a 9514 083e ced0 5d39
000002f0: 2f56 81bd 3005 73bd dd01 8e3d dc50 d43d
00000300: 38a3 ab3d 09ab ec3d f9b0 a53d 135d a3bc
00000310: b34f 1a3e 0b23 25bc 6e95 b03d ff4d 02be
00000320: 9418 e93d c61d b93c d7ef 41bd 5c4a e0bd
00000330: 0e52 8c3d 380e 203e 0bd6 903d 5315 e73d
00000340: 7704 b23d 9fb8 38bd 21ae 963b 1730 e4bd
00000350: 61d2 10bd 869a 0f3e 3275 3cbd 61a0 fcbc
00000360: ba03 e0bc 65d2 213d 94e3 f6bd 2ea9 a2bc
00000370: 3559 fe3d f680 1abe 1940 06be af2f a0bd
00000380: b0e5 fc3d 4a33 8b3d cf94 b6bd 0858 96bd
00000390: 88e6 c7bd b7be c83d cb62 1bbd b279 88bd
000003a0: ca4a d3bd 3ba5 00be e834 843d 6ca0 b73d
000003b0: 4c87 20be 3b94 143e df05 973d bd43 1c3e
000003c0: 4eae 9cbc 2e9b f9bd 7c59 18be c0d5 9ebd
000003d0: 22f4 e1bd ae29 51bc 0b1c 233e 0db4 073e
000003e0: 5110 ebbd 8605 0e3e 4506 663d b04b 04be
000003f0: 7933 753d 216e a73d 5151 23bc b498 d3bd

conv_block_3.2.bias f4 [8]
0.12764244 -0.12827387 0.004710495 0.06851144 -0.04696234 -0.025799034 -0.16025807 0.116207756
00000000: b3b4 023e 3a5a 03be 7f5a 9a3b ba4f 8c3d
00000010: 955b 40bd 7f58 d3bc b11a 24be 55fe ed3d

conv_block_3.3.weight f4 [8]
1.0000001 0.9999979 0.9999999 0.99999934 1.000003 0.9999988 0.99999976 1.0000008
00000000: 0100 803f ddff 7f3f feff 7f3f f5ff 7f3f
00000010: 1900 803f ecff 7f3f fcff 7f3f 0700 803f

conv_block_3.3.bias f4 [8]
-5.968287e-07 -2.974758e-07 -6.307805e-07 6.4914957e-07 1.4471449e-06 1.2010694e-06 -4.0840362e-07 -3.6543682e-07
00000000: c235 20b5 c3b4 9fb4 e852 29b5 3841 2e35
00000010: 853b c235 6e34 a135 9142 dbb4 4131 c4b4

conv_block_3.3.running_mean f4 [8]
0.049426444 -0.002103086 0.02601192 5.777183e-05 -0.0019171886 0.02342838 -0.031929616 0.016197914
00000000: 6273 4a3d eed3 09bb f316 d53c 0850 7238
00000010: 2d4a fbba e0ec bf3c a1c8 02bd 7db1 843c

conv_block_3.3.running_var f4 [8]
0.9448029 0.9083159 0.9255296 0.91650957 0.9146177 0.9410122 0.9248031 0.9219265
00000000: 9ade 713f 6487 683f 82ef 6c3f 5fa0 6a3f
00000010: 6324 6a3f 2de6 703f e5bf 6c3f 6003 6c3f

conv_block_3.5.weight f4 [8, 8, 3, 3]
0.083411895 0.024625024 -0.102590054 0.022490453 -0.10708901 0.029946195 -0.041377723 -0.11729483
0.07384471 -0.11377018 0.052711267 0.015873922 0.09560809 0.102205336 0.08676091 -0.029922757
0.03750646 -0.04651869 -0.07220796 0.08320899 -0.058412734 -0.08932385 0.0060637947 -0.072882645
-0.045030743 -0.09973499 -0.031922523 0.09530866 0.05769336 -0.023078198 -0.08697222 -0.016368093
-0.08053968 -0.048359662 0.0057857065 0.10757399 -0.041774523 0.026124602 0.07042355 -0.0067510176
0.101536706 -0.0028438328 0.06992116 0.10224395 0.01093958 0.0868368 -0.030910596 -0.112982005
0.030252142 -0.017903993 -0.092162676 0.10177028 -0.026181763 -0.06302034 0.042531 -0.014467582
-0.091022134 -0.013931522 -0.08794939 0.06398423 -0.04086223 -0.07627076 0.021457773 -0.04125722
-0.022705436 0.043914087 -0.05020595 0.090684675 -0.06357734 0.0033028296 0.07289839 -0.011777913
-0.10511066 -0.08344628 0.09856947 -0.0051583317 -0.074063346 -0.0025498397 -0.08490519 0.06463943
-0.029879399 0.062683284 -0.10436126 -0.027507719 0.05740272 0.10305115 0.10960289 0.02765852
0.10948072 -0.01644108 -0.044225402 -0.04965928 -0.0025681274 -0.04997178 0.010225918 -0.0053824675
-0.07667058 -0.09732948 0.027130337 -0.029685961 -0.06720388 0.0613549 -0.10587416 0.05442794
-0.0012682815 -0.09684207 -0.020714685 0.11078032 0.04877426 -0.066882245 -0.02533599 0.04469452
0.056691036 0.100974806 0.06265089 0.0049147387 0.09919564 -0.077997304 0.010716091 0.05072321
-0.08308708 0.08799577 -0.043613862 0.087825686 0.020195782 0.08377736 -0.012193395 0.0107415
0.079125345 0.06799559 -0.039298438 0.117437564 -0.043436438 0.05388956 0.033883475 -0.047244202
0.103254825 -0.061540622 -0.031759493 0.04586771 0.066874735 0.076267436 -0.011031137 0.002349356
-0.018169792 -0.049060468 0.036792774 0.06341749 0.00844301 -0.03347672 0.10471696 0.07516725
0.04367967 0.02021776 -0.030170036 0.081524655 -0.07662787 0.08322215 0.088011265 -0.014387332
0.07132191 -0.03926788 -0.050599054 0.012188677 0.11509801 0.05724929 0.004398197 -0.08559495
-0.087554805 -0.10931778 0.073384754 -0.063115805 -0.08246415 0.012546242 -0.10626695 0.023778584
0.09497418 0.036418322 0.084431626 -0.03535399 -0.073318 -0.007555478 -0.07648605 0.029184919
0.028462153 0.042550888 0.08880714 0.034775827 -0.058272615 0.08890662 -0.09484834 0.10223126
-0.08553286 -0.10383245 -0.036937915 0.093933135 0.082229644 -0.09516508 -0.110568926 0.037753962
-0.043861896 -0.06872671 -0.08475455 -0.049812075 0.061394483 -0.04520396 -0.06811532 -0.03455827
-0.04924887 0.085144185 -0.011031163 -0.09225585 -0.05491605 0.010292198 0.05085494 -0.037107587
-0.0020558645 0.079000905 0.043718122 -0.06715572 0.025421066 -0.027161172 -0.0970093 -0.0519933
0.049190488 -0.07536395 0.05940757 -0.0018054253 0.0058250153 -0.002061358 0.06405903 0.113658905
-0.1036665 0.048900343 0.09502079 -0.036459703 0.011500544 -0.0903727 0.053668156 0.021103637
0.027745586 -0.030171042 -0.009743879 -0.056967683 0.11460619 0.09337371 -0.016077839 0.024982156
-0.09939164 -0.05411097 0.057997115 0.08531481 -0.08552741 -0.078969255 -0.108249746 0.009300501
00000000: dbd3 aa3d 6bba c93c bc1a d2bd e63d b83c
00000010: 7c51 dbbd b951 f53c b07b 29bd 4638 f0bd
00000020: e53b 973d 5700 e9bd c5e7 573d 070a 823c
00000030: 2dce c33d 0851 d13d b4af b13d 9220 f5bc
00000040: 60a0 193d 628a 3ebd c4e1 93bd 7a69 aa3d
00000050: 3142 6fbd 6cef b6bd ccb2 c63b 7f43 95bd
00000060: 2872 38bd dc41 ccbd 31c1 02bd 3031 c33d
00000070: df4f 6c3d 7d0e bdbc 7e1e b2bd 6116 86bc
00000080: fdf1 a4bd c814 46bd 0696 bd3b c14f dc3d
00000090: c31b 2bbd 4303 d63c 393a 903d a437 ddbb
000000a0: 7af2 cf3d 995f 3abb d332 8f3d 4765 d13d
000000b0: ed3b 333c 7ed7 b13d 3838 fdbc 1c63 e7bd
000000c0: 57d3 f73c 65ab 92bc c9bf bcbd f06c d03d
000000d0: 237b d6bc cf10 81bd fc34 2e3d 7009 6dbc
000000e0: d069 babd 0a41 64bc cf1e b4bd 2a0a 833d
000000f0: 275f 27bd d833 9cbd 36c8 af3c 55fd 28bd
00000100: c000 babc 42df 333d c1a4 4dbd e3b8 b93d
00000110: d634 82bd 4974 583b c04b 953d 26f8 40bc
00000120: 4244 d7bd e2e5 aabd cade c93d 3907 a9bb
00000130: 86ae 97bd 361b 27bb c6e2 adbd ad61 843d
00000140: a4c5 f4bc 1860 803d 5bbb d5bd de57 e1bc
00000150: 1d1f 6b3d 7b0c d33d 7b77 e03d 1f94 e23c
00000160: 6d37 e03d 72af 86bc b225 35bd 8767 4bbd
00000170: 074e 28bb 36af 4cbd 9c8a 273c 695f b0bb
00000180: 7705 9dbd ae54 c7bd 7140 de3c f92f f3bc
00000190: 30a2 89bd 474f 7b3d 8dd4 d8bd d5ef 5e3d
000001a0: 773c a6ba 2355 c6bd d8b1 a9bc cbe0 e23d
000001b0: 85c7 473d 8ff9 88bd 6c8d cfbc 9a11 373d
000001c0: dc34 683d e1cb ce3d 1c4f 803d d10b a13b
000001d0: 1527 cb3d 0dbd 9fbd 8b92 2f3c 24c3 4f3d
000001e0: 8f29 aabd 2037 b43d 73a4 32bd f4dd b33d
000001f0: a071 a53c 7793 ab3d cec6 47bc 1efd 2f3c
00000200: 780c a23d 4641 8b3d 66f7 20bd 1b83 f03d
00000210: 68ea 31bd 4dbb 5c3d 66c9 0a3d 2383 41bd
00000220: 4477 d33d 0512 7cbd 3e16 02bd c8df 3b3d
00000230: 9ff5 883d 1a32 9c3d f1bb 34bc a7f7 193b
00000240: d1d8 94bc a1f3 48bd 05b4 163d 07e1 813d
00000250: 8d54 0a3c e31e 09bd d875 d63d 4af1 993d
00000260: 74e9 323d b79f a53c 2727 f7bc 66f6 a63d
00000270: 13ef 9cbd 6070 aa3d 403f b43d d8b8 6bbc
00000280: 3911 923d 5bd7 20bd f440 4fbd 04b3 473c
00000290: 81b8 eb3d 3b7e 6a3d c01e 903b 684c afbd
000002a0: ef4f b3bd 00e2 dfbd bf4a 963d dc42 81bd
000002b0: f7e2 a8bd c18e 4d3c 7da2 d9bd 4ecb c23c
000002c0: d381 c23d 612b 153d 7dea ac3d 58cf 10bd
000002d0: bf27 96bd f193 f7bb b8a4 9cbd 3615 ef3c
000002e0: 7629 e93c d749 2e3d 85e0 b53d 1971 0e3d
000002f0: 44af 6ebd ad14 b63d d93f c2bd 9f5e d13d
00000300: da2b afbd 1ca6 d4bd 364c 17bd 0460 c03d
00000310: 0468 a83d e9e5 c2bd f671 e2bd e6a3 1a3d
00000320: 88a8 33bd 97c0 8cbd cb93 adbd bf07 4cbd
00000330: c878 7b3d ca27 39bd 0b80 8bbd f98c 0dbd
00000340: 2fb9 49bd 1360 ae3d 0dbc 34bc a3f0 bcbd
00000350: a7ef 60bd 9ba0 283c 454d 503d 20fe 17bd
00000360: afbb 06bb 3acb a13d c611 333d f088 89bd
00000370: d73f d03c 1b81 debc d0ac c6bd edf6 54bd
00000380: f77b 493d 6a58 9abd 5a55 733d 05a4 ecba
00000390: c5df be3b d917 07bb 6131 833d 00c6 e83d
000003a0: 1a4f d4bd ba4b 483d 439a c23d c556 15bd
000003b0: c76c 3c3c 5215 b9bd 24d3 5b3d 89e1 ac3c
000003c0: b64a e33c 4329 f7bc caa4 1fbc f256 69bd
000003d0: a6b6 ea3d b73a bf3d acb5 83bc 61a7 cc3c
000003e0: d88d cbbd 77a3 5dbd 628e 6d3d 88b9 ae3d
000003f0: ff28 afbd a2ba a1bd 0bb2 ddbd 2161 183c

conv_block_3.5.bias f4 [8]
-0.0066423113 0.005780607 0.011279411 0.022306642 -0.052677948 -0.021564206 0.0777041 0.04763702
00000000: bfa7 d9bb 3f6b bd3b 47cd 383c 6bbc b63c
00000010: d5c4 57bd 6ba7 b0bc 5423 9f3d 091f 433d

conv_block_4.0.weight f4 [8]
1.0 0.9999991 0.9999987 0.99999845 1.0000015 0.9999991 1.0000015 1.0000011
00000000: 0000 803f f1ff 7f3f eaff 7f3f e6ff 7f3f
00000010: 0d00 803f f1ff 7f3f 0d00 803f 0900 803f

conv_block_4.0.bias f4 [8]
2.9681442e-07 1.9392795e-07 -4.621371e-07 -6.90008e-07 1.6277056e-07 -1.1362342e-06 2.3732744e-07 1.0264958e-07
00000000: dd59 9f34 823a 5034 a41b f8b4 fd38 39b5
00000010: 08c6 2e34 b680 98b5 12d4 7e34 3470 dc33

conv_block_4.0.running_mean f4 [8]
0.002291932 0.030638412 0.009538305 0.0076402193 0.021859659 -0.004887578 0.0009940972 0.04253861
00000000: 3d34 163b 68fd fa3c 8d46 1c3c ce5a fa3b
00000010: 0713 b33c fa27 a0bb 5e4c 823a f73c 2e3d

conv_block_4.0.running_var f4 [8]
0.90239483 0.9158664 0.9111119 0.9045412 0.9178654 0.90284914 0.90274996 0.9139756
00000000: 5903 673f 3876 6a3f a13e 693f 0390 673f
00000010: 3af9 6a3f 1f21 673f 9f1a 673f 4efa 693f

conv_block_4.2.weight f4 [16, 8, 3, 3]
-0.0761631 0.07572448 0.021668287 0.074065894 -0.073541336 0.05990506 0.10354418 0.07222081
-0.08344601 0.03513491 -0.013872673 -0.009468366 0.001419547 -0.078348584 -0.04742549 0.016428243
-0.117743164 0.08415429 0.047266472 0.11210356 -0.06679593 0.09888142 -0.04296068 0.059935145
0.08018041 0.10101827 0.06895701 0.034668904 0.059387937 -0.025652396 0.11475111 -0.08119171
-0.04205141 -0.08766125 0.08387713 0.05108106 0.08663878 -0.10531968 0.04496069 -0.10393593
0.008747379 -0.10807806 0.017053692 -0.057182465 0.07684558 -0.06088226 0.111248486 -0.053535715
-0.110366516 0.10839722 0.05520204 -0.08998826 0.026557982 0.081125855 -0.092843495 -0.06575385
0.056003332 0.031802706 0.018052941 0.06346947 0.031685855 -0.053098265 -0.112726256 -0.051483136
0.05024914 0.10382558 -0.085123934 0.1161224 0.11256667 0.053163067 -0.06765295 -0.02182644
-0.03909519 0.08567807 -0.014054243 -0.06787091 0.03578702 -0.0021491477 0.09611722 -0.038145952
0.026176179 -0.035106473 0.07281012 -0.041141555 0.032052036 -0.09453466 -0.08743549 0.04271828
-0.0085757505 0.06609232 -0.056548662 -0.074484244 -0.105234735 0.056375973 -0.028299239 0.004159626
-0.052107908 0.05197513 -0.09805057 0.0607548 0.0310776 0.05267068 0.06573469 0.08838272
-0.050157867 0.07181432 0.034224547 0.019360004 0.059356064 -0.043287184 -0.10233328 0.010839392
0.0072362972 0.011517823 0.068958156 -0.0020663405 -0.053183332 -0.073474675 0.04126635 0.09152401
-0.051196933 -0.07604014 0.09580026 -0.10657187 0.050899055 -0.04604617 0.08174498 -0.06254884
0.0942331 0.025273027 -0.028529244 -0.105441324 -0.06898932 0.016716296 -0.09310572 0.06683288
0.046192426 -0.0046138377 0.04953577 -0.06803162 -0.041648977 -0.082568035 0.11397528 -0.10283643
0.06702924 0.009322696 -0.11574708 -0.09714223 -0.05483485 0.050830826 0.025013722 0.04292825
-0.06386918 -0.012626646 -0.08883461 -0.11053635 0.040234003 0.05034933 0.07913364 -0.10375121
0.06306379 0.029742911 -0.106452644 -0.04838484 0.061301537 -0.098922536 -0.10588675 -0.065307796
0.014748023 -0.04815414 0.06004024 -0.014232119 -0.11621006 -0.009057621 -0.111215964 0.0420322
-0.08739288 0.044891503 -0.04880114 -0.07843125 0.11135668 0.052371588 -0.10916529 0.06711209
0.0043818513 0.091867425 0.095923066 0.10563259 0.09407011 0.016470117 0.02931187 0.02762457
0.065205224 0.03848388 0.017438004 -0.0984785 -0.054557063 -0.078147754 0.029299397 -0.051756833
-0.036235783 0.016080748 -0.09063128 0.04364154 -0.11021924 -0.009517957 -0.028584247 -0.08785212
-0.115934364 -0.07785831 0.08578059 0.039382167 -0.016989334 0.018187996 -0.106700666 0.032893185
0.08945971 0.060234625 0.08561387 -0.02230817 -0.030361658 0.06441164 -0.08047812 -0.07156399
0.101421885 0.08408932 -0.07896124 -0.054426998 -0.058653936 0.05697399 -0.013802345 -0.08160377
-0.0068799234 -0.009706752 -0.06924314 -0.09941795 -0.06517871 0.111724705 -0.06090957 0.09784037
-0.015720436 0.09650008 0.06702849 0.05852457 -0.07453447 -0.03878339 -0.034029216 0.084297955
0.053286545 -0.11184048 0.02360466 -0.08656815 -0.035325646 0.1033178 0.022928948 0.057009574
00000000: 66fb 9bbd 7015 9b3d b181 b13c dcaf 973d
00000010: d79c 96bd 025f 753d f90e d43d 81e8 933d
00000020: bee5 aabd a0e9 0f3d 354a 63bc 3521 1bbc
00000030: 1810 ba3a 3975 a0bd 3b41 42bd 8694 863c
00000040: 5423 f1bd 1659 ac3d 7d9a 413d 8d96 e53d
00000050: 4ecc 88bd 5882 ca3d 8af7 2fbd 8e7e 753d
00000060: a035 a43d abe2 ce3d 5539 8d3d fb00 0e3d
00000070: c440 733d f924 d2bc a102 eb3d d747 a6bd
00000080: 193e 2cbd be87 b3bd c6c7 ab3d 603a 513d
00000090: ac6f b13d d8b1 d7bd b328 383d 5cdc d4bd
000000a0: 2b51 0f3c 0858 ddbd 2fb4 8b3c 2938 6abd
000000b0: 3761 9d3d ad5f 79bd 3fd6 e33d 4448 5bbd
000000c0: d707 e2bd 5dff dd3d 891b 623d c44b b8bd
000000d0: 2090 d93c 5025 a63d bb24 bebd f4a9 86bd
000000e0: c063 653d 8e43 023d c3e3 933c 48fc 813d
000000f0: 07c9 013d 917d 59bd 06dd e6bd fbdf 52bd
00000100: 0bd2 4d3d 81a2 d43d 7555 aebd 95d1 ed3d
00000110: 5b89 e63d 84c1 593d a18d 8abd 5dcd b2bc
00000120: 4722 20bd fc77 af3d c543 66bc e7ff 8abd
00000130: 6995 123d b7d8 0cbb 1bd9 c43d ee3e 1cbd
00000140: 6d6f d63c cecb 0fbd 791d 953d 0c84 28bd
00000150: ff48 033d 639b c1bd 6111 b3bd 5df9 2e3d
00000160: 4e81 0cbc 695b 873d 929f 67bd 328b 98bd
00000170: 4f85 d7bd 7eea 663d ced3 e7bc 794d 883b
00000180: 1a6f 55bd e0e3 543d bdce c8bd 06da 783d
00000190: 7396 fe3c 36bd 573d e99f 863d 0002 b53d
000001a0: 5672 4dbd 6313 933d 0a2f 0c3d df98 9e3c
000001b0: 581f 733d e74d 31bd 1c94 d1bd b597 313c
000001c0: 761e ed3b 40b5 3c3c ef39 8d3d 716b 07bb
000001d0: c4d6 59bd e479 96bd e706 293d f170 bb3d
000001e0: e0b3 51bd efba 9bbd ed32 c43d 5a42 dabd
000001f0: 877b 503d e99a 3cbd e969 a73d 9b19 80bd
00000200: 49fd c03d 6109 cf3c 29b6 e9bc 9ff1 d7bd
00000210: 464a 8dbd 9df0 883c 36ae bebd addf 883d
00000220: 4534 3d3d ad2f 97bb 05e6 4a3d 2954 8bbd
00000230: 1e98 2abd 6e19 a9bd df6b e93d e89b d2bd
00000240: a046 893d 39be 183c ce0c edbd 81f2 c6bd
00000250: 829a 60bd fc33 503d 94e9 cc3c 88d5 2f3d
00000260: d8cd 82bd fedf 4ebc ecee b5bd e260 e2bd
00000270: 69cc 243d 193b 4e3d d110 a23d 847b d4bd
00000280: 9727 813d 68a7 f33c d803 dabd 2f2f 46bd
00000290: 5217 7b3d e697 cabd 27db d8bd 18c0 85bd
000002a0: b1a1 713c 473d 45bd c1ec 753d d52d 69bc
000002b0: 8aff edbd 6a66 14bc 32c5 e3bd f529 2c3d
000002c0: 0afb b2bd 27e0 373d b4e3 47bd 90a0 a0bd
000002d0: f90e e43d 9783 563d 0d92 dfbd 1072 893d
000002e0: a295 8f3b fd24 bc3d 5073 c43d e655 d83d
000002f0: d4a7 c03d 57ec 863c 721f f03c ec4c e23c
00000300: 518a 853d 46a1 1d3d 25da 8e3c 19af c9bd
00000310: 3a77 5fbd ee0b a0bd 4a05 f03c f9fe 53bd
00000320: f96b 14bd c6bb 833c e49c b9bd 79c1 323d
00000330: a0ba e1bd 35f1 1bbc 8329 eabc d0eb b3bd
00000340: ff6e edbd 2d74 9fbd bcad af3d 324f 213d
00000350: 372d 8bbc fefe 943c e185 dabd 01bb 063d
00000360: a736 b73d 95b8 763d 5356 af3d a0bf b6bc
00000370: 03b9 f8bc 40ea 833d b6d1 a4bd 2490 92bd
00000380: 47b6 cf3d 0537 ac3d 6eb6 a1bd d8ee 5ebd
00000390: 1c3f 70bd 8f5d 693d 3b23 62bc e11f a7bd
000003a0: fb70 e1bb 1209 1fbc 59cf 8dbd a39b cbbd
000003b0: 6a7c 85bd eccf e43d 507c 79bd 8860 c83d
000003c0: 25c8 80bc d5a1 c53d 3c46 893d 76b7 6f3d
000003d0: 87a5 98bd 55db 1ebd 3862 0bbd 68a4 ac3d
000003e0: fe42 5a3d 9f0c e5bd 8f5e c13c a44a b1bd
000003f0: a0b1 10bd 4898 d33d 7dd5 bb3c df82 693d

conv_block_4.2.bias f4 [16]
-0.038667243 0.06847929 0.066478215 0.051653404 0.08002831 0.013429335 -0.08548043 0.027256614
0.062117446 -0.07841017 0.0665927 0.009864739 0.044371743 -0.036092512 -0.016369417 0.09232539
00000000: 8b61 1ebd df3e 8c3d bb25 883d 8592 533d
00000010: e2e5 a33d b706 5c3c 5d10 afbd 4349 df3c
00000020: dd6e 7e3d 8395 a0bd c161 883d b79f 213c
00000030: 25bf 353d bed5 13bd 2819 86bc 1815 bd3d

conv_block_4.3.weight f4 [16]
0.99999976 1.0000002 0.99999946 0.99999964 1.0000012 0.9999999 0.9999998 0.9999994
1.0000006 1.0 1.0000004 1.0000008 0.99999976 0.9999986 1.0000001 0.9999994
00000000: fcff 7f3f 0200 803f f7ff 7f3f faff 7f3f
00000010: 0a00 803f feff 7f3f fdff 7f3f f6ff 7f3f
00000020: 0500 803f 0000 803f 0300 803f 0700 803f
00000030: fcff 7f3f e9ff 7f3f 0100 803f f6ff 7f3f

conv_block_4.3.bias f4 [16]
-3.471909e-07 7.74017e-08 -4.7341854e-07 -4.1841297e-08 2.2636753e-07 5.7070486e-07 4.355491e-07 -1.6628191e-07
6.13967e-08 5.8018916e-08 -2.4340426e-07 3.2158414e-07 -8.549433e-07 -4.828375e-07 -4.7163255e-07 4.393095e-07
00000000: 8e65 bab4 0938 a633 262a feb4 feb4 33b3
00000010: 6f0f 7334 8a32 1935 6ad5 e934 398b 32b4
00000020: 31d9 8333 7930 7933 3aad 82b4 30a6 ac34
00000030: 427f 65b5 579c 01b5 af34 fdb4 3dda eb34

conv_block_4.3.running_mean f4 [16]
0.01627087 -0.0038018227 -0.018985424 0.024636814 0.013849309 0.01110032 -0.004686567 0.008364962
0.009624144 -0.03703112 0.011282153 0.0068412535 -0.025262877 0.009818284 -0.013356991 0.013784701
00000000: 7d4a 853c 0028 79bb 5287 9bbc 25d3 c93c
00000010: 36e8 623c 1ede 353c c691 99bb 320d 093c
00000020: 96ae 1d3c f2ad 17bd c8d8 383c 982c e03b
00000030: 18f4 cebc dedc 203c 48d7 5abc 3ad9 613c

conv_block_4.3.running_var f4 [16]
0.92080563 0.9129978 0.9298184 0.91272986 0.9146138 0.9115293 0.91593665 0.912653
0.9137604 0.94065803 0.91056764 0.9103693 0.922658 0.931336 0.92696387 0.9147285
00000000: ebb9 6b3f 39ba 693f 9408 6e3f aaa8 693f
00000010: 2124 6a3f fc59 693f d37a 6a3f a1a3 693f
00000020: 34ec 693f f7ce 703f f61a 693f f60d 693f
00000030: 5133 6c3f 096c 6e3f 814d 6d3f a62b 6a3f

conv_block_4.5.weight f4 [16, 16, 3, 3]
0.0053374846 0.06757251 -0.054891963 0.017061109 -0.0364384 0.0344966 -0.0824701 -0.0043047946
0.06073657 -0.019394023 0.052495904 -0.060677785 -0.018782636 0.056560572 -0.019858267 0.036159072
-0.03394151 0.035998397 0.026841082 0.009576327 -0.027940983 0.01624175 0.05611186 0.044521954
0.05493414 0.06318088 0.034898244 0.03270119 -0.022601763 0.07932324 0.022414498 -0.0141562885
-0.04893045 -0.0732634 -0.07883256 -0.033982586 -0.037157066 -0.016880918 -0.016107 -0.059594743
-0.08157787 0.07348028 0.0626367 -0.082767546 0.031663474 0.026715823 0.05812131 0.049197774
0.05113242 -0.03649731 0.017492335 0.028784536 0.055934537 -0.022083363 0.05242993 0.047206685
0.04173664 0.0445884 -0.04861821 0.079473116 -0.0063995584 0.0019526508 0.05519434 0.076920845
0.07687846 0.083004944 -0.010207987 0.054641433 -0.057320673 -0.017055912 -0.025111021 0.026681557
0.051661707 0.07075924 0.022488795 -0.011311539 0.045135953 -0.067216866 0.06113072 -0.057032738
-0.031396415 -0.044683922 -0.074201055 -0.010923124 0.027614756 0.026344351 -0.058982395 -0.065524854
-0.015633775 0.07432299 -0.023686804 0.04189123 0.079418436 0.00017510624 -0.067428246 0.069403164
-0.06652848 -0.063879676 0.0466892 0.04134512 0.051026694 0.068427056 -0.055853363 -0.0038309917
-0.008081968 -0.0005260642 0.036977507 0.023480523 -0.035370618 -0.06100698 0.016238686 0.0071549965
-0.059621446 -0.07849458 0.0033677162 -0.002559061 -0.03343903 0.07847333 -0.05289474 0.04718494
0.060862545 -0.01656248 0.043986034 -0.056123964 0.0011213664 0.081077516 -0.06509672 -0.018915731
0.027817361 -0.07548383 0.0180137 -0.0764624 -0.01939041 0.029686462 -0.022898093 0.0377436
0.062101487 0.008913261 -0.05747209 -0.047301505 0.044355296 0.055048615 0.02645716 0.019034598
-0.00036609804 0.035442956 -0.07337487 0.01920577 0.001748309 -0.07563906 0.06773156 -0.06517644
0.016357405 0.013922795 0.07211202 0.0503299 0.03332627 -0.07858985 -0.05982971 -0.011174288
0.061671484 -0.036291815 -0.006471317 0.07798918 -0.019194812 -0.05288775 -0.0028551565 -0.034958176
-0.059928544 -0.024790064 -0.0027326653 -0.011782844 0.023723524 -0.0443508 -0.036389217 -0.029565874
-0.03195166 -0.03746684 0.08114777 0.007935732 0.025536079 -0.018214475 -0.073148906 0.052883063
0.016450552 0.045613278 0.030792985 -0.065801196 0.024189502 0.067059755 0.074027896 0.062463406
-0.007515385 0.054082356 -0.06591202 0.06229462 -0.045574572 -0.047902256 -0.04497621 0.017593358
-0.021857712 -0.07554709 0.01021315 -0.0035916741 -0.07165848 -0.05170526 0.018380297 0.047530737
-0.08053823 0.050702684 -0.0079300525 0.06706666 0.04742957 -0.0057478426 -0.01904464 0.060729552
-0.069901034 -0.034386143 -0.028597452 -0.050015625 -0.013700057 0.0057027536 -0.0030662306 0.014261722
0.06407197 -0.03684829 -0.0323307 0.015428582 -0.082991794 -0.03595846 0.015658744 -0.015357157
-0.075491354 0.05792254 0.007566674 0.025948757 -0.076526634 -0.05142202 -0.05191669 0.08301324
-0.006224025 0.08113503 0.00717462 0.0018663153 -0.010865281 -1.8579569e-05 0.05472818 0.05073106
0.019492932 -0.011475895 -0.008486966 0.0672026 0.0663764 0.003050111 -0.075214714 -0.036353845
00000000: 11e6 ae3b 7563 8a3d 65d6 60bd bdc3 8b3c
00000010: 6f40 15bd 4f4c 0d3d 15e6 a8bd 3c0f 8dbb
00000020: e9c6 783d 37e0 9ebc f205 573d 4589 78bd
00000030: 0bde 99bc 0fac 673d cead a2bc 891b 143d
00000040: 4106 0bbd 0e73 133d d4e1 db3c 07e6 1c3c
00000050: 7de4 e4bc 6b0d 853c 8dd5 653d a75c 363d
00000060: 9f02 613d fa64 813d 76f1 0e3d aff1 053d
00000070: 5527 b9bc 3974 a23d 9c9e b73c c7ef 67bc
00000080: 4c6b 48bd 1f0b 96bd f772 a1bd 5331 0bbd
00000090: 0232 18bd da49 8abc d4f2 83bc 9e19 74bd
000000a0: 4c12 a7bd d47c 963d ac47 803d 0882 a9bd
000000b0: 8fb1 013d 24db da3c 9c10 6e3d 9b83 493d
000000c0: 3a70 513d 347e 15bd 164c 8f3c 8ccd eb3c
000000d0: 9d1b 653d 2be8 b4bc c4c0 563d cc5b 413d
000000e0: 0af4 2a3d 53a2 363d e323 47bd cdc2 a23d
000000f0: 63b3 d1bb 17f0 ff3a 7613 623d ad88 9d3d
00000100: 7472 9d3d 7ffe a93d 673f 27bc b2cf 5f3d
00000110: 15c9 6abd d7b8 8bbc a1b5 cdbc 4893 da3c
00000120: 3a9b 533d 38ea 903d 6c3a b83c 0954 39bc
00000130: 7ae0 383d ffa8 89bd 3564 7a3d 299b 69bd
00000140: 8799 00bd 7d06 37bd b9f6 97bd e7f6 32bc
00000150: 5738 e23c 1cd0 d73c 8697 71bd e531 86bd
00000160: 6712 80bc a736 983d d40a c2bc 2396 2b3d
00000170: 22a6 a23d b99c 3739 d217 8abd 3f23 8e3d
00000180: 1540 88bd 59d3 82bd 2d3d 3f3d 8059 293d
00000190: 5e01 513d 7c23 8c3d 7fc6 64bd 6011 7bbb
000001a0: 3b6a 04bc 92e7 09ba ba75 173d 3a5a c03c
000001b0: c8e0 10bd 74e2 79bd fe06 853c 7674 ea3b
000001c0: 9e35 74bd c4c1 a0bd e7b4 5c3b ebb5 27bb
000001d0: 5df7 08bd a0b6 a03d 28a8 58bd ff44 413d
000001e0: 014b 793d 0aae 87bc b32a 343d 3ee2 65bd
000001f0: d0fa 923a f80b a63d 6e51 85bd 2af5 9abc
00000200: 3ce1 e33c 4497 9abd 7891 933c 5298 9cbd
00000210: a3d8 9ebc 0631 f33c c894 bbbc 0899 1a3d
00000220: 215e 7e3d ed08 123c db67 6bbd 39bf 41bd
00000230: e6ad 353d a87a 613d b0bc d83c 72ee 9b3c
00000240: d9f0 bfb9 a22c 113d 9045 96bd 6b55 9d3c
00000250: 8427 e53a a7e8 9abd d8b6 8a3d 3a7b 85bd
00000260: f7ff 853c 6f1c 643c 77af 933d ba26 4e3d
00000270: 2081 083d b7f3 a0bd ff0f 75bd 5c14 37bc
00000280: 3d9b 7c3d baa6 14bd 570d d4bb cbb8 9f3d
00000290: 703e 9dbc d3a0 58bd 941d 3bbb 4e30 0fbd
000002a0: a277 75bd 8814 cbbc 8416 33bb d40c 41bc
000002b0: d657 c23c 2fa9 35bd dc0c 15bd 2234 f2bc
000002c0: bedf 02bd d476 19bd cd30 a63d df04 023c
000002d0: 0a31 d13c 8636 95bc 18cf 95bd e99b 583d
000002e0: 4fc3 863c fdd4 3a3d 9241 fc3c c7c2 86bd
000002f0: 1029 c63c a056 893d f09b 973d a1d9 7f3d
00000300: 9e43 f6bb 7685 5d3d e2fc 86bd a528 7f3d
00000310: 67ac 3abd 2835 44bd f938 38bd f21f 903c
00000320: f20e b3bc 6fb8 9abd 0e55 273c 4b62 6bbb
00000330: aec1 92bd e5c8 53bd 4792 963c 97af 423d
00000340: 3af1 a4bd 9ead 4f3d 0ded 01bc 3f5a 893d
00000350: 8245 423d 6658 bcbb 8103 9cbc 8dbf 783d
00000360: 4628 8fbd 7cd8 0cbd 3445 eabc 2fdd 4cbd
00000370: 3476 60bc 2ade ba3b d0f2 48bb ffa9 693c
00000380: 2a38 833d 3cee 16bd 326d 04bd 2ac8 7c3c
00000390: 9af7 a9bd 2e49 13bd c446 803c 969c 7bbc
000003a0: 369b 9abd 2f40 6d3d ddf1 f73b 7d92 d43c
000003b0: ffb9 9cbd e59f 52bd 98a6 54bd d802 aa3d
000003c0: e8f2 cbbb 1f2a a63d 1319 eb3b 269f f43a
000003d0: 4b04 32bc 52db 9bb7 a82a 603d 5fcb 4f3d
000003e0: a4af 9f3c 6405 3cbc ea0c 0bbc 84a1 893d
000003f0: 5af0 873d 5fe4 473b 2c0a 9abd c5e7 14bd

conv_block_4.5.bias f4 [16]
-0.06643041 -0.033019714 0.033845752 -0.053920317 0.020940213 0.038643707 0.026990918 0.010283916
-0.054109033 0.06501938 -0.0054512615 -0.0726602 0.072948 -0.009573675 -0.05852867 -0.036681276
00000000: ab0c 88bd ae3f 07bd d8a1 0a3d 8ddb 5cbd
00000010: cf8a ab3c dd48 1e3d 0f1c dd3c df7d 283c
00000020: 6fa1 5dbd e128 853d 7fa0 b2bb dfce 94bd
00000030: c365 953d e7da 1cbc c2bb 6fbd 1b3f 16bd

conv_block_5.0.weight f4 [16]
1.0000002 0.9999998 1.0 1.0000005 0.99999917 0.9999995 0.999999 1.0000006
0.99999994 1.0000006 0.9999999 0.9999994 1.0000011 1.0000007 0.99999976 0.9999991
00000000: 0200 803f fdff 7f3f 0000 803f 0400 803f
00000010: f2ff 7f3f f8ff 7f3f efff 7f3f 0500 803f
00000020: ffff 7f3f 0500 803f feff 7f3f f6ff 7f3f
00000030: 0900 803f 0600 803f fcff 7f3f f1ff 7f3f

conv_block_5.0.bias f4 [16]
-2.3272503e-07 -6.4432703e-07 3.4575314e-07 -2.162077e-09 3.2353564e-09 -3.7546673e-07 -4.538143e-07 8.9996625e-08
5.4743744e-08 9.052158e-07 -3.7357313e-07 -4.858465e-07 5.1631565e-07 5.588157e-07 -2.9266205e-08 -3.0648815e-07
00000000: f8e2 79b4 d1f5 2cb5 f39f b934 a993 14b1
00000010: fe54 5e31 c193 c9b4 c3a3 f3b4 2b44 c133
00000020: 621f 6b33 f5fd 7235 808f c8b4 1e6b 02b5
00000030: f198 0a35 8601 1635 1165 fbb2 698b a4b4

conv_block_5.0.running_mean f4 [16]
0.03752245 0.0022749272 0.028408995 0.0014454968 0.01944473 0.006850983 0.051918793 -0.008444951
0.00784852 0.018555332 0.037574925 0.011780631 0.018824479 0.0097302245 0.004240288 0.016383484
00000000: 24b1 193d f216 153b fbb9 e83c d376 bd3a
00000010: 8e4a 9f3c 367e e03b cda8 543d b15c 0abc
00000020: 1497 003c 5a01 983c 2ae8 193d 8c03 413c
00000030: cb35 9a3c 856b 1f3c 1df2 8a3b a836 863c

conv_block_5.0.running_var f4 [16]
0.9522771 0.906939 0.91242 0.9011434 0.9053224 0.90447825 0.9190545 0.9065757
0.91053265 0.90388453 0.91607016 0.9152128 0.91216403 0.90377295 0.9129364 0.90626967
00000000: 6fc8 733f 282d 683f 5b94 693f 55b1 663f
00000010: 35c3 673f e38b 673f 2847 6b3f 5815 683f
00000020: ab18 693f fa64 673f 9383 6a3f 634b 6a3f
00000030: 9583 693f aa5d 673f 33b6 693f 4a01 683f

conv_block_5.2.weight f4 [32, 16, 3, 3]
-0.007331643 0.055927604 -0.009007841 0.041987326 0.04750215 -0.02092097 0.016184846 0.07696918
0.020321243 0.058903396 0.029109094 -0.008325788 0.003237446 0.06670462 0.06455606 -0.004737624
0.024932705 0.023405148 0.024415147 0.06430499 0.04444883 -0.027247313 0.01794633 0.0090136295
-0.07243536 0.009458533 0.064501815 -0.06267319 -0.07740664 -0.014729452 -0.02035512 -0.021434546
-0.0066744788 0.060283247 -0.054715626 -0.007116378 0.001658716 0.016604498 0.03418916 -0.03916562
0.057002597 0.054844458 0.046999887 0.017157277 0.03148511 0.022378266 -0.05901472 0.07105943
0.062724814 -0.034429085 0.056369115 -0.026788913 0.0641444 -0.02237277 0.019277008 0.054998185
-0.01496088 0.067954294 0.026757935 -0.028183619 0.039471023 -0.06491208 -0.064624466 -0.06955144
-0.08254418 -0.07678599 0.055737264 -0.02120729 -0.06450026 0.058555957 0.019409098 -0.015407064
0.069950394 0.041236248 -0.077622086 -0.033834398 -0.029228654 -0.043272976 0.04930708 0.019665867
-0.004471798 -0.08184812 0.010864739 0.017080717 0.04170587 0.0489664 -0.017819937 0.058469687
0.07539341 0.07691867 0.06413507 -0.07696195 0.074372604 -0.030762518 0.06840741 -0.04210215
0.007585533 0.065712884 0.025272053 0.06969122 0.039788846 -0.025618503 0.024554443 0.03708138
-0.020260278 0.067622095 -0.06521419 0.038000863 0.015302739 -0.0775882 -0.03755335 -0.054378413
-0.034195494 -0.04534347 -0.055966374 -0.026303535 -0.0070332726 0.05924888 -0.011178352 -0.023585489
-0.062398057 -0.06975391 0.035148107 -0.010798741 -0.03224593 0.03365293 -0.05387557 0.008502798
-0.045751195 -0.05141588 0.057263546 -0.06017199 -0.056230433 0.047152102 -0.056460053 0.05395665
0.07124776 0.08184285 -0.0127201285 0.043581404 0.027327746 -0.030086089 0.009028668 -0.08015503
-0.056259904 0.055785287 0.01637942 -0.045411967 0.07887312 -0.04951297 -0.0140822185 0.039202176
0.046616934 -0.08140026 -0.081823505 -0.07984016 -0.080307424 0.018944109 -0.012979786 0.04111223
0.051306646 -0.054684766 -0.018994613 -0.07866893 0.006298095 -0.020691626 -0.018482253 -0.057988603
0.07539454 -0.049873333 -0.027042247 -0.020426042 0.06757621 0.0015878894 0.028731158 -0.015743384
-0.029158881 0.01160296 0.05687642 0.06697467 -0.006705423 0.072999835 -0.005302094 -0.066464074
-0.06254152 0.023810232 -0.05482871 0.044833574 0.023886962 -0.07858807 -0.010493241 -0.07701218
-0.07384735 -0.008970865 0.04010913 -0.059445377 -0.061759822 0.02310319 -0.077175155 0.0581196
-0.03209415 0.051689625 0.07876639 -0.06357638 0.017950147 0.002044005 0.079907745 0.08092432
-0.03197434 0.03211584 0.014833288 -0.026409347 -0.026361017 -0.0077800564 0.055329375 -0.0008618952
-0.0037889963 0.062420044 -0.060474426 -0.08192673 0.034879185 0.03292869 -0.07215857 -0.07651183
-0.00195574 0.037225705 -0.045070857 -0.050994933 -0.044097863 0.03926859 -0.08250535 -0.08138427
-0.031288434 0.019855253 -0.0660301 -0.051158097 0.072112255 0.06674749 0.029055985 -0.054096196
-0.048846703 -3.9993534e-05 -0.0021587843 0.0726512 0.022706766 0.0015016202 0.06377656 -0.08040004
-0.026707122 -0.015212085 -0.07234971 -0.06628035 -0.04078303 0.04990938 0.08171959 -0.04262848
00000000: 473e f0bb 5814 653d a095 13bc e7fa 2b3d
00000010: 9d91 423d 7462 abbc 1596 843c 04a2 9d3d
00000020: bc78 a63c b044 713d 3276 ee3c e368 08bc
00000030: 552b 543b 6f9c 883d f835 843d 123e 9bbb
00000040: ac3f cc3c 27bc bf3c 4602 c83c 56b2 833d
00000050: fa0f 363d c235 dfbc 2f04 933c e7ad 133c
00000060: fd58 94bd f6f7 1a3c 8719 843d cd5a 80bd
00000070: 5f87 9ebd cd53 71bc c8bf a6bc 8097 afbc
00000080: 96b5 dabb 91eb 763d 7e1d 60bd 8130 e9bb
00000090: 4669 d93a 2806 883c ef09 0c3d 216c 20bd
000000a0: 8e7b 693d 95a4 603d f482 403d 6b8d 8c3c
000000b0: 88f6 003d a052 b73c 6bb9 71bd 9b87 913d
000000c0: de75 803d 8305 0dbd 4de3 663d 6c74 dbbc
000000d0: 245e 833d 1947 b7bc d1ea 9d3c c745 613d
000000e0: 7b1e 75bc 9f2b 8b3d 7533 db3c 55e1 e6bc
000000f0: 5eac 213d a0f0 84bd d559 84bd fc70 8ebd
00000100: ec0c a9bd f941 9dbd c24c 643d e9ba adbc
00000110: b618 84bd 5fd8 6f3d d4ff 9e3c e96d 7cbc
00000120: 2742 8f3d 57e7 283d 54f8 9ebd f095 0abd
00000130: ee70 efbc 013f 31bd 39f6 493d 501a a13c
00000140: 2988 92bb fd9f a7bd 0502 323c dcec 8b3c
00000150: c6d3 2a3d fe90 483d 1efb 91bc e97d 6f3d
00000160: dc67 9a3d 8987 9d3d 3f59 833d 3a9e 9dbd
00000170: aa50 983d ad01 fcbc 2f19 8c3d 4e73 2cbd
00000180: 1090 f83b 7a94 863d 5607 cf3c 45ba 8e3d
00000190: a1f9 223d e5dd d1bc 6626 c93c a5e2 173d
000001a0: e2f8 a5bc 747d 8a3d 048f 85bd cba6 1b3d
000001b0: 57b8 7a3c 90e6 9ebd 8bd1 19bd e6bb 5ebd
000001c0: 9310 0cbd 13ba 39bd ff3c 65bd 837a d7bc
000001d0: 5e77 e6bb f4ae 723d 6825 37bc 5b36 c1bc
000001e0: 1b95 7fbd 23db 8ebd 76f7 0f3d 34ed 30bc
000001f0: 4f14 04bd a8d7 093d a1ac 5cbd 524f 0b3c
00000200: 9b65 3bbd 7599 52bd 2e8d 6a3d e876 76bd
00000210: e251 66bd 9022 413d a842 67bd a601 5d3d
00000220: 58ea 913d 399d a73d 1668 50bc 6a82 323d
00000230: 70de df3c 1a77 f6bc faec 133c 5228 a4bd
00000240: c970 66bd 1d7f 643d 222e 863c e601 3abd
00000250: 3b88 a13d 1dce 4abd 1bb9 66bc 7692 203d
00000260: 66f1 3e3d 2eb5 a6bd 1593 a7bd 3d83 a3bd
00000270: 3878 a4bd ad30 9b3c 2ba9 54bc 4c65 283d
00000280: eb26 523d 22fd 5fbd 979a 9bbc 2d1d a1bd
00000290: 4060 ce3b 7c81 a9bc 1868 97bc 7585 6dbd
000002a0: 7468 9a3d fb47 4cbd b487 ddbc 8454 a7bc
000002b0: 6565 8a3d ba20 d03a 9b5d eb3c 45f8 80bc
000002c0: 9bde eebc 571a 3e3c 40f7 683d 042a 893d
000002d0: 2ab9 dbbb f080 953d 30bd adbb 511e 88bd
000002e0: c515 80bd ad0d c33c 1294 60bd 69a3 373d
000002f0: 97ae c33c c8f2 a0bd d8eb 2bbc 90b8 9dbd
00000300: 483d 97bd 89fa 12bc 7949 243d ff7c 73bd
00000310: def7 7cbd e742 bd3c 020e 9ebd d10e 6e3d
00000320: 2875 03bd 80b8 533d 4650 a13d 5534 82bd
00000330: 300c 933c b7f4 053b aca6 a33d a6bb a53d
00000340: 87f7 02bd e68b 033d 5207 733c 6a58 d8bc
00000350: 0ff3 d7bc d8ef febb 0ea1 623d cff0 61ba
00000360: cf50 78bb 29ac 7f3d 08b4 77bd 34c9 a7bd
00000370: 7add 0e3d 3ce0 063d dfc7 93bd 3cb2 9cbd
00000380: df2b 00bb fb79 183d 389c 38bd 10e0 50bd
00000390: f69f 34bd 1ad8 203d 91f8 a8bd ccac a6bd
000003a0: 4d28 00bd 7ca7 a23c ca3a 87bd 278b 51bd
000003b0: 97af 933d e8b2 883d d106 ee3c f993 5dbd
000003c0: 7b13 48bd bbbe 27b8 647a 0dbb 27ca 943d
000003d0: 8a03 ba3c 03d2 c43a 499d 823d c7a8 a4bd
000003e0: e5c8 dabc 1c3c 79bc 162c 94bd febd 87bd
000003f0: 1b0c 27bd c76d 4c3d 9a5c a73d 339b 2ebd

conv_block_5.2.bias f4 [32]
0.058943484 -0.033404678 -0.022543339 -0.061527815 0.074744165 -0.023370085 -0.041843582 -0.064584665
0.055837248 0.051513825 0.06980764 -0.03467536 -0.036025614 0.004434906 0.031054696 0.071883835
0.07088227 0.07608558 0.057442848 0.0123398965 0.060274128 -0.006652526 0.03569752 -0.07022852
-0.016856082 0.0719726 -0.050607927 0.05395678 -0.04938308 -0.0028835458 -0.060332723 -0.071401566
00000000: b96e 713d 58d3 08bd cfac b8bc 9704 7cbd
00000010: 7813 993d 9f72 bfbc 2d64 2bbd f744 84bd
00000020: 99b5 643d 2900 533d 4ff7 8e3d c007 0ebd
00000030: 988f 13bd b052 913b 6b66 fe3c d537 933d
00000040: b92a 913d c2d2 9b3d 3149 6b3d 472d 4a3c
00000050: 01e2 763d 6ffd d9bb 9037 123d f8d3 8fbd
00000060: c415 8abc 5f66 933d 424a 4fbd c901 5d3d
00000070: ea45 4abd dff9 3cbb 721f 77bd fc3a 92bd

conv_block_5.3.weight f4 [32]
0.99999994 1.0000001 0.99999994 0.9999998 0.99999976 1.0 0.99999994 1.0000001
0.9999998 0.9999999 1.0000005 0.9999999 0.9999998 1.0000001 0.9999998 0.99999934
0.99999994 0.99999994 0.99999976 1.0000001 1.0000001 0.99999976 0.9999999 1.0000002
1.0000004 0.9999999 0.99999994 0.9999999 1.0000004 1.0 0.9999993 0.99999994
00000000: ffff 7f3f 0100 803f ffff 7f3f fdff 7f3f
00000010: fcff 7f3f 0000 803f ffff 7f3f 0100 803f
00000020: fdff 7f3f feff 7f3f 0400 803f feff 7f3f
00000030: fdff 7f3f 0100 803f fdff 7f3f f5ff 7f3f
00000040: ffff 7f3f ffff 7f3f fcff 7f3f 0100 803f
00000050: 0100 803f fcff 7f3f feff 7f3f 0200 803f
00000060: 0300 803f feff 7f3f ffff 7f3f feff 7f3f
00000070: 0300 803f 0000 803f f4ff 7f3f ffff 7f3f

conv_block_5.3.bias f4 [32]
-3.3596982e-07 1.3921985e-07 6.836741e-08 -3.1313232e-07 4.656104e-08 -5.3652958e-08 -1.2310169e-08 -2.132488e-08
-2.7412767e-07 -5.3218592e-08 1.1059768e-07 -1.7476732e-07 -2.1658539e-07 1.7290628e-07 -3.968901e-07 -8.675732e-08
-1.5751564e-07 1.4111828e-07 -2.609939e-07 6.373395e-09 2.8609995e-07 -2.8068712e-07 5.306783e-08 5.119393e-08
7.198114e-07 1.3917463e-07 1.2317383e-07 2.2011659e-07 6.607687e-08 1.4489625e-07 8.817534e-08 1.1273869e-07
00000000: 575f b4b4 767c 1534 62d1 9233 941c a8b4
00000010: 68fa 4733 0d70 66b3 b27c 53b2 e82d b7b2
00000020: d22b 93b4 7692 64b3 b881 ed33 ada7 3bb4
00000030: 8a8e 68b4 1ea8 3934 2914 d5b4 574f bab3
00000040: 9221 29b4 4c86 1734 ba1e 8cb4 fafc da31
00000050: 4799 9934 58b1 96b4 b2ec 6333 52e0 5b33
00000060: 1039 4135 0870 1534 c441 0434 3059 6c34
00000070: 25e6 8d33 c794 1b34 e85a bd33 c01a f233

conv_block_5.3.running_mean f4 [32]
0.02712043 -0.03768419 -0.029739922 -0.022748377 0.027518239 -0.025144955 -0.038481675 -0.00931478
-0.029049054 0.0154636875 0.010017386 0.0020088248 -0.012682544 -0.013629128 0.011305245 0.02511687
0.02324242 -0.024648888 -0.0033335648 -0.024376482 -0.016426269 -0.0061479695 0.008946388 0.016659524
-0.04643875 0.020356527 -0.009008237 0.0252996 0.0013172767 -0.026599795 -0.0077631683 -0.048311703
00000000: aa2b de3c bd5a 1abd 23a1 f3bc ce5a babc
00000010: ee6d e13c cbfc cdbc f69e 1dbd 059d 18bc
00000020: 48f8 edbc 685b 7d3c f61f 243c 7da6 033b
00000030: 72ca 4fbc b54c 5fbc a239 393c e5c1 cd3c
00000040: e366 be3c 77ec c9bc f077 5abb 30b1 c7bc
00000050: 6290 86bc e874 c9bb df93 123c 8e79 883c
00000060: 8f36 3ebd bbc2 a63c 4997 13bc 1b41 cf3c
00000070: 79a8 ac3a d0e7 d9bc 2d62 febb 7ee2 45bd
