cloud-detection-code/tests/test_artifacts/test_shadow/model_checkpoint_6.pt (torch, 287733 bytes, 250 tensors)

input_conv_block.0.weight f4 [3]
000000 3f 00 80 3f ee ff 7f 3f 65 ff 7f 3f
       1.0000075 0.9999989 0.99999076

input_conv_block.0.bias f4 [3]
000000 e6 60 9d b7 64 af 17 b8 c3 04 0b 38
       -1.876098e-05 -3.616455e-05 3.3144617e-05

input_conv_block.0.running_mean f4 [3]
000000 46 14 64 3d f6 76 82 3d 41 26 8f 3d
       0.055683397 0.06370346 0.06989718

input_conv_block.0.running_var f4 [3]
000000 0f 18 08 3f 66 15 08 3f 71 15 08 3f
       0.5316171 0.5315765 0.53157717

input_conv_block.2.weight f4 [2, 3, 1, 1]
000000 e8 f3 92 be 1a 7b 80 3e 8a 36 11 bf 7c 77 d4 3e
       -0.2870171 0.2509392 -0.56723845 0.4149741
000010 c0 63 b7 3e af a4 f7 be
       0.3581829 -0.4836783

conv_block_1.0.weight f4 [2]
000000 9f 00 80 3f a6 fe 7f 3f
       1.000019 0.9999794

conv_block_1.0.bias f4 [2]
000000 ee be 9c 38 26 32 de b7
       7.474223e-05 -2.6487814e-05

conv_block_1.0.running_mean f4 [2]
000000 11 17 ce bd 80 6f 40 3d
       -0.10062993 0.046981335

conv_block_1.0.running_var f4 [2]
000000 ed 9b 22 3f ec 95 0e 3f
       0.63519174 0.5569751

conv_block_1.2.weight f4 [2, 2, 3, 3]
000000 b9 69 41 be 51 8b 49 be 1d 81 eb 3b ab 2a 10 be
       -0.18887986 -0.19682051 0.0071870224 -0.14078777
000010 d8 fd b0 3d 97 dd 06 be e3 12 0e be 0e 73 38 3e
       0.08642167 -0.13170467 -0.13874392 0.1801264
000020 f9 71 c7 3d 85 1a 39 bc 99 2e cb bd 0c f8 9a bd
       0.097385354 -0.011297827 -0.09920997 -0.075668424
000030 e3 7c 5c 3d c3 01 8c bd fe 89 58 bd 4f bf 86 bc
       0.05383004 -0.068362735 -0.052865975 -0.016448645
000040 20 9d b5 3c fb ba 02 3e 91 12 52 3e 10 25 e3 bd
       0.02216965 0.1276664 0.20514895 -0.110910535
000050 cf dc 32 3c 47 fa 26 3e 2a 9f 5d 3e a8 5f 29 3e
       0.010916903 0.1630641 0.21642748 0.16540396
000060 7d 92 9a 3d da 1d 16 be bd 88 06 bb ed 8c 19 3e
       0.07547472 -0.14659825 -0.002052828 0.14995165
000070 e6 9e 3a bd ba be 02 be f1 9d b7 3c 71 ea b0 3d
       -0.045561694 -0.12768069 0.02241418 0.08638466
000080 34 59 fa bd 8c 55 47 be e2 f7 46 3e d9 bd 44 be
       -0.122240454 -0.19466227 0.19430497 -0.19213046

conv_block_1.2.bias f4 [2]
000000 88 80 85 bd f5 5f a2 bd
       -0.06518656 -0.079284586

conv_block_1.3.weight f4 [2]
000000 41 ff 7f 3f 50 00 80 3f
       0.9999886 1.0000095

conv_block_1.3.bias f4 [2]
000000 e4 c3 ad b7 ea 8f fb 36
       -2.0714426e-05 7.4971367e-06

conv_block_1.3.running_mean f4 [2]
000000 32 00 eb bd 96 87 92 3c
       -0.11474647 0.017886918

conv_block_1.3.running_var f4 [2]
000000 73 c8 09 3f bc a5 12 3f
       0.53821486 0.5728414

conv_block_1.5.weight f4 [2, 2, 3, 3]
000000 89 13 73 bd 1b 93 f1 bd 42 0a 86 bd 49 8b 5d 3e
       -0.059344802 -0.11795636 -0.06544925 0.21635164
000010 eb 30 40 be 47 6d 10 be 51 75 a0 3c 99 4d 8c 3c
       -0.1876866 -0.14104186 0.01958719 0.017126845
000020 d8 f0 df bd 06 f7 0a 3e 75 2a 10 be 4e ab b2 3d
       -0.10934609 0.13570794 -0.14078696 0.0872408
000030 4e b3 24 3e 0b 96 37 3e 52 c9 10 3e 73 cf ac bc
       0.16084024 0.1792833 0.14139298 -0.021095013
000040 11 9d 12 bd 30 c2 36 bd 4d 12 2e 3d 88 86 4c bd
       -0.03579432 -0.044618785 0.04249792 -0.049932986
000050 e7 87 85 3b 3b 4a ca 3d a0 86 dc 3d 0f 23 ba bd
       0.0040750387 0.098774396 0.10767865 -0.09088718
000060 0e 54 d3 3d 1b d0 98 bd c1 61 80 3d 33 0b 4b 3b
       0.103187665 -0.07461568 0.06268645 0.0030982017
000070 52 39 9c 3d ac 84 60 3e 9f 0b e3 3b ea 91 ed bd
       0.076281205 0.2192561 0.0069288756 -0.116000965
000080 49 bd 19 bd a8 dc aa 3d 2d 8d 39 3e 49 5a 06 3e
       -0.037534032 0.08342868 0.1812026 0.13120379

conv_block_1.5.bias f4 [2]
000000 4d cd ab bc fc 0f 00 3e
       -0.020971918 0.12506098

conv_block_2.0.weight f4 [2]
000000 b8 fe 7f 3f 95 00 80 3f
       0.99998045 1.0000178

conv_block_2.0.bias f4 [2]
000000 3c ff 56 b7 0a 54 7a b6
       -1.281482e-05 -3.730182e-06

conv_block_2.0.running_mean f4 [2]
000000 3f 50 49 3d 39 c6 4a 3e
       0.049148794 0.19802178

conv_block_2.0.running_var f4 [2]
000000 f7 aa 0b 3f 8f 4b 09 3f
       0.54557747 0.5363092

conv_block_2.2.weight f4 [4, 2, 3, 3]
000000 9b 45 14 be 90 80 5f 3e 9b 50 66 3d 2f 00 1f be
       -0.14479677 0.21826386 0.056229215 -0.15527414
000010 14 23 42 3d cc 01 a6 3d b4 1f a1 3d 13 17 c0 3d
       0.047396734 0.081058115 0.07867375 0.09379401
000020 b2 3a e9 3d 85 6b 1a bd f8 d3 42 3e 44 ea bd 3d
       0.11388148 -0.037700195 0.19026172 0.09273198
000030 34 2a fc bc c4 5e bd bd 18 79 b5 bb 22 82 44 3e
       -0.030781843 -0.09246591 -0.005538117 0.19190267
000040 d2 4a 2e bd 5e 3d 6b be 50 89 6d be 07 4c 12 be
       -0.042551823 -0.22972628 -0.23196912 -0.14286815
000050 23 5a 30 be d4 7a 05 be 16 68 0b 3d ef 32 5c be
       -0.17221884 -0.13035136 0.03403481 -0.21503805
000060 eb e7 b7 3c 0f 52 f2 3d 36 54 28 3c a9 67 ad bc
       0.022449454 0.11832058 0.010273984 -0.021167593
000070 17 99 99 bc 49 47 15 3e f5 4f 5d be 49 4f 6c 3e
       -0.018749757 0.14577974 -0.21612532 0.2307712
000080 27 fd e5 3d 54 02 60 3d 54 8d c2 bd 0f ae cf 3d
       0.112299256 0.05468972 -0.094996125 0.10140621
000090 18 d2 92 bc e4 ea 45 be e8 53 ad bd ac cc 01 be
       -0.017922446 -0.19327885 -0.084632695 -0.12675732
0000a0 85 96 d0 bd 82 57 70 be bc 4d f6 bc 4a 8d 41 bd
       -0.10184959 -0.23470882 -0.030066364 -0.047253884
0000b0 3d 8c 07 bd af a6 15 3e a0 2e 3b 3e 33 cc 1c 3d
       -0.033092726 0.14614366 0.18279505 0.038280677
0000c0 29 fd 3c bb 5f 2e 5b be 54 49 b4 3d b8 5d 36 3e
       -0.0028837419 -0.21404408 0.08803049 0.17809188
0000d0 7a e6 67 3e 08 54 8f 3c e9 a9 04 3e 3a e8 d4 bd
       0.22646514 0.017496124 0.1295544 -0.10395856
0000e0 63 95 29 be 39 13 a2 bb 2d c2 37 3d db ea 2e be
       -0.16560893 -0.004946139 0.044862915 -0.17081778
0000f0 93 50 19 3c 1a e0 ad 3d c5 f4 a5 3d bb 21 35 3d
       0.009357589 0.084900096 0.08103327 0.04422162
000100 53 9e 5a be f3 27 d9 3d a3 c2 12 3d 63 4b 57 3d
       -0.21349458 0.10603323 0.03583015 0.05256213
000110 3c fc 8f bd c6 4e 19 be f5 f0 cc 3c 34 0a 22 bd
       -0.07030532 -0.14971456 0.025017241 -0.03956051

conv_block_2.2.bias f4 [4]
000000 00 0d 37 3e b6 fb c9 3d 84 6f 28 be fe 03 68 3d
       0.17876053 0.09862463 -0.1644879 0.056644432

conv_block_2.3.weight f4 [4]
000000 b3 ff 7f 3f ae ff 7f 3f 87 00 80 3f 56 ff 7f 3f
       0.9999954 0.9999951 1.0000161 0.99998987

conv_block_2.3.bias f4 [4]
000000 26 7a 9e b6 5b 5e 9b b7 2f ad fd 36 36 b8 6c 36
       -4.722987e-06 -1.8521378e-05 7.560149e-06 3.5273965e-06

conv_block_2.3.running_mean f4 [4]
000000 d3 4b 1f 3e 2d 67 10 bd 0c 02 11 be ff 7d 79 bc
       0.15556268 -0.035254646 -0.14160937 -0.015227794

conv_block_2.3.running_var f4 [4]
000000 9f 0d 10 3f c3 7b 17 3f 3b 5f 1e 3f f6 76 0b 3f
       0.56270784 0.5917322 0.6186406 0.54478395

conv_block_2.5.weight f4 [4, 4, 3, 3]
000000 ee d6 b4 bb f4 c4 dc bd 7f f3 05 3e 09 61 82 bd
       -0.0055187857 -0.10779753 0.13081168 -0.06366164
000010 69 de ef 3a 6c d0 17 3e 35 93 02 3e da e1 38 bd
       0.0018300536 0.148256 0.12751468 -0.045137264
000020 ef f1 0c bd 15 b4 4c bd 20 85 22 3e 4f 0e b4 3d
       -0.034410413 -0.049976427 0.15871096 0.08791792
000030 12 17 a3 3d e5 99 94 3d 6c 95 a4 bc 49 8f dc bd
       0.07963385 0.072559156 -0.020090781 -0.10769517
000040 8a bb cf 3c e0 f2 a0 bc 5f 65 97 bd 98 93 13 be
       0.02535798 -0.019647062 -0.07392382 -0.14411771
000050 19 82 18 be 46 5b 9d 3b d1 f5 03 3e a9 68 06 3e
       -0.14893378 0.0048021404 0.1288674 0.13125862
000060 39 50 46 3d 2a 60 ea 3c a7 c6 c0 3d 37 b8 1d be
       0.04841635 0.028610308 0.0941289 -0.15402304
000070 83 e8 9c bb bd d9 43 3d 65 b7 5a bc 07 52 fe 3d
       -0.0047884597 0.047815073 -0.013349389 0.12417989
000080 d4 57 10 3e 6c 15 10 3e 43 18 de 3d 48 10 93 bc
       0.14096004 0.14070672 0.10844471 -0.0179521
000090 10 02 08 bd b1 1d f1 3d 4e 00 14 3e 8b 79 ab 3d
       -0.033205092 0.11773241 0.14453241 0.08372792
0000a0 b4 fc 54 bc 2c a4 e2 bb 1d d6 03 be 6a 93 0f 3d
       -0.012999702 -0.0069165435 -0.12874646 0.035052694
0000b0 5b 48 1d 3e eb 02 13 3e 58 69 bd bd 13 43 e6 bd
       0.15359633 0.14356582 -0.09248608 -0.11243262
0000c0 0c 2a 5b bd 8c ad 62 bd 18 56 8c 3d 07 6d 45 bd
       -0.053506896 -0.05534129 0.068523586 -0.04819968
0000d0 56 94 d5 bd 42 40 de bd c2 77 97 bd 9a 5a 30 3d
       -0.104286835 -0.108521 -0.07395889 0.043055154
0000e0 9b 7e e3 3d 4a 68 23 3e c7 dc 8f bc b7 ca 2d 3d
       0.111081325 0.15957752 -0.01756133 0.042429652
0000f0 d1 e9 13 bd df 02 bf 3d 35 61 d5 3c cc 46 0d bd
       -0.036111657 0.093267195 0.026047328 -0.034491345
000100 d8 88 e1 3c 50 3c 5e bd f3 2d e6 bd cb d2 9c 3d
       0.027531072 -0.054256737 -0.11239233 0.07657393
000110 b4 1e 1e 3e aa d0 16 3d 98 ce 43 bc 5c ac 1a 3e
       0.154414 0.03682009 -0.011951111 0.15104812
000120 2d 5e cd 3d 87 18 9a bd 51 95 de bd 9a f2 be 3d
       0.10027728 -0.075242095 -0.108683236 0.09323616
000130 e3 96 03 3d e5 80 08 be 80 51 85 bd 64 87 8f bd
       0.03212632 -0.1333042 -0.065096855 -0.070082456
000140 c2 b4 5e 3c 60 58 1f be e9 2d 2e 3d 85 ae 18 3e
       0.013592901 -0.15561056 0.042524252 0.14910324
000150 fa 30 be 3d 78 e7 c7 bd b6 8d 0a 3e f0 dc 17 3d
       0.09286685 -0.09760946 0.13530621 0.037075937
000160 7a 05 8a bd 8c 5d bf bd 9d ed d5 bd 3b 4b 69 3d
       -0.06739326 -0.093440145 -0.10445712 0.05695651
000170 db 00 b4 bd 1a 97 db bd 0d 37 00 3e a3 bb 5b bd
       -0.08789226 -0.1072218 0.12521 -0.05364574
000180 d0 12 ac 3d a0 43 05 be a5 22 92 3d a1 f7 21 3e
       0.08402026 -0.13014078 0.07135514 0.15817119
000190 94 e3 51 3d ee c8 47 3d 53 b3 06 be 1b 4b 8d 3c
       0.051242426 0.048775606 -0.13154344 0.017247727
0001a0 e9 4e b4 bc 33 13 1c be 8b 13 e8 3d d1 33 e6 3a
       -0.022010284 -0.15241699 0.113318525 0.001756305
0001b0 2c 21 16 be 47 cc 01 3d 92 b9 b7 3d 9a 20 d0 bd
       -0.14661092 0.031688955 0.089709416 -0.10162468
0001c0 a7 36 21 3e 15 32 d6 3d c4 20 44 bd 95 5f a9 3c
       0.15743504 0.10458771 -0.04788281 0.02067546
0001d0 00 aa 04 3e 31 25 8f bb ae 2b 0b 3e fb 67 e1 bd
       0.12955475 -0.0043684472 0.13590881 -0.11006161
0001e0 1a f4 6f 3d f5 43 bb 3d c9 55 e5 bd 6f b2 29 bc
       0.058582403 0.09143821 -0.11198003 -0.010357483
0001f0 f3 0f 97 bd 63 f2 00 3d ca 39 11 be 1a 84 e7 3d
       -0.07376089 0.031481158 -0.14182201 0.11304493
000200 66 c1 a3 3d c6 c3 e7 3d e4 f1 1c be 88 5c 27 3e
       0.07995872 0.11316638 -0.15326649 0.16343892
000210 2d 05 c0 3d 8c f7 05 3e 17 14 c3 3d f5 f6 5d bc
       0.09375987 0.13082713 0.09525316 -0.013547649
000220 5b 95 21 be a3 4c 07 3e a8 b9 0e be 41 4b 25 bd
       -0.15779631 0.13212828 -0.1393801 -0.04035497
000230 93 19 14 bc 23 4d 1c 3e 43 af 4a 3d da 91 c1 3d
       -0.0090393005 0.152638 0.04948355 0.09451647

conv_block_2.5.bias f4 [4]
000000 71 4c f6 3c 77 0e ab 3d 30 59 aa bd 34 66 4f bc
       0.030065747 0.08352368 -0.083177924 -0.0126586445

conv_block_3.0.weight f4 [4]
000000 c8 fe 7f 3f 35 00 80 3f 67 ff 7f 3f 96 00 80 3f
       0.9999814 1.0000063 0.9999909 1.0000179

conv_block_3.0.bias f4 [4]
000000 c4 b4 b1 b6 31 fe 08 37 36 3b 8b b5 0e fd 49 36
       -5.296055e-06 8.165415e-06 -1.037354e-06 3.0098631e-06

conv_block_3.0.running_mean f4 [4]
000000 1d ab 50 3e c2 50 3e 3e 14 a5 9f bb 66 75 50 3e
       0.20377775 0.18585494 -0.004871974 0.20357284

conv_block_3.0.running_var f4 [4]
000000 f1 5c 19 3f a5 bf 12 3f 50 03 0a 3f 73 62 30 3f
       0.5990744 0.57323676 0.53911304 0.6890022

conv_block_3.2.weight f4 [8, 4, 3, 3]
000000 7c f9 86 3d c0 e0 0a be da 05 63 3d 93 66 01 3b
       0.06590554 -0.13562298 0.055425502 0.0019744977
000010 a0 00 a0 bc e8 68 c5 3d 8a 69 c6 3c 5b bf 15 3e
       -0.019531548 0.0963915 0.024220247 0.14623778
000020 e7 d5 f7 3d 42 26 25 be 0e d8 c3 bd a9 c6 21 3e
       0.121013455 -0.16127875 -0.095626935 0.15798439
000030 09 7b 9e bd d5 2f 8a 3d 88 ee 04 3e 5f f0 ee bd
       -0.07738311 0.067474045 0.12981617 -0.11666941
000040 e8 6a dc 3d 7e b4 86 bd fb b1 2d 3d 40 24 98 3d
       0.10762578 -0.06577395 0.042406064 0.07428789
000050 2f d3 e0 bd b7 1d 3b bb 05 66 dd 3d 0a 9a a8 3d
       -0.1097778 -0.0028551647 0.10810474 0.082325056
000060 92 f6 dc 3d df dd 20 3e bf 41 b1 3d 7f 95 26 3e
       0.10789217 0.15709637 0.08655118 0.16267966
000070 6c b2 22 3e 81 53 9d bd 2c 4e af 3d bb db 17 3e
       0.15888375 -0.07681943 0.08559832 0.14829914
000080 2e f5 22 be 00 98 c2 3d 3d ff c9 bd 97 68 62 3d
       -0.15913841 0.09501648 -0.09863136 0.055275526
000090 79 f9 b2 bd 89 8f fd 3d 42 da fc 3d 03 16 08 3c
       -0.087389894 0.12380893 0.12346317 0.008306029
0000a0 7e 74 5d 3d 9c ac 99 3d 09 42 e6 3d 0f 85 08 be
       0.054066174 0.07503626 0.11243064 -0.13332008
0000b0 cf 1f 5c 3d 1c 5a 13 bd 7f 9d bb bd c7 41 59 3d
       0.053741273 -0.035974607 -0.09160899 0.053041246
0000c0 19 6d e1 bd 8a 4c 9e 3d 50 18 a3 3d 94 36 92 bd
       -0.11007137 0.077294424 0.079636216 -0.07139316
0000d0 5e 89 0d 3d b5 ab 28 be 0f 2d 06 3e 81 ea ca bc
       0.03455483 -0.16471751 0.13103126 -0.024770023
0000e0 4b cc 0e be 76 13 2b bd 22 d5 95 3d d5 65 f3 3c
       -0.13945119 -0.041766606 0.073160425 0.029711643
0000f0 f1 f6 b0 3d 8c 14 af 3c 11 af c5 3d 9d d5 d7 3d
       0.0864085 0.021372102 0.09652532 0.105387904
000100 8b 7a a3 3c c3 df 80 bd 26 45 fa 3d 5f 16 b9 3d
       0.019955894 -0.06292679 0.1222022 0.0903747
000110 23 cc de bd 57 7e 4c bd 63 ed 18 be 67 e0 57 3d
       -0.1087878 -0.049925175 -0.14934306 0.05270424
000120 27 a5 42 ba e3 34 45 3c 6f 85 13 be b8 0a fb 3c
       -0.00074251223 0.012036535 -0.1440637 0.03064476
000130 94 0a 68 bb 16 67 fb 3c 5c 9c 28 bd 2f 35 a3 bd
       -0.0035406696 0.030688804 -0.04116474 -0.07969128
000140 85 79 bc bd cc 76 e1 3d 99 0e c9 3c c4 01 b6 3d
       -0.092028655 0.11008987 0.024543094 0.088870555
000150 49 f4 a2 bc 86 59 ba 3d 19 2b 48 3c 5d 11 8c bd
       -0.019891875 0.090991065 0.0122173065 -0.06839249
000160 ef 10 ef 3c 2e 9d 1e be 1e 00 aa 3d 78 27 e3 3d
       0.02918288 -0.15489647 0.083008036 0.110915124
000170 fa 3e 67 3b ff 35 b2 3d 12 28 8c bd 23 df 48 3d
       0.003528534 0.08701705 -0.0684358 0.049040925
000180 dd 91 81 3c 38 d9 e6 3d e6 ef 96 bc 0d ee a6 3d
       0.015816623 0.112719 -0.01842494 0.08150873
000190 87 98 e7 3b 31 09 14 3e c7 fb 23 3e c9 b8 e1 3c
       0.007067743 0.14456631 0.16014014 0.027553933
0001a0 58 ba 42 bd 73 6f 00 3e d3 e6 19 3e 71 f7 5c 3d
       -0.047540992 0.12542515 0.15029459 0.053946916
0001b0 89 fc ea bd b4 2a da bd da 9e 05 be 5c c3 20 3e
       -0.114739485 -0.10652676 -0.13048878 0.15699524
0001c0 10 75 1d bd 62 9d 88 bd c1 ee 46 3b f0 cc 31 3c
       -0.038441718 -0.066706434 0.003035471 0.010852084
0001d0 c1 26 d7 3c dc ed 04 3e 98 a7 69 bb 81 66 0c 3e
       0.026263596 0.12981361 -0.0035652872 0.13710977
0001e0 ad 32 b4 3d 14 40 e6 3c dd 55 d8 3c fe 17 b2 bd
       0.08798728 0.028106727 0.02640813 -0.086959824
0001f0 50 49 27 be a0 b7 f7 3c 15 5c de bc e5 a4 0e 3d
       -0.1633656 0.030238926 -0.027143518 0.034825224
000200 35 b3 d0 3d b3 2b f7 bd b8 e7 05 3b 9a a5 c0 3d
       0.10190431 -0.12068882 0.0020432305 0.09406586
000210 ac 79 16 bd da a6 b4 3c 1f 47 6a 3d 50 c8 b6 bd
       -0.03673713 0.022052217 0.057196733 -0.08924925
000220 df 3f 11 be 22 61 30 bb b1 b1 0c 3d b8 38 87 bd
       -0.14184521 -0.0026913364 0.034349147 -0.06602615
000230 a7 37 0c 3e bd f4 1b 3d b4 2a 20 be 1c 3d 67 3d
       0.13693105 0.038075197 -0.1564129 0.056454763
000240 ea c8 d1 3d f9 ce 99 bc 3d d5 db bb 19 96 3c bd
       0.102433994 -0.01877545 -0.0067087696 -0.04604158
000250 b2 a9 d2 bd 19 46 2a be 65 6d 86 bd 23 ec 6a bd
       -0.10286273 -0.16628303 -0.06563834 -0.057354104
000260 b1 29 3a bd 1e 0d a3 bd c3 54 ce 3d 55 8f d1 3b
       -0.045449916 -0.07961486 0.10074761 0.0063952603
000270 55 a9 da bd 74 38 aa 3d 5b 16 a3 bc d2 3e cf 3b
       -0.10676829 0.08311549 -0.01990812 0.0063246274
000280 43 7d 9e 3d e8 ce 05 bd f1 83 1c be 8f 1f a8 bd
       0.077387355 -0.032668024 -0.15284707 -0.08209144
000290 82 92 af 3b 7b a4 1b be 2e e3 ae 3d 03 bd f1 3d
       0.0053580413 -0.15199463 0.08539425 0.11803629
0002a0 19 61 78 3c ec b2 f1 3c d4 fc 0e 3e aa 24 0f 3e
       0.015159869 0.029504262 0.13963634 0.1397883
0002b0 4d 7e cf 3d e3 c2 19 3e db 14 4e 3d bc 6f 1e 3e
       0.10131512 0.1501575 0.050312858 0.15472311
0002c0 58 9b 96 3d e4 ef 41 3d de 00 a8 bd 35 38 01 be
       0.07353848 0.04734792 -0.082032904 -0.12619098
0002d0 2d a2 58 bd 45 bc 28 3e bd a3 23 be 48 4c 37 bd
       -0.052889038 0.16478069 -0.1598043 -0.04475048
0002e0 ea ad f8 3d ce 70 f2 3a bb 18 08 3e d2 be 78 39
       0.121425465 0.0018496753 0.13290684 0.00023722209
0002f0 f4 45 81 bd 50 fd 72 bd fe 04 8e 3d 53 60 d4 3d
       -0.063121706 -0.05932361 0.06934546 0.10369935
000300 e3 99 ab 3d 13 ac ec 3d 81 bb a5 3d 9e 6b a3 bc
       0.08378961 0.11556258 0.08092404 -0.019948777
000310 96 52 1a 3e 72 c8 24 bc 72 96 b0 3d 26 49 02 be
       0.15070567 -0.0100575555 0.08622445 -0.12723216
000320 d2 0e e9 3d a2 29 b9 3c b6 df 41 bd a1 52 e0 bd
       0.1137978 0.02260286 -0.047332488 -0.1095326
000330 21 5b 8c 3d 3f 0f 20 3e e5 cf 90 3d c1 16 e7 3d
       0.06853319 0.15630816 0.07070903 0.11283637
000340 b5 0e b2 3d ef 8b 38 bd 6e c3 96 3b 2b 24 e4 bd
       0.086942114 -0.045055326 0.0046009338 -0.11139711
000350 36 ae 10 bd 2a 9c 0f 3e a7 5b 3c bd b5 54 fc bc
       -0.03532239 0.14024416 -0.045985844 -0.03080211
000360 f3 08 e0 bc a5 cd 21 3d 36 e3 f6 bd 1d b3 a2 bc
       -0.027348017 0.03950276 -0.12055056 -0.019860798
000370 fb 59 fe 3d e6 7f 1a be 6e 40 06 be 45 2c a0 bd
       0.12419506 -0.15087852 -0.13110515 -0.07820944
000380 3c e8 fc 3d 22 37 8b 3d 32 97 b6 bd de 57 96 bd
       0.12348983 0.06797625 -0.08915557 -0.07340978
000390 01 e9 c7 bd 66 b9 c8 3d 6b 64 1b bd 6d 7f 88 bd
       -0.09761239 0.09800987 -0.037937563 -0.066649295
0003a0 82 4c d3 bd 92 a5 00 be af 35 84 3d 4a 99 b7 3d
       -0.10317327 -0.1256316 0.06455552 0.089647844
0003b0 19 8b 20 be 6f 93 14 3e 4b 00 97 3d 67 3e 1c 3e
       -0.15678062 0.14509366 0.07373103 0.1525818
0003c0 08 a5 9c bc 96 9e f9 bd 8a 5c 18 be 37 d4 9e bd
       -0.019121662 -0.12188451 -0.14879051 -0.077553205
0003d0 cc f3 e1 bd 73 20 51 bc c1 1b 23 3e 39 b4 07 3e
       -0.11032829 -0.012764084 0.15928556 0.13252343
0003e0 c9 0e eb bd a4 05 0e 3e 42 10 66 3d 0f 4a 04 be
       -0.114774294 0.13869339 0.05616785 -0.12918876
0003f0 a5 24 75 3d 2f 62 a7 3d 21 93 23 bc 8a 9e d3 bd
       0.0598494 0.08173024 -0.009983809 -0.10332973

conv_block_3.2.bias f4 [8]
000000 ac b4 02 3e 33 5a 03 be 77 5a 9a 3b b2 4f 8c 3d
       0.12764233 -0.12827377 0.0047104913 0.06851138
000010 8a 5b 40 bd 74 58 d3 bc a8 1a 24 be 48 fe ed 3d
       -0.0469623 -0.025799014 -0.16025794 0.11620766

conv_block_3.3.weight f4 [8]
000000 24 00 80 3f 16 ff 7f 3f d2 ff 7f 3f 83 ff 7f 3f
       1.0000043 0.99998605 0.99999726 0.99999255
000010 7a 00 80 3f 07 ff 7f 3f bd ff 7f 3f 8e 00 80 3f
       1.0000145 0.99998516 0.999996 1.0000169

conv_block_3.3.bias f4 [8]
000000 8d 12 08 b7 e3 18 d9 35 10 b8 1d b4 88 9f 75 b6
       -8.110551e-06 1.6175003e-06 -1.4688726e-07 -3.6600704e-06
000010 05 8c 59 37 88 00 cb 36 a1 94 24 b7 47 74 b3 b6
       1.2966809e-05 6.0499333e-06 -9.809767e-06 -5.348152e-06

conv_block_3.3.running_mean f4 [8]
000000 75 81 84 3e 78 8e ef b9 c8 81 12 3e 3f 5f 2a 3b
       0.25880018 -0.0004569178 0.1430732 0.0025996713
000010 4b ba 77 bb b6 19 05 3e 26 bb 22 be b2 2f a1 3d
       -0.0037800248 0.12998089 -0.15891704 0.07870425

conv_block_3.3.running_var f4 [8]
000000 90 a6 34 3f 3d 14 12 3f 3c 67 23 3f a3 97 16 3f
       0.70566654 0.5706213 0.638294 0.5882513
000010 c9 69 18 3f af 44 30 3f b9 c1 20 3f 8f 57 1d 3f
       0.59536415 0.688548 0.627956 0.6146173

conv_block_3.5.weight f4 [8, 8, 3, 3]
000000 c5 d4 aa 3d f4 a2 c9 3c 1c 1f d2 bd e3 34 b8 3c
       0.08341364 0.024613835 -0.1025984 0.022486156
000010 5d 52 db bd 47 7a f5 3c f9 78 29 bd 48 35 f0 bd
       -0.10709069 0.029965533 -0.041375134 -0.117289126
000020 1c 40 97 3d 2f ff e8 bd 1c cd 57 3d ab cd 81 3c
       0.07385275 -0.113767974 0.052685842 0.01584514
000030 76 c6 c3 3d 63 4c d1 3d 80 bc b1 3d 73 15 f5 bc
       0.09559338 0.10219648 0.08678532 -0.029917454
000040 1c 9d 19 3d b9 84 3e bd b1 e1 93 bd 1b 67 aa 3d
       0.037503347 -0.046513293 -0.072207816 0.08320447
000050 a0 52 6f bd 20 f8 b6 bd be d8 c6 3b 35 40 95 bd
       -0.058428407 -0.08934045 0.006068318 -0.07287637
000060 90 80 38 bd 77 3d cc bd d3 b3 02 bd a0 33 c3 3d
       -0.04504448 -0.09972661 -0.031909775 0.09531331
000070 46 55 6c 3d 6c 1b bd bc 04 1b b2 bd 3e 0c 86 bc
       0.05769851 -0.023084365 -0.08696559 -0.01636326
000080 3d f2 a4 bd 63 18 46 bd aa b3 bd 3b f1 53 dc 3d
       -0.08054016 -0.0483631 0.00578924 0.10758198
000090 c9 10 2b bd aa c4 d5 3c d1 2e 90 3d 53 a7 dd bb
       -0.041764054 0.026094753 0.070401795 -0.0067643314
0000a0 4e ea cf 3d d7 dc 38 bb 1f 37 8f 3d f2 71 d1 3d
       0.10152112 -0.0028207803 0.069929354 0.102268115
0000b0 59 c1 33 3c 8c d4 b1 3d 44 3d fd bc 3a 6d e7 bd
       0.010971391 0.08683118 -0.030913003 -0.1130013
0000c0 30 bf f7 3c 38 a0 92 bc 61 bc bc bd 85 6a d0 3d
       0.030242532 -0.017898664 -0.09215618 0.10176567
0000d0 5a 55 d6 bc 1e 09 81 bd ab 3c 2e 3d a0 e4 6c bc
       -0.026163746 -0.06300567 0.042538326 -0.014458805
0000e0 31 66 ba bd c5 32 64 bc 93 1a b4 bd 61 09 83 3d
       -0.09101523 -0.01392812 -0.08794131 0.06398273
0000f0 4c 5d 27 bd c9 35 9c bd de b8 af 3c 90 14 29 bd
       -0.04086046 -0.07627446 0.021450456 -0.041279376
000100 3d f1 b9 bc 61 dd 33 3d d8 b3 4d bd b0 bd b9 3d
       -0.02269804 0.043912295 -0.05022034 0.09069383
000110 b7 32 82 bd 0d 24 5a 3b 17 4e 95 3d 72 d5 40 bc
       -0.06357329 0.0033285648 0.07290285 -0.011769639
000120 6d 47 d7 bd d6 e7 aa bd df e9 c9 3d 5c 89 a9 bb
       -0.1051167 -0.083450004 0.098590605 -0.005173845
000130 76 af 97 bd 85 93 25 bb 04 e8 ad bd 03 63 84 3d
       -0.074065134 -0.002526493 -0.08491519 0.064641975
000140 b2 a2 f4 bc ba 61 80 3d 8b ba d5 bd cd 31 e1 bc
       -0.029862735 0.0626864 -0.10435971 -0.027489567
000150 60 18 6b 3d 66 0e d3 3d 78 89 e0 3d 21 58 e2 3c
       0.057396293 0.10305481 0.1096372 0.027629914
000160 37 3f e0 3d 6d 84 86 bc 81 1e 35 bd 9a 6f 4b bd
       0.10949557 -0.016420567 -0.044218544 -0.04966698
000170 48 dd 27 bb ca b1 4c bd a1 66 27 3c bc 32 b0 bb
       -0.0025614072 -0.04997424 0.01021734 -0.0053771418
000180 64 09 9d bd a6 58 c7 bd 76 42 de 3c 5a 1f f3 bc
       -0.07667807 -0.09733705 0.0271313 -0.029678036
000190 9b 9f 89 bd e9 4e 7b 3d 40 d2 d8 bd cb f3 5e 3d
       -0.067198955 0.06135455 -0.10586977 0.054431718
0001a0 c1 a9 a6 ba c7 52 c6 bd ce ad a9 bc c6 dc e2 3d
       -0.0012715386 -0.09683757 -0.02071276 0.110772654
0001b0 ba cf 47 3d e8 00 89 bd 1f a5 cf bc 5e 18 37 3d
       0.048782088 -0.06689626 -0.02534729 0.044700973
0001c0 26 1d 68 3d ac c6 ce 3d 08 51 80 3d f4 3d a0 3b
       0.056668423 0.100964874 0.062654555 0.004890198
0001d0 e6 20 cb 3d 48 bf 9f bd 02 38 2f 3c a5 c1 4f 3d
       0.09918384 -0.07800156 0.010694506 0.050721783
0001e0 5f 30 aa bd c2 2a b4 3d 2b a0 32 bd 54 d7 b3 3d
       -0.08310007 0.08797218 -0.04360978 0.08781305
0001f0 e0 50 a5 3c 8d 94 ab 3d a8 d0 47 bc 54 db 2f 3c
       0.020180166 0.08377943 -0.012195744 0.010733444
000200 8c 0a a2 3d 37 3f 8b 3d a9 ff 20 bd a6 81 f0 3d
       0.07912168 0.06799167 -0.039306317 0.117434785
000210 d9 ee 31 bd 15 b4 5c 3d f7 c8 0a 3d ae 92 41 bd
       -0.043440674 0.053882677 0.03388306 -0.047259025
000220 23 68 d3 3d 3b 25 7c bd 8c 23 02 bd 9d c4 3b 3d
       0.10322597 -0.061558943 -0.03177218 0.045841802
000230 2a f1 88 3d bd 32 9c 3d 4a df 34 bc b9 24 1a 3b
       0.066866234 0.07626865 -0.011039564 0.0023520424
000240 f4 ca 94 bc 8b ec 48 bd b2 c2 16 3d c7 e0 81 3d
       -0.018163182 -0.04905371 0.03680677 0.06341701
000250 f2 6b 0a 3c fd 13 09 bd 3e 74 d6 3d fc ec 99 3d
       0.008448588 -0.033466328 0.1047139 0.07515904
000260 33 e4 32 3d d1 97 a5 3c b7 1b f7 bc 74 fe a6 3d
       0.04367466 0.020213993 -0.030164583 0.08154002
000270 89 ee 9c bd 04 76 aa 3d d5 43 b4 3d c5 5d 6b bc
       -0.076626845 0.08323291 0.088020004 -0.014365618
000280 5e 12 92 3d 66 d8 20 bd d6 49 4f bd 5b 9a 47 3c
       0.071324095 -0.039268874 -0.050607525 0.012182797
000290 ee bb eb 3d 3b 77 6a 3d 4b ec 8f 3b 48 4a af bd
       0.11510454 0.057242613 0.004392182 -0.0855909
0002a0 7e 58 b3 bd 7d e7 df bd 31 49 96 3d 33 42 81 bd
       -0.08757113 -0.10932825 0.07338179 -0.063114546
0002b0 d3 e0 a8 bd fb 65 4d 3c 08 9f d9 bd a1 c7 c2 3c
       -0.08246007 0.012536521 -0.10626036 0.023776831
0002c0 f7 81 c2 3d 02 2a 15 3d 4b e8 ac 3d 13 cd 10 bd
       0.09497445 0.036417015 0.08442744 -0.035351824
0002d0 e1 25 96 bd 32 c5 f7 bb b9 a4 9c bd 88 e6 ee 3c
       -0.073314436 -0.0075613493 -0.07648606 0.02916266
0002e0 50 22 e9 3c 1c 49 2e 3d 20 d1 b5 3d 09 69 0e 3d
       0.028458744 0.04255019 0.08877778 0.034768138
0002f0 d5 a8 6e bd 00 13 b6 3d fb 42 c2 bd cf 60 d1 3d
       -0.05826648 0.08890343 -0.09485432 0.10223543
000300 36 2d af bd c0 a9 d4 bd 84 4a 17 bd 65 58 c0 3d
       -0.08553545 -0.1038394 -0.036936298 0.0939186
000310 64 63 a8 3d 2a e9 c2 bd ac 75 e2 bd 9d a1 1a 3d
       0.08222082 -0.09517129 -0.110576004 0.037751783
000320 be a2 33 bd a1 c1 8c bd e2 96 ad bd 0b 02 4c bd
       -0.043856375 -0.06872869 -0.08476044 -0.049806636
000330 0d 77 7b 3d f8 29 39 bd 5b 7f 8b bd 3e 90 0d bd
       0.061392833 -0.04520604 -0.068114005 -0.03456139
000340 7c b5 49 bd ae 68 ae 3d 7c 16 35 bc 4a f2 bc bd
       -0.049245343 0.0851606 -0.011052724 -0.092259005
000350 73 eb 60 bd 38 35 28 3c 4e 3d 50 3d 42 0c 18 bd
       -0.054912042 0.010266595 0.050839715 -0.037121065
000360 26 de 07 bb c7 b9 a1 3d 02 ef 32 3d 86 91 89 bd
       -0.0020731776 0.07896762 0.043684967 -0.067172095
000370 3a 05 d0 3c c6 d0 de bc 2d b8 c6 bd 1c 0b 55 bd
       0.025393117 -0.02719916 -0.097030975 -0.052012548
000380 dd 57 49 3d 70 5f 9a bd f9 33 73 3d f5 ef ef ba
       0.04915606 -0.075377345 0.059375737 -0.0018305766
000390 5a c0 be 3b 09 fb 08 bb e2 0c 83 3d 28 b5 e8 3d
       0.00582127 -0.0020901582 0.063989416 0.11362678
0003a0 c9 63 d4 bd 8d fc 47 3d 56 97 c2 3d a5 64 15 bd
       -0.10370595 0.048824836 0.09501521 -0.036472935
0003b0 01 3f 3c 3c b1 16 b9 bd f5 bd 5b 3d 01 c1 ac 3c
       0.011489631 -0.09037531 0.053647954 0.021088125
0003c0 82 2c e3 3c 79 53 f7 bc 1e 17 20 bc d9 6f 69 bd
       0.027731184 -0.03019117 -0.009771137 -0.05699143
0003d0 d3 a9 ea 3d f3 32 bf 3d 6d e1 83 bc 79 79 cc 3c
       0.11458173 0.0933589 -0.016098702 0.024960266
0003e0 98 91 cb bd cc b6 5d bd 50 77 6d 3d f4 af ae 3d
       -0.09939879 -0.054129407 0.057975113 0.08529654
0003f0 78 32 af bd 89 cc a1 bd 55 b9 dd bd dc 3c 18 3c
       -0.08554548 -0.0790034 -0.10826365 0.009291854

conv_block_3.5.bias f4 [8]
000000 b4 a7 d9 bb 34 6b bd 3b 3d cd 38 3c 61 bc b6 3c
       -0.006642306 0.005780602 0.011279401 0.022306623
000010 ca c4 57 bd 61 a7 b0 bc 4c 23 9f 3d fe 1e 43 3d
       -0.052677907 -0.021564187 0.07770404 0.04763698

conv_block_4.0.weight f4 [8]
000000 2d 00 80 3f 58 ff 7f 3f 6f ff 7f 3f f4 fe 7f 3f
       1.0000054 0.99999 0.99999136 0.999984
000010 7b 00 80 3f 98 ff 7f 3f 19 00 80 3f 59 00 80 3f
       1.0000147 0.9999938 1.000003 1.0000106

conv_block_4.0.bias f4 [8]
000000 0b 80 17 36 56 67 9a 36 db 9f 88 b6 66 61 f3 b4
       2.2575284e-06 4.6015875e-06 -4.0717255e-06 -4.5333144e-07
000010 0d 4f b0 36 27 9d 03 b7 a7 b1 9c 34 f7 5d a8 36
       5.2544115e-06 -7.844798e-06 2.9186523e-07 5.017729e-06

conv_block_4.0.running_mean f4 [8]
000000 c8 35 92 3c 09 3b 30 3e f5 7f 6f 3d 31 6b 1b 3d
       0.01784791 0.1721002 0.05847164 0.037944023
000010 e0 d4 fe 3d be 3f b6 bc a1 3e 61 3c 9f 2a 68 3e
       0.124429464 -0.022247192 0.013747842 0.22672509

conv_block_4.0.running_var f4 [8]
000000 3f 0b 0b 3f f7 b1 17 3f b0 03 13 3f 76 be 0b 3f
       0.54314035 0.5925593 0.574275 0.54587495
000010 c4 cd 1b 3f eb 0f 0b 3f 1a 66 0b 3f 70 04 16 3f
       0.6086085 0.54321164 0.5445267 0.5860052

conv_block_4.2.weight f4 [16, 8, 3, 3]
000000 36 f7 9b bd bd 15 9b 3d 2c 8c b1 3c 88 a6 97 3d
       -0.07615511 0.075725056 0.021673284 0.0740481
000010 b3 a2 96 bd 1d 5f 75 3d c3 0a d4 3d 9c e5 93 3d
       -0.07355251 0.05990516 0.10353615 0.07221529
000020 34 ea aa bd 78 e1 0f 3d bb 2b 63 bc de de 1a bc
       -0.08345452 0.035127133 -0.013865407 -0.00945255
000030 4e 3d ba 3a fb 6e a0 bd 7b 39 42 bd 73 bf 86 3c
       0.0014208944 -0.07833668 -0.0474181 0.016448712
000040 00 22 f1 bd a4 58 ac 3d c0 99 41 3d 2d 96 e5 3d
       -0.11774063 0.08415344 0.047265768 0.112102844
000050 0b c6 88 bd 33 80 ca 3d 7e f4 2f bd 2e 89 75 3d
       -0.06678399 0.09887733 -0.042957775 0.059945278
000060 b4 39 a4 3d d5 e4 ce 3d 38 3e 8d 3d c7 07 0e 3d
       0.080188185 0.1010224 0.06896633 0.034675386
000070 6c 49 73 3d b0 17 d2 bc 79 03 eb 3d d7 48 a6 bd
       0.059396192 -0.02564606 0.11475272 -0.08119362
000080 04 43 2c bd d2 86 b3 bd b6 c4 ab 3d 54 2a 51 3d
       -0.0420561 -0.08765949 0.08387129 0.051065758
000090 59 6d b1 3d 3e b1 d7 bd 2d 32 38 3d 04 dd d4 bd
       0.086634345 -0.10531853 0.044969726 -0.10393718
0000a0 b6 8d 0f 3c ab 4c dd bd df c6 8b 3c b9 28 6a bd
       0.008761814 -0.10805639 0.017062603 -0.057167742
0000b0 b5 65 9d 3d 07 5b 79 bd bd d8 e3 3d 44 41 5b bd
       0.07685415 -0.060877826 0.11125324 -0.05352904
0000c0 2e 07 e2 bd 68 02 de 3d f6 27 62 3d 65 4c b8 bd
       -0.11036526 0.10840303 0.05521389 -0.08998946
0000d0 50 9b d9 3c 25 2a a6 3d c0 20 be bd c3 ac 86 bd
       0.026563317 0.08113507 -0.0928359 -0.065759204
0000e0 8b 6a 65 3d 31 3b 02 3d 87 de 93 3c fb 02 82 3d
       0.05600981 0.03179473 0.018050445 0.06348225
0000f0 cd c0 01 3d e9 73 59 bd 71 dc e6 bd 81 d8 52 bd
       0.03167801 -0.053089056 -0.112725146 -0.051476005
000100 7a da 4d 3d 74 ac d4 3d 3b 59 ae bd 9b d2 ed 3d
       0.050257184 0.10384455 -0.08513113 0.116124354
000110 2f 8f e6 3d 7d bc 59 3d 06 88 8a bd a4 bf b2 bc
       0.11257779 0.053158272 -0.06764226 -0.021819897
000120 65 27 20 bd 96 75 af 3d bf 4a 66 bc c0 ff 8a bd
       -0.03910007 0.085673496 -0.014055907 -0.06787062
000130 02 8c 12 3d 47 67 0c bb 3c d6 c4 3d 96 40 1c bd
       0.035778053 -0.0021423863 0.096111745 -0.03814753
000140 b8 7a d6 3c 77 c9 0f bd 20 17 95 3d c7 83 28 bd
       0.026181564 -0.03510424 0.07279801 -0.041141298
000150 98 3b 03 3d de a1 c1 bd 8c 13 b3 bd 6f f0 2e 3d
       0.032039255 -0.09454702 -0.08743963 0.042709764
000160 11 86 0c bc e1 57 87 3d 6a a2 67 bd 7b 8c 98 bd
       -0.008576886 0.066085584 -0.056551374 -0.074486695
000170 65 88 d7 bd b0 db 66 3d 62 f2 e7 bc 04 05 88 3b
       -0.10524062 0.056361854 -0.02831382 0.0041509885
000180 16 77 55 bd 0a da 54 3d 79 d3 c8 bd f7 cc 78 3d
       -0.052115522 0.05196575 -0.0980596 0.060742345
000190 07 88 fe 3c f7 b3 57 3d fe 9a 86 3d 32 fd b4 3d
       0.031070722 0.052661862 0.06572531 0.08837356
0001a0 eb 79 4d bd c5 10 93 3d 88 2b 0c 3d 29 9c 9e 3c
       -0.0501651 0.07180933 0.034221202 0.019361572
0001b0 15 26 73 3d ae 4b 31 bd 84 92 d1 bd 64 af 31 3c
       0.05936249 -0.043285064 -0.10233024 0.010845039
0001c0 e5 cf ec 3b 96 a5 3c 3c 40 34 8d 3d 2c e2 07 bb
       0.0072269314 0.011514088 0.068947315 -0.0020734174
0001d0 33 dd 59 bd 24 79 96 bd 97 0a 29 3d 26 73 bb 3d
       -0.053189468 -0.073473245 0.041269865 0.09152822
0001e0 5f bc 51 bd 38 be 9b bd e7 35 c4 3d a0 47 da bd
       -0.051205035 -0.07604641 0.095805936 -0.10658193
0001f0 e2 71 50 3d 4a 9c 3c bd 92 64 a7 3d 47 17 80 bd
       0.050889857 -0.046047486 0.08173479 -0.0625444
000200 84 ff c0 3d ee 1c cf 3c 5c bb e9 bc 0e f5 d7 bd
       0.09423736 0.02528235 -0.028531723 -0.10544787
000210 3b 4b 8d bd 4d da 88 3c ec b1 be bd 67 db 88 3d
       -0.06899115 0.016705656 -0.0931128 0.06682473
000220 25 3b 3d 3d 3a 41 97 bb 19 e5 4a 3d bd 55 8b bd
       0.046198983 -0.00461593 0.04953489 -0.06803463
000230 90 9b 2a bd 98 18 a9 bd 7f 68 e9 3d a4 9f d2 bd
       -0.041652262 -0.08256644 0.11396884 -0.10284355
000240 72 4a 89 3d e7 c7 18 3c d1 0b ed bd e9 f1 c6 bd
       0.067036524 0.009325004 -0.115745194 -0.097141095
000250 3f 9f 60 bd 34 32 50 3d e8 d6 cc 3c 57 cf 2f 3d
       -0.05483937 0.050829127 0.025004819 0.042922344
000260 4f cf 82 bd 5b b4 4e bc a3 ed b5 bd 58 5f e2 bd
       -0.06387197 -0.012616242 -0.08883216 -0.110533416
000270 10 cb 24 3d 6f 3d 4e 3d 97 16 a2 3d c2 80 d4 bd
       0.040232718 0.050351556 0.07914465 -0.10376121
000280 ab 26 81 3d 3c 9f f3 3c fc fc d9 bd 17 25 46 bd
       0.063062035 0.029739015 -0.10643956 -0.048375215
000290 38 1d 7b 3d 75 94 ca bd 0c d8 d8 bd 67 bb 85 bd
       0.061307162 -0.09891597 -0.10588083 -0.06529885
0002a0 71 a7 71 3c d1 35 45 bd 52 ef 75 3d 1a 2a 69 bc
       0.014749394 -0.048147026 0.060042687 -0.014231229
0002b0 74 00 ee bd 9d 62 14 bc 2c c4 e3 bd 76 28 2c 3d
       -0.1162118 -0.009056714 -0.11121401 0.042030774
0002c0 bd fb b2 bd 73 e3 37 3d bc e3 47 bd 95 a1 a0 bd
       -0.087394215 0.044894647 -0.04880117 -0.07843319
0002d0 e8 17 e4 3d 91 8e 56 3d 7e 8f df bd 39 76 89 3d
       0.11137372 0.052382056 -0.10916041 0.06712002
0002e0 50 b8 8f 3b a5 2a bc 3d 6f 73 c4 3d a2 56 d8 3d
       0.0043859854 0.09187821 0.0959233 0.10563399
0002f0 8b ab c0 3d 4b f8 86 3c 58 1c f0 3c d6 45 e2 3c
       0.09407719 0.016475817 0.02931039 0.027621191
000300 9b 8b 85 3d fa 9c 1d 3d e5 c9 8e 3c 7d ae c9 bd
       0.06520768 0.038479783 0.017430255 -0.09847734
000310 69 77 5f bd 3e 0e a0 bd 7f 23 f0 3c f6 f3 53 bd
       -0.054557238 -0.078152165 0.0293138 -0.05174633
000320 8c 68 14 bd d2 d5 83 3c c9 9b b9 bd 2b be 32 3d
       -0.036232516 0.016093168 -0.09062917 0.04363839
000330 72 b7 e1 bd 10 19 1c bc 33 3d ea bc 1c e5 b3 bd
       -0.110213175 -0.00952746 -0.028593635 -0.087839335
000340 61 68 ed bd 6c 6f 9f bd 03 b2 af 3d 48 4f 21 3d
       -0.11592174 -0.07784924 0.08578875 0.03938225
000350 76 28 8b bc 98 06 95 3c d6 89 da bd d4 b7 06 3d
       -0.016987067 0.01819162 -0.10670821 0.032890156
000360 b1 36 b7 3d d6 be 76 3d fc 5a af 3d f4 c4 b6 bc
       0.089459784 0.06024059 0.08562276 -0.022310711
000370 74 b3 f8 bc 0d f3 83 3d 1e d2 a4 bd 85 91 92 bd
       -0.030359007 0.06442843 -0.08047889 -0.07156662
000380 f7 be cf 3d 62 33 ac 3d 82 b4 a1 bd f8 e3 5e bd
       0.101438455 0.08408238 -0.07895757 -0.054416627
000390 e4 3d 70 bd 05 59 69 3d e9 09 62 bc 7e 1d a7 bd
       -0.058652773 0.05696966 -0.013796308 -0.08159922
0003a0 5c 8e e1 bb 49 23 1f bc 37 d4 8d bd 19 9d cb bd
       -0.0068834256 -0.0097130025 -0.069252424 -0.099420734
0003b0 96 78 85 bd f0 cb e4 3d 98 77 79 bd 6e 65 c8 3d
       -0.065171406 0.111717105 -0.06090507 0.09784971
0003c0 01 d6 80 bc f9 9e c5 3d 45 48 89 3d 2f bd 6f 3d
       -0.015727045 0.09649462 0.067032374 0.05853003
0003d0 db a4 98 bd a7 ca 1e bd 89 63 0b bd 55 a8 ac 3d
       -0.07453319 -0.038767483 -0.03403047 0.08430544
0003e0 bf 5f 5a 3d 4b 0e e5 bd 77 65 c1 3c 26 40 b1 bd
       0.053313967 -0.11184367 0.023607953 -0.086548135
0003f0 11 ba 10 bd d2 91 d3 3d 4d d2 bb 3c 4c 74 69 3d
       -0.035333697 0.103305474 0.022927428 0.056995675

conv_block_4.2.bias f4 [16]
000000 83 61 1e bd d7 3e 8c 3d b3 25 88 3d 7a 92 53 3d
       -0.038667213 0.06847923 0.066478156 0.051653363
000010 d9 e5 a3 3d ac 06 5c 3c 53 10 af bd 37 49 df 3c
       0.08002824 0.013429325 -0.085480355 0.027256591
000020 cf 6e 7e 3d 7b 95 a0 bd b9 61 88 3d af 9f 21 3c
       0.062117394 -0.07841011 0.06659264 0.009864732
000030 1b bf 35 3d b6 d5 13 bd 20 19 86 bc 0d 15 bd 3d
       0.044371706 -0.036092483 -0.016369402 0.09232531

conv_block_4.3.weight f4 [16]
000000 bc ff 7f 3f da ff 7f 3f cd ff 7f 3f 0f ff 7f 3f
       0.99999595 0.99999774 0.99999696 0.99998564
000010 2b 00 80 3f 9c ff 7f 3f 0e 00 80 3f e1 ff 7f 3f
       1.0000051 0.99999404 1.0000017 0.99999815
000020 19 00 80 3f 00 00 80 3f 3f 00 80 3f 55 00 80 3f
       1.000003 1.0 1.0000075 1.0000101
000030 e4 ff 7f 3f 69 ff 7f 3f 33 00 80 3f a6 ff 7f 3f
       0.99999833 0.999991 1.0000061 0.99999464

conv_block_4.3.bias f4 [16]
000000 45 5d 47 b5 16 77 71 b5 31 d5 f2 b6 eb c0 b5 b4
       -7.4269e-07 -8.995279e-07 -7.2369808e-06 -3.3854243e-07
000010 48 8b e5 34 df 1d 25 36 6d c7 c8 36 43 0a 23 35
       4.2755914e-07 2.4604303e-06 5.9836807e-06 6.0737165e-07
000020 74 7a c3 33 d6 bf 89 36 0d 9b 75 b4 31 85 c9 36
       9.102669e-08 4.105251e-06 -2.287381e-07 6.0057723e-06
000030 ae 3e 2f b6 5a e4 4c b6 26 55 ed 34 78 d9 0a 35
       -2.6113516e-06 -3.0531287e-06 4.4206644e-07 5.1725465e-07

conv_block_4.3.running_mean f4 [16]
000000 56 16 b2 3d 36 c0 9e bc 74 1a de bd 89 a1 f6 3d
       0.086956665 -0.019378763 -0.10844889 0.12042529
000010 94 7f 97 3d 9f 3f 80 3d 75 40 81 bc ef 33 25 3d
       0.073973805 0.06262135 -0.015777806 0.04033273
000020 ef 07 41 3d 48 1d 44 be 70 a2 4f 3d 6f 05 fb 3c
       0.047126707 -0.19151795 0.05069202 0.03064224
000030 02 44 06 be 61 56 5f 3d bb be 98 bd b7 69 70 3d
       -0.1311188 0.054525737 -0.07458254 0.058694568

conv_block_4.3.running_var f4 [16]
000000 4c 42 1a 3f 42 2c 18 3f 7e de 21 3f 69 f6 15 3f
       0.6025741 0.5944253 0.6323012 0.5857912
000010 07 e5 16 3f cc a3 13 3f 11 4a 16 3f bd b7 18 3f
       0.5894322 0.5767181 0.58706766 0.5965536
000020 a4 fe 14 3f 5d 20 35 3f 7b 71 13 3f 00 cb 12 3f
       0.5820105 0.7075251 0.5759503 0.57341003
000030 6b 48 1c 3f 89 bb 23 3f 87 16 1b 3f b4 cb 1a 3f
       0.61048 0.6395803 0.6058125 0.60467076

conv_block_4.5.weight f4 [16, 16, 3, 3]
000000 5c 2b af 3b f0 61 8a 3d c0 d4 60 bd 11 c4 8b 3c
       0.005345745 0.06756961 -0.054890394 0.017061265
000010 da 3b 15 bd e9 46 0d 3d 63 e3 a8 bd 97 b6 8c bb
       -0.036434032 0.034491453 -0.082464956 -0.0042942273
000020 3a c6 78 3d 52 ed 9e bc e1 01 57 3d 89 87 78 bd
       0.06073592 -0.019400273 0.052492026 -0.06067613
000030 6c e9 99 bc bd a8 67 3d 92 a2 a2 bc c6 16 14 3d
       -0.018788062 0.056557406 -0.01985291 0.03615453
000040 4c 07 0b bd 5a 76 13 3d 00 eb db 3c 2f ee 1c 3c
       -0.033942506 0.03600154 0.026845455 0.009578272
000050 4a e5 e4 bc b7 08 85 3c ae d1 65 3d eb 5c 36 3d
       -0.027941365 0.016239507 0.05610817 0.044522207
000060 2f 00 61 3d 04 64 81 3d 0e f2 0e 3d bf f3 05 3d
       0.054931816 0.063179046 0.03489881 0.032703158
000070 46 17 b9 bc 07 78 a2 3d f3 a9 b7 3c 7f c5 67 bc
       -0.022594105 0.0793305 0.022419905 -0.014146208
000080 ed 6a 48 bd af 07 96 bd 3c 67 a1 bd af 2b 0b bd
       -0.048930097 -0.07325684 -0.078810185 -0.033977207
000090 14 2e 18 bd f6 3a 8a bc d0 02 84 bc de 13 74 bd
       -0.03715332 -0.016873818 -0.016114622 -0.05958926
0000a0 64 10 a7 bd cd 74 96 3d 49 4d 80 3d 4f 81 a9 bd
       -0.08157423 0.07346497 0.06264741 -0.08276617
0000b0 cc a5 01 3d 3e d4 da 3c 63 0f 6e 3d c5 78 49 3d
       0.031652257 0.026712533 0.058120143 0.04918744
0000c0 a7 77 51 3d 5d 7a 15 bd 44 2d 8f 3c 8f e5 eb 3c
       0.0511395 -0.036493648 0.017477639 0.028795986
0000d0 eb 17 65 3d c6 f2 b4 bc 37 be 56 3d e4 61 41 3d
       0.055931013 -0.02208842 0.052427497 0.047212496
0000e0 27 f7 2a 3d 53 a9 36 3d 5d 24 47 bd 8f c2 a2 3d
       0.04173961 0.044595074 -0.048618663 0.07947265
0000f0 ce 43 d1 bb 4d 2b ff 3a b4 05 62 3d cb 88 9d 3d
       -0.006386257 0.0019467861 0.05518122 0.07692107
000100 e0 76 9d 3d f2 03 aa 3d 81 31 27 bc 99 e0 5f 3d
       0.07688689 0.08301534 -0.010204674 0.054657552
000110 ac bf 6a bd 13 a4 8b bc d3 90 cd bc 7f 99 da 3c
       -0.0573117 -0.01704601 -0.025093472 0.02668452
000120 47 a2 53 3d 21 f4 90 3d 4f 41 b8 3c c3 18 39 bc
       0.05166843 0.07077814 0.022492079 -0.011297408
000130 e3 ea 38 3d 93 aa 89 bd e6 6c 7a 3d 9f a2 69 bd
       0.04514588 -0.067219876 0.06113901 -0.057039853
000140 5f 99 00 bd ee 07 37 bd 20 f7 97 bd b0 f5 32 bc
       -0.031396266 -0.044685297 -0.07420182 -0.010922834
000150 2b 34 e2 3c 8f ca d7 3c 73 96 71 bd 02 32 86 bd
       0.027612766 0.026341705 -0.05898137 -0.06552507
000160 9a 17 80 bc 0d 37 98 3d 12 10 c2 bc 0f 9a 2b 3d
       -0.015636254 0.07432375 -0.023689304 0.04189497
000170 e0 b1 a2 3d 99 e2 39 39 fc 12 8a bd 0a 2b 8e 3d
       0.07944083 0.00017727389 -0.06741902 0.06941803
000180 71 3e 88 bd a9 cc 82 bd 49 40 3f 3d d2 56 29 3d
       -0.06652535 -0.06386692 0.046692166 0.041342564
000190 b1 09 51 3d 6b 2d 8c 3d 5b c2 64 bd 10 cc 79 bb
       0.051034633 0.068446 -0.055849414 -0.0038116015
0001a0 e9 4e 04 bc 4f 91 08 ba 58 85 17 3d 66 51 c0 3c
       -0.008075454 -0.0005209641 0.0369924 0.023476314
0001b0 32 e2 10 bd 4b e3 79 bd 06 0c 85 3c cc 6e ea 3b
       -0.035371967 -0.06100778 0.016241085 0.0071543213
0001c0 00 32 74 bd e9 c0 a0 bd f8 dd 5c 3b 51 99 27 bb
       -0.059617996 -0.07849295 0.003370164 -0.0025573561
0001d0 98 f0 08 bd 21 b3 a0 3d 55 b4 58 bd 11 3d 41 3d
       -0.033432573 0.07846666 -0.052906353 0.047177378
0001e0 92 45 79 3d 38 c8 87 bc 0e 20 34 3d 51 e0 65 bd
       0.060857363 -0.016574964 0.043975882 -0.056122128
0001f0 0e bf 92 3a f1 0a a6 3d 24 52 85 bd 2c ea 9a bc
       0.0011195855 0.08107556 -0.06509808 -0.01891049
000200 88 f0 e3 3c 56 96 9a bd 79 a9 93 3c a0 92 9c bd
       0.027824655 -0.075482056 0.018025147 -0.07645154
000210 6f d4 9e bc 5c 44 f3 3c b3 80 bb bc 4c b0 1a 3d
       -0.019388406 0.029695682 -0.022888517 0.037765786
000220 9f 6e 7e 3d f1 1a 12 3c d5 50 6b bd 75 aa 41 bd
       0.062117215 0.008917556 -0.057450134 -0.0472817
000230 6d b1 35 3d 0d 7e 61 3d da cc d8 3c 20 f0 9b 3c
       0.04435866 0.055051852 0.026464868 0.019035399
000240 e3 03 bf b9 e8 2b 11 3d bf 41 96 bd b6 42 9d 3c
       -0.00036433255 0.035442263 -0.07336759 0.01919685
000250 cf 33 e6 3a b4 df 9a bd 12 ac 8a 3d 12 75 85 bd
       0.0017563048 -0.07562199 0.06771101 -0.0651647
000260 c3 25 86 3c 45 0c 64 3c 57 aa 93 3d dc 2b 4e 3d
       0.016375428 0.013918941 0.07210224 0.050334796
000270 c6 7b 08 3d 14 f5 a0 bd e9 08 75 bd 96 17 37 bc
       0.033321165 -0.07859245 -0.05982295 -0.011175057
000280 20 9f 7c 3d 98 a3 14 bd 3f f9 d3 bb 15 b8 9f 3d
       0.06167519 -0.036288828 -0.0064689214 0.07798783
000290 86 47 9d bc 59 a2 58 bd 3e b4 3b bb 98 38 0f bd
       -0.019199144 -0.0528892 -0.0028641368 -0.03496608
0002a0 75 7f 75 bd d2 2d cb bc 39 18 33 bb 34 f0 40 bc
       -0.059936006 -0.024802122 -0.002732767 -0.011776019
0002b0 4c 63 c2 3c 09 bd 35 bd 15 fb 14 bd 19 28 f2 bc
       0.023728989 -0.04436973 -0.036372263 -0.029560136
0002c0 01 f8 02 bd 92 63 19 bd e1 34 a6 3d 26 da 01 3c
       -0.031974796 -0.037448473 0.081155546 0.007925546
0002d0 ab 3c d1 3c 5f 34 95 bc e1 d4 95 bd 01 a9 58 3d
       0.025541624 -0.018213449 -0.07315994 0.05289555
0002e0 4d b3 86 3c ec c0 3a 3d 7b 5e fc 3c 49 cd 86 bd
       0.01644292 0.04559414 0.03080677 -0.06582124
0002f0 9d 0d c6 3c 7b 55 89 3d 9a 9d 97 3d 9b e0 7f 3d
       0.024176413 0.06705757 0.07403107 0.06247006
000300 f2 2f f6 bb 3d 8e 5d 3d f7 fb 86 bd 48 30 7f 3d
       -0.0075130397 0.054090727 -0.06591027 0.062301904
000310 41 a9 3a bd 35 32 44 bd 33 3e 38 bd 2e 19 90 3c
       -0.04557157 -0.047899444 -0.044981193 0.017590132
000320 6e 00 b3 bc 5c b9 9a bd 42 43 27 3c 84 94 6b bb
       -0.02185079 -0.07554886 0.010208907 -0.0035946677
000330 b1 c1 92 bd 34 cc 53 bd 9f 90 96 3c 6f ab 42 3d
       -0.0716585 -0.051708415 0.018379508 0.047526773
000340 b6 ef a4 bd 61 b0 4f 3d ed d6 01 bc 1b 5c 89 3d
       -0.08053534 0.050705317 -0.007924777 0.06707021
000350 52 4c 42 3d 13 eb bb bb 58 f8 9b bc 22 bc 78 3d
       0.047436066 -0.00573481 -0.019039318 0.060726292
000360 3b 2c 8f bd 24 df 0c bd 2e 4d ea bc c3 db 4c bd
       -0.06990858 -0.03439249 -0.028601255 -0.05001427
000370 a8 4b 60 bc fe 60 ba 3b 04 b4 48 bb 1d a3 69 3c
       -0.013689913 0.005687832 -0.0030624876 0.014260081
000380 8d 2f 83 3d f6 f1 16 bd 97 72 04 bd 9d d1 7c 3c
       0.06405554 -0.036851846 -0.032335844 0.015430835
000390 3a f6 a9 bd 7f 4a 13 bd 5c 4a 80 3c 11 90 7b bc
       -0.08298917 -0.035959717 0.015660457 -0.015354172
0003a0 72 9a 9a bd de 45 6d 3d cb de f7 3b a2 93 d4 3c
       -0.07548989 0.05792796 0.007564401 0.025949303
0003b0 c8 bc 9c bd 52 9b 52 bd cd a3 54 bd f2 02 aa 3d
       -0.07653195 -0.051417656 -0.051914025 0.08301343
0003c0 23 9f cb bb 67 35 a6 3d 16 fe ea 3b 8f 7a f4 3a
       -0.006214039 0.081156544 0.0071714027 0.0018652248
0003d0 02 0f 32 bc 3e db 8b b7 56 34 60 3d 2d d5 4f 3d
       -0.010867836 -1.6672184e-05 0.05473741 0.05074041
0003e0 32 a2 9f 3c 84 c3 3b bc f0 97 0a bc fa 9b 89 3d
       0.01948652 -0.011460189 -0.008459076 0.06719203
0003f0 20 ee 87 3d 95 d6 47 3b d4 09 9a bd fb e9 14 bd
       0.066372156 0.003049289 -0.07521406 -0.036355954

conv_block_4.5.bias f4 [16]
000000 a3 0c 88 bd a6 3f 07 bd d0 a1 0a 3d 82 db 5c bd
       -0.06643035 -0.033019684 0.033845723 -0.053920276
000010 c5 8a ab 3c d5 48 1e 3d 04 1c dd 3c d6 7d 28 3c
       0.020940194 0.038643677 0.026990898 0.010283908
000020 64 a1 5d bd d9 28 85 3d 75 a0 b2 bb d7 ce 94 bd
       -0.054108992 0.06501932 -0.005451257 -0.07266014
000030 bb 65 95 3d df da 1c bc b5 bb 6f bd 13 3f 16 bd
       0.07294794 -0.009573667 -0.05852862 -0.036681246

conv_block_5.0.weight f4 [16]
000000 f9 ff 7f 3f b9 ff 7f 3f bd ff 7f 3f 15 00 80 3f
       0.9999996 0.99999577 0.999996 1.0000025
000010 d6 ff 7f 3f d2 ff 7f 3f 77 ff 7f 3f 2d 00 80 3f
       0.9999975 0.99999726 0.99999183 1.0000054
000020 fb ff 7f 3f 2f 00 80 3f cd ff 7f 3f d2 ff 7f 3f
       0.9999997 1.0000056 0.99999696 0.99999726
000030 14 00 80 3f 1f 00 80 3f de ff 7f 3f c1 ff 7f 3f
       1.0000024 1.0000037 0.999998 0.99999624

conv_block_5.0.bias f4 [16]
000000 c8 ce 9c b3 5b 68 b6 b6 1f c4 a7 b5 2f 88 f1 b5
       -7.3019294e-08 -5.4361713e-06 -1.2499548e-06 -1.7995534e-06
000010 fb 81 b5 b5 55 e1 19 b6 95 26 26 b6 23 68 27 36
       -1.352338e-06 -2.2929937e-06 -2.4758385e-06 2.4945555e-06
000020 70 f8 2a 35 58 a9 ab 36 cb a2 d7 b5 a8 5e 94 b5
       6.369146e-07 5.1159113e-06 -1.6066127e-06 -1.1054408e-06
000030 27 fe 9a 36 f9 e5 9e 35 65 bb 86 b6 69 ee 02 b6
       4.619145e-06 1.1838848e-06 -4.015327e-06 -1.9510283e-06

conv_block_5.0.running_mean f4 [16]
000000 8e 74 4e 3e c3 f1 e7 3c cf 53 1c 3e 74 f1 94 3b
       0.2016165 0.028313523 0.15266345 0.004545385
000010 e4 4e f4 3d 2a a8 53 3d 3b 38 91 3e 29 dc 1e bd
       0.1192911 0.051674046 0.28363213 -0.03878418
000020 3c b9 6c 3d db 04 af 3d 2b c7 55 3e db 1e 98 3d
       0.05779384 0.08545848 0.20876758 0.0742776
000030 6e cf e0 3d 86 32 5c 3d 28 64 72 3d 8f 5c df 3d
       0.10977064 0.05375912 0.059177548 0.10906326

conv_block_5.0.running_var f4 [16]
000000 c0 99 35 3f bc c7 0f 3f de a3 13 3f aa 35 0a 3f
       0.7093773 0.56164145 0.57671916 0.53988135
000010 d6 9a 10 3f 8c 54 10 3f cc f1 1b 3f 3e 1d 0d 3f
       0.5648626 0.5637901 0.6091583 0.55122745
000020 1f 0f 12 3f 21 92 0a 3f ea 13 13 3f 96 f9 14 3f
       0.5705432 0.54129225 0.5745226 0.5819334
000030 ca e1 19 3f e7 f5 0c 3f 85 dd 1e 3f a4 88 0f 3f
       0.6011015 0.5506272 0.6205676 0.5606787
