cloud-detection-code/tests/test_artifacts/test_shadow/model_checkpoint_4.pt (torch, 287733 bytes, 250 tensors)

input_conv_block.0.weight f4 [3]
1.0000031 0.9999998 0.9999956
00000000: 1a00 803f fdff 7f3f b6ff 7f3f

input_conv_block.0.bias f4 [3]
-8.297712e-06 -2.2978189e-05 1.8263756e-05
00000000: 6736 0bb7 49c1 c0b7 1e35 9937

input_conv_block.0.running_mean f4 [3]
0.041532967 0.047326688 0.05189363
00000000: 791e 2a3d a1d9 413d 6a8e 543d

input_conv_block.0.running_var f4 [3]
0.6562475 0.65621424 0.6562138
00000000: d6ff 273f a8fd 273f a1fd 273f

input_conv_block.2.weight f4 [2, 3, 1, 1]
-0.2870117 0.250952 -0.5672359 0.41496646 0.35817552 -0.48369086
00000000: 33f3 92be c87c 803e 5f36 11bf 7c76 d43e
00000010: c862 b73e 54a6 f7be

conv_block_1.0.weight f4 [2]
1.0000076 0.9999916
00000000: 4000 803f 73ff 7f3f

conv_block_1.0.bias f4 [2]
3.6140085e-05 -1.48674935e-05
00000000: 1f95 1738 666f 79b7

conv_block_1.0.running_mean f4 [2]
-0.07173764 0.033780776
00000000: 2feb 92bd b65d 0a3d

conv_block_1.0.running_var f4 [2]
0.73211104 0.6747118
00000000: a16b 3b3f eab9 2c3f

conv_block_1.2.weight f4 [2, 2, 3, 3]
-0.18886198 -0.19683884 0.007195802 -0.14078239 0.08641763 -0.13170044 -0.13872208 0.18010953
0.0973897 -0.011394986 -0.099257365 -0.07574933 0.05386873 -0.06830802 -0.052935038 -0.016349582
0.022187956 0.1276209 0.20513399 -0.11092154 0.010923004 0.16305248 0.21642278 0.16541073
0.07547 -0.14659423 -0.0020209423 0.15002765 -0.04553829 -0.12767556 0.022483138 0.086394586
-0.12223626 -0.19462058 0.19429722 -0.19214487
00000000: 0965 41be 1f90 49be c3ca eb3b 4229 10be
00000010: bafb b03d 7bdc 06be 290d 0ebe a26e 383e
00000020: 4074 c73d 09b2 3abc 7247 cbbd 7722 9bbd
00000030: 75a5 5c3d 13e5 8bbd 69d2 58bd 8fef 85bc
00000040: 84c3 b53c 0eaf 023e a50e 523e d52a e3bd
00000050: 66f6 323c 3bf7 263e ef9d 5d3e 6e61 293e
00000060: 0490 9a3d cc1c 16be c971 04bb d9a0 193e
00000070: 5c86 3abd 62bd 02be 8f2e b83c a5ef b03d
00000080: 0157 fabd 9e4a 47be daf5 463e a0c1 44be

conv_block_1.2.bias f4 [2]
-0.06518659 -0.079284616
00000000: 8c80 85bd f95f a2bd

conv_block_1.3.weight f4 [2]
1.0000026 0.9999965
00000000: 1600 803f c5ff 7f3f

conv_block_1.3.bias f4 [2]
-1.233261e-05 -1.0063536e-05
00000000: 28e8 4eb7 8fd6 28b7

conv_block_1.3.running_mean f4 [2]
-0.082287416 0.011733367
00000000: 4e86 a8bd 4f3d 403c

conv_block_1.3.running_var f4 [2]
0.6614021 0.6860701
00000000: a651 293f 4aa2 2f3f

conv_block_1.5.weight f4 [2, 2, 3, 3]
-0.059340246 -0.1179535 -0.06544849 0.2163506 -0.18768276 -0.14104214 0.019571276 0.017116519
-0.1093501 0.13570434 -0.14078735 0.08725018 0.16084354 0.17928536 0.14139822 -0.021095807
-0.035792824 -0.044612944 0.042565055 -0.049875244 0.004091834 0.098859236 0.10782592 -0.09078761
0.10321006 -0.07450149 0.06278388 0.0030719603 0.07624677 0.21919209 0.006916523 -0.11602426
-0.03759198 0.08342954 0.18121047 0.13116775
00000000: c20e 73bd 9b91 f1bd dc09 86bd 038b 5d3e
00000010: e92f 40be 5a6d 10be f153 a03c f137 8c3c
00000020: f2f2 dfbd 14f6 0a3e 8f2a 10be 39b0 b23d
00000030: 2bb4 243e 9596 373e b2ca 103e 1dd1 acbc
00000040: 7f9b 12bd 10bc 36bd b258 2e3d fc49 4cbd
00000050: cb14 863b b676 ca3d d6d3 dc3d dbee b9bd
00000060: cc5f d33d 3d94 98bd d694 803d f152 493b
00000070: 4427 9c3d e473 603e 00a4 e23b 219e edbd
00000080: 0cfa 19bd 1bdd aa3d 3d8f 393e d750 063e

conv_block_1.5.bias f4 [2]
-0.020971928 0.12506104
00000000: 52cd abbc 0010 003e

conv_block_2.0.weight f4 [2]
0.9999898 1.0000093
00000000: 55ff 7f3f 4e00 803f

conv_block_2.0.bias f4 [2]
-5.396425e-06 -3.3084825e-06
00000000: f012 b5b6 4c07 5eb6

conv_block_2.0.running_mean f4 [2]
0.03423992 0.14460227
00000000: 293f 0c3d 9e12 143e

conv_block_2.0.running_var f4 [2]
0.66561973 0.6595862
00000000: 0e66 2a3f a4da 283f

conv_block_2.2.weight f4 [4, 2, 3, 3]
-0.1447858 0.21827856 0.05624318 -0.15526138 0.047416266 0.081073724 0.07868373 0.093808405
0.11390238 -0.037713293 0.19025186 0.09271253 -0.030807089 -0.09248162 -0.005552482 0.19186544
-0.0425598 -0.2297292 -0.23197111 -0.14287171 -0.17222314 -0.13035384 0.034027826 -0.21504365
0.022449927 0.11830901 0.010265486 -0.021160277 -0.018739145 0.14577791 -0.2161162 0.23076975
0.11230645 0.054701347 -0.09500146 0.101401925 -0.017924601 -0.19328399 -0.084637284 -0.12675722
-0.10185207 -0.2347085 -0.03006962 -0.04725725 -0.03309745 0.1461307 0.18278396 0.038281575
-0.0029014072 -0.2140656 0.08801826 0.17809266 0.22645812 0.017490331 0.12956995 -0.10393781
-0.16559286 -0.004933817 0.044891216 -0.17080063 0.009361203 0.084924266 0.081044085 0.04424858
-0.21347956 0.1060169 0.03584897 0.052550368 -0.07033802 -0.14973022 0.025001856 -0.03958757
00000000: bb42 14be 6a84 5f3e 405f 663d d7fc 1ebe
00000010: 8f37 423d fb09 a63d ef24 a13d 9f1e c03d
00000020: a745 e93d 4179 1abd 62d1 423e 11e0 bd3d
00000030: 265f fcbc 0167 bdbd 98f1 b5bb 6078 443e
00000040: 2f53 2ebd 223e 6bbe d689 6dbe f64c 12be
00000050: 435b 30be 7a7b 05be c360 0b3d 6734 5cbe
00000060: e9e8 b73c ff4b f23d 9230 283c 5158 adbc
00000070: d682 99bc ce46 153e 914d 5dbe e84e 6c3e
00000080: ed00 e63d 850e 603d 2090 c2bd d0ab cf3d
00000090: 9dd6 92bc 3dec 45be 5056 adbd a5cc 01be
000000a0: d197 d0bd 6d57 70be 9054 f6bc d190 41bd
000000b0: 3191 07bd 49a3 153e b82b 3b3e 24cd 1c3d
000000c0: 8925 3ebb 0334 5bbe eb42 b43d ec5d 363e
000000d0: a3e4 673e e247 8f3c fcad 043e 59dd d4bd
000000e0: 2d91 29be dbab a1bb dadf 373d 5ce6 2ebe
000000f0: bb5f 193c c6ec ad3d 71fa a53d 003e 353d
00000100: 639a 5abe 631f d93d 5fd6 123d 0e3f 573d
00000110: 610d 90bd e152 19be b1d0 cc3c 9326 22bd

conv_block_2.2.bias f4 [4]
0.1787606 0.09862468 -0.16448797 0.05664446
00000000: 050d 373e bcfb c93d 896f 28be 0504 683d

conv_block_2.3.weight f4 [4]
0.9999929 0.9999981 1.0000124 0.9999948
00000000: 89ff 7f3f e0ff 7f3f 6800 803f a9ff 7f3f

conv_block_2.3.bias f4 [4]
-4.35383e-06 -7.245904e-06 1.5461527e-06 2.3477792e-06
00000000: 1d17 92b6 d721 f3b6 6785 cf35 8a8e 1d36

conv_block_2.3.running_mean f4 [4]
0.11314597 -0.023993663 -0.1034457 -0.010669174
00000000: 13b9 e73d 5c8e c4bc 57db d3bd c2cd 2ebc

conv_block_2.3.running_var f4 [4]
0.6808208 0.6999548 0.71432006 0.66690165
00000000: 464a 2e3f 3d30 333f aedd 363f 11ba 2a3f

conv_block_2.5.weight f4 [4, 4, 3, 3]
-0.005514989 -0.10778807 0.1308308 -0.06365589 0.0018464496 0.14826682 0.12751402 -0.045133904
-0.034418955 -0.049982075 0.15870233 0.0879176 0.07961787 0.072545215 -0.020094313 -0.107715815
0.025331939 -0.01965149 -0.073941454 -0.14413196 -0.14894797 0.004787474 0.12885176 0.13124554
0.04839394 0.028594958 0.09410981 -0.15401852 -0.004782188 0.047820687 -0.013347305 0.124182835
0.14096388 0.14070803 0.108446226 -0.01794704 -0.03321525 0.1177283 0.14453083 0.08371721
-0.012991898 -0.006900226 -0.12873831 0.035062727 0.15360816 0.1435571 -0.09249149 -0.11243918
-0.05350961 -0.055354346 0.06851438 -0.04820798 -0.104306355 -0.10854179 -0.07397282 0.04303748
0.11106119 0.159558 -0.017575277 0.042409774 -0.036134616 0.09324027 0.026022064 -0.03449236
0.027527213 -0.05425591 -0.11239043 0.07657448 0.15442313 0.03681034 -0.011944121 0.15106739
0.10025348 -0.075249866 -0.108693 0.09322849 0.032124642 -0.13331863 -0.06509715 -0.0700762
0.013575149 -0.15560886 0.042519923 0.14909326 0.09287752 -0.097612865 0.13529655 0.03709716
-0.06738793 -0.09344774 -0.10445178 0.056963857 -0.08788916 -0.10720948 0.1252261 -0.053638
0.08403777 -0.13012284 0.07136793 0.15817448 0.05124779 0.04878397 -0.13154766 0.017242346
-0.022022841 -0.15241992 0.113308504 0.0017561412 -0.1466073 0.031692408 0.0897007 -0.10162274
0.15742792 0.104577884 -0.047880825 0.02066676 0.12954597 -0.0043614977 0.13591325 -0.11005743
0.058591634 0.09144197 -0.11197715 -0.010357764 -0.07375351 0.03148396 -0.14181103 0.1130565
0.07997487 0.11317136 -0.1532639 0.1634481 0.09376766 0.13083589 0.09526558 -0.013548275
-0.1577971 0.13212717 -0.13938798 -0.040353134 -0.009035512 0.15262796 0.04947998 0.094515204
00000000: 15b7 b4bb febf dcbd 82f8 053e 055e 82bd
00000010: 9104 f23a 42d3 173e 0993 023e 54de 38bd
00000020: e4fa 0cbd 01ba 4cbd dd82 223e 250e b43d
00000030: b20e a33d 9692 943d d49c a4bc 1c9a dcbd
00000040: ed84 cf3c 29fc a0bc 9e6e 97bd 5497 13be
00000050: d185 18be 3ee0 9c3b b7f1 033e 3b65 063e
00000060: b938 463d f93f ea3c a5bc c03d 08b7 1dbe
00000070: e7b3 9cbb a0df 433d a8ae 5abc 9253 fe3d
00000080: d658 103e c415 103e 0e19 de3d ac05 93bc
00000090: b70c 08bd 891b f13d e4ff 133e ee73 ab3d
000000a0: f8db 54bc 4b1b e2bb fad3 03be ef9d 0f3d
000000b0: 754b 1d3e a200 133e 2e6c bdbd 8346 e6bd
000000c0: e52c 5bbd 3dbb 62bd 4451 8c3d bb75 45bd
000000d0: 929e d5bd 284b debd 107f 97bd 1248 303d
000000e0: 0d74 e33d 2c63 233e 07fa 8fbc dfb5 2d3d
000000f0: e401 14bd c1f4 be3d 392c d53c dc47 0dbd
00000100: c080 e13c 723b 5ebd f42c e6bd 15d3 9c3d
00000110: 1921 1e3e 70c6 163d 46b1 43bc 69b1 1a3e
00000120: b251 cd3d 9a1c 9abd 709a debd 94ee be3d
00000130: 2195 033d ae84 08be a851 85bd 1c84 8fbd
00000140: 4d6a 5e3c ee57 1fbe 5f29 2e3d e7ab 183e
00000150: 9236 be3d 41e9 c7bd 2e8b 0a3e 31f3 173d
00000160: af02 8abd 8761 bfbd d1ea d5bd ef52 693d
00000170: 3bff b3bd a590 dbbd 453b 003e 85b3 5bbd
00000180: ff1b ac3d ec3e 05be 5929 923d 7ef8 213e
00000190: 34e9 513d b3d1 473d 6eb4 06be d23f 8d3c
000001a0: 3f69 b4bc f813 1cbe 4a0e e83d 522e e63a
000001b0: 3920 16be e6cf 013d 00b5 b73d 951f d0bd
000001c0: c934 213e ee2c d63d af1e 44bd 564d a93c
000001d0: b3a7 043e e5ea 8ebb d82c 0b3e ca65 e1bd
000001e0: c8fd 6f3d ed45 bb3d 4754 e5bd 9cb3 29bc
000001f0: 150c 97bd 53f5 003d e936 11be 2b8a e73d
00000200: ddc9 a33d 63c6 e73d 36f1 1cbe f05e 273e
00000210: 4209 c03d d8f9 053e 9a1a c33d 96f9 5dbc
00000220: 9095 21be 584c 073e b9bb 0ebe 5449 25bd
00000230: af09 14bc 814a 1c3e 85ab 4a3d 3091 c13d

conv_block_2.5.bias f4 [4]
0.03006576 0.08352372 -0.08317796 -0.01265865
00000000: 784c f63c 7c0e ab3d 3559 aabd 3a66 4fbc

conv_block_3.0.weight f4 [4]
0.9999872 1.0000052 0.9999948 1.000011
00000000: 29ff 7f3f 2c00 803f a9ff 7f3f 5c00 803f

conv_block_3.0.bias f4 [4]
-5.801719e-06 2.4762583e-06 -5.9262345e-07 5.2689297e-06
00000000: 63ac c2b6 cb2d 2636 c614 1fb5 c3cb b036

conv_block_3.0.running_mean f4 [4]
0.14935835 0.13782427 -0.0018962603 0.15158913
00000000: 65f1 183e ce21 0d3e f08b f8ba 2e3a 1b3e

conv_block_3.0.running_var f4 [4]
0.70700884 0.6885634 0.6620264 0.7758937
00000000: 88fe 343f b145 303f 907a 293f f8a0 463f

conv_block_3.2.weight f4 [8, 4, 3, 3]
0.065909274 -0.1356263 0.05542327 0.001970246 -0.019536614 0.0963925 0.024219986 0.14623813
0.12101593 -0.16127953 -0.09563111 0.15797418 -0.07738495 0.067466296 0.12980978 -0.11667133
0.107625574 -0.06577238 0.042407554 0.0742956 -0.109770805 -0.0028567433 0.10810329 0.082328334
0.10788796 0.1571029 0.08656005 0.16268344 0.15887813 -0.07682329 0.085598595 0.14829627
-0.15913965 0.09501914 -0.09863023 0.055275343 -0.08740406 0.12379417 0.123466045 0.00830025
0.054057486 0.07503966 0.11242259 -0.13333382 0.05373306 -0.035981342 -0.09161398 0.05305221
-0.11008017 0.07728797 0.07964328 -0.071399376 0.03454864 -0.16472791 0.13101822 -0.024777113
-0.13945219 -0.04176034 0.07315193 0.029703397 0.08641487 0.021367181 0.096515276 0.105379045
0.0199367 -0.062928066 0.122193836 0.09035619 -0.10879294 -0.04993657 -0.14935993 0.05268917
-0.0007453932 0.012040373 -0.14405474 0.030648585 -0.0035330842 0.030697023 -0.041159738 -0.079686366
-0.0920194 0.11009447 0.024535062 0.08887288 -0.019901833 0.09099496 0.012229669 -0.068395935
0.029190738 -0.15488714 0.083009176 0.1109195 0.0035352036 0.08701174 -0.068442576 0.04904665
0.01581071 0.11271096 -0.018421017 0.081505224 0.007069289 0.14457712 0.16013631 0.027563121
-0.047529254 0.1254285 0.15030108 0.053958677 -0.11472245 -0.10651936 -0.13048373 0.15700254
-0.038437054 -0.06670172 0.0030410422 0.010861748 0.026278192 0.12983538 -0.003547638 0.13711311
0.087999485 0.028118333 0.02641316 -0.08696429 -0.1633525 0.03025002 -0.027135802 0.034839526
0.10191314 -0.12068448 0.0020458556 0.0940748 -0.036727905 0.022061229 0.0572157 -0.08923125
-0.14183801 -0.002689871 0.03435652 -0.066018365 0.13693608 0.038078487 -0.15640004 0.05646634
0.10243062 -0.018787256 -0.006735872 -0.046048786 -0.102875255 -0.16631104 -0.06564676 -0.057363257
-0.04547044 -0.07960442 0.100742936 0.006379625 -0.10675985 0.08310042 -0.019937782 0.0063241017
0.07736877 -0.032694567 -0.15286309 -0.08209999 0.0053505404 -0.15199934 0.085390575 0.11803033
0.015160627 0.029499171 0.13962108 0.13979244 0.10130656 0.15013301 0.0503123 0.15471075
0.073511936 0.047339898 -0.0820428 -0.12620835 -0.05289451 0.16476664 -0.15981968 -0.04475514
0.12141275 0.0018374629 0.13290118 0.00022692693 -0.06313505 -0.05933181 0.069338754 0.1036841
0.08379615 0.115559675 0.08091525 -0.019943798 0.15070112 -0.010066252 0.086225525 -0.12724194
0.11380552 0.022600655 -0.04734019 -0.10952729 0.06852756 0.15630713 0.070714004 0.112831965
0.086930275 -0.045074534 0.0045989905 -0.11140857 -0.035337128 0.14024355 -0.045995325 -0.030818064
-0.02734773 0.039503656 -0.120551534 -0.019859117 0.124192834 -0.15088135 -0.13110562 -0.07821377
0.12348704 0.06797244 -0.08915361 -0.073409356 -0.097611 0.09801433 -0.0379367 -0.066644736
-0.10317281 -0.12563087 0.06455343 0.08965545 -0.15677267 0.14509599 0.07373736 0.1525937
-0.01912349 -0.12188038 -0.14878336 -0.07755531 -0.110329874 -0.012765554 0.15928505 0.13252124
-0.11477674 0.13869123 0.056161437 -0.12919262 0.059857164 0.081742 -0.00997565 -0.10332345
00000000: 71fb 863d 9fe1 0abe 8303 633d 3e1f 013b
00000010: 400b a0bc 6e69 c53d fe68 c63c 73bf 153e
00000020: 33d7 f73d 7626 25be 3eda c3bd fcc3 213e
00000030: 007c 9ebd c52b 8a3d dbec 043e 61f1 eebd
00000040: cc6a dc3d abb3 86bd 8bb3 2d3d 4b28 983d
00000050: 84cf e0bd 3338 3bbb 4265 dd3d c29b a83d
00000060: 5df4 dc3d 95df 203e 6546 b13d 7d96 263e
00000070: f3b0 223e 8755 9dbd 514e af3d fada 173e
00000080: 81f5 22be 6599 c23d a5fe c9bd 6668 623d
00000090: e600 b3bd cc87 fd3d c4db fc3d c6fd 073c
000000a0: 626b 5d3d 65ae 993d d13d e63d a988 08be
000000b0: 3217 5c3d 2c61 13bd 1ca0 bbbd 464d 593d
000000c0: b671 e1bd 2849 9e3d 041c a33d d639 92bd
000000d0: e082 0d3d 6fae 28be a429 063e 5ff9 cabc
000000e0: 8ecc 0ebe e40c 2bbd aed0 953d 8a54 f33c
000000f0: 48fa b03d 3a0a af3c cda9 c53d f8d0 d73d
00000100: 4a52 a33c 6ee0 80bd c340 fa3d ab0c b93d
00000110: d5ce debd 4a8a 4cbd cff1 18be 99d0 573d
00000120: 7e66 43ba fc44 453c 1683 13be be12 fb3c
00000130: 518b 67bb 5378 fb3c 1d97 28bd 9b32 a3bd
00000140: ab74 bcbd 3679 e13d c1fd c83c fc02 b63d
00000150: 2b09 a3bc 915b ba3d f35e 483c 2b13 8cbd
00000160: 6a21 ef3c bc9a 1ebe b700 aa3d c329 e33d
00000170: e0ae 673b 3633 b23d 9f2b 8cbd 24e5 483d
00000180: 7685 813c 01d5 e63d ace7 96bc 36ec a63d
00000190: 7fa5 e73b 060c 143e c6fa 233e 0ecc e13c
000001a0: 09ae 42bd 5470 003e 87e8 193e c603 5d3d
000001b0: 9bf3 eabd d226 dabd 879d 05be 46c5 203e
000001c0: 2c70 1dbd e99a 88bd 394c 473b 79f5 313c
000001d0: 5d45 d73c 91f3 043e 7d7f 68bb 6167 0c3e
000001e0: 1339 b43d 6b58 e63c 6960 d83c 551a b2bd
000001f0: e145 27be e4ce f73c e74b debc e4b3 0e3d
00000200: d6b7 d03d 6d29 f7bd c313 063b 4aaa c03d
00000210: 0070 16bd c0b9 b43c 035b 6a3d e0be b6bd
00000220: fc3d 11be 8c48 30bb 6cb9 0c3d a334 87bd
00000230: f938 0c3e 30f8 1b3d 5527 20be 4049 673d
00000240: 25c7 d13d bbe7 99bc 97b8 dcbb a79d 3cbd
00000250: 43b0 d2bd 714d 2abe cf71 86bd bcf5 6abd
00000260: 363f 3abd a407 a3bd 5052 ce3d 2c0c d13b
00000270: e9a4 dabd 8e30 aa3d 8f54 a3bc 693a cf3b
00000280: 8573 9e3d bdea 05bd 2488 1cbe 0a24 a8bd
00000290: 9653 af3b b7a5 1bbe 41e1 ae3d e3b9 f13d
000002a0: 4764 783c 3fa8 f13c d4f8 0e3e c025 0f3e
000002b0: d079 cf3d 78bc 193e 4514 4e3d 7f6c 1e3e
000002c0: 6d8d 963d 7be7 413d 0e06 a8bd c33c 01be
000002d0: eaa7 58bd 96b8 283e c5a7 23be 2a51 37bd
000002e0: 3fa7 f83d 06d7 f03a 3f17 083e 3cf3 6d39
000002f0: f34c 81bd e905 73bd 7a01 8e3d 5458 d43d
00000300: 519d ab3d 8daa ec3d e5b6 a53d 2d61 a3bc
00000310: 6551 1a3e ecec 24bc 0297 b03d b64b 02be
00000320: de12 e93d 0225 b93c c9e7 41bd d84f e0bd
00000330: 2d58 8c3d fa0e 203e 81d2 903d 7214 e73d
00000340: 8008 b23d 13a0 38bd 21b3 963b 2d2a e4bd
00000350: aabd 10bd 019c 0f3e 9865 3cbd 2a76 fcbc
00000360: 5908 e0bc 96ce 213d b9e3 f6bd 96af a2bc
00000370: d058 fe3d a480 1abe 8d40 06be 8b2e a0bd
00000380: c6e6 fc3d 2235 8b3d 2b96 b6bd a557 96bd
00000390: 47e8 c7bd bdbb c83d 8363 1bbd 097d 88bd
000003a0: 444c d3bd 61a5 00be 9734 843d 479d b73d
000003b0: 0489 20be 0b94 143e 9d03 973d 8641 1c3e
000003c0: dea8 9cbc 6c9c f9bd aa5a 18be 52d5 9ebd
000003d0: a1f4 e1bd 9d26 51bc 9f1b 233e a6b3 073e
000003e0: 1110 ebbd 1305 0e3e 8909 663d 124b 04be
000003f0: c92c 753d 5a68 a73d e970 23bc 3f9b d3bd

conv_block_3.2.bias f4 [8]
0.1276424 -0.12827383 0.004710493 0.06851141 -0.04696232 -0.025799025 -0.16025801 0.11620771
00000000: b0b4 023e 375a 03be 7b5a 9a3b b64f 8c3d
00000010: 905b 40bd 7a58 d3bc ad1a 24be 4ffe ed3d

conv_block_3.3.weight f4 [8]
1.0000054 0.99998873 0.99999887 0.9999958 1.0000135 0.999987 0.99999726 1.0000098
00000000: 2d00 803f 43ff 7f3f edff 7f3f baff 7f3f
00000010: 7100 803f 26ff 7f3f d2ff 7f3f 5200 803f

conv_block_3.3.bias f4 [8]
-3.284511e-06 -4.2444876e-07 1.6938509e-06 -9.4941527e-07 8.335592e-06 1.7507425e-06 -6.403461e-06 -2.7859887e-06
00000000: 786b 5cb6 cbdf e3b4 4658 e335 52db 7eb5
00000010: 18d9 0b37 0efb ea35 50dd d6b6 ecf6 3ab6

conv_block_3.3.running_mean f4 [8]
0.18594038 -0.002409704 0.10167936 0.0028167265 -0.003205554 0.09342535 -0.11648482 0.056866318
00000000: 2867 3e3e 20ec 1dbb 453d d03d d498 383b
00000010: 4614 52bb ca55 bf3d 988f eebd a8ec 683d

conv_block_3.3.running_var f4 [8]
0.78351164 0.6838361 0.7335188 0.70185554 0.7014564 0.7717345 0.72872394 0.7202899
00000000: 3894 483f e20f 2f3f e3c7 3b3f ceac 333f
00000010: a692 333f 6490 453f a78d 3a3f eb64 383f

conv_block_3.5.weight f4 [8, 8, 3, 3]
0.08341554 0.024620054 -0.10259711 0.022485532 -0.10709297 0.029951273 -0.041379053 -0.11729454
0.073842295 -0.11376445 0.052697465 0.015854746 0.09559882 0.102196254 0.086770445 -0.029923059
0.0375005 -0.046520464 -0.072206326 0.08321041 -0.058415834 -0.089330815 0.0060690395 -0.07287351
-0.04503796 -0.09972923 -0.03191335 0.09531266 0.05769754 -0.023079433 -0.08696716 -0.016366191
-0.08053982 -0.04836133 0.005786451 0.10757783 -0.041768637 0.02611412 0.07041999 -0.0067605777
0.10153173 -0.0028257268 0.06992814 0.102262326 0.01096036 0.08683483 -0.030906077 -0.11298765
0.030246964 -0.017898807 -0.09215693 0.10176832 -0.026170848 -0.0630126 0.04253353 -0.014463544
-0.09101862 -0.0139307445 -0.08794633 0.06398325 -0.040863615 -0.07627372 0.021452464 -0.04127157
-0.0227038 0.043914862 -0.05021525 0.09069001 -0.06357437 0.0033205913 0.07290298 -0.011772892
-0.10511718 -0.08345249 0.098576486 -0.005165968 -0.07406512 -0.0025383262 -0.08490839 0.06464116
-0.029868674 0.06268198 -0.10436384 -0.027500775 0.057397522 0.10305215 0.10961496 0.027643016
0.109487236 -0.016428817 -0.044224158 -0.04966641 -0.002570553 -0.04997285 0.010219303 -0.005384764
-0.076673105 -0.09733524 0.027128944 -0.029683383 -0.06720234 0.061356165 -0.10587234 0.054429565
-0.001268687 -0.096839815 -0.02071308 0.11077671 0.048776977 -0.06688971 -0.025344854 0.044698287
0.056680076 0.1009656 0.06265615 0.0049019195 0.09918771 -0.07799984 0.010702793 0.050716713
-0.08309274 0.087983824 -0.043615904 0.08782211 0.020187398 0.08377734 -0.012195215 0.010736839
0.079121664 0.0679931 -0.039303184 0.11743441 -0.043438833 0.053885385 0.033882864 -0.047248956
0.103242174 -0.061551888 -0.031761397 0.045858793 0.06687448 0.07627069 -0.011032385 0.0023543548
-0.01816587 -0.049054917 0.03680304 0.063418545 0.008448804 -0.033467855 0.10471672 0.075165585
0.043678492 0.020213934 -0.030164665 0.08153277 -0.07662619 0.08322906 0.088017896 -0.014375517
0.07132695 -0.039268125 -0.0506034 0.012185305 0.11510313 0.057245947 0.0043947445 -0.08559173
-0.087561265 -0.10932195 0.07338404 -0.06311616 -0.08246398 0.0125393635 -0.10626588 0.023775637
0.0949718 0.03641417 0.08442616 -0.03535459 -0.07331957 -0.0075634634 -0.07648532 0.029169617
0.028456228 0.042553976 0.08878841 0.03477301 -0.058265746 0.08890178 -0.094851546 0.102235906
-0.08553661 -0.103836276 -0.036934063 0.09392648 0.08222652 -0.095165364 -0.11057249 0.03775314
-0.043859422 -0.06872679 -0.08475719 -0.049809743 0.06139423 -0.04520498 -0.068115436 -0.034558695
-0.04924686 0.08515432 -0.011041618 -0.09225679 -0.054911967 0.010279426 0.050847124 -0.03711346
-0.0020655994 0.07898262 0.043696977 -0.067164354 0.025407314 -0.027181296 -0.0970209 -0.052001197
0.049176168 -0.07537048 0.05938922 -0.0018195035 0.005823695 -0.0020780473 0.06401939 0.11364188
-0.1036893 0.048861325 0.09501569 -0.036466654 0.011495355 -0.09037548 0.053656276 0.021093838
0.027736045 -0.030183196 -0.0097584445 -0.05698086 0.11459289 0.09336624 -0.016090577 0.024969934
-0.09939594 -0.054119196 0.05798639 0.08530531 -0.08553689 -0.07898723 -0.10825681 0.009295729
00000000: c4d5 aa3d ffaf c93c 6f1e d2bd 9433 b83c
00000010: 8f53 dbbd 5f5c f53c 157d 29bd 1f38 f0bd
00000020: a13a 973d 56fd e8bd 4cd9 573d d0e1 813c
00000030: 50c9 c33d 454c d13d b4b4 b13d 3421 f5bc
00000040: 209a 193d 3e8c 3ebd e9e0 93bd 386a aa3d
00000050: 7145 6fbd 13f3 b6bd cbde c63b b53e 95bd
00000060: b979 38bd d73e ccbd 93b7 02bd 4933 c33d
00000070: 4154 6c3d 1411 bdbc d71b b2bd 6412 86bc
00000080: 10f2 a4bd 8816 46bd 459c bd3b c451 dc3d
00000090: 9715 2bbd 47ed d53c 5b38 903d d687 ddbb
000000a0: deef cf3d d42f 39bb 7c36 8f3d e96e d13d
000000b0: 1593 333c 76d6 b13d be2e fdbc 1266 e7bd
000000c0: 7bc8 f73c 85a0 92bc c6bc bcbd e96b d03d
000000d0: 3f64 d6bc c00c 81bd a437 2e3d 80f8 6cbc
000000e0: f867 babd c73d 64bc 351d b4bd a609 833d
000000f0: 9b60 27bd 6535 9cbd 14bd af3c 610c 29bd
00000100: 52fd b9bc 12e0 333d 82ae 4dbd afbb b93d
00000110: 4833 82bd 479e 593b 284e 953d 17e3 40bc
00000120: ad47 d7bd 24e9 aabd 78e2 c93d 4847 a9bb
00000130: 74af 97bd 0c5a 26bb 73e4 adbd 9662 843d
00000140: 26af f4bc 695f 803d b5bc d5bd 4e49 e1bc
00000150: aa19 6b3d 010d d33d cf7d e03d 9b73 e23c
00000160: d83a e03d ba95 86bc 6424 35bd 016f 4bbd
00000170: b976 28bb 55b0 4cbd dd6e 273c ad72 b0bb
00000180: ca06 9dbd b357 c7bd 853d de3c 912a f3bc
00000190: 61a1 89bd 9a50 7b3d 99d3 d8bd 89f1 5e3d
000001a0: 124a a6ba f453 c6bd 7aae a9bc e6de e23d
000001b0: 5eca 473d 79fd 88bd 03a0 cfbc 8d15 373d
000001c0: 5e29 683d 0dc7 ce3d de51 803d 48a0 a03b
000001d0: ed22 cb3d 61be 9fbd c45a 2f3c 54bc 4f3d
000001e0: 872c aabd dd30 b43d 97a6 32bd 14dc b33d
000001f0: 0b60 a53c 7493 ab3d 70ce 47bc 91e9 2f3c
00000200: 8a0a a23d f73f 8b3d 60fc 20bd 7481 f03d
00000210: ebec 31bd ecb6 5c3d c2c8 0a3d 1f88 41bd
00000220: a270 d33d d51d 7cbd 3d18 02bd 6ed6 3b3d
00000230: 7df5 883d cf33 9c3d 2dc1 34bc 854b 1a3b
00000240: 97d0 94bc cfed 48bd c9be 163d 95e1 813d
00000250: da6c 0a3c 9715 09bd b875 d63d 6af0 993d
00000260: 38e8 323d b197 a53c e31b f7bc a7fa a63d
00000270: 31ee 9cbd ff73 aa3d ba42 b43d 4a87 6bbc
00000280: dd13 923d 9dd7 20bd 8345 4fbd e0a4 473c
00000290: 31bb eb3d ba7a 6a3d ca01 903b b84a afbd
000002a0: 5253 b3bd 30e4 dfbd 5f4a 963d 0c43 81bd
000002b0: e0e2 a8bd e771 4d3c eda1 d9bd 20c5 c23c
000002c0: 9380 c23d 0627 153d 9fe7 ac3d f9cf 10bd
000002d0: 9228 96bd eed6 f7bb 56a4 9cbd 1ff5 ee3c
000002e0: 091d e93c 144d 2e3d b3d6 b53d 256e 0e3d
000002f0: 10a8 6ebd 2312 b63d 8741 c2bd 0f61 d13d
00000300: d12d afbd 1da8 d4bd 2c48 17bd 875c c03d
00000310: 6166 a83d 0fe6 c2bd d473 e2bd 09a3 1a3d
00000320: f0a5 33bd a2c0 8cbd 2d95 adbd 4d05 4cbd
00000330: 8478 7b3d db28 39bd 1b80 8bbd 6b8d 0dbd
00000340: 13b7 49bd 6365 ae3d e7e7 34bc 21f1 bcbd
00000350: 5feb 60bd 0a6b 283c 1345 503d 4904 18bd
00000360: 025f 07bb a4c1 a13d 9afb 323d 778d 89bd
00000370: 0023 d03c 4fab debc e5b2 c6bd 35ff 54bd
00000380: f36c 493d d75b 9abd 1c42 733d 687c eeba
00000390: b2d4 be3b d92f 08bb 991c 833d 13bd e83d
000003a0: 0e5b d4bd d022 483d 9697 c23d 0f5e 15bd
000003b0: 0357 3c3c c816 b9bd afc6 5b3d fccc ac3c
000003c0: b436 e33c c042 f7bc e2e1 1fbc c364 69bd
000003d0: adaf ea3d cd36 bf3d 63d0 83bc bf8d cc3c
000003e0: 1990 cbbd 17ac 5dbd 2383 6d3d 8db4 ae3d
000003f0: f72d afbd 0fc4 a1bd bfb5 ddbd 1d4d 183c

conv_block_3.5.bias f4 [8]
-0.006642309 0.0057806047 0.011279406 0.022306632 -0.05267793 -0.021564197 0.07770407 0.047637
00000000: baa7 d9bb 3a6b bd3b 42cd 383c 66bc b63c
00000010: d0c4 57bd 66a7 b0bc 5023 9f3d 041f 433d

conv_block_4.0.weight f4 [8]
1.0000017 0.9999941 0.9999967 0.9999903 1.0000088 0.999996 1.0000031 1.0000055
00000000: 0e00 803f 9dff 7f3f c9ff 7f3f 5dff 7f3f
00000010: 4a00 803f bdff 7f3f 1a00 803f 2e00 803f

conv_block_4.0.bias f4 [8]
4.061821e-07 3.0211543e-06 -7.641352e-07 -1.8583685e-06 1.7847415e-06 -4.1443623e-06 4.505165e-07 4.2832703e-06
00000000: 3e11 da34 09bf 4a36 f91e 4db5 0e6d f9b5
00000010: 408b ef35 cd0f 8bb6 84de f134 03b9 8f36

conv_block_4.0.running_mean f4 [8]
0.014696133 0.12827912 0.043879468 0.027931124 0.09291177 -0.013957065 0.008721941 0.16447386
00000000: 0dc8 703c 9a5b 033e f5ba 333d d0cf e43c
00000010: 8748 be3d 2cac 64bc 79e6 0e3c d66b 283e

conv_block_4.0.running_var f4 [8]
0.6640649 0.7024219 0.68817514 0.66736805 0.71191573 0.6644238 0.6649999 0.694866
00000000: 2800 2a3f ecd1 333f 3f2c 303f a2d8 2a3f
00000010: 1c40 363f ae17 2a3f 6f3d 2a3f bde2 313f

conv_block_4.2.weight f4 [16, 8, 3, 3]
-0.07615852 0.07572373 0.021672403 0.07405782 -0.073549315 0.059905525 0.10354027 0.07221404
-0.08345228 0.035130035 -0.013867362 -0.009458943 0.0014214793 -0.07834267 -0.04742192 0.01643966
-0.117745124 0.08414822 0.04726887 0.11210702 -0.06678799 0.09888182 -0.042957067 0.059941866
0.080185786 0.101019174 0.06896 0.034674358 0.059395224 -0.025646275 0.11475149 -0.081191964
-0.04205438 -0.08766338 0.083870806 0.05106964 0.08663446 -0.10531759 0.044968214 -0.103936784
0.008755821 -0.10806497 0.017060986 -0.05717481 0.0768475 -0.0608783 0.11125311 -0.05353085
-0.11036471 0.10840187 0.055210102 -0.08998906 0.026560698 0.081131145 -0.092838936 -0.06575693
0.056007747 0.031801816 0.018053817 0.0634765 0.031685907 -0.053091172 -0.112725824 -0.05147891
0.050252553 0.10383549 -0.08512457 0.11612354 0.112568736 0.053166263 -0.06764682 -0.021826545
-0.039097074 0.085677326 -0.014053917 -0.06787112 0.0357816 -0.0021457097 0.096113205 -0.038146514
0.026179682 -0.035103656 0.07280268 -0.04114184 0.032044075 -0.094543345 -0.08743899 0.04271221
-0.008578387 0.06608826 -0.056550752 -0.074486054 -0.105237514 0.05636628 -0.028309202 0.004154989
-0.05211384 0.05196776 -0.09805573 0.060748156 0.031073522 0.05266792 0.0657291 0.08837664
-0.050162014 0.071809754 0.034222193 0.019360645 0.05936062 -0.043285877 -0.102331944 0.010843828
0.007230094 0.011515236 0.06895172 -0.0020718887 -0.053188294 -0.07347315 0.041269213 0.091527216
-0.051200513 -0.076043315 0.095803656 -0.10657857 0.050893195 -0.04604755 0.0817382 -0.06254388
0.09423644 0.025279101 -0.028529057 -0.10544455 -0.06899039 0.016710842 -0.09310988 0.06682834
0.046198156 -0.004614584 0.049535055 -0.06803297 -0.041651033 -0.08256837 0.11397062 -0.10283986
0.06703239 0.009323537 -0.11574618 -0.09714184 -0.05483735 0.050828855 0.025010118 0.042924892
-0.06387302 -0.012622868 -0.08883424 -0.110535786 0.040233035 0.0503482 0.079137206 -0.10375733
0.063059814 0.029739946 -0.10644833 -0.048382096 0.061303005 -0.09892067 -0.10588564 -0.06530501
0.014747288 -0.048152465 0.06004015 -0.014232391 -0.11621175 -0.009057149 -0.111215375 0.04203162
-0.08739332 0.044892833 -0.048800174 -0.07843173 0.11136471 0.052375514 -0.10916446 0.06711572
0.004382436 0.09187082 0.09592248 0.105629906 0.09407105 0.016472068 0.029311266 0.027623147
0.065205455 0.03848227 0.017434435 -0.09847845 -0.054557312 -0.07814994 0.029308042 -0.051751964
-0.03623489 0.016086552 -0.090630285 0.043638706 -0.11021639 -0.0095226485 -0.028591381 -0.08784511
-0.115929 -0.07785519 0.08578367 0.0393809 -0.016990442 0.018188013 -0.10670574 0.03288842
0.08946047 0.060240816 0.08561681 -0.022308942 -0.030358838 0.06441784 -0.080478445 -0.07156133
0.101430096 0.08408741 -0.07896236 -0.054421205 -0.058651492 0.056973465 -0.0137957325 -0.0815981
-0.0068791583 -0.009709004 -0.06924769 -0.09941995 -0.06517389 0.1117212 -0.06090542 0.09784863
-0.015723879 0.09649878 0.06703287 0.058525573 -0.07453349 -0.03877405 -0.03403134 0.08430141
0.053301763 -0.11184244 0.023606706 -0.0865577 -0.035328437 0.10330869 0.02292511 0.05700368
00000000: 00f9 9bbd 0b15 9b3d 538a b13c a0ab 973d
00000010: 06a1 96bd 7f5f 753d ec0c d43d f4e4 933d
00000020: 07e9 aabd 83e4 0f3d ef33 63bc aff9 1abc
00000030: ee50 ba3a 1f72 a0bd 7d3d 42bd 77ac 863c
00000040: 5b24 f1bd e755 ac3d 019d 413d 5e98 e53d
00000050: 24c8 88bd 8d82 ca3d c0f3 2fbd 9a85 753d
00000060: 7238 a43d 24e3 ce3d e73a 8d3d b306 0e3d
00000070: 6848 733d 2318 d2bc d402 eb3d f947 a6bd
00000080: 3741 2cbd dc88 b3bd 75c4 ab3d 662e 513d
00000090: 686d b13d c0b0 d7bd 9730 383d cfdc d4bd
000000a0: 9374 0f3c 2b51 ddbd 7bc3 8b3c 2230 6abd
000000b0: 3962 9d3d 865b 79bd acd8 e33d 2a43 5bbd
000000c0: e506 e2bd cd01 de3d fd23 623d 2f4c b8bd
000000d0: d295 d93c 1628 a63d 5722 bebd 92ab 86bd
000000e0: 6168 653d 9f42 023d 99e5 933c f8ff 813d
000000f0: 15c9 013d 2176 59bd ccdc e6bd 8ddb 52bd
00000100: 9fd5 4d3d b4a7 d43d ca55 aebd 2ed2 ed3d
00000110: 708a e63d dec4 593d 6a8a 8abd 95cd b2bc
00000120: 4124 20bd 9877 af3d 6642 66bc 0400 8bbd
00000130: ba8f 123d 099f 0cbb 00d7 c43d 853f 1cbd
00000140: c676 d63c dac8 0fbd 9219 953d 5984 28bd
00000150: a640 033d f19f c1bd 3713 b3bd 00f3 2e3d
00000160: 5d8c 0cbc 4859 873d c3a1 67bd 258c 98bd
00000170: c486 d7bd 54e0 663d b3e8 e7bc 9326 883b
00000180: 5275 55bd 25dc 543d 71d1 c8bd 0fd3 783d
00000190: e68d fe3c 51ba 573d fa9c 863d d0fe b43d
000001a0: af76 4dbd fe10 933d 922c 0c3d 379a 9e3c
000001b0: 1f24 733d 884c 31bd 6993 d1bd 50aa 313c
000001c0: 6dea ec3b 67aa 3c3c 8f36 8d3d 86c8 07bb
000001d0: f8db 59bd 1779 96bd e809 293d 9f72 bb3d
000001e0: a1b7 51bd 99bc 9bbd b534 c43d de45 dabd
000001f0: 6275 503d 5b9c 3cbd 5b66 a73d 0117 80bd
00000200: 09ff c03d 1e16 cf3c c5b5 e9bc 50f3 d7bd
00000210: d54a 8dbd 2de5 883c 65b0 bebd 4cdd 883d
00000220: 473a 3d3d f035 97bb 45e5 4a3d df54 8bbd
00000230: 469a 2abd 9b19 a9bd 6e69 e93d b49d d2bd
00000240: 4748 893d c0c1 183c 550c edbd 4df2 c6bd
00000250: 219d 60bd eb31 503d 05e2 cc3c 03d2 2f3d
00000260: dccf 82bd 25d0 4ebc baee b5bd 9660 e2bd
00000270: 65cb 243d ea39 4e3d b012 a23d b97e d4bd
00000280: 8125 813d 30a1 f33c 9501 dabd 4e2c 46bd
00000290: dc18 7b3d ec96 cabd 92da d8bd a2be 85bd
000002a0: 9c9e 713c 853b 45bd a9ec 753d f92e 69bc
000002b0: 6d00 eebd 7064 14bc e3c4 e3bd 5929 2c3d
000002c0: 45fb b2bd 8ce1 373d b1e2 47bd d1a0 a0bd
000002d0: 2e13 e43d b587 563d 9e91 dfbd f773 893d
000002e0: 8a9a 8f3b c526 bc3d 0173 c43d 7e54 d83d
000002f0: 53a8 c03d 6ef0 863c 2e1e f03c f049 e23c
00000300: 708a 853d 969f 1d3d a9d2 8e3c 12af c9bd
00000310: 7d77 5fbd 130d a0bd 6b17 f03c def9 53bd
00000320: 096b 14bd f2c7 833c 5f9c b9bd 80be 323d
00000330: 21b9 e1bd e204 1cbc 7938 eabc 23e8 b3bd
00000340: 2f6c edbd 8b72 9fbd 59af af3d de4d 213d
00000350: 8a2f 8bbc 07ff 943c 8a88 dabd 02b6 063d
00000360: 0d37 b73d 13bf 763d de57 af3d 3ec1 b6bc
00000370: 19b3 f8bc 80ed 833d e2d1 a4bd bf8e 92bd
00000380: 95ba cf3d 0536 ac3d 05b7 a1bd c5e8 5ebd
00000390: 8c3c 70bd 025d 693d 7f07 62bc e81c a7bd
000003a0: 906a e1bb 8412 1fbc bcd1 8dbd b09c cbbd
000003b0: e379 85bd 16ce e43d f677 79bd dd64 c83d
000003c0: 5dcf 80bc 27a1 c53d 8848 893d 83b8 6f3d
000003d0: 04a5 98bd 8ad1 1ebd 7264 0bbd 38a6 ac3d
000003e0: f352 5a3d a60d e5bd da62 c13c 2a45 b1bd
000003f0: 8db4 10bd 8293 d33d 71cd bb3c b17c 693d

conv_block_4.2.bias f4 [16]
-0.038667228 0.06847926 0.066478185 0.051653385 0.08002828 0.013429331 -0.08548039 0.027256602
0.06211742 -0.07841014 0.06659267 0.009864735 0.044371724 -0.036092497 -0.01636941 0.09232535
00000000: 8761 1ebd db3e 8c3d b725 883d 8092 533d
00000010: dee5 a33d b206 5c3c 5810 afbd 3d49 df3c
00000020: d66e 7e3d 7f95 a0bd bd61 883d b39f 213c
00000030: 20bf 353d bad5 13bd 2419 86bc 1315 bd3d

conv_block_4.3.weight f4 [16]
0.9999988 0.9999985 0.99999774 0.9999907 1.0000052 0.9999971 1.0000014 0.99999994
1.000002 1.0000002 1.0000031 1.0000073 0.9999986 0.99999243 1.0000037 0.999996
00000000: ecff 7f3f e7ff 7f3f daff 7f3f 64ff 7f3f
00000010: 2c00 803f cfff 7f3f 0c00 803f ffff 7f3f
00000020: 1100 803f 0200 803f 1a00 803f 3d00 803f
00000030: e9ff 7f3f 81ff 7f3f 1f00 803f bdff 7f3f

conv_block_4.3.bias f4 [16]
8.569448e-08 -6.131626e-07 -4.437488e-06 -4.5742962e-07 6.989339e-07 1.5915028e-06 4.8669517e-06 1.2733499e-06
5.147312e-07 2.4397134e-06 -3.015196e-07 3.6184147e-06 -1.982241e-06 -2.636747e-06 7.1522425e-07 6.4653494e-07
00000000: 0a07 b833 3798 24b5 bbe5 94b6 a694 f5b4
00000010: 5f9e 3b35 9f9b d535 cc4e a336 f8e7 aa35
00000020: 0f2c 0a35 f5b9 2336 8ae0 a1b4 e4d3 7236
00000030: a406 05b6 f8f2 30b6 d6fd 3f35 8b8d 2d35

conv_block_4.3.running_mean f4 [16]
0.06221371 -0.015396313 -0.0778941 0.0897084 0.05554856 0.04390476 -0.014359954 0.028619077
0.034888927 -0.14032286 0.03670008 0.0223199 -0.094596736 0.040145442 -0.054116547 0.045322128
00000000: ced3 7e3d d140 7cbc f186 9fbd 0ab9 b73d
00000010: e386 633d 7ad5 333d 0346 6bbc 8e72 ea3c
00000020: b1e7 0e3d ccb0 0fbe d352 163d 39d8 b63c
00000030: efbb c1bd 8c6f 243d 50a9 5dbd b2a3 393d

conv_block_4.3.running_var f4 [16]
0.71142346 0.7019108 0.72501934 0.6977022 0.6983343 0.6907105 0.6965131 0.7012497
0.6941918 0.7874131 0.6884909 0.68558204 0.71388644 0.7431016 0.7148528 0.70306903
00000000: d91f 363f 6db0 333f de9a 393f 9d9c 323f
00000010: 09c6 323f 67d2 303f af4e 323f 1a85 333f
00000020: 8eb6 313f e893 493f f140 303f 4e82 2f3f
00000030: 43c1 363f e83b 3e3f 9800 373f 55fc 333f

conv_block_4.5.weight f4 [16, 16, 3, 3]
0.005341962 0.06756974 -0.054892298 0.017060686 -0.036436334 0.034494318 -0.08246837 -0.004299829
0.06073622 -0.01939749 0.05249362 -0.060677562 -0.018785821 0.05655845 -0.019855473 0.03615606
-0.03394231 0.035999574 0.02684438 0.009579131 -0.027940968 0.016240412 0.056109123 0.044521734
0.0549328 0.06318014 0.03489824 0.03270085 -0.022598881 0.079326905 0.02241701 -0.014150602
-0.048929404 -0.073260576 -0.07881962 -0.033978987 -0.037156533 -0.016876006 -0.016109271 -0.059593033
-0.081576064 0.07347204 0.06264186 -0.08276692 0.031656425 0.026712954 0.05812035 0.04919228
0.051136356 -0.036494236 0.017484775 0.028790765 0.055932958 -0.022085153 0.052427843 0.047209915
0.041739255 0.044592194 -0.048618417 0.07947315 -0.0063903625 0.0019498247 0.055187624 0.07692006
0.07688213 0.08301164 -0.010206891 0.054649502 -0.0573156 -0.017051024 -0.025102293 0.02668329
0.051663715 0.07077008 0.022492293 -0.0113030765 0.045142163 -0.067218944 0.061135277 -0.057038635
-0.031397726 -0.044684332 -0.07420106 -0.010922658 0.027613562 0.026343046 -0.05898156 -0.06552504
-0.015635055 0.07432344 -0.02369054 0.041891925 0.07943048 0.00017516073 -0.067423366 0.069412194
-0.066527806 -0.063872464 0.04669044 0.041342255 0.051030554 0.06843826 -0.05585083 -0.003819982
-0.008077567 -0.0005223039 0.036987036 0.023477957 -0.03537135 -0.06100723 0.016238825 0.0071543017
-0.059619866 -0.07849367 0.003368757 -0.0025581322 -0.033434663 0.078469925 -0.052900307 0.04718163
0.060860418 -0.016568989 0.043981086 -0.056122854 0.0011202483 0.08107688 -0.065098085 -0.018913433
0.027820216 -0.075483344 0.01802031 -0.07645647 -0.01938934 0.029691894 -0.022891438 0.037756786
0.062109716 0.008916013 -0.05745951 -0.047288813 0.044357695 0.055048414 0.026460633 0.019034045
-0.0003643458 0.03544242 -0.07337283 0.019201186 0.0017539732 -0.07562959 0.067719065 -0.06517074
0.016367873 0.013920935 0.07210658 0.050332427 0.033322603 -0.07859162 -0.059825767 -0.011175236
0.061672747 -0.036290366 -0.0064702895 0.07798964 -0.019195482 -0.052889638 -0.002858258 -0.034958694
-0.059933122 -0.024796052 -0.0027321712 -0.011779812 0.023727443 -0.044360302 -0.036381476 -0.029562894
-0.031960215 -0.03745965 0.081152156 0.007933045 0.025537726 -0.018213814 -0.07315119 0.05288723
0.016444607 0.045605708 0.030798439 -0.06581386 0.024182502 0.06705728 0.07402785 0.062468644
-0.0075147394 0.054087337 -0.06590953 0.062297516 -0.045571018 -0.047898218 -0.044978682 0.017591618
-0.0218554 -0.07554765 0.010210433 -0.0035944232 -0.07165681 -0.05170657 0.018380696 0.04752797
-0.080536515 0.05070508 -0.007928413 0.06706875 0.047435038 -0.00574243 -0.0190427 0.060730226
-0.069905266 -0.034390904 -0.028600635 -0.050015554 -0.0136966435 0.0056913355 -0.0030666268 0.014259988
0.064064406 -0.036850292 -0.03233372 0.015430122 -0.08299048 -0.0359591 0.015659738 -0.015354502
-0.07548945 0.057926297 0.007564127 0.025948673 -0.07652885 -0.051420484 -0.051915713 0.083013415
-0.0062217037 0.08114314 0.0071708667 0.0018640208 -0.010868485 -1.940465e-05 0.054730374 0.05073281
0.019487359 -0.011470889 -0.008474018 0.06719651 0.066374384 0.003050338 -0.07521421 -0.0363544
00000000: a00b af3b 0162 8a3d bfd6 60bd dac2 8b3c
00000010: 443e 15bd ea49 0d3d 2de5 a8bd 94e5 8cbb
00000020: 8bc6 783d 7ce7 9ebc 8d03 573d 0989 78bd
00000030: b9e4 99bc d5a9 673d f2a7 a2bc 6018 143d
00000040: 1707 0bbd 4a74 133d bfe8 db3c caf1 1c3c
00000050: 75e4 e4bc 9d0a 853c aed2 653d 6c5c 363d
00000060: 3701 613d 9764 813d 75f1 0e3d 54f1 053d
00000070: 4a21 b9bc 2576 a23d e1a3 b73c edd7 67bc
00000080: 336a 48bd a409 96bd 2e6c a1bd 8d2d 0bbd
00000090: 7331 18bd 8d3f 8abc 97f7 83bc d317 74bd
000000a0: 5a11 a7bd 8278 963d 604a 803d b481 a9bd
000000b0: 2baa 013d 20d5 da3c 9b0f 6e3d d87d 493d
000000c0: 5b74 513d fb7a 15bd 3b3c 8f3c 9cda eb3c
000000d0: f519 653d eceb b4bc 94be 563d 2f5f 413d
000000e0: c8f6 2a3d 4ea6 363d 1b24 47bd d2c2 a23d
000000f0: 3f66 d1bb 4391 ff3a 6b0c 623d 4488 9d3d
00000100: 6174 9d3d 0202 aa3d ce3a 27bc 28d8 5f3d
00000110: c3c3 6abd 97ae 8bbc 53a3 cdbc ea96 da3c
00000120: 559d 533d e7ef 903d c241 b83c 8a30 39bc
00000130: fde6 383d 16aa 89bd fc68 7a3d 58a1 69bd
00000140: e79a 00bd eb06 37bd baf6 97bd f3f4 32bc
00000150: d635 e23c 5fcd d73c a696 71bd fe31 86bd
00000160: 1615 80bc e336 983d aa12 c2bc de96 2b3d
00000170: 73ac a23d 5aab 3739 4315 8abd fb27 8e3d
00000180: bb3f 88bd 91cf 82bd 7a3e 3f3d 7f56 293d
00000190: 6a05 513d 5c29 8c3d d7c3 64bd aa58 7abb
000001a0: c657 04bc 39eb 08ba b87f 173d d854 c03c
000001b0: 8ce1 10bd b8e2 79bd 4907 853c a26e ea3b
000001c0: f633 74bd 4ac1 a0bd 5dc6 5c3b 56a6 27bb
000001d0: c9f2 08bd d7b4 a03d fead 58bd 8641 413d
000001e0: c648 793d b0bb 87bc 8325 343d 14e1 65bd
000001f0: 4cd5 923a a30b a63d 2552 85bd 58f0 9abc
00000200: 39e7 e33c 0397 9abd 549f 933c 3695 9cbd
00000210: 65d6 9ebc 6a3c f33c d386 bbbc dca6 1a3d
00000220: c266 7e3d 7814 123c aa5a 6bbd eab1 41bd
00000230: 6ab0 353d 727a 613d f8c3 d83c 49ed 9b3c
00000240: aa05 bfb9 122c 113d 7f44 96bd ce4b 9d3c
00000250: 93e5 e53a b0e3 9abd 4bb0 8a3d 3d78 85bd
00000260: eb15 863c a214 643c 9dac 933d 6029 4e3d
00000270: 487d 083d a5f4 a0bd dd0b 75bd 5618 37bc
00000280: 909c 7c3d 35a5 14bd b904 d4bb 08b9 9f3d
00000290: d83f 9dbc cea2 58bd 9d51 3bbb d930 0fbd
000002a0: 6f7c 75bd 1721 cbbc 3a0e 33bb 1d00 41bc
000002b0: 0e60 c23c 26b3 35bd be04 15bd e22d f2bc
000002c0: b7e8 02bd 4a6f 19bd 1a33 a63d 9af9 013c
000002d0: 7e34 d13c 2335 95bc 4bd0 95bd 48a0 583d
000002e0: d7b6 863c 0dcd 3a3d 024d fc3c 6bc9 86bd
000002f0: 621a c63c 5455 893d ea9b 973d 1fdf 7f3d
00000300: 343e f6bb af8a 5d3d 93fb 86bd ae2b 7f3d
00000310: ada8 3abd ec30 44bd 913b 38bd 4c1c 903c
00000320: 190a b3bc bab8 9abd a949 273c 6a90 6bbb
00000330: cec0 92bd 45ca 53bd 1d93 963c b0ac 423d
00000340: 54f0 a4bd 21b0 4f3d 2de6 01bc 575b 893d
00000350: 3e4b 423d ff2a bcbb 70ff 9bbc 42c0 783d
00000360: 7e2a 8fbd 7add 0cbd e14b eabc 1cdd 4cbd
00000370: e367 60bc 627e ba3b 76f9 48bb baa2 693c
00000380: 3334 833d 55f0 16bd 5d70 04bd 9fce 7c3c
00000390: eaf6 a9bd d949 13bd da48 803c 7391 7bbc
000003a0: 369a 9abd 2044 6d3d 7fdc f73b 5092 d43c
000003b0: 28bb 9cbd 499e 52bd 92a5 54bd f002 aa3d
000003c0: 6fdf cbbb 602e a63d 97f9 ea3b 2952 f43a
000003d0: bb11 32bc 2bc7 a2b7 f52c 603d 35cd 4f3d
000003e0: f4a3 9f3c 65f0 3bbc 9cd6 0abc 539e 893d
000003f0: 4bef 873d 2ee8 473b e809 9abd 5ae8 14bd

conv_block_4.5.bias f4 [16]
-0.06643038 -0.0330197 0.033845738 -0.0539203 0.020940203 0.03864369 0.02699091 0.0102839125
-0.054109015 0.06501935 -0.005451259 -0.07266017 0.07294797 -0.009573671 -0.058528647 -0.03668126
00000000: a70c 88bd aa3f 07bd d4a1 0a3d 88db 5cbd
00000010: ca8a ab3c d948 1e3d 0a1c dd3c db7d 283c
00000020: 6aa1 5dbd dd28 853d 7aa0 b2bb dbce 94bd
00000030: bf65 953d e3da 1cbc bcbb 6fbd 173f 16bd

conv_block_5.0.weight f4 [16]
1.0000006 0.9999987 0.99999857 1.0000011 0.9999986 0.9999975 0.9999945 1.0000025
1.000001 1.0000043 0.99999774 0.999998 1.0000004 1.0000031 0.99999845 0.9999978
00000000: 0500 803f eaff 7f3f e8ff 7f3f 0900 803f
00000010: e9ff 7f3f d6ff 7f3f a4ff 7f3f 1500 803f
00000020: 0800 803f 2400 803f daff 7f3f deff 7f3f
00000030: 0300 803f 1a00 803f e6ff 7f3f dbff 7f3f

conv_block_5.0.bias f4 [16]
-8.905601e-07 -3.5352857e-06 -1.0901802e-07 -1.7963665e-06 6.738161e-08 -1.4867489e-06 -1.7563673e-06 5.4653947e-07
8.2853904e-07 3.1399154e-06 -1.4451925e-06 -7.889603e-07 2.1250148e-06 1.7946109e-06 -1.6573737e-06 -8.8285543e-07
00000000: d30e 6fb5 bf3f 6db6 4a1d eab3 af1a f1b5
00000010: 6fb3 9033 4e8c c7b5 52bc ebb5 e8b5 1235
00000020: c568 5e35 56b7 5236 70f8 c1b5 f0c8 53b5
00000030: 7a9b 0e36 5cde f035 ed72 deb5 5dfd 6cb5

conv_block_5.0.running_mean f4 [16]
0.14562155 0.024762454 0.11700089 0.007852304 0.08150768 0.033420227 0.20822123 -0.028901646
0.043919414 0.065419495 0.15511955 0.057163734 0.079900585 0.03903664 0.045849055 0.07755016
00000000: d11d 153e a1da ca3c 2a9e ef3d f3a6 003c
00000010: 80ed a63d a6e3 083d f237 553e 25c3 ecbc
00000020: d8e4 333d a8fa 853d a9d7 1e3e 8524 6a3d
00000030: eba2 a33d e2e4 1f3d 38cc 3b3d 9ed2 9e3d

conv_block_5.0.running_var f4 [16]
0.78310823 0.67882323 0.6934486 0.6605102 0.67900497 0.6778375 0.7071363 0.6736153
0.68623054 0.6631226 0.686763 0.69556856 0.7033265 0.6696482 0.72140837 0.6747641
00000000: c879 483f 5cc7 2d3f d985 313f 3217 293f
00000010: 45d3 2d3f c286 2d3f e206 353f 0d72 2c3f
00000020: ceac 2f3f 67c2 293f b3cf 2f3f c810 323f
00000030: 350d 343f 106e 2b3f 38ae 383f 57bd 2c3f

conv_block_5.2.weight f4 [32, 16, 3, 3]
-0.007329474 0.055929765 -0.009010769 0.041987356 0.04750244 -0.02092497 0.016183792 0.07696891
0.020321386 0.05890212 0.02910828 -0.008328079 0.0032364938 0.06670469 0.06455458 -0.004737743
0.024933951 0.023406314 0.024415368 0.06430553 0.04444866 -0.027246479 0.01794628 0.009011109
-0.072435826 0.009458199 0.06450083 -0.06267403 -0.07740913 -0.014732938 -0.020355077 -0.021433953
-0.0066725216 0.060284007 -0.05471318 -0.0071153543 0.0016613053 0.016606342 0.03418933 -0.039166983
0.057001572 0.054842062 0.04699776 0.017156472 0.03148598 0.022380335 -0.05901267 0.071057975
0.06272451 -0.034427993 0.056365963 -0.026789917 0.06414391 -0.022372585 0.01927592 0.0549972
-0.014962051 0.067952506 0.02675674 -0.028184459 0.039469264 -0.064913124 -0.06462455 -0.06955213
-0.08254578 -0.07678639 0.05573549 -0.021207826 -0.064500585 0.058554117 0.019407146 -0.015406591
0.06995066 0.041235857 -0.07762466 -0.033835154 -0.02922808 -0.04327475 0.04930498 0.019665975
-0.004473387 -0.081849456 0.010861525 0.01707941 0.04170182 0.048963256 -0.017819522 0.058465503
0.07539137 0.07691906 0.06413502 -0.076963596 0.07436656 -0.030763872 0.06840773 -0.042104084
0.0075845546 0.06571348 0.025271473 0.069690384 0.03978731 -0.025623467 0.02455376 0.037081543
-0.020264244 0.067622 -0.065213636 0.037999686 0.015299955 -0.07759086 -0.037557118 -0.054382853
-0.03419829 -0.04534523 -0.055969357 -0.026304267 -0.007032315 0.059249513 -0.011181957 -0.023587827
-0.062399037 -0.06975602 0.035145957 -0.010801807 -0.032247752 0.03365195 -0.053876504 0.008501291
-0.045755368 -0.051417865 0.05726079 -0.060173847 -0.056232296 0.04715092 -0.056460965 0.053955365
0.071246736 0.08183903 -0.012721766 0.043580923 0.027326388 -0.030087443 0.0090306 -0.08015386
-0.05625932 0.05578476 0.016378028 -0.04541141 0.078872025 -0.049514923 -0.014082533 0.0392013
0.046616804 -0.081399105 -0.08182295 -0.07983994 -0.08030784 0.018943656 -0.012979108 0.041108724
0.05130396 -0.05468504 -0.018993886 -0.078669235 0.0062965415 -0.02069146 -0.018485213 -0.05799124
0.07539346 -0.049876858 -0.027042981 -0.020424893 0.06757587 0.0015871029 0.0287311 -0.015743343
-0.029159207 0.011601078 0.056874234 0.06697355 -0.006704385 0.07300046 -0.00530417 -0.06646318
-0.06254262 0.023807047 -0.054827925 0.044832665 0.02388698 -0.078587234 -0.010493047 -0.07701358
-0.07384672 -0.008970059 0.040109467 -0.059445936 -0.061760098 0.023103913 -0.07717443 0.05811938
-0.032095242 0.05168947 0.07876493 -0.063577704 0.017946327 0.0020403562 0.079906724 0.08092455
-0.031973757 0.032116238 0.014833333 -0.026408345 -0.026360981 -0.0077790925 0.055329494 -0.0008637478
-0.0037884957 0.06241917 -0.060476154 -0.081926376 0.03487704 0.03292724 -0.0721599 -0.07651363
-0.0019554612 0.03722546 -0.045070276 -0.050994433 -0.044098154 0.039267592 -0.0825066 -0.08138538
-0.031292167 0.019852001 -0.066029355 -0.05115847 0.07211069 0.066747844 0.029055193 -0.054096583
-0.048849538 -4.2789317e-05 -0.0021600144 0.07265168 0.022706853 0.0015014305 0.0637765 -0.08040033
-0.026707526 -0.0152142495 -0.072351284 -0.066281244 -0.04078236 0.0499101 0.08171956 -0.04262778
00000000: 162c f0bb 9c16 653d e8a1 13bc effa 2b3d
00000010: eb91 423d d86a abbc df93 843c e0a1 9d3d
00000020: 0979 a63c 5943 713d 7d74 ee3c 7f72 08bc
00000030: 5b1b 543b 789c 883d 3135 843d 123f 9bbb
00000040: 4942 cc3c 99be bf3c bd02 c83c 9eb2 833d
00000050: cc0f 363d 0234 dfbc 1404 933c 55a3 133c
00000060: 3c59 94bd 90f6 1a3c 0319 843d 3e5b 80bd
00000070: ae88 9ebd 6c62 71bc b1bf a6bc 4296 afbc
00000080: 2ba5 dabb 5dec 763d ed1a 60bd eb27 e9bb
00000090: 28c0 d93a 060a 883c 1c0a 0c3d 8f6d 20bd
000000a0: 7b7a 693d 12a2 603d b980 403d bb8b 8c3c
000000b0: 71f7 003d f756 b73c 45b7 71bd d886 913d
000000c0: b575 803d 5e04 0dbd ffdf 663d 8776 dbbc
000000d0: e25d 833d b646 b7bc 89e8 9d3c be44 613d
000000e0: 6423 75bc af2a 8b3d f330 db3c 18e3 e6bc
000000f0: 86aa 213d 2cf1 84bd e059 84bd 5971 8ebd
00000100: c30d a9bd 2f42 9dbd e64a 643d 09bc adbc
00000110: e218 84bd 71d6 6f3d bcfb 9e3c ed6b 7cbc
00000120: 4b42 8f3d eee6 283d aef9 9ebd bb96 0abd
00000130: ba6f efbc dd40 31bd 05f4 493d 8a1a a13c
00000140: 7d95 92bb b0a0 a7bd 8af4 313c 1eea 8b3c
00000150: 87cf 2a3d b28d 483d 3ffa 91bc 8679 6f3d
00000160: ca66 9a3d bd87 9d3d 3959 833d 179f 9dbd
00000170: 7f4d 983d 8404 fcbc 5a19 8c3d 5575 2cbd
00000180: db87 f83b ca94 863d 1f06 cf3c d5b9 8e3d
00000190: 05f8 223d 4ee8 d1bc f824 c93c d1e2 173d
000001a0: 3301 a6bc 677d 8a3d ba8e 85bd 8fa5 1b3d
000001b0: aaac 7a3c f5e7 9ebd 7ed5 19bd 8ec0 5ebd
000001c0: 8213 0cbd ebbb 39bd 2040 65bd 0c7c d7bc
000001d0: 556f e6bb 9eaf 723d 8734 37bc 423b c1bc
000001e0: 2296 7fbd 3fdc 8ebd 35f5 0f3d 10fa 30bc
000001f0: 3816 04bd a1d6 093d 9cad 5cbd 0049 0b3c
00000200: fb69 3bbd 8a9b 52bd 4a8a 6a3d da78 76bd
00000210: d653 66bd 5321 413d 9d43 67bd 4d00 5d3d
00000220: cfe9 913d 399b a73d f46e 50bc e981 323d
00000230: 97db df3c f179 f6bc 15f5 133c b527 a4bd
00000240: 2c70 66bd 8f7e 643d 372b 863c 5101 3abd
00000250: a887 a13d 29d0 4abd 6dba 66bc 8b91 203d
00000260: 43f1 3e3d 93b4 a6bd ca92 a7bd 1f83 a3bd
00000270: 7078 a4bd ba2f 9b3c 53a6 54bc 9f61 283d
00000280: 1a24 523d 6cfd 5fbd 1199 9bbc 561d a1bd
00000290: 3853 ce3b 2381 a9bc 4d6e 97bc 3988 6dbd
000002a0: e367 9a3d ad4b 4cbd 3e89 ddbc 1b52 a7bc
000002b0: 3865 8a3d 5606 d03a 7c5d eb3c 2ff8 80bc
000002c0: 4adf eebc 7312 3e3c f5f4 683d 6e29 893d
000002d0: 75b0 dbbb 4481 953d 9ace adbb d91d 88bd
000002e0: 5816 80bd ff06 c33c 3f93 60bd 75a2 373d
000002f0: a1ae c33c 58f2 a0bd 07eb 2bbc 4cb9 9dbd
00000300: f33c 97bd 28f7 12bc d349 243d 957d 73bd
00000310: 28f8 7cbd 6b44 bd3c a10d 9ebd 960e 6e3d
00000320: 4d76 03bd 56b8 533d 824f a13d 0735 82bd
00000330: 2d04 933c 7fb7 053b 23a6 a33d c5bb a53d
00000340: eaf6 02bd 518c 033d 8207 733c 5056 d8bc
00000350: fcf2 d7bc c2e7 febb 2ea1 623d 226d 62ba
00000360: 6948 78bb 3eab 7f3d d8b5 77bd 04c9 a7bd
00000370: 3adb 0e3d b7de 063d 92c8 93bd 2eb3 9cbd
00000380: 3227 00bb b979 183d 9c9b 38bd 8adf 50bd
00000390: 44a0 34bd 0ed7 203d 38f9 a8bd 61ad a6bd
000003a0: 372c 00bd aaa0 a23c 663a 87bd 8b8b 51bd
000003b0: c5ae 933d 18b3 883d 2805 ee3c 6194 5dbd
000003c0: 7416 48bd ae78 33b8 078f 0dbb 67ca 943d
000003d0: b903 ba3c a6cb c43a 419d 823d eea8 a4bd
000003e0: bec9 dabc 3045 79bc e92c 94bd 76be 87bd
000003f0: 670b 27bd 886e 4c3d 965c a73d 789a 2ebd

conv_block_5.2.bias f4 [32]
0.058943458 -0.033404663 -0.02254333 -0.06152779 0.074744135 -0.023370076 -0.041843563 -0.06458464
0.055837225 0.051513806 0.06980761 -0.034675345 -0.0360256 0.004434904 0.031054683 0.071883805
0.07088224 0.07608555 0.057442825 0.012339892 0.0602741 -0.0066525238 0.035697505 -0.07022849
-0.016856074 0.07197257 -0.05060791 0.053956762 -0.049383063 -0.0028835447 -0.060332697 -0.07140154
00000000: b26e 713d 54d3 08bd caac b8bc 9004 7cbd
00000010: 7413 993d 9a72 bfbc 2864 2bbd f444 84bd
00000020: 93b5 643d 2400 533d 4bf7 8e3d bc07 0ebd
00000030: 948f 13bd ac52 913b 6466 fe3c d137 933d
00000040: b52a 913d bed2 9b3d 2b49 6b3d 422d 4a3c
00000050: fae1 763d 6afd d9bb 8c37 123d f4d3 8fbd
00000060: c015 8abc 5b66 933d 3d4a 4fbd c401 5d3d
00000070: e545 4abd daf9 3cbb 6b1f 77bd f83a 92bd

conv_block_5.3.weight f4 [32]
0.9999995 1.000001 0.99999976 0.99999744 1.0000001 0.9999998 0.99999875 0.99999934
0.9999991 1.0000006 1.0000005 0.999999 1.0000006 1.0000001 1.0000002 0.99999857
1.0000002 0.9999994 0.999998 1.0 1.000001 0.99999857 0.99999887 0.99999994
1.0000015 0.9999981 0.9999998 0.9999975 1.0000029 0.9999998 0.999997 0.99999875
00000000: f8ff 7f3f 0800 803f fcff 7f3f d5ff 7f3f
00000010: 0100 803f fdff 7f3f ebff 7f3f f5ff 7f3f
00000020: f1ff 7f3f 0500 803f 0400 803f efff 7f3f
00000030: 0500 803f 0100 803f 0200 803f e8ff 7f3f
00000040: 0200 803f f6ff 7f3f deff 7f3f 0000 803f
00000050: 0800 803f e8ff 7f3f edff 7f3f ffff 7f3f
00000060: 0d00 803f e0ff 7f3f fdff 7f3f d6ff 7f3f
00000070: 1800 803f fdff 7f3f ceff 7f3f ebff 7f3f

conv_block_5.3.bias f4 [32]
-8.3065703e-07 1.3566862e-06 1.3553704e-06 -2.933136e-06 1.3712502e-06 1.14226005e-07 -8.4825484e-07 4.964051e-07
-8.782066e-07 2.5133778e-07 2.6993416e-07 -5.852113e-07 -2.956299e-08 1.2982541e-06 -3.937181e-07 -4.499096e-07
7.8725225e-07 9.15401e-07 -1.1190709e-06 8.952059e-07 1.2787289e-06 -1.3780259e-06 -3.7889876e-07 -7.2558204e-10
3.3116457e-06 -2.6026962e-07 2.7583468e-07 -5.410942e-07 1.3885126e-06 1.5980447e-06 9.946478e-07 -1.3687581e-06
00000000: 51fa 5eb5 6217 b635 2cea b535 e5d6 44b6
00000010: cc0b b835 694c f533 a1b3 63b5 b340 0535
00000020: e6bd 6bb5 9aef 8634 78eb 9034 6a17 1db5
00000030: b4f1 fdb2 ac3f ae35 3460 d3b4 1b8b f1b4
00000040: 9053 5335 e1b9 7535 fc32 96b5 154e 7035
00000050: caa0 ab35 9cf4 b8b5 736b cbb4 4c72 47b0
00000060: a43d 5e36 2fbb 8bb4 6e16 9434 b63f 11b5
00000070: ee5c ba35 667c d635 d77f 8535 2cb6 b7b5

conv_block_5.3.running_mean f4 [32]
0.09578109 -0.1315854 -0.10184441 -0.08127671 0.09535242 -0.09259846 -0.14021865 -0.035373658
-0.11105103 0.055884782 0.035730656 0.0035256739 -0.028873282 -0.06166729 0.037124027 0.08842032
0.08648534 -0.10691796 -0.022842625 -0.09814727 -0.06419111 -0.0088894265 0.04476994 0.06357604
-0.15973184 0.066030525 -0.0452785 0.08858811 0.008258268 -0.10335567 -0.010943755 -0.16125312
00000000: e028 c43d 53be 06be cd93 d0bd 6774 a6bd
00000010: 2148 c33d 43a4 bdbd 7a95 0fbe f8e3 10bd
00000020: b96e e3bd 71e7 643d 4f5a 123d fe0e 673b
00000030: a987 ecbc d796 7cbd 5d0f 183d b615 b53d
00000040: 3a1f b13d cef7 dabd 7520 bbbc 7001 c9bd
00000050: a176 83bd f5a4 11bc af60 373d 2834 823d
00000060: be90 23be 033b 873d f375 39bd af6d b53d
00000070: b04d 073c 23ac d3bd 6f4d 33bc 8a1f 25be
