cloud-detection-code/tests/test_artifacts/test_shadow/model_checkpoint_2.pt (torch, 287733 bytes, 250 tensors)

input_conv_block.0.weight f4 [3]
00000000: 1700 803f 0500 803f c0ff 7f3f
1.0000027 1.0000006 0.9999962

input_conv_block.0.bias f4 [3]
00000000: baff f6b5 5bfa 2eb7 ca0a 0f35
-1.8402854e-06 -1.0429499e-05 5.328735e-07

input_conv_block.0.running_mean f4 [3]
00000000: 01d8 aa3c 0a51 c73c e55c db3c
0.020854952 0.024330635 0.026777694

input_conv_block.0.running_var f4 [3]
00000000: c95d 4f3f 655d 4f3f 695d 4f3f
0.8100248 0.81001884 0.8100191

input_conv_block.2.weight f4 [2, 3, 1, 1]
00000000: b3f2 92be 147e 803e 3a36 11bf a076 d43e
00000010: 1162 b73e c7a6 f7be
-0.2870079 0.2509619 -0.5672337 0.41496754 0.35817006 -0.4836943

conv_block_1.0.weight f4 [2]
00000000: 1b00 803f c6ff 7f3f
1.0000032 0.99999654

conv_block_1.0.bias f4 [2]
00000000: 14ca 8e37 9860 cab6
1.7021819e-05 -6.031314e-06

conv_block_1.0.running_mean f4 [2]
00000000: 170c 09bd 8acc 7d3c
-0.033458795 0.01549066

conv_block_1.0.running_var f4 [2]
00000000: b22b 5c3f 1d61 523f
0.86004174 0.82179433

conv_block_1.2.weight f4 [2, 2, 3, 3]
00000000: ce63 41be 2196 49be 8ea6 eb3b c728 10be
00000010: 43fc b03d 32dc 06be 4206 0ebe ae6e 383e
00000020: 6d7e c73d e2dd 3cbc 2166 cbbd 4059 9bbd
00000030: b277 5c3d 92e4 8bbd 664d 59bd d910 86bc
00000040: 5646 b53c 9e86 023e ef08 523e ab36 e3bd
00000050: 53cf 323c 5cf4 263e c19c 5d3e 3861 293e
00000060: b191 9a3d 611a 16be 3dc0 02bb dfb2 193e
00000070: d970 3abd 6bbd 02be c991 b83c 1af3 b03d
00000080: b357 fabd 2143 47be 6ff1 463e e3c6 44be
-0.18885729 -0.19686176 0.0071914857 -0.14078055 0.08641865 -0.13169935 -0.13869575 0.18010971
0.09740911 -0.01152751 -0.09931589 -0.075853825 0.053825088 -0.06830706 -0.05305233 -0.016365455
0.022128265 0.12746665 0.2051122 -0.110944115 0.010913688 0.16304153 0.21641828 0.16540992
0.0754732 -0.146585 -0.0019951009 0.1500964 -0.045517776 -0.1276757 0.022530453 0.08640118
-0.122237585 -0.19459201 0.19428037 -0.19216494

conv_block_1.2.bias f4 [2]
00000000: 8f80 85bd fc5f a2bd
-0.06518661 -0.07928464

conv_block_1.3.weight f4 [2]
00000000: 4200 803f 78ff 7f3f
1.0000079 0.9999919

conv_block_1.3.bias f4 [2]
00000000: 78ba 34b6 5c0b 67b7
-2.693063e-06 -1.3771318e-05

conv_block_1.3.running_mean f4 [2]
00000000: 1719 2bbd 106a 903b
-0.041771974 0.004407175

conv_block_1.3.running_var f4 [2]
00000000: c708 503f 4845 533f
0.81263393 0.8252759

conv_block_1.5.weight f4 [2, 2, 3, 3]
00000000: e01d 73bd be93 f1bd 7b09 86bd 7884 5d3e
00000010: f02f 40be 1e6d 10be 931c a03c 6128 8c3c
00000020: 4ff4 dfbd cef6 0a3e ff29 10be abb7 b23d
00000030: 8bb6 243e d197 373e 6dcd 103e afcb acbc
00000040: 8b97 12bd 62b6 36bd d0b7 2e3d b116 4cbd
00000050: 2f34 873b c59b ca3d 2204 dd3d 93c5 b9bd
00000060: b65d d33d 6866 98bd 17bf 803d 5448 473b
00000070: 6718 9c3d 5867 603e d44c e23b 7fa8 edbd
00000080: 4027 1abd 8ce1 aa3d 8091 393e 2c4b 063e
-0.059354663 -0.11795758 -0.06544777 0.21632564 -0.18768287 -0.14104125 0.019544875 0.017109098
-0.1093527 0.13570711 -0.1407852 0.08726438 0.1608526 0.17929007 0.14140864 -0.021093218
-0.035789054 -0.044607528 0.042655766 -0.049826328 0.004126094 0.09892992 0.10791804 -0.090708874
0.10320608 -0.074414074 0.062864475 0.00304081 0.07621842 0.21914423 0.0069061313 -0.11604404
-0.037635088 0.08343801 0.1812191 0.13114613

conv_block_1.5.bias f4 [2]
00000000: 56cd abbc 0210 003e
-0.020971935 0.12506106

conv_block_2.0.weight f4 [2]
00000000: d0ff 7f3f 1600 803f
0.99999714 1.0000026

conv_block_2.0.bias f4 [2]
00000000: aafb 91b5 2637 84b4
-1.0876586e-06 -2.4627042e-07

conv_block_2.0.running_mean f4 [2]
00000000: 138b 7c3c c70f 8a3d
0.015414017 0.067412905

conv_block_2.0.running_var f4 [2]
00000000: 6fe0 4f3f 00da 4f3f
0.81201833 0.81192017

conv_block_2.2.weight f4 [4, 2, 3, 3]
00000000: 6f3f 14be 0687 5f3e 7668 663d 81f9 1ebe
00000010: 7d48 423d 0111 a63d a82b a13d 0e25 c03d
00000020: f74d e93d 3e7e 1abd 96cc 423e 24d9 bd3d
00000030: 7f78 fcbc 0771 bdbd 385a b6bb 8f74 443e
00000040: 5a5c 2ebd 483e 6bbe 298a 6dbe 414d 12be
00000050: 9e5b 30be b47b 05be f65b 0b3d fc34 5cbe
00000060: 73eb b73c 4947 f23d cc1f 283c 9b3c adbc
00000070: 995f 99bc 9947 153e be49 5dbe 9e50 6c3e
00000080: a806 e63d 0d1f 603d 0691 c2bd d2a9 cf3d
00000090: 4fe0 92bc 9bed 45be 1e58 adbd 8ccd 01be
000000a0: 3999 d0bd dd57 70be 1562 f6bc 4f94 41bd
000000b0: 0696 07bd 86a2 153e be2a 3b3e 38cd 1c3d
000000c0: 5d58 3ebb 8936 5bbe ab39 b43d 905d 363e
000000d0: 61e2 673e bb3a 8f3c 23b0 043e ddd6 d4bd
000000e0: 5e8f 29be 3075 a1bb 1ef4 373d 69e4 2ebe
000000f0: 8158 193c 45f4 ad3d e1fa a53d 7063 353d
00000100: d594 5abe 0f1b d93d 51ec 123d 2d40 573d
00000110: 9915 90bd 7c56 19be 98ce cc3c d632 22bd
-0.14477323 0.21828851 0.056251965 -0.15524866 0.04743241 0.08108712 0.07869655 0.093820676
0.11391824 -0.03771805 0.19023356 0.09269932 -0.030819176 -0.09250074 -0.005564954 0.19185089
-0.042568542 -0.22972977 -0.23197235 -0.14287283 -0.17222449 -0.1303547 0.034023248 -0.21504587
0.022451138 0.11830003 0.010261487 -0.021147063 -0.018722342 0.14578094 -0.21610162 0.23077628
0.11231738 0.054717112 -0.09500317 0.101398125 -0.017929224 -0.1932892 -0.08464073 -0.12676066
-0.10185475 -0.23471017 -0.030076066 -0.04726058 -0.033102058 0.14612779 0.18278024 0.03828165
-0.0029044368 -0.21407522 0.08800062 0.17809129 0.2264495 0.01748406 0.12957816 -0.103925444
-0.16558596 -0.0049273 0.044910543 -0.17079319 0.00935948 0.08493856 0.08104492 0.044284284
-0.21345837 0.10600864 0.0358699 0.052551437 -0.070353694 -0.14974397 0.025000855 -0.039599262

conv_block_2.2.bias f4 [4]
00000000: 090d 373e c0fb c93d 8c6f 28be 0a04 683d
0.17876066 0.098624706 -0.16448802 0.056644477

conv_block_2.3.weight f4 [4]
00000000: c3ff 7f3f eeff 7f3f 2800 803f f5ff 7f3f
0.99999636 0.9999989 1.0000048 0.99999934

conv_block_2.3.bias f4 [4]
00000000: d9b3 e4b5 6035 86b5 af5c c8b5 304d c534
-1.7039666e-06 -9.999312e-07 -1.4928136e-06 3.675027e-07

conv_block_2.3.running_mean f4 [4]
00000000: 4a5e 683d 0fa5 22bb 3e8c 3dbd 1850 80bb
0.056730546 -0.002481762 -0.046276323 -0.003915798

conv_block_2.3.running_var f4 [4]
00000000: 7e2e 533f 221f 543f 6707 563f a353 513f
0.82492816 0.82860005 0.83605045 0.81768245

conv_block_2.5.weight f4 [4, 4, 3, 3]
00000000: 7c87 b4bb 5fb9 dcbd 68fd 053e ba59 82bd
00000010: 3aff f33a e3d5 173e 9194 023e 9cdc 38bd
00000020: 8505 0dbd 1eb6 4cbd cb81 223e e210 b43d
00000030: 580a a33d 678c 943d 2ca2 a4bc 60a2 dcbd
00000040: 6450 cf3c cd04 a1bc 7c71 97bd 9898 13be
00000050: d387 18be 77d0 9c3b e2ef 033e d462 063e
00000060: 8929 463d fe2c ea3c 37b5 c03d 83b6 1dbe
00000070: 3d99 9cbb bce5 433d d5b5 5abc 6154 fe3d
00000080: dd58 103e 8415 103e ab18 de3d b0fb 92bc
00000090: db0e 08bd 1b1b f13d f3fe 133e 9071 ab3d
000000a0: 19d3 54bc 3b13 e2bb fdd1 03be 16a5 0f3d
000000b0: 424c 1d3e 1dff 123e fc6d bdbd b648 e6bd
000000c0: 4531 5bbd 09c4 62bd a34f 8c3d a077 45bd
000000d0: 2aa5 d5bd 194f debd 9882 97bd cb3a 303d
000000e0: fe6c e33d fc5f 233e 5a0b 90bc 6ba8 2d3d
000000f0: 5e0f 14bd 84ed be3d 9a1c d53c 6e4c 0dbd
00000100: dd7a e13c 0440 5ebd b12c e6bd 98d2 9c3d
00000110: 0b23 1e3e 8bc0 163d d597 43bc c6b5 1a3e
00000120: 0645 cd3d 8421 9abd 719f debd 3bec be3d
00000130: 0a94 033d fc87 08be 2c55 85bd d585 8fbd
00000140: 101d 5e3c 9c5b 1fbe ce1f 2e3d e7a8 183e
00000150: ea32 be3d e6eb c7bd fa88 0a3e 71f3 173d
00000160: 5701 8abd cb5e bfbd baec d5bd e94d 693d
00000170: 4000 b4bd 0b8d dbbd 1d3d 003e 4ca6 5bbd
00000180: 821c ac3d 543c 05be 5b32 923d a7f9 213e
00000190: 39ef 513d eed8 473d 89b4 06be 2b38 8d3c
000001a0: 7870 b4bc 6013 1cbe 000f e83d ddf2 e63a
000001b0: 1e1f 16be 61d4 013d f1b5 b73d 011e d0bd
000001c0: 3535 213e 5e2f d63d 431a 44bd df50 a93c
000001d0: b9a8 043e 04d5 8ebb e62b 0b3e 9f69 e1bd
000001e0: 38ff 6f3d 4044 bb3d a257 e5bd 10c7 29bc
000001f0: 980b 97bd 52ed 003d 3d35 11be 058d e73d
00000200: aacd a33d d3c8 e73d c0f0 1cbe 0f5f 273e
00000210: 9f08 c03d 7af8 053e b218 c33d 6204 5ebc
00000220: cf95 21be 2f4c 073e dfbd 0ebe d049 25bd
00000230: 4208 14bc 4248 1c3e 32a9 4a3d 1890 c13d
-0.005509315 -0.10777544 0.13084948 -0.0636477 0.0018615492 0.14827685 0.12751986 -0.045132264
-0.034429092 -0.049978368 0.15869825 0.08792283 0.07960957 0.07253342 -0.02009686 -0.10773158
0.025306888 -0.01965561 -0.07394692 -0.14413679 -0.14895563 0.004785593 0.12884477 0.13123637
0.048379455 0.028585907 0.09409564 -0.15401654 -0.0047790096 0.047826514 -0.013349016 0.12418438
0.14096399 0.14070708 0.10844549 -0.01794228 -0.033217292 0.11772748 0.14452724 0.0837127
-0.012989783 -0.006899265 -0.12873073 0.035069548 0.15361121 0.1435513 -0.092494935 -0.11244337
-0.053513784 -0.055362735 0.06851127 -0.048209786 -0.10431893 -0.108549304 -0.07397956 0.04302482
0.11104773 0.15954584 -0.017583538 0.042396944 -0.036147468 0.09322646 0.026014615 -0.034496717
0.027524406 -0.05426027 -0.11238993 0.07657355 0.15443055 0.036804717 -0.011938055 0.15108404
0.10022931 -0.07525924 -0.10870255 0.09322401 0.032123603 -0.13333124 -0.06510386 -0.07007948
0.013556734 -0.1556229 0.0425108 0.14908181 0.09287055 -0.09761791 0.13528815 0.0370974
-0.06738537 -0.09344252 -0.10445543 0.056959067 -0.0878911 -0.10720261 0.12523313 -0.05362539
0.08403875 -0.13011295 0.07138511 0.15817891 0.05125353 0.048790865 -0.13154806 0.017238697
-0.022026286 -0.15241766 0.11330986 0.0017619986 -0.14660308 0.03169668 0.089702494 -0.10161973
0.15742953 0.10458253 -0.047876608 0.020668445 0.12954988 -0.0043588895 0.13590965 -0.11006474
0.058593005 0.09143877 -0.11198355 -0.010362402 -0.07375258 0.031476326 -0.14180465 0.11306194
0.07998212 0.11317601 -0.15326214 0.16344856 0.09376644 0.13083068 0.09526195 -0.01355085
-0.15779804 0.13212655 -0.13939618 -0.040353596 -0.009035172 0.15261939 0.049477763 0.09451312

conv_block_2.5.bias f4 [4]
00000000: 7d4c f63c 800e ab3d 3959 aabd 3e66 4fbc
0.03006577 0.08352375 -0.08317799 -0.012658654

conv_block_3.0.weight f4 [4]
00000000: 92ff 7f3f 0a00 803f daff 7f3f 3b00 803f
0.99999344 1.0000012 0.99999774 1.000007

conv_block_3.0.bias f4 [4]
00000000: f641 f2b5 80d9 40b2 6ecc 3235 999e 1e36
-1.8049602e-06 -1.1225325e-08 6.660765e-07 2.363615e-06

conv_block_3.0.running_mean f4 [4]
00000000: 0af2 8e3d ed1d 863d 04c5 6cbb 2508 903d
0.06979759 0.06548677 -0.0036128173 0.070328034

conv_block_3.0.running_var f4 [4]
00000000: cd67 593f 422c 573f 5610 503f 7995 693f
0.8492401 0.8405191 0.81274927 0.912437

conv_block_3.2.weight f4 [8, 4, 3, 3]
00000000: 07fb 863d 30e4 0abe 63f9 623d a6d5 003b
00000010: 1119 a0bc ee67 c53d 6969 c63c 6cbf 153e
00000020: f1d7 f73d 8126 25be 68dc c3bd a6c0 213e
00000030: 907c 9ebd bf28 8a3d 1ceb 043e d1f1 eebd
00000040: d36b dc3d bfb2 86bd 25b0 2d3d 652a 983d
00000050: abcc e0bd 3254 3bbb f965 dd3d b29e a83d
00000060: 34f3 dc3d 08e2 203e 5a4c b13d ad96 263e
00000070: 3fae 223e 4a5b 9dbd ec4d af3d eed9 173e
00000080: adf6 22be e79a c23d 27fe c9bd 4268 623d
00000090: ad08 b3bd 4c81 fd3d 84dc fc3d cfcc 073c
000000a0: 9d5c 5d3d 56ad 993d ac37 e63d 9c8d 08be
000000b0: dc0d 5c3d 3c64 13bd e8a2 bbbd 7054 593d
000000c0: 3c74 e1bd de42 9e3d a51a a33d 663b 92bd
000000d0: 6474 0d3d 84b3 28be 0d26 063e 47f6 cabc
000000e0: efcb 0ebe d60d 2bbd 6dcd 953d dc3e f33c
000000f0: a1fc b03d c108 af3c 88a5 c53d 2ccd d73d
00000100: f82f a33c 4de1 80bd c03b fa3d 6100 b93d
00000110: 80d4 debd 6199 4cbd 8af8 18be 91bc 573d
00000120: 1ffd 43ba 433e 453c db81 13be a817 fb3c
00000130: 1f38 67bb 7683 fb3c 9093 28bd 0232 a3bd
00000140: 9b74 bcbd 2d7c e13d 75e6 c83c 5100 b63d
00000150: 7414 a3bc 895c ba3d ac82 483c 3912 8cbd
00000160: 3732 ef3c 4499 1ebe d5fe a93d 772b e33d
00000170: f18e 673b 6b31 b23d db2d 8cbd 40e5 483d
00000180: 4379 813c 8ed0 e63d 9ee5 96bc 19eb a63d
00000190: 3b96 e73b e00d 143e aafa 233e 68da e13c
000001a0: fba4 42bd e771 003e dde9 193e 0408 5d3d
000001b0: 05f0 eabd 5126 dabd 5f9d 05be 3dc6 203e
000001c0: 316c 1dbd b599 88bd 9a88 473b 680d 323c
000001d0: de52 d73c faf6 043e 0e1b 68bb e166 0c3e
000001e0: 303d b43d 8668 e63c d866 d83c 341b b2bd
000001f0: 2843 27be 68e0 f73c 554b debc 2bb8 0e3d
00000200: 65b9 d03d 5027 f7bd 0d55 063b 42ae c03d
00000210: 1265 16bd fec9 b43c c36a 6a3d 69ba b6bd
00000220: 943d 11be ba67 30bb 2bbd 0c3d ed31 87bd
00000230: 5b39 0c3e 11fc 1b3d ff24 20be e94f 673d
00000240: 2cc4 d13d 4c00 9abc 6767 ddbb 3ea9 3cbd
00000250: e8b7 d2bd 8653 2abe 3c78 86bd 34fd 6abd
00000260: 604d 3abd b904 a3bd e44e ce3d bc73 d03b
00000270: 19a3 dabd 5827 aa3d e59b a3bc 90e4 ce3b
00000280: 1c67 9e3d ba08 06bd 4c8c 1cbe 7326 a8bd
00000290: 1a35 af3b 2ea7 1bbe 3ce2 ae3d f6b8 f13d
000002a0: 5466 783c 05ac f13c fdf6 0e3e 5f26 0f3e
000002b0: 6d74 cf3d feb5 193e 920e 4e3d 7c68 1e3e
000002c0: e07e 963d bfd8 413d 930b a8bd 4441 01be
000002d0: ada9 58bd d7b5 283e e3aa 23be 4253 37bd
000002e0: cfa1 f83d 0670 ef3a 2815 083e 598e 6239
000002f0: 6953 81bd c406 73bd 0c01 8e3d 1953 d43d
00000300: 26a2 ab3d c5aa ec3d fab2 a53d 345d a3bc
00000310: 0050 1a3e f912 25bc 2896 b03d a94d 02be
00000320: 5d17 e93d 8c1f b93c 94ee 41bd c64b e0bd
00000330: a053 8c3d 500e 203e 80d5 903d 6a15 e73d
00000340: 7b05 b23d 4cb1 38bd e2ae 963b 942e e4bd
00000350: 8acc 10bd eb9a 0f3e 6171 3cbd 2296 fcbc
00000360: b504 e0bc 9bd1 213d bee3 f6bd eaab a2bc
00000370: a758 fe3d 3081 1abe 3f40 06be a02f a0bd
00000380: 96e5 fc3d 9833 8b3d f194 b6bd f457 96bd
00000390: 53e7 c7bd b1bd c83d bb63 1bbd 8e7a 88bd
000003a0: 654b d3bd 57a5 00be 9f34 843d 3ca0 b73d
000003b0: 6c87 20be 2294 143e 0706 973d 9043 1c3e
000003c0: afad 9cbc 949a f9bd 8359 18be c4d5 9ebd
000003d0: 6bf4 e1bd f22a 51bc ce1b 233e c0b3 073e
000003e0: b810 ebbd 6905 0e3e 6006 663d b44b 04be
000003f0: c530 753d 0a6c a73d d65f 23bc 3e9a d3bd
0.065908484 -0.13563609 0.055413615 0.0019658594 -0.019543203 0.09638964 0.024220185 0.14623803
0.121017344 -0.1612797 -0.095635235 0.15796146 -0.07738602 0.06746053 0.12980312 -0.116672166
0.10762753 -0.06577062 0.042404313 0.07429961 -0.10976537 -0.002858412 0.10810465 0.08233394
0.10788575 0.15711224 0.08657141 0.16268416 0.15886782 -0.07683428 0.08559784 0.14829227
-0.15914412 0.095022015 -0.09862929 0.05527521 -0.08741889 0.12378177 0.123467475 0.008288576
0.0540434 0.07503764 0.11241087 -0.1333527 0.053724155 -0.035984263 -0.09161931 0.05305904
-0.11008498 0.07727598 0.079640664 -0.071402356 0.034534827 -0.1647473 0.13100453 -0.024775637
-0.13944982 -0.04176124 0.073145725 0.02969306 0.08641935 0.021366479 0.09650713 0.1053718
0.019920334 -0.06292973 0.12218428 0.090332754 -0.10880375 -0.04995096 -0.1493856 0.052670065
-0.00074763777 0.01203877 -0.14405005 0.030650929 -0.0035281254 0.030702334 -0.04115635 -0.079685226
-0.09201928 0.11010013 0.024523953 0.08886779 -0.019907214 0.09099681 0.012238186 -0.06839413
0.029198749 -0.15488154 0.083005585 0.11092275 0.0035333002 0.08700832 -0.06844684 0.049046755
0.015804892 0.112702474 -0.018420037 0.0815031 0.0070674694 0.14458418 0.1601359 0.027569965
-0.04752062 0.1254345 0.15030618 0.053962722 -0.11471561 -0.106518395 -0.13048314 0.15700622
-0.038433257 -0.06669942 0.003044641 0.010867454 0.026284631 0.12984839 -0.0035416516 0.1371112
0.08800733 0.028126013 0.026416227 -0.08696595 -0.16334212 0.030258372 -0.02713553 0.034843605
0.10191611 -0.12068045 0.0020497472 0.09408237 -0.036717482 0.022068974 0.057230722 -0.08922274
-0.14183646 -0.0026917295 0.034360092 -0.066013195 0.13693754 0.038082186 -0.15639113 0.056472693
0.10242495 -0.01879897 -0.0067567113 -0.04605984 -0.102889836 -0.16633424 -0.06565902 -0.05737038
-0.045483947 -0.07959885 0.10073641 0.006361453 -0.1067564 0.083082855 -0.019971797 0.006313868
0.0773451 -0.032723166 -0.15287894 -0.082104586 0.0053469064 -0.15200493 0.085392445 0.118028566
0.015161116 0.02950097 0.13961406 0.13979481 0.10129628 0.15010831 0.050306864 0.15469545
0.07348418 0.047325846 -0.082053326 -0.12622553 -0.05289619 0.16475616 -0.15983157 -0.044757135
0.121402375 0.0018267639 0.1328932 0.00021606068 -0.06314737 -0.059332624 0.069337934 0.10367412
0.08380537 0.11556009 0.08090778 -0.019941904 0.1506958 -0.010075324 0.0862239 -0.12724937
0.11381409 0.02259805 -0.047346666 -0.10951953 0.06851888 0.1563046 0.07071972 0.11283381
0.086924516 -0.04509096 0.0045984844 -0.111416966 -0.035351314 0.1402394 -0.046006564 -0.030833308
-0.027345994 0.039506536 -0.12055157 -0.019857366 0.12419253 -0.15088344 -0.13110445 -0.07821584
0.123484775 0.0679695 -0.08915127 -0.073409945 -0.097609185 0.09801806 -0.037936907 -0.066640005
-0.10317115 -0.12563072 0.06455349 0.08966109 -0.1567666 0.14509633 0.073741965 0.15260148
-0.019125788 -0.121876866 -0.14877896 -0.07755616 -0.11032947 -0.012766587 0.15928575 0.13252163
-0.11477798 0.13869251 0.056158423 -0.12919503 0.059860963 0.08174904 -0.00997158 -0.10332154

conv_block_3.2.bias f4 [8]
00000000: b2b4 023e 395a 03be 7e5a 9a3b b94f 8c3d
00000010: 945b 40bd 7e58 d3bc b01a 24be 54fe ed3d
0.12764242 -0.12827386 0.0047104945 0.068511434 -0.046962336 -0.025799032 -0.16025805 0.11620775

conv_block_3.3.weight f4 [8]
00000000: 1200 803f 9eff 7f3f e8ff 7f3f dcff 7f3f
00000010: 4800 803f a8ff 7f3f f1ff 7f3f 1f00 803f
1.0000021 0.99999416 0.99999857 0.99999785 1.0000086 0.99999475 0.9999991 1.0000037

conv_block_3.3.bias f4 [8]
00000000: 768d 33b5 ad56 05b5 f8dc b134 58f4 1135
00000010: 3800 3b36 8c84 cc35 8ce2 0bb6 e9c6 84b5
-6.688855e-07 -4.967249e-07 3.3129595e-07 5.4372276e-07 2.7865299e-06 1.5237761e-06 -2.0844482e-06 -9.892657e-07

conv_block_3.3.running_mean f4 [8]
00000000: 5b1b ba3d 6c97 a3bb 215d 3f3d 4d21 023a
00000010: e40a 89bb 810a 2c3d b00c 73bd f6f8 fd3c
0.09087249 -0.004992416 0.046719674 0.00049640686 -0.0041822065 0.042002205 -0.05933827 0.031002503

conv_block_3.3.running_var f4 [8]
00000000: 0981 643f 4e57 533f cf1f 5c3f a3f6 563f
00000010: be49 573f b274 633f c4f3 5b3f d882 5a3f
0.8925939 0.8255509 0.85986036 0.8397009 0.84096897 0.8884994 0.8591883 0.853559

conv_block_3.5.weight f4 [8, 8, 3, 3]
00000000: a0d5 aa3d babd c93c d21b d2bd 533d b83c
00000010: 7451 dbbd 0454 f53c 3c7b 29bd 3a37 f0bd
00000020: 2c3c 973d c6fe e8bd 80e4 573d 7ff9 813c
00000030: 9acd c33d b04f d13d 7daf b13d de1f f5bc
00000040: e59e 193d d78b 3ebd 3de0 93bd c36b aa3d
00000050: 6140 6fbd 3aef b6bd 53d6 c63b e740 95bd
00000060: 8773 38bd 8140 ccbd 18bd 02bd 4731 c33d
00000070: 8850 6c3d e80d bdbc e51d b2bd cd16 86bc
00000080: 71f1 a4bd 2515 46bd cd99 bd3b ab50 dc3d
00000090: 6a1a 2bbd 2104 d63c 943a 903d 744d ddbb
000000a0: a4f3 cf3d 5e0a 3abb 4734 8f3d ee69 d13d
000000b0: fa54 333c 73d8 b13d d22d fdbc 6762 e7bd
000000c0: 5cd4 f73c 24a1 92bc 29be bcbd 166d d03d
000000d0: 3671 d6bc 580f 81bd 7535 2e3d 6605 6dbc
000000e0: 8a69 babd d642 64bc be1e b4bd cb09 833d
000000f0: 5260 27bd a034 9cbd bdc1 af3c 2703 29bd
00000100: b501 babc 76e0 333d 54a9 4dbd 0cb9 b93d
00000110: 8d34 82bd a3b1 583b 8b4c 953d f7f0 40bc
00000120: d845 d7bd 4de7 aabd d6de c93d 0a1b a9bb
00000130: 48af 97bd 2bfd 26bb 3be3 adbd 7961 843d
00000140: 26c0 f4bc 515f 803d 22bc d5bd 2455 e1bc
00000150: 361d 6b3d 440c d33d 7578 e03d 178a e23c
00000160: 0438 e03d 5da8 86bc 9e25 35bd 056a 4bbd
00000170: 1475 28bb 65af 4cbd 977e 273c f573 b0bb
00000180: c005 9dbd 1a56 c7bd e33b de3c b92f f3bc
00000190: 04a2 89bd a450 7b3d 69d4 d8bd 0af0 5e3d
000001a0: 7921 a6ba e654 c6bd 0eb1 a9bc b7e0 e23d
000001b0: bec7 473d 53fa 88bd 7f93 cfbc c612 373d
000001c0: a532 683d 47ca ce3d 3150 803d c7f2 a03b
000001d0: e225 cb3d 5fbd 9fbd 0582 2f3c 70bf 4f3d
000001e0: 702a aabd 4435 b43d 0ca7 32bd 5ddd b33d
000001f0: 416b a53c f192 ab3d 41ca 47bc 54f8 2f3c
00000200: e70b a23d b640 8b3d 9bf8 20bd af82 f03d
00000210: 32eb 31bd 7bba 5c3d a7c9 0a3d 7c84 41bd
00000220: 5f75 d33d 1716 7cbd de16 02bd dcdd 3b3d
00000230: a9f5 883d f532 9c3d a2b9 34bc 1517 1a3b
00000240: 99d2 94bc 41ef 48bd 7fb9 163d 1ee2 813d
00000250: 1d64 0a3c 341b 09bd ec75 d63d 69f1 993d
00000260: 3be8 323d eb9d a53c 3320 f7bc 43f8 a63d
00000270: a5ed 9cbd 8f72 aa3d c040 b43d 2fa6 6bbc
00000280: d612 923d 32d8 20bd 5441 4fbd 4ab7 473c
00000290: 61ba eb3d 567e 6a3d 092b 903b e44a afbd
000002a0: 5750 b3bd a4e1 dfbd 4b4b 963d a742 81bd
000002b0: d4e2 a8bd 8f86 4d3c 5aa2 d9bd b8ca c23c
000002c0: 8a81 c23d c329 153d 8ee9 ac3d 5bcf 10bd
000002d0: 7428 96bd 96a5 f7bb b5a3 9cbd 890b ef3c
000002e0: 2b2a e93c 394d 2e3d 4add b53d 6672 0e3d
000002f0: c0ab 6ebd f113 b63d 1b3f c2bd b060 d13d
00000300: 282c afbd 98a5 d4bd 3949 17bd 165f c03d
00000310: 1168 a83d cce5 c2bd 4172 e2bd b2a3 1a3d
00000320: 7fa8 33bd 51c0 8cbd f193 adbd e807 4cbd
00000330: 0d79 7b3d 2028 39bd 6780 8bbd 288c 0dbd
00000340: 30b7 49bd df61 ae3d 5eca 34bc fbf0 bcbd
00000350: 85ef 60bd d48b 283c 8549 503d 1901 18bd
00000360: 091b 07bb fcc6 a13d 2405 333d 888b 89bd
00000370: 1f31 d03c ca98 debc 53af c6bd 7cfb 54bd
00000380: eb74 493d e459 9abd 584f 733d 2a57 edba
00000390: c8c4 be3b 7e9a 07bb eb29 833d ebc2 e83d
000003a0: 1854 d4bd 2f3e 483d 4497 c23d 3f5b 15bd
000003b0: 8e56 3c3c 7e17 b9bd 25cd 5b3d 9ed2 ac3c
000003c0: b040 e33c 1e35 f7bc 53c3 1fbc a459 69bd
000003d0: 22b4 ea3d 3039 bf3d b5ba 83bc 119f cc3c
000003e0: a68e cbbd d1a4 5dbd 958b 6d3d c6b8 ae3d
000003f0: 192c afbd 79bd a1bd 94b3 ddbd 504e 183c
0.08341527 0.024626601 -0.102592126 0.02249018 -0.10708895 0.029947288 -0.04137729 -0.11729284
0.07384524 -0.11376719 0.05270815 0.01586604 0.095607 0.10220277 0.0867605 -0.029922422
0.03750505 -0.04652008 -0.072205044 0.08321335 -0.058411006 -0.089323476 0.00606803 -0.0728777
-0.04503205 -0.09973241 -0.031918615 0.09530883 0.057693988 -0.02307792 -0.08697108 -0.016368294
-0.08053864 -0.04836001 0.0057861567 0.10757574 -0.041773237 0.026125016 0.07042423 -0.006753618
0.10153893 -0.0028387527 0.06992393 0.102252826 0.010945553 0.086838625 -0.030905638 -0.11298066
0.030252628 -0.017899103 -0.09215958 0.101770565 -0.02617703 -0.06301755 0.04253145 -0.014466619
-0.09102161 -0.013931951 -0.08794926 0.06398352 -0.040863343 -0.07627225 0.021454686 -0.041262772
-0.022705892 0.043915235 -0.050210312 0.09068498 -0.063576795 0.0033064864 0.0728999 -0.0117762005
-0.105113685 -0.083448984 0.09856956 -0.005160694 -0.07406479 -0.002548049 -0.084906064 0.06463904
-0.02987678 0.0626818 -0.10436274 -0.027506419 0.057400905 0.10305074 0.10960475 0.027653737
0.10948184 -0.016437704 -0.044225328 -0.049661655 -0.002570455 -0.049971957 0.010223052 -0.005384917
-0.07667112 -0.097332194 0.027128166 -0.029685842 -0.06720355 0.0613562 -0.10587389 0.054428138
-0.001267477 -0.09684162 -0.020714309 0.11078017 0.048774473 -0.066883706 -0.025338886 0.044695638
0.056688923 0.10097175 0.06265295 0.004911754 0.09919335 -0.077997915 0.010712151 0.05071968
-0.083088756 0.08799222 -0.04361634 0.08782456 0.020192744 0.08377636 -0.012194217 0.010740358
0.079124264 0.06799452 -0.03929959 0.11743676 -0.04343719 0.05388878 0.033883717 -0.047245488
0.10325121 -0.061544504 -0.03176009 0.04586588 0.06687481 0.07626907 -0.011030586 0.0023512293
-0.018166827 -0.049056295 0.036797997 0.063419566 0.00844672 -0.03347321 0.104717106 0.075167485
0.043678503 0.020216903 -0.030166721 0.08152821 -0.076625146 0.083226316 0.088014126 -0.014382883
0.07132499 -0.03926868 -0.05059941 0.012189696 0.11510158 0.05724939 0.0043996614 -0.08559206
-0.08755558 -0.109317094 0.0733858 -0.06311541 -0.08246389 0.012544288 -0.10626669 0.023778304
0.09497364 0.03641678 0.084429845 -0.035354 -0.073319346 -0.007557581 -0.07648412 0.029180305
0.02846249 0.042554114 0.08880098 0.034777068 -0.058269262 0.08890522 -0.09484693 0.1022352
-0.08553344 -0.10383147 -0.036935065 0.09393136 0.08222974 -0.095164865 -0.110569485 0.03775377
-0.043861862 -0.06872619 -0.08475483 -0.049812227 0.06139474 -0.04520428 -0.068116 -0.03455749
-0.049246967 0.08514761 -0.011034576 -0.09225651 -0.054915924 0.010287244 0.050851364 -0.03711042
-0.002061548 0.078992814 0.043706074 -0.067160666 0.025414048 -0.027172465 -0.09701409 -0.051997647
0.049183767 -0.075366765 0.05940184 -0.0018107642 0.005821798 -0.002069145 0.064044796 0.11365303
-0.10367602 0.048887428 0.09501508 -0.036463972 0.011495246 -0.09037684 0.053662438 0.021096524
0.027740806 -0.030176695 -0.009751159 -0.056970254 0.11460139 0.093370795 -0.01608024 0.024978193
-0.099393174 -0.05411226 0.057994444 0.085313365 -0.08553333 -0.07897467 -0.108252674 0.009296015

conv_block_3.5.bias f4 [8]
00000000: bea7 d9bb 3e6b bd3b 46cd 383c 6abc b63c
00000010: d4c4 57bd 6aa7 b0bc 5323 9f3d 081f 433d
-0.006642311 0.0057806065 0.01127941 0.02230664 -0.052677944 -0.021564204 0.077704094 0.047637016

conv_block_4.0.weight f4 [8]
00000000: 0700 803f daff 7f3f e7ff 7f3f b8ff 7f3f
00000010: 1e00 803f dcff 7f3f 1200 803f 1300 803f
1.0000008 0.99999774 0.9999985 0.9999957 1.0000036 0.99999785 1.0000021 1.0000023

conv_block_4.0.bias f4 [8]
00000000: 7408 0835 627c 8d35 8807 8633 a3dd 88b5
00000010: 0686 8fb3 38ab 27b6 f2bf 0035 b955 ae35
5.067625e-07 1.0541519e-06 6.241231e-08 -1.0197294e-06 -6.683335e-08 -2.4984602e-06 4.7963033e-07 1.2988959e-06

conv_block_4.0.running_mean f4 [8]
00000000: 5f7e 553b 349a 683d 1fcf 993c f240 7d3c
00000010: abd3 1b3d acf4 13bc ccf2 503b 7085 9f3d
0.0032576544 0.056787685 0.01877552 0.015457379 0.03804366 -0.009030502 0.0031883 0.07789123

conv_block_4.0.running_var f4 [8]
00000000: dc57 503f 9a45 573f 0858 543f 3579 513f
00000010: 61c5 583f dfc4 503f 4fdc 503f b74d 563f
0.8138406 0.8409058 0.82946825 0.8182557 0.84676176 0.815504 0.81586164 0.83712333

conv_block_4.2.weight f4 [16, 8, 3, 3]
00000000: 33fb 9bbd 9e15 9b3d ee84 b13c 1caf 973d
00000010: 149e 96bd f95e 753d f80d d43d 87e6 933d
00000020: d1e6 aabd bfe8 0f3d 4043 63bc 6014 1bbc
00000030: db44 ba3a e274 a0bd 4640 42bd 4499 863c
00000040: ad24 f1bd ff56 ac3d de9b 413d ad97 e53d
00000050: cdca 88bd d982 ca3d b9f6 2fbd 4881 753d
00000060: 8836 a43d 0ce2 ce3d 5639 8d3d 5202 0e3d
00000070: 7542 733d e71f d2bc 9502 eb3d 2448 a6bd
00000080: d63e 2cbd 4f88 b3bd 1ec6 ab3d 6436 513d
00000090: 0c6f b13d 73b1 d7bd 872b 383d 32dc d4bd
000000a0: fe5b 0f3c ac55 ddbd feb9 8b3c cd36 6abd
000000b0: f060 9d3d 375e 79bd d0d6 e33d 0247 5bbd
000000c0: 9307 e2bd 56ff dd3d 451e 623d ce4b b8bd
000000d0: d98e d93c b325 a63d 4924 bebd 9ea9 86bd
000000e0: 2667 653d 6b44 023d f0e8 933c bdfd 813d
000000f0: 32c9 013d 3c7b 59bd fbdc e6bd 65de 52bd
00000100: 17d4 4d3d a7a4 d43d 5655 aebd dcd1 ed3d
00000110: 6189 e63d 27c2 593d ae8d 8abd 75ce b2bc
00000120: b622 20bd 7678 af3d f243 66bc 0a00 8bbd
00000130: 4294 123d ebcf 0cbb a4d8 c43d 4b3f 1cbd
00000140: 4173 d63c e8c9 0fbd 9d1c 953d 0084 28bd
00000150: 9447 033d da9c c1bd c411 b3bd 7bf7 2e3d
00000160: 7286 0cbc 1a5b 873d c79f 67bd 678b 98bd
00000170: 2985 d7bd f2e7 663d d8d9 e7bc 7b48 883b
00000180: b770 55bd 86e1 543d 0ecf c8bd 10d8 783d
00000190: 2a94 fe3c d5bd 573d f59e 863d 2201 b53d
000001a0: d872 4dbd 7812 933d 212e 0c3d 7299 9e3c
000001b0: a821 733d 994d 31bd 0a94 d1bd f7a1 313c
000001c0: a611 ed3b b0b1 3c3c 6b39 8d3d 3092 07bb
000001d0: fdd7 59bd b379 96bd 1907 293d 9871 bb3d
000001e0: a2b4 51bd a0bb 9bbd 3c33 c43d 1b43 dabd
000001f0: f679 503d 159b 3cbd fe68 a73d c617 80bd
00000200: fefd c03d 140e cf3c 30b2 e9bc cff1 d7bd
00000210: 074a 8dbd 31ef 883c ccae bebd 6edf 883d
00000220: 1537 3d3d 732f 97bb f2e5 4a3d 2754 8bbd
00000230: 5399 2abd 9d19 a9bd 076b e93d 969c d2bd
00000240: 9246 893d a9bd 183c cd0c edbd a8f2 c6bd
00000250: 529b 60bd c732 503d 08e8 cc3c 6ed4 2f3d
00000260: e7ce 82bd eede 4ebc 2def b5bd ef60 e2bd
00000270: e8cb 243d f239 4e3d a010 a23d 7a7c d4bd
00000280: 7226 813d 59a4 f33c d003 dabd 8c2f 46bd
00000290: 6d17 7b3d ef97 cabd 86db d8bd 3dc0 85bd
000002a0: 3a9f 713c 133e 45bd 5feb 753d f02f 69bc
000002b0: caff edbd 4b65 14bc 5ac5 e3bd 6629 2c3d
000002c0: 05fb b2bd 57e0 373d 93e3 47bd 7ba0 a0bd
000002d0: cb0f e43d 9d83 563d 3192 dfbd 6b72 893d
000002e0: a590 8f3b f824 bc3d 0573 c43d 0c55 d83d
000002f0: 44a7 c03d b8eb 863c 811e f03c d94c e23c
00000300: 148a 853d 96a0 1d3d a3d8 8e3c 41af c9bd
00000310: cd77 5fbd 2e0c a0bd a10a f03c e7fd 53bd
00000320: 1e6c 14bd 01bf 833c 9c9c b9bd 67c0 323d
00000330: 51ba e1bd f4f5 1bbc af2e eabc c2ea b3bd
00000340: 9b6e edbd 3774 9fbd 08ae af3d 6f4e 213d
00000350: d42f 8bbc fbfc 943c 1387 dabd 0ab8 063d
00000360: c337 b73d ffba 763d f156 af3d b5bc b6bc
00000370: d2b2 f8bc 06ec 833d 7bd1 a4bd 4c8e 92bd
00000380: 21b8 cf3d b936 ac3d 46b6 a1bd d7ea 5ebd
00000390: 5d3d 70bd d260 693d 3216 62bc f81d a7bd
000003a0: d959 e1bb aa08 1fbc d4cf 8dbd 7a9b cbbd
000003b0: 727b 85bd bacf e43d 3879 79bd 4762 c83d
000003c0: 9fc8 80bc 83a2 c53d 3247 893d dab6 6f3d
000003d0: d3a4 98bd f4d8 1ebd 4062 0bbd cea4 ac3d
000003e0: c047 5a3d a30c e5bd 635f c13c a148 b1bd
000003f0: 26b2 10bd 0f97 d33d 44d5 bb3c b882 693d
-0.07616272 0.075724825 0.021669831 0.07406446 -0.0735437 0.059905026 0.10354227 0.07221704
-0.08344806 0.035134073 -0.013871014 -0.009465307 0.0014211194 -0.078347936 -0.047424577 0.016430505
-0.117745735 0.08415031 0.047267787 0.112105705 -0.06679306 0.098882385 -0.042959902 0.059937745
0.080182135 0.10101709 0.068957016 0.03467018 0.05938955 -0.025649978 0.11475102 -0.081192285
-0.042052113 -0.08766233 0.08387397 0.05107726 0.08663759 -0.10531893 0.044963386 -0.103935614
0.00874996 -0.10807356 0.017056461 -0.05718117 0.07684505 -0.060880866 0.111249566 -0.053534515
-0.11036601 0.10839717 0.05520465 -0.089988336 0.026557373 0.08112659 -0.092842646 -0.06575321
0.056006573 0.03180353 0.01805541 0.06347225 0.031686015 -0.05309604 -0.112726174 -0.051481623
0.050251093 0.103829674 -0.0851237 0.11612293 0.11256672 0.053163674 -0.067653045 -0.021826962
-0.039095603 0.08567898 -0.014054285 -0.06787117 0.03578592 -0.0021486233 0.096116334 -0.0381463
0.026178004 -0.035104662 0.07280848 -0.04114151 0.032050684 -0.09453745 -0.08743623 0.042716485
-0.008576976 0.06609173 -0.05654886 -0.07448464 -0.10523445 0.056373544 -0.028302118 0.004159031
-0.052109446 0.05197289 -0.098051175 0.06075293 0.03107651 0.052671272 0.065732874 0.08838107
-0.05015835 0.07181257 0.03422368 0.019360278 0.05935827 -0.043286894 -0.10233314 0.010841838
0.00723477 0.011516973 0.06895717 -0.00206865 -0.053184498 -0.07347431 0.041266534 0.09152526
-0.051197655 -0.07604146 0.09580085 -0.106573306 0.05089756 -0.046046335 0.081743225 -0.062545344
0.09423445 0.025275268 -0.02852735 -0.10544168 -0.06898885 0.016715618 -0.093106836 0.06683241
0.04619511 -0.0046138107 0.0495357 -0.0680316 -0.041650128 -0.082568385 0.11397367 -0.10283773
0.06702913 0.009322562 -0.11574707 -0.09714252 -0.054835625 0.050829675 0.025012985 0.042927198
-0.0638712 -0.012626393 -0.0888351 -0.11053645 0.040233523 0.05034823 0.07913327 -0.103753045
0.06306161 0.029741453 -0.106452584 -0.048385188 0.061301637 -0.0989226 -0.10588746 -0.06530807
0.014747435 -0.0481549 0.06003892 -0.014232621 -0.116210535 -0.009057353 -0.11121626 0.042031668
-0.087392844 0.04489168 -0.048801016 -0.07843109 0.11135825 0.05237161 -0.10916556 0.067112766
0.0043812566 0.09186739 0.09592251 0.105630964 0.094069034 0.016469821 0.02931142 0.027624534
0.06520477 0.038483225 0.017437285 -0.0984788 -0.05455761 -0.07814823 0.029301943 -0.051755812
-0.03623592 0.016082289 -0.09063074 0.04364052 -0.11021865 -0.009519089 -0.028586714 -0.08785011
-0.11593362 -0.07785838 0.08578116 0.03938144 -0.01699058 0.018187037 -0.106702946 0.032890357
0.089461826 0.060236927 0.08561505 -0.02230678 -0.030358706 0.06441502 -0.08047768 -0.07156047
0.10142542 0.08408875 -0.07896094 -0.05442318 -0.05865227 0.0569771 -0.013799237 -0.08160013
-0.0068771658 -0.0097066555 -0.06924406 -0.09941764 -0.06517686 0.11172433 -0.06090662 0.0978437
-0.015720664 0.09650137 0.067030326 0.05852399 -0.07453313 -0.03878112 -0.034029245 0.084298715
0.053291082 -0.11184051 0.023605054 -0.08656431 -0.035326146 0.103315465 0.022928841 0.05700943

conv_block_4.2.bias f4 [16]
00000000: 8a61 1ebd de3e 8c3d ba25 883d 8492 533d
00000010: e1e5 a33d b606 5c3c 5c10 afbd 4249 df3c
00000020: db6e 7e3d 8295 a0bd c061 883d b69f 213c
00000030: 24bf 353d bdd5 13bd 2719 86bc 1715 bd3d
-0.03866724 0.068479285 0.06647821 0.0516534 0.0800283 0.013429334 -0.08548042 0.027256612
0.06211744 -0.07841016 0.06659269 0.009864738 0.04437174 -0.03609251 -0.016369415 0.09232538

conv_block_4.3.weight f4 [16]
00000000: ffff 7f3f faff 7f3f edff 7f3f d3ff 7f3f
00000010: 1800 803f f9ff 7f3f 0400 803f f3ff 7f3f
00000020: 0a00 803f 0200 803f 0400 803f 1300 803f
00000030: f8ff 7f3f c2ff 7f3f 0700 803f edff 7f3f
0.99999994 0.99999964 0.99999887 0.9999973 1.0000029 0.9999996 1.0000005 0.9999992
1.0000012 1.0000002 1.0000005 1.0000023 0.9999995 0.9999963 1.0000008 0.99999887

conv_block_4.3.bias f4 [16]
00000000: 86fc c0b4 8d6f 18b4 1b5d ccb5 8d2c 0334
00000010: d975 f034 95de 7f35 21c0 e235 a897 dc33
00000020: 43be 35b4 a9f3 2f35 cc4d eeb4 579d 2e35
00000030: 7cf0 5bb5 d4cd b2b5 e2d1 afb4 e587 8035
-3.5946522e-07 -1.4196685e-07 -1.5226282e-06 1.2216533e-07 4.478923e-07 9.53188e-07 1.6894229e-06 1.02721344e-07
-1.6926155e-07 6.554715e-07 -4.438756e-07 6.504901e-07 -8.193381e-07 -1.3321937e-06 -3.2749e-07 9.576294e-07

conv_block_4.3.running_mean f4 [16]
00000000: 67ad fd3c 7f36 e9bb e19e 12bd 9be2 363d
00000010: 2333 e33c 4236 b23c 401c 31bc 819a 853c
00000020: b618 9e3c 4d31 90bd 77e2 a63c 3d3e 273c
00000030: d3a7 3bbd 34bb 913c 74c3 e3bc 97f3 d53c
0.030966474 -0.007117092 -0.03579605 0.0446497 0.027734345 0.021754388 -0.010809958 0.016309025
0.019298892 -0.070406534 0.020371659 0.01020771 -0.045814347 0.01778946 -0.02780316 0.02611713

conv_block_4.3.running_var f4 [16]
00000000: 6155 583f 4c87 553f 4913 5c3f f5f2 553f
00000010: bd57 563f 5b4e 553f f95e 573f 7bdc 553f
00000020: d795 553f 69ad 623f c99c 543f a285 543f
00000030: 6967 593f f138 5f3f eeee 5a3f d14d 563f
0.8450528 0.8340957 0.85966927 0.8357385 0.8372763 0.83322686 0.8412929 0.8353955
0.8343176 0.8854585 0.83051735 0.8301641 0.84923416 0.8719626 0.8552083 0.8371249

conv_block_4.5.weight f4 [16, 16, 3, 3]
00000000: 1ef2 ae3b 0b63 8a3d afd6 60bd 4cc3 8b3c
00000010: b23f 15bd 574c 0d3d 03e6 a8bd 0908 8dbb
00000020: 9ec6 783d 98e2 9ebc e104 573d 6c89 78bd
00000030: d9df 99bc 2aab 673d abac a2bc 8d1a 143d
00000040: 9006 0bbd 1973 133d 78e4 db3c 54ed 1c3c
00000050: bce3 e4bc 420c 853c 4bd4 653d 6c5c 363d
00000060: 6b02 613d e964 813d 1cf1 0e3d cef0 053d
00000070: ef25 b9bc 5975 a23d d59e b73c d0e8 67bc
00000080: f369 48bd 150b 96bd 4c71 a1bd bb30 0bbd
00000090: 8d32 18bd c746 8abc 50f1 83bc d419 74bd
000000a0: 0012 a7bd a37b 963d 2c48 803d ee81 a9bd
000000b0: 5faf 013d e1d9 da3c e510 6e3d 7f82 493d
000000c0: 6a71 513d 327d 15bd 2b47 8f3c 98d0 eb3c
000000d0: 051b 653d 2ce9 b4bc b2bf 563d 605c 413d
000000e0: 4bf5 2a3d 88a3 363d 9023 47bd 2cc3 a23d
000000f0: e299 d1bb fcf8 ff3a aa12 623d 1488 9d3d
00000100: 9572 9d3d 48ff a93d 6341 27bc 25d1 5f3d
00000110: d0c7 6abd 58b7 8bbc 5cb2 cdbc a193 da3c
00000120: 269b 533d 53ec 903d 7c3e b83c 7f47 39bc
00000130: 5be3 383d 28a9 89bd c965 7a3d e09c 69bd
00000140: 4e9a 00bd a006 37bd a2f6 97bd 4df6 32bc
00000150: b237 e23c 88cf d73c 1997 71bd f231 86bd
00000160: 1113 80bc b536 983d f70e c2bc 1595 2b3d
00000170: baa7 a23d 27b5 3639 3e17 8abd 9824 8e3d
00000180: 3d40 88bd 6dd2 82bd 873d 3f3d ff57 293d
00000190: 2202 513d 4425 8c3d d1c5 64bd a8dd 7abb
000001a0: 8162 04bc 8395 09ba aa78 173d 8a58 c03c
000001b0: 0de1 10bd 76e2 79bd ab05 853c 4c71 ea3b
000001c0: 0d35 74bd 40c1 a0bd 53b7 5c3b 2bad 27bb
000001d0: 22f5 08bd 5fb6 a03d c0a8 58bd 7b44 413d
000001e0: 4e4a 793d e7b0 87bc 5529 343d 7de2 65bd
000001f0: 65e9 923a 6f0b a63d d351 85bd 1ff4 9abc
00000200: 28e2 e33c 9297 9abd e894 933c 6397 9cbd
00000210: acd8 9ebc d433 f33c 9b8f bbbc b39c 1a3d
00000220: 9a60 7e3d b80f 123c 8a64 6bbd e0ba 41bd
00000230: 35af 353d b979 613d 5bbe d83c 60ee 9b3c
00000240: a585 bfb9 ca2c 113d c944 96bd c352 9d3c
00000250: f16f e53a 69e6 9abd dbb4 8a3d da79 85bd
00000260: 180a 863c bc17 643c 98ae 933d 3c27 4e3d
00000270: 4b7f 083d 1af4 a0bd ef0e 75bd 8a18 37bc
00000280: 669a 7c3d 05a6 14bd ee0b d4bb 0bb9 9f3d
00000290: 8f3d 9dbc 83a1 58bd 272f 3bbb e82f 0fbd
000002a0: db78 75bd b618 cbbc 1d17 33bb 4f0b 41bc
000002b0: da5b c23c 40ab 35bd 730a 15bd 3031 f2bc
000002c0: 6ce1 02bd 1174 19bd e831 a63d 17ff 013c
000002d0: 3a31 d13c 3635 95bc 4ccf 95bd 929c 583d
000002e0: 52bf 863c 05d2 3a3d b845 fc3c 7fc4 86bd
000002f0: 3b23 c63c 4056 893d 369c 973d a2db 7f3d
00000300: cc3b f6bb 8f88 5d3d a8fc 86bd f229 7f3d
00000310: 1daa 3abd b932 44bd c639 38bd 151e 903c
00000320: f00f b3bc abb8 9abd ed4f 273c 3269 6bbb
00000330: 8bc1 92bd 16c9 53bd 8095 963c 8eae 423d
00000340: dbf0 a4bd fdad 4f3d 6eeb 01bc 205b 893d
00000350: 5f47 423d 704b bcbb 7001 9cbc 7bc0 783d
00000360: f628 8fbd e2d9 0cbd 2e48 eabc 5edd 4cbd
00000370: fe70 60bc c0c7 ba3b 43fc 48bb 72a9 693c
00000380: 5b38 833d fcee 16bd 7b6e 04bd 94c8 7c3c
00000390: 85f7 a9bd b849 13bd ff46 803c bb9a 7bbc
000003a0: 349b 9abd c540 6d3d a7ea f73b 4592 d43c
000003b0: d4ba 9cbd bd9f 52bd 37a6 54bd 4902 aa3d
000003c0: bff8 cbbb 682a a63d 420c eb3b b974 f43a
000003d0: 8808 32bc dfce afb7 052a 603d caca 4f3d
000003e0: 70aa 9f3c aa03 3cbc 4403 0bbc 71a0 893d
000003f0: 0cf0 873d 12e2 473b 510a 9abd f9e7 14bd
0.005338921 0.06757172 -0.05489224 0.017060898 -0.036437698 0.03449663 -0.08246996 -0.0043039364
0.06073629 -0.019395158 0.052494887 -0.06067793 -0.018783497 0.05655972 -0.019857725 0.036158133
-0.033941805 0.035998438 0.02684234 0.009578068 -0.027940623 0.016241197 0.05611066 0.044521734
0.054933947 0.06318075 0.03489791 0.032700352 -0.022601096 0.079325385 0.022414604 -0.014154628
-0.048929166 -0.073263325 -0.07882938 -0.03398202 -0.037157584 -0.016879452 -0.016106278 -0.059594944
-0.0815773 0.073478006 0.06263766 -0.08276735 0.031661388 0.02671522 0.05812158 0.049196716
0.05113355 -0.03649635 0.01748999 0.028785989 0.05593397 -0.022083841 0.05242891 0.047207236
0.041737836 0.04458955 -0.0486179 0.07947382 -0.006396518 0.0019529159 0.05519358 0.076919705
0.076878704 0.08300644 -0.0102084605 0.054642815 -0.057319462 -0.017055199 -0.025109462 0.026681723
0.051661633 0.07076325 0.022490732 -0.01130855 0.045138698 -0.06721717 0.061132226 -0.057034373
-0.031397156 -0.044684052 -0.07420088 -0.0109229805 0.027614448 0.026344076 -0.05898199 -0.06552495
-0.015634092 0.074323095 -0.023688776 0.041890223 0.079421476 0.00017424357 -0.06742714 0.069405735
-0.066528775 -0.06387792 0.046689536 0.041343685 0.051027425 0.06843045 -0.055852715 -0.003827909
-0.008080126 -0.0005248414 0.03698031 0.023479719 -0.035370875 -0.061006986 0.016238054 0.0071546193
-0.059620906 -0.078493595 0.0033678606 -0.0025585394 -0.033436902 0.078472845 -0.052895308 0.04718445
0.060861878 -0.016563846 0.04398473 -0.0561242 0.0011208473 0.081076495 -0.06509747 -0.018915234
0.0278178 -0.07548441 0.01801534 -0.07646062 -0.019390427 0.0296878 -0.022895625 0.037747096
0.062103845 0.00891488 -0.05746893 -0.04729736 0.044356544 0.055047724 0.026457956 0.019034564
-0.00036529932 0.035443105 -0.073373385 0.019204503 0.0017504675 -0.075634785 0.06772777 -0.06517382
0.016362235 0.013921674 0.072110355 0.050330386 0.03332452 -0.07859059 -0.059828695 -0.011175284
0.061670683 -0.03629114 -0.0064711487 0.07798966 -0.019194392 -0.052888405 -0.002856204 -0.034957796
-0.05992971 -0.024792057 -0.002732701 -0.011782481 0.023725439 -0.04435277 -0.03638692 -0.02956447
-0.03195326 -0.037464205 0.081149876 0.007934353 0.025536168 -0.01821385 -0.07314929 0.052883692
0.01644865 0.045610446 0.030794963 -0.065804474 0.024186721 0.06705904 0.07402842 0.062465318
-0.0075144526 0.05408531 -0.06591159 0.06229586 -0.04557239 -0.047899935 -0.044976972 0.01759247
-0.021858186 -0.07554754 0.010211927 -0.0035920856 -0.07165822 -0.051705442 0.018381834 0.04752975
-0.08053752 0.050703038 -0.007929666 0.06706834 0.047431346 -0.0057462975 -0.019043654 0.06073044
-0.069902346 -0.034387477 -0.028598871 -0.0500158 -0.013698814 0.0057000816 -0.0030667938 0.01426159
0.06407233 -0.036849007 -0.032331925 0.015428681 -0.08299164 -0.035958976 0.015658854 -0.015356715
-0.07549134 0.057923097 0.0075658145 0.025948653 -0.07652822 -0.05142187 -0.051916327 0.08301217
-0.006224721 0.08113557 0.007173092 0.0018650509 -0.010866292 -2.0957958e-05 0.054727573 0.050730504
0.01949045 -0.011475483 -0.008484665 0.06720055 0.06637582 0.0030499739 -0.07521499 -0.03635404

conv_block_4.5.bias f4 [16]
00000000: aa0c 88bd ad3f 07bd d7a1 0a3d 8cdb 5cbd
00000010: ce8a ab3c dc48 1e3d 0e1c dd3c de7d 283c
00000020: 6ea1 5dbd e028 853d 7ea0 b2bb dece 94bd
00000030: c265 953d e6da 1cbc c1bb 6fbd 1a3f 16bd
-0.066430405 -0.03301971 0.03384575 -0.053920314 0.02094021 0.038643703 0.026990917 0.010283915
-0.05410903 0.06501937 -0.005451261 -0.07266019 0.072947994 -0.009573674 -0.058528665 -0.036681272

conv_block_5.0.weight f4 [16]
00000000: 0500 803f fbff 7f3f 0200 803f 0300 803f
00000010: f4ff 7f3f eaff 7f3f daff 7f3f 0800 803f
00000020: 0300 803f 0f00 803f edff 7f3f edff 7f3f
00000030: 0800 803f 0a00 803f f8ff 7f3f e9ff 7f3f
1.0000006 0.9999997 1.0000002 1.0000004 0.9999993 0.9999987 0.99999774 1.000001
1.0000004 1.0000018 0.99999887 0.99999887 1.000001 1.0000012 0.9999995 0.9999986

conv_block_5.0.bias f4 [16]
00000000: e23f 09b5 d38e beb5 2335 fa34 9ffc 7ab5
00000010: 3038 a334 ec0a 23b5 d4b7 0fb5 74f7 3134
00000020: d57f 1635 fde5 db35 1405 8eb5 0e4d 21b5
00000030: 0842 3c35 02f0 8335 4100 4db4 dfcf 0cb5
-5.112944e-07 -1.419767e-06 4.660479e-07 -9.349987e-07 3.0401998e-07 -6.0738125e-07 -5.3539156e-07 1.6574432e-07
5.6065375e-07 1.6383707e-06 -1.0581302e-06 -6.0089303e-07 7.0131546e-07 9.830112e-07 -1.9092205e-07 -5.2456556e-07

conv_block_5.0.running_mean f4 [16]
00000000: ef45 903d 8560 063b 5801 5c3d 2c40 b63a
00000010: 09d3 273d 4d98 523c 0b8a d63d 210a 7abc
00000020: 3738 843c aa4b 0f3d 7d13 9e3d 4d13 c93c
00000030: 61b2 1c3d 5102 a03c 9db3 873c 37f1 0c3d
0.07044589 0.0020504307 0.05371222 0.0013904623 0.040972743 0.012853694 0.10475548 -0.015261204
0.016140087 0.03498427 0.07718561 0.024545336 0.038256053 0.019532355 0.016565138 0.034409728

conv_block_5.0.running_var f4 [16]
00000000: 42aa 673f 2d99 523f 7056 553f b4e4 4f3f
00000010: bdb5 533f b032 523f 8411 593f c40d 523f
00000020: 7d9a 543f 33ba 503f 03ea 553f b825 563f
00000030: 4a8b 563f d68b 513f 88cc 563f f586 523f
0.9049417 0.8226498 0.8333502 0.8120835 0.82699186 0.82108593 0.8479235 0.82052255
0.8304823 0.8153412 0.835602 0.83651304 0.8380629 0.81854 0.8390584 0.8223718

conv_block_5.2.weight f4 [32, 16, 3, 3]
00000000: 9638 f0bb da14 653d 8499 13bc eafa 2b3d
00000010: a991 423d 2f65 abbc 3d95 843c 0ba2 9d3d
00000020: af78 a63c e543 713d e474 ee3c 406d 08bc
00000030: 2826 543b 7d9c 883d be35 843d ff3b 9bbb
00000040: fd40 cc3c e3bc bf3c 2402 c83c 2ab2 833d
00000050: f30f 363d 7435 dfbc 7b03 933c 86ab 133c
00000060: 0659 94bd dcf8 1a3c 6c19 843d f25a 80bd
00000070: ce87 9ebd d159 71bc 35c0 a6bc dd97 afbc
00000080: 9db0 dabb c9eb 763d da1c 60bd b72d e9bb
00000090: fc86 d93a 3e07 883c f709 0c3d ab6c 20bd
000000a0: f47a 693d c1a3 603d f481 403d 018d 8c3c
000000b0: 0bf7 003d ba53 b73c 03b9 71bd 6587 913d
000000c0: b075 803d 0c05 0dbd 5de2 663d 6275 dbbc
000000d0: 065e 833d 8a47 b7bc b5e9 9d3c 7f45 613d
000000e0: 0620 75bc 502b 8b3d e832 db3c 07e2 e6bc
000000f0: f8ab 213d b4f0 84bd cc59 84bd 2271 8ebd
00000100: 380d a9bd 0d42 9dbd fe4b 643d f9bb adbc
00000110: d218 84bd b2d7 6f3d 25fe 9e3c 5c6d 7cbc
00000120: 3142 8f3d 10e7 283d b5f8 9ebd 6496 0abd
00000130: a870 efbc 953f 31bd 83f5 493d 0c1b a13c
00000140: c88b 92bb 6aa0 a7bd cdfc 313c d3eb 8b3c
00000150: 83d2 2a3d c98f 483d 6ffb 91bc 1b7d 6f3d
00000160: 7a67 9a3d 6087 9d3d 4459 833d a29e 9dbd
00000170: 9e4f 983d 8802 fcbc 3f19 8c3d bf73 2cbd
00000180: 828f f83b ca94 863d 0807 cf3c 26ba 8e3d
00000190: f1f8 223d 5fe1 d1bc 6526 c93c ffe2 173d
000001a0: 97fb a5bc a17d 8a3d c58e 85bd 41a6 1b3d
000001b0: b8b4 7a3c 0be7 9ebd e6d2 19bd 8dbd 5ebd
000001c0: c711 0cbd b6ba 39bd bb3d 65bd a77a d7bc
000001d0: 7473 e6bb 0aaf 723d bf2a 37bc d637 c1bc
000001e0: 5e95 7fbd 60db 8ebd c9f6 0f3d 22f1 30bc
000001f0: ed14 04bd 4dd7 093d a5ac 5cbd 304e 0b3c
00000200: ff66 3bbd e699 52bd 568c 6a3d 9a77 76bd
00000210: 6e52 66bd 3922 413d e142 67bd 3f01 5d3d
00000220: 28ea 913d 939c a73d 076b 50bc 3982 323d
00000230: 6cdd df3c cd77 f6bc feef 133c 3528 a4bd
00000240: 7970 66bd f87e 643d 7a2c 863c b301 3abd
00000250: 0a88 a13d 14cf 4abd c0b9 66bc 1e92 203d
00000260: 4ef1 3e3d f5b4 a6bd 0e93 a7bd 5a83 a3bd
00000270: 4b78 a4bd 982f 9b3c 7eaa 54bc bb63 283d
00000280: 8d25 523d 7cfd 5fbd f199 9bbc 3d1d a1bd
00000290: 165a ce3b 7181 a9bc 676a 97bc a986 6dbd
000002a0: 2868 9a3d 8c49 4cbd d588 ddbc e153 a7bc
000002b0: 5065 8a3d e018 d03a 0b5e eb3c 4af8 80bc
000002c0: 07df eebc 6418 3e3c 31f6 683d a129 893d
000002d0: 7ab5 dbbb 1381 953d b6c4 adbb 201e 88bd
000002e0: f715 80bd af0a c33c da93 60bd fba2 373d
000002f0: 12ae c33c 92f2 a0bd 94ea 2bbc b1b8 9dbd
00000300: 2d3d 97bd 36f9 12bc 9349 243d 167d 73bd
00000310: 3df8 7cbd e442 bd3c d80d 9ebd c50e 6e3d
00000320: c175 03bd 5bb8 533d eb4f a13d ab34 82bd
00000330: 0409 933c 06db 053b 52a6 a33d a9bb a53d
00000340: 61f7 02bd 038c 033d 4707 733c 1d58 d8bc
00000350: 42f3 d7bc 45ed febb 27a1 623d ec25 62ba
00000360: 1e4c 78bb d2ab 7f3d eeb4 77bd 22c9 a7bd
00000370: a7dc 0e3d 5edf 063d 32c8 93bd afb2 9cbd
00000380: eb2e 00bb 257a 183d 089c 38bd e2df 50bd
00000390: d49f 34bd 0ed8 203d c2f8 a8bd ffac a6bd
000003a0: 6529 00bd cca4 a23c a93a 87bd 498b 51bd
000003b0: 44af 933d dcb2 883d d805 ee3c 4694 5dbd
000003c0: c514 48bd ae12 2db8 4885 0dbb 4cca 943d
000003d0: 9303 ba3c 69c6 c43a 519d 823d d0a8 a4bd
000003e0: 40c9 dabc 903f 79bc 7b2c 94bd 41be 87bd
000003f0: df0b 27bd ef6d 4c3d 715c a73d f49a 2ebd
-0.0073309643 0.05592809 -0.009008769 0.041987337 0.047502194 -0.020922272 0.016184444 0.07696923
0.020321218 0.05890264 0.029108472 -0.0083268285 0.0032371376 0.06670473 0.06455563 -0.0047373767
0.024933333 0.023405498 0.024415083 0.064304665 0.044448804 -0.027247168 0.017945996 0.009013062
-0.072435424 0.009458747 0.06450161 -0.062673464 -0.077407464 -0.014730887 -0.020355323 -0.021434719
-0.006673886 0.060283456 -0.054715015 -0.0071160453 0.0016596015 0.016605016 0.03418919 -0.039166134
0.057002023 0.054843668 0.046998933 0.01715708 0.0314856 0.022378791 -0.05901433 0.071059026
0.06272447 -0.03442864 0.05636822 -0.02678937 0.06414418 -0.02237298 0.01927648 0.054997917
-0.014961248 0.067953706 0.026757672 -0.02818395 0.039470643 -0.06491223 -0.0646244 -0.06955172
-0.082544744 -0.07678614 0.055736534 -0.021207796 -0.064500466 0.058555312 0.019408295 -0.015406933
0.06995047 0.041235983 -0.07762281 -0.03383483 -0.029228523 -0.043273527 0.049306404 0.019666217
-0.0044722296 -0.081848934 0.010863495 0.017080223 0.041704666 0.04896525 -0.017820088 0.05846892
0.07539268 0.07691836 0.064135104 -0.076962724 0.07437061 -0.030762926 0.06840753 -0.04210257
0.007585467 0.06571348 0.025271907 0.06969099 0.03978819 -0.02562016 0.02455444 0.037081715
-0.020261569 0.06762243 -0.06521372 0.03800035 0.015301876 -0.07758912 -0.037554644 -0.05437999
-0.03419664 -0.045344077 -0.055967074 -0.026303602 -0.007032806 0.05924896 -0.011179625 -0.023586195
-0.062398307 -0.06975436 0.035147462 -0.010799678 -0.03224652 0.033652592 -0.053875584 0.008502528
-0.04575252 -0.0514163 0.05726274 -0.060172655 -0.056230955 0.047151778 -0.056460265 0.053956266
0.0712474 0.08184161 -0.01272083 0.04358122 0.027327262 -0.030086422 0.009029387 -0.080154814
-0.056259606 0.05578515 0.01637863 -0.045411777 0.078872755 -0.04951389 -0.014082372 0.03920185
0.046616845 -0.081399836 -0.08182345 -0.07984038 -0.080307566 0.018943593 -0.012980102 0.041110735
0.051305342 -0.0546851 -0.018994303 -0.07866905 0.00629736 -0.020691605 -0.018483354 -0.05798975
0.075393975 -0.049874827 -0.027042786 -0.020425739 0.06757605 0.0015876554 0.028731367 -0.015743393
-0.029159082 0.011602495 0.05687541 0.06697393 -0.0067049833 0.073000096 -0.005302991 -0.06646371
-0.062541895 0.023808805 -0.054828502 0.044833165 0.023886714 -0.078587666 -0.0104929395 -0.07701243
-0.07384715 -0.008970549 0.04010923 -0.059445463 -0.061760176 0.023103185 -0.07717484 0.058119554
-0.03209472 0.051689487 0.07876571 -0.06357702 0.017948635 0.0020424738 0.079907075 0.08092434
-0.0319742 0.032115947 0.014833278 -0.026409203 -0.026361112 -0.0077797496 0.055329468 -0.00086268666
-0.0037887166 0.06241972 -0.060475282 -0.0819266 0.0348784 0.032927863 -0.072159186 -0.07651269
-0.0019559215 0.03722586 -0.045070678 -0.05099476 -0.044097736 0.039268546 -0.08250572 -0.08138465
-0.031289477 0.019853972 -0.066029854 -0.051158223 0.07211164 0.0667474 0.02905552 -0.054096483
-0.048847932 -4.126381e-05 -0.0021594334 0.072651476 0.022706782 0.0015012744 0.06377662 -0.08040011
-0.026707292 -0.015212908 -0.072350465 -0.06628085 -0.040782806 0.04990953 0.08171929 -0.042628244

conv_block_5.2.bias f4 [32]
00000000: b76e 713d 57d3 08bd ceac b8bc 9504 7cbd
00000010: 7713 993d 9e72 bfbc 2c64 2bbd f644 84bd
00000020: 98b5 643d 2800 533d 4ef7 8e3d bf07 0ebd
00000030: 978f 13bd af52 913b 6966 fe3c d437 933d
00000040: b82a 913d c1d2 9b3d 3049 6b3d 462d 4a3c
00000050: ffe1 763d 6efd d9bb 8f37 123d f7d3 8fbd
00000060: c315 8abc 5e66 933d 414a 4fbd c801 5d3d
00000070: e945 4abd def9 3cbb 701f 77bd fb3a 92bd
0.058943477 -0.033404674 -0.022543337 -0.061527807 0.07474416 -0.023370083 -0.04184358 -0.06458466
0.055837244 0.05151382 0.069807634 -0.034675356 -0.03602561 0.0044349055 0.031054692 0.07188383
0.07088226 0.076085575 0.057442844 0.012339896 0.06027412 -0.0066525256 0.035697516 -0.07022851
-0.01685608 0.07197259 -0.050607923 0.053956777 -0.049383078 -0.0028835456 -0.060332716 -0.07140156

conv_block_5.3.weight f4 [32]
00000000: faff 7f3f 0300 803f ffff 7f3f f3ff 7f3f
00000010: fbff 7f3f fcff 7f3f f7ff 7f3f ffff 7f3f
00000020: f9ff 7f3f 0100 803f 0500 803f f9ff 7f3f
00000030: feff 7f3f 0200 803f 0000 803f f2ff 7f3f
00000040: 0000 803f ffff 7f3f f4ff 7f3f 0200 803f
00000050: 0300 803f f5ff 7f3f f8ff 7f3f 0000 803f
00000060: 0700 803f f9ff 7f3f 0100 803f f1ff 7f3f
00000070: 0a00 803f 0000 803f ecff 7f3f fdff 7f3f
0.99999964 1.0000004 0.99999994 0.9999992 0.9999997 0.99999976 0.99999946 0.99999994
0.9999996 1.0000001 1.0000006 0.9999996 0.9999999 1.0000002 1.0 0.99999917
1.0 0.99999994 0.9999993 1.0000002 1.0000004 0.99999934 0.9999995 1.0
1.0000008 0.9999996 1.0000001 0.9999991 1.0000012 1.0 0.9999988 0.9999998

conv_block_5.3.bias f4 [32]
00000000: 10cb f7b4 14d5 0435 852b c834 4458 8fb5
00000010: 9600 ff34 c93e 4bb1 d1d1 c0b4 d2c7 3432
00000020: 9367 12b5 e7b6 8933 dda0 c633 d871 53b4
00000030: 1b40 24b4 adfe 1a35 8fa6 9ab4 bafb 02b4
00000040: eedf 2634 d3a1 f934 6296 b3b4 4a27 ba34
00000050: 8e17 3035 f7bd 5db5 b83c 8133 9858 f1b3
00000060: a207 dc35 d4c1 4533 2f49 e734 2d25 35b3
00000070: dc8a 9934 407f 3435 cb7d c734 8972 e8b2
-4.6155083e-07 4.94839e-07 3.7284568e-07 -1.0680019e-06 4.7497878e-07 -2.9576077e-09 -3.5915448e-07 1.0522813e-08
-5.453996e-07 6.4128294e-08 9.249354e-08 -1.9692322e-07 -1.5297012e-07 5.774007e-07 -2.8805923e-07 -1.2198771e-07
1.554142e-07 4.6497607e-07 -3.3450766e-07 3.4673786e-07 6.5599386e-07 -8.260535e-07 6.018075e-08 -1.1238552e-07
1.6393499e-06 4.6043922e-08 4.308035e-07 -4.2176158e-08 2.8599504e-07 6.72404e-07 3.7158165e-07 -2.706044e-08

conv_block_5.3.running_mean f4 [32]
00000000: e3f0 503d 2c01 98bd 4c95 6fbd fa79 32bd
00000010: 95c5 523d 1ead 50bd 256f 97bd a0aa 7fbc
00000020: a8ba 73bd b534 f33c a87e 953c b6f4 85b9
00000030: 8ba2 abbc 6fd1 06bd fe04 a53c 1e2d 553d
00000040: ea63 3c3d 6578 63bd 6275 21bc f160 4fbd
00000050: 3fda 11bd bfc1 efbb 43ce b73c a284 0c3d
00000060: fc19 b4bd f300 0b3d 60c9 bbbc 9fba 4b3d
00000070: f57f 2c3b 4e24 69bd 25ae 11bc 9659 b7bd
0.051010977 -0.074220985 -0.05849199 -0.043573357 0.05145796 -0.050946347 -0.07394246 -0.015604645
-0.05950418 0.029688219 0.018248871 -0.0002555006 -0.02095153 -0.032914575 0.020143982 0.05204498
0.045993723 -0.05553474 -0.009854646 -0.05062956 -0.035608526 -0.0073167975 0.02243722 0.034306176
-0.087940186 0.033936452 -0.022923172 0.049738523 0.0026321386 -0.05691939 -0.008891617 -0.08952634
