cloud-detection-code/tests/test_artifacts/test_log_jaccard_loss/model_checkpoint_4.pt (torch, 439769 bytes, 347 tensors)

input_conv_block.0.weight f4 [3]
0	0x3f8002b9	1.0000831
1	0x3f8003de	1.000118
2	0x3f7fe20d	0.999543

input_conv_block.0.bias f4 [3]
0	0xb9dd9854	-0.00042265898
1	0x39922ff6	0.00027883024
2	0x3a4aecc4	0.00077409693

input_conv_block.0.running_mean f4 [3]
0	0x3ec7f400	0.39053345
1	0x3ec5a1ff	0.38600156
2	0x3ea78064	0.32715142

input_conv_block.0.running_var f4 [3]
0	0x3ddaa9dd	0.1067693
1	0x3dd3d040	0.10342455
2	0x3dcd1570	0.100138545

input_conv_block.2.weight f4 [2, 3, 1, 1]
0	0x3e52cdc8	0.20586312
1	0x3ed3d9e3	0.41377172
2	0x3d5a8f58	0.05335936
3	0xbe477baa	-0.19480768
4	0x3dd08d83	0.10183241
5	0x3e75a180	0.23987389

conv_block_1.0.weight f4 [2]
0	0x3f7ffe3a	0.99997294
1	0x3f8000e2	1.000027

conv_block_1.0.bias f4 [2]
0	0x39505faf	0.0001987207
1	0x3a8fa6e0	0.0010959767

conv_block_1.0.running_mean f4 [2]
0	0x3e800d5e	0.25010198
1	0x3d45820f	0.048219737

conv_block_1.0.running_var f4 [2]
0	0x3e752c74	0.23942739
1	0x3dc53063	0.0962837

conv_block_1.2.weight f4 [2, 2, 3, 3]
0	0xbe3a2ca7	-0.18181096
1	0xbdcfcf5f	-0.10146975
2	0xbe2eacf3	-0.17058162
3	0xbcdcc6e0	-0.0269503
4	0x3a898dfa	0.0010494583
5	0xbdabe6ae	-0.08393608
6	0x3dc7234a	0.09723528
7	0xbe23dbf2	-0.16001871
8	0xbde7b2ee	-0.11313425
9	0xbe567fcb	-0.20947187
10	0x3d5a7b9c	0.05334054
11	0xbe35ba1a	-0.17746773
12	0xbd839473	-0.06424799
13	0xbcbaaf9a	-0.022788811
14	0xbe65dc73	-0.22447376
15	0xbe02b7e7	-0.12765466
16	0xbe3f21b8	-0.18665206
17	0x3d223788	0.03960374
18	0xbdbc0faa	-0.09182675
19	0xbe19f020	-0.15033007
20	0x3cf03f25	0.029326985
21	0x3e1496bf	0.1451063
22	0x3e1c4756	0.15261588
23	0x3e538d98	0.20659482
24	0x3d95a539	0.07306904
25	0x3d1f6771	0.03891701
26	0xbe0a16a8	-0.13485205
27	0x3ac50626	0.001503174
28	0xbda2b737	-0.07945102
29	0x3e1df966	0.15427169
30	0x3d764ef7	0.0601339
31	0x3d62cadf	0.055369254
32	0xbe1731f6	-0.14765152
33	0xbe09871b	-0.13430445
34	0x3e2efd49	0.17088808
35	0x3d38d9e6	0.04512968

conv_block_1.2.bias f4 [2]
0	0xbe62cde4	-0.22148854
1	0xbe12c1b0	-0.14331698

conv_block_1.3.weight f4 [2]
0	0x3f8005a5	1.0001723
1	0x3f7ff4b8	0.99982786

conv_block_1.3.bias f4 [2]
0	0x38bbb16c	8.949902e-05
1	0xba1809f0	-0.00057998206

conv_block_1.3.running_mean f4 [2]
0	0xbf3dfa58	-0.7421012
1	0x38112266	3.460273e-05

conv_block_1.3.running_var f4 [2]
0	0x3fab1487	1.336564
1	0x3e2e38c5	0.17013843

conv_block_1.5.weight f4 [2, 2, 3, 3]
0	0xbd690c12	-0.056896277
1	0xbe21d1cd	-0.15802689
2	0x3cc18e1c	0.023627333
3	0xbe1fa7dd	-0.15591379
4	0x3e0df971	0.13864686
5	0xbd988365	-0.074469365
6	0x3e0177cd	0.12643357
7	0x3e14a2e3	0.14515261
8	0x3e4f4250	0.2024014
9	0x3e2030b2	0.15643576
10	0x3e3c0ac3	0.1836348
11	0xbdb070f2	-0.086152926
12	0xbe371f8f	-0.17883132
13	0xbdb43e09	-0.08800895
14	0x3e13b13c	0.14423078
15	0x3dd71fee	0.10504137
16	0x3e30a744	0.17251307
17	0xbda418bb	-0.080125295
18	0x3e1a4855	0.15066655
19	0xbc408bd7	-0.01175209
20	0xbd86799d	-0.06566165
21	0x3ce57a9a	0.028012563
22	0xbe4fe506	-0.2030221
23	0x3e4c0854	0.19925052
24	0xbe1fc55d	-0.15602632
25	0xbe02f45b	-0.12788527
26	0x3de461e7	0.11151486
27	0xbe235ffe	-0.15954587
28	0x3c50e3f7	0.012749664
29	0x3d49e689	0.04929212
30	0x3e1a8a1a	0.15091744
31	0xbe3ff908	-0.18747342
32	0xbe1244e7	-0.14284097
33	0x3d325b44	0.04354407
34	0x3daf2285	0.08551506
35	0x3e4f6369	0.20252766

conv_block_1.5.bias f4 [2]
0	0xbe0a2d35	-0.13493808
1	0xbe6bee1d	-0.23040052

conv_block_2.0.weight f4 [2]
0	0x3f801520	1.0006447
1	0x3f7fd5c6	0.9993557

conv_block_2.0.bias f4 [2]
0	0x394ca2b4	0.00019515568
1	0xba320441	-0.0006790795

conv_block_2.0.running_mean f4 [2]
0	0x3dda2931	0.10652388
1	0xbe187b7c	-0.14890856

conv_block_2.0.running_var f4 [2]
0	0x3e21c197	0.15796505
1	0x3dda2d0d	0.10653124

conv_block_2.2.weight f4 [4, 2, 3, 3]
0	0x3df6ae19	0.12044925
1	0xbe350c7d	-0.17680545
2	0xbe334558	-0.17506921
3	0x3e09ce2f	0.13457559
4	0x3e19da10	0.1502459
5	0x3d6d400e	0.057922415
6	0x3e3d4bec	0.18485993
7	0xbd9d610c	-0.07684526
8	0xbe0b9020	-0.13629198
9	0x3e6eb781	0.23312189
10	0xbda7292e	-0.08162151
11	0xbd99ae36	-0.07503931
12	0xbe223ed1	-0.15844275
13	0xbca632be	-0.020287868
14	0xbdc580f3	-0.09643736
15	0xbd19154f	-0.037373837
16	0x3db29593	0.08719935
17	0x3e6a2e4e	0.22869226
18	0x3d4d5798	0.050132364
19	0xbdb66b04	-0.0890713
20	0x3b868961	0.0041057323
21	0x3de04bb7	0.109519415
22	0xbe0e865e	-0.13918445
23	0xbdf6de28	-0.12054092
24	0xbd903330	-0.07041013
25	0x3e648084	0.2231465
26	0xbdf7a3a0	-0.12091756
27	0x3db78b6a	0.08962138
28	0xbe461a5d	-0.19345994
29	0x3de9f6da	0.11424036
30	0x3de52f56	0.11190669
31	0x3def2d62	0.11678578
32	0xbd5ef636	-0.054434024
33	0x3d372d56	0.04472097
34	0x3e22a979	0.15884961
35	0x3dc7ae23	0.09750011
36	0xbda87fa7	-0.08227473
37	0xbd46acd9	-0.048504684
38	0xbc55cf12	-0.013049858
39	0x3d8b7ee2	0.0681131
40	0x3d815dc9	0.06316716
41	0x3db3af7a	0.08773704
42	0x3c98c7db	0.018649986
43	0xbd9645dd	-0.07337544
44	0x3a1146c7	0.00055418577
45	0x3e548340	0.20753193
46	0xbdcac336	-0.09900515
47	0xbe425ff2	-0.18981913
48	0x3caa0a76	0.020756941
49	0x3ce976e9	0.028499084
50	0xbe345cbc	-0.176135
51	0xbd3592e8	-0.044329554
52	0xbdae85ae	-0.08521591
53	0xbe40f97e	-0.18845174
54	0x3da16358	0.078802764
55	0x3d91005e	0.07080148
56	0x3e672ff5	0.22576888
57	0x3e5f0dcb	0.21782605
58	0xbdce36b9	-0.10069031
59	0xbd2d3a61	-0.042292003
60	0xbd4eb73d	-0.05046772
61	0x3e5e81db	0.21729223
62	0x3d99f61a	0.07517643
63	0xbe0fa8f4	-0.14029294
64	0x3dec3501	0.11533547
65	0xbe183bdd	-0.14866586
66	0x3e263ae4	0.16233402
67	0xbdde172b	-0.10844263
68	0xbd74f11f	-0.059800263
69	0xbdcf54bf	-0.10123586
70	0x3e0d47fa	0.13796988
71	0xbe60f888	-0.21969807

conv_block_2.2.bias f4 [4]
0	0x3e4b8eb7	0.1987866
1	0xbdd5af79	-0.104338594
2	0x3e143159	0.1447195
3	0x3dcc035a	0.09961577

conv_block_2.3.weight f4 [4]
0	0x3f80078a	1.0002301
1	0x3f7fdd4c	0.9994705
2	0x3f800404	1.0001225
3	0x3f801972	1.0007765

conv_block_2.3.bias f4 [4]
0	0x390180ec	0.00012350426
1	0xb9ce695b	-0.00039369878
2	0x3938b0e5	0.00017613506
3	0x3820beaa	3.8324542e-05

conv_block_2.3.running_mean f4 [4]
0	0x3e70386d	0.23459025
1	0x3c51ae10	0.012797847
2	0xbcf830e3	-0.030296749
3	0x3e434bf8	0.19071949

conv_block_2.3.running_var f4 [4]
0	0x3e27f498	0.16401899
1	0x3e344a1c	0.17606395
2	0x3e5d95d2	0.21639183
3	0x3e637071	0.22210862

conv_block_2.5.weight f4 [4, 4, 3, 3]
0	0xbe0ee5f3	-0.13954906
1	0xbb9d9025	-0.004808443
2	0x3d8f7f9a	0.0700676
3	0x3df9307c	0.12167451
4	0xbdb16925	-0.08662633
5	0x3da8349b	0.08213159
6	0xbd46db4c	-0.04854898
7	0xbe147a02	-0.14499667
8	0x3d730f98	0.059341043
9	0x3c7b1e85	0.015327101
10	0x3da3a9c9	0.07991368
11	0xbcef51e2	-0.02921385
12	0xbe029e3d	-0.12755676
13	0xbdc5b56f	-0.09653746
14	0xbe27ae2c	-0.16375035
15	0x3bc06fac	0.0058726873
16	0x3d13c237	0.03607389
17	0x3dfb3a8e	0.12267028
18	0xbe06b899	-0.13156356
19	0xbdaf9e42	-0.08575107
20	0xbdca32fe	-0.09873007
21	0x3ca97d1f	0.020689545
22	0xbd157505	-0.03648855
23	0xbd6adb85	-0.057338256
24	0x3cecfd42	0.028929356
25	0xbda2c860	-0.07948375
26	0x3d395522	0.045247205
27	0x3d826a59	0.063679405
28	0xbca1f515	-0.019770185
29	0x3d298185	0.041383285
30	0xbd80d24e	-0.062901124
31	0x3e18dbf6	0.14927658
32	0x3da80841	0.08204699
33	0xbcf6d97c	-0.030133002
34	0xbe00928f	-0.12555908
35	0x3d5a94ad	0.053364445
36	0xbd2cf07b	-0.042221528
37	0xbd21513f	-0.039384123
38	0xbc39a1d2	-0.011330085
39	0x3d62f8db	0.05541311
40	0x3ddb2497	0.10700338
41	0xbe26ed2a	-0.16301408
42	0xbb10bf7f	-0.0022086797
43	0xbe26e06e	-0.1629655
44	0xbe2adbc3	-0.16685395
45	0xbd3aa227	-0.045564797
46	0xbc90ab7b	-0.017659893
47	0x3c93a021	0.018020691
48	0x3e2401bc	0.16016287
49	0xbe1f32e8	-0.15546763
50	0x3ca2e038	0.019882306
51	0x3d93f92a	0.07225259
52	0x3e19d458	0.15022409
53	0xbdac53b0	-0.084143996
54	0x3d5d3980	0.054009914
55	0x3d7018bf	0.05861735
56	0x3db072be	0.08615635
57	0x3df35489	0.11881358
58	0x3d8b2092	0.06793322
59	0x3d053522	0.032521375
60	0xbce428f2	-0.027851555
61	0x3dd2cab8	0.10292572
62	0xbd3d2419	-0.046177004
63	0x3ca44a70	0.020055026
64	0x3d097899	0.033562277
65	0x3e139f74	0.14416295
66	0x3db851fb	0.090000115
67	0xbe1fe4f3	-0.15614681
68	0xbd92dbc5	-0.07170824
69	0xbd2e5b63	-0.042567622
70	0xbdfb5948	-0.122728884
71	0x3d6f0d50	0.058362305
72	0x3e13b9a8	0.14426291
73	0xbe229b6c	-0.15879601
74	0x3d2cb4f8	0.042164773
75	0xbde94121	-0.113893755
76	0xbd89bdb6	-0.067256376
77	0x3d703b9d	0.0586506
78	0x3d6a0a2e	0.057138614
79	0x3da17c0c	0.07884988
80	0x3d2e180c	0.0425034
81	0xbb247453	-0.0025093749
82	0x3c8d6e41	0.017264487
83	0xbe0d59b8	-0.13803756
84	0x3de4e213	0.11175933
85	0xbc0f02d7	-0.008728704
86	0x3e004038	0.12524498
87	0xbe1526d4	-0.14565593
88	0x3d9685d2	0.07349743
89	0x3db99beb	0.09062942
90	0xbce7b356	-0.028283756
91	0x3e0f8111	0.14014079
92	0xbe08a48b	-0.13344018
93	0x3b8da332	0.004322433
94	0x3d25ce9c	0.04048024
95	0xbd85449b	-0.06507226
96	0xbd4f4bae	-0.050609283
97	0xbde2c2f7	-0.11072343
98	0xbe19ca45	-0.15018566
99	0xbe24f82f	-0.161103
100	0xbda4e983	-0.08052351
101	0xbe2a97f6	-0.16659531
102	0x3b91c151	0.004448094
103	0x3b7fca0c	0.0039030341
104	0x3e1d561e	0.15364882
105	0xbd5fd289	-0.05464414
106	0xbe15f7d1	-0.14645316
107	0x3dd01f74	0.10162249
108	0x3d9b1773	0.07572832
109	0xbe1fdd6e	-0.15611812
110	0x3dffd4f0	0.124917865
111	0x3c94d7aa	0.018169243
112	0xbe114bf3	-0.14189129
113	0x3e27ae9d	0.16375203
114	0xbcea5b9f	-0.028608141
115	0xbd0ebe0c	-0.03484921
116	0xbe287f76	-0.16454872
117	0xbe02f9c5	-0.12790592
118	0xbdb9c32d	-0.0907043
119	0xbdac91a1	-0.08426214
120	0x3bfa9a89	0.0076478166
121	0x3e05ea55	0.13077672
122	0xbdcbf463	-0.099587224
123	0xbc92028a	-0.017823476
124	0x3db0aba6	0.08626489
125	0xbe0b7779	-0.13619794
126	0xbde91677	-0.11381238
127	0x3df9796c	0.121813625
128	0xbda600d2	-0.08105625
129	0xbc2d2208	-0.010567196
130	0xbc79ac14	-0.0152387805
131	0x3da477b6	0.080306455
132	0x3da14125	0.078737535
133	0x3e1d6844	0.15371805
134	0x3c6f5789	0.014608272
135	0xbc38b4da	-0.011273587
136	0x3c91d3d6	0.017801207
137	0xbd2ce957	-0.042214718
138	0xbdc3d294	-0.09561649
139	0x3e052386	0.13001832
140	0xbd6a8950	-0.057259858
141	0xbe184602	-0.14870456
142	0x3d7b532c	0.061358616
143	0xbd1871fe	-0.037218086

conv_block_2.5.bias f4 [4]
0	0x3e0e990c	0.1392557
1	0xbe1f9dbf	-0.15587519
2	0x3e0fc3b2	0.14039496
3	0x3dfc934e	0.12332784

conv_block_3.0.weight f4 [4]
0	0x3f800ab0	1.0003262
1	0x3f7ffe1b	0.9999711
2	0x3f7ffe0c	0.9999702
3	0x3f801035	1.0004946

conv_block_3.0.bias f4 [4]
0	0xba345d8f	-0.00068803964
1	0x392bab6f	0.00016371695
2	0x3a240996	0.0006257532
3	0x3a671d0d	0.00088162796

conv_block_3.0.running_mean f4 [4]
0	0x3da55433	0.080727
1	0x3d1231fa	0.035692193
2	0x3ddd1b5d	0.10796235
3	0x3df6a749	0.12043626

conv_block_3.0.running_var f4 [4]
0	0x3e0231d6	0.12714323
1	0x3de7aa04	0.11311725
2	0x3e2d6557	0.1693319
3	0x3e0a3eb4	0.13500482

conv_block_3.2.weight f4 [8, 4, 3, 3]
0	0x3e213d63	0.15746073
1	0x3e1b89b8	0.15189254
2	0x3d75430d	0.059878398
3	0xbd50eecb	-0.05100898
4	0xbe02f7c5	-0.12789829
5	0xbd924d88	-0.07143694
6	0xbd8a0ded	-0.067409374
7	0xbd5b9e72	-0.053617902
8	0xbdf5c2d9	-0.12000055
9	0x3e187761	0.1488929
10	0x3cab0442	0.020876054
11	0x3d3a8c8a	0.045544185
12	0xbc163945	-0.009168928
13	0x3cb96d0c	0.022635005
14	0x3e2a4714	0.16628677
15	0x3c7ad539	0.015309625
16	0xbdf8dbe0	-0.12151313
17	0xbdac803d	-0.08422897
18	0x3cdf2124	0.027237482
19	0xba575d06	-0.00082154607
20	0xbd35c329	-0.044375572
21	0x3def36b3	0.11680355
22	0x3e096d58	0.13420618
23	0xbd1592a0	-0.036516786
24	0x3e1ecaa9	0.15506996
25	0x3d6151e3	0.055009734
26	0xbbf011ac	-0.0073263254
27	0x3da3878a	0.079848364
28	0x3e2418dc	0.16025108
29	0x3c8d74e8	0.01726766
30	0xbdb59748	-0.08866745
31	0xbd9ccf27	-0.07656699
32	0xbde68581	-0.112559326
33	0x3d5275e1	0.05138195
34	0xbd115970	-0.035485685
35	0xbe1c7352	-0.15278366
36	0x3d6e574b	0.058188718
37	0xbde877c2	-0.11350967
38	0xbde56b59	-0.112021156
39	0xbd53bf50	-0.05169612
40	0xbdeab090	-0.11459458
41	0xbdf2978b	-0.11845311
42	0x3c5afec2	0.013366403
43	0x3dfe32fc	0.12412068
44	0x39ece314	0.00045182614
45	0x3bd7597d	0.006571947
46	0xbdfab8d7	-0.12242287
47	0x3dd49e90	0.10381806
48	0x3d7b6d4d	0.061383534
49	0x3b88c090	0.004173346
50	0x3cdd6cae	0.027029362
51	0x3df0a603	0.11750414
52	0xbc23d794	-0.010000128
53	0x3d201042	0.039078005
54	0xbafcb684	-0.0019280468
55	0x3dc5de76	0.09661572
56	0x3e11bf02	0.1423302
57	0xbd3261cd	-0.0435503
58	0x3df6efa6	0.12057428
59	0x3cf10c44	0.029424794
60	0x3de76641	0.112988
61	0x3d1a8361	0.03772295
62	0x3e2954db	0.16536276
63	0xbe0fd419	-0.14045753
64	0x3cb571eb	0.022149047
65	0xbe04bc2e	-0.1296241
66	0x3da7135e	0.08157991
67	0x3d89d161	0.06729389
68	0x3b4d7204	0.0031348476
69	0x3deff129	0.117159195
70	0xbdbf009f	-0.0932629
71	0xbdd0424c	-0.10168895
72	0xbd18bb85	-0.037288208
73	0x3dd6e586	0.10492997
74	0xbd8df451	-0.06931365
75	0x3d2b6963	0.04184855
76	0x3dbaf9e9	0.09129698
77	0xbd7dc607	-0.06195643
78	0xbde6daef	-0.11272227
79	0x3e02ff9c	0.1279282
80	0x3ad205eb	0.0016023492
81	0x3dae8938	0.08522266
82	0xbde3a67c	-0.11115739
83	0xbe0a3f22	-0.13500646
84	0x3c05651c	0.008141782
85	0xbdee5052	-0.11636414
86	0xbe201063	-0.15631251
87	0x3e25146f	0.16121076
88	0x3e1fe0b1	0.15613057
89	0xbe12af1a	-0.14324608
90	0xbe157b8a	-0.14597908
91	0xbd0c0baf	-0.03419083
92	0xbe0eaf3e	-0.13934037
93	0x3dd5efbd	0.10446117
94	0xbe135930	-0.14389491
95	0xbe154096	-0.14575419
96	0xbd84c770	-0.06483352
97	0xbcead207	-0.028664602
98	0xbd33a4c2	-0.043858297
99	0xbd8b6075	-0.06805507
100	0xbc3b1da8	-0.011420645
101	0xbe1360e3	-0.14392428
102	0xbdd1551d	-0.10221312
103	0x3d831616	0.06400697
104	0xbda03c10	-0.07823956
105	0x3da2312d	0.07919536
106	0x3cc0a100	0.02351427
107	0xbd5ac863	-0.05341376
108	0xbe1b83f2	-0.15187052
109	0x3d87037c	0.065924615
110	0xbe1925b4	-0.14955789
111	0xbdf9c1b6	-0.121951506
112	0xbdf96e50	-0.121792436
113	0xbdb44de4	-0.08803919
114	0x3dd643dc	0.10462162
115	0xbda688f4	-0.081315905
116	0xbd42b729	-0.047537956
117	0x3ced7c65	0.02898998
118	0x3c8872e4	0.016656347
119	0xbda54e95	-0.08071629
120	0xbd1e6ea3	-0.03867973
121	0xbd908a7f	-0.07057666
122	0x3cf43f31	0.029815288
123	0x3dae6ac2	0.08516456
124	0x3b56ffb1	0.0032806213
125	0x3d488b94	0.048961237
126	0x3dc12502	0.09430887
127	0xbd5bdf68	-0.053679854
128	0x3ddc8349	0.10767228
129	0x3d8b2f11	0.067960866
130	0x3d8fce51	0.070217736
131	0xbd4585c2	-0.048223265
132	0x3cb59075	0.022163609
133	0x3dd22eb3	0.102628134
134	0xbdd4ba0a	-0.10387047
135	0x3da22691	0.07917512
136	0x3e030763	0.12795787
137	0x3ccf0558	0.025271103
138	0x3d458f1a	0.048232175
139	0x3de0f291	0.10983766
140	0xbcd0dfa9	-0.025497274
141	0xbc38ec1e	-0.0112867635
142	0x3cbb004f	0.022827296
143	0x3e015c4b	0.12632863
144	0xbe0c53b3	-0.13703804
145	0x3df5d5c6	0.12003665
146	0x3dd4aedc	0.10384914
147	0xbe0139cc	-0.12619704
148	0xbdf628be	-0.1201949
149	0xbdd733b3	-0.10507908
150	0xbddd198d	-0.10795889
151	0xbd199351	-0.037494007
152	0xbdf0076a	-0.11720164
153	0x3da0e27b	0.07855698
154	0xbd20655b	-0.03915916
155	0xbdaf22bc	-0.08551547
156	0xbdd70f7e	-0.10501002
157	0xbd567990	-0.052362025
158	0xbe169faf	-0.14709352
159	0xbe1b1d57	-0.15147911
160	0xbd97b785	-0.074080504
161	0xbdb5cf20	-0.088773966
162	0x3d8fe13f	0.07025384
163	0x3e0606ec	0.13088578
164	0xbde15220	-0.11001992
165	0x3e1917f2	0.1495054
166	0x3d69289b	0.05692349
167	0x3c47fa94	0.012205739
168	0x3d0a3205	0.03373911
169	0x3e175285	0.14777572
170	0xbe228122	-0.15869573
171	0x3cf90ea1	0.030402483
172	0xbd32ab69	-0.0436205
173	0xbe28d523	-0.16487555
174	0x3c8c3032	0.017112825
175	0x3de0209b	0.10943719
176	0x3e1902d3	0.14942484
177	0x3d20d7c7	0.03926828
178	0x3dbdc32a	0.0926574
179	0xbc321cf8	-0.0108711645
180	0x3c765518	0.015034936
181	0x3daa16b4	0.083051115
182	0xbd7023de	-0.058627956
183	0x3dad1e1f	0.08453011
184	0x3e193410	0.14961267
185	0xbe018106	-0.12646875
186	0xbe1ecd12	-0.15507916
187	0xbdd3d502	-0.103433624
188	0x3bd9105a	0.0066242637
189	0x3e090fe1	0.13384964
190	0x3e27cf5a	0.16387692
191	0xbbbb172e	-0.0057095503
192	0xbdb2ee8c	-0.087369055
193	0x3ddb5a5e	0.107105955
194	0xbe1361d7	-0.14392792
195	0x3dc90c7b	0.098168336
196	0x3c8ee557	0.017443342
197	0xbd0b4c6c	-0.03400843
198	0x3d1fcfc4	0.0390165
199	0xbe0046e8	-0.12527049
200	0x3b087b84	0.0020825574
201	0x3ce06548	0.027392045
202	0x3cf62b44	0.030049928
203	0xbdcf3fa9	-0.10119564
204	0xbdff8895	-0.12477223
205	0xbd55f576	-0.052236043
206	0xbd38c20c	-0.045106933
207	0xbce9c09f	-0.028534232
208	0x3e0119df	0.12607525
209	0xbc7e9ccf	-0.015540316
210	0x3d09114f	0.033463772
211	0x3c7feeb0	0.015620872
212	0xbdb6eb27	-0.089315705
213	0xbe077951	-0.13229872
214	0xbde4345e	-0.11142801
215	0xbe252f5f	-0.16131352
216	0x3df3b616	0.118999645
217	0x3d8c74cf	0.06858217
218	0xbd035dbd	-0.032071818
219	0x3d53166e	0.051535062
220	0x3dc833b0	0.097754836
221	0x3c7bf3bd	0.015377936
222	0x3cdf9675	0.027293423
223	0xbab66ac7	-0.001391732
224	0xbddc5baa	-0.10759671
225	0x3d93667f	0.07197284
226	0x3cc40dac	0.0239323
227	0xbc6ffaba	-0.01464718
228	0x3d27a6af	0.040930446
229	0x3c83d415	0.01609234
230	0x3e272470	0.16322494
231	0x3e16b725	0.14718302
232	0xbdec08d1	-0.11525119
233	0xbe09dc9a	-0.13463059
234	0x3e026348	0.12733185
235	0x3de6cd99	0.112696834
236	0x3ce7682d	0.028247917
237	0x3e043355	0.12910207
238	0x3e01a2c7	0.12659751
239	0xbd6f0683	-0.05835582
240	0xbde6df67	-0.11273079
241	0xbd5543d8	-0.052066654
242	0x3d0ae653	0.03391106
243	0xbd55bb07	-0.052180316
244	0xbc448fec	-0.011997204
245	0xbd41506f	-0.047195848
246	0xbdf0b732	-0.11753692
247	0xbdba5957	-0.090990715
248	0xbd7e3add	-0.062067855
249	0xbda220b1	-0.07916392
250	0xbdac4575	-0.084116854
251	0xbc4d5497	-0.012532375
252	0x3df14acd	0.11781845
253	0x3cc19ac2	0.023633365
254	0x3dfc84f4	0.12330046
255	0x3deb4a7b	0.114888154

conv_block_3.2.bias f4 [8]
0	0xbca0f5fa	-0.01964854
1	0xbd2fb02f	-0.04289263
2	0xbe1f1017	-0.15533482
3	0xbd661bca	-0.056178845
4	0xbd12a181	-0.035798553
5	0x3d11a4d7	0.035557594
6	0xbbc6c0bf	-0.0060654576
7	0x3e2a40bb	0.16626255

conv_block_3.3.weight f4 [8]
0	0x3f801d11	1.000887
1	0x3f7ff140	0.99977493
2	0x3f801603	1.0006717
3	0x3f80008e	1.0000169
4	0x3f7fc44a	0.9990889
5	0x3f7fdb41	0.9994393
6	0x3f800b1c	1.000339
7	0x3f7fd5b2	0.9993545

conv_block_3.3.bias f4 [8]
0	0x3a0dac3e	0.0005404389
1	0xba0573a9	-0.0005090782
2	0x3953a4ba	0.00020183894
3	0xb9c6fd17	-0.0003795407
4	0x397bc868	0.00024011882
5	0xba375ec9	-0.000699502
6	0x39dff6e8	0.00042717834
7	0xba5a4203	-0.00083258766

conv_block_3.3.running_mean f4 [8]
0	0x3d769efc	0.060210213
1	0x3d6a8f5b	0.05726562
2	0xbee13cf2	-0.4399181
3	0xbba429cf	-0.005009867
4	0xbe37211d	-0.17883725
5	0xbe121738	-0.1426667
6	0x3d4f7658	0.05064997
7	0x3eb2c754	0.349177

conv_block_3.3.running_var f4 [8]
0	0x3e7f3b85	0.24925049
1	0x3e9034d1	0.28165296
2	0x3ea50e3e	0.32237428
3	0x3e8504be	0.2598018
4	0x3e8d5cd6	0.2760989
5	0x3e18a949	0.14908327
6	0x3e94c78e	0.29058498
7	0x3e966ab4	0.29378283

conv_block_3.5.weight f4 [8, 8, 3, 3]
0	0x3de8fc22	0.113762155
1	0x3d939af9	0.07207293
2	0xbd2d38f9	-0.04229066
3	0xbc53b092	-0.012920516
4	0x3d4e9d95	0.05044325
5	0xbc5cb461	-0.01347074
6	0xbddbb6ce	-0.107282266
7	0xbddd3d52	-0.108027115
8	0xbc4dbf48	-0.012557812
9	0x3d205648	0.039144784
10	0xbdc96937	-0.09834521
11	0x3bf9fab0	0.007628761
12	0xbd511725	-0.051047463
13	0x3dcd3186	0.100192115
14	0xbddf0812	-0.10890211
15	0x3dba97e5	0.09111003
16	0x3de9c19e	0.11413883
17	0xbde84a05	-0.11342243
18	0xbd7a776d	-0.06114905
19	0x3dd07367	0.10178261
20	0x3c239929	0.009985247
21	0x3d251a85	0.040308494
22	0xbbf381c4	-0.0074312408
23	0xbde71f93	-0.11285319
24	0x3d8f8c45	0.07009176
25	0x3b743a26	0.0037266104
26	0x3c8017be	0.015636321
27	0x3c5022c6	0.012703603
28	0xbd036914	-0.032082632
29	0x3d4b9650	0.049703896
30	0x3c5addc3	0.013358536
31	0x3d3da544	0.046300188
32	0x3d77130e	0.060320906
33	0x3d1f7a26	0.03893485
34	0x3ce1c0ab	0.027557692
35	0xbda8d886	-0.082444236
36	0x3da50cc6	0.08059077
37	0xbd8bb294	-0.068211704
38	0xbcd1fa06	-0.025631916
39	0x3b9aaf77	0.004720624
40	0xbdec5929	-0.115404435
41	0xbd79109c	-0.060806856
42	0x3bb53a68	0.005530644
43	0xbd9353c6	-0.07193713
44	0xbcf12a0d	-0.029438997
45	0xbdb836f4	-0.089948565
46	0x3d9e4318	0.07727641
47	0xbdabbacd	-0.08385239
48	0x3d9947ea	0.0748442
49	0xbd22b63c	-0.039724573
50	0x3da0e3c7	0.07855945
51	0x3c531e76	0.01288568
52	0x3d1cacfb	0.038250905
53	0x3d77db04	0.060511604
54	0x3d8440bf	0.06457662
55	0xbc82a6e8	-0.015948728
56	0x3d8e221e	0.06940101
57	0x3d882e15	0.066494144
58	0xbdbc44a7	-0.09192782
59	0x3d883401	0.06650544
60	0x3d790b2f	0.06080168
61	0xbddc69c4	-0.10762361
62	0xbdeb59df	-0.11491751
63	0x3c060917	0.008180878
64	0x3b2a5e81	0.002599627
65	0xbde6370d	-0.11240969
66	0x3d78d530	0.060750186
67	0x3d218265	0.039430995
68	0xbd9e6891	-0.07734788
69	0xba8dc2d3	-0.0010815508
70	0xbdda6198	-0.10663146
71	0xbdc7a815	-0.09748856
72	0x3db77c5b	0.08959266
73	0x3caec6bc	0.021334998
74	0xbc8a5bcc	-0.016889475
75	0xbcfffd86	-0.03124882
76	0x3dd0c675	0.10194103
77	0x3dbe3d58	0.09289044
78	0x3db2c10a	0.087282255
79	0x3cb0eef6	0.02159832
80	0xbc980186	-0.018555414
81	0x3dceca1e	0.100971445
82	0xbbc67b5c	-0.006057186
83	0xbde0150c	-0.109415144
84	0xbd947551	-0.07248939
85	0xbd02b537	-0.0319111
86	0xbdee1580	-0.116251945
87	0xbdd136fd	-0.10215566
88	0xbce9d5ac	-0.02854427
89	0x3d1c0a0a	0.03809551
90	0x3d068025	0.032837052
91	0xba84e346	-0.0010138534
92	0x3d6190d6	0.055069767
93	0x3de4be39	0.111690946
94	0xbde7e685	-0.11323265
95	0x3cc58ae2	0.024114076
96	0x3cc766dc	0.02434104
97	0x3d874462	0.0660484
98	0xbceced9c	-0.028921895
99	0x3c97a1bd	0.01850974
100	0xbda0be4a	-0.07848795
101	0xbd464498	-0.04840526
102	0xbd68d527	-0.056843903
103	0xbdd05caa	-0.10173924
104	0xbde9d16c	-0.11416897
105	0x3ba7c578	0.0051199757
106	0x3c8405a5	0.016115973
107	0x3dc04db9	0.093898244
108	0xbda4dc1d	-0.08049796
109	0x3d3fb289	0.046801124
110	0xbdb9a164	-0.09063986
111	0xbddd2419	-0.10797901
112	0x3ddc87da	0.10768099
113	0xbb5018f3	-0.0031753152
114	0xbdb19a5c	-0.0867202
115	0x3d130b48	0.03589943
116	0x3de5851f	0.112070315
117	0xbdd64417	-0.10462206
118	0x3d3d4336	0.046206675
119	0xbca503dd	-0.020143444
120	0x3d7b5dc9	0.061368737
121	0x3d9acc58	0.07558507
122	0x3d15ae4d	0.03654318
123	0x3de8176f	0.113325946
124	0x3dcd2ac8	0.100179255
125	0xbd93ddf2	-0.07220067
126	0x3dd1000b	0.10205086
127	0xbd218a96	-0.039438806
128	0xbb3d55aa	-0.002889017
129	0x3dab13e7	0.083534054
130	0x3d9cebda	0.076621726
131	0xbddccd1f	-0.10781311
132	0xbdc2d144	-0.095125705
133	0x3d801906	0.06254773
134	0xbd827e55	-0.06371752
135	0x3db8da94	0.090260655
136	0xbd945f56	-0.072447464
137	0xbd1e3370	-0.038623273
138	0x3ce31d5c	0.02772396
139	0x3d83aada	0.06429072
140	0x3ce92d97	0.028464122
141	0x3d777d49	0.060422216
142	0xbda24407	-0.079231314
143	0xbdd7ef85	-0.105437316
144	0x3d8b7b23	0.06810596
145	0x3c85e83a	0.016346086
146	0x3da6e885	0.08149818
147	0xbd919d63	-0.07110097
148	0xbd12946d	-0.03578608
149	0xbd52827e	-0.05139398
150	0x3ca9d13c	0.020729654
151	0xbd30f43f	-0.04320168
152	0xbcdb752d	-0.026789272
153	0x3defbe3b	0.117062055
154	0x3db63904	0.088975936
155	0xbd4bc554	-0.049748734
156	0xbdbfb09d	-0.09359858
157	0x3dc1070c	0.09425172
158	0xbdbe5c15	-0.09294907
159	0xbd381682	-0.04494334
160	0xbde3f629	-0.11130936
161	0x3de2d5ad	0.11075912
162	0xbcf5ee70	-0.030020922
163	0xbd94b780	-0.07261562
164	0xbded7070	-0.115937114
165	0x3da3a490	0.07990372
166	0x3d4b5965	0.0496458
167	0xbddcad69	-0.10775263
168	0xbdb5b3cb	-0.088721834
169	0x3d92a560	0.07160449
170	0x3d8546db	0.06507655
171	0x3d9560c8	0.0729385
172	0x3dc6264b	0.096752726
173	0x3d8ba7ed	0.06819139
174	0x3d45ad12	0.048260756
175	0x3cb46edc	0.022025518
176	0x3c0862fe	0.008324383
177	0xbd3b4daf	-0.04572838
178	0xbbce4957	-0.006295364
179	0x3b938126	0.0045014797
180	0x3d68b958	0.056817383
181	0xbd980029	-0.074219055
182	0xbd024aa3	-0.03180946
183	0xbd95a3c8	-0.073066294
184	0xbdb3d163	-0.08780172
185	0xbd888f6c	-0.066679806
186	0x3b5b8091	0.003349338
187	0x3c2ac6cd	0.010423374
188	0x3cf7e092	0.03025845
189	0x3d6ec292	0.058291025
190	0x3b9d3a6d	0.0047982247
191	0x3caed9c4	0.021344073
192	0xbd8ff932	-0.07029952
193	0xbdb27e99	-0.08715553
194	0xbd99ce36	-0.07510035
195	0xbd0c1bef	-0.034206327
196	0x3d94b201	0.07260514
197	0x3d130d71	0.03590149
198	0x3d40bff3	0.047058057
199	0x3dbca2cf	0.09210741
200	0x3d09a82a	0.03360764
201	0x3b969277	0.0045950967
202	0x3dcbc347	0.099493556
203	0x3b971139	0.0046102074
204	0x3de0b826	0.109726235
205	0x3d1d0470	0.03833431
206	0xbdd9aea2	-0.10629012
207	0xbd283463	-0.041065585
208	0xbdb1e2ea	-0.086858585
209	0x3d9743fb	0.07386013
210	0x3db0555b	0.0861003
211	0xbd346d5c	-0.044049606
212	0x3d9475a1	0.072489984
213	0x3ccc8fe4	0.024970956
214	0x3d42efcb	0.047591966
215	0x3db9de50	0.09075606
216	0x3cac74ba	0.021051753
217	0x3dddf2d5	0.10837332
218	0xbdcff8a2	-0.10154845
219	0xbd890a69	-0.06691439
220	0x3d3d0625	0.046148438
221	0xbc71c5db	-0.014756645
222	0xbd158af9	-0.036509488
223	0xbd4853b4	-0.04890795
224	0x3d3362f7	0.043795552
225	0xbcdd1d67	-0.02699156
226	0xbda0b4ef	-0.0784701
227	0x3afcb8f3	0.0019281193
228	0xbdaec2ee	-0.08533274
229	0xbce24df2	-0.027625058
230	0xbd2c0244	-0.04199435
231	0x3d19ec08	0.037578613
232	0x3da902d8	0.082524955
233	0x3d5c23b8	0.053745
234	0x3bb2e292	0.005459138
235	0xbda83e7f	-0.08215045
236	0xbd131b83	-0.03591491
237	0xbd770a1a	-0.060312368
238	0xbdb0e184	-0.08636764
239	0xbdd2ab14	-0.10286537
240	0xbdeacd37	-0.11464923
241	0x3d51eeb1	0.051253024
242	0xbdda7ba4	-0.10668114
243	0xbde01cf3	-0.109430216
244	0x3dedcc86	0.116112754
245	0x3d16f0e7	0.036850836
246	0xbc111c5a	-0.008856857
247	0x3d893e8f	0.06701385
248	0x3db499c7	0.08818393
249	0x3d7cc3f7	0.061710324
250	0xbdc08d94	-0.09402004
251	0x3d31122a	0.043230213
252	0x3de04d80	0.10952282
253	0x3d085599	0.033284757
254	0x3db2117d	0.08694742
255	0xbdcc3307	-0.0997067

conv_block_3.5.bias f4 [8]
0	0x3d132643	0.03592516
1	0x3d439c44	0.04775645
2	0x3d589d17	0.052884188
3	0x3da219b5	0.079150595
4	0x3c921a0c	0.017834686
5	0x3c257634	0.010098983
6	0xbdb9285a	-0.090408996
7	0xbd57b872	-0.052666135

conv_block_4.0.weight f4 [8]
0	0x3f8001dc	1.0000567
1	0x3f80050c	1.000154
2	0x3f800587	1.0001687
3	0x3f7ffff8	0.9999995
4	0x3f7fea92	0.999673
5	0x3f7ff239	0.9997898
6	0x3f8001fb	1.0000604
7	0x3f7fcbdd	0.99920446

conv_block_4.0.bias f4 [8]
0	0xb9573176	-0.00020522423
1	0x391c79e6	0.0001492273
2	0x3a893b2c	0.0010469905
3	0x394e95c8	0.00019701489
4	0xba067fb1	-0.0005130722
5	0x39632783	0.00021663126
6	0x3a6a906d	0.0008947913
7	0x388f0675	6.819974e-05

conv_block_4.0.running_mean f4 [8]
0	0x3da006b4	0.078137785
1	0x3e65250a	0.2237741
2	0x3eab33f3	0.33438072
3	0x3d8bb17c	0.06820962
4	0x3e9f803f	0.31152532
5	0x3d66c216	0.05633744
6	0xbca6c72f	-0.02035865
7	0x3e14d978	0.14536083

conv_block_4.0.running_var f4 [8]
0	0x3e04614a	0.12927738
1	0x3e3ee76f	0.18642972
2	0x3eb5f776	0.3554036
3	0x3debde60	0.11517024
4	0x3e061b32	0.13096312
5	0x3df56c02	0.119834915
6	0x3e0426c1	0.12905408
7	0x3e0bb585	0.13643463

conv_block_4.2.weight f4 [16, 8, 3, 3]
0	0x3dabd3ad	0.08389983
1	0xbbba382a	-0.005682965
2	0x3dd4b211	0.10385526
3	0xbc69acc7	-0.014262385
4	0x3db5dca9	0.08879978
5	0x3c462dfd	0.012095925
6	0xbd8aeed2	-0.067838326
7	0x3d984903	0.07435801
8	0x3cb9ce82	0.022681478
9	0xbcac941e	-0.021066722
10	0x3bd34a5c	0.0064480733
11	0xbd4e39a5	-0.050347943
12	0x3bf8d663	0.0075939163
13	0xbd105768	-0.035239607
14	0xbd9c2d74	-0.07625857
15	0x3bcc8456	0.0062413616
16	0x3d97543b	0.073891126
17	0x3d95172d	0.07279811
18	0x3c8f3d7c	0.017485373
19	0xbdd41be6	-0.10356884
20	0xbd3aaf08	-0.04557708
21	0xbdd9cec8	-0.106351435
22	0xbb0c3be2	-0.0021397998
23	0x3c88d3cd	0.016702557
24	0x3d0bfd74	0.03417726
25	0xbdc4bcbd	-0.096063115
26	0xbd4a7e01	-0.049436573
27	0x3cf419d5	0.029797474
28	0x3c3136f1	0.010816322
29	0x3d7e1690	0.062033236
30	0xbc977ebc	-0.018493049
31	0xbdc080dc	-0.09399578
32	0xbd21fcd2	-0.03954775
33	0x3cb93b58	0.022611305
34	0xbdd4d96a	-0.10393031
35	0xbaea953c	-0.0017897259
36	0xbdc26c85	-0.09493355
37	0x3de47306	0.111547515
38	0x3dd3c79c	0.10340807
39	0x3d98e4c5	0.07465509
40	0x3c99cdb3	0.018774843
41	0x3da3ea88	0.08003718
42	0x3d2b790c	0.041863486
43	0x3c6c7bbb	0.0144337965
44	0x3d9e733d	0.07736824
45	0x3ce57aac	0.028012596
46	0x3ca076ff	0.019587992
47	0xbbd51b16	-0.006503473
48	0x3cf9232e	0.030412283
49	0x3dc69bb2	0.09697665
50	0xbda21a47	-0.07915168
51	0x3dbc332f	0.0918945
52	0xbd3b1d4c	-0.045682237
53	0xbca8dd6e	-0.020613398
54	0xbcdc998e	-0.02692869
55	0xbd202c4d	-0.03910475
56	0x3d8bc363	0.068243764
57	0xbcff3b16	-0.031156104
58	0xbd8c8d34	-0.0686287
59	0xbd9d907f	-0.07693576
60	0xbdf1db0e	-0.118093595
61	0xbd3671ca	-0.04454211
62	0x3cf97b20	0.030454218
63	0x3cdc52c5	0.026894936
64	0xbad80204	-0.0016480093
65	0xbd8155da	-0.06315203
66	0x3d736ce1	0.059430007
67	0xbd97dfe1	-0.074157484
68	0x3d1df897	0.038567152
69	0x3ddb8042	0.107178226
70	0xbdeba964	-0.11506918
71	0xbddc3b3f	-0.10753488
72	0x3cac4294	0.02102784
73	0xbd6fdd7f	-0.058560845
74	0x3d958614	0.07300964
75	0xbd06ca42	-0.03290773
76	0xbcda9f59	-0.026687311
77	0xbdd28651	-0.10279525
78	0xbd94cfcb	-0.07266196
79	0xbda23ef3	-0.07922163
80	0xbdeac7bb	-0.11463877
81	0xbdbae04a	-0.09124811
82	0x3d9710df	0.07376265
83	0x3db663ef	0.089057796
84	0xbc8c2ddc	-0.017111711
85	0x3de017e1	0.109420545
86	0xbdcd43dd	-0.100227095
87	0x3cb5f068	0.022209361
88	0xbd3e727e	-0.046495907
89	0x3db6832b	0.08911737
90	0x3ca98631	0.02069387
91	0x3ddc225c	0.10748741
92	0xbd40fcf1	-0.047116224
93	0xbd112ed9	-0.035445068
94	0x3d8e9be1	0.06963325
95	0x3decdbcd	0.11565361
96	0xbdf068bf	-0.11738729
97	0xbd4f9933	-0.05068321
98	0x3d687fa3	0.05676235
99	0x3dcb77e7	0.09934979
100	0x3cafd013	0.021461522
101	0x3b2d8f03	0.0026482947
102	0x3de94683	0.11390402
103	0xbd9ab00b	-0.07553109
104	0x3ca078cf	0.019588856
105	0xbd2c57c4	-0.042075887
106	0xbd0f0545	-0.034917135
107	0xbd20aaf9	-0.039225552
108	0xbd3b5c7f	-0.045742508
109	0x3da31026	0.079620644
110	0x3c80be82	0.015715841
111	0x3dd0d859	0.10197515
112	0x3de658c6	0.11247401
113	0x3ddad9ee	0.10686098
114	0xbd88e0ad	-0.066834785
115	0x3dcf08af	0.10109078
116	0x3ca7ad8d	0.020468498
117	0xbcca751d	-0.024714047
118	0xbd5d5446	-0.054035448
119	0xbcce2000	-0.025161743
120	0xbdb554f2	-0.08854093
121	0xbdb23470	-0.08701408
122	0x3d90fe1d	0.07079718
123	0xbdd5882d	-0.10426364
124	0xbdc87991	-0.09788812
125	0xbdd08b9d	-0.10182879
126	0xbdcb22e7	-0.099187665
127	0xbd50a045	-0.050934095
128	0xbde47520	-0.11155152
129	0x3db95ece	0.09051286
130	0x3dd6eda1	0.10494543
131	0x3c3d856f	0.011567458
132	0x3d2fad28	0.042889744
133	0x3b2c1093	0.0026254996
134	0x3d1c0d8e	0.038098864
135	0xb9cfffb1	-0.00039672622
136	0x3c967af9	0.018369185
137	0xbd853c65	-0.0650566
138	0xbd164ff8	-0.036697358
139	0x3d030ab5	0.031992633
140	0x3dc406b8	0.09571594
141	0xbc00fa2f	-0.007872148
142	0xbc6d8359	-0.014496648
143	0xbda95e3d	-0.08269928
144	0xbd9788c6	-0.07399134
145	0x3db5dc43	0.08879902
146	0xbddb5c3f	-0.10710954
147	0x3dbb36e6	0.091413304
148	0x3db3a7f8	0.08772272
149	0x3dd797a8	0.10526973
150	0xbde61484	-0.11234382
151	0xbd88d196	-0.066806
152	0x3dc0cb31	0.09413756
153	0xbda67b94	-0.081290394
154	0xbb68f338	-0.003554536
155	0xbdc61452	-0.096718445
156	0x3d04a756	0.032386146
157	0x3cf71406	0.030160915
158	0x3d0a9a8b	0.03383879
159	0xbb11eb4a	-0.0022265487
160	0x3d36bd49	0.04461411
161	0xbd8e8a26	-0.069599435
162	0x3da3bbe3	0.07994821
163	0x3db3e63b	0.08784147
164	0xbd85a4e0	-0.06525588
165	0xbcc9e0e7	-0.024643375
166	0x3dd0dd42	0.101984516
167	0xbdc3135b	-0.09525176
168	0x3d2c5d01	0.042080883
169	0x3d858151	0.06518806
170	0x3d7cfabe	0.061762564
171	0xbd1a2bcd	-0.037639428
172	0xbdbf6030	-0.09344518
173	0xbdb09393	-0.086218975
174	0x3dbbc83b	0.0916905
175	0x3da0f4ac	0.078591675
176	0xbdb7fa68	-0.08983308
177	0xbd88f7f7	-0.066879205
178	0xbdaf4479	-0.08557982
179	0x3d84b58d	0.064799406
180	0x3d264ace	0.040598683
181	0xbb2607d9	-0.0025334267
182	0x3bec0038	0.0072021745
183	0xbd9582e2	-0.073003545
184	0xbc1b4a26	-0.009478128
185	0x3c34e36c	0.01104055
186	0x3bc6d2e1	0.006067619
187	0xbcd0c88b	-0.025486251
188	0x3c84d5a7	0.016215159
189	0x3c55b095	0.013042589
190	0x3d0f0b15	0.034922678
191	0xbc6b3a63	-0.014357182
192	0x3d8b8b79	0.06813712
193	0xbdb4e03a	-0.0883183
194	0xbd6f5a36	-0.05843564
195	0xbd7b433e	-0.061343424
196	0x3d036a28	0.03208366
197	0xbd8b281d	-0.067947604
198	0x3dac16a4	0.08402756
199	0x3d8b17ef	0.06791674
200	0x3d844735	0.06458894
201	0xbc21075e	-0.009828417
202	0x3c2ef1c4	0.010677759
203	0xbc9d3b1a	-0.01919322
204	0x3dc075a0	0.09397435
205	0xbdd5f976	-0.104479715
206	0x3da97c0a	0.08275612
207	0x3d43ea8b	0.0478311
208	0x3d3ec1ec	0.046571657
209	0x3d89b390	0.06723702
210	0xbc876052	-0.016525421
211	0x3d95185c	0.07280037
212	0xbd1a22a3	-0.03763069
213	0xbda2a6a3	-0.0794194
214	0x3ce9a378	0.02852033
215	0xbda1e3f6	-0.07904808
216	0x3da63c2b	0.08116945
217	0xbdc2d674	-0.0951356
218	0x3d75a335	0.0599701
219	0x3db9d4f6	0.09073822
220	0xbd90ec9b	-0.07076379
221	0xbce31490	-0.027719766
222	0x3d956ffc	0.0729675
223	0x3c45fabb	0.012083705
224	0x3c9b980e	0.018993404
225	0x3db2c696	0.087292835
226	0xbd81ad58	-0.06331891
227	0x3d98e325	0.074651994
228	0x3cd422aa	0.025895435
229	0xbda3db32	-0.080007926
230	0xbd7bcf77	-0.06147715
231	0x3de73259	0.112889
232	0x3ca10c3c	0.019659154
233	0xbccb117c	-0.02478861
234	0xbdda15e4	-0.106487066
235	0x3d6329f9	0.05545995
236	0x3cde79bd	0.027157659
237	0x3d19307f	0.037399765
238	0x3d094905	0.033516902
239	0xbd9b49b4	-0.07582417
240	0xbdbbc431	-0.0916828
241	0x3c5a401a	0.013320947
242	0xbcfee9d8	-0.031117365
243	0x3cbcc43b	0.023042789
244	0x3d45151a	0.048115827
245	0x3dc6ea88	0.09712702
246	0x3d40e79b	0.047095876
247	0x3d169a8f	0.036768492
248	0xbd4c31bd	-0.04985212
249	0x3d125176	0.03572222
250	0xbd3b09c9	-0.04566363
251	0xbdacb240	-0.08432436
252	0x3ba85757	0.005137365
253	0xbde5391a	-0.11192532
254	0xbdbb7326	-0.09152822
255	0x3dab8457	0.08374851

conv_block_4.2.bias f4 [16]
0	0xbdd322c6	-0.10309367
1	0xbd8878c5	-0.0666366
2	0xbc878b63	-0.016545957
3	0xbb18320b	-0.0023223187
4	0x3d8954d8	0.06705636
5	0xbcfae354	-0.030625977
6	0xbdf0f541	-0.117655285
7	0x3c087e79	0.008330935
8	0x3d44ec72	0.048077054
9	0x3c8ff975	0.017575005
10	0x3d8b5418	0.06803149
11	0x3d9ccd69	0.076563664
12	0x3d227e0c	0.03967099
13	0xbd9a78ce	-0.07542573
14	0xbded61fb	-0.11590954
15	0xbd0c830e	-0.03430467

conv_block_4.3.weight f4 [16]
0	0x3f7fb383	0.9988329
1	0x3f8017e9	1.0007297
2	0x3f801f2a	1.000951
3	0x3f7fdf5e	0.99950206
4	0x3f7fff15	0.999986
5	0x3f7fe432	0.99957573
6	0x3f80005e	1.0000112
7	0x3f8022a3	1.001057
8	0x3f800d61	1.0004083
9	0x3f8008ce	1.0002687
10	0x3f800eee	1.0004556
11	0x3f7fee8a	0.99973357
12	0x3f8003d4	1.0001168
13	0x3f7fe3a5	0.99956733
14	0x3f800044	1.0000081
15	0x3f7fde31	0.9994841

conv_block_4.3.bias f4 [16]
0	0xba6deb3c	-0.0009075885
1	0x38801695	6.107722e-05
2	0x3a672d28	0.00088186795
3	0x3a08423c	0.0005197858
4	0xb7bfd72e	-2.2869175e-05
5	0xba31a7a4	-0.00067769946
6	0xb84e7d3c	-4.923086e-05
7	0x3a228935	0.0006200255
8	0x3910b83a	0.0001380154
9	0xb80c3048	-3.3423566e-05
10	0x3a2f463c	0.0006686186
11	0xb95994b7	-0.00020750133
12	0x3a488fa9	0.00076508016
13	0x39d2fe5e	0.0004024384
14	0x3a4c8ed2	0.00078032643
15	0xba18b47f	-0.0005825236

conv_block_4.3.running_mean f4 [16]
0	0xbe0a1236	-0.1348351
1	0xbdb61aa4	-0.088918
2	0x3d125165	0.035722155
3	0x3e60b19b	0.21942751
4	0x3e2563ea	0.16151395
5	0x3e41995e	0.18906161
6	0xbde3e391	-0.11127389
7	0x3e783005	0.24237068
8	0xbe25605f	-0.16150044
9	0x3d84baf4	0.06480971
10	0x3dc5ff90	0.09667885
11	0xbde7515c	-0.11294815
12	0xbb41c962	-0.0029569496
13	0xbcd8dfc6	-0.026473891
14	0x3b0e8b25	0.0021750417
15	0x3e8aef11	0.27135518

conv_block_4.3.running_var f4 [16]
0	0x3e5563cc	0.2083885
1	0x3e37d69d	0.17952962
2	0x3e786f32	0.24261168
3	0x3e6c7795	0.23092492
4	0x3e420059	0.18945445
5	0x3e8e5b97	0.27804253
6	0x3e56e2d0	0.2098496
7	0x3e987314	0.29775298
8	0x3eb08143	0.3447362
9	0x3e4d34e9	0.20039715
10	0x3e2ee531	0.17079617
11	0x3e6a3c5b	0.22874586
12	0x3e798e4a	0.24370685
13	0x3e2ea0fe	0.17053601
14	0x3e30963b	0.17244808
15	0x3edb6065	0.4284698

conv_block_4.5.weight f4 [16, 16, 3, 3]
0	0xbcf8e30d	-0.030381704
1	0x3ba558f3	0.005046004
2	0x3ce06b91	0.027395042
3	0xbda3a3c4	-0.0799022
4	0xbc55d869	-0.0130520845
5	0xbd442954	-0.047890976
6	0x3d06d275	0.03291555
7	0xbcbe4d07	-0.023230089
8	0x3d3bb0a0	0.04582274
9	0x3d58d703	0.052939426
10	0xbd422804	-0.047401443
11	0x3d883d50	0.066523194
12	0x3d3f48f1	0.04670042
13	0x3d8f674b	0.070021234
14	0xbd820bc5	-0.06349901
15	0x3d20485c	0.039131507
16	0xbcbf777a	-0.0233724
17	0xba488925	-0.00076498307
18	0x3ac7e18b	0.0015249712
19	0x3cfb4bf5	0.030675868
20	0x3d8195d6	0.06327407
21	0xbd85baeb	-0.065297924
22	0xbda8bc37	-0.08239024
23	0x3cf780c8	0.030212775
24	0x3d2fa589	0.042882476
25	0x3c6bd7f6	0.014394751
26	0x3c863d4f	0.016386656
27	0xbce96b3d	-0.028493518
28	0x3afcd660	0.0019289963
29	0x3d0c1d9a	0.034207918
30	0xbd09b6ce	-0.0336216
31	0xbd5e6aa1	-0.054300908
32	0xbc012041	-0.007881225
33	0x3cde01c0	0.027100444
34	0xbbd9fd86	-0.006652537
35	0xbcb08734	-0.021548845
36	0xbcdc2dec	-0.026877366
37	0x3c294d98	0.010333441
38	0x3d1f9313	0.03895862
39	0x3d9bdd5e	0.07610582
40	0xbd3dc578	-0.0463309
41	0x3c7c6abd	0.015406308
42	0xbd15efa4	-0.036605492
43	0x3cc7ec93	0.0244048
44	0x3d04b2e3	0.032397162
45	0xbc1b29c3	-0.009470406
46	0xbd5d7eec	-0.05407612
47	0x3d239ef9	0.03994653
48	0xbd93333a	-0.07187505
49	0x3da854c6	0.08219294
50	0x3d8d7563	0.06907155
51	0x3caa398d	0.020779395
52	0xbd738337	-0.059451308
53	0x3cb2809d	0.021789843
54	0xbc9ef675	-0.01940463
55	0x3d045a3a	0.03231261
56	0x3d17b940	0.037041903
57	0xbcf9b4ab	-0.030481657
58	0xbd3aaf9d	-0.045577634
59	0x3c725a6d	0.014792067
60	0xbc30f818	-0.010801338
61	0xbd54277d	-0.05179547
62	0x3da95493	0.082680844
63	0x3ce45f96	0.02787761
64	0xbd3147f7	-0.04328152
65	0x3cdde575	0.027086953
66	0xbc47793a	-0.012174899
67	0xbc0201a2	-0.00793496
68	0x3d3fc377	0.04681727
69	0xbda34940	-0.07972956
70	0xbc2344dc	-0.009965148
71	0xbd83f974	-0.06444064
72	0x3c005fa4	0.0078353025
73	0xbda9532e	-0.082678184
74	0xbd01bd9b	-0.031674962
75	0xbc7901de	-0.015198199
76	0xbc510c4c	-0.012759279
77	0x3c776e70	0.015102014
78	0x3d4e8e65	0.050428767
79	0x3d710ee2	0.058852084
80	0xbd666a64	-0.056253806
81	0xbc57f095	-0.013179918
82	0xbd378f33	-0.0448143
83	0xbca1904b	-0.019722125
84	0x3d967b8a	0.07347782
85	0x3cf3941d	0.029733712
86	0x3d15493c	0.036446795
87	0xbcd7a4f7	-0.026323779
88	0xbda8fb52	-0.082510605
89	0x3d9e7d25	0.07738713
90	0xbd9f13f2	-0.07767476
91	0xbc239f59	-0.009986722
92	0x3d5b92c0	0.05360675
93	0x3af862d1	0.0018950348
94	0xbcaf30b9	-0.021385537
95	0x3d87fd47	0.06640106
96	0xbd9d7898	-0.07689017
97	0xbc38af7f	-0.01127231
98	0x3d755862	0.05989874
99	0xbb817516	-0.0039507253
100	0x3bbed5c8	0.0058238246
101	0x3c1a3360	0.009411663
102	0xbbd8d3ca	-0.006617044
103	0xba769b07	-0.0009407256
104	0xbc94cf59	-0.018165277
105	0x3d24a34c	0.040194795
106	0xbd2ac029	-0.041687164
107	0xbd928000	-0.0715332
108	0xbcb8c11c	-0.02255302
109	0xbd853275	-0.065037645
110	0xbd863220	-0.06552529
111	0x3caf0b0d	0.021367574
112	0xbd7eb5eb	-0.06218521
113	0xbbb68abe	-0.0055707386
114	0x3d85279a	0.06501694
115	0x3c859247	0.016305102
116	0xbcae13f3	-0.021249747
117	0xbd52ab94	-0.05143316
118	0x3c4b1644	0.012395445
119	0x3d9fbf02	0.07800104
120	0x3d5d7f3a	0.05407641
121	0xbd957214	-0.07297149
122	0x3d9632b1	0.07333887
123	0x3d5df5d5	0.05418952
124	0x3cc96b94	0.02458743
125	0x3bcd04bc	0.006256668
126	0x3cf94459	0.030428099
127	0xbd4b905f	-0.04969823
128	0xbd81a2d5	-0.06329886
129	0x3da692c3	0.08133461
130	0xbd347da3	-0.04406513
131	0xbb93d078	-0.0045109354
132	0xbd32aa11	-0.04361922
133	0xbd92bad6	-0.071645424
134	0xbd25f843	-0.040519964
135	0x3d52ee1d	0.051496614
136	0x3da0814b	0.07837161
137	0xbcacb079	-0.021080242
138	0xbd01919d	-0.03163301
139	0xbd98c4a3	-0.074593805
140	0xbd29bd94	-0.04144056
141	0xbd3ddedd	-0.046355117
142	0x3a84e003	0.0010137561
143	0x3d1f9233	0.038957786
144	0x3d238b5b	0.03992782
145	0x3ce2119a	0.027596284
146	0xbce619bb	-0.028088441
147	0x3d632df2	0.05546374
148	0x3d9e3722	0.077253595
149	0xbd3f735e	-0.046740882
150	0x3d601cd3	0.05471499
151	0xbc9eb782	-0.019374613
152	0x3cb47560	0.022028625
153	0xbd822058	-0.06353825
154	0xbd948ecd	-0.072537996
155	0x3d5732b6	0.052538596
156	0xbcc0b0e9	-0.023521857
157	0x3d744367	0.059634592
158	0x3cf6f82c	0.030147634
159	0x3d153313	0.03642566
160	0xbac2bc1b	-0.0014857085
161	0x3b982047	0.0046425196
162	0xbd551aa1	-0.05202735
163	0xbd9b3a75	-0.07579509
164	0x3b43fb70	0.0029904507
165	0x3cfdfc1e	0.031004008
166	0xbd0ab86b	-0.03386728
167	0x3a7aecf8	0.0009572054
168	0xbc8a9e1a	-0.016921092
169	0x3d53048c	0.051518008
170	0xbd072ef8	-0.033003777
171	0xbd318d22	-0.043347485
172	0x3d9f3d2b	0.07775339
173	0x3d1774d8	0.036976665
174	0xbd7b30fa	-0.061326005
175	0xbbffff38	-0.007812407
176	0xbda90a98	-0.08253974
177	0x3cd1d542	0.025614385
178	0xbb811cd3	-0.0039402037
179	0xbd1e2f62	-0.038619407
180	0xbd8af32e	-0.06784664
181	0xbc814bfe	-0.015783306
182	0x3c86c3d6	0.016450804
183	0x3d432f9c	0.047652826
184	0xbda00678	-0.07813734
185	0x3d82d674	0.0638856
186	0x3d71b925	0.05901446
187	0xbd0683cd	-0.03284054
188	0x3daa5a63	0.08318021
189	0xbd9d01fe	-0.076663956
190	0xbd2c19eb	-0.042016905
191	0xbcd107a0	-0.025516331
192	0x3cfd672f	0.03093299
193	0xbd48e3b7	-0.04904529
194	0x3d446bf4	0.047954515
195	0x3c25f7c5	0.010129874
196	0x3d4aba61	0.04949415
197	0x3b948167	0.0045320275
198	0xbbcc1089	-0.006227557
199	0xbcb94e18	-0.022620246
200	0x3c3948ff	0.0113089075
201	0xbc7e83d8	-0.015534364
202	0x3d8dac44	0.06917623
203	0xbc97f450	-0.018549114
204	0xbb7a948c	-0.0038235513
205	0xbcd2e8b4	-0.025745727
206	0xbcdd121a	-0.02698617
207	0x3c5462bd	0.012962994
208	0x3d2e5ba9	0.042567883
209	0xbd521f76	-0.051299535
210	0xbda419e5	-0.080127515
211	0x3d321792	0.04347951
212	0xbd99b081	-0.075043686
213	0xbd2835dd	-0.041066993
214	0xbd9e82e4	-0.07739809
215	0xbcd8f2c7	-0.026482953
216	0xbc6fdece	-0.014640523
217	0xbd98bfc8	-0.07458454
218	0xbcc717b0	-0.024303287
219	0x3c6e2ef5	0.014537563
220	0x3ca18261	0.01971549
221	0xbd8701aa	-0.06592114
222	0xbcfebb02	-0.031095032
223	0xb923bc0b	-0.00015614943
224	0xbd143498	-0.03618297
225	0x3c974e49	0.018469946
226	0x3cc577e3	0.024105018
227	0xbd012187	-0.031526115
228	0xbc7e7168	-0.015529968
229	0xbda86fce	-0.0822445
230	0x3d06f563	0.032948863
231	0x3d401111	0.046891276
232	0x3a5d60ef	0.0008444925
233	0xbd7b4a4b	-0.06135015
234	0xbd10409f	-0.035217877
235	0xbda409ff	-0.08009719
236	0xbc0b573f	-0.008504688
237	0x3c80c598	0.01571922
238	0x3c89f4d3	0.016840374
239	0xbda1be84	-0.07897666
240	0x3cba9847	0.02277769
241	0xbd95d1c2	-0.07315399
242	0x3ae95337	0.0017801289
243	0x3ca76483	0.02043367
244	0xbd9141e4	-0.07092646
245	0x3d542d74	0.05180116
246	0x3d6d1d7e	0.057889454
247	0x3d9b6125	0.07586888
248	0xbcde2d93	-0.02712134
249	0x3b0365a2	0.0020049592
250	0x3d7eb072	0.06217999
251	0xbd9a1372	-0.0752324
252	0xbd7604e0	-0.060063243
253	0xbd993b8f	-0.07482063
254	0x3ce67386	0.028131258
255	0xbd35e766	-0.044410132

conv_block_4.5.bias f4 [16]
0	0xbc9d9e8b	-0.019240638
1	0x3d9b03a9	0.075690575
2	0xbc100d1f	-0.008792191
3	0xbcec791f	-0.028866349
4	0xbd65f7fc	-0.0561447
5	0x3c7fc7b8	0.0156115815
6	0x3bd8e7ce	0.00661943
7	0xbd34cee0	-0.044142604
8	0xbbffe004	-0.007808687
9	0x3daa8b9a	0.08327408
10	0x3d22c114	0.039734915
11	0x3ccaea69	0.024769979
12	0xbd165005	-0.036697406
13	0xbd8878a0	-0.066636324
14	0xbcea48b3	-0.028599119
15	0x3d64a259	0.05581889

conv_block_5.0.weight f4 [16]
0	0x3f7fd350	0.9993181
1	0x3f7fe44e	0.9995774
2	0x3f800dca	1.0004208
3	0x3f7fd700	0.9993744
4	0x3f80283a	1.0012276
5	0x3f7fedbc	0.9997213
6	0x3f7ff74a	0.9998671
7	0x3f7fd82f	0.99939245
8	0x3f8001c3	1.0000538
9	0x3f80031d	1.000095
10	0x3f7fe458	0.999578
11	0x3f8000bd	1.0000225
12	0x3f802181	1.0010225
13	0x3f7ff2c3	0.999798
14	0x3f801afc	1.0008235
15	0x3f7ff980	0.9999008

conv_block_5.0.bias f4 [16]
0	0xb88dee90	-6.76784e-05
1	0xb9e4e396	-0.00043657114
2	0x3934f96c	0.00017259055
3	0xbac85f47	-0.0015287184
4	0x3a5f982d	0.0008529451
5	0xba52bb8f	-0.00080388127
6	0x3a62833b	0.00086407707
7	0xb9953f79	-0.00028466785
8	0x39bda96a	0.00036175112
9	0x393a295a	0.00017753747
10	0xba3a5aa4	-0.00071088434
11	0x39a57e67	0.0003156543
12	0xb7f5891a	-2.9270119e-05
13	0x3a3a474b	0.00071059604
14	0xb8f878a2	-0.00011848031
15	0xb9d5508f	-0.00040686547

conv_block_5.0.running_mean f4 [16]
0	0x3d168fdb	0.036758285
1	0xbd9d7ebe	-0.0769019
2	0x3eaa3f4b	0.33251414
3	0xbdc5b2fe	-0.09653281
4	0x3e50dc23	0.20396475
5	0x3dc43c95	0.095818676
6	0x3db6234c	0.08893451
7	0x3e2636cc	0.16231841
8	0x3e272cb2	0.16325644
9	0x3e757cfb	0.23973458
10	0x3e843ed4	0.25829184
11	0x3f0321da	0.5122353
12	0x3e220edd	0.15825982
13	0x3e8bf346	0.2733404
14	0x3cc6d64a	0.024272103
15	0x3e4ba71d	0.19887967

conv_block_5.0.running_var f4 [16]
0	0x3e0355d3	0.12825708
1	0x3e0206d7	0.12697922
2	0x3e495e68	0.1966492
3	0x3dd2364b	0.10264262
4	0x3e0ac4f9	0.13551702
5	0x3ded4cc1	0.11586905
6	0x3dede487	0.11615854
7	0x3e0673b2	0.13130072
8	0x3df00ee7	0.117215924
9	0x3e1df0e5	0.15423925
10	0x3e3fc0da	0.18725911
11	0x3f248b4f	0.6427507
12	0x3e01d89e	0.12680289
13	0x3e94c18e	0.2905392
14	0x3df582fa	0.119878724
15	0x3de0279a	0.109450534

conv_block_5.2.weight f4 [32, 16, 3, 3]
0	0xbc44ad98	-0.012004279
1	0xbd9d0193	-0.07666316
2	0x3cae61c8	0.02128686
3	0xbc33283c	-0.010934886
4	0x3bc7cd16	0.006097446
5	0xbcff344e	-0.03115287
6	0xbd9706a4	-0.073743135
7	0x3d7a777a	0.061149098
8	0xbd8eb4b7	-0.06968062
9	0x3ca4c171	0.020111771
10	0xbd67877a	-0.056525685
11	0x3d89c66d	0.067273
12	0xbccabfd7	-0.02474968
13	0xbd878fde	-0.06619237
14	0xbc42fe64	-0.011901472
15	0xbd9a8bf1	-0.07546223
16	0x3d1a51bf	0.037675615
17	0x3b129254	0.002236505
18	0xbd7c006b	-0.061523836
19	0x3d2c4d1a	0.042065717
20	0x3d0ec30d	0.034853984
21	0xbbde9f42	-0.0067938874
22	0xbcf66e03	-0.030081755
23	0x3d81e948	0.06343323
24	0xbd149aab	-0.036280315
25	0x3da134c3	0.078713916
26	0x3d2b89c3	0.041879427
27	0x3d9f204b	0.07769831
28	0xbd692a40	-0.05692506
29	0x3d8d47aa	0.068984345
30	0xbd4fa5a0	-0.05069506
31	0xbd2700f0	-0.04077238
32	0x3c47db41	0.01219827
33	0x3bda7727	0.006667036
34	0x3da28058	0.07934636
35	0x3c3ba0c5	0.011451905
36	0x3b2d6d2d	0.002646278
37	0xbd3709aa	-0.04468695
38	0x3d33873e	0.04383015
39	0x3d9b8384	0.07593444
40	0x3d06130f	0.03273302
41	0xbc55921b	-0.013035323
42	0x3d90eea1	0.07076765
43	0x38a504f9	7.868739e-05
44	0xbd84dc29	-0.06487305
45	0xbd8c08be	-0.06837605
46	0x3d5d53e2	0.054035075
47	0x3d48fb9a	0.04906807
48	0xbc43b85b	-0.011945809
49	0x3c8ff5b3	0.017573213
50	0xbd1898bb	-0.03725503
51	0x3d612088	0.054962665
52	0xbd29ffd7	-0.041503754
53	0xbd00e447	-0.031467702
54	0xbcf062ed	-0.029344046
55	0x3bc289ee	0.0059368527
56	0xbd1b7768	-0.03795567
57	0xbd3beb88	-0.045878917
58	0xbda4b564	-0.0804241
59	0xbd08c92c	-0.033394977
60	0x3daa67d6	0.083205864
61	0x3d383d71	0.04498047
62	0xbd83bed5	-0.06432883
63	0xbd95978e	-0.073042974
64	0xbcd2d638	-0.025736913
65	0x3d24b115	0.04020794
66	0xbbe16362	-0.0068783024
67	0xbd4194e2	-0.047261126
68	0x3c868d2f	0.016424743
69	0xbd967aaf	-0.07347619
70	0x3d94e971	0.07271088
71	0xbc09c22b	-0.00840811
72	0xbd8a1cc0	-0.06743765
73	0xbda41498	-0.080117404
74	0x3cdc376a	0.026881892
75	0xbc84b728	-0.016200617
76	0xbcb72ee7	-0.022361232
77	0x3d33de4f	0.043913182
78	0x3d8d8910	0.06910908
79	0x3ca52872	0.020160887
80	0x3cb5f525	0.02221162
81	0xbd2f4b95	-0.04279669
82	0x390e8493	0.00013591563
83	0x3c249060	0.010044187
84	0xbd9df04b	-0.07711848
85	0x3c3b4573	0.011430132
86	0xbd160045	-0.03662135
87	0xbd493e50	-0.04913169
88	0x3d5e92a5	0.05433907
89	0xbd36d0c1	-0.044632677
90	0xbdaa82f6	-0.0832576
91	0x3d3dc321	0.046328668
92	0xbd97fd8b	-0.07421406
93	0xbd7ff766	-0.062491797
94	0x3d8f41c0	0.06994963
95	0xbd590323	-0.052981507
96	0xbd91f97a	-0.07127662
97	0xbbf6432a	-0.007515331
98	0x3c876e3f	0.016532062
99	0xbc4c4923	-0.012468609
100	0x3d5ce9d0	0.05393392
101	0x3d6d9807	0.058006313
102	0x3d9437f4	0.07237235
103	0xbd83916d	-0.06424222
104	0xbd022c80	-0.03178072
105	0x3da6009d	0.08105586
106	0xb9985e6c	-0.0002906205
107	0xbd851c24	-0.06499508
108	0x3d88d822	0.06681849
109	0x38b61213	8.681803e-05
110	0xbb65b177	-0.0035048404
111	0xbd6b8adf	-0.057505485
112	0xbd9e4333	-0.07727661
113	0xbbd9b9ec	-0.006644478
114	0x3d99eb97	0.07515638
115	0x3bb8e977	0.0056430656
116	0xbd116d45	-0.0355046
117	0xbd533bec	-0.051570818
118	0xbd96f9ce	-0.07371865
119	0x3c248679	0.010041826
120	0xbd81e145	-0.06341795
121	0xbd06b24f	-0.032884892
122	0xbd28fc58	-0.04125628
123	0xbc9adde1	-0.018904628
124	0xbd946abd	-0.07246921
125	0xbd5e7d20	-0.054318547
126	0xbd719edd	-0.058989394
127	0x3d220411	0.03955466
128	0xbd64f3ed	-0.05589669
129	0x3ce33ff5	0.027740458
130	0x3bb657a9	0.005564649
131	0xbda261c1	-0.07928801
132	0xbd5ebe0b	-0.054380458
133	0x3c70cd21	0.014697344
134	0x3d041aea	0.03225223
135	0x3cdb7867	0.02679081
136	0x3d06cf69	0.032912645
137	0xbd8cab4f	-0.06868612
138	0xbd1e6ecf	-0.038679894
139	0xbd73dc27	-0.059536126
140	0x3d57fa07	0.05272868
141	0x3d85e713	0.065382145
142	0x3d9591b6	0.07303183
143	0x3d50dc3f	0.050991293
144	0xbd9f3723	-0.07774188
145	0xbce64585	-0.028109321
146	0x3d8dc7d7	0.06922882
147	0xbd0f1b65	-0.034938235
148	0x3d3c5393	0.04597814
149	0xbc93023c	-0.017945401
150	0x3d8caebe	0.06869267
151	0x3ac84589	0.0015279512
152	0x3d79f04d	0.061020184
153	0x3b9fab5b	0.004872722
154	0x3d63725e	0.05552899
155	0x3d977235	0.0739483
156	0x3d0e26c3	0.034704935
157	0xbd9a1fd6	-0.075256035
158	0xbd483276	-0.04887625
159	0xbd85589b	-0.06511041
160	0xbd1b7a1c	-0.03795825
161	0x3ca0c68b	0.019625923
162	0x3d93253f	0.071848385
163	0x3d7f33a3	0.062305104
164	0x3d298027	0.04138198
165	0xbd813789	-0.063094206
166	0x3c33730e	0.010952724
167	0xbcfee8a2	-0.031116787
168	0xbd8d0c03	-0.06887057
169	0xbd885f9e	-0.066588625
170	0xbd29d937	-0.041466918
171	0x3d3fa567	0.0467886
172	0xbd3493d0	-0.044086277
173	0xbd7176fb	-0.05895136
174	0xbceeb613	-0.029139554
175	0xbd0fd5af	-0.035115894
176	0xbd9d0cf3	-0.076684855
177	0xbb3124a4	-0.0027029896
178	0xbcb9a7a9	-0.022662954
179	0xbda351e7	-0.07974606
180	0x3d6e7bc9	0.05822352
181	0xbd40e3a3	-0.04709209
182	0xbd115525	-0.03548159
183	0x3d4fb1dd	0.050706733
184	0x3ce90b61	0.028447809
185	0x3d02b785	0.0319133
186	0x3ce2a3f6	0.027666073
187	0xbc6c6408	-0.014428146
188	0x3d24f296	0.04027041
189	0x3c1627f7	0.009164802
190	0xbc3cdba0	-0.011526972
191	0xbd919dfb	-0.071102105
192	0x3cbbc61e	0.022921618
193	0x3d107a0c	0.035272643
194	0x3c3aeeac	0.011409443
195	0x3da06ee2	0.07833649
196	0x3d83808f	0.06421005
197	0xbda62e5b	-0.0811431
198	0x3d083ce5	0.0332612
199	0xbc697b04	-0.014250521
200	0x3c4a54fa	0.012349362
201	0xbd0be342	-0.034152277
202	0xbc0cc1c4	-0.008591119
203	0xbd7bf133	-0.061509322
204	0x3d8e9506	0.06962018
205	0x3cbed84b	0.023296496
206	0xbbe72390	-0.0070538
207	0x3b88a10f	0.0041695903
208	0xbc6104e7	-0.013734079
209	0x3d474fbf	0.048660036
210	0xbd46599b	-0.0484253
211	0x3d08fa94	0.033442095
212	0xbbdf3be3	-0.006812559
213	0x3aaabbad	0.0013025902
214	0xbc3097a9	-0.010778346
215	0xbb2bf504	-0.002623857
216	0x3d85a058	0.06524724
217	0xbc9092f5	-0.0176482
218	0x3ae2532c	0.0017267219
219	0x3d33f042	0.0439303
220	0xbd30f44b	-0.043201726
221	0x3da3cff7	0.079986505
222	0xbd4ce3b1	-0.05002183
223	0x3d9da2ff	0.07697105
224	0x3d3535c4	0.044240728
225	0x3cf5b584	0.02999378
226	0x3c83ba5a	0.01608007
227	0x3d8e409f	0.06945919
228	0xbd9ab8e3	-0.075547956
229	0x3d9e0b9a	0.077170566
230	0x3c354e87	0.011066086
231	0xbb3f6896	-0.0029206625
232	0x3ce02f59	0.027366327
233	0xbd3ea36c	-0.04654257
234	0x3b99613f	0.004680782
235	0xbd9319f5	-0.07182685
236	0x3d81ba33	0.06334343
237	0xbc975db7	-0.018477304
238	0xbd9be66e	-0.0761231
239	0xbd35abb9	-0.04435322
240	0x3d8125c7	0.063060336
241	0x3d29a04f	0.041412648
242	0xbd38215b	-0.044953685
243	0xbcc1fb31	-0.023679348
244	0xbd9c0801	-0.07618714
245	0x3d191a38	0.03737852
246	0x3cd045d0	0.025423914
247	0x3d82fcb4	0.063958555
248	0xbd0564a1	-0.03256667
249	0x3d6f184f	0.05837279
250	0xbd51a0b1	-0.051178638
251	0xbcdce359	-0.026963877
252	0xbca63b26	-0.020291876
253	0x3d44cc3d	0.04804634
254	0x3d8f8532	0.07007827
255	0x3d37acf7	0.044842687
