cloud-detection-code/tests/test_artifacts/test_log_jaccard_loss/model_checkpoint_1.pt (torch, 439769 bytes, 347 tensors)

input_conv_block.0.weight f4 [3]
0.9998049 1.0002962 0.99988097
00000000: 37f3 7f3f b509 803f 33f8 7f3f

input_conv_block.0.bias f4 [3]
-0.00033556228 0.0002939733 0.00055930676
00000000: 68ee afb9 6e20 9a39 719e 123a

input_conv_block.0.running_mean f4 [3]
0.20210935 0.20005861 0.16940276
00000000: c1f5 4e3e 2adc 4c3e eb77 2d3e

input_conv_block.0.running_var f4 [3]
0.54573077 0.5441918 0.54271364
00000000: 03b5 0b3f 2750 0b3f 48ef 0a3f

input_conv_block.2.weight f4 [2, 3, 1, 1]
0.20627326 0.4135918 0.052921552 -0.19447112 0.10207174 0.24027827
00000000: 4c39 533e 4ec2 d33e 45c4 583d 7023 47be
00000010: fd0a d13d 820b 763e

conv_block_1.0.weight f4 [2]
1.0004028 0.9995971
00000000: 330d 803f 98e5 7f3f

conv_block_1.0.bias f4 [2]
0.00042435736 0.00051693624
00000000: 487c de39 0183 073a

conv_block_1.0.running_mean f4 [2]
0.12703961 0.024518058
00000000: ac16 023e 18da c83c

conv_block_1.0.running_var f4 [2]
0.6117659 0.54005414
00000000: b19c 1c3f fd40 0a3f

conv_block_1.2.weight f4 [2, 2, 3, 3]
-0.18197681 -0.101576306 -0.17068465 -0.026426505 0.0008014191 -0.085051715 0.098394655 -0.16029078
-0.11363777 -0.20894848 0.053178303 -0.17698805 -0.06371225 -0.022894504 -0.22373855 -0.1270584
-0.18665555 0.040080197 -0.091847986 -0.15051629 0.02909956 0.14488243 0.1526834 0.20716907
0.07327693 0.039264604 -0.1344991 0.0011948971 -0.07975867 0.15388429 0.05987473 0.055040725
-0.14774184 -0.13405502 0.17104694 0.0453569
00000000: 2158 3abe 3d07 d0bd f5c7 2ebe 667c d8bc
00000010: 5316 523a 982f aebd 2383 c93d 4423 24be
00000020: ebba e8bd 97f6 55be 7ed1 593d 5b3c 35be
00000030: 917b 82bd 418d bbbc b81b 65be 991b 02be
00000040: a222 3fbe 222b 243d cc1a bcbd f120 1abe
00000050: 3362 ee3c 0f5c 143e 0a59 1c3e 2124 543e
00000060: 3712 963d ecd3 203d 22ba 09be 189e 9c3a
00000070: 8358 a3bd d893 1d3e 343f 753d 6272 613d
00000080: a349 17be b845 09be ee26 2f3e 28c8 393d

conv_block_1.2.bias f4 [2]
-0.22120789 -0.14356288
00000000: 5284 62be 2602 13be

conv_block_1.3.weight f4 [2]
1.0002756 0.9997243
00000000: 0809 803f efed 7f3f

conv_block_1.3.bias f4 [2]
1.9039135e-05 -0.0003406232
00000000: 3bb6 9f37 ac95 b2b9

conv_block_1.3.running_mean f4 [2]
-0.3777278 1.945239e-05
00000000: 8a65 c1be b02d a337

conv_block_1.3.running_var f4 [2]
1.1814774 0.5783823
00000000: a73a 973f dd10 143f

conv_block_1.5.weight f4 [2, 2, 3, 3]
-0.057351343 -0.15833065 0.023231465 -0.1562458 0.1383915 -0.07469326 0.12597825 0.14465123
0.20201702 0.15687422 0.18362013 -0.08632305 -0.17868361 -0.08808917 0.14422894 0.105026096
0.17239152 -0.08027861 0.15093869 -0.011526443 -0.065458074 0.028166316 -0.20293593 0.1994408
-0.15594111 -0.12781733 0.111499265 -0.15893169 0.013257369 0.049593825 0.15105706 -0.18693505
-0.14239903 0.044072725 0.08614073 0.20323442
00000000: 3ee9 6abd 6e21 22be ea4f be3c e6fe 1fbe
00000010: 80b6 0d3e c8f8 98bd 7100 013e 741f 143e
00000020: 8ddd 4e3e a3a3 203e ea06 3c3e 24ca b0bd
00000030: d6f8 36be 1868 b4bd c0b0 133e ec17 d73d
00000040: 6787 303e 1d69 a4bd ac8f 1a3e 68d9 3cbc
00000050: e20e 86bd 0cbd e63c 70ce 4fbe 363a 4c3e
00000060: 07af 1fbe 8ce2 02be ba59 e43d fdbe 22be
00000070: 7035 593c e522 4b3d b4ae 1a3e e76b 3fbe
00000080: 0dd1 11be 9a85 343d 8d6a b03d af1c 503e

conv_block_1.5.bias f4 [2]
-0.1350979 -0.23076089
00000000: 1b57 0abe 954c 6cbe

conv_block_2.0.weight f4 [2]
1.0004612 0.9995389
00000000: 1d0f 803f c8e1 7f3f

conv_block_2.0.bias f4 [2]
0.00027239262 -0.00014759938
00000000: ebcf 8e39 e8c4 1ab9

conv_block_2.0.running_mean f4 [2]
0.051737867 -0.075769305
00000000: 16eb 533d f02c 9bbd

conv_block_2.0.running_var f4 [2]
0.5711503 0.5454967
00000000: e836 123f aca5 0b3f

conv_block_2.2.weight f4 [4, 2, 3, 3]
0.120264165 -0.1768399 -0.17473231 0.13466582 0.1504154 0.058225602 0.18497987 -0.07673193
-0.1359831 0.23346445 -0.08130391 -0.07478522 -0.15817805 -0.020102084 -0.09620793 -0.037288614
0.087340295 0.22910124 0.05019351 -0.08871604 0.0042554084 0.10971151 -0.13887365 -0.12024266
-0.07020724 0.2234076 -0.120825395 0.089453496 -0.19342846 0.114523545 0.11149287 0.11639548
-0.054737616 0.044779275 0.1593178 0.097849794 -0.08283683 -0.04915859 -0.013676698 0.06764293
0.06255472 0.087081105 0.018356858 -0.07393884 -5.8327198e-05 0.20705779 -0.09935986 -0.19004904
0.020275148 0.028148005 -0.17636058 -0.04450544 -0.08579121 -0.18892978 0.07913357 0.0709423
0.22569466 0.21795888 -0.10087621 -0.04251346 -0.05051515 0.21706864 0.074716434 -0.14039311
0.11520714 -0.14875846 0.16228731 -0.108376294 -0.059633415 -0.10125444 0.13818625 -0.21960114
00000000: 0f4d f63d 8515 35be 07ed 32be d6e5 093e
00000010: 7f06 1a3e f87d 6e3d 5d6b 3d3e a125 9dbd
00000020: 273f 0bbe 4e11 6f3e aa82 a6bd fe28 99bd
00000030: 6df9 21be 20ad a4bc aa08 c5bd f2bb 18bd
00000040: 78df b23d 8499 6a3e b697 4d3d c1b0 b5bd
00000050: f470 8b3b 6eb0 e03d e534 0ebe c941 f6bd
00000060: d0c8 8fbd f6c4 643e 4e73 f7bd 6533 b73d
00000070: 1c12 46be 528b ea3d 6056 e43d c160 ee3d
00000080: 8d34 60bd 796a 373d 3524 233e 7965 c83d
00000090: 5ba6 a9bd 855a 49bd 3b14 60bc 6088 8a3d
000000a0: b01c 803d 9457 b23d 1f61 963c 3f6d 97bd
000000b0: 5aa4 74b8 f506 543e 2f7d cbbd 379c 42be
000000c0: 1118 a63c a596 e63c de97 34be 564b 36bd
000000d0: 4db3 afbd cf76 41be c810 a23d 324a 913d
000000e0: 801c 673e 9d30 5f3e 3098 cebd 9822 2ebd
000000f0: f9e8 4ebd 3e47 5e3e ee04 993d 36c3 0fbe
00000100: b9f1 eb3d 2354 18be a52e 263e 64f4 ddbd
00000110: 2b42 74bd 7d5e cfbd b280 0d3e 1fdf 60be

conv_block_2.2.bias f4 [4]
0.19903405 -0.10423403 0.14475279 0.09993753
00000000: 95cf 4b3e a778 d5bd 133a 143e 0cac cc3d

conv_block_2.3.weight f4 [4]
1.0002766 0.99974877 1.0002667 1.0001482
00000000: 1009 803f 89ef 7f3f bd08 803f db04 803f

conv_block_2.3.bias f4 [4]
0.00023464764 -0.00023757605 0.0003408104 2.0668103e-05
00000000: bf0b 7639 d61d 79b9 ccae b239 6a60 ad37

conv_block_2.3.running_mean f4 [4]
0.11925898 0.005701714 -0.014904912 0.096480146
00000000: 0d3e f43d 72d5 ba3b bb33 74bc 6297 c53d

conv_block_2.3.running_var f4 [4]
0.57192403 0.58095026 0.6020484 0.6047643
00000000: 9d69 123f 28b9 143f d81f 1a3f d5d1 1a3f

conv_block_2.5.weight f4 [4, 4, 3, 3]
-0.14001171 -0.004733365 0.07034076 0.12161112 -0.08638332 0.08222158 -0.048775528 -0.14496738
0.05909182 0.015433258 0.07999689 -0.028813735 -0.12807456 -0.09671731 -0.16383234 0.005424914
0.03586833 0.122615516 -0.13189246 -0.08565213 -0.09892635 0.020731527 -0.03640192 -0.057518918
0.028408926 -0.079907365 0.04506791 0.06390912 -0.019848945 0.040873412 -0.06280734 0.14886473
0.08139538 -0.030237336 -0.1260836 0.05270688 -0.042715903 -0.03980598 -0.01156329 0.055058543
0.10664451 -0.1633852 -0.0021603303 -0.16297112 -0.1668757 -0.04595835 -0.018006196 0.01777373
0.15989329 -0.1557355 0.019530691 0.072315656 0.15029012 -0.08425948 0.053962197 0.05869415
0.086434305 0.11879425 0.06802631 0.032752723 -0.027954428 0.10286699 -0.04596626 0.019586239
0.03318925 0.14367549 0.08966937 -0.15632051 -0.07202972 -0.042724125 -0.12284518 0.05807202
0.14469187 -0.15871091 0.042088963 -0.11354161 -0.06703048 0.059001334 0.057445657 0.0792798
0.043248434 -0.0021742128 0.017406162 -0.1380782 0.11197318 -0.008820643 0.12505835 -0.14518037
0.07378721 0.09098374 -0.027634934 0.14090891 -0.13269104 0.00491669 0.04111688 -0.06427062
-0.05001611 -0.11006897 -0.15006028 -0.16077718 -0.08007292 -0.16599895 0.004987084 0.004688421
0.15444328 -0.053970795 -0.14556971 0.102499135 0.07517546 -0.15647905 0.12415249 0.017705329
-0.1419135 0.16332288 -0.028923435 -0.03506819 -0.16508047 -0.12810919 -0.09089351 -0.08491181
0.0070363265 0.13032179 -0.100107625 -0.018485181 0.08574894 -0.13684723 -0.11288299 0.12270962
-0.08066339 -0.009633663 -0.014513285 0.0809183 0.07962044 0.15454155 0.015445472 -0.011679383
0.01740586 -0.042580623 -0.09611432 0.12962613 -0.05751439 -0.1492994 0.061070975 -0.037441675
00000000: 3b5f 0fbe 581a 9bbb d10e 903d 400f f93d
00000010: bde9 b0bd ca63 a83d d9c8 47bd 5472 14be
00000020: 440a 723d c7db 7c3c 69d5 a33d c80a ecbc
00000030: fa25 03be ba13 c6bd aac3 27be 7ac3 b13b
00000040: acea 123d d81d fb3d d10e 07be 626a afbd
00000050: e699 cabd 2ad5 a93c 2e1a 15bd f598 6bbd
00000060: d6b9 e83c 79a6 a3bd 2199 383d c9e2 823d
00000070: 419a a2bc e16a 273d 22a1 80bd ff6f 183e
00000080: 9fb2 a63d 4ab4 f7bc 0f1c 01be 2be3 573d
00000090: dff6 2ebd 980b 23bd f473 3dbc 1185 613d
000000a0: 7068 da3d 734e 27be 5494 0dbb e7e1 26be
000000b0: 77e1 2abe d33e 3cbd bb81 93bc 379a 913c
000000c0: 11bb 233e 2079 1fbe d4fe 9f3c 3b1a 943d
000000d0: a7e5 193e 3c90 acbd 7707 5d3d 4769 703d
000000e0: 7804 b13d 664a f33d 6151 8b3d b827 063d
000000f0: af00 e5bc eeab d23d 1e47 3cbd 5273 a03c
00000100: 73f1 073d ab1f 133e 93a4 b73d 7c12 20be
00000110: 5184 93bd 7eff 2ebd 4196 fbbd eddc 6d3d
00000120: 1b2a 143e 1d85 22be 7a65 2c3d 8188 e8bd
00000130: 4747 89bd 62ab 713d 234c 6b3d 735d a23d
00000140: 4525 313d 3d7d 0ebb 5e97 8e3c 5f64 0dbe
00000150: 3252 e53d 7584 10bc 4c0f 003e 2aaa 14be
00000160: c01d 973d af55 ba3d a862 e2bc 6d4a 103e
00000170: 29e0 07be 2f1c a13b 2c6a 283d 51a0 83bd
00000180: b1dd 4cbd d76b e1bd 67a9 19be c6a2 24be
00000190: 45fd a3bd a1fb 29be b16a a33b 53a1 993b
000001a0: 6126 1e3e 7b10 5dbd 3a10 15be 11eb d13d
000001b0: 97f5 993d 0b3c 20be a943 fe3d c40a 913c
000001c0: c651 11be 1d3e 273e d7f0 ecbc aaa3 0fbd
000001d0: db0a 29be 0e2f 03be 6026 babd 3ee6 adbd
000001e0: fc90 e63b 1373 053e 3a05 cdbd 3c6e 97bc
000001f0: 249d af3d ae21 0cbe 322f e7bd 2e4f fb3d
00000200: d932 a5bd 83d6 1dbc 21c9 6dbc 7eb8 a53d
00000210: 0b10 a33d 2440 1e3e 010f 7d3c e25a 3fbc
00000220: bc96 8e3c 0569 2ebd 96d7 c4bd b6bc 043e
00000230: 3694 6bbd f1e1 18be 8f25 7a3d 715c 19bd

conv_block_2.5.bias f4 [4]
0.13958126 -0.15582797 0.13991866 0.12332751
00000000: 64ee 0e3e 5e91 1fbe d646 0f3e 2293 fc3d

conv_block_3.0.weight f4 [4]
1.0000559 0.99978256 1.0003079 1.0001925
00000000: d501 803f c0f1 7f3f 170a 803f 4f06 803f

conv_block_3.0.bias f4 [4]
-0.0004099902 -1.0856056e-05 0.00039840458 0.00024508632
00000000: f4f3 d6b9 6822 36b7 f5e0 d039 ee7e 8039

conv_block_3.0.running_mean f4 [4]
0.040448714 0.015199212 0.05693785 0.060454335
00000000: 8dad 253d 1e06 793c aa37 693d f79e 773d

conv_block_3.0.running_var f4 [4]
0.5545237 0.5480584 0.577164 0.5612739
00000000: 44f5 0d3f 8e4d 0c3f 05c1 133f a5af 0f3f

conv_block_3.2.weight f4 [8, 4, 3, 3]
0.1582731 0.15208355 0.05964696 -0.05029724 -0.12744363 -0.071715645 -0.067372985 -0.053832304
-0.12051369 0.14879064 0.020697508 0.045894433 -0.0090125315 0.022239333 0.1657353 0.015182551
-0.12160046 -0.08416055 0.02695254 -0.0008409238 -0.044326045 0.11655973 0.13415866 -0.036407974
0.15529446 0.055441536 -0.006801114 0.07918998 0.1596263 0.017186996 -0.08898623 -0.07634496
-0.11264244 0.050901692 -0.035272624 -0.15261097 0.05764154 -0.11381613 -0.11217203 -0.052307386
-0.11522824 -0.118421614 0.012833836 0.12349476 0.00032991567 0.0069375453 -0.12204462 0.10318561
0.061379343 0.0044846656 0.027546123 0.11735116 -0.010216658 0.039848544 -0.0027411985 0.09529515
0.14166133 -0.043694954 0.120967 0.029441442 0.11317238 0.038458135 0.16611847 -0.13949564
0.02318063 -0.12918465 0.082077205 0.06785275 0.003389117 0.11730245 -0.093416944 -0.10188368
-0.037820812 0.104453616 -0.06958564 0.041328657 0.09072012 -0.062233172 -0.11316538 0.12746575
0.0013439085 0.08575211 -0.11096707 -0.13532871 0.008616247 -0.11614847 -0.15634592 0.16190524
0.15648721 -0.14307068 -0.14612468 -0.034259804 -0.139046 0.10475674 -0.14348313 -0.14586045
-0.064258516 -0.028287884 -0.04398416 -0.06857936 -0.011491001 -0.14426965 -0.10302893 0.06366817
-0.07856982 0.07853253 0.023233812 -0.053561945 -0.15173322 0.06602563 -0.14940201 -0.1219508
-0.12162475 -0.08806436 0.10488874 -0.08085446 -0.04726039 0.028875245 0.01626635 -0.080572255
-0.038956482 -0.07077374 0.029789602 0.0847544 0.0029645972 0.04888124 0.094732605 -0.05338965
0.10774656 0.06810688 0.07028216 -0.04823269 0.021953855 0.10248779 -0.10383412 0.079526216
0.12793447 0.025769435 0.04860096 0.11000776 -0.02557388 -0.011086308 0.02333681 0.12646663
-0.13598476 0.12104796 0.104547665 -0.1255325 -0.1192809 -0.104361705 -0.107362196 -0.036601868
-0.11642588 0.07927964 -0.03854192 -0.08484263 -0.10470481 -0.05214433 -0.14709109 -0.15159996
-0.073829435 -0.08827364 0.07095492 0.13166124 -0.109020464 0.15024629 0.057544827 0.012955338
0.034194097 0.1483383 -0.1579538 0.029436009 -0.04452955 -0.16589123 0.016168015 0.10862248
0.1486011 0.038580798 0.092052534 -0.011392284 0.015299682 0.083244585 -0.058438234 0.08472125
0.14960524 -0.12636991 -0.15483883 -0.10365019 0.006321582 0.13439207 0.16404411 -0.005318334
-0.08717201 0.10787392 -0.14316493 0.09804895 0.017649636 -0.033323422 0.03967005 -0.12472885
0.0024316201 0.028026307 0.030816898 -0.10093175 -0.12441813 -0.051847056 -0.04499183 -0.029204937
0.12580127 -0.016150713 0.032792684 0.015206215 -0.08945637 -0.13254046 -0.111465394 -0.16117036
0.11868814 0.068307355 -0.032173716 0.052060038 0.09810295 0.016068125 0.027889568 -0.001299731
-0.107388034 0.071643986 0.023817973 -0.015399197 0.040516395 0.016001286 0.16319679 0.14718252
-0.11465766 -0.13410823 0.12796555 0.112731345 0.028235858 0.12973098 0.1267895 -0.058212396
-0.1123856 -0.05180892 0.034351368 -0.052228965 -0.011914757 -0.04760307 -0.117540605 -0.09084096
-0.0620538 -0.07899504 -0.08415639 -0.012594288 0.11821215 0.023942206 0.12376968 0.115056165
00000000: 5812 223e cabb 1b3e 5f50 743d 7b04 4ebd
00000010: 9580 02be a7df 92bd d9fa 89bd 437f 5cbd
00000020: e2cf f6bd 935c 183e d28d a93c cdfb 3b3d
00000030: 4ca9 13bc 432f b63c 84b6 293e 3cc0 783c
00000040: a909 f9bd 5e5c acbd 93cb dc3c 7171 5cba
00000050: 3a8f 35bd deb6 ee3d e360 093e 8720 15bd
00000060: 8305 1f3e aa16 633d e1db debb 5b2e a23d
00000070: 1475 233e becb 8c3c 6a3e b6bd bf5a 9cbd
00000080: 14b1 e6bd 4b7e 503d 077a 10bd 0d46 1cbe
00000090: 8919 6c3d 6e18 e9bd 73ba e5bd 4540 56bd
000000a0: c9fc ebbd 0887 f2bd 0245 523c d2ea fc3d
000000b0: 88f8 ac39 5954 e33b 88f2 f9bd fa52 d33d
000000c0: e868 7b3d 1af4 923b 68a8 e13c ce55 f03d
000000d0: c563 27bc 3a38 233d aea5 33bb 1b2a c33d
000000e0: ab0f 113e 7bf9 32bd 8cbd f73d 2e2f f13c
000000f0: ecc6 e73d 4786 1d3d f61a 2a3e f2d7 0ebe
00000100: 4ee5 bd3c fb48 04be 1818 a83d 62f6 8a3d
00000110: f31b 5e3b 443c f03d 6251 bfbd 64a8 d0bd
00000120: ffe9 1abd c7eb d53d eb82 8ebd 3d48 293d
00000130: 78cb b93d 36e8 7ebd 40c3 e7bd 6286 023e
00000140: 1626 b03a cd9e af3d b442 e3bd 9c93 0abe
00000150: 292b 0d3c 40df edbd 2519 20be 7dca 253e
00000160: 2f3e 203e 1f81 12be b5a1 15be 0254 0cbd
00000170: 1362 0ebe b48a d63d 3eed 12be 715c 15be
00000180: f899 83bd febb e7bc bc28 34bd 5673 8cbd
00000190: c044 3cbc 6cbb 13be d500 d3bd 7564 823d
000001a0: 37e9 a0bd aad5 a03d d654 be3c c563 5bbd
000001b0: f45f 1bbe 7238 873d d7fc 18be 57c1 f9bd
000001c0: 6616 f9bd 165b b4bd e8cf d63d 0697 a5bd
000001d0: 1c94 41bd c78b ec3c 0241 853c 1103 a5bd
000001e0: d590 1fbd d3f1 90bd 5309 f43c b793 ad3d
000001f0: b049 423b b237 483d 2b03 c23d 1baf 5abd
00000200: 3aaa dc3d 9f7b 8b3d 18f0 8f3d a48f 45bd
00000210: 92d8 b33c 1ee5 d13d fca6 d4bd a4de a23d
00000220: 4101 033e 6c1a d33c cd11 473d c04b e13d
00000230: 5080 d1bc 59a3 35bc d62c bf3c 7880 013e
00000240: 973f 0bbe fee7 f73d 161d d63d 978b 00be
00000250: 8b49 f4bd 97bb d5bd b6e0 dbbd d7eb 15bd
00000260: b170 eebd 5d5d a23d 22de 1dbd f9c1 adbd
00000270: 7a6f d6bd 4b95 55bd 0c9f 16be 053d 1bbe
00000280: e333 97bd cfc8 b4bd d050 913d 34d2 063e
00000290: 1f46 dfbd 2ada 193e 20b4 6b3d a042 543c
000002a0: 1c0f 0c3d ffe5 173e a4be 21be c923 f13c
000002b0: 9e64 36bd 64df 29be c972 843c 7675 de3d
000002c0: e32a 183e e606 1e3d 0a86 bc3d b4a6 3abc
000002d0: 84ab 7a3c 237c aa3d ee5c 6fbd 5682 ad3d
000002e0: 1e32 193e 1d67 01be 128e 1ebe 8d46 d4bd
000002f0: 4625 cf3b 139e 093e 2efb 273e 6b45 aebb
00000300: 3d87 b2bd 00ed dc3d d499 12be e3cd c83d
00000310: f895 903c 247e 08bd 107d 223d d771 ffbd
00000320: d15b 1f3b 6d97 e53c b873 fc3c 4eb5 cebd
00000330: efce febd 945d 54bd 5a49 38bd 313f efbc
00000340: 0cd2 003e 804e 84bc 9f51 063d 7d23 793c
00000350: e734 b7bd b0b8 07be f847 e4bd d809 25be
00000360: c412 f33d bae4 8b3d 96c8 03bd e83c 553d
00000370: 33ea c83d 4da1 833c aa78 e43c bc5b aaba
00000380: 42ee dbbd 15ba 923d e91d c33c ea4c 7cbc
00000390: 85f4 253d 2115 833c 0f1d 273e 04b7 163e
000003a0: a3d1 eabd ab53 09be 6709 033e b1df e63d
000003b0: e34e e73c 33d8 043e 1bd5 013e 1f70 6ebd
000003c0: 6c2a e6bd 9735 54bd 05b4 0c3d 0aee 55bd
000003d0: 1d36 43bc 70fb 42bd 21b9 f0bd d30a babd
000003e0: 202c 7ebd 27c8 a1bd 2f5a acbd 4658 4ebc
000003f0: 3619 f23d 7222 c43c f57a fd3d 91a2 eb3d

conv_block_3.2.bias f4 [8]
-0.019802565 -0.04272538 -0.15519764 -0.056237806 -0.035601404 0.035201404 -0.006147213 0.1663118
00000000: fd38 a2bc cf00 2fbd 21ec 1ebe 9d59 66bd
00000010: c7d2 11bd 592f 103d 8f6e c9bb a44d 2a3e

conv_block_3.3.weight f4 [8]
1.0003715 0.99957395 1.0003574 1.0002557 0.9998168 0.9996635 1.0003358 0.9998892
00000000: 2c0c 803f 14e4 7f3f b60b 803f 6108 803f
00000010: fef3 7f3f f2e9 7f3f 010b 803f bdf8 7f3f

conv_block_3.3.bias f4 [8]
0.0004035902 -0.00047639146 0.00027339748 -0.00012812759 4.1697647e-05 -0.00031271638 0.00031639088 -0.00029285546
00000000: f698 d339 2ec4 f9b9 ca56 8f39 fd59 06b9
00000010: 82e4 2e38 15f4 a3b9 44e1 a539 658a 99b9

conv_block_3.3.running_mean f4 [8]
0.031175893 0.030308846 -0.22551095 -0.0032680498 -0.091979295 -0.07202349 0.027403051 0.17795679
00000000: 9664 ff3c 424a f83c 58ec 66be c72c 56bb
00000010: a45f bcbd 0d81 93bd 5d7c e03c 4e3a 363e

conv_block_3.3.running_var f4 [8]
0.62251914 0.6315916 0.6440635 0.6227716 0.62872094 0.5657927 0.63698506 0.64064366
00000000: 6a5d 1f3f fdaf 213f 58e1 243f f66d 1f3f
00000010: dbf3 203f cad7 103f 7411 233f 3901 243f

conv_block_3.5.weight f4 [8, 8, 3, 3]
0.1131773 0.07150335 -0.042633597 -0.013265713 0.049973834 -0.01391764 -0.10722651 -0.10828159
-0.012844191 0.038849007 -0.09849917 0.0074095167 -0.051295683 0.100119844 -0.109088056 0.091008484
0.114093825 -0.11360488 -0.06030625 0.10270806 0.0100797005 0.04065805 -0.0064795846 -0.11275507
0.070265874 0.0045183823 0.016084334 0.01346033 -0.032010306 0.049838714 0.014131663 0.046607587
0.060510777 0.039685547 0.028321585 -0.08207986 0.08071927 -0.06834925 -0.025725618 0.0043097455
-0.115646034 -0.06117296 0.005309294 -0.07183159 -0.029212195 -0.089696005 0.07722278 -0.084413044
0.07512495 -0.03970809 0.07802732 0.013205366 0.038701184 0.060347512 0.064114295 -0.016510772
0.06886644 0.066165835 -0.09226166 0.06617495 0.060606007 -0.10785834 -0.1151167 0.008170048
0.0024301948 -0.11266037 0.060502116 0.039220896 -0.077626616 -0.0013055268 -0.10682551 -0.09765394
0.08970477 0.021730643 -0.016586818 -0.030553672 0.10242302 0.093331434 0.08805593 0.022239616
-0.018008718 0.10127894 -0.005405881 -0.10870692 -0.07220797 -0.031237338 -0.11566183 -0.101891585
-0.028321931 0.038424794 0.03299527 -0.0011141589 0.054787993 0.11156188 -0.11368107 0.02395787
0.023932708 0.06549176 -0.029093971 0.018182756 -0.07838315 -0.048016507 -0.056867424 -0.10200515
-0.114070445 0.005028681 0.016391527 0.094454385 -0.08067859 0.046062507 -0.09075862 -0.10821962
0.10740258 -0.003420954 -0.08688265 0.03640173 0.112099625 -0.10450679 0.04578882 -0.020277174
0.06157917 0.075301744 0.036519647 0.11303124 0.09996884 -0.07225124 0.102551095 -0.03879392
-0.0023159476 0.08402964 0.076979846 -0.1073024 -0.09471222 0.06273182 -0.06329071 0.090365306
-0.072170645 -0.03839356 0.027939545 0.06465531 0.02880928 0.06042466 -0.07915724 -0.10557355
0.06861315 0.016752861 0.08129911 -0.07087996 -0.03516396 -0.050788037 0.021171836 -0.042500544
-0.026019618 0.11726944 0.088818856 -0.050116364 -0.093392916 0.09401571 -0.093569465 -0.045051266
-0.11146509 0.110431254 -0.029851405 -0.07188142 -0.11496069 0.07979558 0.05002055 -0.10697003
-0.08877865 0.071378954 0.06505418 0.07324978 0.09705337 0.06814356 0.048221353 0.022023361
0.008492003 -0.045714293 -0.006619793 0.004547197 0.05708221 -0.07397672 -0.031785663 -0.07284207
-0.08775396 -0.06623259 0.0036224688 0.010844203 0.03054918 0.057932414 0.0044842325 0.021125527
-0.070496686 -0.08706778 -0.07463256 -0.034066103 0.07273026 0.036454204 0.04755617 0.09237325
0.033357017 0.0049732574 0.10030511 0.005038694 0.10979886 0.038533393 -0.105468124 -0.040782303
-0.086523525 0.074108824 0.086382456 -0.043687373 0.072796114 0.025133412 0.04773575 0.09092146
0.020517284 0.108185776 -0.10135982 -0.067490816 0.045376614 -0.015326516 -0.036604613 -0.048900843
0.04361463 -0.026734117 -0.078097485 0.0022333253 -0.08526058 -0.027491644 -0.041753385 0.0374621
0.08241076 0.053848956 0.0057375315 -0.082452044 -0.036384456 -0.06022088 -0.08653545 -0.10254658
-0.114194475 0.050943475 -0.10690226 -0.1088113 0.11637184 0.03718667 -0.008449195 0.06706166
0.088131405 0.061287593 -0.094098076 0.042954735 0.11009771 0.033648204 0.08732706 -0.09992224
00000000: 80c9 e73d 5970 923d 91a0 2ebd 6f58 59bc
00000010: 5db1 4c3d d006 64bc 9399 dbbd bdc2 ddbd
00000020: 7170 52bc 2320 1f3d efb9 c9bd 88cb f23b
00000030: 6c1b 52bd a20b cd3d 8f69 dfbd a862 ba3d
00000040: 06aa e93d ada9 e8bd b003 77bd 9a58 d23d
00000050: 5425 253c 0e89 263d b252 d4bb 21ec e6bd
00000060: 8ee7 8f3d f00e 943b 4bc3 833c b788 5c3c
00000070: 3d1d 03bd ae23 4c3d 7e88 673c 99e7 3e3d
00000080: 26da 773d 508d 223d ab02 e83c 7c19 a8bd
00000090: 2550 a53d b1fa 8bbd 88be d2bc c438 8d3b
000000a0: d4d7 ecbd 7f90 7abd 96f9 ad3b 711c 93bd
000000b0: 6a4e efbc 8ab2 b7bd fa26 9e3d bfe0 acbd
000000c0: 1cdb 993d f3a4 22bd cacc 9f3d 525b 583c
000000d0: 2285 1e3d f42e 773d 5b4e 833d 9941 87bc
000000e0: d909 8d3d f481 873d aef3 bcbd bb86 873d
000000f0: 013e 783d d5e4 dcbd 4ec2 ebbd aadb 053c
00000100: e743 1f3b 7bba e6bd 11d1 773d 17a6 203d
00000110: b4fa 9ebd 361e abba 55c7 dabd cafe c7bd
00000120: 22b7 b73d 7604 b23c 14e1 87bc b24b fabc
00000130: 29c3 d13d 8d24 bf3d ab56 b43d db2f b63c
00000140: 0587 93bc 556b cf3d d123 b1bb bca1 debd
00000150: c6e1 93bd 72e5 ffbc 1ce0 ecbd 89ac d0bd
00000160: 6503 e8bc 5163 1d3d 0c26 073d f808 92ba
00000170: 6069 603d 8e7a e43d 9fd1 e8bd 4c43 c43c
00000180: 870e c43c 8b20 863d 7b56 eebc 01f4 943c
00000190: 5887 a0bd f5ac 44bd d1ed 68bd 13e8 d0bd
000001a0: c49d e9bd a2c7 a43b 8647 863c 4d71 c13d
000001b0: d13a a5bd 0aac 3c3d a8df b9bd 40a2 ddbd
000001c0: e2f5 db3d 1632 60bb 88ef b1bd fb19 153d
000001d0: 7d94 e53d a807 d6bd 0f8d 3b3d 511c a6bc
000001e0: 713a 7c3d cd37 9a3d a095 153d ec7c e73d
000001f0: 77bc cc3d 75f8 93bd 4f06 d23d 60e6 1ebd
00000200: 27c7 17bb bb17 ac3d 9ca7 9d3d 5cc1 dbbd
00000210: 7bf8 c1bd 8a79 803d 8f9e 81bd 7211 b93d
00000220: 34ce 93bd 9142 1dbd 79e1 e43c 016a 843d
00000230: 7001 ec3c d97f 773d 311d a2bd f236 d8bd
00000240: 0d85 8c3d 4c3d 893c 2680 a63d 8329 91bd
00000250: 1608 10bd 1e07 50bd 8f70 ad3c 0d15 2ebd
00000260: 1827 d5bc f62a f03d a9e6 b53d d146 4dbd
00000270: c944 bfbd 4f8b c03d 59a1 bfbd ad87 38bd
00000280: cf47 e4bd c829 e23d ef8a f4bc 9136 93bd
00000290: 8370 ebbd dd6b a33d 59e2 4c3d 1a13 dbbd
000002a0: 95d1 b5bd 212f 923d 203b 853d fb03 963d
000002b0: ebc3 c63d da8e 8b3d c183 453d 566a b43c
000002c0: 0b22 0b3c e93e 3bbd d9ea d8bb a700 953b
000002d0: 09cf 693d 1b81 97bd af31 02bd 392e 95bd
000002e0: 59b8 b3bd f4a4 87bd f166 6d3b e2ab 313c
000002f0: 4642 fa3c 8a4a 6d3d 78f0 923b 710f ad3c
00000300: 9160 90bd 9850 b2bd f5d8 98bd e688 0bbd
00000310: 9af3 943d 0151 153d 42ca 423d 302e bd3d
00000320: 5ea1 083d b5f6 a23b c46c cd3d a11b a53b
00000330: 3ade e03d 31d5 1d3d acff d7bd 580b 27bd
00000340: 3f33 b1bd 5ec6 973d 49e9 b03d 88f1 32bd
00000350: 2116 953d 96e4 cd3c 9086 433d 0835 ba3d
00000360: dd13 a83c 8190 dd3d bd95 cfbd a038 8abd
00000370: d4dc 393d 111c 7bbc b8ee 15bd 404c 48bd
00000380: 41a5 323d 8201 dbbc 93f1 9fbd fb5c 123b
00000390: 199d aebd 2836 e1bc 9905 2bbd dc71 193d
000003a0: f9c6 a83d b990 5c3d e701 bc3b 9edc a8bd
000003b0: de07 15bd 2baa 76bd 7f39 b1bd f103 d2bd
000003c0: cbde e9bd 1baa 503d 92ef dabd 75d8 debd
000003d0: 5c54 ee3d 0d51 183d 7e6e 0abc a057 893d
000003e0: 3d7e b43d b308 7b3d 7eb6 c0bd 4ef1 2f3d
000003f0: e87a e13d b3d2 093d 88d8 b23d 08a4 ccbd

conv_block_3.5.bias f4 [8]
0.03590586 0.0477643 0.052931238 0.07930884 0.017694663 0.01024629 -0.09028145 -0.052935578
00000000: 0612 133d 80a4 433d 6dce 583d ac6c a23d
00000010: 66f4 903c 0ee0 273c 7be5 b8bd fad2 58bd

conv_block_4.0.weight f4 [8]
1.000235 1.0001028 0.99980175 1.0000863 0.99985766 1.0000085 0.999801 0.9997944
00000000: b307 803f 5e03 803f 02f3 7f3f d402 803f
00000010: acf6 7f3f 4700 803f f5f2 7f3f 87f2 7f3f

conv_block_4.0.bias f4 [8]
-9.316945e-05 0.00033395083 0.0004043232 -3.2696107e-07 -0.00022923296 0.00021074743 0.00024722458 -0.00012387714
00000000: f863 c3b8 1f16 af39 57fb d339 3089 afb4
00000010: 415e 70b9 15fc 5c39 ec9d 8139 04e5 01b9

conv_block_4.0.running_mean f4 [8]
0.03994891 0.115293734 0.17230123 0.031961996 0.16020824 0.027502652 -0.007927398 0.07137655
00000000: 78a1 233d 1f1f ec3d bc6f 303e 95ea 023d
00000010: a10d 243e 3e4d e13c ebe1 01bc de2d 923d

conv_block_4.0.running_var f4 [8]
0.55544883 0.5836009 0.66989976 0.5486638 0.55536234 0.55253893 0.5558149 0.55645096
00000000: e531 0e3f de66 153f 8d7e 2b3f 3b75 0c3f
00000010: 3a2c 0e3f 3173 0d3f e349 0e3f 9273 0e3f

conv_block_4.2.weight f4 [16, 8, 3, 3]
0.08433133 -0.005106123 0.10457411 -0.01386585 0.089375734 0.012385324 -0.06755993 0.0750184
0.023402704 -0.02089035 0.0067506228 -0.049472228 0.008121689 -0.034698714 -0.07560091 0.0067593544
0.07414509 0.07322656 0.017908067 -0.10281696 -0.0448825 -0.10585774 -0.0017082457 0.01732421
0.03461681 -0.09571644 -0.048827928 0.030194467 0.01112686 0.0625791 -0.018004261 -0.09362608
-0.039243236 0.023002947 -0.10353348 -0.0013813648 -0.09476977 0.111675814 0.10389814 0.07498388
0.019140039 0.08052392 0.042520832 0.01497664 0.07804619 0.02818808 0.019700503 -0.0058968924
0.03064031 0.09724076 -0.07861501 0.09230698 -0.045471087 -0.020427585 -0.02638514 -0.03857396
0.06883129 -0.030744556 -0.06802324 -0.07622737 -0.117681324 -0.043911643 0.031140732 0.027263708
-0.0013083181 -0.0628665 0.059671972 -0.074095935 0.038843237 0.107481055 -0.114570424 -0.10693648
0.02148737 -0.05833095 0.07356593 -0.03241464 -0.026336152 -0.10235969 -0.072448894 -0.07899619
-0.114010945 -0.09097006 0.07368563 0.08925006 -0.016421352 0.109655954 -0.09991469 0.022905987
-0.045830786 0.09004038 0.021177614 0.10777669 -0.04700019 -0.035031453 0.0700239 0.116153285
-0.11699314 -0.050370317 0.056681365 0.099707976 0.021368645 0.0027669964 0.11432741 -0.075493686
0.019804584 -0.04181057 -0.03445303 -0.03897821 -0.045564435 0.08005372 0.015864996 0.10222356
0.11268651 0.1069443 -0.06641734 0.10127918 0.020618007 -0.024277618 -0.053669836 -0.025370425
-0.08849685 -0.086953916 0.07050957 -0.104326084 -0.09805483 -0.101818904 -0.09921233 -0.050900906
-0.111658804 0.090564586 0.10495594 0.01135847 0.04270368 0.0027764787 0.03802881 -0.00023160873
0.01870163 -0.06467185 -0.03650392 0.032261007 0.09566405 -0.00772454 -0.014468604 -0.082894996
-0.074344605 0.08856862 -0.10708776 0.09057853 0.08774213 0.105459705 -0.11286284 -0.06669778
0.09467116 -0.081412554 -0.0037772674 -0.09674828 0.031815246 0.029931022 0.0339665 -0.002378152
0.044825017 -0.069265336 0.07963276 0.08783913 -0.064940125 -0.024573673 0.102207 -0.09533445
0.042327046 0.06528898 0.06155308 -0.03721159 -0.09326961 -0.08583519 0.091912605 0.0790155
-0.08992131 -0.0670861 -0.08552334 0.06498218 0.04073609 -0.0022766823 0.0075566713 -0.07293106
-0.009000071 0.01175861 0.0062078405 -0.024913182 0.016994486 0.013158562 0.034731258 -0.014494122
0.06842582 -0.08821081 -0.05832826 -0.06092815 0.032501217 -0.06772579 0.08434041 0.06767877
0.06429909 -0.0094727855 0.010677307 -0.019259386 0.09435021 -0.10420658 0.08298489 0.048056405
0.04669368 0.06716874 -0.015860543 0.07337217 -0.037798513 -0.07860662 0.0289733 -0.07869977
0.08110441 -0.09487119 0.06046642 0.090481095 -0.07058221 -0.0271181 0.072700016 0.012314411
0.019523505 0.08764031 -0.06313682 0.074596845 0.026142955 -0.07946833 -0.0609196 0.11269936
0.020413304 -0.023838526 -0.10582381 0.056337573 0.027819829 0.03771356 0.03431423 -0.0753831
-0.091461755 0.013888029 -0.030954795 0.023357885 0.048711378 0.098013856 0.04734227 0.036978997
-0.0493501 0.035512917 -0.045448817 -0.08399948 0.0052430676 -0.11165424 -0.091723934 0.08414252
00000000: e8b5 ac3d 4451 a7bb f32a d63d 972d 63bc
00000010: a00a b73d d0eb 4a3c dc5c 8abd 3fa3 993d
00000020: 07b7 bf3c 3d22 abbc 5434 dd3b 64a3 4abd
00000030: d510 053c 3d20 0ebd a6d4 9abd 937d dd3b
00000040: 62d9 973d cff7 953d f0b3 923c b391 d2bd
00000050: b6d6 37bd f1cb d8bd 37e7 dfba 80eb 8d3c
00000060: 5bca 0d3d fb06 c4bd cbff 47bd 635a f73c
00000070: 6f4d 363c 7929 803d ac7d 93bc 08bf bfbd
00000080: 84bd 20bd ad70 bc3c 5c09 d4bd e90e b5ba
00000090: a716 c2bd 4ab6 e43d 8cc8 d43d 2691 993d
000000a0: 92cb 9c3c bae9 a43d 532a 2e3d 9560 753c
000000b0: aed6 9f3d b0ea e63c f362 a13c b83a c1bb
000000c0: 6301 fb3c 2a26 c73d e800 a1bd 710b bd3d
000000d0: e43f 3abd c057 a7bc a625 d8bc bbff 1dbd
000000e0: 6bf7 8c3d 02dc fbbc c54f 8bbd 181d 9cbd
000000f0: e802 f1bd b2dc 33bd d91a ff3c 2458 df3c
00000100: df7b abba 27c0 80bd 996a 743d 9cbf 97bd
00000110: 161a 1f3d 071f dc3d e6a3 eabd 8301 dbbd
00000120: 4806 b03c 6fec 6ebd bca9 963d 37c5 04bd
00000130: eabe d7bc f5a1 d1bd 1660 94bd c1c8 a1bd
00000140: 927e e9bd 834e babd 7ee8 963d bcc8 b63d
00000150: 1286 86bc 4d93 e03d 13a0 ccbd 56a5 bb3c
00000160: 10b9 3bbd 1767 b83d ad7c ad3c 06ba dc3d
00000170: 4583 40bd 247d 0fbd b168 8f3d c6e1 ed3d
00000180: 199a efbd 1b51 4ebd b82a 683d b233 cc3d
00000190: 4c0d af3c 7f56 353b 7d24 ea3d 6f9c 9abd
000001a0: 393d a23c 8f41 2bbd 9f1e 0dbd 9ea7 1fbd
000001b0: c6a1 3abd 34f3 a33d 4ff7 813c 965a d13d
000001c0: 2fc8 e63d 9d05 db3d d005 88bd 756b cf3d
000001d0: 18e7 a83c dbe1 c6bc e7d4 5bbd a3d5 cfbc
000001e0: d63d b5bd e514 b2bd 5267 903d eaa8 d5bd
000001f0: f9d0 c8bd 6e86 d0bd d62f cbbd 787d 50bd
00000200: 5fad e4bd ed79 b93d 24f3 d63d e018 3a3c
00000210: 0eea 2e3d 95f5 353b 19c4 1b3d ffdb 72b9
00000220: 2934 993c ad72 84bd 2285 15bd 1e24 043d
00000230: 83eb c33d 231e fdbb b90d 6dbc dac4 a9bd
00000240: fc41 98bd 7763 b53d d450 dbbd 3d81 b93d
00000250: 25b2 b33d 42fb d73d a224 e7bd d898 88bd
00000260: f4e2 c13d a0bb a6bd 088c 77bb f623 c6bd
00000270: b450 023d e731 f53c 7520 0b3d c5da 1bbb
00000280: 709a 373d fcda 8dbd 8016 a33d 00e5 b33d
00000290: 54ff 84bd ba4e c9bc e751 d13d b53e c3bd
000002a0: 205f 2d3d 3bb6 853d 151f 7c3d 2e6b 18bd
000002b0: 2304 bfbd 5cca afbd ad3c bc3d e1d2 a13d
000002c0: aa28 b8bd 7064 89bd dc26 afbd 6115 853d
000002d0: e3da 263d 6434 15bb f49d f73b e15c 95bd
000002e0: 0975 13bc 2fa7 403c 246b cb3b bb16 ccbc
000002f0: 0538 8b3c 0297 573c 5d42 0e3d c178 6dbc
00000300: d622 8c3d dfa7 b4bd 9de9 6ebd cc8f 79bd
00000310: ff1f 053d d2b3 8abd aaba ac3d 2b9b 8a3d
00000320: 3eaf 833d be33 1bbc dfef 2e3c dcc5 9dbc
00000330: af3a c13d 426a d5bd fbf3 a93d cbd6 443d
00000340: df41 3f3d c48f 893d f8ed 81bc 2644 963d
00000350: 9dd2 1abd 82fc a0bd 6a59 ed3c 582d a1bd
00000360: 121a a63d d44b c2bd a3ab 773d 274e b93d
00000370: 688d 90bd c726 debc bfe3 943d 62c2 493c
00000380: c2ef 9f3c c37c b33d e14d 81bd 3bc6 983d
00000390: c029 d63c 4bc0 a2bd d586 79bd ecce e63d
000003a0: cd39 a73c 0349 c3bc 27ba d8bd 3ac2 663d
000003b0: 69e6 e33c 8979 1a3d 148d 0c3d 7462 9abd
000003c0: 4d50 bbbd 9e8a 633c e994 fdbc 0959 bf3c
000003d0: 9585 473d 7dbb c83d f8e9 413d 4a77 173d
000003e0: 5523 4abd fe75 113d 8a28 3abd eb07 acbd
000003f0: 0ace ab3b faaa e4bd c2d9 bbbd ea52 ac3d

conv_block_4.2.bias f4 [16]
-0.10311687 -0.06678978 -0.016574476 -0.0023634746 0.066997886 -0.03063247 -0.11762174 0.008344008
0.047995698 0.017637214 0.068024546 0.07665463 0.03961946 -0.075288035 -0.115822695 -0.03431061
00000000: f02e d3bd 15c9 88bd 32c7 87bc 86e4 1abb
00000010: 3036 893d f2f0 fabc abe3 f0bd 4eb5 083c
00000020: 2397 443d eb7b 903c 7450 8b3d 1afd 9c3d
00000030: 0448 223d 9d30 9abd 7334 edbd 4889 0cbd

conv_block_4.3.weight f4 [16]
0.99957186 1.0001419 1.0003474 0.9998098 1.0000216 0.99974066 1.0002648 1.0003603
1.0001587 1.0002216 0.99992746 1.0002601 0.9998003 0.99992687 0.9997264 1.0003272
00000000: f1e3 7f3f a604 803f 620b 803f 89f3 7f3f
00000010: b500 803f 01ef 7f3f ad08 803f ce0b 803f
00000020: 3305 803f 4307 803f 3ffb 7f3f 8608 803f
00000030: eaf2 7f3f 35fb 7f3f 12ee 7f3f b90a 803f

conv_block_4.3.bias f4 [16]
-0.00044205153 -0.00038266485 0.00010695165 1.2567929e-05 0.00020965123 -0.00032391373 0.00021640722 0.000117105
0.0001664685 3.592924e-05 -0.0002486094 0.00028842405 0.00018292724 0.00022672059 0.00013014858 0.00026779977
00000000: 27c3 e7b9 68a0 c8b9 3b4b e038 d8da 5237
00000010: d3d5 5b39 f7d2 a9b9 5feb 6239 4596 f538
00000020: 0c8e 2e39 bab2 1638 ca57 82b9 9f37 9739
00000030: 28d0 3f39 d8bb 6d39 7e78 0839 7a67 8c39

conv_block_4.3.running_mean f4 [16]
-0.06318726 -0.04167735 0.019489378 0.11463761 0.085802056 0.09640113 -0.05951752 0.12330872
-0.08395517 0.033653874 0.05014558 -0.057169642 -0.00074100256 -0.011789508 0.0021172352 0.1414429
00000000: 5268 81bd deb5 2abd 30a8 9f3c 20c7 ea3d
00000010: fdb8 af3d f56d c53d a5c8 73bd 4889 fc3d
00000020: b0f0 abbd a5d8 093d 7465 4d3d b72a 6abd
00000030: d73f 42ba c828 41bc 50c1 0a3b 68d6 103e

conv_block_4.3.running_var f4 [16]
0.5949714 0.58371466 0.6098733 0.6089126 0.58901244 0.6322598 0.59531474 0.63485336
0.66512614 0.5886024 0.57939565 0.6086008 0.61245865 0.5778033 0.5805557 0.7071308
00000000: 0c50 183f 536e 153f a820 1c3f b2e1 1b3f
00000010: 85c9 163f c7db 213f 8c66 183f c085 223f
00000020: b545 2a3f a6ae 163f 4653 143f 43cd 1b3f
00000030: 17ca 1c3f ebea 133f 4c9f 143f 8606 353f

conv_block_4.5.weight f4 [16, 16, 3, 3]
-0.030407818 0.004713787 0.027090617 -0.080431804 -0.013645187 -0.048504557 0.03300033 -0.023339804
0.045962766 0.05333557 -0.047292054 0.06643585 0.04718791 0.06981113 -0.06397798 0.038595267
-0.023998162 -0.0008515228 0.0016053708 0.030396938 0.06280532 -0.06533771 -0.08238813 0.030117495
0.04261799 0.014370732 0.01654928 -0.028388798 0.0021469707 0.034786332 -0.033652492 -0.05455606
-0.007325349 0.02721114 -0.0067588273 -0.021319252 -0.026738266 0.010414905 0.039284214 0.075926386
-0.04640063 0.015465818 -0.036533434 0.024038427 0.032112528 -0.009169184 -0.053952456 0.040101677
-0.072017536 0.08172577 0.06930058 0.021067142 -0.059515297 0.02204047 -0.019163651 0.032216437
0.037137784 -0.030997219 -0.045266986 0.014832201 -0.011085922 -0.05168354 0.082914956 0.028179593
-0.043218013 0.02636008 -0.012281615 -0.0080286255 0.046763532 -0.079977326 -0.010239588 -0.06431329
0.007855828 -0.082639866 -0.031640165 -0.015761765 -0.013453251 0.014762827 0.049861364 0.058708925
-0.05623022 -0.013005442 -0.045062717 -0.019660108 0.07377193 0.03017142 0.03699053 -0.026803331
-0.08244438 0.077847265 -0.078369625 -0.010730039 0.053340808 0.0025992338 -0.021262722 0.06622368
-0.077028304 -0.011388262 0.059143808 -0.0038668166 0.0058449265 0.0094032455 -0.0070705316 -0.001150456
-0.017869923 0.04014391 -0.041733786 -0.07125113 -0.02309571 -0.06497775 -0.06491428 0.020941699
-0.061859194 -0.004977748 0.06470746 0.016451739 -0.021201836 -0.050715614 0.012787909 0.0783184
0.054405276 -0.07274063 0.07331866 0.054437313 0.024911186 0.0063333623 0.029975446 -0.049523834
-0.06283809 0.0812511 -0.044125956 -0.0041802037 -0.04340505 -0.07118988 -0.04052016 0.05153844
0.078364916 -0.021000953 -0.03152628 -0.07480406 -0.041421533 -0.046585165 0.00065582857 0.03903825
0.040680483 0.028371582 -0.027461998 0.05632751 0.078253426 -0.045901224 0.055323 -0.018361522
0.022754652 -0.06315241 -0.07214759 0.053046864 -0.023399603 0.06017192 0.030364128 0.036725573
-0.0013203609 0.0045851325 -0.05155038 -0.07551174 0.002951352 0.03140014 -0.033426836 0.0014473747
-0.01630109 0.051659618 -0.033128656 -0.042505257 0.07856435 0.037889857 -0.060396247 -0.0070919157
-0.081766404 0.026728595 -0.0029801414 -0.037675753 -0.067478016 -0.015430813 0.016873168 0.047922302
-0.07799763 0.06399562 0.05946339 -0.032998785 0.08298981 -0.07656705 -0.041657433 -0.025141187
0.031265788 -0.04909273 0.048084214 0.011120372 0.049991548 0.0043781167 -0.0063442634 -0.022128792
0.011574815 -0.01601075 0.069194674 -0.018563662 -0.0040998627 -0.02626714 -0.02737252 0.013619494
0.043268997 -0.05089798 -0.0792726 0.04400263 -0.07505233 -0.039926797 -0.07642584 -0.026085546
-0.014636662 -0.07405057 -0.02382348 0.014384022 0.019824471 -0.066664554 -0.031381104 -0.00030309844
-0.03601559 0.018670764 0.024174811 -0.031679846 -0.01516256 -0.08215974 0.032961756 0.047485046
0.0008364115 -0.061482184 -0.03486473 -0.0796191 -0.008281384 0.016203437 0.017216757 -0.07873009
0.023323875 -0.07218522 0.0029905117 0.020518003 -0.07116548 0.051343642 0.05800117 0.07559689
-0.027616182 0.0023910047 0.061059535 -0.076180436 -0.059252966 -0.07416984 0.028591717 -0.043980364
00000000: d119 f9bc 1d76 9a3b 24ed dd3c 6eb9 a4bd
00000010: 1090 5fbc b7ac 46bd 5b2b 073d 1e33 bfbc
00000020: 7443 3c3d 6676 5a3d 50b5 41bd 850f 883d
00000030: 1c48 413d 23f9 8e3d e306 83bd 1216 1e3d
00000040: cb97 c4bc ba38 5fba 4e6b d23a 0003 f93c
00000050: 13a0 803d c7cf 85bd 1cbb a8bd f7b8 f63c
00000060: 3490 2e3d 3873 6b3c 5b92 873c a08f e8bc
00000070: 31b4 0c3b 1d7c 0e3d 32d7 09bd 2d76 5fbd
00000080: 7b09 f0bb e6e9 de3c 2779 ddbb b6a5 aebc
00000090: 350a dbbc 47a3 2a3c 7ce8 203d 4b7f 9b3d
000000a0: 960e 3ebd 5864 7d3c 15a4 15bd 3cec c43c
000000b0: 6d88 033d 583a 16bc 40fd 5cbd a841 243d
000000c0: ee7d 93bd d75f a73d 76ed 8d3d 0095 ac3c
000000d0: 50c6 73bd 378e b43c 17fd 9cbc 62f5 033d
000000e0: ca1d 183d e1ed fdbc e069 39bd c302 733c
000000f0: baa1 35bc 1fb2 53bd 51cf a93d e4d8 e63c
00000100: 5f05 31bd 18f1 d73c d438 49bc 7f8a 03bc
00000110: 1e8b 3f3d 27cb a3bd f2c3 27bc b0b6 83bd
00000120: bbb5 003c 173f a9bd 1e99 01bd d11e 81bc
00000130: 066b 5cbc c9df 713c 6e3b 4c3d c578 703d
00000140: a951 66bd c714 55bc af93 38bd 3c0e a1bc
00000150: bd15 973d 0e2a f73c 6283 173d a992 dbbc
00000160: 99d8 a8bd 636e 9f3d 4180 a0bd 0ccd 2fbc
00000170: e47b 5a3d e857 2a3b 292f aebc 48a0 873d
00000180: 04c1 9dbd d595 3abc c740 723d 6b6a 7dbb
00000190: cc86 bf3b 1210 1a3c ebaf e7bb e6ca 96ba
000001a0: f263 92bc f16d 243d 0cf1 2abd 1dec 91bd
000001b0: 3733 bdbc 0e13 85bd c7f1 84bd ed8d ab3c
000001c0: 1160 7dbd 601c a3bb 5885 843d ccc5 863c
000001d0: 79af adbc 2dbb 4fbd 6184 513c 6665 a03d
000001e0: 11d8 5e3d 0af9 94bd 1828 963d a9f9 5e3d
000001f0: 8b12 cc3c 1888 cf3b 118f f53c 81d9 4abd
00000200: 42b1 80bd fa66 a63d 6bbd 34bd 17fa 88bb
00000210: 7ec9 31bd 00cc 91bd 78f8 25bd f919 533d
00000220: c97d a03d 310a acbc b321 01bd df32 99bd
00000230: a0a9 29bd 16d0 3ebd e9eb 2b3a 92e6 1f3d
00000240: 94a0 263d 856b e83c fcf7 e0bc adb7 663d
00000250: 5543 a03d ec02 3cbd 5f9a 623d e76a 96bc
00000260: f767 ba3c 0d56 81bd 1ec2 93bd ab47 593d
00000270: 86b0 bfbc d576 763d 31be f83c 8e6d 163d
00000280: f60f adba e13e 963b 7e26 53bd e6a5 9abd
00000290: 786b 413b 6f9d 003d 94ea 08bd d6b5 bd3a
000002a0: dd89 85bc 0999 533d eab1 07bd fe19 2ebd
000002b0: 59e6 a03d 6532 1b3d 0e62 77bd 4d63 e8bb
000002c0: 2575 a7bd edf5 da3c 7a4e 43bb e451 1abd
000002d0: ea31 8abd 85d1 7cbc 9939 8a3c 2d4a 443d
000002e0: 39bd 9fbd 2310 833d e28f 733d bc29 07bd
000002f0: 90f6 a93d 2fcf 9cbd fca0 2abd e4f4 cdbc
00000300: 8e10 003d 7515 49bd f4f3 443d 3932 363c
00000310: f0c3 4c3d 4e76 8f3b 8ae3 cfbb 7147 b5bc
00000320: 4ba4 3d3c fa28 83bc f0b5 8d3d d212 98bc
00000330: 2458 86bb 2f2e d7bc 563c e0bc 4c24 5f3c
00000340: d53a 313d 667a 50bd ac59 a2bd 1a3c 343d
00000350: 09b5 99bd 488a 23bd 2785 9cbd 5bb1 d5bc
00000360: 9cce 6fbc d3a7 97bd 7529 c3bc f6aa 6b3c
00000370: ee66 a23c 6d87 88bd 7989 00bd 2fe9 9eb9
00000380: 1585 13bd 6ef3 983c 410a c63c bac2 01bd
00000390: 636c 78bc 5e43 a8bd e802 073d ae7f 423d
000003a0: a042 5b3a bed4 7bbd 52ce 0ebd 570f a3bd
000003b0: a4ae 07bc 12bd 843c 280a 8d3c 3e3d a1bd
000003c0: b611 bf3c d8d5 93bd 76fc 433b 5f15 a83c
000003d0: 35bf 91bd b64d 523d a392 6d3d 8bd2 9a3d
000003e0: 553b e2bc 67b2 1c3b 9019 7a3d 7d04 9cbd
000003f0: 3db3 72bd 5be6 97bd 2d39 ea3c c124 34bd

conv_block_4.5.bias f4 [16]
-0.01910202 0.075654574 -0.008866513 -0.02888458 -0.056136057 0.015448192 0.0065417276 -0.044212576
-0.007771802 0.083267614 0.03976194 0.02475038 -0.03667696 -0.06663209 -0.028705906 0.05583703
00000000: d77b 9cbc c9f0 9a3d da44 11bc 5b9f ecbc
00000010: ecee 65bd 6a1a 7d3c fd5b d63b 3f18 35bd
00000020: 9aaa febb 3688 aa3d 6add 223d 4fc1 ca3c
00000030: 943a 16bd 6876 88bd a628 ebbc 5fb5 643d

conv_block_5.0.weight f4 [16]
0.999775 0.9999228 0.9999181 0.9997182 1.00039 0.99976975 0.9996591 0.9997331
1.0002646 1.0001222 0.99990594 1.0002025 1.0002905 0.9997958 1.0004076 1.0003755
00000000: 41f1 7f3f f1fa 7f3f a2fa 7f3f 88ed 7f3f
00000010: c80c 803f e9f0 7f3f a9e9 7f3f 82ee 7f3f
00000020: ac08 803f 0104 803f d6f9 7f3f a306 803f
00000030: 8509 803f 9ef2 7f3f 5b0d 803f 4e0c 803f

conv_block_5.0.bias f4 [16]
-0.00017807711 -0.00021884083 7.148192e-05 -0.00053858256 0.0002583239 -0.0003515973 0.0001924087 -0.00018480637
0.00027169217 0.0001536027 -0.0003862299 0.0004151934 -0.0002153802 0.00014991229 -1.8847837e-05 0.0002309733
00000000: 36ba 3ab9 a378 65b9 90e8 9538 aa2f 0dba
00000010: a66f 8739 9756 b8b9 51c1 4939 95c8 41b9
00000020: e871 8e39 6910 2139 e67e cab9 51ae d939
00000030: afd7 61b9 c631 1d39 6c1b 9eb7 6c31 7239

conv_block_5.0.running_mean f4 [16]
0.015733765 -0.038063236 0.17255831 -0.04881529 0.10856462 0.044070493 0.0458485 0.083065435
0.08159225 0.118634775 0.13192497 0.2647058 0.08489503 0.14022233 0.009221846 0.10123572
00000000: 19e4 803c 32e8 1bbd 20b3 303e 8bf2 47bd
00000010: 2157 de3d 4383 343d a3cb 3b3d 361e aa3d
00000020: d619 a73d caf6 f23d 5717 073e 8587 873e
00000030: 72dd ad3d 7196 0f3e 3a17 173c ac54 cf3d

conv_block_5.0.running_var f4 [16]
0.5533459 0.55318457 0.5868387 0.5430405 0.56099546 0.54739624 0.5490933 0.55547076
0.5497344 0.56519365 0.5832563 0.81952024 0.55605143 0.63539153 0.5490735 0.54668486
00000000: 14a8 0d3f 819d 0d3f 103b 163f b404 0b3f
00000010: 669d 0f3f 2922 0c3f 6191 0c3f 5533 0e3f
00000020: 65bb 0c3f 88b0 103f 4950 153f 14cc 513f
00000030: 6359 0e3f 05a9 223f 1590 0c3f 8af3 0b3f

conv_block_5.2.weight f4 [32, 16, 3, 3]
-0.0125065725 -0.07653517 0.021927612 -0.011587359 0.0057255966 -0.03087362 -0.0742465 0.060800146
-0.06922877 0.019932628 -0.056875963 0.066840485 -0.024527946 -0.06582902 -0.01186154 -0.074989244
0.038271535 0.0024101818 -0.06174602 0.041929256 0.03519055 -0.0069245724 -0.030285038 0.06407431
-0.036541384 0.07835007 0.042390946 0.07764131 -0.05665459 0.06968835 -0.051000472 -0.04102129
0.012405296 0.0069356 0.079351135 0.011188567 0.0022747226 -0.044751387 0.04428636 0.07568969
0.032352082 -0.012594665 0.07051511 -0.00039082713 -0.06427484 -0.068960376 0.053442013 0.04913668
-0.012676895 0.017151175 -0.036826096 0.05471237 -0.041711587 -0.031074865 -0.029764015 0.0060313214
-0.03737163 -0.046617962 -0.08033345 -0.032518845 0.08258731 0.044653453 -0.06344023 -0.073487565
-0.026310833 0.04020029 -0.006741788 -0.04730175 0.01665068 -0.073258296 0.073061325 -0.008391294
-0.06748625 -0.08012196 0.027325442 -0.0160381 -0.022021959 0.044352666 0.07002298 0.020711135
0.02316111 -0.04295967 -0.00023684808 0.010146179 -0.07746192 0.01114791 -0.03629213 -0.049501006
0.05428615 -0.04471115 -0.0835744 0.045843367 -0.07410177 -0.06272471 0.06965631 -0.052623104
-0.07140018 -0.0078042448 0.01684643 -0.012848625 0.053493887 0.05833723 0.0719053 -0.06468745
-0.031482313 0.08107253 -0.00066261494 -0.0649337 0.06695724 0.00031235165 -0.0029547 -0.057938553
-0.07745729 -0.006246721 0.074696876 0.005828041 -0.034921534 -0.05183968 -0.074087165 0.010411102
-0.06383945 -0.033316765 -0.040809277 -0.018949913 -0.072747305 -0.054321498 -0.059245467 0.039187975
-0.05573029 0.027837453 0.005111365 -0.079373084 -0.054060165 0.014207846 0.031879827 0.0265441
0.032732606 -0.068802305 -0.038524907 -0.059419986 0.052556705 0.06571379 0.07325905 0.05073694
-0.07815408 -0.028063616 0.06935971 -0.035526987 0.04599841 -0.01819248 0.068585806 0.0015183656
0.060697492 0.00493654 0.055162154 0.07388639 0.034910884 -0.07494677 -0.049019314 -0.06464695
-0.03772558 0.01973035 0.07116186 0.061439767 0.040930204 -0.06359888 0.010179417 -0.031562857
-0.06894352 -0.066700704 -0.04137945 0.046192754 -0.044190556 -0.058878124 -0.029484944 -0.035564445
-0.076760404 -0.0026983637 -0.022416683 -0.08017632 0.0577803 -0.04679101 -0.0354379 0.050365817
0.02825309 0.031735208 0.027191075 -0.015077105 0.03932874 0.009147547 -0.011352554 -0.07090547
0.023044495 0.035472564 0.01146604 0.079130635 0.06481373 -0.080861665 0.032849036 -0.014711001
0.012545657 -0.03474301 -0.008767769 -0.061414674 0.069630176 0.023188397 -0.007321327 0.0039827875
-0.014117374 0.048126183 -0.04850674 0.034054387 -0.007330631 0.00084772566 -0.011017428 -0.0027015442
0.0648965 -0.01801563 0.0014561216 0.043807987 -0.04386564 0.07938276 -0.05000727 0.07714937
0.04430162 0.0293989 0.015768988 0.06917935 -0.0763285 0.07629611 0.010215632 -0.0031650811
0.027206058 -0.047071047 0.0042532403 -0.07233485 0.06275487 -0.018750316 -0.07693177 -0.045098513
0.063159116 0.041532077 -0.0449808 -0.024278339 -0.076785184 0.036865987 0.025252838 0.06377417
-0.03287904 0.05861917 -0.050982237 -0.027049191 -0.02027607 0.048685465 0.06996061 0.044423874
00000000: 5ee8 4cbc 79be 9cbd 89a1 b33c e8d8 3dbc
00000010: c99d bb3b adea fcbc 8d0e 98bd 9309 793d
00000020: d0c7 8dbd c049 a33c c5f6 68bd aae3 883d
00000030: d5ee c8bc 5ed1 86bd e856 42bc f693 99bd
00000040: 9dc2 1c3d 24f4 1d3b 65e9 7cbd 03be 2b3d
00000050: f723 103d 86e7 e2bb 5418 f8bc 6439 833d
00000060: 6bac 15bd 0076 a03d 21a2 2d3d 6802 9f3d
00000070: a50e 68bd c4b8 8e3d dfe5 50bd f105 28bd
00000080: 953f 4b3c 0844 e33b d982 a23d 4050 373c
00000090: 8313 153b 3b4d 37bd 9d65 353d 3203 9b3d
000000a0: 9e83 043d db59 4ebc 3a6a 903d eee7 ccb9
000000b0: 87a2 83bd 193b 8dbd 03e6 5a3d 8b43 493d
000000c0: c0b2 4fbc 9f80 8c3c f6d6 16bd 141a 603d
000000d0: c5d9 2abd b790 febc aad3 f3bc 64a2 c53b
000000e0: ff12 19bd 7af2 3ebd dd85 a4bd 7b32 05bd
000000f0: 8923 a93d 8ae6 363d f4ec 81bd a680 96bd
00000100: d189 d7bc 0fa9 243d 37ea dcbb 7bbf 41bd
00000110: 0267 883c 7208 96bd 2da1 953d a37b 09bc
00000120: 3b36 8abd fb16 a4bd 9bd9 df3c 5562 83bc
00000130: 6567 b4bc 24ab 353d 3568 8f3d 66aa a93c
00000140: 5ebc bd3c 7bf6 2fbd 6c5a 78b9 293c 263c
00000150: 5ba4 9ebd b9a5 363c 0ea7 14bd 91c1 4abd
00000160: 275b 5e3d 0a23 37bd 0e29 abbd 41c6 3b3d
00000170: abc2 97bd d075 80bd f8a7 8e3d 538b 57bd
00000180: 423a 92bd c0ba ffbb 8601 8a3c 0a83 52bc
00000190: 681c 5b3d 05f3 6e3d 1643 933d db7a 84bd
000001a0: 99f3 00bd 5b09 a63d 56b3 2dba f6fb 84bd
000001b0: e120 893d 21c3 a339 a4a3 41bb fa50 6dbd
000001c0: eda1 9ebd 4bb1 ccbb adfa 983d 27f9 be3b
000001d0: e209 0fbd d855 54bd 03bb 97bd 5493 2a3c
000001e0: 42be 82bd 2977 08bd a127 27bd d93c 9bbc
000001f0: 8afc 94bd 3880 5ebd 60ab 72bd 9283 203d
00000200: 7245 64bd 5f0b e43c 3d7d a73b 5b8e a2bd
00000210: 316e 5dbd 06c8 683c 6c94 023d 0373 d93c
00000220: a012 063d 39e8 8cbd 4bcc 1dbd 5f62 73bd
00000230: b345 573d f494 863d d708 963d 8ad1 4f3d
00000240: 3f0f a0bd abe5 e5bc 770c 8e3d bf84 11bd
00000250: d468 3c3d 6508 95bc b776 8c3d e503 c73a
00000260: ef9d 783d b3c2 a13b b6f1 613d bf51 973d
00000270: b7fe 0e3d b17d 99bd 7ac8 48bd 9f65 84bd
00000280: 2386 1abd 8ba1 a13c 4fbd 913d 44a8 7b3d
00000290: 6ea6 273d 2140 82bd 92c7 263c 0e48 01bd
000002a0: 4332 8dbd 619a 88bd 807d 29bd 9d34 3d3d
000002b0: 2801 35bd 302a 71bd 698a f1bc 06ac 11bd
000002c0: 8f34 9dbd 08d7 30bb 31a3 b7bc 7c33 a4bd
000002d0: 09ab 6c3d eea7 3fbd 5527 11bd 634c 4e3d
000002e0: 0673 e73c c7fc 013d d1bf de3c f605 77bc
000002f0: 2c17 213d 98df 153c 1000 3abc e336 91bd
00000300: cfc7 bc3c ae4b 113d 0fdc 3b3c 3e0f a23d
00000310: 10bd 843d cd9a a5bd b68c 063d 6906 71bc
00000320: 4d8c 4d3c b04e 0ebd b0a6 0fbc f48d 7bbd
00000330: 449a 8e3d 98f5 bd3c bee7 efbb 0b82 823b
00000340: 8f4c 67bc f61f 453d 01af 46bd 9d7c 0b3d
00000350: ca35 f0bb e839 5e3a 7182 34bc 640c 31bb
00000360: 75e8 843d 8495 93bc 55db be3a 0170 333d
00000370: 75ac 33bd 6e93 a23d 6cd4 4cbd 7d00 9e3d
00000380: 9e75 353d f6d5 f03c f72d 813c e7ad 8d3d
00000390: 1e52 9cbd 2341 9c3d 775f 273c 406d 4fbb
000003a0: 3ddf de3c 92cd 40bd c45e 8b3b 4b24 94bd
000003b0: a085 803d 439a 99bc 678e 9dbd 38b9 38bd
000003c0: 9159 813d 8a1d 2a3d ca3d 38bd 5ee3 c6bc
000003d0: 8d41 9dbd ca00 173d 0adf ce3c 089c 823d
000003e0: 2cac 06bd a81a 703d c0d2 50bd 4496 ddbc
000003f0: 001a a6bc 696a 473d 8247 8f3d cff5 353d

conv_block_5.2.bias f4 [32]
-0.03569606 0.017603343 0.050017305 0.07404451 0.072395824 0.05061651 0.009672753 -0.0762164
0.016347902 0.0057745706 -0.023577617 0.03955318 0.0754424 0.011041097 0.0025761877 0.01759353
0.06837815 0.055906847 0.08258453 0.06549854 0.0038054842 -0.050492555 0.001504964 0.019327927
0.014031694 0.009358481 -0.012144999 0.058005027 -0.0075272704 0.024452556 0.08229145 0.07706626
00000000: 0836 12bd e334 903c f2de 4c3d a6a4 973d
00000010: 4344 943d 4253 4f3d 777a 1e3c 5817 9cbd
00000020: 09ec 853c 9c38 bd3b d925 c1bc 8402 223d
00000030: 8c81 9a3d b8e5 343c 42d5 283b 4e20 903c
00000040: d809 8c3d 94fe 643d 1422 a93d 1924 863d
00000050: 6e65 793b 48d1 4ebd 3642 c53a 9a55 9e3c
00000060: 31e5 653c 5054 193c d1fb 46bc ae96 6d3d
00000070: 52a7 f6bb ba50 c83c 6b88 a83d ead4 9d3d

conv_block_5.3.weight f4 [32]
1.000081 1.0003506 0.99982053 1.0005176 0.99969476 0.9996677 0.99970716 1.0003501
1.0001332 1.000038 1.0001947 1.0004897 0.9999202 1.0002421 0.9995967 0.9994818
1.0002445 0.9998117 1.0000885 0.99980944 1.0003436 1.0002733 0.9997062 1.0001913
1.0002081 1.0000292 1.0003513 1.0003266 1.0000494 0.99978197 1.0001562 0.99956954
00000000: a702 803f 7d0b 803f 3df4 7f3f f610 803f
00000010: ffeb 7f3f 39ea 7f3f cfec 7f3f 790b 803f
00000020: 5d04 803f 3f01 803f 6106 803f 0c10 803f
00000030: c5fa 7f3f ef07 803f 92e5 7f3f 0ade 7f3f
00000040: 0308 803f a9f3 7f3f e602 803f 83f3 7f3f
00000050: 420b 803f f508 803f bfec 7f3f 4506 803f
00000060: d206 803f f500 803f 830b 803f b40a 803f
00000070: 9e01 803f b6f1 7f3f 1e05 803f cae3 7f3f

conv_block_5.3.bias f4 [32]
0.00037637126 -0.0003238012 -0.00025644974 0.0005644955 -9.424886e-06 0.000103051054 0.00015132892 0.00028009046
0.00014823946 0.00011189271 0.00048118358 0.0003270596 2.559416e-05 2.9146904e-06 -0.0004657986 -0.0005298584
-0.000113624534 1.0786689e-05 0.00046335664 -0.00034653288 0.00014936627 0.00012303489 -0.00043385132 0.00023525709
-0.00027491816 0.00018613238 0.0002775363 -0.00023117058 -0.0003544901 7.655208e-05 0.0002054531 -0.00039500836
00000000: b253 c539 ddc3 a9b9 1a74 86b9 a7fa 133a
00000010: 941f 1eb7 1d1d d838 0cae 1e39 1bd9 9239
00000020: ba70 1b39 f1a7 ea38 5e47 fc39 3279 ab39
00000030: 0ab3 d637 009a 4336 6e36 f4b9 32e6 0aba
00000040: b549 eeb8 7af8 3437 adee f239 dbae b5b9
00000050: 349f 1c39 ed02 0139 8a76 e3b9 58af 7639
00000060: e422 90b9 882c 4339 4b82 9139 6166 72b9
00000070: dbda b9b9 968a a038 e66e 5739 2019 cfb9

conv_block_5.3.running_mean f4 [32]
-0.17784758 -0.03241228 0.17575327 -0.0024425923 0.056728996 0.09211138 -0.072458014 0.11290152
0.049861744 0.05511142 -0.07246664 -0.010574389 0.056356274 0.031289443 -0.02395039 -0.11617339
-0.0006769751 0.21798192 -0.06805706 0.2261522 -0.01224205 -0.07719891 -0.008220062 0.05496964
-0.092743866 -0.111644134 0.135121 -0.00990654 0.13616443 0.118302986 0.15772697 0.04081285
00000000: ad1d 36be bdc2 04bd aaf8 333e e613 20bb
00000010: aa5c 683d e4a4 bc3d de64 94bd ea38 e73d
00000020: d43b 4c3d 83bc 613d 6469 94bd 3440 2dbc
00000030: d6d5 663d 5c29 003d 9c33 c4bc 50ec edbd
00000040: 0877 31ba a736 5f3e 8061 8bbd 7194 673e
00000050: e192 48bc 761a 9ebd 70ad 06bc d827 613d
00000060: 7ff0 bdbd aea5 e4bd 295d 0a3e 0a4f 22bc
00000070: b06e 0b3e d648 f23d 2e83 213e 602b 273d
